compression/autoencoder/float_fallback_quanitzation/models_compressed/model_fan.tflite (tflite, 278056 bytes, 10 tensors)

model/dense_9/MatMul i1 [640, 128] scale=0.024763456 zero_point=0
-0.14858073 -0.5943229 -0.2228711 -0.47050565 -0.024763456 0.54479605 0.024763456 -0.2228711
0.2228711 -0.19810764 0.14858073 0.37145182 0.0 -0.12381728 0.3466884 -0.6190864
-0.074290365 -0.2228711 -0.42097875 0.19810764 0.54479605 -0.074290365 1.0153017 -0.4457422
-0.9410113 0.0 0.19810764 -0.37145182 0.09905382 -0.6190864 -0.5200326 0.49526912
0.19810764 -0.4457422 -0.2228711 -0.24763456 -0.19810764 0.0 -0.3466884 -0.5200326
0.074290365 -0.54479605 0.6686133 -0.37145182 -0.64384985 0.3466884 0.4457422 0.9657748
-0.81719404 0.54479605 -0.12381728 -0.1733442 0.5200326 -0.9657748 0.6190864 -0.24763456
-0.3962153 -0.32192492 0.5943229 0.64384985 -0.19810764 -0.54479605 0.04952691 -0.09905382
0.074290365 -0.3466884 -0.47050565 0.19810764 -0.54479605 -0.74290365 -0.7924306 0.24763456
0.2228711 0.5200326 0.12381728 0.1733442 -0.37145182 -0.1733442 -0.6686133 -0.024763456
0.0 -0.19810764 0.4457422 -0.56955945 -0.04952691 -0.866721 0.6933768 0.3466884
-1.3867536 -0.27239802 0.64384985 -0.04952691 -0.54479605 -0.12381728 0.04952691 0.1733442
-1.0153017 -0.49526912 -0.6686133 -0.27239802 -0.024763456 0.09905382 -0.09905382 -0.37145182
-0.024763456 0.09905382 0.3466884 -0.91624784 -0.1733442 -0.5943229 -0.2228711 -0.27239802
-0.5943229 -0.4457422 -0.866721 0.37145182 -0.74290365 -0.24763456 -0.24763456 0.6190864
-0.04952691 -0.27239802 0.09905382 -0.29716146 -0.49526912 0.5200326 -0.64384985 -0.3466884
-0.074290365 -0.866721 0.024763456 -0.19810764 -0.024763456 0.9657748 0.37145182 0.91624784
0.024763456 -0.09905382 0.29716146 0.09905382 0.29716146 0.47050565 0.19810764 -0.12381728
-0.14858073 -0.27239802 -0.27239802 -0.09905382 0.3962153 -0.1733442 0.8914844 -0.54479605
-0.3466884 -0.2228711 0.54479605 -0.14858073 0.2228711 -0.49526912 -0.56955945 0.81719404
0.24763456 -0.37145182 -0.1733442 0.04952691 0.074290365 -0.04952691 -0.3466884 0.19810764
-0.1733442 -0.74290365 1.2134093 -0.5200326 -0.4457422 0.024763456 -0.09905382 0.04952691
-0.7924306 0.27239802 0.1733442 -0.3466884 0.56955945 -0.24763456 0.3962153 -0.54479605
-0.6190864 -0.3962153 -0.09905382 0.42097875 -0.09905382 -0.024763456 0.1733442 -0.3466884
-0.29716146 -0.24763456 -0.49526912 0.09905382 -0.04952691 -0.7181402 -0.9657748 0.6686133
0.12381728 0.1733442 -0.024763456 -0.14858073 -0.32192492 -0.12381728 -0.24763456 -0.29716146
-0.074290365 -0.3466884 0.56955945 -0.27239802 0.12381728 -0.27239802 0.64384985 -0.24763456
-1.0648286 0.074290365 0.24763456 -0.3466884 -0.74290365 -0.27239802 0.19810764 0.12381728
-0.6933768 -0.4457422 -0.6190864 -0.7181402 0.09905382 0.3962153 -0.14858073 -0.8419575
0.27239802 0.0 0.12381728 -0.81719404 -0.2228711 -0.49526912 -0.5943229 -0.32192492
-0.14858073 0.54479605 -1.0153017 0.09905382 -0.12381728 -0.2228711 -0.19810764 1.0153017
0.37145182 -0.04952691 -0.37145182 -0.49526912 -0.5943229 0.6190864 -0.29716146 -0.24763456
00000000: fae8 f7ed ff16 01f7 09f8 060f 00fb 0ee7
00000010: fdf7 ef08 16fd 29ee da00 08f1 04e7 eb14
00000020: 08ee f7f6 f800 f2eb 03ea 1bf1 e60e 1227
00000030: df16 fbf9 15d9 19f6 f0f3 181a f8ea 02fc
00000040: 03f2 ed08 eae2 e00a 0915 0507 f1f9 e5ff
00000050: 00f8 12e9 fedd 1c0e c8f5 1afe eafb 0207
00000060: d7ec e5f5 ff04 fcf1 ff04 0edb f9e8 f7f5
00000070: e8ee dd0f e2f6 f619 fef5 04f4 ec15 e6f2
00000080: fddd 01f8 ff27 0f25 01fc 0c04 0c13 08fb
00000090: faf5 f5fc 10f9 24ea f2f7 16fa 09ec e921
000000a0: 0af1 f902 03fe f208 f9e2 31eb ee01 fc02
000000b0: e00b 07f2 17f6 10ea e7f0 fc11 fcff 07f2
000000c0: f4f6 ec04 fee3 d91b 0507 fffa f3fb f6f4
000000d0: fdf2 17f5 05f5 1af6 d503 0af2 e2f5 0805
000000e0: e4ee e7e3 0410 fade 0b00 05df f7ec e8f3
000000f0: fa16 d704 fbf7 f829 0ffe f1ec e819 f4f6

model/batch_normalization_8/batchnorm/mul_1 i1 [128, 128] scale=0.0077471226 zero_point=0
-0.05422986 -0.441586 -0.13170108 0.23241368 -0.3021378 -0.038735613 -0.10845972 0.24790792
-0.0077471226 0.015494245 0.046482734 0.0 0.07747123 -0.11620684 -0.1704367 0.10071259
-0.09296547 0.31763202 -0.21691944 -0.40285036 -0.023241367 0.15494245 -0.20142518 -0.03098849
0.12395396 -0.038735613 -0.19367807 0.21691944 0.08521835 -0.015494245 -0.22466655 -0.023241367
-0.18593094 0.07747123 0.38735613 0.069724105 0.08521835 0.05422986 0.0077471226 -0.25565505
-0.0077471226 -0.069724105 0.015494245 -0.023241367 0.11620684 -0.23241368 -0.11620684 -0.14719532
-0.0077471226 0.03098849 -0.11620684 0.19367807 0.14719532 -0.08521835 -0.20917231 -0.06197698
-0.046482734 0.03098849 -0.25565505 -0.023241367 0.09296547 -0.046482734 0.046482734 -0.023241367
0.06197698 -0.038735613 0.03098849 0.07747123 -0.069724105 -0.08521835 0.2401608 0.18593094
-0.16268957 0.023241367 0.16268957 -0.11620684 0.20917231 -0.27889642 0.0077471226 -0.069724105
-0.05422986 -0.09296547 -0.18593094 -0.10071259 -0.10071259 -0.15494245 -0.05422986 -0.27889642
0.14719532 0.03098849 -0.15494245 -0.08521835 0.10071259 -0.07747123 0.24790792 0.06197698
0.038735613 -0.046482734 -0.20142518 0.10071259 -0.0077471226 0.13944821 0.038735613 -0.08521835
0.046482734 0.023241367 0.3021378 -0.27889642 -0.015494245 0.015494245 -0.14719532 0.18593094
-0.24790792 0.20917231 -0.10071259 -0.27114928 0.14719532 -0.10071259 -0.13944821 0.10071259
0.015494245 -0.023241367 -0.10071259 -0.08521835 -0.20917231 0.16268957 0.07747123 0.18593094
-0.17818382 0.06197698 0.0077471226 0.12395396 -0.06197698 0.2401608 -0.11620684 0.10845972
0.16268957 0.05422986 -0.3486205 -0.046482734 0.046482734 0.15494245 0.19367807 0.14719532
0.11620684 -0.03098849 0.26340216 -0.10845972 -0.16268957 0.19367807 0.023241367 0.069724105
-0.05422986 -0.08521835 -0.15494245 -0.05422986 -0.038735613 -0.015494245 -0.10845972 0.1704367
0.03098849 0.015494245 0.15494245 0.31763202 0.1704367 -0.10071259 0.015494245 -0.32537913
-0.26340216 -0.08521835 -0.14719532 -0.17818382 0.13170108 0.12395396 -0.24790792 0.0
0.03098849 -0.07747123 -0.24790792 -0.023241367 0.08521835 -0.18593094 -0.20917231 -0.05422986
0.14719532 -0.49581584 0.09296547 -0.2401608 0.07747123 -0.24790792 -0.0077471226 -0.20917231
0.21691944 0.10071259 0.20142518 -0.0077471226 0.20142518 0.015494245 0.14719532 0.13170108
-0.09296547 0.17818382 -0.5500457 -0.15494245 -0.13944821 0.0 -0.023241367 -0.038735613
0.038735613 0.09296547 -0.023241367 0.10071259 0.10071259 -0.20917231 -0.41834462 0.038735613
-0.015494245 -0.27114928 -0.5113101 0.038735613 0.11620684 0.03098849 -0.13170108 0.12395396
0.22466655 -0.13944821 0.023241367 -0.12395396 0.10845972 0.0 -0.06197698 0.0
0.07747123 -0.12395396 -0.046482734 -0.023241367 -0.15494245 0.0077471226 -0.06197698 -0.08521835
0.015494245 -0.19367807 -0.20142518 -0.20142518 -0.12395396 0.3098849 0.11620684 -0.29439065
0.046482734 0.069724105 0.023241367 -0.39510325 0.023241367 -0.11620684 -0.20142518 0.3098849
00000000: f9c7 ef1e d9fb f220 ff02 0600 0af1 ea0d
00000010: f429 e4cc fd14 e6fc 10fb e71c 0bfe e3fd
00000020: e80a 3209 0b07 01df fff7 02fd 0fe2 f1ed
00000030: ff04 f119 13f5 e5f8 fa04 dffd 0cfa 06fd
00000040: 08fb 040a f7f5 1f18 eb03 15f1 1bdc 01f7
00000050: f9f4 e8f3 f3ec f9dc 1304 ecf5 0df6 2008
00000060: 05fa e60d ff12 05f5 0603 27dc fe02 ed18
00000070: e01b f3dd 13f3 ee0d 02fd f3f5 e515 0a18
00000080: e908 0110 f81f f10e 1507 d3fa 0614 1913
00000090: 0ffc 22f2 eb19 0309 f9f5 ecf9 fbfe f216
000000a0: 0402 1429 16f3 02d6 def5 ede9 1110 e000
000000b0: 04f6 e0fd 0be8 e5f9 13c0 0ce1 0ae0 ffe5
000000c0: 1c0d 1aff 1a02 1311 f417 b9ec ee00 fdfb
000000d0: 050c fd0d 0de5 ca05 fedd be05 0f04 ef10
000000e0: 1dee 03f0 0e00 f800 0af0 fafd ec01 f8f5
000000f0: 02e7 e6e6 f028 0fda 0609 03cd 03f1 e628

model/batch_normalization_7/batchnorm/mul_1 i1 [128, 128] scale=0.0081019625 zero_point=0
-0.15393728 -0.040509813 0.08912159 0.23495692 0.016203925 0.37269026 -0.18634513 0.048611775
-0.08912159 -0.42130205 0.1944471 -0.17014122 0.10532551 -0.03240785 0.23495692 0.15393728
0.03240785 -0.20254907 -0.17014122 0.17824318 0.14583533 0.18634513 -0.1944471 0.0648157
-0.09722355 0.34838438 0.35648635 -0.08912159 -0.13773337 -0.081019625 0.24305888 -0.20254907
0.16203925 0.13773337 0.048611775 -0.17824318 0.13773337 0.25116083 0.2592628 0.20254907
0.20254907 0.016203925 -0.17824318 -0.25116083 0.0 -0.24305888 -0.07291766 0.113427475
0.040509813 -0.25116083 0.048611775 0.07291766 0.09722355 0.14583533 -0.33218047 0.3240785
0.081019625 -0.21065103 -0.13773337 -0.1296314 -0.3240785 -0.0081019625 0.113427475 0.03240785
0.14583533 -0.016203925 0.0081019625 0.113427475 -0.20254907 0.016203925 -0.18634513 0.016203925
0.37269026 -0.016203925 0.17824318 0.29977262 -0.22685495 0.0648157 0.0648157 -0.10532551
-0.0648157 0.17824318 0.0 -0.2592628 0.1944471 0.0081019625 0.03240785 0.0648157
-0.15393728 0.18634513 -0.113427475 -0.15393728 -0.056713738 -0.1296314 -0.1296314 -0.17824318
-0.048611775 -0.024305888 0.22685495 0.21065103 -0.33218047 0.42130205 0.13773337 -0.2592628
0.0 0.0 -0.44560793 -0.59144324 0.17824318 0.50232166 -0.1944471 -0.03240785
0.0648157 -0.26736477 0.0648157 -0.14583533 0.081019625 -0.35648635 0.20254907 0.07291766
-0.15393728 -0.17014122 -0.056713738 0.14583533 -0.28356868 0.040509813 0.23495692 0.3240785
-0.34838438 -0.1944471 0.09722355 0.20254907 -0.08912159 0.1296314 -0.048611775 0.10532551
0.35648635 -0.09722355 -0.07291766 0.16203925 0.08912159 0.056713738 0.30787456 0.29977262
-0.08912159 -0.0081019625 -0.30787456 -0.0081019625 -0.17014122 -0.18634513 -0.29167065 0.09722355
0.016203925 -0.081019625 0.113427475 0.21875298 -0.10532551 0.28356868 -0.13773337 -0.15393728
-0.10532551 0.056713738 0.09722355 -0.25116083 0.2592628 0.1944471 -0.20254907 0.08912159
-0.08912159 0.17824318 -0.31597653 0.113427475 0.17824318 0.016203925 -0.25116083 0.113427475
-0.46181187 0.113427475 -0.03240785 0.12152944 0.13773337 -0.016203925 -0.0648157 -0.1296314
-0.0648157 -0.024305888 0.1944471 0.20254907 -0.13773337 0.26736477 -0.28356868 -0.1296314
-0.08912159 0.056713738 -0.1296314 0.0 -0.16203925 -0.12152944 0.056713738 0.016203925
0.13773337 0.081019625 -0.056713738 -0.17824318 -0.081019625 -0.056713738 -0.12152944 0.03240785
-0.09722355 0.016203925 0.15393728 0.048611775 -0.26736477 0.0 0.113427475 0.081019625
0.13773337 -0.048611775 0.0081019625 0.30787456 0.07291766 -0.1944471 -0.17824318 -0.024305888
-0.09722355 0.14583533 -0.113427475 0.21065103 -0.28356868 0.15393728 0.18634513 0.12152944
-0.07291766 -0.07291766 -0.040509813 0.03240785 0.07291766 -0.24305888 0.056713738 -0.26736477
-0.18634513 -0.0081019625 0.056713738 0.21065103 -0.17824318 -0.113427475 -0.28356868 -0.2592628
-0.081019625 -0.15393728 -0.0081019625 0.18634513 0.12152944 0.20254907 0.17824318 -0.113427475
00000000: edfb 0b1d 022e e906 f5cc 18eb 0dfc 1d13
00000010: 04e7 eb16 1217 e808 f42b 2cf5 eff6 1ee7
00000020: 1411 06ea 111f 2019 1902 eae1 00e2 f70e
00000030: 05e1 0609 0c12 d728 0ae6 eff0 d8ff 0e04
00000040: 12fe 010e e702 e902 2efe 1625 e408 08f3
00000050: f816 00e0 1801 0408 ed17 f2ed f9f0 f0ea
00000060: fafd 1c1a d734 11e0 0000 c9b7 163e e8fc
00000070: 08df 08ee 0ad4 1909 edeb f912 dd05 1d28
00000080: d5e8 0c19 f510 fa0d 2cf4 f714 0b07 2625
00000090: f5ff daff ebe9 dc0c 02f6 0e1b f323 efed
000000a0: f307 0ce1 2018 e70b f516 d90e 1602 e10e
000000b0: c70e fc0f 11fe f8f0 f8fd 1819 ef21 ddf0
000000c0: f507 f000 ecf1 0702 110a f9ea f6f9 f104
000000d0: f402 1306 df00 0e0a 11fa 0126 09e8 eafd
000000e0: f412 f21a dd13 170f f7f7 fb04 09e2 07df
000000f0: e9ff 071a eaf2 dde0 f6ed ff17 0f19 16f2

model/batch_normalization_6/batchnorm/mul_1 i1 [128, 128] scale=0.010209961 zero_point=0
-0.061259765 0.010209961 0.030629883 0.010209961 -0.12251953 -0.08167969 -0.08167969 -0.040839843
0.061259765 0.051049806 0.16335937 -0.09188965 0.061259765 0.10209961 -0.10209961 0.15314941
-0.09188965 -0.051049806 0.2348291 0.0 -0.14293945 0.061259765 -0.030629883 0.12251953
0.08167969 -0.37776855 -0.16335937 -0.010209961 0.020419922 0.09188965 -0.020419922 0.040839843
-0.020419922 0.030629883 -0.13272949 -0.030629883 -0.1837793 -0.14293945 -0.44923827 0.020419922
0.25524902 0.25524902 -0.020419922 -0.061259765 -0.4186084 -0.061259765 -0.051049806 0.020419922
0.020419922 0.09188965 0.08167969 0.020419922 0.10209961 -0.16335937 0.10209961 0.11230957
-0.35734862 -0.19398926 -0.051049806 -0.15314941 0.08167969 -0.22461914 -0.17356934 -0.11230957
0.15314941 0.12251953 -0.1837793 0.09188965 0.26545897 -0.010209961 0.21440917 0.051049806
0.08167969 0.11230957 0.020419922 0.020419922 -0.040839843 0.010209961 0.040839843 -0.071469724
0.040839843 -0.030629883 0.30629882 0.061259765 0.11230957 -0.09188965 -0.010209961 -0.061259765
0.11230957 0.19398926 0.0 0.061259765 -0.051049806 -0.030629883 -0.020419922 0.11230957
-0.21440917 0.020419922 -0.09188965 -0.030629883 0.051049806 -0.14293945 -0.071469724 0.0
-0.19398926 0.071469724 0.010209961 0.15314941 -0.12251953 0.10209961 -0.2348291 -0.051049806
-0.08167969 -0.13272949 0.030629883 -0.071469724 0.030629883 0.030629883 -0.08167969 -0.20419922
-0.061259765 -0.16335937 -0.09188965 -0.11230957 -0.12251953 -0.030629883 0.020419922 -0.061259765
0.27566895 -0.071469724 -0.2348291 -0.20419922 0.53091794 0.051049806 -0.10209961 -0.09188965
0.11230957 -0.6330176 0.14293945 -0.11230957 0.071469724 -0.22461914 -0.32671875 -0.020419922
-0.14293945 0.040839843 -0.030629883 -0.37776855 0.061259765 -0.09188965 -0.051049806 0.030629883
-0.040839843 -0.21440917 0.32671875 -0.22461914 0.08167969 0.15314941 0.040839843 -0.09188965
0.071469724 0.051049806 0.040839843 -0.061259765 -0.051049806 -0.15314941 0.061259765 -0.30629882
0.040839843 -0.30629882 0.051049806 -0.25524902 -0.071469724 0.030629883 -0.051049806 0.3675586
-0.030629883 -0.051049806 0.11230957 0.43902832 0.3369287 0.051049806 0.30629882 0.17356934
0.21440917 -0.10209961 0.50028807 0.11230957 0.37776855 -0.051049806 0.09188965 0.010209961
0.12251953 -0.040839843 -0.22461914 -0.09188965 0.16335937 -0.071469724 0.1837793 -0.19398926
0.0 0.2348291 -0.010209961 -0.061259765 -0.071469724 -0.27566895 -0.1837793 -0.12251953
-0.49007812 -0.20419922 0.051049806 -0.13272949 -0.13272949 0.15314941 0.60238767 0.14293945
-0.09188965 0.21440917 0.12251953 0.040839843 -0.030629883 0.061259765 0.19398926 -0.051049806
-0.20419922 -0.16335937 -0.22461914 -0.09188965 0.19398926 0.020419922 -0.3165088 -0.13272949
-0.20419922 -0.1837793 0.13272949 0.10209961 -0.35734862 0.08167969 -0.22461914 -0.11230957
0.040839843 0.4186084 0.061259765 0.09188965 0.010209961 -0.20419922 -0.40839845 0.030629883
-0.051049806 0.12251953 -0.010209961 -0.071469724 -0.15314941 -0.020419922 -0.16335937 -0.051049806
00000000: fa01 0301 f4f8 f8fc 0605 10f7 060a f60f
00000010: f7fb 1700 f206 fd0c 08db f0ff 0209 fe04
00000020: fe03 f3fd eef2 d402 1919 fefa d7fa fb02
00000030: 0209 0802 0af0 0a0b dded fbf1 08ea eff5
00000040: 0f0c ee09 1aff 1505 080b 0202 fc01 04f9
00000050: 04fd 1e06 0bf7 fffa 0b13 0006 fbfd fe0b
00000060: eb02 f7fd 05f2 f900 ed07 010f f40a e9fb
00000070: f8f3 03f9 0303 f8ec faf0 f7f5 f4fd 02fa
00000080: 1bf9 e9ec 3405 f6f7 0bc2 0ef5 07ea e0fe
00000090: f204 fddb 06f7 fb03 fceb 20ea 080f 04f7
000000a0: 0705 04fa fbf1 06e2 04e2 05e7 f903 fb24
000000b0: fdfb 0b2b 2105 1e11 15f6 310b 25fb 0901
000000c0: 0cfc eaf7 10f9 12ed 0017 fffa f9e5 eef4
000000d0: d0ec 05f3 f30f 3b0e f715 0c04 fd06 13fb
000000e0: ecf0 eaf7 1302 e1f3 ecee 0d0a dd08 eaf5
000000f0: 0429 0609 01ec d803 fb0c fff9 f1fe f0fb

model/batch_normalization_5/batchnorm/mul_1 i1 [128, 8] scale=0.020277662 zero_point=0
0.28388727 -0.30416495 0.40555325 -1.1761044 0.22305429 -0.10138831 -0.50694156 -0.28388727
-0.8313841 0.14194363 -0.22305429 0.8313841 -0.4258309 0.18249896 -0.08111065 -0.48666388
-0.28388727 -0.28388727 0.18249896 -0.6286075 0.020277662 -0.10138831 0.020277662 -1.2774928
-1.1558267 0.020277662 0.28388727 -1.1761044 -0.20277663 -0.1622213 1.1152714 0.93277246
-0.48666388 0.18249896 -0.20277663 0.93277246 0.14194363 0.060832985 -0.10138831 0.34472024
0.24333194 0.040555324 -0.30416495 -0.8313841 -1.9872109 0.26360962 0.040555324 0.3244426
-0.08111065 0.18249896 1.3991587 0.08111065 -0.66916287 -0.08111065 -1.2369374 0.70971817
0.08111065 0.1622213 -0.40555325 -0.1622213 0.28388727 0.08111065 -0.6286075 0.34472024
-0.8111065 0.28388727 0.28388727 0.020277662 -0.7908288 0.8516618 0.54749686 0.14194363
1.0341607 0.1622213 -0.22305429 -0.36499792 -0.020277662 0.3244426 0.7502735 -0.50694156
-0.30416495 0.22305429 -1.3991587 -0.060832985 0.40555325 0.040555324 0.7502735 -0.040555324
-0.08111065 -0.1622213 -0.48666388 0.4258309 0.28388727 0.18249896 -0.6488852 -0.14194363
0.22305429 0.20277663 0.08111065 1.0341607 -1.0341607 -1.2369374 0.36499792 0.50694156
0.040555324 0.060832985 0.48666388 -0.7908288 -0.40555325 0.5880522 -1.2369374 -0.8111065
-0.34472024 0.1622213 0.54749686 0.12166597 0.77055115 -0.1622213 1.2166598 0.6488852
1.2977704 0.4258309 1.378881 0.4258309 -0.1622213 0.38527557 0.46638623 0.77055115
0.0 0.08111065 0.10138831 -0.7502735 -0.6488852 0.22305429 0.9124948 0.8111065
-0.12166597 -0.18249896 0.8111065 -0.18249896 0.7908288 0.40555325 -0.3244426 0.36499792
-1.7641566 -0.12166597 -0.46638623 -0.52721924 0.14194363 -0.20277663 0.54749686 -0.18249896
0.5880522 0.34472024 0.14194363 0.28388727 -0.24333194 -0.54749686 0.7908288 -0.24333194
0.8719395 0.20277663 0.30416495 0.66916287 0.10138831 1.0341607 -1.1152714 -1.2774928
-0.22305429 0.4258309 -0.22305429 -0.66916287 0.52721924 1.6424906 0.36499792 0.1622213
1.4599917 0.4258309 -0.48666388 -0.26360962 -0.08111065 -0.50694156 0.24333194 0.40555325
0.46638623 -0.12166597 0.14194363 -0.38527557 0.08111065 0.5880522 -1.4599917 -0.020277662
-0.20277663 0.22305429 0.10138831 -0.1622213 -0.46638623 -0.89221716 -0.50694156 -0.48666388
0.8719395 -0.22305429 -0.10138831 0.6083299 0.5880522 0.22305429 -0.50694156 0.0
0.1622213 -0.14194363 0.44610858 -0.95305014 0.26360962 0.12166597 0.8313841 0.6286075
-0.8516618 -0.28388727 1.4802693 -0.46638623 -0.10138831 0.46638623 0.8111065 -0.12166597
0.6286075 0.08111065 0.3244426 -0.38527557 0.26360962 -0.3244426 0.10138831 -0.40555325
-1.1761044 -0.12166597 -0.12166597 0.26360962 1.1761044 -0.38527557 0.6083299 -0.48666388
0.12166597 0.040555324 -0.040555324 1.6424906 -0.97332776 0.34472024 -0.24333194 -1.0138831
0.95305014 -0.38527557 0.20277663 0.1622213 -0.6286075 1.257215 -0.77055115 -1.0138831
00000000: 0ef1 14c6 0bfb e7f2 d707 f529 eb09 fce8
00000010: f2f2 09e1 01fb 01c1 c701 0ec6 f6f8 372e
00000020: e809 f62e 0703 fb11 0c02 f1d7 9e0d 0210
00000030: fc09 4504 dffc c323 0408 ecf8 0e04 e111
00000040: d80e 0e01 d92a 1b07 3308 f5ee ff10 25e7
00000050: f10b bbfd 1402 25fe fcf8 e815 0e09 e0f9
00000060: 0b0a 0433 cdc3 1219 0203 18d9 ec1d c3d8
00000070: ef08 1b06 26f8 3c20 4015 4415 f813 1726
00000080: 0004 05db e00b 2d28 faf7 28f7 2714 f012
00000090: a9fa e9e6 07f6 1bf7 1d11 070e f4e5 27f4
000000a0: 2b0a 0f21 0533 c9c1 f515 f5df 1a51 1208
000000b0: 4815 e8f3 fce7 0c14 17fa 07ed 041d b8ff
000000c0: f60b 05f8 e9d4 e7e8 2bf5 fb1e 1d0b e700
000000d0: 08f9 16d1 0d06 291f d6f2 49e9 fb17 28fa
000000e0: 1f04 10ed 0df0 05ec c6fa fa0d 3aed 1ee8
000000f0: 0602 fe51 d011 f4ce 2fed 0a08 e13e dace

model/batch_normalization_4/batchnorm/mul_1 i1 [8, 128] scale=0.0014059868 zero_point=0
-0.037961643 0.04358559 -0.011247895 -0.037961643 -0.012653882 0.011247895 0.056239475 -0.01827783
0.08717118 -0.09701309 -0.015465856 0.009841908 0.06748737 0.009841908 -0.028119737 0.014059869
-0.0042179604 -0.0070299343 0.033743683 -0.021089803 -0.009841908 0.0042179604 -0.0042179604 0.02249579
0.037961643 0.0014059868 0.0042179604 -0.06889336 0.054833487 -0.0014059868 0.0056239474 -0.0534275
-0.016871842 -0.01827783 0.04077362 -0.014059869 -0.03514967 -0.0056239474 -0.019683816 0.008435921
0.0534275 0.037961643 -0.009841908 -0.021089803 0.0014059868 -0.011247895 0.06748737 -0.0070299343
-0.03655566 -0.09138914 0.0323377 -0.03514967 -0.056239475 0.03514967 -0.09841908 -0.04920954
0.0028119737 -0.02249579 -0.0323377 0.10826099 0.07873526 -0.021089803 0.025307763 0.052021515
-0.014059869 -0.0042179604 0.023901775 0.025307763 0.0028119737 0.0323377 0.0042179604 -0.04358559
-0.008435921 -0.0056239474 0.059051447 -0.021089803 -0.0323377 0.0857652 -0.012653882 0.07732928
0.0042179604 -0.030931711 -0.08857717 0.012653882 0.0056239474 0.07170533 0.015465856 0.0323377
0.033743683 -0.012653882 -0.02671375 0.028119737 -0.0056239474 -0.011247895 0.0042179604 -0.08857717
-0.016871842 0.021089803 0.009841908 -0.056239475 0.0323377 -0.029525723 0.014059869 -0.0745173
-0.019683816 -0.03936763 0.009841908 -0.0042179604 -0.008435921 0.0042179604 -0.009841908 0.021089803
-0.054833487 -0.06608138 -0.03514967 -0.05764546 -0.0056239474 -0.09841908 0.04499158 0.008435921
0.023901775 -0.023901775 0.028119737 -0.030931711 0.030931711 0.021089803 -0.012653882 0.05764546
-0.0028119737 0.0070299343 0.011247895 0.04077362 -0.0070299343 -0.023901775 0.04077362 -0.01827783
0.0056239474 0.0042179604 -0.025307763 0.0028119737 0.021089803 0.0028119737 -0.05764546 -0.019683816
-0.0014059868 -0.08154724 0.015465856 -0.0014059868 -0.0070299343 0.0056239474 0.10966697 0.0056239474
-0.009841908 0.0028119737 0.009841908 -0.019683816 0.009841908 -0.014059869 -0.12232085 0.0070299343
-0.0070299343 -0.04499158 -0.02671375 -0.012653882 -0.012653882 -0.0014059868 -0.0056239474 0.0070299343
0.021089803 -0.015465856 -0.021089803 0.0070299343 0.0 -0.0014059868 0.0070299343 0.06748737
-0.012653882 -0.0070299343 -0.0014059868 -0.01827783 -0.0042179604 0.04358559 0.0014059868 -0.01827783
0.061863422 -0.0070299343 0.012653882 0.008435921 -0.0028119737 -0.014059869 0.012653882 -0.042179607
-0.0014059868 -0.07592329 0.014059869 -0.10123105 0.008435921 -0.014059869 0.0028119737 -0.0070299343
-0.008435921 -0.0070299343 0.019683816 -0.019683816 -0.029525723 0.02249579 -0.021089803 0.01827783
-0.0070299343 0.0 0.02249579 0.02671375 -0.04499158 0.037961643 -0.0323377 -0.0028119737
0.0 0.0070299343 0.0014059868 0.008435921 0.0056239474 -0.03514967 -0.04077362 -0.0028119737
0.016871842 0.011247895 -0.023901775 -0.028119737 -0.009841908 -0.014059869 -0.019683816 -0.01827783
-0.009841908 0.0534275 -0.029525723 -0.021089803 0.05764546 -0.0028119737 0.008435921 -0.014059869
0.0070299343 0.0014059868 -0.0056239474 -0.028119737 -0.0014059868 -0.008435921 -0.050615527 -0.08998316
0.015465856 0.015465856 0.021089803 -0.016871842 -0.03936763 0.0 0.0028119737 0.02249579
00000000: e51f f8e5 f708 28f3 3ebb f507 3007 ec0a
00000010: fdfb 18f1 f903 fd10 1b01 03cf 27ff 04da
00000020: f4f3 1df6 e7fc f206 261b f9f1 01f8 30fb
00000030: e6bf 17e7 d819 badd 02f0 e94d 38f1 1225
00000040: f6fd 1112 0217 03e1 fafc 2af1 e93d f737
00000050: 03ea c109 0433 0b17 18f7 ed14 fcf8 03c1
00000060: f40f 07d8 17eb 0acb f2e4 07fd fa03 f90f
00000070: d9d1 e7d7 fcba 2006 11ef 14ea 160f f729
00000080: fe05 081d fbef 1df3 0403 ee02 0f02 d7f2
00000090: ffc6 0bff fb04 4e04 f902 07f2 07f6 a905
000000a0: fbe0 edf7 f7ff fc05 0ff5 f105 00ff 0530
000000b0: f7fb fff3 fd1f 01f3 2cfb 0906 fef6 09e2
000000c0: ffca 0ab8 06f6 02fb fafb 0ef2 eb10 f10d
000000d0: fb00 1013 e01b e9fe 0005 0106 04e7 e3fe
000000e0: 0c08 efec f9f6 f2f3 f926 ebf1 29fe 06f6
000000f0: 0501 fcec fffa dcc0 0b0b 0ff4 e400 0210

model/batch_normalization_3/batchnorm/mul_1 i1 [128, 128] scale=0.07469415 zero_point=0
0.07469415 -0.07469415 0.07469415 0.1493883 -0.1493883 -0.07469415 0.07469415 -0.1493883
0.07469415 0.0 0.0 0.0 0.1493883 0.0 0.0 -0.37347075
-0.1493883 0.0 0.07469415 0.0 0.07469415 0.0 -0.22408244 -0.07469415
-0.1493883 -0.1493883 -0.07469415 0.1493883 0.07469415 -0.2987766 -0.2987766 0.0
0.07469415 -0.07469415 0.07469415 -0.1493883 -0.1493883 -0.22408244 -0.1493883 0.1493883
-0.2987766 0.07469415 -0.07469415 0.07469415 -0.1493883 0.1493883 0.0 -0.07469415
0.1493883 -0.22408244 -0.22408244 0.0 0.07469415 -0.07469415 0.0 -0.1493883
0.1493883 -0.07469415 0.07469415 -0.07469415 0.07469415 -0.22408244 -0.22408244 -0.07469415
0.07469415 0.0 -0.07469415 -0.1493883 0.07469415 0.0 0.07469415 0.07469415
0.1493883 -0.52285904 -0.07469415 0.2987766 0.1493883 -0.22408244 -0.07469415 0.0
0.0 0.37347075 0.0 -0.44816488 -0.37347075 0.07469415 -0.1493883 0.1493883
0.07469415 0.07469415 -0.1493883 0.07469415 0.07469415 -0.07469415 0.07469415 -0.22408244
0.07469415 -0.07469415 0.1493883 0.07469415 0.1493883 -0.07469415 -0.07469415 0.07469415
0.0 -0.1493883 0.1493883 -0.2987766 -0.22408244 -0.07469415 0.1493883 0.22408244
0.0 0.22408244 0.1493883 0.07469415 0.07469415 0.0 0.1493883 0.22408244
-0.22408244 0.07469415 0.2987766 0.2987766 0.0 -0.07469415 0.07469415 0.1493883
-0.07469415 -0.22408244 0.0 0.0 0.07469415 0.07469415 0.0 0.1493883
-0.07469415 0.0 0.0 -0.07469415 -0.2987766 0.0 0.07469415 0.1493883
0.0 -0.44816488 -0.07469415 0.0 0.1493883 -0.07469415 0.0 0.0
-0.07469415 -0.07469415 0.0 -0.07469415 0.07469415 -0.1493883 0.2987766 0.0
-0.07469415 0.0 -0.1493883 -0.1493883 0.0 -0.07469415 -0.44816488 -0.07469415
-0.1493883 0.07469415 -0.1493883 -0.1493883 -0.07469415 0.1493883 0.1493883 0.07469415
0.22408244 0.0 -0.07469415 0.1493883 -0.22408244 0.0 0.1493883 -0.07469415
0.0 0.07469415 -0.07469415 0.1493883 0.0 0.1493883 -0.07469415 -0.07469415
0.1493883 0.07469415 -0.1493883 0.22408244 0.1493883 -0.22408244 0.07469415 -0.07469415
-0.22408244 -0.07469415 0.0 0.2987766 0.1493883 0.37347075 0.52285904 0.22408244
-0.2987766 0.1493883 -0.2987766 0.22408244 -0.22408244 -0.07469415 0.0 0.07469415
0.07469415 0.0 0.07469415 -0.1493883 0.0 0.1493883 -0.37347075 0.07469415
0.07469415 0.22408244 -0.1493883 0.07469415 -0.1493883 0.0 -0.1493883 -0.07469415
-0.37347075 -0.07469415 -0.07469415 -0.22408244 -0.1493883 0.07469415 -0.52285904 0.22408244
0.07469415 -0.07469415 -0.1493883 -0.07469415 0.07469415 -0.22408244 -0.07469415 0.2987766
0.07469415 0.0 -0.1493883 -0.52285904 -0.1493883 0.0 0.1493883 0.0
00000000: 01ff 0102 feff 01fe 0100 0000 0200 00fb
00000010: fe00 0100 0100 fdff fefe ff02 01fc fc00
00000020: 01ff 01fe fefd fe02 fc01 ff01 fe02 00ff
00000030: 02fd fd00 01ff 00fe 02ff 01ff 01fd fdff
00000040: 0100 fffe 0100 0101 02f9 ff04 02fd ff00
00000050: 0005 00fa fb01 fe02 0101 fe01 01ff 01fd
00000060: 01ff 0201 02ff ff01 00fe 02fc fdff 0203
00000070: 0003 0201 0100 0203 fd01 0404 00ff 0102
00000080: fffd 0000 0101 0002 ff00 00ff fc00 0102
00000090: 00fa ff00 02ff 0000 ffff 00ff 01fe 0400
000000a0: ff00 fefe 00ff faff fe01 fefe ff02 0201
000000b0: 0300 ff02 fd00 02ff 0001 ff02 0002 ffff
000000c0: 0201 fe03 02fd 01ff fdff 0004 0205 0703
000000d0: fc02 fc03 fdff 0001 0100 01fe 0002 fb01
000000e0: 0103 fe01 fe00 feff fbff fffd fe01 f903
000000f0: 01ff feff 01fd ff04 0100 fef9 fe00 0200

model/batch_normalization_2/batchnorm/mul_1 i1 [128, 128] scale=0.01620592 zero_point=0
-0.11344144 0.4699717 0.01620592 0.0 -0.11344144 -0.01620592 -0.048617758 0.048617758
0.01620592 -0.06482368 0.0810296 -0.21067695 -0.048617758 0.0 -0.17826512 -0.3403243
0.0810296 -0.30791247 0.097235516 -0.1620592 0.11344144 -0.01620592 -0.0810296 -0.0810296
-0.3241184 0.01620592 0.43755984 -0.06482368 -0.0810296 -0.01620592 -0.27550063 0.11344144
0.22688287 -0.3241184 -0.01620592 -0.12964736 0.11344144 -0.25929472 0.0810296 0.14585328
-0.048617758 -0.1620592 0.01620592 -0.01620592 -0.1620592 0.048617758 0.21067695 -0.1620592
-0.0810296 0.048617758 -0.097235516 -0.12964736 -0.19447103 -0.048617758 -0.01620592 -0.048617758
0.29170656 0.06482368 0.097235516 -0.19447103 0.14585328 -0.0810296 0.048617758 0.14585328
0.2430888 0.29170656 0.45376575 -0.11344144 0.097235516 -0.048617758 0.27550063 0.25929472
0.11344144 -0.19447103 -0.14585328 -0.03241184 -0.11344144 0.0 -0.21067695 0.11344144
-0.03241184 -0.11344144 0.12964736 -0.01620592 0.06482368 -0.0810296 0.11344144 -0.097235516
-0.12964736 -0.03241184 -0.01620592 -0.03241184 0.01620592 0.0 0.14585328 -0.11344144
-0.097235516 0.0810296 -0.01620592 -0.048617758 -0.097235516 0.14585328 -0.405148 -0.6320309
0.2430888 0.0 -0.03241184 0.03241184 -0.03241184 -0.22688287 -0.14585328 -0.01620592
-0.17826512 0.048617758 0.03241184 0.14585328 -0.17826512 -0.03241184 -0.03241184 0.11344144
-0.11344144 -0.01620592 0.21067695 -0.0810296 -0.03241184 -0.06482368 0.01620592 0.12964736
0.01620592 -0.29170656 -0.097235516 -0.048617758 0.048617758 0.12964736 0.17826512 -0.0810296
-0.14585328 0.0810296 0.1620592 0.01620592 0.14585328 -0.01620592 0.048617758 -0.097235516
-0.06482368 -0.17826512 0.11344144 -0.01620592 -0.06482368 -0.21067695 0.03241184 -0.25929472
0.3403243 0.03241184 -0.01620592 -0.01620592 -0.048617758 0.1620592 0.06482368 -0.25929472
0.19447103 0.01620592 -0.7616782 -0.5834131 -0.01620592 0.06482368 -0.01620592 0.17826512
0.19447103 -0.1620592 0.01620592 0.0810296 -0.25929472 -0.06482368 -0.048617758 -0.06482368
0.38894206 0.03241184 -0.0810296 -0.22688287 -0.22688287 0.01620592 0.01620592 -0.097235516
0.11344144 -0.1620592 -0.3403243 0.097235516 -0.03241184 -0.097235516 0.21067695 0.01620592
0.03241184 -0.1620592 -0.17826512 0.06482368 -0.11344144 -0.17826512 -0.06482368 0.06482368
-0.03241184 0.048617758 0.06482368 -0.048617758 0.2430888 0.11344144 -0.2430888 0.048617758
0.27550063 -0.01620592 0.19447103 -0.35653025 -0.03241184 0.03241184 0.097235516 0.11344144
0.0810296 0.3403243 0.17826512 -0.03241184 0.06482368 0.1620592 0.21067695 -0.405148
0.43755984 0.01620592 0.0 0.06482368 -0.27550063 -0.0810296 0.048617758 -0.06482368
0.17826512 0.01620592 0.19447103 0.01620592 -0.14585328 -0.01620592 0.11344144 0.0810296
0.12964736 0.19447103 -0.0810296 0.048617758 -0.01620592 0.1620592 -0.2430888 -0.25929472
-0.21067695 0.06482368 0.22688287 0.19447103 0.22688287 0.22688287 -0.29170656 -0.0810296
00000000: f91d 0100 f9ff fd03 01fc 05f3 fd00 f5eb
00000010: 05ed 06f6 07ff fbfb ec01 1bfc fbff ef07
00000020: 0eec fff8 07f0 0509 fdf6 01ff f603 0df6
00000030: fb03 faf8 f4fd fffd 1204 06f4 09fb 0309
00000040: 0f12 1cf9 06fd 1110 07f4 f7fe f900 f307
00000050: fef9 08ff 04fb 07fa f8fe fffe 0100 09f9
00000060: fa05 fffd fa09 e7d9 0f00 fe02 fef2 f7ff
00000070: f503 0209 f5fe fe07 f9ff 0dfb fefc 0108
00000080: 01ee fafd 0308 0bfb f705 0a01 09ff 03fa
00000090: fcf5 07ff fcf3 02f0 1502 ffff fd0a 04f0
000000a0: 0c01 d1dc ff04 ff0b 0cf6 0105 f0fc fdfc
000000b0: 1802 fbf2 f201 01fa 07f6 eb06 fefa 0d01
000000c0: 02f6 f504 f9f5 fc04 fe03 04fd 0f07 f103
000000d0: 11ff 0cea fe02 0607 0515 0bfe 040a 0de7
000000e0: 1b01 0004 effb 03fc 0b01 0c01 f7ff 0705
000000f0: 080c fb03 ff0a f1f0 f304 0e0c 0e0e eefb

model/batch_normalization_1/batchnorm/mul_1 i1 [128, 128] scale=0.007793509 zero_point=0
0.06234807 -0.07014158 -0.116902635 0.023380527 0.054554563 0.031174036 0.07014158 -0.031174036
-0.015587018 0.0 0.015587018 -0.07793509 -0.038967546 -0.007793509 0.0 0.07014158
0.06234807 0.06234807 -0.12469614 0.07014158 -0.10131562 0.046761055 -0.07014158 0.046761055
-0.031174036 -0.054554563 0.0 0.031174036 0.015587018 0.12469614 -0.12469614 -0.007793509
0.007793509 -0.0857286 0.0 0.046761055 -0.21821825 0.015587018 0.07014158 -0.023380527
0.09352211 0.054554563 -0.07014158 -0.015587018 -0.09352211 0.1714572 0.038967546 -0.09352211
-0.12469614 -0.054554563 0.023380527 -0.0857286 0.007793509 -0.10131562 0.023380527 -0.19483772
-0.023380527 -0.046761055 -0.29615334 -0.038967546 0.007793509 -0.06234807 0.06234807 -0.015587018
-0.07793509 0.046761055 0.109109126 0.038967546 -0.054554563 -0.031174036 0.0 0.0
-0.007793509 -0.015587018 -0.07014158 -0.1792507 -0.07014158 0.09352211 -0.054554563 0.007793509
-0.007793509 0.0857286 -0.14028317 -0.07014158 0.1792507 0.023380527 -0.16366369 -0.07793509
0.007793509 0.023380527 0.031174036 0.12469614 0.07793509 -0.007793509 0.09352211 0.015587018
0.109109126 0.023380527 0.06234807 -0.046761055 -0.09352211 -0.031174036 -0.015587018 -0.16366369
-0.038967546 0.015587018 0.07014158 -0.10131562 -0.1714572 0.007793509 0.1792507 0.1714572
0.109109126 -0.054554563 -0.06234807 0.046761055 0.015587018 -0.007793509 -0.046761055 0.109109126
-0.09352211 -0.054554563 0.13248965 -0.007793509 0.15587018 0.015587018 0.0857286 -0.038967546
-0.10131562 0.18704422 0.031174036 -0.09352211 -0.007793509 -0.07014158 -0.06234807 0.12469614
0.2649793 -0.015587018 0.28835982 -0.13248965 -0.12469614 0.1714572 -0.0857286 0.046761055
-0.09352211 0.32732737 0.07793509 0.3429144 0.19483772 -0.10131562 -0.14807667 -0.16366369
0.18704422 -0.37408844 0.14028317 -0.09352211 -0.72479635 -0.023380527 0.09352211 -0.07014158
-0.038967546 0.1714572 -0.28835982 -0.21821825 -0.16366369 -0.1792507 -0.15587018 0.15587018
-0.031174036 -0.36629492 0.09352211 0.16366369 -0.14807667 0.28056633 0.054554563 0.054554563
0.031174036 -0.18704422 -0.06234807 -0.109109126 -0.06234807 0.10131562 0.22601175 -0.038967546
0.10131562 0.0 -0.031174036 -0.1792507 -0.06234807 0.20263124 -0.10131562 0.24159877
-0.28835982 -0.015587018 0.18704422 -0.038967546 0.007793509 -0.16366369 -0.06234807 0.038967546
-0.007793509 0.14028317 0.3585014 -0.1714572 -0.49099106 0.046761055 -0.32732737 -0.06234807
-0.31174037 -0.1792507 0.28056633 -0.054554563 0.13248965 -0.054554563 0.14807667 0.015587018
0.24159877 -0.24159877 0.1792507 0.0 0.14807667 0.015587018 0.14028317 0.07014158
-0.07014158 0.21821825 0.015587018 -0.21821825 -0.07793509 0.28056633 -0.046761055 0.30394685
0.1792507 -0.24159877 0.1714572 0.038967546 -0.2571858 0.27277282 0.116902635 -0.007793509
-0.023380527 0.29615334 0.7403833 -0.62348074 0.16366369 0.16366369 -0.15587018 0.07014158
-0.857286 0.2649793 -0.31953385 0.046761055 -0.015587018 0.038967546 -0.0857286 -0.0857286
00000000: 08f7 f103 0704 09fc fe00 02f6 fbff 0009
00000010: 0808 f009 f306 f706 fcf9 0004 0210 f0ff
00000020: 01f5 0006 e402 09fd 0c07 f7fe f416 05f4
00000030: f0f9 03f5 01f3 03e7 fdfa dafb 01f8 08fe
00000040: f606 0e05 f9fc 0000 fffe f7e9 f70c f901
00000050: ff0b eef7 1703 ebf6 0103 0410 0aff 0c02
00000060: 0e03 08fa f4fc feeb fb02 09f3 ea01 1716
00000070: 0ef9 f806 02ff fa0e f4f9 11ff 1402 0bfb
00000080: f318 04f4 fff7 f810 22fe 25ef f016 f506
00000090: f42a 0a2c 19f3 edeb 18d0 12f4 a3fd 0cf7
000000a0: fb16 dbe4 ebe9 ec14 fcd1 0c15 ed24 0707
000000b0: 04e8 f8f2 f80d 1dfb 0d00 fce9 f81a f31f
000000c0: dbfe 18fb 01eb f805 ff12 2eea c106 d6f8
000000d0: d8e9 24f9 11f9 1302 1fe1 1700 1302 1209
000000e0: f71c 02e4 f624 fa27 17e1 1605 df23 0fff
000000f0: fd26 5fb0 1515 ec09 9222 d706 fe05 f5f5

model/batch_normalization/batchnorm/mul_1 i1 [128, 640] scale=0.00021388635 zero_point=0
-0.001283318 -0.0008555454 -0.000641659 0.000641659 0.0010694318 0.000641659 -0.000641659 0.0
0.000641659 -0.0008555454 -0.000641659 -0.0019249772 -0.0008555454 -0.0019249772 -0.0021388636 -0.0004277727
0.0 -0.00021388635 -0.0004277727 -0.0014972044 -0.0017110908 -0.001283318 -0.0029944088 -0.0034221816
-0.0010694318 0.0014972044 0.0008555454 -0.0017110908 -0.0017110908 -0.0014972044 -0.00021388635 -0.00021388635
-0.0027805225 -0.0008555454 -0.001283318 -0.0032082952 -0.0019249772 -0.001283318 -0.001283318 -0.001283318
-0.0014972044 -0.000641659 -0.0004277727 0.000641659 -0.0004277727 -0.0004277727 -0.0014972044 -0.000641659
0.00021388635 0.00021388635 -0.00021388635 -0.001283318 -0.0014972044 -0.0004277727 -0.00235275 -0.001283318
-0.0008555454 0.0 -0.0014972044 -0.0017110908 -0.0008555454 -0.000641659 -0.0008555454 -0.0004277727
-0.0004277727 -0.0004277727 0.00021388635 -0.00021388635 -0.001283318 -0.0014972044 -0.0004277727 -0.00235275
-0.000641659 -0.0004277727 -0.0008555454 0.0 -0.0004277727 -0.0008555454 -0.0017110908 -0.0008555454
-0.0021388636 -0.0017110908 -0.0010694318 -0.000641659 -0.00021388635 -0.00021388635 0.0 0.0
0.00021388635 -0.0008555454 -0.000641659 -0.001283318 0.0004277727 -0.00021388635 -0.000641659 0.0
0.0 0.000641659 0.0 0.0004277727 -0.00021388635 -0.00021388635 -0.00021388635 -0.001283318
-0.0004277727 -0.0010694318 -0.0014972044 -0.0008555454 -0.0010694318 -0.00021388635 0.00021388635 0.00021388635
-0.000641659 -0.00021388635 0.0 -0.00021388635 0.0008555454 -0.00021388635 -0.0004277727 0.0
0.00021388635 0.000641659 0.001283318 0.000641659 0.0010694318 0.000641659 0.0008555454 0.000641659
-0.0010694318 -0.0010694318 -0.000641659 0.000641659 0.0010694318 0.0008555454 -0.0004277727 -0.0004277727
0.000641659 -0.0008555454 -0.0008555454 -0.0017110908 -0.000641659 -0.0021388636 -0.0021388636 -0.00021388635
-0.000641659 -0.0004277727 0.0 -0.0014972044 -0.0021388636 -0.0010694318 -0.0029944088 -0.0027805225
-0.001283318 0.0019249772 0.000641659 -0.0014972044 -0.0014972044 -0.001283318 0.0 -0.00021388635
-0.00235275 -0.000641659 -0.0014972044 -0.0034221816 -0.0017110908 -0.0014972044 -0.001283318 -0.0010694318
-0.001283318 -0.000641659 -0.00021388635 0.0004277727 -0.0008555454 -0.000641659 -0.0017110908 -0.000641659
0.00021388635 -0.00021388635 -0.000641659 -0.001283318 -0.0014972044 -0.000641659 -0.0019249772 -0.0017110908
-0.0004277727 -0.00021388635 -0.001283318 -0.0017110908 -0.0008555454 -0.0004277727 -0.000641659 -0.0008555454
0.0004277727 -0.0004277727 -0.00021388635 0.0 -0.001283318 -0.001283318 0.0 -0.0021388636
-0.0004277727 -0.000641659 -0.0008555454 0.0004277727 -0.00021388635 -0.0008555454 -0.0021388636 -0.001283318
-0.0021388636 -0.0017110908 -0.0008555454 -0.000641659 -0.0004277727 -0.000641659 -0.0004277727 0.0
0.00021388635 -0.000641659 -0.000641659 -0.000641659 0.00021388635 0.0 -0.00021388635 -0.0004277727
0.0 0.0 0.0 0.0010694318 -0.000641659 0.0004277727 -0.00021388635 -0.0017110908
-0.0004277727 -0.001283318 -0.0014972044 -0.0008555454 -0.0008555454 -0.000641659 0.0 0.00021388635
-0.0004277727 -0.00021388635 0.00021388635 -0.0004277727 0.0008555454 0.0 -0.00021388635 -0.00021388635
0.000641659 0.000641659 0.001283318 0.0010694318 0.0010694318 0.0004277727 0.000641659 0.000641659
00000000: fafc fd03 0503 fd00 03fc fdf7 fcf7 f6fe
00000010: 00ff fef9 f8fa f2f0 fb07 04f8 f8f9 ffff
00000020: f3fc faf1 f7fa fafa f9fd fe03 fefe f9fd
00000030: 0101 fffa f9fe f5fa fc00 f9f8 fcfd fcfe
00000040: fefe 01ff faf9 fef5 fdfe fc00 fefc f8fc
00000050: f6f8 fbfd ffff 0000 01fc fdfa 02ff fd00
00000060: 0003 0002 ffff fffa fefb f9fc fbff 0101
00000070: fdff 00ff 04ff fe00 0103 0603 0503 0403
00000080: fbfb fd03 0504 fefe 03fc fcf8 fdf6 f6ff
00000090: fdfe 00f9 f6fb f2f3 fa09 03f9 f9fa 00ff
000000a0: f5fd f9f0 f8f9 fafb fafd ff02 fcfd f8fd
000000b0: 01ff fdfa f9fd f7f8 feff faf8 fcfe fdfc
000000c0: 02fe ff00 fafa 00f6 fefd fc02 fffc f6fa
000000d0: f6f8 fcfd fefd fe00 01fd fdfd 0100 fffe
000000e0: 0000 0005 fd02 fff8 fefa f9fc fcfd 0001
000000f0: feff 01fe 0400 ffff 0303 0605 0502 0303
