compression/autoencoder/float_fallback_quanitzation/models_compressed/model_valve.tflite (tflite, 278056 bytes, 10 tensors)

model/dense_9/MatMul i1 [640, 128] scale=0.02196838 zero_point=0
-0.8787352 0.06590514 0.15377866 0.50527275 -0.6590514 0.02196838 -0.6590514 -0.35149407
-0.6151146 -0.15377866 -0.15377866 0.1098419 -0.41739923 -0.6810198 -0.26362056 -0.24165218
-0.5272411 -0.08787352 -0.4393676 -0.59314626 0.26362056 -0.1098419 -0.2196838 -0.06590514
-0.637083 -0.08787352 0.41739923 -0.02196838 0.0 0.26362056 -0.9666087 0.04393676
-0.39543083 -0.15377866 -0.6590514 -0.17574704 -0.39543083 -0.5492095 -1.0544822 -0.3075573
0.13181028 0.04393676 0.28558892 -0.81283003 0.7688933 -0.3075573 0.04393676 -0.59314626
-0.08787352 0.35149407 0.3075573 -0.6810198 0.35149407 -0.41739923 -0.26362056 -0.19771542
-0.1098419 -0.17574704 0.41739923 -0.08787352 -0.7249565 0.06590514 0.02196838 -0.08787352
0.04393676 -0.5272411 0.24165218 -0.4393676 -0.17574704 -0.70298815 0.37346244 -0.15377866
-0.26362056 0.26362056 -0.37346244 -0.3075573 0.02196838 0.8787352 -0.57117784 -0.06590514
0.15377866 -0.19771542 0.13181028 0.24165218 -0.39543083 0.08787352 -0.3295257 -0.5272411
0.28558892 0.37346244 0.83479846 0.24165218 0.46133596 0.28558892 0.0 -0.19771542
0.5492095 0.3295257 -0.37346244 0.0 -0.2196838 0.19771542 -0.06590514 -1.1862925
-0.24165218 -0.1098419 0.17574704 0.06590514 -0.37346244 -0.17574704 -0.79086167 -0.1098419
-0.41739923 0.15377866 0.26362056 -0.48330435 0.46133596 0.37346244 -0.2196838 -1.0544822
-0.26362056 0.2196838 -0.08787352 -0.70298815 0.2196838 0.5272411 -0.06590514 -0.5272411
-0.04393676 -0.13181028 0.15377866 0.94464034 -0.7688933 -0.19771542 -0.6151146 -0.35149407
-0.4393676 -0.46133596 -0.02196838 0.06590514 -0.13181028 -0.39543083 -0.39543083 -0.3075573
-0.6590514 0.3075573 0.15377866 0.06590514 0.08787352 0.3075573 0.0 0.02196838
-0.37346244 0.04393676 0.41739923 -0.08787352 -0.15377866 -0.06590514 -0.5272411 0.02196838
-0.02196838 -0.19771542 -0.17574704 -0.5272411 -0.15377866 -0.15377866 -0.3075573 -0.35149407
0.06590514 -0.13181028 -0.15377866 -0.8787352 0.2196838 -0.15377866 0.39543083 -0.41739923
-0.19771542 0.37346244 0.41739923 -0.28558892 0.4393676 -0.19771542 -0.50527275 -0.3075573
-0.35149407 0.08787352 0.637083 -0.26362056 -0.5492095 -0.37346244 0.02196838 0.0
0.02196838 -0.41739923 -0.46133596 -1.098419 -0.4393676 -0.39543083 0.57117784 -0.1098419
-0.13181028 -0.3075573 -0.02196838 0.0 0.02196838 0.637083 -0.48330435 -0.39543083
0.46133596 -0.13181028 0.3295257 0.35149407 -0.15377866 -0.26362056 -0.26362056 -0.35149407
-0.06590514 0.17574704 1.3400712 0.15377866 -0.06590514 0.35149407 -0.35149407 0.15377866
0.2196838 0.0 -0.48330435 -0.06590514 -0.46133596 0.3075573 -0.08787352 -0.35149407
-0.13181028 0.2196838 0.08787352 0.3075573 -0.13181028 -0.13181028 -0.81283003 0.2196838
-0.13181028 0.04393676 -0.1098419 0.17574704 0.17574704 0.13181028 -0.28558892 -0.81283003
-0.28558892 0.17574704 0.1098419 -0.39543083 0.02196838 0.50527275 -0.06590514 -0.7469249
00000000: d803 0717 e201 e2f0 e4f9 f905 ede1 f4f5
00000010: e8fc ece5 0cfb f6fd e3fc 13ff 000c d402
00000020: eef9 e2f8 eee7 d0f2 0602 0ddb 23f2 02e5
00000030: fc10 0ee1 10ed f4f7 fbf8 13fc df03 01fc
00000040: 02e8 0bec f8e0 11f9 f40c eff2 0128 e6fd
00000050: 07f7 060b ee04 f1e8 0d11 260b 150d 00f7
00000060: 190f ef00 f609 fdca f5fb 0803 eff8 dcfb
00000070: ed07 0cea 1511 f6d0 f40a fce0 0a18 fde8
00000080: fefa 072b ddf7 e4f0 eceb ff03 faee eef2
00000090: e20e 0703 040e 0001 ef02 13fc f9fd e801
000000a0: fff7 f8e8 f9f9 f2f0 03fa f9d8 0af9 12ed
000000b0: f711 13f3 14f7 e9f2 f004 1df4 e7ef 0100
000000c0: 01ed ebce ecee 1afb faf2 ff00 011d eaee
000000d0: 15fa 0f10 f9f4 f4f0 fd08 3d07 fd10 f007
000000e0: 0a00 eafd eb0e fcf0 fa0a 040e fafa db0a
000000f0: fa02 fb08 0806 f3db f308 05ee 0117 fdde

model/batch_normalization_8/batchnorm/mul_1 i1 [128, 128] scale=0.010096332 zero_point=0
-0.20192665 0.020192664 -0.07067432 -0.15144499 0.010096332 0.14134865 0.030288996 0.030288996
0.020192664 -0.15144499 0.020192664 -0.4139496 0.14134865 -0.21202298 0.100963324 0.24231197
-0.33317897 0.07067432 -0.060577992 0.08077066 0.16154131 -0.050481662 -0.11105965 0.58558726
0.4139496 0.100963324 -0.04038533 -0.11105965 -0.16154131 0.15144499 0.050481662 -0.09086699
-0.14134865 -0.13125232 0.030288996 0.020192664 0.07067432 -0.020192664 -0.08077066 0.04038533
0.35337162 0.030288996 -0.13125232 -0.010096332 -0.14134865 -0.050481662 0.14134865 0.07067432
0.31298628 -0.1918303 -0.11105965 -0.14134865 -0.020192664 -0.2524083 0.030288996 -0.121155985
0.16154131 0.0 0.23221564 0.030288996 -0.11105965 -0.060577992 -0.16154131 -0.11105965
-0.121155985 -0.030288996 -0.060577992 0.07067432 -0.2524083 0.16154131 0.11105965 0.030288996
0.04038533 -0.010096332 -0.16154131 -0.121155985 0.0 -0.13125232 0.0 0.08077066
0.04038533 -0.121155985 -0.07067432 0.09086699 0.060577992 -0.100963324 -0.030288996 0.010096332
-0.08077066 -0.16154131 -0.050481662 -0.04038533 -0.20192665 -0.07067432 -0.100963324 0.010096332
0.24231197 -0.020192664 0.11105965 -0.18173398 -0.33317897 -0.2524083 -0.060577992 0.21202298
0.11105965 0.29279363 0.010096332 -0.36346796 0.11105965 0.09086699 -0.121155985 -0.020192664
-0.2524083 -0.04038533 -0.07067432 0.1918303 0.08077066 -0.100963324 -0.11105965 -0.1918303
-0.020192664 -0.08077066 0.18173398 0.1918303 -0.08077066 -0.13125232 -0.04038533 0.030288996
0.18173398 -0.09086699 0.2524083 -0.24231197 0.100963324 -0.17163764 -0.07067432 0.26250464
-0.08077066 -0.050481662 -0.14134865 0.17163764 -0.08077066 0.13125232 0.100963324 0.121155985
0.11105965 -0.2524083 -0.09086699 0.030288996 -0.050481662 -0.1918303 0.0 0.010096332
0.0 -0.13125232 0.010096332 -0.18173398 -0.2826973 0.0 0.30288997 -0.050481662
0.15144499 -0.010096332 0.1918303 -0.020192664 0.100963324 0.2826973 0.0 0.11105965
0.0 -0.030288996 0.11105965 0.09086699 -0.121155985 -0.2826973 -0.020192664 -0.15144499
-0.15144499 -0.121155985 -0.4038533 0.060577992 0.010096332 0.33317897 -0.010096332 -0.050481662
-0.020192664 -0.17163764 0.15144499 -0.010096332 0.030288996 0.010096332 -0.31298628 0.08077066
-0.17163764 0.0 -0.09086699 -0.050481662 -0.060577992 0.16154131 -0.21202298 -0.11105965
0.13125232 -0.010096332 -0.1918303 0.020192664 -0.060577992 -0.13125232 -0.04038533 -0.04038533
0.100963324 -0.1918303 -0.1918303 0.030288996 -0.16154131 0.020192664 -0.060577992 -0.030288996
-0.07067432 0.0 0.08077066 0.04038533 0.17163764 0.09086699 -0.23221564 0.5250093
0.0 -0.1918303 0.4038533 0.100963324 -0.050481662 -0.2221193 -0.15144499 -0.17163764
-0.050481662 0.16154131 0.04038533 0.07067432 0.13125232 0.1918303 0.100963324 -0.07067432
0.0 0.020192664 -0.2524083 -0.11105965 0.030288996 -0.050481662 0.14134865 0.010096332
-0.04038533 -0.08077066 -0.07067432 0.020192664 0.14134865 0.14134865 -0.121155985 -0.23221564
00000000: ec02 f9f1 010e 0303 02f1 02d7 0eeb 0a18
00000010: df07 fa08 10fb f53a 290a fcf5 f00f 05f7
00000020: f2f3 0302 07fe f804 2303 f3ff f2fb 0e07
00000030: 1fed f5f2 fee7 03f4 1000 1703 f5fa f0f5
00000040: f4fd fa07 e710 0b03 04ff f0f4 00f3 0008
00000050: 04f4 f909 06f6 fd01 f8f0 fbfc ecf9 f601
00000060: 18fe 0bee dfe7 fa15 0b1d 01dc 0b09 f4fe
00000070: e7fc f913 08f6 f5ed fef8 1213 f8f3 fc03
00000080: 12f7 19e8 0aef f91a f8fb f211 f80d 0a0c
00000090: 0be7 f703 fbed 0001 00f3 01ee e400 1efb
000000a0: 0fff 13fe 0a1c 000b 00fd 0b09 f4e4 fef1
000000b0: f1f4 d806 0121 fffb feef 0fff 0301 e108
000000c0: ef00 f7fb fa10 ebf5 0dff ed02 faf3 fcfc
000000d0: 0aed ed03 f002 fafd f900 0804 1109 e934
000000e0: 00ed 280a fbea f1ef fb10 0407 0d13 0af9
000000f0: 0002 e7f5 03fb 0e01 fcf8 f902 0e0e f4e9

model/batch_normalization_7/batchnorm/mul_1 i1 [128, 128] scale=0.008470604 zero_point=0
0.28800055 0.1863533 -0.22870632 -0.15247087 -0.06776483 0.32188296 0.23717692 0.06776483
-0.09317665 -0.04235302 0.050823625 0.06776483 0.016941208 -0.28800055 0.33035356 0.15247087
0.11858846 0.016941208 -0.016941208 -0.16941208 -0.05929423 -0.08470604 0.29647115 -0.06776483
0.076235436 -0.016941208 -0.04235302 0.14400028 -0.14400028 0.04235302 0.06776483 0.15247087
0.050823625 -0.21176511 0.008470604 0.16941208 -0.11011785 -0.17788269 -0.025411813 0.12705906
-0.050823625 -0.36423597 0.008470604 -0.14400028 0.08470604 -0.076235436 0.19482389 -0.076235436
-0.08470604 -0.10164725 0.050823625 0.12705906 -0.09317665 -0.076235436 -0.076235436 0.27105933
0.17788269 -0.11858846 0.033882417 0.008470604 0.13552967 -0.14400028 -0.05929423 -0.08470604
0.11858846 0.033882417 -0.09317665 -0.16094148 0.0 -0.11011785 0.016941208 -0.21176511
0.008470604 -0.1863533 -0.11011785 -0.050823625 -0.2541181 0.08470604 -0.11011785 -0.04235302
0.2541181 0.11858846 0.09317665 0.008470604 0.016941208 0.025411813 -0.025411813 0.13552967
0.14400028 -0.21176511 -0.09317665 0.05929423 0.05929423 -0.05929423 -0.16941208 0.008470604
-0.13552967 0.30494174 -0.016941208 0.11011785 -0.08470604 0.21176511 0.12705906 0.19482389
0.06776483 -0.050823625 -0.050823625 0.008470604 0.05929423 0.22870632 0.05929423 -0.13552967
0.29647115 0.033882417 -0.050823625 -0.06776483 0.11858846 0.008470604 0.10164725 -0.15247087
0.17788269 0.016941208 -0.04235302 -0.09317665 0.06776483 -0.05929423 -0.35576537 -0.050823625
-0.008470604 0.2541181 0.05929423 -0.11011785 -0.04235302 0.11011785 -0.14400028 0.13552967
0.16941208 0.05929423 0.04235302 -0.033882417 0.31341237 0.008470604 -0.19482389 -0.2202357
-0.050823625 -0.016941208 -0.033882417 0.2032945 -0.3811772 0.2032945 0.1863533 0.05929423
0.08470604 0.2202357 -0.15247087 -0.08470604 0.06776483 -0.11858846 -0.13552967 0.21176511
0.0 -0.008470604 -0.31341237 -0.09317665 0.008470604 0.10164725 0.050823625 0.05929423
0.11858846 0.11011785 -0.12705906 -0.35576537 0.10164725 0.31341237 0.08470604 -0.19482389
0.15247087 -0.13552967 -0.14400028 -0.16094148 -0.19482389 0.11858846 -0.016941208 -0.19482389
-0.11011785 0.025411813 0.050823625 -0.04235302 -0.016941208 -0.14400028 0.11858846 -0.2032945
0.15247087 -0.36423597 -0.14400028 0.025411813 0.06776483 -0.26258874 0.025411813 -0.16941208
-0.11011785 0.033882417 -0.3981184 -0.008470604 0.050823625 -0.008470604 0.11858846 -0.008470604
0.016941208 0.33035356 -0.26258874 -0.11858846 0.11858846 0.16941208 0.016941208 0.19482389
-0.09317665 0.56753045 0.14400028 0.050823625 0.025411813 0.27952993 0.29647115 0.13552967
0.2541181 0.17788269 -0.016941208 -0.2202357 -0.06776483 0.14400028 0.09317665 0.23717692
0.033882417 -0.42353022 -0.2032945 0.2541181 -0.35576537 -0.28800055 0.09317665 0.025411813
0.016941208 -0.04235302 0.076235436 -0.008470604 0.033882417 0.08470604 -0.11858846 0.14400028
0.025411813 0.025411813 0.04235302 0.2541181 -0.016941208 0.016941208 0.17788269 0.0
00000000: 2216 e5ee f826 1c08 f5fb 0608 02de 2712
00000010: 0e02 feec f9f6 23f8 09fe fb11 ef05 0812
00000020: 06e7 0114 f3eb fd0f fad5 01ef 0af7 17f7
00000030: f6f4 060f f5f7 f720 15f2 0401 10ef f9f6
00000040: 0e04 f5ed 00f3 02e7 01ea f3fa e20a f3fb
00000050: 1e0e 0b01 0203 fd10 11e7 f507 07f9 ec01
00000060: f024 fe0d f619 0f17 08fa fa01 071b 07f0
00000070: 2304 faf8 0e01 0cee 1502 fbf5 08f9 d6fa
00000080: ff1e 07f3 fb0d ef10 1407 05fc 2501 e9e6
00000090: fafe fc18 d318 1607 0a1a eef6 08f2 f019
000000a0: 00ff dbf5 010c 0607 0e0d f1d6 0c25 0ae9
000000b0: 12f0 efed e90e fee9 f303 06fb feef 0ee8
000000c0: 12d5 ef03 08e1 03ec f304 d1ff 06ff 0eff
000000d0: 0227 e1f2 0e14 0217 f543 1106 0321 2310
000000e0: 1e15 fee6 f811 0b1c 04ce e81e d6de 0b03
000000f0: 02fb 09ff 040a f211 0303 051e fe02 1500

model/batch_normalization_6/batchnorm/mul_1 i1 [128, 128] scale=0.007759182 zero_point=0
0.17846118 -0.170702 0.116387725 0.10862854 0.13966528 0.062073454 -0.031036727 0.22501627
-0.24053463 0.031036727 0.031036727 -0.09311018 -0.18622036 0.24829382 0.085351 0.21725708
0.07759182 0.007759182 0.23277545 -0.09311018 -0.062073454 -0.19397955 -0.023277545 -0.10862854
0.05431427 -0.09311018 0.16294281 0.100869365 0.05431427 -0.116387725 0.03879591 -0.256053
0.27157137 0.10862854 0.15518364 0.031036727 -0.023277545 0.26381218 -0.015518364 0.03879591
-0.100869365 -0.015518364 -0.13190609 -0.256053 -0.06983264 0.0 0.015518364 -0.18622036
-0.14742446 -0.007759182 -0.170702 -0.05431427 0.17846118 -0.116387725 0.18622036 0.13190609
0.023277545 0.062073454 0.12414691 0.3103673 -0.20173873 0.031036727 0.3026081 -0.07759182
-0.015518364 0.44227335 0.29484892 -0.09311018 0.256053 0.03879591 0.18622036 -0.062073454
0.031036727 -0.10862854 -0.15518364 -0.17846118 -0.48106927 0.19397955 0.007759182 0.19397955
0.09311018 0.24053463 0.19397955 -0.19397955 -0.03879591 -0.03879591 -0.031036727 0.10862854
-0.22501627 0.341404 0.085351 0.07759182 0.20173873 -0.05431427 -0.24829382 -0.39571828
-0.17846118 -0.16294281 -0.085351 0.16294281 -0.09311018 -0.12414691 0.085351 0.015518364
-0.16294281 0.007759182 -0.09311018 0.17846118 0.27933055 0.19397955 0.19397955 0.062073454
0.015518364 0.426755 0.23277545 -0.062073454 0.04655509 -0.10862854 -0.27157137 -0.116387725
-0.007759182 0.05431427 0.03879591 0.20173873 -0.39571828 -0.116387725 0.031036727 0.21725708
0.16294281 -0.09311018 -0.36468154 -0.100869365 0.04655509 0.116387725 0.04655509 0.023277545
0.05431427 -0.20949791 0.023277545 -0.22501627 0.10862854 -0.13190609 0.116387725 0.100869365
-0.04655509 0.170702 0.085351 -0.007759182 0.031036727 -0.18622036 -0.05431427 0.05431427
0.07759182 -0.10862854 -0.13190609 0.0 0.06983264 0.04655509 0.13966528 0.015518364
0.05431427 -0.12414691 -0.37244073 0.27157137 -0.03879591 0.20949791 0.015518364 -0.023277545
0.03879591 -0.32588562 0.116387725 0.16294281 0.13966528 0.06983264 0.13966528 0.15518364
0.05431427 0.18622036 -0.09311018 -0.13966528 0.062073454 -0.21725708 0.12414691 -0.100869365
-0.20173873 -0.031036727 -0.031036727 0.19397955 -0.22501627 -0.007759182 -0.19397955 0.05431427
0.19397955 0.0 0.24053463 0.023277545 -0.19397955 0.007759182 -0.16294281 0.007759182
-0.15518364 0.015518364 -0.015518364 0.0 0.19397955 -0.45779172 -0.20173873 0.20949791
0.085351 0.07759182 0.023277545 -0.06983264 0.13966528 0.0 0.09311018 0.27157137
-0.085351 0.062073454 -0.10862854 0.031036727 0.023277545 0.21725708 0.14742446 0.007759182
-0.03879591 0.05431427 -0.13966528 -0.031036727 -0.06983264 -0.03879591 -0.031036727 -0.09311018
-0.10862854 0.03879591 0.062073454 0.05431427 -0.22501627 0.05431427 0.27157137 -0.062073454
0.28708974 -0.062073454 0.116387725 0.20949791 0.031036727 -0.116387725 -0.12414691 0.10862854
-0.17846118 0.04655509 0.0 -0.085351 0.23277545 0.05431427 0.17846118 -0.116387725
00000000: 17ea 0f0e 1208 fc1d e104 04f4 e820 0b1c
00000010: 0a01 1ef4 f8e7 fdf2 07f4 150d 07f1 05df
00000020: 230e 1404 fd22 fe05 f3fe efdf f700 02e8
00000030: edff eaf9 17f1 1811 0308 1028 e604 27f6
00000040: fe39 26f4 2105 18f8 04f2 ece9 c219 0119
00000050: 0c1f 19e7 fbfb fc0e e32c 0b0a 1af9 e0cd
00000060: e9eb f515 f4f0 0b02 eb01 f417 2419 1908
00000070: 0237 1ef8 06f2 ddf1 ff07 051a cdf1 041c
00000080: 15f4 d1f3 060f 0603 07e5 03e3 0eef 0f0d
00000090: fa16 0bff 04e8 f907 0af2 ef00 0906 1202
000000a0: 07f0 d023 fb1b 02fd 05d6 0f15 1209 1214
000000b0: 0718 f4ee 08e4 10f3 e6fc fc19 e3ff e707
000000c0: 1900 1f03 e701 eb01 ec02 fe00 19c5 e61b
000000d0: 0b0a 03f7 1200 0c23 f508 f204 031c 1301
000000e0: fb07 eefc f7fb fcf4 f205 0807 e307 23f8
000000f0: 25f8 0f1b 04f1 f00e e906 00f5 1e07 17f1

model/batch_normalization_5/batchnorm/mul_1 i1 [128, 8] scale=0.018595755 zero_point=0
-0.1673618 0.6508514 -1.6550221 0.22314906 -0.6694472 1.0413623 0.5020854 -0.55787265
-0.29753208 0.31612784 0.24174482 -1.0041708 -0.72523445 0.24174482 -0.26034057 1.6550221
0.4091066 -0.5020854 -0.6136599 0.22314906 -0.48348963 0.89259624 0.3719151 0.48348963
-0.39051086 -1.7108095 -0.6694472 -0.14876604 0.59506416 0.18595755 -0.092978776 -0.3347236
-1.5434477 0.55787265 0.6508514 -0.1673618 0.2045533 -0.89259624 0.79961747 1.5992349
0.4091066 0.3719151 0.31612784 -0.6136599 1.0227666 -0.39051086 -1.4876604 0.29753208
-0.9483835 0.89259624 -0.03719151 -0.5392769 -0.31612784 -1.2645113 1.1157453 -0.092978776
-1.1715326 -0.35331935 0.24174482 0.72523445 -0.5764684 -0.07438302 -1.1715326 -1.1529368
0.911192 0.22314906 -0.03719151 -0.07438302 0.13017029 -1.5806391 0.092978776 -0.96697927
-1.748001 0.3719151 -0.1673618 0.14876604 -0.5764684 -0.3719151 0.985575 -0.13017029
-0.2045533 0.35331935 0.6322557 0.055787265 0.092978776 -0.911192 -0.03719151 1.8595755
0.7810217 -0.07438302 0.5392769 0.5020854 0.11157453 -0.9483835 0.8182132 -0.52068114
0.2045533 0.5020854 -0.24174482 0.6694472 1.5434477 -0.42770237 -0.35331935 0.31612784
-0.5392769 -0.59506416 -0.07438302 1.0413623 -0.1673618 0.7810217 0.9483835 -0.092978776
0.0 0.0 0.092978776 -1.4318731 0.24174482 0.29753208 0.6322557 0.6136599
0.2045533 -0.03719151 -0.6322557 0.6508514 -2.0641289 -0.6322557 0.14876604 -0.29753208
0.27893633 1.134341 -0.79961747 -0.42770237 -0.7066387 -1.7108095 0.836809 1.059958
-0.46489388 1.0413623 -0.6322557 0.13017029 -0.03719151 0.4091066 -0.89259624 -0.11157453
0.22314906 0.055787265 0.29753208 1.1901283 -0.72523445 -1.0227666 0.24174482 -0.7066387
0.6322557 -0.14876604 -0.18595755 0.1673618 0.03719151 1.3574901 -1.1715326 -0.1673618
0.3719151 0.0 0.07438302 0.8740005 1.0971496 0.72523445 -0.29753208 0.22314906
0.55787265 -0.55787265 0.4091066 -1.0413623 -0.985575 -0.18595755 -0.55787265 -0.42770237
0.29753208 0.6322557 -0.7066387 0.44629812 0.96697927 0.055787265 -1.8781712 0.14876604
-1.8595755 -0.92978776 0.6694472 0.018595755 -1.0041708 -0.27893633 0.4091066 -0.07438302
0.48348963 -1.7294052 0.03719151 -0.1673618 -0.11157453 0.55787265 0.0 -0.13017029
0.76242596 -0.985575 0.22314906 0.26034057 0.13017029 -0.1673618 0.2045533 0.2045533
0.018595755 -0.14876604 0.0 -1.5248519 -0.14876604 0.39051086 0.092978776 -1.3388944
0.055787265 0.22314906 -1.1157453 0.2045533 -0.52068114 0.6136599 1.4690647 -0.2045533
0.5392769 0.31612784 -1.3760859 0.092978776 -0.018595755 0.59506416 -0.2045533 -0.46489388
0.5020854 0.9483835 1.059958 -0.03719151 -0.27893633 0.3347236 0.4091066 -0.5764684
0.6136599 0.836809 0.29753208 -0.018595755 -0.7810217 -0.14876604 -0.7438302 0.5764684
0.6508514 -0.1673618 -0.018595755 0.26034057 0.59506416 0.7066387 -0.46489388 -1.3017029
00000000: f723 a70c dc38 1be2 f011 0dca d90d f259
00000010: 16e5 df0c e630 141a eba4 dcf8 200a fbee
00000020: ad1e 23f7 0bd0 2b56 1614 11df 37eb b010
00000030: cd30 fee3 efbc 3cfb c1ed 0d27 e1fc c1c2
00000040: 310c fefc 07ab 05cc a214 f708 e1ec 35f9
00000050: f513 2203 05cf fe64 2afc 1d1b 06cd 2ce4
00000060: 0b1b f324 53e9 ed11 e3e0 fc38 f72a 33fb
00000070: 0000 05b3 0d10 2221 0bfe de23 91de 08f0
00000080: 0f3d d5e9 daa4 2d39 e738 de07 fe16 d0fa
00000090: 0c03 1040 d9c9 0dda 22f8 f609 0249 c1f7
000000a0: 1400 042f 3b27 f00c 1ee2 16c8 cbf6 e2e9
000000b0: 1022 da18 3403 9b08 9cce 2401 caf1 16fc
000000c0: 1aa3 02f7 fa1e 00f9 29cb 0c0e 07f7 0b0b
000000d0: 01f8 00ae f815 05b8 030c c40b e421 4ff5
000000e0: 1d11 b605 ff20 f5e7 1b33 39fe f112 16e1
000000f0: 212d 10ff d6f8 d81f 23f7 ff0e 2026 e7ba

model/batch_normalization_4/batchnorm/mul_1 i1 [8, 128] scale=0.0011460353 zero_point=0
0.027504846 0.0057301763 0.029796917 0.06761608 -0.07907643 0.029796917 0.0057301763 -0.06647004
-0.025212776 -0.055009693 0.025212776 0.011460353 0.026358811 0.034381058 -0.07334626 0.027504846
-0.017190529 -0.026358811 0.04125727 0.09855904 -0.02406674 0.061885905 -0.055009693 -0.0068762116
-0.0194826 0.022920705 0.0389652 0.026358811 0.010314317 0.032088988 0.012606388 0.0068762116
0.03667313 -0.027504846 0.0068762116 -0.030942952 -0.012606388 0.020628635 0.092828855 -0.042403303
-0.06532401 0.04584141 -0.027504846 0.029796917 -0.07105419 -0.06647004 0.05386366 0.0011460353
-0.018336564 -0.013752423 0.013752423 0.0194826 -0.012606388 0.034381058 0.08022247 0.09512093
0.034381058 -0.02406674 0.018336564 -0.051571585 -0.08709868 0.0194826 -0.011460353 0.06647004
-0.0057301763 -0.032088988 0.046987444 -0.022920705 -0.10772732 -0.0068762116 -0.042403303 -0.02177467
0.028650882 0.040111236 -0.030942952 -0.04125727 0.076784365 -0.0148984585 -0.06532401 0.018336564
-0.04354934 -0.11345749 -0.040111236 -0.010314317 -0.075638324 0.009168282 -0.081368506 -0.030942952
-0.0194826 0.0022920705 -0.034381058 -0.076784365 -0.0057301763 0.0057301763 -0.035527095 -0.046987444
0.009168282 0.0584478 -0.10199714 0.060739867 -0.02177467 -0.05386366 -0.017190529 0.0034381058
0.0022920705 0.04813348 0.0 -0.030942952 -0.018336564 0.029796917 0.097412996 -0.06990815
-0.055009693 -0.022920705 -0.061885905 -0.028650882 -0.0034381058 -0.0022920705 0.056155726 0.04927952
0.057301763 -0.0584478 0.029796917 0.029796917 -0.044695377 -0.04584141 -0.04813348 0.0011460353
0.0057301763 0.011460353 0.016044494 -0.008022247 -0.010314317 0.03667313 0.0057301763 -0.046987444
-0.05386366 -0.0011460353 0.013752423 0.07105419 0.04125727 -0.004584141 0.020628635 0.06532401
0.0034381058 -0.004584141 0.025212776 0.0 0.0022920705 -0.0022920705 0.018336564 -0.027504846
-0.04354934 0.0 -0.110019386 0.032088988 -0.02406674 0.025212776 0.09397489 -0.017190529
0.0011460353 -0.012606388 -0.03667313 0.028650882 0.02177467 0.010314317 -0.0011460353 -0.022920705
0.0011460353 0.018336564 0.0057301763 0.03323502 0.04927952 0.010314317 -0.020628635 0.0034381058
0.08022247 0.008022247 0.0034381058 0.02406674 -0.010314317 -0.018336564 0.0 0.0
-0.03667313 0.0022920705 0.0057301763 -0.026358811 -0.013752423 0.0034381058 -0.013752423 0.0057301763
-0.040111236 -0.042403303 0.04584141 -0.0022920705 -0.004584141 -0.06761608 -0.008022247 0.105435245
-0.0022920705 0.03667313 0.029796917 0.004584141 0.011460353 -0.0148984585 0.018336564 -0.025212776
0.012606388 -0.012606388 -0.0389652 0.0 0.0148984585 -0.0034381058 -0.0057301763 0.009168282
0.02177467 0.10772732 -0.03667313 -0.011460353 -0.08022247 -0.0057301763 0.004584141 0.0
-0.008022247 -0.02406674 0.02177467 0.016044494 0.0057301763 0.012606388 -0.010314317 -0.040111236
-0.081368506 -0.02406674 -0.029796917 -0.057301763 0.02177467 -0.029796917 -0.016044494 0.037819162
0.011460353 0.013752423 0.029796917 -0.0194826 0.009168282 0.016044494 0.04813348 -0.022920705
0.040111236 0.0148984585 -0.081368506 -0.035527095 -0.0148984585 0.0011460353 -0.008022247 0.026358811
00000000: 1805 1a3b bb1a 05c6 ead0 160a 171e c018
00000010: f1e9 2456 eb36 d0fa ef14 2217 091c 0b06
00000020: 20e8 06e5 f512 51db c728 e81a c2c6 2f01
00000030: f0f4 0c11 f51e 4653 1eeb 10d3 b411 f63a
00000040: fbe4 29ec a2fa dbed 1923 e5dc 43f3 c710
00000050: da9d ddf7 be08 b9e5 ef02 e2bd fb05 e1d7
00000060: 0833 a735 edd1 f103 022a 00e5 f01a 55c3
00000070: d0ec cae7 fdfe 312b 32cd 1a1a d9d8 d601
00000080: 050a 0ef9 f720 05d7 d1ff 0c3e 24fc 1239
00000090: 03fc 1600 02fe 10e8 da00 a01c eb16 52f1
000000a0: 01f5 e019 1309 ffec 0110 051d 2b09 ee03
000000b0: 4607 0315 f7f0 0000 e002 05e9 f403 f405
000000c0: dddb 28fe fcc5 f95c fe20 1a04 0af3 10ea
000000d0: 0bf5 de00 0dfd fb08 135e e0f6 bafb 0400
000000e0: f9eb 130e 050b f7dd b9eb e6ce 13e6 f221
000000f0: 0a0c 1aef 080e 2aec 230d b9e1 f301 f917

model/batch_normalization_3/batchnorm/mul_1 i1 [128, 128] scale=0.062936395 zero_point=0
-0.37761837 0.12587279 0.0 0.062936395 0.062936395 -0.12587279 0.0 0.062936395
-0.12587279 -0.12587279 0.0 0.0 0.062936395 -0.062936395 0.18880919 -0.062936395
0.12587279 -0.12587279 0.062936395 -0.062936395 0.12587279 0.12587279 0.18880919 -0.062936395
0.062936395 0.062936395 0.25174558 0.062936395 -0.12587279 -0.062936395 0.12587279 0.062936395
0.0 -0.062936395 0.0 0.0 -0.31468198 -0.37761837 0.0 0.062936395
0.12587279 0.0 0.18880919 -0.18880919 0.12587279 -0.062936395 0.0 0.062936395
0.0 0.18880919 0.25174558 -0.12587279 -0.062936395 0.0 0.0 0.0
0.0 0.12587279 -0.062936395 -0.12587279 0.062936395 0.062936395 0.18880919 0.0
0.062936395 0.18880919 0.0 -0.12587279 0.0 -0.12587279 -0.062936395 0.062936395
0.12587279 -0.12587279 -0.25174558 -0.18880919 -0.12587279 0.0 0.0 0.0
-0.12587279 0.062936395 0.0 0.12587279 0.0 -0.31468198 -0.25174558 -0.18880919
-0.18880919 -0.12587279 0.0 -0.062936395 0.0 0.062936395 -0.062936395 0.0
0.12587279 0.062936395 0.12587279 -0.062936395 -0.062936395 0.062936395 -0.18880919 -0.12587279
0.062936395 0.0 0.0 -0.18880919 -0.062936395 -0.18880919 0.12587279 0.0
0.18880919 -0.062936395 0.25174558 0.062936395 0.0 0.12587279 -0.062936395 -0.12587279
0.0 -0.25174558 0.0 -0.12587279 0.0 -0.062936395 -0.062936395 0.062936395
0.12587279 -0.062936395 0.0 -0.25174558 -0.31468198 0.12587279 0.31468198 0.062936395
0.0 0.062936395 0.18880919 0.062936395 0.0 -0.062936395 -0.18880919 -0.18880919
0.0 0.25174558 0.062936395 -0.062936395 -0.18880919 0.25174558 0.0 0.12587279
-0.18880919 0.12587279 -0.31468198 0.12587279 0.0 -0.062936395 0.062936395 0.0
0.25174558 -0.062936395 0.0 -0.12587279 0.062936395 0.18880919 -0.18880919 0.062936395
-0.12587279 0.25174558 0.062936395 -0.18880919 -0.12587279 0.18880919 0.062936395 0.25174558
-0.062936395 0.062936395 0.062936395 -0.50349116 0.18880919 0.25174558 -0.062936395 0.0
-0.12587279 0.062936395 0.12587279 -0.25174558 -0.062936395 -0.062936395 -0.062936395 0.18880919
-0.062936395 -0.062936395 -0.12587279 -0.062936395 0.0 -0.062936395 -0.12587279 -0.062936395
-0.062936395 0.062936395 0.0 0.0 0.12587279 -0.12587279 0.0 0.0
-0.12587279 0.062936395 0.062936395 -0.12587279 0.0 -0.12587279 0.12587279 -0.062936395
-0.12587279 -0.37761837 0.0 -0.25174558 -0.12587279 -0.18880919 -0.062936395 0.0
0.0 0.18880919 -0.12587279 0.18880919 -0.062936395 0.0 -0.062936395 -0.18880919
0.062936395 0.0 -0.12587279 0.12587279 0.12587279 -0.062936395 -0.12587279 0.12587279
-0.062936395 -0.18880919 0.12587279 0.18880919 0.0 -0.18880919 -0.18880919 0.18880919
-0.062936395 -0.12587279 0.062936395 -0.062936395 -0.12587279 0.12587279 -0.062936395 0.12587279
00000000: fa02 0001 01fe 0001 fefe 0000 01ff 03ff
00000010: 02fe 01ff 0202 03ff 0101 0401 feff 0201
00000020: 00ff 0000 fbfa 0001 0200 03fd 02ff 0001
00000030: 0003 04fe ff00 0000 0002 fffe 0101 0300
00000040: 0103 00fe 00fe ff01 02fe fcfd fe00 0000
00000050: fe01 0002 00fb fcfd fdfe 00ff 0001 ff00
00000060: 0201 02ff ff01 fdfe 0100 00fd fffd 0200
00000070: 03ff 0401 0002 fffe 00fc 00fe 00ff ff01
00000080: 02ff 00fc fb02 0501 0001 0301 00ff fdfd
00000090: 0004 01ff fd04 0002 fd02 fb02 00ff 0100
000000a0: 04ff 00fe 0103 fd01 fe04 01fd fe03 0104
000000b0: ff01 01f8 0304 ff00 fe01 02fc ffff ff03
000000c0: ffff feff 00ff feff ff01 0000 02fe 0000
000000d0: fe01 01fe 00fe 02ff fefa 00fc fefd ff00
000000e0: 0003 fe03 ff00 fffd 0100 fe02 02ff fe02
000000f0: fffd 0203 00fd fd03 fffe 01ff fe02 ff02

model/batch_normalization_2/batchnorm/mul_1 i1 [128, 128] scale=0.030124748 zero_point=0
0.060249496 0.060249496 0.15062374 0.0 0.24099799 -0.090374246 -0.030124748 -0.12049899
-0.12049899 0.18074849 -0.8133682 0.030124748 0.090374246 -0.21087323 -0.060249496 -0.30124748
-0.030124748 0.18074849 0.21087323 0.030124748 0.12049899 0.12049899 -0.18074849 0.12049899
0.15062374 0.030124748 -0.18074849 0.30124748 0.060249496 0.090374246 0.33137223 0.060249496
-0.12049899 0.0 -0.15062374 0.27112272 0.15062374 -0.060249496 0.0 0.0
0.24099799 -0.12049899 0.060249496 -0.060249496 -0.060249496 0.030124748 -0.090374246 0.15062374
0.15062374 0.18074849 -0.060249496 0.0 -0.21087323 -0.090374246 0.15062374 0.18074849
0.090374246 -0.21087323 0.0 -0.21087323 -0.090374246 0.090374246 0.24099799 0.0
0.060249496 0.33137223 0.24099799 -0.12049899 -0.090374246 -0.030124748 0.24099799 -0.12049899
0.33137223 -0.060249496 -0.30124748 -0.18074849 -0.090374246 -0.090374246 0.21087323 -0.30124748
-0.15062374 -0.15062374 0.0 0.060249496 0.33137223 0.060249496 -0.060249496 -0.060249496
-0.42174646 -0.090374246 0.0 -0.36149698 0.12049899 0.12049899 0.15062374 0.0
-0.60249496 -0.090374246 -0.21087323 -0.12049899 -0.15062374 -0.060249496 0.090374246 -0.66274446
0.24099799 0.0 -0.45187122 -0.15062374 -0.21087323 0.36149698 -0.21087323 0.030124748
0.21087323 0.12049899 -0.21087323 0.060249496 -0.6928692 0.36149698 -0.21087323 -0.15062374
0.12049899 -0.15062374 -0.33137223 0.39162174 -0.12049899 0.30124748 0.0 0.15062374
0.060249496 0.030124748 -0.030124748 0.060249496 -0.060249496 0.18074849 0.12049899 -0.18074849
-0.030124748 0.12049899 0.0 -0.090374246 0.12049899 0.12049899 0.090374246 0.060249496
-0.030124748 0.18074849 -0.030124748 0.060249496 0.0 -0.090374246 0.030124748 0.030124748
0.060249496 0.030124748 0.18074849 -0.18074849 0.12049899 -0.090374246 -0.030124748 0.12049899
0.030124748 0.060249496 0.12049899 0.060249496 -0.030124748 0.0 0.060249496 0.060249496
-0.030124748 -0.060249496 0.0 0.12049899 0.18074849 0.18074849 0.21087323 -0.030124748
0.060249496 -0.030124748 0.030124748 -0.12049899 -0.12049899 0.30124748 0.0 0.15062374
0.0 -0.090374246 -0.15062374 -0.060249496 0.090374246 0.0 0.18074849 -0.060249496
-0.15062374 -0.030124748 0.0 0.18074849 0.090374246 -0.060249496 0.060249496 0.0
0.15062374 -0.15062374 -0.060249496 -0.030124748 0.12049899 0.060249496 -0.060249496 0.030124748
0.12049899 -0.030124748 0.090374246 0.15062374 -0.090374246 -0.090374246 0.060249496 -0.090374246
-0.030124748 0.090374246 0.0 0.0 -0.090374246 0.060249496 -0.090374246 0.0
-0.090374246 -0.24099799 0.090374246 0.030124748 0.0 0.030124748 -0.030124748 0.0
0.21087323 0.090374246 0.060249496 -0.060249496 0.0 0.030124748 -0.15062374 0.060249496
-0.24099799 0.15062374 0.090374246 0.030124748 0.090374246 0.42174646 0.0 0.21087323
0.030124748 0.060249496 -0.090374246 0.030124748 -0.12049899 -0.060249496 -0.060249496 0.090374246
00000000: 0202 0500 08fd fffc fc06 e501 03f9 fef6
00000010: ff06 0701 0404 fa04 0501 fa0a 0203 0b02
00000020: fc00 fb09 05fe 0000 08fc 02fe fe01 fd05
00000030: 0506 fe00 f9fd 0506 03f9 00f9 fd03 0800
00000040: 020b 08fc fdff 08fc 0bfe f6fa fdfd 07f6
00000050: fbfb 0002 0b02 fefe f2fd 00f4 0404 0500
00000060: ecfd f9fc fbfe 03ea 0800 f1fb f90c f901
00000070: 0704 f902 e90c f9fb 04fb f50d fc0a 0005
00000080: 0201 ff02 fe06 04fa ff04 00fd 0404 0302
00000090: ff06 ff02 00fd 0101 0201 06fa 04fd ff04
000000a0: 0102 0402 ff00 0202 fffe 0004 0606 07ff
000000b0: 02ff 01fc fc0a 0005 00fd fbfe 0300 06fe
000000c0: fbff 0006 03fe 0200 05fb feff 0402 fe01
000000d0: 04ff 0305 fdfd 02fd ff03 0000 fd02 fd00
000000e0: fdf8 0301 0001 ff00 0703 02fe 0001 fb02
000000f0: f805 0301 030e 0007 0102 fd01 fcfe fe03

model/batch_normalization_1/batchnorm/mul_1 i1 [128, 128] scale=0.009172769 zero_point=0
0.06420939 -0.14676431 -0.009172769 0.100900464 -0.100900464 -0.036691077 0.06420939 0.19262816
-0.055036616 0.22931923 -0.20180093 -0.045863844 -0.045863844 -0.12841877 0.0 0.19262816
0.08255492 0.027518308 -0.32104692 0.16510984 0.12841877 -0.06420939 0.09172769 -0.17428261
-0.036691077 0.045863844 -0.31187415 -0.14676431 -0.055036616 0.08255492 0.238492 -0.100900464
-0.13759154 0.12841877 0.0 0.119246 0.036691077 0.22014646 -0.14676431 -0.31187415
-0.055036616 0.2660103 -0.25683755 0.018345539 -0.018345539 -0.009172769 0.06420939 0.045863844
-0.045863844 0.009172769 -0.027518308 0.018345539 -0.119246 -0.027518308 -0.31187415 0.09172769
-0.4494657 0.2660103 -0.045863844 0.073382154 -0.25683755 -0.08255492 -0.12841877 -0.018345539
-0.22014646 -0.6237483 -0.027518308 0.027518308 -0.045863844 0.009172769 -0.018345539 -0.25683755
-0.036691077 0.20180093 -0.06420939 0.19262816 -0.045863844 0.14676431 0.08255492 0.036691077
0.08255492 0.119246 0.18345538 -0.009172769 -0.24766476 -0.11007323 -0.40360186 0.18345538
-0.018345539 -0.073382154 -0.09172769 0.036691077 0.19262816 -0.12841877 -0.100900464 0.09172769
-0.045863844 0.073382154 0.2109737 -0.045863844 -0.14676431 0.027518308 0.0 0.11007323
0.036691077 -0.027518308 0.12841877 -0.100900464 -0.16510984 0.43112016 0.0 0.06420939
0.13759154 -0.65126663 -0.055036616 0.036691077 0.11007323 0.100900464 -0.22014646 -0.15593708
-0.16510984 0.09172769 -0.2109737 -0.18345538 0.09172769 -0.06420939 0.14676431 0.22931923
-0.036691077 -0.11007323 0.119246 -0.06420939 0.073382154 0.13759154 0.036691077 0.045863844
-0.036691077 0.027518308 0.018345539 -0.018345539 0.08255492 -0.027518308 0.018345539 -0.055036616
0.009172769 -0.06420939 0.13759154 0.08255492 -0.100900464 0.22014646 -0.055036616 -0.055036616
-0.036691077 0.018345539 -0.018345539 -0.009172769 0.036691077 -0.11007323 -0.045863844 -0.036691077
-0.073382154 -0.018345539 0.036691077 -0.06420939 0.09172769 0.100900464 -0.009172769 0.036691077
-0.119246 0.12841877 0.08255492 0.027518308 -0.009172769 0.009172769 0.055036616 0.073382154
0.027518308 -0.036691077 -0.06420939 -0.13759154 -0.018345539 0.027518308 0.16510984 0.027518308
0.11007323 -0.027518308 -0.06420939 -0.009172769 -0.045863844 -0.08255492 0.009172769 0.06420939
0.045863844 0.009172769 -0.018345539 0.11007323 -0.027518308 0.055036616 0.018345539 -0.08255492
-0.027518308 0.045863844 0.06420939 0.045863844 -0.055036616 -0.018345539 -0.09172769 0.027518308
0.045863844 -0.119246 0.036691077 0.018345539 -0.15593708 -0.06420939 -0.08255492 -0.055036616
0.0 0.036691077 0.036691077 0.045863844 -0.09172769 -0.009172769 0.12841877 0.036691077
0.073382154 0.009172769 -0.12841877 -0.045863844 -0.13759154 0.045863844 0.055036616 0.13759154
0.073382154 0.0 -0.027518308 -0.036691077 -0.055036616 0.100900464 -0.036691077 0.045863844
0.055036616 -0.045863844 0.027518308 0.027518308 -0.073382154 -0.06420939 0.12841877 -0.06420939
0.11007323 0.036691077 -0.009172769 -0.036691077 0.100900464 0.06420939 -0.045863844 0.036691077
00000000: 07f0 ff0b f5fc 0715 fa19 eafb fbf2 0015
00000010: 0903 dd12 0ef9 0aed fc05 def0 fa09 1af5
00000020: f10e 000d 0418 f0de fa1d e402 feff 0705
00000030: fb01 fd02 f3fd de0a cf1d fb08 e4f7 f2fe
00000040: e8bc fd03 fb01 fee4 fc16 f915 fb10 0904
00000050: 090d 14ff e5f4 d414 fef8 f604 15f2 f50a
00000060: fb08 17fb f003 000c 04fd 0ef5 ee2f 0007
00000070: 0fb9 fa04 0c0b e8ef ee0a e9ec 0af9 1019
00000080: fcf4 0df9 080f 0405 fc03 02fe 09fd 02fa
00000090: 01f9 0f09 f518 fafa fc02 feff 04f4 fbfc
000000a0: f8fe 04f9 0a0b ff04 f30e 0903 ff01 0608
000000b0: 03fc f9f1 fe03 1203 0cfd f9ff fbf7 0107
000000c0: 0501 fe0c fd06 02f7 fd05 0705 fafe f603
000000d0: 05f3 0402 eff9 f7fa 0004 0405 f6ff 0e04
000000e0: 0801 f2fb f105 060f 0800 fdfc fa0b fc05
000000f0: 06fb 0303 f8f9 0ef9 0c04 fffc 0b07 fb04

model/batch_normalization/batchnorm/mul_1 i1 [128, 640] scale=0.00019597662 zero_point=0
-0.0019597663 0.00039195325 -0.0035275791 -0.003135626 0.00039195325 -0.001567813 -0.0017637896 0.00019597662
-0.0013718364 -0.00019597662 0.00058792986 -0.001567813 -0.00039195325 -0.0011758597 0.0 0.0
0.001567813 -0.00058792986 -0.0011758597 0.0017637896 -0.00058792986 0.00019597662 0.0007839065 -0.00058792986
-0.0021557428 0.00019597662 -0.0021557428 0.00039195325 0.0013718364 0.00019597662 0.00039195325 -0.002547696
0.0 0.0007839065 -0.001567813 0.0011758597 0.0007839065 0.00058792986 -0.00019597662 0.00019597662
0.001567813 0.0007839065 -0.001567813 -0.0013718364 0.00019597662 0.001567813 0.00019597662 0.0009798831
-0.00058792986 0.0 -0.001567813 -0.00019597662 -0.002547696 -0.0035275791 -0.0027436728 0.0
-0.0009798831 -0.0027436728 -0.0033316026 -0.0021557428 -0.0045074625 0.0 -0.001567813 -0.0021557428
-0.004115509 -0.003135626 -0.0017637896 -0.005291369 -0.0033316026 0.0 -0.00019597662 -0.0021557428
0.0 0.0019597663 0.0007839065 -0.00019597662 0.0019597663 0.0 0.0027436728 0.00039195325
0.005291369 0.003723556 0.004115509 0.0033316026 0.0048994157 0.007447112 0.0064672288 0.005879299
0.004115509 0.0045074625 0.005095392 0.00039195325 0.0021557428 -0.003135626 -0.0009798831 -0.00058792986
-0.0007839065 -0.0017637896 -0.0035275791 -0.005291369 -0.0023517194 -0.004115509 0.0011758597 0.00058792986
-0.0013718364 -0.0011758597 -0.00039195325 0.0017637896 0.001567813 0.0007839065 0.0007839065 -0.0007839065
0.0011758597 -0.0013718364 0.0007839065 -0.0019597663 -0.006663205 -0.005095392 -0.0039195325 -0.0033316026
-0.004115509 -0.005095392 -0.0019597663 -0.0027436728 -0.0013718364 -0.00039195325 -0.0048994157 -0.0027436728
-0.0021557428 0.0007839065 -0.0035275791 -0.003723556 0.00058792986 -0.0021557428 -0.00039195325 -0.001567813
0.00019597662 -0.00019597662 0.00058792986 -0.0009798831 -0.0017637896 0.00039195325 -0.00019597662 -0.0009798831
0.002547696 -0.0013718364 0.00039195325 0.0023517194 -0.00019597662 -0.00039195325 0.0011758597 -0.0007839065
-0.0027436728 -0.00019597662 -0.0033316026 0.00039195325 0.0007839065 -0.00058792986 0.0013718364 -0.0011758597
0.00039195325 0.0 -0.00039195325 0.00039195325 0.0019597663 -0.00058792986 -0.00039195325 0.0007839065
0.00039195325 0.0009798831 -0.0013718364 0.0 0.0 0.0007839065 0.0009798831 0.0011758597
-0.00058792986 0.0009798831 -0.0021557428 -0.00039195325 -0.0019597663 -0.0023517194 -0.0021557428 -0.0011758597
-0.00058792986 -0.0023517194 -0.0048994157 -0.0021557428 -0.003723556 0.00019597662 -0.001567813 -0.003723556
-0.0039195325 -0.005879299 -0.0027436728 -0.005291369 -0.0029396494 -0.0017637896 -0.0013718364 -0.0023517194
-0.0013718364 0.0023517194 -0.0009798831 -0.0013718364 0.001567813 -0.0013718364 0.00039195325 0.00039195325
0.0023517194 0.001567813 0.0011758597 0.0039195325 0.0045074625 0.006075275 0.0039195325 0.0043114857
0.002547696 0.0045074625 0.0039195325 -0.00058792986 0.0007839065 -0.004115509 -0.00019597662 -0.003135626
-0.0017637896 -0.0021557428 -0.0035275791 -0.005683322 -0.0033316026 -0.0033316026 -0.00039195325 0.0
-0.0017637896 0.00039195325 -0.0023517194 0.0035275791 0.00058792986 0.001567813 0.0033316026 0.00039195325
0.0027436728 0.003135626 0.0021557428 -0.0013718364 -0.0043114857 -0.0039195325 -0.0021557428 -0.0013718364
-0.0011758597 -0.001567813 0.0 -0.0009798831 0.0007839065 0.00019597662 -0.0011758597 0.0
00000000: f602 eef0 02f8 f701 f9ff 03f8 fefa 0000
00000010: 08fd fa09 fd01 04fd f501 f502 0701 02f3
00000020: 0004 f806 0403 ff01 0804 f8f9 0108 0105
00000030: fd00 f8ff f3ee f200 fbf2 eff5 e900 f8f5
00000040: ebf0 f7e5 ef00 fff5 000a 04ff 0a00 0e02
00000050: 1b13 1511 1926 211e 1517 1a02 0bf0 fbfd
00000060: fcf7 eee5 f4eb 0603 f9fa fe09 0804 04fc
00000070: 06f9 04f6 dee6 ecef ebe6 f6f2 f9fe e7f2
00000080: f504 eeed 03f5 fef8 01ff 03fb f702 fffb
00000090: 0df9 020c fffe 06fc f2ff ef02 04fd 07fa
000000a0: 0200 fe02 0afd fe04 0205 f900 0004 0506
000000b0: fd05 f5fe f6f4 f5fa fdf4 e7f5 ed01 f8ed
000000c0: ece2 f2e5 f1f7 f9f4 f90c fbf9 08f9 0202
000000d0: 0c08 0614 171f 1416 0d17 14fd 04eb fff0
000000e0: f7f5 eee3 efef fe00 f702 f412 0308 1102
000000f0: 0e10 0bf9 eaec f5f9 faf8 00fb 0401 fa00
