compression/autoencoder/float_fallback_quanitzation/models_compressed/model_ToyTrain.tflite (tflite, 278056 bytes, 10 tensors)

model/dense_9/MatMul i1 [640, 128] scale=0.02002997 zero_point=0
000000 d2 f8 f0 ec ea ee c6 f5 ff fa de 14 f9 07 d3 0e
       -0.9213786 -0.16023976 -0.3204795 -0.4005994 -0.44065934 -0.36053944 -1.1617383 -0.22032967 -0.02002997 -0.12017982 -0.68101895 0.4005994 -0.1402098 0.1402098 -0.90134865 0.2804196
000010 c9 f5 ec 01 fe fc e8 ef e8 ea ed 00 04 df e2 ed
       -1.1016483 -0.22032967 -0.4005994 0.02002997 -0.04005994 -0.08011988 -0.48071927 -0.34050947 -0.48071927 -0.44065934 -0.38056943 0.0 0.08011988 -0.660989 -0.6008991 -0.38056943
000020 f6 ea fa ed e1 f4 ee f7 fd f3 db f3 e2 dc f7 df
       -0.2002997 -0.44065934 -0.12017982 -0.38056943 -0.62092906 -0.24035963 -0.36053944 -0.18026972 -0.06008991 -0.2603896 -0.7411089 -0.2603896 -0.6008991 -0.7210789 -0.18026972 -0.660989
000030 da fa fa eb 10 ec e7 fc e8 08 f9 16 03 df e5 de
       -0.76113886 -0.12017982 -0.12017982 -0.42062935 0.3204795 -0.4005994 -0.50074923 -0.08011988 -0.48071927 0.16023976 -0.1402098 0.44065934 0.06008991 -0.660989 -0.54080915 -0.68101895
000040 21 f4 e1 d7 08 ee d4 d1 ff ec e6 ea eb dc dd c5
       0.660989 -0.24035963 -0.62092906 -0.82122874 0.16023976 -0.36053944 -0.8813187 -0.9414086 -0.02002997 -0.4005994 -0.5207792 -0.44065934 -0.42062935 -0.7210789 -0.7010489 -1.1817682
000050 da f4 d9 f8 f4 dc e7 01 e4 da f6 f0 f0 11 01 f7
       -0.76113886 -0.24035963 -0.7811688 -0.16023976 -0.24035963 -0.7210789 -0.50074923 0.02002997 -0.5608392 -0.76113886 -0.2002997 -0.3204795 -0.3204795 0.34050947 0.02002997 -0.18026972
000060 eb f8 f8 ca f0 cb f1 f8 00 eb e0 e3 ee 0c eb 0b
       -0.42062935 -0.16023976 -0.16023976 -1.0816183 -0.3204795 -1.0615884 -0.30044955 -0.16023976 0.0 -0.42062935 -0.640959 -0.58086914 -0.36053944 0.24035963 -0.42062935 0.22032967
000070 f0 07 f6 e9 fc f3 e7 f4 03 f3 e4 e6 0d f0 05 ac
       -0.3204795 0.1402098 -0.2002997 -0.4606893 -0.08011988 -0.2603896 -0.50074923 -0.24035963 0.06008991 -0.2603896 -0.5608392 -0.5207792 0.2603896 -0.3204795 0.10014985 -1.6825174
000080 d8 f7 e3 f2 f9 e9 c4 eb fc fa ed 1f fc 0b e2 0f
       -0.8011988 -0.18026972 -0.58086914 -0.2804196 -0.1402098 -0.4606893 -1.2017982 -0.42062935 -0.08011988 -0.12017982 -0.38056943 0.62092906 -0.08011988 0.22032967 -0.6008991 0.30044955
000090 ca ee e6 05 00 fd ee f1 e4 f9 df f8 fe e0 e2 e9
       -1.0816183 -0.36053944 -0.5207792 0.10014985 0.0 -0.06008991 -0.36053944 -0.30044955 -0.5608392 -0.1402098 -0.660989 -0.16023976 -0.04005994 -0.640959 -0.6008991 -0.4606893
0000a0 f5 e4 fd f2 e8 ea f7 ff 06 ed dc ff db d5 f0 e8
       -0.22032967 -0.5608392 -0.06008991 -0.2804196 -0.48071927 -0.44065934 -0.18026972 -0.02002997 0.12017982 -0.38056943 -0.7210789 -0.02002997 -0.7411089 -0.86128867 -0.3204795 -0.48071927
0000b0 de ff f5 dd 10 e6 ed f5 e3 09 fc 08 03 d7 dd d6
       -0.68101895 -0.02002997 -0.22032967 -0.7010489 0.3204795 -0.5207792 -0.38056943 -0.22032967 -0.58086914 0.18026972 -0.08011988 0.16023976 0.06008991 -0.82122874 -0.7010489 -0.8412587
0000c0 1c f3 e1 e2 09 fc e2 d5 fb ee ef ea fd e2 e3 b8
       0.5608392 -0.2603896 -0.62092906 -0.6008991 0.18026972 -0.08011988 -0.6008991 -0.86128867 -0.10014985 -0.36053944 -0.34050947 -0.44065934 -0.06008991 -0.6008991 -0.58086914 -1.4421577
0000d0 e0 f8 db fa e6 e0 e7 09 db d8 f2 f9 eb 0e fc f1
       -0.640959 -0.16023976 -0.7411089 -0.12017982 -0.5207792 -0.640959 -0.50074923 0.18026972 -0.7411089 -0.8011988 -0.2804196 -0.1402098 -0.42062935 0.2804196 -0.08011988 -0.30044955
0000e0 e5 eb f1 c5 f0 d7 ef f2 f3 e9 eb ed ec 0f eb 0b
       -0.54080915 -0.42062935 -0.30044955 -1.1817682 -0.3204795 -0.82122874 -0.34050947 -0.2804196 -0.2603896 -0.4606893 -0.42062935 -0.38056943 -0.4005994 0.30044955 -0.42062935 0.22032967
0000f0 f0 0d ff f6 f8 fb e3 f4 03 ed e7 e3 11 ec 09 95
       -0.3204795 0.2603896 -0.02002997 -0.2002997 -0.16023976 -0.10014985 -0.58086914 -0.24035963 0.06008991 -0.38056943 -0.50074923 -0.58086914 0.34050947 -0.4005994 0.18026972 -2.1432068

model/batch_normalization_8/batchnorm/mul_1 i1 [128, 128] scale=0.00832442 zero_point=0
000000 f2 f6 18 f6 0d 11 0b f4 08 f4 1b f4 f3 ee 09 fc
       -0.11654188 -0.083244205 0.19978608 -0.083244205 0.10821746 0.14151514 0.09156862 -0.09989304 0.06659536 -0.09989304 0.22475934 -0.09989304 -0.10821746 -0.14983957 0.07491978 -0.03329768
000010 ef 06 09 09 02 06 df 06 fc 07 ee 08 f7 07 fc eb
       -0.14151514 0.04994652 0.07491978 0.07491978 0.01664884 0.04994652 -0.27470586 0.04994652 -0.03329768 0.05827094 -0.14983957 0.06659536 -0.07491978 0.05827094 -0.03329768 -0.17481282
000020 05 06 17 0d e1 05 16 0d f6 f4 de 01 bc 08 16 02
       0.041622102 0.04994652 0.19146167 0.10821746 -0.25805703 0.041622102 0.18313724 0.10821746 -0.083244205 -0.09989304 -0.28303027 0.00832442 -0.56606054 0.06659536 0.18313724 0.01664884
000030 1a 27 07 eb f1 ec f8 15 04 0d 2d f5 fa 03 f9 e4
       0.21643493 0.32465237 0.05827094 -0.17481282 -0.1248663 -0.16648841 -0.06659536 0.17481282 0.03329768 0.10821746 0.3745989 -0.09156862 -0.04994652 0.02497326 -0.05827094 -0.23308375
000040 eb 10 0b 19 f7 03 18 13 f2 12 f5 36 1c e6 0b e8
       -0.17481282 0.13319072 0.09156862 0.2081105 -0.07491978 0.02497326 0.19978608 0.15816398 -0.11654188 0.14983957 -0.09156862 0.44951868 0.23308375 -0.21643493 0.09156862 -0.19978608
000050 02 fb 14 ff e9 fa 32 0f 06 0a 1a 04 01 08 07 2e
       0.01664884 -0.041622102 0.16648841 -0.00832442 -0.19146167 -0.04994652 0.416221 0.1248663 0.04994652 0.083244205 0.21643493 0.03329768 0.00832442 0.06659536 0.05827094 0.38292333
000060 10 00 0e fc f0 06 e8 02 fd fc fe 11 03 0d 09 11
       0.13319072 0.0 0.11654188 -0.03329768 -0.13319072 0.04994652 -0.19978608 0.01664884 -0.02497326 -0.03329768 -0.01664884 0.14151514 0.02497326 0.10821746 0.07491978 0.14151514
000070 f3 f0 15 02 e7 f3 01 fb dd 16 ef 04 11 fa 0b 25
       -0.10821746 -0.13319072 0.17481282 0.01664884 -0.2081105 -0.10821746 0.00832442 -0.041622102 -0.29135472 0.18313724 -0.14151514 0.03329768 0.14151514 -0.04994652 0.09156862 0.30800354
000080 ff fa f3 ff 23 ef fe 1a f6 03 d6 ec 00 0e 02 15
       -0.00832442 -0.04994652 -0.10821746 -0.00832442 0.29135472 -0.14151514 -0.01664884 0.21643493 -0.083244205 0.02497326 -0.34962565 -0.16648841 0.0 0.11654188 0.01664884 0.17481282
000090 1a f9 13 f8 1a 07 f0 df 1b 04 1a fd f1 fb 0f e7
       0.21643493 -0.05827094 0.15816398 -0.06659536 0.21643493 0.05827094 -0.13319072 -0.27470586 0.22475934 0.03329768 0.21643493 -0.02497326 -0.1248663 -0.041622102 0.1248663 -0.2081105
0000a0 db e9 09 dc 09 e8 06 09 09 03 ee 15 01 fe fe f0
       -0.30800354 -0.19146167 0.07491978 -0.29967913 0.07491978 -0.19978608 0.04994652 0.07491978 0.07491978 0.02497326 -0.14983957 0.17481282 0.00832442 -0.01664884 -0.01664884 -0.13319072
0000b0 e9 14 f3 fe fb 11 0a ee ff 0a eb d1 e5 e7 e1 e6
       -0.19146167 0.16648841 -0.10821746 -0.01664884 -0.041622102 0.14151514 0.083244205 -0.14983957 -0.00832442 0.083244205 -0.17481282 -0.39124775 -0.22475934 -0.2081105 -0.25805703 -0.21643493
0000c0 03 d8 04 0e db 11 f4 0d f5 18 ee 16 02 de e8 0e
       0.02497326 -0.33297682 0.03329768 0.11654188 -0.30800354 0.14151514 -0.09989304 0.10821746 -0.09156862 0.19978608 -0.14983957 0.18313724 0.01664884 -0.28303027 -0.19978608 0.11654188
0000d0 07 f7 d8 e8 00 e7 04 31 e1 e2 fd 02 f4 0e 0c f0
       0.05827094 -0.07491978 -0.33297682 -0.19978608 0.0 -0.2081105 0.03329768 0.40789658 -0.25805703 -0.2497326 -0.02497326 0.01664884 -0.09989304 0.11654188 0.09989304 -0.13319072
0000e0 08 fe ff f3 12 eb 19 e3 fe 19 f7 f9 1e 0b d6 0e
       0.06659536 -0.01664884 -0.00832442 -0.10821746 0.14983957 -0.17481282 0.2081105 -0.24140818 -0.01664884 0.2081105 -0.07491978 -0.05827094 0.2497326 0.09156862 -0.34962565 0.11654188
0000f0 11 f8 e2 d7 12 f8 e5 08 ce db 18 e5 1a f5 fc d3
       0.14151514 -0.06659536 -0.2497326 -0.34130123 0.14983957 -0.06659536 -0.22475934 0.06659536 -0.416221 -0.30800354 0.19978608 -0.22475934 0.21643493 -0.09156862 -0.03329768 -0.3745989

model/batch_normalization_7/batchnorm/mul_1 i1 [128, 128] scale=0.013040186 zero_point=0
000000 f1 0b 0a 03 05 04 fd fa 07 fe 13 fe f6 05 06 fa
       -0.19560279 0.14344205 0.13040186 0.03912056 0.06520093 0.052160744 -0.03912056 -0.07824112 0.0912813 -0.026080372 0.24776353 -0.026080372 -0.13040186 0.06520093 0.07824112 -0.07824112
000010 02 0a eb 1a 00 fa 02 08 1e 11 eb 02 f9 04 e8 ef
       0.026080372 0.13040186 -0.2738439 0.33904484 0.0 -0.07824112 0.026080372 0.10432149 0.39120558 0.22168316 -0.2738439 0.026080372 -0.0912813 0.052160744 -0.31296447 -0.22168316
000020 02 fc 08 0c 0e 11 eb ed 02 14 e9 00 06 0e 20 14
       0.026080372 -0.052160744 0.10432149 0.15648223 0.1825626 0.22168316 -0.2738439 -0.24776353 0.026080372 0.26080373 -0.29992428 0.0 0.07824112 0.1825626 0.41728595 0.26080373
000030 f4 fa 12 fd fc fc 08 fc 10 e7 07 ec 04 db 07 00
       -0.15648223 -0.07824112 0.23472334 -0.03912056 -0.052160744 -0.052160744 0.10432149 -0.052160744 0.20864297 -0.32600465 0.0912813 -0.26080373 0.052160744 -0.48248687 0.0912813 0.0
000040 f3 00 e7 12 15 06 10 fb f1 f7 0b f3 0e 09 ee f1
       -0.16952242 0.0 -0.32600465 0.23472334 0.2738439 0.07824112 0.20864297 -0.06520093 -0.19560279 -0.11736167 0.14344205 -0.16952242 0.1825626 0.11736167 -0.23472334 -0.19560279
000050 f5 06 02 fb ed fa 19 04 f1 fd f8 05 ed 0c 18 0f
       -0.14344205 0.07824112 0.026080372 -0.06520093 -0.24776353 -0.07824112 0.32600465 0.052160744 -0.19560279 -0.03912056 -0.10432149 0.06520093 -0.24776353 0.15648223 0.31296447 0.19560279
000060 06 fc 0b 05 08 08 dc 0e 00 16 07 f2 01 06 0e 21
       0.07824112 -0.052160744 0.14344205 0.06520093 0.10432149 0.10432149 -0.4694467 0.1825626 0.0 0.2868841 0.0912813 -0.1825626 0.013040186 0.07824112 0.1825626 0.43032613
000070 01 f8 09 02 f5 fa f8 fa 0c 14 e0 fd 05 14 0e fb
       0.013040186 -0.10432149 0.11736167 0.026080372 -0.14344205 -0.07824112 -0.10432149 -0.07824112 0.15648223 0.26080373 -0.41728595 -0.03912056 0.06520093 0.26080373 0.1825626 -0.06520093
000080 0c 00 05 04 0c 0f f2 de f3 f8 ff 09 03 ff 03 08
       0.15648223 0.0 0.06520093 0.052160744 0.15648223 0.19560279 -0.1825626 -0.44336632 -0.16952242 -0.10432149 -0.013040186 0.11736167 0.03912056 -0.013040186 0.03912056 0.10432149
000090 05 f2 eb 03 09 f3 fb 0d 00 ff fe f4 02 02 f4 fc
       0.06520093 -0.1825626 -0.2738439 0.03912056 0.11736167 -0.16952242 -0.06520093 0.16952242 0.0 -0.013040186 -0.026080372 -0.15648223 0.026080372 0.026080372 -0.15648223 -0.052160744
0000a0 ed 0b fe fa fb f3 15 0a f1 ef fa ec fc 18 f1 02
       -0.24776353 0.14344205 -0.026080372 -0.07824112 -0.06520093 -0.16952242 0.2738439 0.13040186 -0.19560279 -0.22168316 -0.07824112 -0.26080373 -0.052160744 0.31296447 -0.19560279 0.026080372
0000b0 14 f9 04 05 fd f0 0b eb 04 15 04 fb 20 0c ff 0a
       0.26080373 -0.0912813 0.052160744 0.06520093 -0.03912056 -0.20864297 0.14344205 -0.2738439 0.052160744 0.2738439 0.052160744 -0.06520093 0.41728595 0.15648223 -0.013040186 0.13040186
0000c0 03 09 f4 f4 fb e6 fa f4 e4 ec ff f6 0c f7 0b ee
       0.03912056 0.11736167 -0.15648223 -0.15648223 -0.06520093 -0.33904484 -0.07824112 -0.15648223 -0.3651252 -0.26080373 -0.013040186 -0.13040186 0.15648223 -0.11736167 0.14344205 -0.23472334
0000d0 1a f4 fd 06 f0 13 f4 05 18 12 0d ff 07 fd 08 f9
       0.33904484 -0.15648223 -0.03912056 0.07824112 -0.20864297 0.24776353 -0.15648223 0.06520093 0.31296447 0.23472334 0.16952242 -0.013040186 0.0912813 -0.03912056 0.10432149 -0.0912813
0000e0 12 f4 f7 eb f8 f2 eb 01 0d e7 ef 05 13 19 03 fd
       0.23472334 -0.15648223 -0.11736167 -0.2738439 -0.10432149 -0.1825626 -0.2738439 0.013040186 0.16952242 -0.32600465 -0.22168316 0.06520093 0.24776353 0.32600465 0.03912056 -0.03912056
0000f0 12 04 01 06 f8 00 fe f6 f2 df 08 ef 05 09 12 18
       0.23472334 0.052160744 0.013040186 0.07824112 -0.10432149 0.0 -0.026080372 -0.13040186 -0.1825626 -0.43032613 0.10432149 -0.22168316 0.06520093 0.11736167 0.23472334 0.31296447

model/batch_normalization_6/batchnorm/mul_1 i1 [128, 128] scale=0.009286564 zero_point=0
000000 7f f1 0d 08 ee de 1c 05 e7 ed 1e 01 2a fa 0c df
       1.1793936 -0.13929845 0.12072533 0.07429251 -0.16715816 -0.31574318 0.26002377 0.04643282 -0.2321641 -0.17644471 0.2785969 0.009286564 0.3900357 -0.055719383 0.111438766 -0.3064566
000010 a7 f7 fd 06 d9 0a 26 02 ff 0c 17 06 0e ff e4 ee
       -0.8265042 -0.08357908 -0.027859692 0.055719383 -0.362176 0.09286564 0.35288942 0.018573128 -0.009286564 0.111438766 0.21359096 0.055719383 0.13001189 -0.009286564 -0.26002377 -0.16715816
000020 02 01 11 11 05 27 0a 02 e7 0a 02 ec 0f f7 1e 19
       0.018573128 0.009286564 0.15787159 0.15787159 0.04643282 0.362176 0.09286564 0.018573128 -0.2321641 0.09286564 0.018573128 -0.18573128 0.13929845 -0.08357908 0.2785969 0.2321641
000030 0f 05 04 ff d0 0b d9 20 11 f9 12 14 ff 18 05 fb
       0.13929845 0.04643282 0.037146255 -0.009286564 -0.44575506 0.1021522 -0.362176 0.29717004 0.15787159 -0.06500594 0.16715816 0.18573128 -0.009286564 0.22287753 0.04643282 -0.04643282
000040 21 cd f7 00 30 0d 2a 15 05 ed 26 f8 ed 0d f4 e3
       0.3064566 -0.47361475 -0.08357908 0.0 0.44575506 0.12072533 0.3900357 0.19501784 0.04643282 -0.17644471 0.35288942 -0.07429251 -0.17644471 0.12072533 -0.111438766 -0.26931036
000050 0a 09 e6 07 06 08 06 03 08 f4 11 01 08 f2 f8 17
       0.09286564 0.08357908 -0.24145067 0.06500594 0.055719383 0.07429251 0.055719383 0.027859692 0.07429251 -0.111438766 0.15787159 0.009286564 0.07429251 -0.13001189 -0.07429251 0.21359096
000060 f1 3d b4 d1 f7 e7 ea e2 f0 ff 0a fe f6 28 fd f5
       -0.13929845 0.5664804 -0.70577884 -0.4364685 -0.08357908 -0.2321641 -0.2043044 -0.2785969 -0.14858502 -0.009286564 0.09286564 -0.018573128 -0.09286564 0.37146255 -0.027859692 -0.1021522
000070 e1 28 08 13 19 f0 00 ee d6 11 00 07 ee d5 fa cc
       -0.2878835 0.37146255 0.07429251 0.17644471 0.2321641 -0.14858502 0.0 -0.16715816 -0.3900357 0.15787159 0.0 0.06500594 -0.16715816 -0.39932224 -0.055719383 -0.48290133
000080 d2 f9 0b e0 02 06 ec 16 fa e9 2c 04 16 fb f4 0c
       -0.42718193 -0.06500594 0.1021522 -0.29717004 0.018573128 0.055719383 -0.18573128 0.2043044 -0.055719383 -0.21359096 0.4086088 0.037146255 0.2043044 -0.04643282 -0.111438766 0.111438766
000090 22 f2 17 af 01 fc 0a fb fb fd 0f 03 0f 01 ff 04
       0.31574318 -0.13001189 0.21359096 -0.7522117 0.009286564 -0.037146255 0.09286564 -0.04643282 -0.04643282 -0.027859692 0.13929845 0.027859692 0.13929845 0.009286564 -0.009286564 0.037146255
0000a0 ef ee f4 f6 12 fc 09 e6 ea ff 09 09 07 0e eb 09
       -0.15787159 -0.16715816 -0.111438766 -0.09286564 0.16715816 -0.037146255 0.08357908 -0.24145067 -0.2043044 -0.009286564 0.08357908 0.08357908 0.06500594 0.13001189 -0.19501784 0.08357908
0000b0 14 0e 05 04 05 03 ed 3d d7 11 db ee f7 0e f5 dd
       0.18573128 0.13001189 0.04643282 0.037146255 0.04643282 0.027859692 -0.17644471 0.5664804 -0.3807491 0.15787159 -0.34360287 -0.16715816 -0.08357908 0.13001189 -0.1021522 -0.32502973
0000c0 cc fe 16 14 0c 1b fb 05 e2 f2 f9 f4 15 eb f1 e0
       -0.48290133 -0.018573128 0.2043044 0.18573128 0.111438766 0.25073722 -0.04643282 0.04643282 -0.2785969 -0.13001189 -0.06500594 -0.111438766 0.19501784 -0.19501784 -0.13929845 -0.29717004
0000d0 fe 03 e4 e1 00 f4 11 1b 06 d8 09 da f5 e1 f2 e4
       -0.018573128 0.027859692 -0.26002377 -0.2878835 0.0 -0.111438766 0.15787159 0.25073722 0.055719383 -0.37146255 0.08357908 -0.35288942 -0.1021522 -0.2878835 -0.13001189 -0.26002377
0000e0 cf f4 06 f7 e2 05 06 0a 09 fd fa 1d 11 e9 f9 03
       -0.45504162 -0.111438766 0.055719383 -0.08357908 -0.2785969 0.04643282 0.055719383 0.09286564 0.08357908 -0.027859692 -0.055719383 0.26931036 0.15787159 -0.21359096 -0.06500594 0.027859692
0000f0 ec 02 01 04 f8 03 eb 18 f5 0c 0b e6 21 f5 fd ec
       -0.18573128 0.018573128 0.009286564 0.037146255 -0.07429251 0.027859692 -0.19501784 0.22287753 -0.1021522 0.111438766 0.1021522 -0.24145067 0.3064566 -0.1021522 -0.027859692 -0.18573128

model/batch_normalization_5/batchnorm/mul_1 i1 [128, 8] scale=0.019348145 zero_point=0
000000 03 07 1a de cf b7 f8 0d 17 fd dc e5 f4 10 13 13
       0.058044434 0.13543701 0.50305176 -0.6578369 -0.9480591 -1.4124146 -0.15478516 0.25152588 0.44500732 -0.058044434 -0.6965332 -0.5223999 -0.23217773 0.3095703 0.36761475 0.36761475
000010 19 48 02 18 e4 e7 cb eb e7 27 e9 fe f6 be d5 cc
       0.4837036 1.3930664 0.03869629 0.46435547 -0.54174805 -0.4837036 -1.0254517 -0.40631104 -0.4837036 0.75457764 -0.44500732 -0.03869629 -0.19348145 -1.2769775 -0.8319702 -1.0061035
000020 ca 0b cc e8 22 09 14 11 14 fb f5 af 0e 12 f1 2b
       -1.0447998 0.21282959 -1.0061035 -0.46435547 0.6578369 0.1741333 0.3869629 0.32891846 0.3869629 -0.09674072 -0.21282959 -1.5671997 0.27087402 0.3482666 -0.29022217 0.8319702
000030 fd 2c e1 12 20 34 e5 ee da da 11 dd 01 11 47 0a
       -0.058044434 0.85131836 -0.5997925 0.3482666 0.6191406 1.0061035 -0.5223999 -0.3482666 -0.7352295 -0.7352295 0.32891846 -0.67718506 0.019348145 0.32891846 1.3737183 0.19348145
000040 4c cd 25 04 08 0d 13 ec 18 f7 30 fb dc d5 ff fb
       1.470459 -0.9867554 0.71588135 0.07739258 0.15478516 0.25152588 0.36761475 -0.3869629 0.46435547 -0.1741333 0.92871094 -0.09674072 -0.6965332 -0.8319702 -0.019348145 -0.09674072
000050 4c 0d 13 1f 12 ff 23 40 1c df ea f8 f2 0b 16 ea
       1.470459 0.25152588 0.36761475 0.5997925 0.3482666 -0.019348145 0.67718506 1.2382812 0.54174805 -0.63848877 -0.42565918 -0.15478516 -0.27087402 0.21282959 0.42565918 -0.42565918
000060 f3 34 d5 16 f9 e1 f1 16 06 2f 3b db f8 fa e8 e8
       -0.25152588 1.0061035 -0.8319702 0.42565918 -0.13543701 -0.5997925 -0.29022217 0.42565918 0.11608887 0.9093628 1.1415405 -0.71588135 -0.15478516 -0.11608887 -0.46435547 -0.46435547
000070 fa ed fb e5 00 1d e6 dc f3 f0 43 07 e7 03 2c d6
       -0.11608887 -0.36761475 -0.09674072 -0.5223999 0.0 0.5610962 -0.50305176 -0.6965332 -0.25152588 -0.3095703 1.2963257 0.13543701 -0.4837036 0.058044434 0.85131836 -0.8126221
000080 ed 54 e0 e9 f4 43 ea f6 45 34 29 d6 ff 12 f8 d5
       -0.36761475 1.6252441 -0.6191406 -0.44500732 -0.23217773 1.2963257 -0.42565918 -0.19348145 1.335022 1.0061035 0.7932739 -0.8126221 -0.019348145 0.3482666 -0.15478516 -0.8319702
000090 36 14 06 22 04 e3 d9 26 ec 02 eb 0b fe 0c b4 20
       1.0447998 0.3869629 0.11608887 0.6578369 0.07739258 -0.5610962 -0.75457764 0.7352295 -0.3869629 0.03869629 -0.40631104 0.21282959 -0.03869629 0.23217773 -1.470459 0.6191406
0000a0 0e e3 ff 34 cd d9 ff e7 12 d8 13 f8 cf d8 13 fb
       0.27087402 -0.5610962 -0.019348145 1.0061035 -0.9867554 -0.75457764 -0.019348145 -0.4837036 0.3482666 -0.7739258 0.36761475 -0.15478516 -0.9480591 -0.7739258 0.36761475 -0.09674072
0000b0 21 0c 08 e0 1e 06 50 06 18 ea e3 d9 f7 07 09 f7
       0.63848877 0.23217773 0.15478516 -0.6191406 0.58044434 0.11608887 1.5478516 0.11608887 0.46435547 -0.42565918 -0.5610962 -0.75457764 -0.1741333 0.13543701 0.1741333 -0.1741333
0000c0 10 0f 27 f6 18 2d dd 2b 30 30 c5 22 0d 10 11 18
       0.3095703 0.29022217 0.75457764 -0.19348145 0.46435547 0.8706665 -0.67718506 0.8319702 0.92871094 0.92871094 -1.1415405 0.6578369 0.25152588 0.3095703 0.32891846 0.46435547
0000d0 b2 f4 ee cf f9 1f 14 ec 17 09 13 d9 df f4 02 f2
       -1.5091553 -0.23217773 -0.3482666 -0.9480591 -0.13543701 0.5997925 0.3869629 -0.3869629 0.44500732 0.1741333 0.36761475 -0.75457764 -0.63848877 -0.23217773 0.03869629 -0.27087402
0000e0 24 0f 1a 27 fe 04 f5 c0 b3 f2 f6 1a dc 2a 03 1b
       0.6965332 0.29022217 0.50305176 0.75457764 -0.03869629 0.07739258 -0.21282959 -1.2382812 -1.4898071 -0.27087402 -0.19348145 0.50305176 -0.6965332 0.8126221 0.058044434 0.5223999
0000f0 25 f2 de 2a 3e 0e 19 31 0c 15 f4 f0 0e c9 37 f4
       0.71588135 -0.27087402 -0.6578369 0.8126221 1.199585 0.27087402 0.4837036 0.9480591 0.23217773 0.40631104 -0.23217773 -0.3095703 0.27087402 -1.064148 1.064148 -0.23217773

model/batch_normalization_4/batchnorm/mul_1 i1 [8, 128] scale=0.002456819 zero_point=0
000000 01 bf fb 17 14 08 09 0f f0 05 06 1c f4 d8 ff f7
       0.002456819 -0.15969323 -0.0122840945 0.056506835 0.049136378 0.019654552 0.022111371 0.036852285 -0.039309103 0.0122840945 0.014740914 0.06879093 -0.029481828 -0.098272756 -0.002456819 -0.022111371
000010 00 fc f1 e4 f0 19 0e 0a 0b fc f2 01 08 f1 f1 14
       0.0 -0.009827276 -0.036852285 -0.06879093 -0.039309103 0.061420474 0.034395464 0.024568189 0.027025009 -0.009827276 -0.034395464 0.002456819 0.019654552 -0.036852285 -0.036852285 0.049136378
000020 fb 08 e7 0a 0b 00 1e 06 0e ef f7 f6 f2 f6 07 05
       -0.0122840945 0.019654552 -0.061420474 0.024568189 0.027025009 0.0 0.07370457 0.014740914 0.034395464 -0.04176592 -0.022111371 -0.024568189 -0.034395464 -0.024568189 0.017197732 0.0122840945
000030 02 f3 02 01 0c f4 f4 f3 1a 07 e4 1a 0b ff f8 10
       0.004913638 -0.031938646 0.004913638 0.002456819 0.029481828 -0.029481828 -0.029481828 -0.031938646 0.06387729 0.017197732 -0.06879093 0.06387729 0.027025009 -0.002456819 -0.019654552 0.039309103
000040 00 f8 da ff 04 fe 0c eb 09 fc f9 f8 da 17 0c ef
       0.0 -0.019654552 -0.09335912 -0.002456819 0.009827276 -0.004913638 0.029481828 -0.0515932 0.022111371 -0.009827276 -0.017197732 -0.019654552 -0.09335912 0.056506835 0.029481828 -0.04176592
000050 0d ee 07 fb 07 eb 05 15 1f 13 ea f5 f5 0f f0 f2
       0.031938646 -0.044222742 0.017197732 -0.0122840945 0.017197732 -0.0515932 0.0122840945 0.0515932 0.076161385 0.04667956 -0.054050017 -0.027025009 -0.027025009 0.036852285 -0.039309103 -0.034395464
000060 11 db fd 00 03 1b 01 fa 30 1e f0 09 01 14 fb f1
       0.04176592 -0.0909023 -0.007370457 0.0 0.007370457 0.06633411 0.002456819 -0.014740914 0.11792731 0.07370457 -0.039309103 0.022111371 0.002456819 0.049136378 -0.0122840945 -0.036852285
000070 eb fe f6 17 ff da f5 01 1a e7 03 09 ff 26 02 18
       -0.0515932 -0.004913638 -0.024568189 0.056506835 -0.002456819 -0.09335912 -0.027025009 0.002456819 0.06387729 -0.061420474 0.007370457 0.022111371 -0.002456819 0.09335912 0.004913638 0.058963656
000080 05 04 28 f8 ee 06 de 09 25 f4 fe eb f7 0a 12 03
       0.0122840945 0.009827276 0.098272756 -0.019654552 -0.044222742 0.014740914 -0.08353184 0.022111371 0.0909023 -0.029481828 -0.004913638 -0.0515932 -0.022111371 0.024568189 0.044222742 0.007370457
000090 08 01 f5 05 fd 01 05 0b ee ff ef 10 0a 10 ff 10
       0.019654552 0.002456819 -0.027025009 0.0122840945 -0.007370457 0.002456819 0.0122840945 0.027025009 -0.044222742 -0.002456819 -0.04176592 0.039309103 0.024568189 0.039309103 -0.002456819 0.039309103
0000a0 ff fa 0d 06 08 0e 05 d9 fa 08 f3 e1 f1 01 12 f0
       -0.002456819 -0.014740914 0.031938646 0.014740914 0.019654552 0.034395464 0.0122840945 -0.09581594 -0.014740914 0.019654552 -0.031938646 -0.076161385 -0.036852285 0.002456819 0.044222742 -0.039309103
0000b0 f3 02 0a f1 12 05 f7 25 07 ef f7 0e 17 02 f8 ea
       -0.031938646 0.004913638 0.024568189 -0.036852285 0.044222742 0.0122840945 -0.022111371 0.0909023 0.017197732 -0.04176592 -0.022111371 0.034395464 0.056506835 0.004913638 -0.019654552 -0.054050017
0000c0 16 fc fd cd df d2 13 09 2f ee 02 de 14 0b 07 01
       0.054050017 -0.009827276 -0.007370457 -0.12529777 -0.08107503 -0.11301367 0.04667956 0.022111371 0.11547049 -0.044222742 0.004913638 -0.08353184 0.049136378 0.027025009 0.017197732 0.002456819
0000d0 07 15 f2 d6 ee 14 ee e9 f4 17 04 21 01 fd 14 04
       0.017197732 0.0515932 -0.034395464 -0.1031864 -0.044222742 0.049136378 -0.044222742 -0.056506835 -0.029481828 0.056506835 0.009827276 0.08107503 0.002456819 -0.007370457 0.049136378 0.009827276
0000e0 1e e5 ea ef d3 03 25 eb 29 fe 15 f4 f2 fa fb f5
       0.07370457 -0.06633411 -0.054050017 -0.04176592 -0.110556856 0.007370457 0.0909023 -0.0515932 0.10072958 -0.004913638 0.0515932 -0.029481828 -0.034395464 -0.014740914 -0.0122840945 -0.027025009
0000f0 e2 ff e6 fd 0f 07 e3 d8 fe 07 ff 0d f4 16 bf f6
       -0.07370457 -0.002456819 -0.06387729 -0.007370457 0.036852285 0.017197732 -0.07124775 -0.098272756 -0.004913638 0.017197732 -0.002456819 0.031938646 -0.029481828 0.054050017 -0.15969323 -0.024568189

model/batch_normalization_3/batchnorm/mul_1 i1 [128, 128] scale=0.04005964 zero_point=0
000000 fe fa fa fe fd 00 00 ff 02 00 05 fa ff fd 00 04
       -0.08011928 -0.24035785 -0.24035785 -0.08011928 -0.12017892 0.0 0.0 -0.04005964 0.08011928 0.0 0.2002982 -0.24035785 -0.04005964 -0.12017892 0.0 0.16023856
000010 f9 ff ff 06 fa 01 fe fc fe fc 03 07 f9 03 06 fe
       -0.2804175 -0.04005964 -0.04005964 0.24035785 -0.24035785 0.04005964 -0.08011928 -0.16023856 -0.08011928 -0.16023856 0.12017892 0.2804175 -0.2804175 0.12017892 0.24035785 -0.08011928
000020 0f ff fe 02 fb fe fe fa 01 fd fc ff f2 ff f9 03
       0.60089463 -0.04005964 -0.08011928 0.08011928 -0.2002982 -0.08011928 -0.08011928 -0.24035785 0.04005964 -0.12017892 -0.16023856 -0.04005964 -0.560835 -0.04005964 -0.2804175 0.12017892
000030 01 fe 00 01 ff 02 07 fd fd 00 01 03 00 03 00 00
       0.04005964 -0.08011928 0.0 0.04005964 -0.04005964 0.08011928 0.2804175 -0.12017892 -0.12017892 0.0 0.04005964 0.12017892 0.0 0.12017892 0.0 0.0
000040 ff fe 00 f6 03 fc ff fe 01 02 02 04 09 fe fd 00
       -0.04005964 -0.08011928 0.0 -0.4005964 0.12017892 -0.16023856 -0.04005964 -0.08011928 0.04005964 0.08011928 0.08011928 0.16023856 0.36053675 -0.08011928 -0.12017892 0.0
000050 ff 00 0e fa 02 04 f8 fd f8 01 fd f9 f5 04 ff 0a
       -0.04005964 0.0 0.560835 -0.24035785 0.08011928 0.16023856 -0.32047713 -0.12017892 -0.32047713 0.04005964 -0.12017892 -0.2804175 -0.44065607 0.16023856 -0.04005964 0.4005964
000060 09 00 fd fb fe 01 01 00 00 fd 01 04 fe ff 05 08
       0.36053675 0.0 -0.12017892 -0.2002982 -0.08011928 0.04005964 0.04005964 0.0 0.0 -0.12017892 0.04005964 0.16023856 -0.08011928 -0.04005964 0.2002982 0.32047713
000070 fe 00 07 fe 00 04 04 04 fc fe 04 02 01 ff 00 f9
       -0.08011928 0.0 0.2804175 -0.08011928 0.0 0.16023856 0.16023856 0.16023856 -0.16023856 -0.08011928 0.16023856 0.08011928 0.04005964 -0.04005964 0.0 -0.2804175
000080 03 fd 0b 0b 05 06 03 f2 09 fe 07 00 ff 01 06 06
       0.12017892 -0.12017892 0.44065607 0.44065607 0.2002982 0.24035785 0.12017892 -0.560835 0.36053675 -0.08011928 0.2804175 0.0 -0.04005964 0.04005964 0.24035785 0.24035785
000090 06 fd fe 0f fc f6 0d f6 fe fd fe fb 05 02 f9 ff
       0.24035785 -0.12017892 -0.08011928 0.60089463 -0.16023856 -0.4005964 0.5207753 -0.4005964 -0.08011928 -0.12017892 -0.08011928 -0.2002982 0.2002982 0.08011928 -0.2804175 -0.04005964
0000a0 f7 27 00 05 04 04 01 fd f9 03 06 01 fa 04 f9 01
       -0.36053675 1.562326 0.0 0.2002982 0.16023856 0.16023856 0.04005964 -0.12017892 -0.2804175 0.12017892 0.24035785 0.04005964 -0.24035785 0.16023856 -0.2804175 0.04005964
0000b0 f5 06 fd fe f9 0c f9 fe fc 0b 01 fd fe f6 f7 f3
       -0.44065607 0.24035785 -0.12017892 -0.08011928 -0.2804175 0.4807157 -0.2804175 -0.08011928 -0.16023856 0.44065607 0.04005964 -0.12017892 -0.08011928 -0.4005964 -0.36053675 -0.5207753
0000c0 08 00 f9 fe fc 05 07 fc fc 08 fa f7 fe 0b 04 fa
       0.32047713 0.0 -0.2804175 -0.08011928 -0.16023856 0.2002982 0.2804175 -0.16023856 -0.16023856 0.32047713 -0.24035785 -0.36053675 -0.08011928 0.44065607 0.16023856 -0.24035785
0000d0 fd 03 fb fd 04 03 fa 04 fa 06 ff fe 08 02 fd 02
       -0.12017892 0.12017892 -0.2002982 -0.12017892 0.16023856 0.12017892 -0.24035785 0.16023856 -0.24035785 0.24035785 -0.04005964 -0.08011928 0.32047713 0.08011928 -0.12017892 0.08011928
0000e0 fe 06 03 05 ff 02 ff 00 08 03 f8 fb fb 06 0f 02
       -0.08011928 0.24035785 0.12017892 0.2002982 -0.04005964 0.08011928 -0.04005964 0.0 0.32047713 0.12017892 -0.32047713 -0.2002982 -0.2002982 0.24035785 0.60089463 0.08011928
0000f0 fe 00 f7 02 01 00 fe fe 00 00 ff 05 01 fe fd fc
       -0.08011928 0.0 -0.36053675 0.08011928 0.04005964 0.0 -0.08011928 -0.08011928 0.0 0.0 -0.04005964 0.2002982 0.04005964 -0.08011928 -0.12017892 -0.16023856

model/batch_normalization_2/batchnorm/mul_1 i1 [128, 128] scale=0.028399862 zero_point=0
000000 01 00 fd fa 03 fc ff ff 03 f9 05 ff 01 08 05 f8
       0.028399862 0.0 -0.08519959 -0.17039917 0.08519959 -0.11359945 -0.028399862 -0.028399862 0.08519959 -0.19879904 0.1419993 -0.028399862 0.028399862 0.2271989 0.1419993 -0.2271989
000010 03 fa fe 05 03 00 01 fc f9 07 04 fa 03 01 fd 00
       0.08519959 -0.17039917 -0.056799725 0.1419993 0.08519959 0.0 0.028399862 -0.11359945 -0.19879904 0.19879904 0.11359945 -0.17039917 0.08519959 0.028399862 -0.08519959 0.0
000020 fd fa 03 ff fd 03 03 fa 04 fc 02 fc 02 00 04 fc
       -0.08519959 -0.17039917 0.08519959 -0.028399862 -0.08519959 0.08519959 0.08519959 -0.17039917 0.11359945 -0.11359945 0.056799725 -0.11359945 0.056799725 0.0 0.11359945 -0.11359945
000030 08 06 01 fa fa 03 02 fc 00 03 fc 04 03 06 01 03
       0.2271989 0.17039917 0.028399862 -0.17039917 -0.17039917 0.08519959 0.056799725 -0.11359945 0.0 0.08519959 -0.11359945 0.11359945 0.08519959 0.17039917 0.028399862 0.08519959
000040 06 fd 05 fd fe fd 03 03 03 00 ff fe 03 fd 03 fb
       0.17039917 -0.08519959 0.1419993 -0.08519959 -0.056799725 -0.08519959 0.08519959 0.08519959 0.08519959 0.0 -0.028399862 -0.056799725 0.08519959 -0.08519959 0.08519959 -0.1419993
000050 00 ff 02 02 06 01 04 06 fd 02 02 f8 01 02 fe 02
       0.0 -0.028399862 0.056799725 0.056799725 0.17039917 0.028399862 0.11359945 0.17039917 -0.08519959 0.056799725 0.056799725 -0.2271989 0.028399862 0.056799725 -0.056799725 0.056799725
000060 ff fb fe ff 04 fd 04 f1 fe fb 09 02 fd fb 07 01
       -0.028399862 -0.1419993 -0.056799725 -0.028399862 0.11359945 -0.08519959 0.11359945 -0.42599794 -0.056799725 -0.1419993 0.25559875 0.056799725 -0.08519959 -0.1419993 0.19879904 0.028399862
000070 05 fe 00 fe 00 ff 03 fd 03 fb 04 05 02 f9 fd 01
       0.1419993 -0.056799725 0.0 -0.056799725 0.0 -0.028399862 0.08519959 -0.08519959 0.08519959 -0.1419993 0.11359945 0.1419993 0.056799725 -0.19879904 -0.08519959 0.028399862
000080 01 01 00 fd 01 fc 01 01 04 00 fd 00 fd fe 00 03
       0.028399862 0.028399862 0.0 -0.08519959 0.028399862 -0.11359945 0.028399862 0.028399862 0.11359945 0.0 -0.08519959 0.0 -0.08519959 -0.056799725 0.0 0.08519959
000090 02 01 05 02 00 00 01 03 00 00 00 00 00 fc ff ff
       0.056799725 0.028399862 0.1419993 0.056799725 0.0 0.0 0.028399862 0.08519959 0.0 0.0 0.0 0.0 0.0 -0.11359945 -0.028399862 -0.028399862
0000a0 02 01 00 fd fe 01 fd 00 01 ff 01 fe fe ff 02 00
       0.056799725 0.028399862 0.0 -0.08519959 -0.056799725 0.028399862 -0.08519959 0.0 0.028399862 -0.028399862 0.028399862 -0.056799725 -0.056799725 -0.028399862 0.056799725 0.0
0000b0 fb 01 02 10 ff 03 02 00 04 06 fc 00 ff fe 00 ff
       -0.1419993 0.028399862 0.056799725 0.4543978 -0.028399862 0.08519959 0.056799725 0.0 0.11359945 0.17039917 -0.11359945 0.0 -0.028399862 -0.056799725 0.0 -0.028399862
0000c0 ff 01 fe 0c fc 00 00 fb 00 02 01 01 00 fe fd 03
       -0.028399862 0.028399862 -0.056799725 0.34079835 -0.11359945 0.0 0.0 -0.1419993 0.0 0.056799725 0.028399862 0.028399862 0.0 -0.056799725 -0.08519959 0.08519959
0000d0 01 01 02 fb fe 01 01 01 fd 01 02 01 fb ff 01 fb
       0.028399862 0.028399862 0.056799725 -0.1419993 -0.056799725 0.028399862 0.028399862 0.028399862 -0.08519959 0.028399862 0.056799725 0.028399862 -0.1419993 -0.028399862 0.028399862 -0.1419993
0000e0 00 04 01 00 ff 01 02 ff 02 ff 02 00 02 02 ff fb
       0.0 0.11359945 0.028399862 0.0 -0.028399862 0.028399862 0.056799725 -0.028399862 0.056799725 -0.028399862 0.056799725 0.0 0.056799725 0.056799725 -0.028399862 -0.1419993
0000f0 fb ff 04 01 ff ff 01 02 fe ff fe fe 01 01 01 03
       -0.1419993 -0.028399862 0.11359945 0.028399862 -0.028399862 -0.028399862 0.028399862 0.056799725 -0.056799725 -0.028399862 -0.056799725 -0.056799725 0.028399862 0.028399862 0.028399862 0.08519959

model/batch_normalization_1/batchnorm/mul_1 i1 [128, 128] scale=0.010552688 zero_point=0
000000 05 09 fa 02 f2 0e fa f5 f2 fc 04 01 02 02 02 06
       0.05276344 0.09497419 -0.06331612 0.021105375 -0.14773762 0.14773762 -0.06331612 -0.11607956 -0.14773762 -0.04221075 0.04221075 0.010552688 0.021105375 0.021105375 0.021105375 0.06331612
000010 05 00 0c 04 0d f4 fe 03 f9 f6 f7 02 04 fa 07 f7
       0.05276344 0.0 0.12663224 0.04221075 0.13718493 -0.12663224 -0.021105375 0.03165806 -0.07386881 -0.10552688 -0.09497419 0.021105375 0.04221075 -0.06331612 0.07386881 -0.09497419
000020 11 03 04 f6 00 06 fb 0d fd ff 09 fc 00 fc 08 04
       0.17939569 0.03165806 0.04221075 -0.10552688 0.0 0.06331612 -0.05276344 0.13718493 -0.03165806 -0.010552688 0.09497419 -0.04221075 0.0 -0.04221075 0.0844215 0.04221075
000030 0a 03 ff 00 0b 06 f8 fd 07 fd 00 04 0a fb 02 f5
       0.10552688 0.03165806 -0.010552688 0.0 0.11607956 0.06331612 -0.0844215 -0.03165806 0.07386881 -0.03165806 0.0 0.04221075 0.10552688 -0.05276344 0.021105375 -0.11607956
000040 07 f8 fa 09 fb fe 06 00 01 05 04 0a 01 fd fe 05
       0.07386881 -0.0844215 -0.06331612 0.09497419 -0.05276344 -0.021105375 0.06331612 0.0 0.010552688 0.05276344 0.04221075 0.10552688 0.010552688 -0.03165806 -0.021105375 0.05276344
000050 f3 08 fa fd 08 00 05 f5 02 fe fd fd e4 03 00 03
       -0.13718493 0.0844215 -0.06331612 -0.03165806 0.0844215 0.0 0.05276344 -0.11607956 0.021105375 -0.021105375 -0.03165806 -0.03165806 -0.29547524 0.03165806 0.0 0.03165806
000060 f8 ee 01 fe 04 fd ed 02 fb f8 e1 04 fa f1 04 06
       -0.0844215 -0.18994838 0.010552688 -0.021105375 0.04221075 -0.03165806 -0.20050107 0.021105375 -0.05276344 -0.0844215 -0.32713333 0.04221075 -0.06331612 -0.15829031 0.04221075 0.06331612
000070 f7 ff 05 03 00 02 06 fd f3 02 fd fc f6 02 f6 f9
       -0.09497419 -0.010552688 0.05276344 0.03165806 0.0 0.021105375 0.06331612 -0.03165806 -0.13718493 0.021105375 -0.03165806 -0.04221075 -0.10552688 0.021105375 -0.10552688 -0.07386881
000080 00 04 0f 03 ff fe fb f8 fa f5 00 ee f8 03 00 08
       0.0 0.04221075 0.15829031 0.03165806 -0.010552688 -0.021105375 -0.05276344 -0.0844215 -0.06331612 -0.11607956 0.0 -0.18994838 -0.0844215 0.03165806 0.0 0.0844215
000090 03 0a 0c fd 08 0a 01 fd 00 f4 0b 06 fb f5 f8 05
       0.03165806 0.10552688 0.12663224 -0.03165806 0.0844215 0.10552688 0.010552688 -0.03165806 0.0 -0.12663224 0.11607956 0.06331612 -0.05276344 -0.11607956 -0.0844215 0.05276344
0000a0 ff 06 03 01 06 fe fd 0c 10 01 01 02 fd fa 02 ff
       -0.010552688 0.06331612 0.03165806 0.010552688 0.06331612 -0.021105375 -0.03165806 0.12663224 0.168843 0.010552688 0.010552688 0.021105375 -0.03165806 -0.06331612 0.021105375 -0.010552688
0000b0 01 03 02 03 fb ea fd fd 04 f9 ff 00 08 fc 08 f9
       0.010552688 0.03165806 0.021105375 0.03165806 -0.05276344 -0.23215912 -0.03165806 -0.03165806 0.04221075 -0.07386881 -0.010552688 0.0 0.0844215 -0.04221075 0.0844215 -0.07386881
0000c0 03 04 fd fb f8 00 03 08 fb fb 01 fb 00 fb fa fa
       0.03165806 0.04221075 -0.03165806 -0.05276344 -0.0844215 0.0 0.03165806 0.0844215 -0.05276344 -0.05276344 0.010552688 -0.05276344 0.0 -0.05276344 -0.06331612 -0.06331612
0000d0 fc 01 06 06 ff ff ff fc 09 0d fd 05 fd 05 f7 03
       -0.04221075 0.010552688 0.06331612 0.06331612 -0.010552688 -0.010552688 -0.010552688 -0.04221075 0.09497419 0.13718493 -0.03165806 0.05276344 -0.03165806 0.05276344 -0.09497419 0.03165806
0000e0 01 03 ff 0b fc fc fd 03 05 04 08 fa eb 0a fd 00
       0.010552688 0.03165806 -0.010552688 0.11607956 -0.04221075 -0.04221075 -0.03165806 0.03165806 0.05276344 0.04221075 0.0844215 -0.06331612 -0.22160643 0.10552688 -0.03165806 0.0
0000f0 fb f6 07 06 06 04 08 f9 02 02 0b fb 01 08 fb fc
       -0.05276344 -0.10552688 0.07386881 0.06331612 0.06331612 0.04221075 0.0844215 -0.07386881 0.021105375 0.021105375 0.11607956 -0.05276344 0.010552688 0.0844215 -0.05276344 -0.04221075

model/batch_normalization/batchnorm/mul_1 i1 [128, 640] scale=0.00015507943 zero_point=0
000000 f4 f6 f8 02 03 05 02 03 03 03 04 06 06 05 03 01
       -0.0018609532 -0.0015507942 -0.0012406354 0.00031015885 0.0004652383 0.0007753971 0.00031015885 0.0004652383 0.0004652383 0.0004652383 0.0006203177 0.0009304766 0.0009304766 0.0007753971 0.0004652383 0.00015507943
000010 05 09 09 08 06 03 05 01 03 01 fe ff ff 03 02 02
       0.0007753971 0.0013957148 0.0013957148 0.0012406354 0.0009304766 0.0004652383 0.0007753971 0.00015507943 0.0004652383 0.00015507943 -0.00031015885 -0.00015507943 -0.00015507943 0.0004652383 0.00031015885 0.00031015885
000020 05 06 05 02 01 02 00 01 02 03 01 01 02 04 01 ff
       0.0007753971 0.0009304766 0.0007753971 0.00031015885 0.00015507943 0.00031015885 0.0 0.00015507943 0.00031015885 0.0004652383 0.00015507943 0.00015507943 0.00031015885 0.0006203177 0.00015507943 -0.00015507943
000030 fe fd fe fe 00 ff 01 01 01 01 03 04 06 05 06 05
       -0.00031015885 -0.0004652383 -0.00031015885 -0.00031015885 0.0 -0.00015507943 0.00015507943 0.00015507943 0.00015507943 0.00015507943 0.0004652383 0.0006203177 0.0009304766 0.0007753971 0.0009304766 0.0007753971
000040 ff fe 00 03 03 02 04 03 04 06 06 05 04 01 00 02
       -0.00015507943 -0.00031015885 0.0 0.0004652383 0.0004652383 0.00031015885 0.0006203177 0.0004652383 0.0006203177 0.0009304766 0.0009304766 0.0007753971 0.0006203177 0.00015507943 0.0 0.00031015885
000050 ff fe fe fd 01 02 00 fa ff ff fb ff 00 00 00 02
       -0.00015507943 -0.00031015885 -0.00031015885 -0.0004652383 0.00015507943 0.00031015885 0.0 -0.0009304766 -0.00015507943 -0.00015507943 -0.0007753971 -0.00015507943 0.0 0.0 0.0 0.00031015885
000060 06 00 fe 00 02 02 ff ff fd fe ff ff ff 00 fe fc
       0.0009304766 0.0 -0.00031015885 0.0 0.00031015885 0.00031015885 -0.00015507943 -0.00015507943 -0.0004652383 -0.00031015885 -0.00015507943 -0.00015507943 -0.00015507943 0.0 -0.00031015885 -0.0006203177
000070 fe fd 02 01 fd fe fb fb fc fb f9 fa f9 f9 fc fc
       -0.00031015885 -0.0004652383 0.00031015885 0.00015507943 -0.0004652383 -0.00031015885 -0.0007753971 -0.0007753971 -0.0006203177 -0.0007753971 -0.001085556 -0.0009304766 -0.001085556 -0.001085556 -0.0006203177 -0.0006203177
000080 f4 f1 f4 fc ff 00 00 01 00 00 04 04 04 05 03 02
       -0.0018609532 -0.0023261914 -0.0018609532 -0.0006203177 -0.00015507943 0.0 0.0 0.00015507943 0.0 0.0 0.0006203177 0.0006203177 0.0006203177 0.0007753971 0.0004652383 0.00031015885
000090 03 05 06 04 01 ff 02 ff fd fd fa fb fd 01 00 fe
       0.0004652383 0.0007753971 0.0009304766 0.0006203177 0.00015507943 -0.00015507943 0.00031015885 -0.00015507943 -0.0004652383 -0.0004652383 -0.0009304766 -0.0007753971 -0.0004652383 0.00015507943 0.0 -0.00031015885
0000a0 00 01 00 fc fc fc fc fb fd fd fb fb fe ff fe fb
       0.0 0.00015507943 0.0 -0.0006203177 -0.0006203177 -0.0006203177 -0.0006203177 -0.0007753971 -0.0004652383 -0.0004652383 -0.0007753971 -0.0007753971 -0.00031015885 -0.00015507943 -0.00031015885 -0.0007753971
0000b0 fb f9 fa f8 fa fa fa fa fa fd fe 01 ff ff 01 fc
       -0.0007753971 -0.001085556 -0.0009304766 -0.0012406354 -0.0009304766 -0.0009304766 -0.0009304766 -0.0009304766 -0.0009304766 -0.0004652383 -0.00031015885 0.00015507943 -0.00015507943 -0.00015507943 0.00015507943 -0.0006203177
0000c0 f9 f9 fa fe fe ff 00 fe fe 02 01 01 02 f9 fa fa
       -0.001085556 -0.001085556 -0.0009304766 -0.00031015885 -0.00031015885 -0.00015507943 0.0 -0.00031015885 -0.00031015885 0.00031015885 0.00015507943 0.00015507943 0.00031015885 -0.001085556 -0.0009304766 -0.0009304766
0000d0 f7 f6 f6 f7 f8 f8 f8 f4 f5 f7 f6 fa fc fa fa fc
       -0.0013957148 -0.0015507942 -0.0015507942 -0.0013957148 -0.0012406354 -0.0012406354 -0.0012406354 -0.0018609532 -0.0017058736 -0.0013957148 -0.0015507942 -0.0009304766 -0.0006203177 -0.0009304766 -0.0009304766 -0.0006203177
0000e0 fd f8 f6 fb f9 fc f6 f6 f5 fa f9 f5 f6 f9 fb fd
       -0.0004652383 -0.0012406354 -0.0015507942 -0.0007753971 -0.001085556 -0.0006203177 -0.0015507942 -0.0015507942 -0.0017058736 -0.0009304766 -0.001085556 -0.0017058736 -0.0015507942 -0.001085556 -0.0007753971 -0.0004652383
0000f0 fd ff fb f9 fa fc fa f9 f8 f7 f7 fb f5 f5 fa fd
       -0.0004652383 -0.00015507943 -0.0007753971 -0.001085556 -0.0009304766 -0.0006203177 -0.0009304766 -0.001085556 -0.0012406354 -0.0013957148 -0.0013957148 -0.0007753971 -0.0017058736 -0.0017058736 -0.0009304766 -0.0004652383
