compression/autoencoder/float16_quantization/models_compressed/model_slider.tflite (tflite, 540592 bytes, 20 tensors)

model/activation/Relu;model/batch_normalization/batchnorm/add_1 f2 [128]
4.562 -4.496 -1.851 0.1084 5.2 -3.834 6.293 9.67
-0.3005 -1.231 -0.8354 -3.557 0.8325 0.1914 2.814 1.947
-2.4 1.148 3.943 -9.78 -2.447 -1.413 0.1842 1.253
-3.46 2.45 0.905 3.303 -2.332 8.15 3.64 2.443
0.007587 1.087 1.482 0.32 -3.33 1.858 0.656 -0.8945
4.703 0.1548 2.094 -1.533 -0.95 -1.014 -1.91 0.879
-2.143 -1.237 0.505 2.713 1.078 -1.209 -0.84 -3.016
1.492 3.19 -3.53 3.393 2.814 -13.41 -1.698 -3.035
0.889 -1.037 0.4006 4.426 3.39 3.096 0.537 0.803
3.49 -2.252 -0.6772 -2.36 0.282 0.8813 -4.973 -4.945
-1.529 -0.2081 1.536 1.105 1.4795 4.06 13.63 -2.164
2.9 1.298 4.77 0.809 -1.074 -1.935 -0.4155 1.353
-3.314 10.28 3.92 -2.174 -1.163 4.2 2.998 3.578
1.882 -0.8013 -1.236 -0.4143 -3.209 -9.6 3.043 -1.704
0.919 -1.477 1.658 1.083 3.342 -1.411 1.958 -1.765
-6.785 -4.55 -0.521 -0.8403 0.2666 2.393 -0.1388 -0.748
00000000: 9044 7fc4 67bf f02e 3345 abc3 4b46 d648
00000010: cfb4 edbc afba 1dc3 a93a 2032 a141 ca3f
00000020: cdc0 983c e343 e4c8 e5c0 a7bd e531 033d
00000030: ecc2 e640 3d3b 9b42 aac0 1348 4843 e340
00000040: c51f 593c ee3d 1f35 a9c2 6f3f 3f39 28bb
00000050: b444 f430 3040 22be 9abb 0ebc a4bf 083b
00000060: 49c0 f3bc 0a38 6d41 503c d6bc b8ba 08c2
00000070: f83d 6142 0fc3 c942 a141 b4ca cbbe 12c2
00000080: 1d3b 26bc 6936 6d44 c842 3142 4c38 6d3a
00000090: fb42 81c0 6bb9 b8c0 8334 0d3b f9c4 f2c4
000000a0: 1ebe a9b2 253e 6c3c eb3d 0f44 d14a 54c0
000000b0: cd41 313d c544 793a 4cbc bdbf a6b6 693d
000000c0: a1c2 2449 d743 59c0 a7bc 3344 ff41 2843
000000d0: 873f 69ba f2bc a1b6 6bc2 cdc8 1642 d1be
000000e0: 5a3b e8bd a23e 553c af42 a5bd d53f 0fbf
000000f0: c9c6 8dc4 2bb8 b9ba 4434 c940 71b0 fcb9

model/activation_1/Relu;model/batch_normalization_1/batchnorm/add_1 f2 [128]
-0.1824 0.2329 0.1009 -0.664 -0.9214 -0.504 0.5005 -0.1814
-0.1012 -0.02756 -1.095 0.1045 0.0898 0.6035 0.0333 -0.2766
-0.565 0.1454 -0.4028 0.12427 -0.01165 -0.2573 0.386 -0.0143
0.937 0.7393 0.236 0.4119 0.507 0.5034 0.255 -0.3977
0.4775 0.5283 0.1814 -0.5127 -0.3984 -0.5044 0.1614 0.613
-0.02205 0.6875 0.7207 -0.3877 0.23 -0.2186 0.346 -0.3147
0.1151 0.2031 -0.886 -0.1935 0.3186 -0.0389 -0.1483 -0.1396
0.2842 -0.6147 -0.293 -0.148 -0.1008 -0.2927 0.462 0.2773
-0.02763 0.3884 0.4783 -0.2312 -0.0391 -0.6367 0.0995 -0.0326
-0.2288 0.01613 -2.59 -0.3132 0.3984 -0.521 0.4746 0.431
-0.4585 -0.08563 -0.3452 0.1656 0.5845 -0.4617 0.1456 0.354
-0.8823 0.05756 -0.2834 0.2644 -1.44 0.1014 -0.1912 0.249
-0.2893 -0.08936 0.02406 0.0559 -0.6094 -0.168 0.5425 -0.4736
-0.1664 -0.001741 0.05878 -1.186 -0.5596 -0.976 0.932 -0.2155
0.37 0.798 0.1199 0.764 0.2015 0.2423 0.3062 -0.5054
-0.1011 0.0701 -0.2336 1.087 0.4407 0.1034 0.5537 0.666
00000000: d6b1 7433 752e 50b9 5fbb 08b8 0138 ceb1
00000010: 7aae 0ea7 61bc b02e bf2d d438 4328 6db4
00000020: 85b8 a730 72b6 f42f f7a1 1eb4 2d36 52a3
00000030: 7f3b ea39 8d33 9736 0e38 0738 1434 5db6
00000040: a437 3a38 ce31 1ab8 60b6 09b8 2a31 e738
00000050: a5a5 8039 c439 34b6 5c33 ffb2 8935 09b5
00000060: 5e2f 8032 17bb 31b2 1935 fba8 bfb0 78b0
00000070: 8c34 ebb8 b0b4 bcb0 74ae afb4 6437 7034
00000080: 13a7 3736 a737 66b3 01a9 18b9 5e2e 2ca8
00000090: 52b3 2124 2ec1 03b5 6036 2bb8 9837 e536
000000a0: 56b7 7bad 86b5 4d31 ad38 63b7 a930 aa35
000000b0: 0fbb 5e2b 89b4 3b34 c3bd 7d2e 1eb2 f833
000000c0: a1b4 b8ad 2926 282b e0b8 60b1 5738 94b7
000000d0: 53b1 2297 862b bebc 7ab8 cfbb 753b e5b2
000000e0: ec35 623a ac2f 1d3a 7332 c133 e634 0bb8
000000f0: 78ae 7d2c 7ab3 593c 0d37 9e2e 6e38 5439

model/activation_2/Relu;model/batch_normalization_2/batchnorm/add_1 f2 [128]
0.01563 -5.08 0.142 0.1879 -0.2152 0.2267 -0.0417 -0.0345
0.11 -3.45 0.1482 0.282 0.105 0.1454 0.4768 -0.00131
-0.1747 0.09283 1.27 0.1373 0.0165 0.2429 0.7354 0.09625
-0.4382 0.6406 0.1296 0.4072 0.4058 0.01386 0.3606 0.4458
-0.6655 0.9473 0.02444 -0.01132 0.2413 -0.5967 -2.639 -0.0197
-0.2478 -0.1787 -1.358 0.446 -0.2139 0.3254 0.1934 0.83
-0.02402 -0.1009 -0.2198 0.5205 -0.1569 0.3804 0.2343 -0.057
0.06946 0.148 0.1004 -1.122 0.207 -0.01924 -0.2651 -0.7935
0.0937 -0.2064 0.02933 -0.1449 0.115 0.708 -0.036 0.3806
0.5234 0.2397 0.1354 0.5713 0.518 -0.322 0.476 0.06082
-0.1192 0.15 -0.04233 -0.1381 -0.02063 0.2886 0.4866 0.8853
0.181 0.281 0.2505 0.58 0.4402 -0.3262 0.03003 -0.0716
0.3782 0.08636 -0.01631 -0.263 0.2573 -0.1802 -0.4539 -0.11896
-0.3457 0.2722 -0.207 0.1716 0.6567 0.1908 0.817 -4.688
0.07794 -0.004944 0.1973 0.09985 0.06726 -4.625 -0.04434 0.3323
0.2231 -0.2595 0.2603 -0.2927 0.5767 0.00954 0.618 -0.2837
00000000: 0024 14c5 8b30 0332 e3b2 4133 56a9 6aa8
00000010: 0a2f e6c2 be30 8334 b82e a730 a137 5e95
00000020: 97b1 f12d 143d 6530 3924 c633 e239 292e
00000030: 03b7 2039 2630 8436 7e36 1923 c535 2237
00000040: 53b9 943b 4226 cca1 b933 c6b8 47c1 0ba5
00000050: eeb3 b8b1 6fbd 2337 d8b2 3535 3032 a43a
00000060: 26a6 75ae 09b3 2a38 05b1 1636 7f33 4cab
00000070: 722c bc30 6d2e 7dbc a032 eda4 3eb4 59ba
00000080: ff2d 9bb2 8227 a3b0 5c2f aa39 9ca8 1736
00000090: 3038 ac33 5530 9238 2538 27b5 9e37 c92b
000000a0: a1af cd30 6ba9 6bb0 48a5 9e34 c937 153b
000000b0: cb31 7f34 0234 a438 0b37 38b5 b027 95ac
000000c0: 0d36 872d 2da4 35b4 1e34 c4b1 43b7 9daf
000000d0: 88b5 5b34 a0b2 7e31 4139 1b32 893a b0c4
000000e0: fd2c 109d 5032 642e 4e2c a0c4 ada9 5135
000000f0: 2433 27b4 2a34 afb4 9d38 e220 f238 8ab4

model/activation_3/Relu;model/batch_normalization_3/batchnorm/add_1 f2 [128]
0.6733 0.278 0.2615 0.2986 -0.134 0.644 0.8843 -0.006958
-0.2864 -0.3254 0.3684 -1.284 0.2937 -0.4763 0.574 -0.3228
0.7197 0.1644 -0.2515 0.1561 0.386 0.2188 0.44 -1.717
0.2717 0.9023 0.2277 0.3972 0.8936 0.2659 0.4004 -0.1504
-0.6597 0.639 -0.1443 0.4468 0.4668 0.567 0.8174 -1.837
0.4602 0.53 -0.0463 -0.0783 0.1583 0.03128 0.3008 0.2856
0.1364 0.0993 -0.04956 0.3613 0.0796 0.1335 -0.2954 0.509
-2.459 0.53 -0.006924 -0.4434 -0.01542 0.7554 -2.145 0.2356
0.2744 -0.2068 -0.242 0.4946 -0.12415 -0.4988 0.1553 -0.01054
-0.1111 0.04968 0.3333 -0.1381 0.586 0.559 0.2188 0.726
-0.1226 0.07227 0.736 0.354 0.68 0.0703 -2.803 0.524
0.3977 0.521 0.06635 -0.631 -0.11566 -0.425 0.283 1.0625
-0.3235 0.388 0.1313 -0.2151 -0.3438 -2.287 0.01253 0.4692
-0.1643 -2.19 -0.2737 -0.4897 0.82 0.5283 -1.432 0.4866
-0.579 0.25 0.2559 0.11755 0.3477 0.2163 -0.3784 0.2969
-1.748 -0.0953 0.2776 0.4507 -0.1404 -0.04803 -0.267 0.42
00000000: 6339 7334 2f34 c734 4ab0 2739 133b 209f
00000010: 95b4 35b5 e535 23bd b334 9fb7 9838 2ab5
00000020: c239 4331 06b4 ff30 2d36 0033 0a37 debe
00000030: 5934 383b 4933 5b36 263b 4134 6836 d0b0
00000040: 47b9 1d39 9eb0 2637 7837 8938 8a3a 59bf
00000050: 5d37 3d38 eda9 03ad 1131 0128 d034 9234
00000060: 5d30 5b2e 58aa c835 182d 4630 bab4 1238
00000070: ebc0 3d38 179f 18b7 e5a3 0b3a 4ac0 8a33
00000080: 6434 9eb2 beb3 ea37 f2af fbb7 f830 65a1
00000090: 1caf 5c2a 5535 6bb0 b038 7938 0033 cf39
000000a0: d9af a02c e339 aa35 7139 802c 9bc1 3138
000000b0: 5d36 2b38 3f2c 0cb9 67af cdb6 8734 403c
000000c0: 2db5 3536 3430 e2b2 80b5 93c0 6a22 8237
000000d0: 42b1 61c0 61b4 d6b7 8f3a 3a38 babd c937
000000e0: a2b8 0034 1834 862f 9035 ec32 0eb6 c034
000000f0: febe 19ae 7134 3637 7eb0 26aa 46b4 b836

model/activation_4/Relu;model/batch_normalization_4/batchnorm/add_1 f2 [8]
1.541 0.8696 2.182 0.8555 2.812 1.577 1.139 0.9043
00000000: 2a3e f53a 5d40 d83a a041 4f3e 8e3c 3c3b

model/activation_5/Relu;model/batch_normalization_5/batchnorm/add_1 f2 [128]
-4.75 -2.428 -4.812 1.835 0.576 2.73 -1.578 2.371
-3.402 2.01 -4.684 0.288 -1.588 0.429 -6.844 -2.152
3.492 0.674 0.885 3.168 -4.438 0.716 -2.783 0.8506
-6.598 3.564 -0.3833 2.482 3.94 2.756 0.6543 -5.46
-0.5635 1.311 2.842 2.387 4.3 4.996 5.02 -2.57
3.969 3.486 -2.102 5.637 2.602 -1.556 -2.605 -0.552
-0.2109 -5.758 -2.338 1.45 -2.37 5.625 0.463 1.707
0.6006 2.78 -1.889 6.4 -3.021 2.053 -3.15 0.2864
0.8423 3.467 -2.107 5.13 4.37 -5.332 1.79 1.157
-0.549 1.457 -0.474 2.82 -8.0 -1.998 -6.004 2.44
4.004 -1.095 -0.8984 -4.246 -1.361 -4.344 -0.5786 2.229
2.47 -1.362 -3.572 -4.625 -0.7725 0.2169 0.405 -3.506
2.53 -3.697 3.076 2.65 0.5757 -1.496 0.494 0.563
-1.041 -2.639 5.09 2.18 1.067 -0.832 0.7197 4.492
5.367 0.03467 0.9995 -5.105 3.812 -1.129 1.102 2.318
4.57 -0.4111 1.155 -5.035 1.934 1.697 -4.926 0.453
00000000: c0c4 dbc0 d0c4 573f 9c38 7641 50be be40
00000010: cec2 0540 afc4 9c34 5abe dd36 d8c6 4ec0
00000020: fc42 6439 143b 5642 70c4 ba39 91c1 ce3a
00000030: 99c6 2143 22b6 f740 e143 8341 3c39 76c5
00000040: 82b8 3e3d af41 c640 4d44 ff44 0545 24c1
00000050: f043 f942 34c0 a345 3441 39be 36c1 6ab8
00000060: c0b2 c2c5 adc0 cd3d bdc0 a045 6837 d43e
00000070: ce38 8f41 8ebf 6646 0bc2 1b40 4dc2 9534
00000080: bd3a ef42 37c0 2145 5f44 55c5 293f a13c
00000090: 64b8 d43d 96b7 a441 00c8 febf 01c6 e140
000000a0: 0144 61bc 30bb 3fc4 72bd 58c4 a1b8 7540
000000b0: f140 73bd 25c3 a0c4 2eba f132 7b36 03c3
000000c0: 0f41 65c3 2742 4d41 9b38 fcbd e737 8138
000000d0: 2abc 47c1 1745 5c40 453c a8ba c239 7e44
000000e0: 5e45 7028 ff3b 1bc5 a043 84bc 683c a340
000000f0: 9244 94b6 9f3c 09c5 bc3f ca3e edc4 3f37

model/activation_6/Relu;model/batch_normalization_6/batchnorm/add_1 f2 [128]
-0.1242 1.311 0.5522 0.3516 -0.1935 -0.602 0.5557 0.03632
0.3406 0.6577 0.473 -0.109 0.436 0.728 0.2876 -1.407
-0.7593 1.61 -0.684 -0.3796 -0.4272 0.5396 0.3494 0.3093
0.1323 0.951 -0.1554 0.841 1.552 -0.1611 -0.5347 0.4297
0.5405 0.5835 0.2483 -1.804 0.086 0.3137 -1.011 -0.2756
1.175 -0.2126 0.76 -0.04288 0.659 0.378 0.668 -0.847
-0.596 -0.6963 -0.05136 -0.9336 1.469 -0.5435 1.388 0.4294
0.001873 0.693 -0.2585 1.092 1.233 0.7075 0.4934 1.202
0.8457 -1.237 -0.2576 -0.4895 -0.2189 -0.1593 1.168 0.784
0.819 1.319 0.544 0.08813 -0.2515 0.7397 0.564 -0.3062
-0.749 0.9727 0.644 0.1068 0.6367 -0.5312 -0.6094 0.775
0.4294 1.505 0.5474 0.567 -0.038 -0.3362 0.3875 0.408
0.7197 0.6377 -0.293 1.193 0.421 -0.2712 1.032 0.03986
-0.4475 -1.002 0.5312 0.9224 0.7573 0.2974 -0.9165 0.758
0.02522 -0.07513 0.8906 -0.04947 0.4983 -0.1581 0.303 0.6045
0.465 -0.344 0.4414 -0.3762 0.2847 0.1971 0.2324 0.717
00000000: f3af 3e3d 6b38 a035 31b2 d1b8 7238 a628
00000010: 7335 4339 9137 faae fa36 d339 9a34 a1bd
00000020: 13ba 713e 79b9 13b6 d6b6 5138 9735 f334
00000030: 3c30 9c3b f9b0 ba3a 353e 28b1 47b8 e036
00000040: 5338 ab38 f233 37bf 812d 0535 0bbc 69b4
00000050: b33c ceb2 143a 7da9 4639 0c36 5839 c7ba
00000060: c5b8 92b9 93aa 78bb e03d 59b8 8d3d df36
00000070: ac17 8b39 23b4 5e3c ef3c a939 e537 cf3c
00000080: c43a f3bc 1fb4 d5b7 01b3 19b1 ac3c 463a
00000090: 8d3a 473d 5a38 a42d 06b4 eb39 8338 e6b4
000000a0: feb9 c83b 2739 d62e 1839 40b8 e0b8 333a
000000b0: df36 053e 6138 8938 dda8 61b5 3336 8736
000000c0: c239 1a39 b0b4 c63c bc36 57b4 213c 1a29
000000d0: 29b7 02bc 4038 613b 0f3a c234 55bb 103a
000000e0: 7526 cfac 203b 55aa f937 0fb1 d934 d638
000000f0: 7137 81b5 1037 05b6 8e34 4f32 7033 bc39

model/activation_7/Relu;model/batch_normalization_7/batchnorm/add_1 f2 [128]
-0.6094 0.905 -0.2397 0.681 0.8706 1.307 -0.709 0.4734
-0.1829 -0.2297 -0.1387 0.3108 1.734 0.671 0.623 1.399
0.2125 0.3198 0.4844 -0.7974 -0.4568 -0.595 1.516 -0.3027
-0.696 0.7285 0.8936 1.107 0.744 -0.747 0.908 -0.499
0.615 -0.4766 0.01694 0.6875 1.026 -0.8105 -0.3616 0.4673
-0.03296 0.1785 -0.02443 -0.3699 -0.1111 -0.2944 -0.06305 0.9097
0.5024 0.3342 0.2876 0.542 -0.3228 0.2832 -1.527 -0.2421
0.573 0.1666 0.7705 0.1575 0.517 -0.1611 0.1732 -1.207
1.337 -0.06464 -0.1418 0.1849 1.168 0.4092 -0.245 -1.854
-0.5615 -0.02611 -0.9404 1.283 -0.153 0.7524 -0.4026 -0.1528
0.3513 0.1934 0.821 -0.0774 -0.7236 -0.662 0.1521 -0.245
1.274 -0.9126 -0.3096 0.9873 -0.249 0.1683 0.2952 -0.8174
0.006336 0.8887 -0.3394 -0.2898 -0.3547 -0.3308 -0.006584 -1.012
0.4678 0.628 0.4812 0.1572 -0.348 0.8994 0.403 0.4814
0.4849 -0.4524 0.4617 0.4714 0.53 -0.301 -0.7134 0.272
-0.1478 0.751 -0.214 0.702 0.2725 1.186 0.01398 -0.4844
00000000: e0b8 3d3b acb3 7339 f73a 3a3d acb9 9337
00000010: dab1 5ab3 70b0 f934 f03e 5e39 fc38 993d
00000020: cd32 1e35 c037 61ba 4fb7 c3b8 103e d8b4
00000030: 91b9 d439 263b 6e3c f439 fab9 443b fcb7
00000040: ec38 a0b7 5624 8039 1b3c 7cba c9b5 7a37
00000050: 38a8 b631 41a6 ebb5 1caf b6b4 09ac 473b
00000060: 0538 5935 9a34 5638 2ab5 8834 1cbe bfb3
00000070: 9638 5531 2a3a 0a31 2338 28b1 8b31 d4bc
00000080: 593d 23ac 8ab0 eb31 ac3c 8c36 d7b3 6abf
00000090: 7eb8 afa6 86bb 223d e5b0 053a 71b6 e4b0
000000a0: 9f35 3032 913a f4ac cab9 4cb9 de30 d7b3
000000b0: 193d 4dbb f4b4 e63b f8b3 6331 b934 8aba
000000c0: 7d1e 1c3b 6eb5 a3b4 adb5 4bb5 be9e 0cbc
000000d0: 7c37 0639 b337 0831 91b5 323b 7336 b437
000000e0: c237 3db7 6337 8b37 3d38 d1b4 b5b9 5a34
000000f0: bbb0 023a d9b2 9e39 5c34 be3c 2823 c0b7

model/activation_8/Relu;model/batch_normalization_8/batchnorm/add_1 f2 [128]
1.535 0.0679 0.961 -0.2233 1.218 0.3096 -0.1322 0.242
0.868 3.227 0.3076 1.093 1.588 0.7344 3.256 0.9023
-0.169 1.342 1.121 2.225 0.9077 1.034 1.649 1.819
0.3547 2.326 0.7 0.6255 2.223 1.293 0.804 1.969
1.1 -0.1509 -0.192 0.5786 2.002 2.598 0.521 0.262
2.094 0.892 1.45 0.5605 2.08 0.7383 1.276 1.621
2.617 0.003824 0.7144 1.805 1.011 1.993 0.4402 0.557
1.226 1.617 0.622 0.5747 1.478 3.54 2.477 0.708
1.318 0.4314 0.9453 1.394 0.688 0.8013 0.4106 0.4285
1.378 1.959 1.264 1.113 0.6235 -0.3374 0.946 1.611
2.12 1.049 -0.2479 1.404 2.717 1.836 1.748 1.165
3.67 2.504 0.4307 2.045 0.7427 0.4873 0.948 2.502
1.153 -0.1683 1.419 0.6626 0.396 1.826 1.499 0.01097
0.7026 1.459 2.01 1.043 1.624 0.764 0.606 1.014
2.602 0.5728 -0.8643 1.384 0.4446 0.71 1.6045 1.717
1.196 1.11 1.884 1.126 0.4622 0.847 2.266 0.96
00000000: 243e 582c b03b 25b3 df3c f434 3bb0 be33
00000010: f23a 7442 ec34 5f3c 5a3e e039 8342 383b
00000020: 68b1 5e3d 7c3c 7340 433b 233c 993e 473f
00000030: ad35 a740 9a39 0139 7240 2c3d 6f3a e03f
00000040: 663c d4b0 25b2 a138 0140 3241 2b38 3134
00000050: 3040 233b cd3d 7c38 2940 e839 1b3d 7c3e
00000060: 3c41 d51b b739 383f 0b3c f93f 0b37 7538
00000070: e73c 783e fa38 9938 e93d 1443 f440 aa39
00000080: 463d e736 903b 933d 8139 693a 9236 db36
00000090: 833d d63f 0e3d 743c fd38 66b5 913b 723e
000000a0: 3d40 323c efb3 9e3d 6f41 583f fe3e a93c
000000b0: 5743 0241 e436 1740 f139 cc37 963b 0141
000000c0: 9d3c 63b1 ad3d 4d39 5636 4e3f ff3d 9e21
000000d0: 9f39 d63d 0540 2c3c 7f3e 1d3a d938 0e3c
000000e0: 3441 9538 eaba 893d 1d37 ae39 6b3e de3e
000000f0: c93c 713c 893f 813c 6537 c73a 8840 ae3b

model/batch_normalization/batchnorm/mul_1 f2 [128, 640]
-0.001236 -0.001206 0.0003865 0.0003035 -0.002296 0.0007787 -0.001435 -0.002247
-0.002657 -0.002361 -0.0006924 -0.0002599 0.001953 0.005352 0.006733 0.005775
-0.0008454 -0.001997 -0.001619 -0.001386 -0.002132 0.0014105 0.001499 0.0013685
-0.001546 -0.0009546 2.456e-05 0.0003774 -0.00054 0.001206 0.003769 0.001007
-0.0005813 -0.00219 0.001426 0.0013075 0.0008516 0.002333 0.003895 0.001488
-0.00036 -0.001776 -0.00188 -0.000914 -0.001871 -0.002504 -0.002243 -0.00288
-0.001049 0.0006742 -0.001074 -8.24e-05 0.000836 -0.001224 -0.001085 -0.0004916
-0.002691 0.0001796 -4.65e-05 -0.001934 -0.0008807 -0.0002644 -0.0008388 0.001235
0.000646 -0.0003538 0.00206 0.003155 0.001277 0.0001005 -0.00225 4.876e-05
0.001516 -0.002737 -0.001336 -0.001662 -0.001618 -0.000545 -0.000768 -0.0003595
0.000479 -0.002047 0.0002465 -0.001995 0.0002596 -0.001173 0.0004632 -0.0001054
0.0012 0.001587 0.001863 0.000915 0.001129 0.0007677 0.0010395 0.002932
0.002617 0.001898 0.00158 0.002268 0.0002487 0.001931 0.003534 0.00503
0.002378 0.002602 0.0007534 -3.04e-06 0.002476 0.0009155 0.001468 0.002472
0.003412 0.003204 0.001336 0.001381 -0.001093 1.66e-05 0.002073 0.002716
0.00473 0.004017 0.005524 0.002146 0.002314 0.002043 0.001972 -0.00058
-0.001185 -0.0004501 0.0001563 0.0002235 -0.00236 0.0003717 -0.0003471 -0.001442
-0.002316 -0.001881 -0.001208 0.00010294 0.002594 0.004456 0.00666 0.006035
-0.001256 -0.001593 -0.00163 -0.0007467 -0.001422 0.00113 0.000982 0.001125
-0.001605 -0.001151 -0.000436 0.0001847 -0.0001642 0.001398 0.003521 0.0004432
-0.0007353 -0.002924 0.001407 0.001411 0.000718 0.001932 0.00427 0.001427
-0.000614 -0.002022 -0.001675 -0.001127 -0.001617 -0.002962 -0.002485 -0.002806
-0.001453 0.0002592 -0.001721 0.000427 0.0001824 -0.001045 -0.0008235 -0.0007277
-0.00255 0.0002964 0.000507 -0.001371 -0.001053 -0.000336 -0.001212 0.00115
0.0007176 -0.001113 0.001898 0.002728 0.001444 0.0001526 -0.002455 -0.0001224
0.0004177 -0.002354 -0.001859 -0.001764 -0.001636 -0.0001955 0.0002433 -0.0002472
0.0007143 -0.002605 0.0003374 -0.001955 0.000689 -0.001681 0.000562 0.0003805
0.001541 0.001217 0.001209 0.002003 0.0004015 0.00115 0.0005965 0.002234
0.00218 0.000887 0.00099 0.001518 0.0004737 0.001972 0.003685 0.00568
0.002308 0.001225 0.0006227 -0.000234 0.001566 -8.26e-05 0.000493 0.002728
0.003166 0.003021 0.000972 0.002665 -0.000658 2.83e-05 0.001139 0.002876
0.003407 0.002813 0.00498 0.0007706 0.00191 0.001768 0.001257 2.193e-05
00000000: 1095 f194 550e f90c b498 6112 e195 9a98
00000010: 7199 d698 ac91 428c 0018 7b1d e51e ea1d
00000020: ed92 1798 a296 ad95 5e98 c715 2416 9b15
00000030: 5596 d293 9c01 2f0e 6c90 f114 b81b 2014
00000040: c390 7c98 d715 5b15 fa12 c718 fa1b 1816
00000050: e68d 4697 b397 7d93 aa97 2199 9898 e699
00000060: 4c94 8611 6694 6685 d912 0395 7294 0790
00000070: 8399 e309 0c83 ec97 3793 558c df92 0f15
00000080: 4b11 cc8d 3818 761a 3b15 9606 9c98 3203
00000090: 3616 9b99 7995 cf96 a196 7790 4b92 e48d
000000a0: d90f 3198 0a0c 1698 410c ce94 970f e886
000000b0: ea14 8016 a117 7f13 a014 4a12 4214 011a
000000c0: 5c19 c617 7916 a518 130c e917 3d1b 271d
000000d0: df18 5419 2c12 3380 1219 8013 0316 1019
000000e0: fd1a 901a 7915 a815 7a94 1701 3f18 9019
000000f0: d81c 1d1c a81d 6518 bd18 2f18 0a18 c090
00000100: db94 608f 1f09 530b d598 170e b08d e895
00000110: be98 b497 f394 bf06 5019 901c d21e 2e1e
00000120: 2595 8696 ad96 1e92 d395 a114 0614 9c14
00000130: 9396 b794 258f 0d0a 6189 ba15 361b 430f
00000140: 0692 fd99 c315 c815 e211 ea17 5f1c d815
00000150: 0891 2498 dc96 9e94 a096 119a 1799 bf99
00000160: f495 3f0c 0d97 ff0e fa09 4894 bf92 f691
00000170: 3999 db0c 2710 9e95 5094 818d f794 b614
00000180: e111 8f94 c617 9619 ea15 0009 0799 0388
00000190: d80e d298 9d97 3a97 b396 688a f90b 0d8c
000001a0: da11 5699 870d 0198 a511 e396 9b10 3c0e
000001b0: 5016 fc14 f414 1a18 940e b614 e310 9318
000001c0: 7718 4413 0e14 3816 c30f 0a18 8c1b d11d
000001d0: ba18 0515 1a11 ab8b 6a16 6a85 0a10 9619
000001e0: 7c1a 301a f613 7519 6491 db01 aa14 e419
000001f0: fa1a c319 191d 5012 d317 3e17 2615 7001

model/batch_normalization_1/batchnorm/mul_1 f2 [128, 128]
-0.04276 -0.08295 -0.0678 0.0636 0.1523 0.095 0.1022 0.0517
0.0004733 -0.1824 -0.11 -0.1768 -0.11096 -0.03287 0.03473 0.0233
-0.1081 0.0533 -0.05325 -0.08203 -0.1464 -0.00901 -0.01563 0.01174
-0.1458 0.2014 -0.1437 -0.05078 0.08624 0.0916 0.02689 0.02853
0.01427 -0.0558 -0.08167 -0.0836 -0.2384 0.2756 0.0794 -0.01521
0.0507 -0.02068 0.1241 0.04333 -0.1102 0.139 -0.3357 0.07477
0.00833 0.0674 0.1371 -0.116 0.01633 0.05627 0.04565 0.01065
0.03262 -0.1061 -0.02379 -0.1283 0.11316 0.04877 -0.0839 -0.142
0.1531 0.2783 -0.211 -0.318 -0.1674 0.011894 0.0723 0.0943
0.0486 -0.0968 0.257 0.0379 -0.05493 -0.0148 -0.1205 0.1573
0.02489 -0.0874 -0.05777 0.1107 -0.1881 -0.02766 -0.1759 0.1615
-0.0952 0.05283 0.0705 -0.08563 0.0315 0.1395 -0.05887 0.1558
0.1998 0.01837 -0.001297 -0.0858 0.03506 0.00686 -0.285 0.02342
0.1117 0.1013 -0.06696 0.348 0.0984 0.0667 -0.1127 0.0635
-0.11743 -0.02856 -0.0685 -0.04996 0.1635 -0.2683 0.02966 0.0928
0.0747 -0.1192 0.0527 0.06094 0.1305 0.1049 -0.08105 0.1696
-0.05966 0.1158 -0.05737 -0.084 -0.05176 0.00912 0.137 -0.04416
-0.08246 -0.0318 -0.00596 -0.1052 -0.03198 0.07025 0.04102 -0.01942
0.0785 0.0687 0.011406 -0.0753 0.1564 -0.012596 0.09625 -0.0963
-0.1401 0.04068 -0.04477 0.02356 -0.012924 -0.1387 0.0277 -0.0915
0.0898 0.0521 -0.06683 2.85e-05 0.02753 -0.03296 -0.0771 0.0977
-0.03445 0.02408 -0.07684 -0.02586 0.0589 0.03004 -0.0949 0.0082
0.0261 -0.0768 -0.0334 0.1132 0.096 0.02965 -0.07947 -0.01912
0.06464 0.10376 -0.06082 0.1207 0.0487 -0.08496 -0.02824 -0.0616
0.01032 -0.05276 0.00994 -0.0326 0.097 0.1597 0.14 0.01903
-0.0753 -0.1891 -0.02818 -0.01387 0.001817 0.142 -0.04254 -0.1373
-0.04877 -0.08295 -0.08435 -0.0497 -0.0653 -0.08057 0.1646 -0.003202
-0.067 -0.0289 -0.1148 0.01639 0.0791 0.01006 -0.01215 -0.02254
0.01042 0.00966 0.03366 0.03867 -0.02972 0.04266 -0.1266 0.127
0.0876 -0.01933 0.02708 0.04037 -0.006897 0.03394 0.0332 0.0942
0.014206 0.0538 -0.1008 -0.0414 0.02951 -0.04333 0.0783 -0.04062
0.1372 0.002531 0.0374 -0.00994 0.0723 -0.11426 0.1028 0.03308
00000000: 79a9 4fad 57ac 122c e030 142e 8a2e 9e2a
00000010: c10f d6b1 0aaf a8b1 1aaf 35a8 7228 f725
00000020: ebae d32a d1aa 40ad afb0 9da0 00a4 0322
00000030: aab0 7232 99b0 80aa 852d dd2d e226 4e27
00000040: 4e23 24ab 3aad 5aad a1b3 6934 152d caa3
00000050: 7d2a 4ba5 f12f 8c29 0eaf 7330 5fb5 c92c
00000060: 4420 502c 6330 6daf 2e24 342b d829 7421
00000070: 2d28 caae 17a6 1bb0 3e2f 3e2a 5fad 8bb0
00000080: e630 7434 c1b2 17b5 5bb1 1722 a12c 092e
00000090: 392a 32ae 1d34 da28 08ab 94a3 b6af 0931
000000a0: 5f26 98ad 65ab 162f 05b2 15a7 a1b1 2b31
000000b0: 18ae c32a 832c 7bad 0828 7730 89ab fc30
000000c0: 6532 b424 5095 7ead 7d28 061f 8fb4 ff25
000000d0: 262f 7c2e 49ac 9135 4c2e 452c 36af 102c
000000e0: 84af 50a7 62ac 65aa 3b31 4bb4 9827 f02d
000000f0: c82c a1af bf2a cd2b 2d30 b72e 30ad 6d31
00000100: a3ab 692f 58ab 60ad a0aa ab20 6230 a7a9
00000110: 47ad 12a8 1a9e bcae 18a8 7f2c 4029 f9a4
00000120: 062d 662c d721 d2ac 0131 73a2 292e 2aae
00000130: 7cb0 3529 bba9 0826 9ea2 70b0 1727 dbad
00000140: bf2d ab2a 47ac de01 0c27 38a8 efac 412e
00000150: 69a8 2a26 ebac 9fa6 8a2b b127 13ae 3320
00000160: ae26 eaac 46a8 3f2f 252e 9727 16ad e5a4
00000170: 232c a42e c9ab ba2f 3c2a 70ad 3ba7 e3ab
00000180: 4921 c1aa 1721 2ca8 352e 1c31 7b30 df24
00000190: d2ac 0db2 37a7 1aa3 7117 8b30 72a9 65b0
000001a0: 3eaa 4fad 66ad 5daa 2eac 28ad 4431 8f9a
000001b0: 4aac 66a7 59af 3224 102d 2721 39a2 c5a5
000001c0: 5621 f220 4f28 f328 9ca7 7629 0db0 1030
000001d0: 9b2d f3a4 ef26 2b29 109f 5828 4028 072e
000001e0: 4623 e32a 74ae 4da9 8e27 8ca9 032d 33a9
000001f0: 6430 2f19 ca28 17a1 a12c 50af 942e 3c28

model/batch_normalization_2/batchnorm/mul_1 f2 [128, 128]
0.01152 -0.04715 -0.05792 -0.00831 -0.11755 0.0528 -0.09955 -0.01913
0.03665 0.167 -0.04428 -0.1259 -0.01872 0.0951 0.1372 -0.1737
-0.00959 -0.2173 0.1516 0.0674 -0.262 0.1296 -0.0177 0.0643
-0.06885 -0.04565 -0.005257 0.2534 -0.0902 -0.01538 -0.04352 0.0651
-0.11017 -0.1844 0.1372 0.007545 0.03842 0.0595 -0.2064 -0.04422
-0.1122 -0.11176 -0.1036 -0.03558 0.0716 -0.05908 0.1836 0.126
0.05383 -0.01627 0.01717 0.05978 0.001368 -0.10297 0.01296 -0.00823
-0.09753 0.0509 -0.0698 0.03937 0.08856 -0.0688 -0.01353 0.1903
0.005936 -0.0876 0.007034 -0.01926 0.0087 -0.0241 -0.2095 -0.2363
-0.1963 0.04947 -0.01446 0.08417 0.05096 -0.01397 0.1754 -0.0161
-0.199 0.00836 -0.0728 0.2142 -0.0795 0.163 -0.1011 0.1259
0.1133 -0.1581 -0.0429 -0.1738 0.0747 0.01472 -0.1094 0.03119
0.08435 0.1387 -0.3596 0.01141 0.04276 -0.1162 -0.1708 0.05356
0.03574 0.086 0.07355 -0.05328 0.01534 -0.137 0.08466 0.1917
0.04843 -0.1488 0.2668 0.0706 0.1583 -0.02515 0.04688 0.0212
0.11566 0.065 -0.01115 0.08295 -0.11084 -0.012314 0.10065 -0.03044
0.07513 -0.00644 0.2527 -0.2751 0.0356 -0.1986 0.0857 0.02493
0.05283 -0.2166 0.2866 0.1414 0.0843 0.3076 -0.1077 0.02956
-0.2637 0.06323 0.07947 -0.111 -0.013336 -0.1494 -0.08105 -0.2252
0.07074 0.545 0.1577 -0.07 -0.0642 0.06946 0.2332 0.1334
0.3318 0.0772 0.1747 0.352 -0.1284 -0.05478 0.2153 0.3276
-0.02908 0.2242 0.1406 0.08655 0.2314 -0.102 0.198 0.2725
-0.0136 0.126 -0.0764 -0.1471 0.311 0.0654 -0.1832 0.0681
0.1154 -0.0844 0.1512 0.3364 0.0569 0.1174 0.126 0.1345
0.358 0.2747 0.1797 -0.079 0.06232 -0.1473 0.1454 0.00539
0.06415 -0.02649 -0.05695 0.03064 -0.1231 0.2476 0.0857 -0.12335
0.01248 0.105 -0.03635 0.2407 0.3616 0.326 -0.03482 0.06915
-0.0361 -0.1404 0.005764 -0.342 0.3948 0.3584 -0.1837 0.1553
0.03632 -0.04498 0.1935 -0.002821 0.2737 0.1345 0.3943 -0.00601
-0.0651 0.1005 0.1643 -0.1261 0.1825 -0.1039 -0.3918 0.04904
0.2328 -0.2401 0.02293 -0.1296 0.03717 -0.0895 0.3398 0.01147
0.1973 0.2866 0.1003 0.0881 -0.04233 -0.313 0.07825 0.1345
00000000: e621 09aa 6aab 41a0 86af c22a 5fae e6a4
00000010: b128 5831 aba9 07b0 cba4 162e 6430 8fb1
00000020: e9a0 f4b2 da30 502c 31b4 2630 88a4 1d2c
00000030: 68ac d8a9 629d 0e34 c6ad e0a3 92a9 2b2c
00000040: 0daf e7b1 6430 ba1f eb28 9e2b 9bb2 a9a9
00000050: 2eaf 27af a1ae 8ea8 952c 90ab e031 0830
00000060: e42a 2aa4 6524 a72b 9a15 97ae a322 37a0
00000070: 3eae 842a 78ac 0a29 ab2d 67ac eda2 1732
00000080: 141e 9bad 341f eea4 7420 2ba6 b4b2 90b3
00000090: 48b2 552a 67a3 632d 862a 27a3 9d31 1fa4
000000a0: 5eb2 4820 a9ac db32 17ad 3731 78ae 0730
000000b0: 402f 0fb1 7ea9 90b1 c82c 8923 00af fc27
000000c0: 662d 7030 c1b5 d821 7929 70af 77b1 db2a
000000d0: 9328 812d b52c d2aa db23 62b0 6b2d 2232
000000e0: 332a c3b0 4534 852c 1131 70a6 002a 6d25
000000f0: 672f 292c b5a1 4f2d 18af 4ea2 712e cba7
00000100: cf2c 989e 0b34 67b4 8f28 5bb2 7c2d 6226
00000110: c32a eeb2 9634 8630 652d ec34 e5ae 9127
00000120: 38b4 0c2c 162d 1baf d4a2 c8b0 30ad 35b3
00000130: 872c 5c38 0c31 7bac 1cac 722c 7633 4530
00000140: 4f35 f12c 9731 a235 1cb0 03ab e432 3e35
00000150: 72a7 2d33 8030 8a2d 6833 87ae 5632 5c34
00000160: f7a2 0830 e4ac b5b0 fa34 302c ddb1 5c2c
00000170: 632f 67ad d730 6235 482b 832f 0830 4e30
00000180: ba35 6534 c031 0ead fa2b b7b0 a730 851d
00000190: 1b2c c8a6 4aab d827 e1af ec33 7c2d e5af
000001a0: 6422 b82e a7a8 b433 c935 3735 75a8 6d2c
000001b0: 9fa8 7eb0 e71d 79b5 5136 bc35 e1b1 f830
000001c0: a628 c2a9 3132 c799 6134 4e30 4f36 279e
000001d0: 2bac 6f2e 4231 09b0 d731 a6ae 45b6 472a
000001e0: 7333 afb3 df25 26b0 c228 baad 7035 df21
000001f0: 5032 9634 6b2e a32d 6ba9 02b5 022d 4e30

model/batch_normalization_3/batchnorm/mul_1 f2 [128, 128]
-0.1086 -0.06903 -0.2485 -0.001257 -0.03772 0.2563 0.1564 -0.08765
-0.089 0.1335 -0.1494 -0.02162 0.02419 -0.3767 -0.02788 -0.0342
-0.4932 0.03622 -0.1245 0.0995 0.005226 0.0539 -0.2268 -0.11035
0.08777 -0.03845 -0.05832 -0.3167 -0.11206 0.02953 0.0506 0.007477
0.1029 -0.1247 0.006153 -0.01389 0.1417 -0.1361 0.07837 0.2786
0.02382 -0.001675 0.1481 -0.1245 0.1736 -0.1484 0.04373 -0.154
0.1519 -0.1004 0.1451 -0.000535 -0.1735 0.1609 -0.3975 -0.2598
-0.01438 -0.002527 0.05252 0.0808 0.02647 0.1067 0.2482 -0.1842
0.02081 0.05035 0.01111 -0.1787 0.1935 -0.02362 0.0917 -0.006466
0.0392 -0.1163 -0.0643 -0.4592 -0.1665 -0.1533 0.1525 0.1616
0.1392 0.1566 0.05634 -0.02756 -0.1754 -0.1676 0.1029 0.00935
0.02945 -0.04788 -0.05658 -0.02647 0.2487 0.03503 -0.01978 0.2269
-0.1028 0.010605 0.05197 0.1632 -0.00892 0.03087 0.004723 0.10895
0.1571 0.06555 0.12054 -0.07086 -0.00418 0.029 -0.1205 -0.2356
0.03552 0.04727 -0.036 0.0337 -0.0649 -0.1992 -0.1022 0.1302
0.04913 0.00499 -0.00409 0.129 0.0762 -0.2563 -0.10614 -0.2261
0.05524 -0.4695 0.154 -0.05237 -0.0686 -0.1725 0.1158 0.0408
0.0463 -0.182 0.0007544 -0.1674 -0.0398 0.08356 0.1388 0.0674
-0.0719 0.1322 -0.0597 0.118 -0.01962 -0.3145 0.1658 0.02953
0.2188 -0.3713 0.1412 0.1747 -0.04294 -0.2147 0.09296 -0.1334
0.1448 -0.1302 -0.02925 0.02908 -0.01387 -0.139 -0.081 0.0494
-0.02107 0.0324 0.2646 0.1294 0.1588 0.04407 -0.010765 -0.01614
-0.419 -0.0758 -0.3901 0.03516 -0.1021 -0.1245 -0.0386 -0.0487
0.1958 0.05432 -0.0988 -0.02846 0.00929 -0.497 0.11414 -0.1333
-0.2356 -0.0884 0.0768 0.03616 -0.2437 0.04877 -0.1647 0.1874
-0.0837 -0.02425 0.1335 -0.3137 -0.0636 -0.01859 0.097 -0.02136
-0.06274 0.03937 0.0354 0.11676 -0.2815 -0.041 0.013794 0.1016
-0.2542 -0.03452 -0.1559 0.0016365 -0.05444 0.10095 -0.0198 0.077
-0.08124 -0.248 0.01036 -0.05136 -0.149 -0.0685 -0.01428 0.1483
-0.08716 -0.06885 -0.0919 0.05545 0.1685 0.005505 -0.0291 0.06165
-0.1581 0.011375 -0.09625 0.0802 0.02455 -0.1008 0.3376 0.1646
-0.156 0.1829 -0.11523 -0.005993 0.2046 0.09564 -0.011696 0.1667
00000000: f3ae 6bac f4b3 2695 d4a8 1a34 0131 9cad
00000010: b2ad 4630 c8b0 89a5 3126 07b6 23a7 61a8
00000020: e4b7 a328 f8af 5e2e 5a1d e62a 42b3 10af
00000030: 9e2d eca8 77ab 11b5 2caf 8f27 7a2a a81f
00000040: 962e fbaf 4d1e 1da3 8930 5bb0 042d 7534
00000050: 1926 dc96 bd30 f8af 8e31 c0b0 9929 eeb0
00000060: dc30 6dae a530 6290 8db1 2631 5cb6 28b4
00000070: 5da3 2d99 b92a 2c2d c726 d42e f133 e5b1
00000080: 5425 722a b021 b8b1 3132 0ca6 de2d 9f9e
00000090: 0529 71af 1dac 59b7 54b1 e8b0 e130 2c31
000000a0: 7430 0331 362b 0ea7 9db1 5db1 962e ca20
000000b0: 8a27 21aa 3eab c7a6 f533 7c28 10a5 4333
000000c0: 94ae 6e21 a72a 3931 91a0 e727 d61c f92e
000000d0: 0731 322c b72f 89ac 489c 6d27 b6af 8ab3
000000e0: 8c28 0d2a 9ca8 5028 27ac 60b2 8aae 2b30
000000f0: 4a2a 1c1d 309c 2130 e02c 1ab4 cbae 3cb3
00000100: 122b 83b7 ee30 b4aa 64ac 85b1 692f 3929
00000110: ed29 d3b1 2e12 5bb1 18a9 592d 7130 502c
00000120: 9aac 3b30 a4ab 8d2f 06a5 08b5 4e31 8f27
00000130: 0033 f1b5 8530 9731 7fa9 dfb2 f32d 45b0
00000140: a230 2bb0 7da7 7227 1aa3 73b0 2fad 532a
00000150: 65a5 2628 3c34 2430 1531 a429 83a1 22a4
00000160: b4b6 daac 3eb6 8028 89ae f8af f1a8 3caa
00000170: 4432 f42a 53ae 49a7 c220 f4b7 4e2f 44b0
00000180: 8ab3 a8ad ea2c a128 ccb3 3e2a 45b1 ff31
00000190: 5bad 35a6 4630 05b5 12ac c2a4 352e 78a5
000001a0: 04ac 0a29 8828 792f 81b4 3fa9 1023 812e
000001b0: 11b4 6ba8 fdb0 b416 f8aa 762e 12a5 ee2c
000001c0: 33ad f0b3 4e21 93aa c5b0 62ac 50a3 bf30
000001d0: 94ad 68ac e2ad 192b 6431 a31d 73a7 e42b
000001e0: 0fb1 d321 29ae 222d 4926 74ae 6735 4431
000001f0: feb0 da31 60af 239e 8c32 1f2e fda1 5631

model/batch_normalization_4/batchnorm/mul_1 f2 [8, 128]
0.00543 0.0004442 0.01804 -0.02803 -0.06793 -0.01799 0.0395 -0.03888
0.004135 0.0777 0.04166 0.0193 0.02153 -0.02588 0.0365 0.03378
-0.05576 0.01017 0.03214 -0.002554 0.1012 -0.013245 0.00823 -0.0004847
0.0003731 -0.004303 -0.08716 -0.00958 -0.00217 0.02489 0.01613 0.000816
-0.0339 -0.0458 0.05328 0.014244 0.0669 -0.01685 0.04782 0.01581
0.01092 0.01067 0.01564 -0.05225 0.01675 0.01047 -0.00269 0.02237
0.02338 0.001262 -0.01837 0.02219 -0.02478 -0.1006 -0.03482 -0.03622
-0.02151 0.06018 -0.033 -0.01671 -0.01434 -0.0628 0.00318 -0.02023
-0.006355 -0.08984 0.04996 0.007652 0.005535 -0.0704 -0.011055 0.004696
-0.01564 0.01588 -0.01364 0.04132 -0.00391 -0.0424 -0.0186 -0.0669
0.0734 -0.04013 -0.0285 0.00582 -0.01822 -0.00771 0.005573 0.01291
0.00946 -0.014854 0.0324 0.03177 0.01645 0.02838 -0.02318 -0.002775
0.0839 0.11255 -0.0853 -0.022 -0.011246 -0.00806 0.0491 -0.01459
-0.07056 0.006725 0.04987 -0.01671 0.08673 0.03696 -0.00405 0.0356
0.02652 -0.005768 -0.08527 0.0081 1.1e-05 -0.04636 -0.01727 -0.0779
0.00918 0.006786 -0.00505 0.004288 -0.0278 -0.003033 0.01802 -0.002918
-0.0206 0.04224 0.02496 -0.01573 0.02052 -0.04593 0.05765 -0.1039
0.06274 0.02312 -0.01428 0.0837 0.02643 -0.04904 0.03256 0.04416
0.08215 0.02766 -0.0324 0.0651 -0.05194 0.00525 0.0561 -0.01213
-0.00932 -0.02051 -0.0385 -0.03912 -0.07574 -0.01991 -0.00638 0.00773
-0.07043 0.08875 -0.02896 0.03888 0.03903 -0.01651 -0.00357 0.0221
-0.0174 -0.002707 -0.05096 -0.04773 -0.00391 0.08636 -0.07874 0.03105
0.09076 -0.04703 -0.04086 0.04666 -0.02348 0.01364 -0.02997 -0.1081
0.003529 0.04105 -0.02232 -0.0501 -0.0774 0.03029 0.002993 0.015114
0.112 0.02966 0.0202 0.02644 0.01014 0.0763 0.05783 -0.0721
0.0876 -0.01387 -0.04755 0.00821 -0.0813 0.04758 -0.04446 -0.064
-0.03146 0.0349 -0.05264 -0.04437 -0.05338 -0.007328 -0.00856 0.08813
0.0781 0.03537 0.02942 -0.00726 0.1099 0.02458 0.03 0.0722
-0.01204 0.0261 0.04343 0.01552 0.001044 -0.2123 -0.02403 -0.004272
0.0732 -0.259 0.0679 -0.02225 0.04205 -0.05753 -0.00533 -0.002892
-0.017 0.02539 -0.01672 0.0838 0.05103 0.0513 -0.066 -0.002666
-0.019 -0.0774 0.0684 0.06494 -0.03888 0.01116 0.010414 0.004204
00000000: 8f1d 470f 9e24 2da7 59ac 9ba4 0e29 faa8
00000010: 3c1c f92c 5529 f124 8325 a0a6 ac28 5328
00000020: 23ab 3521 1d28 3b99 7a2e c8a2 3720 f18f
00000030: 1d0e 689c 94ad e8a0 7298 5f26 2124 af12
00000040: 57a8 dda9 d22a 4b23 482c 50a4 1f2a 0c24
00000050: 9721 7721 0124 b0aa 4a24 5c21 8299 ba25
00000060: fc25 2b15 b4a4 ae25 58a6 70ae 75a8 a3a8
00000070: 82a5 b42b 39a8 47a4 58a3 05ac 831a 2ea5
00000080: 829e c0ad 652a d61f ab1d 81ac a9a1 cf1c
00000090: 01a4 1124 fca2 4a29 019c 6da9 c3a4 48ac
000000a0: b32c 23a9 4ca7 f61d aaa4 e59f b51d 9c22
000000b0: d820 9ba3 2628 1128 3624 4427 efa5 af99
000000c0: 5f2d 342f 76ad a2a5 c2a1 20a0 492a 78a3
000000d0: 84ac e31e 622a 47a4 8d2d bb28 269c 8f28
000000e0: ca26 e89d 75ad 2620 b900 efa9 6ca4 fcac
000000f0: b320 f31e 2c9d 641c 1ea7 369a 9d24 fa99
00000100: 46a5 6829 6426 07a4 4125 e1a9 612b a6ae
00000110: 042c eb25 50a3 5b2d c426 47aa 2b28 a729
00000120: 422d 1527 26a8 2b2c a6aa 601d 2e2b 36a2
00000130: c6a0 40a5 eea8 02a9 d9ac 19a5 889e ea1f
00000140: 82ac ae2d 6aa7 fa28 ff28 3aa4 509b a825
00000150: 74a4 8b99 86aa 1caa 019c 872d 0aad f327
00000160: cf2d 05aa 3ba9 f929 03a6 fc22 aca7 ebae
00000170: 3a1b 4129 b7a5 6aaa f4ac c127 211a bd23
00000180: 2b2f 9827 2c25 c526 3121 e22c 672b 9dac
00000190: 9b2d 1aa3 16aa 3420 34ad 172a b1a9 19ac
000001a0: 07a8 7828 bdaa aea9 d5aa 819f 62a0 a42d
000001b0: 002d 8728 8827 6f9f 092f 4b26 ae27 9f2c
000001c0: 2aa2 ae26 8f29 f223 4714 cbb2 27a6 609c
000001d0: af2c 25b4 582c b2a5 6229 5dab 759d ec99
000001e0: 5aa4 8026 48a4 5d2d 882a 912a 39ac 7699
000001f0: dda4 f4ac 612c 282c faa8 b721 5521 4e1c

model/batch_normalization_5/batchnorm/mul_1 f2 [128, 8]
0.00991 -0.3252 0.7275 -0.733 0.3496 0.9785 0.8726 0.4565
1.841 -0.07446 -0.9126 -1.149 0.5913 -0.1946 0.7456 0.515
0.545 -0.2263 1.009 -0.9966 0.529 0.767 -0.0635 -0.5063
-2.035 1.279 1.144 0.00808 -0.7188 -0.0899 -0.1313 -0.1182
-1.122 -0.2144 0.1677 -0.2583 1.097 -1.064 -0.1077 -0.1293
-0.2832 0.4336 -0.3843 -0.10345 0.2373 -1.467 0.4172 -0.3616
-0.5464 -0.1757 0.409 0.8394 0.4597 1.012 -1.195 -1.4
-0.319 -1.416 0.05734 0.3135 -0.363 0.1945 0.352 -0.4487
1.385 0.2341 -0.8765 0.531 1.066 -0.04523 -0.3457 0.1396
0.5796 0.2434 -0.0952 -0.989 -0.06964 -0.1454 -1.187 -0.3174
0.176 -0.6562 0.5776 1.429 0.7246 0.2245 -0.504 0.0262
0.417 0.1442 0.9365 -0.4983 0.01892 -0.8945 -1.429 0.575
-0.439 -0.5083 -0.007996 0.5596 0.8228 0.0492 -0.83 0.817
-0.9126 -0.07227 -0.3535 -1.166 0.616 0.2306 0.8022 0.174
0.8467 0.848 0.315 0.2607 0.783 0.874 -0.5337 -0.0585
0.454 -0.0747 0.2605 -1.088 -0.2191 1.121 -0.543 0.949
-0.2585 -1.384 -0.845 0.614 0.2502 -0.82 -0.4045 0.2708
-1.723 -0.545 0.766 0.974 -0.1677 0.01152 -0.04388 0.2668
0.12213 1.102 -0.398 -0.04526 0.37 -0.4988 -1.036 -0.1265
0.10944 -0.7134 -0.03766 -1.668 -0.5938 -0.3176 1.341 -0.0976
-0.791 -1.137 -0.0197 1.057 1.008 0.558 1.644 -0.1873
-0.2703 0.635 -1.308 -0.9087 0.7227 0.7993 0.4014 -0.957
-0.5103 0.5366 -0.1495 0.5903 1.456 -0.5396 -0.4033 -0.05435
-0.1771 0.531 0.33 -0.5127 -0.761 -0.5537 0.503 1.056
0.197 0.2686 1.13 0.3442 1.232 0.4617 -0.5986 -0.4895
-0.7275 0.1261 0.03894 -1.425 0.0268 -0.7617 0.611 -0.7227
0.2145 -0.707 -0.5254 -0.7964 0.2642 0.677 0.675 -0.1021
0.3457 -1.213 0.0853 0.358 0.1339 -0.831 0.4695 -1.738
0.5996 -0.6157 -0.08026 -0.3584 -1.502 0.2751 0.5176 -0.1892
-1.239 0.1342 -0.1239 0.10547 0.094 -0.8784 0.295 0.09973
0.5996 0.1871 0.2957 0.5957 -1.216 0.903 -0.41 -0.9565
-0.3484 -0.1217 0.3088 -1.402 1.461 0.9536 0.6772 0.1422
00000000: 1321 34b5 d239 ddb9 9835 d43b fb3a 4e37
00000010: 5d3f c4ac 4dbb 99bc bb38 3ab2 f739 1f38
00000020: 5c38 3eb3 093c f9bb 3b38 233a 10ac 0db8
00000030: 12c0 1e3d 933c 2320 c0b9 c1ad 34b0 91af
00000040: 7dbc dcb2 5e31 22b4 633c 42bc e5ae 23b0
00000050: 88b4 f036 26b6 9fae 9833 debd ad36 c9b5
00000060: 5fb8 9fb1 8b36 b73a 5b37 0c3c c8bc 9abd
00000070: 1bb5 aabd 572b 0435 cfb5 3932 a235 2eb7
00000080: 8a3d 7e33 03bb 3f38 443c caa9 88b5 7830
00000090: a338 ca33 18ae e9bb 75ac a7b0 bfbc 14b5
000000a0: a231 40b9 9f38 b73d cc39 2f33 08b8 b526
000000b0: ac36 9d30 7e3b f9b7 d824 28bb b7bd 9a38
000000c0: 06b7 11b8 18a0 7a38 953a 4c2a a4ba 893a
000000d0: 4dbb a0ac a8b5 aabc ee38 6133 6b3a 9131
000000e0: c63a c93a 0a35 2c34 443a fe3a 45b8 7dab
000000f0: 4437 c8ac 2b34 5abc 03b3 7c3c 58b8 983b
00000100: 23b4 89bd c3ba e938 0134 8fba 79b6 5534
00000110: e4be 5cb8 213a cb3b 5eb1 e621 9ea9 4534
00000120: d12f 683c 5eb6 cba9 ec35 fbb7 25bc 0cb0
00000130: 012f b5b9 d2a8 acbe c0b8 15b5 5d3d 3fae
00000140: 54ba 8cbc 0ba5 3a3c 083c 7738 933e feb1
00000150: 53b4 1439 3bbd 45bb c839 653a 6c36 a8bb
00000160: 15b8 4b38 c9b0 b938 d33d 51b8 74b6 f5aa
00000170: abb1 3f38 4835 1ab8 17ba 6eb8 0638 393c
00000180: 4e32 4c34 853c 8235 ee3c 6337 cab8 d5b7
00000190: d2b9 0930 fc28 b3bd dc26 18ba e338 c8b9
000001a0: dd32 a8b9 34b8 5fba 3a34 6a39 6639 89ae
000001b0: 8835 dabc 762d ba35 4930 a6ba 8337 f4be
000001c0: cc38 edb8 23ad bcb5 02be 6734 2438 0eb2
000001d0: f5bc 4b30 eeaf c02e 042e 07bb b834 622e
000001e0: cc38 fd31 bb34 c438 ddbc 393b 8fb6 a7bb
000001f0: 93b5 caaf f134 9cbd d83d a13b 6b39 8d30

model/batch_normalization_6/batchnorm/mul_1 f2 [128, 128]
-0.01912 -0.0972 -0.258 -0.1387 -0.0952 0.0833 -0.47 0.2449
-0.00911 -0.2344 -0.2267 0.004528 0.1354 0.08655 -0.1266 -0.121
-0.1764 -0.07214 0.1812 -0.125 0.03004 0.1344 -0.246 0.1415
0.2174 0.0919 0.1167 0.0779 0.1022 0.03128 -0.02615 0.05646
0.0361 0.1559 -0.02814 0.1381 0.11334 -0.03885 0.09955 0.01727
0.01242 -0.3142 0.1016 0.33 -0.02922 0.1191 -0.1371 0.1854
0.1305 0.053 -0.2673 0.2292 -0.1104 0.01082 0.2329 0.11053
-0.2551 0.03815 0.1704 -0.1903 -0.05487 -0.11487 -0.324 0.1564
0.1528 0.02759 0.1885 0.2595 -0.07733 0.10974 0.0653 -0.0219
0.1093 -0.2163 -0.032 -0.08453 0.1827 0.1978 -0.04715 -0.1888
0.01041 0.187 0.0932 -0.3433 -0.1562 -0.057 -0.03003 -0.1469
-0.0195 -0.01904 -0.1304 0.1028 -0.2651 -0.03049 -0.2673 0.07166
-0.0497 0.1653 0.1294 -0.02312 0.0586 -0.2122 -0.02579 0.007534
0.1259 -0.0921 -0.3215 0.1755 -0.3308 -0.404 0.2393 0.001067
0.03107 0.0808 0.02187 -0.10913 0.101 0.0875 -0.05728 0.07794
-0.0428 -0.0666 0.01628 -0.2039 0.02734 0.03574 0.04312 -0.03018
-0.02477 -0.0843 -0.0316 -0.002224 -0.01593 -0.1033 -0.0292 -0.08167
-0.0829 -0.008156 -0.1854 0.0677 -0.10724 0.0616 -0.1105 -0.0339
-0.11694 -0.4827 -0.0858 0.06064 0.1326 0.02936 0.0764 0.07227
-0.263 -0.11597 -0.1183 0.12067 -0.0799 0.0189 0.01082 -0.1029
0.04504 0.01929 -0.1366 -0.04077 -0.0273 -0.02472 -0.02306 0.05133
0.1254 -0.11945 0.0628 -0.0061 -0.0745 -0.2267 0.01233 0.1061
0.04523 0.2059 -0.2396 -0.0829 -0.1244 0.0669 0.03333 0.0205
0.0961 0.02637 0.0847 0.0751 -0.0919 0.1714 0.1628 0.12036
0.0413 0.04312 0.0825 -0.01294 -0.02347 -0.2942 -0.013145 0.06604
0.03503 -0.04 0.05414 0.02411 -0.1537 -0.03705 -0.1241 0.1289
0.09735 -0.00913 0.00087 -0.11053 -0.1865 0.06033 -0.1455 -0.1382
0.1273 0.031 -0.0447 0.0855 0.06155 -0.1794 0.03204 -0.03467
0.08624 0.06177 -0.05646 0.0271 0.1042 -0.03668 0.10516 0.07623
0.0645 -0.1081 0.01214 -0.002106 -0.008896 -0.2029 -0.1189 -0.1108
0.05124 -0.1578 0.07166 0.02528 -0.02875 0.2866 -0.05707 0.0337
-0.0873 0.02988 -0.0811 -0.03128 0.04477 -0.04547 -0.08673 -0.01826
00000000: e5a4 39ae 21b4 70b0 18ae 552d 85b7 d633
00000010: aaa0 80b3 41b3 a31c 5530 8a2d 0db0 beaf
00000020: a5b1 9eac cc31 00b0 b127 4d30 dfb3 8730
00000030: f532 e22d 782f fc2c 8a2e 0128 b2a6 3a2b
00000040: 9f28 fd30 34a7 6b30 412f f9a8 5f2e 6c24
00000050: 5c22 07b5 812e 4835 7ba7 9f2f 63b0 ef31
00000060: 2d30 c92a 47b4 5633 11af 8a21 7433 132f
00000070: 15b4 e228 7431 17b2 06ab 5aaf 2fb5 0131
00000080: e430 1027 0832 2734 f3ac 062f 2e2c 9ba5
00000090: ff2e ecb2 19a8 69ad d931 5432 09aa 0bb2
000000a0: 5421 fc31 f72d 7eb5 00b1 4cab b0a7 b3b0
000000b0: fea4 e0a4 2cb0 942e 3eb4 cea7 47b4 962c
000000c0: 5daa 4a31 2430 eba5 802b cab2 9aa6 b71f
000000d0: 0730 e5ad 25b5 9e31 4bb5 77b6 a833 5f14
000000e0: f427 2c2d 9925 fcae 772e 9a2d 55ab fd2c
000000f0: 7aa9 43ac 2b24 86b2 0027 9328 8529 baa7
00000100: 57a6 65ad 0ba8 8e98 14a4 9cae 7aa7 3aad
00000110: 4ead 2da0 efb1 552c ddae e32b 12af 57a8
00000120: 7caf b9b7 7ead c32b 3e30 8427 e42c a02c
00000130: 35b4 6caf 92af b92f 1dad d724 8a21 96ae
00000140: c429 f024 5fb0 38a9 fda6 54a6 e7a5 922a
00000150: 0330 a5af 052c 3f9e c5ac 41b3 5022 ca2e
00000160: ca29 9732 abb3 4ead f6af 482c 4428 3f25
00000170: 272e c026 6c2d ce2c e2ad 7c31 3631 b42f
00000180: 4929 8529 482d a0a2 02a6 b5b4 bba2 3a2c
00000190: 7c28 1fa9 ee2a 2c26 ebb0 bea8 f1af 2030
000001a0: 3b2e ada0 2113 13af f8b1 b92b a8b0 6cb0
000001b0: 1330 f027 b9a9 792d e12b beb1 1a28 70a8
000001c0: 852d e82b 3aab f026 ab2e b2a8 bb2e e12c
000001d0: 212c ebae 3722 5098 8ea0 7eb2 9caf 17af
000001e0: 8f2a 0db1 962c 7926 5ca7 9634 4eab 5028
000001f0: 96ad a627 31ad 01a8 bb29 d2a9 8dad ada4

model/batch_normalization_7/batchnorm/mul_1 f2 [128, 128]
0.1503 -0.05 -0.2164 0.07837 0.1048 0.0805 -0.02998 0.1537
-0.01522 -0.2517 -0.06076 0.1743 -0.2283 0.1661 0.02005 0.0886
0.12036 -0.12427 -0.07135 0.1421 -0.1824 -0.02815 0.0206 -0.323
0.2245 -0.0656 0.01104 0.02887 -0.01083 -0.06476 0.12134 0.1266
-0.03543 -0.10516 0.1545 -0.1589 -0.02519 -0.1259 0.007294 0.0928
0.007866 -0.05093 -0.07904 0.1012 0.0984 -0.05426 0.1558 -0.0506
0.09894 -0.1614 -0.1123 0.05804 -0.1577 -0.04446 -0.188 0.01102
0.11066 0.1761 -0.02153 0.1685 -0.01154 -0.10693 -0.06647 0.11115
0.1539 0.0876 -0.06186 0.1428 -0.09033 0.0977 -0.0921 0.1188
-0.08344 -0.12177 0.07587 -0.08655 -0.1708 0.06775 -0.03702 0.2156
-0.1254 0.05066 0.0999 0.01443 -0.04465 -0.07214 0.02081 0.066
0.00354 -0.1412 0.183 -0.003637 0.01287 0.11 0.00887 -0.11273
0.02737 -0.02966 -0.02205 0.1171 0.01219 -0.04404 -0.00987 0.2244
-0.1523 0.1489 0.2448 0.01648 0.00706 0.1158 -0.1267 0.05984
0.07666 -0.0346 0.04874 -0.2374 0.03778 -0.276 -0.2051 0.089
0.0516 0.01807 0.0653 -0.1718 0.11646 0.08826 0.2465 0.04507
0.0972 0.06647 0.3572 0.0726 0.1313 0.03006 0.0945 -0.502
-0.4612 -0.231 -0.2761 0.045 -0.006237 0.06198 0.0009427 -0.04745
0.0791 -0.2114 -0.0967 -0.2595 -0.3293 -0.1886 0.209 -0.3423
0.2489 0.2418 0.2152 0.2452 0.03784 0.007042 0.1499 -0.2081
0.0003114 0.1116 -0.02391 0.03165 0.10535 0.23 -0.2908 0.1562
0.0572 0.005558 -0.1831 -0.3486 0.05316 -0.09106 0.0527 -0.1782
0.05817 0.3877 0.0965 -0.2463 -0.03534 -0.1809 0.05307 -0.1198
-0.4062 0.2039 -0.1228 -0.1766 0.01836 0.07135 0.1603 -0.0722
0.05536 0.155 -0.09033 -0.07416 0.1783 0.1395 -0.2866 -0.05667
0.0285 -0.1646 0.0436 0.1278 0.0199 -0.2272 -0.0225 -0.1372
0.1447 -0.256 0.1012 -0.07684 0.015144 0.11505 0.1974 -0.02216
0.0441 -0.1016 -0.2297 -0.5103 -0.0001903 -0.1945 0.2217 -0.3357
0.00692 -0.07623 -0.01379 -0.1081 -0.0781 0.4973 -0.02469 -0.0834
-0.2332 0.0584 -0.1217 0.209 0.04077 -0.3384 -0.0884 0.2192
-0.07227 -0.09576 -0.00793 0.189 -0.1667 0.2074 -0.0889 -0.01533
0.04596 0.2192 0.186 -0.2457 -0.10834 0.04535 -0.04218 0.2465
00000000: cf30 66aa edb2 042d b52e 272d ada7 eb30
00000010: cba3 07b4 c7ab 9431 4eb3 5131 2225 ac2d
00000020: b42f f4af 91ac 8c30 d6b1 35a7 4625 2bb5
00000030: 2f33 33ac a721 6427 8ca1 25ac c42f 0d30
00000040: 89a8 bbae f230 16b1 73a6 07b0 781f f02d
00000050: 0720 85aa 0fad 7a2e 4c2e f2aa fc30 7aaa
00000060: 552e 2ab1 30af 6e2b 0cb1 b1a9 04b2 a421
00000070: 152f a331 83a5 6431 e9a1 d8ae 41ac 1d2f
00000080: ed30 9b2d ebab 9230 c8ad 412e e5ad 9a2f
00000090: 57ad cbaf db2c 8aad 77b1 562c bda8 e632
000000a0: 03b0 7c2a 652e 6323 b7a9 9eac 5425 392c
000000b0: 401b 85b0 db31 739b 9722 0a2f 8b20 37af
000000c0: 0227 98a7 a5a5 7f2f 3e22 a3a9 0ea1 2e33
000000d0: e0b0 c430 d533 3824 3b1f 692f 0eb0 a92b
000000e0: e82c 6ea8 3d2a 99b3 d628 6ab4 90b2 b22d
000000f0: 9b2a a024 2e2c 7fb1 742f a62d e333 c529
00000100: 392e 412c b735 a52c 3430 b227 0c2e 04b8
00000110: 61b7 64b3 6bb4 c329 639e ef2b b913 13aa
00000120: 102d c4b2 30ae 27b4 45b5 09b2 b032 7ab5
00000130: f733 bd33 e332 d933 d828 361f cc30 a9b2
00000140: 1a0d 242f 1fa6 0d28 be2e 5c33 a7b4 0031
00000150: 522b b11d dcb1 94b5 ce2a d4ad bf2a b4b1
00000160: 722b 3436 2d2e e2b3 86a8 cab1 cb2a abaf
00000170: 80b6 8632 dcaf a7b1 b324 912c 2131 9fac
00000180: 162b f630 c8ad bfac b531 7730 96b4 41ab
00000190: 4c27 44b1 9529 1730 1825 45b3 c3a5 64b0
000001a0: a130 19b4 7a2e ebac c123 5d2f 5132 aca5
000001b0: a529 81ae 5ab3 15b8 3c8a 39b2 1833 5fb5
000001c0: 161f e1ac 0fa3 ebae 00ad f537 52a6 56ad
000001d0: 76b3 7a2b caaf b032 3829 6ab5 a8ad 0433
000001e0: a0ac 21ae 0fa0 0c32 56b1 a332 b1ad d9a3
000001f0: e229 0433 f431 ddb3 efae ce29 66a9 e333

model/batch_normalization_8/batchnorm/mul_1 f2 [128, 128]
-0.3906 -0.06506 0.1067 -0.3674 0.08905 0.10913 -0.0749 -0.1025
0.07574 -0.2126 0.318 -0.687 -0.1476 0.09186 -0.0705 -0.2197
0.003654 0.04587 -0.06445 0.2101 -0.05234 -0.1901 -0.1246 0.1139
-0.1495 0.0922 -0.438 0.002073 0.00565 0.02948 0.1781 1.005
0.06177 0.1035 0.2426 0.1245 -0.1849 0.02641 0.255 -0.1445
-0.1537 0.1648 -0.11426 0.04047 0.2351 0.2407 0.04858 -0.124
0.05264 0.07245 0.1837 0.08466 0.1776 -0.423 0.1487 0.0794
-0.1469 -0.3162 -0.3555 -0.04138 -0.01083 -0.306 -0.006275 -0.1079
0.1068 0.1663 0.02774 0.1074 -0.1422 0.1924 -0.08997 -0.2032
0.01924 -0.0323 -0.0706 0.2181 -0.5054 -0.562 -0.03397 -0.2251
-0.0085 0.5093 -0.1915 -0.2301 0.05847 0.3271 -0.298 0.3818
-0.4507 -0.3396 0.2491 -0.2598 0.5264 -0.2421 0.0873 0.13
0.171 0.263 0.111 -0.1229 -0.3774 -0.3547 0.04578 0.1676
-0.01427 0.3843 0.518 0.0531 -0.0397 0.01563 -0.2407 0.01718
-0.2485 -0.3247 -0.1969 -0.5327 0.05692 0.003437 -0.2234 0.2822
0.10284 0.03845 -0.4434 0.282 -0.6714 0.2634 0.427 -0.2551
-0.0901 -0.04767 0.04764 0.12134 0.1655 -0.05746 -0.05814 -0.2413
-0.04428 -0.019 -0.2034 -0.1284 0.2737 -0.2347 0.0477 -0.1302
0.1211 -0.5356 0.3574 -0.3079 0.2308 0.01431 0.1741 0.0781
-0.0794 0.11615 -0.01189 0.11017 -0.09924 -0.08606 0.02774 0.0683
0.1236 -0.013756 0.2563 0.05063 0.2096 0.07086 0.4878 0.2534
0.05377 0.1013 0.2686 -0.2216 -0.2178 -0.003807 -0.1636 -0.05075
0.01562 0.2106 0.03458 0.0169 -0.3416 0.05518 -0.08765 -0.1266
0.00395 0.276 0.00365 -0.0932 -0.3489 0.1323 -0.3103 -0.1578
0.04883 0.0761 0.01112 0.12317 0.0748 0.364 0.1343 0.745
-0.1595 -0.04202 -0.4417 0.02783 -0.1721 0.1157 0.1067 0.0719
-0.1356 0.06256 0.12134 -0.102 0.184 -0.10895 0.1067 -0.2615
-0.1957 -0.1875 0.2222 -0.2002 0.10864 0.1652 0.0836 -0.0332
0.04913 0.0914 0.2725 -0.1608 -0.1659 -0.0783 0.2656 -0.01088
0.0846 -0.08514 -0.057 -0.1969 -0.1322 -0.125 0.00873 0.0729
0.08527 -0.2456 0.03033 0.0944 0.2089 0.11554 -0.0736 0.003769
0.2455 -0.0795 -0.11774 -0.06726 0.1082 -0.2025 0.0605 -0.2737
00000000: 40b6 2aac d42e e1b5 b32d fc2e cbac 8fae
00000010: d92c ceb2 1735 7fb9 b9b0 e12d 83ac 08b3
00000020: 7c1b df29 20ac b932 b3aa 15b2 f9af 4a2f
00000030: c9b0 e72d 02b7 3f18 c91d 8c27 b331 053c
00000040: e82b a02e c333 f82f ebb1 c326 1434 a0b0
00000050: ebb0 4631 50af 2e29 8633 b433 382a f0af
00000060: bd2a a32c e131 6b2d af31 c5b6 c230 152d
00000070: b3b0 0fb5 b0b5 4ca9 8ca1 e5b4 6d9e e8ae
00000080: d62e 5231 1a27 e02e 8db0 2832 c2ad 81b2
00000090: ed24 22a8 85ac fb32 0bb8 7fb8 59a8 34b3
000000a0: 5aa0 1338 21b2 5db3 7c2b 3c35 c5b4 1c36
000000b0: 36b7 6fb5 f933 28b4 3638 bfb3 962d 2930
000000c0: 7931 3534 1b2f deaf 0ab6 adb5 dc29 5d31
000000d0: 4ea3 2636 2538 cc2a 15a9 0024 b4b3 6624
000000e0: f4b3 32b5 4db2 43b8 492b 0a1b 26b3 8434
000000f0: 952e ec28 18b7 8334 5fb9 3734 d536 15b4
00000100: c4ad 1aaa 192a c42f 4c31 5bab 71ab b9b3
00000110: aba9 dda4 82b2 1cb0 6134 83b3 1b2a 2bb0
00000120: c02f 49b8 b835 edb4 6333 5423 9231 002d
00000130: 15ad 6f2f 16a2 0d2f 5aae 82ad 1a27 5f2c
00000140: e92f 0ba3 1a34 7b2a b532 892c ce37 0e34
00000150: e22a 7c2e 4c34 17b3 f8b2 cc9b 3cb1 7faa
00000160: ff23 bd32 6d28 5424 77b5 102b 9cad 0db0
00000170: 0b1c 6a34 7a1b f7ad 95b5 3c30 f7b4 0db1
00000180: 402a df2c b221 e22f ca2c d335 4c30 f639
00000190: 1bb1 61a9 11b7 2027 82b1 682f d42e 9a2c
000001a0: 57b0 012c c42f 87ae e331 f9ae d42e 2fb4
000001b0: 43b2 00b2 1c33 68b2 f42e 4931 5a2d 40a8
000001c0: 4a2a d92d 5c34 25b1 4fb1 03ad 4034 92a1
000001d0: 6a2d 73ad 4cab 4db2 3bb0 00b0 7820 aa2c
000001e0: 752d dcb3 c427 0b2e af32 652f b6ac b81b
000001f0: db33 17ad 89af 4eac ed2e 7bb2 be2b 61b4

model/dense_9/BiasAdd/ReadVariableOp f2 [640]
-0.79 0.11115 -0.434 -0.2893 -0.569 -0.2874 -0.564 -0.2205
-0.4377 -0.4338 -0.938 -0.2656 -0.272 -0.5234 -0.8296 -0.4338
-0.744 -0.4185 -0.7295 -0.4736 -0.93 -0.695 -0.585 -0.267
-0.7354 -0.672 -0.927 -0.4778 -0.423 -0.5654 -0.645 -0.3108
-0.8706 -0.4136 -0.567 -0.5425 -0.6787 -0.545 -0.689 -0.2443
-0.7295 -0.4897 -0.7334 -0.4277 -0.6577 -0.7515 -0.3394 -0.564
-0.5713 -0.4365 -0.652 -0.5156 -0.785 -0.4077 -0.773 -0.626
-0.6284 -1.102 -1.139 -0.836 -0.92 -1.142 -0.8433 -0.663
-0.365 -0.545 -0.5693 -0.1582 -0.6685 -0.8125 -0.597 -0.548
-0.575 -0.543 -0.6567 -0.6636 -0.5806 -0.7803 -0.9766 -1.545
-0.832 -1.0625 -1.074 -0.88 -0.619 -0.7773 -0.7554 -0.486
-0.521 -1.284 -1.184 -0.992 -1.112 -0.9614 -0.916 -0.7104
-0.979 -0.977 -0.8633 -0.699 -0.95 -1.081 -1.1455 -0.78
-0.979 -0.923 -0.949 -0.814 -1.087 -1.021 -1.12 -0.6797
-0.9077 -0.89 -0.9004 -0.919 -0.673 -0.5703 -0.603 -0.7017
-1.004 -1.077 -0.9165 -0.831 -1.048 -1.005 -0.9346 -1.629
-0.721 0.1721 -0.3535 -0.2415 -0.5522 -0.2291 -0.519 -0.2012
-0.4133 -0.3848 -0.898 -0.2046 -0.2053 -0.4666 -0.7603 -0.3718
-0.689 -0.3599 -0.7007 -0.333 -0.699 -0.534 -0.5483 -0.2217
-0.6577 -0.5815 -0.8164 -0.3855 -0.2957 -0.4202 -0.5044 -0.1938
-0.7256 -0.293 -0.4963 -0.4722 -0.5845 -0.4207 -0.5596 -0.1646
-0.62 -0.3215 -0.5303 -0.263 -0.517 -0.682 -0.3545 -0.5713
-0.586 -0.4688 -0.609 -0.4023 -0.701 -0.3403 -0.6997 -0.513
-0.4963 -0.9316 -1.084 -0.7734 -0.769 -0.976 -0.695 -0.549
-0.2734 -0.4968 -0.527 -0.1254 -0.638 -0.759 -0.601 -0.4875
-0.514 -0.4917 -0.623 -0.6294 -0.505 -0.688 -0.9033 -1.428
-0.681 -1.005 -1.041 -0.819 -0.5254 -0.678 -0.634 -0.4092
-0.474 -1.193 -1.092 -0.902 -1.063 -0.86 -0.8916 -0.758
-0.9727 -0.957 -0.887 -0.6714 -0.8193 -0.93 -1.109 -0.7686
-0.95 -0.8726 -0.9155 -0.6826 -0.9043 -0.926 -1.057 -0.8174
-1.004 -0.863 -0.7563 -0.782 -0.636 -0.5513 -0.6294 -0.597
-0.9 -1.061 -0.9893 -0.723 -0.984 -0.9087 -0.7783 -1.474
00000000: 52ba 1d2f f2b6 a1b4 8db8 99b4 83b8 0eb3
00000010: 01b7 f1b6 81bb 40b4 5ab4 30b8 a3ba f1b6
00000020: f4b9 b2b6 d6b9 94b7 71bb 8fb9 aeb8 46b4
00000030: e2b9 60b9 6abb a5b7 c5b6 86b8 29b9 f9b4
00000040: f7ba 9eb6 89b8 57b8 6eb9 5cb8 83b9 d1b3
00000050: d6b9 d6b7 deb9 d8b6 43b9 03ba 6eb5 83b8
00000060: 92b8 fcb6 37b9 20b8 48ba 86b6 2fba 02b9
00000070: 07b9 68bc 8ebc b0ba 5cbb 91bc bfba 4eb9
00000080: d7b5 5cb8 8eb8 10b1 59b9 80ba c7b8 62b8
00000090: 9ab8 58b8 41b9 4fb9 a5b8 3eba d0bb 2ebe
000000a0: a8ba 40bc 4cbc 0abb f4b8 38ba 0bba c7b7
000000b0: 2bb8 23bd bcbc f0bb 73bc b1bb 54bb afb9
000000c0: d5bb d1bb e8ba 98b9 9abb 53bc 95bc 3dba
000000d0: d5bb 62bb 98bb 83ba 59bc 16bc 7bbc 70b9
000000e0: 43bb 1fbb 34bb 5abb 62b9 90b8 d3b8 9db9
000000f0: 04bc 4fbc 55bb a6ba 31bc 05bc 7abb 84be
00000100: c5b9 8231 a8b5 bab3 6bb8 55b3 27b8 70b2
00000110: 9db6 28b6 2fbb 8cb2 92b2 77b7 15ba f3b5
00000120: 83b9 c2b5 9bb9 54b5 98b9 46b8 63b8 18b3
00000130: 43b9 a7b8 88ba 2bb6 bbb4 b9b6 09b8 34b2
00000140: ceb9 b0b4 f1b7 8eb7 adb8 bbb6 7ab8 44b1
00000150: f6b8 25b5 3eb8 35b4 23b8 75b9 acb5 92b8
00000160: b0b8 80b7 dfb8 70b6 9cb9 72b5 99b9 1bb8
00000170: f1b7 74bb 56bc 30ba 27ba cfbb 8fb9 64b8
00000180: 60b4 f3b7 37b8 03b0 1bb9 12ba cfb8 cdb7
00000190: 1db8 deb7 fcb8 09b9 0ab8 81b9 3abb b6bd
000001a0: 73b9 05bc 2abc 8dba 34b8 6db9 12b9 8cb6
000001b0: 96b7 c6bc 5ebc 37bb 41bc e1ba 22bb 10ba
000001c0: c8bb a8bb 19bb 5fb9 8eba 71bb 70bc 26ba
000001d0: 9abb fbba 53bb 76b9 3cbb 68bb 3abc 8aba
000001e0: 04bc e7ba 0dba 42ba 17b9 69b8 09b9 c7b8
000001f0: 33bb 3ebc eabb c9b9 dfbb 45bb 3aba e5bd
