compression/autoencoder/float16_quantization/models_compressed/model_ToyCar.tflite (tflite, 540592 bytes, 20 tensors)

model/activation/Relu;model/batch_normalization/batchnorm/add_1 f2 [128]
2.121 1.083 0.01819 -4.438 4.53 3.104 -3.143 -0.965
-2.234 2.94 -1.278 1.884 -1.009 -0.949 4.332 0.003366
-0.02483 -0.2413 1.036 -6.44 0.17 -6.742 -4.23 1.958
-2.793 1.029 -0.03583 10.305 2.975 0.114 0.4504 -1.0625
-0.744 1.34 0.809 0.7573 -3.51 -3.156 5.93 1.164
0.05524 4.418 -0.2727 -0.9194 3.152 -1.24 -2.334 3.934
4.586 -0.4277 1.487 0.4287 -6.176 3.621 -2.266 3.482
0.5444 1.945 1.651 -6.66 0.646 -1.521 0.7476 -4.215
1.834 -0.5103 4.027 -0.3687 -1.84 1.486 0.3606 5.035
0.2756 1.715 0.7944 -8.45 8.98 -1.406 1.596 -9.086
-3.23 -0.5894 -0.03076 0.00984 2.918 4.277 -2.426 5.29
-0.243 -2.68 -4.133 -3.205 -2.713 2.445 -1.492 4.65
-0.59 -0.9927 4.277 -9.18 -2.395 -3.623 6.426 2.486
-0.3533 2.195 -4.426 5.668 4.96 -0.881 -5.555 -6.18
-1.087 8.23 0.4033 4.46 8.375 3.826 2.424 -0.5283
-1.442 -3.973 -3.36 6.066 2.709 -3.555 8.98 -1.936
00000000: 3e40 553c a824 70c4 8844 3542 49c2 b8bb
00000010: 78c0 e141 1dbd 893f 09bc 98bb 5544 e51a
00000020: 5ba6 b9b3 253c 71c6 7131 bec6 3bc4 d53f
00000030: 96c1 1e3c 96a8 2749 f341 4c2f 3537 40bc
00000040: f4b9 5c3d 793a 0f3a 05c3 50c2 ee45 a83c
00000050: 122b 6b44 5db4 5bbb 4e42 f6bc abc0 de43
00000060: 9644 d8b6 f33d dc36 2dc6 3e43 88c0 f742
00000070: 5b38 c83f 9b3e a9c6 2b39 16be fb39 37c4
00000080: 563f 15b8 0744 e6b5 5cbf f23d c535 0945
00000090: 6934 dc3e 5b3a 3ac8 7d48 a0bd 623e 8bc8
000000a0: 76c2 b7b8 e0a7 0a21 d641 4744 dac0 4a45
000000b0: c7b3 5cc1 22c4 69c2 6dc1 e440 f8bd a644
000000c0: b8b8 f1bb 4744 97c8 cac0 3fc3 6d46 f940
000000d0: a7b5 6440 6dc4 ab45 f644 0cbb 8ec5 2ec6
000000e0: 59bc 1d48 7436 7644 3048 a743 d940 3ab8
000000f0: c5bd f2c3 b8c2 1146 6b41 1cc3 7d48 bebf

model/activation_1/Relu;model/batch_normalization_1/batchnorm/add_1 f2 [128]
-0.6016 -0.8027 0.95 0.6904 -0.008484 -0.3887 0.524 -0.215
0.4404 -0.6753 -0.654 0.059 0.4167 1.058 -0.3625 0.668
-0.03333 -0.00417 0.312 0.905 -0.3945 -0.3804 0.1644 0.003313
0.7437 -0.1707 0.003548 -0.3052 0.07745 0.0851 0.4526 -0.2676
-0.1112 0.2078 -0.1272 -1.983 -0.1754 0.03827 -0.47 0.3132
-0.2244 1.889 0.006004 0.2184 -0.3413 0.4734 1.131 1.038
-1.135 0.4038 -0.911 0.0953 -0.6304 -0.1659 -3.998 0.3374
0.8013 0.3533 0.3318 0.3152 -0.0609 0.2307 0.1312 1.281
0.471 0.02672 0.8994 0.2434 0.781 -0.945 0.8354 0.2356
0.728 -0.543 -0.13 -0.0592 0.4353 -0.2195 0.848 0.8096
-0.0746 -0.094 -1.444 0.2957 -0.8364 -0.154 0.4004 0.4353
0.4917 -1.306 0.4983 0.2815 -0.0731 1.8 -0.1418 -0.2126
-1.17 0.4585 0.1364 1.03 -0.1959 -0.1549 -1.03 -0.3315
0.143 0.4504 -0.0868 -1.722 -0.0751 -1.059 -0.2416 0.7646
0.01744 1.302 0.3308 0.9746 -0.03714 0.627 -0.2625 -0.1923
0.1608 -0.3044 0.1875 -0.3193 0.357 0.0595 -0.151 -0.9604
00000000: d0b8 6cba 9a3b 8639 58a0 38b6 3138 e1b2
00000010: 0c37 67b9 3bb9 8d2b ab36 3b3c cdb5 5839
00000020: 44a8 459c fe34 3d3b 50b6 16b6 4331 c91a
00000030: f339 76b1 441b e2b4 f52c 722d 3e37 48b4
00000040: 1eaf a632 12b0 efbf 9db1 e628 85b7 0335
00000050: 2eb3 8e3f 261e fd32 76b5 9337 863c 273c
00000060: 8abc 7636 4abb 192e 0bb9 4fb1 ffc3 6635
00000070: 693a a735 4f35 0b35 ccab 6233 3330 203d
00000080: 8937 d726 323b ca33 3f3a 8fbb af3a 8a33
00000090: d339 58b8 29b0 94ab f736 06b3 c93a 7a3a
000000a0: c6ac 04ae c7bd bb34 b1ba eeb0 6836 f736
000000b0: de37 39bd f937 8134 aeac 333f 8ab0 ceb2
000000c0: aebc 5637 5d30 1f3c 45b2 f5b0 1fbc 4eb5
000000d0: 9330 3537 8ead e3be ceac 3cbc bbb3 1e3a
000000e0: 7724 353d 4b35 cc3b c1a8 0439 33b4 27b2
000000f0: 2531 dfb4 0032 1cb5 b635 9e2b d5b0 afbb

model/activation_2/Relu;model/batch_normalization_2/batchnorm/add_1 f2 [128]
0.01094 -0.4456 0.5435 0.6187 -0.2708 0.1656 -0.10034 -0.2544
0.2452 -0.432 0.3901 0.0561 -1.376 -3.436 0.002579 -0.03186
-0.1495 -0.1217 0.5557 0.1066 0.244 -0.2328 0.369 0.626
-0.0535 0.11206 -3.225 0.462 0.0437 -0.0835 0.2339 -1.439
-0.02846 -0.285 0.2411 0.8257 0.1027 0.2097 0.2485 0.3
0.1562 -0.2595 -0.1849 0.846 0.397 0.03137 -0.2737 0.2876
-0.10315 0.0456 -2.004 -0.162 0.0751 -0.0731 0.134 0.1217
-0.2062 -3.1 0.6196 -0.3823 -0.487 0.1553 0.4783 0.5703
0.2969 0.006424 -0.3538 -0.226 0.6084 0.004395 0.0676 -0.1807
0.0824 0.2042 0.2888 -0.0008664 -0.02747 0.3647 0.2827 0.23
-0.738 0.5293 -0.375 -5.31 0.5654 -0.252 -0.05954 1.282
-0.2417 0.4675 -4.254 0.3657 0.2291 0.5625 -0.00462 0.9365
0.788 -0.003065 0.324 0.1195 0.3477 0.2467 -0.05072 0.4854
-0.3645 -0.03156 0.364 -0.1251 -0.1803 -1.79 -0.09 0.01952
-0.08765 0.1697 -0.8613 0.2852 0.3708 0.06232 0.0782 0.2664
0.0854 0.2086 -0.01968 -0.1087 -0.0503 0.57 -3.885 1.177
00000000: 9a21 21b7 5938 f338 55b4 4d31 6cae 12b4
00000010: d933 e9b6 3e36 2e2b 81bd dfc2 4819 14a8
00000020: c9b0 caaf 7238 d32e cf33 73b3 e735 0239
00000030: d9aa 2c2f 73c2 6437 9829 58ad 7c33 c2bd
00000040: 49a7 8fb4 b733 9b3a 932e b632 f433 cd34
00000050: 0031 27b4 ebb1 c53a 5a36 0428 61b4 9a34
00000060: 9aae d629 02c0 2fb1 ce2c aeac 4a30 ca2f
00000070: 99b2 33c2 f538 1eb6 cbb7 f830 a737 9038
00000080: c034 941e a9b5 3bb3 de38 801c 542c c8b1
00000090: 462d 8932 9f34 1993 08a7 d635 8634 5c33
000000a0: e7b9 3c38 00b6 4fc5 8638 08b4 9fab 213d
000000b0: bcb3 7b37 41c4 da35 5533 8038 bb9c 7e3b
000000c0: 4e3a 479a 2f35 a62f 9035 e533 7eaa c437
000000d0: d5b5 0aa8 d335 01b0 c5b1 29bf c3ad ff24
000000e0: 9cad 6e31 e4ba 9034 ef35 fa2b 012d 4334
000000f0: 772d ad32 0aa5 f5ae 70aa 8f38 c5c3 b53c

model/activation_3/Relu;model/batch_normalization_3/batchnorm/add_1 f2 [128]
1.229 0.007454 0.08264 -1.55 0.04343 0.3235 -4.156 -2.54
0.06006 -0.687 -4.15 0.9233 0.4968 0.5854 1.369 0.0926
0.523 0.2332 -0.2732 0.5767 0.02286 0.8 0.02449 0.2493
-0.03137 1.023 -0.5645 0.706 -0.338 -0.442 0.005466 0.4604
-2.205 -0.4036 -0.0763 0.189 -0.2808 0.667 0.413 0.4102
-0.4211 -0.4382 0.6167 -0.4038 0.814 1.087 0.288 -3.094
-0.4265 -0.389 -1.749 -0.425 -0.2722 -0.6104 0.2664 -0.1382
1.725 -2.295 0.1302 -0.367 1.056 0.2106 1.351 0.2119
-0.8765 -0.1339 0.733 -0.1797 0.422 -0.2012 0.642 0.1406
0.769 -0.2435 0.684 0.1373 -2.232 -0.1671 -0.3003 0.12384
0.5747 0.7847 0.649 -0.3376 -1.992 -0.2537 -2.166 0.236
-0.2664 1.378 0.7295 0.2465 0.991 0.291 -3.46 -0.09937
-0.518 -1.308 0.3074 0.0658 -0.2966 -0.2832 -3.057 0.992
0.6055 0.826 0.833 0.0578 0.797 -2.223 -1.212 0.3228
-0.2756 -0.02191 -5.355 -0.3865 -0.2954 0.1584 -0.0606 0.8813
-0.0441 0.2385 0.4434 0.672 0.2032 0.5273 1.968 0.01831
00000000: ea3c a21f 4a2d 33be 8f29 2d35 28c4 14c1
00000010: b02b 7fb9 26c4 633b f337 af38 7a3d ed2d
00000020: 2f38 7633 5fb4 9d38 da25 663a 4526 fa33
00000030: 04a8 183c 84b8 a639 68b5 12b7 991d 5e37
00000040: 69c0 75b6 e2ac 0c32 7eb4 5639 9c36 9036
00000050: bdb6 03b7 ef38 76b6 833a 593c 9c34 30c2
00000060: d3b6 39b6 ffbe cdb6 5bb4 e2b8 4334 6cb0
00000070: e63e 97c0 2b30 dfb5 393c bd32 673d c832
00000080: 03bb 49b0 dd39 c0b1 c136 70b2 2339 8030
00000090: 273a cbb3 7939 6530 77c0 59b1 ceb4 ed2f
000000a0: 9938 473a 3139 67b5 f8bf 0fb4 55c0 8d33
000000b0: 43b4 833d d639 e333 ee3b a834 ecc2 5cae
000000c0: 25b8 3bbd eb34 362c bfb4 88b4 1dc2 f03b
000000d0: d838 9c3a aa3a 662b 603a 72c0 d9bc 2a35
000000e0: 69b4 9ca5 5bc5 2fb6 bab4 1231 c2ab 0d3b
000000f0: a5a9 a233 1837 6039 8132 3838 df3f b024

model/activation_4/Relu;model/batch_normalization_4/batchnorm/add_1 f2 [8]
3.006 1.623 1.308 0.7686 1.071 0.821 1.816 1.165
00000000: 0342 7e3e 3b3d 263a 493c 913a 443f a93c

model/activation_5/Relu;model/batch_normalization_5/batchnorm/add_1 f2 [128]
3.96 1.998 -8.02 -1.355 -3.637 2.463 3.068 0.2637
0.816 -4.55 -3.348 -4.516 1.336 -7.04 2.018 0.3584
-3.564 1.425 3.12 0.4397 -5.31 1.811 -3.686 -7.74
5.44 -0.3901 1.973 6.594 -3.758 3.635 -1.611 3.906
5.605 3.11 1.74 1.307 2.764 1.459 2.865 1.974
4.414 -2.615 0.7397 -1.253 -5.473 8.47 -3.463 -1.063
2.97 -0.542 -0.3914 -2.156 1.526 3.148 2.11 1.773
-3.51 -8.27 6.617 2.172 5.52 0.4834 -3.283 -6.37
-4.73 3.656 4.37 -3.496 -2.336 0.5396 2.352 -2.334
-3.549 -0.496 -1.632 -0.7417 -3.568 0.2245 2.02 0.7134
-4.652 -2.424 -0.972 -1.537 3.19 -0.552 0.3394 5.13
1.096 -2.715 -6.785 4.992 -4.816 3.057 1.45 2.379
2.95 4.996 0.675 -8.06 -1.91 -5.855 -1.066 -1.216
0.6787 7.516 3.65 -10.0 -3.27 -0.504 10.09 -6.297
3.178 -1.802 1.176 -0.2372 2.209 4.406 -3.6 7.65
4.484 -3.36 -3.168 -4.3 -5.812 -6.78 -2.242 -8.05
00000000: ec43 fe3f 03c8 6cbd 46c3 ed40 2342 3834
00000010: 873a 8dc4 b2c2 84c4 583d 0ac7 0940 bc35
00000020: 21c3 b33d 3d42 0937 4fc5 3e3f 5fc3 bdc7
00000030: 7145 3eb6 e43f 9846 84c3 4543 72be d043
00000040: 9b45 3842 f63e 3a3d 8741 d63d bb41 e53f
00000050: 6a44 3bc1 eb39 03bd 79c5 3c48 edc2 41bc
00000060: f141 56b8 43b6 50c0 1b3e 4c42 3840 183f
00000070: 05c3 23c8 9e46 5840 8545 bc37 91c2 5fc6
00000080: bbc4 5043 5f44 fec2 acc0 5138 b440 abc0
00000090: 19c3 f0b7 87be efb9 23c3 2f33 0a40 b539
000000a0: a7c4 d9c0 c7bb 26be 6142 6ab8 6e35 2145
000000b0: 623c 6ec1 c9c6 fe44 d1c4 1d42 cd3d c240
000000c0: e641 ff44 6639 08c8 a4bf dbc5 44bc ddbc
000000d0: 6e39 8447 4d43 00c9 8ac2 08b8 0c49 4cc6
000000e0: 5b42 35bf b43c 97b3 6b40 6844 33c3 a647
000000f0: 7c44 b8c2 56c2 4dc4 d0c5 c8c6 7cc0 06c8

model/activation_6/Relu;model/batch_normalization_6/batchnorm/add_1 f2 [128]
1.586 0.773 0.9463 -0.3262 -0.5483 -0.2944 0.048 0.6
-1.253 0.527 0.9004 -0.10864 -0.9565 -1.3125 -0.3982 1.094
-0.584 0.832 0.3118 -0.2178 -0.1103 -1.008 0.886 -0.4917
0.9595 -0.2372 -0.4966 2.428 0.714 0.3953 -0.548 0.3538
-1.414 0.4036 -0.584 0.2083 0.03134 -0.1714 0.1155 0.1895
-0.4236 1.534 -0.1552 -0.5273 0.02931 0.976 0.234 0.4148
-0.2986 0.5474 -0.6104 -0.266 -1.207 0.3804 1.131 1.673
0.1118 -1.479 0.6045 -1.071 -1.159 0.2854 1.001 0.1882
0.251 -1.144 -1.441 0.2109 -0.0158 -0.6177 -0.1249 0.5664
2.992 0.4758 1.209 0.891 -0.574 1.365 0.17 1.882
-1.214 -2.498 0.664 1.29 0.988 1.361 0.1392 -0.8867
-1.391 0.3826 1.23 1.656 1.103 0.2401 -1.024 0.939
0.5796 -1.249 0.827 1.279 0.5415 1.601 1.336 0.9585
-0.5337 0.11444 -0.1857 0.4458 0.577 -1.581 0.2688 1.751
1.249 -0.3887 -0.578 0.1605 -0.3994 -0.09503 0.4524 2.473
-2.414 -2.098 -2.27 0.3132 -0.356 0.6655 0.2668 0.512
00000000: 583e 2f3a 923b 38b5 63b8 b6b4 252a cd38
00000010: 03bd 3738 343b f4ae a7bb 40bd 5fb6 603c
00000020: acb8 a83a fd34 f8b2 0faf 08bc 173b deb7
00000030: ad3b 97b3 f2b7 db40 b639 5336 62b8 a935
00000040: a8bd 7536 acb8 aa32 0328 7cb1 642f 1032
00000050: c7b6 233e f7b0 38b8 8127 cf3b 7d33 a336
00000060: c7b4 6138 e2b8 42b4 d4bc 1636 863c b13e
00000070: 282f eabd d638 49bc a3bc 9134 013c 0632
00000080: 0434 93bc c4bd c032 0ba4 f1b8 feaf 8838
00000090: fc41 9d37 d63c 213b 98b8 763d 7131 873f
000000a0: dbbc ffc0 5039 293d e73b 723d 7430 18bb
000000b0: 90bd 1f36 ec3c a03e 693c af33 19bc 833b
000000c0: a338 ffbc 9e3a 1e3d 5538 673e 583d ab3b
000000d0: 45b8 532f f1b1 2237 9e38 53be 4d34 013f
000000e0: ff3c 38b6 a0b8 2331 64b6 15ae 3d37 f240
000000f0: d4c0 32c0 8ac0 0335 b2b5 5339 4534 1938

model/activation_7/Relu;model/batch_normalization_7/batchnorm/add_1 f2 [128]
0.7773 0.2136 -1.288 -0.4368 0.004105 -0.2522 0.3022 1.225
1.03 -0.356 -0.01258 -0.7173 1.304 0.7656 2.062 1.581
0.532 -0.1232 1.563 0.803 -0.5815 0.0931 -0.149 0.794
0.6133 -0.1199 -0.7095 1.465 -1.38 1.183 0.3108 -1.082
-0.67 0.0003164 0.755 0.5483 -1.768 1.442 0.335 0.837
-0.2091 1.482 -0.9756 -1.034 0.908 -0.155 -1.031 -0.799
0.5366 0.203 -0.1871 0.2319 0.858 -0.788 -0.04404 -0.0779
-1.728 1.887 -0.768 1.101 0.646 -0.00612 -0.624 0.4646
1.467 1.251 0.89 -0.536 0.8364 -0.9106 -0.228 0.759
-0.647 -1.453 -0.517 0.5312 0.1897 2.084 0.2345 1.506
0.1399 -0.2507 1.82 0.3792 0.692 0.4568 0.736 0.648
0.11475 0.842 0.2211 3.176 -0.03152 0.298 -0.1787 -1.649
0.3142 -1.594 0.5273 1.298 0.04984 0.955 0.7305 0.4204
1.264 1.007 0.7754 0.649 0.534 0.04056 0.2812 -0.0805
0.7275 0.669 0.67 -1.298 -0.06604 0.1056 -0.5376 -1.252
0.2554 0.307 -0.04855 1.098 -0.001941 0.78 0.05194 0.7256
00000000: 383a d632 27bd fdb6 341c 09b4 d634 e63c
00000010: 1f3c b2b5 71a2 bdb9 373d 203a 2040 533e
00000020: 4238 e3af 413e 6d3a a7b8 f52d c5b0 5a3a
00000030: e838 acaf adb9 dc3d 85bd bb3c f934 54bc
00000040: 5cb9 2f0d 0a3a 6338 12bf c53d 5c35 b23a
00000050: b1b2 ee3d cebb 23bc 443b f6b0 20bc 64ba
00000060: 4b38 7f32 fdb1 6c33 dd3a 4eba a3a9 fcac
00000070: e9be 8c3f 25ba 673c 2b39 449e feb8 6f37
00000080: de3d 013d 1f3b 4ab8 b13a 49bb 4cb3 123a
00000090: 2db9 d0bd 23b8 4038 1232 2b40 8133 063e
000000a0: 7a30 03b4 483f 1136 8939 4f37 e339 2f39
000000b0: 582f bc3a 1333 5a42 09a8 c534 b8b1 99be
000000c0: 0735 60be 3838 313d 612a a43b d839 ba36
000000d0: 0e3d 073c 343a 3139 4638 3129 8034 27ad
000000e0: d239 5a39 5c39 31bd 3aac c22e 4db8 02bd
000000f0: 1634 e934 37aa 643c f397 3d3a a62a ce39

model/activation_8/Relu;model/batch_normalization_8/batchnorm/add_1 f2 [128]
1.943 1.274 1.325 1.518 0.566 2.633 1.482 0.4106
1.371 1.209 0.832 0.4465 3.918 2.447 1.478 2.508
1.378 0.8945 -0.2568 1.628 1.355 -0.381 0.7705 0.662
0.2203 2.672 0.984 -0.7817 0.4482 0.951 3.21 0.6943
1.764 1.939 0.2593 1.219 0.944 -1.098 0.699 3.383
0.92 0.2546 -0.2091 1.242 1.311 1.1875 1.687 2.281
0.832 1.485 0.6143 0.6353 1.411 0.9546 1.929 1.997
1.893 0.3086 0.902 0.4836 2.871 0.686 0.5767 2.785
1.69 1.339 0.433 0.7935 1.721 1.511 0.847 0.563
2.7 1.773 0.3413 0.05206 0.1371 3.35 0.911 1.9
2.766 0.591 0.2603 1.351 1.067 0.788 -0.8496 0.878
-1.877 0.469 -0.08636 1.555 2.332 0.7344 0.577 1.149
2.447 1.398 0.719 1.07 -0.2742 3.848 -0.0399 1.3125
0.621 0.606 0.659 -0.1495 0.12274 1.0 1.237 1.198
0.6147 -0.221 1.071 0.832 1.953 1.295 0.327 0.8286
0.1333 2.352 0.964 0.803 0.7393 1.515 1.81 -0.1633
00000000: c63f 193d 4d3d 123e 8738 4441 ee3d 9236
00000010: 7c3d d63c a83a 2537 d643 e540 e93d 0441
00000020: 833d 283b 1cb4 833e 6c3d 19b6 2a3a 4c39
00000030: 0d33 5841 df3b 41ba 2c37 9c3b 6c42 8e39
00000040: 0e3f c23f 2634 e03c 8d3b 64bc 9839 c442
00000050: 5c3b 1334 b1b2 f83c 3e3d c03c bf3e 9040
00000060: a83a f13d ea38 1539 a53d a33b b73f fd3f
00000070: 923f f034 373b bd37 be41 7d39 9d38 9241
00000080: c33e 5b3d ee36 593a e23e 0b3e c73a 8138
00000090: 6641 183f 7635 aa2a 6330 b342 4a3b 9a3f
000000a0: 8841 ba38 2a34 673d 453c 4e3a ccba 063b
000000b0: 82bf 8137 87ad 383e aa40 e039 9e38 993c
000000c0: e540 983d c139 483c 63b4 b243 1ba9 403d
000000d0: f838 d938 4639 c9b0 db2f 003c f33c cb3c
000000e0: eb38 12b3 493c a83a d03f 2e3d 3b35 a13a
000000f0: 4430 b440 b63b 6d3a ea39 0f3e 3d3f 3ab1

model/batch_normalization/batchnorm/mul_1 f2 [128, 640]
0.0004447 0.004158 0.00355 0.001709 0.001531 0.0014515 0.002642 0.002672
0.003096 0.003368 0.001444 0.000322 0.000661 -1.854e-05 0.0003805 0.000431
-0.001048 -0.001506 -0.000987 -0.001304 -0.002932 -0.003496 -0.00208 0.002367
0.00346 0.001621 -0.0001645 0.0015955 0.002008 0.002235 0.000586 -0.0006833
-0.0001312 -0.000541 -0.000651 0.0003545 -5.94e-05 -0.0003426 0.001115 0.000257
0.0006413 0.002197 0.001097 0.001403 -0.0001786 -0.0008907 -0.0003288 0.0005608
-0.0005593 -0.003471 -0.00306 -0.002508 -0.001447 -0.002226 -0.000436 -0.000896
0.0001574 0.0008807 0.0003555 -0.001494 0.000168 -0.000764 -0.000915 -0.0001396
0.0009394 0.001069 0.001452 0.001283 0.000347 0.001712 0.000657 0.00211
0.00253 0.002584 0.002403 0.001634 0.001229 0.003225 0.002588 0.003494
0.001299 0.0001307 0.000434 0.001732 0.000568 -6.84e-05 -0.001276 -0.0003757
-0.001196 -2.664e-05 -0.0002054 0.000547 0.001085 -1.29e-05 0.0004427 -0.00128
-1.323e-05 -7.33e-06 -0.0004528 -0.0004377 -0.00065 -0.000772 0.0006356 0.0008993
0.001531 0.00138 0.001563 0.0003183 0.000714 0.001286 -0.0006075 -0.0008655
-0.000806 0.0002295 0.0004973 0.0001175 0.0002031 -0.0008 -0.001243 -0.001995
-0.001766 -0.0008874 -0.0014 3e-06 0.001251 0.00126 0.0008464 -0.0003963
-0.0003588 0.003656 0.004124 0.001587 -0.001219 -0.00136 0.001342 0.00171
0.003654 0.003105 0.001205 -0.0001211 0.0002043 0.0006166 0.000869 0.0002642
-0.00121 -0.001365 -0.000896 -0.001274 -0.001761 -0.002714 -0.001594 0.002508
0.004265 0.0029 0.0015135 0.000379 0.002123 0.002108 -3.78e-05 -0.0005317
-0.0006056 -0.0003195 -0.001308 -0.0001432 0.0007625 0.00011736 0.001287 0.0004132
0.001486 0.002586 0.001471 0.001275 -0.0008225 -0.00122 -0.000994 -0.0001785
9.173e-05 -0.003214 -0.003897 -0.003544 -0.001846 -0.001871 -0.0002549 -0.00058
-5.55e-05 9.817e-05 0.00065 -0.001775 -0.0003533 -0.001587 -0.001279 9.67e-05
0.001575 0.0005827 0.001587 0.001065 0.000735 0.0008802 0.0004177 0.001806
0.001852 0.002836 0.003172 0.002401 0.0005302 0.002539 0.002073 0.003656
0.000929 -0.0001134 6.896e-05 0.001325 0.001101 -0.0001043 -0.001569 -0.00114
-0.002123 -0.001244 -0.001855 0.000272 0.0004725 6.163e-05 0.000673 -0.001454
2.5e-05 -0.0007973 -0.001324 -0.0009065 -0.001082 -0.0006485 0.0005126 0.0003374
0.0006604 0.0004232 0.0007067 0.0001891 0.0006332 0.001069 -0.001106 -0.0007253
-0.00062 0.000602 0.00010073 -0.00010747 0.0002818 -0.0004935 -0.001647 -0.001819
-0.002396 -0.0008492 -0.001522 -0.0006423 -6.646e-05 0.0009727 0.0004585 -0.001112
00000000: 490f 421c 451b 0017 4516 f215 6919 7919
00000010: 571a e61a ea15 470d 6a11 3781 3c0e 100f
00000020: 4b94 2b96 0b94 5795 019a 299b 4398 d918
00000030: 161b a416 6489 8916 1d18 9418 cd10 9991
00000040: 4d88 6f90 5591 cf0d e583 9d8d 9114 360c
00000050: 4111 8018 7e14 bf15 da89 4c93 638d 9810
00000060: 9590 1c9b 449a 2399 ed95 8f98 258f 5793
00000070: 2809 3713 d30d 1f96 8109 4292 7f93 9388
00000080: b213 6114 f315 4115 af0d 0317 6211 5218
00000090: 2e19 4b19 ec18 b116 0915 9b1a 4d19 281b
000000a0: 5215 4808 1c0f 1817 a710 7c84 3a95 288e
000000b0: e694 bf81 bb8a 7b10 7214 d880 410f 3e95
000000c0: de80 7b80 6b8f 2c8f 5391 5392 3511 5e13
000000d0: 4516 a715 6716 370d d911 4415 fa90 1793
000000e0: 9a92 850b 1310 b307 a80a 8e92 1795 1698
000000f0: 3c97 4593 bc95 3200 2015 2915 ef12 7e8e
00000100: e18d 7d1b 391c 8016 fe94 9295 7f15 0117
00000110: 7c1b 5c1a f014 f087 b20a 0d11 1e13 540c
00000120: f594 9795 5793 3895 3797 8f99 8796 2319
00000130: 5e1c f019 3316 360e 5918 5118 7a82 5b90
00000140: f690 3c8d 5c95 b188 3f12 b107 4615 c50e
00000150: 1616 4c19 0616 3915 bd92 ff94 1294 d989
00000160: 0306 959a fb9b 429b 9097 aa97 2d8c c090
00000170: a383 6f06 5311 4597 ca8d 8096 3d95 5606
00000180: 7416 c610 8016 5d14 0512 3613 d80e 6617
00000190: 9617 cf19 7f1a eb18 5810 3319 3f18 7d1b
000001a0: 9c13 6f87 8504 6d15 8214 d686 6d96 ab94
000001b0: 5998 1895 9997 750c be0f 0a04 8311 f595
000001c0: a301 8892 6c95 6d93 6f94 5091 3310 870d
000001d0: 6911 ef0e ca11 320a 3011 6114 8894 f191
000001e0: 1491 ee10 9a06 0b87 9e0c 0b90 bf96 7397
000001f0: e898 f592 3c96 4391 5b84 f813 830f 8e94

model/batch_normalization_1/batchnorm/mul_1 f2 [128, 128]
0.04102 -0.3135 0.0875 0.03842 -0.2133 0.05524 -0.08105 0.0823
-0.00424 -0.04678 -0.05347 -0.1492 -0.1156 -0.1036 -0.11127 -0.086
0.3652 -0.314 0.00706 0.10803 0.1155 -0.138 -0.04102 -0.1943
0.02129 -0.003075 -0.074 0.0663 0.01371 0.1283 0.2627 0.03035
0.03955 0.0527 0.02762 0.2194 -0.2153 0.043 -0.1456 0.00639
-0.01926 -0.0836 0.01674 -0.0844 0.0152 -0.2778 -0.1593 -0.005608
0.1888 -0.0331 -0.02295 0.09546 -0.00945 -0.0474 0.04147 0.05768
-0.054 0.2705 -0.0931 0.01799 -0.0577 0.571 -0.1056 0.03986
0.0748 0.01556 -0.1103 0.02298 -0.1941 -0.04678 -0.04956 0.0754
0.008675 -0.09344 0.0698 0.01233 0.1045 0.00588 -0.1394 0.02043
0.1515 0.1469 0.0726 -0.007706 0.06445 0.1562 0.05267 0.08246
-0.0917 0.018 -0.013016 0.1954 0.3289 0.2783 0.1357 0.02478
-0.1436 0.1385 0.07214 0.06015 0.01695 0.1527 0.0471 0.03958
-0.04178 -0.05905 -0.1528 -0.1664 0.1196 0.01181 0.4294 -0.0911
0.142 -0.1743 -0.03442 -0.10156 0.1627 0.096 0.02295 -0.092
-0.1628 -0.3257 -0.1304 0.01073 -0.05716 -0.02478 -0.0675 0.3323
0.01825 -0.05313 0.0668 -0.01381 -0.0861 0.2423 0.05725 -0.006416
-0.0645 0.10474 0.1436 -0.02701 -0.0934 -0.0572 -0.04016 0.0432
0.163 0.1812 0.04587 0.0439 -0.003248 0.02618 -0.1085 -0.0386
0.2219 0.09326 -0.03223 0.1099 0.2524 0.02507 0.1311 -0.121
-0.02466 -0.003126 -0.01115 0.0989 0.11346 -0.05212 -0.0345 -0.05527
0.04324 -0.010574 -0.0504 0.03104 0.2081 -0.02466 0.01692 0.0429
0.01729 0.0746 0.0193 -0.04504 -0.02388 -0.0171 -0.01464 -0.00814
-0.01241 -0.03452 0.076 0.00289 0.0955 0.008286 0.1918 0.03156
0.10425 -0.02602 0.0624 -0.08777 0.0096 0.008835 -0.05435 -0.01912
-0.03552 -0.0008607 -0.0382 -0.0738 0.00609 -0.005917 0.09717 0.00995
0.1094 0.08124 0.06354 0.01304 0.0422 -0.0406 0.00654 -0.0506
-0.06238 0.106 0.00685 -0.01537 -0.073 -0.1096 -0.049 0.086
-0.00727 -0.092 0.00647 -0.0652 0.01645 0.04492 0.1219 -0.05844
0.03467 -0.08856 -0.09607 -0.0741 -0.01286 -0.0447 0.02272 0.05573
-0.02878 0.00728 0.03998 0.04187 0.03226 0.0639 0.1842 0.0132
-0.015076 -0.0745 -0.02127 0.0173 0.1272 0.03098 -0.07745 0.08746
00000000: 4029 04b5 9a2d eb28 d3b2 122b 30ad 442d
00000010: 579c fda9 d8aa c6b0 66af a1ae 1faf 81ad
00000020: d835 06b5 3b1f ea2e 642f 6ab0 40a9 38b2
00000030: 7325 4c9a bcac 3e2c 0523 1b30 3434 c527
00000040: 1029 bf2a 1227 0533 e4b2 8129 a9b0 8b1e
00000050: eea4 5aad 4924 67ad c823 72b4 19b1 be9d
00000060: 0b32 3da8 e0a5 1c2e d7a0 11aa 4f29 622b
00000070: e9aa 5434 f5ad 9b24 63ab 9138 c2ae 1a29
00000080: ca2c f723 0faf e225 36b2 fda9 58aa d32c
00000090: 7120 fbad 782c 5022 b02e 051e 76b0 3b25
000000a0: d930 b330 a52c e49f 202c 0031 be2a 472d
000000b0: dead 9c24 aaa2 4132 4335 7434 5830 5826
000000c0: 98b0 6f30 9e2c b32b 5724 e330 072a 1129
000000d0: 59a9 8fab e4b0 53b1 a82f 0c22 df36 d5ad
000000e0: 8b30 94b1 68a8 80ae 3531 252e e025 e3ad
000000f0: 36b1 36b5 2cb0 7e21 51ab 58a6 52ac 5135
00000100: ac24 cdaa 462c 12a3 83ad c133 542b 929e
00000110: 21ac b42e 9830 eaa6 faad 52ab 24a9 8829
00000120: 3731 cc31 df29 9f29 a79a b426 f2ae f1a8
00000130: 1a33 f82d 20a8 092f 0a34 6b26 3230 beaf
00000140: 50a6 679a b5a1 542e 432f acaa 6aa8 13ab
00000150: 8929 6aa1 74aa f227 a932 50a6 5524 7e29
00000160: 6d24 c62c f124 c4a9 1da6 61a4 7fa3 2ba0
00000170: 5ba2 6ba8 dd2c eb19 1d2e 3e20 2332 0a28
00000180: ac2e a9a6 fd2b 9ead ea20 8620 f5aa e5a4
00000190: 8ca8 0d93 e4a8 b9ac 3c1e 0f9e 382e 1821
000001a0: 002f 332d 112c ad22 6729 32a9 b21e 7aaa
000001b0: fcab c92e 041f dfa3 acac 04af 46aa 812d
000001c0: 729f e3ad a01e 2cac 3624 c029 cd2f 7bab
000001d0: 7028 abad 26ae beac 96a2 b9a9 d125 222b
000001e0: 5ea7 741f 1e29 5c29 2128 172c e531 c222
000001f0: b8a3 c5ac 72a5 6e24 1230 ee27 f5ac 992d

model/batch_normalization_2/batchnorm/mul_1 f2 [128, 128]
-0.04874 0.02174 0.006844 -0.055 0.07513 0.005257 -0.02647 0.03424
-0.03516 0.0521 0.008995 -0.03078 -0.05405 0.0595 -0.0082 0.1035
0.06274 -0.02525 -0.05377 0.02115 0.02562 0.04886 0.04126 0.03168
-0.002098 0.0193 0.01736 -0.00303 -0.01069 0.10077 -0.04095 -0.014
-0.1198 -0.0478 0.0673 0.02841 0.02815 0.02988 0.03156 -0.01857
-0.0501 0.05615 0.0313 0.03558 -0.04614 -0.04263 -0.0551 0.01221
-0.02083 -0.0745 -0.0922 -0.01627 -0.0688 -0.0965 -0.0656 -0.0001643
0.0006924 -0.763 -0.03336 0.02028 0.001731 -0.2568 0.0865 0.0379
-0.04565 0.02336 0.039 -0.01843 0.1186 0.0675 0.02003 -0.09766
-0.03836 -0.11127 -0.0149 -0.00422 -0.008835 0.00451 0.06204 -0.0835
0.02463 0.04404 0.03323 -0.03668 -0.01556 0.07196 -0.0206 -0.05618
0.05807 0.0554 -0.00877 0.0347 -0.04422 -0.05176 -0.01926 -0.03748
-0.008545 0.01293 -0.008156 0.04623 0.05185 -0.00921 -0.010574 0.00407
-0.012566 0.08276 -0.02585 0.03552 -0.05078 0.010086 0.04404 0.00918
-0.01563 -0.0713 0.0571 0.004353 0.03293 0.00883 -0.006916 0.0246
0.01351 0.0404 -0.06726 0.027 -0.04526 0.01425 -0.0193 -0.01625
0.1599 -0.07733 0.0188 -0.03848 -0.162 -0.1478 0.1125 -0.0766
-0.0519 -0.1699 0.2142 0.111 0.1337 -0.006588 -0.014725 -0.1487
0.08655 0.1283 0.05197 -0.01373 0.05 0.0782 0.1995 -1.112
0.0632 -0.1509 0.1176 0.0569 0.2272 0.0776 -0.00934 -0.3584
-0.0874 -0.0295 0.04373 0.1282 0.162 -0.027 -0.2236 0.11865
-0.006386 -0.1715 -0.1385 -0.1775 0.02684 -0.01576 0.06647 0.0955
-0.194 -0.2017 0.04254 -0.0703 -0.2422 -0.1247 0.10333 0.305
-0.1759 0.03067 -0.413 -0.0277 -0.10425 0.05017 -0.149 0.007076
-0.1489 -0.1437 -0.08875 -0.1279 0.0112 -0.01109 -0.1797 0.1395
-0.1876 -0.2217 0.014206 -0.7744 -0.04294 0.11273 -0.2769 0.1578
0.141 0.2118 0.092 -0.1458 -0.02621 0.1251 -0.1118 -0.09094
-0.06805 -0.04852 0.004887 -0.1969 -0.06555 0.06586 -0.2107 0.11597
-0.03976 -0.1906 -0.00785 0.0342 0.12006 0.003778 -0.01636 -0.02689
-0.0195 0.2656 0.2983 -0.01315 -0.02057 0.06165 0.1974 0.004986
0.013695 0.1893 0.2281 -0.006577 -0.1927 -0.0589 0.1757 0.1257
0.1259 -0.2301 0.1709 -0.05255 0.02463 -0.01665 0.2462 -0.12384
00000000: 3daa 9125 021f 0aab cf2c 621d c7a6 6228
00000010: 80a8 ab2a 9b20 e1a7 ebaa 9e2b 33a0 a02e
00000020: 042c 77a6 e2aa 6a25 8f26 412a 4829 0e28
00000030: 4c98 f124 7224 359a 79a1 732e 3ea9 2ba3
00000040: abaf 1eaa 4f2c 4627 3527 a627 0a28 c1a4
00000050: 6aaa 302b 0228 8e28 e8a9 75a9 0eab 4022
00000060: 55a5 c5ac e7ad 2aa4 67ac 2dae 33ac 6289
00000070: ac11 1bba 45a8 3125 1717 1cb4 892d da28
00000080: d8a9 fb25 fe28 b8a4 972f 522c 2125 40ae
00000090: e9a8 1faf a1a3 529c 86a0 9e1c f12b 58ad
000000a0: 4e26 a329 4128 b2a8 f7a3 9b2c 46a5 31ab
000000b0: 6f2b 172b 7ea0 7128 a9a9 a0aa eea4 cca8
000000c0: 60a0 9f22 2da0 eb29 a32a b7a0 6aa1 2b1c
000000d0: 6fa2 4c2d 9ea6 8c28 80aa 2a21 a329 b320
000000e0: 00a4 90ac 4f2b 751c 3728 8520 159f 4c26
000000f0: eb22 2c29 4eac e926 cba9 4c23 f1a4 29a4
00000100: 1e31 f3ac d024 eda8 2fb1 bbb0 332f e7ac
00000110: a5aa 70b1 db32 1b2f 4730 bf9e 8aa3 c2b0
00000120: 8a2d 1b30 a72a 08a3 662a 012d 6232 73bc
00000130: 0b2c d4b0 872f 482b 4533 f72c c8a0 bcb5
00000140: 98ad 8da7 9929 1a30 2f31 e9a6 28b3 982f
00000150: 8a9e 7db1 6fb0 aeb1 df26 09a4 412c 1d2e
00000160: 35b2 74b2 7229 80ac c0b3 fbaf 9d2e e134
00000170: a1b1 da27 9cb6 17a7 acae 6c2a c5b0 3f1f
00000180: c4b0 99b0 aead 18b0 bc21 aea1 c0b1 7730
00000190: 01b2 18b3 4623 32ba 7fa9 372f 6eb4 0d31
000001a0: 8330 c732 e32d aab0 b6a6 0130 28af d2ad
000001b0: 5bac 36aa 011d 4db2 32ac 372c beb2 6c2f
000001c0: 17a9 19b2 05a0 6128 af2f bd1b 30a4 e2a6
000001d0: fea4 4034 c634 bca2 44a5 e42b 5132 1b1d
000001e0: 0323 0f32 4d33 bc9e 2bb2 8aab 9f31 0630
000001f0: 0730 5db3 7831 baaa 4e26 43a4 e133 edaf

model/batch_normalization_3/batchnorm/mul_1 f2 [128, 128]
-0.127 -0.06934 0.6777 -0.0745 0.19 -0.25 0.4866 -0.1832
0.0453 -0.1682 0.2786 0.3281 0.138 -0.1926 -0.1996 -0.0665
-0.3157 0.1683 -0.3396 0.05 0.1866 0.2585 0.04803 -0.2544
0.0437 0.1475 -0.2142 0.1197 -0.3767 -0.0992 0.0769 -0.348
-0.1494 -0.00624 -0.306 -0.08105 0.03714 0.04114 -0.03586 -0.262
0.4524 -0.165 0.2103 -0.1593 -0.0805 -0.3281 -0.1821 -0.04364
0.0411 -0.0678 -0.0375 -0.01428 -0.1337 -0.02138 -0.1652 0.02669
-0.2795 -0.4895 0.0289 -0.0747 -0.02057 0.07996 0.2537 -0.1364
-0.0718 -0.406 -0.10645 -0.0932 -0.08417 -0.054 -0.0555 0.1714
0.02455 -0.002264 -0.1549 0.04977 0.1525 -0.09875 -0.169 -0.04352
-0.02498 -0.1919 0.3108 0.11127 -0.2812 0.1721 0.04385 -0.513
-0.1903 -0.04034 0.0512 -0.07385 -0.3054 0.3616 -0.2754 0.2241
0.02478 0.05966 0.2302 -0.05136 0.0683 0.06744 0.09985 -0.004726
-0.379 0.01797 -0.11584 0.00619 0.0662 -0.04398 -0.0444 0.0106
0.06223 0.2147 0.291 -0.0917 -0.02136 0.0963 0.01489 -0.1697
0.0677 0.11456 0.088 -0.1165 -0.238 0.1191 -0.3013 -0.0532
0.1423 -0.1231 0.2323 -0.2754 0.166 -0.0888 -0.145 0.1361
0.1804 -0.2788 0.1761 0.1573 0.1993 -0.2532 0.08295 0.2196
-0.09674 0.1569 0.0648 0.0843 0.1708 -0.1412 -0.3037 -0.03217
0.2102 -0.1522 -0.1917 0.2844 -0.08905 -0.1403 -0.0603 -0.03323
-0.02917 -0.00784 -0.05563 0.0661 0.2118 0.2212 -0.19 -0.03394
-0.4558 -0.24 -0.007393 -0.135 -0.181 -0.03143 -0.1849 0.1766
0.1415 0.1611 -0.07404 0.10187 0.1917 0.0514 0.10516 -0.0488
0.0313 0.656 0.1367 0.05988 0.26 -0.1652 -0.2261 -0.0376
-0.06384 0.1356 0.2583 0.04688 -0.0838 -0.04517 -0.0002197 0.1011
0.00564 -0.2944 -0.199 0.269 -0.1114 0.003925 -0.1344 0.0905
0.1637 -0.1329 0.06006 0.1348 -0.0681 -0.4465 -0.2148 -0.0545
-0.321 0.328 0.2456 0.2462 -0.1203 0.3772 -0.1244 -0.14
0.2396 -0.3337 0.1946 -0.4207 -0.0734 -0.948 0.2876 0.2869
-0.06195 0.0941 0.07227 0.3145 -0.12476 -0.0485 -0.0557 -0.02695
-0.1722 0.1665 -0.436 0.1597 -0.1664 -0.2308 -0.086 0.002468
0.3352 0.1362 0.4963 -0.2356 0.168 -0.2089 -0.0747 0.05087
00000000: 10b0 70ac 6c39 c5ac 1432 00b4 c937 ddb1
00000010: cc29 62b1 7534 4035 6a30 2ab2 63b2 42ac
00000020: 0db5 6331 6fb5 662a f931 2334 262a 12b4
00000030: 9829 b830 dbb2 a92f 07b6 59ae ec2c 91b5
00000040: c8b0 649e e5b4 30ad c128 4429 97a8 31b4
00000050: 3d37 48b1 bb32 19b1 27ad 40b5 d4b1 96a9
00000060: 4329 57ac cda8 50a3 47b0 79a5 49b1 d526
00000070: 79b4 d5b7 6627 c8ac 44a5 1e2d 0f34 5db0
00000080: 98ac 7fb6 d0ae f7ad 63ad e9aa 1bab 7c31
00000090: 4926 a398 f5b0 5f2a e130 52ae 68b1 92a9
000000a0: 65a6 24b2 f934 1f2f 80b4 8231 9d29 1bb8
000000b0: 17b2 2aa9 8e2a baac e3b4 c935 68b4 2c33
000000c0: 5826 a32b 5e33 93aa 5f2c 512c 642e d79c
000000d0: 10b6 9a24 6aaf 571e 3d2c a1a9 afa9 6d21
000000e0: f72b df32 a834 dead 78a5 2a2e a023 6eb1
000000f0: 552c 552f a22d 75af 9eb3 9f2f d2b4 cfaa
00000100: 8e30 e1af 6f33 68b4 5031 afad a4b0 5b30
00000110: c631 76b4 a331 0931 6132 0db4 4f2d 0733
00000120: 31ae 0531 262c 652d 7731 85b0 dcb4 1ea8
00000130: ba32 dfb0 22b2 8d34 b3ad 7db0 b8ab 41a8
00000140: 78a7 04a0 1fab 3b2c c732 1433 14b2 58a8
00000150: 4bb7 aeb3 929f 52b0 cbb1 06a8 ebb1 a731
00000160: 8730 2831 bdac 852e 2232 942a bb2e 3faa
00000170: 0228 3f39 6030 aa2b 2934 49b1 3cb3 d0a8
00000180: 16ac 5730 2234 002a 5dad c8a9 338b 782e
00000190: c61d b6b4 5eb2 4e34 21af 051c 4db0 cb2d
000001a0: 3d31 41b0 b02b 5030 5cac 25b7 e0b2 faaa
000001b0: 23b5 3f35 dc33 e133 b3af 0936 f6af 7bb0
000001c0: ab33 57b5 3a32 bbb6 b3ac 96bb 9a34 9734
000001d0: eeab 062e a02c 0835 fcaf 35aa 21ab e6a6
000001e0: 83b1 5431 fab6 1c31 53b1 63b3 81ad 0e19
000001f0: 5d35 5c30 f137 8ab3 6031 afb2 c8ac 832a

model/batch_normalization_4/batchnorm/mul_1 f2 [8, 128]
0.0004168 -0.01085 0.0169 0.00646 -0.05087 0.0183 0.001615 -0.00964
0.01617 -0.01967 0.0673 0.001668 0.003725 0.01695 0.03078 -0.0832
0.02779 -0.003002 -0.04825 -0.01875 -0.03088 0.03894 0.04178 0.00539
-0.05136 0.01785 -0.00267 -0.01889 0.0247 -0.001384 0.01929 0.00083
0.006546 -0.001917 0.02658 -0.0475 0.0686 -0.09106 -0.0104 0.02153
0.01749 -0.03207 -0.003767 0.0424 0.0012245 0.01984 0.009224 -0.004883
-0.002464 -0.00814 -0.0344 0.01381 0.03137 -0.02177 -0.00389 -0.02425
0.01608 0.01085 -0.01138 -0.1024 0.01488 -0.01825 -0.0337 -0.00872
0.02237 0.078 -0.01248 0.001837 0.1334 -0.014496 0.0032 -0.03848
-0.03622 -0.04575 0.0003924 -0.0152 -0.005905 0.03522 -0.11176 0.02742
-0.0633 -0.06073 -0.03726 0.03436 0.0005674 -0.02045 0.00778 -0.01326
0.01927 -0.02931 0.01767 -0.0402 0.02289 -0.02069 0.00467 -0.02657
0.05823 0.001571 -0.01932 0.00839 -0.03235 -0.003252 -0.012665 -0.024
0.005085 0.01229 0.02196 0.00877 -0.01061 -0.004143 -0.002728 -0.01
-0.01202 0.02527 -0.05124 0.03687 -0.0855 -0.003826 -0.05377 -0.0317
-0.00588 -0.01447 0.00808 0.04907 -0.03232 -0.012924 0.02493 0.03174
-0.013306 0.012024 0.02934 -0.0236 0.0151 0.0002252 -0.0587 0.005394
-0.001717 -0.008705 -0.01762 -0.04144 0.0011425 0.00292 0.01947 -0.00568
-0.006355 -0.03253 -0.00435 0.0781 -0.003937 0.03278 0.01619 0.011734
0.002005 -0.00791 -0.01802 0.001734 0.01875 -0.001583 -0.00714 -0.01746
-0.000781 -0.05725 -0.006626 0.01889 0.02094 0.02458 0.07513 -0.001383
-0.007042 -0.01242 0.002193 -0.01703 -0.01602 0.00899 -0.0008974 -0.0823
-0.0621 -0.02002 -0.06866 -0.04385 0.02017 0.02536 -0.01376 -0.08466
0.02397 -0.0387 0.01223 0.01659 -0.0002732 -0.01397 -0.01701 0.006447
0.006172 0.02078 -0.03061 0.0342 -0.01224 -0.00838 0.01627 -0.064
-0.06354 0.01881 -0.02719 0.02673 0.01151 0.01206 0.003675 -0.00311
-0.003393 0.02164 -0.005806 0.0805 -0.0513 0.01656 0.014046 0.0045
0.02089 -0.00623 -0.01982 -0.01591 -0.01042 -0.01715 -0.0642 -0.001789
0.02605 -0.0222 -0.01968 0.0675 -0.02306 0.003414 -0.05637 -0.0353
-0.000453 0.01161 0.008255 0.007362 -0.0426 -0.00811 -0.01625 0.09296
-0.01442 0.03342 0.004436 -0.03848 0.01645 -0.002094 -0.007633 0.01292
-0.003582 -0.004128 0.00599 -0.01153 0.00756 -0.003283 -0.03326 -0.02045
00000000: d40e 8ea1 5424 9d1e 83aa af24 9d16 f0a0
00000010: 2424 09a5 4f2c d516 a11b 5724 e127 53ad
00000020: 1d27 269a 2daa cda4 e8a7 fc28 5929 851d
00000030: 93aa 9224 7899 d6a4 5326 ab95 f024 cd12
00000040: b41e da97 ce26 14aa 642c d4ad 53a1 8325
00000050: 7a24 1ba8 b79b 6d29 0415 1425 b920 009d
00000060: 0c99 2ba0 67a8 1223 0428 93a5 f79b 35a6
00000070: 1e24 8e21 d4a1 8eae 9e23 aca4 50a8 77a0
00000080: ba25 fe2c 64a2 8617 4530 6ca3 8e1a eda8
00000090: a3a8 dba9 6e0e c8a3 0c9e 8228 27af 0527
000000a0: 0dac c6ab c5a8 6628 a610 3ca5 f71f caa2
000000b0: ef24 81a7 8624 25a9 dc25 4ca5 c81c cda6
000000c0: 742b 6f16 f2a4 4c20 24a8 a99a 7ca2 25a6
000000d0: 351d 4b22 9f25 7e20 6fa1 3e9c 9699 1fa1
000000e0: 27a2 7826 8faa b828 79ad d69b e2aa 0fa8
000000f0: 059e 69a3 2320 482a 23a8 9ea2 6226 1028
00000100: d0a2 2822 8327 0ba6 bb23 610b 83ab 861d
00000110: 0897 75a0 83a4 4ea9 ae14 fb19 fc24 d19d
00000120: 829e 2aa8 749c 002d 089c 3228 2524 0222
00000130: 1b18 0da0 9da4 1a17 cd24 7c96 509f 78a4
00000140: 6692 54ab c99e d624 5c25 4b26 cf2c aa95
00000150: 369f 5ca2 7e18 5ca4 1aa4 9a20 5a93 44ad
00000160: f3ab 20a5 65ac 9da9 2a25 7e26 0ca3 6bad
00000170: 2326 f4a8 4322 3f24 7a8c 27a3 5ba4 9a1e
00000180: 521e 5225 d6a7 6128 44a2 4aa0 2a24 19ac
00000190: 11ac d124 f6a6 d826 e521 2d22 871b 5f9a
000001a0: f39a 8a25 f29d 272d 91aa 3d24 3123 9c1c
000001b0: 5925 619e 13a5 13a4 56a1 64a4 1cac 5497
000001c0: ab26 afa5 0aa5 522c e7a5 fe1a 37ab 85a8
000001d0: 6c8f f221 3a20 8a1f 74a9 27a0 29a4 f32d
000001e0: 62a3 4728 8b1c eda8 3624 4a98 d19f 9d22
000001f0: 569b 3a9c 221e e7a1 be1f b99a 42a8 3ca5

model/batch_normalization_5/batchnorm/mul_1 f2 [128, 8]
-0.4922 0.541 -0.816 0.706 0.1396 -0.846 -0.1744 -1.392
-1.908 0.2605 0.11835 0.511 0.6206 0.59 0.349 0.1001
0.3853 0.4993 -0.405 0.4055 -0.561 -0.03032 2.738 1.351
0.73 -1.093 0.2074 -0.05417 -0.5938 -0.1993 0.374 0.882
-0.3408 1.047 -0.4097 0.5986 2.03 1.061 0.674 -1.306
-1.105 -1.184 -0.599 -0.343 1.827 0.01199 0.1054 1.27
-0.3274 0.3223 0.175 0.4734 -0.2372 -0.139 -1.444 -0.2617
1.012 -0.4553 -0.1221 -0.5356 -0.1835 -0.3364 -0.55 0.4336
0.0954 0.2484 -0.04797 2.463 -1.067 -2.094 -0.03146 -0.6187
1.003 -0.2068 0.2012 0.1078 -0.02988 0.781 0.3704 0.06116
1.231 -0.05774 1.064 -1.056 -0.07227 -0.745 0.2365 0.1685
0.8286 1.146 0.6294 -0.807 0.4377 -0.999 1.098 -1.36
-0.0505 -0.217 0.12463 -0.5977 1.159 0.4858 -0.908 -0.3071
0.5693 0.4524 -0.805 0.5913 -0.4766 -0.4307 1.462 2.443
1.368 0.762 -0.5996 -1.398 -0.986 -0.7886 -0.2673 -1.6455
0.655 -0.4573 0.602 -0.2107 -1.205 -0.818 -0.3342 0.458
0.8037 0.3794 0.00835 1.115 -0.1381 0.0596 0.03754 -0.3499
-0.2454 -0.729 0.1709 -0.7725 0.721 -1.315 0.407 0.9204
-0.919 0.4214 0.1665 -0.3916 -0.208 -0.4895 0.012024 0.006325
0.0302 -0.1608 0.937 -0.5776 -0.4097 -0.9756 0.3652 0.5967
2.225 0.785 -0.682 -0.01909 0.733 -0.1907 0.1643 -1.516
-0.2576 0.2411 -0.7944 0.0933 -0.3884 -0.729 -0.1716 1.139
0.7495 -0.3477 1.059 0.2177 0.481 -0.9614 0.5547 -0.09106
0.7183 0.494 1.017 0.1388 -0.3877 1.844 0.254 0.578
-0.2559 -1.152 -1.015 0.2158 -0.2507 0.2438 -0.4995 -0.8374
-0.1237 -0.86 -0.1564 0.5107 1.221 0.1487 -0.3064 0.608
-0.0504 0.0825 -0.0873 0.2664 0.721 0.702 -0.9136 -1.695
-1.355 -1.136 -0.885 0.1783 1.254 -0.8726 -0.2317 0.04172
0.1178 1.068 0.06223 1.142 0.2598 0.9297 -0.5156 -0.4329
-0.2474 -1.107 -0.6387 0.505 -0.2683 -0.795 -0.364 1.068
-0.1172 1.434 0.3406 -0.1525 0.221 0.1991 -0.4807 -0.4045
-1.09 -0.1615 -0.7686 1.126 -1.525 0.1843 0.06003 0.2073
00000000: e0b7 5438 87ba a639 7830 c5ba 95b1 91bd
00000010: a2bf 2b34 932f 1738 f738 b838 9635 682e
00000020: 2a36 fd37 7bb6 7d36 7db8 c3a7 7a41 673d
00000030: d739 5fbc a332 efaa c0b8 61b2 fc35 0e3b
00000040: 74b5 303c 8eb6 ca38 0f40 3e3c 6439 39bd
00000050: 6cbc bcbc cbb8 7db5 4f3f 2422 bf2e 143d
00000060: 3db5 2835 9a31 9337 97b3 73b0 c7bd 30b4
00000070: 0c3c 49b7 d0af 49b8 dfb1 62b5 66b8 f036
00000080: 1b2e f333 24aa ed40 45bc 30c0 07a8 f3b8
00000090: 033c 9eb2 7032 e62e a6a7 3f3a ed35 d42b
000000a0: ed3c 64ab 423c 39bc a0ac f6b9 9133 6431
000000b0: a13a 963c 0939 75ba 0137 febb 643c 71bd
000000c0: 77aa f2b2 fa2f c8b8 a33c c637 44bb eab4
000000d0: 8e38 3d37 71ba bb38 a0b7 e4b6 d93d e340
000000e0: 793d 193a ccb8 98bd e3bb 4fba 47b4 95be
000000f0: 3d39 51b7 d138 beb2 d2bc 8bba 59b5 5437
00000100: 6e3a 1236 4620 763c 6bb0 a12b ce28 99b5
00000110: dab3 d5b9 7831 2eba c539 43bd 8336 5d3b
00000120: 5abb be36 5431 44b6 a8b2 d5b7 2822 7a1e
00000130: bb27 25b1 7f3b 9fb8 8eb6 cebb d835 c638
00000140: 7340 483a 75b9 e3a4 dd39 1ab2 4231 10be
00000150: 1fb4 b733 5bba f92d 37b6 d5b9 7eb1 8e3c
00000160: ff39 90b5 3c3c f732 b237 b1bb 7038 d4ad
00000170: bf39 e737 113c 7130 34b6 603f 1034 a038
00000180: 18b4 9cbc 0fbc e832 03b4 cd33 feb7 b3ba
00000190: ebaf e1ba 01b1 1638 e23c c230 e7b4 dd38
000001a0: 74aa 482d 96ad 4334 c539 9e39 4fbb c8be
000001b0: 6cbd 8bbc 14bb b531 043d fbba 6ab3 5729
000001c0: 8a2f 463c f72b 913c 2834 703b 20b8 edb6
000001d0: ebb3 6ebc 1cb9 0a38 4bb4 5cba d3b5 463c
000001e0: 80af bc3d 7335 e1b0 1233 5f32 b1b7 79b6
000001f0: 5cbc 2bb1 26ba 813c 1abe e631 af2b a232

model/batch_normalization_6/batchnorm/mul_1 f2 [128, 128]
0.01791 0.08124 -0.557 -0.1368 -0.0898 0.1912 -0.0937 0.01707
0.04623 -0.0893 0.02116 0.1067 0.06247 0.1772 0.0854 -0.0829
-0.07715 -0.2384 -0.11 -0.331 -0.06384 0.11163 -0.1122 0.1106
-0.0984 0.0968 0.0799 0.1059 -0.01566 0.07697 0.03873 0.03102
-0.0909 -0.07794 -0.2617 0.2289 0.1436 -0.06604 0.006477 -0.1318
-0.02615 -0.0227 0.0738 -0.0229 -0.1908 0.0488 -0.1166 0.02225
-0.08026 0.0537 0.06775 0.0372 -0.1243 -0.099 -0.1592 -0.0964
0.01689 -0.010574 -0.0664 0.1486 -0.0927 0.03029 -0.2737 0.1267
0.11926 0.1626 -0.04 0.03345 -0.02481 -0.00282 -0.0625 0.03677
-0.1453 -0.051 -0.1466 0.11774 -0.1318 0.01863 0.09735 0.0339
-0.1387 0.01563 -0.1844 -0.1235 -0.2059 0.011894 -0.0449 -0.07904
-0.1428 -0.05344 -0.01209 -0.02467 0.07745 0.0515 -0.241 -0.04532
-0.0397 -0.1294 0.02563 0.1437 0.05255 -0.00789 -0.09467 -0.0151
-0.05792 -0.2605 0.1197 0.0283 0.0262 0.07874 -0.03455 0.004494
0.1742 -0.0399 0.02798 -0.082 0.1973 -0.2238 0.05588 -0.003216
-0.152 0.05957 0.136 0.03015 -0.0569 0.10376 -0.02704 -0.07465
0.1077 0.03558 -0.0376 -0.01502 -0.00947 0.1277 0.07477 0.03534
0.3398 -0.0179 -0.01979 0.0111 -0.04584 0.02692 0.0947 0.0946
-0.04782 -0.002844 0.0874 0.05508 0.135 0.004547 -0.00952 -0.01006
0.01041 0.07983 -0.02943 -0.02322 -0.04584 0.06036 -0.05988 0.01953
-0.001028 -0.0371 0.01932 0.0333 -0.02155 0.01368 0.02519 0.0282
0.02856 -0.01226 0.07587 -0.02513 0.03177 -0.09106 0.001953 -0.01929
-0.03552 -0.3784 0.0973 -0.0319 0.03952 0.008026 0.012726 0.0156
-0.003937 0.03055 -0.01869 0.03812 0.01587 0.0334 0.03168 0.05447
-0.02539 -0.01137 0.0481 -0.007305 0.03494 -0.04614 -0.0731 -0.3738
-0.02658 0.01448 0.05225 0.001249 -0.0806 0.02074 -0.0721 0.02638
-0.005375 -0.02988 0.01165 -0.03772 -0.1035 -0.02666 -0.0721 -0.02603
-0.005676 -0.0496 0.05444 -0.04044 0.01941 0.05273 -0.03558 0.11707
0.01109 -0.0339 -0.01888 -0.03287 -0.06134 0.04788 -0.1807 0.00784
-0.06216 -0.000701 -0.08936 -0.04626 -0.03622 -0.01255 -0.02864 0.0193
0.02919 0.02696 0.03488 -0.02846 -0.02347 -0.1367 -0.04175 0.01926
0.02087 0.0139 -0.2115 0.01776 -0.01788 -0.01953 0.03268 0.010666
00000000: 9624 332d 75b8 61b0 bfad 1e32 ffad 5f24
00000010: eb29 b7ad 6b25 d42e ff2b ac31 772d 4ead
00000020: f0ac a1b3 0aaf 4cb5 16ac 252f 2eaf 142f
00000030: 4cae 322e 1d2d c72e 02a4 ed2c f528 f127
00000040: d1ad fdac 30b4 5333 9830 3aac a21e 38b0
00000050: b2a6 d0a5 b92c dda5 1bb2 3f2a 76af b225
00000060: 23ad e02a 562c c328 f5af 56ae 18b1 2bae
00000070: 5324 6aa1 40ac c130 efad c127 61b4 0e30
00000080: a22f 3431 1fa9 4828 5aa6 c699 00ac b528
00000090: a6b0 87aa b1b0 892f 38b0 c524 3b2e 5728
000000a0: 70b0 0024 e7b1 e7af 97b2 1722 bfa9 0fad
000000b0: 92b0 d7aa 31a2 51a6 f52c 982a b6b3 cda9
000000c0: 15a9 24b0 9026 9930 ba2a 0aa0 0fae bba3
000000d0: 6aab 2bb4 a92f 3f27 b526 0a2d 6ca8 9a1c
000000e0: 9331 1ba9 2a27 3fad 5032 29b3 272b 969a
000000f0: ddb0 a02b 5a30 b827 48ab a42e eca6 c7ac
00000100: e52e 8e28 d0a8 b1a3 d9a0 1630 c92c 8628
00000110: 7035 95a4 11a5 af21 dea9 e426 102e 0e2e
00000120: 1faa d399 982d 0d2b 5230 a81c e0a0 27a1
00000130: 5421 1c2d 89a7 f2a5 dea9 ba2b aaab 0025
00000140: 3694 c0a8 f224 4328 84a5 0123 7326 3827
00000150: 5027 47a2 db2c 6fa6 1128 d4ad 0018 f0a4
00000160: 8ca8 0eb6 3a2e 15a8 0f29 1c20 8422 fd23
00000170: 089c d227 c9a4 e128 1024 4628 0e28 f92a
00000180: 80a6 d2a1 282a 7b9f 7928 e8a9 aeac fbb5
00000190: cea6 6a23 b02a 1e15 29ad 4f25 9dac c126
000001a0: 819d a6a7 f721 d4a8 a0ae d3a6 9dac aaa6
000001b0: d09d 59aa f82a 2da9 f824 c02a 8ea8 7e2f
000001c0: ae21 57a8 d5a4 35a8 daab 212a c8b1 0420
000001d0: f5ab be91 b8ad eca9 a3a8 6da2 55a7 f124
000001e0: 7927 e726 7728 49a7 02a6 60b0 58a9 ee24
000001f0: 5825 1e23 c5b2 8c24 94a4 00a5 2f28 7621

model/batch_normalization_7/batchnorm/mul_1 f2 [128, 128]
0.004005 0.1274 0.09015 0.0843 -0.0526 0.09766 -0.099 0.1052
0.1062 0.0002062 -0.1252 0.004063 0.0698 0.02066 -0.185 -0.143
-0.1228 -0.1934 -0.05862 0.01386 -0.1565 0.05118 0.1677 0.1101
-0.2281 0.05243 0.08954 -0.00823 0.03053 -0.05457 -0.238 -0.0899
0.1527 -0.1709 0.1797 -0.2654 -0.06506 0.0375 0.03204 -0.01445
-0.00425 -0.01141 -0.0811 0.216 -0.2974 -0.1665 -0.366 0.0752
-0.0261 0.2443 0.1611 0.03918 -0.00428 -0.1953 0.1992 0.00688
-0.0467 0.0603 0.05212 -0.05707 -0.0988 0.2761 0.08203 -0.008316
-0.02701 -0.06027 -0.09216 0.1941 -0.02556 -0.003744 -0.03268 -0.04614
0.03348 -0.2502 -0.3162 -0.1506 -0.1946 0.0725 0.1375 -0.0727
0.1565 -0.03763 0.1829 0.3293 -0.1183 -0.08185 -0.136 0.03613
0.02646 0.02931 0.1692 -0.07355 0.06085 0.2396 -0.1642 0.2476
0.0171 -0.02052 0.05365 -0.1532 0.3196 -0.2037 0.06934 0.08453
0.0261 0.1046 0.08136 -0.1606 -0.0789 0.1445 -0.1361 -0.0825
-0.008965 -0.05582 -0.1609 -0.1588 -0.2493 -0.1443 0.01639 -0.1882
0.1555 -0.0904 0.1968 0.0741 -0.2507 -0.0605 0.0726 0.287
0.1636 -0.0186 0.2377 0.0787 0.0475 -0.01715 -0.00803 -0.1826
0.1278 -0.0982 -0.0864 -0.2625 0.2098 0.05316 -0.1887 0.1914
0.1981 -0.03802 -0.03378 0.0464 -0.2483 0.03183 0.1129 0.02208
0.0738 -0.01704 0.048 -0.1028 0.1454 0.01211 -0.0014305 0.005722
-0.02132 0.1375 -0.4448 0.00566 -0.2869 -0.1372 0.1448 0.2494
-0.215 -0.04803 0.1151 -0.1273 -0.11584 0.07263 0.0873 0.01816
-0.0489 0.000391 0.0765 0.002726 0.02892 -0.11426 -0.03793 -0.0515
-0.07556 -0.1367 0.013054 -0.06107 -0.01604 0.02765 -0.07556 -0.103
0.02945 0.1548 0.11285 0.01563 0.1181 0.0576 0.1517 -0.1417
0.02702 0.1037 -0.1184 -0.10077 -0.03906 0.1445 0.256 -0.02098
0.06396 -0.10675 0.01875 0.01706 0.1904 -0.0831 -0.07196 0.03833
-0.03162 -0.02101 0.0315 0.02415 -0.0745 -0.001648 0.01364 -0.0625
0.2217 0.03668 -0.1917 -0.07513 -0.1664 0.06415 -0.00575 0.0592
-0.02104 0.0707 -0.1053 0.1505 0.02965 0.07404 -0.076 -0.1318
0.0497 0.07294 0.1783 -0.1157 -0.0669 0.0005217 -0.05148 -0.08356
-0.1855 0.001999 -0.15 -0.03726 -0.1727 0.1981 0.1159 -0.01513
00000000: 1a1c 1430 c52d 652d bcaa 402e 56ae bc2e
00000010: cc2e c20a 02b0 291c 782c 4a25 ecb1 93b0
00000020: dcaf 30b2 81ab 1923 02b1 8d2a 5e31 0c2f
00000030: 4db3 b62a bb2d 37a0 d127 fcaa 9eb3 c1ad
00000040: e330 78b1 c031 3fb4 2aac cd28 1a28 66a3
00000050: 5a9c d8a1 31ad e932 c2b4 54b1 dbb5 d02c
00000060: aea6 d133 2831 0429 629c 40b2 6032 0c1f
00000070: faa9 b82b ac2a 4eab 53ae 6b34 402d 42a0
00000080: eaa6 b7ab e6ad 3632 8ba6 ab9b 2fa8 e8a9
00000090: 4928 01b4 0fb5 d2b0 3ab2 a42c 6630 a7ac
000000a0: 0231 d1a8 da31 4535 92af 3dad 5ab0 a028
000000b0: c626 8127 6a31 b5ac ca2b ab33 41b1 ec33
000000c0: 6124 41a5 de2a e7b0 1d35 85b2 702c 692d
000000d0: ae26 b22e 352d 24b1 0dad a030 5bb0 48ad
000000e0: 97a0 25ab 26b1 15b1 fab3 9eb0 3224 06b2
000000f0: fa30 c9ad 4c32 be2c 03b4 beab a52c 9834
00000100: 3c31 c3a4 9b33 092d 142a 64a4 1da0 d8b1
00000110: 1730 49ae 88ad 33b4 b732 ce2a 0ab2 2032
00000120: 5732 dea8 53a8 f029 f2b3 1328 3a2f a725
00000130: b92c 5da4 252a 94ae a730 3322 dc95 dc1d
00000140: 75a5 6630 1eb7 cc1d 97b4 64b0 a230 fb33
00000150: e1b2 26aa 5e2f 13b0 6aaf a62c 962d a624
00000160: 42aa 680e e52c 9519 6727 50af dba8 98aa
00000170: d6ac 60b0 af22 d1ab 1ba4 1427 d6ac 98ae
00000180: 8a27 f430 392f 0024 8f2f 5f2b db30 89b0
00000190: eb26 a32e 94af 73ae 00a9 a030 1934 5fa5
000001a0: 182c d5ae cd24 5e24 1832 52ad 9bac e828
000001b0: 0ca8 61a5 0828 2f26 c5ac c096 fc22 00ac
000001c0: 1833 b228 22b2 cfac 53b1 1b2c e39d 942b
000001d0: 63a5 862c bdae d130 9727 bd2c ddac 38b0
000001e0: 5d2a ab2c b531 68af 48ac 4610 97aa 59ad
000001f0: f0b1 1818 cdb0 c5a8 87b1 5732 6b2f bfa3

model/batch_normalization_8/batchnorm/mul_1 f2 [128, 128]
-0.1301 -0.3564 -0.04333 -0.06006 0.06323 0.06854 -0.2527 -0.08765
0.1226 -0.00867 0.1605 -0.244 -0.241 -0.06335 0.163 0.00555
-0.01988 -0.1793 -0.01416 -0.0755 0.06647 0.012634 0.007187 0.02563
-0.01369 0.1271 0.03503 0.1131 -0.01381 -0.04578 0.1262 0.03006
0.1356 0.01704 -0.01628 0.05603 -0.08887 -0.09985 0.006077 0.1543
-0.1716 0.1604 0.1075 0.08203 0.0714 0.03625 0.04407 0.02165
-0.0119 0.0654 0.0633 0.09515 -0.12085 0.09015 -0.03137 -0.2578
-0.05997 0.04028 0.1105 -0.265 0.1409 -0.1154 0.08044 0.02095
-0.1025 0.04782 0.0452 0.2566 -0.1504 -0.1019 0.1812 -0.13
-0.1343 -0.0779 0.1869 -0.2659 0.2129 -0.1257 -0.2251 -0.0672
0.1482 0.02841 -0.10657 0.12286 0.1803 0.06586 0.1003 0.0289
0.17 -0.07245 -0.0639 -0.013565 0.01509 0.1687 -0.02966 0.0875
-0.2583 -0.1769 -0.107 0.08826 0.1675 -0.11615 -0.06726 -0.0257
-0.0864 -0.01605 0.02347 -0.2206 -0.0588 -0.01772 -0.03723 0.2257
0.5347 0.0767 0.1893 -0.0543 -0.1489 -0.4246 -0.05255 0.05008
-0.2437 0.1506 0.1849 -0.0916 -0.09656 -0.1454 0.1558 -0.0741
-0.03552 0.004498 -0.005577 -0.01168 -0.03134 0.099 -0.0761 -0.03442
0.02457 0.1405 -0.00148 -0.11096 0.0484 -0.003113 0.11163 0.0669
-0.1628 0.04617 0.12164 0.008896 -0.1335 -0.0057 0.02104 0.1085
-0.03384 -0.1642 -0.05804 -0.0704 -0.06714 -0.06125 -0.10333 0.0214
0.05005 0.006237 0.1339 -0.1138 0.1067 -0.05515 -0.007904 0.05115
0.09454 -0.1023 0.0818 -0.3303 -0.1122 -0.1484 -0.10986 -0.01591
0.04398 -0.04498 -0.1031 0.1234 -0.12103 0.0613 -0.0704 -0.1207
0.006348 0.04315 0.04932 -0.0689 0.0771 -0.01446 0.04877 -0.05627
-0.0558 0.0519 -0.0694 -0.1556 0.09875 -0.2769 0.02402 -0.07135
-0.02373 -0.2488 -0.002386 0.05716 0.0503 0.1149 -0.03052 -0.0722
-0.03186 -0.0427 -0.1349 0.02461 0.06555 0.0309 0.0893 0.1396
0.065 0.0638 0.03912 0.295 -0.07166 -0.0823 -0.001592 -0.1787
-0.0782 -0.1079 -0.0753 0.004223 0.006023 -0.00905 -0.03778 0.03085
0.0835 0.025 -0.10657 0.01012 0.05527 -0.03445 -0.03165 -0.0669
-0.11224 0.1172 -0.02089 -0.0666 0.04922 -0.03038 0.0815 0.007717
0.076 0.0938 -0.03394 0.0845 -0.2037 -0.03473 -0.006966 0.01322
00000000: 2ab0 b4b5 8ca9 b0ab 0c2c 632c 0bb4 9cad
00000010: d92f 70a0 2331 cfb3 b6b3 0eac 3731 af1d
00000020: 17a5 bdb1 40a3 d5ac 412c 7822 5c1f 9026
00000030: 02a3 1130 7c28 3d2f 12a3 dca9 0a30 b227
00000040: 5730 5d24 2ba4 2c2b b0ad 64ae 391e f030
00000050: 7eb1 2231 e12e 402d 922c a428 a429 8b25
00000060: 18a2 302c 0d2c 172e bcaf c52d 04a8 20b4
00000070: adab 2829 122f 3db4 8230 63af 262d 5d25
00000080: 8fae 1f2a c929 1b34 d0b0 86ae cc31 29b0
00000090: 4cb0 fcac fb31 41b4 d032 06b0 34b3 4dac
000000a0: be30 4627 d2ae dd2f c531 372c 6b2e 6627
000000b0: 7131 a3ac 17ac f2a2 ba23 6631 98a7 9a2d
000000c0: 22b4 a9b1 d9ae a62d 5c31 6faf 4eac 94a6
000000d0: 88ad 1ca4 0226 0fb3 87ab 89a4 c4a8 3933
000000e0: 4738 e92c 0f32 f3aa c4b0 cbb6 baaa 692a
000000f0: ccb3 d230 eb31 ddad 2eae a7b0 fc30 beac
00000100: 8ca8 9b1c b69d fba1 03a8 562e dfac 68a8
00000110: 4a26 7f30 1096 1aaf 322a 609a 252f 482c
00000120: 36b1 e929 c92f 8e20 46b0 d69d 6325 f22e
00000130: 55a8 41b1 6eab 81ac 4cac d7ab 9dae 7a25
00000140: 682a 631e 4930 48af d42e 0fab 0ca0 8c2a
00000150: 0d2e 8cae 3c2d 49b5 2eaf c0b0 08af 13a4
00000160: a129 c2a9 99ae e62f bfaf d92b 81ac baaf
00000170: 801e 8629 502a 69ac ef2c 67a3 3e2a 34ab
00000180: 24ab a52a 71ac fbb0 522e 6eb4 2626 91ac
00000190: 13a6 f6b3 e398 512b 702a 5b2f d0a7 9fac
000001a0: 14a8 77a9 51b0 4d26 322c e927 b72d 7830
000001b0: 292c 152c 0229 b834 96ac 44ad 8596 b8b1
000001c0: 01ad e8ae d2ac 531c 2b1e a2a0 d6a8 e627
000001d0: 582d 6626 d2ae 2e21 132b 69a8 0da8 48ac
000001e0: 2faf 802f 59a5 43ac 4d2a c7a7 372d e71f
000001f0: dd2c 012e 58a8 682d 85b2 72a8 229f c522
