compression/autoencoder/float16_quantization/models_compressed/model_ToyTrain.tflite (tflite, 540592 bytes, 20 tensors)

model/activation/Relu;model/batch_normalization/batchnorm/add_1 f2 [128]
000000 06 c5 bd c4 46 bc 61 c0 f6 b8 2f c8 28 c2 8a 40
       -5.023 -4.74 -1.068 -2.19 -0.62 -8.37 -3.078 2.27
000010 c0 c1 cb c7 f7 c6 b1 c7 85 44 21 45 bd 40 cd b4
       -2.875 -7.793 -6.965 -7.69 4.52 5.13 2.37 -0.3
000020 df 46 11 47 ba c7 8b c4 ef c8 d0 c4 a0 43 6c 40
       6.87 7.066 -7.727 -4.543 -9.87 -4.812 3.812 2.21
000030 b3 47 68 45 15 c3 62 c6 b8 3e bc 45 96 3e 57 c6
       7.7 5.406 -3.541 -6.383 1.68 5.734 1.646 -6.34
000040 40 c3 ea c3 49 42 10 43 ab c0 7a be 22 41 49 46
       -3.625 -3.957 3.143 3.531 -2.334 -1.619 2.566 6.285
000050 ab 41 86 3e 97 45 81 c1 49 40 54 47 a2 b9 51 c6
       2.834 1.631 5.59 -2.752 2.143 7.33 -0.704 -6.316
000060 80 be 30 3e e4 c1 62 46 0f c5 6c 40 dd 44 0b c1
       -1.625 1.547 -2.945 6.383 -5.06 2.21 4.863 -2.521
000070 c8 c1 fe 3a 09 c3 04 c6 0e c6 8b 44 c2 c4 9d 42
       -2.89 0.874 -3.518 -6.016 -6.055 4.543 -4.758 3.307
000080 97 43 73 c1 05 37 b8 44 9b c1 df 44 02 c5 ae c4
       3.795 -2.725 0.4387 4.72 -2.803 4.87 -5.008 -4.68
000090 21 c6 a6 c5 f3 c5 bc c6 f5 40 4c 44 c7 46 8e 41
       -6.13 -5.65 -5.95 -6.734 2.479 4.297 6.777 2.777
0000a0 a7 44 05 46 27 44 18 45 5c 42 0c c7 36 43 13 c6
       4.652 6.02 4.152 5.094 3.18 -7.047 3.605 -6.074
0000b0 af c4 bc c5 67 46 3a b6 4e 47 04 44 a7 c5 b5 44
       -4.684 -5.734 6.402 -0.3892 7.305 4.016 -5.652 4.707
0000c0 38 3f c1 40 58 44 a9 41 ed c6 83 44 a7 3e ff 44
       1.805 2.377 4.344 2.83 -6.926 4.51 1.663 4.996
0000d0 fc c1 7e 3f 96 3d 42 44 aa c8 3f 41 6d 41 32 40
       -2.992 1.873 1.396 4.258 -9.33 2.623 2.713 2.098
0000e0 65 c4 cf c5 01 31 b6 46 e5 1d 8a be 08 c6 c3 3c
       -4.395 -5.81 0.1564 6.71 0.005756 -1.635 -6.03 1.19
0000f0 82 42 d2 15 81 40 54 c1 dc c0 3e 42 86 c4 06 c5
       3.254 0.001421 2.252 -2.664 -2.43 3.121 -4.523 -5.023

model/activation_1/Relu;model/batch_normalization_1/batchnorm/add_1 f2 [128]
000000 a9 33 64 29 c3 bc 57 bc f3 32 fe 32 ff 34 ff 36
       0.2394 0.0421 -1.19 -1.085 0.2172 0.2185 0.3123 0.4373
000010 bb c2 8d b6 52 3c 13 b7 d8 3b 92 37 42 3a 33 bd
       -3.365 -0.4094 1.08 -0.4421 0.9805 0.4731 0.782 -1.3
000020 58 b6 03 b8 92 bc 24 b7 8a b3 17 3a cd b8 51 30
       -0.3965 -0.5015 -1.143 -0.4463 -0.2356 0.761 -0.6 0.1349
000030 96 b6 d8 2f 7c 36 79 3a 20 3b de b2 a1 2b 03 28
       -0.4116 0.12256 0.4053 0.809 0.8906 -0.2146 0.0596 0.03134
000040 9b ba c2 33 fc 36 44 bd b4 aa 6a c1 02 3b 29 3a
       -0.8257 0.2424 0.4365 -1.316 -0.05237 -2.707 0.876 0.77
000050 61 bd 49 b7 1c b6 b3 b5 33 3b 39 3b 9b bb 4e 32
       -1.345 -0.4553 -0.3818 -0.3562 0.9 0.903 -0.9507 0.197
000060 f4 35 1c ac 25 37 89 35 e6 37 5a c3 9a b9 0a 3e
       0.372 -0.0642 0.4465 0.346 0.4937 -3.676 -0.7 1.51
000070 5d bd 88 a8 00 39 0d 38 0c 2a 8f b2 2e 3c db bc
       -1.341 -0.0354 0.625 0.5063 0.04724 -0.205 1.045 -1.214
000080 c1 31 f9 bb 94 be 6b b3 f1 32 a9 3d 2a c0 48 2d
       0.1798 -0.9966 -1.645 -0.2318 0.2169 1.415 -2.082 0.0825
000090 77 97 f5 38 45 38 ad 33 67 34 4b 2f c3 30 07 bc
       -0.001822 0.6196 0.5337 0.2399 0.2751 0.11395 0.1488 -1.007
0000a0 19 26 46 b1 41 af 42 c3 7e 37 1d c0 79 2e 2c 3d
       0.02382 -0.1648 -0.11334 -3.629 0.4683 -2.057 0.10114 1.293
0000b0 3c c4 47 b3 f8 35 82 39 53 b9 92 b9 72 31 4e 35
       -4.234 -0.2274 0.373 0.6885 -0.6655 -0.6963 0.1702 0.3315
0000c0 b6 bb e8 3a b6 37 35 bb 8a bc 17 3c db ba 90 3b
       -0.964 0.8633 0.482 -0.901 -1.135 1.022 -0.857 0.9453
0000d0 bc 35 64 b4 c6 33 94 3f 72 39 f6 33 c2 36 f3 34
       0.3584 -0.2744 0.2429 1.895 0.6807 0.2488 0.4224 0.3093
0000e0 16 bd 3a 38 52 b5 46 39 25 c1 74 3b 4e 2a 27 c0
       -1.271 0.5283 -0.3325 0.659 -2.572 0.9316 0.04926 -2.076
0000f0 34 3a 6f 2b 49 35 03 3a 71 ae 2c 40 2a 1f 69 c2
       0.7754 0.05807 0.3303 0.7515 -0.10065 2.086 0.006996 -3.205

model/activation_2/Relu;model/batch_normalization_2/batchnorm/add_1 f2 [128]
000000 68 b7 99 b4 c2 ad 2b b5 38 37 ab 35 12 bd 97 3d
       -0.463 -0.2874 -0.08997 -0.323 0.4512 0.3542 -1.268 1.397
000010 76 b7 55 9e ca 38 d2 b2 82 2c c3 38 fe b6 69 3d
       -0.4663 -0.006184 0.5986 -0.2131 0.07043 0.595 -0.437 1.353
000020 be 38 2b c0 19 31 57 2f 6e 39 59 c0 c9 be 06 32
       0.593 -2.084 0.1593 0.1147 0.6787 -2.174 -1.696 0.1882
000030 a5 35 01 36 8f ba 6e 30 e0 38 0a 38 6c 39 3c bc
       0.3528 0.3752 -0.82 0.1384 0.6094 0.505 0.6777 -1.059
000040 54 37 33 c4 9b 29 3d b3 aa 3a 95 bd d5 a9 26 2c
       0.458 -4.2 0.0438 -0.2262 0.833 -1.3955 -0.04556 0.0648
000050 1e a8 34 bb 06 3b ca 34 d6 37 e2 37 04 3e 62 2f
       -0.03217 -0.9004 0.878 0.2993 0.4897 0.4927 1.504 0.11536
000060 eb b8 fe 38 6c 31 78 2c 70 b9 95 37 8c bb cd 3a
       -0.6147 0.624 0.1694 0.0698 -0.6797 0.4739 -0.9434 0.85
000070 1a 3e e8 b3 92 3c 57 35 fe 37 d6 34 1a ba 33 ab
       1.525 -0.2471 1.143 0.3337 0.4995 0.3022 -0.7627 -0.05624
000080 ab 34 02 ad 22 b2 4e bc d0 3b 19 28 06 37 6b 30
       0.2917 -0.07825 -0.1917 -1.076 0.9766 0.032 0.439 0.1381
000090 72 38 99 37 70 b8 7d c4 44 3c 39 c5 c8 35 2b 3d
       0.5557 0.4749 -0.5547 -4.49 1.066 -5.223 0.3613 1.292
0000a0 65 36 e4 b4 65 40 c9 c3 18 bd 03 a2 a5 a1 cf b8
       0.3997 -0.3057 2.197 -3.893 -1.273 -0.01174 -0.011024 -0.601
0000b0 d9 39 2f c4 c5 2f bd c4 35 38 29 35 df bb 10 b8
       0.731 -4.184 0.1214 -4.74 0.526 0.3225 -0.984 -0.508
0000c0 69 3c 9b 39 c9 bc 22 bd 9c 31 00 31 e6 2c 18 bd
       1.103 0.7007 -1.196 -1.283 0.1753 0.1562 0.07654 -1.273
0000d0 95 b9 20 b5 39 ab 28 30 95 1d ed b8 3e 30 b9 3a
       -0.6978 -0.3203 -0.05643 0.1299 0.00545 -0.6157 0.1326 0.8403
0000e0 b6 bd 13 ae f6 35 68 b8 ab bb cf b4 11 3b 8e ae
       -1.428 -0.0949 0.3726 -0.551 -0.9585 -0.3005 0.8833 -0.1024
0000f0 eb b4 ba 39 7d b5 45 3c 1c 31 d7 36 8f 3a 3c 38
       -0.3074 0.716 -0.343 1.067 0.1597 0.4275 0.82 0.5293

model/activation_3/Relu;model/batch_normalization_3/batchnorm/add_1 f2 [128]
000000 75 c1 ce c0 00 36 4a 37 1b b7 ce 34 8e 34 bd 35
       -2.729 -2.402 0.375 0.4556 -0.444 0.3003 0.2847 0.3586
000010 33 b2 6b 34 8f b2 93 33 60 3a 82 b8 a7 aa d2 2c
       -0.1937 0.2761 -0.205 0.2367 0.797 -0.5635 -0.05197 0.0753
000020 95 38 d2 b8 8d ab 13 31 58 a9 69 af 77 39 54 38
       0.5728 -0.6025 -0.059 0.1586 -0.04175 -0.1158 0.683 0.541
000030 80 bc eb 35 96 31 52 2d c2 ad 02 35 77 32 53 35
       -1.125 0.3699 0.1746 0.0831 -0.08997 0.313 0.202 0.3328
000040 46 36 8e 34 e3 32 44 ae 40 32 6c b9 88 33 fb 3d
       0.392 0.2847 0.2152 -0.0979 0.1953 -0.6777 0.2354 1.495
000050 44 29 46 c2 77 24 27 a2 dc b0 8d 30 93 35 09 b2
       0.04114 -3.137 0.01744 -0.01202 -0.1519 0.1422 0.3484 -0.1886
000060 d7 36 65 2d 0d 34 9b b9 e3 2e 47 bc b8 a2 ff 30
       0.4275 0.0843 0.2532 -0.7007 0.1076 -1.069 -0.01312 0.1561
000070 f7 3a af b4 b7 c2 51 a8 2d b2 38 bd ea 2c 15 32
       0.8706 -0.2927 -3.357 -0.03372 -0.193 -1.305 0.0768 0.1901
000080 b5 33 ae b3 1c 3d 09 3a 87 39 cd 35 b6 32 5a 35
       0.2408 -0.24 1.277 0.7544 0.691 0.3625 0.2097 0.3345
000090 13 b5 8f 35 d7 34 74 b6 a2 38 c3 1e 99 b4 0f bb
       -0.3171 0.3474 0.3025 -0.4033 0.579 0.006603 -0.2874 -0.8823
0000a0 2a b4 f1 37 06 35 72 c1 62 32 11 36 d7 be f2 34
       -0.2603 0.4963 0.314 -2.723 0.1995 0.3792 -1.71 0.309
0000b0 1f ae ab 39 6f bb 10 b7 2b 3d 77 b3 a0 b8 c5 b0
       -0.09564 0.7085 -0.929 -0.4414 1.292 -0.2333 -0.578 -0.149
0000c0 23 30 19 b6 0a 36 4d b9 dc c1 6c 34 0d b8 4e 32
       0.1293 -0.381 0.3774 -0.6626 -2.93 0.2764 -0.5063 0.197
0000d0 f2 2e 6d 32 7d 30 54 38 1a 3c b8 b6 67 34 4c 3e
       0.1085 0.2008 0.1403 0.541 1.025 -0.42 0.2751 1.574
0000e0 2d 36 53 28 f7 34 3c bb 73 34 e6 c2 c1 37 b6 b5
       0.386 0.03378 0.3103 -0.9043 0.278 -3.45 0.4846 -0.357
0000f0 76 ae 65 37 e7 35 9b ba ca 3b e2 31 07 c3 b8 37
       -0.10095 0.4622 0.369 -0.8257 0.9736 0.1838 -3.514 0.4824

model/activation_4/Relu;model/batch_normalization_4/batchnorm/add_1 f2 [8]
000000 e2 3c d4 3d b9 3b 92 3a 40 3d 77 3c ee 3d 01 3d
       1.221 1.457 0.9653 0.8213 1.3125 1.116 1.482 1.251

model/activation_5/Relu;model/batch_normalization_5/batchnorm/add_1 f2 [128]
000000 f1 42 23 b3 2f 35 a0 44 a2 3c d1 31 c2 be 66 b4
       3.47 -0.223 0.324 4.625 1.158 0.1818 -1.689 -0.275
000010 3b c0 52 38 8d c6 a9 3a 32 34 be b5 28 3f 37 b8
       -2.115 0.54 -6.55 0.8325 0.2622 -0.359 1.789 -0.527
000020 6c bc 46 c1 94 c0 8d 3c 60 3e 3d 3f 53 c3 b7 3f
       -1.105 -2.637 -2.29 1.138 1.594 1.81 -3.662 1.929
000030 c5 c2 d2 c2 70 42 e2 3c 7c bc 8f 39 b0 c4 2d b0
       -3.385 -3.41 3.219 1.221 -1.121 0.695 -4.688 -0.1305
000040 b8 a9 1e 43 78 45 b1 c0 ee b1 aa bf d1 44 4b bd
       -0.04468 3.559 5.47 -2.346 -0.1853 -1.916 4.816 -1.323
000050 54 bb 1e b9 55 3d 5b 37 51 bc 80 43 e7 3f d5 3c
       -0.916 -0.6396 1.333 0.4597 -1.079 3.75 1.976 1.208
000060 72 bc eb 3d 4d 35 e5 35 a4 b7 72 bc 98 c1 df 3c
       -1.111 1.4795 0.3313 0.3684 -0.4775 -1.111 -2.797 1.218
000070 ad bd 5c 33 5a 43 e8 3f 01 c0 97 44 e0 bc 18 b9
       -1.419 0.23 3.676 1.977 -2.002 4.59 -1.219 -0.6367
000080 9a 41 be 44 8c c0 5e c0 bc c0 00 3a 5a 44 36 44
       2.8 4.742 -2.273 -2.184 -2.367 0.75 4.35 4.21
000090 50 b8 83 40 4c c5 62 b6 d3 3c 43 40 9c 38 4f bd
       -0.539 2.256 -5.297 -0.399 1.206 2.13 0.576 -1.327
0000a0 a4 c3 1c 39 bd 40 8d bc 18 3c 79 41 da 3f 00 c3
       -3.82 0.6387 2.37 -1.138 1.023 2.736 1.963 -3.5
0000b0 2d 41 41 bc 13 b5 9d c1 8f 40 8d be 7a be 76 3d
       2.588 -1.063 -0.3171 -2.807 2.28 -1.638 -1.619 1.365
0000c0 1b ba c3 3a c7 44 34 33 86 41 e1 3c a2 be 34 3b
       -0.763 0.845 4.777 0.2251 2.762 1.22 -1.658 0.9004
0000d0 95 45 c6 41 49 c1 12 be c4 43 cb b7 42 c4 aa c0
       5.582 2.887 -2.643 -1.518 3.883 -0.487 -4.258 -2.332
0000e0 1b c3 cd c4 4f bd db b1 8f 40 ae b8 ef 3b 31 38
       -3.553 -4.8 -1.327 -0.183 2.28 -0.585 0.9917 0.524
0000f0 76 bc 0f 42 55 3c 21 bf d8 41 1f 3d e3 98 de c0
       -1.115 3.03 1.083 -1.782 2.922 1.28 -0.002386 -2.434

model/activation_6/Relu;model/batch_normalization_6/batchnorm/add_1 f2 [128]
000000 c6 bb 18 3e 3c ad 48 b6 af 3d 10 bb 16 ad 5c c0
       -0.9717 1.523 -0.0818 -0.3926 1.421 -0.883 -0.07947 -2.18
000010 5e 3a 93 ac 41 b4 b1 3a d5 bc 15 bf 97 3a a8 bb
       0.796 -0.0715 -0.2659 0.8364 -1.208 -1.7705 0.8237 -0.957
000020 57 3c aa 39 7e b5 23 b8 08 b8 e0 ba 58 3c 4a 3d
       1.085 0.708 -0.3433 -0.517 -0.504 -0.8594 1.086 1.322
000030 78 36 b5 b9 cc bf 33 31 7e b9 ae 3a ae ad 3d 3b
       0.4043 -0.7134 -1.949 0.1625 -0.6865 0.835 -0.08875 0.905
000040 43 31 c8 b1 47 39 d5 b4 83 3f 7d 3c 39 b3 cb 3c
       0.1644 -0.1807 0.6597 -0.302 1.878 1.122 -0.2257 1.198
000050 0d bb dd 37 85 b9 c6 3d da 3d 01 af eb be 42 2b
       -0.8813 0.4915 -0.69 1.443 1.463 -0.10944 -1.7295 0.0567
000060 67 be 9c 3d 2c 3d b8 3e 74 38 c7 3c dc bb 81 36
       -1.601 1.402 1.293 1.68 0.5566 1.194 -0.9824 0.4065
000070 43 3c 7d bc ce b4 b1 bc 37 2e c9 b0 13 b4 40 32
       1.065 -1.122 -0.3003 -1.173 0.0971 -0.1495 -0.2546 0.1953
000080 8a 37 df 34 9c b5 63 38 a3 3d 3e 3b f5 b2 75 34
       0.4712 0.3044 -0.3506 0.5483 1.409 0.9053 -0.2174 0.2786
000090 3e 3b 61 38 41 bb dc 3c 8c be 7d 3a f8 3e ed b7
       0.9053 0.5474 -0.9067 1.215 -1.637 0.811 1.742 -0.4954
0000a0 2e 38 ba 3c ea b7 81 b9 4f 3d 3a bb 37 37 3b b3
       0.5225 1.182 -0.4946 -0.688 1.327 -0.9033 0.451 -0.226
0000b0 fd ba b8 ba 0f 3d df 3a 43 b9 49 ad f4 38 2a 3e
       -0.8735 -0.84 1.265 0.859 -0.6577 -0.0826 0.619 1.541
0000c0 96 bd 41 3c df 28 82 3a a7 37 28 33 cd 39 c3 39
       -1.396 1.063 0.03806 0.8135 0.4783 0.2236 0.725 0.72
0000d0 fc 3c ff 3b 98 3c 0d 3c 87 38 3d b7 30 3f 93 30
       1.246 0.9995 1.148 1.013 0.566 -0.4524 1.797 0.143
0000e0 4f bb 14 39 12 33 90 3d d9 b2 56 33 fd b7 81 3b
       -0.9136 0.635 0.221 1.391 -0.214 0.2292 -0.4993 0.938
0000f0 c1 b9 91 3a 7b c0 d0 bc 00 3f 4a 3b ac 39 a7 3c
       -0.719 0.821 -2.24 -1.203 1.75 0.911 0.709 1.163

model/activation_7/Relu;model/batch_normalization_7/batchnorm/add_1 f2 [128]
000000 7c b8 53 3b e1 a4 12 b7 a5 b5 e6 39 12 3b 42 b8
       -0.5605 0.9155 -0.01906 -0.442 -0.3528 0.7373 0.884 -0.532
000010 ee 36 c9 2c b9 b6 21 39 9d 35 b4 af 90 bc cd 24
       0.433 0.07477 -0.4202 0.641 0.3508 -0.12036 -1.141 0.01875
000020 71 38 41 ba d1 bb 9f 2e b5 3d 35 36 a7 ba fe 3d
       0.555 -0.7817 -0.977 0.10345 1.427 0.388 -0.8315 1.498
000030 fd b4 62 34 cc b2 2a 2b a0 bd 6c b3 14 b0 a3 41
       -0.3118 0.274 -0.2124 0.05597 -1.406 -0.2319 -0.1274 2.818
000040 57 3c 51 3c 33 3d 36 3e 23 b1 7f 37 b6 ba 36 36
       1.085 1.079 1.3 1.553 -0.1605 0.4685 -0.839 0.3882
000050 92 3b fe b5 1b b2 f0 3a 94 bc d1 ba fe b4 c0 b5
       0.9463 -0.3745 -0.1908 0.867 -1.145 -0.852 -0.312 -0.3594
000060 5b 39 13 3c 23 ac fd b1 c8 b8 17 3e 2b 3d 17 b8
       0.6694 1.019 -0.06464 -0.1871 -0.5977 1.522 1.292 -0.511
000070 8e 34 03 38 1a b9 68 38 e1 30 73 37 f3 3c b6 3c
       0.2847 0.5015 -0.6377 0.551 0.1525 0.4656 1.237 1.178
000080 a6 b9 d1 39 4a 34 54 35 fa 34 90 32 e9 2c b3 b8
       -0.706 0.727 0.268 0.333 0.311 0.2051 0.0767 -0.5874
000090 af 3a 02 b7 e8 39 12 bc 67 3b 89 37 c3 b8 75 ac
       0.8354 -0.438 0.7383 -1.018 0.9253 0.471 -0.595 -0.06964
0000a0 89 3c 0e 38 41 38 e0 ba de 2f fd b8 d9 ba 73 bc
       1.134 0.507 0.5317 -0.8594 0.1229 -0.6235 -0.856 -1.112
0000b0 3c 3a f9 2e ff 39 51 39 12 b3 bb 39 dc 3c 68 b9
       0.7793 0.10895 0.7495 0.6646 -0.221 0.7163 1.215 -0.676
0000c0 a4 40 5e b6 21 b5 18 3b bd 3c eb 38 d4 b6 43 36
       2.32 -0.398 -0.3206 0.8867 1.185 0.6147 -0.4268 0.3914
0000d0 98 27 7b 38 89 bd c8 3c 5f 39 27 36 05 b7 3a b5
       0.02966 0.56 -1.384 1.195 0.6714 0.3845 -0.4387 -0.3267
0000e0 a7 33 be c1 58 ba 0f 38 3f b5 b9 b7 8d 3d 3a 34
       0.2391 -2.871 -0.793 0.5073 -0.328 -0.4827 1.388 0.2642
0000f0 82 30 36 b8 33 33 27 b8 0e ba 9b 3a e7 40 f5 2d
       0.1409 -0.5264 0.225 -0.519 -0.757 0.8257 2.451 0.0931

model/activation_8/Relu;model/batch_normalization_8/batchnorm/add_1 f2 [128]
000000 b5 b4 7f 42 6a 3e 5a 40 42 3a fb 3d b4 3f 3a 3e
       -0.2942 3.248 1.604 2.176 0.782 1.495 1.926 1.557
000010 13 3c 41 40 02 3a e1 38 24 3c c2 3d 63 3c 3d 3e
       1.019 2.127 0.751 0.61 1.035 1.439 1.097 1.56
000020 3b 41 07 3e c2 43 84 39 c9 3b d4 30 64 3b 41 3a
       2.615 1.507 3.879 0.6895 0.973 0.1509 0.924 0.7817
000030 16 41 4a 40 41 3e 03 41 e2 a4 48 3c 3b 3b 72 37
       2.543 2.145 1.563 2.506 -0.01907 1.07 0.904 0.4653
000040 78 3d 3b 3e 96 3a 01 3c 35 3f 1e 44 07 40 cb 3c
       1.367 1.558 0.823 1.001 1.802 4.117 2.014 1.198
000050 e6 3c 25 40 55 42 fc 3c 0c 37 b7 3e 5d 40 33 3d
       1.225 2.072 3.166 1.246 0.4404 1.679 2.182 1.3
000060 f9 40 d2 3d 64 40 d0 3e 47 3b 9d 3c c0 3a b1 3f
       2.486 1.455 2.195 1.703 0.9097 1.153 0.8438 1.923
000070 27 3d 77 3a 4d 3a 3b 37 dd 38 81 3d 06 3c fd 3b
       1.288 0.808 0.7876 0.452 0.608 1.376 1.006 0.9985
000080 9a 3d 4e 40 29 35 b2 40 cf 3c 7e 40 e9 3f c9 3a
       1.4 2.152 0.3225 2.348 1.202 2.246 1.978 0.848
000090 b6 42 0e 39 49 3d fe 3e 08 40 1c 40 f0 3e 4a 3d
       3.355 0.632 1.321 1.748 2.016 2.055 1.734 1.322
0000a0 cd 3c f9 3a 13 41 06 3c d9 38 c6 3f d5 3e 7c 3c
       1.2 0.8716 2.537 1.006 0.606 1.943 1.708 1.121
0000b0 7d ba 25 40 98 3c d4 3c cc 3f 3b 3c 94 3d 1b 42
       -0.811 2.072 1.148 1.207 1.949 1.058 1.395 3.053
0000c0 11 40 b6 3e d6 3e 47 ba 13 3b fe 3e 8d 3f 0e 38
       2.033 1.678 1.709 -0.7847 0.8843 1.748 1.888 0.507
0000d0 2e 3e 76 41 c9 35 65 40 3f 3c b3 41 53 3d ff 3e
       1.545 2.73 0.3616 2.197 1.062 2.85 1.331 1.749
0000e0 b4 41 14 30 9f 42 cf 39 da 38 d0 3a 11 40 3c 3a
       2.852 0.1274 3.31 0.726 0.6064 0.8516 2.033 0.7793
0000f0 f7 3c e1 3e 45 40 0a 3c 00 b4 f7 3c 30 39 60 40
       1.241 1.72 2.135 1.01 -0.25 1.241 0.6484 2.188

model/batch_normalization/batchnorm/mul_1 f2 [128, 640]
000000 b4 97 ab 96 05 95 27 0c cd 0e 65 12 35 0d d3 0f
       -0.001881 -0.001628 -0.001225 0.0002534 0.000415 0.0007806 0.0003178 0.0004776
000010 a5 0f c1 0f 5c 11 0d 13 f9 13 67 12 48 0f d4 0a
       0.0004666 0.0004733 0.000654 0.0008607 0.000973 0.0007815 0.0004444 0.0002084
000020 0e 12 91 15 91 15 03 15 a6 13 4a 10 6a 12 5e 09
       0.000739 0.001359 0.001359 0.001224 0.0009336 0.0005236 0.000783 0.0001638
000030 68 0e 00 0a 2f 8c fc 8a 78 87 8a 0e 5b 0d 01 0c
       0.000391 0.0001831 -0.0002553 -0.0002131 -0.00011396 0.000399 0.0003269 0.0002444
000040 be 12 eb 13 e7 12 b8 0b af 09 31 0c 89 03 d9 08
       0.000823 0.0009665 0.0008426 0.0002356 0.0001734 0.0002558 5.394e-05 0.0001479
000050 c3 0d bd 0f 98 0a b6 09 1e 0e b2 10 5d 05 c3 8a
       0.0003517 0.0004723 0.0002012 0.0001743 0.0003734 0.000573 8.184e-05 -0.0002064
000060 f2 8c 49 8f c0 8b c3 8d ec 01 1d 8b 72 08 59 08
       -0.0003018 -0.0004447 -0.0002365 -0.0003517 2.93e-05 -0.0002171 0.0001357 0.0001327
000070 e0 0a 6e 0b 42 0f 85 10 cb 13 e9 11 4e 13 5e 12
       0.0002098 0.0002267 0.000443 0.0005517 0.0009513 0.0007215 0.0008917 0.0007772
000080 11 88 74 8c 8e 80 e9 0f 19 0f e8 0c 32 11 79 0f
       -0.0001241 -0.0002718 -8.46e-06 0.0004828 0.0004332 0.0002995 0.000634 0.000456
000090 20 11 87 13 17 14 b7 12 5e 11 c4 07 87 03 0a 0d
       0.0006256 0.000919 0.0009985 0.0008197 0.000655 0.0001185 5.38e-05 0.0003076
0000a0 5f 87 ee 8d 15 8d 6f 8f d4 09 b3 0c d3 81 3a 93
       -0.0001125 -0.000362 -0.0003102 -0.0004537 0.0001779 0.0002868 -2.784e-05 -0.000882
0000b0 1c 89 c2 87 c5 91 2f 8a a9 04 8d 81 8b 80 0a 0c
       -0.0001559 -0.0001184 -0.0007043 -0.0001887 7.11e-05 -2.366e-05 -8.3e-06 0.0002465
0000c0 3c 13 3f 02 38 8c ea 04 cc 0c b2 0d 8b 8b 73 86
       0.000883 3.43e-05 -0.0002575 7.5e-05 0.0002928 0.0003476 -0.0002302 -9.84e-05
0000d0 49 90 63 8c 19 88 2f 89 c7 88 c1 00 07 8d 50 91
       -0.000523 -0.0002677 -0.000125 -0.0001582 -0.0001458 1.15e-05 -0.0003068 -0.0006485
0000e0 bb 8d 90 8e 3c 0c 3b 0a 60 8e 14 8d 00 92 e0 91
       -0.0003498 -0.0004005 0.0002584 0.0001901 -0.000389 -0.00031 -0.0007324 -0.000717
0000f0 2c 91 e4 91 32 94 a9 93 2a 94 3f 94 c5 90 27 91
       -0.0006313 -0.000719 -0.001024 -0.000935 -0.001017 -0.001037 -0.000582 -0.000629
000100 9a 97 cb 98 c6 97 0a 91 b9 88 6b 02 66 03 68 09
       -0.001856 -0.00234 -0.001898 -0.000615 -0.0001441 3.69e-05 5.186e-05 0.000165
000110 1a 83 69 82 21 11 a9 10 96 11 08 12 41 0f 1a 0d
       -4.73e-05 -3.68e-05 0.000626 0.000569 0.000682 0.000736 0.0004427 0.0003114
000120 8f 0f d3 12 9d 13 89 10 65 08 53 85 35 0d 78 85
       0.0004613 0.000833 0.0009294 0.0005536 0.0001341 -8.124e-05 0.0003178 -8.345e-05
000130 5c 90 9f 8f c0 93 c8 91 95 8f d3 0a 57 04 fb 8b
       -0.000532 -0.0004652 -0.000946 -0.0007057 -0.0004628 0.0002083 6.62e-05 -0.0002435
000140 cb 84 62 08 51 01 44 91 00 91 2f 91 33 91 79 92
       -7.313e-05 0.0001338 2.01e-05 -0.000643 -0.0006104 -0.000633 -0.0006347 -0.00079
000150 1f 90 7a 8e 85 92 b8 91 b8 8d 30 89 93 8d 58 92
       -0.000503 -0.0003953 -0.000796 -0.000698 -0.000349 -0.0001583 -0.0003402 -0.0007744
000160 fd 91 7d 94 1c 94 5b 95 e7 93 5d 93 c9 93 c3 93
       -0.000731 -0.001096 -0.001003 -0.0013075 -0.0009646 -0.000899 -0.0009503 -0.0009475
000170 1f 94 47 90 2d 8d 7e 0a 68 88 e9 87 8b 08 c4 90
       -0.001006 -0.000522 -0.000316 0.0001981 -0.0001345 -0.0001207 0.0001386 -0.0005817
000180 43 94 80 94 fe 92 44 8d 19 8d 94 8a 00 05 ad 8b
       -0.00104 -0.001099 -0.0008535 -0.0003214 -0.0003111 -0.0002007 7.63e-05 -0.0002342
000190 f0 8b bf 0c 0b 08 a4 09 2a 0c 31 94 0a 94 de 93
       -0.0002422 0.0002897 0.0001234 0.0001721 0.0002542 -0.001023 -0.000986 -0.0009604
0001a0 76 95 51 96 9b 96 b5 95 e8 94 0e 95 53 95 8c 97
       -0.001333 -0.001542 -0.001613 -0.001393 -0.001198 -0.001234 -0.0013 -0.0018425
0001b0 2f 97 d4 95 46 96 24 93 4e 91 1d 93 0a 94 ad 91
       -0.001754 -0.001423 -0.001532 -0.0008717 -0.0006475 -0.0008683 -0.000986 -0.000693
0001c0 03 90 1b 95 48 96 75 92 a4 94 0f 91 8c 96 1c 96
       -0.0004897 -0.001246 -0.0015335 -0.000788 -0.001133 -0.0006175 -0.001598 -0.001492
0001d0 b3 96 b1 93 94 94 d0 96 15 96 93 94 05 92 64 90
       -0.001636 -0.000939 -0.001118 -0.001663 -0.001485 -0.001117 -0.000735 -0.000536
0001e0 35 90 02 8b 63 92 91 94 79 93 f4 90 a4 93 32 94
       -0.0005136 -0.0002139 -0.0007796 -0.001115 -0.000912 -0.0006046 -0.0009327 -0.001024
0001f0 26 95 dc 95 75 95 cd 92 d2 96 fa 96 7c 93 4b 90
       -0.001257 -0.0014305 -0.001332 -0.00083 -0.001665 -0.001703 -0.0009136 -0.000524

model/batch_normalization_1/batchnorm/mul_1 f2 [128, 128]
000000 ee 2a f6 2d 2c ac 4a 26 a4 b0 b6 30 9a ab 3e af
       0.05414 0.09314 -0.0652 0.02457 -0.145 0.1472 -0.0594 -0.11316
000010 94 b0 88 a9 f7 28 10 20 2a 25 b6 25 84 25 de 2b
       -0.1431 -0.0432 0.0388 0.007935 0.02017 0.02231 0.02155 0.06146
000020 6a 2b a8 1c 38 30 db 29 52 30 01 b0 2b a5 89 27
       0.05792 0.004547 0.1318 0.04575 0.135 -0.1251 -0.02019 0.02943
000030 c3 ac a8 ae 14 ae 54 24 08 29 e4 ab f4 2c 15 ae
       -0.0744 -0.104 -0.095 0.0169 0.0393 -0.06165 0.0774 -0.09503
000040 c7 31 61 27 07 29 d6 ae 39 8a ba 2b 74 aa 79 30
       0.1805 0.02882 0.03928 -0.1068 -0.0001899 0.06036 -0.0504 0.1398
000050 7e a7 35 a1 5e 2e 75 a9 7d 13 3a a9 a8 2d fd 28
       -0.02927 -0.01017 0.0995 -0.04263 0.000914 -0.04083 0.0884 0.03897
000060 c3 2e 83 28 e9 a1 e8 8c 9c 2f f3 2b 43 ad 6b a8
       0.10565 0.03525 -0.01154 -0.0002995 0.1189 0.0621 -0.0822 -0.03452
000070 ba 2c a7 a7 ba 95 08 29 71 2e a3 aa 97 26 9d af
       0.07385 -0.02989 -0.001398 0.0393 0.10065 -0.05185 0.02574 -0.11896
000080 ab 2c 1b ad 4f ac d2 2d 6a ab 84 a6 bf 2b 3a 1d
       0.07294 -0.0798 -0.0673 0.09094 -0.05792 -0.02545 0.06052 0.005104
000090 c7 20 ed 2a 1f 29 b2 2e f3 21 75 a8 2a a6 37 2b
       0.00933 0.0541 0.04 0.1046 0.01162 -0.03482 -0.02408 0.05637
0000a0 4f b0 68 2d 1f ac d3 a6 35 2d b6 1b 5a 2a 33 af
       -0.1346 0.0845 -0.0644 -0.02666 0.08136 0.003765 0.04962 -0.1125
0000b0 57 24 4c a4 08 a8 7f a8 ca b4 0a 27 02 18 c0 27
       0.01695 -0.01678 -0.0315 -0.03513 -0.2993 0.0275 0.001957 0.03027
0000c0 19 ad 1d b2 2b 21 a7 a5 f9 29 7b a8 47 b2 91 24
       -0.07965 -0.191 0.01009 -0.02208 0.04666 -0.035 -0.1962 0.01784
0000d0 27 ab 61 ad 37 b5 d0 28 d8 ab f4 b0 b7 29 9e 2b
       -0.05588 -0.08405 -0.326 0.0376 -0.06128 -0.1548 0.04465 0.0595
0000e0 cc ad 04 a0 a8 2a 5a 27 26 19 49 25 70 2b 39 a7
       -0.0906 -0.00784 0.052 0.02872 0.002514 0.02065 0.0581 -0.02821
0000f0 58 b0 8a 24 5a a8 54 a9 87 ae 96 26 d8 ae 08 ad
       -0.1357 0.01773 -0.034 -0.04163 -0.102 0.02573 -0.10693 -0.0786
000100 4a 19 02 2a 17 31 9f 28 88 9d ca a5 4d aa 6c ad
       0.002583 0.04694 0.159 0.0361 -0.0054 -0.02261 -0.04922 -0.0847
000110 a7 ab 9e af 0d 9b 19 b2 7c ad e8 27 4c 1c a1 2d
       -0.05978 -0.119 -0.003443 -0.1906 -0.0857 0.03088 0.004196 0.08795
000120 80 28 ba 2e da 2f 69 a8 3e 2d c3 2e 49 22 58 a8
       0.03516 0.1051 0.1227 -0.03445 0.0819 0.10565 0.012276 -0.03394
000130 e2 1c 10 b0 78 2f 1e 2c 51 ab 5f af 86 ad 29 2a
       0.00477 -0.127 0.1167 0.06433 -0.05716 -0.1152 -0.0863 0.04813
000140 53 9e 13 2c 67 28 9a 1f 43 2c a1 a4 23 a7 e7 2f
       -0.006176 0.06366 0.0344 0.007423 0.0666 -0.01808 -0.02788 0.1235
000150 92 31 2e 21 f8 21 c6 25 d1 a7 55 ac 27 25 7b 9f
       0.1741 0.01012 0.01166 0.02255 -0.03053 -0.0677 0.02013 -0.007305
000160 8b 21 c5 27 fd 25 17 28 5f ab 60 b3 63 a8 2a a8
       0.010826 0.03035 0.02339 0.03195 -0.0576 -0.2305 -0.03427 -0.03253
000170 00 2a 6f ac d0 a0 84 16 a3 2d 5a a9 8d 2d d4 ac
       0.04688 -0.0693 -0.0094 0.001591 0.0881 -0.0418 0.08673 -0.07544
000180 08 28 d0 29 a7 a8 03 ab 5a ad dc 95 b2 28 30 2d
       0.0315 0.0454 -0.03635 -0.05478 -0.0836 -0.0014305 0.03668 0.08105
000190 24 ab 46 aa a1 20 a3 aa 48 92 36 aa 1d ac be ab
       -0.0558 -0.049 0.00904 -0.05185 -0.0007668 -0.04852 -0.0643 -0.0605
0001a0 06 a9 67 22 05 2c ee 2b 6c a2 5c a3 dc a0 d8 a8
       -0.03925 0.012505 0.0628 0.06195 -0.01254 -0.01437 -0.00949 -0.03784
0001b0 02 2e 4a 30 8c a7 31 2b 40 a7 68 2b 00 ae 8d 28
       0.0939 0.134 -0.02948 0.05618 -0.02832 0.05786 -0.09375 0.03555
0001c0 2a 20 84 28 89 a3 74 2f 0a aa f9 a8 83 a8 aa 27
       0.00813 0.03528 -0.01472 0.11646 -0.04718 -0.03885 -0.03525 0.02994
0001d0 21 2b e5 29 4c 2d 7f ab 07 b3 96 2e 16 a8 64 90
       0.0557 0.04605 0.08276 -0.05856 -0.2196 0.1029 -0.03192 -0.000536
0001e0 12 ab b6 ae e6 2c 62 2c 02 2c c7 28 4e 2d cf ac
       -0.05524 -0.10486 0.07654 0.0685 0.0626 0.03732 0.0829 -0.07513
0001f0 42 24 d4 24 20 2f 74 aa 8c 22 8a 2d d3 aa 9b a9
       0.01663 0.01886 0.1113 -0.0504 0.01279 0.08655 -0.0533 -0.0438

model/batch_normalization_2/batchnorm/mul_1 f2 [128, 128]
000000 68 29 3b a1 52 ad 88 b1 0e 2d d9 ae 09 a8 d8 a8
       0.04224 -0.010216 -0.0831 -0.1729 0.079 -0.107 -0.03152 -0.03784
000010 68 2d f7 b1 b9 30 5d a8 88 28 81 33 ba 30 0e b3
       0.0845 -0.1864 0.1476 -0.0341 0.0354 0.2345 0.1477 -0.2205
000020 ba 2c 31 b1 ed aa 98 30 96 2c 26 20 f6 28 b9 ae
       0.07385 -0.1622 -0.0541 0.1436 0.07166 0.0081 0.03876 -0.10504
000030 fd b1 38 32 ad 2f 5c b1 b8 2c 43 27 cc ac 05 20
       -0.1871 0.1943 0.11993 -0.1675 0.0737 0.02837 -0.07495 0.00785
000040 5b ae 1c b1 45 2e 32 a7 6f ad 56 2d 6c 2d e7 b1
       -0.0993 -0.1597 0.09796 -0.0281 -0.0849 0.0834 0.0847 -0.1844
000050 64 2f f0 ae 76 2c b1 ae 50 2c 6a 1c 70 2e 42 af
       0.1155 -0.1084 0.0697 -0.10455 0.0674 0.00431 0.1006 -0.1134
000060 e9 32 e1 31 df 24 0a b1 39 b1 7e 2d 83 2c b0 af
       0.216 0.1837 0.01903 -0.1575 -0.1632 0.0858 0.0705 -0.1201
000070 d9 1f 48 2e 6a ae 0d 30 45 2e 21 31 0c 28 d7 2c
       0.007664 0.09814 -0.1002 0.1266 0.09796 0.1603 0.03162 0.0756
000080 91 31 b6 ad 22 30 fb ac ad ab 84 ad 21 2e 90 2d
       0.174 -0.08923 0.1292 -0.0778 -0.05997 -0.0862 0.09576 0.0869
000090 cb 2d 3c 9b 8c a4 aa aa c0 2d 48 ae 21 2d 89 b0
       0.0905 -0.003532 -0.01776 -0.05206 0.08984 -0.09814 0.08014 -0.1417
0000a0 12 a3 bd a7 89 29 16 2c d2 31 76 25 dd 2e d3 31
       -0.01381 -0.03023 0.04324 0.06384 0.1819 0.02133 0.10724 0.182
0000b0 27 ae a6 2b 14 2a fa b2 fe 23 56 2c 76 aa c3 2b
       -0.0961 0.05975 0.0475 -0.218 0.01561 0.06775 -0.05048 0.06064
0000c0 f4 a8 93 b0 80 ab c7 a6 4f 2f eb ac b0 2e e8 b6
       -0.0387 -0.143 -0.0586 -0.02647 0.1142 -0.07684 0.1045 -0.4316
0000d0 b5 ab 54 b0 fa 33 09 2c b8 ad 41 b0 4d 32 03 25
       -0.0602 -0.1353 0.2493 0.06305 -0.08936 -0.1329 0.1969 0.01958
0000e0 43 30 11 ac 3b a2 01 aa dc 9f a7 a6 00 2d b5 ac
       0.1332 -0.06354 -0.01217 -0.0469 -0.007675 -0.02599 0.0781 -0.07355
0000f0 95 2c 6f b0 be 2f ad 30 40 2c ab b2 f6 ac fa 28
       0.0716 -0.1385 0.121 0.1461 0.0664 -0.2084 -0.0775 0.03888
000100 84 25 46 26 09 a3 5b ad 18 24 7d ae 06 24 ae 28
       0.02155 0.0245 -0.01374 -0.0837 0.01599 -0.1014 0.01572 0.03656
000110 8c 2f b6 a0 49 ad 14 1f 7d ad c5 ab cc 22 fc 2d
       0.1179 -0.0092 -0.0826 0.006912 -0.08575 -0.0607 0.013275 0.0935
000120 c8 29 e9 28 3a 30 da 2a 98 8a 92 9a fd 25 8f 2c
       0.04517 0.03836 0.1321 0.05353 -0.0002012 -0.003208 0.02339 0.0712
000130 bb a2 0a a0 26 9d 13 21 37 1c be ae f8 a6 3e a9
       -0.013145 -0.00789 -0.005028 0.00991 0.004116 -0.10535 -0.02722 -0.04095
000140 8c 2b 63 28 00 a3 f5 ac 89 a9 96 26 cf ac 80 9c
       0.05896 0.03427 -0.01367 -0.07745 -0.04324 0.02573 -0.07513 -0.004395
000150 4b 23 79 a7 88 25 a0 a9 2d ac 46 a4 9b 29 83 a0
       0.014244 -0.02919 0.0216 -0.04395 -0.06525 -0.0167 0.0438 -0.00881
000160 5f b0 9c 25 78 2b 6c 37 ff a6 39 2e 40 2c 54 19
       -0.1366 0.02191 0.05835 0.4639 -0.02733 0.0972 0.0664 0.002602
000170 e3 2e 32 31 87 ae 5b a2 99 a5 b3 aa 3e 1b 43 a4
       0.1076 0.1624 -0.102 -0.01241 -0.02187 -0.05234 0.003536 -0.01665
000180 b8 a8 89 26 fb aa a7 35 bb af 48 9a 75 20 35 b0
       -0.03687 0.02553 -0.05453 0.3533 -0.1208 -0.003067 0.008705 -0.1315
000190 d7 9c 99 2b 21 29 fe 28 41 11 23 ac eb ac 2f 2e
       -0.004726 0.05936 0.04007 0.039 0.0006413 -0.06464 -0.07684 0.0966
0001a0 0b 27 69 26 f5 29 5d b0 07 ac 39 28 66 29 07 24
       0.02751 0.02504 0.04654 -0.1364 -0.0629 0.033 0.04218 0.01573
0001b0 c5 ac 12 28 9d 2a 4e 25 4b b0 71 a7 27 26 94 b0
       -0.0745 0.0318 0.05167 0.02072 -0.1342 -0.02907 0.02403 -0.1431
0001c0 83 89 52 2f 59 28 18 9c 2e a9 db 27 e4 2b 80 a5
       -0.0001682 0.1144 0.03397 -0.003998 -0.04047 0.03069 0.06165 -0.02148
0001d0 78 2a 5f a9 40 2c 4b 20 0c 2a 00 2c 29 a4 1c b0
       0.05054 -0.04196 0.0664 0.008385 0.04724 0.0625 -0.01625 -0.1284
0001e0 28 b0 7b a6 59 2f 4b 27 c2 a8 1e a8 13 24 9c 2a
       -0.1299 -0.02531 0.1148 0.02849 -0.03717 -0.03217 0.01591 0.05164
0001f0 21 aa b5 a7 df ab ab ab af 27 ca 25 2c 28 8f 2c
       -0.04788 -0.0301 -0.0615 -0.0599 0.03001 0.02261 0.0326 0.0712

model/batch_normalization_3/batchnorm/mul_1 f2 [128, 128]
000000 0f ad a4 b3 3e b3 f9 ad 5f b0 b9 24 6d 11 5f a8
       -0.07904 -0.2388 -0.2263 -0.0933 -0.1366 0.01845 0.0006623 -0.03415
000010 42 2e 31 a4 71 32 37 b3 ce a5 56 b0 c4 9f 93 31
       0.0978 -0.01637 0.2013 -0.2255 -0.02267 -0.1355 -0.007584 0.1742
000020 56 b4 8b aa cf a8 d4 33 81 b3 16 28 76 ac 65 b1
       -0.271 -0.05112 -0.03757 0.2446 -0.2345 0.03192 -0.0697 -0.1686
000030 0d ae bc b1 46 30 75 34 72 b4 ed 2f 00 34 c9 ac
       -0.09454 -0.1792 0.1335 0.2786 -0.2778 0.12384 0.25 -0.07477
000040 f1 38 85 aa b5 ac 5b 2c d0 b1 1c ad e3 ad 01 b4
       0.6177 -0.05093 -0.07355 0.06805 -0.1816 -0.07983 -0.092 -0.2502
000050 b0 2b 91 ae ac b0 8d a6 a5 b8 66 ab 99 b4 03 30
       0.06006 -0.1026 -0.146 -0.02559 -0.5806 -0.0578 -0.2874 0.1254
000060 49 29 c0 ad d2 9f 12 27 88 a9 7c 2c 2b 34 1a af
       0.0413 -0.08984 -0.007637 0.02762 -0.0432 0.07007 0.2605 -0.11096
000070 d6 af cb 14 11 2b 45 30 15 21 e6 2e 82 a2 43 a1
       -0.12244 0.00117 0.0552 0.1334 0.009926 0.1078 -0.01271 -0.01028
000080 c3 a8 63 ae 93 a4 ac b6 fa 2f a7 b0 82 aa b3 ad
       -0.0372 -0.0998 -0.01787 -0.417 0.12463 -0.1454 -0.05084 -0.08905
000090 d8 28 46 2e e6 2c c4 31 96 35 7e ad 82 af 6a 9c
       0.03784 0.098 0.07654 0.1802 0.349 -0.0858 -0.1173 -0.00431
0000a0 62 aa 6c 9d 74 38 61 b3 95 2d 55 31 d9 b4 98 ae
       -0.04987 -0.005295 0.5566 -0.2306 0.0872 0.1666 -0.303 -0.103
0000b0 f7 b4 fb 2a f8 af 63 b4 2c b7 77 31 cd a8 48 36
       -0.3103 0.05453 -0.1245 -0.2742 -0.4482 0.1708 -0.0375 0.3926
0000c0 af 35 be 9b 84 af e8 b2 49 ad f6 2a ce 29 2e 9c
       0.3552 -0.00378 -0.11743 -0.2158 -0.0826 0.05438 0.04535 -0.00408
0000d0 9c a0 33 af 35 2b f7 30 29 ae 20 aa f3 32 07 35
       -0.009 -0.1125 0.0563 0.1552 -0.09625 -0.04785 0.2172 0.3142
0000e0 17 ac e9 a4 be 34 3c ae 05 20 78 31 fb 30 a4 30
       -0.0639 -0.01918 0.2964 -0.0974 0.00785 0.1709 0.1556 0.145
0000f0 0d b1 14 ad cb 30 3d 2e 4e 29 bf aa 1e 1b 9c b4
       -0.1578 -0.07935 0.1498 0.0975 0.04144 -0.0527 0.003475 -0.288
000100 29 30 77 ae 3c 37 50 37 80 32 d1 33 bb 2f 67 b8
       0.13 -0.101 0.4521 0.457 0.2031 0.2443 0.1208 -0.5503
000110 b2 35 ce ab c8 34 30 97 44 a7 48 2b 0e 34 52 33
       0.356 -0.06097 0.2988 -0.001755 -0.02838 0.0569 0.2534 0.2288
000120 09 34 24 af 5e ad a7 38 57 b1 af b6 2d 38 ba b6
       0.2522 -0.1116 -0.08386 0.5815 -0.1669 -0.4177 0.522 -0.4204
000130 d1 ad 4b b0 a8 ad 0c b2 f0 32 39 2e 61 b4 78 a6
       -0.0909 -0.1342 -0.0884 -0.189 0.2168 0.0972 -0.2737 -0.02527
000140 c0 b5 51 3e f7 9f 80 32 78 31 9e 31 34 2b 19 af
       -0.3594 1.579 -0.00778 0.2031 0.1709 0.1755 0.05627 -0.1109
000150 4c b4 55 2f 31 33 70 29 50 b3 88 31 bf b4 2b 25
       -0.2686 0.11456 0.2247 0.04248 -0.2285 0.1729 -0.2966 0.02019
000160 bb b6 69 33 bc af 98 ad b7 b4 a8 37 af b4 30 ad
       -0.4207 0.2316 -0.12085 -0.0874 -0.2947 0.4785 -0.2927 -0.08105
000170 05 b1 eb 36 be 28 66 b0 a8 ac 22 b6 0e b6 30 b8
       -0.1569 0.4324 0.03705 -0.1375 -0.07275 -0.3833 -0.3784 -0.5234
000180 fc 34 dc 20 6d b4 71 ad 07 b1 4d 32 45 34 89 b1
       0.3115 0.00949 -0.2766 -0.085 -0.1571 0.1969 0.2668 -0.173
000190 9a b1 53 35 25 b3 86 b5 67 ad 47 37 e6 30 12 b3
       -0.175 0.3328 -0.2233 -0.3452 -0.0844 0.4548 0.1531 -0.221
0001a0 ca ae 78 30 cb b1 3e b0 cb 30 ed 2e 16 b4 0d 31
       -0.1061 0.1396 -0.181 -0.1326 0.1498 0.1082 -0.2554 0.1578
0001b0 b6 b3 50 33 be aa 30 ac f7 34 3d 2d 6f ae d3 2c
       -0.241 0.2285 -0.05267 -0.0654 0.3103 0.08185 -0.1005 0.0754
0001c0 b9 ac 5e 33 ba 2f 50 32 89 ab bd 2d e3 a9 c6 a4
       -0.0738 0.2302 0.1207 0.1973 -0.05887 0.08966 -0.046 -0.01865
0001d0 d3 34 55 2f 4c b5 e8 b1 d4 b1 27 33 b6 38 4c 2d
       0.3015 0.11456 -0.331 -0.1846 -0.1821 0.2235 0.589 0.08276
0001e0 59 ae e7 a2 0e b6 96 2c d2 2a 2c 24 53 ae b9 ad
       -0.0992 -0.01348 -0.3784 0.07166 0.05328 0.0163 -0.0988 -0.0894
0001f0 4b a0 04 25 ef a7 d8 31 35 2b 68 ac b0 ae 42 b1
       -0.008385 0.01959 -0.03099 0.1826 0.0563 -0.06885 -0.1045 -0.1643

model/batch_normalization_4/batchnorm/mul_1 f2 [8, 128]
000000 e4 18 16 b1 6c a2 61 2b 2c 2a d6 24 5a 25 b9 28
       0.002388 -0.1589 -0.01254 0.05765 0.04822 0.01889 0.0209 0.0369
000010 f8 a8 8a 22 f0 23 69 2c 9d a7 56 ae 2b 9a e2 a5
       -0.03882 0.01277 0.0155 0.0689 -0.02974 -0.099 -0.003012 -0.02298
000020 1e 94 a6 a0 ac a8 6e ac f6 a8 f8 2b 49 28 33 26
       -0.001005 -0.00908 -0.0365 -0.0692 -0.03876 0.06226 0.03348 0.02422
000030 f0 26 c2 a0 5f a8 e1 17 ca 24 d5 a8 93 a8 4d 2a
       0.0271 -0.00929 -0.03415 0.001924 0.0187 -0.03775 -0.03574 0.04922
000040 75 a2 08 25 ee ab 50 26 02 27 2f 10 bc 2c 89 23
       -0.01261 0.01965 -0.06195 0.02466 0.02737 0.0005107 0.074 0.01472
000050 6e 28 73 a9 b1 a5 4b a6 68 a8 0b a6 81 24 d0 22
       0.0346 -0.04257 -0.02223 -0.02458 -0.03442 -0.0236 0.0176 0.013306
000060 75 1d 08 a8 15 1d 5c 19 75 27 b6 a7 7d a7 01 a8
       0.00533 -0.0315 0.004963 0.002617 0.02913 -0.03012 -0.02925 -0.03128
000070 0c 2c 87 24 68 ac 17 2c c7 26 ce 98 4b a5 1f 29
       0.06323 0.01768 -0.06885 0.0639 0.02647 -0.002346 -0.02068 0.04
000080 b2 94 27 a5 ee ad e9 99 34 21 40 9e a8 27 79 aa
       -0.001146 -0.02013 -0.09265 -0.002886 0.01016 -0.006104 0.0299 -0.05057
000090 91 25 28 a1 9f a4 dd a4 0b ae 46 2b 5d 27 40 a9
       0.02174 -0.01007 -0.01805 -0.019 -0.0944 0.05682 0.02876 -0.04102
0000a0 0c 28 c8 a9 9f 24 a0 a2 68 24 7d aa a0 22 96 2a
       0.03162 -0.04517 0.01805 -0.01294 0.01721 -0.0507 0.01294 0.05145
0000b0 dc 2c ec 29 cf aa d8 a6 b7 a6 bf 28 14 a9 52 a8
       0.0759 0.04626 -0.0532 -0.02673 -0.02623 0.03708 -0.03967 -0.03375
0000c0 42 29 c3 ad 54 a0 7f 0b 2a 1f 37 2c 2c 1a f6 a3
       0.04108 -0.09 -0.00845 0.0002288 0.006996 0.06586 0.003014 -0.01555
0000d0 85 2f ae 2c fb a8 86 25 22 1a 63 2a 3e a2 bb a8
       0.1175 0.0731 -0.0389 0.02158 0.002995 0.0499 -0.01219 -0.03696
0000e0 ab aa 81 9d 73 a6 2e 2b 47 9a e9 ad 30 a7 e3 19
       -0.0521 -0.005375 -0.02519 0.0561 -0.003065 -0.09235 -0.02808 0.002874
0000f0 0a 2c d5 ab eb 1e aa 25 dc 99 e9 2d 2e 1c 9c 2b
       0.0631 -0.0612 0.006756 0.02213 -0.002861 0.09235 0.00408 0.05945
000100 15 22 97 20 39 2e 48 a5 bf a9 7c 23 58 ad 5c 25
       0.01188 0.008965 0.0972 -0.02063 -0.0449 0.01462 -0.0835 0.02094
000110 c5 2d a3 a7 b2 9d 8d aa d8 a5 19 26 83 29 5c 20
       0.09015 -0.02983 -0.00556 -0.05118 -0.02283 0.02382 0.04306 0.008514
000120 bb 24 cf 15 c0 a6 48 22 01 9f 6c 16 14 22 d4 26
       0.01848 0.001418 -0.02637 0.01227 -0.00684 0.001568 0.01187 0.02667
000130 ba a9 44 9b 68 a9 1e 29 90 26 f1 28 29 99 11 29
       -0.04474 -0.003548 -0.04224 0.03998 0.02563 0.0386 -0.00252 0.03958
000140 89 9a 5c a3 09 28 cf 23 f9 24 51 28 e0 21 28 ae
       -0.003191 -0.01437 0.03152 0.01525 0.01942 0.03372 0.011475 -0.0962
000150 b5 a3 cf 24 f0 a7 d9 ac b8 a8 d7 19 ce 29 0e a9
       -0.01505 0.01878 -0.031 -0.07574 -0.03687 0.002851 0.04535 -0.0395
000160 3b a8 fc 1c 56 26 b0 a8 8d 29 b5 22 63 a5 c3 2d
       -0.03305 0.004868 0.02475 -0.03662 0.04337 0.0131 -0.02104 0.09
000170 40 24 6b a9 ee a5 80 28 39 2b c5 1c 33 a5 04 ab
       0.0166 -0.04233 -0.02316 0.03516 0.05643 0.004658 -0.02031 -0.0548
000180 ee 2a 9c a0 06 a0 07 b0 31 ad 46 af ee 29 5e 25
       0.05414 -0.009 -0.00786 -0.1259 -0.0811 -0.11365 0.04633 0.02097
000190 5a 2f b5 a9 1b 1d 4c ad 55 2a 0e 27 7b 24 0f 17
       0.11487 -0.0446 0.004986 -0.08276 0.04947 0.02756 0.0175 0.001723
0001a0 65 24 92 2a 4b a8 ae ae a8 a9 50 2a b0 a9 59 ab
       0.01717 0.05133 -0.03354 -0.1044 -0.0442 0.04932 -0.04443 -0.0574
0001b0 d8 a7 41 2b e6 20 3a 2d d0 18 59 a0 37 2a a0 21
       -0.03064 0.05667 0.00957 0.08167 0.00235 -0.00849 0.04855 0.01099
0001c0 bf 2c 45 ac fe aa 3e a9 23 af c9 1f c9 2d b4 aa
       0.07416 -0.0667 -0.05463 -0.04095 -0.1115 0.007603 0.0904 -0.05237
0001d0 6b 2e 4f 9d 8a 2a 53 a7 77 a8 b9 a3 54 a2 ed a6
       0.1003 -0.005184 0.0511 -0.02861 -0.03488 -0.01508 -0.01236 -0.02705
0001e0 c7 ac c0 98 28 ac 43 9f a3 28 59 24 9a ac 41 ae
       -0.07465 -0.00232 -0.06494 -0.00709 0.03622 0.01698 -0.0719 -0.0977
0001f0 bf 9d 7b 24 f1 99 01 28 47 a7 0c 2b 23 b1 2e a6
       -0.00561 0.0175 -0.002901 0.03128 -0.02843 0.05505 -0.1605 -0.02414

model/batch_normalization_5/batchnorm/mul_1 f2 [128, 8]
000000 96 2a 55 30 fd 37 3a b9 a8 bb ab bd 13 b1 f6 33
       0.05145 0.1354 0.4993 -0.6533 -0.957 -1.417 -0.1586 0.2488
000010 13 37 31 ac a0 b9 39 b8 bb b3 01 35 d7 35 f3 35
       0.4421 -0.0655 -0.703 -0.528 -0.2416 0.3127 0.365 0.3718
000020 a7 37 94 3d 5d 29 51 37 58 b8 bb b7 21 bc a7 b6
       0.4783 1.395 0.0419 0.4573 -0.543 -0.4832 -1.032 -0.4158
000030 d5 b7 00 3a 0b b7 a4 a8 fc b1 1e bd ab ba fe bb
       -0.4895 0.75 -0.4402 -0.03625 -0.187 -1.279 -0.8335 -0.999
000040 25 bc 87 32 01 bc 68 b7 36 39 5d 31 2a 36 5d 35
       -1.036 0.204 -1.001 -0.463 0.6514 0.1676 0.3853 0.3352
000050 37 36 1c ae 94 b2 42 be 6e 34 a3 35 85 b4 a4 3a
       0.3884 -0.09546 -0.2056 -1.564 0.2769 0.3523 -0.2825 0.83
000060 86 ab d4 3a d3 b8 a7 35 f4 38 fa 3b 36 b8 83 b5
       -0.05878 0.8535 -0.603 0.3533 0.619 0.997 -0.5264 -0.3445
000070 cf b9 d5 b9 45 35 74 b9 11 24 1f 35 78 3d 20 32
       -0.726 -0.729 0.3293 -0.6816 0.01588 0.32 1.367 0.1914
000080 e5 3d e5 bb b9 39 76 2d db 30 f1 33 e1 35 3d b6
       1.474 -0.987 0.7153 0.0853 0.1517 0.2482 0.3674 -0.39
000090 75 37 c3 b1 75 3b ae ad 80 b9 98 ba 46 a7 ad ad
       0.466 -0.18 0.932 -0.08875 -0.6875 -0.824 -0.02841 -0.0887
0000a0 dd 3d 2e 34 e0 35 d8 38 92 35 4d a6 69 39 ef 3c
       1.466 0.2612 0.3672 0.6055 0.3481 -0.02461 0.6763 1.233
0000b0 63 38 28 b9 d7 b6 31 b1 6d b4 86 32 d8 36 c7 b6
       0.5483 -0.6445 -0.4275 -0.1622 -0.2766 0.2039 0.4277 -0.4236
0000c0 de b3 fb 3b b5 ba d5 36 40 b0 db b8 a4 b4 e2 36
       -0.2458 0.9976 -0.8384 0.427 -0.1328 -0.607 -0.29 0.4302
0000d0 42 2f 3f 3b 95 3c af b9 0a b1 e5 ae 48 b7 64 b7
       0.1134 0.906 1.1455 -0.7104 -0.1575 -0.1077 -0.455 -0.462
0000e0 61 af c1 b5 5d ae 3a b8 ea a0 6b 38 0a b8 9b b9
       -0.1153 -0.3596 -0.0994 -0.5283 -0.0096 0.5522 -0.505 -0.7007
0000f0 e2 b3 ce b4 2e 3d 1f 30 df b7 d5 2a c0 3a 7e ba
       -0.2463 -0.3003 1.295 0.1288 -0.492 0.05338 0.8438 -0.8115
000100 d0 b5 80 3e eb b8 1c b7 5f b3 2d 3d c5 b6 72 b2
       -0.3633 1.625 -0.6147 -0.4443 -0.2303 1.294 -0.423 -0.2014
000110 51 3d fb 3b 47 3a 73 ba 1a a4 72 35 43 b1 95 ba
       1.329 0.9976 0.7847 -0.806 -0.01602 0.3403 -0.1644 -0.8228
000120 2c 3c 21 36 e2 2f 3a 39 61 2d 8d b8 04 ba df 39
       1.043 0.383 0.12317 0.6533 0.08405 -0.569 -0.752 0.734
000130 56 b6 ce 29 6c b6 9f 32 be a8 65 33 e2 bd ee 38
       -0.396 0.04535 -0.4014 0.2069 -0.03705 0.2311 -1.471 0.616
000140 63 34 74 b8 95 a6 02 3c e7 bb 14 ba 9f a5 bd b7
       0.2742 -0.5566 -0.02571 1.002 -0.988 -0.76 -0.02196 -0.4836
000150 6d 35 39 ba ea 35 c9 b0 a0 bb 24 ba f6 35 b5 ae
       0.339 -0.778 0.3696 -0.1495 -0.953 -0.7676 0.3726 -0.1048
000160 1b 39 6c 33 0a 31 f4 b8 96 38 e3 2e 2d 3e e3 2f
       0.638 0.2319 0.1575 -0.619 0.573 0.1076 1.544 0.1232
000170 80 37 cf b6 7c b8 13 ba 77 b1 59 30 96 31 4c b1
       0.4688 -0.4255 -0.5605 -0.7593 -0.1708 0.1359 0.1746 -0.1655
000180 e2 34 b7 34 fb 39 19 b2 65 37 f4 3a 5d b9 aa 3a
       0.3052 0.2947 0.7476 -0.1906 0.4622 0.869 -0.6704 0.833
000190 6e 3b 72 3b 97 bc 4c 39 1f 34 fb 34 55 35 77 37
       0.9287 0.9307 -1.147 0.662 0.2576 0.3113 0.3333 0.4666
0001a0 0b be 69 b3 a5 b5 a1 bb 76 b0 ce 38 10 36 1e b6
       -1.511 -0.2316 -0.3528 -0.9536 -0.1394 0.6006 0.379 -0.3823
0001b0 02 37 da 31 05 36 fa b9 2e b9 46 b3 45 28 69 b4
       0.438 0.1829 0.3762 -0.747 -0.6475 -0.2273 0.03336 -0.2756
0001c0 80 39 bb 34 04 38 19 3a ca a9 85 2d cb b2 f0 bc
       0.6875 0.2957 0.502 0.762 -0.04523 0.08624 -0.2123 -1.234
0001d0 f0 bd 50 b4 14 b2 fc 37 a6 b9 85 3a 12 2c 34 38
       -1.484 -0.2695 -0.19 0.499 -0.706 0.815 0.0636 0.5254
0001e0 ac 39 66 b4 40 b9 72 3a c6 3c 78 34 b5 37 a3 3b
       0.709 -0.275 -0.6562 0.8057 1.193 0.2793 0.4817 0.9546
0001f0 92 33 a6 36 b5 b3 02 b5 67 34 4a bc 41 3c 2e b3
       0.2366 0.4155 -0.2408 -0.313 0.2751 -1.072 1.063 -0.2244

model/batch_normalization_6/batchnorm/mul_1 f2 [128, 128]
000000 b8 3c 83 b0 bf 2f 98 2c 62 b1 10 b5 37 34 af 29
       1.18 -0.141 0.12103 0.0718 -0.1682 -0.3164 0.2634 0.0444
000010 80 b3 81 b1 69 34 0d 23 4a 36 1b ab 15 2f d7 b4
       -0.2344 -0.172 0.2756 0.01377 0.393 -0.0555 0.11066 -0.3025
000020 a4 ba 31 ad 5d a6 8b 2a dd b5 2f 2e ac 35 fd 24
       -0.83 -0.0811 -0.02486 0.05112 -0.3665 0.0966 0.3545 0.01949
000030 7a a0 42 2f b2 32 60 2b 39 30 26 a1 17 b4 57 b1
       -0.00874 0.1134 0.2092 0.05762 0.132 -0.010056 -0.2556 -0.1669
000040 39 23 9d 20 1d 31 fb 30 b4 29 cc 35 d7 2d 12 24
       0.01411 0.00901 0.1598 0.1556 0.04456 0.3623 0.09125 0.0159
000050 92 b3 21 2e b8 23 ce b1 5e 30 1f ad 66 34 80 33
       -0.2366 0.09576 0.015076 -0.1814 0.1365 -0.08 0.275 0.2344
000060 61 30 80 2a 73 28 36 a0 16 b7 8a 2e b9 b5 c6 34
       0.1368 0.05078 0.03476 -0.008224 -0.4429 0.1022 -0.3577 0.2983
000070 28 31 4d ac 38 31 11 32 c3 9e 12 33 aa 29 f9 a9
       0.1611 -0.0672 0.1631 0.1896 -0.006603 0.221 0.04425 -0.04666
000080 f4 34 a7 b7 9d ad 60 1c 2d 37 ba 2f 43 36 1e 32
       0.3096 -0.4783 -0.0877 0.004272 0.4485 0.1207 0.3914 0.1912
000090 5f 29 c4 b1 a7 35 b0 ac b4 b1 a9 2f 08 af 50 b4
       0.04196 -0.1802 0.3533 -0.07324 -0.1782 0.1197 -0.10986 -0.2695
0000a0 f5 2d 59 2d b1 b3 08 2c 0a 2b 87 2c 97 2b c4 26
       0.0931 0.08356 -0.2404 0.063 0.055 0.07074 0.0593 0.02643
0000b0 c5 2c 46 af 29 31 2a 21 9c 2c 18 b0 ae ac fc 32
       0.0745 -0.11365 0.1613 0.010086 0.072 -0.1279 -0.0731 0.2183
0000c0 70 b0 87 38 ac b9 fe b6 12 ad 7c b3 89 b2 7e b4
       -0.1387 0.566 -0.709 -0.437 -0.0792 -0.2339 -0.2042 -0.2808
0000d0 d1 b0 08 a0 f0 2d 49 a5 fe ad f0 35 27 a8 c6 ae
       -0.1505 -0.00787 0.0928 -0.02065 -0.0936 0.371 -0.03244 -0.10583
0000e0 96 b4 e0 35 d8 2c 82 31 54 33 e2 b0 95 99 64 b1
       -0.2866 0.3672 0.0757 0.1721 0.229 -0.1526 -0.002726 -0.1685
0000f0 47 b6 09 31 40 12 53 2c 58 b1 5d b6 04 ab b5 b7
       -0.3923 0.1573 0.000763 0.06757 -0.167 -0.3977 -0.0548 -0.4817
000100 cc b6 0b ac 4a 2e c7 b4 db 23 82 2b f2 b1 ac 32
       -0.4248 -0.0632 0.09827 -0.2986 0.01534 0.05865 -0.1858 0.2085
000110 13 ab de b2 82 36 38 29 69 32 56 aa f0 ae 49 2f
       -0.05527 -0.2146 0.4067 0.04077 0.2003 -0.0495 -0.1084 0.11383
000120 04 35 10 b0 e8 32 05 ba 1b 1d 64 a8 cb 2d 64 aa
       0.3135 -0.127 0.2158 -0.7524 0.004986 -0.0343 0.0905 -0.04993
000130 10 aa 23 a7 53 30 48 26 84 30 18 1f 3b a1 13 29
       -0.04736 -0.02788 0.1351 0.02454 0.1411 0.006927 -0.010216 0.03964
000140 31 b1 36 b1 1d af dd ad 3e 31 e6 a8 28 2d 9f b3
       -0.1622 -0.1628 -0.11115 -0.0916 0.1638 -0.03827 0.08057 -0.2382
000150 76 b2 27 a1 51 2d 92 2d f6 2b 2d 30 3b b2 18 2d
       -0.2019 -0.01006 0.08307 0.08704 0.0622 0.1305 -0.1947 0.0796
000160 02 32 42 30 83 29 c3 28 1f 2a 21 28 a5 b1 88 38
       0.1877 0.133 0.04306 0.0372 0.04782 0.03226 -0.1764 0.5664
000170 1a b6 f4 30 80 b5 62 b1 8c ad 49 30 44 ae 42 b5
       -0.3813 0.1548 -0.3438 -0.1682 -0.0867 0.1339 -0.0979 -0.3286
000180 c7 b7 76 a5 87 32 f8 31 30 2f 09 34 97 a9 5d 29
       -0.486 -0.02133 0.204 0.1865 0.1123 0.2522 -0.04367 0.0419
000190 7f b4 07 b0 ee ab e2 ae 5e 32 57 b2 84 b0 d2 b4
       -0.281 -0.1259 -0.06195 -0.10754 0.199 -0.1981 -0.1411 -0.3013
0001a0 f1 a5 a4 27 24 b4 9a b4 72 1b 69 af 17 31 0f 34
       -0.02321 0.02985 -0.2588 -0.2876 0.003635 -0.1158 0.159 0.2537
0001b0 9c 2b 03 b6 5d 2d a1 b5 6e ae 99 b4 32 b0 1b b4
       0.05945 -0.3757 0.0838 -0.3518 -0.10046 -0.2874 -0.1311 -0.2566
0001c0 5a b7 03 af 33 2b 24 ad 6c b4 87 29 b2 2a ed 2d
       -0.4595 -0.10956 0.05624 -0.0803 -0.2764 0.04318 0.0523 0.0926
0001d0 6e 2d 13 a8 65 ab 54 34 27 31 d9 b2 0e ac 0f 26
       0.08484 -0.03183 -0.05777 0.2705 0.161 -0.214 -0.06335 0.02367
0001e0 d0 b1 67 24 b6 1f 35 29 a1 ac 07 27 63 b2 3a 33
       -0.1816 0.0172 0.00753 0.04068 -0.0723 0.02745 -0.1996 0.2258
0001f0 ab ae e3 2e 5d 2e bb b3 e6 34 85 ae 39 a7 08 b2
       -0.1042 0.1076 0.0994 -0.2416 0.3062 -0.10187 -0.02821 -0.1885

model/batch_normalization_7/batchnorm/mul_1 f2 [128, 128]
000000 3d b2 bd 30 2c 30 a7 28 18 2c 13 2b 9a a9 b9 ac
       -0.195 0.1481 0.1304 0.03635 0.06396 0.05527 -0.04376 -0.0738
000010 c1 2d b3 a6 f4 33 98 a6 04 b0 3e 2c 16 2d 3f ad
       0.0899 -0.02617 0.2485 -0.02576 -0.1255 0.0663 0.07947 -0.082
000020 69 27 50 30 58 b4 7f 35 e5 15 39 ad 0b 27 56 2e
       0.02895 0.1348 -0.2715 0.3435 0.001439 -0.0816 0.02751 0.099
000030 3f 36 0b 33 4d b4 aa 25 e1 ad 30 2a 17 b5 1b b3
       0.3904 0.2201 -0.2688 0.02213 -0.09186 0.04834 -0.318 -0.222
000040 25 25 c3 aa d5 2e d2 30 f1 31 fe 32 5f b4 07 b4
       0.0201 -0.05283 0.10675 0.1506 0.1857 0.2185 -0.2732 -0.2517
000050 39 27 1c 34 d6 b4 39 19 08 2d c7 31 a0 36 27 34
       0.02821 0.2568 -0.3022 0.00255 0.0786 0.1805 0.414 0.2595
000060 17 b1 40 ad 64 33 1b a9 51 ab 8e aa fc 2e 5a aa
       -0.159 -0.08203 0.231 -0.0399 -0.05716 -0.0512 0.10913 -0.04962
000070 86 32 36 b5 2c 2e 43 b4 27 2a a9 b7 90 2d 30 1b
       0.2039 -0.3257 0.09644 -0.2664 0.04807 -0.4788 0.0869 0.00351
000080 7e b1 82 1c 2a b5 57 33 7b 34 39 2d 90 32 02 ac
       -0.1716 0.004402 -0.3228 0.2294 0.28 0.0816 0.2051 -0.0626
000090 3f b2 6c af a5 30 a2 b1 bb 31 9d 2f 87 b3 57 b2
       -0.1952 -0.11597 0.1451 -0.176 0.1791 0.11896 -0.2352 -0.1981
0000a0 a3 b0 f0 2c f1 27 3d ac d2 b3 a7 ac 36 35 b6 2a
       -0.1449 0.07715 0.03102 -0.0662 -0.2444 -0.0727 0.3257 0.05243
0000b0 3d b2 80 a8 d3 ae 07 2c e1 b3 0d 31 0a 35 6d 32
       -0.195 -0.03516 -0.1066 0.0629 -0.2462 0.1578 0.315 0.2008
0000c0 37 2d ea a9 ca 30 71 2c 61 2e e3 2e 9b b7 cb 31
       0.0815 -0.0462 0.1497 0.0694 0.0997 0.1076 -0.4753 0.181
0000d0 7a 1b 89 34 6f 2d b6 b1 fd 1f b8 2c b0 31 e8 36
       0.00365 0.2834 0.0849 -0.1785 0.0078 0.0737 0.1777 0.4316
0000e0 cd 24 d2 ae c0 2f c1 25 7f b0 4f ad d8 ae 45 ad
       0.01875 -0.10657 0.1211 0.02248 -0.1405 -0.08295 -0.10693 -0.08234
0000f0 1e 31 44 34 ba b6 aa a9 0b 2c 3e 34 ae 31 89 ac
       0.1599 0.2666 -0.4204 -0.04425 0.0632 0.2651 0.1775 -0.07086
000100 dc 30 6f 9d 37 2c 65 2b fa 30 34 32 a4 b1 23 b7
       0.1519 -0.005306 0.06586 0.05777 0.1555 0.1938 -0.1763 -0.446
000110 53 b1 98 ae c3 a2 ce 2f f8 28 7d a0 be 29 74 2e
       -0.1664 -0.103 -0.01321 0.12195 0.03882 -0.008766 0.04486 0.1008
000120 95 2c e2 b1 6b b4 02 29 bd 2f 6c b1 45 ac 3a 31
       0.0716 -0.1838 -0.2761 0.03912 0.1209 -0.1694 -0.0667 0.1633
000130 a0 90 bf a2 57 a6 e0 b0 5e 27 1b 25 ea b0 26 ab
       -0.0005646 -0.013176 -0.02477 -0.1523 0.02878 0.01994 -0.1536 -0.05585
000140 f2 b3 a8 30 cf a7 39 ad 94 ab 82 b1 69 34 27 30
       -0.2483 0.1455 -0.0305 -0.0816 -0.0592 -0.1721 0.2756 0.1298
000150 78 b2 1f b3 d0 ac 2d b4 aa aa 13 35 32 b2 ba 25
       -0.2021 -0.2225 -0.0752 -0.261 -0.05206 0.3171 -0.1936 0.02237
000160 1a 34 98 ad 0a 2b 30 2c 8b a8 d6 b2 9e 30 5b b4
       0.2563 -0.0874 0.055 0.0654 -0.0355 -0.2136 0.1443 -0.2722
000170 0d 2b 6e 34 8f 2a 04 ac a3 36 de 30 6c a1 00 30
       0.05508 0.2769 0.05124 -0.06274 0.4148 0.1521 -0.01059 0.125
000180 bd 29 d9 2f df b0 31 b1 94 ab 71 b5 1e ad e0 b0
       0.04483 0.1226 -0.1522 -0.1622 -0.0592 -0.34 -0.07996 -0.1523
000190 ce b5 41 b4 6a a4 fa af 20 31 68 af 9a 30 7b b3
       -0.3628 -0.2659 -0.01724 -0.12463 0.1602 -0.1157 0.1438 -0.2338
0001a0 69 35 d7 b0 b3 a9 f4 2c a0 b2 e9 33 e8 b0 d2 2b
       0.3381 -0.1512 -0.04453 0.0774 -0.207 0.2472 -0.1533 0.0611
0001b0 01 35 82 33 53 31 c2 a3 e3 2d 93 a8 9c 2e ea ad
       0.3127 0.2346 0.1664 -0.01515 0.092 -0.03574 0.1033 -0.0924
0001c0 98 33 31 b1 7b af 4b b4 87 ae a4 b1 5a b4 fb 21
       0.2373 -0.1622 -0.1169 -0.2683 -0.102 -0.1763 -0.272 0.01168
0001d0 96 31 37 b5 19 b3 00 2c ec 33 37 35 45 29 90 a8
       0.1746 -0.326 -0.2218 0.0625 0.2476 0.326 0.04117 -0.03564
0001e0 a2 33 4b 2a 43 21 43 2d 51 ae 7a 9e 6f a5 16 b0
       0.2385 0.04916 0.01028 0.0822 -0.0987 -0.006325 -0.02122 -0.1277
0001f0 ac b1 d1 b6 83 2e 21 b3 34 2c 5c 2f 97 33 1d 35
       -0.1772 -0.426 0.10175 -0.2228 0.0657 0.115 0.2372 0.3196
