compression/autoencoder/float16_quantization/models_compressed/model_gearbox.tflite (tflite, 540592 bytes, 20 tensors)

model/activation/Relu;model/batch_normalization/batchnorm/add_1 f2 [128]
00000000: a2b9 19bf 1848 24b9 5d3e 97bd 013d 1c40
00000010: b242 8b45 3fc6 5748 76c7 012f e938 63c6
00000020: 0c3e 49ba be44 36c1 82c0 90c6 df40 7440
00000030: bebe 5541 39bc 14c0 e83a 2444 a13c 6e3f
00000040: 4a46 46c6 63ba 6441 96c0 fbbe f4c5 7ec3
00000050: 7245 6244 c13a 3e27 5dc4 a43f b3c5 0246
00000060: 203f 4e3d 6d49 63c1 6644 c738 0e3f 4e44
00000070: d9c0 ac42 dfc1 9bb5 81c7 2bbe 0cbd 2fc8
00000080: 1d45 abb8 b63b 43c0 3c3f eabf c841 d6c4
00000090: 2ab8 10c5 cdc5 7bb8 62c5 f3b8 adc2 d943
000000a0: e9c0 1c43 00be 0f46 a841 b6b9 dc33 04c0
000000b0: 2f41 1dbd a1b4 213f 1bc4 b6bd 17c1 ee42
000000c0: 76bf cec0 72c1 73b9 1e40 0cc4 2547 5ec4
000000d0: dcbe efc4 c43d fec0 5e40 e644 0ea4 6bc5
000000e0: e2bf 7144 41c0 1f48 c1c4 f6c1 20b9 ba43
000000f0: e046 a3bd 4238 993d 1e45 efbc 80c4 3d45
-0.704 -1.774 8.19 -0.6426 1.591 -1.397 1.251 2.055
3.348 5.543 -6.246 8.68 -7.46 0.10944 0.614 -6.387
1.512 -0.7856 4.742 -2.605 -2.254 -6.562 2.436 2.227
-1.686 2.666 -1.056 -2.04 0.8633 4.14 1.157 1.857
6.29 -6.273 -0.7983 2.695 -2.293 -1.745 -5.953 -3.746
5.445 4.383 0.844 0.02829 -4.363 1.91 -5.7 6.008
1.781 1.326 10.85 -2.693 4.4 0.597 1.764 4.305
-2.424 3.336 -2.936 -0.3503 -7.504 -1.542 -1.262 -8.37
5.113 -0.5835 0.964 -2.13 1.809 -1.979 2.89 -4.836
-0.5205 -5.062 -5.8 -0.56 -5.383 -0.6187 -3.338 3.924
-2.455 3.555 -1.5 6.06 2.828 -0.714 0.2456 -2.008
2.592 -1.278 -0.2893 1.782 -4.105 -1.428 -2.545 3.465
-1.865 -2.402 -2.723 -0.681 2.059 -4.047 7.145 -4.367
-1.715 -4.934 1.441 -2.496 2.184 4.9 -0.01584 -5.418
-1.971 4.44 -2.127 8.24 -4.754 -2.98 -0.6406 3.863
6.875 -1.409 0.532 1.399 5.117 -1.233 -4.5 5.24

model/activation_1/Relu;model/batch_normalization_1/batchnorm/add_1 f2 [128]
00000000: 5138 d228 3fb8 fd35 5738 a12f ac2f 6e34
00000010: f239 96b9 9ea7 70b3 4d30 1636 6a96 aa34
00000020: 71b8 8ab3 6c32 f333 c730 5031 70b6 5834
00000030: 162d abb4 0ebb a4af 97bc 91bf 4235 9a3c
00000040: 1334 17b0 492b e7b5 b229 1a34 e9b5 5fae
00000050: 11b3 7129 5c38 e335 19b8 aeb5 e9b7 49b6
00000060: 9c38 7d31 a9b7 46b0 89b2 f8b5 61b1 f8b5
00000070: f7b4 f1b7 a0b8 4039 e4b4 2a39 502e 932e
00000080: ce25 3b37 bf2a 33b4 f037 3038 fd36 2937
00000090: f12f 9f3a 9cb4 bdb2 9e33 6636 8eb5 9bb3
000000a0: 452c ad38 0faf 5739 7e2a 0daf ee29 2632
000000b0: bc35 323a 2130 1935 90b2 84b4 7d39 253c
000000c0: db39 41ae 03b1 5637 0c29 02ac b6bc 9cb4
000000d0: ca2f 3da9 eb31 d739 532d ad3b b330 db25
000000e0: d82c 4639 89af 48bb fdb7 0cb7 b337 f3b0
000000f0: f72f cd35 0f2f 1a33 c3b2 e53a 9933 0cb4
0.5396 0.03766 -0.531 0.3743 0.5425 0.1192 0.1199 0.2769
0.743 -0.698 -0.02975 -0.2324 0.1344 0.3804 -0.001566 0.2915
-0.555 -0.2356 0.2007 0.2484 0.1493 0.166 -0.4023 0.2715
0.07947 -0.2917 -0.882 -0.1194 -1.147 -1.892 0.3286 1.15
0.2546 -0.1278 0.05692 -0.369 0.0445 0.2563 -0.3694 -0.09955
-0.2208 0.0425 0.545 0.368 -0.512 -0.355 -0.4944 -0.3928
0.576 0.1715 -0.4788 -0.1335 -0.2042 -0.373 -0.1681 -0.373
-0.3103 -0.4963 -0.578 0.6562 -0.3057 0.6455 0.09863 0.1027
0.02267 0.452 0.0527 -0.2625 0.496 0.5234 0.4368 0.4475
0.1241 0.8276 -0.288 -0.2106 0.238 0.4 -0.3472 -0.2377
0.0667 0.5845 -0.1103 0.6675 0.05072 -0.11017 0.04633 0.1921
0.3584 0.7744 0.129 0.3186 -0.2051 -0.2822 0.686 1.036
0.732 -0.0977 -0.1566 0.4585 0.03943 -0.0626 -1.178 -0.288
0.1217 -0.04092 0.1849 0.73 0.0832 0.9595 0.1469 0.02287
0.0757 0.659 -0.11774 -0.91 -0.4993 -0.4404 0.4812 -0.1547
0.12445 0.3625 0.1103 0.2219 -0.2113 0.862 0.2374 -0.253

model/activation_2/Relu;model/batch_normalization_2/batchnorm/add_1 f2 [128]
00000000: d9bb b3b0 b034 3fb4 2430 dd34 6b32 11b1
00000010: 1639 ae31 f4b8 2b36 883a a5b3 9da6 1439
00000020: fc3b 8737 193a c0b4 c8b5 0cc0 48b3 57b9
00000030: 19c4 67b3 1438 5994 e9a2 3baa 80b0 6d9e
00000040: 7834 0fb1 4f39 472f af3a b9af 5030 9fa5
00000050: b4ba 7f23 b133 1a37 2638 6fb5 1435 b9b0
00000060: 47b4 10b4 8733 0134 f1b3 04b8 22b7 37af
00000070: a037 39b7 9038 ae36 af2f 49b1 2436 6c38
00000080: c524 3ca9 5a31 9320 eb37 1726 5f38 7db7
00000090: 4e30 5533 8336 d332 6e37 5f35 f135 70b4
000000a0: 122d 7235 b12e 8538 85b7 96ac 1235 20bc
000000b0: 76b0 1837 2a39 d039 a0b4 0b38 c8b5 372a
000000c0: 9e35 56b5 9733 4b3a 4a31 e333 242d 5132
000000d0: 5734 9933 b3b3 43ac f338 76a6 7332 4c34
000000e0: 2bb5 2732 8232 912e 0d30 7a36 1f33 3a37
000000f0: 972f 3d32 e232 c22b 1534 16bc 94a8 4736
-0.981 -0.1469 0.293 -0.2654 0.1294 0.304 0.2006 -0.1583
0.6357 0.1775 -0.619 0.3855 0.8164 -0.2389 -0.02583 0.635
0.998 0.4705 0.762 -0.2969 -0.3613 -2.023 -0.2275 -0.6675
-4.098 -0.2313 0.51 -0.001061 -0.0135 -0.04868 -0.1406 -0.006275
0.2793 -0.1581 0.6636 0.1137 0.8354 -0.12067 0.1348 -0.02196
-0.838 0.01464 0.2404 0.4438 0.5186 -0.3396 0.3174 -0.1476
-0.2673 -0.254 0.2352 0.2502 -0.2482 -0.502 -0.4458 -0.11273
0.4766 -0.4514 0.5703 0.4175 0.12006 -0.1652 0.3838 0.5527
0.01863 -0.0409 0.1672 0.008934 0.4949 0.02379 0.5464 -0.468
0.1345 0.2291 0.407 0.2133 0.4644 0.3357 0.3713 -0.2773
0.0792 0.3403 0.10455 0.565 -0.47 -0.07166 0.317 -1.031
-0.1394 0.4434 0.6455 0.7266 -0.289 0.5054 -0.3613 0.04855
0.351 -0.3335 0.2372 0.7866 0.1653 0.2465 0.0803 0.1974
0.2712 0.2374 -0.2406 -0.0666 0.6187 -0.02524 0.2015 0.2686
-0.323 0.1923 0.2034 0.1026 0.1266 0.4048 0.2225 0.4517
0.1186 0.195 0.2151 0.0606 0.2551 -1.021 -0.03577 0.3923

model/activation_3/Relu;model/batch_normalization_3/batchnorm/add_1 f2 [128]
00000000: 3639 a935 d434 aa31 6635 6134 0335 f938
00000010: a9bd 4629 4f36 15be d136 9337 b134 1235
00000020: 013c 2f30 933a 8437 c737 a0bc 2f36 e635
00000030: 9f37 16b1 84b3 d335 5b3c ed2c c630 9d2c
00000040: cc33 b836 2d39 b43b 833b 9332 aa38 b7ac
00000050: fd31 7c39 4c38 1b2f a5b6 882b 40ab 2038
00000060: fb30 bcbf b238 5d24 1cb7 4638 6e35 07b5
00000070: 293d 73b7 673a 013b c634 d43a fe33 033b
00000080: a13a 9fbf 42b2 2535 fc37 3baf ab37 1538
00000090: 72af 9ea9 13be 1d34 1136 cc31 64b7 3139
000000a0: 223a f9a2 3532 a1bc cf39 c533 5b3a 33b4
000000b0: 5838 acb0 5937 67b3 d0a9 e538 5020 1fb0
000000c0: 5328 63b3 c036 2e39 599f 7abd 9ab3 da36
000000d0: d8bc 0f36 06bf 8b39 44b4 802e 7538 bb39
000000e0: c0b4 95b1 a82d 62b4 cf38 04ae 3138 383a
000000f0: 1e3a 5234 c21e bd36 1db8 be39 033c 7332
0.6514 0.3538 0.3018 0.177 0.3374 0.2737 0.3132 0.6216
-1.415 0.0412 0.3943 -1.5205 0.426 0.4734 0.2932 0.317
1.001 0.1307 0.822 0.4697 0.486 -1.156 0.3865 0.3687
0.4763 -0.1589 -0.2349 0.364 1.089 0.07697 0.1492 0.0721
0.2437 0.42 0.647 0.963 0.939 0.2054 0.583 -0.07367
0.1871 0.6855 0.537 0.111 -0.4153 0.05884 -0.05664 0.5156
0.1556 -1.934 0.587 0.01704 -0.4443 0.534 0.3394 -0.3142
1.29 -0.4656 0.8003 0.8755 0.2983 0.8535 0.2498 0.8765
0.8286 -1.905 -0.1956 0.3215 0.499 -0.113 0.4792 0.5103
-0.11633 -0.04388 -1.519 0.257 0.3792 0.1812 -0.462 0.649
0.7666 -0.01362 0.194 -1.157 0.726 0.2428 0.7944 -0.2625
0.543 -0.146 0.4592 -0.2313 -0.0454 0.612 0.00842 -0.1288
0.03378 -0.2308 0.4219 0.6475 -0.007175 -1.369 -0.2375 0.4282
-1.211 0.3787 -1.756 0.693 -0.2666 0.10156 0.557 0.7163
-0.2969 -0.1744 0.0884 -0.274 0.601 -0.094 0.524 0.7773
0.7646 0.27 0.0066 0.4211 -0.514 0.718 1.003 0.2015

model/activation_4/Relu;model/batch_normalization_4/batchnorm/add_1 f2 [8]
00000000: d13e c13f 0a40 5f40 b23f e440 6d40 f33e
1.704 1.938 2.02 2.186 1.924 2.445 2.213 1.737

model/activation_5/Relu;model/batch_normalization_5/batchnorm/add_1 f2 [128]
00000000: 5e3c 0330 55c6 4fc1 3245 0942 7f45 98c1
00000010: fd3c 8e42 ddc0 adbf f8bd 79c3 43c3 c73c
00000020: 5241 e9bc c445 2544 0e2d cac1 62c0 933e
00000030: a442 0d31 7bbf 7cb8 143a 2ebe a5c6 b843
00000040: 1a3c 8d44 9b3b 07b9 1041 9ac4 08c6 cc3d
00000050: 783f fab4 98b4 66ba 8144 33c4 0e3c f3c2
00000060: 5a3c 68c4 98c0 b138 08bc 8a3a e438 153e
00000070: 33c1 7d44 d942 2c3d 86b8 9533 5ec0 c13d
00000080: 2c3e c6c5 48ba 45bc dfbe 7342 e744 bcaa
00000090: 7b42 f7c2 a1b6 a5b2 6ec5 cfc0 a9af 863e
000000a0: 683a 88ba f543 653b e5a0 fdb9 b9c3 7d40
000000b0: a62f 4fbd aac7 9141 42c0 29c0 99c0 32c1
000000c0: 202c b5c0 5238 f044 15c8 2431 d8ba 38c1
000000d0: 2ec3 913b 39c4 8d3a 7641 93be adbc 1842
000000e0: 0ac3 3945 c6bb e2c3 3737 1fc3 98c0 5844
000000f0: 67c0 433a a3c0 a3bc 11c0 7bbf e244 aeb8
1.092 0.1254 -6.332 -2.654 5.195 3.018 5.496 -2.797
1.247 3.277 -2.432 -1.919 -1.492 -3.736 -3.63 1.194
2.66 -1.228 5.766 4.145 0.079 -2.895 -2.191 1.644
3.32 0.1578 -1.87 -0.5605 0.76 -1.545 -6.645 3.86
1.025 4.55 0.9507 -0.6284 2.531 -4.6 -6.03 1.449
1.867 -0.311 -0.287 -0.8 4.504 -4.2 1.014 -3.475
1.088 -4.406 -2.297 0.5864 -1.008 0.8174 0.6113 1.5205
-2.6 4.49 3.424 1.293 -0.5654 0.2369 -2.184 1.438
1.543 -5.773 -0.785 -1.067 -1.718 3.225 4.902 -0.0526
3.24 -3.482 -0.4143 -0.2076 -5.43 -2.404 -0.1197 1.631
0.801 -0.8164 3.979 0.9243 -0.00956 -0.7485 -3.861 2.244
0.1195 -1.327 -7.664 2.783 -2.129 -2.08 -2.299 -2.598
0.06445 -2.354 0.54 4.938 -8.164 0.1606 -0.8555 -2.61
-3.59 0.946 -4.223 0.819 2.73 -1.644 -1.169 3.047
-3.52 5.223 -0.9717 -3.941 0.451 -3.56 -2.297 4.344
-2.201 0.7827 -2.318 -1.159 -2.033 -1.87 4.883 -0.585

model/activation_6/Relu;model/batch_normalization_6/batchnorm/add_1 f2 [128]
00000000: 7fb0 9e2e 70b5 c235 193a 0535 212b 433e
00000010: 1f3c b73c 5d32 0db6 6c31 7f3a 5138 22b9
00000020: 2b3d 08b8 b738 35b2 a525 f0b5 bf37 373d
00000030: 4537 283c f4ae cc37 8f31 d339 a836 dbb4
00000040: 6d25 f92e ec3b d939 11b8 20b7 6839 b9ba
00000050: 65b8 4034 fcb8 cb2b 8bb8 f537 422e ae37
00000060: ac33 7ab5 cdb8 96ad a3b2 0532 3d34 84bb
00000070: 31bc b93a 7339 fa36 ebae 543a 09ad fea5
00000080: b329 45ad 11b9 3232 7a37 b034 7939 723c
00000090: 11b8 7b37 e939 b835 5238 08bb 7239 88bd
000000a0: 36b8 9b3b 0b2e 163b 4b3c 7c38 95b8 fab8
000000b0: f9bb 0c26 0036 2c3b fcb0 133c 88b4 e23b
000000c0: 713a 362d 5636 26bd b5ba 7038 d733 6833
000000d0: 1d3a e33a c7af ea3c 7831 deb1 bd3b 31b1
000000e0: ef31 0b38 bf3b a427 53b5 20b0 df38 4a34
000000f0: 58ba 9ea3 dcb7 33a8 692b 43b8 b738 0738
-0.1405 0.1034 -0.3398 0.3599 0.762 0.3137 0.0557 1.565
1.03 1.179 0.1989 -0.3782 0.1694 0.812 0.5396 -0.6416
1.292 -0.504 0.5894 -0.194 0.02205 -0.371 0.4841 1.304
0.4543 1.039 -0.10864 0.4873 0.1737 0.728 0.416 -0.3035
0.0212 0.10895 0.99 0.731 -0.5083 -0.4453 0.676 -0.8403
-0.5493 0.2656 -0.623 0.06088 -0.568 0.4973 0.0978 0.48
0.2397 -0.3423 -0.6 -0.0873 -0.2074 0.1881 0.265 -0.9395
-1.048 0.8403 0.681 0.436 -0.1081 0.791 -0.0787 -0.0234
0.04453 -0.08234 -0.6333 0.1936 0.4673 0.293 0.684 1.111
-0.5083 0.4675 0.739 0.3574 0.54 -0.879 0.6807 -1.383
-0.5264 0.9507 0.0944 0.8857 1.073 0.5605 -0.5728 -0.622
-0.9966 0.02362 0.375 0.8965 -0.1558 1.019 -0.2832 0.9854
0.805 0.0814 0.396 -1.287 -0.8384 0.5547 0.245 0.2314
0.764 0.861 -0.1215 1.229 0.1709 -0.1833 0.9673 -0.1622
0.1854 0.5054 0.9683 0.02985 -0.3328 -0.1289 0.609 0.268
-0.793 -0.01488 -0.4912 -0.0328 0.0579 -0.5327 0.5894 0.5034

model/activation_7/Relu;model/batch_normalization_7/batchnorm/add_1 f2 [128]
00000000: d7ba d3b1 d739 3f36 5bb4 1e34 a03e 6535
00000010: 8832 8639 1bb1 acb8 3332 e2ad d038 6f39
00000020: 9334 ec2d 43b1 8a31 6439 88ba bc3e 9e3a
00000030: 3431 e635 dd25 3db3 60b6 f638 7d3a 74b9
00000040: e9b0 7436 3439 9335 5ab8 6bb9 a534 143c
00000050: 89b3 29bc a232 a1b4 dd3c 0339 023d 0e34
00000060: 2f35 3e36 6f37 1b2d e9b5 acb9 fe37 2534
00000070: b7b5 39bc 9138 8031 74bd 11b1 f438 743d
00000080: 0d3c 413a 5639 0533 462e 95bb 2637 f237
00000090: faad bfbc 0b34 a535 4f2e e9b6 9a3c 2b34
000000a0: 002a 7136 9a3c 2fb5 7c32 ae3c acb9 2bb2
000000b0: e436 2934 be3d 34b6 7738 98b8 f738 1db5
000000c0: da39 dd30 aaaf 7936 2e37 c0b8 09b4 d438
000000d0: 2f34 e1b9 1734 2eb9 e33a 4e3b 2b39 f73c
000000e0: 3fb1 5634 96b2 5836 2c39 8438 c436 ea24
000000f0: ba3f 7d29 593b 9737 4039 d336 d930 d13a
-0.855 -0.182 0.73 0.3904 -0.2722 0.2573 1.656 0.3372
0.2041 0.6904 -0.1595 -0.584 0.1937 -0.0919 0.6016 0.679
0.286 0.0925 -0.1644 0.1731 0.674 -0.8164 1.684 0.827
0.1626 0.3687 0.0229 -0.2262 -0.3984 0.62 0.811 -0.6816
-0.1534 0.4033 0.6504 0.3484 -0.544 -0.6772 0.2903 1.02
-0.2355 -1.04 0.2073 -0.2893 1.216 0.6265 1.252 0.2534
0.324 0.3901 0.4646 0.0798 -0.3694 -0.709 0.4995 0.259
-0.3572 -1.056 0.571 0.1719 -1.363 -0.1583 0.619 1.363
1.013 0.7817 0.667 0.2194 0.098 -0.9478 0.4468 0.4966
-0.0934 -1.187 0.2527 0.3528 0.0986 -0.432 1.15 0.2605
0.04688 0.4026 1.15 -0.324 0.2026 1.17 -0.709 -0.1927
0.4307 0.26 1.436 -0.3877 0.558 -0.574 0.6206 -0.3196
0.7314 0.152 -0.11975 0.4045 0.4487 -0.5938 -0.2522 0.6035
0.2615 -0.735 0.2556 -0.6475 0.861 0.913 0.646 1.241
-0.164 0.271 -0.2058 0.3965 0.6465 0.5645 0.4229 0.0192
1.932 0.04288 0.9185 0.4744 0.6562 0.4265 0.1515 0.852

model/activation_8/Relu;model/batch_normalization_8/batchnorm/add_1 f2 [128]
00000000: 4040 d239 3940 543b 2bbd 6339 c03b 693f
00000010: 103a 6b3d 7637 3e3f 9c3a efb9 273d 9a3d
00000020: 8b3a d93d 2341 b137 a643 403a 773d c93d
00000030: 40b2 e239 c33f 7240 3ab5 3740 143f 483a
00000040: 283c 7c3f ea3b b331 fa3f e23d bd3c 7d3c
00000050: 9f3a 00ad 0d39 2b3e 3f40 6f40 4b3f 9f3c
00000060: 1239 873b 443e d338 763c b739 6840 e141
00000070: 653e d039 903c 8638 db41 903f 913f 8539
00000080: 5f3b 0e3e 2d3a a740 4930 b83f d73d be3d
00000090: d23f b840 7041 383c ac3a c13f 6f3c 8e3e
000000a0: c03b c83b c041 d73d 5939 903f 6640 4943
000000b0: 773b 1d41 1d3d b03a b63b 993b f03b 5536
000000c0: 0bb4 f8a9 4030 9d3e 2239 97b0 cd39 f138
000000d0: 8fbb b63f 223f 4e2f 78b8 9a40 243c c040
000000e0: 993a 4239 793e 3c35 b340 62af 6c38 e640
000000f0: cb3f d5ae 0838 3c3d 313f 0f39 b33b eb3c
2.125 0.7275 2.111 0.916 -1.292 0.6733 0.9688 1.853
0.758 1.3545 0.4663 1.811 0.826 -0.7417 1.288 1.4
0.818 1.462 2.568 0.4807 3.824 0.7812 1.366 1.446
-0.1953 0.7354 1.94 2.223 -0.3267 2.107 1.77 0.785
1.039 1.871 0.9893 0.1781 1.994 1.471 1.185 1.122
0.8276 -0.0781 0.6313 1.542 2.123 2.217 1.823 1.155
0.634 0.941 1.566 0.603 1.115 0.7144 2.203 2.94
1.599 0.7266 1.141 0.5654 2.928 1.891 1.892 0.69
0.9214 1.514 0.772 2.326 0.1339 1.93 1.46 1.436
1.955 2.36 2.719 1.055 0.834 1.938 1.108 1.639
0.9688 0.9727 2.875 1.46 0.6685 1.891 2.2 3.643
0.933 2.557 1.278 0.836 0.964 0.9497 0.992 0.3958
-0.2527 -0.04663 0.1328 1.653 0.6416 -0.1434 0.725 0.6177
-0.945 1.928 1.783 0.11414 -0.5586 2.3 1.035 2.375
0.8247 0.657 1.618 0.3271 2.35 -0.11536 0.5527 2.45
1.948 -0.10675 0.504 1.309 1.798 0.6323 0.9624 1.2295

model/batch_normalization/batchnorm/mul_1 f2 [128, 640]
00000000: 8196 5d91 b50e 2c15 4e19 4818 0791 551c
00000010: c118 f994 e314 3996 8698 878c 9090 6f99
00000020: f19d 4798 220f 6b00 9797 fc9b 4e94 959b
00000030: 9799 9a17 7b16 b593 3e9e a29c 6795 5895
00000040: 499b 5e95 ce9c 0a9d 6299 239b 3596 d298
00000050: d49d ae98 d117 d621 7323 2e1b 4918 2f15
00000060: 390a ef18 4917 d815 991b dc21 be17 b714
00000070: 9a93 b293 b194 3e8d 5e1d 351c 341b 099c
00000080: 6d9a 989e de18 0d1e ab8c 9210 be8b 4915
00000090: 8418 d013 f298 da9d b19b 7d9a 8f9b 4795
000000a0: 121a 6791 f713 fc13 6b96 4293 f219 8e91
000000b0: 5916 e296 1915 3e99 8d8e 3c15 999c c918
000000c0: c294 d38d 3996 d010 c313 7910 df12 6297
000000d0: ba93 7196 fe9a 4097 2582 5401 1819 3d89
000000e0: c217 4c15 8210 4c94 8196 d309 4b98 2995
000000f0: 1596 0f8e 5d17 1719 f19a da99 7218 eb0b
00000100: c797 d394 f20e 6911 8416 5018 4d95 921b
00000110: 611c dd98 f012 2599 6496 fe12 6e06 119b
00000120: af9d 6896 4011 9d0d 3a96 0c9a e899 069d
00000130: d09a c215 4313 7e14 969e e598 4094 4298
00000140: 1f9a 0796 ee9b 3d9d c59a b698 ed0c 3199
00000150: fa9c ff98 6e1a 2f22 ff22 c819 2118 2015
00000160: 8090 db19 1016 6618 401c ba21 0219 7017
00000170: 4592 4e97 5595 7192 9f1c e41b f314 6098
00000180: dd9a 349b 8c18 111d fe13 f694 9d14 6c10
00000190: be1b 8c93 2a9b f19c 179a 0696 c09a 6293
000001a0: 6719 af0a 110d 6717 9096 d511 7b17 d515
000001b0: 0618 cf99 9513 6697 c294 ec15 839a 2717
000001c0: 1290 6e95 9689 8316 8d8e 0317 5f14 6b97
000001d0: 9196 788d b49d 0c8e 9a18 e514 f31b 1a0b
000001e0: 5319 d117 8c8d 1488 d20a 4a91 5394 f590
000001f0: b08f 6114 ad15 9c19 c797 f69a 3c19 a616
-0.001588 -0.0006547 0.0004094 0.001263 0.00259 0.00209 -0.0006137 0.00423
0.002321 -0.001214 0.001193 -0.001519 -0.002209 -0.0002763 -0.000557 -0.002653
-0.005802 -0.002089 0.0004354 6.4e-06 -0.001853 -0.003899 -0.001051 -0.003702
-0.00273 0.001856 0.001582 -0.000941 -0.006096 -0.004524 -0.001319 -0.001305
-0.003557 -0.00131 -0.004692 -0.00492 -0.002628 -0.003485 -0.001515 -0.002354
-0.00569 -0.002285 0.001908 0.0114 0.01455 0.003506 0.002092 0.001266
0.0001899 0.002409 0.001779 0.001427 0.00371 0.011444 0.00189 0.001151
-0.000928 -0.0009394 -0.001145 -0.00032 0.00524 0.00411 0.003517 -0.00394
-0.003138 -0.00644 0.002377 0.00591 -0.000285 0.000558 -0.0002363 0.00129
0.002205 0.0009537 -0.002415 -0.005714 -0.003756 -0.003168 -0.00369 -0.001288
0.002964 -0.0006595 0.0009723 0.0009747 -0.001567 -0.000886 0.002903 -0.000678
0.00155 -0.00168 0.001245 -0.00256 -0.0003998 0.001278 -0.00449 0.002337
-0.001162 -0.0003555 -0.001519 0.0005875 0.0009475 0.000546 0.0008388 -0.001802
-0.000943 -0.001573 -0.003414 -0.00177 -3.27e-05 2.027e-05 0.002487 -0.0001599
0.001894 0.001293 0.0005503 -0.001049 -0.001588 0.0001777 -0.002096 -0.00126
-0.001485 -0.0003698 0.001798 0.002485 -0.00339 -0.002857 0.00217 0.0002416
-0.001899 -0.001178 0.000424 0.0006604 0.001591 0.002106 -0.001294 0.003696
0.004276 -0.002375 0.000847 -0.002512 -0.00156 0.0008535 9.81e-05 -0.00345
-0.00555 -0.001564 0.000641 0.0003426 -0.00152 -0.002953 -0.002884 -0.004906
-0.003326 0.001406 0.0008864 0.001097 -0.00643 -0.00239 -0.001038 -0.002079
-0.002989 -0.0014715 -0.003872 -0.005116 -0.003305 -0.0023 0.0003006 -0.002535
-0.00486 -0.00244 0.00314 0.01208 0.013664 0.002823 0.002016 0.001251
-0.0005493 0.00286 0.00148 0.002148 0.00415 0.011185 0.002445 0.001816
-0.0007653 -0.001783 -0.001302 -0.0007863 0.004513 0.003853 0.001208 -0.002136
-0.003351 -0.003517 0.00222 0.004948 0.0009756 -0.001211 0.001126 0.00054
0.00378 -0.0009212 -0.003498 -0.004826 -0.002974 -0.001471 -0.003296 -0.000901
0.002638 0.000204 0.0003092 0.001807 -0.001602 0.000712 0.001826 0.001424
0.001965 -0.002836 0.0009255 -0.001806 -0.001162 0.001446 -0.00318 0.001746
-0.000497 -0.001326 -0.0001705 0.00159 -0.0003998 0.001712 0.001067 -0.001811
-0.001603 -0.0003338 -0.00557 -0.000369 0.002247 0.001195 0.003881 0.0002167
0.0026 0.001908 -0.0003386 -0.0001245 0.0002081 -0.0006456 -0.001056 -0.000605
-0.0004692 0.001069 0.001386 0.002739 -0.001899 -0.003399 0.002556 0.001623

model/batch_normalization_1/batchnorm/mul_1 f2 [128, 128]
00000000: 7ba8 46b0 05b0 0eb2 0524 9930 c6a4 baa1
00000010: 3330 5c2a 9825 329d 03a4 50ae 36a8 1d26
00000020: ea2f 3d2e 03ae 2f24 8529 87ae 83b0 dca6
00000030: d7ac a32b e0a8 ec2a d228 8fb0 71ae e828
00000040: e0ac 2f2b c1b0 5026 21ac 3eac 3223 76ad
00000050: 09ae 6c2e 8dae b0a2 d6a8 f0a0 f8a9 2da9
00000060: a3ac e02a 762a c930 b52b 9b2f 79a8 5fa7
00000070: eb9b 9a9c 0425 c212 0d2b 612f 99a8 bb28
00000080: 622d 4e31 44aa ccb2 1bac 43ab c62b af29
00000090: 4623 ffae 6fa7 c9b1 309c a4aa 53b0 2b29
000000a0: cda9 ae2a 1dab bfac 8db2 02ad 8d2b 1724
000000b0: 5fa1 90a9 2120 efb1 d8a2 4b2c 6c28 3f2d
000000c0: 4521 c7a1 abac d5ab cca6 742d 642e ed2b
000000d0: fca0 4227 d724 19a9 a72d 54ad 97a5 201c
000000e0: 9fa6 752f f6ac 9931 27ab 6a24 cdaa 9029
000000f0: c2aa 1798 5d2d c2b1 922d 17a3 402a b229
00000100: 7b28 daa6 9727 562a 8d25 61a3 cb29 f725
00000110: 0ba9 eca1 11a6 54a6 8432 779f c7b5 a5a8
00000120: f0a0 5a28 1327 9aa6 d22c 12b2 16ab 8518
00000130: 91a3 1b29 712d 04a6 dca4 c5af f62c 98ab
00000140: 3ba8 771f 4fac b40d 5426 4c24 a7ab 39a7
00000150: 08a4 242b 8729 d725 fc2f da28 16ac efaa
00000160: 85ae 6d23 1f27 5c2c 35a9 1828 eea0 5028
00000170: e8a4 0d2a 2622 04b0 9e25 f7a4 64a6 1824
00000180: 0ca2 3e31 7223 49a6 fca0 e529 1fa3 b1aa
00000190: fb9c 5c32 729e 33a9 952c 9a28 8229 1b29
000001a0: 8aa5 132b ce2b d39e c523 a924 951f 5c27
000001b0: 8b23 35a0 75a5 50a6 24a1 c4a2 bc9e db28
000001c0: 5226 9fa3 26ac 6e2a 72a0 ba25 d02b b127
000001d0: f02e 6e2c 35ac 7a1c 72a9 81a4 e4ad aa28
000001e0: 081c 6c1c 2d22 0dac 9e2d e70e c830 d0a8
000001f0: 0bab 0925 aeae bdac 2d25 3124 a226 3d2c
-0.035 -0.1335 -0.1256 -0.1892 0.0157 0.1437 -0.01865 -0.011185
0.1312 0.04968 0.02185 -0.005074 -0.01567 -0.09863 -0.0329 0.02388
0.12366 0.0975 -0.09393 0.01634 0.04312 -0.102 -0.141 -0.0268
-0.0756 0.05966 -0.0381 0.05408 0.03766 -0.1425 -0.10065 0.03833
-0.0762 0.05612 -0.1486 0.02466 -0.0645 -0.0663 0.01405 -0.0853
-0.0943 0.10034 -0.10236 -0.01306 -0.03778 -0.00964 -0.04663 -0.04044
-0.07245 0.0537 0.05048 0.1495 0.0602 0.11884 -0.03494 -0.0288
-0.003866 -0.004494 0.01959 0.000825 0.05508 0.1153 -0.03592 0.03696
0.0841 0.1658 -0.04895 -0.2124 -0.06415 -0.05673 0.06073 0.0444
0.014206 -0.1093 -0.02904 -0.1808 -0.00409 -0.05188 -0.1351 0.04037
-0.04532 0.0522 -0.05557 -0.07416 -0.2047 -0.07825 0.059 0.01598
-0.01049 -0.04346 0.008064 -0.1854 -0.01337 0.0671 0.03455 0.082
0.01029 -0.011284 -0.07294 -0.0612 -0.02655 0.0852 0.09985 0.06192
-0.009735 0.02835 0.0189 -0.03983 0.0883 -0.08325 -0.02184 0.00403
-0.02586 0.1165 -0.0775 0.1749 -0.05588 0.01724 -0.05313 0.04346
-0.0528 -0.001997 0.0838 -0.1799 0.08704 -0.01385 0.04883 0.0445
0.035 -0.02676 0.02965 0.0495 0.02168 -0.01441 0.04526 0.0233
-0.0394 -0.011566 -0.0237 -0.02472 0.2036 -0.00729 -0.361 -0.0363
-0.00964 0.034 0.02763 -0.02579 0.0753 -0.1897 -0.05536 0.002207
-0.01478 0.0399 0.085 -0.0235 -0.01898 -0.1214 0.0775 -0.05933
-0.03305 0.00729 -0.0673 0.000348 0.02472 0.01678 -0.05978 -0.02821
-0.01575 0.0558 0.04318 0.02281 0.12476 0.0379 -0.06384 -0.05417
-0.10187 0.0145 0.02782 0.0681 -0.04068 0.03198 -0.00963 0.0337
-0.01917 0.04727 0.01201 -0.1255 0.02194 -0.0194 -0.02496 0.01599
-0.01181 0.1638 0.01454 -0.02455 -0.009735 0.04605 -0.01391 -0.05228
-0.004864 0.1987 -0.006294 -0.04062 0.0716 0.03595 0.04303 0.0399
-0.02164 0.05527 0.06097 -0.006664 0.015175 0.0182 0.007404 0.02875
0.01473 -0.00822 -0.02132 -0.02466 -0.01004 -0.013214 -0.006577 0.03793
0.02469 -0.014885 -0.0648 0.05023 -0.00868 0.02237 0.06104 0.03004
0.1084 0.0692 -0.06573 0.00437 -0.04254 -0.0176 -0.09204 0.03644
0.003937 0.00432 0.01206 -0.0633 0.08777 0.0004213 0.1494 -0.0376
-0.05502 0.01967 -0.1044 -0.07404 0.02022 0.01637 0.02591 0.0662

model/batch_normalization_2/batchnorm/mul_1 f2 [128, 128]
00000000: 922d 612b ebab 8a30 3738 ab20 2335 95ab
00000010: ff2c 122c 3530 cf21 5cb0 f229 0caf d8a8
00000020: 8a2c deb1 c730 62ae c230 90a4 3028 95b6
00000030: f928 e52f 4d9d 72aa ceac 3731 282c 63b3
00000040: 109c fe26 ae2e 57b0 4335 0b2c e426 f5a6
00000050: 4633 e330 5529 062e dc2e cc30 d037 bf26
00000060: 9926 8da9 d9b1 fba6 9fa9 11b1 e1a9 8eae
00000070: 0c32 5a34 a6b2 c7ac 12ad 4ab5 ab2d a4b0
00000080: 39ac fbaa dd2c 36ac 6234 02ad 26a5 e5aa
00000090: 2230 0628 092c 722d c025 419d 4226 752a
000000a0: 992d 3eb0 71a5 e92b 3c30 76a6 f134 d3b1
000000b0: d32f dfad 4c30 d525 ffab b0ac 842e 5126
000000c0: 17ac a82c 8aa8 5829 232e 70a5 0d34 5025
000000d0: b0a9 b9a8 16a8 42b0 542c 5324 5232 27a5
000000e0: 0a26 fa32 6aad 31b1 15a9 e02e 6fa6 dbae
000000f0: 6f28 9db1 8e29 8b26 bda9 5128 2cb3 da20
00000100: 051e b62b 8d27 822e 19ae 41a9 8721 2e9e
00000110: b3a0 1caa 3c00 b8a9 28b0 c224 a821 ee1b
00000120: 482a 3a32 8fac 369d f32c 122e b12f 98ae
00000130: 0730 132f 1baa bd2c 96a7 1529 1bac 39a0
00000140: 052c 70a4 2d2e 3da0 abb0 848e eea7 e525
00000150: 7d2d 94a5 98a6 d797 86ac d1a5 97a3 7724
00000160: fd2c 3da9 27a4 a0aa 79a9 3f20 99af c62e
00000170: 4b27 37ae ec30 2e2f 4926 5faf 332c b4b0
00000180: d223 3031 40ac 0e18 21ac 2030 9724 4e2c
00000190: db28 1f9e d9ae 9bad 9ea9 afa9 2a30 a1ab
000001a0: 0f2c a9ae cb1d 71a5 761c 712a cd9a aaa9
000001b0: d42f 388c 13af 68a7 00a9 e0ac e9a4 97ab
000001c0: 9aaa 572d 30ac 3e2a 76a6 53a8 a323 b92e
000001d0: 4a30 64a8 822b 5d2d d820 bda7 8727 6420
000001e0: 7eaa 0eaf a2a9 842d f8ae f82c 8125 37b0
000001f0: 8f2f 8331 0bac 40ac fe2e 8aad 19a8 699c
0.08704 0.05765 -0.06186 0.1418 0.527 0.00912 0.321 -0.05923
0.07806 0.0636 0.1315 0.011345 -0.1362 0.04645 -0.1101 -0.03784
0.0709 -0.1833 0.1493 -0.09973 0.1487 -0.01782 0.0327 -0.4114
0.03885 0.12335 -0.005177 -0.05035 -0.0751 0.163 0.06494 -0.2308
-0.003967 0.02731 0.1044 -0.1356 0.3289 0.0632 0.02692 -0.02718
0.2273 0.1527 0.04166 0.0941 0.1072 0.1499 0.4883 0.02635
0.02577 -0.04337 -0.1827 -0.02727 -0.0439 -0.1583 -0.04593 -0.1024
0.189 0.272 -0.2078 -0.07465 -0.0792 -0.3306 0.08856 -0.145
-0.066 -0.05453 0.076 -0.0658 0.274 -0.07825 -0.02011 -0.05386
0.1292 0.03143 0.06305 0.0851 0.02246 -0.00513 0.02444 0.05045
0.08746 -0.1326 -0.02126 0.0618 0.1323 -0.02524 0.3088 -0.182
0.12225 -0.09174 0.1343 0.02278 -0.06247 -0.07324 0.1018 0.02467
-0.0639 0.07275 -0.03546 0.04175 0.0959 -0.02124 0.2532 0.02075
-0.04443 -0.0369 -0.03192 -0.133 0.0676 0.01689 0.1975 -0.02013
0.02359 0.218 -0.0846 -0.1622 -0.0397 0.1074 -0.02513 -0.1071
0.03464 -0.1754 0.0434 0.02556 -0.04483 0.03372 -0.2241 0.009476
0.00588 0.06024 0.0295 0.1017 -0.0953 -0.04105 0.010796 -0.006035
-0.00918 -0.04773 3.6e-06 -0.04468 -0.1299 0.01859 0.01105 0.003872
0.04907 0.1946 -0.0712 -0.00509 0.07733 0.09485 0.1202 -0.103
0.1259 0.11053 -0.0477 0.07404 -0.02963 0.0397 -0.06415 -0.00825
0.0628 -0.01733 0.0965 -0.00828 -0.1459 -0.0003977 -0.03098 0.02303
0.08575 -0.02179 -0.02576 -0.001914 -0.0707 -0.02272 -0.014824 0.01744
0.07794 -0.04092 -0.01622 -0.05176 -0.04276 0.00829 -0.1187 0.10583
0.02849 -0.0971 0.1538 0.1122 0.02455 -0.1152 0.0656 -0.147
0.015274 0.1621 -0.0664 0.00198 -0.0645 0.1289 0.01793 0.06726
0.03793 -0.005978 -0.107 -0.0876 -0.04388 -0.0444 0.1301 -0.0596
0.0634 -0.10406 0.005657 -0.02126 0.004356 0.05032 -0.00332 -0.04425
0.1223 -0.0002575 -0.11053 -0.02893 -0.03906 -0.0762 -0.01918 -0.0593
-0.05157 0.08344 -0.0654 0.04877 -0.02524 -0.03378 0.014915 0.10504
0.134 -0.0343 0.05865 0.0838 0.00946 -0.03023 0.0294 0.008575
-0.05072 -0.1102 -0.044 0.0862 -0.1089 0.07764 0.0215 -0.1317
0.1181 0.1722 -0.0632 -0.0664 0.10925 -0.08655 -0.032 -0.004307

model/batch_normalization_3/batchnorm/mul_1 f2 [128, 128]
00000000: ba2b 5828 3aac c5ad 6230 4f2b 8c2b a92e
00000010: 38a6 14ae e331 2130 9bae 3b2f 032c fca3
00000020: 11a3 ebad 88b1 9cac 4f2d 9632 8b28 b12e
00000030: 3e39 afa8 e6aa 41a5 0eac 7faf 461c ad2b
00000040: bfad 6eb0 ce2d 5caa 18b2 15ad f42c 81ad
00000050: bd2c 50a2 22b0 499b b62d bc31 44b0 6428
00000060: b6a5 a0ad 9ea3 03af 512a d127 bda2 0fad
00000070: b630 a0af 43af 0b2e dea4 58aa 64a7 1fb0
00000080: 6eaa 78b7 92af bb2a 80ac 3834 01ac 76ac
00000090: 19b1 d331 9035 3d20 c01b e730 7c1c 77b7
000000a0: 3cac 5f32 6230 ccad 7929 1fa5 2e30 4ea7
000000b0: 73a4 052d d9a9 0f2b 1b2e a5a4 dd2c cb23
000000c0: 3832 8eb0 1bab 7e27 67ac 05b5 24ae 89ab
000000d0: 7c2b bbaf bc32 012c 1fa9 9723 4bb6 d225
000000e0: 88af a6ae 92af f72a 0f2c 62b2 87b1 e4b4
000000f0: f2ad 7e31 542c b92a 4d2a 3631 00b0 a62a
00000100: 54a7 9c30 1738 639c f4b5 2bb0 cf34 8bb4
00000110: 2393 8cb1 d0a5 b9ab 11b8 a22d bab0 bbb4
00000120: 6fae d932 d724 02b8 e332 9bb8 762c 2238
00000130: b833 7728 a930 962e 462e 1ab1 1f04 de35
00000140: e3ad 139e e433 6d2a b7ae 19b1 8aa4 0eb4
00000150: 472d 0534 e52f 4f33 442c 2ea1 a6b2 c5b6
00000160: 032a 65ba 4ab1 3930 8bad f92f 6635 c6b1
00000170: 3d35 d427 ff30 a4a8 9828 f71c 3eb9 c42b
00000180: 352b 2837 9c31 c8b4 ccb1 83a4 8235 f8b1
00000190: 3931 22b2 56b0 b431 e4b4 8830 73aa beac
000001a0: bc24 5eb4 3831 eb33 5baf 6db1 5e37 4a35
000001b0: 18a6 16bc 76b4 feb7 c2b7 4930 332b 9718
000001c0: 2b31 4733 13b4 2236 f5a5 e1a4 8534 1cb6
000001d0: 77af e833 8331 b62b 3e34 6db3 a2b6 442d
000001e0: b1b3 4f30 be21 0ca8 e228 11b8 6cb3 622a
000001f0: 7db0 2430 0b21 65b7 14b5 9c36 242b 34ae
0.06036 0.03394 -0.06604 -0.09015 0.137 0.0571 0.05896 0.10406
-0.02429 -0.095 0.184 0.129 -0.1032 0.113 0.0627 -0.015594
-0.0138 -0.09247 -0.1729 -0.072 0.08295 0.2058 0.0355 0.10455
0.6553 -0.0366 -0.0539 -0.02052 -0.06335 -0.1171 0.004173 0.05997
-0.0898 -0.1384 0.0907 -0.04968 -0.1904 -0.0794 0.0774 -0.086
0.07404 -0.01233 -0.1292 -0.003557 0.08923 0.1792 -0.1333 0.0343
-0.02231 -0.0879 -0.01488 -0.10956 0.04935 0.03053 -0.01316 -0.07904
0.1472 -0.11914 -0.11346 0.0944 -0.01901 -0.04956 -0.02887 -0.1288
-0.05023 -0.4668 -0.1183 0.05258 -0.0703 0.2637 -0.06256 -0.0697
-0.1593 0.182 0.3477 0.00828 0.003784 0.1532 0.00438 -0.4666
-0.06616 0.1991 0.137 -0.0906 0.04276 -0.02 0.1306 -0.02853
-0.01738 0.0784 -0.0457 0.05515 0.0954 -0.01814 0.076 0.01522
0.1943 -0.1423 -0.0555 0.02927 -0.0688 -0.3137 -0.09595 -0.05887
0.05847 -0.1208 0.2104 0.06256 -0.04 0.014824 -0.3933 0.02274
-0.1177 -0.1039 -0.1183 0.0544 0.0634 -0.1995 -0.1727 -0.3057
-0.0929 0.1716 0.0676 0.05252 0.04922 0.1628 -0.125 0.05194
-0.02863 0.144 0.511 -0.004284 -0.372 -0.1302 0.3005 -0.284
-0.000871 -0.1733 -0.0227 -0.06033 -0.5083 0.088 -0.1477 -0.2957
-0.1005 0.214 0.0189 -0.501 0.2152 -0.5757 0.0697 0.5166
0.2412 0.03488 0.1456 0.1029 0.098 -0.1594 6.29e-05 0.3667
-0.092 -0.00593 0.2466 0.0502 -0.1049 -0.1593 -0.01773 -0.2534
0.08246 0.2512 0.12335 0.2284 0.06665 -0.01012 -0.2078 -0.423
0.04697 -0.7993 -0.1653 0.132 -0.0866 0.1246 0.3374 -0.1804
0.3274 0.03058 0.1561 -0.03625 0.0359 0.00485 -0.6553 0.06067
0.0563 0.4473 0.1753 -0.2988 -0.1812 -0.01762 0.3442 -0.1865
0.1632 -0.1917 -0.1355 0.1782 -0.3057 0.1416 -0.05038 -0.0741
0.0185 -0.273 0.1631 0.2474 -0.1149 -0.1696 0.4604 0.3306
-0.0238 -1.021 -0.2788 -0.4995 -0.4849 0.1339 0.05624 0.002241
0.1615 0.2274 -0.2546 0.3833 -0.02327 -0.01906 0.2825 -0.3818
-0.11664 0.2471 0.1722 0.06024 0.2651 -0.232 -0.4146 0.0823
-0.2404 0.1346 0.011215 -0.03162 0.03815 -0.5083 -0.2319 0.04987
-0.1403 0.1294 0.00985 -0.4622 -0.3174 0.413 0.0558 -0.0969

model/batch_normalization_4/batchnorm/mul_1 f2 [8, 128]
00000000: a828 c5ad 3f1e 6c27 14a8 57ab a832 382d
00000010: 2eae 30a1 b691 24a9 f409 f229 79a5 6aa5
00000020: 1da1 cfa9 d9a7 1ba4 0aac 9cac cfac 7325
00000030: e9a4 1120 c02c e629 1d28 4829 8fa5 c4ac
00000040: eaaa 9b2f a62a 2d28 eda6 88a2 d628 641c
00000050: 181e 03af bd1a 19aa 5422 53ad 4e24 059f
00000060: a026 c9ac 95af a5a3 779e 8aaa bf1e 232c
00000070: 8ca6 9414 fea3 742c bf21 6629 68ae ab9a
00000080: 071f b6ab dc9e 412b 852f 32ab 7c20 ee20
00000090: 001e fb24 c2ad 4e2e 4b9b 5da7 b226 2127
000000a0: 22ac e8a8 1baa d19d 9d28 5b2d c624 2d9b
000000b0: b5ad d222 f526 151f 2a28 7f23 149e 0298
000000c0: 12ad d22c cba6 f9a5 c1a2 7dac 5daa b820
000000d0: c4ac 2dab 0ead fa2a ffa9 e72c 7aa3 6427
000000e0: c9a6 302d ed22 87ac 1dad ef27 38a5 7b22
000000f0: 45ab aca9 cdad 8e9f ad20 2c29 5fab e328
00000100: 2c21 73aa 63a5 68ae 9325 d4ac 0f29 8529
00000110: 47ae 3c2d da2c f0a8 4d22 e32c ac2f 1730
00000120: 8b1e 7f30 4d29 2025 16b1 f7ab 9aac d624
00000130: b42b 6b16 37ac 65ab 2080 eca2 9ba4 30a6
00000140: 0530 742b 74b0 a920 3e26 741f 38ad c626
00000150: 7ea5 14a6 6132 942c 0bb1 22a8 8b2a 2da2
00000160: 722b 20b0 85ad 2ca4 65a1 53b1 5ba8 ff18
00000170: 9130 f2a8 5331 aca5 1130 08a5 98a6 3f9a
00000180: fd11 f7ae 282f 70aa fb27 d69e 83aa 43ae
00000190: f5a8 9227 84ae 90a6 3eaf 9224 20a0 812b
000001a0: 752d 06aa e6ad 511d 16ab d410 d929 adb0
000001b0: dcad 9d24 43ae 75ae 572b fb2d 0b2e 0eb2
000001c0: 3ea8 a128 ffac a5ac 5924 79ad 84a9 1522
000001d0: aeac 20b0 e6ab 79ab 0195 4023 cd2a 2fae
000001e0: c7a5 602d 8429 9b28 2526 32ae b12c 0020
000001f0: 822d f9a2 ceab 602f 7e29 132c 7a28 852c
0.03638 -0.09015 0.0061 0.02899 -0.03186 -0.05734 0.208 0.08154
-0.09656 -0.01013 -0.000697 -0.04016 0.0001817 0.04645 -0.02138 -0.02115
-0.00999 -0.04538 -0.03065 -0.01604 -0.0631 -0.072 -0.07513 0.02129
-0.01918 0.00794 0.0742 0.04608 0.03214 0.04126 -0.02171 -0.07446
-0.05402 0.11884 0.05194 0.03262 -0.02705 -0.01276 0.03778 0.004288
0.00595 -0.10956 0.00329 -0.04764 0.01236 -0.0832 0.01682 -0.006855
0.02588 -0.07477 -0.11847 -0.01493 -0.006313 -0.0511 0.006588 0.06464
-0.02557 0.001118 -0.01561 0.0696 0.01122 0.04218 -0.1001 -0.003256
0.006863 -0.06024 -0.0067 0.05667 0.1175 -0.0562 0.00876 0.00963
0.00586 0.01945 -0.08997 0.0985 -0.003561 -0.02876 0.02615 0.02785
-0.0646 -0.03833 -0.0477 -0.00568 0.03604 0.0837 0.01865 -0.003504
-0.0892 0.01332 0.02718 0.006916 0.03253 0.01464 -0.005936 -0.001957
-0.0792 0.0753 -0.02654 -0.02333 -0.01319 -0.0701 -0.0497 0.00922
-0.07446 -0.05606 -0.079 0.0545 -0.04684 0.0766 -0.0146 0.02887
-0.0265 0.08105 0.01353 -0.07074 -0.0799 0.03099 -0.02039 0.01266
-0.0568 -0.0443 -0.09064 -0.007378 0.00913 0.0404 -0.0576 0.03818
0.0101 -0.05038 -0.02104 -0.1001 0.02177 -0.07544 0.03952 0.04312
-0.0981 0.0818 0.0758 -0.03857 0.01231 0.07635 0.1199 0.1278
0.00639 0.1405 0.0414 0.02002 -0.1589 -0.06223 -0.0719 0.01889
0.06018 0.001567 -0.06586 -0.05777 -1.9e-06 -0.01352 -0.01799 -0.02417
0.1256 0.05823 -0.1392 0.0091 0.02438 0.00728 -0.08154 0.02646
-0.02145 -0.02374 0.1993 0.07153 -0.1576 -0.0323 0.05112 -0.01206
0.05817 -0.1289 -0.08624 -0.0163 -0.01054 -0.1664 -0.03403 0.00244
0.1427 -0.03864 0.1664 -0.02216 0.1271 -0.01965 -0.02576 -0.00305
0.000731 -0.1088 0.1118 -0.0503 0.03117 -0.006676 -0.05087 -0.09784
-0.03873 0.02957 -0.1018 -0.02563 -0.11316 0.01785 -0.00806 0.05862
0.08527 -0.04706 -0.09216 0.00519 -0.05536 0.0005894 0.0457 -0.1461
-0.09155 0.01802 -0.09784 -0.1009 0.05734 0.09344 0.0944 -0.1892
-0.03314 0.03616 -0.07806 -0.0726 0.01698 -0.0855 -0.0431 0.01188
-0.0731 -0.1289 -0.0617 -0.05838 -0.001222 0.01416 0.05313 -0.0966
-0.02257 0.084 0.0431 0.03598 0.024 -0.0968 0.0733 0.007812
0.08606 -0.01362 -0.06097 0.11523 0.0429 0.06366 0.03497 0.0706

model/batch_normalization_5/batchnorm/mul_1 f2 [128, 8]
00000000: 3439 54b9 c536 ca3b 17bb e5bb 0cb3 dd2d
00000010: af39 e4b4 f8ba 5535 d1b1 e834 c2a5 4faa
00000020: 19b7 0ea9 6f37 eeb0 ac34 5934 c53e 2f38
00000030: 5e3e 7d31 71b2 f627 6fac 2cb8 3038 0f34
00000040: e1bc fdb1 21bc e922 c034 3234 e3b4 11b8
00000050: 2fa5 16bb 7aad 6632 1238 852d 9ebc b2af
00000060: 08ac 65ba c7b7 40bc 36a7 00af 4e2c 53b5
00000070: 7eb9 383d f8b6 f838 4a35 8938 ef33 35ba
00000080: 2bbd 8f38 6dbc c335 482e 933a fe35 0aba
00000090: c232 022d 5532 6db5 6dae bbb8 e3bb 17b0
000000a0: afac 0d2c f139 6732 872f 5335 bdb5 522e
000000b0: 19ba adb8 3835 74b3 f4b3 2d3c 293b b2ac
000000c0: ed2d d4b8 81b8 ba3d bb39 bc2d 41b4 8ab5
000000d0: 1529 3533 d5ae 6337 a33c 09b8 86b5 283c
000000e0: 5ca9 212e 47b9 52b3 0fad d236 e73f 9f32
000000f0: 21b5 eb3b 35ba 6638 86b5 1ab8 952b b0b4
00000100: 5334 d8b9 a12f 18b1 eeb8 8c2c 362e b7b3
00000110: d3b8 9cb1 24af bb3d 4a33 3638 4ab1 22bb
00000120: d7a1 b4a2 39b3 a4bc 51b4 83b7 40b7 11b2
00000130: fab1 51b4 9a32 78b1 47a0 1cb7 c5bc 4229
00000140: 9a39 33bc c933 1937 87ba 26b9 843c b6a8
00000150: 252d 76a7 75ba 293b 6eb1 4330 013a 9836
00000160: a13c bd39 1b33 51b3 0eb0 fcb6 47b5 3635
00000170: f4b5 5b39 d4bb cab6 52b6 4038 cf2f 6daa
00000180: 8ab4 2238 2b2a db34 62af dcb8 dfbc 90ad
00000190: 8733 b929 37ac da38 bdac 8a36 e4bd 6832
000001a0: 7e39 9c2f f22b e8b6 d938 dc35 86b4 45b1
000001b0: d3a2 fd38 1039 7d34 36b8 1eac 8baf 8aba
000001c0: 69ae 82ba e1b8 8db4 74ab 2734 e736 0a38
000001d0: 812d 7138 993a 91b7 48b7 05a8 f5b1 1e37
000001e0: a339 5eb2 3935 e43c 2e30 eb32 d037 1a36
000001f0: 6139 abb3 beb1 80bb 2ab1 9cba adb4 5936
0.6504 -0.666 0.423 0.9736 -0.886 -0.987 -0.2202 0.0916
0.7104 -0.3057 -0.871 0.3333 -0.1818 0.3066 -0.02249 -0.0493
-0.4436 -0.0395 0.4646 -0.154 0.292 0.2717 1.692 0.523
1.592 0.1715 -0.2013 0.0311 -0.0693 -0.5215 0.5234 0.2537
-1.22 -0.1871 -1.032 0.0135 0.2969 0.2622 -0.3054 -0.5083
-0.02025 -0.8857 -0.0856 0.2 0.509 0.08624 -1.154 -0.12024
-0.063 -0.7993 -0.486 -1.0625 -0.02817 -0.1094 0.06726 -0.3328
-0.6865 1.305 -0.4355 0.621 0.3306 0.567 0.2479 -0.776
-1.292 0.57 -1.106 0.36 0.09814 0.822 0.3745 -0.755
0.2112 0.07825 0.1979 -0.339 -0.1004 -0.5913 -0.986 -0.1278
-0.0732 0.0633 0.7427 0.2001 0.1176 0.3328 -0.3586 0.09875
-0.762 -0.5845 0.3262 -0.2329 -0.2485 1.044 0.895 -0.07336
0.0926 -0.6035 -0.563 1.432 0.7163 0.0896 -0.2659 -0.3462
0.0397 0.2252 -0.10675 0.4617 1.159 -0.5044 -0.3452 1.039
-0.04187 0.09576 -0.6597 -0.2288 -0.07904 0.4263 1.976 0.2069
-0.3206 0.9897 -0.776 0.55 -0.3452 -0.5127 0.05923 -0.293
0.2703 -0.7305 0.1192 -0.1592 -0.616 0.07104 0.09705 -0.2411
-0.603 -0.1753 -0.1116 1.433 0.2278 0.5264 -0.1653 -0.8916
-0.011406 -0.01309 -0.2257 -1.16 -0.2698 -0.4695 -0.4531 -0.1896
-0.1868 -0.2698 0.2063 -0.1709 -0.008354 -0.4443 -1.192 0.04108
0.7 -1.05 0.2433 0.4436 -0.816 -0.6436 1.129 -0.0368
0.0804 -0.02914 -0.807 0.895 -0.1697 0.1332 0.7505 0.412
1.157 0.7173 0.222 -0.2286 -0.1267 -0.4365 -0.3298 0.3257
-0.372 0.6694 -0.9785 -0.4243 -0.395 0.5312 0.122 -0.0502
-0.2837 0.5166 0.0482 0.3035 -0.11536 -0.6074 -1.218 -0.0869
0.2352 0.0447 -0.06586 0.6064 -0.07404 0.4087 -1.473 0.2002
0.6865 0.1189 0.06207 -0.4316 0.606 0.3662 -0.2827 -0.1647
-0.01333 0.6235 0.633 0.2805 -0.5264 -0.06433 -0.11786 -0.8174
-0.10016 -0.8135 -0.61 -0.2844 -0.05823 0.2595 0.4314 0.505
0.086 0.555 0.8247 -0.473 -0.455 -0.0314 -0.1862 0.4448
0.7046 -0.199 0.3264 1.223 0.1306 0.2162 0.4883 0.3813
0.6724 -0.2396 -0.1794 -0.9375 -0.1614 -0.826 -0.2922 0.3967

model/batch_normalization_6/batchnorm/mul_1 f2 [128, 128]
00000000: c130 8734 2bab f421 b2b0 59a7 90b4 9cab
00000010: 422f 092e 8e34 1bae 47ae bc33 cdb3 eda1
00000020: 7725 c535 6728 e5a8 39a7 c1b1 a6ad 6cb2
00000030: 5325 2da3 0c2d d32d 3435 62ab 2bb4 1831
00000040: fd31 4c23 cb34 7425 21a4 1dac 4134 7e31
00000050: 332c 562d 4dac ccaa d8ad e9ac 30b3 1133
00000060: a0a4 7cb1 a734 9630 09b4 43ae ac28 32ac
00000070: e4b0 7ca7 3728 aab3 90b1 c92e acb3 a4ad
00000080: 5ab2 53a8 232c 04af f82d 5230 1f34 9920
00000090: 6e30 e5af daaf 982f 8c2f 7db0 1daf 29a7
000000a0: ec32 36b0 3934 7430 de2c 862b b4b0 02b2
000000b0: 80ab 3e33 c221 f0af 2523 e233 cc2c 59b0
000000c0: f126 14b1 f81e 90a5 0e30 b630 34b0 e52f
000000d0: df2c 0934 ae31 cd32 ea2a 8bae ccb2 ff23
000000e0: f62a 03b4 44af d1b0 73b2 ceab 17af 5731
000000f0: 0ab2 8e2b 152a 8633 b7a1 1a32 86b2 ce9e
00000100: 94b1 80b0 59ac e32a 62b1 fa2e b031 ec2b
00000110: bf31 2fae a5ac 11b6 76b0 fab0 6d2f 1d2f
00000120: 1aa8 0e36 89b3 85b1 20b4 2132 68aa 40ac
00000130: 0e8b 132c 02b5 2b2b 382c 352c 00b3 dba9
00000140: e7ab 87b1 6e2d 5eac 49a8 4eb1 5a2e 8c32
00000150: 1926 e22d fbb9 111d 0731 cdab 81b4 1728
00000160: 9baa c22f 3128 8832 3028 4a34 44b3 d82c
00000170: 212c 0f2e 04a8 ad2f cbaa 3a30 0334 9e2f
00000180: d9ac b4a7 34ad 5ab6 3322 64aa 091f 262f
00000190: 102f 5ca7 b6ad 2431 25b1 ba2e 5f2c 85b5
000001a0: 092b 3da9 86b4 4daa dd1f ef30 6930 3930
000001b0: 6333 1e30 0db2 c031 df2f 7832 59ad f3b2
000001c0: 0a35 9d2e 61b0 c7b5 83b2 8bb0 e229 2735
000001d0: 962c 1327 bf29 6130 91ac e632 caaf 2824
000001e0: d926 2ab1 c9b3 122f 94b2 4434 f3ad cbb1
000001f0: 9931 68a0 4aac bbb2 9cac 3934 e9b5 1427
0.1486 0.283 -0.056 0.01163 -0.1467 -0.0287 -0.2852 -0.05945
0.1134 0.0943 0.2847 -0.0954 -0.0981 0.2417 -0.2438 -0.01157
0.02135 0.3606 0.0344 -0.03824 -0.02821 -0.1798 -0.08826 -0.2007
0.0208 -0.014015 0.07886 0.091 0.3252 -0.05768 -0.2605 0.1592
0.1871 0.01425 0.2996 0.0213 -0.01613 -0.0643 0.2659 0.1716
0.0656 0.0834 -0.0672 -0.0531 -0.0913 -0.0767 -0.2246 0.2208
-0.01807 -0.1714 0.2908 0.1433 -0.2522 -0.09784 0.0365 -0.06555
-0.1528 -0.02924 0.03293 -0.2395 -0.1738 0.106 -0.2397 -0.08813
-0.1985 -0.03378 0.06464 -0.1096 0.09326 0.135 0.2576 0.00898
0.1384 -0.12335 -0.1227 0.11865 0.1179 -0.1403 -0.11115 -0.02797
0.2163 -0.1316 0.264 0.1392 0.07605 0.05878 -0.147 -0.1877
-0.0586 0.2263 0.011246 -0.124 0.013954 0.2463 0.07495 -0.1359
0.02711 -0.1587 0.006805 -0.02173 0.1267 0.1472 -0.1313 0.12335
0.0761 0.2522 0.1775 0.2125 0.05402 -0.10223 -0.2124 0.01562
0.05438 -0.2507 -0.1135 -0.1505 -0.2015 -0.06097 -0.1108 0.1669
-0.1887 0.05902 0.04752 0.2351 -0.01116 0.1907 -0.2039 -0.006645
-0.1743 -0.1406 -0.06793 0.0538 -0.1682 0.109 0.1777 0.0619
0.1796 -0.0966 -0.0726 -0.3792 -0.1394 -0.1555 0.116 0.11115
-0.03204 0.3784 -0.2355 -0.1725 -0.2578 0.1915 -0.05005 -0.0664
-0.0002153 0.06366 -0.313 0.056 0.0659 0.06573 -0.2188 -0.04575
-0.06174 -0.1727 0.08484 -0.06824 -0.03348 -0.1658 0.09924 0.2046
0.02382 0.0919 -0.7476 0.004948 0.1571 -0.06094 -0.2815 0.03195
-0.0516 0.1212 0.03275 0.2041 0.0327 0.268 -0.227 0.0757
0.0645 0.09467 -0.03137 0.11993 -0.05307 0.1321 0.2507 0.119
-0.07574 -0.03009 -0.0813 -0.397 0.01211 -0.04993 0.00687 0.1117
0.11035 -0.02875 -0.08923 0.1606 -0.1608 0.1051 0.0683 -0.345
0.05496 -0.04092 -0.2827 -0.04922 0.00768 0.1542 0.1378 0.132
0.2308 0.1287 -0.1891 0.1797 0.123 0.2021 -0.08356 -0.2172
0.315 0.10333 -0.1368 -0.361 -0.2035 -0.142 0.04596 0.322
0.07166 0.02763 0.0449 0.1368 -0.07135 0.2156 -0.1217 0.01624
0.02675 -0.1614 -0.2433 0.1105 -0.2056 0.2666 -0.09296 -0.181
0.1749 -0.008606 -0.067 -0.2103 -0.072 0.264 -0.3694 0.02765

model/batch_normalization_7/batchnorm/mul_1 f2 [128, 128]
00000000: 592f 6b2a 872c a329 032e 242d 2a26 0e34
00000010: 1c2c b62f 08b5 d42f 9430 ab2e 93a3 2d28
00000020: 4730 bf33 1cb1 022f dcab 1e2d ae9b d12d
00000030: 9fb0 40af 9d27 352d 57b2 ee2a 862f c8ac
00000040: 102a bbb2 df2d 0b31 5e2d e82f e9a0 f0b0
00000050: 762e 7633 2334 f9ac 211d 42af 06b0 d331
00000060: 07b0 3e32 7a2f a42c 2931 04b5 83b4 bd28
00000070: 5036 e1a4 c0b0 d1b1 a9a8 43ae 482b a9ae
00000080: 47ac 7cb6 1330 c2ac eba2 c3a8 1c31 7daa
00000090: 602b d8a5 73af 05b0 fda8 2a2f 809f 51b2
000000a0: cdad eeae 542f 4dae 96ac 4b2b 97ac 692d
000000b0: 65a5 68a9 37a1 59a9 cc2f b32d af33 8ea0
000000c0: 5d2c 33a7 3b32 38a8 a4b0 5332 3525 4e23
000000d0: e22d aaad e0a4 0d2f ecb1 e91f 5931 9b2e
000000e0: 7fad b734 4d26 92a8 852e 9b2d 3ea9 b3af
000000f0: 6fb2 f219 7d32 f5b2 f130 1da7 a72a 19b4
00000100: 222d c322 1132 e631 5a32 352e 70ac 8030
00000110: 8328 afab fc2f 2b25 d0a2 ab2a 1d29 b02d
00000120: f62b 75b0 232a 9022 7133 3532 c9b1 e4a9
00000130: faae 8328 4931 0732 cea3 1fa1 40b6 d7ae
00000140: b231 53b7 9dab a42d ea9f bcad 912f 89b1
00000150: ac31 661f 982a a0b1 65ad e234 43aa 8fad
00000160: c3b3 58ad dbad 72a9 8eb0 e9ad 1fac aaa6
00000170: e82e 14ad 5926 1d2c 71b1 9bb1 bfae 2f24
00000180: 5cb0 1c30 9924 3d2c d927 c230 8731 0c34
00000190: ebb4 9130 1930 3da7 81ad 4bb3 c82d ccab
000001a0: fe2a ff31 f12c e6a8 fdb4 7f2f 93aa a2ac
000001b0: 7faf 6f95 611c f625 3222 9eac e430 e3af
000001c0: 8829 f822 b5a7 28ac 93ac e830 0e34 d6a8
000001d0: c928 429e a3b3 82a8 3425 91a9 9132 7db1
000001e0: da32 3cb1 1eb3 14b3 f032 7bb5 0634 ea31
000001f0: af2d ef30 bfb1 b820 a5a8 64b2 d031 a632
0.1148 0.05014 0.07074 0.04404 0.09393 0.0803 0.02408 0.2534
0.0642 0.1205 -0.3145 0.1223 0.1431 0.1042 -0.01479 0.03262
0.1337 0.2421 -0.1597 0.1095 -0.0614 0.07996 -0.00375 0.0909
-0.1444 -0.1133 0.02974 0.08136 -0.1981 0.05414 0.11755 -0.0747
0.04736 -0.2103 0.09174 0.1576 0.08386 0.12354 -0.00959 -0.1543
0.10095 0.2332 0.2585 -0.0777 0.00501 -0.1134 -0.1257 0.182
-0.1259 0.1951 0.1168 0.0725 0.1613 -0.3135 -0.282 0.03702
0.3945 -0.01906 -0.1484 -0.1818 -0.0364 -0.09784 0.0569 -0.10406
-0.06683 -0.4053 0.1273 -0.07434 -0.01351 -0.0372 0.1597 -0.0507
0.05762 -0.02283 -0.1164 -0.1256 -0.03897 0.11194 -0.007324 -0.1974
-0.09064 -0.1083 0.1145 -0.09845 -0.07166 0.05698 -0.0717 0.08453
-0.02107 -0.04224 -0.010185 -0.04178 0.1218 0.08905 0.2401 -0.008896
0.0682 -0.02812 0.1947 -0.03296 -0.145 0.1976 0.02034 0.01427
0.0919 -0.0885 -0.01904 0.11017 -0.185 0.007725 0.1671 0.1032
-0.0859 0.2947 0.02461 -0.0357 0.10187 0.0876 -0.04095 -0.1203
-0.201 0.002903 0.2028 -0.2174 0.1544 -0.02779 0.05197 -0.256
0.0802 0.01321 0.1896 0.1843 0.1985 0.097 -0.06934 0.1406
0.03525 -0.06003 0.12476 0.02019 -0.013306 0.0521 0.03995 0.08887
0.0622 -0.1393 0.04794 0.01282 0.2325 0.194 -0.1808 -0.04602
-0.109 0.03525 0.1652 0.1884 -0.01524 -0.01 -0.3906 -0.1069
0.178 -0.4578 -0.05948 0.08813 -0.00773 -0.0896 0.1182 -0.173
0.1772 0.007225 0.0515 -0.1758 -0.0843 0.3052 -0.04892 -0.08685
-0.2426 -0.0835 -0.0915 -0.04254 -0.1423 -0.09235 -0.0644 -0.02603
0.1079 -0.07935 0.0248 0.0643 -0.17 -0.1752 -0.1054 0.01634
-0.1362 0.1284 0.01796 0.0662 0.03065 0.1487 0.1727 0.253
-0.3074 0.1427 0.128 -0.02827 -0.086 -0.2279 0.09033 -0.0609
0.05463 0.1874 0.0772 -0.03827 -0.3118 0.1171 -0.05136 -0.0724
-0.1171 -0.001327 0.004276 0.02328 0.0121 -0.07214 0.1528 -0.1232
0.0432 0.01361 -0.0301 -0.06494 -0.0715 0.1533 0.2534 -0.03778
0.03738 -0.00611 -0.2386 -0.03522 0.02032 -0.0435 0.2052 -0.1715
0.2141 -0.1636 -0.2224 -0.2212 0.2168 -0.3425 0.2515 0.1848
0.0888 0.1542 -0.1796 0.00922 -0.0363 -0.1997 0.1816 0.2078

model/batch_normalization_8/batchnorm/mul_1 f2 [128, 128]
00000000: a22f 3533 1b30 fe32 3230 3ea0 07b2 afb0
00000010: b928 3eb1 3ab3 2793 b32e 99ad d0af c2b2
00000020: 872d 4532 5bb1 3a26 be36 25af 1a33 8d2f
00000030: e7af 602d 6525 11af 8030 50ab ffad 1334
00000040: 5dad a2b3 292f f5b2 f7af 5534 68b3 5eac
00000050: 0fb4 8cb4 bfb4 1631 0a31 8a20 52b1 a52b
00000060: 52ae a7b2 3ab1 1434 7235 4daf 8031 b2ad
00000070: dbb1 9da8 68b3 d6af bf2f 28b2 29af 6c32
00000080: dbb3 98ad 82b4 7730 2732 9830 81b6 10b1
00000090: 48b1 63af 89b1 fb26 83ab 6919 1d2e 56b2
000000a0: dd2c 04b4 75b4 ca30 6432 43b4 c731 4ea9
000000b0: 5eb1 95b1 1334 5c30 dfa5 df2c 132a 712c
000000c0: 2faf 34ad 20af 5cac 1e31 0e25 cdae 5bb1
000000d0: 852f d9ac a3af 07b4 4da9 b3b2 fea8 7fae
000000e0: b62f 0b34 48ad e328 1130 1fb3 d62c a1ad
000000f0: 50b3 8db3 c2b0 47b5 012d 0c2b bc29 85b0
00000100: 79b0 0214 fa35 2015 6534 482f 73af f1a7
00000110: deb3 b2ae 3a32 87b0 c0a9 21b2 bc3a 6039
00000120: b0ac cba8 04b3 0b2f f3b3 32b1 ac1b 85b3
00000130: c3b1 5132 bab3 e732 a9b6 53a8 8ab4 ae34
00000140: cfac 10b7 5533 76ab 24a8 5b15 2536 a2ad
00000150: d2af fbb0 7dae d9b0 bdad 0222 3534 f5b1
00000160: 53ac 94b4 0e30 a831 7734 0eb0 c5b0 bfad
00000170: 5caa 0730 c2af f429 d3b4 9e29 33af 412f
00000180: 6bb1 1930 59b0 2c2e 50af 4231 8736 23b4
00000190: 78b2 a72d 27b1 2db0 1baf 7729 f5ae 68b1
000001a0: e2af bcb2 d3b3 602e 27b1 0833 82b1 982d
000001b0: 282d 75b4 c335 a8b3 abae 0db1 a62e a631
000001c0: fdb3 1aa1 22b0 73b0 5435 aeb2 f1aa 951f
000001d0: 8eb0 1330 4134 d72e 9aaf 2d31 ccb4 58a8
000001e0: a52d 5e2a c129 61b1 3b1a 0634 f2ae efb4
000001f0: 5f30 33a9 3cac 68aa a8b5 3938 1b26 2122
0.11926 0.2252 0.1283 0.2185 0.1311 -0.008286 -0.1884 -0.1464
0.0369 -0.1638 -0.2258 -0.000873 0.1047 -0.08746 -0.1221 -0.2112
0.08636 0.1959 -0.1674 0.02432 0.4214 -0.11163 0.2219 0.118
-0.1235 0.084 0.02107 -0.1104 0.1406 -0.05713 -0.0937 0.2546
-0.0838 -0.2385 0.1119 -0.2174 -0.12445 0.2708 -0.2314 -0.06824
-0.2537 -0.2842 -0.2966 0.1589 0.1575 0.008865 -0.1663 0.05972
-0.09875 -0.2079 -0.1633 0.255 0.3403 -0.1141 0.1719 -0.089
-0.183 -0.03604 -0.2314 -0.12244 0.12103 -0.1924 -0.1119 0.2007
-0.2455 -0.0874 -0.2817 0.1395 0.1923 0.1436 -0.4065 -0.1582
-0.165 -0.1154 -0.173 0.02727 -0.0587 0.002642 0.0955 -0.198
0.076 -0.251 -0.2786 0.1497 0.1997 -0.2664 0.1805 -0.04144
-0.1677 -0.1744 0.2546 0.1362 -0.02293 0.0761 0.04745 0.0694
-0.11224 -0.0813 -0.1113 -0.0681 0.1599 0.01974 -0.10626 -0.1674
0.1175 -0.07574 -0.1193 -0.2517 -0.0414 -0.2094 -0.039 -0.1015
0.1205 0.2527 -0.0825 0.03818 0.1271 -0.2225 0.07556 -0.08795
-0.2285 -0.236 -0.1487 -0.3298 0.0782 0.05505 0.0448 -0.1412
-0.1398 0.000978 0.3735 0.001251 0.2747 0.1138 -0.1164 -0.03102
-0.2458 -0.1046 0.1946 -0.1415 -0.04492 -0.1915 0.842 0.672
-0.07324 -0.03745 -0.2192 0.11005 -0.2484 -0.1624 0.003746 -0.235
-0.18 0.1974 -0.2415 0.2157 -0.4163 -0.03378 -0.2837 0.2925
-0.07513 -0.4414 0.2291 -0.0583 -0.03235 0.0013075 0.384 -0.088
-0.1222 -0.1556 -0.1014 -0.1515 -0.08966 0.011734 0.263 -0.1862
-0.06757 -0.2861 0.1267 0.1768 0.279 -0.1267 -0.149 -0.0898
-0.04968 0.1259 -0.1212 0.0465 -0.3015 0.04388 -0.1125 0.11334
-0.1693 0.128 -0.1359 0.09644 -0.11426 0.1643 0.408 -0.2585
-0.2021 0.0883 -0.161 -0.1305 -0.111 0.0427 -0.1087 -0.169
-0.12317 -0.2104 -0.2445 0.0996 -0.161 0.2197 -0.1721 0.0874
0.08057 -0.2786 0.36 -0.2393 -0.1042 -0.1578 0.1039 0.1765
-0.2496 -0.009964 -0.1292 -0.139 0.333 -0.2087 -0.05423 0.007404
-0.1423 0.1273 0.2659 0.1069 -0.1188 0.1617 -0.2998 -0.03394
0.0882 0.04974 0.04495 -0.1681 0.003042 0.2515 -0.1085 -0.3083
0.1366 -0.04062 -0.06616 -0.05005 -0.3535 0.528 0.02385 0.01197
