compression/autoencoder/dynamic_range_quantization/models_compressed/model_slider.tflite (tflite, 277016 bytes, 20 tensors)

model/dense_9/BiasAdd/ReadVariableOp f4 [640]
00000000: 833f 4abf 5a9a e33d 2542 debe 1b21 94be
00000010: 189d 11bf 0120 93be b250 10bf 45b9 61be
00000020: c92b e0be e325 debe 1e1e 70bf 52f8 87be
00000030: 2049 8bbe 63f2 05bf 435b 54bf 5c2b debe
00000040: 178e 3ebf 1d34 d6be a1cd 3abf bc73 f2be
00000050: a011 6ebf cde7 31bf f6cc 15bf feb3 88be
00000060: f94b 3cbf 160d 2cbf f34a 6dbf b092 f4be
00000070: 8e98 d8be 67c9 10bf 6928 25bf b719 9fbe
00000080: 77d4 5ebf 24b2 d3be a42e 11bf ebde 0abf
00000090: 5eb7 2dbf 9a70 0bbf b556 30bf 0723 7abe
000000a0: 3ab9 3abf 8cb5 fabe cfce 3bbf 040a dbbe
000000b0: 8d64 28bf f756 40bf c6cf adbe 5f52 10bf
000000c0: c144 12bf 3089 dfbe 4fe0 26bf a6f2 03bf
000000d0: b7fe 48bf d4c0 d0be 28e0 45bf 9c4a 20bf
000000e0: c6ed 20bf a603 8dbf 60bc 91bf f5f8 55bf
000000f0: d781 6bbf 8d1a 92bf 12e1 57bf 4db7 29bf
00000100: 76e0 babe 6073 0bbf 2ac6 11bf 43f3 21be
00000110: c816 2bbf 5fff 4fbf 26da 18bf 8336 0cbf
00000120: 7447 13bf def8 0abf b61c 28bf bbd2 29bf
00000130: 2a9e 14bf 50bf 47bf 3005 7abf ccb4 c5bf
00000140: dafd 54bf 0002 88bf 3f80 89bf db3f 61bf
00000150: d274 1ebf 8204 47bf 6d6f 41bf 06e9 f8be
00000160: d469 05bf 835f a4bf 3d8f 97bf 30f7 7dbf
00000170: 9c5b 8ebf 0a13 76bf 4181 6abf 85ef 35bf
00000180: e49c 7abf 1614 7abf 88f2 5cbf e0f1 32bf
00000190: 983f 73bf a758 8abf d090 92bf 99a0 47bf
000001a0: d4a5 7abf 554e 6cbf a6fa 72bf 2557 50bf
000001b0: 3925 8bbf 9ab6 82bf 8558 8fbf 910d 2ebf
000001c0: 055c 68bf a1de 63bf 6174 66bf 0050 6bbf
000001d0: ef3f 2cbf b1f7 11bf d26b 1abf 77a1 33bf
000001e0: b075 80bf 47dd 89bf 8eaa 6abf fdb5 54bf
000001f0: b718 86bf 64a6 80bf 8742 6fbf 1e7c d0bf
00000200: d090 38bf 6e45 303e d7fa b4be bd46 77be
00000210: d757 0dbf 16a1 6abe 0eda 04bf dc0e 4ebe
00000220: 0f96 d3be 370a c5be 86ec 65bf d072 51be
00000230: 553e 52be 1bd2 eebe 4b9c 42bf 4e68 bebe
00000240: f053 30bf f145 b8be ee6e 33bf 608d aabe
00000250: bf0b 33bf 7bbb 08bf d16a 0cbf dc0b 63be
00000260: 385d 28bf 0ed2 14bf 7c07 51bf 265a c5be
00000270: 236a 97be bb13 d7be f211 01bf 7978 46be
00000280: 36b3 39bf a0f2 95be f721 febe 92b2 f1be
00000290: fba3 15bf ca5c d7be 393f 0fbf 748b 28be
000002a0: 3ecf 1ebf f89a a4be d7c8 07bf 5399 86be
000002b0: 9368 04bf 7699 2ebf 5774 b5be 803b 12bf
000002c0: ec09 16bf 4e0f f0be 5dd6 1bbf 54f2 cdbe
000002d0: ec78 33bf 5134 aebe a715 33bf b56e 03bf
000002e0: 0628 febe fb75 6ebf eccf 8abf 2907 46bf
000002f0: 7dd2 44bf b4d8 79bf efe4 31bf af71 0cbf
00000300: 5109 8cbe 3c5d febe 99df 06bf 015f 00be
00000310: ac54 23bf d43c 42bf 4edf 19bf a7a1 f9be
00000320: 8e9a 03bf e1c8 fbbe 4874 1fbf e612 21bf
00000330: a944 01bf f72a 30bf 6434 67bf 8ecc b6bf
00000340: c551 2ebf 1b96 80bf e241 85bf ae96 51bf
00000350: ee7a 06bf 0f97 2dbf 9e3b 22bf 427a d1be
00000360: 90cf f2be 79b0 98bf acc4 8bbf b3d1 66bf
00000370: b91f 88bf e717 5cbf 234b 64bf 4cfd 41bf
00000380: 4000 79bf 3bfd 74bf ce2e 63bf 52dd 2bbf
00000390: 7ec4 51bf 881d 6ebf 0005 8ebf 2bba 44bf
000003a0: 3145 73bf 9c6f 5fbf ca60 6abf dcc4 2ebf
000003b0: 3e7a 67bf cefd 6cbf dc46 87bf 6444 51bf
000003c0: 5f78 80bf f8e7 5cbf 0493 41bf d84f 48bf
000003d0: 30ef 22bf fa2c 0dbf e111 21bf 48e1 18bf
000003e0: ea62 66bf 1db9 87bf 033c 7dbf c92b 39bf
000003f0: 6fef 7bbf 57a2 68bf e249 47bf 67af bcbf
-0.7900316 0.111134246 -0.4340984 -0.28931507 -0.5688033 -0.28735355 -0.5637313 -0.22043331
-0.43783405 -0.4338828 -0.93795955 -0.2655664 -0.27204227 -0.5232298 -0.82951754 -0.43392456
-0.7443556 -0.41836634 -0.72970015 -0.47353923 -0.92995644 -0.69494325 -0.5851587 -0.26699823
-0.73553425 -0.6720747 -0.9269249 -0.47768164 -0.4230389 -0.56557316 -0.64514786 -0.31074306
-0.87042946 -0.41346848 -0.5671179 -0.54246396 -0.6785792 -0.5446869 -0.68882304 -0.24427424
-0.72938883 -0.48966634 -0.7336244 -0.4278108 -0.6577843 -0.751327 -0.3394758 -0.5637569
-0.5713616 -0.43659353 -0.6518602 -0.5154213 -0.78513664 -0.40772116 -0.7729516 -0.62613845
-0.62862813 -1.1016738 -1.1385612 -0.83583003 -0.91994995 -1.1414353 -0.84327805 -0.6629532
-0.36499375 -0.54472923 -0.56943 -0.15815453 -0.66831636 -0.8124904 -0.5970787 -0.5477068
-0.57530904 -0.5428599 -0.6566881 -0.66337174 -0.5805384 -0.78026295 -0.97664165 -1.54458
-0.83199847 -1.062561 -1.0742263 -0.8798806 -0.61897004 -0.77741253 -0.7556065 -0.48615283
-0.52114606 -1.2841648 -1.1840588 -0.99205303 -1.1121707 -0.961228 -0.91603476 -0.710686
-0.97895646 -0.976869 -0.86307573 -0.6990032 -0.9501891 -1.0808305 -1.1450443 -0.7797943
-0.97909284 -0.92307025 -0.9491371 -0.8138297 -1.0870734 -1.0211976 -1.1198889 -0.6798945
-0.9076541 -0.8901158 -0.9002133 -0.91918945 -0.67285055 -0.5701857 -0.6032077 -0.7016825
-1.0035915 -1.0770653 -0.91666496 -0.8309019 -1.0476292 -1.0050778 -0.9346089 -1.6287878
-0.72095966 0.17213985 -0.35347626 -0.24148078 -0.5521216 -0.22913012 -0.51895225 -0.20122856
-0.41325423 -0.38484356 -0.8981403 -0.20453954 -0.2053159 -0.46644673 -0.76019734 -0.37188953
-0.6887808 -0.3599086 -0.7009114 -0.33310986 -0.699398 -0.5341107 -0.5485049 -0.22172493
-0.6576724 -0.5813302 -0.81652045 -0.3854534 -0.29573163 -0.4200724 -0.5041801 -0.19381894
-0.7253908 -0.2928667 -0.49635288 -0.4720655 -0.5845334 -0.4206298 -0.55955845 -0.16459447
-0.62034976 -0.32149482 -0.5304083 -0.26288852 -0.5172207 -0.6820291 -0.35440323 -0.5712204
-0.5860889 -0.46886677 -0.6087397 -0.40223944 -0.7010639 -0.3402429 -0.69954914 -0.513408
-0.4963991 -0.93148774 -1.0844703 -0.77354676 -0.7688368 -0.9759629 -0.6948995 -0.5486097
-0.27350858 -0.49680507 -0.5268493 -0.12536241 -0.63801074 -0.75874066 -0.6010636 -0.48756143
-0.51407707 -0.49176696 -0.62286806 -0.6291946 -0.5049539 -0.6881556 -0.90314317 -1.4281175
-0.6809352 -1.0045809 -1.0410731 -0.81870544 -0.52531326 -0.6780862 -0.6337222 -0.40913588
-0.47423983 -1.1928855 -1.0919394 -0.90163726 -1.0634681 -0.8597397 -0.8917715 -0.75777125
-0.97266006 -0.956989 -0.88743293 -0.67134583 -0.8194045 -0.9301381 -1.1095276 -0.7684657
-0.9502745 -0.8727968 -0.9155394 -0.68269134 -0.904209 -0.92574775 -1.05685 -0.8174498
-1.0036734 -0.86291456 -0.75614953 -0.7824683 -0.6364622 -0.55146754 -0.62917906 -0.5971875
-0.8999468 -1.0603367 -0.98919696 -0.72332436 -0.9841222 -0.9087271 -0.7784711 -1.4741029

model/activation/Relu;model/batch_normalization/batchnorm/add_1 f4 [128]
00000000: 6008 9240 37d5 8fc0 9aed ecbf b402 de3d
00000010: b952 a640 f955 75c0 955f c940 78bb 1a41
00000020: 60db 99be 5eab 9dbf f8da 55bf 8096 63c0
00000030: 1f2b 553f 1b03 443e c62f 3440 4b3d f93f
00000040: 61a3 19c0 22ff 923f 3159 7c40 ff7b 1cc1
00000050: d893 1cc0 89dd b4bf af96 3c3e 096b a03f
00000060: 758f 5dc0 72ce 1c40 a4ac 673f e867 5340
00000070: 2130 15c0 7b61 0241 e9fb 6840 3659 1c40
00000080: 6cac f83b 0612 8b3f f2c3 bd3f b3d6 a33e
00000090: 1f10 55c0 70d1 ed3f 08e1 273f a808 65bf
000000a0: 627c 9640 2e72 1e3e 24fb 0540 bc44 c4bf
000000b0: e032 73bf 7dce 81bf f579 f4bf 780e 613f
000000c0: fa2b 09c0 0952 9ebf 4d3f 013f 179e 2d40
000000d0: bbfa 893f dbce 9abf 46f4 56bf 84f7 40c0
000000e0: 0600 bf3f 7327 4c40 bddc 61c0 8111 5940
000000f0: f124 3440 2b7e 56c1 fd59 d9bf fe4d 42c0
00000100: 3bae 633f 4ab5 84bf 9e2c cd3e ce9d 8d40
00000110: 0104 5940 d325 4640 a178 093f e6a7 4d3f
00000120: 1363 5f40 f82b 10c0 f850 2dbf 26f1 16c0
00000130: 6b69 903e 20a2 613f 151e 9fc0 b93b 9ec0
00000140: 74bc c3bf 2027 55be 0f99 c43f f174 8d3f
00000150: e052 bd3f 45d1 8140 cd10 5a41 be7a 0ac0
00000160: 8ba7 3940 8115 a63f 89a6 9840 2110 4f3f
00000170: 3578 89bf 00a4 f7bf ddb0 d4be 6a28 ad3f
00000180: ff1c 54c0 c38b 2441 33d0 7a40 2b25 0bc0
00000190: 71ec 94bf c068 8640 f2ee 3f40 0cf1 6440
000001a0: eeeb f03f 5a12 4dbf b841 9ebf 1c2c d4be
000001b0: ab60 4dc0 46a9 19c1 19ba 4240 512b dabf
000001c0: 9549 6b3f 1b0b bdbf fe37 d43f a69d 8a3f
000001d0: 23d6 5540 f290 b4bf 3c92 fa3f 51dc e1bf
000001e0: 692f d9c0 179e 91c0 f155 05bf e820 57bf
000001f0: d784 883e a225 1940 2311 0ebe 5b70 3fbf
4.5635223 -4.494777 -1.851001 0.10840359 5.197598 -3.8333724 6.2929177 9.670769
-0.30050182 -1.2317922 -0.83537245 -3.5560608 0.8326892 0.1914181 2.8154159 1.947183
-2.4005969 1.148411 3.9429438 -9.7802725 -2.4465237 -1.4130107 0.18416856 1.2532665
-3.461881 2.4501004 0.90497804 3.303217 -2.3310626 8.148799 3.6403754 2.442945
0.0075889137 1.0864875 1.4825423 0.3199974 -3.329109 1.857954 0.65577745 -0.89466333
4.7026834 0.15473244 2.0934534 -1.5333476 -0.94999504 -1.014114 -1.9099718 0.879127
-2.143309 -1.2368785 0.50487214 2.712774 1.0779642 -1.2094377 -0.8396648 -3.0151072
1.4921882 3.1899078 -3.5290978 3.3916934 2.8147547 -13.405803 -1.6980587 -3.0360103
0.8893773 -1.0367825 0.40073103 4.4255133 3.3908694 3.0960586 0.5369969 0.8033432
3.490422 -2.2526836 -0.67701674 -2.3584685 0.28205428 0.8813801 -4.972422 -4.9447904
-1.5291886 -0.20815706 1.535921 1.1051313 1.4790916 4.0567956 13.629102 -2.1637416
2.900851 1.2975312 4.770329 0.80883986 -1.0739809 -1.9346924 -0.41541186 1.3527958
-3.3142698 10.2841215 3.9189575 -2.1741436 -1.1634656 4.200287 2.998959 3.5772123
1.8822 -0.8010613 -1.2363806 -0.41439903 -3.2090251 -9.6038265 3.0426085 -1.7044469
0.9190915 -1.4769014 1.6579587 1.082936 3.3411949 -1.4106734 1.9575877 -1.764536
-6.7870374 -4.550548 -0.5208426 -0.84034586 0.2666385 2.392922 -0.13873725 -0.74780816

model/activation_1/Relu;model/batch_normalization_1/batchnorm/add_1 f4 [128]
00000000: 30c1 3abe 347f 6e3e 269a ce3d 0a0f 2abf
00000010: 17e9 6bbf b50f 01bf 9e17 003f 18b0 39be
00000020: 6a3a cfbd 2db4 e1bc e71f 8cbf 8109 d63d
00000030: 09ef b73d 1e84 1a3f b86c 083d 8fa5 8dbe
00000040: 3ba2 10bf 06e0 143e 284a cebe e971 fe3d
00000050: aed0 3ebc 90cb 83be f99e c53e 984e 6abc
00000060: 3bde 6f3f ec42 3d3f bc95 713e afec d23e
00000070: 1ebd 013f 9ad4 003f 4186 823e ab98 cbbe
00000080: 697c f43e f848 073f 60cd 393e d839 03bf
00000090: 3905 ccbe 5714 01bf cb33 253e 41d4 1c3f
000000a0: f79d b4bc 12fa 2f3f ef87 383f 2980 c6be
000000b0: 5270 6b3e 77d8 5fbe 5424 b13e e91d a1be
000000c0: 17c3 eb3d 590f 503e 55d8 62bf 9f1b 46be
000000d0: b81f a33e 136b 1fbd ffe5 17be ce07 0fbe
000000e0: 6c7e 913e 1e5a 1dbf 8df8 95be 5984 17be
000000f0: 408a cebd bde5 95be c278 ec3e 330e 8e3e
00000100: 5956 e2bc b4db c63e f6e9 f43e 62c9 6cbe
00000110: 551c 20bd acfe 22bf 95bf cb3d c38e 05bd
00000120: bf3b 6abe 0b2b 843c cbb1 25c0 016d a0be
00000130: f206 cc3e 616b 05bf dbf8 f23e 89a8 dc3e
00000140: 3fc8 eabe ee55 afbd 81c0 b0be 359b 293e
00000150: 6697 153f e558 ecbe 4912 153e 3239 b53e
00000160: fde6 61bf 08b6 6b3d 6518 91be 0e65 873e
00000170: 1c55 b8bf 4b92 cf3d bdb0 43be 740d 7f3e
00000180: 2210 94be c5fb b6bd bc19 c53c 61fd 643d
00000190: 88fc 1bbf e3f1 2bbe 2de2 0a3f f48c f2be
000001a0: c656 2abe 744f e4ba c9b6 703d 05cd 97bf
000001b0: 683c 0fbf 0ee2 79bf 6297 6e3f e6a2 5cbe
000001c0: 7e75 bd3e 4d3f 4c3f 1d7f f53d 65ad 433f
000001d0: cb6d 4e3e 0925 783e d5b3 9c3e 6d6e 01bf
000001e0: 19f9 cebd e694 8f3d 0334 6fbe 0916 8b3f
000001f0: f1a8 e13e eac3 d33d 78c9 0d3f 9c78 2a3f
-0.18237758 0.23290712 0.10087995 -0.664292 -0.9215254 -0.5041459 0.50036037 -0.1813358
-0.101185635 -0.027551735 -1.0947236 0.104510315 0.08981139 0.60357845 0.033306807 -0.27665374
-0.56497544 0.14538583 -0.40290952 0.124240704 -0.011646433 -0.25741243 0.3859785 -0.014300965
0.9369847 0.7393024 0.23592275 0.411962 0.50679195 0.50324404 0.25493053 -0.39764914
0.47751167 0.52845716 0.1814475 -0.5126014 -0.39847735 -0.5042166 0.16133039 0.61261374
-0.02204798 0.6874095 0.7208242 -0.38769653 0.22992066 -0.21859919 0.3459803 -0.31468132
0.1151182 0.20318355 -0.88611346 -0.19346474 0.31860137 -0.038920473 -0.1483383 -0.13967821
0.28416765 -0.6146563 -0.29291192 -0.1479658 -0.10084963 -0.2927684 0.4618588 0.27745208
-0.027629064 0.38839495 0.47834748 -0.23123696 -0.03908952 -0.6366985 0.09948651 -0.03260685
-0.22874354 0.016133806 -2.5889766 -0.31333163 0.3984905 -0.5211697 0.47455487 0.43097332
-0.458559 -0.08561312 -0.3452187 0.16563113 0.5843414 -0.4616157 0.14557756 0.353952
-0.88243085 0.057546645 -0.28338924 0.26444286 -1.4400973 0.10135325 -0.19110389 0.24907476
-0.28918558 -0.0893474 0.024060123 0.055905703 -0.6093221 -0.16791491 0.54251367 -0.47373164
-0.16634664 -0.0017418698 0.058768068 -1.1859442 -0.5595155 -0.9761056 0.9319974 -0.21546516
0.37003702 0.7978409 0.119871356 0.76436454 0.2015907 0.24232878 0.3060595 -0.5055912
-0.10106105 0.07010822 -0.23359685 1.08661 0.44074205 0.10340102 0.5538554 0.66590285

model/activation_2/Relu;model/batch_normalization_2/batchnorm/add_1 f4 [128]
00000000: 6e0e 803c 6570 a2c0 c055 113e 096d 403e
00000010: 8867 5cbe 322c 683e 15c4 2abd 3d41 0dbd
00000020: d749 e13d 49b4 5cc0 84cc 173e 3663 903e
00000030: 49f4 d63d 3aec 143e ac11 f43e abb7 abba
00000040: fee4 32be 201a be3d c389 a23f eda7 0c3e
00000050: b916 873c bdcb 783e 6b30 3c3f ab1c c53d
00000060: 4969 e0be 21ff 233f b9b3 043e 2a70 d03e
00000070: 88bf cf3e 1b25 633c ca96 b83e 943b e43e
00000080: f955 2abf 0f81 723f fb33 c83c d886 39bc
00000090: 691f 773e d8c8 18bf a2e1 28c0 ad67 a1bc
000000a0: b7c8 7dbe 1ef6 36be 08d8 adbf 4a59 e43e
000000b0: 8f0c 5bbe 7da0 a63e 8a08 463e 1388 543f
000000c0: 9ab4 c4bc f394 cebd 092d 61be 493c 053f
000000d0: 2ca5 20be 03c1 c23e feea 6f3e 5787 69bd
000000e0: a84a 8e3d 0c7b 173e e99a cd3d b3a3 8fbf
000000f0: 3807 543e 0496 9dbc 72ba 87be 4b2f 4bbf
00000100: 08e1 bf3d 4e51 53be 274d f03c 875c 14be
00000110: 368a eb3d 2f30 353f f888 13bd 99da c23e
00000120: 7007 063f 9a7c 753e 2b92 0a3e 3b4d 123f
00000130: 2d9b 043f 09ec a4be 7dc6 f33e b910 793d
00000140: 8519 f4bd 49ad 193e 5955 2dbd 3266 0dbe
00000150: e8f3 a8bc 93b1 933e 892e f93e a7af 623f
00000160: e06b 393e 61d1 8f3e 4730 803e 0375 143f
00000170: 8866 e13e 2d0a a7be 9d0e f63c eda2 92bd
00000180: 1790 c13e eed7 b03d bd94 85bc 6894 86be
00000190: 8ecb 833e 4c85 38be 7057 e8be cc95 f3bd
000001a0: 5d0f b1be 7f57 8b3e 14f5 53be fab1 2f3e
000001b0: 941b 283f b955 433e 422a 513f 8cfd 95c0
000001c0: 27a7 9f3d 640d a2bb cd0f 4a3e 778f cc3d
000001d0: 93b3 893d 95f9 93c0 e2a8 35bd cc17 aa3e
000001e0: 608f 643e 14db 84be ec32 853e 9ee2 95be
000001f0: 3fad 133f ee49 1c3c 844a 1e3f 9a43 91be
0.01563188 -5.07622 0.14192867 0.18791594 -0.21523869 0.22673109 -0.041690905 -0.034486044
0.11000412 -3.4485037 0.1482411 0.28200692 0.104958124 0.14543238 0.47669733 -0.0013101002
-0.17470166 0.09282327 1.2698292 0.13735934 0.016490327 0.2429647 0.7351138 0.096246086
-0.43830326 0.6406117 0.12959184 0.40710574 0.40575814 0.013863827 0.36052543 0.44576705
-0.66537434 0.9472818 0.024438849 -0.011323653 0.24133076 -0.59681463 -2.6387715 -0.019702757
-0.24783598 -0.17867324 -1.3581553 0.44599372 -0.2139151 0.32544318 0.19339195 0.8302013
-0.024011899 -0.100870036 -0.21989836 0.5204511 -0.15688008 0.3803788 0.23429486 -0.057013836
0.06947833 0.14793032 0.100393124 -1.1221832 0.20705879 -0.019236572 -0.26509434 -0.7936904
0.09369093 -0.20636484 0.029333664 -0.14488421 0.11500971 0.7077665 -0.036019295 0.38057402
0.523551 0.23973313 0.13532321 0.57149094 0.5179928 -0.3221133 0.47612372 0.060806964
-0.1191893 0.1500751 -0.042317722 -0.13808516 -0.020624116 0.28846416 0.48668316 0.88549274
0.18107557 0.2808943 0.25036833 0.57991046 0.44023538 -0.3262495 0.030036265 -0.07159982
0.37805244 0.08634935 -0.016306276 -0.262851 0.25741237 -0.18019599 -0.4537921 -0.11893806
-0.34582034 0.27215192 -0.20698959 0.17157736 0.6566708 0.1907567 0.81705105 -4.6872005
0.07795554 -0.004945444 0.1973259 0.09988301 0.06723704 -4.6242166 -0.044350512 0.3322128
0.22320318 -0.25948393 0.26015413 -0.29274458 0.5768623 0.009539111 0.6183245 -0.28371888

model/activation_3/Relu;model/batch_normalization_3/batchnorm/add_1 f4 [128]
00000000: 1757 2c3f 4d52 8e3e e0d0 853e 10e2 983e
00000010: 933e 09be 99e8 243f 9368 623f 4ffd e3bb
00000020: ed91 92be 1fa6 a6be caa3 bc3e 7550 a4bf
00000030: 1d6e 963e 97db f3be b6fb 123f 3138 a5be
00000040: 3738 383f 0450 283e a5c1 80be 69ed 1f3e
00000050: 01a1 c53e 7f0c 603e f03f e13e aac3 dbbf
00000060: aa24 8b3e ebfe 663f e626 693e b46f cb3e
00000070: c9b9 643f f01d 883e 30f0 cc3e abfa 19be
00000080: 0ae0 28bf e39f 233f fdcc 13be 34cc e43e
00000090: c90d ef3e 2a11 113f 754e 513f f911 ebbf
000000a0: 979f eb3e d49f 073f 01af 3dbd 6965 a0bd
000000b0: 6025 223e b226 003d def7 993e 7f32 923e
000000c0: 9893 0b3e be5f cb3d 510c 4bbd 33f4 b83e
000000d0: 19f2 a23d 7ace 083e 6732 97be 793f 023f
000000e0: b06d 1dc0 79a9 073f 38d9 e2bb 6608 e3be
000000f0: 46a8 7cbc 3d6f 413f 7141 09c0 924d 713e
00000100: f77f 8c3e 03c3 53be 65cc 77be a93d fd3e
00000110: b242 febd 216c ffbe a00b 1f3e f4ad 2cbc
00000120: e387 e3bd af77 4b3d 3fad aa3e 4062 0dbe
00000130: dafe 153f 192a 0f3f a7f7 5f3e 4bd3 393f
00000140: 7822 fbbd b2fe 933d 3967 3c3f f838 b53e
00000150: ba15 2e3f b7f7 8f3d 3264 33c0 8e29 063f
00000160: ae9b cb3e c666 053f 87d3 873d cd8e 21bf
00000170: dfda ecbd 22a2 d9be 1ce2 903e 69f7 873f
00000180: 4298 a5be 53a9 c63e 128a 063e 1e37 5cbe
00000190: d304 b0be 0a6a 12c0 ae42 4d3c da4c f03e
000001a0: 0e33 28be 7624 0cc0 8b20 8cbe 33c5 fabe
000001b0: 67e1 513f bd4e 073f b838 b7bf a819 f93e
000001c0: c83d 14bf bd0c 803e 51fe 823e 8fb4 f03d
000001d0: 9008 b23e df73 5d3e 2dc9 c1be 53ff 973e
000001e0: 3fb6 dfbf c02e c3bd 942b 8e3e e8cb e63e
000001f0: f8bd 0fbe 7acf 44bd 66b1 88be df03 d73e
0.6732039 0.27797166 0.2613592 0.29859972 -0.13402776 0.64417416 0.8844082 -0.006957687
-0.28626958 -0.32548615 0.3684371 -1.2837054 0.29380885 -0.4762847 0.5741533 -0.32269433
0.7196078 0.16436774 -0.2514774 0.15617909 0.385994 0.21879767 0.43994093 -1.7169087
0.2717641 0.90232724 0.22768745 0.3973366 0.89345986 0.2658534 0.40027 -0.15037028
-0.65966856 0.6391584 -0.14433666 0.44687045 0.46690205 0.56666815 0.8176034 -1.836486
0.46020195 0.52978253 -0.046309475 -0.078318425 0.1583457 0.031286903 0.3007192 0.2855415
0.13630521 0.09930371 -0.049572293 0.3612381 0.07956333 0.13360015 -0.2953064 0.508781
-2.4598198 0.5299297 -0.006922867 -0.44342345 -0.015420979 0.7556036 -2.1446192 0.23564747
0.2744138 -0.2067986 -0.24199064 0.49461105 -0.12415065 -0.49887183 0.15531778 -0.0105395205
-0.11109903 0.049674686 0.333353 -0.1380701 0.58592 0.5592361 0.21871816 0.7258803
-0.12262434 0.07226314 0.73595005 0.35395026 0.680019 0.0702967 -2.8029904 0.5240716
0.39767212 0.52109945 0.066321425 -0.6310852 -0.11565184 -0.4250651 0.28297508 1.0622379
-0.32342726 0.3880106 0.13138607 -0.215054 -0.3437868 -2.287722 0.012528105 0.46933633
-0.16425726 -2.1897254 -0.27368578 -0.48978576 0.8198456 0.5285452 -1.4314184 0.48652387
-0.5790677 0.2500972 0.25584653 0.11753189 0.34772158 0.21626233 -0.37848797 0.29686984
-1.7477492 -0.09530401 0.27767622 0.45077443 -0.14037311 -0.048049428 -0.26697844 0.4199514

model/activation_4/Relu;model/batch_normalization_4/batchnorm/add_1 f4 [8]
00000000: ee4d c53f c49f 5e3f b093 0b40 c5f9 5a3f
00000010: 840f 3440 6ed9 c93f 30cf 913f de75 673f
1.5414407 0.86962533 2.1808891 0.8553737 2.813447 1.5769479 1.1391354 0.90414226

model/activation_5/Relu;model/batch_normalization_5/batchnorm/add_1 f4 [128]
00000000: eaf7 97c0 fc67 1bc0 0fff 99c0 33d9 ea3f
00000010: cb89 133f 32c6 2e40 9605 cabf 54bb 1740
00000020: 3abb 59c0 5893 0040 58ee 95c0 4972 933e
00000030: 9a32 cbbf b7af db3e abf1 dac0 68bc 09c0
00000040: 4378 5f40 6e7a 2c3f 5b88 623f 3cbe 4a40
00000050: e2ff 8dc0 a63c 373f cd23 32c0 86b4 593f
00000060: 6714 d3c0 2329 6440 673c c4be bbeb 1e40
00000070: c323 7c40 8d66 3040 dd8d 273f b2be aec0
00000080: fe30 10bf beb4 a73f e5db 3540 00c0 1840
00000090: e3a0 8940 79d2 9f40 1698 a040 398f 24c0
000000a0: a700 7e40 5316 5f40 5672 06c0 545a b440
000000b0: b387 2640 2e16 c7bf a3c8 26c0 714c 0dbf
000000c0: 39f5 57be b33c b8c0 baad 15c0 18aa b93f
000000d0: 5591 17c0 5d02 b440 6403 ed3e 5473 da3f
000000e0: b7b1 193f 6edd 3140 f2c0 f1bf 2fc8 cc40
000000f0: 045c 41c0 e751 0340 8b97 49c0 5f92 923e
00000100: 9d90 573f cbd7 5d40 26e5 06c0 0e25 a440
00000110: 58ea 8b40 8e9a aac0 b520 e53f 3824 943f
00000120: 0a7c 0cbf 648b ba3f 14c4 f2be 4f7d 3440
00000130: 6efb ffc0 fcb0 ffbf 1b16 c0c0 d412 1c40
00000140: 3d2a 8040 661b 8cbf 440a 66bf b8e9 87c0
00000150: 6c44 aebf 790f 8bc0 a715 14bf e090 0e40
00000160: 1321 1e40 175b aebf a196 64c0 6f0c 94c0
00000170: 42b4 45bf ae1c 5e3e ed64 cf3e a251 60c0
00000180: d7e0 2140 7596 6cc0 11df 4440 9492 2940
00000190: a167 133f e682 bfbf b7eb fc3e ee16 103f
000001a0: 243d 85bf abe2 28c0 8ad6 a240 708a 0b40
000001b0: a49a 883f c809 55bf f04b 383f 61b3 8f40
000001c0: 5fcb ab40 84fc 0d3d 68e2 7f3f a25a a3c0
000001d0: ed04 7440 0e7a 90bf f800 8d3f c75b 1440
000001e0: 9940 9240 3971 d2be 81d7 933f a812 a1c0
000001f0: c47f f73f 7e3a d93f fc9a 9dc0 95dd e73e
-4.749013 -2.4282217 -4.812385 1.8347534 0.5763213 2.730847 -1.5782955 2.3708086
-3.4020524 2.0089931 -4.6853447 0.2879813 -1.5874817 0.42907497 -6.8420005 -2.1521244
3.4917152 0.6737431 0.8848931 3.167861 -4.4374857 0.7157692 -2.783435 0.8504108
-6.5962405 3.5650108 -0.38327333 2.4831378 3.9396827 2.7562592 0.6545084 -5.460778
-0.56324756 1.3102033 2.8415463 2.3867188 4.3008895 4.9944425 5.018565 -2.5712416
3.9687898 3.4857376 -2.1007285 5.6360264 2.6020324 -1.5553644 -2.605996 -0.55194765
-0.21089639 -5.7574096 -2.3387284 1.4505033 -2.3682454 5.6252885 0.4629165 1.7066445
0.60036796 2.77914 -1.8887007 6.3994365 -3.0212412 2.051874 -3.1498744 0.28627297
0.8420504 3.466296 -2.107736 5.1295233 4.3723564 -5.3313665 1.7900606 1.1573553
-0.5487677 1.4573789 -0.4741522 2.8201482 -7.999442 -1.9975886 -6.0026984 2.4386492
4.005156 -1.0945861 -0.89859414 -4.24728 -1.3614631 -4.3456388 -0.5784554 2.2275925
2.4707687 -1.3621548 -3.5716937 -4.626518 -0.77228177 0.21690628 0.40506688 -3.5049825
2.5293481 -3.6966832 3.076115 2.6495714 0.5758 -1.4961822 0.49398586 0.5628499
-1.0409284 -2.6388347 5.088689 2.1803246 1.0672193 -0.8321805 0.7199087 4.490647
5.3685756 0.034664646 0.99954844 -5.1048136 3.8128006 -1.1287248 1.1015921 2.3181016
4.5703855 -0.41102007 1.1550142 -5.0335274 1.9335866 1.6970975 -4.925169 0.4528624

model/activation_6/Relu;model/batch_normalization_6/batchnorm/add_1 f4 [128]
00000000: 1163 febd eeb9 a73f ee54 0d3f 9afa b33e
00000010: 3822 46be d028 1abf ec43 0e3f 3bb2 143d
00000020: d859 ae3e 8853 283f 322a f23e a23c dfbd
00000030: c836 df3e 355e 3a3f 3246 933e fd2f b4bf
00000040: 3461 42bf e315 ce3f 1220 2fbf 9a6f c2be
00000050: 5ec9 dabe 8c1c 0a3f 03ea b23e 945b 9e3e
00000060: 027f 073e 6385 733f c516 1fbe 544a 573f
00000070: 65a3 c63f 3af0 24be 82db 08bf 150f dc3e
00000080: c160 0a3f 9e63 153f d635 7e3e b9d3 e6bf
00000090: 542c b03d ad95 a03e 7057 81bf 6f1c 8dbe
000000a0: a553 963f 71b5 59be e371 423f 65a3 2fbd
000000b0: 4ac0 283f ef8a c13e 43f7 2a3f dfde 58bf
000000c0: 6a93 18bf 7540 32bf 4a67 52bd 160c 6fbf
000000d0: 8206 bc3f 3612 0bbf 64a1 b13f fceb db3e
000000e0: b489 f53a 5258 313f f35d 84be d6b2 8b3f
000000f0: 1bef 9d3f 4419 353f c99e fc3e 95d5 993f
00000100: 7f89 583f c351 9ebf 60d3 83be d5a4 fabe
00000110: b91e 60be 8a13 23be 9679 953f 28bb 483f
00000120: e393 513f cadd a83f 413d 0b3f b875 b43d
00000130: 6dcc 80be 5a5a 3d3f fd60 103f c5c8 9cbe
00000140: 3cc4 3fbf 64f6 783f 2fe6 243f 1cb2 da3d
00000150: 76f0 223f 94f6 07bf 5d01 1cbf fa6f 463f
00000160: 87e9 db3e 5aa5 c03f 1427 0c3f 8b2a 113f
00000170: f9a5 1bbd 591c acbe e564 c63e 6bda d03e
00000180: 2632 383f 4636 233f 1304 96be 0bca 983f
00000190: 7c74 d73e 8fd1 8abe fb23 843f 4e3d 233d
000001a0: 922f e5be 2f4a 80bf 3608 083f d528 6c3f
000001b0: 94ec 413f f04a 983e 5e99 6abf 4902 423f
000001c0: 3cab ce3c 32ea 99bd 5d05 643f cf9b 4abd
000001d0: bf1a ff3e 8cd8 21be 411e 9b3e e9b5 1a3f
000001e0: 5120 ee3e 1823 b0be f307 e23e 9fa9 c0be
000001f0: d1b5 913e dee2 493e 01f5 6d3e c985 373f
-0.12421239 1.3103616 0.5520772 0.3515213 -0.19348991 -0.60218525 0.5557239 0.036302786
0.3405292 0.6575246 0.47297817 -0.10900237 0.43596482 0.728 0.28764492 -1.4077145
-0.7592957 1.6100429 -0.6840831 -0.3797577 -0.42731756 0.5394981 0.34944162 0.30929244
0.13232043 0.95125407 -0.1553603 0.8409779 1.5518614 -0.16107264 -0.5345994 0.42980257
0.54053885 0.5835513 0.24825224 -1.8033363 0.08602205 0.31364194 -1.0104809 -0.27560756
1.1744276 -0.2126062 0.7595503 -0.042880435 0.6591841 0.3780131 0.6678354 -0.84715074
-0.59599936 -0.69629604 -0.051368035 -0.93377817 1.4689486 -0.5432466 1.3877378 0.4295348
0.0018733055 0.6927539 -0.25852928 1.0913951 1.2338594 0.7074168 0.49339893 1.2018305
0.845848 -1.2368702 -0.25747204 -0.48953882 -0.2188672 -0.15925422 1.167773 0.7841058
0.8186628 1.3192685 0.5439034 0.088115156 -0.25155964 0.7396599 0.5639799 -0.30621925
-0.74908805 0.9725096 0.6441373 0.10678503 0.63648164 -0.53110623 -0.6093958 0.7751461
0.42951605 1.5050461 0.5474713 0.5670554 -0.03800008 -0.33615378 0.3874885 0.4079164
0.7195152 0.6375469 -0.29299983 1.1936659 0.42081058 -0.27113006 1.032348 0.039853387
-0.44762856 -1.0022639 0.5313753 0.92249805 0.75751615 0.29744673 -0.9164027 0.75784737
0.025228135 -0.07515372 0.89070684 -0.049464997 0.49825093 -0.15805262 0.3029652 0.6043382
0.4650903 -0.34401774 0.4414669 -0.3762941 0.28459027 0.19715449 0.23237993 0.71688515

model/activation_7/Relu;model/batch_normalization_7/batchnorm/add_1 f4 [128]
00000000: 790c 1cbf 57aa 673f 1c8f 75be fc65 2e3f
00000010: 8cd8 5e3f bb32 a73f 1585 35bf c66a f23e
00000020: 2a38 3bbe 434b 6bbe 6af4 0dbe f11c 9f3e
00000030: 3605 de3f edb7 2b3f f583 1f3f 9e12 b33f
00000040: d794 593e c8b6 a33e 5ef7 f73e 2825 4cbf
00000050: 85eb e9be af53 18bf a107 c23f 2cfe 9abe
00000060: 9017 32bf 6a86 3a3f 87b0 643f 15ca 8d3f
00000070: b07f 3e3f e133 3fbf 6675 683f a877 ffbe
00000080: ae82 1d3f f102 f4be 65bb 8a3c b9fb 2f3f
00000090: 4d6a 833f bc88 4fbf c21e b9be f249 ef3e
000000a0: e306 07bd ffbf 363e 522f c8bc 9c59 bdbe
000000b0: 9d74 e3bd c7b5 96be 5d17 81bd 79d2 683f
000000c0: df92 003f 5c17 ab3e 9b43 933e 3dc6 0a3f
000000d0: 724d a5be 530f 913e e070 c3bf f5e8 77be
000000e0: 68b8 123f b393 2a3e bd4a 453f e53b 213e
000000f0: bf53 043f aaf2 24be f564 313e 1c85 9abf
00000100: e924 ab3f cd53 84bd 0f43 11be a360 3d3e
00000110: 0685 953f 2a84 d13e 13e0 7abe f33c edbf
00000120: ccb5 0fbf 01e2 d5bc 4bcf 70bf 1336 a43f
00000130: 99a2 1cbe cf97 403f 201a cebe 2d8e 1cbe
00000140: acd8 b33e f502 463e 2824 523f f281 9ebd
00000150: d141 39bf 9785 29bf c5b4 1b3e 12e7 7abe
00000160: 331a a33f a3a0 69bf 1680 9ebe a9b1 7c3f
00000170: 6af2 7ebe f063 2c3e a81b 973e a44e 51bf
00000180: a0a2 cf3b 3c8e 633f 60cb adbe 2950 94be
00000190: 5192 b5be a86f a9be 52b2 d7bb 0473 81bf
000001a0: 6b8b ef3e afc2 203f bf5c f63e 50f8 203e
000001b0: 451b b2be 393c 663f 1360 ce3e a081 f63e
000001c0: be40 f83e 279e e7be c164 ec3e 1259 f13e
000001d0: 509f 073f ce14 9abe ab93 36bf 043c 8b3e
000001e0: a968 17be b137 403f 9f2e 5bbe bdbe 333f
000001f0: d88a 8b3e edcd 973f eff9 643c a2ff f7be
-0.6095653 0.9049429 -0.23980373 0.68124366 0.87049174 1.3062357 -0.7090619 0.47347087
-0.18283144 -0.22977929 -0.13862768 0.31076768 1.734534 0.67077523 0.62310725 1.3990057
0.21248184 0.3197539 0.48430914 -0.79744196 -0.456875 -0.5950269 1.5158578 -0.30272043
-0.69567204 0.7286135 0.8933186 1.1077296 0.74413586 -0.74688536 0.90804136 -0.49895978
0.61527526 -0.47658494 0.01693506 0.68743473 1.0266815 -0.81068015 -0.3615628 0.46736103
-0.032965552 0.17846678 -0.024436627 -0.3698243 -0.111062266 -0.2943556 -0.06303284 0.90946156
0.5022411 0.3341626 0.28762516 0.5420874 -0.3228565 0.28332004 -1.5268822 -0.2420996
0.5731263 0.16657905 0.77067167 0.15745504 0.51690286 -0.16108194 0.17323668 -1.2071872
1.3370639 -0.06461296 -0.14185737 0.18493895 1.168122 0.40921146 -0.2449954 -1.8534225
-0.56136775 -0.026108744 -0.94066304 1.2829002 -0.15296401 0.7523164 -0.40254307 -0.15288611
0.35126245 0.19337066 0.8208642 -0.07739629 -0.7236605 -0.66219467 0.15205677 -0.24502209
1.274237 -0.9126074 -0.30957097 0.9870859 -0.24897161 0.16834998 0.29513288 -0.8176062
0.006336525 0.8888891 -0.33944225 -0.28967407 -0.35463193 -0.33093 -0.0065825367 -1.0113225
0.46786055 0.62797064 0.48117635 0.15719724 -0.3478643 0.8993564 0.40307674 0.4814577
0.48486894 -0.45237848 0.4617062 0.47138268 0.52977467 -0.30093998 -0.71319073 0.27194226
-0.14786018 0.7508498 -0.21404503 0.7021292 0.27254367 1.1859719 0.013975604 -0.4843722

model/activation_8/Relu;model/batch_normalization_8/batchnorm/add_1 f4 [128]
00000000: 207e c43f 0ff5 8a3d 56f6 753f 4bad 64be
00000010: 52d9 9b3f a47c 9e3e 4369 07be 9ec6 773e
00000020: 0641 5e3f 1576 4e40 c579 9d3e c4dc 8b3f
00000030: 3a4c cb3f 170a 3c3f fb51 5040 35fe 663f
00000040: ea07 2dbe 0bbb ab3f cc76 8f3f 6958 0e40
00000050: b662 683f ab50 843f ca21 d33f fedb e83f
00000060: 9c9e b53e e0d7 1440 d833 333f d42f 203f
00000070: f530 0e40 b77c a53f 78d5 4d3f 20fb fb3f
00000080: 64cc 8c3f d473 1abe de93 44be 0b13 143f
00000090: 8510 0040 764c 2640 1f50 053f 5824 863e
000000a0: 20f3 0540 b25c 643f 3294 b93f c878 0f3f
000000b0: 5e2c 0540 890a 3d3f e355 a33f 8671 cf3f
000000c0: 778b 2740 c2a9 7a3b fae7 363f 1b0c e73f
000000d0: 4d5b 813f be23 ff3f a963 e13e f6a3 0e3f
000000e0: c7e7 9c3f 7705 cf3f 6243 1f3f 5410 133f
000000f0: 9c1e bd3f 8774 6240 0a7f 1e40 0c45 353f
00000100: 0ac1 a83f 81d6 dc3e 980b 723f 8d64 b23f
00000110: 8d14 303f 2d12 4d3f 4746 d23e c051 db3e
00000120: 4f58 b03f 9ccf fa3f c5b5 a13f 3180 8e3f
00000130: 35aa 1f3f 93b3 acbe 101c 723f 3044 ce3f
00000140: f4a6 0740 bd32 863f d1ef 7dbe 4ebb b33f
00000150: afea 2d40 36ff ea3f c0c1 df3f 3218 953f
00000160: 43d0 6a40 7549 2040 2075 dc3e 57d6 0240
00000170: 7924 3e3f ab7d f93e 49b0 723f 0e15 2040
00000180: d5a1 933f 4754 2cbe 8aae b53f ba98 293f
00000190: 83c9 ca3e 02b8 e93f 36e8 bf3f 9dbb 333c
000001a0: b5dc 333f 9ac9 ba3f 8eaa 0040 1b72 853f
000001b0: 9eee cf3f 8caf 433f da10 1b3f edb0 813f
000001c0: 928a 2640 3ead 123f f443 5dbf 3f1f b13f
000001d0: 98a5 e33e c0b3 353f fd56 cd3f 60c7 db3f
000001e0: 892c 993f 371e 8e3f 8310 f13f d812 903f
000001f0: 93ab ec3e 7de4 583f 9ef0 1040 38ce 753f
1.535099 0.067850225 0.96079004 -0.22331731 1.2175696 0.30954468 -0.13223748 0.2419686
0.8681797 3.2259572 0.30756965 1.0926747 1.5882638 0.73452896 3.2550037 0.9023164
-0.1689755 1.3416456 1.1208129 2.2241461 0.9077562 1.0337118 1.6494687 1.8192136
0.35472572 2.325676 0.7000098 0.6257298 2.221738 1.2928685 0.8040385 1.9686012
1.0999875 -0.15083247 -0.19197032 0.5784156 2.0010083 2.5984168 0.5207538 0.26199603
2.0929642 0.8920394 1.4498351 0.5604367 2.080833 0.738442 1.2760586 1.620652
2.6178873 0.0038248156 0.7144772 1.8050569 1.0105988 1.9932783 0.44021347 0.55718935
1.2258233 1.6173543 0.62212193 0.5744679 1.4774966 3.5383623 2.4765038 0.7080848
1.3183911 0.43132403 0.9454894 1.3936936 0.6878136 0.8010586 0.41069242 0.42835808
1.377695 1.9594607 1.2633597 1.1132871 0.6236909 -0.33730754 0.9457407 1.6114559
2.119565 1.0484234 -0.24798514 1.4041536 2.717449 1.8359134 1.7481003 1.1648009
3.6689613 2.5044835 0.4305811 2.0443323 0.742744 0.4872869 0.9480024 2.501285
1.1533762 -0.16829024 1.419389 0.6624867 0.39606866 1.825928 1.499274 0.010970023
0.7025865 1.4592774 2.0104098 1.0425447 1.6244695 0.7643974 0.6057259 1.0132118
2.6022077 0.57295597 -0.86431813 1.383766 0.44462276 0.709774 1.6042172 1.717022
1.1966716 1.1102971 1.8833164 1.1255751 0.4622465 0.84723645 2.264686 0.9601779

model/batch_normalization/batchnorm/mul_1 i1 [128, 640] scale=0.00042889675 zero_point=0
00000000: fdfd 0101 fb02 fdfb fafa feff 050c 100d
00000010: fefb fcfd fb03 0303 fcfe 0001 ff03 0902
00000020: fffb 0303 0205 0903 fffc fcfe fcfa fbf9
00000030: fe02 fd00 02fd fdff fa00 00fb feff fe03
00000040: 02ff 0507 0300 fb00 04fa fdfc fcff feff
00000050: 01fb 01fb 01fd 0100 0304 0402 0302 0207
00000060: 0604 0405 0105 080c 0606 0200 0602 0306
00000070: 0807 0303 fd00 0506 0b09 0d05 0505 05ff
00000080: fdff 0001 fa01 fffd fbfc fd00 060a 100e
00000090: fdfc fcfe fd03 0203 fcfd ff00 0003 0801
000000a0: fef9 0303 0205 0a03 fffb fcfd fcf9 faf9
000000b0: fd01 fc01 00fe fefe fa01 01fd feff fd03
000000c0: 02fd 0406 0300 fa00 01fb fcfc fc00 01ff
000000d0: 02fa 01fb 02fc 0101 0403 0305 0103 0105
000000e0: 0502 0204 0105 090d 0503 01ff 0400 0106
000000f0: 0707 0206 fe00 0307 0807 0c02 0404 0300
-0.0012866902 -0.0012866902 0.00042889675 0.00042889675 -0.0021444838 0.0008577935 -0.0012866902 -0.0021444838
-0.0025733805 -0.0025733805 -0.0008577935 -0.00042889675 0.0021444838 0.005146761 0.006862348 0.005575658
-0.0008577935 -0.0021444838 -0.001715587 -0.0012866902 -0.0021444838 0.0012866902 0.0012866902 0.0012866902
-0.001715587 -0.0008577935 0.0 0.00042889675 -0.00042889675 0.0012866902 0.0038600708 0.0008577935
-0.00042889675 -0.0021444838 0.0012866902 0.0012866902 0.0008577935 0.0021444838 0.0038600708 0.0012866902
-0.00042889675 -0.001715587 -0.001715587 -0.0008577935 -0.001715587 -0.0025733805 -0.0021444838 -0.003002277
-0.0008577935 0.0008577935 -0.0012866902 0.0 0.0008577935 -0.0012866902 -0.0012866902 -0.00042889675
-0.0025733805 0.0 0.0 -0.0021444838 -0.0008577935 -0.00042889675 -0.0008577935 0.0012866902
0.0008577935 -0.00042889675 0.0021444838 0.003002277 0.0012866902 0.0 -0.0021444838 0.0
0.001715587 -0.0025733805 -0.0012866902 -0.001715587 -0.001715587 -0.00042889675 -0.0008577935 -0.00042889675
0.00042889675 -0.0021444838 0.00042889675 -0.0021444838 0.00042889675 -0.0012866902 0.00042889675 0.0
0.0012866902 0.001715587 0.001715587 0.0008577935 0.0012866902 0.0008577935 0.0008577935 0.003002277
0.0025733805 0.001715587 0.001715587 0.0021444838 0.00042889675 0.0021444838 0.003431174 0.005146761
0.0025733805 0.0025733805 0.0008577935 0.0 0.0025733805 0.0008577935 0.0012866902 0.0025733805
0.003431174 0.003002277 0.0012866902 0.0012866902 -0.0012866902 0.0 0.0021444838 0.0025733805
0.004717864 0.0038600708 0.005575658 0.0021444838 0.0021444838 0.0021444838 0.0021444838 -0.00042889675
-0.0012866902 -0.00042889675 0.0 0.00042889675 -0.0025733805 0.00042889675 -0.00042889675 -0.0012866902
-0.0021444838 -0.001715587 -0.0012866902 0.0 0.0025733805 0.0042889677 0.006862348 0.006004554
-0.0012866902 -0.001715587 -0.001715587 -0.0008577935 -0.0012866902 0.0012866902 0.0008577935 0.0012866902
-0.001715587 -0.0012866902 -0.00042889675 0.0 0.0 0.0012866902 0.003431174 0.00042889675
-0.0008577935 -0.003002277 0.0012866902 0.0012866902 0.0008577935 0.0021444838 0.0042889677 0.0012866902
-0.00042889675 -0.0021444838 -0.001715587 -0.0012866902 -0.001715587 -0.003002277 -0.0025733805 -0.003002277
-0.0012866902 0.00042889675 -0.001715587 0.00042889675 0.0 -0.0008577935 -0.0008577935 -0.0008577935
-0.0025733805 0.00042889675 0.00042889675 -0.0012866902 -0.0008577935 -0.00042889675 -0.0012866902 0.0012866902
0.0008577935 -0.0012866902 0.001715587 0.0025733805 0.0012866902 0.0 -0.0025733805 0.0
0.00042889675 -0.0021444838 -0.001715587 -0.001715587 -0.001715587 0.0 0.00042889675 -0.00042889675
0.0008577935 -0.0025733805 0.00042889675 -0.0021444838 0.0008577935 -0.001715587 0.00042889675 0.00042889675
0.001715587 0.0012866902 0.0012866902 0.0021444838 0.00042889675 0.0012866902 0.00042889675 0.0021444838
0.0021444838 0.0008577935 0.0008577935 0.001715587 0.00042889675 0.0021444838 0.0038600708 0.005575658
0.0021444838 0.0012866902 0.00042889675 -0.00042889675 0.001715587 0.0 0.00042889675 0.0025733805
0.003002277 0.003002277 0.0008577935 0.0025733805 -0.0008577935 0.0 0.0012866902 0.003002277
0.003431174 0.003002277 0.005146761 0.0008577935 0.001715587 0.001715587 0.0012866902 0.0

model/batch_normalization_1/batchnorm/mul_1 i1 [128, 128] scale=0.009358985 zero_point=0
00000000: fbf7 f907 100a 0b06 00ed f4ed f4fc 0402
00000010: f406 faf7 f0ff fe01 f016 f1fb 090a 0303
00000020: 02fa f7f7 e71d 08fe 05fe 0d05 f40f dc08
00000030: 0107 0ff4 0206 0501 03f5 fdf2 0c05 f7f1
00000040: 101e e9de ee01 080a 05f6 1b04 fafe f311
00000050: 03f7 fa0c ecfd ed11 f606 08f7 030f fa11
00000060: 1502 00f7 0401 e203 0c0b f925 0b07 f407
00000070: f3fd f9fb 11e3 030a 08f3 0607 0e0b f712
00000080: fa0c faf7 fa01 0ffb f7fd fff5 fd08 04fe
00000090: 0807 01f8 11ff 0af6 f104 fb03 fff1 03f6
000000a0: 0a06 f900 03fc f80a fc03 f8fd 0603 f601
000000b0: 03f8 fc0c 0a03 f8fe 070b fa0d 05f7 fdf9
000000c0: 01fa 01fd 0a11 0f02 f8ec fdff 000f fbf1
000000d0: fbf7 f7fb f9f7 1200 f9fd f402 0801 fffe
000000e0: 0101 0404 fd05 f20e 09fe 0304 ff04 040a
000000f0: 0206 f5fc 03fb 08fc 0f00 04ff 08f4 0b04
-0.04679493 -0.08423087 -0.065512896 0.065512896 0.14974377 0.09358986 0.10294884 0.056153912
0.0 -0.17782073 -0.112307824 -0.17782073 -0.112307824 -0.03743594 0.03743594 0.01871797
-0.112307824 0.056153912 -0.056153912 -0.08423087 -0.14974377 -0.009358985 -0.01871797 0.009358985
-0.14974377 0.20589767 -0.14038478 -0.04679493 0.08423087 0.09358986 0.028076956 0.028076956
0.01871797 -0.056153912 -0.08423087 -0.08423087 -0.23397464 0.27141058 0.07487188 -0.01871797
0.04679493 -0.01871797 0.12166681 0.04679493 -0.112307824 0.14038478 -0.33692348 0.07487188
0.009358985 0.065512896 0.14038478 -0.112307824 0.01871797 0.056153912 0.04679493 0.009358985
0.028076956 -0.10294884 -0.028076956 -0.13102579 0.112307824 0.04679493 -0.08423087 -0.14038478
0.14974377 0.28076956 -0.21525666 -0.3182055 -0.16846174 0.009358985 0.07487188 0.09358986
0.04679493 -0.09358986 0.2526926 0.03743594 -0.056153912 -0.01871797 -0.12166681 0.15910275
0.028076956 -0.08423087 -0.056153912 0.112307824 -0.18717971 -0.028076956 -0.17782073 0.15910275
-0.09358986 0.056153912 0.07487188 -0.08423087 0.028076956 0.14038478 -0.056153912 0.15910275
0.19653869 0.01871797 0.0 -0.08423087 0.03743594 0.009358985 -0.28076956 0.028076956
0.112307824 0.10294884 -0.065512896 0.34628245 0.10294884 0.065512896 -0.112307824 0.065512896
-0.12166681 -0.028076956 -0.065512896 -0.04679493 0.15910275 -0.27141058 0.028076956 0.09358986
0.07487188 -0.12166681 0.056153912 0.065512896 0.13102579 0.10294884 -0.08423087 0.16846174
-0.056153912 0.112307824 -0.056153912 -0.08423087 -0.056153912 0.009358985 0.14038478 -0.04679493
-0.08423087 -0.028076956 -0.009358985 -0.10294884 -0.028076956 0.07487188 0.03743594 -0.01871797
0.07487188 0.065512896 0.009358985 -0.07487188 0.15910275 -0.009358985 0.09358986 -0.09358986
-0.14038478 0.03743594 -0.04679493 0.028076956 -0.009358985 -0.14038478 0.028076956 -0.09358986
0.09358986 0.056153912 -0.065512896 0.0 0.028076956 -0.03743594 -0.07487188 0.09358986
-0.03743594 0.028076956 -0.07487188 -0.028076956 0.056153912 0.028076956 -0.09358986 0.009358985
0.028076956 -0.07487188 -0.03743594 0.112307824 0.09358986 0.028076956 -0.07487188 -0.01871797
0.065512896 0.10294884 -0.056153912 0.12166681 0.04679493 -0.08423087 -0.028076956 -0.065512896
0.009358985 -0.056153912 0.009358985 -0.028076956 0.09358986 0.15910275 0.14038478 0.01871797
-0.07487188 -0.18717971 -0.028076956 -0.009358985 0.0 0.14038478 -0.04679493 -0.14038478
-0.04679493 -0.08423087 -0.08423087 -0.04679493 -0.065512896 -0.08423087 0.16846174 0.0
-0.065512896 -0.028076956 -0.112307824 0.01871797 0.07487188 0.009358985 -0.009358985 -0.01871797
0.009358985 0.009358985 0.03743594 0.03743594 -0.028076956 0.04679493 -0.13102579 0.13102579
0.08423087 -0.01871797 0.028076956 0.03743594 -0.009358985 0.03743594 0.03743594 0.09358986
0.01871797 0.056153912 -0.10294884 -0.03743594 0.028076956 -0.04679493 0.07487188 -0.03743594
0.14038478 0.0 0.03743594 -0.009358985 0.07487188 -0.112307824 0.10294884 0.03743594

model/batch_normalization_2/batchnorm/mul_1 i1 [128, 128] scale=0.014315753 zero_point=0
00000000: 01fd fcff f804 f9ff 030c fdf7 ff07 0af4
00000010: fff1 0b05 ee09 ff04 fbfd 0012 faff fd05
00000020: f8f3 0a01 0304 f2fd f8f8 f9fe 05fc 0d09
00000030: 04ff 0104 00f9 01ff f904 fb03 06fb ff0d
00000040: 00fa 00ff 01fe f1ef f203 ff06 04ff 0cff
00000050: f201 fb0f fa0b f909 08f5 fdf4 0501 f802
00000060: 060a e701 03f8 f404 0206 05fc 01f6 060d
00000070: 03f6 1305 0bfe 0301 0805 ff06 f8ff 07fe
00000080: 0500 12ed 02f2 0602 04f1 140a 0615 f802
00000090: ee04 06f8 fff6 faf0 0526 0bfb fc05 1009
000000a0: 1705 0c19 f7fc 0f17 fe10 0a06 10f9 0e13
000000b0: ff09 fbf6 1605 f305 08fa 0b18 0408 0909
000000c0: 1913 0dfa 04f6 0a00 04fe fc02 f711 06f7
000000d0: 0107 fd11 1917 fe05 fdf6 00e8 1c19 f30b
000000e0: 03fd 0e00 1309 1c00 fb07 0bf7 0df9 e503
000000f0: 10ef 02f7 03fa 1801 0e14 0706 fdea 0509
0.014315753 -0.04294726 -0.057263013 -0.014315753 -0.114526026 0.057263013 -0.10021027 -0.014315753
0.04294726 0.17178904 -0.04294726 -0.12884177 -0.014315753 0.10021027 0.14315753 -0.17178904
-0.014315753 -0.2147363 0.15747328 0.07157876 -0.25768355 0.12884177 -0.014315753 0.057263013
-0.07157876 -0.04294726 0.0 0.25768355 -0.08589452 -0.014315753 -0.04294726 0.07157876
-0.114526026 -0.18610479 0.14315753 0.014315753 0.04294726 0.057263013 -0.20042054 -0.04294726
-0.114526026 -0.114526026 -0.10021027 -0.028631506 0.07157876 -0.057263013 0.18610479 0.12884177
0.057263013 -0.014315753 0.014315753 0.057263013 0.0 -0.10021027 0.014315753 -0.014315753
-0.10021027 0.057263013 -0.07157876 0.04294726 0.08589452 -0.07157876 -0.014315753 0.18610479
0.0 -0.08589452 0.0 -0.014315753 0.014315753 -0.028631506 -0.2147363 -0.2433678
-0.20042054 0.04294726 -0.014315753 0.08589452 0.057263013 -0.014315753 0.17178904 -0.014315753
-0.20042054 0.014315753 -0.07157876 0.2147363 -0.08589452 0.15747328 -0.10021027 0.12884177
0.114526026 -0.15747328 -0.04294726 -0.17178904 0.07157876 0.014315753 -0.114526026 0.028631506
0.08589452 0.14315753 -0.35789382 0.014315753 0.04294726 -0.114526026 -0.17178904 0.057263013
0.028631506 0.08589452 0.07157876 -0.057263013 0.014315753 -0.14315753 0.08589452 0.18610479
0.04294726 -0.14315753 0.2719993 0.07157876 0.15747328 -0.028631506 0.04294726 0.014315753
0.114526026 0.07157876 -0.014315753 0.08589452 -0.114526026 -0.014315753 0.10021027 -0.028631506
0.07157876 0.0 0.25768355 -0.2719993 0.028631506 -0.20042054 0.08589452 0.028631506
0.057263013 -0.2147363 0.28631505 0.14315753 0.08589452 0.3006308 -0.114526026 0.028631506
-0.25768355 0.057263013 0.08589452 -0.114526026 -0.014315753 -0.14315753 -0.08589452 -0.22905205
0.07157876 0.5439986 0.15747328 -0.07157876 -0.057263013 0.07157876 0.22905205 0.12884177
0.32926232 0.07157876 0.17178904 0.35789382 -0.12884177 -0.057263013 0.2147363 0.32926232
-0.028631506 0.22905205 0.14315753 0.08589452 0.22905205 -0.10021027 0.20042054 0.2719993
-0.014315753 0.12884177 -0.07157876 -0.14315753 0.31494656 0.07157876 -0.18610479 0.07157876
0.114526026 -0.08589452 0.15747328 0.34357807 0.057263013 0.114526026 0.12884177 0.12884177
0.35789382 0.2719993 0.18610479 -0.08589452 0.057263013 -0.14315753 0.14315753 0.0
0.057263013 -0.028631506 -0.057263013 0.028631506 -0.12884177 0.2433678 0.08589452 -0.12884177
0.014315753 0.10021027 -0.04294726 0.2433678 0.35789382 0.32926232 -0.028631506 0.07157876
-0.04294726 -0.14315753 0.0 -0.34357807 0.4008411 0.35789382 -0.18610479 0.15747328
0.04294726 -0.04294726 0.20042054 0.0 0.2719993 0.12884177 0.4008411 0.0
-0.07157876 0.10021027 0.15747328 -0.12884177 0.18610479 -0.10021027 -0.38652533 0.04294726
0.22905205 -0.2433678 0.028631506 -0.12884177 0.04294726 -0.08589452 0.34357807 0.014315753
0.20042054 0.28631505 0.10021027 0.08589452 -0.04294726 -0.31494656 0.07157876 0.12884177

model/batch_normalization_3/batchnorm/mul_1 i1 [128, 128] scale=0.11086147 zero_point=0
00000000: ffff fe00 0002 01ff ff01 ff00 00fd 0000
00000010: fc00 ff01 0000 feff 0100 fffd ff00 0000
00000020: 01ff 0000 01ff 0103 0000 01ff 02ff 00ff
00000030: 01ff 0100 fe01 fcfe 0000 0001 0001 02fe
00000040: 0000 00fe 0200 0100 00ff fffc feff 0101
00000050: 0101 0100 fefe 0100 0000 ff00 0200 0002
00000060: ff00 0001 0000 0001 0101 01ff 0000 fffe
00000070: 0000 0000 fffe ff01 0000 0001 01fe fffe
00000080: 00fc 0100 fffe 0100 00fe 00fe 0001 0101
00000090: ff01 ff01 00fd 0100 02fd 0102 00fe 01ff
000000a0: 01ff 0000 00ff ff00 0000 0201 0100 0000
000000b0: fcff fc00 ffff 0000 0200 ff00 00fc 01ff
000000c0: feff 0100 fe00 ff02 ff00 01fd ff00 0100
000000d0: ff00 0001 fd00 0001 fe00 ff00 0001 0001
000000e0: fffe 0000 ffff 0001 ffff ff01 0200 0001
000000f0: ff00 ff01 00ff 0301 ff02 ff00 0201 0002
-0.11086147 -0.11086147 -0.22172295 0.0 0.0 0.22172295 0.11086147 -0.11086147
-0.11086147 0.11086147 -0.11086147 0.0 0.0 -0.3325844 0.0 0.0
-0.4434459 0.0 -0.11086147 0.11086147 0.0 0.0 -0.22172295 -0.11086147
0.11086147 0.0 -0.11086147 -0.3325844 -0.11086147 0.0 0.0 0.0
0.11086147 -0.11086147 0.0 0.0 0.11086147 -0.11086147 0.11086147 0.3325844
0.0 0.0 0.11086147 -0.11086147 0.22172295 -0.11086147 0.0 -0.11086147
0.11086147 -0.11086147 0.11086147 0.0 -0.22172295 0.11086147 -0.4434459 -0.22172295
0.0 0.0 0.0 0.11086147 0.0 0.11086147 0.22172295 -0.22172295
0.0 0.0 0.0 -0.22172295 0.22172295 0.0 0.11086147 0.0
0.0 -0.11086147 -0.11086147 -0.4434459 -0.22172295 -0.11086147 0.11086147 0.11086147
0.11086147 0.11086147 0.11086147 0.0 -0.22172295 -0.22172295 0.11086147 0.0
0.0 0.0 -0.11086147 0.0 0.22172295 0.0 0.0 0.22172295
-0.11086147 0.0 0.0 0.11086147 0.0 0.0 0.0 0.11086147
0.11086147 0.11086147 0.11086147 -0.11086147 0.0 0.0 -0.11086147 -0.22172295
0.0 0.0 0.0 0.0 -0.11086147 -0.22172295 -0.11086147 0.11086147
0.0 0.0 0.0 0.11086147 0.11086147 -0.22172295 -0.11086147 -0.22172295
0.0 -0.4434459 0.11086147 0.0 -0.11086147 -0.22172295 0.11086147 0.0
0.0 -0.22172295 0.0 -0.22172295 0.0 0.11086147 0.11086147 0.11086147
-0.11086147 0.11086147 -0.11086147 0.11086147 0.0 -0.3325844 0.11086147 0.0
0.22172295 -0.3325844 0.11086147 0.22172295 0.0 -0.22172295 0.11086147 -0.11086147
0.11086147 -0.11086147 0.0 0.0 0.0 -0.11086147 -0.11086147 0.0
0.0 0.0 0.22172295 0.11086147 0.11086147 0.0 0.0 0.0
-0.4434459 -0.11086147 -0.4434459 0.0 -0.11086147 -0.11086147 0.0 0.0
0.22172295 0.0 -0.11086147 0.0 0.0 -0.4434459 0.11086147 -0.11086147
-0.22172295 -0.11086147 0.11086147 0.0 -0.22172295 0.0 -0.11086147 0.22172295
-0.11086147 0.0 0.11086147 -0.3325844 -0.11086147 0.0 0.11086147 0.0
-0.11086147 0.0 0.0 0.11086147 -0.3325844 0.0 0.0 0.11086147
-0.22172295 0.0 -0.11086147 0.0 0.0 0.11086147 0.0 0.11086147
-0.11086147 -0.22172295 0.0 0.0 -0.11086147 -0.11086147 0.0 0.11086147
-0.11086147 -0.11086147 -0.11086147 0.11086147 0.22172295 0.0 0.0 0.11086147
-0.11086147 0.0 -0.11086147 0.11086147 0.0 -0.11086147 0.3325844 0.11086147
-0.11086147 0.22172295 -0.11086147 0.0 0.22172295 0.11086147 0.0 0.22172295

model/batch_normalization_4/batchnorm/mul_1 i1 [8, 128] scale=0.0020401194 zero_point=0
00000000: 0300 09f2 dff7 13ed 0226 1409 0bf3 1211
00000010: e505 10ff 32fa 0400 00fe d5fb ff0c 0800
00000020: efea 1a07 21f8 1708 0505 08e6 0805 ff0b
00000030: 0b01 f70b f4cf efee f51d f0f8 f9e1 02f6
00000040: fdd4 1804 03de fb02 f808 f914 feeb f7df
00000050: 24ec f203 f7fc 0306 05f9 1010 080e f5ff
00000060: 2937 d6f5 fafc 18f9 dd03 18f8 2b12 fe11
00000070: 0dfd d604 00e9 f8da 0403 fe02 f2ff 09ff
00000080: f615 0cf8 0ae9 1ccd 1f0b f929 0de8 1016
00000090: 280e f020 e703 1bfa fbf6 eded dbf6 fd04
000000a0: dd2b f213 13f8 fe0b f7ff e7e9 fe2a d90f
000000b0: 2de9 ec17 f407 f1cb 0214 f5e7 da0f 0107
000000c0: 370f 0a0d 0525 1cdd 2bf9 e904 d817 eae1
000000d0: f111 e6ea e6fc fc2b 2611 0efc 360c 0f23
000000e0: fa0d 1508 0198 f4fe 2481 21f5 15e4 fdff
000000f0: f80c f829 1919 e0ff f7da 2220 ed05 0502
0.006120358 0.0 0.018361075 -0.02856167 -0.06732394 -0.018361075 0.038762268 -0.038762268
0.0040802388 0.077524535 0.04080239 0.018361075 0.022441313 -0.026521552 0.03672215 0.034682028
-0.055083223 0.010200597 0.03264191 -0.0020401194 0.102005966 -0.012240716 0.0081604775 0.0
0.0 -0.0040802388 -0.08772513 -0.010200597 -0.0020401194 0.024481433 0.016320955 0.0
-0.034682028 -0.044882625 0.053043105 0.014280835 0.06732394 -0.016320955 0.046922747 0.016320955
0.010200597 0.010200597 0.016320955 -0.053043105 0.016320955 0.010200597 -0.0020401194 0.022441313
0.022441313 0.0020401194 -0.018361075 0.022441313 -0.024481433 -0.09996585 -0.034682028 -0.03672215
-0.022441313 0.059163462 -0.03264191 -0.016320955 -0.014280835 -0.0632437 0.0040802388 -0.020401195
-0.006120358 -0.08976525 0.048962865 0.0081604775 0.006120358 -0.069364056 -0.010200597 0.0040802388
-0.016320955 0.016320955 -0.014280835 0.04080239 -0.0040802388 -0.042842507 -0.018361075 -0.06732394
0.0734443 -0.04080239 -0.02856167 0.006120358 -0.018361075 -0.0081604775 0.006120358 0.012240716
0.010200597 -0.014280835 0.03264191 0.03264191 0.016320955 0.02856167 -0.022441313 -0.0020401194
0.0836449 0.11220656 -0.085685015 -0.022441313 -0.012240716 -0.0081604775 0.048962865 -0.014280835
-0.07140418 0.006120358 0.048962865 -0.016320955 0.08772513 0.03672215 -0.0040802388 0.034682028
0.026521552 -0.006120358 -0.085685015 0.0081604775 0.0 -0.046922747 -0.016320955 -0.077524535
0.0081604775 0.006120358 -0.0040802388 0.0040802388 -0.02856167 -0.0020401194 0.018361075 -0.0020401194
-0.020401195 0.042842507 0.024481433 -0.016320955 0.020401195 -0.046922747 0.05712334 -0.10404609
0.0632437 0.022441313 -0.014280835 0.0836449 0.026521552 -0.048962865 0.03264191 0.044882625
0.08160478 0.02856167 -0.03264191 0.06528382 -0.051002983 0.006120358 0.055083223 -0.012240716
-0.010200597 -0.020401195 -0.038762268 -0.038762268 -0.07548442 -0.020401195 -0.006120358 0.0081604775
-0.07140418 0.08772513 -0.02856167 0.038762268 0.038762268 -0.016320955 -0.0040802388 0.022441313
-0.018361075 -0.0020401194 -0.051002983 -0.046922747 -0.0040802388 0.085685015 -0.07956465 0.03060179
0.09180537 -0.046922747 -0.04080239 0.046922747 -0.024481433 0.014280835 -0.03060179 -0.10812633
0.0040802388 0.04080239 -0.022441313 -0.051002983 -0.077524535 0.03060179 0.0020401194 0.014280835
0.11220656 0.03060179 0.020401195 0.026521552 0.010200597 0.07548442 0.05712334 -0.07140418
0.08772513 -0.014280835 -0.046922747 0.0081604775 -0.08160478 0.046922747 -0.044882625 -0.0632437
-0.03060179 0.034682028 -0.053043105 -0.044882625 -0.053043105 -0.0081604775 -0.0081604775 0.08772513
0.077524535 0.034682028 0.02856167 -0.0081604775 0.110166445 0.024481433 0.03060179 0.07140418
-0.012240716 0.026521552 0.042842507 0.016320955 0.0020401194 -0.21217242 -0.024481433 -0.0040802388
0.0734443 -0.25909516 0.06732394 -0.022441313 0.042842507 -0.05712334 -0.006120358 -0.0020401194
-0.016320955 0.024481433 -0.016320955 0.0836449 0.051002983 0.051002983 -0.06528382 -0.0020401194
-0.018361075 -0.077524535 0.069364056 0.06528382 -0.038762268 0.010200597 0.010200597 0.0040802388
