compression/autoencoder/dynamic_range_quantization/models_compressed/model_pump.tflite (tflite, 277016 bytes, 20 tensors)

model/dense_9/BiasAdd/ReadVariableOp f4 [640]
00000000: a699 5dbf adbb e13d 9ec6 d1be 15b4 17bf
00000010: aea4 34bf 5914 66bd 641f dbbe d327 a9be
00000020: c8f5 aebe 0278 2ebe 2da6 3bbf 8d54 d0be
00000030: 913f 06bf 493d d9be b2ec c2be 09df b5be
00000040: ffef e3be 1a17 8ebe d8e7 eebe 2346 cbbe
00000050: c336 53bf c54f eabe 4a9d 2cbf 5035 0ebf
00000060: c488 05bf f32f f9be 0494 cebe 84df 8cbe
00000070: 9c99 13bf 2680 01bf d5cd 1dbf fcdc acbe
00000080: 6482 38bf d1f7 ffbe 6bd2 13bf 626f fdbe
00000090: 9ebe 44bf 3510 c7be 97cf f0be e9ca c3be
000000a0: 18e9 0abf 918e fbbe 6c33 56bf 68ff b5be
000000b0: a6c7 fdbe 6481 24bf 30ed e0be f0b2 c7be
000000c0: bf0e 0fbf ed24 13bf 48f0 10bf e252 4ebf
000000d0: 70dd e2be a8f3 0bbf 7aeb 59bf 504a 32bf
000000e0: add3 40bf 276e 11bf 64f8 48bf d1cb 1bbf
000000f0: d72b e9be 2256 40bf 528a 3fbf 8a39 59bf
00000100: 2f51 24bf 12a5 e9be b321 51bf 3519 02bf
00000110: a52f 33bf a976 67bf 98a9 1bbf 8bbe 69bf
00000120: 0101 94bf 2026 4ebf 2c79 37bf daf1 0dbf
00000130: 62ca 6fbf 01fb 6dbf a6e5 67bf 01aa 42bf
00000140: ffb1 2bbf 7b56 10bf a385 58bf 7c6a 82bf
00000150: 4c5f 33bf 8852 5dbf db75 47bf 20da 96bf
00000160: d5f0 7ebf feb5 98bf 4b24 8abf ced4 84bf
00000170: 2cf3 4cbf b70a 61bf 420a 8ebf 4781 6bbf
00000180: 6f2b 4fbf 56b8 82bf 6489 86bf ccf8 5bbf
00000190: d6f7 87bf 6e06 99bf 1469 75bf a6ef 5bbf
000001a0: 83da 31bf 8c89 3cbf a361 60bf 5f50 87bf
000001b0: 7d1f 5ebf f074 56bf 593c 70bf f2f8 5ebf
000001c0: 56c2 4dbf 6680 71bf 9aac 79bf 02b9 76bf
000001d0: 1d31 7bbf f404 5abf 92b6 3cbf bced 6bbf
000001e0: ebd0 71bf 257a 36bf 4cb6 21bf ff8f 6ebf
000001f0: 33f3 21bf 81f3 1dbf c74c 83bf 96d4 cdbf
00000200: bff8 49bf 5df9 4a3e 5871 abbe be08 0abf
00000210: 4105 2cbf dea1 b8bc 9ddc bfbe ae20 a1be
00000220: 0d91 9ebe 07da 07be 3a14 2ebf cc38 b6be
00000230: d54a 03bf c06b c5be 39b6 a6be d943 96be
00000240: 872c c9be 793f 60be 6938 c5be a85e 86be
00000250: 5ac9 36bf 0e9d c8be 1515 25bf 80ed 04bf
00000260: 3390 f7be d7c6 cbbe ed4f a2be bb52 4dbe
00000270: cd31 f2be 3bc1 ccbe 0462 0bbf 01d3 95be
00000280: 871a 26bf 2f75 e7be 9df8 09bf 4dde f4be
00000290: f45d 3fbf 4161 94be fdfb b5be fa7c 92be
000002a0: e45a f2be f128 ddbe dcd7 44bf b591 92be
000002b0: e922 e2be 2936 1cbf 995e debe 074e c9be
000002c0: 5446 0dbf 7fa5 0ebf ee15 0cbf e70b 3dbf
000002d0: 4e98 c8be 854f 03bf 3994 4dbf a300 1dbf
000002e0: 29c4 35bf d3f9 05bf 449f 3dbf d9aa 09bf
000002f0: cb81 c4be 8de5 2fbf ad3c 34bf fc05 48bf
00000300: 82bb 14bf 21cb d6be a7a7 49bf 5376 ddbe
00000310: 3ee6 24bf 056c 57bf ec64 02bf cb25 56bf
00000320: f408 8cbf 83fd 42bf df06 2abf e339 03bf
00000330: 7aed 5cbf d542 5ebf 562b 59bf 7ffd 34bf
00000340: 8ec3 16bf 8e47 fcbe 8b73 47bf 11e9 73bf
00000350: 07cf 1dbf a4d5 46bf 523d 31bf 7924 90bf
00000360: 42be 6fbf 222a 8ebf d91c 7fbf 8e9a 7bbf
00000370: 5420 3bbf e1ce 4bbf d06f 81bf a6e6 51bf
00000380: 7b53 39bf b2dd 6ebf 7548 75bf e78b 43bf
00000390: ab1a 78bf 0269 8dbf af48 60bf cda1 44bf
000003a0: 9404 19bf 0ba8 25bf 31ef 4bbf 38e1 76bf
000003b0: 2cb6 44bf 4e53 41bf 2f95 5bbf ebd9 4bbf
000003c0: e684 39bf 4774 5cbf a063 64bf e578 5fbf
000003d0: be11 5dbf a6a2 3cbf 6c23 29bf 9628 57bf
000003e0: eb3f 63bf 91fd 25bf b8f5 0dbf 2b9d 5cbf
000003f0: a42e 12bf e9cc 12bf 11c9 7abf fe9a c8bf
-0.86562574 0.110221244 -0.40971845 -0.5925916 -0.7056378 -0.05617175 -0.42797387 -0.33038196
-0.3417189 -0.17037967 -0.7330044 -0.40689507 -0.52440745 -0.4242957 -0.3807121 -0.35521725
-0.4451904 -0.27752 -0.46661258 -0.39701948 -0.82505435 -0.45763984 -0.67427504 -0.555501
-0.5216181 -0.48669395 -0.40347302 -0.2751428 -0.57656264 -0.50586164 -0.616422 -0.33762348
-0.7207396 -0.49993756 -0.5774295 -0.4949904 -0.7685336 -0.38879552 -0.47033378 -0.38240746
-0.5426192 -0.49132207 -0.83672214 -0.35546422 -0.49566382 -0.64259934 -0.4393096 -0.39003706
-0.55881876 -0.5747822 -0.5661664 -0.8059522 -0.44309568 -0.54668665 -0.85124934 -0.6964464
-0.7532299 -0.56808704 -0.78504014 -0.60857874 -0.4554126 -0.7513143 -0.74820435 -0.8485342
-0.64186376 -0.4563375 -0.81692046 -0.5081971 -0.69994575 -0.90415436 -0.60805655 -0.9130637
-1.1562806 -0.80526924 -0.7166927 -0.5544716 -0.93668187 -0.92961127 -0.9058479 -0.76040655
-0.67068475 -0.5638196 -0.84578913 -1.0188746 -0.70067286 -0.8645406 -0.7791421 -1.1785316
-0.9958623 -1.193054 -1.0792326 -1.0377443 -0.8005855 -0.87906975 -1.109688 -0.91994137
-0.8092565 -1.0212505 -1.0510678 -0.8592651 -1.0622509 -1.1955087 -0.9586346 -0.8591255
-0.6947405 -0.7364738 -0.8764898 -1.0571402 -0.867668 -0.8377218 -0.93842083 -0.8709861
-0.8037466 -0.94336545 -0.97528994 -0.9637605 -0.98121816 -0.8516381 -0.7371608 -0.9215963
-0.9445941 -0.7128013 -0.6316879 -0.9318847 -0.6326172 -0.6169968 -1.0257806 -1.6080501
-0.7889518 0.19821687 -0.33484912 -0.5391959 -0.67195517 -0.022538122 -0.37473002 -0.31470245
-0.3097004 -0.13266765 -0.67999613 -0.35590208 -0.5128606 -0.3855877 -0.325609 -0.2934864
-0.39291784 -0.21899213 -0.385196 -0.26244092 -0.7140099 -0.39182323 -0.64485294 -0.51924896
-0.48352203 -0.3980014 -0.31701604 -0.2005109 -0.4730362 -0.39991173 -0.54446435 -0.29262546
-0.6488423 -0.4520659 -0.5389498 -0.47825852 -0.74752736 -0.2898045 -0.35543814 -0.28610975
-0.4733497 -0.43195298 -0.76891875 -0.2862679 -0.4416726 -0.6102014 -0.43431547 -0.39317343
-0.5518544 -0.55721277 -0.5472096 -0.73846287 -0.391787 -0.5129321 -0.80304295 -0.61329097
-0.7100244 -0.52334327 -0.74071145 -0.5377632 -0.38380274 -0.6870964 -0.70405084 -0.7813413
-0.58098614 -0.4195185 -0.7877144 -0.43254337 -0.6441382 -0.841492 -0.50935245 -0.8365142
-1.0940232 -0.7616808 -0.66416734 -0.51260203 -0.8629986 -0.8682073 -0.8483175 -0.70699304
-0.5889214 -0.49273342 -0.7791068 -0.95277506 -0.61644024 -0.7766974 -0.6923419 -1.126113
-0.93649685 -1.1106608 -0.99653393 -0.98282707 -0.73096204 -0.7961255 -1.0112247 -0.81992567
-0.72393006 -0.9330703 -0.95813686 -0.7638535 -0.9691569 -1.1047671 -0.87610906 -0.7680939
-0.5977261 -0.6470954 -0.7966185 -0.96437407 -0.7684047 -0.7551774 -0.8577451 -0.7962939
-0.7246841 -0.86114925 -0.89214516 -0.87293845 -0.863552 -0.7368568 -0.66069674 -0.84046304
-0.88769406 -0.64840037 -0.5545306 -0.8617732 -0.5710242 -0.5734392 -0.97963053 -1.56723

model/activation/Relu;model/batch_normalization/batchnorm/add_1 f4 [128]
00000000: 2e9e bd40 9ff6 0b40 e828 3040 8fa2 e240
00000010: 0fcc 46c0 346e b4c0 1162 0140 3bf5 1840
00000020: c419 4d3f 94e7 0f3e 6095 84c0 a77b 72c0
00000030: 1e3e 8abf 2297 f2bf 103d 7240 c697 013f
00000040: e88e d2c0 3372 b23d dec0 abc0 b14c ee40
00000050: 760b b0bf 61c7 c6bf f6f1 11c0 f6bc c73e
00000060: 9cd4 b1c0 4256 1ac1 fb19 b3c0 6c54 d8c0
00000070: 34b1 6fc0 e8cf 4fbf b8b8 61be 7f7b 0dc0
00000080: 56d8 05bf a6b9 753f b23a 26c1 516c b23f
00000090: 3eac e1bf 26a2 93bf 4fb2 5ec1 ef2a b140
000000a0: bf14 fd40 45d0 d8c0 9d6b 7941 e0d3 f7be
000000b0: b3b6 df40 c044 83c0 a190 1e41 cba4 bbbf
000000c0: a81b 1440 79ea 44c0 663c 84c0 3ae8 d73f
000000d0: 1ecb 853f e356 5a40 ba23 6640 19de b93f
000000e0: cf38 3940 5340 1041 2bd1 32c0 1fb1 36c0
000000f0: 96a0 2dc0 7479 e940 ec59 a5c0 671a c8bf
00000100: 288b eb3e cab8 a33e c67e 57bf b84c e1bf
00000110: 125b ebc0 a432 4a3f b29a 89c0 8cb6 b7c0
00000120: d716 f03f 6f31 8fbf 771a 23c0 ddd7 e140
00000130: 3fb9 8540 e762 00c1 3f16 d240 b6a9 8cbe
00000140: 4df8 d340 b26e bcbf d7a6 0bc1 479b 0240
00000150: 9304 3e40 d706 3b41 7d0a 9f40 fa86 ac3f
00000160: f371 e73e b379 5740 812a ef3f 7380 de40
00000170: 9767 82c0 6a30 813e fb56 0140 a733 803f
00000180: 8790 5b40 254f 6940 cd2a 3240 0d91 d940
00000190: 93ca 72bf 228a a8bf 988c 8840 301b 6440
000001a0: 5a07 1040 69b7 c83e 63b2 1dbf 09bc e940
000001b0: 1b32 ce40 c24d 09c0 e4a3 0f41 0821 17c0
000001c0: 0c83 19c0 c30b f9c0 f419 24c0 1d95 83bf
000001d0: cd00 6440 929e 33c0 9cc1 27c1 0a73 febf
000001e0: dcf8 523f 6ac6 32c0 25eb a540 1953 a2c0
000001f0: 879b d53e db7f a540 cbe7 03c0 d74e 83bf
5.925559 2.1869276 2.7524967 7.0823436 -3.1062047 -5.6384525 2.0216105 2.3899677
0.8011744 0.14053184 -4.1432343 -3.7887971 -1.0800207 -1.8952372 3.784977 0.5062221
-6.5799446 0.08713188 -5.3672934 7.4468617 -1.3753498 -1.5529596 -2.2803931 0.39011353
-5.5572033 -9.646059 -5.5969214 -6.7603054 -3.7451906 -0.81176615 -0.22043121 -2.2106626
-0.5228323 0.959864 -10.38933 1.3939306 -1.7630689 -1.1533859 -13.918532 5.536491
7.9087825 -6.7754235 15.588773 -0.48403835 6.991052 -4.1021423 9.91031 -1.4659666
2.314188 -3.076811 -4.132373 1.6867745 1.0452611 3.4115531 3.5959306 1.4520904
2.8940923 9.015704 -2.7940166 -2.8545606 -2.7129264 7.296076 -5.167227 -1.5633057
0.46004605 0.3197692 -0.84177816 -1.7601538 -7.354867 0.7898352 -4.3001337 -5.7410336
1.875697 -1.1186961 -2.5484903 7.0576005 4.178863 -8.024146 6.5652156 -0.2747323
6.62406 -1.4721282 -8.728232 2.0407274 2.9690292 11.68917 4.9700303 1.3478692
0.45204124 3.366803 1.8684846 6.95318 -4.0751452 0.2523225 2.0209339 1.0015763
3.4306962 3.6454556 2.7838624 6.7989564 -0.94840354 -1.3167155 4.2671623 3.5641594
2.2504487 0.3920243 -0.6160032 7.3042035 6.4436164 -2.145371 8.977512 -2.361391
-2.3986235 -7.7826858 -2.564084 -1.0279881 3.5625489 -2.8065534 -10.484768 -1.9878857
0.8241098 -2.7933602 5.184954 -5.0726438 0.4172022 5.1718574 -2.0610225 -1.0258435

model/activation_1/Relu;model/batch_normalization_1/batchnorm/add_1 f4 [128]
00000000: 88d6 a8be 2408 953f 552d 93bf 9f89 afbe
00000010: 3410 633f d4f6 383e 185f a33f 31e0 833e
00000020: 8ec1 c7be 2d1d 6bbe c58e e53e 0e78 edbe
00000030: 1daa a6be 6cf2 9dbc 276b c93f 73a8 7bbe
00000040: a589 e13a df9c 46bd 2596 763f 3870 b33e
00000050: d3fa 903e 3f17 7fbe 5eb8 2f3f 255e 323e
00000060: badd 1e3e 1337 aabd 6288 42bf 427a b53f
00000070: 5e8c b8bd 77dd 9e3f caf2 a9be 205f 7a3e
00000080: 615d 3a3f b23b a53e 5a30 bc3e 4958 b13e
00000090: 3638 b23f 0401 2fbf 6362 eb3e 8a2c 833b
000000a0: 7e16 a7be 3732 b6be 3e51 e3be 9188 fe3d
000000b0: 403b 903e 01e1 263f 637c d3be a9b6 bb3e
000000c0: c94f 1f3f aa99 9e3f 9463 64be fea7 a8be
000000d0: f20c 553f faa3 2bbf e040 373e e397 21be
000000e0: 2e46 ce3c d41b 24bc 0d77 ab3e 105f 813e
000000f0: e162 a2be 0a5d 453e 074a 063c 2385 05bf
00000100: 81db 0b3f 622f c23d 3a4e b83e cbaf b13c
00000110: c390 183f e6b5 aa3d 28a6 2d3f e610 3b3f
00000120: 1a3a 24be f3ae 893f c220 6fbf 2c82 84bc
00000130: 5a7b d73d 13e6 82bf 6f2d edbe c2ba bebe
00000140: 9ec2 e23d fc6b a23d e257 fe3d a961 453f
00000150: 0c31 cabd 7591 ebbe b1e0 813f 7692 83bb
00000160: 4906 f4be 3d27 a9be ed69 26bf 394f f7be
00000170: 9dae 8c3e 42a3 a3bf 2d9b 4bbf da34 a7be
00000180: a832 8d3d e01f 7f3f f6f7 82bd 31ca 043f
00000190: ee0e 35be 4ebd 2a3f 74bb 573f 1e59 aabf
000001a0: 0b03 65be e6ef 7cbd ce3f 2f3e 9e49 e53e
000001b0: 73a5 6d3e 93c8 b3bf 2208 e63e 69c9 2a3f
000001c0: b260 303f 0b5e c1be 44c3 78bd 84ea 1b3d
000001d0: 8acd 393e 4a8c c83e 1052 cf3d 537e f5be
000001e0: 38bc 2f3f a743 90be f8ee 46c0 715b 8ebe
000001f0: a329 f73e 16a2 0e3f da93 43be 1047 8abe
-0.32976174 1.1643109 -1.1498209 -0.34284684 0.886966 0.18062907 1.2763395 0.25756982
-0.39014858 -0.22960348 0.44835487 -0.46380657 -0.3255166 -0.019280635 1.5735825 -0.24575977
0.0017207159 -0.048489448 0.9632285 0.35046554 0.28316364 -0.24911211 0.68640697 0.17418726
0.1551427 -0.08311286 -0.75989354 1.4177935 -0.09011148 1.2411336 -0.33193046 0.2445035
0.72798735 0.32272106 0.3675564 0.3463767 1.3923404 -0.68360925 0.459735 0.004003112
-0.32634348 -0.35585186 -0.4439792 0.12428392 0.28170204 0.6518708 -0.41305837 0.36662796
0.6223112 1.2390645 -0.22303611 -0.32940668 0.8322288 -0.67047083 0.17895842 -0.15780596
0.025179949 -0.0100164 0.33489266 0.2526784 -0.31716064 0.19273773 0.00819636 -0.52156276
0.5463181 0.09481694 0.35997182 0.02169027 0.5959589 0.083354756 0.6783166 0.7307266
-0.16037789 1.0756515 -0.9340936 -0.016175352 0.10521574 -1.0226463 -0.46323726 -0.3725186
0.110722765 0.07930753 0.12419106 0.7710214 -0.09872636 -0.46009412 1.0146695 -0.0040152622
-0.47661045 -0.3303775 -0.6500538 -0.4830263 0.2747697 -1.2784197 -0.79533654 -0.3265751
0.068944275 0.9965801 -0.06394951 0.5187102 -0.17681476 0.66695106 0.84270406 -1.3308446
-0.22364442 -0.061752222 0.17114183 0.44782728 0.23207645 -1.4045585 0.4492808 0.6671358
0.68897545 -0.37767062 -0.060733095 0.03806545 0.18144813 0.39169532 0.10123074 -0.4794794
0.68646574 -0.28176615 -3.1083355 -0.2780414 0.48273954 0.55716074 -0.1909937 -0.2700734

model/activation_2/Relu;model/batch_normalization_2/batchnorm/add_1 f4 [128]
00000000: f2ea ab3e 7737 f1bd 9900 c63e 4729 973e
00000010: a818 963e 9678 0bbe 4a42 0fbf b33e 75bf
00000020: 7139 0cbe e631 4b3e b61e 353f 17f7 3ebb
00000030: eed3 a8bd ffd2 693f 8649 ff3e c89c e43e
00000040: dabd ba3e 1f28 29be caf5 20bc 911b 063e
00000050: 0602 b23e 7737 833e c4ae 883f 4514 1b3e
00000060: 92e9 023e ad26 153e 28fb 06bc 9e4d 35bb
00000070: a90c e5bd e6bf 90c0 83d6 cd3e 3a22 3ebf
00000080: 8c2f 0ebf 066c 85bd 6836 a73e 3b01 23bf
00000090: e1d7 ebbe c9da 2b3f adb8 0b3f 088e 0e3f
000000a0: 37ef b03e 7944 fc3e dbde 98be bac5 e5be
000000b0: c9bd 38bc b75e 24be 1930 68bf 5c22 213d
000000c0: 84ea ae3b e052 913e 9f92 593d 8e59 8ebe
000000d0: 9642 523d 5baa c13d f435 0abe 28f2 a5bc
000000e0: 46a6 db3e f8e4 8fbd b2c0 933e c3ea c43e
000000f0: 34dc 8ebf a7ab a9be 5f40 9bbf 97f8 22bf
00000100: 7c52 443e 1ee5 913e f45c b53c 18c0 9b3d
00000110: 3a30 dd3c 1f89 03be 170d 9cbd 41af cc3e
00000120: 7107 f63c f592 263f bc65 003f 7e1f af3e
00000130: 3ebd fb3e a6c5 fabc 5e7f 45bf 2219 103b
00000140: f0b9 57be fc9c c73e 20d6 84be 1940 803e
00000150: 9afd 203e 7633 ebbe 8450 683d c1aa 2f3d
00000160: fbee 03bf 17ad 163f 45c0 2f3f 5dbc 003e
00000170: e186 12be 97f1 1f3f 8f3e 2fbe 8f5c 913e
00000180: a413 0f3f 6283 353f 44f3 fb3e 5c3c ee3d
00000190: 4559 103e abbe b23e 40be df3d ecb8 8e3e
000001a0: 1142 963e c1e5 8ac0 6154 0e3f da9b 193f
000001b0: 4668 3dbe a724 07bd 7d2c 16bf 1208 96be
000001c0: dd21 213f 4487 f33d b5da 2bbe c5a3 243f
000001d0: d37d 7a3e 9c55 0e3f c8b1 a53a 1fad 91c0
000001e0: 11ee 01bd 931e b2be f363 713e 5522 953b
000001f0: 1a34 37bf d246 6ebd 3ba5 c5be a841 a73d
0.33577687 -0.11778157 0.3867233 0.2952368 0.29315686 -0.13620219 -0.55960524 -0.95798796
-0.13693787 0.19843253 0.70749986 -0.0029138976 -0.082435474 0.9133758 0.4986078 0.44650865
0.3647297 -0.16519211 -0.009824226 0.13096453 0.3476717 0.25628254 1.0678334 0.15144451
0.12784413 0.14565535 -0.008238591 -0.0027664672 -0.11184055 -4.523425 0.40202722 -0.74270976
-0.555413 -0.065147445 0.32658696 -0.6367375 -0.4606314 0.67130715 0.5457867 0.5568547
0.34557506 0.4927099 -0.29857525 -0.44877416 -0.011275717 -0.16051756 -0.9069839 0.03933941
0.005338015 0.2838354 0.053118344 -0.278027 0.051333033 0.09456321 -0.13497144 -0.02025707
0.42900294 -0.07026094 0.28857952 0.3846036 -1.1160951 -0.33138773 -1.212902 -0.6366057
0.1917209 0.28495115 0.02213905 0.07604998 0.027000535 -0.12845276 -0.07619684 0.39977458
0.030032845 0.6506799 0.50155234 0.34203714 0.49167818 -0.030611824 -0.7714747 0.0021987637
-0.21067023 0.38986957 -0.25944614 0.25048903 0.15721741 -0.459377 0.05671741 0.042887453
-0.5153653 0.58857864 0.68652755 0.12571855 -0.14309265 0.6247801 -0.17113708 0.2839093
0.55889344 0.709036 0.49209034 0.116326064 0.14096554 0.34911093 0.10924959 0.2787546
0.2934728 -4.340546 0.555975 0.60003436 -0.18496808 -0.03299394 -0.58661634 -0.29303032
0.62942296 0.11891034 -0.16782649 0.6431239 0.2446206 0.5559938 0.0012641484 -4.552383
-0.03172118 -0.3478895 0.23573284 0.004551212 -0.71563876 -0.05817301 -0.38602623 0.0816682

model/activation_3/Relu;model/batch_normalization_3/batchnorm/add_1 f4 [128]
00000000: 8f91 033f 4c8b 0a3e 2f6e 9b3e 603a cabd
00000010: 1563 333e 19db a4bc c718 2f3e 64f5 dc3e
00000020: aac8 babe 7a9b b5bd da59 853e b2c4 5fbd
00000030: 22f4 fe3e 4ce7 f53e 7d68 2bbf de41 b33e
00000040: 7416 3cc0 4e77 43be 3f9f af3e c804 febd
00000050: 6ffc 623f fdd8 073f fa74 d53e 8945 1c3f
00000060: 0903 543f 00e4 033e c032 e13c 9cc9 a1be
00000070: 8bf5 8a3d baba 20be b355 323e 61b2 d23e
00000080: 3dd9 9f3e 4563 4d3f 4277 1c3e 13c4 883e
00000090: 6967 8b3d 9c43 a43f 0f5d 88be 88bf 69be
000000a0: 3485 67c0 3b9d 1cbe 5586 adbd 0264 d8be
000000b0: 27b4 76bd 494e 6a3e 9292 423e 620c be3d
000000c0: 2fba 023f 01c0 3dbe 0fef 4e3f 9865 753e
000000d0: 0e44 a93d 5723 983e 26c1 653f 2b54 843e
000000e0: c6e1 dfbe 43ad 143f eac4 f6be 87b5 e73e
000000f0: 449b e4bd dd58 433f 44dc 43c0 48f5 a93e
00000100: 3175 283f 8199 f43e 5e1a 323f a9d7 9e3e
00000110: 1feb 873e 4e12 fd3e eb05 57be 6b69 94bf
00000120: 68a3 2f3f d835 153e 7a00 89bf a9df eb3d
00000130: 3efd c83d 8f36 053e 0e1d aebd 7c0f 3b3e
00000140: 2777 703e 3bfe 963f 7680 c03e c0fd b63e
00000150: 767d 833b 5ef6 30be 1d93 d2bd ee10 203f
00000160: 9754 123e 7390 ac3e 90c7 cd3e a0d3 96be
00000170: 9d30 ab3f 9012 123f afdb 96bd ea43 3a3e
00000180: 6457 a03d 68c4 793f 4135 43bd 3a45 ddbe
00000190: bb7e e43e f271 1bbf 1929 d33e 82e0 5a3e
000001a0: fbf8 b83e 39cc f83d 5c68 123f 7e46 0f3f
000001b0: 08ee 8bbd ab42 093a 5a32 87bd 5303 95be
000001c0: 4a19 933e 9b66 42be 720e 223d 2f81 0abf
000001d0: 0367 073f b5dd e4bd 5b23 6e3e d2b3 213f
000001e0: 4f33 573f efe8 3b3f 31c0 8fbf 27f4 e23c
000001f0: 3bed d83d 7ec1 64be 0210 5a3d 9ea1 07c0
0.5139398 0.135297 0.303575 -0.098744154 0.17518266 -0.020124005 0.17099296 0.43155968
-0.3648122 -0.088675454 0.26045114 -0.054630943 0.49795634 0.48028028 -0.6695631 0.3501119
-2.9388704 -0.1908848 0.34301183 -0.12403256 0.88666433 0.5306547 0.4169081 0.610436
0.8281713 0.12879944 0.02749002 -0.31599128 0.06785115 -0.1569623 0.17415504 0.41151717
0.31220427 0.802296 0.15279868 0.26712093 0.06806833 1.2833133 -0.26633498 -0.2282697
-3.617505 -0.15294354 -0.084728874 -0.422638 -0.0602304 0.22881426 0.19001225 0.092797056
0.51065344 -0.18530275 0.80833524 0.23964536 0.082649335 0.29714462 0.89747846 0.25845465
-0.4372694 0.58076876 -0.48197109 0.45255682 -0.11162427 0.7630747 -3.060319 0.33194947
0.6580382 0.47773364 0.69571483 0.3102391 0.2654657 0.49428028 -0.20998351 -1.1594671
0.68608713 0.14571321 -1.070327 0.11517269 0.09813927 0.13009094 -0.085016355 0.18267626
0.23482953 1.1796335 0.37598008 0.3574047 0.004012759 -0.17281482 -0.10281966 0.6252583
0.14290081 0.33703956 0.40191317 -0.29458332 1.3374211 0.57059574 -0.0736612 0.1818997
0.078291684 0.9756532 -0.04765821 -0.43216878 0.44627938 -0.6072074 0.41242293 0.21374705
0.36127457 0.121483274 0.5719049 0.5596694 -0.0683251 0.00052360696 -0.06601401 -0.291041
0.28730232 -0.18984453 0.039564557 -0.5410337 0.5289156 -0.111751 0.23255675 0.6316501
0.84062666 0.73402303 -1.1230527 0.027704312 0.10592123 -0.22339436 0.053237922 -2.1192393

model/activation_4/Relu;model/batch_normalization_4/batchnorm/add_1 f4 [8]
00000000: c87d ac3f b4b6 1740 b0cd a13f 2a1d 4640
00000010: ac51 0540 556b c43f 9d80 3e40 b0d8 7140
1.3475885 2.3705263 1.2640896 3.09553 2.0831099 1.5345255 2.9766 3.7788506

model/activation_5/Relu;model/batch_normalization_5/batchnorm/add_1 f4 [128]
00000000: 6b4f 6dc0 72da 0abe c324 de3f 207c b2bf
00000010: 9d1c fdbf 3288 c0bf 9e1c 95c0 7c63 8f40
00000020: 0623 223f f051 4cc0 feee a0c0 8e17 a4bf
00000030: 3e94 81c0 fec0 1e40 17cc d5c0 241f f7bf
00000040: 358d 81c0 f264 59c0 f97e 97be e546 8ec0
00000050: 8059 a03e 512d d540 1505 c6c0 36c7 9640
00000060: 1ff5 9dc0 b0f4 ffc0 4a02 7240 9018 a740
00000070: 1ea2 0bc1 f727 9dc0 1e0e 0f3f 6b2b 7f40
00000080: 5f87 0e41 12c6 61c0 2a6e 9840 8b89 fb3f
00000090: ce63 c43e d8af 82c0 10a5 3abe eb41 1640
000000a0: e632 1f40 3c21 8ac0 29ad ccc0 dc86 ce3d
000000b0: 3e04 3d40 f0d1 03c0 4d71 35c0 ccf0 f63f
000000c0: 8739 783f 2fc8 5f3f 1513 6cc0 3ca2 9740
000000d0: df8b bcc0 9f88 83c0 d157 3c40 69f7 99c0
000000e0: cc1a 60c0 5058 b840 94ac 34c0 3174 09bf
000000f0: a679 8dbf 221c 873f 66a4 5c40 2b71 67c0
00000100: dc1e 0040 51b9 663f c1e9 0941 48a0 6940
00000110: 6866 05c1 e60c 91bf 0124 e8c0 527d dfc0
00000120: 8ca6 12c1 3b1a b1c0 60a0 8a40 d507 e640
00000130: 9861 3140 a47c c7c0 5f90 95c0 1277 bf3f
00000140: f0f8 55c0 6f19 08c1 a88e adc0 fa90 b33f
00000150: 0403 3cbf a9d7 83bf a170 24bf d35a a640
00000160: 8f8b 1640 eae8 17c1 5055 50c0 d270 b5c0
00000170: ab19 4cc1 9e50 46c0 d00d 19c0 642b e7bd
00000180: 0b89 e1c0 89f8 4f3f 275f cbc0 97e3 2fc1
00000190: ea31 3540 6334 6640 b8b5 9340 c9e0 973f
000001a0: fed5 e83f 77db 4bbf d1cd 3dc0 ac8c c5bf
000001b0: 77eb dabf 9650 3fc0 446e 78c0 2f59 af40
000001c0: 276c ac3f 89ad 7340 feb7 ce40 d844 d440
000001d0: ddcc 2e40 7963 2440 1821 1940 f861 8e3f
000001e0: 9913 f6c0 fa8f 9b40 7621 58bf 73bc 86bf
000001f0: 9ac4 3cbe 8c5f 0d40 aa46 38c0 9926 de40
-3.7079723 -0.13559893 1.7354969 -1.394413 -1.9774357 -1.5041564 -4.6597433 4.480894
0.6333469 -3.192501 -5.029174 -1.2819688 -4.049346 2.4805293 -6.6811633 -1.9306378
-4.048487 -3.3967862 -0.2958906 -4.446154 0.31318283 6.661782 -6.1881204 4.7118177
-4.936172 -7.998619 3.7813897 5.2217484 -8.727079 -4.9111285 0.55880916 3.987025
8.90805 -3.5277143 4.7634478 1.965135 0.38357395 -4.0839653 -0.18227029 2.3477733
2.4874816 -4.316557 -6.3961377 0.10084316 2.953384 -2.0596886 -2.8350403 1.9292235
0.9696278 0.8741483 -3.6886647 4.738554 -5.892074 -4.1104274 2.94286 -4.8114514
-3.5016356 5.7607803 -2.8230333 -0.5369292 -1.1052749 1.055546 3.447534 -3.6162822
2.0018835 0.9012652 8.619569 3.6504078 -8.337502 -1.1332061 -7.254395 -6.984048
-9.165661 -5.534452 4.332077 7.188456 2.7715816 -6.233965 -4.6738734 1.4958212
-3.343319 -8.506209 -5.423664 1.4028618 -0.734421 -1.0300189 -0.6423436 5.198587
2.352268 -9.494364 -3.255207 -5.670022 -12.756267 -3.0986705 -2.391468 -0.11287573
-7.047979 0.8123861 -6.3553653 -10.993064 2.8311715 3.5969474 4.6159325 1.1865474
1.8190305 -0.7963175 -2.965687 -1.5433555 -1.7103108 -2.9892936 -3.88173 5.4796367
1.3470505 3.8074667 6.45996 6.633404 2.7312539 2.5685713 2.392645 1.1123648
-7.6898923 4.8613253 -0.8442606 -1.052626 -0.18434373 2.2089567 -2.879313 6.9422116

model/activation_6/Relu;model/batch_normalization_6/batchnorm/add_1 f4 [128]
00000000: b19f 9abd 92f0 d53d 84c1 903f 5171 b3be
00000010: f82f 873e 6971 4c3f 6de9 b13e f175 fe3e
00000020: a930 c4bd 2773 ed3e ed86 cbbe 0961 7f3f
00000030: dd02 433f 6092 d53e 5dd4 14bf 8613 343f
00000040: d149 813e 5562 ffbe 6e53 4b3f 0917 13bf
00000050: ac36 33bd de9d 833e 351f f13e d6a3 5d3f
00000060: 555d 5b3f 085a 113f 6f4b 74be 1090 5a3f
00000070: a6e0 a63f 12a5 1d3f c500 133f 9ab2 44be
00000080: 0d0e bebe 9e6d 22bf cf52 96bf 6141 8d3f
00000090: e2b9 163f b772 073f ab55 be3d d24f ee3e
000000a0: 4c76 25bf b966 bebe 0b45 a1be 9ef7 d4be
000000b0: 45ca 743f 751c ba3d 90f7 533f 0ee2 32bf
000000c0: 88ee b13f cb1a 673f 6a1b 2f3e de33 7d3f
000000d0: 45eb 2c3e 1f3d 413f 9bea 003f 3ef2 fc3c
000000e0: 83c6 08bf 8c3b 123f 4d42 d0be 8ec5 563f
000000f0: 98d9 1e3e af8d a3bd 9fb4 9bbf fd25 08be
00000100: 4cd3 a43f 028b fb3e a793 eabd 1857 8abe
00000110: ad36 a9bf 0e29 f4be c8d4 5abe a844 0abd
00000120: fef2 b23f 8356 a73e eba6 933e 54da df3d
00000130: 62ea 703f 3e7d 2a3d 9114 81be 6263 853e
00000140: 0e63 453d eb82 243f 66f0 a43e be08 3c3f
00000150: 44db f9bd 426f 17bf d2cb 293e 0dc5 cf3f
00000160: 0adb 8a3f 38c2 80be 3fd6 9abe 82a1 b93e
00000170: 2b71 4bbf 5afc 9dbf ec05 44bf 349f d23e
00000180: ebe0 683e deca 3b3e d2a6 8e3d ca24 73bf
00000190: 47e7 673f ac3b 78be 7dc8 28be 7acc 81bf
000001a0: 2dfe 543f 2e9c 6a3f 94b0 c53c b8c4 373f
000001b0: ba3f 2cbe c2d4 a23f 7bf2 95be e0d8 433f
000001c0: 6aac 28bd a3db 94bf ab4e 14bf 03cf b23f
000001d0: 14e9 a33f eafb 22bf d63c 06ba 0c5c 96bf
000001e0: f9b5 8c3f 3e30 ec3d cd01 b93e a07f 68bf
000001f0: 24f8 d33d 4828 e5be 913a 003f 8cc2 12bf
-0.0754999 0.10446276 1.1309056 -0.3504739 0.26403785 0.7986055 0.34748402 0.49699357
-0.09579594 0.46376917 -0.39751378 0.9975744 0.76176244 0.41713238 -0.5813654 0.7034229
0.2525163 -0.4987971 0.7942418 -0.57457024 -0.04375331 0.2570638 0.47094122 0.8657812
0.8568929 0.56778 -0.238569 0.8537607 1.3037307 0.6158 0.5742305 -0.19208756
-0.37120095 -0.6344851 -1.1744021 1.1035577 0.58877385 0.52909416 0.092936836 0.46545273
-0.6463363 -0.37187746 -0.31497988 -0.41595167 0.9562114 0.09087459 0.82799625 -0.6987618
1.3900919 0.9027526 0.17100301 0.9890727 0.16886623 0.7548389 0.5035798 0.030877229
-0.53427905 0.5712211 -0.40675583 0.83895195 0.15512693 -0.079860084 -1.2164496 -0.13295741
1.2876983 0.49129492 -0.11453944 -0.27019572 -1.3219811 -0.47687572 -0.21370232 -0.033756882
1.3980405 0.3268319 0.28838286 0.10930315 0.9410764 0.041623347 -0.25211003 0.26052386
0.04819017 0.64262265 0.3221466 0.7345084 -0.12200025 -0.5915414 0.16581658 1.623201
1.0848095 -0.25148177 -0.30241582 0.36256033 -0.79469556 -1.2342637 -0.76571536 0.41137087
0.2274205 0.18339106 0.06965412 -0.9497801 0.90587276 -0.24241513 -0.1648273 -1.0140526
0.8320034 0.9164456 0.02413205 0.71784544 -0.16821185 1.2721179 -0.2928656 0.765028
-0.041180052 -1.1629528 -0.5793254 1.3969425 1.2805505 -0.6366564 -0.00051207596 -1.174684
1.0993034 0.11532639 0.36134186 -0.9081974 0.103500634 -0.44757295 0.50089365 -0.57328105

model/activation_7/Relu;model/batch_normalization_7/batchnorm/add_1 f4 [128]
00000000: 2f61 b6be e476 5fbf 0ecb ab3f 872e 713f
00000010: 8e41 6c3d bad4 143f f6a0 d23e 5df0 6b3f
00000020: 991d 1d3d baff 5f3e 6d4d 933e 8b8c 85bf
00000030: 4de1 fcbe bd82 30bf 8f57 ef3e 9854 63bf
00000040: 14de ddbe c961 a1bf 7f05 3d3f e68a 0fbf
00000050: 0ec2 e83f 874a 14be 8ba7 83bf 2fd3 dc3e
00000060: d0b6 2a3f c60c 0c3e 829a fa3e 51f9 3c3e
00000070: 2d09 20bf 8c3e 4cbf 3fc4 4a3e f4b2 793f
00000080: 58f5 273f e75e e2be 3a2f c43f 244b 0f3e
00000090: a6a4 01be 1ea6 5a3d e9ae 11be 8c7c b63e
000000a0: f6f5 493f 9c1b 5cbf cf86 96be 45d0 56bf
000000b0: c00e f73d 640a 853e 347d 823e 510f 3f3f
000000c0: b572 0abf 2685 033f b077 17be e8e2 1e3f
000000d0: 44e1 5d3e f52f 0b3e 086a eb3f 5d7b 813f
000000e0: 6656 d23e 823f 883f 3fa5 a53f f9b5 133e
000000f0: 7b6b 1abe c2d8 2abf d4b7 e7be eb5e 6a3f
00000100: 75de 0b3f f574 19be 7a05 7f3e 31d1 f8bd
00000110: 0591 933d fb35 2bbf 4bd9 dfbe a820 993f
00000120: 7633 803c 2426 93be c462 49bf f61d d23e
00000130: 808f 9fbd d01a 683f d7d0 4cbf 21e7 9c3f
00000140: 9bea dcbf 1175 993f c7bc 4a3e 0fae 7dbd
00000150: 1e63 813f ba24 12bf 49fa ed3e 947e 123f
00000160: 182f b43f 03e0 ca3e 8706 513e 1e77 073f
00000170: b7ab 3bbe a7dd 24bf e21c 0bbf d0ee 9c3e
00000180: efed ca3e 1fcc bf3d d18a 6d3e 7876 a13f
00000190: c09c cbbe e390 5f3f 0aa4 5a3c 8c35 823f
000001a0: a6a3 023f 5f0b 833e c38e dbbe c36c 54be
000001b0: acdc 27bf 5730 3d3c e34a 323e f86e e9be
000001c0: 92b5 9bbe 3572 ab3f eb23 0b3f e187 893f
000001d0: 5cc2 a6be 207e cc3f 6077 fe3e a661 1cbf
000001e0: 08c6 ecbe b324 333f 1e49 09bf c561 70be
000001f0: 5dfb 323f e608 be3e 3c59 113f df74 973e
-0.3562102 -0.8729079 1.3421342 0.9421162 0.057679705 0.58137095 0.41138428 0.9216364
0.038358305 0.21874896 0.2877001 -1.0433515 -0.4939064 -0.6894949 0.4674649 -0.88800955
-0.43333495 -1.2607967 0.7383651 -0.5607132 1.8184221 -0.14481555 -1.0285505 0.4312987
0.666852 0.13676748 0.48946005 0.18454482 -0.62514 -0.7978294 0.19801424 0.97538686
0.6560874 -0.4421303 1.5326912 0.13993508 -0.12660465 0.053381078 -0.14226879 0.35641897
0.7889093 -0.8597963 -0.29399726 -0.83911544 0.1206336 0.2598449 0.25486147 0.74632746
-0.5408128 0.51375043 -0.14791751 0.6206498 0.21667963 0.13592513 1.8391733 1.0115772
0.41081542 1.0644381 1.2941054 0.14424886 -0.15080063 -0.66736996 -0.45257437 0.91551083
0.5463632 -0.14986022 0.24904433 -0.12149275 0.07205395 -0.6687924 -0.4372047 1.1963091
0.015649538 -0.28740036 -0.7866633 0.41038483 -0.07791042 0.9066591 -0.80006164 1.2258035
-1.7259096 1.1988851 0.19798575 -0.061933573 1.0108373 -0.5708729 0.46480015 0.5722439
1.4076872 0.39624032 0.20412646 0.52916133 -0.18327223 -0.64400715 -0.54340947 0.3065095
0.39634654 0.09365105 0.23197486 1.2614279 -0.39768028 0.87330455 0.013344774 1.0172591
0.5103096 0.25594613 -0.42882356 -0.20744614 -0.65571094 0.01154717 0.1741138 -0.45592475
-0.30411965 1.3394228 0.5435168 1.0744592 -0.3257016 1.597599 0.4970045 -0.610865
-0.46244836 0.69977874 -0.5362719 -0.23474796 0.699148 0.37116164 0.56776786 0.29581353

model/activation_8/Relu;model/batch_normalization_8/batchnorm/add_1 f4 [128]
00000000: 23a6 9f3f 29db e93f 9bb2 0c3f dcf4 873f
00000010: 4b87 b33f 504d 903f f911 0340 8d11 bf3f
00000020: 5043 0140 d2e4 953e fdc6 1240 8db2 0f40
00000030: a323 fc3f 7867 e23f 77c2 363c 413e 983f
00000040: 21b1 6f3f 44e4 a83f f27a fd3f 117e ef3e
00000050: 253e 0840 1041 533f ed75 983f f965 303f
00000060: 6e61 d93e 3994 863f 7a2e da3f 841f 303f
00000070: 47d4 b83f 8b91 3840 17c0 8f3e b1be 5abd
00000080: 6bc5 aa3f 0ee8 b13f 712d 813f ae30 c93e
00000090: ab2f 0040 9e50 0f40 f4c6 c83f c0e2 7dbd
000000a0: d7c6 0a3f 100b cc3f ef0d be3e 7d01 fa3f
000000b0: c42e 2240 4db6 1340 671c 863f 0038 ba3e
000000c0: 01ea 903f 405e 843f c354 5a3f c683 923f
000000d0: ff4a 053f 812d 933f d601 933f 6453 4b3f
000000e0: 9548 143e 79be ae3e 8e55 483f bc4e fb3f
000000f0: b715 973f fd79 3f3f 6a39 e23f 3ccd d33f
00000100: 8788 113f fc36 b93e c4cb c53f f6da a03f
00000110: 4aef 92be d032 4e3f bc5a 0640 21b5 2d40
00000120: 4e37 acbe 3d82 f53f 1ead 533e 22b7 c73e
00000130: 3d7e f03f c889 d53f 19b0 a0bb d668 e63f
00000140: 2f73 113f 9e56 5b3f 05f7 0f3f a929 de3f
00000150: 7619 0940 1f4d dd3f c6bb 863f f0b5 da3f
00000160: 8e34 ab3f 6734 e53f b845 0940 c7d2 63be
00000170: 7d13 9cbe 7407 1240 b1fb 693f 9df2 92be
00000180: 60ef ad3f d091 4340 6400 fa3f a37e 0440
00000190: 813f 513f cdb0 ae3f 1cad 083f bd6f ef3f
000001a0: 1ef1 3f3f e8a7 c83f 5724 a63f 40b6 b73f
000001b0: a089 de3f 3a9b 4b3f cb7e cc3e d41d ce3f
000001c0: 6f33 09bf 7826 99be f523 243f f06a 4940
000001d0: 061d 8e3f 767f 923f 7769 943f 4af1 883f
000001e0: 9251 c73f f145 833e d553 e73f 4632 603f
000001f0: c7ba 403f ee91 0f40 f62d 29bb 2e55 a83f
1.2472576 1.8270007 0.5496003 1.06216 1.4025663 1.1273594 2.047972 1.4927231
2.0197334 0.2927614 2.2933953 2.2452729 1.9698375 1.7687826 0.0111547625 1.1893998
0.9362965 1.3194661 1.9803145 0.4677587 2.128793 0.8252115 1.1910988 0.689056
0.42457145 1.0513984 1.7045434 0.6879809 1.4439782 2.8838832 0.2807624 -0.053404514
1.3341497 1.3898942 1.0091993 0.39294952 2.0029094 2.2392955 1.5685716 -0.061983824
0.54209656 1.5940876 0.37120005 1.9531704 2.5341043 2.3080018 1.0477418 0.3637085
1.1321412 1.0341263 0.85285586 1.1446464 0.5206756 1.1498262 1.1484935 0.7942412
0.14480813 0.34129694 0.78255546 1.9633403 1.1803502 0.74795514 1.7673771 1.6547008
0.5684895 0.36174762 1.5452809 1.2566822 -0.28698188 0.80546284 2.099288 2.7141802
-0.33635944 1.918037 0.20671508 0.39006907 1.8788525 1.6682673 -0.004903805 1.8000743
0.5681638 0.8567904 0.56236297 1.7356464 2.142179 1.728916 1.0526054 1.7086773
1.3375413 1.7906617 2.1448803 -0.22248374 -0.30483618 2.281705 0.91399676 -0.28700724
1.3588676 3.0557747 1.9531369 2.0702293 0.81737524 1.3647705 0.53389144 1.8705975
0.7497729 1.5676241 1.297984 1.4352493 1.738575 0.7953373 0.39940485 1.6102853
-0.53594106 -0.29912162 0.64117366 3.147152 1.1102607 1.1445148 1.1594685 1.0698636
1.5571768 0.256393 1.8072459 0.8757671 0.75285 2.2432818 -0.0025814748 1.3150995

model/batch_normalization/batchnorm/mul_1 i1 [128, 640] scale=0.00018853639 zero_point=0
00000000: 0c01 02f8 eff8 060b fdfe fc06 0afe 0407
00000010: faf1 f8ed f100 fd04 0e0e 05ff fa02 1000
00000020: 00f9 f8f6 fc01 01f9 faf6 0000 0909 07ff
00000030: f6f7 f202 fa09 0301 0809 fe04 0805 0900
00000040: fb05 fefc 0507 fd08 0503 07f1 f1f3 fafd
00000050: 00ff fe01 0000 0303 0906 0504 01fd ffff
00000060: 0007 0100 fbfe ffff fff5 05f9 fffc 03fe
00000070: 0811 0408 0300 02f3 010f 181a 1618 2419
00000080: 0a01 03f7 f1f8 070a fd00 fa07 0afd 0309
00000090: faf1 fbee f1fd 0000 0f11 01fe fa06 0e00
000000a0: 01f9 f6f7 fefe fff8 faf6 ff00 0908 0701
000000b0: f7f6 f201 f90a 0304 0609 0002 0506 07ff
000000c0: fe06 fcfd 0707 fd07 0305 05f1 f3f6 fdfc
000000d0: 00fc 0001 03fd 0103 0903 0702 0000 fdfd
000000e0: 0009 ffff fafb fdff fef6 02fd ff00 0300
000000f0: 090f 0607 fffd 05f0 030b 151b 1618 2117
0.0022624368 0.00018853639 0.00037707278 -0.0015082911 -0.0032051187 -0.0015082911 0.0011312184 0.0020739003
-0.0005656092 -0.00037707278 -0.00075414556 0.0011312184 0.0018853638 -0.00037707278 0.00075414556 0.0013197548
-0.0011312184 -0.0028280457 -0.0015082911 -0.0035821914 -0.0028280457 0.0 -0.0005656092 0.00075414556
0.0026395095 0.0026395095 0.0009426819 -0.00018853639 -0.0011312184 0.00037707278 0.0030165822 0.0
0.0 -0.0013197548 -0.0015082911 -0.0018853638 -0.00075414556 0.00018853639 0.00018853639 -0.0013197548
-0.0011312184 -0.0018853638 0.0 0.0 0.0016968275 0.0016968275 0.0013197548 -0.00018853639
-0.0018853638 -0.0016968275 -0.0026395095 0.00037707278 -0.0011312184 0.0016968275 0.0005656092 0.00018853639
0.0015082911 0.0016968275 -0.00037707278 0.00075414556 0.0015082911 0.0009426819 0.0016968275 0.0
-0.0009426819 0.0009426819 -0.00037707278 -0.00075414556 0.0009426819 0.0013197548 -0.0005656092 0.0015082911
0.0009426819 0.0005656092 0.0013197548 -0.0028280457 -0.0028280457 -0.002450973 -0.0011312184 -0.0005656092
0.0 -0.00018853639 -0.00037707278 0.00018853639 0.0 0.0 0.0005656092 0.0005656092
0.0016968275 0.0011312184 0.0009426819 0.00075414556 0.00018853639 -0.0005656092 -0.00018853639 -0.00018853639
0.0 0.0013197548 0.00018853639 0.0 -0.0009426819 -0.00037707278 -0.00018853639 -0.00018853639
-0.00018853639 -0.0020739003 0.0009426819 -0.0013197548 -0.00018853639 -0.00075414556 0.0005656092 -0.00037707278
0.0015082911 0.0032051187 0.00075414556 0.0015082911 0.0005656092 0.0 0.00037707278 -0.002450973
0.00018853639 0.0028280457 0.0045248736 0.004901946 0.0041478006 0.0045248736 0.00678731 0.0047134096
0.0018853638 0.00018853639 0.0005656092 -0.0016968275 -0.0028280457 -0.0015082911 0.0013197548 0.0018853638
-0.0005656092 0.0 -0.0011312184 0.0013197548 0.0018853638 -0.0005656092 0.0005656092 0.0016968275
-0.0011312184 -0.0028280457 -0.0009426819 -0.003393655 -0.0028280457 -0.0005656092 0.0 0.0
0.0028280457 0.0032051187 0.00018853639 -0.00037707278 -0.0011312184 0.0011312184 0.0026395095 0.0
0.00018853639 -0.0013197548 -0.0018853638 -0.0016968275 -0.00037707278 -0.00037707278 -0.00018853639 -0.0015082911
-0.0011312184 -0.0018853638 -0.00018853639 0.0 0.0016968275 0.0015082911 0.0013197548 0.00018853639
-0.0016968275 -0.0018853638 -0.0026395095 0.00018853639 -0.0013197548 0.0018853638 0.0005656092 0.00075414556
0.0011312184 0.0016968275 0.0 0.00037707278 0.0009426819 0.0011312184 0.0013197548 -0.00018853639
-0.00037707278 0.0011312184 -0.00075414556 -0.0005656092 0.0013197548 0.0013197548 -0.0005656092 0.0013197548
0.0005656092 0.0009426819 0.0009426819 -0.0028280457 -0.002450973 -0.0018853638 -0.0005656092 -0.00075414556
0.0 -0.00075414556 0.0 0.00018853639 0.0005656092 -0.0005656092 0.00018853639 0.0005656092
0.0016968275 0.0005656092 0.0013197548 0.00037707278 0.0 0.0 -0.0005656092 -0.0005656092
0.0 0.0016968275 -0.00018853639 -0.00018853639 -0.0011312184 -0.0009426819 -0.0005656092 -0.00018853639
-0.00037707278 -0.0018853638 0.00037707278 -0.0005656092 -0.00018853639 0.0 0.0005656092 0.0
0.0016968275 0.0028280457 0.0011312184 0.0013197548 -0.00018853639 -0.0005656092 0.0009426819 -0.0030165822
0.0005656092 0.0020739003 0.003959264 0.0050904825 0.0041478006 0.0045248736 0.006221701 0.004336337

model/batch_normalization_1/batchnorm/mul_1 i1 [128, 128] scale=0.00810849 zero_point=0
00000000: f7ef 0203 f9f4 eaee fb1a 0c01 0df9 07f1
00000010: 08fd 0818 04fa fadb f70d fa20 13f3 f203
00000020: 0002 f7fa 05ff ea03 010c 1c1c 030c 0af3
00000030: 0a03 03fe 0202 1af2 edf8 f9f2 00f8 08fe
00000040: 0e0f 0a08 f4fb f9fa fb01 f908 f2f2 0000
00000050: fbfe 0011 fcfc eafb 1400 fc08 eeff f6fa
00000060: 08fc 0dff ebee fb00 0c0c 0afe fb1b 1506
00000070: f8e4 0b13 f8fd f8ff 0902 e8f9 0001 fff8
00000080: fb08 0605 0003 09ee fa05 ec05 0c0a f7f9
00000090: 00ff e8fe ff0e f8fc 010b ee03 f713 ebf1
000000a0: fe00 02f6 f7fb 0513 f603 fc0c fd06 f60e
000000b0: 0807 ebfa feee fc01 0de9 eff4 0ddf 0c01
000000c0: f70a f3eb 04f1 f702 fff4 07f1 06fd f4fe
000000d0: 0300 f107 08fc ec01 fbff 00f6 f024 f8ef
000000e0: 0ad9 0bf4 01fe 10fe 0308 fbf1 f601 f2f6
000000f0: fe07 f9ff 0902 06fd f3ef 0103 0103 01e4
-0.07297641 -0.13784434 0.01621698 0.024325471 -0.056759432 -0.097301885 -0.17838678 -0.14595282
-0.04054245 0.21082075 0.097301885 0.00810849 0.105410375 -0.056759432 0.056759432 -0.12162735
0.06486792 -0.024325471 0.06486792 0.19460377 0.03243396 -0.048650943 -0.048650943 -0.30001414
-0.07297641 0.105410375 -0.048650943 0.25947168 0.15406132 -0.105410375 -0.113518864 0.024325471
0.0 0.01621698 -0.07297641 -0.048650943 0.04054245 -0.00810849 -0.17838678 0.024325471
0.00810849 0.097301885 0.22703773 0.22703773 0.024325471 0.097301885 0.0810849 -0.105410375
0.0810849 0.024325471 0.024325471 -0.01621698 0.01621698 0.01621698 0.21082075 -0.113518864
-0.15406132 -0.06486792 -0.056759432 -0.113518864 0.0 -0.06486792 0.06486792 -0.01621698
0.113518864 0.12162735 0.0810849 0.06486792 -0.097301885 -0.04054245 -0.056759432 -0.048650943
-0.04054245 0.00810849 -0.056759432 0.06486792 -0.113518864 -0.113518864 0.0 0.0
-0.04054245 -0.01621698 0.0 0.13784434 -0.03243396 -0.03243396 -0.17838678 -0.04054245
0.1621698 0.0 -0.03243396 0.06486792 -0.14595282 -0.00810849 -0.0810849 -0.048650943
0.06486792 -0.03243396 0.105410375 -0.00810849 -0.1702783 -0.14595282 -0.04054245 0.0
0.097301885 0.097301885 0.0810849 -0.01621698 -0.04054245 0.21892923 0.1702783 0.048650943
-0.06486792 -0.22703773 0.08919339 0.15406132 -0.06486792 -0.024325471 -0.06486792 -0.00810849
0.07297641 0.01621698 -0.19460377 -0.056759432 0.0 0.00810849 -0.00810849 -0.06486792
-0.04054245 0.06486792 0.048650943 0.04054245 0.0 0.024325471 0.07297641 -0.14595282
-0.048650943 0.04054245 -0.1621698 0.04054245 0.097301885 0.0810849 -0.07297641 -0.056759432
0.0 -0.00810849 -0.19460377 -0.01621698 -0.00810849 0.113518864 -0.06486792 -0.03243396
0.00810849 0.08919339 -0.14595282 0.024325471 -0.07297641 0.15406132 -0.1702783 -0.12162735
-0.01621698 0.0 0.01621698 -0.0810849 -0.07297641 -0.04054245 0.04054245 0.15406132
-0.0810849 0.024325471 -0.03243396 0.097301885 -0.024325471 0.048650943 -0.0810849 0.113518864
0.06486792 0.056759432 -0.1702783 -0.048650943 -0.01621698 -0.14595282 -0.03243396 0.00810849
0.105410375 -0.18649527 -0.13784434 -0.097301885 0.105410375 -0.26758018 0.097301885 0.00810849
-0.07297641 0.0810849 -0.105410375 -0.1702783 0.03243396 -0.12162735 -0.07297641 0.01621698
-0.00810849 -0.097301885 0.056759432 -0.12162735 0.048650943 -0.024325471 -0.097301885 -0.01621698
0.024325471 0.0 -0.12162735 0.056759432 0.06486792 -0.03243396 -0.1621698 0.00810849
-0.04054245 -0.00810849 0.0 -0.0810849 -0.12973584 0.29190564 -0.06486792 -0.13784434
0.0810849 -0.3162311 0.08919339 -0.097301885 0.00810849 -0.01621698 0.12973584 -0.01621698
0.024325471 0.06486792 -0.04054245 -0.12162735 -0.0810849 0.00810849 -0.113518864 -0.0810849
-0.01621698 0.056759432 -0.056759432 -0.00810849 0.07297641 0.01621698 0.048650943 -0.024325471
-0.105410375 -0.13784434 0.00810849 0.024325471 0.00810849 0.024325471 0.00810849 -0.22703773

model/batch_normalization_2/batchnorm/mul_1 i1 [128, 128] scale=0.012969357 zero_point=0
00000000: 0f01 fcfc 04f7 02fe f8f4 11f5 fcfc 0e01
00000010: 0505 1000 f5fb 00fc f90a 0a0b fb08 02f8
00000020: fefb ec04 d311 fdfc fe07 f508 01fd fe0e
00000030: 06fd f309 000e 07f6 f103 0b00 ebfd fbd9
00000040: 0006 fcf9 f9fe f907 0100 0405 0901 f7f8
00000050: 04ec 0dfd 04f9 08f0 1206 ff0a 0310 04ff
00000060: f6f5 f8fa 060c f60b 1114 07f6 ee03 fb05
00000070: 06fd f005 fe00 f3ff f30f fb14 07e7 f303
00000080: f3ff fe04 14f7 0400 f008 fd01 f907 0905
00000090: 030f 0507 05ff fded fd03 0100 0009 09fa
000000a0: 02fb 010b 05fe fcfd fcf8 ec0d fe0f 12f4
000000b0: 04ff 07fa 091a fff5 ef00 f9fa f100 0008
000000c0: 0ce7 ff03 fb00 f9ea 02fe 0df1 0bfe 0203
000000d0: f711 02f0 0606 fc03 0aef fff9 0b05 f6fd
000000e0: fdf4 f101 f6fe fc07 0817 0200 13fb f602
000000f0: f90b fbf6 1303 130b ecf5 08f8 f009 fcfc
0.19454035 0.012969357 -0.051877428 -0.051877428 0.051877428 -0.116724215 0.025938714 -0.025938714
-0.103754856 -0.15563229 0.22047907 -0.14266293 -0.051877428 -0.051877428 0.18157099 0.012969357
0.064846784 0.064846784 0.20750971 0.0 -0.14266293 -0.064846784 0.0 -0.051877428
-0.090785496 0.12969357 0.12969357 0.14266293 -0.064846784 0.103754856 0.025938714 -0.103754856
-0.025938714 -0.064846784 -0.25938714 0.051877428 -0.5836211 0.22047907 -0.03890807 -0.051877428
-0.025938714 0.090785496 -0.14266293 0.103754856 0.012969357 -0.03890807 -0.025938714 0.18157099
0.07781614 -0.03890807 -0.16860165 0.116724215 0.0 0.18157099 0.090785496 -0.12969357
-0.19454035 0.03890807 0.14266293 0.0 -0.2723565 -0.03890807 -0.064846784 -0.5058049
0.0 0.07781614 -0.051877428 -0.090785496 -0.090785496 -0.025938714 -0.090785496 0.090785496
0.012969357 0.0 0.051877428 0.064846784 0.116724215 0.012969357 -0.116724215 -0.103754856
0.051877428 -0.25938714 0.16860165 -0.03890807 0.051877428 -0.090785496 0.103754856 -0.20750971
0.23344843 0.07781614 -0.012969357 0.12969357 0.03890807 0.20750971 0.051877428 -0.012969357
-0.12969357 -0.14266293 -0.103754856 -0.07781614 0.07781614 0.15563229 -0.12969357 0.14266293
0.22047907 0.25938714 0.090785496 -0.12969357 -0.23344843 0.03890807 -0.064846784 0.064846784
0.07781614 -0.03890807 -0.20750971 0.064846784 -0.025938714 0.0 -0.16860165 -0.012969357
-0.16860165 0.19454035 -0.064846784 0.25938714 0.090785496 -0.32423392 -0.16860165 0.03890807
-0.16860165 -0.012969357 -0.025938714 0.051877428 0.25938714 -0.116724215 0.051877428 0.0
-0.20750971 0.103754856 -0.03890807 0.012969357 -0.090785496 0.090785496 0.116724215 0.064846784
0.03890807 0.19454035 0.064846784 0.090785496 0.064846784 -0.012969357 -0.03890807 -0.24641778
-0.03890807 0.03890807 0.012969357 0.0 0.0 0.116724215 0.116724215 -0.07781614
0.025938714 -0.064846784 0.012969357 0.14266293 0.064846784 -0.025938714 -0.051877428 -0.03890807
-0.051877428 -0.103754856 -0.25938714 0.16860165 -0.025938714 0.19454035 0.23344843 -0.15563229
0.051877428 -0.012969357 0.090785496 -0.07781614 0.116724215 0.3372033 -0.012969357 -0.14266293
-0.22047907 0.0 -0.090785496 -0.07781614 -0.19454035 0.0 0.0 0.103754856
0.15563229 -0.32423392 -0.012969357 0.03890807 -0.064846784 0.0 -0.090785496 -0.28532586
0.025938714 -0.025938714 0.16860165 -0.19454035 0.14266293 -0.025938714 0.025938714 0.03890807
-0.116724215 0.22047907 0.025938714 -0.20750971 0.07781614 0.07781614 -0.051877428 0.03890807
0.12969357 -0.22047907 -0.012969357 -0.090785496 0.14266293 0.064846784 -0.12969357 -0.03890807
-0.03890807 -0.15563229 -0.19454035 0.012969357 -0.12969357 -0.025938714 -0.051877428 0.090785496
0.103754856 0.2982952 0.025938714 0.0 0.24641778 -0.064846784 -0.12969357 0.025938714
-0.090785496 0.14266293 -0.064846784 -0.12969357 0.24641778 0.03890807 0.24641778 0.14266293
-0.25938714 -0.14266293 0.103754856 -0.103754856 -0.20750971 0.116724215 -0.051877428 -0.051877428

model/batch_normalization_3/batchnorm/mul_1 i1 [128, 128] scale=0.07234881 zero_point=0
00000000: 0101 01ff 0202 fffe fe00 0101 03ff 0001
00000010: ffff 0000 ff01 fc00 00ff fe01 fffd 0202
00000020: fe01 ff04 fefe 00fe ff01 fcfc ff00 fe01
00000030: ff00 fe00 02ff ff01 00fe fe01 fe00 02ff
00000040: ff02 01ff ff00 00fe 0103 fffd 01ff fe01
00000050: 0001 0302 02fe 0102 feff 0201 02ff 01ff
00000060: 00ff 0101 fefe ff00 fefe 00fe ffff 03fd
00000070: fe00 02ff 0000 01fe 0000 00fe 0101 fe00
00000080: fd02 ffff ff01 ff01 fe00 0001 01ff 0002
00000090: ff00 0102 fd00 ff01 fc00 fe02 0302 ff00
000000a0: 0001 00fe fe01 0000 01ff 04fd fe01 ff00
000000b0: 01fe 01fe 0102 0200 fd04 0300 fcff 0202
000000c0: ff03 f902 0200 ff04 fbfe 0004 ff01 0004
000000d0: 02fb 0102 fffd fc02 0202 0001 0102 fd02
000000e0: ffff 02fe 0401 fd04 0001 ff00 fdfd 01fe
000000f0: f600 04fc fc01 feff ff00 0101 fd01 0102
0.07234881 0.07234881 0.07234881 -0.07234881 0.14469762 0.14469762 -0.07234881 -0.14469762
-0.14469762 0.0 0.07234881 0.07234881 0.21704644 -0.07234881 0.0 0.07234881
-0.07234881 -0.07234881 0.0 0.0 -0.07234881 0.07234881 -0.28939524 0.0
0.0 -0.07234881 -0.14469762 0.07234881 -0.07234881 -0.21704644 0.14469762 0.14469762
-0.14469762 0.07234881 -0.07234881 0.28939524 -0.14469762 -0.14469762 0.0 -0.14469762
-0.07234881 0.07234881 -0.28939524 -0.28939524 -0.07234881 0.0 -0.14469762 0.07234881
-0.07234881 0.0 -0.14469762 0.0 0.14469762 -0.07234881 -0.07234881 0.07234881
0.0 -0.14469762 -0.14469762 0.07234881 -0.14469762 0.0 0.14469762 -0.07234881
-0.07234881 0.14469762 0.07234881 -0.07234881 -0.07234881 0.0 0.0 -0.14469762
0.07234881 0.21704644 -0.07234881 -0.21704644 0.07234881 -0.07234881 -0.14469762 0.07234881
0.0 0.07234881 0.21704644 0.14469762 0.14469762 -0.14469762 0.07234881 0.14469762
-0.14469762 -0.07234881 0.14469762 0.07234881 0.14469762 -0.07234881 0.07234881 -0.07234881
0.0 -0.07234881 0.07234881 0.07234881 -0.14469762 -0.14469762 -0.07234881 0.0
-0.14469762 -0.14469762 0.0 -0.14469762 -0.07234881 -0.07234881 0.21704644 -0.21704644
-0.14469762 0.0 0.14469762 -0.07234881 0.0 0.0 0.07234881 -0.14469762
0.0 0.0 0.0 -0.14469762 0.07234881 0.07234881 -0.14469762 0.0
-0.21704644 0.14469762 -0.07234881 -0.07234881 -0.07234881 0.07234881 -0.07234881 0.07234881
-0.14469762 0.0 0.0 0.07234881 0.07234881 -0.07234881 0.0 0.14469762
-0.07234881 0.0 0.07234881 0.14469762 -0.21704644 0.0 -0.07234881 0.07234881
-0.28939524 0.0 -0.14469762 0.14469762 0.21704644 0.14469762 -0.07234881 0.0
0.0 0.07234881 0.0 -0.14469762 -0.14469762 0.07234881 0.0 0.0
0.07234881 -0.07234881 0.28939524 -0.21704644 -0.14469762 0.07234881 -0.07234881 0.0
0.07234881 -0.14469762 0.07234881 -0.14469762 0.07234881 0.14469762 0.14469762 0.0
-0.21704644 0.28939524 0.21704644 0.0 -0.28939524 -0.07234881 0.14469762 0.14469762
-0.07234881 0.21704644 -0.50644165 0.14469762 0.14469762 0.0 -0.07234881 0.28939524
-0.36174405 -0.14469762 0.0 0.28939524 -0.07234881 0.07234881 0.0 0.28939524
0.14469762 -0.36174405 0.07234881 0.14469762 -0.07234881 -0.21704644 -0.28939524 0.14469762
0.14469762 0.14469762 0.0 0.07234881 0.07234881 0.14469762 -0.21704644 0.14469762
-0.07234881 -0.07234881 0.14469762 -0.14469762 0.28939524 0.07234881 -0.21704644 0.28939524
0.0 0.07234881 -0.07234881 0.0 -0.21704644 -0.21704644 0.07234881 -0.14469762
-0.7234881 0.0 0.28939524 -0.28939524 -0.28939524 0.07234881 -0.14469762 -0.07234881
-0.07234881 0.0 0.07234881 0.07234881 -0.21704644 0.07234881 0.07234881 0.14469762

model/batch_normalization_4/batchnorm/mul_1 i1 [8, 128] scale=0.0013955613 zero_point=0
00000000: fdcd e90f 08f4 cffd 1cff 00fa f4eb 08de
00000010: 81ea f9fb 2ce3 d3fd 20d3 fcfa fbd7 e2cb
00000020: e8ec f63a f112 eb16 ffee 012b 09f6 02e3
00000030: 1ef0 b4ed 6c29 bf0b fce8 ef17 e527 8e42
00000040: d6e0 12f4 1325 2103 14d7 1c1e e13c 2639
00000050: 2941 0fd2 e301 f2fa f416 f30a bc0f 2edc
00000060: ebe6 d00d 0df2 eb0b d805 eff0 0ef0 0a0e
00000070: 2009 312f e1f3 2127 35d1 e50e 09fb 17a2
00000080: 0e43 f8f0 3113 251a f3ed 0506 ddf9 caf4
00000090: f6fe 1edc 00f8 0ceb 3b0f f90e e202 2702
000000a0: 2eff e3e4 e9de 0eff c0fb f9ee 1cef f410
000000b0: 1501 11ef 1c10 fa1a fb32 f702 1ae1 f91e
000000c0: e8c6 f7eb d02e ebd7 0233 19e9 f7b9 5aeb
000000d0: 1d13 02f5 e20c 24ef f3c7 2122 ecf1 1e0d
000000e0: fbe9 b23d c005 dc05 15f6 d9f2 c002 e6e7
000000f0: 22f9 22fb fe1d 3900 13e4 3ce0 020d ca14
-0.004186684 -0.07117362 -0.03209791 0.02093342 0.01116449 -0.016746735 -0.0683825 -0.004186684
0.039075717 -0.0013955613 0.0 -0.008373368 -0.016746735 -0.029306786 0.01116449 -0.047449082
-0.17723627 -0.030702349 -0.009768929 -0.0069778063 0.061404698 -0.040471278 -0.06280026 -0.004186684
0.04465796 -0.06280026 -0.005582245 -0.008373368 -0.0069778063 -0.05721801 -0.04186684 -0.073964745
-0.03349347 -0.027911225 -0.013955613 0.080942556 -0.02093342 0.025120102 -0.029306786 0.030702349
-0.0013955613 -0.025120102 0.0013955613 0.060009133 0.012560051 -0.013955613 0.0027911225 -0.040471278
0.04186684 -0.02232898 -0.10606266 -0.026515665 0.15072061 0.05721801 -0.09071148 0.015351174
-0.005582245 -0.03349347 -0.023724541 0.03209791 -0.037680153 0.05442689 -0.15909399 0.09210704
-0.058613572 -0.04465796 0.025120102 -0.016746735 0.026515665 0.05163577 0.04605352 0.004186684
0.027911225 -0.05721801 0.039075717 0.04186684 -0.0432624 0.08373368 0.05303133 0.079546995
0.05721801 0.09071148 0.02093342 -0.06419582 -0.040471278 0.0013955613 -0.019537859 -0.008373368
-0.016746735 0.030702349 -0.018142296 0.013955613 -0.094898164 0.02093342 0.06419582 -0.050240204
-0.029306786 -0.036284592 -0.06698694 0.018142296 0.018142296 -0.019537859 -0.029306786 0.015351174
-0.05582245 0.0069778063 -0.023724541 -0.02232898 0.019537859 -0.02232898 0.013955613 0.019537859
0.04465796 0.012560051 0.0683825 0.06559138 -0.0432624 -0.018142296 0.04605352 0.05442689
0.073964745 -0.06559138 -0.037680153 0.019537859 0.012560051 -0.0069778063 0.03209791 -0.13118276
0.019537859 0.0935026 -0.01116449 -0.02232898 0.0683825 0.026515665 0.05163577 0.036284592
-0.018142296 -0.026515665 0.0069778063 0.008373368 -0.048844643 -0.009768929 -0.075360306 -0.016746735
-0.013955613 -0.0027911225 0.04186684 -0.050240204 0.0 -0.01116449 0.016746735 -0.029306786
0.08233812 0.02093342 -0.009768929 0.019537859 -0.04186684 0.0027911225 0.05442689 0.0027911225
0.06419582 -0.0013955613 -0.040471278 -0.039075717 -0.03209791 -0.047449082 0.019537859 -0.0013955613
-0.08931592 -0.0069778063 -0.009768929 -0.025120102 0.039075717 -0.023724541 -0.016746735 0.02232898
0.029306786 0.0013955613 0.023724541 -0.023724541 0.039075717 0.02232898 -0.008373368 0.036284592
-0.0069778063 0.06977806 -0.012560051 0.0027911225 0.036284592 -0.0432624 -0.009768929 0.04186684
-0.03349347 -0.080942556 -0.012560051 -0.029306786 -0.06698694 0.06419582 -0.029306786 -0.05721801
0.0027911225 0.07117362 0.03488903 -0.03209791 -0.012560051 -0.09908485 0.12560052 -0.029306786
0.040471278 0.026515665 0.0027911225 -0.015351174 -0.04186684 0.016746735 0.050240204 -0.023724541
-0.018142296 -0.079546995 0.04605352 0.047449082 -0.027911225 -0.02093342 0.04186684 0.018142296
-0.0069778063 -0.03209791 -0.10885378 0.08512924 -0.08931592 0.0069778063 -0.050240204 0.0069778063
0.029306786 -0.013955613 -0.05442689 -0.019537859 -0.08931592 0.0027911225 -0.036284592 -0.03488903
0.047449082 -0.009768929 0.047449082 -0.0069778063 -0.0027911225 0.040471278 0.079546995 0.0
0.026515665 -0.039075717 0.08373368 -0.04465796 0.0027911225 0.018142296 -0.075360306 0.027911225
