compression/autoencoder/dynamic_range_quantization/models_compressed/model_ToyCar.tflite (tflite, 277016 bytes, 20 tensors)

model/dense_9/BiasAdd/ReadVariableOp f4 [640]
0	0xbf5fb9d5	-0.8739293
1	0xbf2137db	-0.62975854
2	0xbe4d8e12	-0.20073727
3	0x3e2e74b1	0.17036702
4	0x3f2223d8	0.63335943
5	0x3f2586fb	0.6465909
6	0xbd8811f1	-0.06644047
7	0x3d368692	0.04456193
8	0xbef5dc57	-0.48019668
9	0xb85931f4	-5.1783354e-05
10	0xbda8b1c8	-0.08237034
11	0xbdc4b707	-0.09605222
12	0xbe01eac7	-0.12687217
13	0x3dedfe2c	0.11620745
14	0x3c90b959	0.017666506
15	0xbdea2ff0	-0.114349246
16	0xbe5fde2b	-0.21862094
17	0xbd0c7431	-0.034290496
18	0xbd1842ca	-0.03717307
19	0xbbcca94e	-0.0062457686
20	0x3da87c58	0.08226842
21	0x3e94fc4a	0.2909873
22	0xbd82a708	-0.06379515
23	0xbe0b0fc6	-0.13580236
24	0xbe5e3695	-0.21700509
25	0xbee2539f	-0.44204423
26	0xbebedf6f	-0.3727984
27	0xbde621ce	-0.112369165
28	0xbe5179a0	-0.20456553
29	0xbddd67a9	-0.10810787
30	0xbe498237	-0.1967858
31	0xbe8e54fa	-0.27799207
32	0xbe4d890f	-0.20071815
33	0x3cd849a2	0.026402298
34	0xbe505a70	-0.20346999
35	0xbecd75fc	-0.40129077
36	0xbec47324	-0.38369095
37	0xbeba618f	-0.36402556
38	0xbf01af22	-0.50657856
39	0xbee84db5	-0.45371786
40	0xbf029658	-0.51010656
41	0xbf2a3673	-0.6648933
42	0xbf01af2d	-0.5065792
43	0xbed7ae59	-0.42125204
44	0xbeaed0b8	-0.34143615
45	0xbe14eb40	-0.14542866
46	0xbe3f80c1	-0.1870146
47	0xbe839fd7	-0.25707886
48	0xbef52124	-0.47876847
49	0xbefa6856	-0.48907727
50	0xbe50d500	-0.20393753
51	0xbee35be1	-0.44406036
52	0xbeefb409	-0.46817043
53	0xbedee075	-0.43530622
54	0xbebe645a	-0.37185937
55	0xbea3975e	-0.31951421
56	0xbe921a01	-0.28535464
57	0xbf1db749	-0.61607796
58	0xbeb4bb5c	-0.35299194
59	0xbe946bd8	-0.28988528
60	0xbeaad6dc	-0.3336705
61	0xbe0ef6dd	-0.13961358
62	0xbe6db367	-0.23212968
63	0xbeda6801	-0.42657474
64	0xbef52fee	-0.4788813
65	0xbecf76a6	-0.4052021
66	0xbe979deb	-0.2961267
67	0xbf0b8372	-0.54497445
68	0xbf29cb78	-0.66326094
69	0xbf3dff13	-0.7421734
70	0xbf47a4f5	-0.7798608
71	0xbf3c73bf	-0.73614115
72	0xbee7352b	-0.4515775
73	0xbec84e4d	-0.3912224
74	0xbed9b4a2	-0.42520624
75	0xbeb60acc	-0.35555112
76	0xbe8238fd	-0.25434104
77	0xbe77a63c	-0.24184507
78	0xbebf47e3	-0.37359533
79	0xbea7889b	-0.3272141
80	0xbedaa93a	-0.42707235
81	0xbf11af9c	-0.56908584
82	0xbf63702e	-0.8884305
83	0xbeecdd72	-0.462627
84	0xbf1eebd2	-0.62078583
85	0xbf2b2e0b	-0.6686713
86	0xbf52f119	-0.82399136
87	0xbf3ed729	-0.7454706
88	0xbf2b2ba6	-0.6686348
89	0xbf1324b7	-0.574779
90	0xbf467a0a	-0.77529967
91	0xbf3f2b8b	-0.74675816
92	0xbf23bbe5	-0.6395858
93	0xbf3f0da3	-0.74630183
94	0xbf1c825e	-0.61136425
95	0xbf527ab0	-0.82218456
96	0xbf45460a	-0.77059996
97	0xbf41ffd2	-0.75780976
98	0xbf1b5006	-0.6066898
99	0xbf148eb4	-0.5803025
100	0xbf5fd387	-0.8743214
101	0xbf46fb12	-0.7772685
102	0xbf76ce80	-0.96408844
103	0xbf62adaa	-0.8854624
104	0xbf823970	-1.0173779
105	0xbf7fb364	-0.99883103
106	0xbf815adb	-1.0105852
107	0xbf43618e	-0.7632073
108	0xbf6d1163	-0.92604655
109	0xbf9b2a66	-1.2122314
110	0xbf7da840	-0.99084854
111	0xbf5a4590	-0.85262394
112	0xbf710468	-0.9414735
113	0xbf8ace1f	-1.0844153
114	0xbf86e682	-1.0539095
115	0xbf5bbf68	-0.8583894
116	0xbf40158d	-0.75032884
117	0xbf2accb0	-0.6671858
118	0xbf6e0627	-0.9297814
119	0xbf870927	-1.0549668
120	0xbf68f64d	-0.91000825
121	0xbf80d42d	-1.0064751
122	0xbf87c4b9	-1.060691
123	0xbf6f9eb0	-0.9360151
124	0xbf22a9f5	-0.63540584
125	0xbeec537c	-0.46157444
126	0xbf56474b	-0.83702534
127	0xbfdafcaf	-1.7108363
128	0xbf4fa949	-0.81117684
129	0xbeff1071	-0.4981723
130	0xbdbdc4ae	-0.09266029
131	0x3e530e33	0.20610885
132	0x3ee58a9f	0.44832322
133	0x3eda867a	0.42680722
134	0xbe1144b3	-0.14186363
135	0x3d68836b	0.056765955
136	0xbed516ba	-0.41618901
137	0x3d6009a0	0.05469668
138	0x3c0095a4	0.007848177
139	0xbd2f1c1d	-0.04275142
140	0xbdeac19f	-0.114627115
141	0x3e123d75	0.14281256
142	0x3c60f50c	0.013730299
143	0xbdfbc629	-0.122936554
144	0xbe62d099	-0.22149886
145	0xbd0f0083	-0.034912597
146	0xbd3fe500	-0.04684925
147	0xbd22fdbc	-0.03979276
148	0x3ac1b994	0.0014780038
149	0x3e538559	0.20656337
150	0xbdf7024a	-0.120609835
151	0xbe4bbf35	-0.19897158
152	0xbe7324e8	-0.23744547
153	0xbee05705	-0.4381639
154	0xbeca8761	-0.3955641
155	0xbe1a643e	-0.15077302
156	0xbe7032f9	-0.23456945
157	0xbe0346d5	-0.12819989
158	0xbe3111c6	-0.17291936
159	0xbe7bcc5a	-0.24589673
160	0xbe5ca832	-0.21548536
161	0xbce4782f	-0.02788934
162	0xbe8d28c8	-0.27570176
163	0xbed50939	-0.416086
164	0xbed5f9e7	-0.41792223
165	0xbec5ab2d	-0.3860716
166	0xbef4db30	-0.47823477
167	0xbec2f099	-0.38074186
168	0xbf0214fb	-0.50813264
169	0xbf2b2173	-0.66847914
170	0xbefeed7e	-0.49790567
171	0xbedd2619	-0.4319313
172	0xbec1884a	-0.37799293
173	0xbe2aa2ad	-0.16663618
174	0xbe5b89ea	-0.21439329
175	0xbe9e9e50	-0.30980158
176	0xbf028a4b	-0.5099227
177	0xbeff7359	-0.4989269
178	0xbe61baa0	-0.22043848
179	0xbedd197f	-0.43183514
180	0xbeeca2b3	-0.4621788
181	0xbee9cefe	-0.45665735
182	0xbeb4ebc0	-0.35336113
183	0xbea52af5	-0.32259336
184	0xbe881ebe	-0.26585954
185	0xbf1f3a1e	-0.62198055
186	0xbedec79d	-0.43511668
187	0xbec03e13	-0.3754736
188	0xbede3726	-0.4340145
189	0xbe8c1edc	-0.27367294
190	0xbe9b2240	-0.30299568
191	0xbef1ee3d	-0.47252074
192	0xbf02ac01	-0.5104371
193	0xbef46549	-0.47733524
194	0xbeae8ec0	-0.34093285
195	0xbf09b131	-0.53786
196	0xbf2a9d72	-0.6664649
197	0xbf4586a3	-0.77158564
198	0xbf49176f	-0.7855138
199	0xbf434472	-0.76276314
200	0xbef2c193	-0.4741331
201	0xbee3f17a	-0.4452017
202	0xbee63a91	-0.44966558
203	0xbed0575a	-0.40691644
204	0xbec0ad58	-0.3763225
205	0xbea50a5c	-0.32234466
206	0xbeddaaa8	-0.43294263
207	0xbeab3bdd	-0.3344411
208	0xbee6ae4e	-0.4505486
209	0xbf1205da	-0.5704018
210	0xbf7949d6	-0.9737829
211	0xbf0585a6	-0.52157056
212	0xbf292508	-0.6607213
213	0xbf38165d	-0.71909124
214	0xbf502e2d	-0.8132046
215	0xbf3c879a	-0.7364441
216	0xbf2c9d47	-0.67427486
217	0xbf1b61c2	-0.6069604
218	0xbf448b37	-0.76774925
219	0xbf3d53dc	-0.73956084
220	0xbf2726de	-0.6529368
221	0xbf44b5b1	-0.7683974
222	0xbf178864	-0.5919249
223	0xbf53f3cf	-0.827939
224	0xbf4c3ffd	-0.7978514
225	0xbf487293	-0.78299826
226	0xbf258412	-0.6465465
227	0xbf25cbb9	-0.6476398
228	0xbf630cea	-0.8869158
229	0xbf490601	-0.78524786
230	0xbf78ba73	-0.971595
231	0xbf58595e	-0.84511364
232	0xbf807378	-1.0035238
233	0xbf7e09ea	-0.9923388
234	0xbf7c3fe3	-0.98534983
235	0xbf426481	-0.75934607
236	0xbf6c9240	-0.9241066
237	0xbf9af469	-1.2105838
238	0xbf7b5996	-0.9818357
239	0xbf580fca	-0.8439909
240	0xbf6d1c50	-0.92621326
241	0xbf888210	-1.0664692
242	0xbf807c6e	-1.0037973
243	0xbf603a72	-0.8758918
244	0xbf410ee9	-0.75413376
245	0xbf2f6bae	-0.6852368
246	0xbf62cdec	-0.8859546
247	0xbf80f6f8	-1.0075369
248	0xbf653fd4	-0.8955052
249	0xbf74adf5	-0.9557794
250	0xbf815227	-1.0103196
251	0xbf6ca7e7	-0.924437
252	0xbf224981	-0.6339341
253	0xbef0a32a	-0.46999484
254	0xbf550e82	-0.8322526
255	0xbfdebc4f	-1.7401217

model/activation/Relu;model/batch_normalization/batchnorm/add_1 f4 [128]
0	0x4007b192	2.120213
1	0x3f8a9679	1.0827171
2	0x3c95039e	0.018190201
3	0xc08e003b	-4.437528
4	0x4090fe9d	4.5310807
5	0x4046acd3	3.1042984
6	0xc049264b	-3.1429622
7	0xbf770e67	-0.9650635
8	0xc00ef2a8	-2.2335606
9	0x403c2dc1	2.9402926
10	0xbfa39494	-1.2779717
11	0x3ff115ce	1.8834779
12	0xbf81245d	-1.0089222
13	0xbf730be9	-0.9494005
14	0x408aa524	4.332659
15	0x3b5c919c	0.0033656126
16	0xbccb6487	-0.024828209
17	0xbe7716cc	-0.2412979
18	0x3f84ae5f	1.0365714
19	0xc0ce217f	-6.441589
20	0x3e2e12ce	0.16999361
21	0xc0d7b72d	-6.7411103
22	0xc0875607	-4.2292514
23	0x3ffaa5e6	1.9581878
24	0xc032b07f	-2.7920225
25	0x3f83b642	1.0289996
26	0xbd12bda0	-0.03582537
27	0x4124db8c	10.3036
28	0x403e6c03	2.9753425
29	0x3de977e8	0.113998234
30	0x3ee69783	0.4503747
31	0xbf87f78b	-1.0622419
32	0xbf3e73f6	-0.7439569
33	0x3fab7bca	1.3397152
34	0x3f4f1718	0.80894613
35	0x3f41e61e	0.75741756
36	0xc06098be	-3.5093226
37	0xc049f3a9	-3.1554968
38	0x40bdba73	5.92901
39	0x3f950fec	1.1645484
40	0x3d6247b4	0.055244163
41	0x408d5362	4.4164286
42	0xbe8b9c44	-0.2726766
43	0xbf6b5bf0	-0.9193716
44	0x4049b4c0	3.151657
45	0xbf9eb853	-1.2400001
46	0xc01550f7	-2.3330667
47	0x407bc412	3.9338422
48	0x4092c584	4.586611
49	0xbedb0e71	-0.42784455
50	0x3fbe5e93	1.4872612
51	0x3edb87e7	0.42877123
52	0xc0c59281	-6.174134
53	0x4067b272	3.6202664
54	0xc01108a6	-2.2661529
55	0x405ed834	3.481946
56	0x3f0b5fb9	0.54442936
57	0x3ff90afc	1.9456477
58	0x3fd36a07	1.6516732
59	0xc0d52351	-6.660561
60	0x3f256d2e	0.6461972
61	0xbfc2bdaf	-1.5214137
62	0x3f3f64f4	0.7476342
63	0xc086d77c	-4.2138042
64	0x3feabf0f	1.8339556
65	0xbf029bb1	-0.51018816
66	0x4080e95d	4.0284867
67	0xbebcb198	-0.36854243
68	0xbfeb7325	-1.8394514
69	0x3fbe34ca	1.485986
70	0x3eb898a6	0.36053962
71	0x40a1267b	5.0359473
72	0x3e8d2499	0.27566984
73	0x3fdb7d28	1.714757
74	0x3f4b58ee	0.7943257
75	0xc1074b60	-8.455902
76	0x410face3	8.979709
77	0xbfb3fca0	-1.406147
78	0x3fcc4d0c	1.5961013
79	0xc11162f6	-9.08666
80	0xc04ecee6	-3.231378
81	0xbf16e2ad	-0.5893963
82	0xbcfbf9cb	-0.030758759
83	0x3c214b0b	0.009844552
84	0x403ab63e	2.9173732
85	0x4088db8b	4.2767997
86	0xc01b4c4f	-2.4265325
87	0x40a93c67	5.2886233
88	0xbe78d7fc	-0.24301142
89	0xc02b788e	-2.679233
90	0xc0844706	-4.13367
91	0xc04d25f4	-3.2054415
92	0xc02d9930	-2.7124748
93	0x401c8ed1	2.4462168
94	0xbfbefa2f	-1.49201
95	0x4094be61	4.6482396
96	0xbf16ff36	-0.5898317
97	0xbf7e2abf	-0.99283975
98	0x4088e16e	4.2775183
99	0xc112d537	-9.177054
100	0xc019489d	-2.395057
101	0xc067dc85	-3.6228344
102	0x40cda42f	6.426292
103	0x401f15f7	2.4857156
104	0xbeb4e870	-0.35333586
105	0x400c8a33	2.195935
106	0xc08d9a58	-4.425091
107	0x40b5516e	5.66619
108	0x409ec3c6	4.961398
109	0xbf618e94	-0.8810818
110	0xc0b1cc78	-5.5562096
111	0xc0c5b877	-6.1787677
112	0xbf8b17ea	-1.0866673
113	0x41039e27	8.226111
114	0x3ece7e55	0.4033076
115	0x408eca4f	4.462196
116	0x410601e5	8.375463
117	0x4074e32e	3.826366
118	0x401b2e2c	2.424693
119	0xbf074bfd	-0.52850324
120	0xbfb8ae1b	-1.4428133
121	0xc07e3277	-3.9718301
122	0xc057085b	-3.359885
123	0x40c21c63	6.065965
124	0x402d60cb	2.7090328
125	0xc06372ad	-3.5538743
126	0x410fa49f	8.977691
127	0xbff7c29c	-1.9356265

model/activation_1/Relu;model/batch_normalization_1/batchnorm/add_1 f4 [128]
0	0xbf1a0229	-0.60159546
1	0xbf4d8b6d	-0.8029087
2	0x3f733acd	0.950116
3	0x3f30c4b2	0.69050133
4	0xbc0af164	-0.008480404
5	0xbec70a32	-0.38874966
6	0x3f0627f1	0.52404696
7	0xbe5c173d	-0.2149324
8	0x3ee18d07	0.44052908
9	0xbf2ce6b1	-0.6753951
10	0xbf275991	-0.6537104
11	0x3d71ab44	0.059001222
12	0x3ed55f8e	0.41674465
13	0x3f875d1c	1.057529
14	0xbeb9a7b5	-0.36260763
15	0x3f2afda4	0.66793275
16	0xbd087177	-0.033311334
17	0xbb889e2b	-0.0041692457
18	0x3e9fc412	0.31204277
19	0x3f6790e9	0.9045549
20	0xbec9f325	-0.39443317
21	0xbec2b46c	-0.38028276
22	0x3e286232	0.16443709
23	0x3b5926b3	0.0033134639
24	0x3f3e5ba8	0.74358606
25	0xbe2ecda0	-0.17070627
26	0x3b68889d	0.0035481818
27	0xbe9c45fd	-0.30522147
28	0x3d9e9bfd	0.07744596
29	0x3dae43c2	0.085090175
30	0x3ee7bc47	0.45260832
31	0xbe890ade	-0.26766104
32	0xbde3c855	-0.11122195
33	0x3e54b92b	0.20773761
34	0xbe023d1e	-0.12718627
35	0xbffdd23c	-1.9829783
36	0xbe33a93c	-0.17545027
37	0x3d1ccf21	0.03828347
38	0xbef0a319	-0.46999434
39	0x3ea06104	0.31324017
40	0xbe65cc30	-0.22441173
41	0x3ff1cf19	1.8891326
42	0x3bc4b807	0.006003383
43	0x3e5f9301	0.21833421
44	0xbeaebca8	-0.34128308
45	0x3ef26fb0	0.47350836
46	0x3f90b9b2	1.130667
47	0x3f84de73	1.0380386
48	0xbf914cb8	-1.1351538
49	0x3ececd91	0.4039121
50	0xbf693d2d	-0.9110897
51	0x3dc32e4d	0.095303155
52	0xbf215dd0	-0.6303377
53	0xbe29dc25	-0.16587885
54	0xc07feb79	-3.998747
55	0x3eaccc3d	0.3374957
56	0x3f4d24bb	0.8013417
57	0x3eb4e920	0.3533411
58	0x3ea9d52e	0.33170456
59	0x3ea15514	0.31510222
60	0xbd798c3f	-0.060924765
61	0x3e6c4cb8	0.23076141
62	0x3e066d44	0.13127619
63	0x3fa40a9d	1.2815739
64	0x3ef11ebe	0.47093767
65	0x3cdad3c0	0.026712298
66	0x3f66332e	0.89921844
67	0x3e7933a9	0.24336113
68	0x3f47efb0	0.7810011
69	0xbf71e214	-0.9448559
70	0x3f55eb2a	0.83561957
71	0x3e713cd5	0.23558362
72	0x3f3a5d15	0.7279828
73	0xbf0af9a3	-0.54287165
74	0xbe051585	-0.1299649
75	0xbd7273ca	-0.059192456
76	0x3eded47d	0.4352149
77	0xbe60b059	-0.21942271
78	0x3f592f3e	0.8483771
79	0x3f4f4298	0.8096099
80	0xbd98cbdd	-0.07460759
81	0xbdc07998	-0.09398192
82	0xbfb8e152	-1.4443762
83	0x3e975fc0	0.2956524
84	0xbf562db4	-0.8366349
85	0xbe1dc4c7	-0.15407096
86	0x3eccf375	0.40029493
87	0x3eded40b	0.4352115
88	0x3efbb3bd	0.49160567
89	0xbfa729da	-1.3059647
90	0x3eff2b5c	0.49837768
91	0x3e901d56	0.28147382
92	0xbd95c64d	-0.073132135
93	0x3fe66517	1.79996
94	0xbe11384a	-0.14181629
95	0xbe59c278	-0.2126559
96	0xbf95b3e7	-1.1695527
97	0x3eeab057	0.45837662
98	0x3e0baf3a	0.13641062
99	0x3f83e038	1.0302801
100	0xbe489a0e	-0.19590017
101	0xbe1eab58	-0.1549505
102	0xbf83d8bf	-1.0300521
103	0xbea9c450	-0.33157587
104	0x3e1263ce	0.14295885
105	0x3ee69d42	0.45041853
106	0xbdb1b52f	-0.08677136
107	0xbfdc6822	-1.7219279
108	0xbd99c106	-0.075075194
109	0xbf87865e	-1.0587881
110	0xbe7765f1	-0.24159981
111	0x3f43ce48	0.76486635
112	0x3c8ed1a7	0.017433954
113	0x3fa6a9e0	1.3020592
114	0x3ea9582d	0.33075085
115	0x3f797332	0.974414
116	0xbd181f1d	-0.037139047
117	0x3f208030	0.626956
118	0xbe865db8	-0.26243377
119	0xbe44e293	-0.19227056
120	0x3e2496eb	0.16073196
121	0xbe9bdc47	-0.30441496
122	0x3e3ff865	0.18747099
123	0xbea37036	-0.31921548
124	0x3eb6cfe5	0.35705486
125	0x3d73bc42	0.05950571
126	0xbe1a90fc	-0.1509437
127	0xbf75e8ae	-0.96058166

model/activation_2/Relu;model/batch_normalization_2/batchnorm/add_1 f4 [128]
0	0x3c33401f	0.010940581
1	0xbee42b7f	-0.44564435
2	0x3f0b119f	0.5432376
3	0x3f1e62e8	0.6186967
4	0xbe8a9ec7	-0.27074262
5	0x3e299e17	0.16564213
6	0xbdcd86f0	-0.10035503
7	0xbe823936	-0.25434273
8	0x3e7b1c89	0.24522604
9	0xbedd2d82	-0.43198782
10	0x3ec7c2f7	0.39015934
11	0x3d65c530	0.056096256
12	0xbfb029fc	-1.3762813
13	0xc05bdcff	-3.4353635
14	0x3b28f75d	0.0025782206
15	0xbd028d26	-0.03187289
16	0xbe19240d	-0.14955159
17	0xbdf9405e	-0.1217048
18	0x3f0e4f5d	0.5558985
19	0x3dda5442	0.10660602
20	0x3e79d228	0.24396574
21	0xbe6e6a81	-0.23282816
22	0x3ebcd16d	0.3687853
23	0x3f203676	0.625831
24	0xbd5b2bc9	-0.053508554
25	0x3de5876d	0.11207471
26	0xc04e6ba8	-3.2253208
27	0x3eec75e6	0.461837
28	0x3d330907	0.04370978
29	0xbdab0735	-0.08350984
30	0x3e6f8b79	0.23393048
31	0xbfb8326d	-1.4390389
32	0xbce91659	-0.028453039
33	0xbe91d9d9	-0.28486517
34	0x3e76e771	0.24111725
35	0x3f536e98	0.8259063
36	0x3dd26b2d	0.102743484
37	0x3e56b39b	0.20966952
38	0x3e7e8ae4	0.2485767
39	0x3e9993fc	0.29995716
40	0x3e1ffdb7	0.15624128
41	0xbe84d13e	-0.2594089
42	0xbe3d699a	-0.18497315
43	0x3f5894e9	0.8460222
44	0x3ecb3960	0.3969221
45	0x3d00768b	0.03136305
46	0xbe8c22df	-0.27370355
47	0x3e933e67	0.28758547
48	0xbdd334d1	-0.10312808
49	0x3d3ac9e9	0.045602713
50	0xc00035f2	-2.0032926
51	0xbe25d232	-0.16193464
52	0x3d99cad5	0.0750939
53	0xbd95c08b	-0.07312115
54	0x3e094261	0.13404228
55	0x3df94b17	0.121725254
56	0xbe532eb4	-0.20623285
57	0xc0466c82	-3.1003728
58	0x3f1e9b22	0.61955464
59	0xbec3c048	-0.38232636
60	0xbef96cb0	-0.48715734
61	0x3e1f0823	0.15530448
62	0x3ef4d9b6	0.4782235
63	0x3f11f714	0.57017636
64	0x3e980dd5	0.29698053
65	0x3bd2727e	0.00642234
66	0xbeb51a0b	-0.35371432
67	0xbe675bf2	-0.22593668
68	0x3f1bb707	0.6082615
69	0x3b8ffb0c	0.004393941
70	0x3d8a875b	0.06764098
71	0xbe38f07f	-0.18060492
72	0x3da8b0e1	0.08236862
73	0x3e511d7a	0.204214
74	0x3e93e9a5	0.28889194
75	0xba63246f	-0.0008664792
76	0xbce10ee1	-0.027472915
77	0x3ebab190	0.36463594
78	0x3e90c11f	0.2827234
79	0x3e6b78fb	0.22995369
80	0xbf3ce5ef	-0.7378835
81	0x3f07886b	0.5294253
82	0xbebffe9e	-0.37498945
83	0xc0a9d3e8	-5.3071175
84	0x3f10bf25	0.56541663
85	0xbe810660	-0.25200176
86	0xbd73d2cf	-0.059527215
87	0x3fa4211c	1.2822604
88	0xbe77715c	-0.24164337
89	0x3eef6d2b	0.46762976
90	0xc0881637	-4.252712
91	0x3ebb4c80	0.36581802
92	0x3e6aa814	0.22915679
93	0x3f100a29	0.56265503
94	0xbb9766d5	-0.004620413
95	0x3f6fc46a	0.9365908
96	0x3f49b681	0.78794104
97	0xbb48e0c2	-0.0030651544
98	0x3ea5e51d	0.32401362
99	0x3df4bdb6	0.11950247
100	0x3eb1f73d	0.3475894
101	0x3e7ca49d	0.2467217
102	0xbd4fb199	-0.05070648
103	0x3ef870ca	0.4852355
104	0xbebaa411	-0.36453298
105	0xbd0140e1	-0.031556014
106	0x3eba59a1	0.36396506
107	0xbe00102d	-0.1250617
108	0xbe38a84f	-0.18032955
109	0xbfe5139e	-1.7896612
110	0xbdb85215	-0.09000031
111	0x3c9fd5fe	0.01951122
112	0xbdb38832	-0.087662116
113	0x3e2dcb9b	0.169722
114	0xbf5c8b54	-0.861501
115	0x3e91fb77	0.28512165
116	0x3ebdd382	0.3707543
117	0x3d7f4213	0.062318873
118	0x3da01162	0.078158155
119	0x3e8865c6	0.26640147
120	0x3daee547	0.08539825
121	0x3e5598ce	0.20859072
122	0xbca14091	-0.019684108
123	0xbddea588	-0.10871416
124	0xbd4dfe0b	-0.050291102
125	0x3f11e587	0.56990856
126	0xc078afce	-3.8857303
127	0x3f969767	1.1764954

model/activation_3/Relu;model/batch_normalization_3/batchnorm/add_1 f4 [128]
0	0x3f9d4584	1.228684
1	0x3bf43c66	0.007453489
2	0x3da943e7	0.082649045
3	0xbfc66b8f	-1.5501574
4	0x3d31d098	0.04341182
5	0x3ea5ae06	0.32359332
6	0xc084ff0a	-4.1561327
7	0xc0227ebe	-2.5389857
8	0x3d75f61d	0.060049165
9	0xbf2fe77e	-0.68712604
10	0xc084bb93	-4.1478972
11	0x3f6c6377	0.9233927
12	0x3efe5a02	0.49678046
13	0x3f15ddbb	0.5854146
14	0x3faf49f8	1.3694448
15	0x3dbd9541	0.092569835
16	0x3f05e132	0.52296746
17	0x3e6ece9b	0.23321001
18	0xbe8bda03	-0.27314767
19	0x3f13928e	0.576455
20	0x3cbb3093	0.02285031
21	0x3f4cc92e	0.79994476
22	0x3cc8a293	0.024491584
23	0x3e7f4c3f	0.2493143
24	0xbd0081e6	-0.03137388
25	0x3f8303a9	1.0235492
26	0xbf107b5c	-0.5643823
27	0x3f34c89f	0.70618623
28	0xbead0845	-0.33795372
29	0xbee23a58	-0.44185138
30	0x3bb32c69	0.0054679406
31	0x3eebca51	0.46052793
32	0xc00d15ad	-2.204448
33	0xbece94a4	-0.4034778
34	0xbd9c4f97	-0.07632368
35	0x3e4171cd	0.18891068
36	0xbe8fc30e	-0.28078502
37	0x3f2ac9b3	0.6671402
38	0x3ed371d9	0.41297796
39	0x3ed205db	0.41020092
40	0xbed79745	-0.42107597
41	0xbee058e4	-0.43817818
42	0x3f1dd95d	0.61659795
43	0xbeceb890	-0.40375185
44	0x3f506050	0.8139696
45	0x3f8b1761	1.086651
46	0x3e938157	0.28809616
47	0xc045fef9	-3.0936873
48	0xbeda64f9	-0.4265516
49	0xbec72d3d	-0.38901702
50	0xbfdfdc53	-1.7489113
51	0xbed9a050	-0.4250512
52	0xbe8b5340	-0.27211952
53	0xbf1c4dd7	-0.61056274
54	0x3e885768	0.26629186
55	0xbe0d7c66	-0.13816985
56	0x3fdcb48f	1.7242602
57	0xc012ef8b	-2.2958705
58	0x3e0561a6	0.13025531
59	0xbebbda6a	-0.36690074
60	0x3f871927	1.0554551
61	0x3e579be0	0.21055555
62	0x3faceaab	1.3509115
63	0x3e590da6	0.21196613
64	0xbf605c67	-0.87640995
65	0xbe09178b	-0.13387887
66	0x3f3b9c51	0.73285395
67	0xbe380eba	-0.17974368
68	0x3ed81a2e	0.42207474
69	0xbe4df0f1	-0.20111443
70	0x3f245847	0.641972
71	0x3e0ff495	0.14058144
72	0x3f44dee2	0.7690259
73	0xbe796bbd	-0.24357505
74	0x3f2f1ed2	0.68406403
75	0x3e0ca3cd	0.1373436
76	0xc00ee3a3	-2.2326438
77	0xbe2b1f8c	-0.16711253
78	0xbe99c04b	-0.3002952
79	0x3dfd91a8	0.12381297
80	0x3f13281e	0.5748309
81	0x3f48d3aa	0.78447974
82	0x3f261da1	0.6488896
83	0xbeacedf0	-0.33775282
84	0xbffefe98	-1.9921446
85	0xbe81e97a	-0.2537344
86	0xc00a93b5	-2.1652653
87	0x3e71ad53	0.23601274
88	0xbe886f9d	-0.26647654
89	0x3fb06e16	1.3783596
90	0x3f3ac723	0.7296011
91	0x3e7c6337	0.24647222
92	0x3f7dc428	0.99127436
93	0x3e950789	0.2910731
94	0xc05d8233	-3.4610717
95	0xbdcb7860	-0.09935069
96	0xbf04a29c	-0.5181062
97	0xbfa75922	-1.3074076
98	0x3e9d60b2	0.30737835
99	0x3d86c40c	0.06580362
100	0xbe97d214	-0.29652464
101	0xbe91064b	-0.28325114
102	0xc04397db	-3.0561435
103	0x3f7e0452	0.9922534
104	0x3f1b00af	0.6054792
105	0x3f538f82	0.8264085
106	0x3f553f83	0.83300036
107	0x3d6cba9c	0.057795152
108	0x3f4bfaf6	0.7967981
109	0xc00e37b1	-2.2221491
110	0xbf9b14ea	-1.2115757
111	0x3ea5408e	0.32275814
112	0xbe8d204c	-0.27563703
113	0xbcb38884	-0.021915682
114	0xc0ab5611	-5.354256
115	0xbec5e363	-0.38650045
116	0xbe973360	-0.29531384
117	0x3e2234d3	0.15840463
118	0xbd78481d	-0.060615648
119	0x3f61a21f	0.88138
120	0xbd349b02	-0.04409314
121	0x3e744794	0.2385543
122	0x3ee2fbf2	0.44332844
123	0x3f2c049c	0.67194533
124	0x3e501a66	0.2032257
125	0x3f06f3ca	0.5271574
126	0x3ffbe75b	1.9679979
127	0x3c9604b2	0.018312786

model/activation_4/Relu;model/batch_normalization_4/batchnorm/add_1 f4 [8]
0	0x40406960	3.0064316
1	0x3fcfcf41	1.6235124
2	0x3fa75147	1.3071679
3	0x3f44c3c3	0.7686121
4	0x3f891414	1.0709252
5	0x3f521aee	0.8207234
6	0x3fe8764a	1.8161099
7	0x3f9520ad	1.1650597

model/activation_5/Relu;model/batch_normalization_5/batchnorm/add_1 f4 [128]
0	0x407d73d0	3.9601936
1	0x3fffb4f8	1.9977102
2	0xc10056e5	-8.0212145
3	0xbfad8c98	-1.3558531
4	0xc068c541	-3.6370394
5	0x401d949c	2.4621954
6	0x40445f3c	3.0683126
7	0x3e8704ea	0.26370937
8	0x3f50d2b1	0.8157149
9	0xc0919a38	-4.5500755
10	0xc05644d8	-3.347952
11	0xc0908dea	-4.5173235
12	0x3faaf150	1.3354893
13	0xc0e14f72	-7.040948
14	0x400112a4	2.0167627
15	0x3eb78d73	0.35850105
16	0xc0642550	-3.5647774
17	0x3fb661d0	1.42486
18	0x40479a21	3.1187823
19	0x3ee11a2d	0.43965283
20	0xc0a9e244	-5.3088703
21	0x3fe7b8eb	1.8103307
22	0xc06befd7	-3.6865137
23	0xc0f7ad21	-7.739884
24	0x40ae194e	5.440589
25	0xbec7b337	-0.39003918
26	0x3ffc8bf1	1.9730207
27	0x40d2f5c4	6.5925007
28	0xc0708a86	-3.7584548
29	0x40689102	3.6338506
30	0xbfce3dca	-1.6112607
31	0x407a03d3	3.9064834
32	0x40b36f6d	5.607352
33	0x4046f0cd	3.1084473
34	0x3fdebec1	1.7401963
35	0x3fa74bff	1.3070067
36	0x4030eb6f	2.7643697
37	0x3fbac302	1.4590762
38	0x40375ac4	2.864915
39	0x3ffca683	1.9738315
40	0x408d371b	4.4129767
41	0xc0275496	-2.6145377
42	0x3f3d6c74	0.7399361
43	0xbfa05547	-1.2526025
44	0xc0af1bfc	-5.472166
45	0x41077644	8.466373
46	0xc05da976	-3.463468
47	0xbf882fda	-1.0639603
48	0x403e2bfc	2.9714346
49	0xbf0ac948	-0.5421338
50	0xbec856e6	-0.39128798
51	0xc009fc5a	-2.1560273
52	0x3fc36a80	1.5266876
53	0x404971ea	3.1475778
54	0x4007076d	2.1098282
55	0x3fe2f8f8	1.7732229
56	0xc060aa65	-3.5104
57	0xc104588c	-8.271618
58	0x40d3c3f1	6.6176686
59	0x400b01d9	2.1719878
60	0x40b0a96b	5.520681
61	0x3ef770b2	0.48328167
62	0xc0522072	-3.2832303
63	0xc0cbd496	-6.3697004
64	0xc0975398	-4.7289543
65	0x4069fdce	3.656116
66	0x408bdc2b	4.370626
67	0xc05fb4af	-3.495403
68	0xc0157b6a	-2.3356576
69	0x3f0a15ae	0.5393933
70	0x4016865d	2.351951
71	0xc0155e53	-2.333882
72	0xc0632923	-3.5493858
73	0xbefdf044	-0.4959737
74	0xbfd0e543	-1.6319965
75	0xbf3ddc0a	-0.7416388
76	0xc0645591	-3.5677226
77	0x3e65dc21	0.22447254
78	0x40014b4d	2.020221
79	0x3f369a96	0.7132963
80	0xc094e9c3	-4.6535354
81	0xc01b1c7f	-2.4236143
82	0xbf78dd5d	-0.97212774
83	0xbfc4b747	-1.5368432
84	0x404c28e6	3.1899962
85	0xbf0d400c	-0.5517585
86	0x3eadbd6f	0.3393359
87	0x40a425b9	5.129605
88	0x3f8c3795	1.0954462
89	0xc02dbaca	-2.7145257
90	0xc0d928e8	-6.7862434
91	0x409fb54a	4.99088
92	0xc09a12f4	-4.8148136
93	0x4043a547	3.0569627
94	0x3fb9af74	1.4506669
95	0x4018427a	2.3790574
96	0x403cc7a0	2.9496841
97	0x409fe81a	4.9970827
98	0x3f2cbe70	0.67478085
99	0xc10102e7	-8.063209
100	0xbff47da1	-1.9100839
101	0xc0bb5004	-5.8535175
102	0xbf8884c0	-1.0665512
103	0xbf9ba35a	-1.2159226
104	0x3f2db5da	0.6785561
105	0x40f07940	7.514801
106	0x40699e93	3.6503036
107	0xc11ff2db	-9.996791
108	0xc0513b87	-3.2692583
109	0xbf010a8d	-0.50406724
110	0x412187b1	10.095628
111	0xc0c97bd0	-6.296364
112	0x404b6e6c	3.1786146
113	0xbfe6a88b	-1.8020185
114	0x3f967cff	1.1756896
115	0xbe72e3de	-0.23719737
116	0x400d672e	2.2094226
117	0x408d04c7	4.406833
118	0xc06664bc	-3.5998983
119	0x40f4c8b6	7.649501
120	0x408f7e84	4.484194
121	0xc0570e42	-3.3602452
122	0xc04abfd7	-3.167959
123	0xc0899ff7	-4.300777
124	0xc0ba0bab	-5.8139243
125	0xc0d8f94e	-6.7804327
126	0xc00f7a32	-2.2418332
127	0xc100b608	-8.044441

model/activation_6/Relu;model/batch_normalization_6/batchnorm/add_1 f4 [128]
0	0x3fcafab0	1.5857754
1	0x3f45d60d	0.7727974
2	0x3f723ed5	0.94627124
3	0xbea7071c	-0.32622612
4	0xbf0c5027	-0.548098
5	0xbe96ce24	-0.29454148
6	0x3d44a97d	0.0480132
7	0x3f199c6e	0.6000432
8	0xbfa062f6	-1.25302
9	0x3f06efe8	0.5270982
10	0x3f668a9c	0.9005525
11	0xbdde765f	-0.10862421
12	0xbf74e348	-0.95659304
13	0xbfa80ef4	-1.3129563
14	0xbecbd6d3	-0.39812335
15	0x3f8bf7ce	1.0934999
16	0xbf1579ce	-0.58388984
17	0x3f550e6a	0.8322512
18	0x3e9fa42d	0.31179944
19	0xbe5f024e	-0.21778223
20	0xbde1e73c	-0.110304326
21	0xbf810131	-1.0078489
22	0x3f62e8e5	0.8863662
23	0xbefbc5ce	-0.4917435
24	0x3f759030	0.9592314
25	0xbe72ea12	-0.23722103
26	0xbefe4d81	-0.49668506
27	0x401b6280	2.427887
28	0x3f36c37f	0.71392053
29	0x3eca5d98	0.3952453
30	0xbf0c4a50	-0.5480089
31	0x3eb52381	0.3537865
32	0xbfb4f77b	-1.4138025
33	0x3ece9f33	0.40355834
34	0xbf15824e	-0.58401954
35	0x3e554b0b	0.20829408
36	0x3d00609e	0.03134214
37	0xbe2f8c46	-0.17143354
38	0x3dec8b86	0.115500495
39	0x3e41fe05	0.18944557
40	0xbed8db28	-0.42354703
41	0x3fc452de	1.5337789
42	0xbe1ed167	-0.15509568
43	0xbf06fdcd	-0.5273102
44	0x3cf024c5	0.029314408
45	0x3f79d655	0.9759267
46	0x3e6f99f7	0.23398577
47	0x3ed45f21	0.41478828
48	0xbe98ee54	-0.2986933
49	0x3f0c210a	0.54737914
50	0xbf1c3c01	-0.6102906
51	0xbe884284	-0.26613247
52	0xbf9a8fc6	-1.2075126
53	0x3ec2bbd0	0.38033915
54	0x3f90baf0	1.1307049
55	0x3fd62048	1.6728601
56	0x3de5028f	0.11182129
57	0xbfbd4491	-1.478655
58	0x3f1ac2e8	0.60453653
59	0xbf8920bd	-1.0713116
60	0xbf946398	-1.1592894
61	0x3e92213a	0.28540975
62	0x3f80120f	1.0005511
63	0x3e40be74	0.18822652
64	0x3e808aca	0.25105888
65	0xbf92697b	-1.143844
66	0xbfb878b5	-1.4411837
67	0x3e57f344	0.21088892
68	0xbc815a96	-0.015790265
69	0xbf1e101b	-0.61743325
70	0xbdffc4a8	-0.12488681
71	0x3f10ff21	0.56639296
72	0x403f7393	2.991429
73	0x3ef3ac17	0.47592232
74	0x3f9acf48	1.2094507
75	0x3f641cc1	0.89106375
76	0xbf130f5a	-0.574453
77	0x3faebb88	1.365098
78	0x3e2e143b	0.16999905
79	0x3ff0da90	1.88167
80	0xbf9b6b6e	-1.214216
81	0xc01fe151	-2.4981272
82	0x3f29fb4b	0.6639907
83	0x3fa519a6	1.2898452
84	0x3f7cd846	0.9876751
85	0x3fae311d	1.3608738
86	0x3e0e8d12	0.13921002
87	0xbf62f4ce	-0.8865479
88	0xbfb1faa7	-1.3904618
89	0x3ec3d71b	0.3825005
90	0x3f9d7419	1.2301055
91	0x3fd40024	1.6562543
92	0x3f8d2ce1	1.1029321
93	0x3e75d6d6	0.24007735
94	0xbf831a4d	-1.0242401
95	0x3f7067c9	0.93908364
96	0x3f14501e	0.5793475
97	0xbf9fda33	-1.2488464
98	0x3f53cb6a	0.8273226
99	0x3fa3ce50	1.2797337
100	0x3f0aa8ec	0.54164004
101	0x3fcce515	1.600741
102	0x3fab03f9	1.3360587
103	0x3f7555a8	0.95833826
104	0xbf08a700	-0.5337982
105	0x3dea56d1	0.1144234
106	0xbe3e2da0	-0.18572092
107	0x3ee4300d	0.4456791
108	0x3f13c7ba	0.57726634
109	0xbfca68ec	-1.581327
110	0x3e89aa97	0.26887962
111	0x3fe0269d	1.7511784
112	0x3f9fec6d	1.2494026
113	0xbec6f19f	-0.38856217
114	0xbf13fc73	-0.5780708
115	0x3e2465f1	0.16054513
116	0xbecc8562	-0.39945513
117	0xbdc2ae5c	-0.09505913
118	0x3ee794e7	0.4523079
119	0x401e3185	2.4717724
120	0xc01a8535	-2.4143803
121	0xc0063c79	-2.097441
122	0xc0114325	-2.2697232
123	0x3ea06d25	0.3133327
124	0xbeb63453	-0.35586795
125	0x3f2a5f12	0.66551316
126	0x3e8899d9	0.26679876
127	0x3f03257b	0.51229066

model/activation_7/Relu;model/batch_normalization_7/batchnorm/add_1 f4 [128]
0	0x3f470e5b	0.7775628
1	0x3e5ab880	0.21359444
2	0xbfa4d48b	-1.2877363
3	0xbedfab8a	-0.4368556
4	0x3b8675e0	0.0041034073
5	0xbe812d2e	-0.25229782
6	0x3e9ab029	0.30212525
7	0x3f9cc764	1.2248349
8	0x3f83deda	1.0302384
9	0xbeb6309b	-0.35583958
10	0xbc4e2de7	-0.012584186
11	0xbf37a8b9	-0.71741825
12	0x3fa6d46a	1.3033574
13	0x3f440904	0.76576257
14	0x4003f821	2.0620196
15	0x3fca51b6	1.5806186
16	0x3f0834d6	0.5320562
17	0xbdfc6475	-0.12323848
18	0x3fc8131a	1.5630829
19	0x3f4da73e	0.80333316
20	0xbf14e659	-0.5816398
21	0x3dbea33f	0.093084805
22	0xbe18adf4	-0.14910108
23	0x3f4b43ab	0.7940013
24	0x3f1d0cd4	0.613477
25	0xbdf58d4c	-0.11989841
26	0xbf359785	-0.70934325
27	0x3fbb7d6c	1.4647651
28	0xbfb0afbc	-1.380363
29	0x3f9763c8	1.1827326
30	0x3e9f2519	0.3108299
31	0xbf8a88c8	-1.0822992
32	0xbf2b89d9	-0.67007214
33	0x39a5dbec	0.00031635107
34	0x3f413048	0.75464296
35	0x3f0c6620	0.5484333
36	0xbfe237e3	-1.7673305
37	0x3fb8a54f	1.4425448
38	0x3eab77b8	0.33489776
39	0x3f564235	0.83694774
40	0xbe56136d	-0.20905848
41	0x3fbdcadf	1.4827536
42	0xbf79c343	-0.9756357
43	0xbf845c98	-1.0340757
44	0x3f6882dd	0.9082468
45	0xbe1ec4b5	-0.15504725
46	0xbf840252	-1.0313208
47	0xbf4c7688	-0.79868364
48	0x3f096005	0.5366214
49	0x3e4fe2b3	0.20301323
50	0xbe3fa1eb	-0.1871411
51	0x3e6d8d7f	0.23198508
52	0x3f5b9773	0.8577797
53	0xbf49b7b5	-0.7879594
54	0xbd346ae1	-0.04404724
55	0xbd9f8f7e	-0.07791041
56	0xbfdd10cd	-1.7270752
57	0x3ff1880f	1.8869647
58	0xbf44a765	-0.76817924
59	0x3f8cde28	1.1005297
60	0x3f255ea4	0.64597535
61	0xbbc88be1	-0.0061201905
62	0xbf1fc1c5	-0.62405044
63	0x3eedea5a	0.4646786
64	0x3fbbb06d	1.4663216
65	0x3fa02910	1.2512531
66	0x3f63eaa6	0.8902992
67	0xbf0943b2	-0.5361892
68	0x3f561f7d	0.836418
69	0xbf692f42	-0.91087735
70	0xbe698175	-0.2280329
71	0x3f423c32	0.758731
72	0xbf25ab27	-0.6471428
73	0xbfba0af2	-1.453459
74	0xbf0469ce	-0.51723945
75	0x3f080def	0.5314626
76	0x3e423ca6	0.18968448
77	0x40055880	2.0835266
78	0x3e70111a	0.23444024
79	0x3fc0c267	1.5059327
80	0x3e0f4370	0.13990569
81	0xbe8063fa	-0.25076276
82	0x3fe8febe	1.8202741
83	0x3ec2228d	0.37916985
84	0x3f312e35	0.6921113
85	0x3ee9d778	0.45672202
86	0x3f3c6b81	0.7360154
87	0x3f25e47a	0.6480175
88	0x3deaf687	0.114728026
89	0x3f5780f7	0.8418116
90	0x3e626cf8	0.22111881
91	0x404b4c5b	3.1765354
92	0xbd01232f	-0.031527694
93	0x3e98950e	0.2980122
94	0xbe3707c8	-0.17874062
95	0xbfd32559	-1.6495773
96	0x3ea0df10	0.31420183
97	0xbfcbf781	-1.5934907
98	0x3f070685	0.52744323
99	0x3fa61a44	1.2976766
100	0x3d4c1411	0.049823824
101	0x3f7472ac	0.95487475
102	0x3f3afb75	0.7303994
103	0x3ed733a8	0.42031598
104	0x3fa1b420	1.2633095
105	0x3f80ee43	1.0072712
106	0x3f468e2e	0.775607
107	0x3f262f7a	0.64916193
108	0x3f08b9e2	0.53408635
109	0x3d2622c6	0.040560506
110	0x3e900fae	0.28136963
111	0xbda4e805	-0.08052067
112	0x3f3a498a	0.7276846
113	0x3f2b4185	0.6689685
114	0x3f2b8634	0.6700165
115	0xbfa62ab8	-1.2981787
116	0xbd8740d0	-0.06604159
117	0x3dd845b4	0.1056017
118	0xbf09963b	-0.5374486
119	0xbfa043d2	-1.2520697
120	0x3e82b434	0.2552811
121	0x3e9d1f4b	0.30687937
122	0xbd46e548	-0.048558503
123	0x3f8c8aeb	1.0979894
124	0xbafe500e	-0.001940252
125	0x3f47a020	0.77978706
126	0x3d54b46b	0.051929872
127	0x3f39c599	0.72567135

model/activation_8/Relu;model/batch_normalization_8/batchnorm/add_1 f4 [128]
0	0x3ff8c5b1	1.9435331
1	0x3fa31b62	1.2742732
2	0x3fa9938f	1.3248156
3	0x3fc24057	1.5175885
4	0x3f10ee7e	0.5661391
5	0x402872c9	2.632006
6	0x3fbdc84b	1.482675
7	0x3ed23dc8	0.4106276
8	0x3faf84a6	1.3712356
9	0x3f9acfea	1.20947
10	0x3f550b4e	0.83220375
11	0x3ee49bd1	0.44650128
12	0x407ab2df	3.9171674
13	0x401c9068	2.4463139
14	0x3fbd1a77	1.4773701
15	0x40207a75	2.5074742
16	0x3fb062a4	1.3780103
17	0x3f64fcf4	0.89448476
18	0xbe837f72	-0.2568317
19	0x3fd05347	1.6275414
20	0x3fad7a8a	1.3553021
21	0xbec32e92	-0.38121468
22	0x3f45469e	0.7706088
23	0x3f298777	0.6622233
24	0x3e61af86	0.22039613
25	0x402af8be	2.671432
26	0x3f7bd141	0.9836617
27	0xbf48284b	-0.7818648
28	0x3ee5832b	0.44826636
29	0x3f738f05	0.95140105
30	0x404d7838	3.2104626
31	0x3f31c346	0.6943859
32	0x3fe1c43d	1.7638012
33	0x3ff84874	1.9397111
34	0x3e84c2b3	0.25929794
35	0x3f9c034e	1.2188509
36	0x3f71a843	0.9439737
37	0xbf8c8b5e	-1.0980031
38	0x3f32f12e	0.6989926
39	0x40587018	3.3818417
40	0x3f6b847a	0.9199902
41	0x3e8262ef	0.25466105
42	0xbe561cd0	-0.20909429
43	0x3f9f0410	1.2423115
44	0x3fa7ba14	1.3103662
45	0x3f980fd9	1.1879836
46	0x3fd7e08f	1.6865405
47	0x401201a5	2.2813504
48	0x3f550dc1	0.8322411
49	0x3fbe2f2f	1.4858149
50	0x3f1d3a9c	0.61417556
51	0x3f22ab70	0.6354284
52	0x3fb4af36	1.411597
53	0x3f746d16	0.9547895
54	0x3ff6e37a	1.928817
55	0x3fff931d	1.996677
56	0x3ff2378e	1.8923204
57	0x3e9e0f89	0.30871227
58	0x3f66dd81	0.9018174
59	0x3ef79407	0.48355123
60	0x4037c93d	2.8716576
61	0x3f2faddb	0.6862466
62	0x3f13934b	0.57646626
63	0x40324b7f	2.785858
64	0x3fd86f63	1.6908993
65	0x3fab5caa	1.3387654
66	0x3eddc455	0.43313852
67	0x3f4b1436	0.79327714
68	0x3fdc3c1a	1.7205842
69	0x3fc1614f	1.5107821
70	0x3f58d688	0.8470235
71	0x3f101ab2	0.56290734
72	0x402cb86d	2.6987565
73	0x3fe2f095	1.772967
74	0x3eaec455	0.34134164
75	0x3d553f74	0.052062467
76	0x3e0c6871	0.13711716
77	0x405652d0	3.3488045
78	0x3f693dbd	0.9110983
79	0x3ff34b48	1.9007349
80	0x40310483	2.7659004
81	0x3f1732d3	0.59061927
82	0x3e8539ca	0.26020652
83	0x3face10e	1.3506181
84	0x3f8897d5	1.0671335
85	0x3f49cedd	0.78831273
86	0xbf597510	-0.8494425
87	0x3f60cd9f	0.8781375
88	0xbff04b72	-1.8773024
89	0x3ef027f0	0.4690547
90	0xbdb0de7d	-0.08636186
91	0x3fc7096f	1.5549754
92	0x401537bf	2.3315275
93	0x3f3bf220	0.7341633
94	0x3f13cff0	0.5773916
95	0x3f932037	1.1494206
96	0x401ca16c	2.4473524
97	0x3fb300e6	1.3984649
98	0x3f38285c	0.71936584
99	0x3f88f18b	1.0698713
100	0xbe8c5326	-0.27407187
101	0x40763479	3.8469527
102	0xbd2363b7	-0.039890017
103	0x3fa7f821	1.3122598
104	0x3f1ef0d0	0.620862
105	0x3f1b1ff5	0.6059564
106	0x3f28b361	0.6589871
107	0xbe191cc5	-0.14952381
108	0x3dfb57df	0.122726195
109	0x3f800814	1.0002465
110	0x3f9e5b76	1.2371662
111	0x3f9951c2	1.1978076
112	0x3f1d562b	0.61459607
113	0xbe62391b	-0.22092097
114	0x3f892aa4	1.0716138
115	0x3f55097d	0.832176
116	0x3ff9f057	1.9526471
117	0x3fa5c564	1.2950864
118	0x3ea76646	0.32695216
119	0x3f542b26	0.8287834
120	0x3e08886c	0.13333291
121	0x401672dd	2.3507607
122	0x3f76b32e	0.96367157
123	0x3f4d9f3d	0.80321103
124	0x3f3d4f7d	0.73949414
125	0x3fc1eacb	1.5149778
126	0x3fe79489	1.8092204
127	0xbe27490b	-0.16336457

model/batch_normalization/batchnorm/mul_1 i1 [128, 640] scale=0.00037425506 zero_point=0
0	0x01	0.00037425506
1	0x0b	0.0041168057
2	0x09	0.0033682955
3	0x05	0.0018712752
4	0x04	0.0014970202
5	0x04	0.0014970202
6	0x07	0.0026197855
7	0x07	0.0026197855
8	0x08	0.0029940405
9	0x09	0.0033682955
10	0x04	0.0014970202
11	0x01	0.00037425506
12	0x02	0.0007485101
13	0x00	0.0
14	0x01	0.00037425506
15	0x01	0.00037425506
16	0xfd	-0.0011227652
17	0xfc	-0.0014970202
18	0xfd	-0.0011227652
19	0xfd	-0.0011227652
20	0xf8	-0.0029940405
21	0xf7	-0.0033682955
22	0xfa	-0.0022455305
23	0x06	0.0022455305
24	0x09	0.0033682955
25	0x04	0.0014970202
26	0x00	0.0
27	0x04	0.0014970202
28	0x05	0.0018712752
29	0x06	0.0022455305
30	0x02	0.0007485101
31	0xfe	-0.0007485101
32	0x00	0.0
33	0xff	-0.00037425506
34	0xfe	-0.0007485101
35	0x01	0.00037425506
36	0x00	0.0
37	0xff	-0.00037425506
38	0x03	0.0011227652
39	0x01	0.00037425506
40	0x02	0.0007485101
41	0x06	0.0022455305
42	0x03	0.0011227652
43	0x04	0.0014970202
44	0x00	0.0
45	0xfe	-0.0007485101
46	0xff	-0.00037425506
47	0x01	0.00037425506
48	0xff	-0.00037425506
49	0xf7	-0.0033682955
50	0xf8	-0.0029940405
51	0xf9	-0.0026197855
52	0xfc	-0.0014970202
53	0xfa	-0.0022455305
54	0xff	-0.00037425506
55	0xfe	-0.0007485101
56	0x00	0.0
57	0x02	0.0007485101
58	0x01	0.00037425506
59	0xfc	-0.0014970202
60	0x00	0.0
61	0xfe	-0.0007485101
62	0xfe	-0.0007485101
63	0x00	0.0
64	0x03	0.0011227652
65	0x03	0.0011227652
66	0x04	0.0014970202
67	0x03	0.0011227652
68	0x01	0.00037425506
69	0x05	0.0018712752
70	0x02	0.0007485101
71	0x06	0.0022455305
72	0x07	0.0026197855
73	0x07	0.0026197855
74	0x06	0.0022455305
75	0x04	0.0014970202
76	0x03	0.0011227652
77	0x09	0.0033682955
78	0x07	0.0026197855
79	0x09	0.0033682955
80	0x03	0.0011227652
81	0x00	0.0
82	0x01	0.00037425506
83	0x05	0.0018712752
84	0x02	0.0007485101
85	0x00	0.0
86	0xfd	-0.0011227652
87	0xff	-0.00037425506
88	0xfd	-0.0011227652
89	0x00	0.0
90	0xff	-0.00037425506
91	0x01	0.00037425506
92	0x03	0.0011227652
93	0x00	0.0
94	0x01	0.00037425506
95	0xfd	-0.0011227652
96	0x00	0.0
97	0x00	0.0
98	0xff	-0.00037425506
99	0xff	-0.00037425506
100	0xfe	-0.0007485101
101	0xfe	-0.0007485101
102	0x02	0.0007485101
103	0x02	0.0007485101
104	0x04	0.0014970202
105	0x04	0.0014970202
106	0x04	0.0014970202
107	0x01	0.00037425506
108	0x02	0.0007485101
109	0x03	0.0011227652
110	0xfe	-0.0007485101
111	0xfe	-0.0007485101
112	0xfe	-0.0007485101
113	0x01	0.00037425506
114	0x01	0.00037425506
115	0x00	0.0
116	0x01	0.00037425506
117	0xfe	-0.0007485101
118	0xfd	-0.0011227652
119	0xfb	-0.0018712752
120	0xfb	-0.0018712752
121	0xfe	-0.0007485101
122	0xfc	-0.0014970202
123	0x00	0.0
124	0x03	0.0011227652
125	0x03	0.0011227652
126	0x02	0.0007485101
127	0xff	-0.00037425506
128	0xff	-0.00037425506
129	0x0a	0.0037425505
130	0x0b	0.0041168057
131	0x04	0.0014970202
132	0xfd	-0.0011227652
133	0xfc	-0.0014970202
134	0x04	0.0014970202
135	0x05	0.0018712752
136	0x0a	0.0037425505
137	0x08	0.0029940405
138	0x03	0.0011227652
139	0x00	0.0
140	0x01	0.00037425506
141	0x02	0.0007485101
142	0x02	0.0007485101
143	0x01	0.00037425506
144	0xfd	-0.0011227652
145	0xfc	-0.0014970202
146	0xfe	-0.0007485101
147	0xfd	-0.0011227652
148	0xfb	-0.0018712752
149	0xf9	-0.0026197855
150	0xfc	-0.0014970202
151	0x07	0.0026197855
152	0x0b	0.0041168057
153	0x08	0.0029940405
154	0x04	0.0014970202
155	0x01	0.00037425506
156	0x06	0.0022455305
157	0x06	0.0022455305
158	0x00	0.0
159	0xff	-0.00037425506
160	0xfe	-0.0007485101
161	0xff	-0.00037425506
162	0xfd	-0.0011227652
163	0x00	0.0
164	0x02	0.0007485101
165	0x00	0.0
166	0x03	0.0011227652
167	0x01	0.00037425506
168	0x04	0.0014970202
169	0x07	0.0026197855
170	0x04	0.0014970202
171	0x03	0.0011227652
172	0xfe	-0.0007485101
173	0xfd	-0.0011227652
174	0xfd	-0.0011227652
175	0x00	0.0
176	0x00	0.0
177	0xf7	-0.0033682955
178	0xf6	-0.0037425505
179	0xf7	-0.0033682955
180	0xfb	-0.0018712752
181	0xfb	-0.0018712752
182	0xff	-0.00037425506
183	0xfe	-0.0007485101
184	0x00	0.0
185	0x00	0.0
186	0x02	0.0007485101
187	0xfb	-0.0018712752
188	0xff	-0.00037425506
189	0xfc	-0.0014970202
190	0xfd	-0.0011227652
191	0x00	0.0
192	0x04	0.0014970202
193	0x02	0.0007485101
194	0x04	0.0014970202
195	0x03	0.0011227652
196	0x02	0.0007485101
197	0x02	0.0007485101
198	0x01	0.00037425506
199	0x05	0.0018712752
200	0x05	0.0018712752
201	0x08	0.0029940405
202	0x08	0.0029940405
203	0x06	0.0022455305
204	0x01	0.00037425506
205	0x07	0.0026197855
206	0x06	0.0022455305
207	0x0a	0.0037425505
208	0x02	0.0007485101
209	0x00	0.0
210	0x00	0.0
211	0x04	0.0014970202
212	0x03	0.0011227652
213	0x00	0.0
214	0xfc	-0.0014970202
215	0xfd	-0.0011227652
216	0xfa	-0.0022455305
217	0xfd	-0.0011227652
218	0xfb	-0.0018712752
219	0x01	0.00037425506
220	0x01	0.00037425506
221	0x00	0.0
222	0x02	0.0007485101
223	0xfc	-0.0014970202
224	0x00	0.0
225	0xfe	-0.0007485101
226	0xfc	-0.0014970202
227	0xfe	-0.0007485101
228	0xfd	-0.0011227652
229	0xfe	-0.0007485101
230	0x01	0.00037425506
231	0x01	0.00037425506
232	0x02	0.0007485101
233	0x01	0.00037425506
234	0x02	0.0007485101
235	0x01	0.00037425506
236	0x02	0.0007485101
237	0x03	0.0011227652
238	0xfd	-0.0011227652
239	0xfe	-0.0007485101
240	0xfe	-0.0007485101
241	0x02	0.0007485101
242	0x00	0.0
243	0x00	0.0
244	0x01	0.00037425506
245	0xff	-0.00037425506
246	0xfc	-0.0014970202
247	0xfb	-0.0018712752
248	0xfa	-0.0022455305
249	0xfe	-0.0007485101
250	0xfc	-0.0014970202
251	0xfe	-0.0007485101
252	0x00	0.0
253	0x03	0.0011227652
254	0x01	0.00037425506
255	0xfd	-0.0011227652

model/batch_normalization_1/batchnorm/mul_1 i1 [128, 128] scale=0.013582319 zero_point=0
0	0x03	0.040746957
1	0xe9	-0.31239334
2	0x06	0.081493914
3	0x03	0.040746957
4	0xf0	-0.2173171
5	0x04	0.054329276
6	0xfa	-0.081493914
7	0x06	0.081493914
8	0x00	0.0
9	0xfd	-0.040746957
10	0xfc	-0.054329276
11	0xf5	-0.14940551
12	0xf7	-0.12224087
13	0xf8	-0.10865855
14	0xf8	-0.10865855
15	0xfa	-0.081493914
16	0x1b	0.3667226
17	0xe9	-0.31239334
18	0x01	0.013582319
19	0x08	0.10865855
20	0x08	0.10865855
21	0xf6	-0.13582319
22	0xfd	-0.040746957
23	0xf2	-0.19015247
24	0x02	0.027164638
25	0x00	0.0
26	0xfb	-0.067911595
27	0x05	0.067911595
28	0x01	0.013582319
29	0x09	0.12224087
30	0x13	0.25806406
31	0x02	0.027164638
32	0x03	0.040746957
33	0x04	0.054329276
34	0x02	0.027164638
35	0x10	0.2173171
36	0xf0	-0.2173171
37	0x03	0.040746957
38	0xf5	-0.14940551
39	0x00	0.0
40	0xff	-0.013582319
41	0xfa	-0.081493914
42	0x01	0.013582319
43	0xfa	-0.081493914
44	0x01	0.013582319
45	0xec	-0.27164638
46	0xf4	-0.16298783
47	0x00	0.0
48	0x0e	0.19015247
49	0xfe	-0.027164638
50	0xfe	-0.027164638
51	0x07	0.09507623
52	0xff	-0.013582319
53	0xfd	-0.040746957
54	0x03	0.040746957
55	0x04	0.054329276
56	0xfc	-0.054329276
57	0x14	0.27164638
58	0xf9	-0.09507623
59	0x01	0.013582319
60	0xfc	-0.054329276
61	0x2a	0.5704574
62	0xf8	-0.10865855
63	0x03	0.040746957
64	0x06	0.081493914
65	0x01	0.013582319
66	0xf8	-0.10865855
67	0x02	0.027164638
68	0xf2	-0.19015247
69	0xfd	-0.040746957
70	0xfc	-0.054329276
71	0x06	0.081493914
72	0x01	0.013582319
73	0xf9	-0.09507623
74	0x05	0.067911595
75	0x01	0.013582319
76	0x08	0.10865855
77	0x00	0.0
78	0xf6	-0.13582319
79	0x02	0.027164638
80	0x0b	0.14940551
81	0x0b	0.14940551
82	0x05	0.067911595
83	0xff	-0.013582319
84	0x05	0.067911595
85	0x0b	0.14940551
86	0x04	0.054329276
87	0x06	0.081493914
88	0xf9	-0.09507623
89	0x01	0.013582319
90	0xff	-0.013582319
91	0x0e	0.19015247
92	0x18	0.32597566
93	0x14	0.27164638
94	0x0a	0.13582319
95	0x02	0.027164638
96	0xf5	-0.14940551
97	0x0a	0.13582319
98	0x05	0.067911595
99	0x04	0.054329276
100	0x01	0.013582319
101	0x0b	0.14940551
102	0x03	0.040746957
103	0x03	0.040746957
104	0xfd	-0.040746957
105	0xfc	-0.054329276
106	0xf5	-0.14940551
107	0xf4	-0.16298783
108	0x09	0.12224087
109	0x01	0.013582319
110	0x20	0.4346342
111	0xf9	-0.09507623
112	0x0a	0.13582319
113	0xf3	-0.17657015
114	0xfd	-0.040746957
115	0xf9	-0.09507623
116	0x0c	0.16298783
117	0x07	0.09507623
118	0x02	0.027164638
119	0xf9	-0.09507623
120	0xf4	-0.16298783
121	0xe8	-0.32597566
122	0xf6	-0.13582319
123	0x01	0.013582319
124	0xfc	-0.054329276
125	0xfe	-0.027164638
126	0xfb	-0.067911595
127	0x18	0.32597566
128	0x01	0.013582319
129	0xfc	-0.054329276
130	0x05	0.067911595
131	0xff	-0.013582319
132	0xfa	-0.081493914
133	0x12	0.24448174
134	0x04	0.054329276
135	0x00	0.0
136	0xfb	-0.067911595
137	0x08	0.10865855
138	0x0b	0.14940551
139	0xfe	-0.027164638
140	0xf9	-0.09507623
141	0xfc	-0.054329276
142	0xfd	-0.040746957
143	0x03	0.040746957
144	0x0c	0.16298783
145	0x0d	0.17657015
146	0x03	0.040746957
147	0x03	0.040746957
148	0x00	0.0
149	0x02	0.027164638
150	0xf8	-0.10865855
151	0xfd	-0.040746957
152	0x10	0.2173171
153	0x07	0.09507623
154	0xfe	-0.027164638
155	0x08	0.10865855
156	0x13	0.25806406
157	0x02	0.027164638
158	0x0a	0.13582319
159	0xf7	-0.12224087
160	0xfe	-0.027164638
161	0x00	0.0
162	0xff	-0.013582319
163	0x07	0.09507623
164	0x08	0.10865855
165	0xfc	-0.054329276
166	0xfd	-0.040746957
167	0xfc	-0.054329276
168	0x03	0.040746957
169	0xff	-0.013582319
170	0xfc	-0.054329276
171	0x02	0.027164638
172	0x0f	0.20373479
173	0xfe	-0.027164638
174	0x01	0.013582319
175	0x03	0.040746957
176	0x01	0.013582319
177	0x05	0.067911595
178	0x01	0.013582319
179	0xfd	-0.040746957
180	0xfe	-0.027164638
181	0xff	-0.013582319
182	0xff	-0.013582319
183	0xff	-0.013582319
184	0xff	-0.013582319
185	0xfd	-0.040746957
186	0x06	0.081493914
187	0x00	0.0
188	0x07	0.09507623
189	0x01	0.013582319
190	0x0e	0.19015247
191	0x02	0.027164638
192	0x08	0.10865855
193	0xfe	-0.027164638
194	0x05	0.067911595
195	0xfa	-0.081493914
196	0x01	0.013582319
197	0x01	0.013582319
198	0xfc	-0.054329276
199	0xff	-0.013582319
200	0xfd	-0.040746957
201	0x00	0.0
202	0xfd	-0.040746957
203	0xfb	-0.067911595
204	0x00	0.0
205	0x00	0.0
206	0x07	0.09507623
207	0x01	0.013582319
208	0x08	0.10865855
209	0x06	0.081493914
210	0x05	0.067911595
211	0x01	0.013582319
212	0x03	0.040746957
213	0xfd	-0.040746957
214	0x00	0.0
215	0xfc	-0.054329276
216	0xfb	-0.067911595
217	0x08	0.10865855
218	0x01	0.013582319
219	0xff	-0.013582319
220	0xfb	-0.067911595
221	0xf8	-0.10865855
222	0xfc	-0.054329276
223	0x06	0.081493914
224	0xff	-0.013582319
225	0xf9	-0.09507623
226	0x00	0.0
227	0xfb	-0.067911595
228	0x01	0.013582319
229	0x03	0.040746957
230	0x09	0.12224087
231	0xfc	-0.054329276
232	0x03	0.040746957
233	0xf9	-0.09507623
234	0xf9	-0.09507623
235	0xfb	-0.067911595
236	0xff	-0.013582319
237	0xfd	-0.040746957
238	0x02	0.027164638
239	0x04	0.054329276
240	0xfe	-0.027164638
241	0x01	0.013582319
242	0x03	0.040746957
243	0x03	0.040746957
244	0x02	0.027164638
245	0x05	0.067911595
246	0x0e	0.19015247
247	0x01	0.013582319
248	0xff	-0.013582319
249	0xfb	-0.067911595
250	0xfe	-0.027164638
251	0x01	0.013582319
252	0x09	0.12224087
253	0x02	0.027164638
254	0xfa	-0.081493914
255	0x06	0.081493914

model/batch_normalization_2/batchnorm/mul_1 i1 [128, 128] scale=0.027266502 zero_point=0
0	0xfe	-0.054533005
1	0x01	0.027266502
2	0x00	0.0
3	0xfe	-0.054533005
4	0x03	0.08179951
5	0x00	0.0
6	0xff	-0.027266502
7	0x01	0.027266502
8	0xff	-0.027266502
9	0x02	0.054533005
10	0x00	0.0
11	0xff	-0.027266502
12	0xfe	-0.054533005
13	0x02	0.054533005
14	0x00	0.0
15	0x04	0.10906601
16	0x02	0.054533005
17	0xff	-0.027266502
18	0xfe	-0.054533005
19	0x01	0.027266502
20	0x01	0.027266502
21	0x02	0.054533005
22	0x02	0.054533005
23	0x01	0.027266502
24	0x00	0.0
25	0x01	0.027266502
26	0x01	0.027266502
27	0x00	0.0
28	0x00	0.0
29	0x04	0.10906601
30	0xfe	-0.054533005
31	0xff	-0.027266502
32	0xfc	-0.10906601
33	0xfe	-0.054533005
34	0x02	0.054533005
35	0x01	0.027266502
36	0x01	0.027266502
37	0x01	0.027266502
38	0x01	0.027266502
39	0xff	-0.027266502
40	0xfe	-0.054533005
41	0x02	0.054533005
42	0x01	0.027266502
43	0x01	0.027266502
44	0xfe	-0.054533005
45	0xfe	-0.054533005
46	0xfe	-0.054533005
47	0x00	0.0
48	0xff	-0.027266502
49	0xfd	-0.08179951
50	0xfd	-0.08179951
51	0xff	-0.027266502
52	0xfd	-0.08179951
53	0xfc	-0.10906601
54	0xfe	-0.054533005
55	0x00	0.0
56	0x00	0.0
57	0xe4	-0.76346207
58	0xff	-0.027266502
59	0x01	0.027266502
60	0x00	0.0
61	0xf7	-0.24539852
62	0x03	0.08179951
63	0x01	0.027266502
64	0xfe	-0.054533005
65	0x01	0.027266502
66	0x01	0.027266502
67	0xff	-0.027266502
68	0x04	0.10906601
69	0x02	0.054533005
70	0x01	0.027266502
71	0xfc	-0.10906601
72	0xff	-0.027266502
73	0xfc	-0.10906601
74	0xff	-0.027266502
75	0x00	0.0
76	0x00	0.0
77	0x00	0.0
78	0x02	0.054533005
79	0xfd	-0.08179951
80	0x01	0.027266502
81	0x02	0.054533005
82	0x01	0.027266502
83	0xff	-0.027266502
84	0xff	-0.027266502
85	0x03	0.08179951
86	0xff	-0.027266502
87	0xfe	-0.054533005
88	0x02	0.054533005
89	0x02	0.054533005
90	0x00	0.0
91	0x01	0.027266502
92	0xfe	-0.054533005
93	0xfe	-0.054533005
94	0xff	-0.027266502
95	0xff	-0.027266502
96	0x00	0.0
97	0x00	0.0
98	0x00	0.0
99	0x02	0.054533005
100	0x02	0.054533005
101	0x00	0.0
102	0x00	0.0
103	0x00	0.0
104	0x00	0.0
105	0x03	0.08179951
106	0xff	-0.027266502
107	0x01	0.027266502
108	0xfe	-0.054533005
109	0x00	0.0
110	0x02	0.054533005
111	0x00	0.0
112	0xff	-0.027266502
113	0xfd	-0.08179951
114	0x02	0.054533005
115	0x00	0.0
116	0x01	0.027266502
117	0x00	0.0
118	0x00	0.0
119	0x01	0.027266502
120	0x00	0.0
121	0x01	0.027266502
122	0xfe	-0.054533005
123	0x01	0.027266502
124	0xfe	-0.054533005
125	0x01	0.027266502
126	0xff	-0.027266502
127	0xff	-0.027266502
128	0x06	0.16359901
129	0xfd	-0.08179951
130	0x01	0.027266502
131	0xff	-0.027266502
132	0xfa	-0.16359901
133	0xfb	-0.13633251
134	0x04	0.10906601
135	0xfd	-0.08179951
136	0xfe	-0.054533005
137	0xfa	-0.16359901
138	0x08	0.21813202
139	0x04	0.10906601
140	0x05	0.13633251
141	0x00	0.0
142	0xff	-0.027266502
143	0xfb	-0.13633251
144	0x03	0.08179951
145	0x05	0.13633251
146	0x02	0.054533005
147	0xff	-0.027266502
148	0x02	0.054533005
149	0x03	0.08179951
150	0x07	0.19086552
151	0xd7	-1.1179266
152	0x02	0.054533005
153	0xfa	-0.16359901
154	0x04	0.10906601
155	0x02	0.054533005
156	0x08	0.21813202
157	0x03	0.08179951
158	0x00	0.0
159	0xf3	-0.35446453
160	0xfd	-0.08179951
161	0xff	-0.027266502
162	0x02	0.054533005
163	0x05	0.13633251
164	0x06	0.16359901
165	0xff	-0.027266502
166	0xf8	-0.21813202
167	0x04	0.10906601
168	0x00	0.0
169	0xfa	-0.16359901
170	0xfb	-0.13633251
171	0xf9	-0.19086552
172	0x01	0.027266502
173	0xff	-0.027266502
174	0x02	0.054533005
175	0x04	0.10906601
176	0xf9	-0.19086552
177	0xf9	-0.19086552
178	0x02	0.054533005
179	0xfd	-0.08179951
180	0xf7	-0.24539852
181	0xfb	-0.13633251
182	0x04	0.10906601
183	0x0b	0.29993153
184	0xfa	-0.16359901
185	0x01	0.027266502
186	0xf1	-0.40899754
187	0xff	-0.027266502
188	0xfc	-0.10906601
189	0x02	0.054533005
190	0xfb	-0.13633251
191	0x00	0.0
192	0xfb	-0.13633251
193	0xfb	-0.13633251
194	0xfd	-0.08179951
195	0xfb	-0.13633251
196	0x00	0.0
197	0x00	0.0
198	0xf9	-0.19086552
199	0x05	0.13633251
200	0xf9	-0.19086552
201	0xf8	-0.21813202
202	0x01	0.027266502
203	0xe4	-0.76346207
204	0xfe	-0.054533005
205	0x04	0.10906601
206	0xf6	-0.27266502
207	0x06	0.16359901
208	0x05	0.13633251
209	0x08	0.21813202
210	0x03	0.08179951
211	0xfb	-0.13633251
212	0xff	-0.027266502
213	0x05	0.13633251
214	0xfc	-0.10906601
215	0xfd	-0.08179951
216	0xfe	-0.054533005
217	0xfe	-0.054533005
218	0x00	0.0
219	0xf9	-0.19086552
220	0xfe	-0.054533005
221	0x02	0.054533005
222	0xf8	-0.21813202
223	0x04	0.10906601
224	0xff	-0.027266502
225	0xf9	-0.19086552
226	0x00	0.0
227	0x01	0.027266502
228	0x04	0.10906601
229	0x00	0.0
230	0xff	-0.027266502
231	0xff	-0.027266502
232	0xff	-0.027266502
233	0x0a	0.27266502
234	0x0b	0.29993153
235	0x00	0.0
236	0xff	-0.027266502
237	0x02	0.054533005
238	0x07	0.19086552
239	0x00	0.0
240	0x01	0.027266502
241	0x07	0.19086552
242	0x08	0.21813202
243	0x00	0.0
244	0xf9	-0.19086552
245	0xfe	-0.054533005
246	0x06	0.16359901
247	0x05	0.13633251
248	0x05	0.13633251
249	0xf8	-0.21813202
250	0x06	0.16359901
251	0xfe	-0.054533005
252	0x01	0.027266502
253	0xff	-0.027266502
254	0x09	0.24539852
255	0xfb	-0.13633251
