compression/autoencoder/dynamic_range_quantization/models_compressed/model_fan.tflite (tflite, 277016 bytes, 20 tensors)

model/dense_9/BiasAdd/ReadVariableOp f4 [640]
0	0xbf37e872	-0.7183906
1	0xbe9628e6	-0.29328078
2	0xbed8009d	-0.42187968
3	0xbdd97b4c	-0.1061922
4	0xbf04c5a0	-0.5186405
5	0xbe8b36cc	-0.27190244
6	0xbed9613b	-0.42456993
7	0xbef0b467	-0.47012636
8	0xbeb78792	-0.3584562
9	0xbeb6a857	-0.35675308
10	0xbeef1dc4	-0.46702397
11	0xbe288f56	-0.16460928
12	0xbec0c31e	-0.37648863
13	0xbeceba80	-0.40376663
14	0xbeab03d6	-0.33401364
15	0xbf052250	-0.5200548
16	0xbef1f4f1	-0.47257188
17	0xbecdc570	-0.40189695
18	0xbf2f33ef	-0.6843862
19	0xbe963f93	-0.29345378
20	0xbef4685f	-0.4773588
21	0xbecda275	-0.40163007
22	0xbf056827	-0.5211205
23	0xbe8a1ba7	-0.26974222
24	0xbf08fbb1	-0.5350905
25	0xbec978e3	-0.39350042
26	0xbf14f676	-0.5818857
27	0xbeefbbc3	-0.46822938
28	0xbee970e4	-0.4559394
29	0xbeea22e3	-0.4572974
30	0xbf25a14c	-0.64699244
31	0xbec19e31	-0.37816003
32	0xbf1881e4	-0.595732
33	0xbec33ccb	-0.3813232
34	0xbf075cfa	-0.52876246
35	0xbeb75cc5	-0.35812965
36	0xbf057665	-0.5213378
37	0xbee75e41	-0.45189098
38	0xbe96212d	-0.29322186
39	0xbececffa	-0.4039305
40	0xbeea6cd5	-0.45786157
41	0xbe91662c	-0.28398263
42	0xbf05bfcf	-0.522458
43	0xbee6eb28	-0.45101285
44	0xbf15820e	-0.5840157
45	0xbec19824	-0.37811387
46	0xbef8aac5	-0.48567787
47	0xbf0856d7	-0.5325751
48	0xbf23ee79	-0.64035755
49	0xbf08de68	-0.53464365
50	0xbf2d0686	-0.6758808
51	0xbef6b522	-0.48185068
52	0xbed07fae	-0.40722412
53	0xbed3da1d	-0.41377345
54	0xbecfec24	-0.40609848
55	0xbf1a24b0	-0.6021223
56	0xbf36a92b	-0.7135188
57	0xbf3a20db	-0.72706383
58	0xbf1af224	-0.6052573
59	0xbf08661d	-0.5328081
60	0xbf2ac299	-0.6670318
61	0xbf24d8f2	-0.6439353
62	0xbf2cd8dc	-0.675184
63	0xbf4ccf34	-0.80003667
64	0xbf28c874	-0.6593087
65	0xbf2918ff	-0.66053766
66	0xbf392bc3	-0.723324
67	0xbf171ed9	-0.59031445
68	0xbf4114ce	-0.7542237
69	0xbf5576fe	-0.8338469
70	0xbf0f3866	-0.5594543
71	0xbf0e072f	-0.5547971
72	0xbf0e0680	-0.5547867
73	0xbf2cc9d2	-0.67495453
74	0xbef5bb0e	-0.47994274
75	0xbf19155a	-0.59798205
76	0xbf594cfd	-0.848831
77	0xbf3ac127	-0.7295098
78	0xbf517e2c	-0.8183315
79	0xbf4e5809	-0.8060308
80	0xbf0e1ce4	-0.55512834
81	0xbf25d2a1	-0.6477452
82	0xbf47b3f7	-0.7800898
83	0xbf3bd126	-0.7336601
84	0xbf17f27f	-0.59354395
85	0xbf5c7afc	-0.8612516
86	0xbf5d003e	-0.86328495
87	0xbf4f6fbb	-0.8102986
88	0xbf31cdc3	-0.6945459
89	0xbf5c8358	-0.86137915
90	0xbf43a0d2	-0.7641727
91	0xbf12597e	-0.57167804
92	0xbf1ba150	-0.6079302
93	0xbf0d2a8b	-0.5514304
94	0xbf4c8481	-0.79889685
95	0xbf5360b0	-0.8256941
96	0xbf64493b	-0.8917424
97	0xbf4eef89	-0.8083425
98	0xbf598f89	-0.8498464
99	0xbf833668	-1.0250978
100	0xbf4d17ee	-0.8011464
101	0xbf48809a	-0.7832123
102	0xbf5366e8	-0.825789
103	0xbf2cce23	-0.6750204
104	0xbf110aa3	-0.56656855
105	0xbf4760f0	-0.7788229
106	0xbf4ce338	-0.8003421
107	0xbf2de819	-0.6793228
108	0xbf25bd45	-0.6474193
109	0xbf210b24	-0.62907624
110	0xbf241828	-0.6409936
111	0xbf13edc0	-0.5778465
112	0xbf185f5b	-0.595205
113	0xbf4246a3	-0.75889033
114	0xbf7ece17	-0.9953322
115	0xbf7d30c3	-0.9890253
116	0xbf4507a6	-0.76964796
117	0xbf1c0710	-0.60948277
118	0xbf20aa32	-0.627597
119	0xbf19ffd9	-0.6015602
120	0xbf329117	-0.6975264
121	0xbf397f14	-0.7245953
122	0xbf3cb057	-0.73706573
123	0xbf68d5ce	-0.9095124
124	0xbf3b992a	-0.73280585
125	0xbf14a413	-0.5806286
126	0xbf417915	-0.7557538
127	0xbf97f343	-1.1871113
128	0xbf2dbe2a	-0.6786829
129	0xbe9743dd	-0.29543963
130	0xbed597dc	-0.41717422
131	0xbd982f17	-0.07430857
132	0xbefb12b6	-0.49037713
133	0xbe697ab5	-0.22800715
134	0xbebe41a6	-0.3715946
135	0xbecb439b	-0.39700016
136	0xbeab06a3	-0.334035
137	0xbea9e182	-0.3317986
138	0xbee5fa93	-0.44917735
139	0xbe13d280	-0.14435768
140	0xbebb7080	-0.36609268
141	0xbecff1f3	-0.4061428
142	0xbe9731d3	-0.295302
143	0xbee62619	-0.4495094
144	0xbed06935	-0.40705267
145	0xbeaa58e5	-0.33270946
146	0xbf1f578d	-0.62242967
147	0xbe4711c9	-0.19440378
148	0xbebb1683	-0.36540613
149	0xbebdff3b	-0.37108788
150	0xbf170bf2	-0.590026
151	0xbeaa9f66	-0.33324736
152	0xbf0121cc	-0.50442195
153	0xbebdbfbd	-0.37060347
154	0xbf0512e5	-0.51981956
155	0xbeca1051	-0.39465573
156	0xbec10e3d	-0.37706175
157	0xbeb842f3	-0.35988578
158	0xbf0ad65c	-0.54233336
159	0xbe8aa733	-0.27080688
160	0xbeff1a59	-0.4982479
161	0xbe8c9f05	-0.27465072
162	0xbeedf8e5	-0.46478954
163	0xbeb39fa4	-0.35082734
164	0xbf015a59	-0.50528485
165	0xbede7d46	-0.4345495
166	0xbe970a4b	-0.2950004
167	0xbedcedcf	-0.43150184
168	0xbef5bf22	-0.47997385
169	0xbe8d4470	-0.27591276
170	0xbf036943	-0.5133249
171	0xbec75e16	-0.3893897
172	0xbf0894b3	-0.53351897
173	0xbea306f9	-0.31841257
174	0xbedcffa1	-0.4316378
175	0xbef33f28	-0.47509122
176	0xbf15759b	-0.58382577
177	0xbf03061e	-0.5118121
178	0xbf2400d7	-0.6406378
179	0xbee2a9a7	-0.4427006
180	0xbeb3272b	-0.3499082
181	0xbeb74ec7	-0.3580229
182	0xbeb752fe	-0.35805506
183	0xbf0a234f	-0.53960127
184	0xbf26bd36	-0.6513246
185	0xbf29ea10	-0.66372776
186	0xbf0ed904	-0.5579989
187	0xbef20d21	-0.47275642
188	0xbf1c3132	-0.61012566
189	0xbf13e1c6	-0.5776638
190	0xbf14daa2	-0.5814611
191	0xbf33f17b	-0.70290345
192	0xbf187e10	-0.59567356
193	0xbf1a2a5f	-0.60220903
194	0xbf2c56ff	-0.67320246
195	0xbf05ebb9	-0.5231281
196	0xbf358fdc	-0.70922637
197	0xbf42d0c1	-0.76099783
198	0xbef231ca	-0.4730361
199	0xbefc05da	-0.49223214
200	0xbef3bfee	-0.47607368
201	0xbf18438a	-0.59478056
202	0xbec81b03	-0.39083108
203	0xbf03448f	-0.5127649
204	0xbf4970fb	-0.7868802
205	0xbf25d09b	-0.6477143
206	0xbf44d481	-0.76886755
207	0xbf3d269f	-0.73887056
208	0xbefc6451	-0.49295285
209	0xbf1a9964	-0.60390306
210	0xbf3ebce7	-0.7450699
211	0xbf2b279d	-0.6685732
212	0xbf09f2bc	-0.5388601
213	0xbf4cdedd	-0.8002756
214	0xbf4ec33a	-0.8076664
215	0xbf41033d	-0.75395566
216	0xbf275dee	-0.653777
217	0xbf48c52e	-0.7842587
218	0xbf323f8e	-0.69628227
219	0xbef8a7f6	-0.48565644
220	0xbf0aea82	-0.5426408
221	0xbef46c5e	-0.47738928
222	0xbf3c729c	-0.7361238
223	0xbf3d929b	-0.7405183
224	0xbf4e14b7	-0.8050036
225	0xbf3cdbf0	-0.737731
226	0xbf4949a7	-0.7862801
227	0xbf79935f	-0.97490495
228	0xbf3809cd	-0.71889955
229	0xbf338a26	-0.7013267
230	0xbf3db663	-0.74106425
231	0xbf1a3d1e	-0.6024951
232	0xbf058a2d	-0.52163965
233	0xbf3a42a2	-0.72757924
234	0xbf3dce35	-0.7414277
235	0xbf2429a0	-0.64126015
236	0xbf18227b	-0.59427613
237	0xbf110a00	-0.56655884
238	0xbf13aaab	-0.57682294
239	0xbf0609a7	-0.5235848
240	0xbf0db5c1	-0.5535546
241	0xbf32e1e7	-0.6987595
242	0xbf6ed6e7	-0.93296665
243	0xbf70dc5d	-0.9408625
244	0xbf3cd85d	-0.73767644
245	0xbf143d06	-0.57905614
246	0xbf169a35	-0.5882905
247	0xbf0dd37d	-0.5540083
248	0xbf26ca4d	-0.65152436
249	0xbf273fb0	-0.65331554
250	0xbf2fc8cd	-0.6866577
251	0xbf5f947f	-0.8733596
252	0xbf339c61	-0.7016049
253	0xbf0cb100	-0.5495758
254	0xbf3bbacc	-0.73331904
255	0xbf9373a5	-1.1519667

model/activation/Relu;model/batch_normalization/batchnorm/add_1 f4 [128]
0	0xc1064f2c	-8.394329
1	0xbf591112	-0.8479167
2	0x3f94fe67	1.1640137
3	0xc04da1ca	-3.2129998
4	0x4167b94c	14.4827385
5	0x40786197	3.8809564
6	0xbe83eb6a	-0.25765544
7	0x3d0b84b5	0.034062106
8	0x401d4055	2.4570515
9	0x3f250c37	0.64471763
10	0x3fbfc9f6	1.4983509
11	0xbeeaf639	-0.45890978
12	0x40aaae05	5.3337426
13	0xc0b49b9c	-5.6439953
14	0x3fcdf89d	1.6091496
15	0x40b64de5	5.6970086
16	0xc003e436	-2.060804
17	0x40ca92d7	6.330425
18	0xc106b624	-8.419468
19	0xc0044147	-2.0664842
20	0xbfe9208c	-1.8213058
21	0xc149d062	-12.613375
22	0x3f92103d	1.1411206
23	0xc071efba	-3.7802567
24	0xc0e54f52	-7.1659327
25	0x40181d5d	2.3767922
26	0xbee8df40	-0.45482826
27	0xc002ac68	-2.0417728
28	0xbf91e1ec	-1.1397071
29	0xbf8cef8a	-1.1010602
30	0x3f9dd724	1.2331281
31	0x408a425e	4.3206015
32	0x40c96004	6.2929707
33	0x3fcbe90c	1.5930495
34	0x3f7e7994	0.99404263
35	0xc01c0646	-2.437883
36	0x40025b84	2.0368357
37	0xc02475cd	-2.56969
38	0x40a310e4	5.095812
39	0xbfbd0e8e	-1.4770067
40	0x40450615	3.0784962
41	0x40b59a83	5.6751113
42	0x412352c2	10.207705
43	0xc0a829c6	-5.2550993
44	0x4044852f	3.070629
45	0xbf999fba	-1.200187
46	0xc06d8385	-3.7111523
47	0xc083461b	-4.102308
48	0xc023f5fe	-2.5618892
49	0x3f25f513	0.6482708
50	0xc13f20f6	-11.945547
51	0x3fc68d64	1.5511899
52	0x40aca99f	5.3957057
53	0x3ea167fb	0.31524643
54	0xbf7b58a5	-0.98182136
55	0xbfd7288d	-1.680925
56	0x403f5ce6	2.990045
57	0x40bf618d	5.980658
58	0xc0e1868d	-7.0476747
59	0x3fc71172	1.5552199
60	0x407cdd62	3.9510121
61	0xc0ad65b3	-5.4186645
62	0xc0347589	-2.8196738
63	0x4024c0f3	2.5742767
64	0xc13c84a5	-11.782384
65	0x414ed19a	12.926172
66	0xc0b99c4c	-5.800329
67	0xbf6347db	-0.8878152
68	0xbea0eafc	-0.3142928
69	0xbfff42b2	-1.9942229
70	0x40d87457	6.7642016
71	0x4057fd52	3.3748364
72	0x3f1710d9	0.5901008
73	0xc0cf6f3e	-6.4823294
74	0x3ff77688	1.9333048
75	0xc049a9f0	-3.1509972
76	0x3df4f404	0.11960605
77	0xbffa70f7	-1.9565724
78	0x3ee64cff	0.44980618
79	0x3f28e9df	0.6598186
80	0x3dbbd58f	0.091715924
81	0x3f625379	0.8840862
82	0xc085dc9b	-4.1831794
83	0xbfe63e15	-1.7987696
84	0xbe2cef8e	-0.16888258
85	0xbff626a8	-1.9230547
86	0xc08bbed7	-4.367046
87	0xbf66d79b	-0.9017274
88	0xbf738a8e	-0.9513329
89	0xc0962bd5	-4.6928506
90	0x40354455	2.8322957
91	0x3ff03191	1.8765126
92	0x3f6c03bf	0.92193216
93	0x411e910d	9.910413
94	0x404f45c1	3.2386324
95	0x4097fd4c	4.74967
96	0x40ea3fa6	7.3202696
97	0xc043f3cd	-3.0617554
98	0xc12bf6e9	-10.747781
99	0x3fd1cb71	1.639021
100	0xbf5609ff	-0.83609
101	0x402de8b1	2.7173274
102	0xc0e61088	-7.189518
103	0xbfd9ba4a	-1.7009976
104	0xbffb8e1e	-1.9652746
105	0x4106e90d	8.431897
106	0x40d5f0c7	6.685642
107	0xc05ef3e3	-3.4836357
108	0xc08dd42a	-4.432149
109	0x408a3408	4.3188515
110	0x4020fbe7	2.515375
111	0xbedfbbad	-0.43697873
112	0xc0009054	-2.008809
113	0xbfc05e21	-1.5028726
114	0xc10c5025	-8.769567
115	0xc0a296ee	-5.080924
116	0x3e75154c	0.23933905
117	0xc00c5c59	-2.1931365
118	0xc03ceed8	-2.9520779
119	0xc0ed7cbe	-7.4214773
120	0xc08579aa	-4.1711016
121	0x416d9167	14.847999
122	0x3b614934	0.0034375908
123	0xc096f0f0	-4.7169113
124	0x409ca1cb	4.89475
125	0xbe315c40	-0.17320347
126	0x41179a3a	9.475153
127	0xc00a2590	-2.1585426

model/activation_1/Relu;model/batch_normalization_1/batchnorm/add_1 f4 [128]
0	0x3eab2728	0.3342831
1	0xbf9a9851	-1.2077733
2	0x3e46541c	0.19368023
3	0xbee34199	-0.44385985
4	0xbedbb839	-0.42913988
5	0xbf04e6d3	-0.5191471
6	0xbd0aecd2	-0.033917256
7	0xbef09641	-0.46989635
8	0xbf01b4e3	-0.50666636
9	0xbf3fada7	-0.7487435
10	0xbf26401c	-0.64941573
11	0x3e71fce4	0.23631626
12	0x3f0ba013	0.5454113
13	0x3ed1d987	0.40986273
14	0x3e6ed1ba	0.23322192
15	0xbc973713	-0.018458879
16	0x3f1d8ee6	0.6154617
17	0xbf13ba04	-0.5770571
18	0xbf2c2d10	-0.6725626
19	0xbe62f4ba	-0.22163668
20	0x3ed4cdb1	0.4156318
21	0x3eaf5c42	0.34250075
22	0xbf69165f	-0.9104976
23	0x3d8c7e92	0.06860079
24	0xbe4bf5b3	-0.19917946
25	0x3d27f927	0.041009095
26	0x3ef2021b	0.4726723
27	0xbefad484	-0.48990262
28	0x3f25ee11	0.64816386
29	0x3c230eac	0.0099522285
30	0x3e71620b	0.23572557
31	0xbeb1e0c9	-0.3474181
32	0x3ee9e63a	0.4568346
33	0xbec03a45	-0.37544456
34	0x3f4feb01	0.8121796
35	0x3f122864	0.5709288
36	0x3f0442af	0.5166425
37	0xbf973f89	-1.1816264
38	0xbe7970fc	-0.24359506
39	0x3f6dc9ff	0.92886347
40	0x3e19e51c	0.15028805
41	0xbe3671cb	-0.17816846
42	0x3f36ba4c	0.71378016
43	0x3f1c951d	0.6116503
44	0xbf5cf23a	-0.8630711
45	0xbd108c23	-0.035289895
46	0x3f1aa48d	0.60407335
47	0x3ec9156c	0.39274156
48	0x3ef376c8	0.4755156
49	0xbf36a6d1	-0.7134829
50	0x3de52112	0.11187948
51	0x3f4b9d96	0.7953733
52	0xbf56b003	-0.8386232
53	0x3e62acad	0.22136183
54	0x3e75b98c	0.23996562
55	0xbdccb237	-0.09994929
56	0x3e7985a7	0.2436739
57	0xbe041f0c	-0.12902468
58	0xbe61792a	-0.22018877
59	0xbe801c9d	-0.2502183
60	0x3f70a354	0.9399922
61	0x3f4c8565	0.79891044
62	0x3e047c3f	0.12938021
63	0xbee761a2	-0.45191675
64	0xbee3a8a4	-0.444646
65	0x3f18b2cf	0.5964784
66	0xbe829072	-0.25500828
67	0xbe1f38a2	-0.15548947
68	0xbf167c49	-0.58783394
69	0x3e829500	0.25504303
70	0x3e042e87	0.12908374
71	0xbe3410d4	-0.17584544
72	0x3f7976fc	0.9744718
73	0x3efd39ec	0.49458253
74	0xbdd66c63	-0.10469892
75	0x3e95ec95	0.2928206
76	0xbf9755b2	-1.1823027
77	0x3f10ed84	0.5661242
78	0xbda861d4	-0.08221784
79	0x3eb53f5a	0.35399896
80	0x3d88ea7a	0.06685348
81	0x3dcbbd3e	0.099482045
82	0x3d9514c7	0.072793536
83	0xbe94f8c0	-0.2909603
84	0xbd87e41b	-0.066353045
85	0x3fa9697e	1.3235319
86	0xbed2b77e	-0.41155618
87	0xbea7a794	-0.3274504
88	0xbf980e7c	-1.187942
89	0x3f580234	0.8437836
90	0xbddbf1f0	-0.10739505
91	0xc01848ef	-2.3794515
92	0x3efe042a	0.49612552
93	0x3e3c0164	0.18359905
94	0xbf068f47	-0.52562374
95	0x3f3f0a93	0.7462551
96	0x3fb328ac	1.3996787
97	0xbf314fa7	-0.69262165
98	0xbdb12b4e	-0.08650838
99	0xbea813be	-0.32827562
100	0x3e72b97d	0.2370357
101	0xbe8be4e1	-0.27323058
102	0xbf7c8a0a	-0.9864813
103	0xbf9e6327	-1.2374009
104	0x3ea201aa	0.31641895
105	0xbf03637c	-0.51323676
106	0xc0917391	-4.545357
107	0x3eb72616	0.35771245
108	0xbe9f0af5	-0.31063047
109	0x3f83d9d3	1.030085
110	0x3ec6de32	0.38841397
111	0xbc1bd10e	-0.009510292
112	0x3f1c6bdc	0.6110208
113	0xbe3a3ad7	-0.18186508
114	0x3d8f231f	0.06989121
115	0xbf942551	-1.1573888
116	0x3ea1b3d6	0.31582516
117	0xbf06656a	-0.52498496
118	0xbea08ee4	-0.31359017
119	0xbf9e8119	-1.2383147
120	0xbdea3ea3	-0.11437728
121	0x3e1cff4d	0.15331765
122	0x3f85bbfd	1.0447994
123	0x3d20779c	0.03917657
124	0xbf65fba8	-0.8983712
125	0xbf82bc4c	-1.0213714
126	0x3de167b5	0.11006109
127	0x3e19c33a	0.1501588

model/activation_2/Relu;model/batch_normalization_2/batchnorm/add_1 f4 [128]
0	0x3ecafb70	0.39644957
1	0xbf3dbc6c	-0.74115634
2	0x3e9b5770	0.30340147
3	0xbda25d7e	-0.079279885
4	0xbeae0f54	-0.3399607
5	0xbf007a33	-0.5018646
6	0xbd202164	-0.039094344
7	0x3e92335f	0.28554818
8	0x3f0afd88	0.5429311
9	0xbf385608	-0.72006273
10	0x3e84cf0a	0.25939208
11	0xbeda04b4	-0.42581713
12	0x3df91500	0.121622086
13	0x3e1bd8e1	0.15219451
14	0xbdb39b6d	-0.087698795
15	0xbf3475fb	-0.70492524
16	0xbe2ff1cb	-0.1718208
17	0xbe0c8f8e	-0.13726637
18	0x3e01c280	0.12671852
19	0x3e8693e6	0.26284713
20	0xbeca4d91	-0.39512303
21	0xbed1d058	-0.40979266
22	0x3e47e876	0.1952227
23	0xbeb2f940	-0.34955788
24	0xbf279c80	-0.65473175
25	0xbe99503f	-0.29944035
26	0xbe0876e7	-0.13326608
27	0x3d487e1e	0.0489484
28	0xbf5155d3	-0.8177158
29	0x3f8f631d	1.1202122
30	0xbf0ea67f	-0.557228
31	0x3e7473ff	0.23872374
32	0x3d245894	0.040123537
33	0x3aa6d8e6	0.0012729436
34	0x3dd414b6	0.10355513
35	0x3e387d68	0.18016589
36	0x3e83a79d	0.25713816
37	0xbdddaba2	-0.10823752
38	0x3e750b5a	0.23930112
39	0xbed37bee	-0.41305488
40	0xbe82c17a	-0.25538236
41	0x3ea2fa7b	0.31831726
42	0x3d1801d2	0.03711111
43	0xbebc12fc	-0.36733234
44	0x3de117ef	0.10990893
45	0x3d1e0bbf	0.03858542
46	0x3ebc0426	0.36721915
47	0x3f0dc57f	0.5537948
48	0xbfecb9b8	-1.8494177
49	0x3f43b861	0.76453215
50	0xbeaaf9f4	-0.33393824
51	0x3ecbfd2b	0.3984159
52	0x3f0cc8ec	0.5499408
53	0x3e771a1c	0.24131054
54	0x3ef3ace2	0.47592837
55	0x3eb424cb	0.3518432
56	0x3ed47e21	0.4150248
57	0xc08e3725	-4.4442315
58	0x3ee4da52	0.44697815
59	0xbec3b812	-0.38226372
60	0xbee4e521	-0.4470606
61	0x3f425cf8	0.7592311
62	0x3d074042	0.033020265
63	0xbe01aac5	-0.126628
64	0xbe985ec8	-0.29759812
65	0xbe9fd890	-0.31219912
66	0xbee2e818	-0.44317698
67	0x3e9e886e	0.30963463
68	0x3f09d0d9	0.538343
69	0x3f5a97eb	0.8538806
70	0x3d437490	0.047718585
71	0xbd92be63	-0.0716522
72	0xbf95d17e	-1.1704557
73	0xbf0f8fd8	-0.56078863
74	0x3f2a3a17	0.6649489
75	0xbf273ea3	-0.6532995
76	0xbf921f1e	-1.1415746
77	0x3f3dff7c	0.74217963
78	0xbc92ddc9	-0.017928021
79	0xbd903519	-0.070413776
80	0x3e927cc6	0.2861082
81	0xbddfbd1f	-0.10924744
82	0x3ecd7fb9	0.40136507
83	0xbdab44f1	-0.08362759
84	0x3f5e21ab	0.86770123
85	0x3d88a9e4	0.06673029
86	0x3f621c3a	0.8832432
87	0xbe6585eb	-0.22414367
88	0xbeb01327	-0.34389612
89	0xbf2842c3	-0.6572687
90	0xbedc6dfa	-0.43052655
91	0x3d9d5d28	0.07683784
92	0xbd6455f4	-0.055746034
93	0xbc224049	-0.009903022
94	0xbe5aa16f	-0.21350645
95	0xbe9e94a6	-0.30972785
96	0xbeaa5973	-0.3327137
97	0x3ecd367e	0.40080637
98	0x3e7ffe60	0.2499938
99	0xbe45d9ae	-0.1932132
100	0x3f3fb779	0.7488933
101	0xbe3439aa	-0.17600122
102	0xbd447bc8	-0.04796961
103	0xbf99d006	-1.2016609
104	0x3ea1b240	0.31581306
105	0xbdb6fd6c	-0.08935055
106	0xbed344ea	-0.41263515
107	0x3d8bb09f	0.06820797
108	0x3ea173d0	0.3153367
109	0xbd56be7d	-0.052427758
110	0x3e8ce605	0.2751924
111	0x3e88fe6e	0.26756614
112	0xbdb16374	-0.08661547
113	0x3ef91348	0.48647523
114	0x3ebebb41	0.37252238
115	0x3ca3ea33	0.020009136
116	0x3ee191eb	0.4405664
117	0x3f301c16	0.68792856
118	0x3c852cb3	0.016256666
119	0xbf78c8f1	-0.9718161
120	0xbee0a4fd	-0.43875876
121	0x3efbf0fc	0.49207294
122	0x3ea0e73b	0.31426415
123	0xbee57092	-0.44812447
124	0x3e711e47	0.23546706
125	0xbea0bc26	-0.31393546
126	0x3deac6a6	0.114636704
127	0xbe1e055e	-0.15431735

model/activation_3/Relu;model/batch_normalization_3/batchnorm/add_1 f4 [128]
0	0x3f38b32e	0.72148407
1	0x3f858093	1.0429863
2	0x3e4b028f	0.19825195
3	0xbdfd9e25	-0.12383679
4	0x3e3c2ac2	0.18375686
5	0x3f1a87f1	0.6036368
6	0xbe5156a8	-0.20443213
7	0x3f10d4d5	0.56574756
8	0x3e7221ca	0.23645702
9	0x3e8326ef	0.2561564
10	0xbe8dfd66	-0.2773239
11	0xc049ac00	-3.151123
12	0x3c2eacc5	0.010661309
13	0x3f44062d	0.76571923
14	0xbde4b9a3	-0.1116822
15	0xbe4dd836	-0.20102009
16	0xc00d9562	-2.2122426
17	0x3f71b46e	0.9441594
18	0x3ec2353d	0.37931243
19	0x3efa8c98	0.4893539
20	0x3e5dba71	0.21653153
21	0xbb452159	-0.0030079691
22	0xbf12381c	-0.57116866
23	0x3ea8cf20	0.32970524
24	0x3e678ee9	0.2261311
25	0xbff6f0ea	-1.9292271
26	0x3f6058dc	0.8763559
27	0x3e1b076d	0.15139551
28	0x3ec99533	0.39371642
29	0x3ec14610	0.37748766
30	0x3f1f089a	0.621225
31	0x3e2eea57	0.17081581
32	0xbf528dfd	-0.82247907
33	0x3f254f26	0.64573896
34	0x3dda6ff3	0.10665884
35	0x3edfc33b	0.43703637
36	0x3e6ab2f1	0.22919823
37	0x3e7c9210	0.24665093
38	0xbe8f9fea	-0.28051692
39	0x3d89e440	0.06732988
40	0xbebaeba1	-0.36507896
41	0x3e236caa	0.15959421
42	0x3f672355	0.9028829
43	0x3eddcf87	0.43322393
44	0xc019a3af	-2.4006155
45	0x3da016b2	0.07816829
46	0x3e58da24	0.21176964
47	0xbe8891ea	-0.26673824
48	0x3e45208c	0.19250697
49	0x3ecaa363	0.3957778
50	0x3e195af0	0.14976096
51	0x3f360ee5	0.7111648
52	0x3f13923f	0.5764503
53	0x3ef8f322	0.48622996
54	0x3e9ea103	0.30982217
55	0x3ead9525	0.3390285
56	0x3eebde4c	0.46068037
57	0x3ef96a50	0.48713923
58	0xbdd19a69	-0.102345295
59	0x3e521221	0.20514728
60	0xbe6de851	-0.23233153
61	0x3ebc07d0	0.3672471
62	0x3ef3a8db	0.47589764
63	0x3e80e2ec	0.25173128
64	0x3f1fe2ba	0.6245533
65	0x3e5c8cdd	0.2153811
66	0x3f01438a	0.5049368
67	0xbef3d324	-0.47622025
68	0x3f0edd80	0.5580673
69	0xbe305dd5	-0.17223294
70	0x3e982f87	0.2972376
71	0x3e4a864b	0.19777791
72	0x3f8dcb0b	1.1077589
73	0x3f3d5d58	0.73970556
74	0x3f4cf828	0.80066156
75	0xbe548f2b	-0.20757739
76	0x3f4ab1b7	0.7917742
77	0xbe8445dd	-0.2583455
78	0x3ead31a9	0.3382695
79	0xbe4ed5e3	-0.20198779
80	0x3ecf2422	0.40457255
81	0x3f728cb0	0.9474592
82	0x3f57ad70	0.8424902
83	0xbe2d6ba8	-0.16935599
84	0x3e9fbc10	0.31198168
85	0xbdbc39b7	-0.09190696
86	0x3df804fa	0.12110324
87	0x3efa5a79	0.4889715
88	0x3f03c5fe	0.5147399
89	0xbf53acb5	-0.82685405
90	0xbdcf1b05	-0.101125754
91	0x3eda5b84	0.42647946
92	0x3ed37a50	0.41304255
93	0xbfcc7bee	-1.597532
94	0x3f3026d7	0.68809265
95	0x3ed6eeed	0.4197916
96	0xbdc9f4b6	-0.09861128
97	0xbde02998	-0.109454334
98	0x3e64444b	0.22291677
99	0x3e895c74	0.2682835
100	0x3f31299e	0.6920413
101	0x3eb2cd24	0.34922135
102	0x3e84255a	0.25809747
103	0x3f1a6d09	0.60322624
104	0x3f1fdc7e	0.6244582
105	0x3ea24590	0.31693697
106	0xc02622bb	-2.5958698
107	0xbbfc5012	-0.007699975
108	0xbef7afcb	-0.48376307
109	0x3e7791ad	0.24176665
110	0x3ec6c2e3	0.38820562
111	0x3f5a0eb9	0.85178715
112	0x3f66da58	0.90176916
113	0x3f82e68e	1.022661
114	0x3f2e5892	0.681039
115	0x3edd9d2a	0.4328397
116	0xc0409d2c	-3.009593
117	0x3fa16e3e	1.2611768
118	0xbe10a3fb	-0.14125054
119	0x3ee60d8c	0.4493221
120	0x3f119369	0.56865555
121	0x3f16cf6f	0.5891027
122	0x3d4bb100	0.049729347
123	0x3f993e70	1.197218
124	0x3f37a742	0.7173959
125	0x3e838950	0.256907
126	0xbdbe5bea	-0.09294875
127	0x3f7b67b6	0.98205125

model/activation_4/Relu;model/batch_normalization_4/batchnorm/add_1 f4 [8]
0	0x40302c6f	2.752712
1	0x4038d639	2.888075
2	0x4002c8dc	2.0435095
3	0x3fff9fbd	1.9970623
4	0x3f9cbdf1	1.2245466
5	0x3f81d368	1.0142641
6	0x402d3682	2.706452
7	0x3f99cff5	1.2016588

model/activation_5/Relu;model/batch_normalization_5/batchnorm/add_1 f4 [128]
0	0x402ea9a8	2.729105
1	0x401f6dd7	2.491079
2	0x40811ec7	4.035007
3	0x3ea7e482	0.32791525
4	0xbf4bcb02	-0.7960664
5	0x404ab55e	3.1673198
6	0xbddbbe9c	-0.10729715
7	0x3f9b35d1	1.2125798
8	0xbf44a741	-0.7681771
9	0xc0660fb5	-3.5947087
10	0x3f420a49	0.75796944
11	0x4021049b	2.515906
12	0xc00bb2a4	-2.1827784
13	0x40928d29	4.5797315
14	0xc0ca8cea	-6.3297014
15	0xc12a7955	-10.654622
16	0xbfe08e0c	-1.7543349
17	0xbfe641ee	-1.798887
18	0x40ae2bd0	5.442848
19	0xc08c522d	-4.385031
20	0xbfaf33cc	-1.3687682
21	0xc04787c3	-3.1176612
22	0xc06dcb42	-3.7155309
23	0x402e9d1a	2.7283387
24	0x40622f26	3.5341277
25	0xc006588c	-2.0991545
26	0xc04498da	-3.0718293
27	0xc01619f9	-2.3453352
28	0xbfc22c5b	-1.5169786
29	0x3f9106d8	1.1330214
30	0xbf19caac	-0.6007488
31	0x3e147a9b	0.14499895
32	0x40a1a346	5.051181
33	0x401e62e3	2.4747856
34	0x3f41acf3	0.75654525
35	0x3ffdcecf	1.9828738
36	0xc0053ebb	-2.0819538
37	0xc031d54f	-2.7786443
38	0xc0342b41	-2.81514
39	0xbc7370d0	-0.01485844
40	0xc0d7aa74	-6.7395573
41	0x3fbd69ff	1.4797972
42	0xc034f657	-2.8275354
43	0x40b9d274	5.80694
44	0xc0a282fa	-5.0784883
45	0x3ee3feee	0.44530433
46	0xbffd66c2	-1.9796984
47	0x409873d3	4.7641387
48	0x3fc60e92	1.5473197
49	0xc06a5ab9	-3.6617873
50	0xbc2641a1	-0.010147483
51	0xbfa7b5b5	-1.3102328
52	0xbee6cf7f	-0.45080182
53	0x3f2d020e	0.6758126
54	0xc0a573aa	-5.170369
55	0xbffc450d	-1.9708573
56	0xc0c9fe87	-6.31232
57	0x40287d7c	2.632659
58	0xc0c4cfdf	-6.150375
59	0x3f7dca95	0.9913724
60	0x3faace8b	1.3344282
61	0xc00a9a6b	-2.165675
62	0xbbc7cf1c	-0.0060976874
63	0xbf6ad2f3	-0.9172813
64	0xc031763d	-2.7728417
65	0x3fed7f87	1.8554543
66	0xc02d17d3	-2.704579
67	0x4095c7dc	4.680647
68	0xc0ac40db	-5.382917
69	0x3fcd268e	1.6027391
70	0x3cb415c6	0.021983039
71	0xc0618f6c	-3.5243788
72	0xc0aba872	-5.364312
73	0xc0434b42	-3.0514684
74	0x3fd39f82	1.6533053
75	0xbe6348a4	-0.22195679
76	0xbfd08d3a	-1.6293099
77	0x40787af3	3.8825042
78	0x3f985d14	1.1903405
79	0x3fbc3e92	1.4706595
80	0xc09c71d0	-4.888893
81	0x407e943d	3.9777977
82	0xbfaab3bd	-1.3336102
83	0x40be3385	5.943789
84	0x3fd11b9f	1.6336554
85	0x40a0482e	5.008811
86	0xc0257063	-2.5849845
87	0xbed18689	-0.40922955
88	0x3feeb131	1.8647825
89	0xbfc75fdd	-1.557613
90	0x40c591ec	6.1740627
91	0x403aa4a4	2.9162989
92	0xbf034767	-0.51280826
93	0xbf1b5edc	-0.6069162
94	0xbfc15723	-1.5104717
95	0x40842c4d	4.130408
96	0xc0ffa96c	-7.9894314
97	0x40b197c5	5.5497766
98	0x402d04cb	2.7034175
99	0xc02923df	-2.6428144
100	0x3f03fadd	0.5155466
101	0x3d8d9d03	0.06914713
102	0x3f08bd68	0.5341401
103	0xbd72e189	-0.05929712
104	0xbfe2a176	-1.7705524
105	0xbf8d2798	-1.1027708
106	0xc007aa9a	-2.1197877
107	0xbea46cd1	-0.3211427
108	0x405deb32	3.4674802
109	0x40e1eba5	7.060015
110	0xc0695b1c	-3.6461859
111	0xc0d48463	-6.6411605
112	0xbfc74834	-1.556891
113	0xc00ddafc	-2.2164907
114	0xc0391413	-2.8918502
115	0x40a52232	5.160424
116	0xbea9ca21	-0.33162025
117	0xbff26c54	-1.8939309
118	0xbe369748	-0.17831147
119	0xc0e88061	-7.2656713
120	0x403d1b01	2.9547732
121	0xbde87e37	-0.113521986
122	0x40dcffb6	6.9062147
123	0xc0092e55	-2.143453
124	0xc0d3912c	-6.611471
125	0x4023deb9	2.560469
126	0x403f8280	2.99234
127	0xbf2cb2b4	-0.6746018

model/activation_6/Relu;model/batch_normalization_6/batchnorm/add_1 f4 [128]
0	0x3f32c1eb	0.69827145
1	0x3f5a9b4b	0.8539321
2	0xbf930439	-1.1485664
3	0x3dd2c711	0.10291875
4	0x3f1bb87d	0.6082838
5	0x3f26ecc8	0.6520505
6	0xbf33c9c5	-0.7022975
7	0xbf03f6f0	-0.5154867
8	0x3fa00daf	1.2504176
9	0x3f6d740e	0.9275521
10	0x3f3f3b95	0.7470029
11	0x3f00eef2	0.503646
12	0x3f4eff20	0.8085804
13	0xbe4766a2	-0.19472745
14	0xbe013372	-0.12617281
15	0x3ee1619c	0.44019783
16	0x3f573a68	0.84073496
17	0x3ee61e82	0.4494515
18	0x3f2ff4b2	0.6873275
19	0xbeef29d1	-0.4671159
20	0xbd393bdf	-0.045223113
21	0x3f216ed9	0.63059765
22	0x3ecdbd90	0.40183687
23	0x3f2585b4	0.6465714
24	0xbea34180	-0.3188591
25	0x3f2d0bf5	0.6759637
26	0x3cb20015	0.021728555
27	0x3f1b6ebf	0.6071586
28	0x3f1c5459	0.61066204
29	0x3f8ee266	1.1162841
30	0x3ef6b178	0.48182273
31	0x3f7d162f	0.98861974
32	0x3f456910	0.7711344
33	0xbec9d852	-0.39422852
34	0x3f0cced7	0.5500311
35	0x3eb20805	0.34771743
36	0xbf2fe605	-0.68710357
37	0xbf1d4264	-0.6142943
38	0x3c187dbf	0.009307324
39	0x3d0ac0a8	0.033875138
40	0x3f5dfd2f	0.8671445
41	0xbee6f3ed	-0.45107976
42	0x3ebf410e	0.3735432
43	0x3f3aa92f	0.72914404
44	0x3fb0cec5	1.3813101
45	0xbfaf9e55	-1.3720194
46	0xbdfd33c8	-0.12363392
47	0x3f4e7892	0.80652726
48	0xbfaf8ee5	-1.3715483
49	0xbdefe1aa	-0.11712964
50	0xbe9d7fcf	-0.30761573
51	0xbdc6917f	-0.0969572
52	0x3f140f87	0.5783619
53	0x3eda0121	0.42578986
54	0x3e8a101a	0.2696541
55	0x3afe350e	0.0019394474
56	0x3e95fc86	0.29294223
57	0x3e60222f	0.2188804
58	0x3ef48124	0.47754776
59	0xbeca7f03	-0.39550027
60	0x3c66a901	0.01407838
61	0xbe34d766	-0.17660293
62	0xbea4ca34	-0.3218552
63	0x3ee251b2	0.44202954
64	0x3f6285c8	0.88485384
65	0x3f49bbd8	0.7880225
66	0x3f743300	0.9539032
67	0xbe85b094	-0.2611128
68	0xbe633275	-0.22187217
69	0x3f3f5e8b	0.74753636
70	0xbed013b8	-0.40640044
71	0xbf1a3b99	-0.6024719
72	0xbf766b1a	-0.96257174
73	0xbdd8defd	-0.10589407
74	0xbe84d360	-0.25942516
75	0xbeece25b	-0.46266446
76	0x3de262e3	0.110540174
77	0xbe369f4b	-0.17834203
78	0x3d3b1917	0.045678224
79	0x3d48efce	0.04905682
80	0xbd6243f0	-0.05524057
81	0xbf165c40	-0.5873451
82	0x3ef8cfb6	0.4859597
83	0x3f9f183d	1.2429272
84	0x3f8060e1	1.0029565
85	0x3e852436	0.2600419
86	0x3ece08d0	0.40241098
87	0xbda03ad4	-0.078237206
88	0x3e70c7c9	0.23513712
89	0x3c825ca3	0.015913313
90	0x3ec1799a	0.37788087
91	0xbc41428d	-0.011795652
92	0x3e72c34f	0.23707317
93	0xbf0ba7e6	-0.5455307
94	0x3f0f151b	0.5589158
95	0x3f4059f6	0.7513727
96	0xbf29cdd1	-0.66329676
97	0x3ef46a43	0.4773732
98	0xbf6657e3	-0.89977854
99	0xbf9da53f	-1.2316054
100	0x3f06629d	0.5249422
101	0x3f4b6496	0.79450357
102	0x3ec4fba0	0.38473225
103	0xbeeb7cea	-0.4599374
104	0xbf218af8	-0.63102674
105	0x3f719dd6	0.94381464
106	0x3ec97baf	0.39352176
107	0x3e103c0c	0.14085406
108	0x3f31c277	0.69437355
109	0x3f895e1a	1.0731843
110	0x3d7f784d	0.062370587
111	0x3f6b6e51	0.91965204
112	0x3f63a149	0.88917977
113	0xbec42420	-0.3830881
114	0x3e559073	0.20855884
115	0x3f11ae22	0.5690633
116	0x3f2691e0	0.6506634
117	0x3da87c02	0.082267776
118	0x3f5038cb	0.8133666
119	0x3f01e9ce	0.5074738
120	0xbf8c8a60	-1.0979729
121	0x3eb19061	0.34680465
122	0xbf2a8864	-0.66614366
123	0x3c8010e1	0.015633048
124	0xbf1d3cf9	-0.6142116
125	0x3ed0b03d	0.4075946
126	0x3ef6bc34	0.48190463
127	0x3eacb1dd	0.3372945

model/activation_7/Relu;model/batch_normalization_7/batchnorm/add_1 f4 [128]
0	0xbe5dd9a0	-0.21665049
1	0x3f1c8420	0.61139107
2	0x3f4a1b6e	0.78948104
3	0x3f0433aa	0.51641333
4	0x3eb1e2f9	0.3474348
5	0xbe834cea	-0.25644618
6	0x3f85de42	1.0458453
7	0x3e936977	0.287914
8	0x3f6a5568	0.9153657
9	0xbe701478	-0.23445308
10	0x3e8028c4	0.25031102
11	0x3de53cfe	0.11193274
12	0x3eb648b5	0.35602346
13	0xbeaba28a	-0.33522445
14	0xbc16ff52	-0.009216147
15	0xbe362273	-0.17786579
16	0x3f01fddd	0.5077799
17	0x3fbb3b94	1.4627557
18	0x3ed53676	0.41643113
19	0x3e0308ea	0.12796369
20	0x3f4f3360	0.8093777
21	0x3fbcaa5c	1.473949
22	0xbf06cf15	-0.5265973
23	0x3e8ccb32	0.27498776
24	0xbfa9281d	-1.3215367
25	0x3e984ee4	0.2974769
26	0x3e630036	0.22168049
27	0x3cd33fa2	0.025787178
28	0x3f2cbbf3	0.6747429
29	0x3f0b67bf	0.5445518
30	0x3f87d716	1.0612514
31	0x3f820572	1.0157912
32	0x3f7c5100	0.98561096
33	0x3e984a8b	0.29744372
34	0x3db80fdf	0.08987402
35	0xbf6005c2	-0.87508786
36	0xbf41b2e3	-0.75663584
37	0x3f7a87f1	0.9786368
38	0x3eea0221	0.4570475
39	0xbe06ed81	-0.13176538
40	0xbf412043	-0.7543985
41	0xbea9f94e	-0.33198017
42	0x3deddc93	0.11614337
43	0x3ff6c368	1.9278383
44	0xbfcc8dd9	-1.5980788
45	0x3f0abbe9	0.5419298
46	0x3f69b1b8	0.912868
47	0xbf3dd682	-0.7415544
48	0x3c35a538	0.0110867545
49	0x3fc51eb3	1.5399994
50	0x400fb949	2.245684
51	0x3f43059c	0.76180434
52	0xbf434857	-0.76282257
53	0xbe82b339	-0.2552736
54	0x3e821fbe	0.25414842
55	0x3f3f0f81	0.7463303
56	0x3ecec981	0.4038811
57	0x3f0b8450	0.5449877
58	0xbeb10e38	-0.3458116
59	0x3db14349	0.08655412
60	0xbe524ed1	-0.20537879
61	0x3fd03a2a	1.626775
62	0xbeaf30c1	-0.34216884
63	0x3f28c15f	0.6592006
64	0xbc17e975	-0.009271969
65	0x3d97bd8e	0.074092016
66	0x3f56b553	0.8387043
67	0x3fbea2a3	1.4893383
68	0x3f2eadce	0.68233955
69	0xbd81311b	-0.06308194
70	0xbf3460df	-0.70460314
71	0x3e93e921	0.288888
72	0x3fea794c	1.8318267
73	0xbec7183d	-0.3888568
74	0xbe19fd58	-0.15038049
75	0xbf53e24e	-0.8276719
76	0x3ef81d5d	0.48459902
77	0xbf1f7bad	-0.6229809
78	0x3f250674	0.6446297
79	0x3dd65f6e	0.104674205
80	0x3f8f2801	1.1184083
81	0xbead0a9a	-0.3379715
82	0xbed69f3d	-0.41918364
83	0x3f62884b	0.88489217
84	0xbe85df06	-0.26146716
85	0x3eb49bb0	0.3527503
86	0x3ea89744	0.32927907
87	0x3e6041a3	0.21900038
88	0x3ecd28e6	0.40070266
89	0x3e2b78d9	0.16745318
90	0xbf3b5c01	-0.7318726
91	0x3e17521a	0.14777413
92	0x3dc22291	0.09479249
93	0xbf6b5f7e	-0.91942585
94	0xbf218c5e	-0.6310481
95	0x3e6d744f	0.231889
96	0xbeba8aa6	-0.36433905
97	0xbf5924e4	-0.84821916
98	0x4000412b	2.0039775
99	0x3e3bc5af	0.18337129
100	0xbdafb8e0	-0.08580184
101	0x3d647327	0.05577388
102	0xbee689a8	-0.45026898
103	0xbebcd619	-0.36882094
104	0x3e82d63b	0.2555407
105	0xbd7c7053	-0.06163056
106	0xbf0f6f72	-0.5602943
107	0x3ea9c254	0.33156073
108	0x3f0be826	0.54651105
109	0x3f7c1c4f	0.98480695
110	0x3e7fe4d2	0.24989632
111	0xbe1733c4	-0.14765841
112	0x3e6c1bfe	0.23057553
113	0x3f40d718	0.75328207
114	0x3e984b14	0.2974478
115	0x3fcd658f	1.6046618
116	0xbefe3f93	-0.49657878
117	0x3f32bc4f	0.69818586
118	0x3f1c8ef8	0.61155653
119	0x3dcda935	0.10042039
120	0xbec94c0b	-0.3931583
121	0x3f50f7ad	0.81627923
122	0x3dc32d6a	0.095301464
123	0xbef607e6	-0.480529
124	0xbf7f59b3	-0.99746245
125	0xbea56480	-0.32303238
126	0xbd99f16c	-0.07516751
127	0xbe0de45d	-0.13856645

model/activation_8/Relu;model/batch_normalization_8/batchnorm/add_1 f4 [128]
0	0x3fda0f5b	1.7035936
1	0x4009f8ae	2.1558032
2	0x3f893c05	1.0721442
3	0x401f6d8e	2.4910617
4	0x3f9d115e	1.2270925
5	0x3ef2f310	0.47451067
6	0x3f97dc34	1.1864076
7	0x3e8cdf38	0.27514052
8	0x3fa8ff90	1.3202991
9	0x4023b04b	2.557635
10	0x3f953bd7	1.1658887
11	0x3f874951	1.0569249
12	0x3f19db97	0.6010069
13	0x400135fd	2.0189202
14	0x3fa2374e	1.2673128
15	0x3f4eda3b	0.80801743
16	0x40297c38	2.6482067
17	0x3f0080c4	0.5019648
18	0x3ff3f27e	1.9058378
19	0x3f881d85	1.0634009
20	0x3e2b6a5a	0.16739789
21	0x3ed1eb81	0.40999988
22	0x3f8e4878	1.1115866
23	0x3f6dc7b8	0.9288287
24	0x3f4fb5dd	0.81136876
25	0x3fae1d2e	1.3602655
26	0x3fa07280	1.2534943
27	0x3fdc1195	1.7192866
28	0x3f56d0e3	0.83912486
29	0x3fb11be6	1.3836639
30	0x3fc9a447	1.5753258
31	0x3febc14b	1.8418363
32	0x3ffbf8b9	1.9685279
33	0x3fdd60da	1.7295182
34	0x4010c4af	2.2620046
35	0x3f9b5f52	1.2138464
36	0x3fa25481	1.2682039
37	0x40283f98	2.6288815
38	0x3fea7d1a	1.8319428
39	0x3fc4820a	1.5352185
40	0x3ff80124	1.9375348
41	0x3f901056	1.1254985
42	0x3f77c877	0.9679026
43	0x3fbd193e	1.4773328
44	0x3f44a4db	0.7681405
45	0x3f57f097	0.84351486
46	0x3e074e55	0.13213475
47	0xbd30c99f	-0.04316103
48	0x4041d983	3.0289009
49	0x400c0116	2.1875663
50	0x4036a4a4	2.8537989
51	0x3f09e29c	0.53861403
52	0x40373413	2.8625534
53	0xbe8d7760	-0.27630138
54	0x3f60f391	0.8787165
55	0x3fc29f2e	1.5204828
56	0x400238aa	2.0347085
57	0x3ee6dd6a	0.450908
58	0x3fc77f9c	1.5585818
59	0x3e499688	0.1968633
60	0x3f959ce3	1.1688503
61	0x3f13e30a	0.5776831
62	0x40086119	2.1309264
63	0x3f6d82aa	0.927775
64	0x3fdd82e1	1.7305566
65	0x3e95de5e	0.29271215
66	0x3fcc9e68	1.5985842
67	0x3fa7c09c	1.3105655
68	0x3fb1e542	1.3898089
69	0x402c0efe	2.688415
70	0x3fab0a43	1.3362507
71	0x401790c9	2.368212
72	0x400cf50e	2.202457
73	0x3e7efbe3	0.24900775
74	0x3faa8372	1.3321364
75	0x3f567b18	0.83781576
76	0x401dfdc3	2.4686134
77	0x3fb2accb	1.3958982
78	0x3edf7aef	0.43648478
79	0x3e52c76d	0.20583887
80	0x3f8deeb0	1.1088467
81	0x3ff6eeb5	1.9291598
82	0x3f75c807	0.9600834
83	0xbdaa4a4e	-0.08314954
84	0x3f64eb14	0.894212
85	0x3e48f0cd	0.19623108
86	0x4030019d	2.7500985
87	0xbcd381e3	-0.02581877
88	0x3f3a3948	0.72743654
89	0x3fc123f6	1.50891
90	0x3f42ff88	0.7617116
91	0x3fa7fd00	1.3124084
92	0x3feae7ec	1.8352027
93	0xbcf9bf97	-0.030486865
94	0x3e7d82cf	0.24756931
95	0x3f520d67	0.820517
96	0x3f42ad80	0.7604599
97	0x3f2d45c4	0.6768458
98	0x3fd976ca	1.6989377
99	0x3f94fe9a	1.1640198
100	0x3f8c57e0	1.0964317
101	0x3f12b24e	0.5730332
102	0x3ef38112	0.4755941
103	0x3f5108ad	0.81653863
104	0x3fd4ba50	1.6619358
105	0x401bfed2	2.437428
106	0x3fba056f	1.4532908
107	0x3fb88ea5	1.4418532
108	0x3f1e214b	0.6176955
109	0x3f8abdba	1.083915
110	0x403022e6	2.75213
111	0x3f02fb0e	0.5116433
112	0x3ebd7218	0.3700111
113	0x3f3c30b3	0.7351181
114	0x3f318015	0.6933606
115	0x3ff62b8f	1.9232043
116	0x3f0c737c	0.54863715
117	0x401379a7	2.3043
118	0x4042e491	3.0452006
119	0x3fa8f857	1.3200787
120	0x3eaec6ea	0.34136134
121	0x3f82570e	1.0182817
122	0x3efae78f	0.4900479
123	0x3efbd708	0.49187493
124	0x3fb1184a	1.3835537
125	0x3f5279bc	0.82217
126	0x3fda1b78	1.7039633
127	0x3faab638	1.3336859

model/batch_normalization/batchnorm/mul_1 i1 [128, 640] scale=0.00021388635 zero_point=0
0	0xfa	-0.001283318
1	0xfc	-0.0008555454
2	0xfd	-0.000641659
3	0x03	0.000641659
4	0x05	0.0010694318
5	0x03	0.000641659
6	0xfd	-0.000641659
7	0x00	0.0
8	0x03	0.000641659
9	0xfc	-0.0008555454
10	0xfd	-0.000641659
11	0xf7	-0.0019249772
12	0xfc	-0.0008555454
13	0xf7	-0.0019249772
14	0xf6	-0.0021388636
15	0xfe	-0.0004277727
16	0x00	0.0
17	0xff	-0.00021388635
18	0xfe	-0.0004277727
19	0xf9	-0.0014972044
20	0xf8	-0.0017110908
21	0xfa	-0.001283318
22	0xf2	-0.0029944088
23	0xf0	-0.0034221816
24	0xfb	-0.0010694318
25	0x07	0.0014972044
26	0x04	0.0008555454
27	0xf8	-0.0017110908
28	0xf8	-0.0017110908
29	0xf9	-0.0014972044
30	0xff	-0.00021388635
31	0xff	-0.00021388635
32	0xf3	-0.0027805225
33	0xfc	-0.0008555454
34	0xfa	-0.001283318
35	0xf1	-0.0032082952
36	0xf7	-0.0019249772
37	0xfa	-0.001283318
38	0xfa	-0.001283318
39	0xfa	-0.001283318
40	0xf9	-0.0014972044
41	0xfd	-0.000641659
42	0xfe	-0.0004277727
43	0x03	0.000641659
44	0xfe	-0.0004277727
45	0xfe	-0.0004277727
46	0xf9	-0.0014972044
47	0xfd	-0.000641659
48	0x01	0.00021388635
49	0x01	0.00021388635
50	0xff	-0.00021388635
51	0xfa	-0.001283318
52	0xf9	-0.0014972044
53	0xfe	-0.0004277727
54	0xf5	-0.00235275
55	0xfa	-0.001283318
56	0xfc	-0.0008555454
57	0x00	0.0
58	0xf9	-0.0014972044
59	0xf8	-0.0017110908
60	0xfc	-0.0008555454
61	0xfd	-0.000641659
62	0xfc	-0.0008555454
63	0xfe	-0.0004277727
64	0xfe	-0.0004277727
65	0xfe	-0.0004277727
66	0x01	0.00021388635
67	0xff	-0.00021388635
68	0xfa	-0.001283318
69	0xf9	-0.0014972044
70	0xfe	-0.0004277727
71	0xf5	-0.00235275
72	0xfd	-0.000641659
73	0xfe	-0.0004277727
74	0xfc	-0.0008555454
75	0x00	0.0
76	0xfe	-0.0004277727
77	0xfc	-0.0008555454
78	0xf8	-0.0017110908
79	0xfc	-0.0008555454
80	0xf6	-0.0021388636
81	0xf8	-0.0017110908
82	0xfb	-0.0010694318
83	0xfd	-0.000641659
84	0xff	-0.00021388635
85	0xff	-0.00021388635
86	0x00	0.0
87	0x00	0.0
88	0x01	0.00021388635
89	0xfc	-0.0008555454
90	0xfd	-0.000641659
91	0xfa	-0.001283318
92	0x02	0.0004277727
93	0xff	-0.00021388635
94	0xfd	-0.000641659
95	0x00	0.0
96	0x00	0.0
97	0x03	0.000641659
98	0x00	0.0
99	0x02	0.0004277727
100	0xff	-0.00021388635
101	0xff	-0.00021388635
102	0xff	-0.00021388635
103	0xfa	-0.001283318
104	0xfe	-0.0004277727
105	0xfb	-0.0010694318
106	0xf9	-0.0014972044
107	0xfc	-0.0008555454
108	0xfb	-0.0010694318
109	0xff	-0.00021388635
110	0x01	0.00021388635
111	0x01	0.00021388635
112	0xfd	-0.000641659
113	0xff	-0.00021388635
114	0x00	0.0
115	0xff	-0.00021388635
116	0x04	0.0008555454
117	0xff	-0.00021388635
118	0xfe	-0.0004277727
119	0x00	0.0
120	0x01	0.00021388635
121	0x03	0.000641659
122	0x06	0.001283318
123	0x03	0.000641659
124	0x05	0.0010694318
125	0x03	0.000641659
126	0x04	0.0008555454
127	0x03	0.000641659
128	0xfb	-0.0010694318
129	0xfb	-0.0010694318
130	0xfd	-0.000641659
131	0x03	0.000641659
132	0x05	0.0010694318
133	0x04	0.0008555454
134	0xfe	-0.0004277727
135	0xfe	-0.0004277727
136	0x03	0.000641659
137	0xfc	-0.0008555454
138	0xfc	-0.0008555454
139	0xf8	-0.0017110908
140	0xfd	-0.000641659
141	0xf6	-0.0021388636
142	0xf6	-0.0021388636
143	0xff	-0.00021388635
144	0xfd	-0.000641659
145	0xfe	-0.0004277727
146	0x00	0.0
147	0xf9	-0.0014972044
148	0xf6	-0.0021388636
149	0xfb	-0.0010694318
150	0xf2	-0.0029944088
151	0xf3	-0.0027805225
152	0xfa	-0.001283318
153	0x09	0.0019249772
154	0x03	0.000641659
155	0xf9	-0.0014972044
156	0xf9	-0.0014972044
157	0xfa	-0.001283318
158	0x00	0.0
159	0xff	-0.00021388635
160	0xf5	-0.00235275
161	0xfd	-0.000641659
162	0xf9	-0.0014972044
163	0xf0	-0.0034221816
164	0xf8	-0.0017110908
165	0xf9	-0.0014972044
166	0xfa	-0.001283318
167	0xfb	-0.0010694318
168	0xfa	-0.001283318
169	0xfd	-0.000641659
170	0xff	-0.00021388635
171	0x02	0.0004277727
172	0xfc	-0.0008555454
173	0xfd	-0.000641659
174	0xf8	-0.0017110908
175	0xfd	-0.000641659
176	0x01	0.00021388635
177	0xff	-0.00021388635
178	0xfd	-0.000641659
179	0xfa	-0.001283318
180	0xf9	-0.0014972044
181	0xfd	-0.000641659
182	0xf7	-0.0019249772
183	0xf8	-0.0017110908
184	0xfe	-0.0004277727
185	0xff	-0.00021388635
186	0xfa	-0.001283318
187	0xf8	-0.0017110908
188	0xfc	-0.0008555454
189	0xfe	-0.0004277727
190	0xfd	-0.000641659
191	0xfc	-0.0008555454
192	0x02	0.0004277727
193	0xfe	-0.0004277727
194	0xff	-0.00021388635
195	0x00	0.0
196	0xfa	-0.001283318
197	0xfa	-0.001283318
198	0x00	0.0
199	0xf6	-0.0021388636
200	0xfe	-0.0004277727
201	0xfd	-0.000641659
202	0xfc	-0.0008555454
203	0x02	0.0004277727
204	0xff	-0.00021388635
205	0xfc	-0.0008555454
206	0xf6	-0.0021388636
207	0xfa	-0.001283318
208	0xf6	-0.0021388636
209	0xf8	-0.0017110908
210	0xfc	-0.0008555454
211	0xfd	-0.000641659
212	0xfe	-0.0004277727
213	0xfd	-0.000641659
214	0xfe	-0.0004277727
215	0x00	0.0
216	0x01	0.00021388635
217	0xfd	-0.000641659
218	0xfd	-0.000641659
219	0xfd	-0.000641659
220	0x01	0.00021388635
221	0x00	0.0
222	0xff	-0.00021388635
223	0xfe	-0.0004277727
224	0x00	0.0
225	0x00	0.0
226	0x00	0.0
227	0x05	0.0010694318
228	0xfd	-0.000641659
229	0x02	0.0004277727
230	0xff	-0.00021388635
231	0xf8	-0.0017110908
232	0xfe	-0.0004277727
233	0xfa	-0.001283318
234	0xf9	-0.0014972044
235	0xfc	-0.0008555454
236	0xfc	-0.0008555454
237	0xfd	-0.000641659
238	0x00	0.0
239	0x01	0.00021388635
240	0xfe	-0.0004277727
241	0xff	-0.00021388635
242	0x01	0.00021388635
243	0xfe	-0.0004277727
244	0x04	0.0008555454
245	0x00	0.0
246	0xff	-0.00021388635
247	0xff	-0.00021388635
248	0x03	0.000641659
249	0x03	0.000641659
250	0x06	0.001283318
251	0x05	0.0010694318
252	0x05	0.0010694318
253	0x02	0.0004277727
254	0x03	0.000641659
255	0x03	0.000641659

model/batch_normalization_1/batchnorm/mul_1 i1 [128, 128] scale=0.007793509 zero_point=0
0	0x08	0.06234807
1	0xf7	-0.07014158
2	0xf1	-0.116902635
3	0x03	0.023380527
4	0x07	0.054554563
5	0x04	0.031174036
6	0x09	0.07014158
7	0xfc	-0.031174036
8	0xfe	-0.015587018
9	0x00	0.0
10	0x02	0.015587018
11	0xf6	-0.07793509
12	0xfb	-0.038967546
13	0xff	-0.007793509
14	0x00	0.0
15	0x09	0.07014158
16	0x08	0.06234807
17	0x08	0.06234807
18	0xf0	-0.12469614
19	0x09	0.07014158
20	0xf3	-0.10131562
21	0x06	0.046761055
22	0xf7	-0.07014158
23	0x06	0.046761055
24	0xfc	-0.031174036
25	0xf9	-0.054554563
26	0x00	0.0
27	0x04	0.031174036
28	0x02	0.015587018
29	0x10	0.12469614
30	0xf0	-0.12469614
31	0xff	-0.007793509
32	0x01	0.007793509
33	0xf5	-0.0857286
34	0x00	0.0
35	0x06	0.046761055
36	0xe4	-0.21821825
37	0x02	0.015587018
38	0x09	0.07014158
39	0xfd	-0.023380527
40	0x0c	0.09352211
41	0x07	0.054554563
42	0xf7	-0.07014158
43	0xfe	-0.015587018
44	0xf4	-0.09352211
45	0x16	0.1714572
46	0x05	0.038967546
47	0xf4	-0.09352211
48	0xf0	-0.12469614
49	0xf9	-0.054554563
50	0x03	0.023380527
51	0xf5	-0.0857286
52	0x01	0.007793509
53	0xf3	-0.10131562
54	0x03	0.023380527
55	0xe7	-0.19483772
56	0xfd	-0.023380527
57	0xfa	-0.046761055
58	0xda	-0.29615334
59	0xfb	-0.038967546
60	0x01	0.007793509
61	0xf8	-0.06234807
62	0x08	0.06234807
63	0xfe	-0.015587018
64	0xf6	-0.07793509
65	0x06	0.046761055
66	0x0e	0.109109126
67	0x05	0.038967546
68	0xf9	-0.054554563
69	0xfc	-0.031174036
70	0x00	0.0
71	0x00	0.0
72	0xff	-0.007793509
73	0xfe	-0.015587018
74	0xf7	-0.07014158
75	0xe9	-0.1792507
76	0xf7	-0.07014158
77	0x0c	0.09352211
78	0xf9	-0.054554563
79	0x01	0.007793509
80	0xff	-0.007793509
81	0x0b	0.0857286
82	0xee	-0.14028317
83	0xf7	-0.07014158
84	0x17	0.1792507
85	0x03	0.023380527
86	0xeb	-0.16366369
87	0xf6	-0.07793509
88	0x01	0.007793509
89	0x03	0.023380527
90	0x04	0.031174036
91	0x10	0.12469614
92	0x0a	0.07793509
93	0xff	-0.007793509
94	0x0c	0.09352211
95	0x02	0.015587018
96	0x0e	0.109109126
97	0x03	0.023380527
98	0x08	0.06234807
99	0xfa	-0.046761055
100	0xf4	-0.09352211
101	0xfc	-0.031174036
102	0xfe	-0.015587018
103	0xeb	-0.16366369
104	0xfb	-0.038967546
105	0x02	0.015587018
106	0x09	0.07014158
107	0xf3	-0.10131562
108	0xea	-0.1714572
109	0x01	0.007793509
110	0x17	0.1792507
111	0x16	0.1714572
112	0x0e	0.109109126
113	0xf9	-0.054554563
114	0xf8	-0.06234807
115	0x06	0.046761055
116	0x02	0.015587018
117	0xff	-0.007793509
118	0xfa	-0.046761055
119	0x0e	0.109109126
120	0xf4	-0.09352211
121	0xf9	-0.054554563
122	0x11	0.13248965
123	0xff	-0.007793509
124	0x14	0.15587018
125	0x02	0.015587018
126	0x0b	0.0857286
127	0xfb	-0.038967546
128	0xf3	-0.10131562
129	0x18	0.18704422
130	0x04	0.031174036
131	0xf4	-0.09352211
132	0xff	-0.007793509
133	0xf7	-0.07014158
134	0xf8	-0.06234807
135	0x10	0.12469614
136	0x22	0.2649793
137	0xfe	-0.015587018
138	0x25	0.28835982
139	0xef	-0.13248965
140	0xf0	-0.12469614
141	0x16	0.1714572
142	0xf5	-0.0857286
143	0x06	0.046761055
144	0xf4	-0.09352211
145	0x2a	0.32732737
146	0x0a	0.07793509
147	0x2c	0.3429144
148	0x19	0.19483772
149	0xf3	-0.10131562
150	0xed	-0.14807667
151	0xeb	-0.16366369
152	0x18	0.18704422
153	0xd0	-0.37408844
154	0x12	0.14028317
155	0xf4	-0.09352211
156	0xa3	-0.72479635
157	0xfd	-0.023380527
158	0x0c	0.09352211
159	0xf7	-0.07014158
160	0xfb	-0.038967546
161	0x16	0.1714572
162	0xdb	-0.28835982
163	0xe4	-0.21821825
164	0xeb	-0.16366369
165	0xe9	-0.1792507
166	0xec	-0.15587018
167	0x14	0.15587018
168	0xfc	-0.031174036
169	0xd1	-0.36629492
170	0x0c	0.09352211
171	0x15	0.16366369
172	0xed	-0.14807667
173	0x24	0.28056633
174	0x07	0.054554563
175	0x07	0.054554563
176	0x04	0.031174036
177	0xe8	-0.18704422
178	0xf8	-0.06234807
179	0xf2	-0.109109126
180	0xf8	-0.06234807
181	0x0d	0.10131562
182	0x1d	0.22601175
183	0xfb	-0.038967546
184	0x0d	0.10131562
185	0x00	0.0
186	0xfc	-0.031174036
187	0xe9	-0.1792507
188	0xf8	-0.06234807
189	0x1a	0.20263124
190	0xf3	-0.10131562
191	0x1f	0.24159877
192	0xdb	-0.28835982
193	0xfe	-0.015587018
194	0x18	0.18704422
195	0xfb	-0.038967546
196	0x01	0.007793509
197	0xeb	-0.16366369
198	0xf8	-0.06234807
199	0x05	0.038967546
200	0xff	-0.007793509
201	0x12	0.14028317
202	0x2e	0.3585014
203	0xea	-0.1714572
204	0xc1	-0.49099106
205	0x06	0.046761055
206	0xd6	-0.32732737
207	0xf8	-0.06234807
208	0xd8	-0.31174037
209	0xe9	-0.1792507
210	0x24	0.28056633
211	0xf9	-0.054554563
212	0x11	0.13248965
213	0xf9	-0.054554563
214	0x13	0.14807667
215	0x02	0.015587018
216	0x1f	0.24159877
217	0xe1	-0.24159877
218	0x17	0.1792507
219	0x00	0.0
220	0x13	0.14807667
221	0x02	0.015587018
222	0x12	0.14028317
223	0x09	0.07014158
224	0xf7	-0.07014158
225	0x1c	0.21821825
226	0x02	0.015587018
227	0xe4	-0.21821825
228	0xf6	-0.07793509
229	0x24	0.28056633
230	0xfa	-0.046761055
231	0x27	0.30394685
232	0x17	0.1792507
233	0xe1	-0.24159877
234	0x16	0.1714572
235	0x05	0.038967546
236	0xdf	-0.2571858
237	0x23	0.27277282
238	0x0f	0.116902635
239	0xff	-0.007793509
240	0xfd	-0.023380527
241	0x26	0.29615334
242	0x5f	0.7403833
243	0xb0	-0.62348074
244	0x15	0.16366369
245	0x15	0.16366369
246	0xec	-0.15587018
247	0x09	0.07014158
248	0x92	-0.857286
249	0x22	0.2649793
250	0xd7	-0.31953385
251	0x06	0.046761055
252	0xfe	-0.015587018
253	0x05	0.038967546
254	0xf5	-0.0857286
255	0xf5	-0.0857286

model/batch_normalization_2/batchnorm/mul_1 i1 [128, 128] scale=0.01620592 zero_point=0
0	0xf9	-0.11344144
1	0x1d	0.4699717
2	0x01	0.01620592
3	0x00	0.0
4	0xf9	-0.11344144
5	0xff	-0.01620592
6	0xfd	-0.048617758
7	0x03	0.048617758
8	0x01	0.01620592
9	0xfc	-0.06482368
10	0x05	0.0810296
11	0xf3	-0.21067695
12	0xfd	-0.048617758
13	0x00	0.0
14	0xf5	-0.17826512
15	0xeb	-0.3403243
16	0x05	0.0810296
17	0xed	-0.30791247
18	0x06	0.097235516
19	0xf6	-0.1620592
20	0x07	0.11344144
21	0xff	-0.01620592
22	0xfb	-0.0810296
23	0xfb	-0.0810296
24	0xec	-0.3241184
25	0x01	0.01620592
26	0x1b	0.43755984
27	0xfc	-0.06482368
28	0xfb	-0.0810296
29	0xff	-0.01620592
30	0xef	-0.27550063
31	0x07	0.11344144
32	0x0e	0.22688287
33	0xec	-0.3241184
34	0xff	-0.01620592
35	0xf8	-0.12964736
36	0x07	0.11344144
37	0xf0	-0.25929472
38	0x05	0.0810296
39	0x09	0.14585328
40	0xfd	-0.048617758
41	0xf6	-0.1620592
42	0x01	0.01620592
43	0xff	-0.01620592
44	0xf6	-0.1620592
45	0x03	0.048617758
46	0x0d	0.21067695
47	0xf6	-0.1620592
48	0xfb	-0.0810296
49	0x03	0.048617758
50	0xfa	-0.097235516
51	0xf8	-0.12964736
52	0xf4	-0.19447103
53	0xfd	-0.048617758
54	0xff	-0.01620592
55	0xfd	-0.048617758
56	0x12	0.29170656
57	0x04	0.06482368
58	0x06	0.097235516
59	0xf4	-0.19447103
60	0x09	0.14585328
61	0xfb	-0.0810296
62	0x03	0.048617758
63	0x09	0.14585328
64	0x0f	0.2430888
65	0x12	0.29170656
66	0x1c	0.45376575
67	0xf9	-0.11344144
68	0x06	0.097235516
69	0xfd	-0.048617758
70	0x11	0.27550063
71	0x10	0.25929472
72	0x07	0.11344144
73	0xf4	-0.19447103
74	0xf7	-0.14585328
75	0xfe	-0.03241184
76	0xf9	-0.11344144
77	0x00	0.0
78	0xf3	-0.21067695
79	0x07	0.11344144
80	0xfe	-0.03241184
81	0xf9	-0.11344144
82	0x08	0.12964736
83	0xff	-0.01620592
84	0x04	0.06482368
85	0xfb	-0.0810296
86	0x07	0.11344144
87	0xfa	-0.097235516
88	0xf8	-0.12964736
89	0xfe	-0.03241184
90	0xff	-0.01620592
91	0xfe	-0.03241184
92	0x01	0.01620592
93	0x00	0.0
94	0x09	0.14585328
95	0xf9	-0.11344144
96	0xfa	-0.097235516
97	0x05	0.0810296
98	0xff	-0.01620592
99	0xfd	-0.048617758
100	0xfa	-0.097235516
101	0x09	0.14585328
102	0xe7	-0.405148
103	0xd9	-0.6320309
104	0x0f	0.2430888
105	0x00	0.0
106	0xfe	-0.03241184
107	0x02	0.03241184
108	0xfe	-0.03241184
109	0xf2	-0.22688287
110	0xf7	-0.14585328
111	0xff	-0.01620592
112	0xf5	-0.17826512
113	0x03	0.048617758
114	0x02	0.03241184
115	0x09	0.14585328
116	0xf5	-0.17826512
117	0xfe	-0.03241184
118	0xfe	-0.03241184
119	0x07	0.11344144
120	0xf9	-0.11344144
121	0xff	-0.01620592
122	0x0d	0.21067695
123	0xfb	-0.0810296
124	0xfe	-0.03241184
125	0xfc	-0.06482368
126	0x01	0.01620592
127	0x08	0.12964736
128	0x01	0.01620592
129	0xee	-0.29170656
130	0xfa	-0.097235516
131	0xfd	-0.048617758
132	0x03	0.048617758
133	0x08	0.12964736
134	0x0b	0.17826512
135	0xfb	-0.0810296
136	0xf7	-0.14585328
137	0x05	0.0810296
138	0x0a	0.1620592
139	0x01	0.01620592
140	0x09	0.14585328
141	0xff	-0.01620592
142	0x03	0.048617758
143	0xfa	-0.097235516
144	0xfc	-0.06482368
145	0xf5	-0.17826512
146	0x07	0.11344144
147	0xff	-0.01620592
148	0xfc	-0.06482368
149	0xf3	-0.21067695
150	0x02	0.03241184
151	0xf0	-0.25929472
152	0x15	0.3403243
153	0x02	0.03241184
154	0xff	-0.01620592
155	0xff	-0.01620592
156	0xfd	-0.048617758
157	0x0a	0.1620592
158	0x04	0.06482368
159	0xf0	-0.25929472
160	0x0c	0.19447103
161	0x01	0.01620592
162	0xd1	-0.7616782
163	0xdc	-0.5834131
164	0xff	-0.01620592
165	0x04	0.06482368
166	0xff	-0.01620592
167	0x0b	0.17826512
168	0x0c	0.19447103
169	0xf6	-0.1620592
170	0x01	0.01620592
171	0x05	0.0810296
172	0xf0	-0.25929472
173	0xfc	-0.06482368
174	0xfd	-0.048617758
175	0xfc	-0.06482368
176	0x18	0.38894206
177	0x02	0.03241184
178	0xfb	-0.0810296
179	0xf2	-0.22688287
180	0xf2	-0.22688287
181	0x01	0.01620592
182	0x01	0.01620592
183	0xfa	-0.097235516
184	0x07	0.11344144
185	0xf6	-0.1620592
186	0xeb	-0.3403243
187	0x06	0.097235516
188	0xfe	-0.03241184
189	0xfa	-0.097235516
190	0x0d	0.21067695
191	0x01	0.01620592
192	0x02	0.03241184
193	0xf6	-0.1620592
194	0xf5	-0.17826512
195	0x04	0.06482368
196	0xf9	-0.11344144
197	0xf5	-0.17826512
198	0xfc	-0.06482368
199	0x04	0.06482368
200	0xfe	-0.03241184
201	0x03	0.048617758
202	0x04	0.06482368
203	0xfd	-0.048617758
204	0x0f	0.2430888
205	0x07	0.11344144
206	0xf1	-0.2430888
207	0x03	0.048617758
208	0x11	0.27550063
209	0xff	-0.01620592
210	0x0c	0.19447103
211	0xea	-0.35653025
212	0xfe	-0.03241184
213	0x02	0.03241184
214	0x06	0.097235516
215	0x07	0.11344144
216	0x05	0.0810296
217	0x15	0.3403243
218	0x0b	0.17826512
219	0xfe	-0.03241184
220	0x04	0.06482368
221	0x0a	0.1620592
222	0x0d	0.21067695
223	0xe7	-0.405148
224	0x1b	0.43755984
225	0x01	0.01620592
226	0x00	0.0
227	0x04	0.06482368
228	0xef	-0.27550063
229	0xfb	-0.0810296
230	0x03	0.048617758
231	0xfc	-0.06482368
232	0x0b	0.17826512
233	0x01	0.01620592
234	0x0c	0.19447103
235	0x01	0.01620592
236	0xf7	-0.14585328
237	0xff	-0.01620592
238	0x07	0.11344144
239	0x05	0.0810296
240	0x08	0.12964736
241	0x0c	0.19447103
242	0xfb	-0.0810296
243	0x03	0.048617758
244	0xff	-0.01620592
245	0x0a	0.1620592
246	0xf1	-0.2430888
247	0xf0	-0.25929472
248	0xf3	-0.21067695
249	0x04	0.06482368
250	0x0e	0.22688287
251	0x0c	0.19447103
252	0x0e	0.22688287
253	0x0e	0.22688287
254	0xee	-0.29170656
255	0xfb	-0.0810296
