compression/autoencoder/dynamic_range_quantization/models_compressed/model_gearbox.tflite (tflite, 277016 bytes, 20 tensors)

model/dense_9/BiasAdd/ReadVariableOp f4 [640]
0	0xbf48e1e6	-0.78469694
1	0xbd7e0bf4	-0.06202312
2	0xbed6d1b3	-0.41956863
3	0xbdb3796d	-0.087633945
4	0xbefda0f6	-0.49536866
5	0xbe7361ae	-0.2376773
6	0xbec1d01c	-0.37854087
7	0xbe917ab6	-0.28413934
8	0xbeedb6ac	-0.4642843
9	0xbeb5fb6e	-0.35543388
10	0xbf2ebff2	-0.68261635
11	0xbdc0f6e4	-0.09422091
12	0xbea5ce7d	-0.323841
13	0xbee05a60	-0.4381895
14	0xbf1decb9	-0.61689335
15	0xbf19afb5	-0.6003373
16	0xbf09f1a0	-0.53884315
17	0xbe137a86	-0.14402208
18	0xbefc83d1	-0.49319318
19	0xbe7bee75	-0.24602683
20	0xbe9e604e	-0.3093285
21	0xbefdfa74	-0.49605143
22	0xbf0fd75c	-0.5618799
23	0xbebb684a	-0.36603004
24	0xbf25dab8	-0.64786863
25	0xbeb080da	-0.34473306
26	0xbf465710	-0.77476597
27	0xbef30daf	-0.47471377
28	0xbf2399ec	-0.6390674
29	0xbf0622bb	-0.52396744
30	0xbf30827c	-0.68949103
31	0xbecd3b2d	-0.4008421
32	0xbf26dee2	-0.6518384
33	0xbeede7bc	-0.46465862
34	0xbf0ad0a2	-0.542246
35	0xbea77f79	-0.3271444
36	0xbf013963	-0.5047819
37	0xbeb5805b	-0.3544949
38	0xbf23b907	-0.63954204
39	0xbf0d5505	-0.55207855
40	0xbf0ebfd8	-0.5576148
41	0xbeeb11d9	-0.45912054
42	0xbf39db25	-0.72600013
43	0xbeff5ad5	-0.49873987
44	0xbf178dcc	-0.5920074
45	0xbf2cb3ac	-0.6746166
46	0xbf1a64ce	-0.60310066
47	0xbf2aa555	-0.66658527
48	0xbf1f7a22	-0.62295735
49	0xbed56891	-0.4168134
50	0xbf319500	-0.6936798
51	0xbf3b6a99	-0.7320953
52	0xbf1944a5	-0.5987037
53	0xbf171b89	-0.5902639
54	0xbf26ff58	-0.65233374
55	0xbf1d5950	-0.61464405
56	0xbf20e34c	-0.6284683
57	0xbef6be62	-0.48192126
58	0xbf267934	-0.6502869
59	0xbebb4cad	-0.36581936
60	0xbf2d1471	-0.67609316
61	0xbf4703e3	-0.77740306
62	0xbf2f540a	-0.6848761
63	0xbf056ff0	-0.5212393
64	0xbf33a501	-0.7017365
65	0xbf520415	-0.8203748
66	0xbf355016	-0.70825326
67	0xbf2f9fa2	-0.68602955
68	0xbf2f709a	-0.6853119
69	0xbf4d0278	-0.8008189
70	0xbf520e45	-0.82053024
71	0xbf446571	-0.7671729
72	0xbf6b543a	-0.91925395
73	0xbf15a9b0	-0.5846205
74	0xbf10300a	-0.563233
75	0xbf23c945	-0.6397899
76	0xbf5e3a90	-0.8680811
77	0xbef20dc8	-0.4727614
78	0xbf21918d	-0.6311272
79	0xbf069e1e	-0.5258502
80	0xbf594771	-0.84874636
81	0xbf6a2a7b	-0.9147107
82	0xbf15c636	-0.5850557
83	0xbf49c1af	-0.7881116
84	0xbf2bc079	-0.67090565
85	0xbf315fdb	-0.6928689
86	0xbeffab2a	-0.49935275
87	0xbf67c494	-0.9053433
88	0xbf3395f7	-0.70150703
89	0xbf1e655c	-0.6187341
90	0xbf43dea7	-0.76511616
91	0xbf65e84f	-0.898076
92	0xbf556f25	-0.8337272
93	0xbf61e14c	-0.882344
94	0xbf67d14e	-0.9055375
95	0xbf570a0b	-0.839997
96	0xbf46348e	-0.7742394
97	0xbf8ab197	-1.0835446
98	0xbf539608	-0.82650805
99	0xbf47fedf	-0.7812328
100	0xbf53336c	-0.8250034
101	0xbf60cb74	-0.87810445
102	0xbf76d476	-0.9641794
103	0xbf6a3f48	-0.9150281
104	0xbf62177a	-0.8831707
105	0xbf26764d	-0.6502426
106	0xbf721653	-0.94565314
107	0xbfa002b9	-1.2500831
108	0xbf3db7e8	-0.74108744
109	0xbf02feef	-0.5117025
110	0xbf321da1	-0.6957646
111	0xbf69abac	-0.91277575
112	0xbf4faf10	-0.811265
113	0xbf88b7be	-1.0681074
114	0xbf8bc0ba	-1.091819
115	0xbf86c063	-1.0527462
116	0xbf4dc822	-0.80383503
117	0xbf49df65	-0.788565
118	0xbf44fda1	-0.76949507
119	0xbf3f5e5f	-0.74753374
120	0xbf935a3d	-1.1511914
121	0xbf926a88	-1.1438761
122	0xbf8cf309	-1.1011668
123	0xbf7236c2	-0.94614804
124	0xbf399a71	-0.72501284
125	0xbf1b824b	-0.60745686
126	0xbf335469	-0.70050675
127	0xbfab13ab	-1.3365377
128	0xbf3b239f	-0.7310123
129	0xbcd15c82	-0.025556806
130	0xbec9a61d	-0.39384547
131	0xbda18b4d	-0.07887898
132	0xbeff70a5	-0.49890628
133	0xbe5f157b	-0.21785538
134	0xbe90f8b0	-0.28314734
135	0xbe592d12	-0.21208599
136	0xbed11c20	-0.4084177
137	0xbe8f4388	-0.2798121
138	0xbf21693a	-0.6305119
139	0xbd9e139b	-0.07718583
140	0xbea852ad	-0.32875577
141	0xbed8ab9c	-0.42318428
142	0xbf0e0d70	-0.55489254
143	0xbef32f36	-0.47496957
144	0xbed492bc	-0.415182
145	0xbd6057f6	-0.054771386
146	0xbeceabac	-0.4036535
147	0xbde2234b	-0.11041888
148	0xbe24433b	-0.16041271
149	0xbed2695e	-0.41096014
150	0xbef4e1ce	-0.47828525
151	0xbe980af6	-0.29695863
152	0xbf068182	-0.52541363
153	0xbe3ada7a	-0.18247405
154	0xbf22e4ba	-0.6363026
155	0xbea88d44	-0.32920277
156	0xbef28d71	-0.47373536
157	0xbeb827ef	-0.35967967
158	0xbf0937d8	-0.53600836
159	0xbe8fb54c	-0.28068006
160	0xbf0a675f	-0.5406398
161	0xbeb38307	-0.35060903
162	0xbed63aa5	-0.41841617
163	0xbe4a288c	-0.1974203
164	0xbec5a1e2	-0.3860007
165	0xbe0ecc2a	-0.1394507
166	0xbec7e6ba	-0.39043218
167	0xbe8d6dd0	-0.27622843
168	0xbea6e255	-0.32594553
169	0xbe9dc353	-0.30813083
170	0xbf1d1674	-0.61362386
171	0xbec17274	-0.37782633
172	0xbece504d	-0.4029564
173	0xbef1ece4	-0.47251046
174	0xbedebc1c	-0.4350289
175	0xbf0e6922	-0.5562917
176	0xbf055f52	-0.5209857
177	0xbebb0c66	-0.36532897
178	0xbf26f1fd	-0.65212995
179	0xbf23f745	-0.6404918
180	0xbf0133a0	-0.504694
181	0xbf06c0a3	-0.5263769
182	0xbf148bd4	-0.5802586
183	0xbf0cb398	-0.5496154
184	0xbf0e3b62	-0.5555936
185	0xbebf4c54	-0.3736292
186	0xbf0944fe	-0.536209
187	0xbe802f27	-0.25035974
188	0xbf0d75e2	-0.55258
189	0xbf270d96	-0.65255105
190	0xbf0cf1b6	-0.5505632
191	0xbecb345a	-0.3968838
192	0xbf198d03	-0.5998079
193	0xbf37f6ef	-0.71861166
194	0xbf1c5572	-0.6106788
195	0xbf18d285	-0.5969623
196	0xbf13b7d5	-0.5770238
197	0xbf2e7463	-0.6814634
198	0xbf2fb772	-0.6863929
199	0xbf1ef43b	-0.62091416
200	0xbf4ca39c	-0.7993715
201	0xbef555bf	-0.47916982
202	0xbee33d6b	-0.44382796
203	0xbf095b94	-0.5365536
204	0xbf432dd0	-0.7624178
205	0xbeb35674	-0.35026896
206	0xbf0276f0	-0.50962734
207	0xbecbec26	-0.39828604
208	0xbf2cd14a	-0.6750685
209	0xbf3fb1fc	-0.7488096
210	0xbeef8953	-0.46784458
211	0xbf289f68	-0.65868235
212	0xbf0adfaf	-0.54247564
213	0xbf1bcda7	-0.60860676
214	0xbed1c61a	-0.40971452
215	0xbf4e8d66	-0.80684507
216	0xbf1035be	-0.56332004
217	0xbef5a93f	-0.47980687
218	0xbf285e88	-0.65769243
219	0xbf40d667	-0.7532715
220	0xbf2d1f12	-0.67625535
221	0xbf40c209	-0.75296074
222	0xbf446e0a	-0.76730406
223	0xbf388b4c	-0.7208755
224	0xbf25275e	-0.64513195
225	0xbf7469be	-0.9547385
226	0xbf30526e	-0.6887578
227	0xbf1f4c50	-0.6222582
228	0xbf2bf3fd	-0.6716917
229	0xbf39a257	-0.72513336
230	0xbf50674b	-0.8140761
231	0xbf44c8a8	-0.7686868
232	0xbf378b49	-0.7169691
233	0xbf038d95	-0.5138791
234	0xbf546906	-0.82972753
235	0xbf919f18	-1.1376677
236	0xbf2220e7	-0.63331455
237	0xbec64d8f	-0.38731048
238	0xbf0cd12a	-0.5500666
239	0xbf46a324	-0.7759268
240	0xbf2bd8d0	-0.67127705
241	0xbf6f2c56	-0.93427026
242	0xbf7937c2	-0.97350705
243	0xbf6b2f09	-0.91868645
244	0xbf292e3a	-0.6608616
245	0xbf27133b	-0.6526372
246	0xbf20f917	-0.6288008
247	0xbf1b07aa	-0.6055857
248	0xbf81e3b7	-1.0147618
249	0xbf80fa4c	-1.0076385
250	0xbf7af78a	-0.98033965
251	0xbf523cd4	-0.82124066
252	0xbf21bfc9	-0.63183266
253	0xbf028cf3	-0.5099632
254	0xbf14f588	-0.5818715
255	0xbf97bf98	-1.1855345

model/activation/Relu;model/batch_normalization/batchnorm/add_1 f4 [128]
0	0xbf343105	-0.703873
1	0xbfe316a2	-1.7741282
2	0x4102f96e	8.185896
3	0xbf248816	-0.6427015
4	0x3fcb9119	1.5903655
5	0xbfb2d655	-1.3971659
6	0x3fa02650	1.2511692
7	0x40038c09	2.055422
8	0x4056435c	3.3478613
9	0x40b1695d	5.5441117
10	0xc0c7ee68	-6.2478523
11	0x410ad742	8.677553
12	0xc0eec93b	-7.4620643
13	0x3de01f23	0.10943439
14	0x3f1d1294	0.6135647
15	0xc0cc646f	-6.38726
16	0x3fc17b44	1.5115743
17	0xbf4913b5	-0.78545696
18	0x4097b572	4.740899
19	0xc026b16b	-2.6045787
20	0xc010468e	-2.2543063
21	0xc0d1f3ec	-6.5610256
22	0x401beb49	2.4362357
23	0x400e7f79	2.2265303
24	0xbfd7bc92	-1.6854422
25	0x402a9d96	2.6658683
26	0xbf8723de	-1.0557821
27	0xc0027c5a	-2.0388398
28	0x3f5d0647	0.86337703
29	0x40848d78	4.142269
30	0x3f941fe5	1.1572233
31	0x3fedcc45	1.8577963
32	0x40c933ff	6.287597
33	0xc0c8ba9a	-6.2727785
34	0xbf4c5fe3	-0.7983381
35	0x402c8ab0	2.6959648
36	0xc012c1c7	-2.2930772
37	0xbfdf6844	-1.7453694
38	0xc0be8d2f	-5.9547343
39	0xc06fc1c8	-3.7462025
40	0x40ae3507	5.443973
41	0x408c3087	4.3809237
42	0x3f582f89	0.8444753
43	0x3ce7c066	0.028289985
44	0xc08baf40	-4.365143
45	0x3ff48fe2	1.910641
46	0xc0b65c4f	-5.698768
47	0x40c048af	6.0088725
48	0x3fe3fb84	1.7811131
49	0x3fa9cf40	1.3266373
50	0x412d9cbf	10.850768
51	0xc02c54ee	-2.6926837
52	0x408cb5cd	4.3971925
53	0x3f18d896	0.59705484
54	0x3fe1b46a	1.7633183
55	0x4089ba47	4.303989
56	0xc01b231b	-2.4240177
57	0x4055701e	3.334968
58	0xc03bdb1b	-2.9352481
59	0xbeb36563	-0.3503829
60	0xc0f01336	-7.502345
61	0xbfc55997	-1.5417966
62	0xbfa1742e	-1.261358
63	0xc105d853	-8.365314
64	0x40a3ab2d	5.1146455
65	0xbf155943	-0.5833933
66	0x3f76bde4	0.963835
67	0xc00865a1	-2.131203
68	0x3fe77eb2	1.8085539
69	0xbffd428a	-1.9785931
70	0x40390597	2.8909662
71	0xc09abe58	-4.8357353
72	0xbf0536b0	-0.5203657
73	0xc0a1f114	-5.0606785
74	0xc0b9a95e	-5.8019247
75	0xbf0f5279	-0.5598522
76	0xc0ac3a03	-5.3820815
77	0xbf1e5d86	-0.61861455
78	0xc055a694	-3.3382921
79	0x407b1e7d	3.9237359
80	0xc01d1a6b	-2.4547374
81	0x40638148	3.5547657
82	0xbfc00456	-1.5001323
83	0x40c1dcc4	6.058199
84	0x4034f383	2.8273628
85	0xbf36ba27	-0.71377796
86	0x3e7b8cea	0.24565473
87	0xc00073ec	-2.0070753
88	0x4025e5b4	2.592145
89	0xbfa397a4	-1.2780652
90	0xbe942174	-0.28931773
91	0x3fe4155a	1.7819016
92	0xc083503d	-4.1035447
93	0xbfb6bb6a	-1.4275944
94	0xc022db19	-2.5446227
95	0x405dc9f7	3.465452
96	0xbfeec263	-1.8653072
97	0xc019b7de	-2.4018474
98	0xc02e3a77	-2.7223184
99	0xbf2e6489	-0.68122154
100	0x4003b2f0	2.0577965
101	0xc081700c	-4.0449276
102	0x40e49d91	7.144234
103	0xc08bc9cb	-4.368383
104	0xbfdb728a	-1.714433
105	0xc09dd619	-4.932385
106	0x3fb876d7	1.4411267
107	0xc01fc779	-2.4965498
108	0x400bc0a3	2.1836326
109	0x409cb0a9	4.896565
110	0xbc81c751	-0.015842112
111	0xc0ad67d5	-5.418925
112	0xbffc3b54	-1.9705606
113	0x408e2f5d	4.4432817
114	0xc0082c89	-2.1277182
115	0x4103edbe	8.245543
116	0xc0981219	-4.752209
117	0xc03eb29d	-2.9796517
118	0xbf240173	-0.6406471
119	0x407735a2	3.8626485
120	0x40dbf82d	6.874045
121	0xbfb450e9	-1.4087192
122	0x3f0841f1	0.5322562
123	0x3fb3158a	1.3990948
124	0x40a3ca3c	5.118437
125	0xbf9ddd8e	-1.2333238
126	0xc0900f7a	-4.501889
127	0x40a7aed5	5.240092

model/activation_1/Relu;model/batch_normalization_1/batchnorm/add_1 f4 [128]
0	0x3f0a1baa	0.5394846
1	0x3d1a38c6	0.0376518
2	0xbf07e44f	-0.53082746
3	0x3ebf9f83	0.37426385
4	0x3f0ad52d	0.5423153
5	0x3df4117a	0.11917396
6	0x3df58216	0.119877025
7	0x3e8dbef7	0.27684757
8	0x3f3e3187	0.7429432
9	0xbf32c41f	-0.6983051
10	0xbcf3b85c	-0.029750995
11	0xbe6e0c88	-0.23246968
12	0x3e09ad26	0.13444957
13	0x3ec2cd1f	0.3804712
14	0xbacd3d5c	-0.0015658545
15	0x3e954926	0.2915737
16	0xbf0e1f21	-0.5551625
17	0xbe714263	-0.23560481
18	0x3e4d8200	0.20069122
19	0x3e7e63bd	0.24842735
20	0x3e18d552	0.14925125
21	0x3e29f308	0.16596615
22	0xbecdfab3	-0.4023033
23	0x3e8b071b	0.2715386
24	0x3da2b896	0.07945363
25	0xbe956fad	-0.29186764
26	0xbf61c983	-0.8819811
27	0xbdf47877	-0.11937039
28	0xbf92e166	-1.1475036
29	0xbff22b1a	-1.8919404
30	0x3ea84a86	0.32869357
31	0x3f9346f9	1.1506034
32	0x3e826f41	0.25475505
33	0xbe02ee63	-0.1278625
34	0x3d692deb	0.056928556
35	0xbebcd7e4	-0.3688346
36	0x3d363fb2	0.04449434
37	0x3e8338a9	0.25629166
38	0xbebd1d03	-0.36936197
39	0xbdcbd793	-0.09953227
40	0xbe62256c	-0.22084588
41	0x3d2e2b43	0.042521726
42	0x3f0b7a81	0.544838
43	0x3ebc6ef5	0.36803403
44	0xbf03275a	-0.5123192
45	0xbeb5c805	-0.35504165
46	0xbefd115b	-0.49427304
47	0xbec91170	-0.39271116
48	0x3f13775a	0.5760399
49	0x3e2f9353	0.17146043
50	0xbef51a0e	-0.4787144
51	0xbe08b2c4	-0.13349444
52	0xbe5115c1	-0.20418455
53	0xbebf00d8	-0.3730533
54	0xbe2c2ecb	-0.16814725
55	0xbebf043f	-0.37307927
56	0xbe9ee518	-0.3103416
57	0xbefe245d	-0.49637118
58	0xbf1402a0	-0.57816505
59	0x3f27f055	0.6560109
60	0xbe9c751c	-0.30558097
61	0x3f254519	0.6455856
62	0x3dca0304	0.098638564
63	0x3dd25f49	0.102720805
64	0x3cb9c700	0.022677898
65	0x3ee7526a	0.45180064
66	0x3d57e73e	0.052710764
67	0xbe865d43	-0.26243028
68	0x3efe0bf6	0.496185
69	0x3f05fcee	0.52339065
70	0x3edf9d87	0.4367487
71	0x3ee52dc4	0.4476148
72	0x3dfe2b25	0.12410573
73	0x3f53d2d1	0.82743555
74	0xbe93751b	-0.28800282
75	0xbe57a38d	-0.21058483
76	0x3e73c2ac	0.2380473
77	0x3ecccce9	0.40000084
78	0xbeb1bc15	-0.34713808
79	0xbe735a05	-0.23764808
80	0x3d889565	0.0666912
81	0x3f15a604	0.58456445
82	0xbde1d687	-0.11027246
83	0x3f2adfd5	0.6674779
84	0x3d4fc476	0.05072447
85	0xbde19f1d	-0.110166766
86	0x3d3db9ae	0.046319656
87	0x3e44cbf0	0.19218421
88	0x3eb78b07	0.35848257
89	0x3f4632ef	0.7742147
90	0x3e042bb9	0.12907304
91	0x3ea32114	0.31861174
92	0xbe520cc9	-0.2051269
93	0xbe907c2f	-0.28219745
94	0x3f2f9668	0.68588877
95	0x3f84ae65	1.0365721
96	0x3f3b586d	0.731818
97	0xbdc820c7	-0.09771877
98	0xbe2066cd	-0.15664215
99	0x3eeab14f	0.458384
100	0x3d218c35	0.039440352
101	0xbd8038ff	-0.06260871
102	0xbf96bb46	-1.1775901
103	0xbe9370e6	-0.28797072
104	0x3df948bd	0.12172077
105	0xbd279609	-0.04091457
106	0x3e3d6305	0.18494804
107	0x3f3ad472	0.72980416
108	0x3daa6b5f	0.08321261
109	0x3f7595be	0.95931613
110	0x3e16525b	0.14679854
111	0x3cbb5d55	0.022871653
112	0x3d9af897	0.07566946
113	0x3f28c06c	0.6591861
114	0xbdf11dda	-0.11773272
115	0xbf68f6cc	-0.9100158
116	0xbeffa788	-0.49932504
117	0xbee17374	-0.44033396
118	0x3ef6653a	0.48124105
119	0xbe1e632d	-0.1546752
120	0x3dfee1ae	0.12445389
121	0x3eb9991f	0.36249635
122	0x3de1d0b1	0.11026133
123	0x3e634066	0.22192535
124	0xbe585d5f	-0.21129368
125	0x3f5c96c8	0.86167574
126	0x3e732f0d	0.23748417
127	0xbe818671	-0.25297883

model/activation_2/Relu;model/batch_normalization_2/batchnorm/add_1 f4 [128]
0	0xbf7b1016	-0.9807142
1	0xbe1652e3	-0.14680056
2	0x3e95f7af	0.2929053
3	0xbe87e694	-0.26543105
4	0x3e0472cf	0.12934421
5	0x3e9b9ff6	0.30395478
6	0x3e4d6b11	0.20060374
7	0xbe222cee	-0.15837452
8	0x3f22b9bb	0.6356465
9	0x3e35ce71	0.17754532
10	0xbf1e7f00	-0.61912537
11	0x3ec55933	0.38544616
12	0x3f50f81c	0.81628585
13	0xbe7499a2	-0.23886731
14	0xbcd39774	-0.025829054
15	0x3f2272a7	0.63456196
16	0x3f7f7304	0.99784875
17	0x3ef0e54d	0.47049943
18	0x3f4328d7	0.7623419
19	0xbe98004b	-0.29687724
20	0xbeb90700	-0.36138153
21	0xc00187d1	-2.0239146
22	0xbe68f5e3	-0.22750048
23	0xbf2adba3	-0.6674139
24	0xc08311c1	-4.095917
25	0xbe6cd8af	-0.23129533
26	0x3f028391	0.50982004
27	0xba8b25f9	-0.0010616175
28	0xbc5d2182	-0.013496758
29	0xbd476db8	-0.04868862
30	0xbe1004e1	-0.14064361
31	0xbbcd959e	-0.0062739393
32	0x3e8f0ca7	0.2793934
33	0xbe21e155	-0.15808614
34	0x3f29e0ca	0.66358626
35	0x3de8d583	0.11368849
36	0x3f55db10	0.8353739
37	0xbdf71cd6	-0.12066047
38	0x3e0a0d4b	0.13481633
39	0xbcb3d842	-0.021953706
40	0xbf567798	-0.83776236
41	0x3c6fd5b9	0.014638358
42	0x3e7626e9	0.2403828
43	0x3ee33195	0.44373766
44	0x3f04c5fa	0.5186459
45	0xbeadddfc	-0.33958423
46	0x3ea28bad	0.3174719
47	0xbe172adc	-0.14762443
48	0xbe88dc40	-0.26730537
49	0xbe81f5aa	-0.2538274
50	0x3e70df47	0.23522674
51	0x3e8021b0	0.25025702
52	0xbe7e11cb	-0.24811475
53	0xbf0081fb	-0.50198334
54	0xbee44b12	-0.44588524
55	0xbde6dbd4	-0.11272398
56	0x3ef403d7	0.4765918
57	0xbee7128c	-0.45131338
58	0x3f11f312	0.5701152
59	0x3ed5c632	0.41752774
60	0x3df5ddca	0.120051935
61	0xbe292400	-0.16517639
62	0x3ec47090	0.38367128
63	0x3f0d8aee	0.55290115
64	0x3c989baf	0.018628923
65	0xbd2778d0	-0.0408867
66	0x3e2b430a	0.16724792
67	0x3c126b96	0.008936783
68	0x3efd5b93	0.49483928
69	0x3cc2e4ea	0.023790795
70	0x3f0bea15	0.54654056
71	0xbeef9ea3	-0.46800718
72	0x3e09ccb8	0.13457
73	0x3e6a9768	0.2290932
74	0x3ed05c90	0.4069562
75	0x3e5a54bb	0.21321385
76	0x3eedc60b	0.46440157
77	0x3eabd7d7	0.3356311
78	0x3ebe2211	0.37135366
79	0xbe8e0baf	-0.2774329
80	0x3da24766	0.079237744
81	0x3eae4346	0.340357
82	0x3dd61a35	0.10454217
83	0x3f10a042	0.56494534
84	0xbef0a02c	-0.469972
85	0xbd92bc36	-0.07164805
86	0x3ea234d6	0.31680936
87	0xbf840d68	-1.0316591
88	0xbe0ebff7	-0.13940416
89	0x3ee30e71	0.44346955
90	0x3f254e56	0.64572656
91	0x3f39f410	0.72638035
92	0xbe93f5dd	-0.28898516
93	0x3f01599a	0.50527346
94	0xbeb8f2ba	-0.36122686
95	0x3d46ef6e	0.04856818
96	0x3eb3bfb8	0.35107207
97	0xbeaac0fd	-0.33350363
98	0x3e72e34c	0.2371952
99	0x3f4969bc	0.7867696
100	0x3e294907	0.16531764
101	0x3e7c5b71	0.24644257
102	0x3da4740b	0.08029946
103	0x3e4a2cf9	0.19743718
104	0x3e8adb41	0.27120402
105	0x3e731dc6	0.23741826
106	0xbe76630f	-0.24061225
107	0xbd8850e3	-0.06656053
108	0x3f1e6e09	0.6188665
109	0xbccece19	-0.02524476
110	0x3e4e6041	0.20153905
111	0x3e89855a	0.26859552
112	0xbea55bad	-0.32296506
113	0x3e44d5d7	0.19222198
114	0x3e50318a	0.20331398
115	0x3dd2205e	0.1026008
116	0x3e019970	0.12656188
117	0x3ecf3971	0.40473512
118	0x3e63d574	0.22249395
119	0x3ee7464b	0.45170817
120	0x3df2d696	0.11857335
121	0x3e47a2ea	0.1949574
122	0x3e5c4cf8	0.21513736
123	0x3d783743	0.060599577
124	0x3e82a876	0.2551915
125	0xbf82b95f	-1.0212821
126	0xbd128e26	-0.035780095
127	0x3ec8e444	0.39236653

model/activation_3/Relu;model/batch_normalization_3/batchnorm/add_1 f4 [128]
0	0x3f26c9d4	0.65151715
1	0x3eb524e6	0.35379714
2	0x3e9a8bf2	0.30184895
3	0x3e354793	0.17703085
4	0x3eacba96	0.33736104
5	0x3e8c1756	0.27361554
6	0x3ea06158	0.31324267
7	0x3f1f2894	0.6217129
8	0xbfb51967	-1.4148377
9	0x3d28c3b6	0.04120227
10	0x3ec9d1b6	0.3941781
11	0xbfc290c6	-1.5200431
12	0x3eda1fc9	0.42602375
13	0x3ef25179	0.47327784
14	0x3e9613b8	0.2931192
15	0x3ea230af	0.31677768
16	0x3f802e66	1.001416
17	0x3e05e802	0.13076785
18	0x3f525b8e	0.8217095
19	0x3ef08539	0.4697664
20	0x3ef8d71d	0.48601618
21	0xbf93fe7a	-1.1562035
22	0x3ec5ea0b	0.38655123
23	0x3ebcbd97	0.36863396
24	0x3ef3d884	0.47626126
25	0xbe22c901	-0.1589699
26	0xbe707a8d	-0.2348425
27	0x3eba61c6	0.3640272
28	0x3f8b521a	1.088443
29	0x3d9d9175	0.07693759
30	0x3e18ba6d	0.14914866
31	0x3d939efa	0.07208057
32	0x3e798e47	0.24370681
33	0x3ed70dc7	0.420027
34	0x3f259d07	0.6469273
35	0x3f7686b1	0.9629927
36	0x3f7057f2	0.93884194
37	0x3e525a3e	0.20542237
38	0x3f1532aa	0.5828043
39	0xbd96dbb8	-0.07366127
40	0x3e3f9043	0.18707375
41	0x3f2f7b69	0.68547684
42	0x3f09780d	0.5369881
43	0x3de35d41	0.11101771
44	0xbed4a01b	-0.415284
45	0x3d71003b	0.05883811
46	0xbd67f8bb	-0.056633692
47	0x3f03fa0a	0.51553404
48	0x3e1f645b	0.15565626
49	0xbff78599	-1.9337646
50	0x3f163638	0.5867648
51	0x3c8b9ec0	0.017043471
52	0xbee37fb0	-0.44433355
53	0x3f08b7ac	0.5340526
54	0x3eadcbda	0.3394459
55	0xbea0ddd6	-0.31419247
56	0x3fa52e03	1.2904667
57	0xbeee517f	-0.46546552
58	0x3f4cd3d3	0.8001072
59	0x3f60144a	0.8753096
60	0x3e98b2c6	0.29823893
61	0x3f5a8da0	0.8537235
62	0x3e7fbe76	0.24974999
63	0x3f605774	0.8763344
64	0x3f5411d7	0.8283972
65	0xbff3e8bd	-1.9055401
66	0xbe48400e	-0.19555685
67	0x3ea49313	0.3214346
68	0x3eff7f05	0.49901596
69	0xbde750ba	-0.11294694
70	0x3ef55db7	0.4792306
71	0x3f02acc9	0.510449
72	0xbdee37ea	-0.116317585
73	0xbd33c9d1	-0.04389364
74	0xbfc265e3	-1.5187343
75	0x3e83a3d1	0.2571092
76	0x3ec215b6	0.3790719
77	0x3e39845c	0.18116897
78	0xbeec8631	-0.4619613
79	0x3f261db2	0.6488906
80	0x3f4449c6	0.7667507
81	0xbc5f2dec	-0.0136217885
82	0x3e469566	0.19392928
83	0xbf941bec	-1.1571021
84	0x3f39d06a	0.7258364
85	0x3e789fcd	0.24279709
86	0x3f4b53a8	0.79424524
87	0xbe86628b	-0.26247057
88	0x3f0b08cb	0.5431029
89	0xbe158470	-0.14601302
90	0x3eeb1179	0.45911768
91	0xbe6ce655	-0.2313474
92	0xbd39fd68	-0.045407683
93	0x3f1cab33	0.6119873
94	0x3c09ffee	0.008422835
95	0xbe03ed4d	-0.12883492
96	0x3d0a65a4	0.03378834
97	0xbe6c58af	-0.23080705
98	0x3ed7f284	0.42177212
99	0x3f25c593	0.647546
100	0xbbeb2455	-0.007175962
101	0xbfaf3c36	-1.369025
102	0xbe73372a	-0.23751512
103	0x3edb4e0f	0.4283299
104	0xbf9b060d	-1.2111222
105	0x3ec1de4c	0.37864912
106	0xbfe0b67d	-1.7555691
107	0x3f31511f	0.69264406
108	0xbe8874d4	-0.26651633
109	0x3dcff9cf	0.10155069
110	0x3f0ea132	0.55714715
111	0x3f3765bb	0.71639603
112	0xbe980b00	-0.29695892
113	0xbe32a962	-0.17447427
114	0x3db4f335	0.088354506
115	0xbe8c49cb	-0.2740005
116	0x3f19e4f6	0.6011499
117	0xbdc07933	-0.09398117
118	0x3f062ccd	0.5241211
119	0x3f470dd8	0.777555
120	0x3f43c991	0.7647944
121	0x3e8a3f2d	0.27001324
122	0x3bd84296	0.0065997345
123	0x3ed79488	0.42105508
124	0xbf03af31	-0.51439196
125	0x3f37c6b2	0.7178756
126	0x3f805c80	1.0028229
127	0x3e4e64d1	0.20155646

model/activation_4/Relu;model/batch_normalization_4/batchnorm/add_1 f4 [8]
0	0x3fda1096	1.7036312
1	0x3ff817e0	1.9382286
2	0x40013a18	2.0191708
3	0x400bedc8	2.186388
4	0x3ff64345	1.9239279
5	0x401c80aa	2.445353
6	0x400d962e	2.2122912
7	0x3fde698f	1.7375964

model/activation_5/Relu;model/batch_normalization_5/batchnorm/add_1 f4 [128]
0	0x3f8bced2	1.0922492
1	0x3e00623b	0.12537472
2	0xc0ca9033	-6.3301024
3	0xc029ed18	-2.655096
4	0x40a64eb2	5.1971064
5	0x40412790	3.0180397
6	0x40afe675	5.496882
7	0xc032f4c8	-2.7961903
8	0x3f9f905c	1.246593
9	0x4051c834	3.2778444
10	0xc01b90f9	-2.4307234
11	0xbff59aa4	-1.9187818
12	0xbfbef793	-1.4919304
13	0xc06f21f0	-3.7364464
14	0xc0685a00	-3.6304932
15	0x3f98ef5e	1.1948049
16	0x402a42f8	2.6603374
17	0xbf9d1814	-1.2272973
18	0x40b88381	5.7660527
19	0x4084a04a	4.1445665
20	0x3da1b414	0.07895675
21	0xc0394f91	-2.8954813
22	0xc00c493c	-2.1919699
23	0x3fd25db7	1.643485
24	0x40547535	3.3196537
25	0x3e21964a	0.15779987
26	0xbfef5c14	-1.8699975
27	0xbf0f80db	-0.5605599
28	0x3f4271df	0.75955003
29	0xbfc5cf7f	-1.5453948
30	0xc0d49d38	-6.6441917
31	0x4076f82b	3.858897
32	0x3f833f7c	1.0253749
33	0x40919106	4.548953
34	0x3f735235	0.9504731
35	0xbf20d4ff	-0.62825006
36	0x4021f4e1	2.5305712
37	0xc0933d64	-4.601244
38	0xc0c1085d	-6.032271
39	0x3fb9780f	1.4489764
40	0x3fef0f7c	1.86766
41	0xbe9f3028	-0.31091428
42	0xbe93009e	-0.28711408
43	0xbf4ccc70	-0.79999447
44	0x4090276f	4.5048137
45	0xc0866abd	-4.2005296
46	0x3f81b33e	1.0132825
47	0xc05e68bd	-3.4751427
48	0x3f8b38fc	1.0876765
49	0xc08d0977	-4.4074054
50	0xc0130ecc	-2.2977781
51	0x3f161770	0.5862951
52	0xbf80fcab	-1.0077108
53	0x3f513524	0.8172171
54	0x3f1c8b19	0.61149746
55	0x3fc29842	1.5202715
56	0xc0265f64	-2.5995722
57	0x408fad82	4.48993
58	0x405b1284	3.423005
59	0x3fa572f9	1.2925712
60	0xbf10cb3e	-0.5656012
61	0x3e729c72	0.23692492
62	0xc00bb026	-2.1826262
63	0x3fb8155d	1.438152
64	0x3fc577ed	1.5427223
65	0xc0b8ccd1	-5.775002
66	0xbf4905b0	-0.78524303
67	0xbf88a7ed	-1.0676247
68	0xbfdbd514	-1.7174401
69	0x404e670d	3.2250397
70	0x409ce00f	4.902351
71	0xbd5777b0	-0.052604377
72	0x404f5887	3.2397783
73	0xc05ed1b4	-3.4815493
74	0xbed41f0e	-0.41429943
75	0xbe549c84	-0.20762831
76	0xc0adc83e	-5.4306936
77	0xc019e85d	-2.4048073
78	0xbdf51711	-0.1196729
79	0x3fd0beea	1.6308262
80	0x3f4d09c5	0.8009303
81	0xbf50fd18	-0.8163619
82	0x407eaeed	3.9794266
83	0x3f6c9346	0.9241222
84	0xbc1c9d60	-0.0095590055
85	0xbf3f9706	-0.7483982
86	0xc077270c	-3.8617582
87	0x400f9e11	2.2440226
88	0x3df4ba65	0.119496144
89	0xbfa9e881	-1.327408
90	0xc0f54649	-7.6648297
91	0x403219e3	2.78283
92	0xc0084fae	-2.1298633
93	0xc0051a9e	-2.0797496
94	0xc0132eb5	-2.2997258
95	0xc0264752	-2.598103
96	0x3d83f83f	0.064438336
97	0xc016991f	-2.3530958
98	0x3f0a4434	0.5401032
99	0x409e079d	4.9384294
100	0xc102a75e	-8.165861
101	0x3e248076	0.16064629
102	0xbf5b0720	-0.85557747
103	0xc026f87f	-2.608917
104	0xc065b9f9	-3.5894759
105	0x3f72207c	0.9458082
106	0xc08725c9	-4.2233624
107	0x3f51a288	0.8188863
108	0x402ec749	2.7309134
109	0xbfd25df2	-1.643492
110	0xbf95a258	-1.1690168
111	0x4042f02f	3.0459096
112	0xc0614dd6	-3.5203757
113	0x40a72c7c	5.22418
114	0xbf78b08d	-0.97144395
115	0xc07c42b6	-3.9415717
116	0x3ee6ee05	0.4510347
117	0xc063d8d7	-3.5601099
118	0xc012f52e	-2.2962146
119	0x408afb84	4.3432026
120	0xc00cd962	-2.200768
121	0x3f485f9d	0.78270894
122	0xc0145152	-2.3174634
123	0xbf945588	-1.1588602
124	0xc0021282	-2.0323796
125	0xbfef56f5	-1.8698412
126	0x409c34ac	4.8814297
127	0xbf15b6ea	-0.5848223

model/activation_6/Relu;model/batch_normalization_6/batchnorm/add_1 f4 [128]
0	0xbe0fd8cf	-0.1404755
1	0x3dd3b576	0.10337345
2	0xbeadf301	-0.3397446
3	0x3eb84ebb	0.35997567
4	0x3f432426	0.76227033
5	0x3ea09138	0.31360793
6	0x3d642b74	0.055705503
7	0x3fc853c6	1.5650566
8	0x3f83d4fe	1.0299375
9	0x3f96dea5	1.1786696
10	0x3e4baff0	0.19891334
11	0xbec1aef1	-0.37828782
12	0x3e2d8e28	0.1694876
13	0x3f4fe242	0.8120462
14	0x3f0a1c19	0.53949124
15	0xbf244601	-0.6416932
16	0x3fa5690c	1.2922683
17	0xbf010f1c	-0.5041368
18	0x3f16eede	0.5895823
19	0xbe46950d	-0.19392796
20	0x3cb4ad86	0.022055399
21	0xbebe0d97	-0.37119743
22	0x3ef7e355	0.48415628
23	0x3fa6dc55	1.303599
24	0x3ee8923d	0.4542407
25	0x3f84f01a	1.0385773
26	0xbdde7cd7	-0.10863655
27	0x3ef9850a	0.48734313
28	0x3e31e396	0.17371973
29	0x3f3a6a44	0.728184
30	0x3ed50ef5	0.41612974
31	0xbe9b558c	-0.30338705
32	0x3cada029	0.021194534
33	0x3ddf1cbf	0.10894155
34	0x3f7d83ab	0.99029034
35	0x3f3b13e5	0.7307723
36	0xbf021c72	-0.50824654
37	0xbee40067	-0.44531557
38	0x3f2cf6f8	0.67564344
39	0xbf571110	-0.8401041
40	0xbf0c93c1	-0.54912955
41	0x3e87f27a	0.26552182
42	0xbf1f8641	-0.6231423
43	0x3d795269	0.060869608
44	0xbf11561b	-0.5677201
45	0x3efe96ee	0.49724525
46	0x3dc84d1c	0.097803324
47	0x3ef5c966	0.48005217
48	0x3e7573c8	0.23969948
49	0xbeaf3ac8	-0.34224534
50	0xbf199b75	-0.60002834
51	0xbdb2c25c	-0.08728477
52	0xbe545b65	-0.20737989
53	0x3e40a120	0.18811464
54	0x3e87adbd	0.2649974
55	0xbf708e85	-0.9396747
56	0xbf862a4c	-1.0481658
57	0x3f571020	0.8400898
58	0x3f2e54c5	0.680981
59	0x3edf3407	0.4359438
60	0xbddd6fd8	-0.10812348
61	0x3f4a8eb1	0.7912398
62	0xbda11070	-0.07864463
63	0xbcbfc1f3	-0.023407912
64	0x3d365d5d	0.044522632
65	0xbda89d16	-0.08233087
66	0xbf222d8a	-0.6335074
67	0x3e464747	0.19363128
68	0x3eef4d54	0.46738684
69	0x3e960a7e	0.2930488
70	0x3f2f2dbb	0.68429154
71	0x3f8e4d3d	1.1117321
72	0xbf021bdc	-0.5082376
73	0x3eef69ca	0.46760398
74	0x3f3d1cca	0.73872054
75	0x3eb7091a	0.3574913
76	0x3f0a4f1e	0.54026973
77	0xbf6108d3	-0.8790409
78	0x3f2e42df	0.6807079
79	0xbfb10ca7	-1.3831986
80	0xbf06ce3f	-0.52658457
81	0x3f736e06	0.9508976
82	0x3dc166fa	0.09443469
83	0x3f62b2c3	0.8855402
84	0x3f89532e	1.072851
85	0x3f0f80ff	0.5605621
86	0xbf12957f	-0.5725936
87	0xbf1f4e7c	-0.6222913
88	0xbf7f1463	-0.9964048
89	0x3cc17ed8	0.023620054
90	0x3ec006fd	0.37505332
91	0x3f657a54	0.8963978
92	0xbe1f7bb4	-0.15574533
93	0x3f826816	1.0188015
94	0xbe910cae	-0.28329986
95	0x3f7c411f	0.98536867
96	0x3f4e27b6	0.80529344
97	0x3da6bc1f	0.0814135
98	0x3ecab9cd	0.3959488
99	0xbfa4b68e	-1.2868211
100	0xbf569ede	-0.8383616
101	0x3f0dfe5c	0.55466247
102	0x3e7ae976	0.24503121
103	0x3e6d0ecd	0.23150177
104	0x3f439739	0.7640262
105	0x3f5c6b0e	0.8610085
106	0xbdf8de69	-0.12151796
107	0x3f9d4307	1.228608
108	0x3e2f010a	0.1709024
109	0xbe3bc102	-0.18335345
110	0x3f77af12	0.9675151
111	0xbe261db7	-0.16222273
112	0x3e3dd0fc	0.18536752
113	0x3f016ba1	0.50554854
114	0x3f77d378	0.9680705
115	0x3cf47eb5	0.029845575
116	0xbeaa51c3	-0.33265504
117	0xbe040b63	-0.12894969
118	0x3f1bdc2a	0.6088282
119	0x3e8936f8	0.2679975
120	0xbf4af366	-0.79277647
121	0xbc73bf16	-0.014877101
122	0xbefb8450	-0.49124384
123	0xbd066528	-0.032811314
124	0x3d6d269a	0.05789814
125	0xbf08683e	-0.5328406
126	0x3f16e92c	0.5894954
127	0x3f00d9cb	0.50332326

model/activation_7/Relu;model/batch_normalization_7/batchnorm/add_1 f4 [128]
0	0xbf5aef99	-0.85521847
1	0xbe3a5f8e	-0.18200514
2	0x3f3adf06	0.72996557
3	0x3ec7d608	0.3903048
4	0xbe8b517b	-0.27210602
5	0x3e83bf87	0.2573206
6	0x3fd3f988	1.6560526
7	0x3eacabe6	0.33724898
8	0x3e50f87c	0.2040729
9	0x3f30c70e	0.69053733
10	0xbe235fc5	-0.15954502
11	0xbf1575f8	-0.5838313
12	0x3e4666d3	0.19375162
13	0xbdbc3f6d	-0.09191785
14	0x3f19f4ea	0.60139334
15	0x3f2ddec7	0.67918056
16	0x3e926976	0.28596085
17	0x3dbd8bd0	0.09255183
18	0xbe286c7e	-0.16447636
19	0x3e313ade	0.17307612
20	0x3f2c85c5	0.67391616
21	0xbf510f1e	-0.8166369
22	0x3fd78c89	1.6839763
23	0x3f53be40	0.82712173
24	0x3e2683df	0.16261242
25	0x3ebccc75	0.36874738
26	0x3cbb9951	0.022900255
27	0xbe679ca5	-0.22618349
28	0xbecbf410	-0.39834642
29	0x3f1eccc3	0.6203119
30	0x3f4fa27a	0.81107295
31	0xbf2e72b5	-0.6814378
32	0xbe1d2c87	-0.15349017
33	0x3ece8c19	0.4034126
34	0x3f267697	0.65024704
35	0x3eb2543c	0.3482989
36	0xbf0b4108	-0.54396105
37	0xbf2d64bc	-0.67731833
38	0x3e94ac7b	0.29037842
39	0x3f828f7a	1.0200036
40	0xbe7116c0	-0.23543835
41	0xbf851c17	-1.0399197
42	0x3e544684	0.20730025
43	0xbe941ef5	-0.28929868
44	0x3f9bae5e	1.2162588
45	0x3f205fb1	0.62646013
46	0x3fa03c36	1.2518375
47	0x3e81c3e6	0.2534477
48	0x3ea5dd22	0.32395273
49	0x3ec7cf7b	0.39025483
50	0x3eede5ad	0.4646429
51	0x3da3612f	0.07977521
52	0xbebd2f14	-0.3694998
53	0xbf35775c	-0.7088525
54	0x3effc72b	0.4995664
55	0x3e84a082	0.25903708
56	0xbeb6e585	-0.35721985
57	0xbf87265a	-1.0558579
58	0x3f121a08	0.5707097
59	0x3e300b6b	0.17191856
60	0xbfae7da3	-1.3632091
61	0xbe222286	-0.15833482
62	0x3f1e80c1	0.6191521
63	0x3fae8230	1.363348
64	0x3f81abb4	1.0130525
65	0x3f4818b5	0.781627
66	0x3f2acff9	0.6672359
67	0x3e60a9c1	0.21939756
68	0x3dc8cd7f	0.0980482
69	0xbf729832	-0.9476348
70	0x3ee4cb65	0.44686428
71	0x3efe3870	0.49652433
72	0xbdbf43e3	-0.0933912
73	0xbf97e884	-1.1867833
74	0x3e815602	0.2526093
75	0x3eb4a97b	0.35285553
76	0x3dc9dbfe	0.09856413
77	0xbedd28ee	-0.4319529
78	0x3f93312e	1.1499383
79	0x3e856783	0.26055536
80	0x3d400bcf	0.04688626
81	0x3ece1c2f	0.40255877
82	0x3f9331a9	1.149953
83	0xbea5e09d	-0.3239793
84	0x3e4f7c58	0.20262277
85	0x3f95c30a	1.1700146
86	0xbf3584e7	-0.7090592
87	0xbe455bfc	-0.1927337
88	0x3edc8f18	0.43077922
89	0x3e851fc7	0.26000807
90	0x3fb7cd50	1.4359531
91	0xbec68245	-0.38771263
92	0x3f0ed3f5	0.5579217
93	0xbf130b9a	-0.5743958
94	0x3f1edf75	0.6205972
95	0xbea39b96	-0.3195464
96	0x3f3b4da7	0.73165363
97	0x3e1baf5a	0.1520361
98	0xbdf53c0f	-0.11974346
99	0x3ecf21f8	0.40455604
100	0x3ee5ca60	0.44880962
101	0xbf1801af	-0.5937757
102	0xbe811c9d	-0.25217143
103	0x3f1a7a02	0.6034242
104	0x3e85ec71	0.26156953
105	0xbf3c1b03	-0.73478717
106	0x3e82e26b	0.25563368
107	0xbf25c909	-0.6475988
108	0x3f5c612a	0.8608576
109	0x3f69b212	0.9128734
110	0x3f256d46	0.64619863
111	0x3f9ee577	1.2413777
112	0xbe27d178	-0.163885
113	0x3e8ac6d4	0.2710482
114	0xbe52cb73	-0.20585422
115	0x3ecb0151	0.39649442
116	0x3f257b1f	0.6464099
117	0x3f108a49	0.56461006
118	0x3ed881a4	0.42286408
119	0x3c9d4958	0.019200012
120	0x3ff74802	1.931885
121	0x3d2f9d1c	0.04287444
122	0x3f6b18eb	0.91834897
123	0x3ef2de10	0.47435045
124	0x3f280a70	0.65640926
125	0x3eda6e0a	0.42662078
126	0x3e1b27c0	0.15151882
127	0x3f5a2a2c	0.852206

model/activation_8/Relu;model/batch_normalization_8/batchnorm/add_1 f4 [128]
0	0x40080cd3	2.1257827
1	0x3f3a460d	0.7276314
2	0x400723ac	2.1115522
3	0x3f6a8947	0.9161572
4	0xbfa554e1	-1.2916528
5	0x3f2c6f6d	0.6735752
6	0x3f780e47	0.96896785
7	0x3fed12ca	1.8521359
8	0x3f420be2	0.7579938
9	0x3fad52a5	1.3540846
10	0x3eeec40d	0.4663395
11	0x3fe7bad0	1.8103886
12	0x3f537a2b	0.8260829
13	0xbf3de39a	-0.7417542
14	0x3fa4e76e	1.2883127
15	0x3fb33dcb	1.4003233
16	0x3f516ab3	0.81803435
17	0x3fbb1fa7	1.4619035
18	0x402466c6	2.5687728
19	0x3ef62f12	0.48082787
20	0x4074b750	3.8236885
21	0x3f47f45d	0.78107244
22	0x3faed1d2	1.3657782
23	0x3fb92811	1.4465352
24	0xbe4804ae	-0.19533035
25	0x3f3c39d7	0.73525757
26	0x3ff860b5	1.9404513
27	0x400e36a3	2.2220848
28	0xbea7415a	-0.32667047
29	0x4006e960	2.107994
30	0x3fe287a9	1.769765
31	0x3f490c65	0.7853454
32	0x3f850efa	1.0395195
33	0x3fef7516	1.8707607
34	0x3f7d3b73	0.9891884
35	0x3e365680	0.17806435
36	0x3fff4e96	1.9945858
37	0x3fbc3e2c	1.4706473
38	0x3f97aaf9	1.1849052
39	0x3f8f99b5	1.1218783
40	0x3f53e75b	0.82774895
41	0xbda00b48	-0.07814652
42	0x3f219b2e	0.6312741
43	0x3fc55afe	1.5418394
44	0x4007e9b7	2.1236398
45	0x400dd5cc	2.2161741
46	0x3fe9530d	1.822847
47	0x3f93d7a6	1.1550186
48	0x3f223ef9	0.6337734
49	0x3f70e842	0.941044
50	0x3fc8792f	1.5661982
51	0x3f1a6280	0.6030655
52	0x3f8ec94b	1.115518
53	0x3f36d25b	0.71414727
54	0x400cf864	2.2026606
55	0x403c2ffc	2.9404287
56	0x3fcc9cff	1.5985411
57	0x3f3a01a4	0.72658753
58	0x3f91f7e8	1.140378
59	0x3f10baac	0.5653484
60	0x403b527a	2.926909
61	0x3ff204cf	1.8907717
62	0x3ff22b92	1.8919547
63	0x3f3096b2	0.6897994
64	0x3f6be9c8	0.92153597
65	0x3fc1b3af	1.513296
66	0x3f459a38	0.77188444
67	0x4014dc22	2.3259358
68	0x3e092f34	0.13396913
69	0x3ff70feb	1.9301733
70	0x3fbad209	1.4595348
71	0x3fb7cb21	1.4358865
72	0x3ffa4fa8	1.9555559
73	0x401700f7	2.359434
74	0x402df5bd	2.7181237
75	0x3f86fa19	1.0545074
76	0x3f558936	0.8341249
77	0x3ff81190	1.938036
78	0x3f8ddcd3	1.1083015
79	0x3fd1bb70	1.6385326
80	0x3f77f1de	0.96853435
81	0x3f790685	0.97275573
82	0x4037f4dc	2.87432
83	0x3fbaddea	1.4598973
84	0x3f2b1600	0.66830444
85	0x3ff2034f	1.890726
86	0x400cc3eb	2.199458
87	0x40691b4b	3.6422908
88	0x3f6ee4d8	0.9331794
89	0x4023aa24	2.5572596
90	0x3fa3ac34	1.2786927
91	0x3f55f64c	0.83578944
92	0x3f76ce86	0.9640888
93	0x3f731162	0.949484
94	0x3f7e0c7b	0.99237794
95	0x3eca9947	0.39570066
96	0xbe81517d	-0.25257483
97	0xbd3f05e8	-0.046636492
98	0x3e080307	0.13282405
99	0x3fd39407	1.6529549
100	0x3f243df5	0.6415704
101	0xbe12e474	-0.1434496
102	0x3f39ae05	0.7253116
103	0x3f1e1e49	0.6176496
104	0xbf71e291	-0.9448634
105	0x3ff6cd16	1.9281337
106	0x3fe449fd	1.783508
107	0x3de9bcc1	0.11412955
108	0xbf0ef641	-0.55844504
109	0x401335c4	2.3001566
110	0x3f84869f	1.0353583
111	0x40180958	2.3755703
112	0x3f532a1d	0.82486135
113	0x3f2837fa	0.65710413
114	0x3fcf2eb8	1.6186132
115	0x3ea77b68	0.3271134
116	0x4016590e	2.3491855
117	0xbdec3e77	-0.11535352
118	0x3f0d7766	0.5526031
119	0x401cc728	2.4496555
120	0x3ff96636	1.9484317
121	0xbddaa2d7	-0.106755905
122	0x3f00f0db	0.50367516
123	0x3fa77ae1	1.3084375
124	0x3fe62a56	1.798167
125	0x3f21dec4	0.6323054
126	0x3f766d3b	0.9626042
127	0x3f9d5cdb	1.2293962

model/batch_normalization/batchnorm/mul_1 i1 [128, 640] scale=0.0003148095 zero_point=0
0	0xfb	-0.0015740475
1	0xfe	-0.000629619
2	0x01	0.0003148095
3	0x04	0.001259238
4	0x08	0.002518476
5	0x07	0.0022036666
6	0xfe	-0.000629619
7	0x0d	0.0040925234
8	0x07	0.0022036666
9	0xfc	-0.001259238
10	0x04	0.001259238
11	0xfb	-0.0015740475
12	0xf9	-0.0022036666
13	0xff	-0.0003148095
14	0xfe	-0.000629619
15	0xf8	-0.002518476
16	0xee	-0.0056665707
17	0xf9	-0.0022036666
18	0x01	0.0003148095
19	0x00	0.0
20	0xfa	-0.001888857
21	0xf4	-0.003777714
22	0xfd	-0.0009444285
23	0xf4	-0.003777714
24	0xf7	-0.0028332854
25	0x06	0.001888857
26	0x05	0.0015740475
27	0xfd	-0.0009444285
28	0xed	-0.0059813806
29	0xf2	-0.004407333
30	0xfc	-0.001259238
31	0xfc	-0.001259238
32	0xf5	-0.0034629046
33	0xfc	-0.001259238
34	0xf1	-0.0047221426
35	0xf0	-0.005036952
36	0xf8	-0.002518476
37	0xf5	-0.0034629046
38	0xfb	-0.0015740475
39	0xf9	-0.0022036666
40	0xee	-0.0056665707
41	0xf9	-0.0022036666
42	0x06	0.001888857
43	0x24	0.0113331415
44	0x2e	0.014481237
45	0x0b	0.0034629046
46	0x07	0.0022036666
47	0x04	0.001259238
48	0x01	0.0003148095
49	0x08	0.002518476
50	0x06	0.001888857
51	0x05	0.0015740475
52	0x0c	0.003777714
53	0x24	0.0113331415
54	0x06	0.001888857
55	0x04	0.001259238
56	0xfd	-0.0009444285
57	0xfd	-0.0009444285
58	0xfc	-0.001259238
59	0xff	-0.0003148095
60	0x11	0.0053517614
61	0x0d	0.0040925234
62	0x0b	0.0034629046
63	0xf3	-0.0040925234
64	0xf6	-0.003148095
65	0xec	-0.00629619
66	0x08	0.002518476
67	0x13	0.0059813806
68	0xff	-0.0003148095
69	0x02	0.000629619
70	0xff	-0.0003148095
71	0x04	0.001259238
72	0x07	0.0022036666
73	0x03	0.0009444285
74	0xf8	-0.002518476
75	0xee	-0.0056665707
76	0xf4	-0.003777714
77	0xf6	-0.003148095
78	0xf4	-0.003777714
79	0xfc	-0.001259238
80	0x09	0.0028332854
81	0xfe	-0.000629619
82	0x03	0.0009444285
83	0x03	0.0009444285
84	0xfb	-0.0015740475
85	0xfd	-0.0009444285
86	0x09	0.0028332854
87	0xfe	-0.000629619
88	0x05	0.0015740475
89	0xfb	-0.0015740475
90	0x04	0.001259238
91	0xf8	-0.002518476
92	0xff	-0.0003148095
93	0x04	0.001259238
94	0xf2	-0.004407333
95	0x07	0.0022036666
96	0xfc	-0.001259238
97	0xff	-0.0003148095
98	0xfb	-0.0015740475
99	0x02	0.000629619
100	0x03	0.0009444285
101	0x02	0.000629619
102	0x03	0.0009444285
103	0xfa	-0.001888857
104	0xfd	-0.0009444285
105	0xfb	-0.0015740475
106	0xf5	-0.0034629046
107	0xfa	-0.001888857
108	0x00	0.0
109	0x00	0.0
110	0x08	0.002518476
111	0xff	-0.0003148095
112	0x06	0.001888857
113	0x04	0.001259238
114	0x02	0.000629619
115	0xfd	-0.0009444285
116	0xfb	-0.0015740475
117	0x01	0.0003148095
118	0xf9	-0.0022036666
119	0xfc	-0.001259238
120	0xfb	-0.0015740475
121	0xff	-0.0003148095
122	0x06	0.001888857
123	0x08	0.002518476
124	0xf5	-0.0034629046
125	0xf7	-0.0028332854
126	0x07	0.0022036666
127	0x01	0.0003148095
128	0xfa	-0.001888857
129	0xfc	-0.001259238
130	0x01	0.0003148095
131	0x02	0.000629619
132	0x05	0.0015740475
133	0x07	0.0022036666
134	0xfc	-0.001259238
135	0x0c	0.003777714
136	0x0e	0.004407333
137	0xf8	-0.002518476
138	0x03	0.0009444285
139	0xf8	-0.002518476
140	0xfb	-0.0015740475
141	0x03	0.0009444285
142	0x00	0.0
143	0xf5	-0.0034629046
144	0xee	-0.0056665707
145	0xfb	-0.0015740475
146	0x02	0.000629619
147	0x01	0.0003148095
148	0xfb	-0.0015740475
149	0xf7	-0.0028332854
150	0xf7	-0.0028332854
151	0xf0	-0.005036952
152	0xf5	-0.0034629046
153	0x04	0.001259238
154	0x03	0.0009444285
155	0x03	0.0009444285
156	0xec	-0.00629619
157	0xf8	-0.002518476
158	0xfd	-0.0009444285
159	0xf9	-0.0022036666
160	0xf7	-0.0028332854
161	0xfb	-0.0015740475
162	0xf4	-0.003777714
163	0xf0	-0.005036952
164	0xf6	-0.003148095
165	0xf9	-0.0022036666
166	0x01	0.0003148095
167	0xf8	-0.002518476
168	0xf1	-0.0047221426
169	0xf8	-0.002518476
170	0x0a	0.003148095
171	0x26	0.011962761
172	0x2b	0.013536808
173	0x09	0.0028332854
174	0x06	0.001888857
175	0x04	0.001259238
176	0xfe	-0.000629619
177	0x09	0.0028332854
178	0x05	0.0015740475
179	0x07	0.0022036666
180	0x0d	0.0040925234
181	0x24	0.0113331415
182	0x08	0.002518476
183	0x06	0.001888857
184	0xfe	-0.000629619
185	0xfa	-0.001888857
186	0xfc	-0.001259238
187	0xfe	-0.000629619
188	0x0e	0.004407333
189	0x0c	0.003777714
190	0x04	0.001259238
191	0xf9	-0.0022036666
192	0xf5	-0.0034629046
193	0xf5	-0.0034629046
194	0x07	0.0022036666
195	0x10	0.005036952
196	0x03	0.0009444285
197	0xfc	-0.001259238
198	0x04	0.001259238
199	0x02	0.000629619
200	0x0c	0.003777714
201	0xfd	-0.0009444285
202	0xf5	-0.0034629046
203	0xf1	-0.0047221426
204	0xf7	-0.0028332854
205	0xfb	-0.0015740475
206	0xf6	-0.003148095
207	0xfd	-0.0009444285
208	0x08	0.002518476
209	0x01	0.0003148095
210	0x01	0.0003148095
211	0x06	0.001888857
212	0xfb	-0.0015740475
213	0x02	0.000629619
214	0x06	0.001888857
215	0x05	0.0015740475
216	0x06	0.001888857
217	0xf7	-0.0028332854
218	0x03	0.0009444285
219	0xfa	-0.001888857
220	0xfc	-0.001259238
221	0x05	0.0015740475
222	0xf6	-0.003148095
223	0x06	0.001888857
224	0xfe	-0.000629619
225	0xfc	-0.001259238
226	0xff	-0.0003148095
227	0x05	0.0015740475
228	0xff	-0.0003148095
229	0x05	0.0015740475
230	0x03	0.0009444285
231	0xfa	-0.001888857
232	0xfb	-0.0015740475
233	0xff	-0.0003148095
234	0xee	-0.0056665707
235	0xff	-0.0003148095
236	0x07	0.0022036666
237	0x04	0.001259238
238	0x0c	0.003777714
239	0x01	0.0003148095
240	0x08	0.002518476
241	0x06	0.001888857
242	0xff	-0.0003148095
243	0x00	0.0
244	0x01	0.0003148095
245	0xfe	-0.000629619
246	0xfd	-0.0009444285
247	0xfe	-0.000629619
248	0xff	-0.0003148095
249	0x03	0.0009444285
250	0x04	0.001259238
251	0x09	0.0028332854
252	0xfa	-0.001888857
253	0xf5	-0.0034629046
254	0x08	0.002518476
255	0x05	0.0015740475

model/batch_normalization_1/batchnorm/mul_1 i1 [128, 128] scale=0.010993168 zero_point=0
0	0xfd	-0.032979503
1	0xf4	-0.13191801
2	0xf5	-0.120924845
3	0xef	-0.18688385
4	0x01	0.010993168
5	0x0d	0.14291118
6	0xfe	-0.021986336
7	0xff	-0.010993168
8	0x0c	0.13191801
9	0x05	0.05496584
10	0x02	0.021986336
11	0x00	0.0
12	0xff	-0.010993168
13	0xf7	-0.09893851
14	0xfd	-0.032979503
15	0x02	0.021986336
16	0x0b	0.120924845
17	0x09	0.09893851
18	0xf7	-0.09893851
19	0x01	0.010993168
20	0x04	0.04397267
21	0xf7	-0.09893851
22	0xf3	-0.14291118
23	0xfe	-0.021986336
24	0xf9	-0.076952174
25	0x05	0.05496584
26	0xfd	-0.032979503
27	0x05	0.05496584
28	0x03	0.032979503
29	0xf3	-0.14291118
30	0xf7	-0.09893851
31	0x03	0.032979503
32	0xf9	-0.076952174
33	0x05	0.05496584
34	0xf2	-0.15390435
35	0x02	0.021986336
36	0xfa	-0.06595901
37	0xfa	-0.06595901
38	0x01	0.010993168
39	0xf8	-0.08794534
40	0xf7	-0.09893851
41	0x09	0.09893851
42	0xf7	-0.09893851
43	0xff	-0.010993168
44	0xfd	-0.032979503
45	0xff	-0.010993168
46	0xfc	-0.04397267
47	0xfc	-0.04397267
48	0xf9	-0.076952174
49	0x05	0.05496584
50	0x05	0.05496584
51	0x0e	0.15390435
52	0x05	0.05496584
53	0x0b	0.120924845
54	0xfd	-0.032979503
55	0xfd	-0.032979503
56	0x00	0.0
57	0x00	0.0
58	0x02	0.021986336
59	0x00	0.0
60	0x05	0.05496584
61	0x0a	0.10993168
62	0xfd	-0.032979503
63	0x03	0.032979503
64	0x08	0.08794534
65	0x0f	0.16489752
66	0xfc	-0.04397267
67	0xed	-0.20887019
68	0xfa	-0.06595901
69	0xfb	-0.05496584
70	0x06	0.06595901
71	0x04	0.04397267
72	0x01	0.010993168
73	0xf6	-0.10993168
74	0xfd	-0.032979503
75	0xf0	-0.17589068
76	0x00	0.0
77	0xfb	-0.05496584
78	0xf4	-0.13191801
79	0x04	0.04397267
80	0xfc	-0.04397267
81	0x05	0.05496584
82	0xfb	-0.05496584
83	0xf9	-0.076952174
84	0xed	-0.20887019
85	0xf9	-0.076952174
86	0x05	0.05496584
87	0x01	0.010993168
88	0xff	-0.010993168
89	0xfc	-0.04397267
90	0x01	0.010993168
91	0xef	-0.18688385
92	0xff	-0.010993168
93	0x06	0.06595901
94	0x03	0.032979503
95	0x07	0.076952174
96	0x01	0.010993168
97	0xff	-0.010993168
98	0xf9	-0.076952174
99	0xfa	-0.06595901
100	0xfe	-0.021986336
101	0x08	0.08794534
102	0x09	0.09893851
103	0x06	0.06595901
104	0xff	-0.010993168
105	0x03	0.032979503
106	0x02	0.021986336
107	0xfc	-0.04397267
108	0x08	0.08794534
109	0xf8	-0.08794534
110	0xfe	-0.021986336
111	0x00	0.0
112	0xfe	-0.021986336
113	0x0b	0.120924845
114	0xf9	-0.076952174
115	0x10	0.17589068
116	0xfb	-0.05496584
117	0x02	0.021986336
118	0xfb	-0.05496584
119	0x04	0.04397267
120	0xfb	-0.05496584
121	0x00	0.0
122	0x08	0.08794534
123	0xf0	-0.17589068
124	0x08	0.08794534
125	0xff	-0.010993168
126	0x04	0.04397267
127	0x04	0.04397267
128	0x03	0.032979503
129	0xfe	-0.021986336
130	0x03	0.032979503
131	0x05	0.05496584
132	0x02	0.021986336
133	0xff	-0.010993168
134	0x04	0.04397267
135	0x02	0.021986336
136	0xfc	-0.04397267
137	0xff	-0.010993168
138	0xfe	-0.021986336
139	0xfe	-0.021986336
140	0x13	0.20887019
141	0xff	-0.010993168
142	0xdf	-0.36277455
143	0xfd	-0.032979503
144	0xff	-0.010993168
145	0x03	0.032979503
146	0x03	0.032979503
147	0xfe	-0.021986336
148	0x07	0.076952174
149	0xef	-0.18688385
150	0xfb	-0.05496584
151	0x00	0.0
152	0xff	-0.010993168
153	0x04	0.04397267
154	0x08	0.08794534
155	0xfe	-0.021986336
156	0xfe	-0.021986336
157	0xf5	-0.120924845
158	0x07	0.076952174
159	0xfb	-0.05496584
160	0xfd	-0.032979503
161	0x01	0.010993168
162	0xfa	-0.06595901
163	0x00	0.0
164	0x02	0.021986336
165	0x02	0.021986336
166	0xfb	-0.05496584
167	0xfd	-0.032979503
168	0xff	-0.010993168
169	0x05	0.05496584
170	0x04	0.04397267
171	0x02	0.021986336
172	0x0b	0.120924845
173	0x03	0.032979503
174	0xfa	-0.06595901
175	0xfb	-0.05496584
176	0xf7	-0.09893851
177	0x01	0.010993168
178	0x03	0.032979503
179	0x06	0.06595901
180	0xfc	-0.04397267
181	0x03	0.032979503
182	0xff	-0.010993168
183	0x03	0.032979503
184	0xfe	-0.021986336
185	0x04	0.04397267
186	0x01	0.010993168
187	0xf5	-0.120924845
188	0x02	0.021986336
189	0xfe	-0.021986336
190	0xfe	-0.021986336
191	0x01	0.010993168
192	0xff	-0.010993168
193	0x0f	0.16489752
194	0x01	0.010993168
195	0xfe	-0.021986336
196	0xff	-0.010993168
197	0x04	0.04397267
198	0xff	-0.010993168
199	0xfb	-0.05496584
200	0x00	0.0
201	0x12	0.19787702
202	0xff	-0.010993168
203	0xfc	-0.04397267
204	0x07	0.076952174
205	0x03	0.032979503
206	0x04	0.04397267
207	0x04	0.04397267
208	0xfe	-0.021986336
209	0x05	0.05496584
210	0x06	0.06595901
211	0xff	-0.010993168
212	0x01	0.010993168
213	0x02	0.021986336
214	0x01	0.010993168
215	0x03	0.032979503
216	0x01	0.010993168
217	0xff	-0.010993168
218	0xfe	-0.021986336
219	0xfe	-0.021986336
220	0xff	-0.010993168
221	0xff	-0.010993168
222	0xff	-0.010993168
223	0x03	0.032979503
224	0x02	0.021986336
225	0xff	-0.010993168
226	0xfa	-0.06595901
227	0x05	0.05496584
228	0xff	-0.010993168
229	0x02	0.021986336
230	0x06	0.06595901
231	0x03	0.032979503
232	0x0a	0.10993168
233	0x06	0.06595901
234	0xfa	-0.06595901
235	0x00	0.0
236	0xfc	-0.04397267
237	0xfe	-0.021986336
238	0xf8	-0.08794534
239	0x03	0.032979503
240	0x00	0.0
241	0x00	0.0
242	0x01	0.010993168
243	0xfa	-0.06595901
244	0x08	0.08794534
245	0x00	0.0
246	0x0e	0.15390435
247	0xfd	-0.032979503
248	0xfb	-0.05496584
249	0x02	0.021986336
250	0xf7	-0.09893851
251	0xf9	-0.076952174
252	0x02	0.021986336
253	0x01	0.010993168
254	0x02	0.021986336
255	0x06	0.06595901

model/batch_normalization_2/batchnorm/mul_1 i1 [128, 128] scale=0.036961913 zero_point=0
0	0x02	0.073923826
1	0x02	0.073923826
2	0xfe	-0.073923826
3	0x04	0.14784765
4	0x0e	0.5174668
5	0x00	0.0
6	0x09	0.33265722
7	0xfe	-0.073923826
8	0x02	0.073923826
9	0x02	0.073923826
10	0x04	0.14784765
11	0x00	0.0
12	0xfc	-0.14784765
13	0x01	0.036961913
14	0xfd	-0.11088574
15	0xff	-0.036961913
16	0x02	0.073923826
17	0xfb	-0.18480957
18	0x04	0.14784765
19	0xfd	-0.11088574
20	0x04	0.14784765
21	0x00	0.0
22	0x01	0.036961913
23	0xf5	-0.40658104
24	0x01	0.036961913
25	0x03	0.11088574
26	0x00	0.0
27	0xff	-0.036961913
28	0xfe	-0.073923826
29	0x04	0.14784765
30	0x02	0.073923826
31	0xfa	-0.22177148
32	0x00	0.0
33	0x01	0.036961913
34	0x03	0.11088574
35	0xfc	-0.14784765
36	0x09	0.33265722
37	0x02	0.073923826
38	0x01	0.036961913
39	0xff	-0.036961913
40	0x06	0.22177148
41	0x04	0.14784765
42	0x01	0.036961913
43	0x03	0.11088574
44	0x03	0.11088574
45	0x04	0.14784765
46	0x0d	0.48050487
47	0x01	0.036961913
48	0x01	0.036961913
49	0xff	-0.036961913
50	0xfb	-0.18480957
51	0xff	-0.036961913
52	0xff	-0.036961913
53	0xfc	-0.14784765
54	0xff	-0.036961913
55	0xfd	-0.11088574
56	0x05	0.18480957
57	0x07	0.2587334
58	0xfa	-0.22177148
59	0xfe	-0.073923826
60	0xfe	-0.073923826
61	0xf7	-0.33265722
62	0x02	0.073923826
63	0xfc	-0.14784765
64	0xfe	-0.073923826
65	0xff	-0.036961913
66	0x02	0.073923826
67	0xfe	-0.073923826
68	0x07	0.2587334
69	0xfe	-0.073923826
70	0xff	-0.036961913
71	0xff	-0.036961913
72	0x03	0.11088574
73	0x01	0.036961913
74	0x02	0.073923826
75	0x02	0.073923826
76	0x01	0.036961913
77	0x00	0.0
78	0x01	0.036961913
79	0x01	0.036961913
80	0x02	0.073923826
81	0xfc	-0.14784765
82	0xff	-0.036961913
83	0x02	0.073923826
84	0x04	0.14784765
85	0xff	-0.036961913
86	0x08	0.2956953
87	0xfb	-0.18480957
88	0x03	0.11088574
89	0xfe	-0.073923826
90	0x04	0.14784765
91	0x01	0.036961913
92	0xfe	-0.073923826
93	0xfe	-0.073923826
94	0x03	0.11088574
95	0x01	0.036961913
96	0xfe	-0.073923826
97	0x02	0.073923826
98	0xff	-0.036961913
99	0x01	0.036961913
100	0x03	0.11088574
101	0xff	-0.036961913
102	0x07	0.2587334
103	0x01	0.036961913
104	0xff	-0.036961913
105	0xff	-0.036961913
106	0xff	-0.036961913
107	0xfc	-0.14784765
108	0x02	0.073923826
109	0x00	0.0
110	0x05	0.18480957
111	0xff	-0.036961913
112	0x01	0.036961913
113	0x06	0.22177148
114	0xfe	-0.073923826
115	0xfc	-0.14784765
116	0xff	-0.036961913
117	0x03	0.11088574
118	0xff	-0.036961913
119	0xfd	-0.11088574
120	0x01	0.036961913
121	0xfb	-0.18480957
122	0x01	0.036961913
123	0x01	0.036961913
124	0xff	-0.036961913
125	0x01	0.036961913
126	0xfa	-0.22177148
127	0x00	0.0
128	0x00	0.0
129	0x02	0.073923826
130	0x01	0.036961913
131	0x03	0.11088574
132	0xfd	-0.11088574
133	0xff	-0.036961913
134	0x00	0.0
135	0x00	0.0
136	0x00	0.0
137	0xff	-0.036961913
138	0x00	0.0
139	0xff	-0.036961913
140	0xfc	-0.14784765
141	0x01	0.036961913
142	0x00	0.0
143	0x00	0.0
144	0x01	0.036961913
145	0x05	0.18480957
146	0xfe	-0.073923826
147	0x00	0.0
148	0x02	0.073923826
149	0x03	0.11088574
150	0x03	0.11088574
151	0xfd	-0.11088574
152	0x03	0.11088574
153	0x03	0.11088574
154	0xff	-0.036961913
155	0x02	0.073923826
156	0xff	-0.036961913
157	0x01	0.036961913
158	0xfe	-0.073923826
159	0x00	0.0
160	0x02	0.073923826
161	0x00	0.0
162	0x03	0.11088574
163	0x00	0.0
164	0xfc	-0.14784765
165	0x00	0.0
166	0xff	-0.036961913
167	0x01	0.036961913
168	0x02	0.073923826
169	0xff	-0.036961913
170	0xff	-0.036961913
171	0x00	0.0
172	0xfe	-0.073923826
173	0xff	-0.036961913
174	0x00	0.0
175	0x00	0.0
176	0x02	0.073923826
177	0xff	-0.036961913
178	0x00	0.0
179	0xff	-0.036961913
180	0xff	-0.036961913
181	0x00	0.0
182	0xfd	-0.11088574
183	0x03	0.11088574
184	0x01	0.036961913
185	0xfd	-0.11088574
186	0x04	0.14784765
187	0x03	0.11088574
188	0x01	0.036961913
189	0xfd	-0.11088574
190	0x02	0.073923826
191	0xfc	-0.14784765
192	0x00	0.0
193	0x04	0.14784765
194	0xfe	-0.073923826
195	0x00	0.0
196	0xfe	-0.073923826
197	0x03	0.11088574
198	0x00	0.0
199	0x02	0.073923826
200	0x01	0.036961913
201	0x00	0.0
202	0xfd	-0.11088574
203	0xfe	-0.073923826
204	0xff	-0.036961913
205	0xff	-0.036961913
206	0x04	0.14784765
207	0xfe	-0.073923826
208	0x02	0.073923826
209	0xfd	-0.11088574
210	0x00	0.0
211	0xff	-0.036961913
212	0x00	0.0
213	0x01	0.036961913
214	0x00	0.0
215	0xff	-0.036961913
216	0x03	0.11088574
217	0x00	0.0
218	0xfd	-0.11088574
219	0xff	-0.036961913
220	0xff	-0.036961913
221	0xfe	-0.073923826
222	0xff	-0.036961913
223	0xfe	-0.073923826
224	0xff	-0.036961913
225	0x02	0.073923826
226	0xfe	-0.073923826
227	0x01	0.036961913
228	0xff	-0.036961913
229	0xff	-0.036961913
230	0x00	0.0
231	0x03	0.11088574
232	0x04	0.14784765
233	0xff	-0.036961913
234	0x02	0.073923826
235	0x02	0.073923826
236	0x00	0.0
237	0xff	-0.036961913
238	0x01	0.036961913
239	0x00	0.0
240	0xff	-0.036961913
241	0xfd	-0.11088574
242	0xff	-0.036961913
243	0x02	0.073923826
244	0xfd	-0.11088574
245	0x02	0.073923826
246	0x01	0.036961913
247	0xfc	-0.14784765
248	0x03	0.11088574
249	0x05	0.18480957
250	0xfe	-0.073923826
251	0xfe	-0.073923826
252	0x03	0.11088574
253	0xfe	-0.073923826
254	0xff	-0.036961913
255	0x00	0.0
