models/mobilenetv2/float_fallback_quantization/model_ToyCar.tflite (tflite, 975464 bytes, 53 tensors)

model/mobilenetv2_0.50_64/predictions/MatMul i1 [3, 1280] scale=0.000632745 zero_point=0
0	0xae	-0.051885087
1	0x9f	-0.061376262
2	0xc2	-0.03923019
3	0x08	0.00506196
4	0xfb	-0.003163725
5	0xb6	-0.04682313
6	0x6c	0.06833646
7	0xac	-0.05315058
8	0xf6	-0.00632745
9	0x30	0.03037176
10	0xb3	-0.048721362
11	0x24	0.02277882
12	0x41	0.041128423
13	0x6b	0.06770372
14	0xa2	-0.05947803
15	0x53	0.052517835
16	0x5d	0.05884528
17	0x5e	0.05947803
18	0xbb	-0.043659404
19	0xbc	-0.04302666
20	0x27	0.024677055
21	0x06	0.00379647
22	0xfd	-0.001898235
23	0x20	0.02024784
24	0xf3	-0.008225685
25	0xce	-0.031637248
26	0xd5	-0.027208034
27	0x4c	0.048088618
28	0x18	0.01518588
29	0x63	0.062641755
30	0x2c	0.027840778
31	0xad	-0.052517835
32	0x33	0.032269996
33	0xcf	-0.031004503
34	0xb9	-0.044924892
35	0x00	0.0
36	0x38	0.035433717
37	0xa5	-0.057579793
38	0xc6	-0.03669921
39	0xaf	-0.051252343
40	0xfc	-0.00253098
41	0x6c	0.06833646
42	0xcd	-0.032269996
43	0x32	0.031637248
44	0x57	0.055048812
45	0x5b	0.057579793
46	0xca	-0.03416823
47	0xad	-0.052517835
48	0xf2	-0.008858429
49	0xc5	-0.037331954
50	0x38	0.035433717
51	0x2d	0.028473524
52	0x28	0.0253098
53	0xea	-0.013920389
54	0xd7	-0.025942544
55	0x53	0.052517835
56	0x9b	-0.06390724
57	0x62	0.062009007
58	0xc5	-0.037331954
59	0x35	0.033535484
60	0x55	0.053783324
61	0xd0	-0.03037176
62	0xe0	-0.02024784
63	0xce	-0.031637248
64	0x3c	0.037964698
65	0xa4	-0.058212537
66	0xc7	-0.036066465
67	0x54	0.05315058
68	0x18	0.01518588
69	0x35	0.033535484
70	0xac	-0.05315058
71	0x2b	0.027208034
72	0x65	0.06390724
73	0x92	-0.069601946
74	0x34	0.03290274
75	0xdb	-0.023411565
76	0x05	0.003163725
77	0x21	0.020880584
78	0x9f	-0.061376262
79	0x12	0.01138941
80	0xe9	-0.014553134
81	0xda	-0.024044309
82	0x09	0.005694705
83	0xf7	-0.005694705
84	0x5a	0.05694705
85	0x98	-0.06580548
86	0x23	0.022146074
87	0x49	0.046190385
88	0xbe	-0.041761167
89	0x33	0.032269996
90	0xd5	-0.027208034
91	0xd1	-0.029739015
92	0x9b	-0.06390724
93	0xfd	-0.001898235
94	0x58	0.055681556
95	0x14	0.0126549
96	0x1b	0.017084114
97	0x49	0.046190385
98	0x98	-0.06580548
99	0xb2	-0.04935411
100	0x49	0.046190385
101	0xdd	-0.022146074
102	0x1e	0.018982349
103	0x3b	0.037331954
104	0x67	0.06517273
105	0xf5	-0.0069601946
106	0xc6	-0.03669921
107	0xf5	-0.0069601946
108	0x6d	0.068969205
109	0x5f	0.060110774
110	0xa1	-0.060110774
111	0xd9	-0.024677055
112	0x35	0.033535484
113	0xea	-0.013920389
114	0xf3	-0.008225685
115	0x47	0.044924892
116	0x9d	-0.062641755
117	0x35	0.033535484
118	0x3b	0.037331954
119	0x5c	0.058212537
120	0xb2	-0.04935411
121	0xdb	-0.023411565
122	0x9e	-0.062009007
123	0xf8	-0.00506196
124	0x39	0.036066465
125	0x31	0.031004503
126	0xb0	-0.0506196
127	0x0f	0.0094911745
128	0x5e	0.05947803
129	0x33	0.032269996
130	0xf3	-0.008225685
131	0x56	0.054416068
132	0x28	0.0253098
133	0x2a	0.02657529
134	0x35	0.033535484
135	0x26	0.024044309
136	0xcc	-0.03290274
137	0x99	-0.06517273
138	0xd0	-0.03037176
139	0x6a	0.06707097
140	0xf6	-0.00632745
141	0xe8	-0.01518588
142	0x0f	0.0094911745
143	0xa7	-0.056314304
144	0xa0	-0.06074352
145	0xff	-0.000632745
146	0xc7	-0.036066465
147	0xab	-0.053783324
148	0xd1	-0.029739015
149	0xe0	-0.02024784
150	0xed	-0.012022154
151	0x99	-0.06517273
152	0x41	0.041128423
153	0x00	0.0
154	0xa9	-0.055048812
155	0xe9	-0.014553134
156	0x27	0.024677055
157	0xb3	-0.048721362
158	0x96	-0.06707097
159	0xd4	-0.027840778
160	0x6f	0.07023469
161	0x20	0.02024784
162	0xc1	-0.039862934
163	0x4f	0.049986854
164	0x1f	0.019615095
165	0xd0	-0.03037176
166	0x3c	0.037964698
167	0x47	0.044924892
168	0x43	0.042393915
169	0x44	0.04302666
170	0x38	0.035433717
171	0xb5	-0.047455873
172	0x53	0.052517835
173	0x49	0.046190385
174	0x01	0.000632745
175	0x05	0.003163725
176	0x24	0.02277882
177	0xd1	-0.029739015
178	0x99	-0.06517273
179	0xcc	-0.03290274
180	0x1a	0.01645137
181	0x59	0.056314304
182	0x09	0.005694705
183	0xfb	-0.003163725
184	0xeb	-0.013287645
185	0xcf	-0.031004503
186	0xdf	-0.020880584
187	0x06	0.00379647
188	0xb3	-0.048721362
189	0x2e	0.029106269
190	0xad	-0.052517835
191	0xc5	-0.037331954
192	0x56	0.054416068
193	0x4d	0.048721362
194	0x08	0.00506196
195	0xd3	-0.028473524
196	0xa3	-0.05884528
197	0x95	-0.06770372
198	0x58	0.055681556
199	0xd0	-0.03037176
200	0x41	0.041128423
201	0xe4	-0.017716859
202	0x38	0.035433717
203	0x10	0.01012392
204	0x3f	0.039862934
205	0xee	-0.01138941
206	0x97	-0.06643822
207	0x49	0.046190385
208	0xfb	-0.003163725
209	0x48	0.04555764
210	0xab	-0.053783324
211	0x40	0.04049568
212	0x2a	0.02657529
213	0xdb	-0.023411565
214	0x2b	0.027208034
215	0xbf	-0.041128423
216	0x6d	0.068969205
217	0x58	0.055681556
218	0xc0	-0.04049568
219	0x11	0.010756665
220	0x2c	0.027840778
221	0xe6	-0.01645137
222	0xe9	-0.014553134
223	0x61	0.061376262
224	0xd1	-0.029739015
225	0xa0	-0.06074352
226	0x18	0.01518588
227	0xc7	-0.036066465
228	0x2a	0.02657529
229	0x1c	0.017716859
230	0xcc	-0.03290274
231	0xae	-0.051885087
232	0x56	0.054416068
233	0x5f	0.060110774
234	0x18	0.01518588
235	0x72	0.07213293
236	0xb3	-0.048721362
237	0x1c	0.017716859
238	0xb1	-0.049986854
239	0xbd	-0.042393915
240	0xdd	-0.022146074
241	0xa7	-0.056314304
242	0xe0	-0.02024784
243	0xb5	-0.047455873
244	0xab	-0.053783324
245	0x05	0.003163725
246	0xe2	-0.018982349
247	0x5d	0.05884528
248	0xfa	-0.00379647
249	0x64	0.063274495
250	0x49	0.046190385
251	0xd3	-0.028473524
252	0xd9	-0.024677055
253	0xa3	-0.05884528
254	0xcb	-0.033535484
255	0xda	-0.024044309

model/mobilenetv2_0.50_64/Conv_1/Conv2D i1 [1280, 1, 1, 160]
0	0x81	-127
1	0x62	98
2	0xe6	-26
3	0x11	17
4	0xc3	-61
5	0xce	-50
6	0xb0	-80
7	0x4f	79
8	0x98	-104
9	0x48	72
10	0xef	-17
11	0xeb	-21
12	0xe0	-32
13	0x40	64
14	0xdd	-35
15	0xca	-54
16	0x5c	92
17	0xf8	-8
18	0xe2	-30
19	0x38	56
20	0x5c	92
21	0xbc	-68
22	0x9b	-101
23	0x4b	75
24	0x6f	111
25	0xe1	-31
26	0x2e	46
27	0x63	99
28	0x37	55
29	0x12	18
30	0x27	39
31	0xcf	-49
32	0x75	117
33	0xff	-1
34	0x5c	92
35	0x55	85
36	0xab	-85
37	0x14	20
38	0x2a	42
39	0x5d	93
40	0xcb	-53
41	0x06	6
42	0x05	5
43	0xe9	-23
44	0x93	-109
45	0x9d	-99
46	0x31	49
47	0xbf	-65
48	0x0b	11
49	0xb1	-79
50	0x25	37
51	0x62	98
52	0x37	55
53	0x0b	11
54	0x01	1
55	0xba	-70
56	0x1c	28
57	0xd3	-45
58	0xfd	-3
59	0x96	-106
60	0x79	121
61	0x04	4
62	0x61	97
63	0x9d	-99
64	0xee	-18
65	0xbb	-69
66	0xac	-84
67	0xb0	-80
68	0x6c	108
69	0x9a	-102
70	0x17	23
71	0xc0	-64
72	0x60	96
73	0x11	17
74	0x14	20
75	0xc4	-60
76	0x42	66
77	0xe5	-27
78	0xf4	-12
79	0xe8	-24
80	0xb2	-78
81	0x96	-106
82	0x6c	108
83	0xb8	-72
84	0xf2	-14
85	0x54	84
86	0x68	104
87	0x4e	78
88	0x4d	77
89	0x5b	91
90	0xb1	-79
91	0xa4	-92
92	0xb1	-79
93	0x65	101
94	0x1f	31
95	0xbd	-67
96	0xe4	-28
97	0x32	50
98	0x9f	-97
99	0xf1	-15
100	0x3f	63
101	0x44	68
102	0xee	-18
103	0x54	84
104	0xda	-38
105	0x13	19
106	0x59	89
107	0xea	-22
108	0xc4	-60
109	0xa6	-90
110	0x03	3
111	0x5a	90
112	0xf4	-12
113	0x77	119
114	0xbc	-68
115	0x34	52
116	0xd3	-45
117	0x21	33
118	0x4f	79
119	0xe3	-29
120	0x72	114
121	0x07	7
122	0x36	54
123	0xd9	-39
124	0x48	72
125	0x22	34
126	0xdc	-36
127	0x24	36
128	0x37	55
129	0x19	25
130	0xe1	-31
131	0x68	104
132	0x24	36
133	0x3f	63
134	0x97	-105
135	0x1d	29
136	0x33	51
137	0xcf	-49
138	0x12	18
139	0xe8	-24
140	0xa1	-95
141	0xd9	-39
142	0x55	85
143	0x3f	63
144	0x5f	95
145	0x42	66
146	0xb4	-76
147	0x15	21
148	0x1d	29
149	0x1e	30
150	0x04	4
151	0x38	56
152	0xac	-84
153	0x78	120
154	0xca	-54
155	0x24	36
156	0x65	101
157	0xaa	-86
158	0x12	18
159	0x1a	26
160	0x98	-104
161	0xd2	-46
162	0x11	17
163	0x07	7
164	0xe6	-26
165	0x1a	26
166	0x95	-107
167	0x7f	127
168	0xec	-20
169	0x6d	109
170	0x46	70
171	0xca	-54
172	0xaa	-86
173	0x5a	90
174	0xf5	-11
175	0x4c	76
176	0xcb	-53
177	0x4b	75
178	0x29	41
179	0x38	56
180	0xd5	-43
181	0xaf	-81
182	0xbb	-69
183	0xc0	-64
184	0x59	89
185	0xe1	-31
186	0xb1	-79
187	0xb4	-76
188	0x6b	107
189	0x6a	106
190	0xd7	-41
191	0x51	81
192	0x6a	106
193	0xec	-20
194	0x74	116
195	0x03	3
196	0xc5	-59
197	0x78	120
198	0xae	-82
199	0x23	35
200	0xce	-50
201	0x66	102
202	0x73	115
203	0xa9	-87
204	0xfa	-6
205	0xff	-1
206	0x6f	111
207	0x74	116
208	0x57	87
209	0x4e	78
210	0x65	101
211	0xfa	-6
212	0x61	97
213	0x35	53
214	0x03	3
215	0xd7	-41
216	0x6c	108
217	0xfe	-2
218	0x8b	-117
219	0xda	-38
220	0xdc	-36
221	0x68	104
222	0xfb	-5
223	0xd4	-44
224	0x62	98
225	0x5e	94
226	0x3b	59
227	0x6f	111
228	0x1f	31
229	0xa1	-95
230	0x77	119
231	0xe5	-27
232	0xdb	-37
233	0x1f	31
234	0x52	82
235	0xd1	-47
236	0x0c	12
237	0xc7	-57
238	0xf9	-7
239	0xac	-84
240	0xf0	-16
241	0x56	86
242	0xc0	-64
243	0xf3	-13
244	0xc2	-62
245	0x09	9
246	0xd3	-45
247	0xe1	-31
248	0x08	8
249	0xf6	-10
250	0x3a	58
251	0x6d	109
252	0xa1	-95
253	0x05	5
254	0x61	97
255	0x4a	74

model/mobilenetv2_0.50_64/block_16_project/Conv2D i1 [160, 1, 1, 480]
0	0xe1	-31
1	0x69	105
2	0x64	100
3	0x30	48
4	0xb0	-80
5	0xee	-18
6	0x3b	59
7	0xc8	-56
8	0x3f	63
9	0xb9	-71
10	0x65	101
11	0xaa	-86
12	0x93	-109
13	0xcf	-49
14	0xd7	-41
15	0xb1	-79
16	0xe0	-32
17	0x6c	108
18	0x9b	-101
19	0x8b	-117
20	0x29	41
21	0xd1	-47
22	0x05	5
23	0x26	38
24	0xb9	-71
25	0x0f	15
26	0xba	-70
27	0x25	37
28	0x65	101
29	0x51	81
30	0x34	52
31	0xf6	-10
32	0x13	19
33	0xfd	-3
34	0xcf	-49
35	0xde	-34
36	0x1c	28
37	0x89	-119
38	0xbd	-67
39	0xe0	-32
40	0x24	36
41	0x08	8
42	0x99	-103
43	0xf4	-12
44	0xb8	-72
45	0x5e	94
46	0xe7	-25
47	0xcd	-51
48	0xe7	-25
49	0xad	-83
50	0x20	32
51	0xaf	-81
52	0x24	36
53	0x6f	111
54	0xff	-1
55	0x3f	63
56	0x4e	78
57	0x61	97
58	0x8b	-117
59	0x6e	110
60	0x2f	47
61	0xb2	-78
62	0x5b	91
63	0xf2	-14
64	0x73	115
65	0x29	41
66	0xff	-1
67	0xea	-22
68	0x21	33
69	0x21	33
70	0x31	49
71	0x66	102
72	0xab	-85
73	0x3d	61
74	0x08	8
75	0xf3	-13
76	0x48	72
77	0x6a	106
78	0xb3	-77
79	0x0e	14
80	0xec	-20
81	0x96	-106
82	0x00	0
83	0x4f	79
84	0x2e	46
85	0x34	52
86	0x66	102
87	0xe7	-25
88	0x25	37
89	0x3c	60
90	0x28	40
91	0x00	0
92	0xd4	-44
93	0xaf	-81
94	0x25	37
95	0xbb	-69
96	0x98	-104
97	0x43	67
98	0x50	80
99	0xec	-20
100	0x93	-109
101	0xeb	-21
102	0xe2	-30
103	0xfc	-4
104	0x56	86
105	0x57	87
106	0x68	104
107	0x68	104
108	0x4d	77
109	0x1c	28
110	0xd9	-39
111	0xc4	-60
112	0x24	36
113	0x04	4
114	0x69	105
115	0x40	64
116	0xcb	-53
117	0xd8	-40
118	0x06	6
119	0xef	-17
120	0x16	22
121	0x0b	11
122	0xaf	-81
123	0x27	39
124	0x68	104
125	0x16	22
126	0xb2	-78
127	0xf2	-14
128	0xee	-18
129	0xff	-1
130	0x47	71
131	0x48	72
132	0x96	-106
133	0x14	20
134	0xd5	-43
135	0x09	9
136	0xfa	-6
137	0xf5	-11
138	0xc0	-64
139	0xa6	-90
140	0x0d	13
141	0x20	32
142	0xb7	-73
143	0x72	114
144	0xd6	-42
145	0x9a	-102
146	0x65	101
147	0x73	115
148	0x0a	10
149	0xf4	-12
150	0x92	-110
151	0x70	112
152	0xdc	-36
153	0x63	99
154	0xb4	-76
155	0xb2	-78
156	0x45	69
157	0xf6	-10
158	0x32	50
159	0x5d	93
160	0x3b	59
161	0x3a	58
162	0x45	69
163	0x56	86
164	0x51	81
165	0x18	24
166	0x95	-107
167	0xc1	-63
168	0x3d	61
169	0x01	1
170	0xde	-34
171	0x07	7
172	0x72	114
173	0x03	3
174	0x41	65
175	0x48	72
176	0xa3	-93
177	0xf5	-11
178	0xf3	-13
179	0x67	103
180	0x06	6
181	0x9f	-97
182	0x89	-119
183	0xd4	-44
184	0xbb	-69
185	0x55	85
186	0x40	64
187	0x5c	92
188	0xc1	-63
189	0x33	51
190	0xe7	-25
191	0x59	89
192	0xb2	-78
193	0x4c	76
194	0x79	121
195	0x5f	95
196	0x6a	106
197	0x04	4
198	0x40	64
199	0xdc	-36
200	0x94	-108
201	0xfb	-5
202	0x27	39
203	0x8d	-115
204	0xfc	-4
205	0x3f	63
206	0xbf	-65
207	0xb1	-79
208	0x73	115
209	0x15	21
210	0xa8	-88
211	0x33	51
212	0x69	105
213	0x03	3
214	0xeb	-21
215	0x6e	110
216	0xf9	-7
217	0x52	82
218	0xdf	-33
219	0x89	-119
220	0xf6	-10
221	0x55	85
222	0x63	99
223	0xfd	-3
224	0xe1	-31
225	0x02	2
226	0x1c	28
227	0x0d	13
228	0xfb	-5
229	0x5d	93
230	0x6e	110
231	0x6c	108
232	0xa7	-89
233	0x87	-121
234	0x04	4
235	0x01	1
236	0x2f	47
237	0xb8	-72
238	0x27	39
239	0x69	105
240	0xdf	-33
241	0xea	-22
242	0x28	40
243	0x21	33
244	0x4b	75
245	0x1a	26
246	0xa8	-88
247	0x66	102
248	0xe7	-25
249	0x6a	106
250	0x19	25
251	0x40	64
252	0x2d	45
253	0x7f	127
254	0xe0	-32
255	0x04	4

model/mobilenetv2_0.50_64/block_16_depthwise_BN/FusedBatchNormV3;model/mobilenetv2_0.50_64/block_16_depthwise/depthwise i1 [1, 3, 3, 480]
0	0xf2	-14
1	0x3b	59
2	0x8f	-113
3	0x7f	127
4	0x0a	10
5	0xd9	-39
6	0x7c	124
7	0x53	83
8	0x82	-126
9	0xb0	-80
10	0xd4	-44
11	0x3d	61
12	0x06	6
13	0xda	-38
14	0xd9	-39
15	0x2b	43
16	0xe0	-32
17	0xbf	-65
18	0x38	56
19	0x92	-110
20	0x03	3
21	0xa2	-94
22	0xbe	-66
23	0x85	-123
24	0x2c	44
25	0x7f	127
26	0xc2	-62
27	0x8e	-114
28	0x12	18
29	0xc6	-58
30	0xb8	-72
31	0xcc	-52
32	0x79	121
33	0xb7	-73
34	0xf5	-11
35	0x0c	12
36	0x00	0
37	0x8e	-114
38	0x00	0
39	0xb6	-74
40	0x5a	90
41	0xc4	-60
42	0xa8	-88
43	0xa0	-96
44	0xb4	-76
45	0x81	-127
46	0xec	-20
47	0x7e	126
48	0x94	-108
49	0xea	-22
50	0x3f	63
51	0x81	-127
52	0x04	4
53	0x14	20
54	0x4d	77
55	0x84	-124
56	0xf4	-12
57	0xe0	-32
58	0x5f	95
59	0x19	25
60	0x81	-127
61	0x52	82
62	0xff	-1
63	0xa3	-93
64	0x66	102
65	0xe9	-23
66	0x76	118
67	0xf1	-15
68	0xcb	-53
69	0x77	119
70	0x58	88
71	0xa3	-93
72	0x87	-121
73	0x4c	76
74	0x51	81
75	0x94	-108
76	0x1e	30
77	0x10	16
78	0x30	48
79	0x11	17
80	0xb9	-71
81	0x0e	14
82	0x4c	76
83	0x31	49
84	0x48	72
85	0x24	36
86	0x26	38
87	0x11	17
88	0x43	67
89	0xba	-70
90	0xa4	-92
91	0x2a	42
92	0xdf	-33
93	0xde	-34
94	0x58	88
95	0x98	-104
96	0xdf	-33
97	0xca	-54
98	0xc2	-62
99	0xef	-17
100	0x48	72
101	0x5f	95
102	0x8f	-113
103	0x81	-127
104	0x42	66
105	0xbd	-67
106	0xab	-85
107	0xee	-18
108	0x08	8
109	0x65	101
110	0x12	18
111	0x1b	27
112	0xd4	-44
113	0x28	40
114	0xe4	-28
115	0xa4	-92
116	0x34	52
117	0xd3	-45
118	0xb7	-73
119	0xa6	-90
120	0x11	17
121	0xcb	-53
122	0x7f	127
123	0xdb	-37
124	0x5e	94
125	0xd8	-40
126	0x3e	62
127	0x6f	111
128	0x7f	127
129	0x5e	94
130	0x45	69
131	0x2b	43
132	0xb3	-77
133	0x64	100
134	0xfe	-2
135	0x7f	127
136	0xda	-38
137	0xaa	-86
138	0x81	-127
139	0x92	-110
140	0x63	99
141	0x3d	61
142	0x47	71
143	0x19	25
144	0xe9	-23
145	0x04	4
146	0x2b	43
147	0x10	16
148	0xb9	-71
149	0xd6	-42
150	0xa7	-89
151	0x24	36
152	0x48	72
153	0x02	2
154	0x01	1
155	0xc6	-58
156	0xcf	-49
157	0x03	3
158	0x58	88
159	0xb1	-79
160	0x5b	91
161	0xef	-17
162	0xb9	-71
163	0x9e	-98
164	0x64	100
165	0x07	7
166	0xd3	-45
167	0xf1	-15
168	0xe8	-24
169	0x2a	42
170	0x74	116
171	0xf2	-14
172	0x5c	92
173	0x49	73
174	0x0d	13
175	0xa4	-92
176	0xc9	-55
177	0x2c	44
178	0x2f	47
179	0x0c	12
180	0xcc	-52
181	0x2b	43
182	0x0a	10
183	0xd6	-42
184	0x33	51
185	0x38	56
186	0xa5	-91
187	0x00	0
188	0x21	33
189	0xfa	-6
190	0x3b	59
191	0xbf	-65
192	0x90	-112
193	0xaf	-81
194	0xe5	-27
195	0x44	68
196	0xa5	-91
197	0x79	121
198	0x0f	15
199	0x81	-127
200	0x37	55
201	0x41	65
202	0xfd	-3
203	0xc3	-61
204	0x63	99
205	0xce	-50
206	0x93	-109
207	0x4c	76
208	0x33	51
209	0x65	101
210	0x2f	47
211	0x5d	93
212	0x65	101
213	0xf1	-15
214	0x32	50
215	0xf3	-13
216	0x0b	11
217	0x3d	61
218	0xca	-54
219	0xe9	-23
220	0xa2	-94
221	0x41	65
222	0x19	25
223	0xe9	-23
224	0xf1	-15
225	0xed	-19
226	0x83	-125
227	0xd0	-48
228	0xf5	-11
229	0xe7	-25
230	0x8a	-118
231	0xb9	-71
232	0x40	64
233	0xb4	-76
234	0xde	-34
235	0x5c	92
236	0xdd	-35
237	0xe5	-27
238	0xea	-22
239	0x07	7
240	0xf8	-8
241	0xb3	-77
242	0xce	-50
243	0x34	52
244	0x97	-105
245	0xb8	-72
246	0x97	-105
247	0x4a	74
248	0xa9	-87
249	0x4d	77
250	0xfa	-6
251	0x1e	30
252	0x87	-121
253	0x58	88
254	0x29	41
255	0xe0	-32

model/mobilenetv2_0.50_64/block_16_expand/Conv2D i1 [480, 1, 1, 80]
0	0x57	87
1	0xa2	-94
2	0xe1	-31
3	0x0d	13
4	0xaa	-86
5	0x21	33
6	0x39	57
7	0xa1	-95
8	0x9a	-102
9	0x4c	76
10	0x16	22
11	0x50	80
12	0x6d	109
13	0x8a	-118
14	0xea	-22
15	0xa9	-87
16	0xe4	-28
17	0x12	18
18	0xeb	-21
19	0x5a	90
20	0x55	85
21	0xa8	-88
22	0x14	20
23	0xfd	-3
24	0x5f	95
25	0x33	51
26	0x17	23
27	0x9a	-102
28	0xff	-1
29	0x81	-127
30	0xa9	-87
31	0x17	23
32	0xc5	-59
33	0xa3	-93
34	0x52	82
35	0x91	-111
36	0x03	3
37	0x36	54
38	0xdf	-33
39	0xe3	-29
40	0x14	20
41	0x3e	62
42	0x28	40
43	0x7a	122
44	0xf8	-8
45	0xc9	-55
46	0xfd	-3
47	0x73	115
48	0xcb	-53
49	0x6f	111
50	0xb3	-77
51	0x47	71
52	0xc8	-56
53	0xb3	-77
54	0x67	103
55	0x19	25
56	0xcc	-52
57	0x36	54
58	0x2b	43
59	0x6f	111
60	0xac	-84
61	0x37	55
62	0x95	-107
63	0xd4	-44
64	0x5d	93
65	0x57	87
66	0x71	113
67	0x3f	63
68	0x1c	28
69	0x11	17
70	0xa8	-88
71	0x3d	61
72	0xa6	-90
73	0x84	-124
74	0xbb	-69
75	0xd1	-47
76	0xc0	-64
77	0x65	101
78	0x93	-109
79	0x39	57
80	0xeb	-21
81	0x4e	78
82	0x49	73
83	0x59	89
84	0x41	65
85	0xb7	-73
86	0x1e	30
87	0x92	-110
88	0xd4	-44
89	0xed	-19
90	0x24	36
91	0x08	8
92	0x3f	63
93	0xcd	-51
94	0x92	-110
95	0xfb	-5
96	0x0f	15
97	0x20	32
98	0xd3	-45
99	0xd3	-45
100	0xc2	-62
101	0x72	114
102	0x4c	76
103	0xf0	-16
104	0x91	-111
105	0xe5	-27
106	0x81	-127
107	0xd0	-48
108	0x13	19
109	0xa5	-91
110	0xc8	-56
111	0x5d	93
112	0xb9	-71
113	0x05	5
114	0xd1	-47
115	0xba	-70
116	0xcd	-51
117	0x15	21
118	0xa0	-96
119	0xef	-17
120	0x52	82
121	0xea	-22
122	0xb0	-80
123	0x73	115
124	0x37	55
125	0xb1	-79
126	0x1a	26
127	0x45	69
128	0x95	-107
129	0x0c	12
130	0x42	66
131	0x64	100
132	0xec	-20
133	0xd9	-39
134	0xa8	-88
135	0x30	48
136	0x72	114
137	0x33	51
138	0x06	6
139	0x46	70
140	0xf7	-9
141	0x89	-119
142	0x65	101
143	0x2d	45
144	0xdc	-36
145	0xcc	-52
146	0xf9	-7
147	0x29	41
148	0x61	97
149	0xdd	-35
150	0xbf	-65
151	0x5f	95
152	0xdf	-33
153	0x30	48
154	0xdb	-37
155	0x0e	14
156	0x8b	-117
157	0x30	48
158	0x10	16
159	0x72	114
160	0x3e	62
161	0x5a	90
162	0x5c	92
163	0xe1	-31
164	0xe5	-27
165	0x8c	-116
166	0xbd	-67
167	0xf7	-9
168	0xc0	-64
169	0x4e	78
170	0xbd	-67
171	0xf3	-13
172	0xcc	-52
173	0x02	2
174	0xea	-22
175	0x8d	-115
176	0x56	86
177	0x36	54
178	0x21	33
179	0x7f	127
180	0x16	22
181	0xb5	-75
182	0x3d	61
183	0x35	53
184	0x6a	106
185	0x73	115
186	0x71	113
187	0x65	101
188	0x30	48
189	0x64	100
190	0x99	-103
191	0xb7	-73
192	0x9e	-98
193	0xbe	-66
194	0x23	35
195	0xb0	-80
196	0x19	25
197	0xba	-70
198	0x51	81
199	0x4e	78
200	0x3f	63
201	0xb4	-76
202	0x5a	90
203	0xb0	-80
204	0xe6	-26
205	0x4f	79
206	0xef	-17
207	0x5e	94
208	0x47	71
209	0xfe	-2
210	0xeb	-21
211	0x74	116
212	0xab	-85
213	0x8b	-117
214	0xc7	-57
215	0xae	-82
216	0x9a	-102
217	0xff	-1
218	0x30	48
219	0x2c	44
220	0x1b	27
221	0x49	73
222	0x95	-107
223	0x02	2
224	0x8c	-116
225	0x63	99
226	0xed	-19
227	0x6f	111
228	0xc1	-63
229	0xdc	-36
230	0x0c	12
231	0x77	119
232	0x6f	111
233	0x49	73
234	0xd3	-45
235	0xf1	-15
236	0x8d	-115
237	0x11	17
238	0xcd	-51
239	0x0e	14
240	0x3b	59
241	0xb3	-77
242	0x76	118
243	0xc1	-63
244	0x36	54
245	0x6a	106
246	0x12	18
247	0x03	3
248	0xeb	-21
249	0x5e	94
250	0x33	51
251	0x61	97
252	0xdd	-35
253	0x2e	46
254	0xf4	-12
255	0x32	50

model/mobilenetv2_0.50_64/block_15_project/Conv2D i1 [80, 1, 1, 480]
0	0xbb	-69
1	0xa0	-96
2	0x9c	-100
3	0x43	67
4	0x4c	76
5	0x9e	-98
6	0x9f	-97
7	0xd7	-41
8	0x49	73
9	0x00	0
10	0x58	88
11	0xd2	-46
12	0x3a	58
13	0x2e	46
14	0xee	-18
15	0x88	-120
16	0x21	33
17	0x95	-107
18	0x71	113
19	0xff	-1
20	0x40	64
21	0x26	38
22	0x1c	28
23	0xe7	-25
24	0xae	-82
25	0x5d	93
26	0xce	-50
27	0x1c	28
28	0x0e	14
29	0xe4	-28
30	0xa7	-89
31	0xfb	-5
32	0x11	17
33	0xa1	-95
34	0xf4	-12
35	0xba	-70
36	0x49	73
37	0x6c	108
38	0x96	-106
39	0x50	80
40	0x12	18
41	0x1f	31
42	0x2d	45
43	0x34	52
44	0x22	34
45	0x4f	79
46	0xbe	-66
47	0x62	98
48	0xc2	-62
49	0x47	71
50	0x11	17
51	0x0e	14
52	0x74	116
53	0xda	-38
54	0x91	-111
55	0x5c	92
56	0x74	116
57	0xe1	-31
58	0x93	-109
59	0x0b	11
60	0xca	-54
61	0x50	80
62	0x17	23
63	0xcd	-51
64	0xd4	-44
65	0xdc	-36
66	0x09	9
67	0x96	-106
68	0x95	-107
69	0x14	20
70	0xc5	-59
71	0x22	34
72	0x50	80
73	0x5b	91
74	0x14	20
75	0x4d	77
76	0x4e	78
77	0x66	102
78	0xad	-83
79	0xf3	-13
80	0x63	99
81	0xd7	-41
82	0xc5	-59
83	0xf8	-8
84	0x1a	26
85	0x9e	-98
86	0x2c	44
87	0xb3	-77
88	0x8b	-117
89	0xda	-38
90	0x59	89
91	0x4b	75
92	0xba	-70
93	0xe9	-23
94	0x18	24
95	0xc3	-61
96	0x5e	94
97	0x28	40
98	0x1d	29
99	0xc5	-59
100	0x72	114
101	0x2a	42
102	0x41	65
103	0x5e	94
104	0xc0	-64
105	0x74	116
106	0x21	33
107	0xc6	-58
108	0x2f	47
109	0x53	83
110	0x8c	-116
111	0x6d	109
112	0x54	84
113	0x4c	76
114	0x8c	-116
115	0x91	-111
116	0x1a	26
117	0xeb	-21
118	0x35	53
119	0x91	-111
120	0x34	52
121	0x30	48
122	0xd6	-42
123	0x71	113
124	0xca	-54
125	0x57	87
126	0x51	81
127	0x3f	63
128	0xb3	-77
129	0x4b	75
130	0xfc	-4
131	0x61	97
132	0x55	85
133	0x40	64
134	0xc4	-60
135	0xf2	-14
136	0xa1	-95
137	0x70	112
138	0xcc	-52
139	0x3a	58
140	0x2e	46
141	0xb3	-77
142	0x2c	44
143	0x60	96
144	0x68	104
145	0x9b	-101
146	0x0e	14
147	0x40	64
148	0x9e	-98
149	0x69	105
150	0x8e	-114
151	0x6c	108
152	0x68	104
153	0x47	71
154	0xee	-18
155	0xa5	-91
156	0xf4	-12
157	0xc1	-63
158	0xb6	-74
159	0xc9	-55
160	0x9d	-99
161	0x65	101
162	0xea	-22
163	0x3f	63
164	0x05	5
165	0xc9	-55
166	0x3b	59
167	0x97	-105
168	0x2f	47
169	0x03	3
170	0xa0	-96
171	0x62	98
172	0x47	71
173	0xb8	-72
174	0x62	98
175	0x45	69
176	0x4c	76
177	0x6b	107
178	0x01	1
179	0x66	102
180	0x95	-107
181	0xa9	-87
182	0xf6	-10
183	0xd4	-44
184	0xd7	-41
185	0x1c	28
186	0xc8	-56
187	0xc0	-64
188	0x41	65
189	0xff	-1
190	0x20	32
191	0x29	41
192	0xcb	-53
193	0xe6	-26
194	0xfa	-6
195	0xd2	-46
196	0x40	64
197	0x18	24
198	0xec	-20
199	0x57	87
200	0xe7	-25
201	0x54	84
202	0xa9	-87
203	0x59	89
204	0xe6	-26
205	0xaf	-81
206	0xcf	-49
207	0xcd	-51
208	0x43	67
209	0x06	6
210	0x9c	-100
211	0x96	-106
212	0xed	-19
213	0x01	1
214	0xc6	-58
215	0x0f	15
216	0xc8	-56
217	0x24	36
218	0x2a	42
219	0x0a	10
220	0x14	20
221	0xa7	-89
222	0x12	18
223	0xc3	-61
224	0x43	67
225	0xdb	-37
226	0x38	56
227	0x71	113
228	0xb2	-78
229	0xb6	-74
230	0x9e	-98
231	0x21	33
232	0xd5	-43
233	0x4f	79
234	0xda	-38
235	0x2b	43
236	0x1d	29
237	0x9b	-101
238	0xd6	-42
239	0xa5	-91
240	0x4a	74
241	0xc9	-55
242	0x72	114
243	0x2b	43
244	0x4d	77
245	0x97	-105
246	0x77	119
247	0x1a	26
248	0xce	-50
249	0xc1	-63
250	0x4a	74
251	0xe4	-28
252	0x90	-112
253	0x8c	-116
254	0x95	-107
255	0x37	55

model/mobilenetv2_0.50_64/block_15_depthwise_BN/FusedBatchNormV3;model/mobilenetv2_0.50_64/block_15_depthwise/depthwise;model/mobilenetv2_0.50_64/block_16_depthwise/depthwise i1 [1, 3, 3, 480]
0	0x7f	127
1	0x2f	47
2	0xa0	-96
3	0x77	119
4	0x34	52
5	0x1b	27
6	0x3e	62
7	0x91	-111
8	0x08	8
9	0xea	-22
10	0x2f	47
11	0x4b	75
12	0xa9	-87
13	0x6f	111
14	0x55	85
15	0xd4	-44
16	0xe4	-28
17	0x48	72
18	0x67	103
19	0x37	55
20	0xdd	-35
21	0xe5	-27
22	0x92	-110
23	0x91	-111
24	0x36	54
25	0xa0	-96
26	0x1d	29
27	0x07	7
28	0x5b	91
29	0xe1	-31
30	0x36	54
31	0x88	-120
32	0x75	117
33	0x7f	127
34	0x29	41
35	0xf1	-15
36	0x61	97
37	0x81	-127
38	0x7f	127
39	0x7f	127
40	0x9b	-101
41	0x4c	76
42	0x93	-109
43	0xee	-18
44	0x0e	14
45	0x56	86
46	0x81	-127
47	0xc8	-56
48	0x29	41
49	0x3e	62
50	0x33	51
51	0xb4	-76
52	0x67	103
53	0x7f	127
54	0x63	99
55	0x4e	78
56	0xb0	-80
57	0xa1	-95
58	0x26	38
59	0xd3	-45
60	0x4c	76
61	0x45	69
62	0x2f	47
63	0x7f	127
64	0x45	69
65	0x24	36
66	0x81	-127
67	0xcb	-53
68	0xb1	-79
69	0x2c	44
70	0xb3	-77
71	0x98	-104
72	0x31	49
73	0x20	32
74	0x62	98
75	0xb8	-72
76	0x32	50
77	0x7f	127
78	0x58	88
79	0x81	-127
80	0x7d	125
81	0x7d	125
82	0x90	-112
83	0x53	83
84	0x05	5
85	0x26	38
86	0x92	-110
87	0x7f	127
88	0xde	-34
89	0xab	-85
90	0x73	115
91	0x24	36
92	0x58	88
93	0xb2	-78
94	0x6b	107
95	0x0e	14
96	0x4c	76
97	0x95	-107
98	0x2b	43
99	0xb2	-78
100	0x4a	74
101	0x1c	28
102	0x4f	79
103	0x93	-109
104	0x47	71
105	0xfc	-4
106	0x61	97
107	0x8f	-113
108	0x0a	10
109	0x72	114
110	0x4f	79
111	0x0d	13
112	0x63	99
113	0x4d	77
114	0xdd	-35
115	0xd1	-47
116	0xae	-82
117	0x81	-127
118	0x32	50
119	0x99	-103
120	0x48	72
121	0x49	73
122	0x73	115
123	0xf2	-14
124	0x81	-127
125	0x52	82
126	0x2b	43
127	0x81	-127
128	0x5d	93
129	0xd3	-45
130	0xfd	-3
131	0xbd	-67
132	0xf8	-8
133	0x51	81
134	0x20	32
135	0x7f	127
136	0x86	-122
137	0x38	56
138	0x06	6
139	0x90	-112
140	0xa2	-94
141	0xf8	-8
142	0x19	25
143	0xef	-17
144	0x86	-122
145	0xc2	-62
146	0x5f	95
147	0xd1	-47
148	0xdf	-33
149	0xf3	-13
150	0xed	-19
151	0x19	25
152	0x7f	127
153	0x45	69
154	0xcb	-53
155	0x59	89
156	0x14	20
157	0x74	116
158	0x3f	63
159	0xab	-85
160	0x81	-127
161	0xae	-82
162	0x3c	60
163	0x9e	-98
164	0x66	102
165	0x39	57
166	0x4c	76
167	0x00	0
168	0xf0	-16
169	0xc8	-56
170	0xa9	-87
171	0x03	3
172	0x9d	-99
173	0x60	96
174	0xb2	-78
175	0x61	97
176	0xfc	-4
177	0x6f	111
178	0x7f	127
179	0x37	55
180	0xb1	-79
181	0x4a	74
182	0x7f	127
183	0xe0	-32
184	0xc2	-62
185	0x81	-127
186	0x02	2
187	0xe5	-27
188	0xac	-84
189	0xf1	-15
190	0x6b	107
191	0x40	64
192	0x19	25
193	0xe5	-27
194	0x4f	79
195	0x94	-108
196	0x47	71
197	0x66	102
198	0xf7	-9
199	0x2e	46
200	0x07	7
201	0x5a	90
202	0x81	-127
203	0x15	21
204	0xd7	-41
205	0xed	-19
206	0xc7	-57
207	0x38	56
208	0x14	20
209	0x15	21
210	0xb9	-71
211	0xf0	-16
212	0x4b	75
213	0xb1	-79
214	0x7a	122
215	0x7f	127
216	0x81	-127
217	0x83	-125
218	0xc6	-58
219	0x30	48
220	0x72	114
221	0x33	51
222	0x20	32
223	0xcf	-49
224	0x3c	60
225	0xbc	-68
226	0x95	-107
227	0x81	-127
228	0x7f	127
229	0x1a	26
230	0x81	-127
231	0xf0	-16
232	0x5d	93
233	0x6c	108
234	0xd3	-45
235	0x18	24
236	0x86	-122
237	0x17	23
238	0x0e	14
239	0x28	40
240	0x7f	127
241	0x7f	127
242	0xe6	-26
243	0x7b	123
244	0xeb	-21
245	0xf6	-10
246	0x81	-127
247	0x8b	-117
248	0x68	104
249	0x7e	126
250	0x3b	59
251	0xe8	-24
252	0x10	16
253	0xf2	-14
254	0x9f	-97
255	0xea	-22

model/mobilenetv2_0.50_64/block_15_expand/Conv2D i1 [480, 1, 1, 80]
0	0x24	36
1	0x96	-106
2	0x96	-106
3	0x81	-127
4	0xe6	-26
5	0xc9	-55
6	0x42	66
7	0xa5	-91
8	0x0c	12
9	0xb5	-75
10	0x57	87
11	0x55	85
12	0x51	81
13	0x2a	42
14	0x45	69
15	0x39	57
16	0x9c	-100
17	0x99	-103
18	0x38	56
19	0xcf	-49
20	0x7c	124
21	0x2e	46
22	0x9d	-99
23	0x98	-104
24	0xad	-83
25	0xbc	-68
26	0x93	-109
27	0x70	112
28	0x13	19
29	0xa8	-88
30	0x25	37
31	0x90	-112
32	0x34	52
33	0x00	0
34	0x5e	94
35	0xdc	-36
36	0xa5	-91
37	0x99	-103
38	0xab	-85
39	0x89	-119
40	0x0a	10
41	0xa0	-96
42	0xca	-54
43	0x86	-122
44	0x77	119
45	0xd9	-39
46	0x0e	14
47	0x22	34
48	0x49	73
49	0x9b	-101
50	0x2e	46
51	0xed	-19
52	0x0b	11
53	0xf6	-10
54	0xcf	-49
55	0x41	65
56	0xdc	-36
57	0x5c	92
58	0x4c	76
59	0x9b	-101
60	0xa5	-91
61	0xe3	-29
62	0xf8	-8
63	0x11	17
64	0x0d	13
65	0xbf	-65
66	0x77	119
67	0x2c	44
68	0xb2	-78
69	0xda	-38
70	0x98	-104
71	0xe7	-25
72	0xcb	-53
73	0x2f	47
74	0x67	103
75	0xef	-17
76	0xe9	-23
77	0xcc	-52
78	0x39	57
79	0x42	66
80	0x34	52
81	0x04	4
82	0x22	34
83	0xf8	-8
84	0xb6	-74
85	0x59	89
86	0x37	55
87	0x0c	12
88	0x74	116
89	0x53	83
90	0xb4	-76
91	0x49	73
92	0xf3	-13
93	0x92	-110
94	0xb5	-75
95	0x0e	14
96	0xe2	-30
97	0x9d	-99
98	0x24	36
99	0xce	-50
100	0xec	-20
101	0xe4	-28
102	0x0c	12
103	0x68	104
104	0xd6	-42
105	0x70	112
106	0xa0	-96
107	0x6e	110
108	0xda	-38
109	0x5f	95
110	0xa8	-88
111	0xab	-85
112	0xb4	-76
113	0x8b	-117
114	0x33	51
115	0xa5	-91
116	0xdf	-33
117	0x04	4
118	0x4a	74
119	0x62	98
120	0xa0	-96
121	0xf7	-9
122	0x3a	58
123	0xa6	-90
124	0x56	86
125	0x1e	30
126	0x4b	75
127	0x69	105
128	0x33	51
129	0xdb	-37
130	0xd6	-42
131	0x29	41
132	0x42	66
133	0x69	105
134	0x9e	-98
135	0x25	37
136	0x64	100
137	0x99	-103
138	0xf6	-10
139	0x2b	43
140	0xa2	-94
141	0x1f	31
142	0x43	67
143	0x81	-127
144	0xe4	-28
145	0xd5	-43
146	0x9c	-100
147	0x98	-104
148	0xb9	-71
149	0x36	54
150	0x54	84
151	0x6c	108
152	0xef	-17
153	0xe2	-30
154	0xeb	-21
155	0xe2	-30
156	0x6a	106
157	0x54	84
158	0xd7	-41
159	0x0a	10
160	0xf0	-16
161	0x5c	92
162	0x57	87
163	0x85	-123
164	0x29	41
165	0x3a	58
166	0x13	19
167	0x0a	10
168	0xb6	-74
169	0x5a	90
170	0x41	65
171	0x37	55
172	0xef	-17
173	0x97	-105
174	0xa3	-93
175	0x38	56
176	0x03	3
177	0x44	68
178	0x30	48
179	0x2d	45
180	0xbf	-65
181	0xda	-38
182	0xec	-20
183	0x1c	28
184	0x6e	110
185	0xd2	-46
186	0x08	8
187	0x49	73
188	0x10	16
189	0x92	-110
190	0xcc	-52
191	0xaa	-86
192	0xfd	-3
193	0x89	-119
194	0xe2	-30
195	0xd0	-48
196	0x04	4
197	0x71	113
198	0xeb	-21
199	0xe5	-27
200	0xd4	-44
201	0xe8	-24
202	0xcd	-51
203	0xbc	-68
204	0xcb	-53
205	0x8e	-114
206	0x66	102
207	0xec	-20
208	0x60	96
209	0x08	8
210	0x23	35
211	0xd1	-47
212	0xd9	-39
213	0xd4	-44
214	0xbc	-68
215	0xc8	-56
216	0x24	36
217	0xae	-82
218	0x0d	13
219	0x0d	13
220	0xc2	-62
221	0xc9	-55
222	0x19	25
223	0x30	48
224	0xa3	-93
225	0x7f	127
226	0xd3	-45
227	0x86	-122
228	0xe5	-27
229	0xe4	-28
230	0x0f	15
231	0xec	-20
232	0xeb	-21
233	0x42	66
234	0xe4	-28
235	0xcb	-53
236	0x42	66
237	0xff	-1
238	0x1f	31
239	0xf4	-12
240	0xd2	-46
241	0x3f	63
242	0x48	72
243	0x15	21
244	0xc9	-55
245	0xfc	-4
246	0x18	24
247	0x33	51
248	0x7f	127
249	0x15	21
250	0x6e	110
251	0x50	80
252	0xd1	-47
253	0x41	65
254	0x4f	79
255	0xde	-34

model/mobilenetv2_0.50_64/block_14_project/Conv2D i1 [80, 1, 1, 480]
0	0xa9	-87
1	0xbc	-68
2	0x0d	13
3	0x42	66
4	0x65	101
5	0x7c	124
6	0xb5	-75
7	0x90	-112
8	0x01	1
9	0xaf	-81
10	0x43	67
11	0xf8	-8
12	0xca	-54
13	0x69	105
14	0xcc	-52
15	0x4f	79
16	0xf6	-10
17	0x4f	79
18	0x8b	-117
19	0x01	1
20	0x4d	77
21	0x49	73
22	0x12	18
23	0x8c	-116
24	0xa4	-92
25	0xd1	-47
26	0x08	8
27	0x94	-108
28	0x73	115
29	0x40	64
30	0xb4	-76
31	0x5f	95
32	0x6a	106
33	0x58	88
34	0x61	97
35	0xbb	-69
36	0x42	66
37	0x1e	30
38	0x07	7
39	0x61	97
40	0xd8	-40
41	0xe4	-28
42	0x31	49
43	0x94	-108
44	0x23	35
45	0xa7	-89
46	0x19	25
47	0x32	50
48	0xa2	-94
49	0x13	19
50	0x0f	15
51	0x4e	78
52	0x76	118
53	0x3d	61
54	0x96	-106
55	0xd3	-45
56	0x71	113
57	0x94	-108
58	0x04	4
59	0x91	-111
60	0x91	-111
61	0x0c	12
62	0xcf	-49
63	0xb1	-79
64	0xc0	-64
65	0xaa	-86
66	0x9f	-97
67	0x7d	125
68	0x66	102
69	0xa8	-88
70	0x6a	106
71	0xa6	-90
72	0xd2	-46
73	0xf0	-16
74	0x13	19
75	0xa8	-88
76	0xc8	-56
77	0x41	65
78	0xde	-34
79	0xba	-70
80	0x3f	63
81	0x4f	79
82	0xb0	-80
83	0x33	51
84	0x4b	75
85	0x65	101
86	0xac	-84
87	0xa0	-96
88	0xdb	-37
89	0xdf	-33
90	0xb9	-71
91	0x29	41
92	0x3d	61
93	0xcd	-51
94	0x25	37
95	0x4b	75
96	0x52	82
97	0xac	-84
98	0x5f	95
99	0xa9	-87
100	0x27	39
101	0xc3	-61
102	0x7b	123
103	0xc2	-62
104	0x00	0
105	0x08	8
106	0xcb	-53
107	0xdd	-35
108	0x96	-106
109	0xfb	-5
110	0x29	41
111	0x30	48
112	0x24	36
113	0xe3	-29
114	0x9a	-102
115	0xa4	-92
116	0xcb	-53
117	0x5b	91
118	0x83	-125
119	0x86	-122
120	0x0f	15
121	0xb2	-78
122	0xd4	-44
123	0x68	104
124	0x70	112
125	0x29	41
126	0xe6	-26
127	0x24	36
128	0x8e	-114
129	0xa0	-96
130	0x60	96
131	0x95	-107
132	0x1e	30
133	0xd1	-47
134	0xd9	-39
135	0xdd	-35
136	0xd1	-47
137	0x6f	111
138	0xf5	-11
139	0xed	-19
140	0xbd	-67
141	0x62	98
142	0x03	3
143	0x52	82
144	0x0d	13
145	0x40	64
146	0x2d	45
147	0x24	36
148	0x8b	-117
149	0x7a	122
150	0x9a	-102
151	0xbc	-68
152	0xe9	-23
153	0x4c	76
154	0x28	40
155	0x40	64
156	0x2c	44
157	0x1b	27
158	0xe7	-25
159	0xea	-22
160	0x98	-104
161	0x75	117
162	0xc5	-59
163	0x49	73
164	0xcd	-51
165	0xa4	-92
166	0xff	-1
167	0xbc	-68
168	0xa7	-89
169	0xa7	-89
170	0x70	112
171	0xd4	-44
172	0x55	85
173	0x17	23
174	0xb1	-79
175	0x9f	-97
176	0xf1	-15
177	0xcd	-51
178	0x9e	-98
179	0x27	39
180	0x97	-105
181	0x6b	107
182	0x19	25
183	0x3e	62
184	0x68	104
185	0xe2	-30
186	0xbc	-68
187	0x3e	62
188	0xda	-38
189	0xa3	-93
190	0x5b	91
191	0xba	-70
192	0xfc	-4
193	0xf1	-15
194	0x5f	95
195	0x40	64
196	0xc3	-61
197	0x15	21
198	0x48	72
199	0x46	70
200	0x72	114
201	0x05	5
202	0xe3	-29
203	0x16	22
204	0x14	20
205	0x25	37
206	0x45	69
207	0x9b	-101
208	0x4a	74
209	0x42	66
210	0xd6	-42
211	0x67	103
212	0x47	71
213	0x33	51
214	0x10	16
215	0x13	19
216	0x57	87
217	0xf5	-11
218	0x1d	29
219	0xd4	-44
220	0x0a	10
221	0xab	-85
222	0x57	87
223	0xf5	-11
224	0xf0	-16
225	0x60	96
226	0x1d	29
227	0x8a	-118
228	0xcb	-53
229	0x43	67
230	0x9f	-97
231	0x23	35
232	0xc8	-56
233	0x20	32
234	0x93	-109
235	0x3a	58
236	0x58	88
237	0xae	-82
238	0xab	-85
239	0x94	-108
240	0x39	57
241	0xc3	-61
242	0x91	-111
243	0x98	-104
244	0x78	120
245	0xc4	-60
246	0xf2	-14
247	0xd9	-39
248	0x45	69
249	0xa7	-89
250	0x8b	-117
251	0x00	0
252	0xb0	-80
253	0x6e	110
254	0x13	19
255	0x69	105

model/mobilenetv2_0.50_64/block_14_depthwise_BN/FusedBatchNormV3;model/mobilenetv2_0.50_64/block_14_depthwise/depthwise;model/mobilenetv2_0.50_64/block_16_depthwise/depthwise i1 [1, 3, 3, 480]
0	0xd8	-40
1	0xbf	-65
2	0x12	18
3	0xc9	-55
4	0xfc	-4
5	0x30	48
6	0x9b	-101
7	0x36	54
8	0x14	20
9	0x12	18
10	0x7f	127
11	0x81	-127
12	0x23	35
13	0xfb	-5
14	0x1a	26
15	0x57	87
16	0xcb	-53
17	0xc5	-59
18	0x0e	14
19	0x6e	110
20	0x7f	127
21	0x46	70
22	0xb5	-75
23	0x73	115
24	0xb1	-79
25	0xc3	-61
26	0xa7	-89
27	0x04	4
28	0xa3	-93
29	0xb2	-78
30	0x84	-124
31	0x25	37
32	0x7f	127
33	0x81	-127
34	0x31	49
35	0x81	-127
36	0x54	84
37	0xcc	-52
38	0xe2	-30
39	0x15	21
40	0xea	-22
41	0xaf	-81
42	0x4d	77
43	0x7f	127
44	0x44	68
45	0x0e	14
46	0x95	-107
47	0x81	-127
48	0xee	-18
49	0xc4	-60
50	0x81	-127
51	0xa1	-95
52	0xd0	-48
53	0xc6	-58
54	0xf4	-12
55	0x41	65
56	0xb7	-73
57	0x04	4
58	0x4e	78
59	0xdb	-37
60	0x8f	-113
61	0x21	33
62	0x2e	46
63	0x8a	-118
64	0xed	-19
65	0xb8	-72
66	0x7f	127
67	0x95	-107
68	0x09	9
69	0x68	104
70	0xb8	-72
71	0x08	8
72	0xff	-1
73	0xd1	-47
74	0x21	33
75	0x64	100
76	0xe2	-30
77	0x0d	13
78	0xda	-38
79	0x0e	14
80	0x9d	-99
81	0x98	-104
82	0xda	-38
83	0xf3	-13
84	0x74	116
85	0xf1	-15
86	0x81	-127
87	0x90	-112
88	0x81	-127
89	0x5e	94
90	0xb2	-78
91	0xb5	-75
92	0x18	24
93	0x96	-106
94	0xee	-18
95	0x2e	46
96	0xd2	-46
97	0x49	73
98	0x10	16
99	0xe6	-26
100	0x7f	127
101	0x93	-109
102	0xd4	-44
103	0xe9	-23
104	0xcb	-53
105	0x7f	127
106	0x61	97
107	0x08	8
108	0x64	100
109	0xae	-82
110	0x93	-109
111	0x70	112
112	0x8e	-114
113	0x14	20
114	0x40	64
115	0xc8	-56
116	0x1e	30
117	0xe0	-32
118	0x61	97
119	0x2b	43
120	0xd2	-46
121	0x6d	109
122	0x36	54
123	0x1c	28
124	0xa3	-93
125	0xfe	-2
126	0x5a	90
127	0x42	66
128	0x43	67
129	0xc0	-64
130	0xed	-19
131	0xd0	-48
132	0x28	40
133	0x81	-127
134	0xcf	-49
135	0x81	-127
136	0x8f	-113
137	0x30	48
138	0x7f	127
139	0x81	-127
140	0x81	-127
141	0x3c	60
142	0x81	-127
143	0x60	96
144	0x31	49
145	0x45	69
146	0x85	-123
147	0x02	2
148	0x5c	92
149	0xa8	-88
150	0x83	-125
151	0x07	7
152	0x39	57
153	0x02	2
154	0xa7	-89
155	0xc0	-64
156	0x0c	12
157	0x7f	127
158	0xf6	-10
159	0x9f	-97
160	0xfa	-6
161	0xa5	-91
162	0x81	-127
163	0xf3	-13
164	0x1b	27
165	0xfc	-4
166	0xef	-17
167	0x3f	63
168	0x7c	124
169	0x4e	78
170	0x7f	127
171	0x62	98
172	0x10	16
173	0x66	102
174	0x77	119
175	0x7f	127
176	0xf4	-12
177	0xbb	-69
178	0x14	20
179	0xb8	-72
180	0x81	-127
181	0xc3	-61
182	0x0c	12
183	0xe0	-32
184	0x21	33
185	0xd9	-39
186	0x52	82
187	0xc5	-59
188	0x23	35
189	0x08	8
190	0xfd	-3
191	0x13	19
192	0xf3	-13
193	0xf9	-7
194	0x7f	127
195	0xdd	-35
196	0x69	105
197	0x83	-125
198	0xb0	-80
199	0xe7	-25
200	0x13	19
201	0x9d	-99
202	0x81	-127
203	0x34	52
204	0x30	48
205	0x55	85
206	0xe0	-32
207	0xb9	-71
208	0x38	56
209	0x73	115
210	0xeb	-21
211	0x11	17
212	0x2f	47
213	0xf2	-14
214	0x7f	127
215	0x7d	125
216	0xcc	-52
217	0xa8	-88
218	0x9d	-99
219	0xa9	-87
220	0x9b	-101
221	0x47	71
222	0xc9	-55
223	0xd9	-39
224	0x5a	90
225	0x96	-106
226	0x77	119
227	0x3d	61
228	0x8f	-113
229	0xf3	-13
230	0x48	72
231	0x99	-103
232	0xb6	-74
233	0xcb	-53
234	0xf0	-16
235	0x11	17
236	0xd1	-47
237	0x45	69
238	0x09	9
239	0x53	83
240	0x53	83
241	0x4e	78
242	0x56	86
243	0xef	-17
244	0x9f	-97
245	0xa0	-96
246	0x1b	27
247	0xd0	-48
248	0xc1	-63
249	0xb0	-80
250	0x1c	28
251	0x76	118
252	0x9f	-97
253	0xe5	-27
254	0x57	87
255	0xf0	-16

model/mobilenetv2_0.50_64/block_14_expand/Conv2D i1 [480, 1, 1, 80]
0	0xa5	-91
1	0x18	24
2	0xc5	-59
3	0x2c	44
4	0xe6	-26
5	0xc1	-63
6	0x98	-104
7	0x31	49
8	0x20	32
9	0x97	-105
10	0x1e	30
11	0x16	22
12	0x64	100
13	0x42	66
14	0xe7	-25
15	0xc5	-59
16	0x89	-119
17	0xe2	-30
18	0x93	-109
19	0x67	103
20	0x6d	109
21	0x2b	43
22	0x76	118
23	0x3e	62
24	0xa2	-94
25	0x20	32
26	0xbf	-65
27	0xfb	-5
28	0x3a	58
29	0x6d	109
30	0x4c	76
31	0xb6	-74
32	0xdb	-37
33	0x60	96
34	0xa8	-88
35	0x35	53
36	0x8d	-115
37	0xeb	-21
38	0x5a	90
39	0x44	68
40	0xe9	-23
41	0xf0	-16
42	0x90	-112
43	0xb2	-78
44	0xf6	-10
45	0x75	117
46	0x75	117
47	0x3e	62
48	0x35	53
49	0x68	104
50	0x81	-127
51	0x8c	-116
52	0xc7	-57
53	0x71	113
54	0xde	-34
55	0xfe	-2
56	0x2f	47
57	0xe0	-32
58	0x72	114
59	0xf7	-9
60	0x58	88
61	0x33	51
62	0x42	66
63	0x06	6
64	0x68	104
65	0x54	84
66	0x27	39
67	0xbc	-68
68	0xc2	-62
69	0xbe	-66
70	0xed	-19
71	0x71	113
72	0x05	5
73	0xe9	-23
74	0xd7	-41
75	0x94	-108
76	0x07	7
77	0x95	-107
78	0x8a	-118
79	0xf7	-9
80	0xda	-38
81	0x31	49
82	0xd9	-39
83	0x43	67
84	0x21	33
85	0x39	57
86	0xe4	-28
87	0xa8	-88
88	0x21	33
89	0xcd	-51
90	0x7f	127
91	0x34	52
92	0x49	73
93	0x1a	26
94	0x59	89
95	0xc2	-62
96	0x9d	-99
97	0x35	53
98	0x42	66
99	0x30	48
100	0x4a	74
101	0xd8	-40
102	0xa6	-90
103	0x1b	27
104	0xe5	-27
105	0x48	72
106	0xc2	-62
107	0x3f	63
108	0x32	50
109	0x00	0
110	0x25	37
111	0x4d	77
112	0x2e	46
113	0x00	0
114	0xd1	-47
115	0xe8	-24
116	0xff	-1
117	0x3a	58
118	0x92	-110
119	0x4c	76
120	0xa7	-89
121	0x68	104
122	0x96	-106
123	0x9b	-101
124	0xac	-84
125	0x4d	77
126	0x84	-124
127	0x77	119
128	0x5e	94
129	0xfd	-3
130	0x73	115
131	0xa3	-93
132	0x27	39
133	0xc6	-58
134	0xbc	-68
135	0xa4	-92
136	0xda	-38
137	0x2e	46
138	0xf4	-12
139	0x4b	75
140	0xc9	-55
141	0x63	99
142	0xb5	-75
143	0xc1	-63
144	0x49	73
145	0xf3	-13
146	0x99	-103
147	0x4b	75
148	0x02	2
149	0x5b	91
150	0xb3	-77
151	0x5b	91
152	0xfc	-4
153	0xbd	-67
154	0xac	-84
155	0x9e	-98
156	0x39	57
157	0x11	17
158	0xe2	-30
159	0x3d	61
160	0x65	101
161	0x6a	106
162	0x84	-124
163	0x57	87
164	0xa4	-92
165	0xab	-85
166	0x31	49
167	0xb4	-76
168	0xd1	-47
169	0x49	73
170	0x91	-111
171	0xf5	-11
172	0xf8	-8
173	0x64	100
174	0xdd	-35
175	0x01	1
176	0xc1	-63
177	0x81	-127
178	0x13	19
179	0x16	22
180	0x97	-105
181	0xad	-83
182	0x12	18
183	0xeb	-21
184	0x1a	26
185	0xc2	-62
186	0x41	65
187	0xbb	-69
188	0x7f	127
189	0x9c	-100
190	0x97	-105
191	0xa1	-95
192	0x33	51
193	0x46	70
194	0xe8	-24
195	0x32	50
196	0xa7	-89
197	0x45	69
198	0xce	-50
199	0x34	52
200	0x8c	-116
201	0xb1	-79
202	0xc6	-58
203	0xdc	-36
204	0x48	72
205	0xa4	-92
206	0xe2	-30
207	0xf8	-8
208	0x5d	93
209	0xc9	-55
210	0x12	18
211	0x3a	58
212	0x52	82
213	0xd5	-43
214	0x24	36
215	0xd2	-46
216	0x66	102
217	0xdc	-36
218	0xba	-70
219	0x50	80
220	0xec	-20
221	0xe0	-32
222	0x32	50
223	0x49	73
224	0xb4	-76
225	0x38	56
226	0x3e	62
227	0x7c	124
228	0x05	5
229	0x71	113
230	0xb3	-77
231	0xff	-1
232	0xd5	-43
233	0x2b	43
234	0x69	105
235	0xef	-17
236	0x16	22
237	0x1c	28
238	0xc9	-55
239	0xeb	-21
240	0x6e	110
241	0xc0	-64
242	0xdb	-37
243	0xbe	-66
244	0xdd	-35
245	0x03	3
246	0xe7	-25
247	0x93	-109
248	0x1f	31
249	0x28	40
250	0x7e	126
251	0xcb	-53
252	0x26	38
253	0x06	6
254	0xb4	-76
255	0xcc	-52

model/mobilenetv2_0.50_64/block_13_project/Conv2D i1 [80, 1, 1, 288]
0	0xcd	-51
1	0x62	98
2	0x99	-103
3	0x24	36
4	0x6f	111
5	0x34	52
6	0x0d	13
7	0x70	112
8	0x28	40
9	0xf4	-12
10	0x52	82
11	0xb6	-74
12	0xc9	-55
13	0xcd	-51
14	0xd9	-39
15	0xcd	-51
16	0x14	20
17	0x0f	15
18	0x2f	47
19	0x0a	10
20	0x05	5
21	0xbf	-65
22	0x0f	15
23	0x60	96
24	0x19	25
25	0x30	48
26	0xd0	-48
27	0xc8	-56
28	0x3e	62
29	0x99	-103
30	0x5a	90
31	0xdf	-33
32	0xab	-85
33	0x09	9
34	0xea	-22
35	0xb8	-72
36	0xb9	-71
37	0x70	112
38	0xe9	-23
39	0xcb	-53
40	0x1f	31
41	0x4b	75
42	0xec	-20
43	0x2b	43
44	0x93	-109
45	0xac	-84
46	0x0f	15
47	0x7f	127
48	0x54	84
49	0xdf	-33
50	0xc6	-58
51	0xfa	-6
52	0x26	38
53	0x39	57
54	0x50	80
55	0x28	40
56	0x4b	75
57	0x34	52
58	0x6e	110
59	0x19	25
60	0x5a	90
61	0x65	101
62	0x1e	30
63	0x64	100
64	0x79	121
65	0x52	82
66	0x94	-108
67	0xc6	-58
68	0x01	1
69	0x43	67
70	0xa6	-90
71	0x9f	-97
72	0xeb	-21
73	0xab	-85
74	0x4e	78
75	0x78	120
76	0x9c	-100
77	0x0c	12
78	0xe4	-28
79	0xbd	-67
80	0x3c	60
81	0xaf	-81
82	0x8f	-113
83	0xc8	-56
84	0x5c	92
85	0x43	67
86	0xf4	-12
87	0xa0	-96
88	0xb5	-75
89	0x44	68
90	0x2c	44
91	0xed	-19
92	0x2c	44
93	0xbf	-65
94	0xd2	-46
95	0x4d	77
96	0x05	5
97	0xa7	-89
98	0x3f	63
99	0x62	98
100	0x3d	61
101	0xe9	-23
102	0xd9	-39
103	0x32	50
104	0x40	64
105	0xa9	-87
106	0x8d	-115
107	0x2e	46
108	0xd3	-45
109	0x12	18
110	0x5b	91
111	0x92	-110
112	0x04	4
113	0x87	-121
114	0x26	38
115	0xae	-82
116	0x43	67
117	0xe7	-25
118	0x20	32
119	0x19	25
120	0x78	120
121	0xd2	-46
122	0xf8	-8
123	0x75	117
124	0xc3	-61
125	0xfb	-5
126	0xa5	-91
127	0x4b	75
128	0xa9	-87
129	0xa7	-89
130	0xcb	-53
131	0xf1	-15
132	0x34	52
133	0x40	64
134	0xca	-54
135	0xde	-34
136	0x6a	106
137	0xae	-82
138	0xa7	-89
139	0x27	39
140	0x48	72
141	0x66	102
142	0x41	65
143	0xbd	-67
144	0x9d	-99
145	0xe2	-30
146	0x60	96
147	0x0e	14
148	0x6a	106
149	0xf9	-7
150	0x07	7
151	0x9e	-98
152	0xb3	-77
153	0x31	49
154	0x97	-105
155	0xc6	-58
156	0xa1	-95
157	0xf9	-7
158	0x78	120
159	0xf1	-15
160	0x1e	30
161	0xd7	-41
162	0x25	37
163	0x39	57
164	0x9a	-102
165	0x3a	58
166	0xa2	-94
167	0xd7	-41
168	0xc1	-63
169	0xd1	-47
170	0x98	-104
171	0x5f	95
172	0xb8	-72
173	0x4f	79
174	0xcd	-51
175	0x0e	14
176	0x2a	42
177	0x72	114
178	0xfd	-3
179	0xb9	-71
180	0x64	100
181	0x23	35
182	0xf1	-15
183	0x2b	43
184	0x97	-105
185	0xbb	-69
186	0x24	36
187	0xeb	-21
188	0x09	9
189	0xec	-20
190	0x9b	-101
191	0x04	4
192	0x70	112
193	0x29	41
194	0x1b	27
195	0x39	57
196	0x49	73
197	0x5c	92
198	0xf9	-7
199	0x25	37
200	0x51	81
201	0xf5	-11
202	0xf9	-7
203	0x31	49
204	0x27	39
205	0x22	34
206	0xde	-34
207	0xea	-22
208	0xc0	-64
209	0xae	-82
210	0xe7	-25
211	0xb7	-73
212	0x70	112
213	0xe9	-23
214	0xdc	-36
215	0x9a	-102
216	0x60	96
217	0xc0	-64
218	0xdf	-33
219	0x5b	91
220	0x61	97
221	0xfa	-6
222	0x89	-119
223	0x95	-107
224	0x71	113
225	0x67	103
226	0x1e	30
227	0x43	67
228	0xa8	-88
229	0x0c	12
230	0xee	-18
231	0xa4	-92
232	0x0a	10
233	0x70	112
234	0x91	-111
235	0x16	22
236	0x3b	59
237	0x86	-122
238	0x96	-106
239	0xcd	-51
240	0x58	88
241	0xec	-20
242	0x96	-106
243	0xb1	-79
244	0xdf	-33
245	0x15	21
246	0x3d	61
247	0x5b	91
248	0xf3	-13
249	0xe8	-24
250	0x70	112
251	0xec	-20
252	0x68	104
253	0x9c	-100
254	0x1b	27
255	0x37	55

model/mobilenetv2_0.50_64/block_13_depthwise_BN/FusedBatchNormV3;model/mobilenetv2_0.50_64/block_13_depthwise/depthwise i1 [1, 3, 3, 288]
0	0xfe	-2
1	0xb0	-80
2	0x55	85
3	0x04	4
4	0x79	121
5	0x3f	63
6	0x81	-127
7	0x81	-127
8	0x2d	45
9	0x87	-121
10	0xfd	-3
11	0x3e	62
12	0x81	-127
13	0xd4	-44
14	0x8f	-113
15	0xd2	-46
16	0x3a	58
17	0x81	-127
18	0x81	-127
19	0xb2	-78
20	0x69	105
21	0x45	69
22	0x2c	44
23	0xf9	-7
24	0x7b	123
25	0xf8	-8
26	0x3b	59
27	0x35	53
28	0xd9	-39
29	0xf1	-15
30	0x2e	46
31	0x7f	127
32	0xe0	-32
33	0xfe	-2
34	0xe8	-24
35	0xa1	-95
36	0x17	23
37	0xef	-17
38	0x55	85
39	0xfe	-2
40	0x30	48
41	0x71	113
42	0xe9	-23
43	0x57	87
44	0xbd	-67
45	0x07	7
46	0x6a	106
47	0x81	-127
48	0x04	4
49	0x65	101
50	0x8e	-114
51	0xc1	-63
52	0x7f	127
53	0xb0	-80
54	0xbf	-65
55	0x5b	91
56	0xef	-17
57	0xca	-54
58	0x81	-127
59	0x55	85
60	0xe0	-32
61	0xf5	-11
62	0xa8	-88
63	0xbf	-65
64	0x7f	127
65	0xef	-17
66	0x93	-109
67	0xb8	-72
68	0xd9	-39
69	0x76	118
70	0x3f	63
71	0xd6	-42
72	0xb1	-79
73	0x00	0
74	0x81	-127
75	0x85	-123
76	0x78	120
77	0x25	37
78	0x5e	94
79	0x19	25
80	0xa7	-89
81	0x27	39
82	0x81	-127
83	0x6c	108
84	0xab	-85
85	0x69	105
86	0xc9	-55
87	0x4d	77
88	0x81	-127
89	0x6c	108
90	0x79	121
91	0xf9	-7
92	0x67	103
93	0x7f	127
94	0x85	-123
95	0x81	-127
96	0xe4	-28
97	0x5b	91
98	0x12	18
99	0x50	80
100	0x66	102
101	0x90	-112
102	0x6a	106
103	0x9f	-97
104	0xe0	-32
105	0xe1	-31
106	0x99	-103
107	0xe7	-25
108	0x92	-110
109	0x15	21
110	0x4a	74
111	0x9e	-98
112	0xa9	-87
113	0xcf	-49
114	0x59	89
115	0x77	119
116	0x6b	107
117	0x25	37
118	0x92	-110
119	0xa3	-93
120	0x8e	-114
121	0xd8	-40
122	0x43	67
123	0x74	116
124	0xe3	-29
125	0xec	-20
126	0x70	112
127	0xae	-82
128	0x49	73
129	0xa6	-90
130	0xc8	-56
131	0x67	103
132	0xeb	-21
133	0xd0	-48
134	0x0b	11
135	0x48	72
136	0xf9	-7
137	0xfc	-4
138	0x06	6
139	0x81	-127
140	0x7f	127
141	0xee	-18
142	0x36	54
143	0x20	32
144	0xf1	-15
145	0xf1	-15
146	0xdc	-36
147	0xe8	-24
148	0xcd	-51
149	0xbe	-66
150	0x7f	127
151	0xf3	-13
152	0xe1	-31
153	0xa1	-95
154	0x50	80
155	0xbd	-67
156	0x5f	95
157	0x56	86
158	0xce	-50
159	0xa9	-87
160	0x81	-127
161	0x23	35
162	0xb5	-75
163	0x4c	76
164	0xb5	-75
165	0xc2	-62
166	0x5b	91
167	0xd9	-39
168	0x7c	124
169	0x1c	28
170	0x2f	47
171	0xe5	-27
172	0xe4	-28
173	0xda	-38
174	0x61	97
175	0x24	36
176	0xcf	-49
177	0x56	86
178	0x81	-127
179	0x07	7
180	0xbb	-69
181	0x0d	13
182	0x56	86
183	0x7f	127
184	0x1a	26
185	0x23	35
186	0x81	-127
187	0x7f	127
188	0x21	33
189	0x9c	-100
190	0xed	-19
191	0x7f	127
192	0xfa	-6
193	0xd3	-45
194	0x78	120
195	0x81	-127
196	0xb2	-78
197	0x77	119
198	0x15	21
199	0x09	9
200	0x53	83
201	0x52	82
202	0xd5	-43
203	0xb4	-76
204	0x62	98
205	0x81	-127
206	0x7f	127
207	0x4c	76
208	0xcb	-53
209	0x4d	77
210	0x20	32
211	0x46	70
212	0x81	-127
213	0xc7	-57
214	0x02	2
215	0x5a	90
216	0x8c	-116
217	0x41	65
218	0xcf	-49
219	0x78	120
220	0x99	-103
221	0xa0	-96
222	0x81	-127
223	0x5a	90
224	0x1c	28
225	0xc3	-61
226	0x4e	78
227	0xdf	-33
228	0x92	-110
229	0xc9	-55
230	0x7f	127
231	0x88	-120
232	0x6b	107
233	0x6a	106
234	0x69	105
235	0x2c	44
236	0x9f	-97
237	0xf0	-16
238	0x69	105
239	0xbb	-69
240	0x1f	31
241	0xa0	-96
242	0xaa	-86
243	0x0d	13
244	0x7f	127
245	0x58	88
246	0xc5	-59
247	0xcd	-51
248	0x25	37
249	0xdd	-35
250	0x9c	-100
251	0x6f	111
252	0x2b	43
253	0x0d	13
254	0xef	-17
255	0xcb	-53

model/mobilenetv2_0.50_64/block_13_expand/Conv2D i1 [288, 1, 1, 48]
0	0xb4	-76
1	0x5b	91
2	0xf3	-13
3	0x1c	28
4	0x87	-121
5	0xb1	-79
6	0x0f	15
7	0xb6	-74
8	0x8b	-117
9	0x7b	123
10	0xd4	-44
11	0xf2	-14
12	0xdc	-36
13	0x67	103
14	0xd8	-40
15	0x4a	74
16	0xf9	-7
17	0x62	98
18	0xe3	-29
19	0x85	-123
20	0x1d	29
21	0xff	-1
22	0x31	49
23	0x71	113
24	0xf1	-15
25	0x5b	91
26	0x81	-127
27	0x67	103
28	0x35	53
29	0x87	-121
30	0x46	70
31	0x62	98
32	0xcc	-52
33	0x49	73
34	0x7c	124
35	0xf0	-16
36	0xe0	-32
37	0x88	-120
38	0x01	1
39	0x2b	43
40	0x99	-103
41	0x4c	76
42	0xe7	-25
43	0xe6	-26
44	0xa6	-90
45	0x95	-107
46	0xd4	-44
47	0xba	-70
48	0x19	25
49	0xa1	-95
50	0xfa	-6
51	0x3d	61
52	0xb2	-78
53	0xca	-54
54	0xc0	-64
55	0x00	0
56	0x64	100
57	0xa4	-92
58	0x67	103
59	0x7c	124
60	0x6c	108
61	0x9f	-97
62	0x34	52
63	0x66	102
64	0xf6	-10
65	0x20	32
66	0x0a	10
67	0x3e	62
68	0x36	54
69	0x15	21
70	0xca	-54
71	0x34	52
72	0x81	-127
73	0x55	85
74	0xb1	-79
75	0xc1	-63
76	0xe4	-28
77	0xce	-50
78	0x1a	26
79	0x1f	31
80	0x4a	74
81	0xc3	-61
82	0x59	89
83	0x52	82
84	0x02	2
85	0xa8	-88
86	0xf1	-15
87	0xf3	-13
88	0x6f	111
89	0xe7	-25
90	0x60	96
91	0x6c	108
92	0xff	-1
93	0x6b	107
94	0x55	85
95	0xa3	-93
96	0x3c	60
97	0xd2	-46
98	0x30	48
99	0xcf	-49
100	0x2f	47
101	0x98	-104
102	0x08	8
103	0xdb	-37
104	0x3f	63
105	0xfd	-3
106	0x68	104
107	0x03	3
108	0x9b	-101
109	0x5e	94
110	0x9a	-102
111	0x38	56
112	0x4e	78
113	0xd2	-46
114	0x15	21
115	0x9a	-102
116	0xcb	-53
117	0x06	6
118	0x41	65
119	0xcb	-53
120	0x64	100
121	0x30	48
122	0x97	-105
123	0xd3	-45
124	0x08	8
125	0xcb	-53
126	0x60	96
127	0x4a	74
128	0x32	50
129	0x6c	108
130	0x3a	58
131	0x81	-127
132	0x24	36
133	0xf3	-13
134	0xf8	-8
135	0x47	71
136	0xe6	-26
137	0xa4	-92
138	0x1a	26
139	0xfa	-6
140	0x54	84
141	0xcb	-53
142	0x48	72
143	0x88	-120
144	0x65	101
145	0x90	-112
146	0x07	7
147	0xb2	-78
148	0x7c	124
149	0xb3	-77
150	0x79	121
151	0x45	69
152	0xe4	-28
153	0x98	-104
154	0x95	-107
155	0x93	-109
156	0x0c	12
157	0x23	35
158	0xd4	-44
159	0x6b	107
160	0xfd	-3
161	0xe0	-32
162	0x4b	75
163	0x77	119
164	0xc5	-59
165	0x0e	14
166	0x1f	31
167	0x65	101
168	0x4b	75
169	0x8e	-114
170	0xb6	-74
171	0x01	1
172	0xc0	-64
173	0x2f	47
174	0x0f	15
175	0xdc	-36
176	0x14	20
177	0x7f	127
178	0x38	56
179	0xb5	-75
180	0x38	56
181	0x65	101
182	0x55	85
183	0xca	-54
184	0x00	0
185	0x13	19
186	0xf5	-11
187	0x0e	14
188	0xce	-50
189	0xda	-38
190	0x86	-122
191	0x52	82
192	0x57	87
193	0x21	33
194	0xab	-85
195	0x91	-111
196	0x81	-127
197	0xb8	-72
198	0x31	49
199	0x71	113
200	0x5f	95
201	0x5a	90
202	0x63	99
203	0x2e	46
204	0x25	37
205	0xa7	-89
206	0x95	-107
207	0xa8	-88
208	0x6f	111
209	0x19	25
210	0x0b	11
211	0xe9	-23
212	0x50	80
213	0x9b	-101
214	0xeb	-21
215	0xc8	-56
216	0x10	16
217	0x21	33
218	0xa6	-90
219	0xae	-82
220	0x0c	12
221	0x01	1
222	0x41	65
223	0x52	82
224	0x8e	-114
225	0xd9	-39
226	0x1f	31
227	0x8a	-118
228	0x9e	-98
229	0x54	84
230	0x48	72
231	0x3b	59
232	0x51	81
233	0xf8	-8
234	0x15	21
235	0x29	41
236	0xda	-38
237	0x2b	43
238	0xb9	-71
239	0xaf	-81
240	0x9e	-98
241	0x92	-110
242	0x39	57
243	0x5e	94
244	0x29	41
245	0x8f	-113
246	0xfa	-6
247	0x30	48
248	0xb8	-72
249	0x50	80
250	0xed	-19
251	0x32	50
252	0x76	118
253	0xed	-19
254	0xf9	-7
255	0x86	-122

model/mobilenetv2_0.50_64/block_12_project/Conv2D i1 [48, 1, 1, 288]
0	0x8a	-118
1	0x16	22
2	0xf1	-15
3	0xc0	-64
4	0x19	25
5	0x72	114
6	0x23	35
7	0xb1	-79
8	0x4d	77
9	0x3f	63
10	0xea	-22
11	0xca	-54
12	0x4f	79
13	0x9a	-102
14	0xe3	-29
15	0x72	114
16	0x40	64
17	0x0b	11
18	0x0f	15
19	0x9a	-102
20	0x9f	-97
21	0x77	119
22	0x4a	74
23	0xb3	-77
24	0xeb	-21
25	0xf9	-7
26	0x7a	122
27	0x69	105
28	0x6f	111
29	0x23	35
30	0xd4	-44
31	0x18	24
32	0x4a	74
33	0xfb	-5
34	0xb6	-74
35	0x3c	60
36	0xc9	-55
37	0x00	0
38	0x30	48
39	0xed	-19
40	0x8c	-116
41	0x97	-105
42	0x4a	74
43	0xed	-19
44	0x3d	61
45	0xdd	-35
46	0x47	71
47	0x4a	74
48	0xb2	-78
49	0x4a	74
50	0xef	-17
51	0xae	-82
52	0x6f	111
53	0xcb	-53
54	0xb6	-74
55	0x22	34
56	0x92	-110
57	0xff	-1
58	0xc4	-60
59	0x41	65
60	0xe5	-27
61	0xf0	-16
62	0x6f	111
63	0xe0	-32
64	0x3c	60
65	0xda	-38
66	0xb4	-76
67	0xa4	-92
68	0x18	24
69	0x99	-103
70	0xac	-84
71	0xdb	-37
72	0x22	34
73	0xa8	-88
74	0x22	34
75	0x23	35
76	0xc0	-64
77	0x46	70
78	0xeb	-21
79	0xf7	-9
80	0x2d	45
81	0x0f	15
82	0x16	22
83	0xcc	-52
84	0xaa	-86
85	0xe5	-27
86	0x6e	110
87	0x4a	74
88	0x97	-105
89	0xd7	-41
90	0x89	-119
91	0x58	88
92	0x43	67
93	0x1a	26
94	0xd6	-42
95	0x99	-103
96	0x2c	44
97	0x6f	111
98	0x5e	94
99	0xcb	-53
100	0x2a	42
101	0x06	6
102	0xb1	-79
103	0x0a	10
104	0x9b	-101
105	0xb2	-78
106	0x45	69
107	0xc6	-58
108	0x6a	106
109	0xd9	-39
110	0xaa	-86
111	0x71	113
112	0x32	50
113	0x6c	108
114	0x39	57
115	0xde	-34
116	0x0f	15
117	0xc5	-59
118	0xb0	-80
119	0xc7	-57
120	0x22	34
121	0x68	104
122	0xf9	-7
123	0xc3	-61
124	0x95	-107
125	0x72	114
126	0xad	-83
127	0x4e	78
128	0xe0	-32
129	0x48	72
130	0x97	-105
131	0xfb	-5
132	0xe9	-23
133	0x0e	14
134	0x0a	10
135	0x1c	28
136	0x58	88
137	0x5a	90
138	0xac	-84
139	0x41	65
140	0xa8	-88
141	0xc8	-56
142	0x71	113
143	0x0f	15
144	0x01	1
145	0x44	68
146	0xba	-70
147	0xdf	-33
148	0xee	-18
149	0x15	21
150	0xee	-18
151	0xa2	-94
152	0x00	0
153	0x0c	12
154	0xe7	-25
155	0xfe	-2
156	0xf3	-13
157	0xb0	-80
158	0xfb	-5
159	0x5b	91
160	0xa6	-90
161	0xe3	-29
162	0x52	82
163	0x5b	91
164	0xcd	-51
165	0x8e	-114
166	0x51	81
167	0xea	-22
168	0xa7	-89
169	0xbf	-65
170	0xdd	-35
171	0xd1	-47
172	0x48	72
173	0xc5	-59
174	0x46	70
175	0x45	69
176	0x4e	78
177	0x60	96
178	0x1c	28
179	0xc0	-64
180	0xfb	-5
181	0xf7	-9
182	0x55	85
183	0x65	101
184	0x14	20
185	0x14	20
186	0x9e	-98
187	0x55	85
188	0xc5	-59
189	0x4f	79
190	0x52	82
191	0x56	86
192	0x0e	14
193	0x5b	91
194	0xda	-38
195	0x3e	62
196	0x2f	47
197	0xa0	-96
198	0x71	113
199	0xdd	-35
200	0x28	40
201	0x1d	29
202	0xd5	-43
203	0x4b	75
204	0x91	-111
205	0xd4	-44
206	0xe3	-29
207	0x98	-104
208	0x9d	-99
209	0x8e	-114
210	0xaf	-81
211	0xc9	-55
212	0xae	-82
213	0x51	81
214	0xab	-85
215	0xef	-17
216	0x10	16
217	0x54	84
218	0x1f	31
219	0xe6	-26
220	0x37	55
221	0xc4	-60
222	0x71	113
223	0x6f	111
224	0x64	100
225	0xe6	-26
226	0x65	101
227	0x03	3
228	0x1b	27
229	0x87	-121
230	0xd6	-42
231	0xea	-22
232	0x96	-106
233	0x5a	90
234	0x44	68
235	0x42	66
236	0x87	-121
237	0xf9	-7
238	0x1b	27
239	0x97	-105
240	0x68	104
241	0x25	37
242	0x04	4
243	0x01	1
244	0x3a	58
245	0xd1	-47
246	0x6f	111
247	0xac	-84
248	0xd2	-46
249	0xa8	-88
250	0x46	70
251	0xc0	-64
252	0x25	37
253	0x6e	110
254	0xb2	-78
255	0xfb	-5
