models/mobilenetv2/float_fallback_quantization/model_gearbox.tflite (tflite, 975464 bytes, 53 tensors)

model/mobilenetv2_0.50_64/predictions/MatMul i1 [3, 1280] scale=0.0005588269 zero_point=0
000000 52 89 47 e5 d0 62 35 f6 1c 88 a3 24 e5 db f5 8a
       0.045823805 -0.0665004 0.03967671 -0.015088326 -0.026823692 0.054765034 0.029617826 -0.005588269 0.015647152 -0.06705923 -0.051970903 0.020117769 -0.015088326 -0.020676596 -0.006147096 -0.06594157
000010 8b fc 96 61 74 fe 21 5e 71 60 55 dd eb 49 bf 15
       -0.06538275 -0.0022353076 -0.05923565 0.054206207 0.06482392 -0.0011176538 0.018441288 0.05252973 0.06314744 0.053647384 0.047500286 -0.019558942 -0.011735365 0.040794365 -0.03632375 0.011735365
000020 60 4b b7 af bd 77 5a 35 98 78 8e 1b 4a 4a 2a 37
       0.053647384 0.041912016 -0.040794365 -0.045264978 -0.037441403 0.0665004 0.05029442 0.029617826 -0.058117997 0.06705923 -0.063706264 0.015088326 0.041353192 0.041353192 0.02347073 0.03073548
000030 b6 43 a0 3b b8 2c 81 3d 4f 61 be ba 05 01 25 9c
       -0.041353192 0.037441403 -0.053647384 0.032970786 -0.040235538 0.024588384 -0.07097102 0.03408844 0.044147324 0.054206207 -0.036882576 -0.039117884 0.0027941344 0.0005588269 0.020676596 -0.05588269
000040 c3 9e a2 32 02 79 46 94 21 42 c1 9d b1 e7 37 bb
       -0.03408844 -0.054765034 -0.05252973 0.027941344 0.0011176538 0.06761806 0.039117884 -0.060353305 0.018441288 0.036882576 -0.035206094 -0.05532386 -0.044147324 -0.013970672 0.03073548 -0.038559057
000050 c3 ac 8e f1 36 23 d1 e9 21 6a 4e 23 0c 66 06 5a
       -0.03408844 -0.04694146 -0.063706264 -0.008382403 0.030176653 0.019558942 -0.026264865 -0.012853019 0.018441288 0.05923565 0.043588497 0.019558942 0.006705923 0.057000343 0.0033529615 0.05029442
000060 47 a0 14 4f 39 73 cf b4 c2 01 eb 76 ee 02 e2 61
       0.03967671 -0.053647384 0.011176538 0.044147324 0.031853132 0.064265095 -0.027382517 -0.042470843 -0.034647267 0.0005588269 -0.011735365 0.06594157 -0.0100588845 0.0011176538 -0.016764807 0.054206207
000070 26 00 f2 af 15 42 76 dc 04 f0 cb 62 96 b5 e3 aa
       0.021235421 0.0 -0.007823576 -0.045264978 0.011735365 0.036882576 0.06594157 -0.020117769 0.0022353076 -0.00894123 -0.029617826 0.054765034 -0.05923565 -0.041912016 -0.01620598 -0.048059113
000080 18 44 ae 42 3f b5 b4 cd a0 b2 42 70 8c 90 6d 09
       0.013411846 0.03800023 -0.045823805 0.036882576 0.035206094 -0.041912016 -0.042470843 -0.028500171 -0.053647384 -0.043588497 0.036882576 0.06258861 -0.06482392 -0.06258861 0.060912132 0.0050294423
000090 48 5e 8e 75 09 56 b0 47 50 ed c5 c9 54 48 db 59
       0.040235538 0.05252973 -0.063706264 0.06538275 0.0050294423 0.048059113 -0.04470615 0.03967671 0.04470615 -0.010617711 -0.032970786 -0.03073548 0.04694146 0.040235538 -0.020676596 0.049735595
0000a0 2f 77 0e 8d 0d 8b 8a 41 4a 91 02 e7 c6 25 8a c2
       0.026264865 0.0665004 0.007823576 -0.064265095 0.0072647496 -0.06538275 -0.06594157 0.03632375 0.041353192 -0.062029786 0.0011176538 -0.013970672 -0.03241196 0.020676596 -0.06594157 -0.034647267
0000b0 cd c9 e0 6a e4 f8 64 de 47 97 6e e5 e9 e5 3e 08
       -0.028500171 -0.03073548 -0.01788246 0.05923565 -0.015647152 -0.004470615 0.05588269 -0.019000115 0.03967671 -0.058676824 0.06147096 -0.015088326 -0.012853019 -0.015088326 0.034647267 0.004470615
0000c0 b1 8d e9 27 19 ae a6 1f 6a ab 54 ef c7 8a 5e 58
       -0.044147324 -0.064265095 -0.012853019 0.021794248 0.013970672 -0.045823805 -0.05029442 0.017323634 0.05923565 -0.047500286 0.04694146 -0.009500057 -0.031853132 -0.06594157 0.05252973 0.049176767
0000d0 16 d9 db da a4 a7 2c a2 d1 5f d3 fe db 3e c3 e4
       0.012294192 -0.021794248 -0.020676596 -0.021235421 -0.051412076 -0.049735595 0.024588384 -0.05252973 -0.026264865 0.053088557 -0.02514721 -0.0011176538 -0.020676596 0.034647267 -0.03408844 -0.015647152
0000e0 c7 47 4a 2b fc fe cc 59 03 3b 41 18 00 99 bc 5c
       -0.031853132 0.03967671 0.041353192 0.024029557 -0.0022353076 -0.0011176538 -0.029058998 0.049735595 0.0016764808 0.032970786 0.03632375 0.013411846 0.0 -0.05755917 -0.03800023 0.051412076
0000f0 9a e2 4b 46 6a bc 31 97 22 39 04 e2 3f d0 de 02
       -0.057000343 -0.016764807 0.041912016 0.039117884 0.05923565 -0.03800023 0.027382517 -0.058676824 0.019000115 0.031853132 0.0022353076 -0.016764807 0.035206094 -0.026823692 -0.019000115 0.0011176538

model/mobilenetv2_0.50_64/Conv_1/Conv2D i1 [1280, 1, 1, 160]
000000 1d cc e7 cc 26 2c db 2f 68 b3 57 22 fd 8d 4c 4d
       29 -52 -25 -52 38 44 -37 47 104 -77 87 34 -3 -115 76 77
000010 18 a1 0c 5c 31 39 39 23 2b cd e1 93 71 e1 be 9b
       24 -95 12 92 49 57 57 35 43 -51 -31 -109 113 -31 -66 -101
000020 48 7f f1 18 57 b0 2a d6 f6 9f 9f 79 2c e3 e1 e8
       72 127 -15 24 87 -80 42 -42 -10 -97 -97 121 44 -29 -31 -24
000030 61 b6 11 11 64 96 41 d8 43 76 b9 9d 0e 76 7b 55
       97 -74 17 17 100 -106 65 -40 67 118 -71 -99 14 118 123 85
000040 b0 9d b6 5a 56 b2 70 11 6e a3 b7 d0 0f 6e 2b c0
       -80 -99 -74 90 86 -78 112 17 110 -93 -73 -48 15 110 43 -64
000050 d6 bc 35 aa c0 5d 88 72 d6 11 fc 09 e8 ac 01 a0
       -42 -68 53 -86 -64 93 -120 114 -42 17 -4 9 -24 -84 1 -96
000060 4b 42 55 ed 29 6f 0d df e7 23 2c 1c 8f b2 db ee
       75 66 85 -19 41 111 13 -33 -25 35 44 28 -113 -78 -37 -18
000070 22 83 c0 a0 07 9e 5a 48 ea 4e f9 92 bd 6c 4e 76
       34 -125 -64 -96 7 -98 90 72 -22 78 -7 -110 -67 108 78 118
000080 59 e3 21 52 1f 38 0f 2c 9e c6 f6 25 68 2a f9 e6
       89 -29 33 82 31 56 15 44 -98 -58 -10 37 104 42 -7 -26
000090 27 af 43 96 89 35 c4 dd 2d 19 f2 de 59 0c cf 19
       39 -81 67 -106 -119 53 -60 -35 45 25 -14 -34 89 12 -49 25
0000a0 f9 c8 c0 f3 97 96 63 2b 84 4a 4a 97 42 fd 6b 0b
       -7 -56 -64 -13 -105 -106 99 43 -124 74 74 -105 66 -3 107 11
0000b0 4f a8 32 b4 9f 91 8f 4e 81 1a ce c8 75 5d d7 ee
       79 -88 50 -76 -97 -111 -113 78 -127 26 -50 -56 117 93 -41 -18
0000c0 18 6b 18 a9 71 be d9 c0 98 2f 32 19 c3 a9 2e 44
       24 107 24 -87 113 -66 -39 -64 -104 47 50 25 -61 -87 46 68
0000d0 c0 bf 88 00 f6 c3 49 2e 1b a7 a1 62 96 d5 d6 1c
       -64 -65 -120 0 -10 -61 73 46 27 -89 -95 98 -106 -43 -42 28
0000e0 47 07 15 a7 60 14 b1 ae 08 af db 6c 55 c9 94 c6
       71 7 21 -89 96 20 -79 -82 8 -81 -37 108 85 -55 -108 -58
0000f0 fd 3e 4f 0f 39 c5 2b ab 89 4d 8a 29 0a 4a 9a e3
       -3 62 79 15 57 -59 43 -85 -119 77 -118 41 10 74 -102 -29

model/mobilenetv2_0.50_64/block_16_project/Conv2D i1 [160, 1, 1, 480]
000000 ee 9f 9b dc 60 3e 8f ec ed a1 fb 26 06 5c 96 6e
       -18 -97 -101 -36 96 62 -113 -20 -19 -95 -5 38 6 92 -106 110
000010 2a 96 de a1 90 44 97 61 33 e7 cc 6f d6 a2 55 6c
       42 -106 -34 -95 -112 68 -105 97 51 -25 -52 111 -42 -94 85 108
000020 0b 3e 6f 5c ba 2d 55 3f 21 6b 0f a5 61 dc 52 dc
       11 62 111 92 -70 45 85 63 33 107 15 -91 97 -36 82 -36
000030 0a 4d b8 ee 1b bc d3 5d b9 c8 69 f3 19 5f 2a dd
       10 77 -72 -18 27 -68 -45 93 -71 -56 105 -13 25 95 42 -35
000040 40 a4 21 b3 4b e2 e5 e8 9d 2e 68 b5 ec 53 b3 06
       64 -92 33 -77 75 -30 -27 -24 -99 46 104 -75 -20 83 -77 6
000050 d7 97 25 c2 c1 41 bc 9b 07 97 7c 3d 39 ff 74 6d
       -41 -105 37 -62 -63 65 -68 -101 7 -105 124 61 57 -1 116 109
000060 3e 0b 55 a3 6e 53 08 ab 44 90 98 e4 c8 4f cf ca
       62 11 85 -93 110 83 8 -85 68 -112 -104 -28 -56 79 -49 -54
000070 47 fe 21 f3 f1 d2 ff 72 c5 9c d4 46 0d ba 24 10
       71 -2 33 -13 -15 -46 -1 114 -59 -100 -44 70 13 -70 36 16
000080 4e 3e d6 c7 41 c9 58 b8 79 d4 2e b1 57 65 37 fc
       78 62 -42 -57 65 -55 88 -72 121 -44 46 -79 87 101 55 -4
000090 5d 2f dc b5 a0 98 62 52 27 7b 25 53 7c 6a 73 f5
       93 47 -36 -75 -96 -104 98 82 39 123 37 83 124 106 115 -11
0000a0 d0 b9 ff e3 40 94 f8 a5 e5 ed b8 b5 f5 c3 64 79
       -48 -71 -1 -29 64 -108 -8 -91 -27 -19 -72 -75 -11 -61 100 121
0000b0 14 ab 60 99 ac 4b b4 f0 5c 25 63 07 36 fa 32 70
       20 -85 96 -103 -84 75 -76 -16 92 37 99 7 54 -6 50 112
0000c0 93 09 42 2c 51 93 c1 d6 ff 50 a4 0e 07 0d 73 36
       -109 9 66 44 81 -109 -63 -42 -1 80 -92 14 7 13 115 54
0000d0 42 2a b5 fc 43 4b 50 59 6c d6 2a f0 2b 76 63 24
       66 42 -75 -4 67 75 80 89 108 -42 42 -16 43 118 99 36
0000e0 e3 ce 19 15 4d 07 d1 03 50 92 69 8c 4c 68 7f 1c
       -29 -50 25 21 77 7 -47 3 80 -110 105 -116 76 104 127 28
0000f0 dc 2c 2a bb 75 37 59 94 a0 02 09 3c f1 41 ff 0c
       -36 44 42 -69 117 55 89 -108 -96 2 9 60 -15 65 -1 12

model/mobilenetv2_0.50_64/block_16_depthwise_BN/FusedBatchNormV3;model/mobilenetv2_0.50_64/block_16_depthwise/depthwise i1 [1, 3, 3, 480]
000000 7f 7f b4 03 7f 81 c3 0a bc 4d 7a 20 f8 51 a3 00
       127 127 -76 3 127 -127 -61 10 -68 77 122 32 -8 81 -93 0
000010 81 2d d8 7f 81 d1 87 85 e9 0f 81 91 69 2d a0 97
       -127 45 -40 127 -127 -47 -121 -123 -23 15 -127 -111 105 45 -96 -105
000020 94 7f 1b e8 a0 f4 c0 47 e5 62 1f 7f 70 45 ba 1e
       -108 127 27 -24 -96 -12 -64 71 -27 98 31 127 112 69 -70 30
000030 6e 0d ce a9 6b 2c 23 81 37 e6 de 7f a5 7f 79 7f
       110 13 -50 -87 107 44 35 -127 55 -26 -34 127 -91 127 121 127
000040 21 ca b1 4f e0 23 70 9b 19 ba 27 09 81 c0 f9 f2
       33 -54 -79 79 -32 35 112 -101 25 -70 39 9 -127 -64 -7 -14
000050 ef 65 71 fd 3d 1d 81 e5 81 5e 38 7a 81 a7 2e 09
       -17 101 113 -3 61 29 -127 -27 -127 94 56 122 -127 -89 46 9
000060 c8 e9 81 fd 89 43 35 2c 52 b0 ed 7f 2e 81 a5 62
       -56 -23 -127 -3 -119 67 53 44 82 -80 -19 127 46 -127 -91 98
000070 1e 57 33 81 ca 45 60 c2 6c 03 7f 81 7f 8e 9e 66
       30 87 51 -127 -54 69 96 -62 108 3 127 -127 127 -114 -98 102
000080 2f 1c 82 e4 31 7c a7 cd bc 91 89 54 22 00 f3 c5
       47 28 -126 -28 49 124 -89 -51 -68 -111 -119 84 34 0 -13 -59
000090 37 2f dd 7f a4 00 d7 1b 12 1d 19 3c 93 ce f7 74
       55 47 -35 127 -92 0 -41 27 18 29 25 60 -109 -50 -9 116
0000a0 a7 91 81 eb 3a 09 56 52 e9 65 e1 20 81 61 60 2f
       -89 -111 -127 -21 58 9 86 82 -23 101 -31 32 -127 97 96 47
0000b0 81 7f 19 4c ba de f8 d4 8f e6 45 76 53 e4 52 ea
       -127 127 25 76 -70 -34 -8 -44 -113 -26 69 118 83 -28 82 -22
0000c0 0d ba 86 de 63 b0 92 53 54 de 3f 3d 63 07 a5 f3
       13 -70 -122 -34 99 -80 -110 83 84 -34 63 61 99 7 -91 -13
0000d0 c6 15 ea 61 cc 7f f5 c2 c5 2c 4c a3 eb 6d a6 7f
       -58 21 -22 97 -52 127 -11 -62 -59 44 76 -93 -21 109 -90 127
0000e0 9b 14 df eb c3 e9 aa 15 81 81 09 7a 62 46 20 cb
       -101 20 -33 -21 -61 -23 -86 21 -127 -127 9 122 98 70 32 -53
0000f0 3e c0 3c 82 a7 b1 ff 35 88 19 d7 8d 65 76 51 bd
       62 -64 60 -126 -89 -79 -1 53 -120 25 -41 -115 101 118 81 -67

model/mobilenetv2_0.50_64/block_16_expand/Conv2D i1 [480, 1, 1, 80]
000000 35 7e b8 0e 38 d2 fe f9 bc 19 1c 38 95 da 74 a0
       53 126 -72 14 56 -46 -2 -7 -68 25 28 56 -107 -38 116 -96
000010 d7 1c 0e 9b 72 1d 18 f6 52 c0 57 09 f8 dc b8 f9
       -41 28 14 -101 114 29 24 -10 82 -64 87 9 -8 -36 -72 -7
000020 4e 40 7a 40 62 62 95 0a 7f 1c 79 20 eb 97 45 e8
       78 64 122 64 98 98 -107 10 127 28 121 32 -21 -105 69 -24
000030 6d e7 f3 6c 96 6d 53 70 07 a5 2d 0f 06 8a 59 48
       109 -25 -13 108 -106 109 83 112 7 -91 45 15 6 -118 89 72
000040 d3 3b e7 bd b4 08 6d c7 cd a5 25 f0 04 75 09 03
       -45 59 -25 -67 -76 8 109 -57 -51 -91 37 -16 4 117 9 3
000050 ec a0 26 18 09 14 ff ee 03 76 57 49 8e 7a 8e 1f
       -20 -96 38 24 9 20 -1 -18 3 118 87 73 -114 122 -114 31
000060 79 59 37 5a b2 c8 14 35 43 ee 58 fb 2c d3 55 a3
       121 89 55 90 -78 -56 20 53 67 -18 88 -5 44 -45 85 -93
000070 f1 08 21 c8 f3 59 60 3b 4e ab fc 05 2f 25 17 81
       -15 8 33 -56 -13 89 96 59 78 -85 -4 5 47 37 23 -127
000080 b9 50 d6 36 30 98 19 c4 c4 c5 8c fc 4c 5e ec c6
       -71 80 -42 54 48 -104 25 -60 -60 -59 -116 -4 76 94 -20 -58
000090 19 c6 6b eb 24 5b fa 72 22 de 97 21 04 89 4d ef
       25 -58 107 -21 36 91 -6 114 34 -34 -105 33 4 -119 77 -17
0000a0 b0 95 60 15 5b 93 1d e0 95 27 64 2b 3c 37 c2 0e
       -80 -107 96 21 91 -109 29 -32 -107 39 100 43 60 55 -62 14
0000b0 43 50 39 de c6 2f 69 e2 c8 c4 79 cb 4a b9 51 56
       67 80 57 -34 -58 47 105 -30 -56 -60 121 -53 74 -71 81 86
0000c0 b1 c0 0e 11 2f 58 89 17 88 26 95 7b 54 ac d1 70
       -79 -64 14 17 47 88 -119 23 -120 38 -107 123 84 -84 -47 112
0000d0 6c 83 82 4f e4 ea 1a fe 0b 23 95 0c 4e 73 f0 df
       108 -125 -126 79 -28 -22 26 -2 11 35 -107 12 78 115 -16 -33
0000e0 ec 47 95 19 52 41 6a b8 9b 7d 81 9a 92 b0 06 fa
       -20 71 -107 25 82 65 106 -72 -101 125 -127 -102 -110 -80 6 -6
0000f0 7d 70 6e ed ae e7 98 a8 43 60 6b 4e e8 f8 ac 56
       125 112 110 -19 -82 -25 -104 -88 67 96 107 78 -24 -8 -84 86

model/mobilenetv2_0.50_64/block_15_project/Conv2D i1 [80, 1, 1, 480]
000000 30 5e 49 94 ac 42 7e 30 04 f5 1f 5f 34 0a fb d3
       48 94 73 -108 -84 66 126 48 4 -11 31 95 52 10 -5 -45
000010 cb a6 4e 9d a1 e8 9a a3 d7 26 df 89 14 ae f2 47
       -53 -90 78 -99 -95 -24 -102 -93 -41 38 -33 -119 20 -82 -14 71
000020 8f 81 5b 5a 2a ae d5 4c 96 d6 73 a3 d5 d1 ad 4b
       -113 -127 91 90 42 -82 -43 76 -106 -42 115 -93 -43 -47 -83 75
000030 d4 2a af b1 f1 a1 1c 0d 70 65 b6 f3 a8 e2 50 bf
       -44 42 -81 -79 -15 -95 28 13 112 101 -74 -13 -88 -30 80 -65
000040 ff c9 fc 4e af c7 1b 3b 6e 32 b0 29 0d c2 68 1a
       -1 -55 -4 78 -81 -57 27 59 110 50 -80 41 13 -62 104 26
000050 9d 69 26 f3 ba 5f a4 31 c9 73 07 61 4d 98 65 e7
       -99 105 38 -13 -70 95 -92 49 -55 115 7 97 77 -104 101 -25
000060 26 b4 f1 51 9c 61 3c 19 cc 94 f7 e2 1d 6f 92 71
       38 -76 -15 81 -100 97 60 25 -52 -108 -9 -30 29 111 -110 113
000070 b2 9a 6e 61 12 8b ba 13 70 2d 53 61 12 47 b4 cd
       -78 -102 110 97 18 -117 -70 19 112 45 83 97 18 71 -76 -51
000080 c0 40 24 a1 6f cc 00 5d 5b f2 e7 a5 17 58 eb 25
       -64 64 36 -95 111 -52 0 93 91 -14 -25 -91 23 88 -21 37
000090 b6 5d c8 1d 05 13 d0 c4 9e a1 c2 eb 36 b4 4a 03
       -74 93 -56 29 5 19 -48 -60 -98 -95 -62 -21 54 -76 74 3
0000a0 6b 8a df 46 3d 2c 11 e0 b9 f5 bb ce 25 40 d5 1e
       107 -118 -33 70 61 44 17 -32 -71 -11 -69 -50 37 64 -43 30
0000b0 44 57 6f 1a 4e 4c bc 0c 41 96 bf 93 e7 a2 b6 ec
       68 87 111 26 78 76 -68 12 65 -106 -65 -109 -25 -94 -74 -20
0000c0 72 f9 97 88 c6 4f fa d9 bb fa f6 ac fd 76 93 c0
       114 -7 -105 -120 -58 79 -6 -39 -69 -6 -10 -84 -3 118 -109 -64
0000d0 61 28 f7 54 92 b4 73 c5 1a 93 8d 0d 6a b3 df 9a
       97 40 -9 84 -110 -76 115 -59 26 -109 -115 13 106 -77 -33 -102
0000e0 6c b7 48 67 da 1e e0 e6 9c 22 85 74 e3 cf 37 ef
       108 -73 72 103 -38 30 -32 -26 -100 34 -123 116 -29 -49 55 -17
0000f0 16 c4 98 0f dc 39 78 56 d5 ec 55 76 cb 11 95 b0
       22 -60 -104 15 -36 57 120 86 -43 -20 85 118 -53 17 -107 -80

model/mobilenetv2_0.50_64/block_15_depthwise_BN/FusedBatchNormV3;model/mobilenetv2_0.50_64/block_15_depthwise/depthwise;model/mobilenetv2_0.50_64/block_16_depthwise/depthwise i1 [1, 3, 3, 480]
000000 66 bc 24 34 4c 24 4a 6a 92 98 3b bb 04 c4 70 49
       102 -68 36 52 76 36 74 106 -110 -104 59 -69 4 -60 112 73
000010 a0 0b a2 06 b6 e4 74 1d b1 11 44 04 ff 66 e0 2e
       -96 11 -94 6 -74 -28 116 29 -79 17 68 4 -1 102 -32 46
000020 59 34 8e b6 81 d7 82 f8 93 2b 48 43 67 5b 83 6a
       89 52 -114 -74 -127 -41 -126 -8 -109 43 72 67 103 91 -125 106
000030 90 62 a9 ca 81 7f bc b5 73 cf fb 15 dc eb 05 55
       -112 98 -87 -54 -127 127 -68 -75 115 -49 -5 21 -36 -21 5 85
000040 7c ac 92 fb 94 a6 15 26 c5 b4 64 5f e5 13 55 22
       124 -84 -110 -5 -108 -90 21 38 -59 -76 100 95 -27 19 85 34
000050 81 25 7f 70 7c b4 b5 43 25 7f aa d4 b5 5f 9f b2
       -127 37 127 112 124 -76 -75 67 37 127 -86 -44 -75 95 -97 -78
000060 7b de 28 65 7f 7f 18 a6 63 01 9b b0 98 2c 33 f3
       123 -34 40 101 127 127 24 -90 99 1 -101 -80 -104 44 51 -13
000070 68 2b b4 73 79 8e 26 bd a7 76 09 d1 13 17 9f d3
       104 43 -76 115 121 -114 38 -67 -89 118 9 -47 19 23 -97 -45
000080 7b 42 db 43 d7 a4 81 ca 26 02 93 7f e2 21 c5 19
       123 66 -37 67 -41 -92 -127 -54 38 2 -109 127 -30 33 -59 25
000090 43 cb 55 7f 8b 81 be ec 0d 68 0c 81 61 2c 19 f1
       67 -53 85 127 -117 -127 -66 -20 13 104 12 -127 97 44 25 -15
0000a0 81 2c f9 d2 db f1 53 87 49 60 7f 81 f4 04 e3 f9
       -127 44 -7 -46 -37 -15 83 -121 73 96 127 -127 -12 4 -29 -7
0000b0 7f a1 82 fd f9 db c0 7f 5d e4 34 47 46 34 a8 01
       127 -95 -126 -3 -7 -37 -64 127 93 -28 52 71 70 52 -88 1
0000c0 98 be 72 7f 86 73 a5 7d 0f 3f f7 46 32 9a c5 2a
       -104 -66 114 127 -122 115 -91 125 15 63 -9 70 50 -102 -59 42
0000d0 fc 4e 81 64 69 b5 70 81 c6 ca 30 91 62 30 13 0a
       -4 78 -127 100 105 -75 112 -127 -58 -54 48 -111 98 48 19 10
0000e0 ce 6b 81 c1 7f 86 b8 18 de 58 7b 42 12 35 81 f7
       -50 107 -127 -63 127 -122 -72 24 -34 88 123 66 18 53 -127 -9
0000f0 7f 22 33 66 67 c0 73 15 9e 08 7f 62 03 c4 16 e9
       127 34 51 102 103 -64 115 21 -98 8 127 98 3 -60 22 -23

model/mobilenetv2_0.50_64/block_15_expand/Conv2D i1 [480, 1, 1, 80]
000000 38 c8 53 e2 e5 48 d1 d3 a3 ea b4 f0 3e 10 ee 89
       56 -56 83 -30 -27 72 -47 -45 -93 -22 -76 -16 62 16 -18 -119
000010 26 dc 1e 5a 59 45 2b d0 59 59 75 70 05 0f 1c f3
       38 -36 30 90 89 69 43 -48 89 89 117 112 5 15 28 -13
000020 23 e1 a1 d5 eb f3 07 44 f6 ef 6a c2 bb 34 4a 7a
       35 -31 -95 -43 -21 -13 7 68 -10 -17 106 -62 -69 52 74 122
000030 c1 3c c8 b7 18 f4 29 e5 df 85 cd f4 23 ab d7 7f
       -63 60 -56 -73 24 -12 41 -27 -33 -123 -51 -12 35 -85 -41 127
000040 33 0c 15 6c 96 3a 08 92 a0 ad 9d 44 bf a0 bb ac
       51 12 21 108 -106 58 8 -110 -96 -83 -99 68 -65 -96 -69 -84
000050 bc a9 1b b7 44 90 a1 81 1a b5 ba ff 05 37 41 1e
       -68 -87 27 -73 68 -112 -95 -127 26 -75 -70 -1 5 55 65 30
000060 7a dc 17 5d ed 5d 8c 78 11 9a c6 bc ef c5 19 b3
       122 -36 23 93 -19 93 -116 120 17 -102 -58 -68 -17 -59 25 -77
000070 90 b5 bd 53 25 3d 94 94 e6 97 a7 27 87 e3 cb 38
       -112 -75 -67 83 37 61 -108 -108 -26 -105 -89 39 -121 -29 -53 56
000080 53 f6 68 20 96 db 02 73 ba a0 12 38 bf c1 ae 0a
       83 -10 104 32 -106 -37 2 115 -70 -96 18 56 -65 -63 -82 10
000090 88 52 b0 a4 5a b3 39 29 fc ae fb fb c9 f8 40 12
       -120 82 -80 -92 90 -77 57 41 -4 -82 -5 -5 -55 -8 64 18
0000a0 3a 65 ef 59 5d fd e9 40 b1 b8 70 af 76 c9 2e f5
       58 101 -17 89 93 -3 -23 64 -79 -72 112 -81 118 -55 46 -11
0000b0 f8 b6 68 e1 07 63 a7 97 a2 5d f7 48 c5 81 ac 4e
       -8 -74 104 -31 7 99 -89 -105 -94 93 -9 72 -59 -127 -84 78
0000c0 54 ab cb 10 b3 f9 70 1f 73 40 fd f6 b1 71 7d a8
       84 -85 -53 16 -77 -7 112 31 115 64 -3 -10 -79 113 125 -88
0000d0 f8 97 18 7b 99 3e 83 91 b1 94 ec 49 47 45 24 a2
       -8 -105 24 123 -103 62 -125 -111 -79 -108 -20 73 71 69 36 -94
0000e0 ba 29 9a 66 f5 69 0e 40 f2 38 27 1e bd 12 58 02
       -70 41 -102 102 -11 105 14 64 -14 56 39 30 -67 18 88 2
0000f0 5b e6 52 44 63 c5 ab 8d 92 2e 85 2c db 99 77 62
       91 -26 82 68 99 -59 -85 -115 -110 46 -123 44 -37 -103 119 98

model/mobilenetv2_0.50_64/block_14_project/Conv2D i1 [80, 1, 1, 480]
000000 61 3f 1a f7 8f ce 11 ed 07 5f 28 45 11 38 0d 31
       97 63 26 -9 -113 -50 17 -19 7 95 40 69 17 56 13 49
000010 d0 6a 0d 60 f8 81 d2 ad ed 29 af 3c be a4 96 c5
       -48 106 13 96 -8 -127 -46 -83 -19 41 -81 60 -66 -92 -106 -59
000020 f8 ef 07 d3 92 a9 da 08 cb df 5a 15 56 8d 0e 26
       -8 -17 7 -45 -110 -87 -38 8 -53 -33 90 21 86 -115 14 38
000030 71 e1 2f 75 a3 5e f8 42 28 93 18 06 99 b3 b3 54
       113 -31 47 117 -93 94 -8 66 40 -109 24 6 -103 -77 -77 84
000040 db 33 08 b3 31 3b 71 38 06 17 06 9d b9 e2 75 db
       -37 51 8 -77 49 59 113 56 6 23 6 -99 -71 -30 117 -37
000050 04 cc fa f6 1f 61 c5 a5 1f 0a e3 da b2 d9 75 8d
       4 -52 -6 -10 31 97 -59 -91 31 10 -29 -38 -78 -39 117 -115
000060 32 18 38 a1 3c 0c e6 40 17 eb 74 91 21 fe ba 02
       50 24 56 -95 60 12 -26 64 23 -21 116 -111 33 -2 -70 2
000070 09 f3 d1 08 5c 28 53 db 6f ee fc af 33 85 54 a9
       9 -13 -47 8 92 40 83 -37 111 -18 -4 -81 51 -123 84 -87
000080 a7 7d 54 d3 fa 63 1a 19 ce cb a6 74 5e e8 f5 9e
       -89 125 84 -45 -6 99 26 25 -50 -53 -90 116 94 -24 -11 -98
000090 37 43 19 32 a0 19 33 a9 e8 3c b6 c2 bb ca 0a c1
       55 67 25 50 -96 25 51 -87 -24 60 -74 -62 -69 -54 10 -63
0000a0 f9 90 61 48 6d 18 96 40 fc c5 9c 5b 2b 3a d6 4a
       -7 -112 97 72 109 24 -106 64 -4 -59 -100 91 43 58 -42 74
0000b0 c7 b7 61 76 d6 01 ac 4b a1 5c 0e 07 2f db f4 96
       -57 -73 97 118 -42 1 -84 75 -95 92 14 7 47 -37 -12 -106
0000c0 fc 4a 26 d8 0d 09 df 2e 1a 9e 20 3c 8a be 5f ae
       -4 74 38 -40 13 9 -33 46 26 -98 32 60 -118 -66 95 -82
0000d0 b6 1a a3 de dc 41 36 d8 37 f8 70 a3 a8 e0 df 4f
       -74 26 -93 -34 -36 65 54 -40 55 -8 112 -93 -88 -32 -33 79
0000e0 f4 18 c1 9b 1d fe 14 f2 a2 91 b0 4a af 68 a7 de
       -12 24 -63 -101 29 -2 20 -14 -94 -111 -80 74 -81 104 -89 -34
0000f0 ee c2 91 3e 65 52 33 15 9d 09 ca 65 bc 98 7a 6c
       -18 -62 -111 62 101 82 51 21 -99 9 -54 101 -68 -104 122 108

model/mobilenetv2_0.50_64/block_14_depthwise_BN/FusedBatchNormV3;model/mobilenetv2_0.50_64/block_14_depthwise/depthwise;model/mobilenetv2_0.50_64/block_16_depthwise/depthwise i1 [1, 3, 3, 480]
000000 45 83 3a 7f b6 c4 03 92 af 6a 3c bc fe 81 d8 f3
       69 -125 58 127 -74 -60 3 -110 -81 106 60 -68 -2 -127 -40 -13
000010 07 ba 77 b5 bf 55 73 db a4 ab 78 95 69 5e 25 a7
       7 -70 119 -75 -65 85 115 -37 -92 -85 120 -107 105 94 37 -89
000020 c5 fb 5f 8b 24 9b 21 24 e5 35 50 f5 18 7f 36 96
       -59 -5 95 -117 36 -101 33 36 -27 53 80 -11 24 127 54 -106
000030 82 4a 7c 83 7f 3c 48 8a c9 49 7f c4 23 b2 7c 9a
       -126 74 124 -125 127 60 72 -118 -55 73 127 -60 35 -78 124 -102
000040 ac 6e bb d0 68 5c 29 27 b3 7f f6 13 25 b4 0e 6b
       -84 110 -69 -48 104 92 41 39 -77 127 -10 19 37 -76 14 107
000050 f3 a2 5f f3 df 7a 8b 81 96 32 1f c1 b7 1a de fb
       -13 -94 95 -13 -33 122 -117 -127 -106 50 31 -63 -73 26 -34 -5
000060 0e f7 81 de e1 ad da f1 32 44 ad ca 0b 4d 4b 0a
       14 -9 -127 -34 -31 -83 -38 -15 50 68 -83 -54 11 77 75 10
000070 ff e2 7f c3 3f 40 00 e4 7f 9e d5 aa 1c c2 7f aa
       -1 -30 127 -61 63 64 0 -28 127 -98 -43 -86 28 -62 127 -86
000080 14 47 28 f0 85 d5 53 81 3b a1 9f 85 37 c2 1b f7
       20 71 40 -16 -123 -43 83 -127 59 -95 -97 -123 55 -62 27 -9
000090 f5 f0 81 b6 f4 30 02 a7 9c 3b c9 f6 21 91 3b ee
       -11 -16 -127 -74 -12 48 2 -89 -100 59 -55 -10 33 -111 59 -18
0000a0 a3 a5 3a d1 15 36 32 24 21 01 c8 81 ea 5b 85 fb
       -93 -91 58 -47 21 54 50 36 33 1 -56 -127 -22 91 -123 -5
0000b0 30 36 3a d1 27 54 7f 28 ff 49 c4 6f 20 10 42 84
       48 54 58 -47 39 84 127 40 -1 73 -60 111 32 16 66 -124
0000c0 cd 0b 97 35 f8 a3 25 68 aa 99 32 71 41 5b 50 27
       -51 11 -105 53 -8 -93 37 104 -86 -103 50 113 65 91 80 39
0000d0 d4 bc f5 0b 91 51 f8 8f f0 21 db 27 3c ae 13 15
       -44 -68 -11 11 -111 81 -8 -113 -16 33 -37 39 60 -82 19 21
0000e0 f3 0e 81 73 73 e6 81 2c 83 74 e3 2b b4 d5 9f a0
       -13 14 -127 115 115 -26 -127 44 -125 116 -29 43 -76 -43 -97 -96
0000f0 d7 00 54 73 cd a6 23 21 a3 a1 81 a2 d3 b5 94 ee
       -41 0 84 115 -51 -90 35 33 -93 -95 -127 -94 -45 -75 -108 -18

model/mobilenetv2_0.50_64/block_14_expand/Conv2D i1 [480, 1, 1, 80]
000000 e1 c8 4b 61 0a 39 c1 57 3f 4c 5a da be ef a2 0c
       -31 -56 75 97 10 57 -63 87 63 76 90 -38 -66 -17 -94 12
000010 ce 5f 71 89 11 25 1f 7f d6 ed e8 0a c9 f3 c7 74
       -50 95 113 -119 17 37 31 127 -42 -19 -24 10 -55 -13 -57 116
000020 3e 91 49 6b e6 03 1a bb 70 bf b9 11 9d 06 79 e0
       62 -111 73 107 -26 3 26 -69 112 -65 -71 17 -99 6 121 -32
000030 9d c6 be 6a 15 9f 92 9e 9f 66 78 c8 e7 29 54 3f
       -99 -58 -66 106 21 -97 -110 -98 -97 102 120 -56 -25 41 84 63
000040 9c d4 e0 c8 3d 3e 64 c0 73 ce e0 f1 b9 ef 1a 1b
       -100 -44 -32 -56 61 62 100 -64 115 -50 -32 -15 -71 -17 26 27
000050 ec 81 c1 fb d5 1c 3d ad 89 06 34 4d c2 88 0f 37
       -20 -127 -63 -5 -43 28 61 -83 -119 6 52 77 -62 -120 15 55
000060 6d 17 95 32 a0 b4 b8 c9 4b e1 ac 6d 28 8a 78 6c
       109 23 -107 50 -96 -76 -72 -55 75 -31 -84 109 40 -118 120 108
000070 d2 1b b1 ce fd a5 3b 5e 29 3c da 34 70 3c 20 53
       -46 27 -79 -50 -3 -91 59 94 41 60 -38 52 112 60 32 83
000080 35 99 f4 a1 f0 73 44 ed c3 d1 5d 56 2d 15 82 19
       53 -103 -12 -95 -16 115 68 -19 -61 -47 93 86 45 21 -126 25
000090 69 db 59 5e 16 d4 eb 62 dc fe 0b a3 b9 a8 4d 53
       105 -37 89 94 22 -44 -21 98 -36 -2 11 -93 -71 -88 77 83
0000a0 7c 1d a0 2c 0b c8 51 27 b5 ea 91 1a 11 47 13 82
       124 29 -96 44 11 -56 81 39 -75 -22 -111 26 17 71 19 -126
0000b0 12 30 63 c6 fa e0 2a 25 30 d0 04 cb 81 03 26 7e
       18 48 99 -58 -6 -32 42 37 48 -48 4 -53 -127 3 38 126
0000c0 97 4e fb c7 c2 8b 90 64 eb 34 b2 68 e5 5f 16 22
       -105 78 -5 -57 -62 -117 -112 100 -21 52 -78 104 -27 95 22 34
0000d0 23 11 2c fe 93 3a 23 40 7d 6f 2e 14 32 84 d7 47
       35 17 44 -2 -109 58 35 64 125 111 46 20 50 -124 -41 71
0000e0 72 25 54 9c f8 68 f5 93 0d a7 56 66 df 0e a5 3b
       114 37 84 -100 -8 104 -11 -109 13 -89 86 102 -33 14 -91 59
0000f0 eb 04 cc 4b e7 b2 91 ba 4a 07 d6 37 bc b0 0b 7f
       -21 4 -52 75 -25 -78 -111 -70 74 7 -42 55 -68 -80 11 127

model/mobilenetv2_0.50_64/block_13_project/Conv2D i1 [80, 1, 1, 288]
000000 d8 cb 6b 02 23 28 54 3a 18 fd 61 ea 59 b5 82 19
       -40 -53 107 2 35 40 84 58 24 -3 97 -22 89 -75 -126 25
000010 41 e1 17 74 ce ee 08 bd c2 93 17 aa 04 69 34 da
       65 -31 23 116 -50 -18 8 -67 -62 -109 23 -86 4 105 52 -38
000020 a4 fa c3 41 b6 2d 54 dc e9 bc b1 d3 bb d8 9f ca
       -92 -6 -61 65 -74 45 84 -36 -23 -68 -79 -45 -69 -40 -97 -54
000030 97 3b ef db 12 b6 de d9 41 c3 21 64 cc 45 f7 1a
       -105 59 -17 -37 18 -74 -34 -39 65 -61 33 100 -52 69 -9 26
000040 e2 25 f2 08 47 b4 f2 c0 28 0c 8c 1a e2 50 86 cc
       -30 37 -14 8 71 -76 -14 -64 40 12 -116 26 -30 80 -122 -52
000050 a7 78 0c 6c 53 47 c3 e1 fe ab 62 72 0b 91 01 39
       -89 120 12 108 83 71 -61 -31 -2 -85 98 114 11 -111 1 57
000060 6d 28 74 da fd 23 c6 c7 ec 36 fb 1a 26 a7 8e 15
       109 40 116 -38 -3 35 -58 -57 -20 54 -5 26 38 -89 -114 21
000070 4e 35 f5 a3 e1 7a db c7 a0 8d 78 2e 21 37 b3 3f
       78 53 -11 -93 -31 122 -37 -57 -96 -115 120 46 33 55 -77 63
000080 07 61 60 2a fe 34 d3 ec d8 c6 73 ac bb 0b 33 3c
       7 97 96 42 -2 52 -45 -20 -40 -58 115 -84 -69 11 51 60
000090 81 45 77 21 88 f7 c9 f9 9e 45 df f0 5d 3b 95 20
       -127 69 119 33 -120 -9 -55 -7 -98 69 -33 -16 93 59 -107 32
0000a0 f3 00 28 b7 e7 3f 40 c9 f7 2c e4 9f 31 20 26 5a
       -13 0 40 -73 -25 63 64 -55 -9 44 -28 -97 49 32 38 90
0000b0 9d e4 c1 9d 54 ea 30 55 0d 15 b8 31 21 1d 44 6e
       -99 -28 -63 -99 84 -22 48 85 13 21 -72 49 33 29 68 110
0000c0 b2 a8 e6 6f 59 37 93 41 ed 6a eb ec 85 27 d5 ff
       -78 -88 -26 111 89 55 -109 65 -19 106 -21 -20 -123 39 -43 -1
0000d0 ac 3c c2 e9 05 e1 59 49 f2 ef 7a cf 6d d9 ec 66
       -84 60 -62 -23 5 -31 89 73 -14 -17 122 -49 109 -39 -20 102
0000e0 5f 1c 48 b3 a9 f2 99 10 77 61 f8 cb e7 b1 dc b1
       95 28 72 -77 -87 -14 -103 16 119 97 -8 -53 -25 -79 -36 -79
0000f0 31 31 5d c2 ee 38 e8 04 36 f6 03 10 e0 db 51 b5
       49 49 93 -62 -18 56 -24 4 54 -10 3 16 -32 -37 81 -75

model/mobilenetv2_0.50_64/block_13_depthwise_BN/FusedBatchNormV3;model/mobilenetv2_0.50_64/block_13_depthwise/depthwise i1 [1, 3, 3, 288]
000000 b7 17 e1 7f 59 bd d9 4f 6c 0c 1b 81 0c af 08 6b
       -73 23 -31 127 89 -67 -39 79 108 12 27 -127 12 -81 8 107
000010 d4 fd 4e 73 72 9e f2 08 de a5 39 50 81 8c dd 5b
       -44 -3 78 115 114 -98 -14 8 -34 -91 57 80 -127 -116 -35 91
000020 fe 8e e3 14 11 51 13 f7 d1 bb 63 ec 23 f2 81 c4
       -2 -114 -29 20 17 81 19 -9 -47 -69 99 -20 35 -14 -127 -60
000030 3e 7c 34 48 2e 36 7f 3b 69 43 7f 15 4c a5 4f 7c
       62 124 52 72 46 54 127 59 105 67 127 21 76 -91 79 124
000040 c5 6d 2a 7f 4c a7 7c 6a 03 49 cd ea 63 aa 7f 54
       -59 109 42 127 76 -89 124 106 3 73 -51 -22 99 -86 127 84
000050 09 57 b0 51 5e 1f 1a 24 01 a8 7f c4 e0 c3 6e 29
       9 87 -80 81 94 31 26 36 1 -88 127 -60 -32 -61 110 41
000060 d1 8b 1e 50 48 a9 7f 7f 5e 48 94 48 19 d7 0b bd
       -47 -117 30 80 72 -87 127 127 94 72 -108 72 25 -41 11 -67
000070 5a f9 fa d7 94 5f 0a 28 57 30 0a 47 b5 97 56 f2
       90 -7 -6 -41 -108 95 10 40 87 48 10 71 -75 -105 86 -14
000080 7a 81 ce 2f 47 e6 9a 84 f9 7f 14 7d 16 81 2c 42
       122 -127 -50 47 71 -26 -102 -124 -7 127 20 125 22 -127 44 66
000090 cd 37 f7 f6 4d f8 e5 4a f6 0b cc 45 c7 c3 b1 7f
       -51 55 -9 -10 77 -8 -27 74 -10 11 -52 69 -57 -61 -79 127
0000a0 eb 31 a7 9c dd 7f d3 c8 a6 e5 7f dd ba 4f a0 b6
       -21 49 -89 -100 -35 127 -45 -56 -90 -27 127 -35 -70 79 -96 -74
0000b0 a2 29 7f 0e 36 e5 de 50 0f 1f dd 7f 83 15 c5 c4
       -94 41 127 14 54 -27 -34 80 15 31 -35 127 -125 21 -59 -60
0000c0 b3 97 81 e9 dc 64 9b 4a f1 2f dd 89 70 9b 1a 81
       -77 -105 -127 -23 -36 100 -101 74 -15 47 -35 -119 112 -101 26 -127
0000d0 b3 18 ce 5f 81 2b aa 02 ac 81 c9 7f 71 51 69 cf
       -77 24 -50 95 -127 43 -86 2 -84 -127 -55 127 113 81 105 -49
0000e0 a4 b0 95 dd 7e bc c5 cf 95 d9 64 5e a5 9e d8 76
       -92 -80 -107 -35 126 -68 -59 -49 -107 -39 100 94 -91 -98 -40 118
0000f0 12 54 88 0d e9 e0 fe 08 7f b1 66 60 00 f3 f8 a2
       18 84 -120 13 -23 -32 -2 8 127 -79 102 96 0 -13 -8 -94

model/mobilenetv2_0.50_64/block_13_expand/Conv2D i1 [288, 1, 1, 48]
000000 37 aa 6c 7f 94 eb 9e ca aa db 0f 34 71 79 c0 ce
       55 -86 108 127 -108 -21 -98 -54 -86 -37 15 52 113 121 -64 -50
000010 46 3d 20 79 15 8d 14 a6 8a 62 4c 09 e4 14 82 7b
       70 61 32 121 21 -115 20 -90 -118 98 76 9 -28 20 -126 123
000020 fe d6 3d 4b dc b1 cc f4 c8 ff 57 46 00 c1 d3 4d
       -2 -42 61 75 -36 -79 -52 -12 -56 -1 87 70 0 -63 -45 77
000030 e7 28 6b 35 55 41 7b c9 53 fd 2a 85 88 36 f9 c2
       -25 40 107 53 85 65 123 -55 83 -3 42 -123 -120 54 -7 -62
000040 96 fe 20 6f 7f 67 e1 92 c2 f6 44 75 10 4b 86 d0
       -106 -2 32 111 127 103 -31 -110 -62 -10 68 117 16 75 -122 -48
000050 94 4e c2 35 bf 30 7d 0e df ef 0e 7b 27 90 25 ab
       -108 78 -62 53 -65 48 125 14 -33 -17 14 123 39 -112 37 -85
000060 92 a0 ac f6 1c 0e 09 c4 60 3a a4 e1 5e f4 e0 cb
       -110 -96 -84 -10 28 14 9 -60 96 58 -92 -31 94 -12 -32 -53
000070 37 0c 95 bf 04 9a ee df 5c 3a 39 bd 21 81 e6 c8
       55 12 -107 -65 4 -102 -18 -33 92 58 57 -67 33 -127 -26 -56
000080 8b 61 58 53 e5 e4 a4 d7 af de 24 a2 93 e4 2f 3e
       -117 97 88 83 -27 -28 -92 -41 -81 -34 36 -94 -109 -28 47 62
000090 4a b5 e0 f5 bc c7 22 c3 61 b7 04 88 d3 09 a1 11
       74 -75 -32 -11 -68 -57 34 -61 97 -73 4 -120 -45 9 -95 17
0000a0 22 e2 17 45 2b fc fb 81 17 64 e5 49 98 c0 44 c4
       34 -30 23 69 43 -4 -5 -127 23 100 -27 73 -104 -64 68 -60
0000b0 d7 40 81 32 de 4f c3 ee de ef 16 ad 51 bd 6f 6c
       -41 64 -127 50 -34 79 -61 -18 -34 -17 22 -83 81 -67 111 108
0000c0 31 de 59 5d 14 88 94 00 7c 19 e6 c5 3a 22 04 48
       49 -34 89 93 20 -120 -108 0 124 25 -26 -59 58 34 4 72
0000d0 4c ca 81 4b 8e c5 28 f5 d7 f0 f9 53 06 19 0f 85
       76 -54 -127 75 -114 -59 40 -11 -41 -16 -7 83 6 25 15 -123
0000e0 cf ec d4 d4 98 43 79 37 42 4f 7f e8 cf 18 48 c6
       -49 -20 -44 -44 -104 67 121 55 66 79 127 -24 -49 24 72 -58
0000f0 a1 a9 5a 1f f8 67 7f ac 53 29 69 c4 bd ea 9c 17
       -95 -87 90 31 -8 103 127 -84 83 41 105 -60 -67 -22 -100 23

model/mobilenetv2_0.50_64/block_12_project/Conv2D i1 [48, 1, 1, 288]
000000 66 69 bf 55 1a 3b 09 1a 10 97 06 70 22 a4 8d 86
       102 105 -65 85 26 59 9 26 16 -105 6 112 34 -92 -115 -122
000010 a7 6c 78 cf 0a 85 3c bd da 9e 20 c1 d6 98 20 5b
       -89 108 120 -49 10 -123 60 -67 -38 -98 32 -63 -42 -104 32 91
000020 c4 69 40 67 d8 71 ca 43 65 97 13 4a 75 f7 92 76
       -60 105 64 103 -40 113 -54 67 101 -105 19 74 117 -9 -110 118
000030 31 b9 e5 cf de e4 35 77 00 95 f1 94 0c 5f ba 7e
       49 -71 -27 -49 -34 -28 53 119 0 -107 -15 -108 12 95 -70 126
000040 10 92 61 d7 72 d4 29 4d ff 63 37 fd 8c fa 99 d7
       16 -110 97 -41 114 -44 41 77 -1 99 55 -3 -116 -6 -103 -41
000050 f7 25 e0 60 3a 6c 8f 86 fd a3 42 12 f0 f6 6d f5
       -9 37 -32 96 58 108 -113 -122 -3 -93 66 18 -16 -10 109 -11
000060 2a ea c0 95 84 b2 89 43 86 19 3f 5a e0 57 1c 1e
       42 -22 -64 -107 -124 -78 -119 67 -122 25 63 90 -32 87 28 30
000070 55 40 b5 f2 b1 1a e0 98 fd d4 c0 cf ea 65 37 05
       85 64 -75 -14 -79 26 -32 -104 -3 -44 -64 -49 -22 101 55 5
000080 2a b4 7a 29 98 84 b6 88 a3 d1 28 62 65 4f 01 ce
       42 -76 122 41 -104 -124 -74 -120 -93 -47 40 98 101 79 1 -50
000090 d4 24 0c 5b e8 98 58 6e 4e 58 b9 88 eb 6b 55 e7
       -44 36 12 91 -24 -104 88 110 78 88 -71 -120 -21 107 85 -25
0000a0 62 d2 0d 30 9a 69 47 47 b3 c6 6c 73 d0 be 05 a5
       98 -46 13 48 -102 105 71 71 -77 -58 108 115 -48 -66 5 -91
0000b0 c6 5c de 74 f0 37 09 83 ae c9 ad 1b 57 50 c3 64
       -58 92 -34 116 -16 55 9 -125 -82 -55 -83 27 87 80 -61 100
0000c0 4f 5b bd 66 6c 33 59 ca 40 b8 a7 2c d7 2b 44 81
       79 91 -67 102 108 51 89 -54 64 -72 -89 44 -41 43 68 -127
0000d0 4a 88 da a8 e3 34 84 37 39 ac 0c a4 fa 05 24 3b
       74 -120 -38 -88 -29 52 -124 55 57 -84 12 -92 -6 5 36 59
0000e0 85 8c d9 34 0d 2b 9e b6 db ba ab 3d 8c 9e 4d d3
       -123 -116 -39 52 13 43 -98 -74 -37 -70 -85 61 -116 -98 77 -45
0000f0 1c 30 8e a4 c9 e8 93 ca 34 8c de 74 7c fb 3e b8
       28 48 -114 -92 -55 -24 -109 -54 52 -116 -34 116 124 -5 62 -72

model/mobilenetv2_0.50_64/block_12_depthwise_BN/FusedBatchNormV3;model/mobilenetv2_0.50_64/block_12_depthwise/depthwise;model/mobilenetv2_0.50_64/block_13_depthwise/depthwise i1 [1, 3, 3, 288]
000000 40 b9 46 48 58 4b 4a 24 81 6e 1b 35 38 ca 9d b6
       64 -71 70 72 88 75 74 36 -127 110 27 53 56 -54 -99 -74
000010 7f 20 72 f5 96 7f 40 32 0f c8 51 2e b7 41 bd e5
       127 32 114 -11 -106 127 64 50 15 -56 81 46 -73 65 -67 -27
000020 d1 5f 81 af ae 5f 7f 7f 4d 24 7c 7e ee 40 4b 31
       -47 95 -127 -81 -82 95 127 127 77 36 124 126 -18 64 75 49
000030 57 a4 92 4e 3b 7d 68 7f 2f 60 7f 3e 68 81 47 7f
       87 -92 -110 78 59 125 104 127 47 96 127 62 104 -127 71 127
000040 6f 03 cc 81 30 2e 77 81 c5 00 a2 fb 9a 9e c3 4e
       111 3 -52 -127 48 46 119 -127 -59 0 -94 -5 -102 -98 -61 78
000050 c2 da 8e a4 9a 92 81 81 b7 e5 2a ea bd 30 85 16
       -62 -38 -114 -92 -102 -110 -127 -127 -73 -27 42 -22 -67 48 -123 22
000060 05 27 03 7f ff 81 2d 81 dd f0 d9 8e 45 c2 31 8e
       5 39 3 127 -1 -127 45 -127 -35 -16 -39 -114 69 -62 49 -114
000070 e4 13 d0 db 7b 11 66 79 40 19 43 6f 4c 44 e8 72
       -28 19 -48 -37 123 17 102 121 64 25 67 111 76 68 -24 114
000080 e7 be 03 a8 81 81 97 fe f4 7f e8 d6 a1 8a e5 01
       -25 -66 3 -88 -127 -127 -105 -2 -12 127 -24 -42 -95 -118 -27 1
000090 34 d9 7a 43 71 5d 85 b6 3d 37 87 ad 0b 81 81 f3
       52 -39 122 67 113 93 -123 -74 61 55 -121 -83 11 -127 -127 -13
0000a0 74 52 81 81 9c 7f 92 4b 81 47 81 43 3f 7f 3d 70
       116 82 -127 -127 -100 127 -110 75 -127 71 -127 67 63 127 61 112
0000b0 ea fe 79 18 17 fe a4 7f 0d 81 81 86 89 00 f9 16
       -22 -2 121 24 23 -2 -92 127 13 -127 -127 -122 -119 0 -7 22
0000c0 81 bc 4d f5 a6 a1 e1 d8 7d 6e 30 58 08 81 b4 b0
       -127 -68 77 -11 -90 -95 -31 -40 125 110 48 88 8 -127 -76 -80
0000d0 5d f7 07 34 81 d0 81 d4 7f 1b 9b 3d 90 5b c0 02
       93 -9 7 52 -127 -48 -127 -44 127 27 -101 61 -112 91 -64 2
0000e0 84 fc 88 2c 36 56 a1 01 71 1b 9f 44 3c cf e0 a1
       -124 -4 -120 44 54 86 -95 1 113 27 -97 68 60 -49 -32 -95
0000f0 46 f3 71 43 46 e6 13 88 99 02 7f 15 ce 68 76 0e
       70 -13 113 67 70 -26 19 -120 -103 2 127 21 -50 104 118 14

model/mobilenetv2_0.50_64/block_12_expand/Conv2D i1 [288, 1, 1, 48]
000000 b8 75 2f de 5f bb 79 71 dc 56 7d f0 3a 5e 03 be
       -72 117 47 -34 95 -69 121 113 -36 86 125 -16 58 94 3 -66
000010 e4 c2 37 b2 06 6f 37 88 d0 4b f8 38 11 48 16 60
       -28 -62 55 -78 6 111 55 -120 -48 75 -8 56 17 72 22 96
000020 19 2d 81 cd 97 aa 61 95 0f 47 af a2 32 53 47 01
       25 45 -127 -51 -105 -86 97 -107 15 71 -81 -94 50 83 71 1
000030 0c 4c 94 b8 84 6b be 6b c5 7e 23 a4 d4 d0 c3 81
       12 76 -108 -72 -124 107 -66 107 -59 126 35 -92 -44 -48 -61 -127
000040 5f 91 7e 34 c7 ef ee 2d 8e 17 84 fa 3d e1 ee c4
       95 -111 126 52 -57 -17 -18 45 -114 23 -124 -6 61 -31 -18 -60
000050 39 dc b9 19 2a 16 27 d3 b6 23 92 04 83 b6 50 6e
       57 -36 -71 25 42 22 39 -45 -74 35 -110 4 -125 -74 80 110
000060 e1 65 60 77 0e f9 81 42 b5 40 db d0 16 2c f0 64
       -31 101 96 119 14 -7 -127 66 -75 64 -37 -48 22 44 -16 100
000070 b2 66 40 c5 2c 79 a2 85 98 f0 5f 59 76 db da e5
       -78 102 64 -59 44 121 -94 -123 -104 -16 95 89 118 -37 -38 -27
000080 20 1d 99 f6 74 2b 87 d1 c6 e1 7a 5d 14 61 b9 3b
       32 29 -103 -10 116 43 -121 -47 -58 -31 122 93 20 97 -71 59
000090 92 ca 94 ee 90 2e c5 29 cd 5c 25 a1 6f 81 0e ca
       -110 -54 -108 -18 -112 46 -59 41 -51 92 37 -95 111 -127 14 -54
0000a0 e1 34 99 aa 46 44 3e 71 70 c8 32 ce f7 aa 36 fb
       -31 52 -103 -86 70 68 62 113 112 -56 50 -50 -9 -86 54 -5
0000b0 35 9c 5e 9a 83 78 a9 26 f7 a7 73 31 ff 21 0e 5e
       53 -100 94 -102 -125 120 -87 38 -9 -89 115 49 -1 33 14 94
0000c0 37 b8 83 bc fd dd 2b b8 8a b7 e5 d9 95 8a ce 4c
       55 -72 -125 -68 -3 -35 43 -72 -118 -73 -27 -39 -107 -118 -50 76
0000d0 ca 1e cf 40 93 7f dc 5c ad 93 42 c3 6a 13 e4 58
       -54 30 -49 64 -109 127 -36 92 -83 -109 66 -61 106 19 -28 88
0000e0 9b 11 a1 fd ed c9 2d 75 24 89 77 cb 03 7d 7e ef
       -101 17 -95 -3 -19 -55 45 117 36 -119 119 -53 3 125 126 -17
0000f0 d8 36 8e b2 7f 8b 74 4f 6d 19 9a f0 59 86 47 c9
       -40 54 -114 -78 127 -117 116 79 109 25 -102 -16 89 -122 71 -55

model/mobilenetv2_0.50_64/block_11_project/Conv2D i1 [48, 1, 1, 288]
000000 ab 6d a5 e3 71 36 4e 64 62 93 d3 71 f2 b8 11 5b
       -85 109 -91 -29 113 54 78 100 98 -109 -45 113 -14 -72 17 91
000010 02 fe f8 09 ff 7a 6f 04 42 96 8d 42 0a e8 cb 11
       2 -2 -8 9 -1 122 111 4 66 -106 -115 66 10 -24 -53 17
000020 b1 dd 29 10 62 8b 93 4c 93 29 d0 6b 5f 05 ed 98
       -79 -35 41 16 98 -117 -109 76 -109 41 -48 107 95 5 -19 -104
000030 c7 87 1a 2f 11 74 e6 88 78 4b 13 1a 2c e8 5e b2
       -57 -121 26 47 17 116 -26 -120 120 75 19 26 44 -24 94 -78
000040 5f 3a d4 04 35 31 07 89 8c 55 f8 42 5e e2 41 d9
       95 58 -44 4 53 49 7 -119 -116 85 -8 66 94 -30 65 -39
000050 98 22 a1 7f e8 21 b6 a4 63 64 07 2e dd 9f 91 ea
       -104 34 -95 127 -24 33 -74 -92 99 100 7 46 -35 -97 -111 -22
000060 97 f5 73 e6 c9 02 12 1c 64 32 2f ed 14 fa d4 b7
       -105 -11 115 -26 -55 2 18 28 100 50 47 -19 20 -6 -44 -73
000070 87 c7 5d 10 34 24 98 ed 12 39 fa 65 3a 62 e4 07
       -121 -57 93 16 52 36 -104 -19 18 57 -6 101 58 98 -28 7
000080 46 34 33 e0 39 9b f3 a4 f3 2f 3a b0 05 9f 5c d0
       70 52 51 -32 57 -101 -13 -92 -13 47 58 -80 5 -97 92 -48
000090 e9 fa f8 b2 18 25 53 6c 6c f2 99 31 48 5c de b9
       -23 -6 -8 -78 24 37 83 108 108 -14 -103 49 72 92 -34 -71
0000a0 4a 0b 4f 62 dc 14 74 d4 85 65 c6 2e f7 8c 35 84
       74 11 79 98 -36 20 116 -44 -123 101 -58 46 -9 -116 53 -124
0000b0 0b 4b d8 be 18 70 60 09 7a ad 53 d6 ea 97 fd 51
       11 75 -40 -66 24 112 96 9 122 -83 83 -42 -22 -105 -3 81
0000c0 fe 42 59 31 ae 34 8a c0 cd 39 51 a6 af 51 36 40
       -2 66 89 49 -82 52 -118 -64 -51 57 81 -90 -81 81 54 64
0000d0 c9 e0 b4 b2 0d 51 94 f8 94 63 cb de ea 65 21 9c
       -55 -32 -76 -78 13 81 -108 -8 -108 99 -53 -34 -22 101 33 -100
0000e0 70 2d 07 a1 c2 f3 88 4c f1 92 4b 31 2a 52 44 0b
       112 45 7 -95 -62 -13 -120 76 -15 -110 75 49 42 82 68 11
0000f0 c7 bc 33 24 2e a2 67 1e 5c 57 55 18 55 75 cb 27
       -57 -68 51 36 46 -94 103 30 92 87 85 24 85 117 -53 39

model/mobilenetv2_0.50_64/block_11_depthwise_BN/FusedBatchNormV3;model/mobilenetv2_0.50_64/block_11_depthwise/depthwise;model/mobilenetv2_0.50_64/block_13_depthwise/depthwise i1 [1, 3, 3, 288]
000000 66 67 4d 90 df f8 ba f0 da 0a e9 32 50 3b 72 b4
       102 103 77 -112 -33 -8 -70 -16 -38 10 -23 50 80 59 114 -76
000010 7a 82 5c 6d 9c a4 95 1e a7 9d c3 14 b5 14 99 3e
       122 -126 92 109 -100 -92 -107 30 -89 -99 -61 20 -75 20 -103 62
000020 42 5b 81 e7 1c a1 21 3b 48 29 35 7f f1 b2 1b 22
       66 91 -127 -25 28 -95 33 59 72 41 53 127 -15 -78 27 34
000030 81 81 7f 93 c0 81 d6 eb 6b 94 e1 13 54 cd 7a 57
       -127 -127 127 -109 -64 -127 -42 -21 107 -108 -31 19 84 -51 122 87
000040 13 55 ac 09 69 87 82 06 54 bb 81 d9 73 6f 5a 09
       19 85 -84 9 105 -121 -126 6 84 -69 -127 -39 115 111 90 9
000050 4f 12 23 cd be 1d 6e e7 25 ef 37 89 98 53 2c 4a
       79 18 35 -51 -66 29 110 -25 37 -17 55 -119 -104 83 44 74
000060 7b 1c 2b e2 61 49 70 d6 ac b2 2d e9 28 4b 7f 64
       123 28 43 -30 97 73 112 -42 -84 -78 45 -23 40 75 127 100
000070 7f dd 7f d3 57 36 1d ae 7a b7 5c 50 7f d9 ef 00
       127 -35 127 -45 87 54 29 -82 122 -73 92 80 127 -39 -17 0
000080 18 cc 35 c1 63 50 5f 31 51 ea 7f 81 ea 69 00 84
       24 -52 53 -63 99 80 95 49 81 -22 127 -127 -22 105 0 -124
000090 37 55 30 93 8e 68 3b 33 aa 69 27 7f a6 2c d7 3d
       55 85 48 -109 -114 104 59 51 -86 105 39 127 -90 44 -41 61
0000a0 bc 9e 81 81 cb a3 b8 81 6d 0f db 81 42 34 04 ab
       -68 -98 -127 -127 -53 -93 -72 -127 109 15 -37 -127 66 52 4 -85
0000b0 b6 51 a3 65 7f 11 a3 35 c3 1c bb 60 38 da a6 01
       -74 81 -93 101 127 17 -93 53 -61 28 -69 96 56 -38 -90 1
0000c0 7f 12 be 03 99 91 9b 17 25 44 1a 93 81 6c 0e 63
       127 18 -66 3 -103 -111 -101 23 37 68 26 -109 -127 108 14 99
0000d0 04 b9 9b a0 26 32 0f ca c7 3e e1 7a 31 17 f1 7d
       4 -71 -101 -96 38 50 15 -54 -57 62 -31 122 49 23 -15 125
0000e0 05 7f 1a b0 9d df 27 7f d7 b6 b4 2b c3 af ff b1
       5 127 26 -80 -99 -33 39 127 -41 -74 -76 43 -61 -81 -1 -79
0000f0 de 30 3a 26 da 77 33 3a 0e 0c 7f a0 7f 6d 7f 81
       -34 48 58 38 -38 119 51 58 14 12 127 -96 127 109 127 -127

model/mobilenetv2_0.50_64/block_11_expand/Conv2D i1 [288, 1, 1, 48]
000000 3b 86 64 8f 88 08 7c 57 23 c9 ba 11 db 81 9c 0e
       59 -122 100 -113 -120 8 124 87 35 -55 -70 17 -37 -127 -100 14
000010 05 96 fb 42 f3 6b 60 17 ee f4 e4 ac 9d 5f 77 99
       5 -106 -5 66 -13 107 96 23 -18 -12 -28 -84 -99 95 119 -103
000020 22 b2 f0 2e 3d 5d a0 5c 69 42 a0 c0 87 f8 11 53
       34 -78 -16 46 61 93 -96 92 105 66 -96 -64 -121 -8 17 83
000030 9b 56 70 ff 8c 50 27 f8 e5 61 02 cf a2 20 88 8a
       -101 86 112 -1 -116 80 39 -8 -27 97 2 -49 -94 32 -120 -118
000040 72 07 ed 90 8e 95 9c f0 1d b5 49 a5 87 01 07 89
       114 7 -19 -112 -114 -107 -100 -16 29 -75 73 -91 -121 1 7 -119
000050 86 e1 fc 6b af 7f 07 f4 5e 8e a7 4b fb f6 f1 ed
       -122 -31 -4 107 -81 127 7 -12 94 -114 -89 75 -5 -10 -15 -19
000060 f5 1a 95 74 5e 92 e2 01 d1 e3 89 71 6e 5d a9 fd
       -11 26 -107 116 94 -110 -30 1 -47 -29 -119 113 110 93 -87 -3
000070 cf 69 fc 35 04 7f 1a 11 f5 46 57 2b 58 60 97 2e
       -49 105 -4 53 4 127 26 17 -11 70 87 43 88 96 -105 46
000080 9d 5f ec 62 2d f2 72 dc 25 0a 82 12 4b 6c b6 1d
       -99 95 -20 98 45 -14 114 -36 37 10 -126 18 75 108 -74 29
000090 f1 5d d9 25 a0 1a d5 5e b8 e7 b1 39 74 2a 7f b5
       -15 93 -39 37 -96 26 -43 94 -72 -25 -79 57 116 42 127 -75
0000a0 67 33 9f 00 16 d0 e2 90 c8 f1 e4 fd b9 50 bb 2e
       103 51 -97 0 22 -48 -30 -112 -56 -15 -28 -3 -71 80 -69 46
0000b0 78 f7 28 9b e9 8a 9a 57 04 69 a8 d8 3f 83 08 ac
       120 -9 40 -101 -23 -118 -102 87 4 105 -88 -40 63 -125 8 -84
0000c0 3a b3 e5 46 cd ab 74 65 58 e2 1b bc 38 f5 e6 97
       58 -77 -27 70 -51 -85 116 101 88 -30 27 -68 56 -11 -26 -105
0000d0 3b 57 5d 7f 99 3b d6 ec dc 4a 36 56 d4 91 8e 6f
       59 87 93 127 -103 59 -42 -20 -36 74 54 86 -44 -111 -114 111
0000e0 37 99 10 29 4a a7 6c 8c 67 15 0b 2d 34 6d 4e 72
       55 -103 16 41 74 -89 108 -116 103 21 11 45 52 109 78 114
0000f0 8b 87 e6 99 bf ff 84 75 1f 56 8d ee c0 7b 61 7f
       -117 -121 -26 -103 -65 -1 -124 117 31 86 -115 -18 -64 123 97 127

model/mobilenetv2_0.50_64/block_10_project/Conv2D i1 [48, 1, 1, 192]
000000 55 e0 cb 3c 99 32 e6 a2 02 e8 c6 6d b3 26 30 4e
       85 -32 -53 60 -103 50 -26 -94 2 -24 -58 109 -77 38 48 78
000010 92 d8 64 2f 56 fd 73 9d 2f bf 7b 40 09 f7 85 8b
       -110 -40 100 47 86 -3 115 -99 47 -65 123 64 9 -9 -123 -117
000020 84 bb a2 c2 9c ef 5b 2a c0 00 06 dd 94 af 5a 37
       -124 -69 -94 -62 -100 -17 91 42 -64 0 6 -35 -108 -81 90 55
000030 9e 38 ed 23 66 2d 55 60 48 64 42 ff 2c 20 7c c4
       -98 56 -19 35 102 45 85 96 72 100 66 -1 44 32 124 -60
000040 54 e2 f7 4f 2c 05 22 f5 55 c5 10 b3 37 2d f8 3f
       84 -30 -9 79 44 5 34 -11 85 -59 16 -77 55 45 -8 63
000050 66 a0 d6 b2 ba e6 7e d4 19 a0 10 01 67 a3 08 ce
       102 -96 -42 -78 -70 -26 126 -44 25 -96 16 1 103 -93 8 -50
000060 ca f6 0f b3 39 d8 2a f1 4f 7f 3d 71 04 30 cb 9c
       -54 -10 15 -77 57 -40 42 -15 79 127 61 113 4 48 -53 -100
000070 a5 4f c4 6d 10 b8 20 b2 92 e3 97 37 52 5e cc 8b
       -91 79 -60 109 16 -72 32 -78 -110 -29 -105 55 82 94 -52 -117
000080 cc f4 a1 31 a6 6a 9f 58 53 56 3e cc a1 ca 6b fd
       -52 -12 -95 49 -90 106 -97 88 83 86 62 -52 -95 -54 107 -3
000090 38 ef 23 b6 e0 7c a8 db 43 04 79 3e 3c fd e5 78
       56 -17 35 -74 -32 124 -88 -37 67 4 121 62 60 -3 -27 120
0000a0 d4 c3 6e 9e e1 e6 aa 1e 08 2b f9 f4 46 0a d4 bc
       -44 -61 110 -98 -31 -26 -86 30 8 43 -7 -12 70 10 -44 -68
0000b0 6b 59 92 44 3e 5e 70 8f cb c1 a7 3d ee 00 be b3
       107 89 -110 68 62 94 112 -113 -53 -63 -89 61 -18 0 -66 -77
0000c0 08 e0 ce 0f 76 33 a1 b7 e6 05 2d 30 d4 d0 88 3b
       8 -32 -50 15 118 51 -95 -73 -26 5 45 48 -44 -48 -120 59
0000d0 b0 17 6e 63 e8 bc e7 55 44 bf 97 56 54 64 64 02
       -80 23 110 99 -24 -68 -25 85 68 -65 -105 86 84 100 100 2
0000e0 4a 9a 59 62 9a 22 cd 79 d5 8e 13 25 07 ec f4 55
       74 -102 89 98 -102 34 -51 121 -43 -114 19 37 7 -20 -12 85
0000f0 97 c3 f0 48 44 86 a4 7d e1 9e 9c ff a7 79 27 0a
       -105 -61 -16 72 68 -122 -92 125 -31 -98 -100 -1 -89 121 39 10

model/mobilenetv2_0.50_64/block_10_depthwise_BN/FusedBatchNormV3;model/mobilenetv2_0.50_64/block_10_depthwise/depthwise i1 [1, 3, 3, 192]
000000 ab ea a2 7f 66 fe 4b 85 7f 81 41 9a cd ea b9 7c
       -85 -22 -94 127 102 -2 75 -123 127 -127 65 -102 -51 -22 -71 124
000010 17 c4 7b 99 b1 11 8f 71 c9 bf a1 51 81 ba e0 96
       23 -60 123 -103 -79 17 -113 113 -55 -65 -95 81 -127 -70 -32 -106
000020 1c 91 79 81 e9 6b 81 a9 cf 2b 8f 81 f3 39 a1 20
       28 -111 121 -127 -23 107 -127 -87 -49 43 -113 -127 -13 57 -95 32
000030 e2 3a a8 6f ba 31 9b ba 0b 38 e8 d9 0d 2b 20 e8
       -30 58 -88 111 -70 49 -101 -70 11 56 -24 -39 13 43 32 -24
000040 0f 33 7f 81 1e 1e 07 5e 5f 29 e5 35 ce 93 40 c2
       15 51 127 -127 30 30 7 94 95 41 -27 53 -50 -109 64 -62
000050 f2 c3 fe 33 02 1c 17 a0 cb ab 9f f8 8e 38 2d f1
       -14 -61 -2 51 2 28 23 -96 -53 -85 -97 -8 -114 56 45 -15
000060 4a 25 a8 81 5d 3d 7f 0a ba 25 3f 09 92 ab d5 ef
       74 37 -88 -127 93 61 127 10 -70 37 63 9 -110 -85 -43 -17
000070 35 81 87 ae 8f 08 71 81 34 fd f4 85 30 e5 33 f2
       53 -127 -121 -82 -113 8 113 -127 52 -3 -12 -123 48 -27 51 -14
000080 be ae 37 c4 4b 77 bb 40 d7 b3 9f 02 ca 2d d0 2e
       -66 -82 55 -60 75 119 -69 64 -41 -77 -97 2 -54 45 -48 46
000090 01 09 cc 29 e2 17 51 e9 f5 af d0 a9 75 d3 81 36
       1 9 -52 41 -30 23 81 -23 -11 -81 -48 -87 117 -45 -127 54
0000a0 ae fe 21 d6 68 6b b5 28 1f 97 14 f9 ed df fe 0d
       -82 -2 33 -42 104 107 -75 40 31 -105 20 -7 -19 -33 -2 13
0000b0 f0 98 18 6a d5 81 e6 0d 81 12 6f a8 b3 9f 61 e9
       -16 -104 24 106 -43 -127 -26 13 -127 18 111 -88 -77 -97 97 -23
0000c0 5a 8f 94 91 70 33 5e d2 f1 54 94 4b 21 70 aa 7f
       90 -113 -108 -111 112 51 94 -46 -15 84 -108 75 33 112 -86 127
0000d0 47 f4 82 81 26 ac ab 36 60 29 26 5e 02 05 47 d4
       71 -12 -126 -127 38 -84 -85 54 96 41 38 94 2 5 71 -44
0000e0 7f dc c8 a1 7f 7f 85 f8 d1 dd 58 c0 7f 57 d9 36
       127 -36 -56 -95 127 127 -123 -8 -47 -35 88 -64 127 87 -39 54
0000f0 82 7f be 2f d9 7a 54 0d 7f 40 54 55 7f 7f 9d 34
       -126 127 -66 47 -39 122 84 13 127 64 84 85 127 127 -99 52

model/mobilenetv2_0.50_64/block_10_expand/Conv2D i1 [192, 1, 1, 32]
000000 14 ce 85 f5 6f 06 66 19 ed eb e0 04 98 aa 78 59
       20 -50 -123 -11 111 6 102 25 -19 -21 -32 4 -104 -86 120 89
000010 9e 3c 04 10 9c 4f 81 5b 94 a1 e6 1a 4f b3 6e ce
       -98 60 4 16 -100 79 -127 91 -108 -95 -26 26 79 -77 110 -50
000020 a2 71 9c 08 a9 26 99 9a ea cf d0 65 f5 d3 21 58
       -94 113 -100 8 -87 38 -103 -102 -22 -49 -48 101 -11 -45 33 88
000030 0d ba ee 6e 2b a5 77 0c cb 29 7f bd dd 9f 2f 18
       13 -70 -18 110 43 -91 119 12 -53 41 127 -67 -35 -97 47 24
000040 25 79 6e 50 f4 57 c3 32 08 64 c5 89 bf 64 7f 8a
       37 121 110 80 -12 87 -61 50 8 100 -59 -119 -65 100 127 -118
000050 09 18 cb e6 35 b6 07 1d e9 98 54 48 91 94 f9 4f
       9 24 -53 -26 53 -74 7 29 -23 -104 84 72 -111 -108 -7 79
000060 3c a9 0b 7f 5f 9c 93 bd e9 82 de e2 cd fd 40 b7
       60 -87 11 127 95 -100 -109 -67 -23 -126 -34 -30 -51 -3 64 -73
000070 83 6f ec 4a b6 3c 34 48 aa 62 d2 17 36 91 a1 96
       -125 111 -20 74 -74 60 52 72 -86 98 -46 23 54 -111 -95 -106
000080 d0 81 25 86 cb a5 d8 83 3b 74 8f 42 43 29 02 92
       -48 -127 37 -122 -53 -91 -40 -125 59 116 -113 66 67 41 2 -110
000090 41 f5 3f f3 ae e6 75 2c fd fc 0d a2 f9 4f a6 e9
       65 -11 63 -13 -82 -26 117 44 -3 -4 13 -94 -7 79 -90 -23
0000a0 8d 8e 2d 17 ba ca 2f e9 81 30 53 4c 63 b4 33 d4
       -115 -114 45 23 -70 -54 47 -23 -127 48 83 76 99 -76 51 -44
0000b0 a6 b1 92 2b 4f ea d3 6f 1c bf 98 11 f2 b5 ac b4
       -90 -79 -110 43 79 -22 -45 111 28 -65 -104 17 -14 -75 -84 -76
0000c0 00 ee ea a4 85 22 2b 32 b9 30 98 38 a9 cb 7f b6
       0 -18 -22 -92 -123 34 43 50 -71 48 -104 56 -87 -53 127 -74
0000d0 35 2d e0 ce 41 55 12 b9 29 c4 a2 29 f6 9d c9 5f
       53 45 -32 -50 65 85 18 -71 41 -60 -94 41 -10 -99 -55 95
0000e0 04 42 dc c5 43 03 1a f8 ad d4 87 63 66 e1 3b 81
       4 66 -36 -59 67 3 26 -8 -83 -44 -121 99 102 -31 59 -127
0000f0 df 93 28 57 e2 68 75 2b 32 51 35 fc fe 7b 98 89
       -33 -109 40 87 -30 104 117 43 50 81 53 -4 -2 123 -104 -119

model/mobilenetv2_0.50_64/block_9_project/Conv2D i1 [32, 1, 1, 192]
000000 26 48 5a 6e 81 cf 0c d7 b7 cd 14 ad 53 10 96 a9
       38 72 90 110 -127 -49 12 -41 -73 -51 20 -83 83 16 -106 -87
000010 14 c4 01 54 6b 7a 53 3f 74 12 c3 8f 9c a7 1f a5
       20 -60 1 84 107 122 83 63 116 18 -61 -113 -100 -89 31 -91
000020 78 c0 0c 17 3e 25 54 10 cc ec 32 43 dc 0c f4 05
       120 -64 12 23 62 37 84 16 -52 -20 50 67 -36 12 -12 5
000030 8f a6 50 6a 2f 5f e6 51 4e b8 f1 17 62 8a a3 0e
       -113 -90 80 106 47 95 -26 81 78 -72 -15 23 98 -118 -93 14
000040 8f 55 b4 10 38 15 79 15 71 08 a9 b7 aa f7 04 0a
       -113 85 -76 16 56 21 121 21 113 8 -87 -73 -86 -9 4 10
000050 9d 67 e9 a6 8f 37 96 ed f8 5b 38 d9 2d 66 89 99
       -99 103 -23 -90 -113 55 -106 -19 -8 91 56 -39 45 102 -119 -103
000060 e4 09 e1 21 c1 fe 09 f2 7c ac 20 7b 1e af f3 5d
       -28 9 -31 33 -63 -2 9 -14 124 -84 32 123 30 -81 -13 93
000070 1f 71 20 19 a7 3d 65 c6 42 e6 70 11 21 14 01 88
       31 113 32 25 -89 61 101 -58 66 -26 112 17 33 20 1 -120
000080 59 50 4a 3e 5c 83 a4 9c 8e 21 46 41 a7 40 7a 06
       89 80 74 62 92 -125 -92 -100 -114 33 70 65 -89 64 122 6
000090 59 b6 33 6f 1d 01 4b 28 6f 97 49 f8 e7 9c 05 e6
       89 -74 51 111 29 1 75 40 111 -105 73 -8 -25 -100 5 -26
0000a0 5b 18 41 2c e0 b2 22 f9 4b d4 c6 e3 37 9b 0c 08
       91 24 65 44 -32 -78 34 -7 75 -44 -58 -29 55 -101 12 8
0000b0 eb 61 6a ab 98 9c 63 58 6e e6 f2 93 eb 93 77 f9
       -21 97 106 -85 -104 -100 99 88 110 -26 -14 -109 -21 -109 119 -7
0000c0 24 8f 3c aa 2d 8c 41 a7 03 6c 74 9d c0 dd 27 a1
       36 -113 60 -86 45 -116 65 -89 3 108 116 -99 -64 -35 39 -95
0000d0 26 46 50 86 f9 15 d7 f6 1c 18 1d 5a 09 e2 95 bb
       38 70 80 -122 -7 21 -41 -10 28 24 29 90 9 -30 -107 -69
0000e0 c4 43 ae 08 6a 57 c2 90 e4 4e e6 2d e5 a1 6a 03
       -60 67 -82 8 106 87 -62 -112 -28 78 -26 45 -27 -95 106 3
0000f0 85 6f 56 0c 47 2a 2a af 05 cb 44 25 98 e0 ee c5
       -123 111 86 12 71 42 42 -81 5 -53 68 37 -104 -32 -18 -59
