models/autoencoder/dynamic_range_quantization/model_valve.tflite (tflite, 277016 bytes, 20 tensors)

model/dense_9/BiasAdd/ReadVariableOp f4 [640]
-1.0985358 -0.025060175 -0.51660514 -0.09793735 -0.51224023 -0.10063246 -0.39184925 -0.35032865
-0.4393768 -0.56483287 -0.68439513 0.025749674 -0.46799278 -0.59658074 -0.7119258 -0.49971193
-0.6568034 -0.5983873 -0.40924346 -0.17675625 -0.765429 -0.3258109 -0.62106836 -0.43621284
-0.45801413 -0.4026329 -0.80669695 -0.49210724 -0.43764147 -0.3996084 -0.3817904 -0.390398
-0.6251656 -0.21048817 -0.6050715 -0.49714485 -0.668239 -0.4476769 -0.36067036 -0.29315093
-0.38683218 -0.4114198 -0.6133468 -0.639436 -0.60198176 -0.6294917 -0.085786626 -0.44267443
-0.6676217 -0.60307807 -0.7197068 -0.57475966 -0.43769875 -0.6505443 -0.4514564 -0.8055883
-0.9151081 -0.46324542 -0.7452067 -0.75710523 -0.79343563 -0.77423793 -1.0541337 -0.67525864
-0.5832078 -0.9633748 -0.67777455 -0.52409214 -0.70600414 -0.69052815 -0.35809672 -0.6388756
-0.4662503 -0.6134616 -0.9505326 -0.53331196 -0.66397953 -0.84384227 -0.6040826 -0.78001606
-0.8595881 -0.47630927 -0.5513728 -0.62470925 -0.5582375 -0.89897025 -0.7886053 -0.7116467
-0.65357 -0.50899523 -0.63375527 -0.85410845 -0.97551024 -0.82841843 -0.8176911 -0.9043492
-0.97142 -0.9292188 -1.0406874 -0.6665328 -0.8031034 -1.1669561 -1.0621402 -0.68678457
-0.5060639 -0.80269635 -0.8296559 -0.9376587 -0.58940685 -0.60488105 -0.9181295 -0.4913916
-0.67728376 -0.8516377 -1.0318295 -1.106634 -1.0064517 -0.87828135 -0.6562539 -0.6438555
-0.9932066 -1.0062462 -0.69083196 -0.58554196 -0.45954642 -0.43877813 -0.6908466 -1.2853711
-1.1018028 -0.025391776 -0.5417454 -0.11687086 -0.54463565 -0.09865668 -0.39265853 -0.37843454
-0.42345595 -0.51597124 -0.64597994 0.079724036 -0.42977032 -0.5172906 -0.60675013 -0.41553828
-0.61316115 -0.576409 -0.37269032 -0.12520027 -0.7196142 -0.31760067 -0.65785676 -0.4904871
-0.5195594 -0.51358885 -0.8987051 -0.42598522 -0.2906965 -0.3344254 -0.38979208 -0.47407705
-0.63839394 -0.22066933 -0.6171054 -0.47695705 -0.57310283 -0.38465843 -0.3644279 -0.31414625
-0.4590386 -0.47970882 -0.7522661 -0.6896588 -0.63652664 -0.7021942 -0.17538437 -0.50909483
-0.65358764 -0.5356724 -0.65293044 -0.54523945 -0.44079885 -0.56925255 -0.37511006 -0.701462
-0.79917395 -0.42130804 -0.66586006 -0.66714877 -0.66487634 -0.61105794 -0.8666231 -0.4842953
-0.45291758 -0.78763574 -0.60899293 -0.5950633 -0.8477779 -0.7209086 -0.43202144 -0.6841683
-0.3634043 -0.41652146 -0.818475 -0.40808067 -0.50953233 -0.7690213 -0.5430321 -0.835732
-0.85607654 -0.4349585 -0.5376569 -0.748728 -0.7776329 -0.9952396 -0.778027 -0.7942332
-0.6902936 -0.49031323 -0.6414072 -0.940936 -0.9458017 -0.6573472 -0.6603785 -0.732687
-0.761282 -0.8512344 -1.0799109 -0.6554577 -0.6511532 -1.0155824 -0.9917006 -0.7358619
-0.6228597 -0.91444904 -0.7402608 -0.9194392 -0.79089993 -0.72122496 -0.74783164 -0.1739813
-0.5835511 -0.82323307 -0.9130098 -0.88544106 -0.7820567 -0.64914703 -0.7479196 -0.71021044
-1.0441042 -1.0249852 -0.6696478 -0.5237148 -0.49793583 -0.4159763 -0.75530595 -1.2744353
00000000: d29c 8cbf ff4a cdbc 3c40 04bf 6193 c8bd
00000010: 2d22 03bf 6418 cebd 77a0 c8be 475e b3be
00000020: fff5 e0be e398 10bf 8534 2fbf fbf0 d23c
00000030: c09c efbe 84b9 18bf c540 36bf 3eda ffbe
00000040: 4524 28bf e92f 19bf 5c88 d1be 97ff 34be
00000050: 28f3 43bf b0d0 a6be 56fe 1ebf 4a57 dfbe
00000060: d480 eabe e625 cebe b183 4ebf 7bf5 fbbe
00000070: 8b12 e0be 7999 ccbe 087a c3be 3fe2 c7be
00000080: da0a 20bf 368a 57be f7e5 1abf c589 febe
00000090: b611 2bbf e835 e5be c9a9 b8be e117 96be
000000a0: de0e c6be 9ea5 d2be 4c04 1dbf 14b2 23bf
000000b0: 7a1b 1abf 5e26 21bf e6b0 afbd 39a6 e2be
000000c0: 41e9 2abf 5363 1abf b43e 38bf 7323 13bf
000000d0: 0d1a e0be 128a 26bf 4b25 e7be 093b 4ebf
000000e0: 8644 6abf 812e edbe dec5 3ebf a6d1 41bf
000000f0: 991e 4bbf 7534 46bf daed 86bf c0dd 2cbf
00000100: 1b4d 15bf bb9f 76bf a282 2dbf e72a 06bf
00000110: b0bc 34bf 74c6 30bf 7458 b7be 5a8d 23bf
00000120: 5cb8 eebe d20b 1dbf 1b56 73bf 2287 08bf
00000130: 90fa 29bf 0c06 58bf 28a5 1abf 22af 47bf
00000140: f70d 5cbf cfde f3be c526 0dbf f2ec 1fbf
00000150: a7e8 0ebf ea22 66bf 09e2 49bf 7a2e 36bf
00000160: 5d50 27bf 834d 02bf c93d 22bf daa6 5abf
00000170: 0abb 79bf 3b13 54bf 3454 51bf 6e83 67bf
00000180: fbae 78bf 49e1 6dbf 3f35 85bf e5a1 2abf
00000190: 2f98 4dbf d15e 95bf 36f4 87bf 1dd1 2fbf
000001a0: 678d 01bf 827d 4dbf 5464 54bf 670a 70bf
000001b0: 5ee3 16bf 7cd9 1abf 890a 6bbf ae97 fbbe
000001c0: 7862 2dbf ee04 5abf fd12 84bf 2fa6 8dbf
000001d0: 69d3 80bf 0cd7 60bf 4100 28bf b7d3 24bf
000001e0: ca42 7ebf adcc 80bf 5dda 30bf 14e6 15bf
000001f0: ab49 ebbe 87a7 e0be 53db 30bf 0a87 a4bf
00000200: e007 8dbf 6a02 d0bc d4af 0abf fd59 efbd
00000210: 3e6d 0bbf 830c cabd 8a0a c9be 2cc2 c1be
00000220: 38cf d8be b116 04bf f15e 25bf 5b46 a33d
00000230: db0a dcbe 286d 04bf fa53 1bbf 6fc1 d4be
00000240: 21f8 1cbf 8a8f 13bf 44d1 bebe 8034 00be
00000250: a338 38bf 8e9c a2be 4d69 28bf 2021 fbbe
00000260: d801 05bf 8f7a 03bf 8a11 66bf bc1a dabe
00000270: 2cd6 94be ce39 abbe d492 c7be 3aba f2be
00000280: c96d 23bf 24f7 61be 9ffa 1dbf b733 f4be
00000290: deb6 12bf f3f1 c4be 4b96 babe c7d7 a0be
000002a0: 1b07 ebbe 659c f5be 8394 40bf 7b8d 30bf
000002b0: 69f3 22bf 00c3 33bf f697 33be 0a54 02bf
000002c0: 8551 27bf d421 09bf 7326 27bf d094 0bbf
000002d0: 63b0 e1be 89ba 11bf 6d0e c0be 0393 33bf
000002e0: aa96 4cbf b0b5 d7be ce75 2abf 43ca 2abf
000002f0: 5635 2abf 4b6e 1cbf 03db 5dbf 8ef5 f7be
00000300: d0e4 e7be 7fa2 49bf f6e6 1bbf 1256 18bf
00000310: f907 59bf 778d 38bf ea31 ddbe a725 2fbf
00000320: 2110 babe 4d42 d5be 9487 51bf f3ef d0be
00000330: b670 02bf 94de 44bf 2704 0bbf 88f2 55bf
00000340: d527 5bbf e1b2 debe e2a3 09bf a3ac 3fbf
00000350: f312 47bf 06c8 7ebf c72c 47bf de52 4bbf
00000360: 15b7 30bf 560a fbbe 4333 24bf 2fe1 70bf
00000370: 0f20 72bf e847 28bf 910e 29bf 6091 3bbf
00000380: 61e3 42bf 7fea 59bf 853a 8abf 13cc 27bf
00000390: fab1 26bf 9bfe 81bf 17e0 7dbf 7261 3cbf
000003a0: bc73 1fbf 5519 6abf bb81 3dbf 5e60 6bbf
000003b0: 6b78 4abf 33a2 38bf e571 3fbf 2728 32be
000003c0: 9b63 15bf 67bf 52bf 03bb 69bf 44ac 62bf
000003d0: de34 48bf 802e 26bf a977 3fbf 5ad0 35bf
000003e0: 35a5 85bf b732 83bf 0a6e 2bbf 2c12 06bf
000003f0: 72f1 febe d8fa d4be bb5b 41bf b220 a3bf

model/activation/Relu;model/batch_normalization/batchnorm/add_1 f4 [128]
2.002528 -14.683304 -0.7381116 -1.1887097 -0.9730906 -2.4375951 0.13097903 0.32896975
1.3199415 0.54578906 -1.8924358 -2.5308719 2.2280061 -2.821139 0.50349885 0.7399431
-0.82196736 -1.7779996 -2.6047833 14.946294 -1.9250953 -0.6839856 -1.2299606 0.15266287
7.6126585 7.5054994 3.9633987 0.118048854 8.383232 -2.5203066 2.5317228 0.3143192
-2.262733 -8.007379 8.317967 -0.5987557 1.8928349 1.4905734 -3.942883 2.0097997
0.75730896 -0.703816 -0.09169595 -1.2075005 0.12506357 3.6497767 3.4614923 -0.25787917
-0.45890036 1.0164875 9.906645 6.376977 -0.8859303 -1.8921279 -4.9152193 1.4504014
1.6089422 -9.0915365 -0.8086815 -1.2860827 -0.7592628 -1.233403 0.7002687 -0.4894282
0.23267196 -0.03428417 -0.6527284 -7.932777 -0.5531263 -1.6264716 -0.29411784 -3.8634715
14.669315 2.275052 5.949859 4.6692457 5.7655363 -9.796959 -1.8067024 1.1577427
-0.035757083 -2.7168825 -1.1952994 -0.027872039 -1.5467517 -1.2874883 -3.1525474 -5.6380363
2.872622 -0.36434323 11.417806 1.3638184 -4.4948854 1.7909936 -4.2237167 -1.4144243
0.63654745 0.17773084 3.849503 -1.1041362 -3.3250203 -0.6189622 1.699169 -7.551157
1.5697311 -13.501561 0.0724269 -2.079696 -0.7582503 -2.0466638 1.2438992 -2.9971237
-0.06590177 0.5301771 14.732876 -11.195606 1.08188 -0.8035072 -1.5243458 2.4918022
0.6131013 2.8457277 1.9203053 0.798858 -0.69454396 1.2393382 2.449115 5.0991764
00000000: 6b29 0040 d0ee 6ac1 e2f4 3cbf a427 98bf
00000010: 771c 79bf 8f01 1cc0 5e1f 063e b96e a83e
00000020: d8f3 a83f d5b8 0b3f 563b f2bf cef9 21c0
00000030: a797 0e40 8b8d 34c0 4de5 003f e96c 3d3f
00000040: 746c 52bf 7e95 e3bf c5b4 26c0 0524 6f41
00000050: 8669 f6bf ae19 2fbf 596f 9dbf a853 1c3e
00000060: e69a f340 0d2d f040 53a8 7d40 99c3 f13d
00000070: b821 0641 b44c 21c0 bf07 2240 72ee a03e
00000080: 9ed0 10c0 391e 00c1 6516 0541 0e48 19bf
00000090: 6a48 f23f 1ccb be3f 3258 7cc0 8fa0 0040
000000a0: 00df 413f 492d 34bf 16cb bbbd 608f 9abf
000000b0: aa10 003e f195 6940 1789 5d40 bd08 84be
000000c0: fdf4 eabe 431c 823f 9e81 1e41 3210 cc40
000000d0: 54cc 62bf 3f31 f2bf 7a49 9dc0 c1a6 b93f
000000e0: d1f1 cd3f ef76 11c1 c005 4fbf 5c9e a4bf
000000f0: 0c5f 42bf 26e0 9dbf cf44 333f 5596 fabe
00000100: 8f41 6e3e 8f6d 0cbd 3519 27bf 4fd9 fdc0
00000110: af99 0dbf 3930 d0bf 9d96 96be 1e43 77c0
00000120: 84b5 6a41 749a 1140 3f65 be40 766a 9540
00000130: 467f b840 58c0 1cc1 0642 e7bf ea30 943f
00000140: 0576 12bd 67e1 2dc0 92ff 98bf e753 e4bc
00000150: f6fb c5bf 6bcc a4bf 56c3 49c0 cb6a b4c0
00000160: 0ad9 3740 328b babe 55af 3641 9a91 ae3f
00000170: 1ad6 8fc0 473f e53f b028 87c0 db0b b5bf
00000180: c6f4 223f 13ff 353e 425e 7640 5654 8dbf
00000190: 22cd 54c0 4f74 1ebf 5f7e d93f 14a3 f1c0
000001a0: f3ec c83f 6506 58c1 8e54 943d bd19 05c0
000001b0: b11c 42bf 8afc 02c0 1738 9f3f e0d0 3fc0
000001c0: 82f7 86bd b0b9 073f dcb9 6b41 3421 33c1
000001d0: 0b7b 8a3f a6b2 4dbf c31d c3bf b079 1f40
000001e0: 35f4 1c3f 6720 3640 90cc f53f f581 4c3f
000001f0: a2cd 31bf a2a2 9e3f 4dbe 1c40 742c a340

model/activation_1/Relu;model/batch_normalization_1/batchnorm/add_1 f4 [128]
0.14511533 0.15906614 0.08311625 -0.8453699 0.27820587 -0.6702982 0.008597351 0.04426123
-0.31994265 -0.909304 -1.063025 0.17844568 -0.64855665 -0.26940876 -0.3856571 0.08911325
0.0849649 -2.598608 0.1569681 0.10188132 0.52357924 0.5726551 0.061206587 0.12439076
0.40506732 0.30419815 0.6155452 -0.4763029 0.38599464 0.14363986 0.44237164 0.72777283
0.27814513 -1.3419625 -0.33858347 0.31165725 -0.50440794 0.79043925 -0.028611278 0.31081894
-0.27051708 0.76972336 -0.5099607 -0.11308104 -0.47819945 0.18711522 0.36722875 0.17666307
-0.08201479 -1.4472326 -0.09383955 0.057974916 1.2942331 0.0029565645 0.7643212 -0.025586503
-0.49064955 0.20590517 0.017443497 -0.17877063 0.38183576 -0.4285347 0.5257682 0.1371464
0.2992708 -0.009297171 -0.27050626 -3.2328367 0.09538324 0.3824747 0.107979715 -0.2529288
0.07215162 -0.045543194 -0.16269536 0.58307767 -0.3560784 -0.12657215 0.24971999 0.005327668
-0.3320245 0.13690364 -0.12214165 -1.0704657 -0.12907246 -0.5687578 0.46439442 0.75606686
1.2271737 -0.0076602465 0.34111476 0.92695576 0.5452304 -0.45400134 -0.5584716 -0.10554041
0.49698657 -0.30832505 -0.34299177 -0.14278686 0.08579776 1.007527 0.07003533 -0.05846011
0.4329393 0.14660387 -0.2125519 0.19136187 -0.8000647 0.37084207 0.5579117 -0.18341303
0.41750088 -0.20065032 -1.4157765 0.15110373 -0.46533623 -1.3324968 0.0014508527 -0.02911207
-0.6123366 0.6612879 1.0379689 -0.094443604 0.105381854 0.21794644 -0.029934643 0.03960789
00000000: 1d99 143e 3ce2 223e da38 aa3d 296a 58bf
00000010: 0071 8e3e aa98 2bbf e7db 0c3c 434b 353d
00000020: 86cf a3be 26c8 68bf 3411 88bf 77ba 363e
00000030: cf07 26bf f2ef 89be d974 c5be 0281 b63d
00000040: 1402 ae3d 984f 26c0 3fbc 203e 27a7 d03d
00000050: 4a09 063f 8699 123f c2b3 7a3d 95c0 fe3d
00000060: fc64 cf3e dcbf 9b3e 5f94 1d3f f9dd f3be
00000070: 17a1 c53e 5416 133e 897e e23e 524f 3a3f
00000080: 0a69 8e3e 6dc5 abbf d05a adbe 8a91 9f3e
00000090: e120 01bf 3a5a 4a3f 3362 eabc a923 9f3e
000000a0: 3781 8abe 970c 453f c98c 02bf 0897 e7bd
000000b0: 8fd6 f4be 229b 3f3e 6805 bc3e 2ae7 343e
000000c0: 5ff7 a7bd eb3e b9bf f32e c0bd 1b77 6d3d
000000d0: 6ea9 a53f ecc2 413b 8eaa 433f c99a d1bc
000000e0: 6b36 fbbe ced8 523e aae5 8e3c a60f 37be
000000f0: fa7f c33e e668 dbbe bf98 063f 1b70 0c3e
00000100: 063a 993e 2953 18bc cc7f 8abe cce6 4ec0
00000110: 4a58 c33d b9d3 c33e 7824 dd3d e27f 81be
00000120: 3bc4 933d 808b 3abd 9d99 26be 9444 153f
00000130: e84f b6be 219c 01be 99b6 7f3e b893 ae3b
00000140: 1eff a9be 7830 0c3e 6725 fabd 0505 89bf
00000150: 922b 04be 1c9a 11bf 1bc5 ed3e 998d 413f
00000160: 0714 9d3f ce02 fbbb 98a6 ae3e f94c 6d3f
00000170: 3894 0b3f dd72 e8be fff7 0ebf 9225 d8bd
00000180: 0675 fe3e c8dc 9dbe 9e9c afbe b836 12be
00000190: bcb6 af3d a5f6 803f af6e 8f3d de73 6fbd
000001a0: 38aa dd3e 531f 163e 35a7 59be 5ef4 433e
000001b0: 0ad1 4cbf 03df bd3e 4dd3 0e3f a0d0 3bbe
000001c0: adc2 d53e 4777 4dbe 2a38 b5bf f0ba 1a3e
000001d0: 8d40 eebe 418f aabf 8a2a be3a 707c eebc
000001e0: 17c2 1cbf 2a4a 293f 2adc 843f a66b c1bd
000001f0: 71d2 d73d 5a2d 5f3e 7f39 f5bc e23b 223d

model/activation_2/Relu;model/batch_normalization_2/batchnorm/add_1 f4 [128]
0.44111976 -1.0255518 0.5603413 0.42272565 0.901133 -0.00057942217 0.07101149 0.8321342
0.27429163 0.15573841 -0.19116883 -0.131129 0.2767413 0.07269886 -0.28848964 0.052842703
-1.0772133 1.1753259 -0.044596978 0.33314735 -4.0386534 -0.2020105 -0.30098882 0.28842393
0.30019602 0.14818884 -1.0443329 -0.9340351 0.59356606 0.1747158 -0.84106284 0.22867711
0.3759111 0.20616691 0.17847806 0.09225076 0.76726544 0.32067856 -0.35128394 0.20558383
1.0338224 -0.15919958 -0.679468 -0.23652978 1.1865743 0.8329124 0.49380544 -0.14248152
-0.0025836409 -0.20109248 -0.6352266 0.6665599 -0.09005467 0.32932582 -0.36706814 -0.0009693481
0.122168265 0.57697433 -3.133548 1.9376897 0.18289387 0.11786201 0.0903262 -0.012889983
-0.5226723 0.17575108 0.2964536 0.10157593 0.09202191 -0.16179413 -0.055159528 0.29547912
0.059049755 0.35173166 0.16751534 0.30743897 0.51495546 -0.23524283 0.46619898 1.4522027
0.04197464 0.1758683 0.2809211 -0.1860458 0.36392823 0.19341916 0.7534602 0.00918175
-0.1933514 -1.152706 0.47829622 0.2912037 0.12674947 0.19737966 0.34445044 0.34377182
0.21109164 0.30624387 0.7192297 0.9093238 0.00042878464 0.17319752 0.19016139 -0.5154362
0.5564015 0.5941571 -0.30426154 0.16314068 -0.20933142 -0.0960662 -4.5393987 0.18634506
0.34637192 0.39020538 -0.035294734 0.033144854 -0.26708305 0.36366782 0.031303637 0.5617112
0.6052414 0.2987133 0.17914386 0.00041447408 0.12756668 0.41836178 0.42161486 1.1175164
00000000: 73da e13e 4845 83bf 8772 0f3f 7f6f d83e
00000010: a7b0 663f 5de4 17ba 796e 913d bf06 553f
00000020: f46f 8c3e e479 1f3e c3c1 43be ae46 06be
00000030: 09b1 8d3e 24e3 943d eab4 93be 9771 583d
00000040: 20e2 89bf 1471 963f 52ab 36bd 4a92 aa3e
00000050: a63c 81c0 d7db 4ebe 351b 9abe 4dac 933e
00000060: 4bb3 993e d1be 173e b3ac 85bf ed1c 6fbf
00000070: f2f3 173f b3e8 323e e54f 57bf 552a 6a3e
00000080: 6b77 c03e 6b1d 533e f4c2 363e f7ed bc3d
00000090: 826b 443f fb2f a43e 7ddb b3be 9184 523e
000000a0: 4b54 843f 3705 23be 9df1 2dbf dd34 72be
000000b0: abe1 973f bf39 553f 11d4 fc3e ade6 11be
000000c0: 4d52 29bb 30eb 4dbe 369e 22bf aba3 2a3f
000000d0: 956e b8bd 659d a83e 5bf0 bbbe da1b 7eba
000000e0: 5b33 fa3d 97b4 133f 0d8c 48c0 3706 f83f
000000f0: 8848 3b3e a361 f13d f1fc b83d 8230 53bc
00000100: dacd 05bf 17f8 333e c4c8 973e 0b07 d03d
00000110: fc75 bc3d 5cad 25be f5ee 61bd 0a49 973e
00000120: 28de 713d 2c16 b43e 2489 2b3e a468 9d3e
00000130: 1fd4 033f 7fe3 70be a2b1 ee3e c7e1 b93f
00000140: 9aed 2b3d d216 343e e4d4 8f3e ca82 3ebe
00000150: cd54 ba3e ac0f 463e c5e2 403f 0d6f 163c
00000160: e9fd 45be df8b 93bf 3ee3 f43e a718 953e
00000170: 9dca 013e e51d 4a3e cf5b b03e dc02 b03e
00000180: 6828 583e ffcb 9c3e 701f 383f 72c9 683f
00000190: 80ce e039 b15a 313e abb9 423e a0f3 03bf
000001a0: 5470 0e3f ae1a 183f 2bc8 9bbe 5a0e 273e
000001b0: fa5a 56be 5bbe c4bd c142 91c0 3dd1 3e3e
000001c0: a957 b13e 00c9 c73e 3691 10bd e6c2 073d
000001d0: 1cbf 88be ab32 ba3e 3e38 003d 4ecc 0f3f
000001e0: 1af1 1a3f f3f0 983e 7d71 373e c54d d939
000001f0: d7a0 023e 8433 d63e e7dd d73e c70a 8f3f

model/activation_3/Relu;model/batch_normalization_3/batchnorm/add_1 f4 [128]
0.9293683 0.18043192 -0.02415436 0.08659016 0.27881795 0.1877224 0.49268383 -0.4647797
0.33990097 -0.062723294 0.93628424 -0.39351827 0.20044667 -0.0022510923 0.010925782 -0.0033401966
0.10454462 0.5914873 -0.05855327 -0.5879647 0.639747 0.3232647 -0.82440805 -0.097022064
-0.28307232 -0.10916298 -0.058526285 0.33765104 0.49604097 0.5465606 0.36075792 0.8639438
0.3757127 0.5101829 0.86396927 -0.27569255 0.4668481 0.38094035 -0.13257146 0.5496233
0.0783664 -0.2268263 0.833494 0.0702437 0.25365305 0.40692854 0.27211773 0.38989908
0.12709647 0.14555964 0.4211295 0.3300868 -0.07675742 -0.35566014 0.36381015 0.1522568
1.3723731 0.5997871 -0.3405467 0.21588603 -0.026168527 0.32380936 0.09759148 0.8661011
0.18798149 0.35143676 0.37067038 0.40027112 -3.2139297 -0.08812584 0.66185015 -0.53272676
0.4548161 0.22505338 0.26355886 -0.33467597 0.38670075 1.1916554 0.8757169 -0.05557391
-0.1664571 -2.8373005 0.42516443 1.0038662 0.83886635 -0.09891731 -2.518969 1.2687672
0.07727517 -0.013918362 0.56174237 -1.1064098 -1.3121274 0.4489701 -0.06291652 -0.3055235
0.3641875 -0.18423893 -3.1774354 -0.28550637 0.40340835 0.27066088 0.34843114 0.45343858
-0.23321535 -0.30420634 0.120235525 -0.29011086 0.27136558 0.35578543 0.4288971 0.019908082
0.26191103 0.08267853 0.041051947 0.48182026 -0.008690351 0.5401255 -0.085633546 0.010205166
-0.59667176 -1.8488955 0.23687431 0.6449794 0.8879933 0.29467463 -1.6376381 -0.6708532
00000000: 15eb 6d3f 25c3 383e 5ddf c5bc 2f56 b13d
00000010: 3ac1 8e3e 4d3a 403e 0e41 fc3e 9bf7 edbe
00000020: 8007 ae3e 1275 80bd 53b0 6f3f 3a7b c9be
00000030: e441 4d3e 1087 13bb 0d02 333c 33e7 5abb
00000040: 7d1b d63d b66b 173f 8ed5 6fbd db84 16bf
00000050: 76c6 233f f382 a53e 680c 53bf 81b3 c6bd
00000060: dbee 90be d790 dfbd 42b9 6fbd 99e0 ac3e
00000070: 15f9 fd3e 65eb 0b3f 43b5 b83e 6c2b 5d3f
00000080: 6a5d c03e 599b 023f 172d 5d3f 9327 8dbe
00000090: b706 ef3e 9d0a c33e d0c0 07be 1db4 0c3f
000000a0: 907e a03d 2745 68be dd5f 553f eedb 8f3d
000000b0: d0de 813e f058 d03e 0453 8b3e daa0 c73e
000000c0: 9425 023e 960d 153e 499e d73e 2301 a93e
000000d0: ff32 9dbd 1619 b6be 5345 ba3e 35e9 1b3e
000000e0: eca9 af3f a68b 193f 235c aebe 3a11 5d3e
000000f0: 615f d6bc 57ca a53e 0bde c73d cdb8 5d3f
00000100: 387e 403e 85ef b33e 82c8 bd3e 56f0 cc3e
00000110: 06b1 4dc0 527b b4bd 036f 293f c860 08bf
00000120: a8dd e83e 6574 663e 30f1 863e a65a abbe
00000130: a4fd c53e 2a88 983f fc2e 603f 78a1 63bd
00000140: bb73 2abe 5596 35c0 27af d93e b07e 803f
00000150: f2bf 563f 2995 cabd ca36 21c0 f766 a23f
00000160: 7242 9e3d d709 64bc 59ce 0f3f d69e 8dbf
00000170: caf3 a7bf 69df e53e 60da 80bd 946d 9cbe
00000180: c976 ba3e 21a9 3cbe 1a5b 4bc0 e42d 92be
00000190: 8a8b ce3e 1094 8a3e 9165 b23e 1a29 e83e
000001a0: 01d0 6ebe efc0 9bbe 0b3e f63d 6989 94be
000001b0: 6ef0 8a3e 8229 b63e 6798 db3e 4616 a33c
000001c0: 3419 863e 5c53 a93d 1626 283d 25b1 f63e
000001d0: f961 0ebc aa45 0a3f a460 afbd 9233 273c
000001e0: 7bbf 18bf 9ca8 ecbf 2e8f 723e 5f1d 253f
000001f0: 8753 633f 98df 963e 209e d1bf 09bd 2bbf

model/activation_4/Relu;model/batch_normalization_4/batchnorm/add_1 f4 [8]
1.2093614 1.8974115 1.3705503 0.984421 1.8780037 1.2139586 1.7018957 0.96856683
00000000: 5bcc 9a3f 61de f23f 316e af3f 0403 7c3f
00000010: 6d62 f03f ff62 9b3f b8d7 d93f fff3 773f

model/activation_5/Relu;model/batch_normalization_5/batchnorm/add_1 f4 [128]
0.7064895 0.11389865 -0.7697736 4.132854 -2.5755398 -0.97736746 0.62045026 5.4375887
1.3744849 1.8593777 -2.5947104 -1.9959586 -4.3953285 -1.7347792 -1.2718707 4.4327397
-0.39804792 0.6039136 1.053265 -0.3243097 -4.718555 4.461084 0.047160044 4.680949
2.344509 -0.43070462 3.1894965 -1.2299182 0.68351936 -3.615009 -0.7560143 -0.67379504
-4.0070457 5.1583114 1.0622272 4.365459 1.6512752 -0.12791316 1.1306763 -1.5307313
0.9781028 2.1281197 0.32777813 -5.5187335 -3.4928694 2.6651533 0.76252556 -4.0198207
-1.7018507 -1.5056639 -1.4474756 -2.8309872 -1.3623657 -1.8441358 2.7037222 -4.0463424
-0.6190138 5.974077 -3.4236238 -0.14233516 0.33621886 0.31220582 0.09652478 1.7658192
0.7099446 4.319827 -5.975076 0.12123011 -0.5338412 3.7274427 -0.8759108 -3.8191528
-3.7095485 0.27540115 -1.2785976 2.9088106 0.92059135 -3.6935906 0.11912675 1.3838178
3.4590535 -3.4970558 -3.747968 1.0941656 -1.0970429 -3.5700092 0.4153186 3.3173318
3.8375976 3.2932506 -0.6271497 1.2251148 -1.4835263 -2.3593194 2.4730184 0.32073003
1.0133823 -0.45459598 -1.3637711 1.3506207 3.8908617 0.6960538 3.7571623 5.9515376
1.4050994 3.5116053 -3.2815223 2.0269265 -1.9340521 -0.26394543 0.43512988 4.081059
5.6942716 -4.2417855 -0.32837585 0.94037 -1.3866509 2.558381 -1.3697267 -1.7591239
-1.5566329 3.1627195 -6.053431 2.406037 4.1242127 3.26068 1.1198503 -1.5709816
00000000: 7fdc 343f b243 e93d e20f 45bf 5740 8440
00000010: a5d5 24c0 c134 7abf d4d5 1e3f ba00 ae40
00000020: 1fef af3f 1700 ee3f bc0f 26c0 927b ffbf
00000030: 88a6 8cc0 3f0d debf a9cc a2bf 01d9 8d40
00000040: f0cc cbbe 159a 1a3f 63d1 863f ec0b a6be
00000050: 67fe 96c0 33c1 8e40 e42a 413d 56ca 9540
00000060: 6f0c 1640 5185 dcbe b620 4c40 f66d 9dbf
00000070: 20fb 2e3f 4f5c 67c0 278a 41bf d57d 2cbf
00000080: b839 80c0 e310 a540 10f7 873f d7b1 8b40
00000090: fc5c d33f abfb 02be 00ba 903f 01ef c3bf
000000a0: f264 7a3f 1d33 0840 89d2 a73e 7799 b0c0
000000b0: 2c8b 5fc0 df91 2a40 e034 433f 5fa2 80c0
000000c0: 3ed6 d9bf 98b9 c0bf e146 b9bf e52e 35c0
000000d0: 0062 aebf a40c ecbf c909 2d40 a37b 81c0
000000e0: b077 1ebf a42b bf40 a71c 5bc0 4fc0 11be
000000f0: e124 ac3e 71d9 9f3e c9ae c53d 5d06 e23f
00000100: eebe 353f 063c 8a40 d333 bfc0 7e47 f83d
00000110: d1a9 08bf 6c8e 6e40 b13b 60bf 006d 74c0
00000120: 3e69 6dc0 6101 8d3e 16a9 a3bf f429 3a40
00000130: e0ab 6b3f ca63 6cc0 baf8 f33d f120 b13f
00000140: 2261 5d40 c3cf 5fc0 b5de 6fc0 9e0d 8c3f
00000150: e76b 8cbf 087b 64c0 a4a4 d43e 2a4f 5440
00000160: 339b 7540 9ec4 5240 e28c 20bf 90d0 9c3f
00000170: 31e4 bdbf 17ff 16c0 ef45 1e40 ba36 a43e
00000180: 83b6 813f cec0 e8be 0d90 aebf 24e1 ac3f
00000190: e103 7940 9530 323f 5975 7040 ff72 be40
000001a0: 4cda b33f 24be 6040 7604 52c0 2ab9 0140
000001b0: 058f f7bf db23 87be 58c9 de3e 0998 8240
000001c0: 7937 b640 b5bc 87c0 e120 a8be 17bc 703f
000001d0: c77d b1bf 84bc 2340 3453 afbf f92a e1bf
000001e0: bf3f c7bf ff69 4a40 b5b5 c1c0 83fc 1940
000001f0: 8df9 8340 fbae 5040 4157 8f3f ed15 c9bf

model/activation_6/Relu;model/batch_normalization_6/batchnorm/add_1 f4 [128]
-0.7017078 -0.40267134 -0.92143935 0.3331696 0.75259465 -1.0043306 0.33904508 -0.47118443
0.93709874 1.7696337 -0.23282672 0.49623844 0.6600126 0.7254569 -0.41979128 0.23208024
0.6677506 1.304557 0.653265 0.269995 -0.5498587 0.8852782 1.084091 1.8558097
0.70255286 -0.42038545 -0.28763095 0.77795315 0.36697558 -0.69971514 -0.66817117 1.233519
0.83334965 -0.08302126 0.6444027 1.1744215 1.1255127 0.11426334 0.38886642 -0.7345648
0.25503534 -0.023712121 -0.40311068 0.11911095 -0.16737837 0.7083765 0.8808535 1.0631647
1.2242907 -0.72772527 -0.6430285 -0.43335742 0.23021232 -0.35853964 -1.0649544 0.79167026
0.99123454 -0.044081014 0.9834181 0.93625337 0.071971916 0.32163703 0.2880191 0.23926257
0.3398391 -1.1279649 -1.1248355 0.41254655 1.3476428 0.74789417 0.108876735 -1.4269551
0.102983415 0.30878586 -0.5826121 0.70324576 -0.5061216 -0.0806654 -0.24555568 0.7796775
-0.5635175 0.18591654 0.101142906 0.94313127 -0.20530902 -0.31710935 0.06681393 1.4111108
-0.329569 -0.56234187 -0.2878068 1.0371791 -0.58284295 0.6690028 -0.09866542 0.43746355
-0.95768356 0.6681785 1.3128269 0.9779414 0.25875595 0.78104985 -0.3809823 1.2527093
-0.5650775 0.23444271 -1.2395924 1.1757466 -0.73405164 0.538254 0.7312233 0.4929093
-1.1665491 1.0023824 0.43489107 0.5970526 0.12785715 -0.42575657 1.3749632 -0.2870167
1.1335222 0.87756294 0.236058 1.0231919 0.28139877 0.6537568 -0.57695615 1.1725847
00000000: 1fa3 33bf f02a cebe 73e3 6bbf 3595 aa3e
00000010: 0baa 403f e88d 80bf 5197 ad3e 163f f1be
00000020: b4e5 6f3f 5b83 e23f 216a 6ebe f712 fe3e
00000030: 96f6 283f 8bb7 393f e2ee d6be 71a6 6d3e
00000040: b4f1 2a3f b9fb a63f 603c 273f c93c 8a3e
00000050: 8ac3 0cbf 98a1 623f 7ec3 8a3f 2c8b ed3f
00000060: 81da 333f c33c d7be 5d44 93be f027 473f
00000070: 39e4 bb3e 8820 33bf 440d 2bbf f3e3 9d3f
00000080: 6756 553f 0d07 aabd 93f7 243f 7253 963f
00000090: cd10 903f e602 ea3d 8019 c73e 700c 3cbf
000000a0: fe93 823e ec3f c2bc 8664 cebe 71f0 f33d
000000b0: 3c65 2bbe 2a58 353f 9d7f 613f c815 883f
000000c0: 8fb5 9c3f 344c 3abf 849d 24bf 06e1 ddbe
000000d0: c7bc 6b3e 8292 b7be 6d50 88bf e7aa 4a3f
000000e0: 8cc1 7d3f 4b8e 34bd 4ac1 7b3f 4dae 6f3f
000000f0: 0366 933d 9cad a43e 3d77 933e 3f01 753e
00000100: 64ff ad3e 2761 90bf 9cfa 8fbf 4d39 d33e
00000110: 8f7f ac3f fe75 3f3f c4fa de3d 77a6 b6bf
00000120: f8e8 d23d 2e19 9e3e 1126 15bf ea07 343f
00000130: 2f91 01bf e733 a5bd f372 7bbe f298 473f
00000140: af42 10bf e860 3e3e 0324 cf3d 0d71 713f
00000150: 873c 52be 285c a2be bed5 883d 479f b43f
00000160: 45bd a8be a3f5 0fbf 6a5b 93be 49c2 843f
00000170: 3235 15bf c443 2b3f 1911 cabd 39fb df3e
00000180: c02a 75bf bf0d 2b3f b60a a83f 5e5a 7a3f
00000190: a97b 843e e2f2 473f 1d10 c3be c758 a03f
000001a0: eba8 10bf c011 703e f7aa 9ebf dd7e 963f
000001b0: cfea 3bbf 04cb 093f 7331 3b3f 9c5e fc3e
000001c0: 7b51 95bf 114e 803f 0baa de3e 70d8 183f
000001d0: fcec 023e c4fc d9be cbfe af3f daf3 92be
000001e0: 4117 913f f7a7 603f 30b9 713e f4f7 823f
000001f0: 8013 903e 9b5c 273f 66b3 13bf 4117 963f

model/activation_7/Relu;model/batch_normalization_7/batchnorm/add_1 f4 [128]
-0.18565072 -0.2873313 0.1728953 -0.274601 0.07474795 0.3827783 0.45298815 0.993868
-0.12835139 -0.37445194 -1.3069347 0.63743776 0.16869715 0.7817372 -1.1415014 -0.21941377
0.6447369 0.015319864 0.9752108 -0.57580036 0.52027625 0.10878101 0.388174 0.08408387
-0.21650757 -0.81479704 0.52515274 -0.063762605 -0.1729245 0.22509348 0.0007194767 -0.29085463
-0.42689463 0.024183674 -0.5433689 0.87037945 0.56643456 1.1849902 0.49076536 -0.110432014
1.5771003 -0.38591972 -0.7728687 0.7107082 -0.38383418 1.2224748 0.7593943 0.03203228
-0.002797377 0.102729514 -0.18046771 1.0913657 -0.14639705 0.48715922 -0.8842699 -0.0013301261
0.8885485 0.74833155 0.18335171 0.24224348 -0.6446499 0.7849567 0.19220485 0.49277225
1.3304892 0.24065696 0.26528466 0.48955017 0.5143088 0.48239475 0.038213756 -0.4387837
0.36339164 0.53021723 0.4625875 0.6216098 1.1862601 0.3302859 -0.026506554 1.7719604
-0.8416068 -1.5394392 -0.059879936 0.558764 0.83578473 -1.1859381 0.8843653 0.86388606
-0.79942155 0.7320383 0.813994 -0.22040823 0.26338384 -0.5874626 1.1308593 1.3458012
0.7743359 0.8795669 -0.042917743 1.0616509 -0.54315865 -0.3761219 0.50337124 0.026641568
-0.017195519 -0.091285065 -0.49077424 0.93175465 -0.13957335 -0.12284451 0.5608522 0.43337393
0.9180094 0.20115542 -0.326862 -0.56786805 0.07829507 -1.1080981 -0.3024684 0.6790183
0.34555182 -0.8128757 0.5877057 -0.048674643 0.44301447 -0.54720694 -0.66446286 -0.07707985
00000000: 391b 3ebe 171d 93be 770b 313e 8198 8cbe
00000010: 7415 993d 84fb c33e 10ee e73e 226e 7e3f
00000020: 8c6e 03be 2ab8 bfbe a349 a7bf 1f2f 233f
00000030: f2be 2c3e ee1f 483f b81c 92bf 01ae 60be
00000040: 7a0d 253f 2b00 7b3c 6aa7 793f a767 13bf
00000050: d330 053f 94c8 de3d bebe c63e 2a34 ac3d
00000060: 29b4 5dbe 8a96 50bf 6970 063f f895 82bd
00000070: 1f13 31be e87e 663e 449b 3c3a e6ea 94be
00000080: ef91 dabe d71c c63c 391a 0bbf 30d1 5e3f
00000090: db01 113f c2ad 973f 9945 fb3e 2e2a e2bd
000000a0: 6cde c93f 4597 c5be b9da 45bf f9f0 353f
000000b0: ea85 c4be 0e7a 9c3f aa67 423f 4834 033d
000000c0: 3354 37bb da63 d23d 87cc 38be dfb1 8b3f
000000d0: 1ce9 15be ef6c f93e 835f 62bf a057 aeba
000000e0: ea77 633f a892 3f3f 8dc0 3b3e ad0e 783e
000000f0: c707 25bf ecf2 483f 59d1 443e a54c fc3e
00000100: 784d aa3f c76e 763e 64d3 873e 52a6 fa3e
00000110: bea9 033f 72fc f63e 0786 1c3d 42a8 e0be
00000120: 780e ba3e 51bc 073f 45d8 ec3e d221 1f3f
00000130: 5fd7 973f 3c1b a93e 4624 d9bc 99cf e23f
00000140: 8b73 57bf 580c c5bf aa44 75bd 280b 0f3f
00000150: fdf5 553f d2cc 97bf c465 623f a327 5d3f
00000160: e4a6 4cbf dd66 3b3f e961 503f b2b2 61be
00000170: 3fda 863e f363 16bf ffbf 903f 3743 ac3f
00000180: e13a 463f 4c2b 613f 84ca 2fbd 2de4 873f
00000190: 720c 0bbf 0d93 c0be f0dc 003f 6b3f da3c
000001a0: 9edd 8cbc aaf3 babd c346 fbbe 7987 6e3f
000001b0: 51ec 0ebe e795 fbbd 0394 0f3f 30e3 dd3e
000001c0: aa02 6b3f b0fb 4d3e 755a a7be cd5f 11bf
000001d0: 2a59 a03d 29d6 8dbf 23dd 9abe 25d4 2d3f
000001e0: 2bec b03e 9f18 50bf e173 163f 105f 47bd
000001f0: cbd2 e23e c115 0cbf 3d1a 2abf 0adc 9dbd

model/activation_8/Relu;model/batch_normalization_8/batchnorm/add_1 f4 [128]
1.976414 0.96976125 1.7265285 -0.122749396 0.8103573 0.3951425 1.0488446 3.2506833
1.5512253 1.929825 1.2448705 0.21659464 0.2216071 0.829377 0.44894513 1.0682241
0.7386324 1.3066497 3.4863505 1.682865 2.2796993 1.6884781 1.6805565 2.2614024
0.43876642 2.065335 1.151484 2.4123244 0.7523357 0.14769053 2.0736878 1.9898076
1.1019372 0.6803408 0.8450321 1.605871 2.037813 1.8145133 -0.16829932 0.25106993
1.2252378 2.1035576 0.45341998 -0.014410803 0.1078199 0.7595902 0.21754459 0.29080206
0.7897765 1.1076154 0.38313037 1.3950934 0.19093305 0.21554656 1.0369257 1.0657458
1.61522 1.0366045 0.9518196 1.1020231 0.45562956 0.688474 2.0580294 0.59962684
3.2645152 0.9758394 1.6110028 0.6837636 1.8248547 0.8444954 0.24376994 1.1510597
1.5784774 1.5916655 0.35676852 0.3865356 0.34456336 1.7728157 1.366699 1.0191137
1.974065 0.2731528 -0.527653 -0.09637528 2.1785522 1.9014686 2.5883913 0.46103993
1.6901388 1.6425077 0.31376725 2.2606878 2.6104825 3.0588114 2.5365398 0.48346284
1.5741203 0.84340847 1.4715177 -0.290612 0.008819688 0.63764054 1.6864388 3.9699185
0.97636175 1.5492167 0.33695495 2.5394237 1.4272442 1.3482605 1.9061785 0.81935525
1.3122759 0.86436534 1.3243982 1.2338455 0.13605542 2.5852249 0.98415077 1.0740011
2.1875906 0.8287909 2.4723856 1.2715063 1.4273752 0.83474636 1.0353742 1.1632656
00000000: 22fb fc3f 4642 783f e3fe dc3f 0964 fbbd
00000010: 9373 4f3f 1e50 ca3e 8a40 863f 320b 5040
00000020: 8d8e c63f 8104 f73f eb57 9f3f fcca 5d3e
00000030: f9ec 623e 0d52 543f 23dc e53e 91bb 883f
00000040: 0317 3d3f 4c40 a73f 5e20 5f40 1f68 d73f
00000050: 98e6 1140 0d20 d83f 7a1c d73f d1ba 1040
00000060: fea5 e03e 732e 0440 d463 933f 8663 1a40
00000070: 1399 403f 303c 173e 4db7 0440 04b2 fe3f
00000080: 470c 8d3f d12a 2e3f 0654 583f 2e8d cd3f
00000090: 876b 0240 f941 e83f a856 2cbe 3d8c 803e
000000a0: 98d4 9c3f b0a0 0640 aa26 e83e 4a1b 6cbc
000000b0: aed0 dc3d 8174 423f 02c4 5e3e 02e4 943e
000000c0: cb2e 4a3f 57c6 8d3f aa29 c43e 6c92 b23f
000000d0: f483 433e 3db8 5c3e fbb9 843f 5c6a 883f
000000e0: 87bf ce3f 75af 843f 73aa 733f 180f 8d3f
000000f0: 4748 e93e d53f 303f c1b6 0340 2581 193f
00000100: d1ed 5040 9cd0 793f 5735 ce3f 220b 2f3f
00000110: d794 e93f da30 583f d49e 793e ed55 933f
00000120: 8c0b ca3f b2bb cb3f 5daa b63e ffe7 c53e
00000130: 9c6a b03e a0eb e23f feef ae3f 5172 823f
00000140: 29ae fc3f afda 8b3e 4414 07bf 6760 c5bd
00000150: 666d 0b40 5363 f33f 34a8 2540 6d0d ec3e
00000160: 7856 d83f b13d d23f 1aa6 a03e 1caf 1040
00000170: 2512 2740 91c3 4340 ab56 2240 7188 f73e
00000180: c67c c93f 9ee9 573f b15a bc3f 19cb 94be
00000190: 7480 103c 693c 233f 3add d73f 2513 7e40
000001a0: d8f2 793f bc4c c63f 5c85 ac3e eb85 2240
000001b0: f0af b63f cd93 ac3f a8fd f33f 44c1 513f
000001c0: a8f8 a73f 0c47 5d3f e185 a93f a6ee 9d3f
000001d0: 1d52 0b3e 5374 2540 4ef1 7b3f de78 893f
000001e0: 7c01 0c40 a42b 543f 913b 1e40 b8c0 a23f
000001f0: 3bb4 b63f f0b1 553f 2487 843f e3e5 943f

model/batch_normalization/batchnorm/mul_1 i1 [128, 640] scale=0.00019597662 zero_point=0
-0.0019597663 0.00039195325 -0.0035275791 -0.003135626 0.00039195325 -0.001567813 -0.0017637896 0.00019597662
-0.0013718364 -0.00019597662 0.00058792986 -0.001567813 -0.00039195325 -0.0011758597 0.0 0.0
0.001567813 -0.00058792986 -0.0011758597 0.0017637896 -0.00058792986 0.00019597662 0.0007839065 -0.00058792986
-0.0021557428 0.00019597662 -0.0021557428 0.00039195325 0.0013718364 0.00019597662 0.00039195325 -0.002547696
0.0 0.0007839065 -0.001567813 0.0011758597 0.0007839065 0.00058792986 -0.00019597662 0.00019597662
0.001567813 0.0007839065 -0.001567813 -0.0013718364 0.00019597662 0.001567813 0.00019597662 0.0009798831
-0.00058792986 0.0 -0.001567813 -0.00019597662 -0.002547696 -0.0035275791 -0.0027436728 0.0
-0.0009798831 -0.0027436728 -0.0033316026 -0.0021557428 -0.0045074625 0.0 -0.001567813 -0.0021557428
-0.004115509 -0.003135626 -0.0017637896 -0.005291369 -0.0033316026 0.0 -0.00019597662 -0.0021557428
0.0 0.0019597663 0.0007839065 -0.00019597662 0.0019597663 0.0 0.0027436728 0.00039195325
0.005291369 0.003723556 0.004115509 0.0033316026 0.0048994157 0.007447112 0.0064672288 0.005879299
0.004115509 0.0045074625 0.005095392 0.00039195325 0.0021557428 -0.003135626 -0.0009798831 -0.00058792986
-0.0007839065 -0.0017637896 -0.0035275791 -0.005291369 -0.0023517194 -0.004115509 0.0011758597 0.00058792986
-0.0013718364 -0.0011758597 -0.00039195325 0.0017637896 0.001567813 0.0007839065 0.0007839065 -0.0007839065
0.0011758597 -0.0013718364 0.0007839065 -0.0019597663 -0.006663205 -0.005095392 -0.0039195325 -0.0033316026
-0.004115509 -0.005095392 -0.0019597663 -0.0027436728 -0.0013718364 -0.00039195325 -0.0048994157 -0.0027436728
-0.0021557428 0.0007839065 -0.0035275791 -0.003723556 0.00058792986 -0.0021557428 -0.00039195325 -0.001567813
0.00019597662 -0.00019597662 0.00058792986 -0.0009798831 -0.0017637896 0.00039195325 -0.00019597662 -0.0009798831
0.002547696 -0.0013718364 0.00039195325 0.0023517194 -0.00019597662 -0.00039195325 0.0011758597 -0.0007839065
-0.0027436728 -0.00019597662 -0.0033316026 0.00039195325 0.0007839065 -0.00058792986 0.0013718364 -0.0011758597
0.00039195325 0.0 -0.00039195325 0.00039195325 0.0019597663 -0.00058792986 -0.00039195325 0.0007839065
0.00039195325 0.0009798831 -0.0013718364 0.0 0.0 0.0007839065 0.0009798831 0.0011758597
-0.00058792986 0.0009798831 -0.0021557428 -0.00039195325 -0.0019597663 -0.0023517194 -0.0021557428 -0.0011758597
-0.00058792986 -0.0023517194 -0.0048994157 -0.0021557428 -0.003723556 0.00019597662 -0.001567813 -0.003723556
-0.0039195325 -0.005879299 -0.0027436728 -0.005291369 -0.0029396494 -0.0017637896 -0.0013718364 -0.0023517194
-0.0013718364 0.0023517194 -0.0009798831 -0.0013718364 0.001567813 -0.0013718364 0.00039195325 0.00039195325
0.0023517194 0.001567813 0.0011758597 0.0039195325 0.0045074625 0.006075275 0.0039195325 0.0043114857
0.002547696 0.0045074625 0.0039195325 -0.00058792986 0.0007839065 -0.004115509 -0.00019597662 -0.003135626
-0.0017637896 -0.0021557428 -0.0035275791 -0.005683322 -0.0033316026 -0.0033316026 -0.00039195325 0.0
-0.0017637896 0.00039195325 -0.0023517194 0.0035275791 0.00058792986 0.001567813 0.0033316026 0.00039195325
0.0027436728 0.003135626 0.0021557428 -0.0013718364 -0.0043114857 -0.0039195325 -0.0021557428 -0.0013718364
-0.0011758597 -0.001567813 0.0 -0.0009798831 0.0007839065 0.00019597662 -0.0011758597 0.0
00000000: f602 eef0 02f8 f701 f9ff 03f8 fefa 0000
00000010: 08fd fa09 fd01 04fd f501 f502 0701 02f3
00000020: 0004 f806 0403 ff01 0804 f8f9 0108 0105
00000030: fd00 f8ff f3ee f200 fbf2 eff5 e900 f8f5
00000040: ebf0 f7e5 ef00 fff5 000a 04ff 0a00 0e02
00000050: 1b13 1511 1926 211e 1517 1a02 0bf0 fbfd
00000060: fcf7 eee5 f4eb 0603 f9fa fe09 0804 04fc
00000070: 06f9 04f6 dee6 ecef ebe6 f6f2 f9fe e7f2
00000080: f504 eeed 03f5 fef8 01ff 03fb f702 fffb
00000090: 0df9 020c fffe 06fc f2ff ef02 04fd 07fa
000000a0: 0200 fe02 0afd fe04 0205 f900 0004 0506
000000b0: fd05 f5fe f6f4 f5fa fdf4 e7f5 ed01 f8ed
000000c0: ece2 f2e5 f1f7 f9f4 f90c fbf9 08f9 0202
000000d0: 0c08 0614 171f 1416 0d17 14fd 04eb fff0
000000e0: f7f5 eee3 efef fe00 f702 f412 0308 1102
000000f0: 0e10 0bf9 eaec f5f9 faf8 00fb 0401 fa00

model/batch_normalization_1/batchnorm/mul_1 i1 [128, 128] scale=0.009172769 zero_point=0
0.06420939 -0.14676431 -0.009172769 0.100900464 -0.100900464 -0.036691077 0.06420939 0.19262816
-0.055036616 0.22931923 -0.20180093 -0.045863844 -0.045863844 -0.12841877 0.0 0.19262816
0.08255492 0.027518308 -0.32104692 0.16510984 0.12841877 -0.06420939 0.09172769 -0.17428261
-0.036691077 0.045863844 -0.31187415 -0.14676431 -0.055036616 0.08255492 0.238492 -0.100900464
-0.13759154 0.12841877 0.0 0.119246 0.036691077 0.22014646 -0.14676431 -0.31187415
-0.055036616 0.2660103 -0.25683755 0.018345539 -0.018345539 -0.009172769 0.06420939 0.045863844
-0.045863844 0.009172769 -0.027518308 0.018345539 -0.119246 -0.027518308 -0.31187415 0.09172769
-0.4494657 0.2660103 -0.045863844 0.073382154 -0.25683755 -0.08255492 -0.12841877 -0.018345539
-0.22014646 -0.6237483 -0.027518308 0.027518308 -0.045863844 0.009172769 -0.018345539 -0.25683755
-0.036691077 0.20180093 -0.06420939 0.19262816 -0.045863844 0.14676431 0.08255492 0.036691077
0.08255492 0.119246 0.18345538 -0.009172769 -0.24766476 -0.11007323 -0.40360186 0.18345538
-0.018345539 -0.073382154 -0.09172769 0.036691077 0.19262816 -0.12841877 -0.100900464 0.09172769
-0.045863844 0.073382154 0.2109737 -0.045863844 -0.14676431 0.027518308 0.0 0.11007323
0.036691077 -0.027518308 0.12841877 -0.100900464 -0.16510984 0.43112016 0.0 0.06420939
0.13759154 -0.65126663 -0.055036616 0.036691077 0.11007323 0.100900464 -0.22014646 -0.15593708
-0.16510984 0.09172769 -0.2109737 -0.18345538 0.09172769 -0.06420939 0.14676431 0.22931923
-0.036691077 -0.11007323 0.119246 -0.06420939 0.073382154 0.13759154 0.036691077 0.045863844
-0.036691077 0.027518308 0.018345539 -0.018345539 0.08255492 -0.027518308 0.018345539 -0.055036616
0.009172769 -0.06420939 0.13759154 0.08255492 -0.100900464 0.22014646 -0.055036616 -0.055036616
-0.036691077 0.018345539 -0.018345539 -0.009172769 0.036691077 -0.11007323 -0.045863844 -0.036691077
-0.073382154 -0.018345539 0.036691077 -0.06420939 0.09172769 0.100900464 -0.009172769 0.036691077
-0.119246 0.12841877 0.08255492 0.027518308 -0.009172769 0.009172769 0.055036616 0.073382154
0.027518308 -0.036691077 -0.06420939 -0.13759154 -0.018345539 0.027518308 0.16510984 0.027518308
0.11007323 -0.027518308 -0.06420939 -0.009172769 -0.045863844 -0.08255492 0.009172769 0.06420939
0.045863844 0.009172769 -0.018345539 0.11007323 -0.027518308 0.055036616 0.018345539 -0.08255492
-0.027518308 0.045863844 0.06420939 0.045863844 -0.055036616 -0.018345539 -0.09172769 0.027518308
0.045863844 -0.119246 0.036691077 0.018345539 -0.15593708 -0.06420939 -0.08255492 -0.055036616
0.0 0.036691077 0.036691077 0.045863844 -0.09172769 -0.009172769 0.12841877 0.036691077
0.073382154 0.009172769 -0.12841877 -0.045863844 -0.13759154 0.045863844 0.055036616 0.13759154
0.073382154 0.0 -0.027518308 -0.036691077 -0.055036616 0.100900464 -0.036691077 0.045863844
0.055036616 -0.045863844 0.027518308 0.027518308 -0.073382154 -0.06420939 0.12841877 -0.06420939
0.11007323 0.036691077 -0.009172769 -0.036691077 0.100900464 0.06420939 -0.045863844 0.036691077
00000000: 07f0 ff0b f5fc 0715 fa19 eafb fbf2 0015
00000010: 0903 dd12 0ef9 0aed fc05 def0 fa09 1af5
00000020: f10e 000d 0418 f0de fa1d e402 feff 0705
00000030: fb01 fd02 f3fd de0a cf1d fb08 e4f7 f2fe
00000040: e8bc fd03 fb01 fee4 fc16 f915 fb10 0904
00000050: 090d 14ff e5f4 d414 fef8 f604 15f2 f50a
00000060: fb08 17fb f003 000c 04fd 0ef5 ee2f 0007
00000070: 0fb9 fa04 0c0b e8ef ee0a e9ec 0af9 1019
00000080: fcf4 0df9 080f 0405 fc03 02fe 09fd 02fa
00000090: 01f9 0f09 f518 fafa fc02 feff 04f4 fbfc
000000a0: f8fe 04f9 0a0b ff04 f30e 0903 ff01 0608
000000b0: 03fc f9f1 fe03 1203 0cfd f9ff fbf7 0107
000000c0: 0501 fe0c fd06 02f7 fd05 0705 fafe f603
000000d0: 05f3 0402 eff9 f7fa 0004 0405 f6ff 0e04
000000e0: 0801 f2fb f105 060f 0800 fdfc fa0b fc05
000000f0: 06fb 0303 f8f9 0ef9 0c04 fffc 0b07 fb04

model/batch_normalization_2/batchnorm/mul_1 i1 [128, 128] scale=0.030124748 zero_point=0
0.060249496 0.060249496 0.15062374 0.0 0.24099799 -0.090374246 -0.030124748 -0.12049899
-0.12049899 0.18074849 -0.8133682 0.030124748 0.090374246 -0.21087323 -0.060249496 -0.30124748
-0.030124748 0.18074849 0.21087323 0.030124748 0.12049899 0.12049899 -0.18074849 0.12049899
0.15062374 0.030124748 -0.18074849 0.30124748 0.060249496 0.090374246 0.33137223 0.060249496
-0.12049899 0.0 -0.15062374 0.27112272 0.15062374 -0.060249496 0.0 0.0
0.24099799 -0.12049899 0.060249496 -0.060249496 -0.060249496 0.030124748 -0.090374246 0.15062374
0.15062374 0.18074849 -0.060249496 0.0 -0.21087323 -0.090374246 0.15062374 0.18074849
0.090374246 -0.21087323 0.0 -0.21087323 -0.090374246 0.090374246 0.24099799 0.0
0.060249496 0.33137223 0.24099799 -0.12049899 -0.090374246 -0.030124748 0.24099799 -0.12049899
0.33137223 -0.060249496 -0.30124748 -0.18074849 -0.090374246 -0.090374246 0.21087323 -0.30124748
-0.15062374 -0.15062374 0.0 0.060249496 0.33137223 0.060249496 -0.060249496 -0.060249496
-0.42174646 -0.090374246 0.0 -0.36149698 0.12049899 0.12049899 0.15062374 0.0
-0.60249496 -0.090374246 -0.21087323 -0.12049899 -0.15062374 -0.060249496 0.090374246 -0.66274446
0.24099799 0.0 -0.45187122 -0.15062374 -0.21087323 0.36149698 -0.21087323 0.030124748
0.21087323 0.12049899 -0.21087323 0.060249496 -0.6928692 0.36149698 -0.21087323 -0.15062374
0.12049899 -0.15062374 -0.33137223 0.39162174 -0.12049899 0.30124748 0.0 0.15062374
0.060249496 0.030124748 -0.030124748 0.060249496 -0.060249496 0.18074849 0.12049899 -0.18074849
-0.030124748 0.12049899 0.0 -0.090374246 0.12049899 0.12049899 0.090374246 0.060249496
-0.030124748 0.18074849 -0.030124748 0.060249496 0.0 -0.090374246 0.030124748 0.030124748
0.060249496 0.030124748 0.18074849 -0.18074849 0.12049899 -0.090374246 -0.030124748 0.12049899
0.030124748 0.060249496 0.12049899 0.060249496 -0.030124748 0.0 0.060249496 0.060249496
-0.030124748 -0.060249496 0.0 0.12049899 0.18074849 0.18074849 0.21087323 -0.030124748
0.060249496 -0.030124748 0.030124748 -0.12049899 -0.12049899 0.30124748 0.0 0.15062374
0.0 -0.090374246 -0.15062374 -0.060249496 0.090374246 0.0 0.18074849 -0.060249496
-0.15062374 -0.030124748 0.0 0.18074849 0.090374246 -0.060249496 0.060249496 0.0
0.15062374 -0.15062374 -0.060249496 -0.030124748 0.12049899 0.060249496 -0.060249496 0.030124748
0.12049899 -0.030124748 0.090374246 0.15062374 -0.090374246 -0.090374246 0.060249496 -0.090374246
-0.030124748 0.090374246 0.0 0.0 -0.090374246 0.060249496 -0.090374246 0.0
-0.090374246 -0.24099799 0.090374246 0.030124748 0.0 0.030124748 -0.030124748 0.0
0.21087323 0.090374246 0.060249496 -0.060249496 0.0 0.030124748 -0.15062374 0.060249496
-0.24099799 0.15062374 0.090374246 0.030124748 0.090374246 0.42174646 0.0 0.21087323
0.030124748 0.060249496 -0.090374246 0.030124748 -0.12049899 -0.060249496 -0.060249496 0.090374246
00000000: 0202 0500 08fd fffc fc06 e501 03f9 fef6
00000010: ff06 0701 0404 fa04 0501 fa0a 0203 0b02
00000020: fc00 fb09 05fe 0000 08fc 02fe fe01 fd05
00000030: 0506 fe00 f9fd 0506 03f9 00f9 fd03 0800
00000040: 020b 08fc fdff 08fc 0bfe f6fa fdfd 07f6
00000050: fbfb 0002 0b02 fefe f2fd 00f4 0404 0500
00000060: ecfd f9fc fbfe 03ea 0800 f1fb f90c f901
00000070: 0704 f902 e90c f9fb 04fb f50d fc0a 0005
00000080: 0201 ff02 fe06 04fa ff04 00fd 0404 0302
00000090: ff06 ff02 00fd 0101 0201 06fa 04fd ff04
000000a0: 0102 0402 ff00 0202 fffe 0004 0606 07ff
000000b0: 02ff 01fc fc0a 0005 00fd fbfe 0300 06fe
000000c0: fbff 0006 03fe 0200 05fb feff 0402 fe01
000000d0: 04ff 0305 fdfd 02fd ff03 0000 fd02 fd00
000000e0: fdf8 0301 0001 ff00 0703 02fe 0001 fb02
000000f0: f805 0301 030e 0007 0102 fd01 fcfe fe03

model/batch_normalization_3/batchnorm/mul_1 i1 [128, 128] scale=0.062936395 zero_point=0
-0.37761837 0.12587279 0.0 0.062936395 0.062936395 -0.12587279 0.0 0.062936395
-0.12587279 -0.12587279 0.0 0.0 0.062936395 -0.062936395 0.18880919 -0.062936395
0.12587279 -0.12587279 0.062936395 -0.062936395 0.12587279 0.12587279 0.18880919 -0.062936395
0.062936395 0.062936395 0.25174558 0.062936395 -0.12587279 -0.062936395 0.12587279 0.062936395
0.0 -0.062936395 0.0 0.0 -0.31468198 -0.37761837 0.0 0.062936395
0.12587279 0.0 0.18880919 -0.18880919 0.12587279 -0.062936395 0.0 0.062936395
0.0 0.18880919 0.25174558 -0.12587279 -0.062936395 0.0 0.0 0.0
0.0 0.12587279 -0.062936395 -0.12587279 0.062936395 0.062936395 0.18880919 0.0
0.062936395 0.18880919 0.0 -0.12587279 0.0 -0.12587279 -0.062936395 0.062936395
0.12587279 -0.12587279 -0.25174558 -0.18880919 -0.12587279 0.0 0.0 0.0
-0.12587279 0.062936395 0.0 0.12587279 0.0 -0.31468198 -0.25174558 -0.18880919
-0.18880919 -0.12587279 0.0 -0.062936395 0.0 0.062936395 -0.062936395 0.0
0.12587279 0.062936395 0.12587279 -0.062936395 -0.062936395 0.062936395 -0.18880919 -0.12587279
0.062936395 0.0 0.0 -0.18880919 -0.062936395 -0.18880919 0.12587279 0.0
0.18880919 -0.062936395 0.25174558 0.062936395 0.0 0.12587279 -0.062936395 -0.12587279
0.0 -0.25174558 0.0 -0.12587279 0.0 -0.062936395 -0.062936395 0.062936395
0.12587279 -0.062936395 0.0 -0.25174558 -0.31468198 0.12587279 0.31468198 0.062936395
0.0 0.062936395 0.18880919 0.062936395 0.0 -0.062936395 -0.18880919 -0.18880919
0.0 0.25174558 0.062936395 -0.062936395 -0.18880919 0.25174558 0.0 0.12587279
-0.18880919 0.12587279 -0.31468198 0.12587279 0.0 -0.062936395 0.062936395 0.0
0.25174558 -0.062936395 0.0 -0.12587279 0.062936395 0.18880919 -0.18880919 0.062936395
-0.12587279 0.25174558 0.062936395 -0.18880919 -0.12587279 0.18880919 0.062936395 0.25174558
-0.062936395 0.062936395 0.062936395 -0.50349116 0.18880919 0.25174558 -0.062936395 0.0
-0.12587279 0.062936395 0.12587279 -0.25174558 -0.062936395 -0.062936395 -0.062936395 0.18880919
-0.062936395 -0.062936395 -0.12587279 -0.062936395 0.0 -0.062936395 -0.12587279 -0.062936395
-0.062936395 0.062936395 0.0 0.0 0.12587279 -0.12587279 0.0 0.0
-0.12587279 0.062936395 0.062936395 -0.12587279 0.0 -0.12587279 0.12587279 -0.062936395
-0.12587279 -0.37761837 0.0 -0.25174558 -0.12587279 -0.18880919 -0.062936395 0.0
0.0 0.18880919 -0.12587279 0.18880919 -0.062936395 0.0 -0.062936395 -0.18880919
0.062936395 0.0 -0.12587279 0.12587279 0.12587279 -0.062936395 -0.12587279 0.12587279
-0.062936395 -0.18880919 0.12587279 0.18880919 0.0 -0.18880919 -0.18880919 0.18880919
-0.062936395 -0.12587279 0.062936395 -0.062936395 -0.12587279 0.12587279 -0.062936395 0.12587279
00000000: fa02 0001 01fe 0001 fefe 0000 01ff 03ff
00000010: 02fe 01ff 0202 03ff 0101 0401 feff 0201
00000020: 00ff 0000 fbfa 0001 0200 03fd 02ff 0001
00000030: 0003 04fe ff00 0000 0002 fffe 0101 0300
00000040: 0103 00fe 00fe ff01 02fe fcfd fe00 0000
00000050: fe01 0002 00fb fcfd fdfe 00ff 0001 ff00
00000060: 0201 02ff ff01 fdfe 0100 00fd fffd 0200
00000070: 03ff 0401 0002 fffe 00fc 00fe 00ff ff01
00000080: 02ff 00fc fb02 0501 0001 0301 00ff fdfd
00000090: 0004 01ff fd04 0002 fd02 fb02 00ff 0100
000000a0: 04ff 00fe 0103 fd01 fe04 01fd fe03 0104
000000b0: ff01 01f8 0304 ff00 fe01 02fc ffff ff03
000000c0: ffff feff 00ff feff ff01 0000 02fe 0000
000000d0: fe01 01fe 00fe 02ff fefa 00fc fefd ff00
000000e0: 0003 fe03 ff00 fffd 0100 fe02 02ff fe02
000000f0: fffd 0203 00fd fd03 fffe 01ff fe02 ff02

model/batch_normalization_4/batchnorm/mul_1 i1 [8, 128] scale=0.0011460353 zero_point=0
0.027504846 0.0057301763 0.029796917 0.06761608 -0.07907643 0.029796917 0.0057301763 -0.06647004
-0.025212776 -0.055009693 0.025212776 0.011460353 0.026358811 0.034381058 -0.07334626 0.027504846
-0.017190529 -0.026358811 0.04125727 0.09855904 -0.02406674 0.061885905 -0.055009693 -0.0068762116
-0.0194826 0.022920705 0.0389652 0.026358811 0.010314317 0.032088988 0.012606388 0.0068762116
0.03667313 -0.027504846 0.0068762116 -0.030942952 -0.012606388 0.020628635 0.092828855 -0.042403303
-0.06532401 0.04584141 -0.027504846 0.029796917 -0.07105419 -0.06647004 0.05386366 0.0011460353
-0.018336564 -0.013752423 0.013752423 0.0194826 -0.012606388 0.034381058 0.08022247 0.09512093
0.034381058 -0.02406674 0.018336564 -0.051571585 -0.08709868 0.0194826 -0.011460353 0.06647004
-0.0057301763 -0.032088988 0.046987444 -0.022920705 -0.10772732 -0.0068762116 -0.042403303 -0.02177467
0.028650882 0.040111236 -0.030942952 -0.04125727 0.076784365 -0.0148984585 -0.06532401 0.018336564
-0.04354934 -0.11345749 -0.040111236 -0.010314317 -0.075638324 0.009168282 -0.081368506 -0.030942952
-0.0194826 0.0022920705 -0.034381058 -0.076784365 -0.0057301763 0.0057301763 -0.035527095 -0.046987444
0.009168282 0.0584478 -0.10199714 0.060739867 -0.02177467 -0.05386366 -0.017190529 0.0034381058
0.0022920705 0.04813348 0.0 -0.030942952 -0.018336564 0.029796917 0.097412996 -0.06990815
-0.055009693 -0.022920705 -0.061885905 -0.028650882 -0.0034381058 -0.0022920705 0.056155726 0.04927952
0.057301763 -0.0584478 0.029796917 0.029796917 -0.044695377 -0.04584141 -0.04813348 0.0011460353
0.0057301763 0.011460353 0.016044494 -0.008022247 -0.010314317 0.03667313 0.0057301763 -0.046987444
-0.05386366 -0.0011460353 0.013752423 0.07105419 0.04125727 -0.004584141 0.020628635 0.06532401
0.0034381058 -0.004584141 0.025212776 0.0 0.0022920705 -0.0022920705 0.018336564 -0.027504846
-0.04354934 0.0 -0.110019386 0.032088988 -0.02406674 0.025212776 0.09397489 -0.017190529
0.0011460353 -0.012606388 -0.03667313 0.028650882 0.02177467 0.010314317 -0.0011460353 -0.022920705
0.0011460353 0.018336564 0.0057301763 0.03323502 0.04927952 0.010314317 -0.020628635 0.0034381058
0.08022247 0.008022247 0.0034381058 0.02406674 -0.010314317 -0.018336564 0.0 0.0
-0.03667313 0.0022920705 0.0057301763 -0.026358811 -0.013752423 0.0034381058 -0.013752423 0.0057301763
-0.040111236 -0.042403303 0.04584141 -0.0022920705 -0.004584141 -0.06761608 -0.008022247 0.105435245
-0.0022920705 0.03667313 0.029796917 0.004584141 0.011460353 -0.0148984585 0.018336564 -0.025212776
0.012606388 -0.012606388 -0.0389652 0.0 0.0148984585 -0.0034381058 -0.0057301763 0.009168282
0.02177467 0.10772732 -0.03667313 -0.011460353 -0.08022247 -0.0057301763 0.004584141 0.0
-0.008022247 -0.02406674 0.02177467 0.016044494 0.0057301763 0.012606388 -0.010314317 -0.040111236
-0.081368506 -0.02406674 -0.029796917 -0.057301763 0.02177467 -0.029796917 -0.016044494 0.037819162
0.011460353 0.013752423 0.029796917 -0.0194826 0.009168282 0.016044494 0.04813348 -0.022920705
0.040111236 0.0148984585 -0.081368506 -0.035527095 -0.0148984585 0.0011460353 -0.008022247 0.026358811
00000000: 1805 1a3b bb1a 05c6 ead0 160a 171e c018
00000010: f1e9 2456 eb36 d0fa ef14 2217 091c 0b06
00000020: 20e8 06e5 f512 51db c728 e81a c2c6 2f01
00000030: f0f4 0c11 f51e 4653 1eeb 10d3 b411 f63a
00000040: fbe4 29ec a2fa dbed 1923 e5dc 43f3 c710
00000050: da9d ddf7 be08 b9e5 ef02 e2bd fb05 e1d7
00000060: 0833 a735 edd1 f103 022a 00e5 f01a 55c3
00000070: d0ec cae7 fdfe 312b 32cd 1a1a d9d8 d601
00000080: 050a 0ef9 f720 05d7 d1ff 0c3e 24fc 1239
00000090: 03fc 1600 02fe 10e8 da00 a01c eb16 52f1
000000a0: 01f5 e019 1309 ffec 0110 051d 2b09 ee03
000000b0: 4607 0315 f7f0 0000 e002 05e9 f403 f405
000000c0: dddb 28fe fcc5 f95c fe20 1a04 0af3 10ea
000000d0: 0bf5 de00 0dfd fb08 135e e0f6 bafb 0400
000000e0: f9eb 130e 050b f7dd b9eb e6ce 13e6 f221
000000f0: 0a0c 1aef 080e 2aec 230d b9e1 f301 f917
