models/autoencoder/dynamic_range_quantization/model_ToyTrain.tflite (tflite, 277016 bytes, 20 tensors)

model/dense_9/BiasAdd/ReadVariableOp f4 [640]
000000 d7 08 9a bf b5 1f 6c bf 23 a6 ad bf 37 d3 96 bf
       -1.2033948 -0.9223588 -1.3566326 -1.1783208
000010 68 68 95 bf 47 ab 88 bf c5 09 69 bf 77 f5 46 bf
       -1.1672487 -1.067727 -0.9103053 -0.777183
000020 f2 ec 4f bf 6d 7b 22 bf da 63 28 bf 72 0e 2e bf
       -0.81220925 -0.6346958 -0.6577736 -0.6799079
000030 58 af 17 bf 3d d5 a4 be 2f 0b 0a bf 43 fd 2d bf
       -0.5925193 -0.32193938 -0.53923315 -0.6796457
000040 c9 c2 e4 be d8 e0 97 be 51 9d 0e bf e0 d8 e0 be
       -0.4467986 -0.2966373 -0.55708796 -0.43915462
000050 df f5 e9 be 0c 41 b4 be 9f 63 6b be 47 2c 2a be
       -0.45695397 -0.35205877 -0.22987221 -0.16618453
000060 c5 b4 a0 be f1 55 f7 be 58 42 0e bf e7 33 c3 be
       -0.31387916 -0.48307756 -0.5556998 -0.38125536
000070 d7 a0 fa be ba f6 7a be 8d ea 94 be c4 d8 03 bf
       -0.48950836 -0.24508181 -0.29085198 -0.51502633
000080 5b 26 02 bf 3c 9a ff be 68 9d ec be c8 02 08 bf
       -0.50839776 -0.4992236 -0.4621384 -0.53129244
000090 b0 2a 11 bf 9f ce d6 be 91 0f 08 bf c1 9c 1a bf
       -0.5670576 -0.41954514 -0.5314875 -0.6039544
0000a0 59 b9 16 bf c4 32 11 bf 7f 4a 07 bf 05 96 cb be
       -0.5887657 -0.5671809 -0.52848047 -0.39762893
0000b0 d6 a9 cc be 27 5d a1 be 4c 24 b8 be 2b 2f 1d bf
       -0.39973325 -0.31516382 -0.35965192 -0.614001
0000c0 93 eb 19 bf 2d 07 e1 be 75 6d b1 be 3d cd c7 be
       -0.6012508 -0.43950787 -0.34653822 -0.39023772
0000d0 ef 0b 94 be 11 f0 8b be 1f e3 d8 be b8 50 ef be
       -0.28915355 -0.27331594 -0.4236078 -0.4674127
0000e0 27 99 b7 be 65 16 05 bf 4c 46 ff be c8 54 19 bf
       -0.35859033 -0.51987296 -0.4985832 -0.5989499
0000f0 e0 95 26 bf cd 1f ea be 47 1f 01 bf 7a 4d 16 bf
       -0.6507244 -0.45727387 -0.5043835 -0.5871197
000100 d3 9f 18 bf 66 ca e6 be 0d 06 cc be 66 a0 a3 be
       -0.5961887 -0.45076293 -0.39848366 -0.31958312
000110 d0 9a f2 be ce b9 c6 be 40 83 ce be 3b d2 e7 be
       -0.47383738 -0.38813633 -0.4033451 -0.4527758
000120 bb 84 96 be 2f e5 b7 be 0e 7b c0 be ef ec 00 bf
       -0.2939814 -0.3591704 -0.37593883 -0.5036153
000130 6c 8b cb be f2 21 02 bf 48 73 19 bf 34 79 04 bf
       -0.39754808 -0.50833046 -0.5994153 -0.5174744
000140 63 f2 0a bf 61 c5 b9 be ef fc b0 be 6f 26 bc be
       -0.542761 -0.362834 -0.34567973 -0.36748073
000150 5f 06 89 be 47 68 85 be 5d 25 83 be 06 bd 93 be
       -0.26762673 -0.2605612 -0.25614443 -0.2885515
000160 c9 aa 94 be 03 ea d3 be 41 51 ec be 05 bf ee be
       -0.2903655 -0.41389474 -0.46155742 -0.4663011
000170 85 c3 eb be 7e 67 14 bf 8f 13 01 bf c9 87 22 bf
       -0.46047607 -0.57970417 -0.5042047 -0.6348844
000180 6d b2 2e bf 0a 9b 1d bf fc cd 24 bf 11 f7 3c bf
       -0.68241006 -0.61564696 -0.6437681 -0.73814493
000190 0b 67 3a bf 57 5d 37 bf 5c 12 4b bf c9 88 40 bf
       -0.7281348 -0.716268 -0.7932489 -0.7520872
0001a0 0b 85 2d bf 30 8a 35 bf ed ed 46 bf ac 02 26 bf
       -0.6778113 -0.7091398 -0.77706796 -0.64847827
0001b0 e5 a8 27 bf 8c a1 40 bf 34 d5 5e bf 25 b4 7f bf
       -0.6549209 -0.752465 -0.8704407 -0.99884254
0001c0 35 75 62 bf 69 8b 46 bf e1 fd 4a bf 33 40 68 bf
       -0.88460094 -0.77556473 -0.7929364 -0.9072296
0001d0 3a ec 48 bf ad 3e 51 bf 61 1a 44 bf fb fe 46 bf
       -0.78485453 -0.8173626 -0.7660275 -0.7773282
0001e0 74 56 35 bf b4 f4 34 bf 73 6a 52 bf bf 34 44 bf
       -0.7083504 -0.7068589 -0.8219368 -0.76642984
0001f0 a7 f5 60 bf 72 9d 3c bf 59 d6 6b bf 1f 80 0b c0
       -0.87874836 -0.7367774 -0.92123944 -2.179695
000200 fd 4c 98 bf b3 3d 61 bf 16 69 a3 bf 81 d1 85 bf
       -1.1898495 -0.8798477 -1.2766445 -1.045456
000210 80 cc 89 bf ed 32 7a bf 19 a3 53 bf 08 bc 43 bf
       -1.0765533 -0.97733957 -0.8267074 -0.7645879
000220 7f 95 58 bf 2b f0 2b bf e2 67 2c bf 76 40 2d bf
       -0.8460311 -0.6716334 -0.6734601 -0.67676485
000230 c9 69 1b bf 90 7f 98 be 8b 80 fa be 6f 95 1e bf
       -0.6070829 -0.29784822 -0.48926196 -0.6194677
000240 9b 14 d4 be 5e c5 a3 be bb f8 15 bf 0c 83 de be
       -0.4142197 -0.31986517 -0.5858266 -0.43459356
000250 0b 85 d3 be 07 5c b4 be 1c 22 9e be 17 8b 73 be
       -0.4131244 -0.3522646 -0.30885398 -0.23783527
000260 30 73 98 be cb ba cc be 85 49 00 bf c0 4b a8 be
       -0.2977538 -0.39986262 -0.5011218 -0.32870293
000270 31 b2 c9 be 71 6d 2d be d8 32 5d be 82 52 cd be
       -0.39393762 -0.1693628 -0.21601427 -0.4010201
000280 fb b6 e3 be 31 66 d0 be 71 5c a4 be fc 92 c7 be
       -0.4447554 -0.40702966 -0.32101777 -0.38979328
000290 bf d0 cf be dc 1c 94 be 47 07 e5 be c4 45 f6 be
       -0.40588948 -0.28928268 -0.44732115 -0.48100102
0002a0 04 1d f2 be 29 07 fa be 89 61 f0 be c3 58 c0 be
       -0.47287762 -0.48833588 -0.46949413 -0.3756772
0002b0 92 c9 c8 be b4 07 95 be 3e c9 a9 be 0e 2e 0d bf
       -0.39216286 -0.2910744 -0.33161348 -0.551484
0002c0 05 82 11 bf 88 43 c8 be 47 10 a3 be 76 88 ae be
       -0.5683902 -0.39114022 -0.31848356 -0.34088486
0002d0 95 1b 88 be 57 9a 81 be 84 37 b2 be 9c 17 be be
       -0.26583543 -0.25313064 -0.3480798 -0.37127388
0002e0 74 30 74 be 27 e2 d0 be fb 7e c3 be 45 f0 ca be
       -0.23846608 -0.4079754 -0.38182816 -0.39636436
0002f0 9f 39 ff be d0 a4 cb be 5d f0 ed be 95 e2 0f bf
       -0.4984865 -0.3977418 -0.46472445 -0.5620511
000300 d4 95 08 bf 0d 3f b4 be 7e 1a ac be f5 6d b1 be
       -0.5335362 -0.35204354 -0.33613962 -0.34654203
000310 2a fc ee be a4 5d c4 be 19 7c e2 be 61 d7 02 bf
       -0.4667676 -0.38352692 -0.44235304 -0.5110989
000320 e7 67 c8 be 54 84 c7 be 74 86 a7 be 52 16 e1 be
       -0.3914177 -0.38968146 -0.32719767 -0.43962342
000330 94 f9 ad be ea 33 c9 be 5f f6 f2 be a5 0a cd be
       -0.33979475 -0.3929742 -0.4745359 -0.40047184
000340 5c 6c dc be c9 bf a6 be 8f 4c c1 be 97 2c cd be
       -0.43051422 -0.32568195 -0.37753722 -0.40073082
000350 54 ba 9f be 09 b5 91 be ac ce 61 be 29 7c 67 be
       -0.31196845 -0.2845843 -0.22051495 -0.22605957
000360 83 34 4f be ca c5 a1 be d1 01 d2 be b7 90 cd be
       -0.20234875 -0.31596214 -0.4101701 -0.4014947
000370 b0 23 cc be e8 00 fa be 8b 14 bd be b6 3a fd be
       -0.39870977 -0.48828816 -0.36929736 -0.49458855
000380 bd b9 fc be ba b3 03 bf e4 39 21 bf 58 ba 34 bf
       -0.49360457 -0.51446116 -0.6297896 -0.7059684
000390 37 5e 2e bf 71 be 22 bf 39 09 35 bf ee 8f 28 bf
       -0.6811251 -0.6357184 -0.707172 -0.6584462
0003a0 31 e7 1e bf 05 5e 28 bf 82 b2 37 bf b4 37 0f bf
       -0.6207152 -0.6576846 -0.71756756 -0.5594437
0003b0 24 22 1e bf 06 9e 3e bf 66 80 61 bf 73 2c 80 bf
       -0.61770844 -0.74459875 -0.88086545 -1.0013565
0003c0 04 4b 70 bf 48 7c 5f bf 27 06 54 bf 31 21 6a bf
       -0.93864465 -0.87299013 -0.8282189 -0.91456896
0003d0 a9 02 54 bf 84 a9 74 bf bf 62 75 bf b9 90 6f bf
       -0.8281656 -0.9557116 -0.958538 -0.93580204
0003e0 5c 0e 49 bf 94 8b 4e bf f4 b9 7c bf fc a6 6a bf
       -0.78537536 -0.8068173 -0.9872124 -0.9166105
0003f0 ff 87 6c bf 2d 93 42 bf fd bd 74 bf 49 ef 0c c0
       -0.92395014 -0.7600582 -0.956024 -2.2021048

model/activation/Relu;model/batch_normalization/batchnorm/add_1 f4 [128]
000000 a5 cd a0 c0 58 91 97 c0 18 bc 88 bf b5 16 0c c0
       -5.025103 -4.736492 -1.0682402 -2.188886
000010 7a cb 1e bf 83 de 05 c1 12 fe 44 c0 7d 4c 11 40
       -0.6202923 -8.366824 -3.0780072 2.2702935
000020 70 f0 37 c0 27 5c f9 c0 12 df de c0 7b 15 f6 c0
       -2.8740501 -7.792499 -6.9647303 -7.690122
000030 1b ae 90 40 b7 15 a4 40 74 94 17 40 50 9a 99 be
       4.521253 5.1276507 2.3684359 -0.30000544
000040 32 d2 db 40 de 11 e2 40 96 44 f7 c0 90 6a 91 c0
       6.8694086 7.064681 -7.7271223 -4.544258
000050 bc db 1d c1 1e 01 9a c0 79 0b 74 40 bd 7b 0d 40
       -9.866146 -4.8126364 3.8132002 2.2106774
000060 80 53 f6 40 fe 04 ad 40 d6 af 62 c0 10 4e cc c0
       7.697693 5.4068594 -3.5419822 -6.384529
000070 36 f1 d6 3f dc 89 b7 40 a3 c2 d2 3f bf dc ca c0
       1.6792362 5.7355785 1.6465648 -6.3394465
000080 f3 f6 67 c0 13 4b 7d c0 73 15 49 40 57 08 62 40
       -3.6244476 -3.9577072 3.1419342 3.531759
000090 38 52 15 c0 80 32 cf bf b1 42 24 40 a8 2a c9 40
       -2.3331432 -1.6187286 2.5665705 6.286457
0000a0 5f 61 35 40 3f c1 d0 3f de e8 b2 40 99 2e 30 c0
       2.834068 1.6308974 5.590926 -2.752844
0000b0 a4 2f 09 40 f8 8f ea 40 e2 3a 34 bf 26 11 ca c0
       2.1435328 7.3300743 -0.7040235 -6.3145933
0000c0 53 f7 cf bf c1 0b c6 3f c2 7b 3c c0 41 36 cc 40
       -1.6247352 1.5472337 -2.9450536 6.381623
0000d0 1e de a1 c0 f4 8b 0d 40 56 ad 9b 40 0d 51 21 c0
       -5.058364 2.211667 4.864909 -2.520572
0000e0 f6 fa 38 c0 92 c6 5f 3f 1c 23 61 c0 cb 76 c0 c0
       -2.8903174 0.8741237 -3.517768 -6.014501
0000f0 4a bc c1 c0 0f 56 91 40 17 3c 98 c0 29 90 53 40
       -6.0542345 4.541755 -4.757335 3.3056738
000100 b8 d5 72 40 dd 5b 2e c0 2d 94 e0 3e be 0b 97 40
       3.7942944 -2.724357 0.4386305 4.7201834
000110 1f 6b 33 c0 7e eb 9b 40 6e 40 a0 c0 63 cf 95 c0
       -2.8034132 4.8724966 -5.007865 -4.6815658
000120 7b 10 c4 c0 4f b7 b4 c0 8d 5b be c0 d6 8c d7 c0
       -6.127012 -5.6473765 -5.9486756 -6.735942
000130 e0 9b 1e 40 72 72 89 40 46 e6 d8 40 e4 c1 31 40
       2.4782639 4.2952204 6.7781096 2.7774591
000140 72 de 94 40 a6 a4 c0 40 fb eb 84 40 3a fb a2 40
       4.652154 6.0200987 4.153806 5.0931673
000150 30 80 4b 40 df 89 e1 c0 74 b8 66 40 9a 59 c2 c0
       3.179699 -7.04808 3.6050081 -6.0734377
000160 4f de 95 c0 6d 80 b7 c0 6d de cc 40 39 38 c7 be
       -4.6833873 -5.734427 6.4021516 -0.38910082
000170 d1 c5 e9 40 6c 87 80 40 0f dd b4 c0 e0 a8 96 40
       7.3053975 4.016531 -5.6519847 4.7081146
000180 b2 0c e7 3f 4b 25 18 40 39 f3 8a 40 78 14 35 40
       1.8050749 2.3772762 4.3421903 2.8293743
000190 e0 a0 dd c0 1c 60 90 40 c0 eb d4 3f e2 ee 9f 40
       -6.925888 4.511732 1.6634445 4.9979105
0001a0 4d 89 3f c0 c3 c3 ef 3f 01 bc b2 3f 5a 49 88 40
       -2.9927552 1.8731617 1.3963624 4.258954
0001b0 fd 40 15 c1 2a e7 27 40 83 90 2d 40 b5 41 06 40
       -9.328366 2.6234841 2.7119453 2.0977604
0001c0 11 9c 8c c0 b6 e4 b9 c0 46 22 20 3e 87 cc d6 40
       -4.394051 -5.809169 0.15638074 6.7124667
0001d0 47 94 bc 3b 7b 48 d1 bf 21 f8 c0 c0 78 55 98 3f
       0.0057549807 -1.6350244 -6.030289 1.1901083
0001e0 96 4c 50 40 fe 44 ba 3a a8 22 10 40 29 71 2a c0
       3.2546744 0.0014211235 2.2521152 -2.6631567
0001f0 bf 7a 1b c0 2c cb 47 40 4a c2 90 c0 3f b4 a0 c0
       -2.4293668 3.1217756 -4.523717 -5.0220027

model/activation_1/Relu;model/batch_normalization_1/batchnorm/add_1 f4 [128]
000000 47 23 75 3e cf 8f 2c 3d 81 62 98 bf 25 df 8a bf
       0.23939238 0.042129334 -1.1905061 -1.0849348
000010 85 6f 5e 3e 86 b6 5f 3e 2c e6 9f 3e ec e5 df 3e
       0.21722229 0.21846971 0.31230295 0.43730104
000020 95 50 57 c0 aa 98 d1 be 4d 49 8a 3f 8b 60 e2 be
       -3.3642933 -0.40936786 1.080362 -0.4421428
000030 b0 f1 7a 3f 56 44 f2 3e e3 49 48 3f 57 57 a6 bf
       0.98025036 0.4731776 0.7823774 -1.2995404
000040 aa f3 ca be ac 6a 00 bf fc 39 92 bf 86 84 e4 be
       -0.39639026 -0.5016277 -1.1423945 -0.44632357
000050 0e 4b 71 be ce dc 42 3f d6 9d 19 bf 84 29 0a 3e
       -0.23563787 0.7611817 -0.60006464 0.134924
000060 cc b9 d2 be 70 00 fb 3d 17 71 cf 3e 2a 2c 4f 3f
       -0.41157377 0.12255943 0.40515968 0.80926764
000070 ad fa 63 3f 9a b1 5b be 9d 15 74 3d b2 53 00 3d
       0.89054376 -0.21454468 0.059590925 0.031329818
000080 44 69 53 bf 46 3a 78 3e 55 70 df 3e e7 85 a8 bf
       -0.825825 0.2424098 0.4364039 -1.3165864
000090 14 73 56 bd 9f 32 2d c0 4d 32 60 3f 1f 27 45 3f
       -0.05235584 -2.7062147 0.8757675 0.7701282
0000a0 36 2c ac bf 72 1f e9 be 4e 84 c3 be b2 58 b6 be
       -1.3450992 -0.45531803 -0.38186878 -0.35614544
0000b0 86 6c 66 3f 96 1a 67 3f 08 5a 73 bf a6 ca 49 3e
       0.90009344 0.9027494 -0.9505925 0.1970621
0000c0 4e 79 be 3e 0c 83 83 bd 4c a2 e4 3e 50 15 b1 3e
       0.37201923 -0.064214796 0.44655073 0.34586573
0000d0 75 c9 fc 3e 63 37 6b c0 eb 4a 33 bf 46 3a c1 3f
       0.4937245 -3.6752555 -0.7003619 1.5095909
0000e0 7f 94 ab bf 97 05 11 bd 93 f7 1f 3f c8 a7 01 3f
       -1.3404692 -0.03540572 0.62487143 0.5064664
0000f0 e1 82 41 3d 59 ed 51 be a8 bf 85 3f 87 59 9b bf
       0.047243956 -0.20500697 1.0449114 -1.2136697
000100 ae 2e 38 3e 8f 1a 7f bf 25 8f d2 bf 11 6e 6d be
       0.17986557 -0.996499 -1.6449934 -0.23186518
000110 cc 14 5e 3e 3f 20 b5 3f c6 44 05 c0 c1 0e a9 3d
       0.21687621 1.4150466 -2.0823226 0.08254767
000120 16 eb ee ba 82 90 1e 3f f0 94 08 3f 09 aa 75 3e
       -0.001822802 0.6193925 0.5335226 0.23990645
000130 66 ec 8c 3e 08 62 e9 3d 4d 5c 18 3e a8 d8 80 bf
       0.27524108 0.11395651 0.1487896 -1.0066118
000140 e0 22 c3 3c 87 cb 28 be 4d 2b e8 bd 3f 31 68 c0
       0.02382034 -0.1648389 -0.11336384 -3.6280057
000150 eb c8 ef 3e 67 93 03 c0 9a 19 cf 3d bf 79 a5 3f
       0.46832976 -2.0558717 0.10112305 1.2927779
000160 cd 7b 87 c0 61 d1 68 be 2f f1 be 3e ec 47 30 3f
       -4.2338624 -0.22736122 0.37293383 0.68859744
000170 66 6c 2a bf 89 48 32 bf 1d 3a 2e 3e 38 cc a9 3e
       -0.6657165 -0.6964193 0.17014356 0.3316362
000180 dd c2 76 bf db fa 5c 3f cb b4 f6 3e 51 95 66 bf
       -0.9639109 0.86320275 0.4818481 -0.9007159
000190 89 44 91 bf ac dd 82 3f 33 6a 5b bf 72 0f 72 3f
       -1.134904 1.0223899 -0.8570892 0.9455482
0001a0 88 79 b7 3e 2b 84 8c be 98 c8 78 3e 68 73 f2 3f
       0.35834908 -0.27444586 0.2429527 1.8941469
0001b0 4b 33 2e 3f 2f c8 7e 3e 61 35 d8 3e ef 5f 9e 3e
       0.68047017 0.24881051 0.42228225 0.30932567
0001c0 85 b5 a2 bf 20 32 07 3f c7 49 aa be 22 b7 28 3f
       -1.2711645 0.5281086 -0.33259413 0.6590444
0001d0 6a a8 24 c0 12 88 6e 3f 84 c8 49 3d d6 ee 04 c0
       -2.5727792 0.93176377 0.049263492 -2.0770774
0001e0 65 8a 46 3f d5 d1 6d 3d a4 24 a9 3e b1 63 40 3f
       0.77554923 0.05806144 0.33035767 0.75152117
0001f0 3e 22 ce bd 2f 85 05 40 f2 35 e5 3b 89 2f 4d c0
       -0.10065125 2.086254 0.006994956 -3.2060263

model/activation_2/Relu;model/batch_normalization_2/batchnorm/add_1 f4 [128]
000000 46 09 ed be 2f 19 93 be 36 41 b8 bd 7c 51 a5 be
       -0.46296138 -0.2873015 -0.08996813 -0.3228873
000010 03 09 e7 3e 55 5d b5 3e e3 3c a2 bf f9 e5 b2 3f
       0.45124063 0.3542277 -1.2674831 1.3976432
000020 24 c4 ee be e1 95 ca bb 29 3a 19 3f d5 48 5a be
       -0.46634018 -0.0061824177 0.5985437 -0.21316846
000030 10 37 90 3d a0 53 18 3f 72 c4 df be 79 20 ad 3f
       0.07041752 0.595026 -0.43704563 1.3525535
000040 cd c2 17 3f d9 62 05 c0 d3 21 23 3e 81 e7 ea 3d
       0.5928162 -2.0841582 0.15930872 0.11469937
000050 1f c8 2d 3f 71 17 0b c0 71 29 d9 bf 8e bd 40 3e
       0.67883486 -2.1733057 -1.6965772 0.1882231
000060 d0 95 b4 3e 6c 16 c0 3e f7 e1 51 bf 5e c6 0d 3e
       0.35270548 0.37517107 -0.8198542 0.13845202
000070 93 09 1c 3f d6 49 01 3f e4 7b 2d 3f ec 8e 87 bf
       0.6095211 0.5050329 0.6776717 -1.0590491
000080 3c 74 ea 3e f6 6f 86 c0 be 57 33 3d 09 a4 67 be
       0.45791805 -4.201167 0.04378485 -0.22621168
000090 a3 32 55 3f 31 93 b2 bf 3d 9b 3a bd 27 bb 84 3d
       0.8328039 -1.3951169 -0.045558203 0.06481009
0000a0 bc cb 03 bd b8 72 66 bf fb bb 60 3f 34 39 99 3e
       -0.032176718 -0.90018797 0.87786835 0.29926455
0000b0 25 ce fa 3e 83 3d fc 3e 90 85 c0 3f 00 49 ec 3d
       0.489854 0.4926568 1.504076 0.11537361
0000c0 a8 56 1d bf ad c9 1f 3f 3d 7b 2d 3e 4e f9 8e 3d
       -0.6146035 0.6241711 0.16941543 0.06981145
0000d0 ca f0 2d bf 2b ab f2 3e f0 81 71 bf e5 9e 59 3f
       -0.6794554 0.47396216 -0.94338894 0.8500808
0000e0 30 4e c3 3f 05 0a 7d be 1b 4b 92 3f 43 ed aa 3e
       1.5258236 -0.24710853 1.142917 0.3338414
0000f0 da b5 ff 3e 3f c5 9a 3e 5f 43 43 bf 90 6d 66 bd
       0.4994343 0.30228612 -0.76274675 -0.05625683
000100 e1 58 95 3e 50 46 a0 bd b6 38 44 be 59 bc 89 bf
       0.29169372 -0.07825911 -0.19162259 -1.0760604
000110 76 0a 7a 3f 4d 21 03 3d 48 b1 e0 3e 56 5c 0d 3e
       0.9767221 0.03201418 0.43885255 0.13804755
000120 e9 39 0e 3f 03 29 f3 3e 3a fa 0d bf 23 af 8f c0
       0.55557114 0.47492227 -0.5545994 -4.490129
000130 d5 7b 88 3f 3b 2d a7 c0 0c f3 b8 3e 7f 5f a5 3f
       1.066279 -5.2242713 0.3612293 1.2919768
000140 cf ae cc 3e fd 71 9c be 96 a1 0c 40 75 19 79 c0
       0.39977118 -0.30555716 2.1973624 -3.8921788
000150 1e 0f a3 bf 06 5f 40 bc 90 aa 34 bc 0c d9 19 bf
       -1.2738988 -0.011741405 -0.011026993 -0.6009681
000160 40 15 3b 3f 49 d9 85 c0 7e 98 f8 3d c4 aa 97 c0
       0.730793 -4.182774 0.121384606 -4.7395954
000170 a1 9c 06 3f 55 1e a5 3e 13 ef 7b bf b3 05 02 bf
       0.52582747 0.32249704 -0.98411673 -0.50789946
000180 c1 15 8d 3f ff 5d 33 3f 8c 13 99 bf d2 4d a4 bf
       1.1022264 0.700653 -1.195909 -1.2836249
000190 c1 7a 33 3e fc fd 1f 3e c6 cd 9c 3d d9 06 a3 bf
       0.17527296 0.15624231 0.07656436 -1.2736465
0001a0 72 a6 32 bf a5 f8 a3 be e0 12 67 bd 7c 0b 05 3e
       -0.69785225 -0.32025638 -0.056414485 0.12992662
0001b0 82 a9 b2 3b 9c ad 1d bf 2e bc 07 3e ab 17 57 3f
       0.005452336 -0.6159303 0.13255379 0.8402049
0001c0 b2 ca b6 bf 0a 6f c2 bd 5d b4 be 3e 1a 03 0d bf
       -1.4280608 -0.09493835 0.3724698 -0.5508286
0001d0 79 5c 75 bf 2b d1 99 be 26 1b 62 3f 0b c7 d1 bd
       -0.9584423 -0.30042395 0.88322675 -0.102430426
0001e0 e9 6b 9d be c7 3d 37 3f 13 99 af be d8 ae 88 3f
       -0.3074639 0.7157864 -0.34296474 1.0678358
0001f0 cf 7e 23 3e 7f dd da 3e 68 e3 51 3f 4e 8b 07 3f
       0.15966342 0.42747113 0.8198762 0.5294694

model/activation_3/Relu;model/batch_normalization_3/batchnorm/add_1 f4 [128]
000000 da a1 2e c0 44 c1 19 c0 1d 0b c0 3e 72 46 e9 3e
       -2.7286286 -2.402421 0.3750848 0.45561558
000010 52 64 e3 be 7c cb 99 3e 84 b4 91 3e 0c 9c b7 3e
       -0.44412476 0.3003806 0.28458035 0.35861242
000020 e2 50 46 be ca 63 8d 3e 12 d6 51 be 42 69 72 3e
       -0.19366792 0.27615196 -0.20491818 0.23672965
000030 2d f9 4b 3f 3c 3a 10 bf 86 d8 54 bd 2c 4f 9a 3d
       0.7967709 -0.5633886 -0.051964305 0.07534632
000040 ff a6 12 3f 64 30 1a bf bf a6 71 bd 9b 5f 22 3e
       0.57286066 -0.6023009 -0.058996912 0.15856783
000050 4e 06 2b bd 3a 2a ed bd a6 db 2e 3f db 83 0a 3f
       -0.04175406 -0.1158032 0.68303907 0.54107445
000060 ed f6 8f bf 73 66 bd 3e 0d b7 32 3e 69 4c aa 3d
       -1.1247231 0.36992225 0.17452641 0.08315355
000070 6b 47 b8 bd 1b 33 a0 3e 76 e2 4e 3e e0 5d aa 3e
       -0.08997997 0.3128899 0.20203575 0.33274746
000080 fc ba c8 3e ec cb 91 3e c2 53 5c 3e e2 7a c8 bd
       0.39205158 0.28475893 0.21516326 -0.09789063
000090 49 07 48 3e cd 77 2d bf fa 08 71 3e 59 59 bf 3f
       0.19534029 -0.67760926 0.2353858 1.4949142
0000a0 a9 85 28 3d 87 b5 48 c0 01 d8 8e 3c 0c d2 44 bc
       0.041143093 -3.1360795 0.017436983 -0.01201297
0000b0 d8 82 1b be 68 a1 11 3e 30 6b b2 3e 3d 2d 41 be
       -0.15186632 0.14221728 0.34847403 -0.18864913
0000c0 69 d9 da 3e 8d a1 ac 3d 22 90 81 3e de 5e 33 bf
       0.42743996 0.08429251 0.25305277 -0.7006663
0000d0 db 53 dc 3d 84 d5 88 bf 21 f4 56 bc 83 d8 1f 3e
       0.10758182 -1.069016 -0.013119728 0.15609936
0000e0 93 dd 5e 3f f2 e0 95 be 03 dc 56 c0 13 1d 0a bd
       0.87056845 -0.29273182 -3.3571784 -0.033719134
0000f0 25 a8 45 be 18 03 a7 bf 3a 34 9d 3d 49 9d 42 3e
       -0.19302423 -1.3047819 0.07675977 0.19005312
000100 b1 97 76 3e 6c bf 75 be ea 8d a3 3f 68 22 41 3f
       0.24081303 -0.23998803 1.2777684 0.75443125
000110 a4 ea 30 3f c3 9d b9 3e 50 c1 56 3e f2 46 ab 3e
       0.69108033 0.36253175 0.2097218 0.33452564
000120 fe 64 a2 be 44 ed b1 3e 94 e2 9a 3e f5 87 ce be
       -0.31717676 0.34751332 0.3025099 -0.40338102
000130 5c 42 14 3f 4d 61 d8 3b 00 2c 93 be d2 e8 61 bf
       0.57913756 0.006603396 -0.28744507 -0.8824588
000140 30 40 85 be f5 16 fe 3e 0d c9 a0 3e e7 4d 2e c0
       -0.26025534 0.4962689 0.3140339 -2.7235048
000150 cf 47 4c 3e b2 21 c2 3e 59 e0 da bf dc 3e 9e 3e
       0.19949268 0.37916332 -1.7099715 0.30907333
000160 f2 d7 c3 bd 62 5c 35 3f 33 dd 6d bf fe 0c e2 be
       -0.09562673 0.7084409 -0.9291565 -0.44150537
000170 04 6c a5 3f cb e9 6e be 8c 03 14 bf bf a9 18 be
       1.2923589 -0.23331372 -0.5781791 -0.14908503
000180 a5 67 04 3e 68 26 c3 be 48 46 c1 3e 14 a0 29 bf
       0.12930162 -0.3811524 0.37748933 -0.66259885
000190 76 78 3b c0 7a 88 8d 3e ce a7 01 bf d8 b1 49 3e
       -2.9292274 0.27643186 -0.50646675 0.19696748
0001a0 8a 41 de 3d 28 ad 4d 3e 8a af 0f 3e fd 7b 0a 3f
       0.10852344 0.20085585 0.14031807 0.5409544
0001b0 34 47 83 3f b8 f2 d6 be d3 db 8c 3e 11 7d c9 3f
       1.0256104 -0.41982055 0.27511463 1.5741292
0001c0 f7 a5 c5 3e a0 6a 0a 3d 74 da 9e 3e bd 85 67 bf
       0.38603184 0.03379309 0.31026042 -0.90438443
0001d0 61 50 8e 3e fd c3 5c c0 47 1c f8 3e 6c b8 b6 be
       0.277957 -3.4494622 0.48459074 -0.35687578
0001e0 19 b7 ce bd 88 ac ec 3e 9e e8 bc 3e e5 56 53 bf
       -0.10093517 0.4622538 0.36896223 -0.82554466
0001f0 af 4d 79 3f 89 4e 3c 3e 0e df 60 c0 dd f7 f6 3e
       0.9738416 0.18389334 -3.5136142 0.4823598

model/activation_4/Relu;model/batch_normalization_4/batchnorm/add_1 f4 [8]
000000 db 42 9c 3f c3 8f ba 3f c1 1d 77 3f 2b 3e 52 3f
       1.2207903 1.4575123 0.96529776 0.8212611
000010 45 f6 a7 3f 88 ea 8e 3f 6c bd bd 3f d6 1d a0 3f
       1.312203 1.1165323 1.4823432 1.2509105

model/activation_5/Relu;model/batch_normalization_5/batchnorm/add_1 f4 [128]
000000 b7 10 5e 40 c1 59 64 be 74 ed a5 3e 25 02 94 40
       3.4697702 -0.22299863 0.32407725 4.625262
000010 12 31 94 3f 1d 27 3a 3e 5b 41 d8 bf 9e b7 8c be
       1.1577475 0.18178983 -1.6894945 -0.2748384
000020 21 54 07 c0 62 40 0a 3f f3 a4 d1 c0 3b 10 55 3f
       -2.1145098 0.5400449 -6.5513854 0.8322789
000030 b3 42 86 3e 10 cb b7 be e5 fe e4 3f 4a d3 06 bf
       0.26222762 -0.35897112 1.7890288 -0.5266615
000040 69 86 8d bf 41 c1 28 c0 5a 74 12 c0 3c 9f 91 3f
       -1.1056644 -2.6367953 -2.2883515 1.137672
000050 fa f1 cb 3f a4 ac e7 3f d2 6a 6a c0 fc e1 f6 3f
       1.593322 1.8099561 -3.6627698 1.9287715
000060 1b 97 58 c0 cf 35 5a c0 5c f6 4d 40 b5 3e 9c 3f
       -3.3842227 -3.4095342 3.2181616 1.2206637
000070 4f 77 8f bf 2f ec 31 3f 10 fa 95 c0 bc 96 05 be
       -1.1208285 0.6950101 -4.686775 -0.13045782
000080 7a 05 37 bd 7e c5 63 40 f9 f8 ae 40 cb 25 16 c0
       -0.044682957 3.558929 5.467892 -2.3460567
000090 66 bc 3d be e7 31 f5 bf fc 24 9a 40 18 61 a9 bf
       -0.185289 -1.9155854 4.8170147 -1.3232756
0000a0 80 79 6a bf e0 c3 23 bf 39 9b aa 3f 9b 53 eb 3e
       -0.91591644 -0.63970757 1.332862 0.45962223
0000b0 8c 2a 8a bf 6a 05 70 40 a3 d0 fc 3f f2 99 9a 3f
       -1.0794234 3.7503304 1.9751171 1.207823
0000c0 3f 36 8e bf 51 60 bd 3f ac ab a9 3e 5a a3 bc 3e
       -1.1110305 1.4795018 0.33138788 0.36843377
0000d0 52 8b f4 be e7 41 8e bf c6 f1 32 c0 81 d5 9b 3f
       -0.47762543 -1.1113862 -2.7960067 1.2174531
0000e0 c7 90 b5 bf 3c 78 6b 3e eb 4a 6b 40 19 f6 fc 3f
       -1.4184808 0.22995085 3.6764476 1.9762603
0000f0 13 2a 00 c0 ce da 92 40 f9 f5 9b bf 2b 01 23 bf
       -2.002568 4.5892096 -1.218444 -0.6367366
000100 41 37 33 40 9a b9 97 40 2b 8e 11 c0 74 bd 0b c0
       2.8002474 4.7414064 -2.2743022 -2.1834383
000110 3a 74 17 c0 f3 0c 40 3f 39 42 8b 40 16 be 86 40
       -2.366469 0.7501976 4.351834 4.210704
000120 38 fb 09 bf 58 51 10 40 65 76 a9 c0 ec 43 cc be
       -0.53898954 2.2549648 -5.2957025 -0.3989557
000130 44 50 9a 3f ef 5f 08 40 42 87 13 3f a6 ec a9 bf
       1.2055745 2.1308553 0.5762826 -1.3275344
000140 db 8c 74 c0 da 81 23 3f f3 aa 17 40 d1 91 91 bf
       -3.8210971 0.6387001 2.369809 -1.1372625
000150 71 00 83 3f aa 14 2f 40 01 47 fb 3f 0e 09 60 c0
       1.023451 2.7356362 1.9631044 -3.5005527
000160 78 a5 25 40 80 29 88 bf f9 6f a2 be d6 9f 33 c0
       2.5882244 -1.0637665 -0.31726053 -2.8066306
000170 69 d2 11 40 23 92 d1 bf 11 4d cf bf f5 c0 ae 3f
       2.2784674 -1.6372722 -1.6195394 1.3652636
000180 10 65 43 bf cb 66 58 3f 05 d8 98 40 a5 7e 66 3e
       -0.76326084 0.8453185 4.7763696 0.22509249
000190 06 c9 30 40 b2 2a 9c 3f 26 46 d4 bf e7 7e 66 3f
       2.7622695 1.220053 -1.6583908 0.9003739
0001a0 88 a3 b2 40 1a ba 38 40 81 1e 29 c0 59 35 c2 bf
       5.5824623 2.8863587 -2.6424868 -1.517253
0001b0 32 8e 78 40 2e 51 f9 be 82 48 88 c0 cd 31 15 c0
       3.883679 -0.48694748 -4.258851 -2.3311646
0001c0 ac 5b 63 c0 c8 9e 99 c0 30 da a9 bf 35 58 3b be
       -3.5524702 -4.8006325 -1.326971 -0.18295367
0001d0 a1 dd 11 40 59 cb 15 bf b4 e1 7d 3f 7a 17 06 3f
       2.2791522 -0.5851341 0.9917252 0.5237957
0001e0 1a cd 8e bf 78 ec 41 40 57 96 8a 3f 15 1c e4 bf
       -1.1156342 3.030058 1.082713 -1.782107
0001f0 20 00 3b 40 66 e0 a3 3f c0 6a 1c bb 14 ba 1b c0
       2.9218826 1.2802856 -0.002386734 -2.4332323

model/activation_6/Relu;model/batch_normalization_6/batchnorm/add_1 f4 [128]
000000 a1 c4 78 bf 84 f2 c2 3f 78 86 a7 bd 41 fc c8 be
       -0.9717503 1.523026 -0.08179945 -0.39254954
000010 60 d0 b5 3f 9e 0c 62 bf 61 c7 a2 bd a7 71 0b c0
       1.4204216 -0.883005 -0.07948185 -2.1788118
000020 33 b0 4b 3f ef 62 92 bd a3 29 88 be c5 20 56 3f
       0.79565734 -0.07147776 -0.26594266 0.8364375
000030 ef 93 9a bf b9 95 e2 bf dc da 52 3f 1e fe 74 bf
       -1.2076396 -1.7701942 0.823652 -0.9570025
000040 12 d3 8a 3f a9 49 35 3f 28 c9 af be fb 64 04 bf
       1.0845664 0.7081552 -0.34333158 -0.51716584
000050 65 04 01 bf 57 06 5c bf df f7 8a 3f 74 43 a9 3f
       -0.5039733 -0.85947174 1.0856894 1.322371
000060 d5 05 cf 3e 0f 93 36 bf 49 85 f9 bf f4 6c 26 3e
       0.40434137 -0.71318144 -1.94938 0.162525
000070 1a ca 2f bf ca b6 55 3f cf bc b5 bd 31 9d 67 3f
       -0.6866776 0.8348204 -0.08873903 0.9047423
000080 7c 69 28 3e 92 04 39 be fe ef 28 3f f4 90 9a be
       0.16446489 -0.1806815 0.659912 -0.30188715
000090 e4 6f f0 3f 60 a5 8f 3f 52 2f 67 be 30 55 99 3f
       1.8784146 1.1222343 -0.22576645 1.1979122
0000a0 01 98 61 bf 02 97 fb 3e ec a9 30 bf 46 be b8 3f
       -0.88122565 0.49138647 -0.6900928 1.4433067
0000b0 2b 3c bb 3f 89 19 e0 bd 5b 66 dd bf 3d 40 68 3d
       1.4627737 -0.109423704 -1.7296861 0.056701887
0000c0 f0 dc cc bf 94 75 b3 3f dc 89 a5 3f 3c 03 d7 3f
       -1.6004925 1.4020257 1.2932696 1.6797862
0000d0 ad 8d 0e 3f 21 e2 98 3f e0 8c 7b bf ba 18 d0 3e
       0.5568493 1.1944009 -0.98261833 0.40643865
0000e0 fe 63 88 3f 86 a0 8f bf b3 b3 99 be 89 11 96 bf
       1.0655515 -1.1220863 -0.30019912 -1.1724101
0000f0 81 ef c6 3d 43 17 19 be fd 6a 82 be f3 f8 47 3e
       0.097136505 -0.1495028 -0.2547225 0.1952856
000100 c8 46 f1 3e a9 d6 9b 3e e6 73 b3 be 62 6b 0c 3f
       0.47124314 0.3043721 -0.3504936 0.54851353
000110 a5 52 b4 3f c1 ca 67 3f 20 a3 5e be eb ae 8e 3e
       1.4087721 0.9054375 -0.21741915 0.27867827
000120 41 c1 67 3f 6c 1d 0c 3f e4 2b 68 bf c4 85 9b 3f
       0.9052926 0.54732394 -0.9069197 1.2150197
000130 6e 82 d1 bf 78 9f 4f 3f e8 f2 de 3f 16 97 fd be
       -1.6367929 0.81102705 1.7417879 -0.49529332
000140 fd bb 05 3f 02 3a 97 3f 34 43 fd be 8a 12 30 bf
       0.5223997 1.1814578 -0.49465334 -0.6877829
000150 17 dc a9 3f 58 3b 67 bf e2 db e6 3e 0a 6a 67 be
       1.3270291 -0.90324926 0.45089632 -0.22599044
000160 3b 91 5f bf 78 fb 56 bf 65 ef a1 3f 64 e2 5b 3f
       -0.8733098 -0.8397746 1.2651182 0.8589232
000170 f8 6d 28 bf 29 18 a9 bd d6 75 1e 3f a5 35 c5 3f
       -0.657928 -0.08256561 0.61898553 1.5406996
000180 67 c6 b2 bf 39 1f 88 3f c6 d8 1b 3d ae 43 50 3f
       -1.3966798 1.0634528 0.038048528 0.8135327
000190 f2 e1 f4 3e fe 0e 65 3e 74 a1 39 3f 71 52 38 3f
       0.47828633 0.22369 0.7251198 0.72000796
0001a0 c3 8c 9f 3f 26 da 7f 3f 70 f6 92 3f 6e a7 81 3f
       1.2464832 0.99942243 1.1481457 1.012922
0001b0 4b e5 10 3f ae 9f e7 be 3e f3 e5 3f d0 51 12 3e
       0.56599873 -0.45239013 1.7964857 0.14289021
0001c0 77 ef 69 bf 25 87 22 3f f5 30 62 3e 22 fc b1 3f
       -0.9138102 0.63487464 0.22088988 1.390507
0001d0 ba 2c 5b be f2 ca 6a 3e 0f 9c ff be 36 2c 70 3f
       -0.2140378 0.2292898 -0.4992375 0.9381746
0001e0 81 2f 38 bf 3e 2e 52 3f 3d 6c 0f c0 49 0f 9a bf
       -0.71947485 0.8210181 -2.2409813 -1.2035915
0001f0 96 fd df 3f b2 37 69 3f 0a 8f 35 3f e2 e8 94 3f
       1.7499263 0.9110061 0.70921385 1.163357

model/activation_7/Relu;model/batch_normalization_7/batchnorm/add_1 f4 [128]
000000 68 72 0f bf 7e 54 6a 3f 87 24 9c bc b9 32 e2 be
       -0.56033945 0.91535175 -0.019060386 -0.44179323
000010 a4 92 b4 be ac c5 3c 3f e0 41 62 3f 99 37 08 bf
       -0.35268128 0.73739123 0.8838177 -0.53209835
000020 d9 c2 dd 3e 22 22 99 3d c6 16 d7 be a8 25 24 3f
       0.4331272 0.074772134 -0.42009562 0.6411996
000030 e5 a2 b3 3e 9b 8d f6 bd ea 0c 92 bf 86 9c 99 3c
       0.35085216 -0.12038728 -1.1410191 0.018751394
000040 3a 12 0e 3f 05 2e 48 bf fe 24 7a bf 50 ea d3 3d
       0.5549656 -0.7819522 -0.97712696 0.10347426
000050 0e 9d b6 3f e1 9f c6 3e 50 d5 54 bf 72 bd bf 3f
       1.4266679 0.38793853 -0.8313799 1.4979689
000060 7c 9a 9f be c5 35 8c 3e d3 71 59 be 90 42 65 3d
       -0.3117255 0.27384773 -0.21234827 0.055971682
000070 45 fa b3 bf 06 76 6d be 58 81 02 be 4e 63 34 40
       -1.4060751 -0.23189554 -0.12744653 2.818561
000080 ef e2 8a 3f 8b 16 8a 3f 80 66 a6 3f 5c c9 c6 3f
       1.0850505 1.078813 1.300003 1.55302
000090 68 66 24 be 75 dd ef 3e fe c4 56 bf 84 be c6 3e
       -0.1605469 0.46848646 -0.83894336 0.38817227
0000a0 bd 41 72 3f 0a c8 bf be c1 59 43 be 36 0e 5e 3f
       0.9463156 -0.37457305 -0.19077207 0.86740434
0000b0 ca 73 92 bf b0 2e 5a bf c3 bb 9f be 24 0f b8 be
       -1.1441586 -0.8522749 -0.31197938 -0.3594905
0000c0 0f 5b 2b 3f 48 5f 82 3f 83 63 84 bd d1 91 3f be
       0.6693582 1.0185328 -0.06464293 -0.18707968
0000d0 72 0b 19 bf 85 e7 c2 3f ec 61 a5 3f 19 d1 02 bf
       -0.5978309 1.5226904 1.2920508 -0.5110031
0000e0 26 c1 91 3e 08 52 00 3f 6b 4c 23 bf 74 09 0d 3f
       0.28467673 0.5012517 -0.6378848 0.5509255
0000f0 66 26 1c 3e 5c 57 ee 3e 0a 5d 9e 3f d9 b6 96 3f
       0.15249023 0.46551025 1.2372143 1.1774551
000100 ca cb 34 bf 85 23 3a 3f 8b 46 89 3e 42 86 aa 3e
       -0.7062346 0.7271045 0.26811633 0.33305556
000110 56 31 9f 3e 0b fb 51 3e ce 12 9d 3d ab 57 16 bf
       0.31092328 0.20505922 0.07669602 -0.5872752
000120 d1 d5 55 3f e2 3a e0 be 71 f0 3c 3f e6 46 82 bf
       0.8352938 -0.43794924 0.73804384 -1.0177886
000130 0b ec 6c 3f d2 15 f1 3e d8 56 18 bf d6 ab 8e bd
       0.92547673 0.4708696 -0.59507513 -0.06966369
000140 b9 1c 91 3f d3 cd 01 3f 8c 2c 08 3f 8a 00 5c bf
       1.133689 0.5070469 0.53192973 -0.8593832
000150 df b4 fb 3d 99 97 1f bf 85 20 5b bf 90 58 8e bf
       0.12290358 -0.62340695 -0.85596496 -1.1120777
000160 39 83 47 3f b8 2c df 3d f9 da 3f 3f ff 16 2a 3f
       0.77934605 0.10897201 0.749435 0.6644134
000170 9d 3f 62 be 1d 6a 37 3f 7d 87 9b 3f 55 0d 2d bf
       -0.22094579 0.7164629 1.2150723 -0.6759847
000180 39 83 14 40 2c ba cb be 63 11 a4 be 9c ff 62 3f
       2.3205092 -0.39790475 -0.32044515 0.8867128
000190 1a a6 97 3f e5 56 1d 3f ef 8d da be b7 62 c8 3e
       1.1847565 0.61460716 -0.42686412 0.39137813
0001a0 61 f9 f2 3c 3e 64 0f 3f d9 29 b1 bf 98 00 99 3f
       0.029659929 0.5601233 -1.3840896 1.1953306
0001b0 22 e8 2b 3f 6f ea c4 3e b0 ad e0 be a9 37 a7 be
       0.6715108 0.3846011 -0.43882513 -0.32659653
0001c0 ad de 74 3e 97 b4 37 c0 34 0d 4b bf 5f d9 01 3f
       0.23913069 -2.8703973 -0.7931702 0.50722307
0001d0 33 e3 a7 be 79 19 f7 be d6 90 b1 3f 93 3a 87 3e
       -0.32790527 -0.48261622 1.3872325 0.26411876
0001e0 7c 47 10 3e 9b c8 06 bf da 5b 66 3e 98 d4 04 bf
       0.14089769 -0.5264985 0.22495976 -0.5188689
0001f0 8b b1 41 bf ac 5b 53 3f 2e de 1c 40 ee a0 be 3d
       -0.75661534 0.82561755 2.4510608 0.09308039

model/activation_8/Relu;model/batch_normalization_8/batchnorm/add_1 f4 [128]
000000 32 a3 96 be 1b df 4f 40 b8 4d cd 3f d0 40 0b 40
       -0.29421383 3.2479923 1.6039343 2.1758308
000010 70 46 48 3f bc 57 bf 3f 7d 76 f6 3f ab 4d c7 3f
       0.7823248 1.494865 1.925491 1.5570577
000020 02 5c 82 3f 0d 2e 08 40 bc 48 40 3f 29 2b 1c 3f
       1.0184329 2.1278107 0.75110984 0.6100336
000030 a5 81 84 3f fc 47 b8 3f 49 6d 8c 3f ed a5 c7 3f
       1.0352064 1.4396968 1.0970851 1.5597512
000040 f7 6c 27 40 8d d7 c0 3f 54 30 78 40 09 7b 30 3f
       2.6160257 1.5065781 3.8779497 0.68937737
000050 5f 18 79 3f 06 83 1a 3e 85 87 6c 3f 03 11 48 3f
       0.9730281 0.15089044 0.92394286 0.7815096
000060 94 ca 22 40 cb 40 09 40 a8 1f c8 3f 9e 55 20 40
       2.5436144 2.1445796 1.5634661 2.5052257
000070 64 34 9c bc 41 f1 88 3f 12 60 67 3f 2e 4d ee 3e
       -0.01906795 1.0698625 0.90380967 0.46543258
000080 06 f6 ae 3f a9 62 c7 3f 41 b5 52 3f 2d 13 80 3f
       1.366883 1.5576984 0.8230782 1.0005852
000090 26 9f e6 3f a6 c1 83 40 18 ed 00 40 f8 64 99 3f
       1.8017318 4.1173887 2.014471 1.1983938
0000a0 c6 b4 9c 3f 6f 90 04 40 3b 93 4a 40 f9 72 9f 3f
       1.2242668 2.0713155 3.1652362 1.2456962
0000b0 db 86 e1 3e d2 d7 d6 3f 06 90 0b 40 29 5b a6 3f
       0.440482 1.6784613 2.1806655 1.299657
0000c0 5c 14 1f 40 ff 46 ba 3f a0 87 0c 40 19 fb d9 3f
       2.4856176 1.4552916 2.195778 1.7029754
0000d0 cf d7 68 3f c3 95 93 3f 8c f1 57 3f 08 25 f6 3f
       0.909543 1.1530079 0.84352946 1.9230051
0000e0 cb e4 a4 3f 20 d2 4e 3f a5 a2 49 3f 50 5e e7 3e
       1.2882322 0.80789375 0.787638 0.45189142
0000f0 b2 aa 1b 3f f6 14 b0 3f 81 b6 80 3f 04 96 7f 3f
       0.60807335 1.3756397 1.0055696 0.9983828
000100 c4 30 b3 3f 4e ca 09 40 93 17 a5 3e 76 36 16 40
       1.3999257 2.1529727 0.32244548 2.347074
000110 59 e6 99 3f 7a ba 0f 40 7f 1a fd 3f 13 21 59 3f
       1.2023422 2.2457566 1.9773711 0.8481609
000120 29 cc 56 40 47 be 21 3f 9c 10 a9 3f 9e cc df 3f
       3.356211 0.63180965 1.3208194 1.7484319
000130 9a fe 00 40 63 87 03 40 11 ff dd 3f 88 36 a9 3f
       2.0155396 2.0551383 1.7343465 1.3219767
000140 1f 9b 99 3f 1e 23 5f 3f bb 50 22 40 d8 b2 80 3f
       1.2000464 0.8716296 2.5361774 1.0054579
000150 be 13 1b 3f 71 b1 f8 3f 4d 9c da 3f 35 7a 8f 3f
       0.60577 1.9429151 1.7078949 1.120917
000160 0b ac 4f bf 12 9f 04 40 a3 fd 92 3f fb 74 9a 3f
       -0.8112189 2.072209 1.1483654 1.206695
000170 2b 72 f9 3f a6 58 87 3f 4f 8f b2 3f b4 51 43 40
       1.9487966 1.0573928 1.3949984 3.0518618
000180 08 1c 02 40 0b cf d6 3f 45 ca da 3f d5 e5 48 bf
       2.032961 1.6781934 1.7092978 -0.78475696
000190 83 68 62 3f bf ba df 3f 61 af f1 3f d4 c9 01 3f
       0.8844072 1.7478865 1.8881646 0.5069859
0001a0 3a c5 c5 3f 5e b5 2e 40 ac 27 b9 3e 58 ad 0c 40
       1.5450814 2.7298198 0.3616308 2.19808
0001b0 d0 e1 87 3f 29 64 36 40 f7 6a aa 3f 13 e3 df 3f
       1.0615788 2.8498633 1.3313893 1.7491173
0001c0 70 79 36 40 e6 73 02 3e d4 df 53 40 87 de 39 3f
       2.851162 0.12739524 3.3105364 0.72605175
0001d0 95 30 1b 3f 5c fa 59 3f d9 24 02 40 7a 85 47 3f
       0.60621005 0.85147643 2.033499 0.77938044
0001e0 47 e2 9e 3f a9 22 dc 3f d3 97 08 40 55 32 81 3f
       1.2412804 1.7198077 2.1342666 1.0093485
0001f0 5a 0a 80 be e9 e9 9e 3f 5e 00 26 3f 2e 0a 0c 40
       -0.25007898 1.2415134 0.6484431 2.1881213

model/batch_normalization/batchnorm/mul_1 i1 [128, 640] scale=0.00015507943 zero_point=0
000000 f4 f6 f8 02 03 05 02 03 03 03 04 06 06 05 03 01
       -0.0018609532 -0.0015507942 -0.0012406354 0.00031015885 0.0004652383 0.0007753971 0.00031015885 0.0004652383 0.0004652383 0.0004652383 0.0006203177 0.0009304766 0.0009304766 0.0007753971 0.0004652383 0.00015507943
000010 05 09 09 08 06 03 05 01 03 01 fe ff ff 03 02 02
       0.0007753971 0.0013957148 0.0013957148 0.0012406354 0.0009304766 0.0004652383 0.0007753971 0.00015507943 0.0004652383 0.00015507943 -0.00031015885 -0.00015507943 -0.00015507943 0.0004652383 0.00031015885 0.00031015885
000020 05 06 05 02 01 02 00 01 02 03 01 01 02 04 01 ff
       0.0007753971 0.0009304766 0.0007753971 0.00031015885 0.00015507943 0.00031015885 0.0 0.00015507943 0.00031015885 0.0004652383 0.00015507943 0.00015507943 0.00031015885 0.0006203177 0.00015507943 -0.00015507943
000030 fe fd fe fe 00 ff 01 01 01 01 03 04 06 05 06 05
       -0.00031015885 -0.0004652383 -0.00031015885 -0.00031015885 0.0 -0.00015507943 0.00015507943 0.00015507943 0.00015507943 0.00015507943 0.0004652383 0.0006203177 0.0009304766 0.0007753971 0.0009304766 0.0007753971
000040 ff fe 00 03 03 02 04 03 04 06 06 05 04 01 00 02
       -0.00015507943 -0.00031015885 0.0 0.0004652383 0.0004652383 0.00031015885 0.0006203177 0.0004652383 0.0006203177 0.0009304766 0.0009304766 0.0007753971 0.0006203177 0.00015507943 0.0 0.00031015885
000050 ff fe fe fd 01 02 00 fa ff ff fb ff 00 00 00 02
       -0.00015507943 -0.00031015885 -0.00031015885 -0.0004652383 0.00015507943 0.00031015885 0.0 -0.0009304766 -0.00015507943 -0.00015507943 -0.0007753971 -0.00015507943 0.0 0.0 0.0 0.00031015885
000060 06 00 fe 00 02 02 ff ff fd fe ff ff ff 00 fe fc
       0.0009304766 0.0 -0.00031015885 0.0 0.00031015885 0.00031015885 -0.00015507943 -0.00015507943 -0.0004652383 -0.00031015885 -0.00015507943 -0.00015507943 -0.00015507943 0.0 -0.00031015885 -0.0006203177
000070 fe fd 02 01 fd fe fb fb fc fb f9 fa f9 f9 fc fc
       -0.00031015885 -0.0004652383 0.00031015885 0.00015507943 -0.0004652383 -0.00031015885 -0.0007753971 -0.0007753971 -0.0006203177 -0.0007753971 -0.001085556 -0.0009304766 -0.001085556 -0.001085556 -0.0006203177 -0.0006203177
000080 f4 f1 f4 fc ff 00 00 01 00 00 04 04 04 05 03 02
       -0.0018609532 -0.0023261914 -0.0018609532 -0.0006203177 -0.00015507943 0.0 0.0 0.00015507943 0.0 0.0 0.0006203177 0.0006203177 0.0006203177 0.0007753971 0.0004652383 0.00031015885
000090 03 05 06 04 01 ff 02 ff fd fd fa fb fd 01 00 fe
       0.0004652383 0.0007753971 0.0009304766 0.0006203177 0.00015507943 -0.00015507943 0.00031015885 -0.00015507943 -0.0004652383 -0.0004652383 -0.0009304766 -0.0007753971 -0.0004652383 0.00015507943 0.0 -0.00031015885
0000a0 00 01 00 fc fc fc fc fb fd fd fb fb fe ff fe fb
       0.0 0.00015507943 0.0 -0.0006203177 -0.0006203177 -0.0006203177 -0.0006203177 -0.0007753971 -0.0004652383 -0.0004652383 -0.0007753971 -0.0007753971 -0.00031015885 -0.00015507943 -0.00031015885 -0.0007753971
0000b0 fb f9 fa f8 fa fa fa fa fa fd fe 01 ff ff 01 fc
       -0.0007753971 -0.001085556 -0.0009304766 -0.0012406354 -0.0009304766 -0.0009304766 -0.0009304766 -0.0009304766 -0.0009304766 -0.0004652383 -0.00031015885 0.00015507943 -0.00015507943 -0.00015507943 0.00015507943 -0.0006203177
0000c0 f9 f9 fa fe fe ff 00 fe fe 02 01 01 02 f9 fa fa
       -0.001085556 -0.001085556 -0.0009304766 -0.00031015885 -0.00031015885 -0.00015507943 0.0 -0.00031015885 -0.00031015885 0.00031015885 0.00015507943 0.00015507943 0.00031015885 -0.001085556 -0.0009304766 -0.0009304766
0000d0 f7 f6 f6 f7 f8 f8 f8 f4 f5 f7 f6 fa fc fa fa fc
       -0.0013957148 -0.0015507942 -0.0015507942 -0.0013957148 -0.0012406354 -0.0012406354 -0.0012406354 -0.0018609532 -0.0017058736 -0.0013957148 -0.0015507942 -0.0009304766 -0.0006203177 -0.0009304766 -0.0009304766 -0.0006203177
0000e0 fd f8 f6 fb f9 fc f6 f6 f5 fa f9 f5 f6 f9 fb fd
       -0.0004652383 -0.0012406354 -0.0015507942 -0.0007753971 -0.001085556 -0.0006203177 -0.0015507942 -0.0015507942 -0.0017058736 -0.0009304766 -0.001085556 -0.0017058736 -0.0015507942 -0.001085556 -0.0007753971 -0.0004652383
0000f0 fd ff fb f9 fa fc fa f9 f8 f7 f7 fb f5 f5 fa fd
       -0.0004652383 -0.00015507943 -0.0007753971 -0.001085556 -0.0009304766 -0.0006203177 -0.0009304766 -0.001085556 -0.0012406354 -0.0013957148 -0.0013957148 -0.0007753971 -0.0017058736 -0.0017058736 -0.0009304766 -0.0004652383

model/batch_normalization_1/batchnorm/mul_1 i1 [128, 128] scale=0.010552688 zero_point=0
000000 05 09 fa 02 f2 0e fa f5 f2 fc 04 01 02 02 02 06
       0.05276344 0.09497419 -0.06331612 0.021105375 -0.14773762 0.14773762 -0.06331612 -0.11607956 -0.14773762 -0.04221075 0.04221075 0.010552688 0.021105375 0.021105375 0.021105375 0.06331612
000010 05 00 0c 04 0d f4 fe 03 f9 f6 f7 02 04 fa 07 f7
       0.05276344 0.0 0.12663224 0.04221075 0.13718493 -0.12663224 -0.021105375 0.03165806 -0.07386881 -0.10552688 -0.09497419 0.021105375 0.04221075 -0.06331612 0.07386881 -0.09497419
000020 11 03 04 f6 00 06 fb 0d fd ff 09 fc 00 fc 08 04
       0.17939569 0.03165806 0.04221075 -0.10552688 0.0 0.06331612 -0.05276344 0.13718493 -0.03165806 -0.010552688 0.09497419 -0.04221075 0.0 -0.04221075 0.0844215 0.04221075
000030 0a 03 ff 00 0b 06 f8 fd 07 fd 00 04 0a fb 02 f5
       0.10552688 0.03165806 -0.010552688 0.0 0.11607956 0.06331612 -0.0844215 -0.03165806 0.07386881 -0.03165806 0.0 0.04221075 0.10552688 -0.05276344 0.021105375 -0.11607956
000040 07 f8 fa 09 fb fe 06 00 01 05 04 0a 01 fd fe 05
       0.07386881 -0.0844215 -0.06331612 0.09497419 -0.05276344 -0.021105375 0.06331612 0.0 0.010552688 0.05276344 0.04221075 0.10552688 0.010552688 -0.03165806 -0.021105375 0.05276344
000050 f3 08 fa fd 08 00 05 f5 02 fe fd fd e4 03 00 03
       -0.13718493 0.0844215 -0.06331612 -0.03165806 0.0844215 0.0 0.05276344 -0.11607956 0.021105375 -0.021105375 -0.03165806 -0.03165806 -0.29547524 0.03165806 0.0 0.03165806
000060 f8 ee 01 fe 04 fd ed 02 fb f8 e1 04 fa f1 04 06
       -0.0844215 -0.18994838 0.010552688 -0.021105375 0.04221075 -0.03165806 -0.20050107 0.021105375 -0.05276344 -0.0844215 -0.32713333 0.04221075 -0.06331612 -0.15829031 0.04221075 0.06331612
000070 f7 ff 05 03 00 02 06 fd f3 02 fd fc f6 02 f6 f9
       -0.09497419 -0.010552688 0.05276344 0.03165806 0.0 0.021105375 0.06331612 -0.03165806 -0.13718493 0.021105375 -0.03165806 -0.04221075 -0.10552688 0.021105375 -0.10552688 -0.07386881
000080 00 04 0f 03 ff fe fb f8 fa f5 00 ee f8 03 00 08
       0.0 0.04221075 0.15829031 0.03165806 -0.010552688 -0.021105375 -0.05276344 -0.0844215 -0.06331612 -0.11607956 0.0 -0.18994838 -0.0844215 0.03165806 0.0 0.0844215
000090 03 0a 0c fd 08 0a 01 fd 00 f4 0b 06 fb f5 f8 05
       0.03165806 0.10552688 0.12663224 -0.03165806 0.0844215 0.10552688 0.010552688 -0.03165806 0.0 -0.12663224 0.11607956 0.06331612 -0.05276344 -0.11607956 -0.0844215 0.05276344
0000a0 ff 06 03 01 06 fe fd 0c 10 01 01 02 fd fa 02 ff
       -0.010552688 0.06331612 0.03165806 0.010552688 0.06331612 -0.021105375 -0.03165806 0.12663224 0.168843 0.010552688 0.010552688 0.021105375 -0.03165806 -0.06331612 0.021105375 -0.010552688
0000b0 01 03 02 03 fb ea fd fd 04 f9 ff 00 08 fc 08 f9
       0.010552688 0.03165806 0.021105375 0.03165806 -0.05276344 -0.23215912 -0.03165806 -0.03165806 0.04221075 -0.07386881 -0.010552688 0.0 0.0844215 -0.04221075 0.0844215 -0.07386881
0000c0 03 04 fd fb f8 00 03 08 fb fb 01 fb 00 fb fa fa
       0.03165806 0.04221075 -0.03165806 -0.05276344 -0.0844215 0.0 0.03165806 0.0844215 -0.05276344 -0.05276344 0.010552688 -0.05276344 0.0 -0.05276344 -0.06331612 -0.06331612
0000d0 fc 01 06 06 ff ff ff fc 09 0d fd 05 fd 05 f7 03
       -0.04221075 0.010552688 0.06331612 0.06331612 -0.010552688 -0.010552688 -0.010552688 -0.04221075 0.09497419 0.13718493 -0.03165806 0.05276344 -0.03165806 0.05276344 -0.09497419 0.03165806
0000e0 01 03 ff 0b fc fc fd 03 05 04 08 fa eb 0a fd 00
       0.010552688 0.03165806 -0.010552688 0.11607956 -0.04221075 -0.04221075 -0.03165806 0.03165806 0.05276344 0.04221075 0.0844215 -0.06331612 -0.22160643 0.10552688 -0.03165806 0.0
0000f0 fb f6 07 06 06 04 08 f9 02 02 0b fb 01 08 fb fc
       -0.05276344 -0.10552688 0.07386881 0.06331612 0.06331612 0.04221075 0.0844215 -0.07386881 0.021105375 0.021105375 0.11607956 -0.05276344 0.010552688 0.0844215 -0.05276344 -0.04221075

model/batch_normalization_2/batchnorm/mul_1 i1 [128, 128] scale=0.028399862 zero_point=0
000000 01 00 fd fa 03 fc ff ff 03 f9 05 ff 01 08 05 f8
       0.028399862 0.0 -0.08519959 -0.17039917 0.08519959 -0.11359945 -0.028399862 -0.028399862 0.08519959 -0.19879904 0.1419993 -0.028399862 0.028399862 0.2271989 0.1419993 -0.2271989
000010 03 fa fe 05 03 00 01 fc f9 07 04 fa 03 01 fd 00
       0.08519959 -0.17039917 -0.056799725 0.1419993 0.08519959 0.0 0.028399862 -0.11359945 -0.19879904 0.19879904 0.11359945 -0.17039917 0.08519959 0.028399862 -0.08519959 0.0
000020 fd fa 03 ff fd 03 03 fa 04 fc 02 fc 02 00 04 fc
       -0.08519959 -0.17039917 0.08519959 -0.028399862 -0.08519959 0.08519959 0.08519959 -0.17039917 0.11359945 -0.11359945 0.056799725 -0.11359945 0.056799725 0.0 0.11359945 -0.11359945
000030 08 06 01 fa fa 03 02 fc 00 03 fc 04 03 06 01 03
       0.2271989 0.17039917 0.028399862 -0.17039917 -0.17039917 0.08519959 0.056799725 -0.11359945 0.0 0.08519959 -0.11359945 0.11359945 0.08519959 0.17039917 0.028399862 0.08519959
000040 06 fd 05 fd fe fd 03 03 03 00 ff fe 03 fd 03 fb
       0.17039917 -0.08519959 0.1419993 -0.08519959 -0.056799725 -0.08519959 0.08519959 0.08519959 0.08519959 0.0 -0.028399862 -0.056799725 0.08519959 -0.08519959 0.08519959 -0.1419993
000050 00 ff 02 02 06 01 04 06 fd 02 02 f8 01 02 fe 02
       0.0 -0.028399862 0.056799725 0.056799725 0.17039917 0.028399862 0.11359945 0.17039917 -0.08519959 0.056799725 0.056799725 -0.2271989 0.028399862 0.056799725 -0.056799725 0.056799725
000060 ff fb fe ff 04 fd 04 f1 fe fb 09 02 fd fb 07 01
       -0.028399862 -0.1419993 -0.056799725 -0.028399862 0.11359945 -0.08519959 0.11359945 -0.42599794 -0.056799725 -0.1419993 0.25559875 0.056799725 -0.08519959 -0.1419993 0.19879904 0.028399862
000070 05 fe 00 fe 00 ff 03 fd 03 fb 04 05 02 f9 fd 01
       0.1419993 -0.056799725 0.0 -0.056799725 0.0 -0.028399862 0.08519959 -0.08519959 0.08519959 -0.1419993 0.11359945 0.1419993 0.056799725 -0.19879904 -0.08519959 0.028399862
000080 01 01 00 fd 01 fc 01 01 04 00 fd 00 fd fe 00 03
       0.028399862 0.028399862 0.0 -0.08519959 0.028399862 -0.11359945 0.028399862 0.028399862 0.11359945 0.0 -0.08519959 0.0 -0.08519959 -0.056799725 0.0 0.08519959
000090 02 01 05 02 00 00 01 03 00 00 00 00 00 fc ff ff
       0.056799725 0.028399862 0.1419993 0.056799725 0.0 0.0 0.028399862 0.08519959 0.0 0.0 0.0 0.0 0.0 -0.11359945 -0.028399862 -0.028399862
0000a0 02 01 00 fd fe 01 fd 00 01 ff 01 fe fe ff 02 00
       0.056799725 0.028399862 0.0 -0.08519959 -0.056799725 0.028399862 -0.08519959 0.0 0.028399862 -0.028399862 0.028399862 -0.056799725 -0.056799725 -0.028399862 0.056799725 0.0
0000b0 fb 01 02 10 ff 03 02 00 04 06 fc 00 ff fe 00 ff
       -0.1419993 0.028399862 0.056799725 0.4543978 -0.028399862 0.08519959 0.056799725 0.0 0.11359945 0.17039917 -0.11359945 0.0 -0.028399862 -0.056799725 0.0 -0.028399862
0000c0 ff 01 fe 0c fc 00 00 fb 00 02 01 01 00 fe fd 03
       -0.028399862 0.028399862 -0.056799725 0.34079835 -0.11359945 0.0 0.0 -0.1419993 0.0 0.056799725 0.028399862 0.028399862 0.0 -0.056799725 -0.08519959 0.08519959
0000d0 01 01 02 fb fe 01 01 01 fd 01 02 01 fb ff 01 fb
       0.028399862 0.028399862 0.056799725 -0.1419993 -0.056799725 0.028399862 0.028399862 0.028399862 -0.08519959 0.028399862 0.056799725 0.028399862 -0.1419993 -0.028399862 0.028399862 -0.1419993
0000e0 00 04 01 00 ff 01 02 ff 02 ff 02 00 02 02 ff fb
       0.0 0.11359945 0.028399862 0.0 -0.028399862 0.028399862 0.056799725 -0.028399862 0.056799725 -0.028399862 0.056799725 0.0 0.056799725 0.056799725 -0.028399862 -0.1419993
0000f0 fb ff 04 01 ff ff 01 02 fe ff fe fe 01 01 01 03
       -0.1419993 -0.028399862 0.11359945 0.028399862 -0.028399862 -0.028399862 0.028399862 0.056799725 -0.056799725 -0.028399862 -0.056799725 -0.056799725 0.028399862 0.028399862 0.028399862 0.08519959

model/batch_normalization_3/batchnorm/mul_1 i1 [128, 128] scale=0.04005964 zero_point=0
000000 fe fa fa fe fd 00 00 ff 02 00 05 fa ff fd 00 04
       -0.08011928 -0.24035785 -0.24035785 -0.08011928 -0.12017892 0.0 0.0 -0.04005964 0.08011928 0.0 0.2002982 -0.24035785 -0.04005964 -0.12017892 0.0 0.16023856
000010 f9 ff ff 06 fa 01 fe fc fe fc 03 07 f9 03 06 fe
       -0.2804175 -0.04005964 -0.04005964 0.24035785 -0.24035785 0.04005964 -0.08011928 -0.16023856 -0.08011928 -0.16023856 0.12017892 0.2804175 -0.2804175 0.12017892 0.24035785 -0.08011928
000020 0f ff fe 02 fb fe fe fa 01 fd fc ff f2 ff f9 03
       0.60089463 -0.04005964 -0.08011928 0.08011928 -0.2002982 -0.08011928 -0.08011928 -0.24035785 0.04005964 -0.12017892 -0.16023856 -0.04005964 -0.560835 -0.04005964 -0.2804175 0.12017892
000030 01 fe 00 01 ff 02 07 fd fd 00 01 03 00 03 00 00
       0.04005964 -0.08011928 0.0 0.04005964 -0.04005964 0.08011928 0.2804175 -0.12017892 -0.12017892 0.0 0.04005964 0.12017892 0.0 0.12017892 0.0 0.0
000040 ff fe 00 f6 03 fc ff fe 01 02 02 04 09 fe fd 00
       -0.04005964 -0.08011928 0.0 -0.4005964 0.12017892 -0.16023856 -0.04005964 -0.08011928 0.04005964 0.08011928 0.08011928 0.16023856 0.36053675 -0.08011928 -0.12017892 0.0
000050 ff 00 0e fa 02 04 f8 fd f8 01 fd f9 f5 04 ff 0a
       -0.04005964 0.0 0.560835 -0.24035785 0.08011928 0.16023856 -0.32047713 -0.12017892 -0.32047713 0.04005964 -0.12017892 -0.2804175 -0.44065607 0.16023856 -0.04005964 0.4005964
000060 09 00 fd fb fe 01 01 00 00 fd 01 04 fe ff 05 08
       0.36053675 0.0 -0.12017892 -0.2002982 -0.08011928 0.04005964 0.04005964 0.0 0.0 -0.12017892 0.04005964 0.16023856 -0.08011928 -0.04005964 0.2002982 0.32047713
000070 fe 00 07 fe 00 04 04 04 fc fe 04 02 01 ff 00 f9
       -0.08011928 0.0 0.2804175 -0.08011928 0.0 0.16023856 0.16023856 0.16023856 -0.16023856 -0.08011928 0.16023856 0.08011928 0.04005964 -0.04005964 0.0 -0.2804175
000080 03 fd 0b 0b 05 06 03 f2 09 fe 07 00 ff 01 06 06
       0.12017892 -0.12017892 0.44065607 0.44065607 0.2002982 0.24035785 0.12017892 -0.560835 0.36053675 -0.08011928 0.2804175 0.0 -0.04005964 0.04005964 0.24035785 0.24035785
000090 06 fd fe 0f fc f6 0d f6 fe fd fe fb 05 02 f9 ff
       0.24035785 -0.12017892 -0.08011928 0.60089463 -0.16023856 -0.4005964 0.5207753 -0.4005964 -0.08011928 -0.12017892 -0.08011928 -0.2002982 0.2002982 0.08011928 -0.2804175 -0.04005964
0000a0 f7 27 00 05 04 04 01 fd f9 03 06 01 fa 04 f9 01
       -0.36053675 1.562326 0.0 0.2002982 0.16023856 0.16023856 0.04005964 -0.12017892 -0.2804175 0.12017892 0.24035785 0.04005964 -0.24035785 0.16023856 -0.2804175 0.04005964
0000b0 f5 06 fd fe f9 0c f9 fe fc 0b 01 fd fe f6 f7 f3
       -0.44065607 0.24035785 -0.12017892 -0.08011928 -0.2804175 0.4807157 -0.2804175 -0.08011928 -0.16023856 0.44065607 0.04005964 -0.12017892 -0.08011928 -0.4005964 -0.36053675 -0.5207753
0000c0 08 00 f9 fe fc 05 07 fc fc 08 fa f7 fe 0b 04 fa
       0.32047713 0.0 -0.2804175 -0.08011928 -0.16023856 0.2002982 0.2804175 -0.16023856 -0.16023856 0.32047713 -0.24035785 -0.36053675 -0.08011928 0.44065607 0.16023856 -0.24035785
0000d0 fd 03 fb fd 04 03 fa 04 fa 06 ff fe 08 02 fd 02
       -0.12017892 0.12017892 -0.2002982 -0.12017892 0.16023856 0.12017892 -0.24035785 0.16023856 -0.24035785 0.24035785 -0.04005964 -0.08011928 0.32047713 0.08011928 -0.12017892 0.08011928
0000e0 fe 06 03 05 ff 02 ff 00 08 03 f8 fb fb 06 0f 02
       -0.08011928 0.24035785 0.12017892 0.2002982 -0.04005964 0.08011928 -0.04005964 0.0 0.32047713 0.12017892 -0.32047713 -0.2002982 -0.2002982 0.24035785 0.60089463 0.08011928
0000f0 fe 00 f7 02 01 00 fe fe 00 00 ff 05 01 fe fd fc
       -0.08011928 0.0 -0.36053675 0.08011928 0.04005964 0.0 -0.08011928 -0.08011928 0.0 0.0 -0.04005964 0.2002982 0.04005964 -0.08011928 -0.12017892 -0.16023856
