models/autoencoder/integer_quantization/model_slider.tflite (tflite, 278080 bytes, 10 tensors)

model/dense_9/MatMul i1 [640, 128] scale=0.024912504 zero_point=0
000000 fc f1 0a 13 fb f0 04 e1 fd ee 09 ff 0b 05 f3 12
       -0.09965002 -0.37368757 0.24912505 0.4733376 -0.124562524 -0.39860007 0.09965002 -0.77228767 -0.07473751 -0.44842508 0.22421254 -0.024912504 0.27403754 0.124562524 -0.32386255 0.44842508
000010 2d 02 1a f8 f0 02 0b 0d f8 f6 01 f9 ef 0c d1 fb
       1.1210628 0.04982501 0.6477251 -0.19930004 -0.39860007 0.04982501 0.27403754 0.32386255 -0.19930004 -0.24912505 0.024912504 -0.17438753 -0.42351258 0.29895005 -1.1708877 -0.124562524
000020 0a ef d4 f7 05 f3 ff f8 f9 f4 e1 f0 01 f8 0e e9
       0.24912505 -0.42351258 -1.0961502 -0.22421254 0.124562524 -0.32386255 -0.024912504 -0.19930004 -0.17438753 -0.29895005 -0.77228767 -0.39860007 0.024912504 -0.19930004 0.34877506 -0.5729876
000030 fa 01 ea d1 eb 01 14 e6 f0 05 08 f4 f0 ff ef fc
       -0.14947502 0.024912504 -0.5480751 -1.1708877 -0.5231626 0.024912504 0.4982501 -0.6477251 -0.39860007 0.124562524 0.19930004 -0.29895005 -0.39860007 -0.024912504 -0.42351258 -0.09965002
000040 16 0c 02 f4 ec f7 f9 f7 f1 04 00 e2 05 0f fa fb
       0.5480751 0.29895005 0.04982501 -0.29895005 -0.4982501 -0.22421254 -0.17438753 -0.22421254 -0.37368757 0.09965002 0.0 -0.74737513 0.124562524 0.37368757 -0.14947502 -0.124562524
000050 fd 0d fd 05 0b d4 16 0f fa e9 14 09 09 f5 0f 04
       -0.07473751 0.32386255 -0.07473751 0.124562524 0.27403754 -1.0961502 0.5480751 0.37368757 -0.14947502 -0.5729876 0.4982501 0.22421254 0.22421254 -0.27403754 0.37368757 0.09965002
000060 eb f9 f4 14 04 0d e4 07 ea 07 00 fc e3 f4 da fd
       -0.5231626 -0.17438753 -0.29895005 0.4982501 0.09965002 0.32386255 -0.6975501 0.17438753 -0.5480751 0.17438753 0.0 -0.09965002 -0.72246265 -0.29895005 -0.9466752 -0.07473751
000070 03 fc eb 04 00 02 fb ef 0a ee f6 eb f9 04 f2 eb
       0.07473751 -0.09965002 -0.5231626 0.09965002 0.0 0.04982501 -0.124562524 -0.42351258 0.24912505 -0.44842508 -0.24912505 -0.5231626 -0.17438753 0.09965002 -0.34877506 -0.5231626
000080 fb 01 ff 15 12 f1 1b e7 07 f7 f6 f4 f9 05 f2 13
       -0.124562524 0.024912504 -0.024912504 0.5231626 0.44842508 -0.37368757 0.67263764 -0.6228126 0.17438753 -0.22421254 -0.24912505 -0.29895005 -0.17438753 0.124562524 -0.34877506 0.4733376
000090 2c f1 17 0b f0 fa 0d 08 ea f6 fe f6 f3 06 d1 f7
       1.0961502 -0.37368757 0.5729876 0.27403754 -0.39860007 -0.14947502 0.32386255 0.19930004 -0.5480751 -0.24912505 -0.04982501 -0.24912505 -0.32386255 0.14947502 -1.1708877 -0.22421254
0000a0 06 eb c6 e1 fd f0 04 f2 00 fa e3 f1 09 fe 03 e4
       0.14947502 -0.5231626 -1.4449253 -0.77228767 -0.07473751 -0.39860007 0.09965002 -0.34877506 0.0 -0.14947502 -0.72246265 -0.37368757 0.22421254 -0.04982501 0.07473751 -0.6975501
0000b0 f9 02 13 cd fd fd 0d e0 ed f4 0e f4 fb 14 f5 01
       -0.17438753 0.04982501 0.4733376 -1.2705377 -0.07473751 -0.07473751 0.32386255 -0.79720014 -0.4733376 -0.29895005 0.34877506 -0.29895005 -0.124562524 0.4982501 -0.27403754 0.024912504
0000c0 07 11 07 f8 ee 03 fe fd ff 13 f8 ec 1b 16 03 06
       0.17438753 0.42351258 0.17438753 -0.19930004 -0.44842508 0.07473751 -0.04982501 -0.07473751 -0.024912504 0.4733376 -0.19930004 -0.4982501 0.67263764 0.5480751 0.07473751 0.14947502
0000d0 06 03 03 16 05 d0 0d 03 f3 ef 12 04 08 f9 05 fd
       0.14947502 0.07473751 0.07473751 0.5480751 0.124562524 -1.1958002 0.32386255 0.07473751 -0.32386255 -0.42351258 0.44842508 0.09965002 0.19930004 -0.17438753 0.124562524 -0.07473751
0000e0 f9 11 00 02 06 0f df 05 e3 08 fc fd e2 f8 dd fc
       -0.17438753 0.42351258 0.0 0.04982501 0.14947502 0.37368757 -0.8221126 0.124562524 -0.72246265 0.19930004 -0.09965002 -0.07473751 -0.74737513 -0.19930004 -0.87193763 -0.09965002
0000f0 0d fe dd 08 0a fb 0f e7 04 f9 fe f3 fc 0b ef f1
       0.32386255 -0.04982501 -0.87193763 0.19930004 0.24912505 -0.124562524 0.37368757 -0.6228126 0.09965002 -0.17438753 -0.04982501 -0.32386255 -0.09965002 0.27403754 -0.42351258 -0.37368757

model/batch_normalization_8/batchnorm/mul_1 i1 [128, 128] scale=0.01453614 zero_point=0
000000 e5 fc 07 e7 06 08 fb f9 05 f1 16 d1 f6 06 fb f1
       -0.39247575 -0.05814456 0.101752974 -0.3634035 0.08721684 0.11628912 -0.0726807 -0.101752974 0.0726807 -0.21804209 0.31979507 -0.6831986 -0.1453614 0.08721684 -0.0726807 -0.21804209
000010 00 03 fc 0e fc f3 f7 08 f6 06 e2 00 00 02 0c 45
       0.0 0.04360842 -0.05814456 0.20350595 -0.05814456 -0.18896982 -0.13082525 0.11628912 -0.1453614 0.08721684 -0.43608418 0.0 0.0 0.02907228 0.17443368 1.0029936
000020 04 07 11 09 f3 02 12 f6 f5 0b f8 03 10 11 03 f7
       0.05814456 0.101752974 0.24711438 0.13082525 -0.18896982 0.02907228 0.2616505 -0.1453614 -0.15989754 0.15989754 -0.11628912 0.04360842 0.23257823 0.24711438 0.04360842 -0.13082525
000030 04 05 0d 06 0c e3 0a 05 f6 ea e8 fd ff eb 00 f9
       0.05814456 0.0726807 0.18896982 0.08721684 0.17443368 -0.42154804 0.1453614 0.0726807 -0.1453614 -0.31979507 -0.34886736 -0.04360842 -0.01453614 -0.30525893 0.0 -0.101752974
000040 07 0b 02 07 f6 0d fa f2 01 fe fb 0f dd d9 fe f1
       0.101752974 0.15989754 0.02907228 0.101752974 -0.1453614 0.18896982 -0.08721684 -0.20350595 0.01453614 -0.02907228 -0.0726807 0.21804209 -0.50876486 -0.56690943 -0.02907228 -0.21804209
000050 ff 23 f3 f0 04 17 eb 1a e1 e9 11 ee 24 ef 06 09
       -0.01453614 0.50876486 -0.18896982 -0.23257823 0.05814456 0.3343312 -0.30525893 0.37793964 -0.45062032 -0.3343312 0.24711438 -0.2616505 0.523301 -0.24711438 0.08721684 0.13082525
000060 0c 12 08 f8 e6 e8 03 0c ff 1a 24 04 fd 01 ef 01
       0.17443368 0.2616505 0.11628912 -0.11628912 -0.37793964 -0.34886736 0.04360842 0.17443368 -0.01453614 0.37793964 0.523301 0.05814456 -0.04360842 0.01453614 -0.24711438 0.01453614
000070 ef ea f2 db 04 00 f1 13 07 03 e2 13 d2 12 1d ee
       -0.24711438 -0.31979507 -0.20350595 -0.53783715 0.05814456 0.0 -0.21804209 0.27618665 0.101752974 0.04360842 -0.43608418 0.27618665 -0.6686624 0.2616505 0.42154804 -0.2616505
000080 fa fd 03 08 0b fc fc ef fd ff f2 f7 13 f0 03 f7
       -0.08721684 -0.04360842 0.04360842 0.11628912 0.15989754 -0.05814456 -0.05814456 -0.24711438 -0.04360842 -0.01453614 -0.20350595 -0.13082525 0.27618665 -0.23257823 0.04360842 -0.13082525
000090 08 db 19 eb 10 01 0c 05 fb 08 ff 08 f9 fa 02 05
       0.11628912 -0.53783715 0.3634035 -0.30525893 0.23257823 0.01453614 0.17443368 0.0726807 -0.0726807 0.11628912 -0.01453614 0.11628912 -0.101752974 -0.08721684 0.02907228 0.0726807
0000a0 09 ff 12 03 0e 05 22 11 04 07 12 f1 f1 00 f5 fd
       0.13082525 -0.01453614 0.2616505 0.04360842 0.20350595 0.0726807 0.49422875 0.24711438 0.05814456 0.101752974 0.2616505 -0.21804209 -0.21804209 0.0 -0.15989754 -0.04360842
0000b0 01 0e 02 01 e9 04 fa f7 00 13 00 fa e8 09 eb f5
       0.01453614 0.20350595 0.02907228 0.01453614 -0.3343312 0.05814456 -0.08721684 -0.13082525 0.0 0.27618665 0.0 -0.08721684 -0.34886736 0.13082525 -0.30525893 -0.15989754
0000c0 03 05 01 08 05 19 09 33 f5 fd e2 02 f4 08 07 05
       0.04360842 0.0726807 0.01453614 0.11628912 0.0726807 0.3634035 0.13082525 0.74134314 -0.15989754 -0.04360842 -0.43608418 0.02907228 -0.17443368 0.11628912 0.101752974 0.0726807
0000d0 f7 04 08 f9 0d f9 07 ee f3 f3 0f f2 07 0b 06 fe
       -0.13082525 0.05814456 0.11628912 -0.101752974 0.18896982 -0.101752974 0.101752974 -0.2616505 -0.18896982 -0.18896982 0.21804209 -0.20350595 0.101752974 0.15989754 0.08721684 -0.02907228
0000e0 03 06 13 f5 f5 fb 12 ff 06 fa fc f2 f7 f7 01 05
       0.04360842 0.08721684 0.27618665 -0.15989754 -0.15989754 -0.0726807 0.2616505 -0.01453614 0.08721684 -0.08721684 -0.05814456 -0.20350595 -0.13082525 -0.13082525 0.01453614 0.0726807
0000f0 06 ef 02 06 0e 08 fb 00 11 fb f8 fb 07 f2 04 ed
       0.08721684 -0.24711438 0.02907228 0.08721684 0.20350595 0.11628912 -0.0726807 0.0 0.24711438 -0.0726807 -0.11628912 -0.0726807 0.101752974 -0.20350595 0.05814456 -0.27618665

model/batch_normalization_7/batchnorm/mul_1 i1 [128, 128] scale=0.007341927 zero_point=0
000000 14 f9 e3 0b 0e 0b fc 15 fe de f8 18 e1 17 03 0c
       0.14683855 -0.051393487 -0.21291588 0.080761194 0.10278697 0.080761194 -0.029367708 0.15418047 -0.014683854 -0.24962552 -0.058735415 0.17620625 -0.22759974 0.16886432 0.02202578 0.08810312
000010 10 ef f6 13 e7 fc 03 d4 1f f7 02 04 ff f7 11 11
       0.11747083 -0.12481276 -0.07341927 0.13949661 -0.18354817 -0.029367708 0.02202578 -0.32304478 0.22759974 -0.066077344 0.014683854 0.029367708 -0.007341927 -0.066077344 0.12481276 0.12481276
000020 fb f2 15 ea fd ef 01 0d 01 f9 f5 0e 0d f9 15 f9
       -0.036709636 -0.10278697 0.15418047 -0.16152239 -0.02202578 -0.12481276 0.007341927 0.09544505 0.007341927 -0.051393487 -0.080761194 0.10278697 0.09544505 -0.051393487 0.15418047 -0.051393487
000030 0d ea f1 08 eb fa e6 02 0f 18 fd 17 fe f1 f7 0f
       0.09544505 -0.16152239 -0.1101289 0.058735415 -0.15418047 -0.04405156 -0.1908901 0.014683854 0.1101289 0.17620625 -0.02202578 0.16886432 -0.014683854 -0.1101289 -0.066077344 0.1101289
000040 15 0c f8 13 f4 0d f3 10 f5 ef 0a f4 e9 09 fb 1d
       0.15418047 0.08810312 -0.058735415 0.13949661 -0.08810312 0.09544505 -0.09544505 0.11747083 -0.080761194 -0.12481276 0.07341927 -0.08810312 -0.16886432 0.066077344 -0.036709636 0.21291588
000050 ef 07 0e 02 fa f6 03 09 00 ed 19 00 02 0f 01 f1
       -0.12481276 0.051393487 0.10278697 0.014683854 -0.04405156 -0.07341927 0.02202578 0.066077344 0.0 -0.13949661 0.18354817 0.0 0.014683854 0.1101289 0.007341927 -0.1101289
000060 04 fc fd 10 02 fa ff 1f eb 14 21 02 01 10 ef 08
       0.029367708 -0.029367708 -0.02202578 0.11747083 0.014683854 -0.04405156 -0.007341927 0.22759974 -0.15418047 0.14683855 0.24228358 0.014683854 0.007341927 0.11747083 -0.12481276 0.058735415
000070 0a fb 07 e0 05 da e4 0c 07 02 09 e9 10 0c 22 06
       0.07341927 -0.036709636 0.051393487 -0.23494166 0.036709636 -0.27899322 -0.20557395 0.08810312 0.051393487 0.014683854 0.066077344 -0.16886432 0.11747083 0.08810312 0.24962552 0.04405156
000080 0d 09 31 0a 12 04 0d bc c1 e1 da 06 ff 08 00 fa
       0.09544505 0.066077344 0.3597544 0.07341927 0.13215469 0.029367708 0.09544505 -0.49925104 -0.4625414 -0.22759974 -0.27899322 0.04405156 -0.007341927 0.058735415 0.0 -0.04405156
000090 0b e3 f3 dd d3 e6 1c d1 22 21 1d 21 05 01 14 e4
       0.080761194 -0.21291588 -0.09544505 -0.25696746 -0.3303867 -0.1908901 0.20557395 -0.34507057 0.24962552 0.24228358 0.21291588 0.24228358 0.036709636 0.007341927 0.14683855 -0.20557395
0000a0 00 0f fd 04 0e 1f d8 15 08 01 e7 d1 07 f4 07 e8
       0.0 0.1101289 -0.02202578 0.029367708 0.10278697 0.22759974 -0.2936771 0.15418047 0.058735415 0.007341927 -0.18354817 -0.34507057 0.051393487 -0.08810312 0.051393487 -0.17620625
0000b0 08 35 0d de fb e7 07 f0 c9 1c ef e8 03 0a 16 f6
       0.058735415 0.38912213 0.09544505 -0.24962552 -0.036709636 -0.18354817 0.051393487 -0.11747083 -0.40380597 0.20557395 -0.12481276 -0.17620625 0.02202578 0.07341927 0.16152239 -0.07341927
0000c0 08 15 f4 f6 18 13 d9 f8 04 ea 06 11 03 e1 fd ed
       0.058735415 0.15418047 -0.08810312 -0.07341927 0.17620625 0.13949661 -0.28633514 -0.058735415 0.029367708 -0.16152239 0.04405156 0.12481276 0.02202578 -0.22759974 -0.02202578 -0.13949661
0000d0 14 dd 0e f6 02 10 1b fd 06 f2 e1 bb 00 e6 1e d2
       0.14683855 -0.25696746 0.10278697 -0.07341927 0.014683854 0.11747083 0.19823202 -0.02202578 0.04405156 -0.10278697 -0.22759974 -0.5065929 0.0 -0.1908901 0.2202578 -0.33772865
0000e0 01 f6 fe f1 f5 44 fd f5 e0 08 ef 1c 06 d2 f4 1e
       0.007341927 -0.07341927 -0.014683854 -0.1101289 -0.080761194 0.49925104 -0.02202578 -0.080761194 -0.23494166 0.058735415 -0.12481276 0.20557395 0.04405156 -0.33772865 -0.08810312 0.2202578
0000f0 f6 f3 ff 1a e9 1c f4 fe 06 1e 19 df f1 06 fa 22
       -0.07341927 -0.09544505 -0.007341927 0.1908901 -0.16886432 0.20557395 -0.08810312 -0.014683854 0.04405156 0.2202578 0.18354817 -0.24228358 -0.1101289 0.04405156 -0.04405156 0.24962552

model/batch_normalization_6/batchnorm/mul_1 i1 [128, 128] scale=0.009027679 zero_point=0
000000 fe f5 e3 f1 f5 09 cc 1b ff e6 e7 01 0f 0a f2 f3
       -0.018055359 -0.099304475 -0.2618027 -0.1354152 -0.099304475 0.08124912 -0.46943933 0.24374734 -0.009027679 -0.23471966 -0.22569199 0.009027679 0.1354152 0.09027679 -0.1263875 -0.11735983
000010 ec f8 14 f2 03 0f e5 10 18 0a 0d 09 0b 03 fd 06
       -0.18055359 -0.072221436 0.18055359 -0.1263875 0.02708304 0.1354152 -0.24374734 0.14444287 0.21666431 0.09027679 0.11735983 0.08124912 0.099304475 0.02708304 -0.02708304 0.05416608
000020 04 11 fd 0f 0d fc 0b 02 01 dd 0b 25 fd 0d f1 15
       0.036110718 0.15347055 -0.02708304 0.1354152 0.11735983 -0.036110718 0.099304475 0.018055359 0.009027679 -0.31596878 0.099304475 0.33402413 -0.02708304 0.11735983 -0.1354152 0.18958127
000030 0e 06 e2 19 f4 01 1a 0c e4 04 13 eb fa f3 dc 11
       0.1263875 0.05416608 -0.2708304 0.22569199 -0.10833216 0.009027679 0.23471966 0.10833216 -0.252775 0.036110718 0.17152591 -0.18958127 -0.05416608 -0.11735983 -0.32499647 0.15347055
000040 11 03 15 1d f7 0c 07 fe 0c e8 fc f7 14 16 fb eb
       0.15347055 0.02708304 0.18958127 0.2618027 -0.08124912 0.10833216 0.06319375 -0.018055359 0.10833216 -0.21666431 -0.036110718 -0.08124912 0.18055359 0.19860895 -0.045138396 -0.18958127
000050 01 15 0a da ef fa fd f0 fe fe f2 0b e3 fd e2 08
       0.009027679 0.18958127 0.09027679 -0.34305182 -0.15347055 -0.05416608 -0.02708304 -0.14444287 -0.018055359 -0.018055359 -0.1263875 0.099304475 -0.2618027 -0.02708304 -0.2708304 0.072221436
000060 fa 12 0e fd 06 e9 fd 01 0e f6 dc 13 db d3 1a 00
       -0.05416608 0.16249824 0.1263875 -0.02708304 0.05416608 -0.20763662 -0.02708304 0.009027679 0.1263875 -0.09027679 -0.32499647 0.17152591 -0.33402413 -0.4062456 0.23471966 0.0
000070 03 09 02 f4 0b 0a fa 09 fb f9 02 e9 03 04 05 fd
       0.02708304 0.08124912 0.018055359 -0.10833216 0.099304475 0.09027679 -0.05416608 0.08124912 -0.045138396 -0.06319375 0.018055359 -0.20763662 0.02708304 0.036110718 0.045138396 -0.02708304
000080 fd f7 fd 00 fe f5 fd f7 f7 ff eb 08 f4 07 f4 fc
       -0.02708304 -0.08124912 -0.02708304 0.0 -0.018055359 -0.099304475 -0.02708304 -0.08124912 -0.08124912 -0.009027679 -0.18958127 0.072221436 -0.10833216 0.06319375 -0.10833216 -0.036110718
000090 f3 cb f6 07 0f 03 08 08 e3 f3 f3 0d f7 02 01 f5
       -0.11735983 -0.47846702 -0.09027679 0.06319375 0.1354152 0.02708304 0.072221436 0.072221436 -0.2618027 -0.11735983 -0.11735983 0.11735983 -0.08124912 0.018055359 0.009027679 -0.099304475
0000a0 05 02 f1 fb fd fd fd 06 0e f3 07 ff f8 e7 01 0c
       0.045138396 0.018055359 -0.1354152 -0.045138396 -0.02708304 -0.02708304 -0.02708304 0.05416608 0.1263875 -0.11735983 0.06319375 -0.009027679 -0.072221436 -0.22569199 0.009027679 0.10833216
0000b0 05 17 e5 f7 f2 07 04 02 0b 03 09 08 f6 13 12 0d
       0.045138396 0.20763662 -0.24374734 -0.08124912 -0.1263875 0.06319375 0.036110718 0.018055359 0.099304475 0.02708304 0.08124912 0.072221436 -0.09027679 0.17152591 0.16249824 0.11735983
0000c0 05 05 09 ff fd df ff 07 04 fc 06 03 ef fc f2 0e
       0.045138396 0.045138396 0.08124912 -0.009027679 -0.02708304 -0.29791343 -0.009027679 0.06319375 0.036110718 -0.036110718 0.05416608 0.02708304 -0.15347055 -0.036110718 -0.1263875 0.1263875
0000d0 0b ff 00 f4 eb 07 f0 f1 0e 03 fb 09 07 ec 04 fc
       0.099304475 -0.009027679 0.0 -0.10833216 -0.18958127 0.06319375 -0.14444287 -0.1354152 0.1263875 0.02708304 -0.045138396 0.08124912 0.06319375 -0.18055359 0.036110718 -0.036110718
0000e0 0a 07 fa 03 0c fc 0c 08 07 f4 01 00 ff ea f3 f4
       0.09027679 0.06319375 -0.05416608 0.02708304 0.10833216 -0.036110718 0.10833216 0.072221436 0.06319375 -0.10833216 0.009027679 0.0 -0.009027679 -0.19860895 -0.11735983 -0.10833216
0000f0 06 ef 08 03 fd 20 fa 04 f6 03 f7 fd 05 fb f6 fe
       0.05416608 -0.15347055 0.072221436 0.02708304 -0.02708304 0.28888574 -0.05416608 0.036110718 -0.09027679 0.02708304 -0.08124912 -0.02708304 0.045138396 -0.045138396 -0.09027679 -0.018055359

model/batch_normalization_5/batchnorm/mul_1 i1 [128, 8] scale=0.016019616 zero_point=0
000000 01 ec 2d d2 16 3d 36 1c 73 fb c7 b8 25 f4 2f 20
       0.016019616 -0.3203923 0.7208827 -0.73690236 0.35243157 0.9771966 0.86505926 0.44854927 1.8422558 -0.08009808 -0.9131181 -1.1534123 0.5927258 -0.1922354 0.75292194 0.5126277
000010 22 f2 3f c2 21 30 fc e0 81 50 47 01 d3 fa f8 f9
       0.54466695 -0.22427464 1.0092359 -0.9932162 0.52864736 0.7689416 -0.064078465 -0.5126277 -2.0344913 1.2815692 1.1373928 0.016019616 -0.7208827 -0.0961177 -0.12815693 -0.11213732
000020 ba f3 0a f0 44 be f9 f8 ee 1b e8 fa 0f a4 1a e9
       -1.1213732 -0.20825501 0.16019616 -0.25631386 1.0893339 -1.0572947 -0.11213732 -0.12815693 -0.2883531 0.43252963 -0.3844708 -0.0961177 0.24029425 -1.4738047 0.41651002 -0.36845118
000030 de f5 1a 34 1d 3f b5 a9 ec a8 04 14 e9 0c 16 e4
       -0.54466695 -0.17621578 0.41651002 0.83302003 0.46456888 1.0092359 -1.2014712 -1.3937066 -0.3203923 -1.4097263 0.064078465 0.3203923 -0.36845118 0.1922354 0.35243157 -0.44854927
000040 56 0f c9 21 43 fd ea 09 24 0f fa c2 fc f7 b6 ec
       1.377687 0.24029425 -0.8810789 0.52864736 1.0733143 -0.04805885 -0.35243157 0.14417654 0.5767062 0.24029425 -0.0961177 -0.9932162 -0.064078465 -0.14417654 -1.1854516 -0.3203923
000050 0b d7 24 59 2d 0e e1 02 1a 09 3a e1 01 c8 a7 24
       0.17621578 -0.65680426 0.5767062 1.4257458 0.7208827 0.22427464 -0.4966081 0.032039233 0.41651002 0.14417654 0.92913777 -0.4966081 0.016019616 -0.89709854 -1.4257458 0.5767062
000060 e5 e0 00 23 33 03 cc 33 c7 fb ea b7 26 0e 32 0b
       -0.43252963 -0.5126277 0.0 0.5606866 0.81700045 0.04805885 -0.83302003 0.81700045 -0.9131181 -0.08009808 -0.35243157 -1.169432 0.6087454 0.22427464 0.8009808 0.17621578
000070 35 35 14 10 31 37 df fc 1c fb 10 bc f2 46 de 3b
       0.8490397 0.8490397 0.3203923 0.25631386 0.7849612 0.8810789 -0.52864736 -0.064078465 0.44854927 -0.08009808 0.25631386 -1.0893339 -0.22427464 1.1213732 -0.54466695 0.94515735
000080 f0 aa cb 26 10 cd e7 11 94 de 30 3d f6 01 fd 11
       -0.25631386 -1.377687 -0.8490397 0.6087454 0.25631386 -0.81700045 -0.4004904 0.27233347 -1.7301185 -0.54466695 0.7689416 0.9771966 -0.16019616 0.016019616 -0.04805885 0.27233347
000090 08 45 e7 fd 17 e1 bf f8 07 d3 fe 98 db ec 54 fa
       0.12815693 1.1053535 -0.4004904 -0.04805885 0.36845118 -0.4966081 -1.041275 -0.12815693 0.11213732 -0.7208827 -0.032039233 -1.6660401 -0.5927258 -0.3203923 1.3456478 -0.0961177
0000a0 cf b9 ff 42 3f 23 67 f4 ef 28 ae c7 2d 32 19 c4
       -0.7849612 -1.1373928 -0.016019616 1.0572947 1.0092359 0.5606866 1.6500205 -0.1922354 -0.27233347 0.6407846 -1.3136085 -0.9131181 0.7208827 0.8009808 0.4004904 -0.961177
0000b0 e0 22 f7 25 5b de e7 fd f5 21 15 e0 d0 dd 1f 42
       -0.5126277 0.54466695 -0.14417654 0.5927258 1.4577851 -0.54466695 -0.4004904 -0.04805885 -0.17621578 0.52864736 0.33641195 -0.5126277 -0.7689416 -0.5606866 0.4966081 1.0572947
0000c0 0c 11 47 15 4d 1d db e1 d3 08 02 a7 02 d0 26 d3
       0.1922354 0.27233347 1.1373928 0.33641195 1.2335105 0.46456888 -0.5927258 -0.4966081 -0.7208827 0.12815693 0.032039233 -1.4257458 0.032039233 -0.7689416 0.6087454 -0.7208827
0000d0 0d d4 df ce 10 2a 2a fa 16 b4 05 16 08 cc 1d 94
       0.20825501 -0.70486313 -0.52864736 -0.8009808 0.25631386 0.6728239 0.6728239 -0.0961177 0.35243157 -1.2174908 0.08009808 0.35243157 0.12815693 -0.83302003 0.46456888 -1.7301185
0000e0 25 da fb ea a2 11 20 f4 b3 08 f8 07 06 c9 12 06
       0.5927258 -0.6087454 -0.08009808 -0.35243157 -1.5058439 0.27233347 0.5126277 -0.1922354 -1.2335105 0.12815693 -0.12815693 0.11213732 0.0961177 -0.8810789 0.2883531 0.0961177
0000f0 25 0c 12 25 b4 38 e6 c4 ea f8 13 a8 5b 3c 2a 09
       0.5927258 0.1922354 0.2883531 0.5927258 -1.2174908 0.89709854 -0.41651002 -0.961177 -0.35243157 -0.12815693 0.3043727 -1.4097263 1.4577851 0.961177 0.6728239 0.14417654

model/batch_normalization_4/batchnorm/mul_1 i1 [8, 128] scale=0.0020401194 zero_point=0
000000 03 00 09 f2 df f7 13 ed 02 26 14 09 0b f3 12 11
       0.006120358 0.0 0.018361075 -0.02856167 -0.06732394 -0.018361075 0.038762268 -0.038762268 0.0040802388 0.077524535 0.04080239 0.018361075 0.022441313 -0.026521552 0.03672215 0.034682028
000010 e5 05 10 ff 32 fa 04 00 00 fe d5 fb ff 0c 08 00
       -0.055083223 0.010200597 0.03264191 -0.0020401194 0.102005966 -0.012240716 0.0081604775 0.0 0.0 -0.0040802388 -0.08772513 -0.010200597 -0.0020401194 0.024481433 0.016320955 0.0
000020 ef ea 1a 07 21 f8 17 08 05 05 08 e6 08 05 ff 0b
       -0.034682028 -0.044882625 0.053043105 0.014280835 0.06732394 -0.016320955 0.046922747 0.016320955 0.010200597 0.010200597 0.016320955 -0.053043105 0.016320955 0.010200597 -0.0020401194 0.022441313
000030 0b 01 f7 0b f4 cf ef ee f5 1d f0 f8 f9 e1 02 f6
       0.022441313 0.0020401194 -0.018361075 0.022441313 -0.024481433 -0.09996585 -0.034682028 -0.03672215 -0.022441313 0.059163462 -0.03264191 -0.016320955 -0.014280835 -0.0632437 0.0040802388 -0.020401195
000040 fd d4 18 04 03 de fb 02 f8 08 f9 14 fe eb f7 df
       -0.006120358 -0.08976525 0.048962865 0.0081604775 0.006120358 -0.069364056 -0.010200597 0.0040802388 -0.016320955 0.016320955 -0.014280835 0.04080239 -0.0040802388 -0.042842507 -0.018361075 -0.06732394
000050 24 ec f2 03 f7 fc 03 06 05 f9 10 10 08 0e f5 ff
       0.0734443 -0.04080239 -0.02856167 0.006120358 -0.018361075 -0.0081604775 0.006120358 0.012240716 0.010200597 -0.014280835 0.03264191 0.03264191 0.016320955 0.02856167 -0.022441313 -0.0020401194
000060 29 37 d6 f5 fa fc 18 f9 dd 03 18 f8 2b 12 fe 11
       0.0836449 0.11220656 -0.085685015 -0.022441313 -0.012240716 -0.0081604775 0.048962865 -0.014280835 -0.07140418 0.006120358 0.048962865 -0.016320955 0.08772513 0.03672215 -0.0040802388 0.034682028
000070 0d fd d6 04 00 e9 f8 da 04 03 fe 02 f2 ff 09 ff
       0.026521552 -0.006120358 -0.085685015 0.0081604775 0.0 -0.046922747 -0.016320955 -0.077524535 0.0081604775 0.006120358 -0.0040802388 0.0040802388 -0.02856167 -0.0020401194 0.018361075 -0.0020401194
000080 f6 15 0c f8 0a e9 1c cd 1f 0b f9 29 0d e8 10 16
       -0.020401195 0.042842507 0.024481433 -0.016320955 0.020401195 -0.046922747 0.05712334 -0.10404609 0.0632437 0.022441313 -0.014280835 0.0836449 0.026521552 -0.048962865 0.03264191 0.044882625
000090 28 0e f0 20 e7 03 1b fa fb f6 ed ed db f6 fd 04
       0.08160478 0.02856167 -0.03264191 0.06528382 -0.051002983 0.006120358 0.055083223 -0.012240716 -0.010200597 -0.020401195 -0.038762268 -0.038762268 -0.07548442 -0.020401195 -0.006120358 0.0081604775
0000a0 dd 2b f2 13 13 f8 fe 0b f7 ff e7 e9 fe 2a d9 0f
       -0.07140418 0.08772513 -0.02856167 0.038762268 0.038762268 -0.016320955 -0.0040802388 0.022441313 -0.018361075 -0.0020401194 -0.051002983 -0.046922747 -0.0040802388 0.085685015 -0.07956465 0.03060179
0000b0 2d e9 ec 17 f4 07 f1 cb 02 14 f5 e7 da 0f 01 07
       0.09180537 -0.046922747 -0.04080239 0.046922747 -0.024481433 0.014280835 -0.03060179 -0.10812633 0.0040802388 0.04080239 -0.022441313 -0.051002983 -0.077524535 0.03060179 0.0020401194 0.014280835
0000c0 37 0f 0a 0d 05 25 1c dd 2b f9 e9 04 d8 17 ea e1
       0.11220656 0.03060179 0.020401195 0.026521552 0.010200597 0.07548442 0.05712334 -0.07140418 0.08772513 -0.014280835 -0.046922747 0.0081604775 -0.08160478 0.046922747 -0.044882625 -0.0632437
0000d0 f1 11 e6 ea e6 fc fc 2b 26 11 0e fc 36 0c 0f 23
       -0.03060179 0.034682028 -0.053043105 -0.044882625 -0.053043105 -0.0081604775 -0.0081604775 0.08772513 0.077524535 0.034682028 0.02856167 -0.0081604775 0.110166445 0.024481433 0.03060179 0.07140418
0000e0 fa 0d 15 08 01 98 f4 fe 24 81 21 f5 15 e4 fd ff
       -0.012240716 0.026521552 0.042842507 0.016320955 0.0020401194 -0.21217242 -0.024481433 -0.0040802388 0.0734443 -0.25909516 0.06732394 -0.022441313 0.042842507 -0.05712334 -0.006120358 -0.0020401194
0000f0 f8 0c f8 29 19 19 e0 ff f7 da 22 20 ed 05 05 02
       -0.016320955 0.024481433 -0.016320955 0.0836449 0.051002983 0.051002983 -0.06528382 -0.0020401194 -0.018361075 -0.077524535 0.069364056 0.06528382 -0.038762268 0.010200597 0.010200597 0.0040802388

model/batch_normalization_3/batchnorm/mul_1 i1 [128, 128] scale=0.11086147 zero_point=0
000000 ff ff fe 00 00 02 01 ff ff 01 ff 00 00 fd 00 00
       -0.11086147 -0.11086147 -0.22172295 0.0 0.0 0.22172295 0.11086147 -0.11086147 -0.11086147 0.11086147 -0.11086147 0.0 0.0 -0.3325844 0.0 0.0
000010 fc 00 ff 01 00 00 fe ff 01 00 ff fd ff 00 00 00
       -0.4434459 0.0 -0.11086147 0.11086147 0.0 0.0 -0.22172295 -0.11086147 0.11086147 0.0 -0.11086147 -0.3325844 -0.11086147 0.0 0.0 0.0
000020 01 ff 00 00 01 ff 01 03 00 00 01 ff 02 ff 00 ff
       0.11086147 -0.11086147 0.0 0.0 0.11086147 -0.11086147 0.11086147 0.3325844 0.0 0.0 0.11086147 -0.11086147 0.22172295 -0.11086147 0.0 -0.11086147
000030 01 ff 01 00 fe 01 fc fe 00 00 00 01 00 01 02 fe
       0.11086147 -0.11086147 0.11086147 0.0 -0.22172295 0.11086147 -0.4434459 -0.22172295 0.0 0.0 0.0 0.11086147 0.0 0.11086147 0.22172295 -0.22172295
000040 00 00 00 fe 02 00 01 00 00 ff ff fc fe ff 01 01
       0.0 0.0 0.0 -0.22172295 0.22172295 0.0 0.11086147 0.0 0.0 -0.11086147 -0.11086147 -0.4434459 -0.22172295 -0.11086147 0.11086147 0.11086147
000050 01 01 01 00 fe fe 01 00 00 00 ff 00 02 00 00 02
       0.11086147 0.11086147 0.11086147 0.0 -0.22172295 -0.22172295 0.11086147 0.0 0.0 0.0 -0.11086147 0.0 0.22172295 0.0 0.0 0.22172295
000060 ff 00 00 01 00 00 00 01 01 01 01 ff 00 00 ff fe
       -0.11086147 0.0 0.0 0.11086147 0.0 0.0 0.0 0.11086147 0.11086147 0.11086147 0.11086147 -0.11086147 0.0 0.0 -0.11086147 -0.22172295
000070 00 00 00 00 ff fe ff 01 00 00 00 01 01 fe ff fe
       0.0 0.0 0.0 0.0 -0.11086147 -0.22172295 -0.11086147 0.11086147 0.0 0.0 0.0 0.11086147 0.11086147 -0.22172295 -0.11086147 -0.22172295
000080 00 fc 01 00 ff fe 01 00 00 fe 00 fe 00 01 01 01
       0.0 -0.4434459 0.11086147 0.0 -0.11086147 -0.22172295 0.11086147 0.0 0.0 -0.22172295 0.0 -0.22172295 0.0 0.11086147 0.11086147 0.11086147
000090 ff 01 ff 01 00 fd 01 00 02 fd 01 02 00 fe 01 ff
       -0.11086147 0.11086147 -0.11086147 0.11086147 0.0 -0.3325844 0.11086147 0.0 0.22172295 -0.3325844 0.11086147 0.22172295 0.0 -0.22172295 0.11086147 -0.11086147
0000a0 01 ff 00 00 00 ff ff 00 00 00 02 01 01 00 00 00
       0.11086147 -0.11086147 0.0 0.0 0.0 -0.11086147 -0.11086147 0.0 0.0 0.0 0.22172295 0.11086147 0.11086147 0.0 0.0 0.0
0000b0 fc ff fc 00 ff ff 00 00 02 00 ff 00 00 fc 01 ff
       -0.4434459 -0.11086147 -0.4434459 0.0 -0.11086147 -0.11086147 0.0 0.0 0.22172295 0.0 -0.11086147 0.0 0.0 -0.4434459 0.11086147 -0.11086147
0000c0 fe ff 01 00 fe 00 ff 02 ff 00 01 fd ff 00 01 00
       -0.22172295 -0.11086147 0.11086147 0.0 -0.22172295 0.0 -0.11086147 0.22172295 -0.11086147 0.0 0.11086147 -0.3325844 -0.11086147 0.0 0.11086147 0.0
0000d0 ff 00 00 01 fd 00 00 01 fe 00 ff 00 00 01 00 01
       -0.11086147 0.0 0.0 0.11086147 -0.3325844 0.0 0.0 0.11086147 -0.22172295 0.0 -0.11086147 0.0 0.0 0.11086147 0.0 0.11086147
0000e0 ff fe 00 00 ff ff 00 01 ff ff ff 01 02 00 00 01
       -0.11086147 -0.22172295 0.0 0.0 -0.11086147 -0.11086147 0.0 0.11086147 -0.11086147 -0.11086147 -0.11086147 0.11086147 0.22172295 0.0 0.0 0.11086147
0000f0 ff 00 ff 01 00 ff 03 01 ff 02 ff 00 02 01 00 02
       -0.11086147 0.0 -0.11086147 0.11086147 0.0 -0.11086147 0.3325844 0.11086147 -0.11086147 0.22172295 -0.11086147 0.0 0.22172295 0.11086147 0.0 0.22172295

model/batch_normalization_2/batchnorm/mul_1 i1 [128, 128] scale=0.014315753 zero_point=0
000000 01 fd fc ff f8 04 f9 ff 03 0c fd f7 ff 07 0a f4
       0.014315753 -0.04294726 -0.057263013 -0.014315753 -0.114526026 0.057263013 -0.10021027 -0.014315753 0.04294726 0.17178904 -0.04294726 -0.12884177 -0.014315753 0.10021027 0.14315753 -0.17178904
000010 ff f1 0b 05 ee 09 ff 04 fb fd 00 12 fa ff fd 05
       -0.014315753 -0.2147363 0.15747328 0.07157876 -0.25768355 0.12884177 -0.014315753 0.057263013 -0.07157876 -0.04294726 0.0 0.25768355 -0.08589452 -0.014315753 -0.04294726 0.07157876
000020 f8 f3 0a 01 03 04 f2 fd f8 f8 f9 fe 05 fc 0d 09
       -0.114526026 -0.18610479 0.14315753 0.014315753 0.04294726 0.057263013 -0.20042054 -0.04294726 -0.114526026 -0.114526026 -0.10021027 -0.028631506 0.07157876 -0.057263013 0.18610479 0.12884177
000030 04 ff 01 04 00 f9 01 ff f9 04 fb 03 06 fb ff 0d
       0.057263013 -0.014315753 0.014315753 0.057263013 0.0 -0.10021027 0.014315753 -0.014315753 -0.10021027 0.057263013 -0.07157876 0.04294726 0.08589452 -0.07157876 -0.014315753 0.18610479
000040 00 fa 00 ff 01 fe f1 ef f2 03 ff 06 04 ff 0c ff
       0.0 -0.08589452 0.0 -0.014315753 0.014315753 -0.028631506 -0.2147363 -0.2433678 -0.20042054 0.04294726 -0.014315753 0.08589452 0.057263013 -0.014315753 0.17178904 -0.014315753
000050 f2 01 fb 0f fa 0b f9 09 08 f5 fd f4 05 01 f8 02
       -0.20042054 0.014315753 -0.07157876 0.2147363 -0.08589452 0.15747328 -0.10021027 0.12884177 0.114526026 -0.15747328 -0.04294726 -0.17178904 0.07157876 0.014315753 -0.114526026 0.028631506
000060 06 0a e7 01 03 f8 f4 04 02 06 05 fc 01 f6 06 0d
       0.08589452 0.14315753 -0.35789382 0.014315753 0.04294726 -0.114526026 -0.17178904 0.057263013 0.028631506 0.08589452 0.07157876 -0.057263013 0.014315753 -0.14315753 0.08589452 0.18610479
000070 03 f6 13 05 0b fe 03 01 08 05 ff 06 f8 ff 07 fe
       0.04294726 -0.14315753 0.2719993 0.07157876 0.15747328 -0.028631506 0.04294726 0.014315753 0.114526026 0.07157876 -0.014315753 0.08589452 -0.114526026 -0.014315753 0.10021027 -0.028631506
000080 05 00 12 ed 02 f2 06 02 04 f1 14 0a 06 15 f8 02
       0.07157876 0.0 0.25768355 -0.2719993 0.028631506 -0.20042054 0.08589452 0.028631506 0.057263013 -0.2147363 0.28631505 0.14315753 0.08589452 0.3006308 -0.114526026 0.028631506
000090 ee 04 06 f8 ff f6 fa f0 05 26 0b fb fc 05 10 09
       -0.25768355 0.057263013 0.08589452 -0.114526026 -0.014315753 -0.14315753 -0.08589452 -0.22905205 0.07157876 0.5439986 0.15747328 -0.07157876 -0.057263013 0.07157876 0.22905205 0.12884177
0000a0 17 05 0c 19 f7 fc 0f 17 fe 10 0a 06 10 f9 0e 13
       0.32926232 0.07157876 0.17178904 0.35789382 -0.12884177 -0.057263013 0.2147363 0.32926232 -0.028631506 0.22905205 0.14315753 0.08589452 0.22905205 -0.10021027 0.20042054 0.2719993
0000b0 ff 09 fb f6 16 05 f3 05 08 fa 0b 18 04 08 09 09
       -0.014315753 0.12884177 -0.07157876 -0.14315753 0.31494656 0.07157876 -0.18610479 0.07157876 0.114526026 -0.08589452 0.15747328 0.34357807 0.057263013 0.114526026 0.12884177 0.12884177
0000c0 19 13 0d fa 04 f6 0a 00 04 fe fc 02 f7 11 06 f7
       0.35789382 0.2719993 0.18610479 -0.08589452 0.057263013 -0.14315753 0.14315753 0.0 0.057263013 -0.028631506 -0.057263013 0.028631506 -0.12884177 0.2433678 0.08589452 -0.12884177
0000d0 01 07 fd 11 19 17 fe 05 fd f6 00 e8 1c 19 f3 0b
       0.014315753 0.10021027 -0.04294726 0.2433678 0.35789382 0.32926232 -0.028631506 0.07157876 -0.04294726 -0.14315753 0.0 -0.34357807 0.4008411 0.35789382 -0.18610479 0.15747328
0000e0 03 fd 0e 00 13 09 1c 00 fb 07 0b f7 0d f9 e5 03
       0.04294726 -0.04294726 0.20042054 0.0 0.2719993 0.12884177 0.4008411 0.0 -0.07157876 0.10021027 0.15747328 -0.12884177 0.18610479 -0.10021027 -0.38652533 0.04294726
0000f0 10 ef 02 f7 03 fa 18 01 0e 14 07 06 fd ea 05 09
       0.22905205 -0.2433678 0.028631506 -0.12884177 0.04294726 -0.08589452 0.34357807 0.014315753 0.20042054 0.28631505 0.10021027 0.08589452 -0.04294726 -0.31494656 0.07157876 0.12884177

model/batch_normalization_1/batchnorm/mul_1 i1 [128, 128] scale=0.009358985 zero_point=0
000000 fb f7 f9 07 10 0a 0b 06 00 ed f4 ed f4 fc 04 02
       -0.04679493 -0.08423087 -0.065512896 0.065512896 0.14974377 0.09358986 0.10294884 0.056153912 0.0 -0.17782073 -0.112307824 -0.17782073 -0.112307824 -0.03743594 0.03743594 0.01871797
000010 f4 06 fa f7 f0 ff fe 01 f0 16 f1 fb 09 0a 03 03
       -0.112307824 0.056153912 -0.056153912 -0.08423087 -0.14974377 -0.009358985 -0.01871797 0.009358985 -0.14974377 0.20589767 -0.14038478 -0.04679493 0.08423087 0.09358986 0.028076956 0.028076956
000020 02 fa f7 f7 e7 1d 08 fe 05 fe 0d 05 f4 0f dc 08
       0.01871797 -0.056153912 -0.08423087 -0.08423087 -0.23397464 0.27141058 0.07487188 -0.01871797 0.04679493 -0.01871797 0.12166681 0.04679493 -0.112307824 0.14038478 -0.33692348 0.07487188
000030 01 07 0f f4 02 06 05 01 03 f5 fd f2 0c 05 f7 f1
       0.009358985 0.065512896 0.14038478 -0.112307824 0.01871797 0.056153912 0.04679493 0.009358985 0.028076956 -0.10294884 -0.028076956 -0.13102579 0.112307824 0.04679493 -0.08423087 -0.14038478
000040 10 1e e9 de ee 01 08 0a 05 f6 1b 04 fa fe f3 11
       0.14974377 0.28076956 -0.21525666 -0.3182055 -0.16846174 0.009358985 0.07487188 0.09358986 0.04679493 -0.09358986 0.2526926 0.03743594 -0.056153912 -0.01871797 -0.12166681 0.15910275
000050 03 f7 fa 0c ec fd ed 11 f6 06 08 f7 03 0f fa 11
       0.028076956 -0.08423087 -0.056153912 0.112307824 -0.18717971 -0.028076956 -0.17782073 0.15910275 -0.09358986 0.056153912 0.07487188 -0.08423087 0.028076956 0.14038478 -0.056153912 0.15910275
000060 15 02 00 f7 04 01 e2 03 0c 0b f9 25 0b 07 f4 07
       0.19653869 0.01871797 0.0 -0.08423087 0.03743594 0.009358985 -0.28076956 0.028076956 0.112307824 0.10294884 -0.065512896 0.34628245 0.10294884 0.065512896 -0.112307824 0.065512896
000070 f3 fd f9 fb 11 e3 03 0a 08 f3 06 07 0e 0b f7 12
       -0.12166681 -0.028076956 -0.065512896 -0.04679493 0.15910275 -0.27141058 0.028076956 0.09358986 0.07487188 -0.12166681 0.056153912 0.065512896 0.13102579 0.10294884 -0.08423087 0.16846174
000080 fa 0c fa f7 fa 01 0f fb f7 fd ff f5 fd 08 04 fe
       -0.056153912 0.112307824 -0.056153912 -0.08423087 -0.056153912 0.009358985 0.14038478 -0.04679493 -0.08423087 -0.028076956 -0.009358985 -0.10294884 -0.028076956 0.07487188 0.03743594 -0.01871797
000090 08 07 01 f8 11 ff 0a f6 f1 04 fb 03 ff f1 03 f6
       0.07487188 0.065512896 0.009358985 -0.07487188 0.15910275 -0.009358985 0.09358986 -0.09358986 -0.14038478 0.03743594 -0.04679493 0.028076956 -0.009358985 -0.14038478 0.028076956 -0.09358986
0000a0 0a 06 f9 00 03 fc f8 0a fc 03 f8 fd 06 03 f6 01
       0.09358986 0.056153912 -0.065512896 0.0 0.028076956 -0.03743594 -0.07487188 0.09358986 -0.03743594 0.028076956 -0.07487188 -0.028076956 0.056153912 0.028076956 -0.09358986 0.009358985
0000b0 03 f8 fc 0c 0a 03 f8 fe 07 0b fa 0d 05 f7 fd f9
       0.028076956 -0.07487188 -0.03743594 0.112307824 0.09358986 0.028076956 -0.07487188 -0.01871797 0.065512896 0.10294884 -0.056153912 0.12166681 0.04679493 -0.08423087 -0.028076956 -0.065512896
0000c0 01 fa 01 fd 0a 11 0f 02 f8 ec fd ff 00 0f fb f1
       0.009358985 -0.056153912 0.009358985 -0.028076956 0.09358986 0.15910275 0.14038478 0.01871797 -0.07487188 -0.18717971 -0.028076956 -0.009358985 0.0 0.14038478 -0.04679493 -0.14038478
0000d0 fb f7 f7 fb f9 f7 12 00 f9 fd f4 02 08 01 ff fe
       -0.04679493 -0.08423087 -0.08423087 -0.04679493 -0.065512896 -0.08423087 0.16846174 0.0 -0.065512896 -0.028076956 -0.112307824 0.01871797 0.07487188 0.009358985 -0.009358985 -0.01871797
0000e0 01 01 04 04 fd 05 f2 0e 09 fe 03 04 ff 04 04 0a
       0.009358985 0.009358985 0.03743594 0.03743594 -0.028076956 0.04679493 -0.13102579 0.13102579 0.08423087 -0.01871797 0.028076956 0.03743594 -0.009358985 0.03743594 0.03743594 0.09358986
0000f0 02 06 f5 fc 03 fb 08 fc 0f 00 04 ff 08 f4 0b 04
       0.01871797 0.056153912 -0.10294884 -0.03743594 0.028076956 -0.04679493 0.07487188 -0.03743594 0.14038478 0.0 0.03743594 -0.009358985 0.07487188 -0.112307824 0.10294884 0.03743594

model/batch_normalization/batchnorm/mul_1 i1 [128, 640] scale=0.00042889675 zero_point=0
000000 fd fd 01 01 fb 02 fd fb fa fa fe ff 05 0c 10 0d
       -0.0012866902 -0.0012866902 0.00042889675 0.00042889675 -0.0021444838 0.0008577935 -0.0012866902 -0.0021444838 -0.0025733805 -0.0025733805 -0.0008577935 -0.00042889675 0.0021444838 0.005146761 0.006862348 0.005575658
000010 fe fb fc fd fb 03 03 03 fc fe 00 01 ff 03 09 02
       -0.0008577935 -0.0021444838 -0.001715587 -0.0012866902 -0.0021444838 0.0012866902 0.0012866902 0.0012866902 -0.001715587 -0.0008577935 0.0 0.00042889675 -0.00042889675 0.0012866902 0.0038600708 0.0008577935
000020 ff fb 03 03 02 05 09 03 ff fc fc fe fc fa fb f9
       -0.00042889675 -0.0021444838 0.0012866902 0.0012866902 0.0008577935 0.0021444838 0.0038600708 0.0012866902 -0.00042889675 -0.001715587 -0.001715587 -0.0008577935 -0.001715587 -0.0025733805 -0.0021444838 -0.003002277
000030 fe 02 fd 00 02 fd fd ff fa 00 00 fb fe ff fe 03
       -0.0008577935 0.0008577935 -0.0012866902 0.0 0.0008577935 -0.0012866902 -0.0012866902 -0.00042889675 -0.0025733805 0.0 0.0 -0.0021444838 -0.0008577935 -0.00042889675 -0.0008577935 0.0012866902
000040 02 ff 05 07 03 00 fb 00 04 fa fd fc fc ff fe ff
       0.0008577935 -0.00042889675 0.0021444838 0.003002277 0.0012866902 0.0 -0.0021444838 0.0 0.001715587 -0.0025733805 -0.0012866902 -0.001715587 -0.001715587 -0.00042889675 -0.0008577935 -0.00042889675
000050 01 fb 01 fb 01 fd 01 00 03 04 04 02 03 02 02 07
       0.00042889675 -0.0021444838 0.00042889675 -0.0021444838 0.00042889675 -0.0012866902 0.00042889675 0.0 0.0012866902 0.001715587 0.001715587 0.0008577935 0.0012866902 0.0008577935 0.0008577935 0.003002277
000060 06 04 04 05 01 05 08 0c 06 06 02 00 06 02 03 06
       0.0025733805 0.001715587 0.001715587 0.0021444838 0.00042889675 0.0021444838 0.003431174 0.005146761 0.0025733805 0.0025733805 0.0008577935 0.0 0.0025733805 0.0008577935 0.0012866902 0.0025733805
000070 08 07 03 03 fd 00 05 06 0b 09 0d 05 05 05 05 ff
       0.003431174 0.003002277 0.0012866902 0.0012866902 -0.0012866902 0.0 0.0021444838 0.0025733805 0.004717864 0.0038600708 0.005575658 0.0021444838 0.0021444838 0.0021444838 0.0021444838 -0.00042889675
000080 fd ff 00 01 fa 01 ff fd fb fc fd 00 06 0a 10 0e
       -0.0012866902 -0.00042889675 0.0 0.00042889675 -0.0025733805 0.00042889675 -0.00042889675 -0.0012866902 -0.0021444838 -0.001715587 -0.0012866902 0.0 0.0025733805 0.0042889677 0.006862348 0.006004554
000090 fd fc fc fe fd 03 02 03 fc fd ff 00 00 03 08 01
       -0.0012866902 -0.001715587 -0.001715587 -0.0008577935 -0.0012866902 0.0012866902 0.0008577935 0.0012866902 -0.001715587 -0.0012866902 -0.00042889675 0.0 0.0 0.0012866902 0.003431174 0.00042889675
0000a0 fe f9 03 03 02 05 0a 03 ff fb fc fd fc f9 fa f9
       -0.0008577935 -0.003002277 0.0012866902 0.0012866902 0.0008577935 0.0021444838 0.0042889677 0.0012866902 -0.00042889675 -0.0021444838 -0.001715587 -0.0012866902 -0.001715587 -0.003002277 -0.0025733805 -0.003002277
0000b0 fd 01 fc 01 00 fe fe fe fa 01 01 fd fe ff fd 03
       -0.0012866902 0.00042889675 -0.001715587 0.00042889675 0.0 -0.0008577935 -0.0008577935 -0.0008577935 -0.0025733805 0.00042889675 0.00042889675 -0.0012866902 -0.0008577935 -0.00042889675 -0.0012866902 0.0012866902
0000c0 02 fd 04 06 03 00 fa 00 01 fb fc fc fc 00 01 ff
       0.0008577935 -0.0012866902 0.001715587 0.0025733805 0.0012866902 0.0 -0.0025733805 0.0 0.00042889675 -0.0021444838 -0.001715587 -0.001715587 -0.001715587 0.0 0.00042889675 -0.00042889675
0000d0 02 fa 01 fb 02 fc 01 01 04 03 03 05 01 03 01 05
       0.0008577935 -0.0025733805 0.00042889675 -0.0021444838 0.0008577935 -0.001715587 0.00042889675 0.00042889675 0.001715587 0.0012866902 0.0012866902 0.0021444838 0.00042889675 0.0012866902 0.00042889675 0.0021444838
0000e0 05 02 02 04 01 05 09 0d 05 03 01 ff 04 00 01 06
       0.0021444838 0.0008577935 0.0008577935 0.001715587 0.00042889675 0.0021444838 0.0038600708 0.005575658 0.0021444838 0.0012866902 0.00042889675 -0.00042889675 0.001715587 0.0 0.00042889675 0.0025733805
0000f0 07 07 02 06 fe 00 03 07 08 07 0c 02 04 04 03 00
       0.003002277 0.003002277 0.0008577935 0.0025733805 -0.0008577935 0.0 0.0012866902 0.003002277 0.003431174 0.003002277 0.005146761 0.0008577935 0.001715587 0.001715587 0.0012866902 0.0
