models/mobilenetv2/dynamic_range_quantization/model_ToyCar.tflite (tflite, 872296 bytes, 106 tensors)

model/mobilenetv2_0.50_64/predictions/BiasAdd/ReadVariableOp f4 [3]
000000 8a 13 d3 3a c8 9a cd ba 5f a3 82 b9
       0.0016103846 -0.0015686387 -0.00024917253

model/mobilenetv2_0.50_64/block_1_project/Conv2D f4 [16, 1, 1, 48]
000000 8d b2 9f be 72 8c 81 bd 86 a4 aa 3e d3 f6 29 be
       -0.3119091 -0.06325616 0.33328646 -0.16598062
000010 2d 6a fe bc c1 1b 94 bd 0f 5c 21 bd 22 bc 82 be
       -0.031056488 -0.07231856 -0.039394435 -0.2553416
000020 da 10 96 be 11 5d e1 bd d9 0a 44 be 11 74 07 3e
       -0.29309732 -0.11004079 -0.19144763 0.1322787
000030 3e cc 27 be 3a 7a 28 bb c9 e7 0f 3e 80 35 59 3d
       -0.16386506 -0.0025707618 0.14053263 0.053029537
000040 57 a1 45 be 25 56 5c 3e 44 84 bf 3e 9a 12 60 3e
       -0.19299828 0.21517237 0.37405598 0.21882096
000050 16 3f 8b 3d 98 41 97 be 9d be a2 be 93 9c a3 be
       0.06799142 -0.29542232 -0.3178605 -0.31955394
000060 e0 a8 9f 3e c0 c6 f6 bc 0d 9a 37 be 95 2c 12 be
       0.3118353 -0.030124068 -0.1792986 -0.14274819
000070 5f 5a f7 3b 00 b7 42 3e e9 36 5f 3e 82 2d 9e 3d
       0.007548615 0.19015121 0.2179829 0.07723524
000080 a4 cf 41 be eb fb a5 be 80 7b 49 be 02 2a 92 be
       -0.18926865 -0.3241876 -0.19676018 -0.28547674
000090 5b ba 5e be 4d e3 a5 be bf 4c d1 bd c5 68 47 be
       -0.21750776 -0.3239998 -0.10219716 -0.1947356
0000a0 1c 0b b1 be 52 c6 c2 bd de 44 59 3d 50 df 8c 3e
       -0.34578788 -0.09510483 0.053044192 0.27514124
0000b0 45 e3 3a 3d 9e 4e 2d be 53 76 98 be 0e 56 7f 3e
       0.045626897 -0.16924521 -0.29777774 0.24935171
0000c0 1b fa 96 3e 92 93 b9 3d 32 fc 8b be 95 1d 9d be
       0.2948769 0.0906135 -0.27340847 -0.30686632
0000d0 fa 15 90 be f4 55 9a 3d f9 47 d8 3e ed 08 be be
       -0.28141767 0.075359255 0.4224241 -0.37116185
0000e0 e3 83 2c be db a8 c3 bc 26 19 44 be c2 7f 29 3d
       -0.16847186 -0.023884227 -0.19150218 0.041381605
0000f0 17 28 02 3e 5a 43 63 be 1a da 32 3e 03 53 8a 3e
       0.12710606 -0.22193661 0.17466012 0.27016458
000100 ce 5b c0 be bc d3 3f bd 25 66 07 bd 41 23 f6 be
       -0.3757004 -0.046832785 -0.033056397 -0.48073772
000110 fd 28 f4 3e e6 28 3e 3e 84 bf 58 3b 46 10 8e be
       0.47687522 0.18570289 0.0033073137 -0.2774679
000120 b7 76 25 bd b5 70 07 3e 18 63 af be 5d da fc 3e
       -0.04039642 0.13226588 -0.3425529 0.49385348
000130 75 60 27 be 92 0c 3b be 75 d4 c9 be ad fd 69 be
       -0.16345389 -0.18266514 -0.39419904 -0.22850676
000140 f7 31 fb 3b 08 d0 dc bb 2f d8 d4 3d b3 55 72 3d
       0.0076658684 -0.0067386664 0.10392796 0.05916376
000150 3e ef ce 3e 75 d3 61 be aa f3 83 bd 56 f2 9e 3e
       0.40416902 -0.2205332 -0.064429596 0.31044263
000160 7d 06 c7 3e 87 41 d8 3e 3c 25 fe 3e d0 41 95 3e
       0.38872138 0.42237493 0.49637783 0.29151773
000170 01 b6 9b be af aa 98 be 2f 29 05 3f 98 6f 01 be
       -0.30412295 -0.2981772 0.52015966 -0.12640226
000180 52 27 84 3e d9 9c 77 3e c8 8a 1a 3e 7c 37 6f 3e
       0.2581125 0.24180926 0.15092003 0.2336101
000190 41 00 41 3c 29 b5 92 be 18 39 2f 3e cf f5 7b 3e
       0.011779846 -0.2865384 0.17111623 0.24605487
0001a0 08 f0 56 3e e5 59 a5 be 1a ef 86 3e 77 65 71 3e
       0.20990002 -0.32295147 0.26354295 0.23573862
0001b0 14 57 59 be fb 2c 2c be 52 0e ac 3e c8 b6 63 be
       -0.21224624 -0.16814034 0.33604676 -0.22237694
0001c0 d9 43 a8 be 96 2f 27 3c c3 6a b0 bd 00 be 70 3e
       -0.32864264 0.010204216 -0.08614113 0.23509979
0001d0 e3 75 5a 3e 67 59 22 bd 6b 31 87 bd 85 87 b1 3e
       0.21334033 -0.039636042 -0.066012226 0.34673706
0001e0 7e 65 18 3e 88 c1 4a 3e e6 9d 65 be bf 6d ed bb
       0.14882466 0.19800389 -0.22423515 -0.007245749
0001f0 8c a4 79 3e 7b 6c 3d be ff f6 91 3d be 7b 93 be
       0.24379176 -0.18498413 0.07127189 -0.28805345
000200 4b 39 a7 be 4e 9d 08 be 68 65 19 3e fb 5d 2f be
       -0.326609 -0.13341257 0.1498009 -0.17125694
000210 12 bc 9f 3e 93 ad 97 be 92 ac 2e 3e 0f 7e 1b be
       0.31198174 -0.29624614 0.17058018 -0.15184806
000220 26 c1 6f be 54 65 98 be a4 68 96 be 0d 59 7e bc
       -0.23413524 -0.29764807 -0.2937671 -0.015524161
000230 8f e6 8d 3e 58 88 3e 3e 82 94 5e 3e e5 c9 91 3e
       0.27714965 0.18606699 0.21736339 0.28474346
000240 b1 18 b4 3e 59 f8 db bd 35 d1 07 bf 23 d6 5d 3e
       0.35175088 -0.10740728 -0.530536 0.21663718
000250 6d 8e dc 3e 1f 6b 10 3f cf 28 d5 3e 37 98 26 3d
       0.43077412 0.56413454 0.41632697 0.040672507
000260 7d 68 05 be 21 4c 0f 3f ef a5 0b bf 44 3c cc bd
       -0.1302814 0.5597554 -0.5455007 -0.09972432
000270 34 d9 d8 3e 52 95 ad bd ea bd ff be 52 c1 1c 3d
       0.42353213 -0.08475746 -0.4994958 0.038270302
000280 a1 aa c6 be c1 04 ad be cd e2 d1 be 49 74 bc 3e
       -0.38802055 -0.3379269 -0.40993348 0.3680747
000290 c5 8a 38 bd d0 6f 48 3e 1f 5d cc bd 24 71 24 3e
       -0.045054216 0.19573903 -0.09978699 0.16058785
0002a0 d6 33 77 3e 5c ee 89 be a2 7e e1 be 65 7d d0 be
       0.24140868 -0.26939666 -0.44041926 -0.40720668
0002b0 93 1c ea bd bc 5c 02 3e d2 d1 8f bd c5 4e 7c bd
       -0.11431231 0.12730688 -0.07022442 -0.061598558
0002c0 99 63 b0 3d d6 2f ed bd 7c 12 e1 3e f1 47 61 3e
       0.08612747 -0.115813896 0.43959415 0.220001
0002d0 de 1d e0 3e b3 23 0e bd 27 8b 9b 3d 4d a5 d1 3e
       0.43772787 -0.034702014 0.075949006 0.40946427
0002e0 42 a5 f7 3e 4d 56 cf 3e 3f 78 bc be 4f 4f ca 3d
       0.4836827 0.4049553 -0.3681049 0.09878408
0002f0 98 a4 0d bf a9 6b 04 3f 4e 6a bd be d5 79 d9 be
       -0.55329275 0.51726776 -0.36995167 -0.42475763
000300 72 1f b5 be d0 f5 85 3d d8 0b ce bd 74 02 fa bd
       -0.35375553 0.06541026 -0.10060853 -0.12207499
000310 0b 1f 99 3d 66 af c2 3e d8 61 f7 3d 8c 92 d5 3e
       0.07476624 0.38024443 0.12079209 0.4171337
000320 d2 b8 46 3e 15 9e 51 3e d6 df ba 3e ee d5 67 3e
       0.19406441 0.2047046 0.36498898 0.22640201
000330 23 bf a9 bc cf 44 c8 be 96 0a 96 bd ed 2e e4 3e
       -0.020721024 -0.39114997 -0.07326238 0.44567052
000340 be 31 d3 be 7b 7f 82 3e c7 c1 b5 3e c6 d7 fd bd
       -0.41248888 0.25487885 0.35499403 -0.12394671
000350 80 19 8d 3e e4 f5 f2 bd d5 bd 0f 3e fc 18 cc 3e
       0.27558517 -0.11863306 0.14037259 0.39862812
000360 68 7d a8 3d 7c ea d9 be 12 1b 6f 3e c1 4a dc bd
       0.08227044 -0.4256171 0.2335017 -0.10756446
000370 b4 af 86 3d 90 5b c2 be d7 ba 31 be f9 e7 13 be
       0.065764815 -0.37960482 -0.1735643 -0.1444396
000380 2c 2f b8 3e 33 aa a6 be 82 a9 2b be 6c 6f a9 bd
       0.3597349 -0.32551727 -0.16763881 -0.08273205
000390 b2 7d e5 3d c6 a7 8d bd ea 46 2a be c3 94 ef 3e
       0.11205615 -0.06916766 -0.16628614 0.46793184
0003a0 95 7f d0 bd 2f 9c ea 3e ff 80 98 be 22 bc b1 3e
       -0.10180584 0.45822284 -0.29785916 0.34713846
0003b0 f4 8d 8f be e3 12 98 bd 8e c7 47 3d e5 89 bb 3e
       -0.2803799 -0.07425477 0.048774295 0.36628643
0003c0 21 6a 80 be d2 e7 14 3e da 69 88 be 45 55 9b 3e
       -0.2508097 0.14541557 -0.26643258 0.30338493
0003d0 84 c3 9e 3d e8 9a 22 3e 2c f6 f6 3b d0 6a 24 3e
       0.077521354 0.15879405 0.00753667 0.1605637
0003e0 59 6f 6e be 8f 59 8d 3e e1 17 72 be 7a 44 a4 3e
       -0.23284663 0.2760739 -0.23641922 0.32083493
0003f0 48 ce e5 bd 79 95 dd 3d 4b 23 b5 3d 39 7c 94 3e
       -0.11220986 0.10819525 0.08844622 0.29001024

model/mobilenetv2_0.50_64/block_1_expand/Conv2D f4 [48, 1, 1, 8]
000000 7e 22 8a 3e 93 58 b1 bd 67 34 f8 be 5b 84 1f bf
       0.2697944 -0.08659472 -0.4847748 -0.62311333
000010 4f 10 16 3e a7 3f 1f 3e 1c e5 e5 3e c9 8d 87 3e
       0.14654659 0.15551625 0.4490136 0.2647536
000020 35 0a 99 3f 44 2e 8b 3e f4 6a f8 3d d4 7a 02 3f
       1.195624 0.27183735 0.12129775 0.5096867
000030 54 ef 08 be 26 3c 06 3e 6d b3 ea 3d ae c5 6e be
       -0.13372546 0.13108882 0.11460004 -0.23317596
000040 69 56 29 be f3 5e 0c bf 67 9a d2 3e a0 64 29 3e
       -0.16536869 -0.5483238 0.41133425 0.16542292
000050 9a d0 24 bd bb 64 97 be a1 10 36 3f ed 6d 0f 3f
       -0.040238 -0.2956904 0.71119124 0.5602711
000060 c7 2a 0d bf 2d d8 0d 3f 43 b5 24 3d 7d 9b 10 bf
       -0.551434 0.55407983 0.040211927 -0.56487256
000070 5a 96 0e 3f bd be ca be 25 b6 00 bf 0a 8a 8d be
       0.5569817 -0.39598647 -0.5027793 -0.27644378
000080 f7 70 ad bd 47 22 05 bf 8b 33 d8 3e ee 62 4d 3e
       -0.08468812 -0.5200543 0.42226824 0.2005727
000090 4c 2f d4 3e bf 90 24 3e f8 2d 41 3e 18 5c 87 3e
       0.41442335 0.16070841 0.18865192 0.2643745
0000a0 7c bf f6 3e 41 b2 1d be b7 9d c0 3d e8 ef 93 be
       0.48192966 -0.1540003 0.09405082 -0.2889397
0000b0 0d 4b cf 3e 6a 5a ca 3e 77 f9 b4 be 35 b2 fb be
       0.40486947 0.39522105 -0.35346577 -0.491594
0000c0 c7 b3 09 be f6 4a 8d 3e ff 85 cc 3e 5f ff 9e 3e
       -0.13447486 0.27596253 0.3994598 0.31054208
0000d0 30 fe 86 be ee 1e c6 be ec 43 ad 3e 9d 74 52 be
       -0.26365805 -0.38695472 0.33840883 -0.20552297
0000e0 0c 96 84 3f d3 d9 a6 bf 84 01 3b bd d3 c6 0e 3f
       1.0358291 -1.3035225 -0.045655742 0.5577213
0000f0 f3 bf d7 3c da 7c 72 3e 51 e3 e5 3e 1e c5 8e bf
       0.026336646 0.2368044 0.4489999 -1.1153905
000100 15 a2 f7 3e d4 01 85 3e 38 f6 b8 3e 9f 50 25 be
       0.48365846 0.25977957 0.3612535 -0.16144036
000110 96 49 2a bf f3 be 60 3e 9f 83 10 be 62 fe 5d 3d
       -0.66518533 0.21947841 -0.1411271 0.054197676
000120 0a 05 30 be 24 ca e3 3e f2 ea 22 bf 98 01 c1 be
       -0.17189422 0.4449016 -0.6363975 -0.37696528
000130 a8 ec 6b be 4c b2 c2 3d 11 58 09 3e db 92 e8 3e
       -0.23039496 0.09506664 0.13412501 0.45424542
000140 45 ac ce 3e 75 26 db be 09 79 04 3e 3a a3 e2 bd
       0.40365806 -0.42802778 0.12936796 -0.11066289
000150 86 64 c9 3e 1f 74 39 3d 91 c9 91 be 85 1f df 3d
       0.39334506 0.045276757 -0.28474095 0.10894684
000160 9b 92 99 be 8a 4d 30 3e 88 40 9c 3e 7a 77 c3 3d
       -0.29994664 0.17217079 0.30517983 0.09544273
000170 71 a0 56 3e 83 0c ae 3e a4 20 ab 3e ac 5e 55 3d
       0.20959641 0.3399392 0.3342334 0.05209224
000180 a5 17 39 3e 10 e6 c6 3e dc 0d ab 3d fd e0 0a 3e
       0.18075426 0.388474 0.08352253 0.13562389
000190 ad 0d 06 bf f0 5f ff 3e 75 0f 12 bf 14 37 29 be
       -0.5236462 0.49877882 -0.57054836 -0.16524917
0001a0 67 ff c2 bc c9 89 26 bf 75 fb 33 bf bd ba c3 3e
       -0.023803426 -0.65053993 -0.7030557 0.38228408
0001b0 0c ba 9d 3e 72 c4 d7 bc 41 64 80 3e 5e 4c 56 bf
       0.30806005 -0.02633879 0.25076488 -0.8371028
0001c0 33 a9 20 3f 42 64 7e 3d 4f 21 ee 3e 50 f7 1e bf
       0.6275818 0.062107332 0.46509787 -0.6209612
0001d0 d2 51 2a 3e c1 ee 0e bf 33 8c ae 3e 4f 69 18 bf
       0.16632774 -0.5583306 0.3409134 -0.5953569
0001e0 a7 da 61 3e fa 21 b2 be 3d ec 6e bf 0e 66 86 3f
       0.22056065 -0.34791547 -0.9332922 1.0499895
0001f0 1b 99 83 be ed 63 c5 3e ef a0 94 be 89 07 04 bf
       -0.25702748 0.385528 -0.29029033 -0.51574
000200 6e 3a 8d be 7d 4f e1 3e 47 22 12 be 36 0d 2b be
       -0.2758364 0.44005957 -0.14270888 -0.16704258
000210 df 86 a4 3e e9 73 d5 bd b9 05 2f 3e d6 a6 d7 be
       0.32134148 -0.10422499 0.17092027 -0.42119473
000220 18 21 0e bf b4 58 b5 3d cd cd 3c 3f db e2 28 bf
       -0.5551925 0.088548094 0.7375153 -0.65971154
000230 40 e0 71 bf 2d fa 46 bf 48 e3 35 3f 98 f8 d5 3d
       -0.94482803 -0.7772549 0.7104993 0.10447806
000240 2d 06 58 3e 81 1f bd be 3a 02 50 3c f8 1c d7 be
       0.21096106 -0.36938098 0.012695843 -0.4201429
000250 68 1d 76 be 13 f5 9e be bf 58 b6 bd 37 61 9e 3d
       -0.24034655 -0.31046352 -0.08903646 0.07733386
000260 ad 32 18 3e c1 9b 5e 3e b7 8e 08 3c 22 95 6c 3e
       0.14863081 0.21739103 0.008334807 0.23103765
000270 f3 cd ac 3e f8 76 b3 be a0 d2 00 3f 50 30 6a be
       0.33750877 -0.35051703 0.5032139 -0.22869992
000280 5c 02 7f bd 19 28 a8 3e 8a 9c ed be a2 d9 51 3e
       -0.06225811 0.32843092 -0.46408492 0.20493177
000290 62 a0 df 3e fc 50 5c bc 8f c0 08 3f 1f 0e b0 3d
       0.4367705 -0.013447043 0.5341882 0.085964434
0002a0 c6 7d 85 bc 2c 25 d8 be 10 dd 69 3e bf 6c 01 3f
       -0.016295325 -0.4221586 0.22838235 0.5055656
0002b0 a9 e4 80 3e 3b 47 b5 3e ff 94 5d 3e b4 86 79 be
       0.25174454 0.35405907 0.21638869 -0.24367791
0002c0 9c af 61 3e 05 72 e5 be f7 36 b5 be 06 19 8f 3e
       0.22039646 -0.44813552 -0.35393497 0.2794878
0002d0 51 70 1d bf 41 fb 43 be c3 d9 04 3f c9 e3 4f be
       -0.61499506 -0.19138815 0.5189478 -0.20301737
0002e0 8c b3 5d 3e 8a e9 7e 3e 19 e5 2a 3f c0 d9 cf 3e
       0.21650523 0.24893776 0.66755825 0.40595818
0002f0 a3 11 f5 bc e8 88 92 bd b8 95 22 bf 56 40 15 3e
       -0.029915636 -0.07155019 -0.635097 0.14575323
000300 d9 b0 b4 be c9 6a d2 be c8 58 9a 3e 18 69 07 bf
       -0.35291174 -0.41097096 0.3014586 -0.52894735
000310 dc e3 67 be 49 ed bc be 6f bb 16 bf d4 28 0c bf
       -0.22645515 -0.36899784 -0.5887975 -0.547498
000320 ee d3 64 be 78 d5 b5 3e cc 6e 3b 3d d4 20 91 be
       -0.2234647 0.35514426 0.04575996 -0.28345358
000330 a3 a8 71 3e e7 20 dc be 18 35 5d bf 13 f7 09 bf
       0.23599486 -0.42993852 -0.8640914 -0.5389263
000340 4a 76 46 3f ed 61 62 be 2b cc 16 3d ef a3 f5 3d
       0.77524245 -0.22107668 0.036815803 0.119941585
000350 5d 17 8e 3e 99 5a 29 bf eb 10 34 3f fb 48 12 3e
       0.277522 -0.66153866 0.70338315 0.14285652
000360 47 f3 75 be 72 0a 2d bf c1 3e e0 3e 45 2a 34 be
       -0.24018584 -0.67594063 0.43797877 -0.1759425
000370 e3 e0 11 bf 3d 65 a1 be bb 4d 54 3f 77 c6 eb be
       -0.56983775 -0.3152255 0.8293111 -0.46049854
000380 a5 44 09 3f 04 d4 ca 3e 74 00 3f bd 9c f2 3f be
       0.5362037 0.3961488 -0.04663129 -0.18744892
000390 17 88 09 bf d0 e9 03 bf b9 e3 11 3f be 71 00 be
       -0.5372328 -0.51528645 0.569881 -0.12543389
0003a0 19 12 88 bd 41 12 ab be 11 bf 11 3d 54 70 0f 3f
       -0.06644077 -0.33412364 0.035582606 0.56030774
0003b0 fd b7 3d be 15 74 69 3e 68 15 c9 3e fa bf e3 be
       -0.18527217 0.22798188 0.39274144 -0.44482404
0003c0 aa 06 de 3e da 1d fb be 73 15 f0 3e 6e 8d 2c bf
       0.4336446 -0.49046212 0.46891364 -0.67403305
0003d0 b8 e1 be 3e ba 4b 80 be d9 2c 6a 3f f8 15 0b be
       0.37281585 -0.25057775 0.9147468 -0.13582599
0003e0 d4 69 29 bf 18 8e 02 bf 1a 73 0c bf 5c 00 21 3f
       -0.66177106 -0.5099807 -0.5486313 0.62891173
0003f0 d6 a8 98 bb c2 15 ad 3d 3e 6a 0a bf a5 6d 65 be
       -0.0046587987 0.084514156 -0.5406836 -0.22405107

model/mobilenetv2_0.50_64/expanded_conv_project/Conv2D f4 [8, 1, 1, 16]
000000 f2 78 f8 3e 67 e3 0c bf 5c 13 e0 bd f7 96 c5 3e
       0.48529774 -0.5503449 -0.109411925 0.3859174
000010 c1 cf 00 bd ca 08 01 bf f2 55 82 3e 86 3b 43 bf
       -0.03144813 -0.50404036 0.25456196 -0.762627
000020 7b 2a 97 ba 63 a9 d3 3e f8 6b 45 3f be 13 8a 3d
       -0.0011533046 0.4134017 0.7711787 0.06742047
000030 c5 e4 06 3f b1 21 a8 3d 18 64 0d be b2 74 2c be
       0.52692825 0.08209551 -0.13807714 -0.1684139
000040 13 9d 0d bf 63 c5 29 bf 4a d6 0c 3e 5b b3 39 be
       -0.553178 -0.66316813 0.1375362 -0.18134825
000050 ea ee 36 bf c9 9b 38 bf 93 46 ea 3e 68 11 68 be
       -0.71458304 -0.7211271 0.4575697 -0.2266289
000060 a3 b6 b5 3e 87 5b 39 3f 14 91 b5 3d b4 45 32 bf
       0.35490903 0.72405285 0.08865562 -0.6963761
000070 6e 7a 19 3f 6e 71 70 bd 91 6f 32 bf 90 17 7d 3d
       0.5995244 -0.058701925 -0.69701487 0.06179005
000080 01 23 53 3f 8c f4 b2 3c f7 c1 d9 3e dc d6 0f bf
       0.82475287 0.021845125 0.42530796 -0.56187224
000090 b3 03 e4 3e 35 25 06 bf 68 3c 92 3d e9 b7 5f 3f
       0.44534072 -0.52400523 0.07140428 0.8739
0000a0 ab d6 c1 3d 0b 93 01 3f 73 87 db be d2 8b 00 3f
       0.09464773 0.50614995 -0.42876777 0.5021335
0000b0 73 64 eb 3e 63 3c ba be fa 29 18 3f 1a cc 36 bf
       0.45975074 -0.36374196 0.5943905 -0.71405184
0000c0 70 ac e2 3e 39 e1 20 bf 04 b1 ab 3e cc cf 0a bf
       0.44272184 -0.6284366 0.3353349 -0.5422332
0000d0 a1 04 2e bf a0 e4 15 3f d0 b9 00 3f 9d 4a 22 3f
       -0.67975813 0.5855198 0.5028353 0.633951
0000e0 c4 4d 0c bc 88 c6 bf be 1c f8 af bd 7b 5b cf 3e
       -0.008563463 -0.37456155 -0.08592245 0.40499482
0000f0 e2 b9 13 bf 8b f5 60 3d e4 8a 3a 3f 18 4b fa be
       -0.5770551 0.054921668 0.7286818 -0.48885417
000100 79 a1 81 3f 33 14 65 be 6b 4e 1b bf 48 e2 6c 3d
       1.0127403 -0.22370987 -0.6066653 0.057832986
000110 d8 6d 8c 3e 9d c4 73 be 7d d3 fc be cc 6a 93 3e
       0.27427554 -0.23805471 -0.49380103 0.28792417
000120 87 2f 14 bf a1 4f 2d 3d 69 4a 82 bf 31 91 fc 3e
       -0.5788502 0.04231227 -1.0178958 0.49329522
000130 c6 f3 51 bf 49 bd c2 be 49 80 01 3f 1f ae 08 bf
       -0.82012594 -0.38035038 0.5058637 -0.5339069
000140 ec 17 56 3f ff 98 39 3f 88 56 90 bd b6 3e d5 be
       0.8363025 0.7249908 -0.070477545 -0.41649407
000150 20 9e 31 3d ec 32 48 bf 68 c0 0c 3f 38 d8 47 3d
       0.04336369 -0.782027 0.5498109 0.048790187
000160 d7 e0 1a 3f 46 4b 24 3f a5 7d 1c 3f ed dd da be
       0.6049933 0.6417736 0.6112922 -0.4274744
000170 ee 98 78 3e ad 4f 63 3d 21 e1 5a bf e5 c4 4f 3f
       0.24277088 0.055495907 -0.8549977 0.8115981
000180 28 8a 97 3e 5a d2 65 be 58 c4 af be c9 6e 89 be
       0.29597592 -0.22443524 -0.34329486 -0.26842335
000190 7f 43 9d 3c 49 43 57 be 22 5d 1c 3f c9 bb f3 bd
       0.019197224 -0.21021761 0.6107961 -0.119010516
0001a0 69 e6 2b bf a0 b6 f7 be ba 86 af 3e de fa 9c 3e
       -0.67148453 -0.4838152 0.34282476 0.30660146
0001b0 12 58 a9 3e 39 ea 94 3e 7e f8 e7 be cd 80 2d bf
       0.33075005 0.29084948 -0.45306772 -0.6777466
0001c0 af 23 82 3e 13 46 3e bd e9 ac 03 bf 8b 6a 13 3f
       0.2541785 -0.046453547 -0.51435715 0.57584447
0001d0 70 5e 10 bf fd ba 6d 3e a7 31 9c 3e d7 bf c7 3e
       -0.563941 0.23215862 0.30506632 0.3901355
0001e0 73 07 ef 3d 05 3c d1 be 50 d3 83 3e 6f 2f 37 3e
       0.11671343 -0.40866104 0.25747156 0.17889188
0001f0 5c 77 d3 3d 26 61 56 be 72 a4 09 3f df a6 fa 3e
       0.103255 -0.20935497 0.5376655 0.48955438

model/mobilenetv2_0.50_64/Conv1/Conv2D f4 [16, 3, 3, 3]
000000 f4 d1 80 bc 25 e2 57 bc 60 b6 5e bc 63 3d d6 3b
       -0.015725113 -0.013176476 -0.013593286 0.0065380796
000010 04 1e 68 bb 10 2c 47 bc db fd b4 bb ba a6 64 bc
       -0.0035418281 -0.012156501 -0.005523426 -0.013955766
000020 b7 a8 0f bb 85 1e df ba fe d0 77 bc 6d a2 ad 3b
       -0.002192063 -0.0017022645 -0.015125511 0.0052989037
000030 5e ac 1c bc 20 30 f4 bb e3 32 92 bc 42 11 c2 3a
       -0.00956258 -0.007452026 -0.01784653 0.0014806169
000040 5a 79 d6 ba 21 77 1c 3c 4c c7 32 3c 92 93 0f 3c
       -0.001636307 0.009549887 0.010911774 0.008763211
000050 92 47 b1 3b ea eb 99 bb 29 ed 55 3b d3 cb 64 bb
       0.005410143 -0.0046973126 0.003264258 -0.0034911528
000060 ca 18 d1 3b 2a 6f 68 3c bd 95 30 bc f4 a9 fc 3b
       0.006381129 0.01418666 -0.010777888 0.0077106897
000070 0e b7 d4 bb 74 f9 c4 3c 4c 88 68 39 2f 84 98 bc
       -0.0064915484 0.02404473 0.00022176019 -0.018617718
000080 19 e2 13 3b 69 32 7d 3b 17 15 6c 3c 76 f6 4f bc
       0.0022565185 0.0038634783 0.014409325 -0.012693038
000090 a7 32 06 3b ab d7 be bc 6d 5a 4c 3b fb b1 80 3c
       0.0020476968 -0.023296198 0.0031181828 0.015709868
0000a0 90 96 45 bc 00 ef 94 3c f9 c8 7e 3b d3 f6 c2 3b
       -0.012059823 0.01818037 0.0038877113 0.005949834
0000b0 23 db 8e bb 33 6a 41 3c 03 26 ad 3c 10 55 7c 3b
       -0.004359619 0.011805105 0.02113629 0.003850285
0000c0 c2 30 51 3c d8 0b c7 3c 35 05 8e 3c 48 e9 b2 bc
       0.012767972 0.02429764 0.017336467 -0.021839753
0000d0 cd c6 b9 bc 3d 9a 44 3b 7f 93 bc bb 21 63 4d 3a
       -0.022677803 0.002999916 -0.0057548876 0.0007834901
0000e0 51 d8 e2 bc e1 d4 b9 3c ec 4d 7b 3c 06 63 f7 bb
       -0.027691038 0.022684516 0.015338402 -0.0075496463
0000f0 e1 79 6c bc 74 65 28 bd f6 69 37 3d 7c 1a 80 3d
       -0.014433355 -0.04111238 0.044778787 0.062550515
000100 1b ad 20 3c a2 cc 76 3c 63 4e 69 3d 2b 59 06 3c
       0.009806897 0.015063437 0.05695952 0.00819997
000110 ba 2c c3 bb 4d 7d 0f 3d a6 6e 73 3d f4 0d 5f bd
       -0.0059562596 0.035031606 0.059431694 -0.054456666
000120 71 b8 cf 3c 46 aa 21 3d c9 37 8b bd e0 ca 83 bd
       0.025356503 0.039469026 -0.067977495 -0.0643518
000130 78 26 ff bc 1b 37 09 bd 34 d2 7b 3d 70 5e f2 bc
       -0.031146273 -0.03349982 0.061479762 -0.029586047
000140 9c d7 1a bd 64 e2 39 bc 82 dc bd bb b8 34 7f bc
       -0.037803277 -0.01134548 -0.005794109 -0.015576534
000150 cf ed 97 39 7a 27 a3 ba 19 c7 75 bc 25 88 43 bc
       0.00028978146 -0.0012447678 -0.015001082 -0.011934315
000160 56 31 b6 3b da ac 59 bc bb 07 7a bc 54 e8 52 bc
       0.0055600805 -0.01328584 -0.015260632 -0.012872774
000170 49 c4 fa ba c5 e5 c9 38 74 ea 3d 3c 60 b0 97 bc
       -0.0019131984 9.627225e-05 0.0115915425 -0.01851672
000180 13 7b ec bb be c5 b7 bb 57 9a 5d 3c 4e 1d 35 3c
       -0.00721682 -0.0056082895 0.013525567 0.01105435
000190 b8 91 1f 3c 64 58 04 3c 50 c9 8c bc d7 1e 68 3b
       0.009739332 0.008077715 -0.017185837 0.0035418773
0001a0 0f fe d9 bb be d6 34 3c 52 b6 85 3b eb 84 6f ba
       -0.0066526006 0.011037527 0.004080572 -0.0009136933
0001b0 13 f7 44 bc f5 9c 0c bc 4e 3a 34 3c 77 4e 8c bb
       -0.012021798 -0.008582343 0.011000229 -0.0042818147
0001c0 c9 38 81 3c f6 09 3f bc d4 ac 49 3c e6 6a 8f bb
       0.015774148 -0.01166009 0.012309272 -0.004376757
0001d0 be ed 42 bc cd 9e b0 bb 93 2e cc bb 25 86 74 bc
       -0.0118975025 -0.0053900243 -0.006231138 -0.014924561
0001e0 0a 01 a8 bb c7 aa f4 3b 3c e9 fc bb dc 0f 7a 39
       -0.005127077 0.0074666473 -0.0077182334 0.00023847766
0001f0 7c dc 67 bc 67 66 60 3c cd f0 88 bc 57 3f 05 3c
       -0.014151689 0.01369629 -0.016716385 0.008132777
000200 3f c6 05 bc b4 03 3f 3c d5 92 81 bc db dd 65 bc
       -0.008164941 0.011658598 -0.015817085 -0.014029945
000210 e2 44 a3 3b be 14 a8 3b e9 59 6c bc 02 78 13 bc
       0.0049825767 0.005129426 -0.014425733 -0.00900078
000220 4f c6 d2 3c cb 3a bb 3a 88 63 ae 3b 22 42 eb bb
       0.025729327 0.001428449 0.0053219236 -0.0071795145
000230 d5 df e6 3b ff 74 84 3b 48 3d ec 3b 8a d6 69 bb
       0.007045726 0.0040422673 0.0072094537 -0.0035680854
000240 e2 53 93 bb 6e 51 67 3c d4 42 bf bc 08 01 9d bb
       -0.0044960836 0.014118535 -0.023347296 -0.0047913827
000250 09 5a 50 bb 52 36 99 bc 33 13 c3 3c 7d 57 7f 3c
       -0.0031791946 -0.01870266 0.023812866 0.015584824
000260 e2 d2 9d 3b a9 e6 57 bc 76 e9 5a bc 96 31 4f bc
       0.004816399 -0.013177552 -0.0133613255 -0.0126461
000270 b0 2a 7b bc 6a 21 d9 bc 6e 7b c0 3c b1 3a 6d bc
       -0.015330002 -0.02650519 0.023496356 -0.014479325
000280 85 34 95 bb 6c 36 d6 bc e7 0c fc bc 85 06 c0 3c
       -0.00455338 -0.026148997 -0.030767871 0.023440609
000290 0d f5 f8 3c 75 2a 08 3c ba 02 5e 3c f0 df 17 bc
       0.030390287 0.008310904 0.013550455 -0.009269699
0002a0 51 d0 e5 bb 12 bb 9a bb 58 47 18 bc ef 95 eb ba
       -0.0070133586 -0.0047220076 -0.009294353 -0.0017973761
0002b0 cd df a6 3b ec c7 ba 3c dc fd 1f bd 86 e2 dc 3c
       0.005092597 0.022800408 -0.03906046 0.026963484
0002c0 58 31 2e 3c ff 98 b1 3b f1 f0 54 bc 89 e6 07 bd
       0.010631882 0.00541985 -0.012996898 -0.03317884
0002d0 ec 51 ca 3c e6 75 26 3c a2 d9 00 bd 7e 40 4d 3b
       0.024697267 0.010159945 -0.03145755 0.0031318958
0002e0 2a 82 ec 3b d8 56 67 bb e5 f0 04 bd 2e 7d 7a ba
       0.007217665 -0.0035299566 -0.032456297 -0.00095553964
0002f0 70 e0 ff bc fe 10 03 3c 38 1b 24 3d fd 7c 2b bd
       -0.03123495 0.007999657 0.04006502 -0.041867245
000300 49 1e 62 bd 9b 3a 4c bb 52 1c 1f 3c 56 e6 93 3c
       -0.055204663 -0.0031162861 0.009711342 0.018054169
000310 2a 22 4a bd be 67 cd 3c 50 25 93 3c 3c 68 65 bd
       -0.049348988 0.025073882 0.017962128 -0.05600761
000320 50 dd 08 3d 74 8e 31 bb fe e0 43 3d 69 9c c3 bc
       0.033414185 -0.0027092965 0.04782199 -0.023878293
000330 27 97 cb bc 8a 45 71 3d 88 ff 95 3c 1e 99 39 bd
       -0.024852348 0.05890421 0.018310323 -0.04531204
000340 09 3e c8 bc 94 e9 1d 3d 02 7d 34 3c 6d 34 f9 3c
       -0.024443643 0.038552836 0.011016132 0.030420506
000350 55 92 a5 bc 05 e3 4f bd 3a 17 0c bd aa c3 df ba
       -0.020211378 -0.050753612 -0.034201838 -0.0017071862
000360 49 45 0e bc 6d 33 74 3b 54 de 6a bc 5e 37 8b 3b
       -0.008683511 0.0037262097 -0.014335234 0.0042485436
000370 36 c9 18 bc e4 05 4f 3b a4 72 cc bb 43 9e 83 bc
       -0.009325316 0.0031589204 -0.006239252 -0.016066676
000380 ca 4f 0e bc d0 d6 92 3b 5a 34 7a bc 46 44 41 bc
       -0.008686015 0.004481174 -0.015271271 -0.011796063
000390 69 2c 0f bc 10 3c 82 bb d5 67 32 bc 19 b3 35 38
       -0.008738616 -0.003974445 -0.010889013 4.332056e-05
0003a0 c5 f5 48 bc 9f 6a 6a 3b 2b c5 00 3b b5 fe 6b 3c
       -0.012265627 0.0035769118 0.0019648771 0.014403989
0003b0 c1 e5 f0 bb 5b 4f 27 3c 3a 21 f7 3b 54 12 4e bc
       -0.0073516075 0.010211791 0.0075418027 -0.012577612
0003c0 7c 5c 57 3c 78 12 2b bc c1 b0 97 3b 2d 8c 17 bd
       0.013144609 -0.010441415 0.004629225 -0.036998916
0003d0 1e b7 0b bd af 4b f2 3c 82 54 d4 3b 8c 17 58 bd
       -0.03411018 0.029577104 0.0064798007 -0.05275683
0003e0 5d 18 01 bd d8 71 ae 3b 5f b7 82 bb 90 76 0d 3d
       -0.031517375 0.00532363 -0.0039891447 0.034536898
0003f0 5a 22 5b 3b 3e 6d 2b bd 9f b7 5c bd 4b cb bc bc
       0.0033437223 -0.04185223 -0.053886052 -0.023046156

model/mobilenetv2_0.50_64/block_16_project_BN/FusedBatchNormV3 f4 [160]
000000 29 1f 91 bf 11 55 91 bf 95 07 d7 be 4d 74 6b bf
       -1.1337634 -1.1354085 -0.41997972 -0.91974336
000010 74 af 30 bf 82 2e 92 3e 3c 85 76 bc 9c 5d c5 3f
       -0.6901772 0.28551108 -0.015046414 1.5419192
000020 54 c6 40 3f 92 d4 5d 3f 3f cf 81 3e 42 40 e3 3e
       0.75302625 0.8665248 0.2535343 0.44384962
000030 1b 43 3a 3d 10 49 49 be 52 e2 45 3e 08 08 58 3e
       0.045474153 -0.19656777 0.19324616 0.21096814
000040 95 e6 25 be 68 d0 69 bf 96 88 80 be 92 36 c0 bc
       -0.16201241 -0.9133363 -0.25104207 -0.023463521
000050 05 20 c7 3f 4d de 53 bf e7 98 28 bf 46 6b 5d be
       1.5556647 -0.8276108 -0.6585831 -0.21622953
000060 fe d8 39 3f 0d a0 32 bf b1 18 47 3d 5b 81 29 bf
       0.7259673 -0.6977547 0.048607532 -0.66213006
000070 0f 73 10 bf 26 73 b1 bd d7 75 e0 3e 41 74 c3 bf
       -0.56425565 -0.08664541 0.43839905 -1.5269853
000080 c8 99 19 3e d0 c0 c4 be ce e8 f8 3e 5d cc 37 bd
       0.15000069 -0.38428354 0.48615116 -0.04487263
000090 68 4e b5 3c 8d 7d 3c bf 3d ff ca 3e 49 91 0f bf
       0.022132114 -0.73629075 0.39647856 -0.5608106
0000a0 d8 3c cb be e4 d6 60 3e d9 81 00 3f 98 19 4e 3f
       -0.39694858 0.21956974 0.5019813 0.805078
0000b0 0a 03 50 bf c5 33 97 be 07 3e 81 3e ff 1c a6 be
       -0.8125464 -0.29531685 0.25242636 -0.32443997
0000c0 10 16 52 3e a7 87 53 be 5d ca cf 3e 9a 5e b0 3e
       0.20516229 -0.20657216 0.40584078 0.34447175
0000d0 59 e7 25 3e e0 64 02 bf 8f 26 b5 3f 11 1b 2b bf
       0.16201533 -0.50935173 1.4152392 -0.66838175
0000e0 d9 71 d0 bd e9 12 1f bf 53 7a 42 3f fa 1d 23 bf
       -0.10177965 -0.6213823 0.759679 -0.63717616
0000f0 c7 53 31 3f 71 bb 74 be 9f 62 96 3f a7 92 89 be
       0.6926846 -0.23899628 1.1748847 -0.268697
000100 29 16 f8 be af 47 0c 3f 85 e8 fc 3d ab 97 15 bf
       -0.48454407 0.5479688 0.12349037 -0.5843455
000110 22 ea 87 be 6a da 2b bf 04 13 18 3e fe e9 82 bf
       -0.26545817 -0.6713015 0.14851004 -1.0227659
000120 52 8d e4 3e 31 50 99 3e 3e 3a 06 bf 5b fe d9 be
       0.4463907 0.29943994 -0.5243262 -0.4257687
000130 2a d6 1a 3f 04 b1 f4 3e 30 3b 99 be 6a 4e 23 bf
       0.6048304 0.47791302 -0.2992797 -0.63791525
000140 e4 50 3f bf 4d cd f9 3e e5 75 21 3f 52 bf 52 bf
       -0.74732804 0.48789445 0.6307052 -0.8232318
000150 ef 40 1e 3f b1 52 00 3e b4 85 6b be ee 86 81 3f
       0.6181783 0.12531544 -0.23000222 1.0119302
000160 9b e9 2f 3f 66 87 c7 3f 0e ce 16 bf f4 a4 a1 be
       0.6871583 1.5588195 -0.58908165 -0.31571162
000170 1a 76 6f 3e d1 a7 e0 3d 87 03 54 be 96 e2 b6 3d
       0.23384896 0.109695084 -0.2070447 0.089299366
000180 21 a7 1d bf 81 2e ba 3e 6c 93 2e 3f 31 01 70 3f
       -0.61583143 0.36363605 0.681937 0.9375182
000190 d4 03 85 3e b2 60 40 be cc 3e 4b 3d 45 59 60 3e
       0.25979483 -0.18786886 0.049620435 0.21909054
0001a0 af 50 9b bd c5 44 08 3f 79 c5 fb 3e 16 81 60 bf
       -0.075837485 0.53229934 0.49174097 -0.8769697
0001b0 cd ff 4e bf 49 d2 bb 3e 3c 7a f8 be 0a 84 6c be
       -0.8085907 0.36683872 -0.48530757 -0.23097244
0001c0 4e db a1 3e cf e0 0c bf 4e 28 dc be 87 c8 44 3f
       0.3161263 -0.5503053 -0.429995 0.7686848
0001d0 e0 00 48 3e a7 56 8b 3f 09 87 07 bf 93 f2 b8 3e
       0.19531584 1.0885819 -0.5294042 0.3612257
0001e0 3a 0b c9 3e a3 76 23 be 30 58 48 bf d4 43 76 be
       0.39266378 -0.15963225 -0.78259563 -0.24049312
0001f0 c0 bc 23 bf 76 bc b5 be 03 13 cc bd ae 5b c1 3e
       -0.63959885 -0.35495347 -0.09964564 0.3776526
000200 39 36 89 be 03 6c f3 3e 8d a4 20 bc 47 12 42 3f
       -0.2679918 0.47543344 -0.009804857 0.7580914
000210 4d 3f cb be e8 6f 86 3f 5c 76 ab 3e 24 aa 7c 3c
       -0.39696732 1.0502901 0.3348874 0.015421424
000220 d9 35 3d bf 0d 38 0c bf ac 98 b8 3c ce c9 2d 3d
       -0.7391029 -0.54773027 0.022533737 0.042428784
000230 b7 78 2f bf 87 44 2d be a2 aa 95 bf 96 55 6e bf
       -0.6854357 -0.16920672 -1.1692698 -0.93099344
000240 52 73 24 3f 1a ff 15 3e 00 9c 81 3e 6b db 46 be
       0.64238465 0.14648095 0.2531433 -0.19419639
000250 a6 8c eb be c8 28 a4 bd 71 fa 19 bf 02 be 55 3f
       -0.46005744 -0.08015591 -0.6014777 0.83493054
000260 18 76 18 bc 1c 17 59 be 83 2c f1 bc b6 44 57 3f
       -0.0093054995 -0.21200222 -0.02944017 0.8408922
000270 3c bd 4f bf b1 83 a2 be 05 b1 f6 3e 5c db 2f 3e
       -0.81148124 -0.31741098 0.4818193 0.17173523

model/mobilenetv2_0.50_64/block_15_project_BN/FusedBatchNormV3 f4 [80]
000000 91 5a 1a 3f 55 7d 68 3f 54 e2 53 3f d4 c9 13 3f
       0.60294443 0.9081624 0.82767224 0.5772984
000010 40 60 21 bf b1 fa b9 3e 45 e6 67 bf 93 aa 9f 3e
       -0.6303749 0.36324075 -0.9058574 0.31184825
000020 53 3e d5 be 19 49 01 3f c7 b1 99 be 55 2c 0d bd
       -0.41649112 0.50502163 -0.30018446 -0.034466106
000030 48 b3 82 3d 37 0e 03 bf af 01 5b 3f 68 07 b4 bf
       0.063818514 -0.51193565 0.85549444 -1.406476
000040 08 e1 8b bb ae 0a a2 3d e5 9d be 3e bd 82 45 3e
       -0.004268769 0.07912193 0.3722984 0.19288154
000050 86 34 70 3d 81 83 7b bf 27 08 f5 3e f6 49 48 bf
       0.05864384 -0.98247534 0.47857782 -0.78237855
000060 91 e6 42 be cb a3 3a 3e c2 6c a6 3f c5 52 46 3f
       -0.19033267 0.18226545 1.300194 0.77470046
000070 a7 0e 62 bd 32 04 b8 3c 61 e8 a7 bf 17 ad 88 3e
       -0.055189755 0.022462938 -1.3117791 0.26694557
000080 4b 28 98 bf 55 16 de bc cc 78 d6 3e 8c df bb 3d
       -1.1887296 -0.027110258 0.41889036 0.091734976
000090 16 c1 f7 3e 3e 28 1b 3f 5c 66 08 bf 5b 99 a2 3e
       0.483895 0.6060828 -0.5328119 0.31757626
0000a0 1f 4e 8a 3f 95 70 d2 be 74 3b 87 be 1a 27 25 bf
       1.0805091 -0.41101518 -0.26412547 -0.6451279
0000b0 5d 9c ac bd 16 0a 0f 3e 75 9a af 3d 99 89 3e 3e
       -0.084282614 0.13968691 0.08574382 0.18607177
0000c0 6e e0 91 3d 8b b4 88 3f b1 21 4d 3f 2a 86 bf be
       0.07122885 1.0680097 0.80129534 -0.37407047
0000d0 54 fe 44 3d 17 52 03 bf 49 f1 07 3f 20 d4 b4 be
       0.04809411 -0.51297134 0.53102547 -0.3531809
0000e0 e8 18 81 3e b0 c5 ad be 51 ff 06 be 63 56 13 3f
       0.25214314 -0.33939886 -0.13183333 0.5755369
0000f0 9a af 43 3f 32 70 2a 3f 07 61 a4 3e b9 88 9e be
       0.7643982 0.66577446 0.32105276 -0.30963686
000100 e5 40 b3 3d 6f f5 83 3d 07 56 55 be d8 8e a7 3e
       0.08752612 0.06443297 -0.20833598 0.3272617
000110 c0 34 12 3f 0f 08 3f 3e e9 6d 1b bd cf fc 17 3f
       0.5711174 0.18655418 -0.037946615 0.5937013
000120 a5 5c 40 bf 1c 0d bd 3e ea ec a3 be e6 1c 6c 3e
       -0.75141364 0.36924064 -0.3201669 0.23057899
000130 c4 b5 fa 3e ce 5a e1 3d 99 77 7b bf 4a c4 3f bf
       0.489668 0.11003648 -0.98229367 -0.7490889

model/mobilenetv2_0.50_64/block_14_project_BN/FusedBatchNormV3 f4 [80]
000000 77 4e c5 3c 92 09 5f bf ec 59 c7 3e a0 cc 04 3e
       0.024085267 -0.8712398 0.38935792 0.12968683
000010 8f 42 19 be 2f 80 d0 3e 47 bd 3f bd d7 a2 90 be
       -0.14966796 0.40722796 -0.04681137 -0.28249237
000020 5f ee 82 bf 47 30 2f 3e 87 83 87 be 8e 61 5c 3f
       -1.0228995 0.1710826 -0.26467535 0.86086357
000030 04 3a 6c be a9 70 0f bf dc 4e 49 bf 0d ed 3c 3f
       -0.23069006 -0.5603128 -0.78635955 0.7379921
000040 c5 eb 3d be e5 a0 fc 3e 7f 8d ee be 90 66 4c 3c
       -0.1854697 0.49341503 -0.46592328 0.012475625
000050 c2 dd 81 3f 5b 8d 38 bf 13 5c 0b bf ea e9 e8 3e
       1.01458 -0.7209069 -0.5443737 0.45490962
000060 9f 88 67 3e 9f f3 90 bf 84 86 67 3f d2 93 88 3f
       0.2261071 -1.1324347 0.9043963 1.0670111
000070 5e cc 24 bf 59 bb 4a bf 38 d4 0a bf de 1c b9 be
       -0.6437434 -0.7919212 -0.5423007 -0.36154836
000080 aa a8 84 3e b7 1f 78 3e 39 a2 af 3e 86 23 69 be
       0.2590993 0.24230848 0.34303454 -0.22767457
000090 25 48 81 3f dd 54 7f be f7 b3 aa 3e 00 ab 12 bf
       1.0100142 -0.24934717 0.33340427 -0.57292175
0000a0 e4 c7 bf 3e 6d 75 c9 3e dc b8 81 3e bb 5f a3 be
       0.37457192 0.393474 0.2533635 -0.31908974
0000b0 b0 c9 4d bf 81 6b 45 3e 6e 96 93 bf 06 53 c4 be
       -0.80385876 0.1927929 -1.1530282 -0.38344592
0000c0 5d 95 72 3e db f8 37 bf dc 01 39 3f a7 c2 70 be
       0.2368979 -0.718641 0.7226846 -0.23511754
0000d0 e3 22 a5 bd 88 4d c3 3e 5b 21 a3 be 1a 74 5f 3e
       -0.08063295 0.3814509 -0.31861386 0.21821633
0000e0 3d 28 83 3d 40 ee 0a bc ec 38 db 3e 8d a5 96 be
       0.06404159 -0.008479655 0.42816865 -0.2942318
0000f0 23 53 dc 3e b6 ac 95 be 03 4b 11 bf e4 97 40 bd
       0.43032178 -0.2923333 -0.56755084 -0.047019854
000100 c0 17 ff 3e 14 3f 31 3f b8 ce 1b 3f 1a 72 eb 3e
       0.49822807 0.69236875 0.608623 0.4598549
000110 61 a3 17 3e 16 0f 31 3f 11 91 b8 3e 39 ee 8a bd
       0.14808418 0.69163644 0.36048177 -0.067837186
000120 97 cb 56 3f 4d 88 19 3f 02 2e 49 3e 00 19 8b 3e
       0.83904403 0.59973603 0.19646457 0.2716751
000130 6e 87 ea 3e dd 88 9f bf fe f1 d1 be a0 5c 0d be
       0.4580645 -1.2463642 -0.41004938 -0.13804865

model/mobilenetv2_0.50_64/block_13_project_BN/FusedBatchNormV3 f4 [80]
000000 58 8b 85 bd 79 77 20 bf 26 6c e8 be 0e b2 1d 3e
       -0.06520718 -0.626823 -0.4539501 0.15399954
000010 3e e9 18 bf e2 83 3f 3f bb 78 ba be 7c b6 74 3f
       -0.597309 0.7481061 -0.36420235 0.9559095
000020 04 a7 b2 bc 9d a3 39 3f a0 16 88 be f6 f5 c1 3e
       -0.021808155 0.7251528 -0.26579762 0.37882966
000030 16 c0 72 bd 61 56 31 bf 7e 52 97 3f ce e4 ed be
       -0.05926522 -0.6927243 1.182205 -0.46463627
000040 f9 c6 0d 3f 78 62 d2 be 70 98 1c 3f d2 62 d2 3e
       0.55381733 -0.4109075 0.611701 0.4109102
000050 4c 00 43 3f 56 0f ec 3e e8 a6 36 bf a1 df 43 be
       0.7617233 0.4610545 -0.7134843 -0.19128276
000060 eb 52 bd bd c5 3a 11 3e 8e 67 89 3e d8 ed 91 bd
       -0.09244331 0.14182575 0.26836818 -0.07125443
000070 bb b0 df 3e c8 b8 89 3c 8b 5c 32 3e c5 8a a3 bf
       0.43689522 0.016811743 0.17418115 -1.2776724
000080 61 fe cf be 81 b1 dc 3e 98 37 85 be 28 9a 43 bf
       -0.40623763 0.43104175 -0.26018977 -0.764071
000090 60 66 86 bd ae 33 c2 3d 19 f3 c1 bc cf 49 99 be
       -0.06562495 0.09482513 -0.023675488 -0.29939124
0000a0 4e 0e 3e be f6 bc 32 3e 3f b3 5e 3f 20 1f ce 3e
       -0.18560144 0.17454895 0.8699226 0.40258121
0000b0 77 d3 44 be 45 da 94 be 6b c5 8d bf fc 98 47 bf
       -0.19221292 -0.29072776 -1.1075872 -0.7796781
0000c0 23 d8 0a 3f 5c 4d 48 3f 03 3a 89 3e af 4a 06 bf
       0.5423605 0.7824304 0.26802072 -0.5245771
0000d0 d9 74 87 3e 73 16 8c be be 56 47 3f 39 2d 27 bd
       0.26456335 -0.27360877 0.77866733 -0.040814612
0000e0 99 1a a6 bc 6d 42 84 bc ee 60 d6 3d b0 25 83 3e
       -0.020276355 -0.016144956 0.104677066 0.2561469
0000f0 01 4d 90 3e 00 c1 87 bf a2 cd ca be cb ff 05 3e
       0.2818375 -1.0605774 -0.3961001 0.13085859
000100 f6 74 4f bf 79 5c 5e bd 04 f1 4f 3b 28 36 3b be
       -0.81037843 -0.054287408 0.003172935 -0.18282378
000110 25 94 42 be bb dd 4d 3f aa ed d1 bf db 24 de 3e
       -0.19001825 0.8041646 -1.6400654 0.43387493
000120 a4 09 80 bc 25 b0 6c be c9 d4 ba 3d a1 b0 95 3e
       -0.015629597 -0.23114069 0.09122617 0.2923632
000130 32 ad 36 3f f3 e8 53 be 1b 0f 88 be ac 03 8c 3e
       0.71358025 -0.20694332 -0.26574025 0.2734655

model/mobilenetv2_0.50_64/block_12_project_BN/FusedBatchNormV3 f4 [48]
000000 1d b3 82 be c0 9d 15 3e 9c 2a 03 bf 77 fa 7e 3c
       -0.25527278 0.14610958 -0.5123689 0.015562645
000010 96 95 9b 3f 49 af cd be 53 77 8f be 01 87 21 bf
       1.2155025 -0.40172794 -0.28020725 -0.63096625
000020 fa cf 0c 3e 46 ea 50 bf a7 e0 c1 3e ad 49 85 bc
       0.13751212 -0.8160747 0.3786671 -0.016270483
000030 68 f3 40 3f af f9 79 bf 41 41 c6 3e eb f1 15 bd
       0.7537141 -0.9764661 0.3872166 -0.036607664
000040 fe 42 a4 3a 19 b7 4b 3d b1 9a 7c 3e 8c 3a 81 3f
       0.0012532172 0.049735162 0.24668385 1.0095992
000050 70 16 cc bd 66 80 ad 3e fe 42 9d bf 3b f7 9b 3e
       -0.09965217 0.33887023 -1.2286069 0.3046206
000060 1f 5f 97 3e 2e a4 8a bd 9d cf 74 3f f9 89 20 3f
       0.2956476 -0.06769596 0.9562929 0.6271053
000070 fb c9 af 3c 02 ef 32 3f c4 6a ea 3e 00 27 03 bf
       0.021458616 0.69895947 0.4578458 -0.51231384
000080 7f 1b a9 bd 56 e5 11 bf f5 55 da bb 18 88 6b 3e
       -0.082571976 -0.56990564 -0.006663079 0.23001134
000090 f6 f0 a1 3d 6e 7b c3 3e d1 21 02 3e 08 23 1d bf
       0.07907288 0.38180107 0.12708212 -0.6138158
0000a0 bb 91 ca be 6a f2 23 3d ab 7b 7a bf e1 fd dc 3e
       -0.3956431 0.040026106 -0.9784495 0.43162444
0000b0 e9 72 34 3f 4f 03 71 be ab ae 21 3f bd 24 1c 3d
       0.7048784 -0.23536418 0.6315715 0.038120974

model/mobilenetv2_0.50_64/block_11_project_BN/FusedBatchNormV3 f4 [48]
000000 c1 40 51 3e 66 07 1b 3e 5e 87 43 3f 37 7e 4c 3d
       0.20434858 0.15139541 0.7637843 0.049925055
000010 d5 5c f7 be 75 30 1c bd 43 70 64 bf 7c 24 e0 be
       -0.48313013 -0.03813215 -0.892338 -0.43777835
000020 3e 5e fd 3c 9c 4b a4 be 87 79 20 3e 48 2f c4 be
       0.030928727 -0.32088935 0.15671359 -0.38317323
000030 04 04 1e bf 16 4f 4c bf ee 4c 91 bf 15 e5 fc 3e
       -0.6172488 -0.79808176 -1.1351602 0.49393526
000040 3c 66 50 be 91 a6 26 bf bb 72 85 be d4 d8 f4 3e
       -0.203515 -0.6509791 -0.26064095 0.47821677
000050 62 53 1b 3f 09 23 c3 3d ca 46 c7 be 4d a4 b3 be
       0.6067411 0.09528167 -0.38921195 -0.3508629
000060 7b 88 86 3e 4b c5 64 be d8 09 bd 3e 3c 2d c5 3e
       0.26276 -0.22340886 0.36921573 0.38511074
000070 3a cb 19 bf 59 9e a3 3d 26 2e c9 3d 96 68 9f bd
       -0.60075724 0.07989187 0.09823255 -0.0778362
000080 36 46 f9 3e e0 bc 35 3e d5 66 10 3e 32 8b e2 be
       0.4868638 0.17747831 0.14101727 -0.44246823
000090 b6 70 44 3f dc 53 84 bf d2 89 54 be 0e c1 8c bf
       0.76734483 -1.0338092 -0.207557 -1.0996416
0000a0 42 b6 c4 3e b9 d7 c2 3e c4 1e 1e bf 9c cf d0 3e
       0.38420302 0.38055208 -0.61765695 0.40783393
0000b0 ba 00 cb 3e 98 a7 f2 be 7f 3f b4 3c 5e c7 e0 be
       0.39648992 -0.4739349 0.022002934 -0.43902105

model/mobilenetv2_0.50_64/block_10_project_BN/FusedBatchNormV3 f4 [48]
000000 73 7d 8d 3f 1c b9 94 3e 56 a2 ca be 65 cf 91 3f
       1.1053909 0.29047477 -0.39576977 1.1391417
000010 51 98 0f bf 15 87 3d 3e ed ac 84 be 09 d9 87 be
       -0.5609179 0.18508561 -0.25913182 -0.26532772
000020 0f 71 d9 be 65 cf 9a 3c 82 61 ad bf 1d 90 0f 3f
       -0.4246907 0.018897722 -1.3545382 0.56079274
000030 ff 09 2c 3f 0b fc 0c be 78 89 95 bf c4 14 b5 3e
       0.6720275 -0.13768022 -1.1682577 0.35367405
000040 71 3f 5a bf a7 09 82 bf f5 c3 63 3e 0d 08 76 be
       -0.85253054 -1.0159196 0.2224272 -0.24026509
000050 10 43 d0 be dc 3c d4 3e 3d 29 16 be f0 68 92 3e
       -0.40676165 0.41452682 -0.14664169 0.28595686
000060 e7 14 15 bf 6a 31 4f bf 8f 72 bb be ef 33 a0 be
       -0.5823502 -0.80934775 -0.3661084 -0.31289622
000070 0c bb b4 3d 35 5b 3d 3d 09 ae 9c be 0f aa db be
       0.08824739 0.04622956 -0.30601528 -0.42903182
000080 7c 43 90 bf aa ab 3a 3f db 32 0a 3f 0b 45 2a 3f
       -1.1270595 0.7291819 0.5398385 0.665116
000090 78 fc f5 3e 6d 1f 07 be 74 17 99 3e 63 8c a0 3e
       0.4804418 -0.13195582 0.29900706 0.31357107
0000a0 e3 8a af 3b 69 76 91 bf db df 2a bf ea 56 0b bd
       0.0053571328 -1.1364261 -0.66747826 -0.034018435
0000b0 39 27 45 3e 7c 1f a4 3d 71 39 f5 be e9 35 17 3f
       0.19253244 0.08013818 -0.47895387 0.59066635

model/mobilenetv2_0.50_64/block_9_project_BN/FusedBatchNormV3 f4 [32]
000000 0a ea b8 3e 5f 34 4a 3f 92 79 ff bd 46 76 9d 3e
       0.36116058 0.7898616 -0.124743596 0.30754298
000010 8e a1 46 3f 3d 76 08 3f 58 14 47 3f 8a ad 72 bf
       0.7759026 0.5330542 0.7776542 -0.9479605
000020 bd 32 f0 3e f6 b6 7b bf 7e 58 ca be 97 15 a7 3e
       0.4691371 -0.9832605 -0.3952064 0.3263366
000030 f8 f2 62 be 4d 1b c8 3e e8 23 11 3f 57 b9 00 bf
       -0.22162998 0.3908333 0.56695414 -0.50282806
000040 7e 64 92 3e 94 91 df 3e 49 38 3b 3f f4 00 e3 3e
       0.28592294 0.43665755 0.7313276 0.44336665
000050 8e 96 24 3f 7b cf b3 bf c9 e1 8b 3f 22 64 d1 3e
       0.6429223 -1.4047693 1.0928279 0.40896708
000060 d1 91 58 be 35 bb 91 ba 0f 1c 43 bf 42 d2 4b bf
       -0.21149375 -0.0011118414 -0.7621469 -0.796177
000070 14 1a a8 bd 81 8d 96 3e fc 81 64 3d a2 d7 16 3f
       -0.08208099 0.29404834 0.055788025 0.5892278

model/mobilenetv2_0.50_64/block_8_project_BN/FusedBatchNormV3 f4 [32]
000000 8f 58 a5 bf de aa fb be 03 76 ea be 23 c2 2d 3f
       -1.2917651 -0.491538 -0.4579316 0.67874354
000010 84 08 5d be 7e f0 59 3f 4a e2 24 bf ea 23 33 bf
       -0.2158528 0.85132587 -0.6440779 -0.69976676
000020 9f ca 0b be fa 53 e5 3e 1a 5b 19 bf 1b a6 5f 3e
       -0.13651513 0.44790632 -0.59904635 0.21840708
000030 97 57 2d bf de b4 3e 3f 1a e3 ce be ff ed 8a be
       -0.67711776 0.7449473 -0.4040764 -0.27134702
000040 4a 09 1e 3f 33 4d 57 3f e7 76 81 be 67 40 16 bc
       0.61732924 0.8410217 -0.25286028 -0.009170628
000050 e6 96 da 3d a1 0b 55 be a9 e8 06 3e 50 d3 09 bf
       0.10673313 -0.20805217 0.1317469 -0.5383806
000060 26 65 4b 3e 25 15 b9 3d 24 a9 48 be a6 2a 18 3f
       0.19862804 0.09037236 -0.19595772 0.59440076
000070 1d 11 cd bd b4 60 ef 3e 84 6a 4d bf 4a 1f 55 3d
       -0.1001303 0.46753466 -0.80240655 0.052031793

model/mobilenetv2_0.50_64/block_7_project_BN/FusedBatchNormV3 f4 [32]
000000 10 85 fa be 7c 17 66 be 7a da d8 3e d9 02 eb bd
       -0.48929644 -0.22469896 0.42354184 -0.114751525
000010 64 7b c6 3e 44 50 d5 3e 21 12 cd be 09 29 a5 be
       0.38766015 0.416628 -0.40052894 -0.3225787
000020 b2 79 b6 be 7c c3 7a 3d bd d3 5a be 56 a5 ad be
       -0.3563972 0.061221585 -0.21369834 -0.33915204
000030 06 7d 36 be 26 aa 57 3e 03 ce ad 3d 62 2a 73 bd
       -0.1782113 0.21061 0.08486559 -0.05936659
000040 ab 9a ad bd 6a 35 96 bf 6f 3e b6 be 37 60 88 3e
       -0.08476766 -1.1735051 -0.35594508 0.26635906
000050 06 91 7a bf e1 03 63 3e b6 1f b2 bc ba 31 a9 3e
       -0.9787754 0.22169448 -0.021743637 0.3304575
000060 43 ab 44 3f b1 65 45 bd 93 9c 4a bf fb dd 49 bf
       0.76823825 -0.048192684 -0.79145163 -0.7885434
000070 61 5a 03 3e 30 1a 84 3e 4f 27 e3 be 47 43 63 be
       0.12827446 0.2580123 -0.44365928 -0.22193633

model/mobilenetv2_0.50_64/bn_Conv1/FusedBatchNormV3 f4 [16]
000000 be 29 06 c0 a6 dc ef 3f 9f 6c 82 3f 74 84 08 c0
       -2.0962977 1.8739212 1.0189399 -2.1330843
000010 ac 43 0b c0 de c8 d3 bf 37 dd ac bf 11 da ee bf
       -2.1760054 -1.6545675 -1.350501 -1.8660299
000020 d9 f1 0d c0 af f1 5c bf f6 10 0f c0 9e 7c a4 3e
       -2.2178862 -0.8630628 -2.2354102 0.32126325
000030 d4 9e 0c 40 2a cc d9 bf be d1 e4 bf 7b a4 d0 3e
       2.197194 -1.7015431 -1.7876508 0.4075049

model/mobilenetv2_0.50_64/expanded_conv_depthwise_BN/FusedBatchNormV3 f4 [16]
000000 7f 42 b5 3d c3 93 be 3d 40 34 51 bf e0 b2 1e bf
       0.08850574 0.09305527 -0.8172035 -0.6199169
000010 3a 3d 1e bf d2 ab f8 be 2b 0f 38 3f ce a9 1f 3f
       -0.61812174 -0.48568588 0.71898144 0.62368476
000020 2c 0b 23 bf 23 19 19 bf 39 7d 4a bf 4d 06 79 3e
       -0.6368892 -0.5980398 -0.79097325 0.2431881
000030 73 2a 3a 3f 27 7a 6c 3f cd c7 6e bf 10 9f 24 3f
       0.7272102 0.9237389 -0.9327362 0.6430521

model/mobilenetv2_0.50_64/block_1_expand_BN/FusedBatchNormV3 f4 [48]
000000 a3 d5 db ba b2 59 00 bb 3c 75 a3 3b 4a e8 0a 3c
       -0.0016772043 -0.0019584713 0.0049883407 0.008478234
000010 f7 b4 99 3a 39 bd 5b bb 75 2a 1f ba e0 de 38 bb
       0.0011726905 -0.0033529534 -0.0006071695 -0.0028209016
000020 72 ff 02 bc b3 9d a6 3a c9 37 04 3c 3e e9 69 ba
       -0.007995473 0.0012711793 0.008069941 -0.00089230004
000030 90 b2 cd bb 52 d2 b3 39 f9 82 0f bb 35 65 60 ba
       -0.00627739 0.0003429824 -0.0021898134 -0.0008560003
000040 27 d8 bf bb 5e a6 84 3a ea ad 88 ba 5d d8 2b bc
       -0.005854625 0.0010120382 -0.0010427807 -0.010488597
000050 a6 d1 05 3c bc 25 1a 3c 11 fb 9f 3b 31 2b 8c bb
       0.00816766 0.009408411 0.0048822244 -0.0042776098
000060 db 37 5a 3b 2d 59 bc bb 0e 55 41 bb 15 30 83 bb
       0.0033297453 -0.0057479353 -0.002950016 -0.0040035346
000070 f9 2b 52 bb 31 9d be bb 50 c8 37 bc 2d ab 64 bb
       -0.0032069667 -0.0058170785 -0.011217192 -0.0034892068
000080 d2 67 b1 3b 13 e5 5e bc f0 f1 f0 3a 98 c5 86 39
       0.0054139877 -0.01360442 0.001838265 0.0002570569
000090 c5 64 da bb 42 37 cb 3b 84 5f 70 3b 46 1a ec 3b
       -0.0066648447 0.0062016556 0.0036678025 0.0072052805
0000a0 db 70 c4 3b 6a 94 1f bb 3c d9 1e 3b 7b 34 7b 3b
       0.0059948987 -0.0024349936 0.0024238368 0.0038330841
0000b0 66 f6 60 3b 82 99 58 3b 4e 97 ca ba 38 56 4b bc
       0.0034326552 0.0033050482 -0.0015456469 -0.012410693

model/mobilenetv2_0.50_64/block_1_depthwise_BN/FusedBatchNormV3 f4 [48]
000000 00 40 ba b6 9a 53 8f be 09 b4 48 bd 24 6a 2b bd
       -5.5506825e-06 -0.2799347 -0.04899982 -0.04184927
000010 72 a7 9c 3e 04 8b e6 be 18 94 a1 be ab 8a 63 bf
       0.305965 -0.45027936 -0.315583 -0.88883466
000020 36 f6 e3 be 69 5a 49 3f 0a 73 2a 3f 71 8e 9a bd
       -0.44523782 0.7865358 0.66581786 -0.075467
000030 a9 49 cd 3e f7 d2 7f 3f b4 26 02 3e 4c 5a 18 bf
       0.4009526 0.9993128 0.12710077 -0.5951278
000040 c0 4b 2b bf ad ce 56 be 2e bb c4 3e bb 74 d1 3d
       -0.6691246 -0.20977278 0.38424057 0.10227343
000050 cc 3c 8b 3f 0a 92 c5 3e b9 83 59 bf 2c c8 93 be
       1.0877929 0.3858798 -0.8496662 -0.28863657
000060 d0 54 20 3e 21 c4 c2 be 06 4c 39 3f 5c c0 05 bf
       0.15657353 -0.3804026 0.7238163 -0.5224664
000070 e0 4b 20 bc 04 6d 09 bf 41 45 70 bd 45 a0 39 bf
       -0.009783715 -0.5368197 -0.058659796 -0.72510177
000080 0a c7 1e be e2 79 c2 be b9 ca 27 3f 7d 48 13 bf
       -0.15505615 -0.37983614 0.65543705 -0.57532483
000090 6f be 03 3f 4b 8a 47 3f e4 cd b9 bd 59 3b 0e 3f
       0.51462454 0.77945393 -0.09072474 0.5555931
0000a0 b5 c1 77 3f 4b 1f 02 3e 95 4b 9e 3e 07 31 8e bf
       0.9677995 0.1270725 0.3091704 -1.1108712
0000b0 65 66 81 3e d4 46 15 3f 92 1c 1f bf ea 73 1d bf
       0.25273433 0.583112 -0.6215297 -0.61504996

model/mobilenetv2_0.50_64/block_2_expand_BN/FusedBatchNormV3 f4 [96]
000000 56 86 06 bb c5 0a 21 bc 51 e6 1f 3b 0f 9c 4d bb
       -0.0020526848 -0.009829228 0.0024398754 -0.0031373536
000010 68 75 d4 b8 b8 bb d8 3a 19 a0 24 bb c2 17 ba bb
       -0.000101308164 0.0016535437 -0.002511984 -0.0056791017
000020 c4 4d 98 3b 88 a3 73 3c 5a 05 dc bb d1 91 85 3b
       0.0046479423 0.014870532 -0.006714505 0.0040762206
000030 ac 8c 77 3b 80 2f c2 b7 ef c0 16 3c 7b ac 83 3b
       0.0037773056 -2.3148721e-05 0.009201272 0.004018364
000040 91 9d 72 3b ce 88 f1 ba 34 0e b7 3b a0 5f 0d 3c
       0.0037020186 -0.0018427612 0.00558641 0.008628756
000050 e2 cd dc bb 4c 50 9d 3b 6e 9c 7e ba 41 3d 54 3b
       -0.0067384103 0.004800832 -0.0009712641 0.0032385143
000060 ad 7c ea 3a 0e 3b 21 3b 06 f6 ab 3b b1 c8 24 b9
       0.001788994 0.002460185 0.005247834 -0.00015715022
000070 e2 29 79 3c 06 30 0a 3c ce cd a4 ba e9 88 79 bb
       0.01520774 0.008434301 -0.0012573542 -0.003807599
000080 48 3f c9 39 26 a1 e5 3a f0 e0 e0 b8 5c ff 02 bb
       0.00038384856 0.001751934 -0.0001072305 -0.0019988632
000090 0a 81 80 bb fe 18 9d 39 6e b7 86 b9 7c ab e7 3b
       -0.0039216327 0.00029963994 -0.00025695137 0.007070003
0000a0 34 5a d7 3b 05 39 33 3b 21 59 37 3c 2e 0c 4a bb
       0.0065720323 0.0027347219 0.011190684 -0.0030830014
0000b0 ab 32 a6 ba 5d ee ef 39 28 51 b6 b9 3f 84 26 bb
       -0.0012679895 0.00045763227 -0.0003477421 -0.0025408415
0000c0 5c 74 17 b9 4f d1 f6 ba 1e fe 7d 3a d4 a4 50 ba
       -0.0001444383 -0.0018830689 0.00096890505 -0.00079591316
0000d0 ab 1a b9 3b 68 b4 ae bb 40 72 75 b9 be a9 bc bb
       0.005648931 -0.0053315647 -0.00023407582 -0.0057575395
0000e0 e9 47 86 3c 26 59 d3 3a 66 27 ab 3a 10 44 9b 3b
       0.016391711 0.0016124591 0.0013058006 0.0047383383
0000f0 75 33 c9 3b ae d6 b4 3a 86 3e 94 3a 6c cd df ba
       0.0061401674 0.001379689 0.0011310137 -0.001707477
000100 b0 d9 05 bc 29 87 3c 3b da a9 76 3b 52 ec 89 bb
       -0.0081695765 0.0028767085 0.003763786 -0.00420908
000110 44 9d 01 bb 6c c5 a7 ba 2c 16 ad 39 4f 78 a4 3a
       -0.0019777576 -0.0012799925 0.0003301365 0.0012548062
000120 e0 5a 96 39 ea 84 25 bb 80 71 cf 3b 6c ef b7 3a
       0.00028677937 -0.0025256225 0.006330669 0.0014033145
000130 9c 1c 9c 3b 8a ae 9b 3a b5 ef 37 bb 0e 44 58 ba
       0.0047641527 0.0011877578 -0.002806646 -0.0008249887
000140 91 7c 20 3c 96 ba e3 3b 82 4f bd 3b 34 6c 5d 3a
       0.009795324 0.006949733 0.0057773003 0.00084466045
000150 67 46 2a 3a ca 75 25 3b c8 c0 03 39 c9 98 0b 3c
       0.0006495476 0.002524721 0.0001256495 0.008520314
000160 00 d5 0d b9 07 29 64 3b a5 9a e4 3b 98 69 ac 39
       -0.00013526157 0.0034814493 0.006976443 0.0003288507
000170 5c ba 3a 3b a9 3b 58 3b d0 37 09 3a 47 c3 8d bb
       0.0028492426 0.0032994545 0.0005234452 -0.0043262574
