models/mobilenetv2/dynamic_range_quantization/model_pump.tflite (tflite, 872296 bytes, 106 tensors)

model/mobilenetv2_0.50_64/predictions/BiasAdd/ReadVariableOp f4 [3]
0.0019043625 -0.001738494 -4.0868936e-06
00000000: cd9b f93a 2ede e3ba 2622 89b6

model/mobilenetv2_0.50_64/block_1_project/Conv2D f4 [16, 1, 1, 48]
-0.3592122 0.13196029 -0.25732157 0.21911205 -0.13305861 0.3754209 0.15115918 0.2610006
0.14240783 0.30281574 0.0143297855 0.22028334 0.12544262 0.18161026 0.35739884 0.35243973
-0.103226304 0.18586199 0.13309176 -0.0948306 0.32409483 0.26303828 -0.39413193 -0.28504577
0.111892164 0.19193205 -0.22579682 0.2154589 -0.17055982 0.15999666 0.027045812 0.37762228
0.3626806 -0.106100015 0.39902848 0.0043718815 0.12789616 -0.2599376 0.17655842 -0.21203448
-0.16910227 -0.25361654 0.34014264 -0.3841035 0.27155003 -0.29750994 -0.32840657 0.2892525
0.37760922 0.27674547 -0.12984885 -0.4351839 -0.3502868 0.098089665 -0.03227235 -0.014692592
0.19535 -0.47436252 0.054641645 -0.28797367 -0.4469697 0.0964263 -0.37547114 0.15315974
0.027432198 -0.2367298 0.011972405 -0.15977451 0.37786302 -0.21025729 -0.2421945 0.07536639
-0.48202306 0.19130233 0.3332212 0.36496317 0.23679195 -0.39024785 0.14192113 -0.13650143
0.0996165 -0.01723408 0.03508364 0.41655263 -0.13854402 -0.37356177 -0.45656046 -0.3356933
0.07194795 -0.04428545 -0.12741734 0.1101953 0.09602785 0.14325811 0.25486138 -0.34604713
0.28186134 0.17891605 -0.3676484 0.39995268 -0.17238945 -0.050603636 -0.10626291 0.33244392
-0.2770273 0.1965588 -0.07558142 0.12744936 0.23678567 0.25424987 -0.24884465 0.27967435
0.11674992 0.017403455 -0.36935925 -0.33166128 0.34610516 0.30005628 0.2244763 0.01297201
0.1173911 0.03134587 -0.14673975 0.11896739 -0.2925505 0.12332943 0.37679532 -0.0997206
-0.3158902 -0.26575202 0.13791893 -0.38664576 -0.22247821 0.3312356 -0.267183 0.08535011
-0.21777567 -0.09332874 0.21758018 0.052677926 -0.060098432 0.36288133 -0.007207138 0.1689966
-0.366972 0.3150127 0.15795586 -0.3388459 0.26215708 0.067149274 0.25043643 0.018671015
0.02640466 -0.30262056 0.24205242 -0.173123 0.07323994 -0.0011130422 -0.09731097 0.17201231
0.35802302 -0.057651132 -0.1705015 -0.24858566 -0.22023794 -0.20216922 -0.050084554 0.07129776
-0.1372758 0.29969957 -0.104689315 0.36590728 0.2548224 -0.07063782 0.30095896 0.19002439
-0.10105681 0.3864789 0.37003887 0.033714272 -0.3408649 0.37298998 -0.036999807 -0.074265316
-0.116808884 -0.09868306 0.30259407 0.053031687 -0.02852802 0.07200021 -0.36028185 -0.31634808
0.21483067 -0.08784274 -0.17189902 0.23058586 -0.19862756 0.30284965 0.023504842 -0.19503902
0.32847914 0.2873734 -0.27504882 0.31993166 -0.2530279 -0.19164455 -0.29385668 -0.14991295
-0.2291265 -0.18429863 0.07819432 -0.25636634 -0.25194514 0.3316867 0.1709889 -0.013814214
-0.046769027 0.24983484 -0.25656956 -0.108857386 0.20172495 -0.2387043 0.11415941 0.2820621
-0.19956447 0.015537348 0.3064804 -0.28717124 -0.2575313 -0.2825788 -0.07914197 0.070694886
-0.10832604 0.27207994 -0.20627698 0.31147096 -0.12195457 0.2566545 -0.18475808 -0.040106464
-0.10120081 0.40461743 -0.35496405 0.27617866 0.27310207 -0.005677827 -0.3838714 -0.011868571
-0.04603488 -0.21735603 0.4139209 0.08691857 0.17142457 0.4147664 0.39657778 -0.06295871
00000000: a9ea b7be 9920 073e a7bf 83be e95e 603e
00000010: 8440 08be 2b37 c03e 79c9 1a3e dfa1 853e
00000020: 5cd3 113e aa0a 9b3e 7ac7 6a3c f591 613e
00000030: 0874 003e 0af8 393e fbfc b63e fb72 b43e
00000040: 5068 d3bd 9b52 3e3e 3549 083e 8c36 c2bd
00000050: c2ef a53e f4ac 863e a9cb c9be 85f1 91be
00000060: b827 e53d d689 443e 4837 67be 42a1 5c3e
00000070: 3ca7 2ebe 2ad6 233e 2e8f dd3c b557 c13e
00000080: 46b1 b93e f74a d9bd 764d cc3e 0042 8f3b
00000090: 36f7 023e 8b16 85be bbcb 343e 911f 59be
000000a0: 2529 2dbe 07da 81be 2d27 ae3e 37a9 c4be
000000b0: 9b08 8b3e 3953 98be e824 a8be e718 943e
000000c0: ff55 c13e 95b1 8d3e 19f7 04be 6dd0 debe
000000d0: cb58 b3be 3ce3 c83d 0330 04bd 33b9 70bc
000000e0: d509 483e a5df f2be ebcf 5f3d 4971 93be
000000f0: 36d9 e4be 277b c53d c13d c0be e8d5 1c3e
00000100: 7db9 e03c 4c69 72be e827 443c ee9b 23be
00000110: 4377 c13e b04d 57be d601 78be b259 9a3d
00000120: bacb f6be c2e4 433e f89b aa3e 74dc ba3e
00000130: 9779 723e 91ce c7be c653 113e 08c7 0bbe
00000140: bc03 cc3d 7c2e 8dbc ddb3 0f3d 6346 d53e
00000150: 7cde 0dbe 7d43 bfbe 4bc2 e9be fedf abbe
00000160: 7259 933d a964 35bd b179 02be 13ae e13d
00000170: 40aa c43d 41b2 123e 317d 823e 172d b1be
00000180: 2150 903e c535 373e 693c bcbe 99c6 cc3e
00000190: dc86 30be c245 4fbd 5ea0 d9bd 1736 aa3e
000001a0: 86d6 8dbe b646 493e 6eca 9abd 1682 023e
000001b0: f177 723e 0a2d 823e 22d1 7ebe 7a31 8f3e
000001c0: 951a ef3d b191 8e3c a81c bdbe 82cf a9be
000001d0: b234 b13e faa0 993e 1ddd 653e 8e88 543c
000001e0: bf6a f03d 8764 003d f242 16be 2da5 f33d
000001f0: 2ec9 95be 2494 fc3d 51eb c03e 503a ccbd
00000200: 5cbc a1be a610 88be 9f3a 0d3e 6ff6 c5be
00000210: 54d1 63be b697 a93e 36cc 88be 0acc ae3d
00000220: 9600 5fbe 2323 bfbd 57cd 5e3e cfc4 573d
00000230: c629 76bd 95cb b93e db29 ecbb 720d 2d3e
00000240: c1e3 bbbe 5849 a13e 2ebf 213e 367d adbe
00000250: 7439 863e 8f85 893d 3439 803e f5f3 983c
00000260: 964e d83c 15f1 9abe 97dc 773e 2847 31be
00000270: d2fe 953d 80e3 91ba f94a c7bd ff23 303e
00000280: cb4e b73e 9823 6cbd f297 2ebe 3d8d 7ebe
00000290: 0e86 61be 7305 4fbe 7625 4dbd 8f04 923d
000002a0: 0792 0cbe 3972 993e 5a67 d6bd 3358 bb3e
000002b0: 1578 823e 90aa 90bd 4b17 9a3e c195 423e
000002c0: dff6 cebd 90e0 c53e bc75 bd3e fa17 0a3d
000002d0: d885 aebe 8bf8 be3e 1c8d 17bd 6a18 98bd
000002e0: 7f39 efbd 581a cabd 9ced 9a3e c137 593d
000002f0: 98b3 e9bc d974 933d dd76 b8be 60f8 a1be
00000300: 92fc 5b3e e5e6 b3bd 4c06 30be b31e 6c3e
00000310: 0665 4bbe 1c0f 9b3e 3a8d c03c 4fb8 47be
00000320: 6b2e a83e 9b22 933e 33d3 8cbe 15ce a33e
00000330: df8c 81be 783e 44be 6274 96be c882 19be
00000340: 23a0 6abe c8b8 3cbe 5824 a03d 7342 83be
00000350: f4fe 80be d7d2 a93e b717 2f3e 0355 62bc
00000360: e190 3fbd b4d4 7f3e 165d 83be 9ff0 debd
00000370: fc90 4e3e e66e 74be 69cc e93d 726a 903e
00000380: a15a 4cbe 5c90 7e3c 00eb 9c3e 1c08 93be
00000390: 24db 83be 2bae 90be 2f15 a2bd 7bc8 903d
000003a0: 0bda ddbd 104e 8b3e 463a 53be 1f79 9f3e
000003b0: 51c3 f9bd 3868 833e 3931 3dbe ad46 24bd
000003c0: 5f42 cfbd 042a cf3e d9bd b5be 4a67 8d3e
000003d0: 09d4 8b3e 110d babb cb8a c4be 6574 42bc
000003e0: 128f 3cbd 9492 5ebe 71ed d33e 5d02 b23d
000003f0: ec89 2f3e 435c d43e 3e0c cb3e 7ff0 80bd

model/mobilenetv2_0.50_64/block_1_expand/Conv2D f4 [48, 1, 1, 8]
-0.37490848 -0.41735935 0.40248808 -0.14962153 -0.33646357 0.3216116 0.17283663 0.13474712
0.36304593 -0.06978175 -0.6487826 0.015744776 0.74399525 -0.13684301 -0.591515 0.27714857
-0.37551585 0.086070895 -0.17808828 -0.7647009 0.32781142 -0.0370998 0.0085901925 -0.22873814
-0.4238523 -0.38313466 0.4118587 0.14888191 -0.2958374 0.09160069 0.11645106 0.34712708
0.38298488 -0.0027758924 0.54351723 -0.3688724 0.17935771 0.4874584 0.41396907 -0.36930928
-0.530863 -0.5340693 -0.22539988 0.36555856 0.0829278 0.36729375 0.25452483 -0.08278637
0.28402457 0.08350617 1.1714699 0.83988714 0.0015161326 -0.77558535 0.11062876 -0.64648527
0.0045761215 0.45421824 -0.10906681 -0.4920699 0.017145725 0.24121866 0.3385712 -0.24422356
0.4514275 0.4841517 0.3793133 -0.42864835 -0.2836084 -0.4798022 -0.16490252 0.25490406
0.30285978 0.29592595 0.3868366 -0.17059067 0.22613275 -0.12193205 0.44294232 0.07786732
-0.67546356 0.8403106 -0.58518666 -0.31580672 -0.6043884 0.12525614 -0.24157006 -0.110588185
-0.37059918 -0.20138477 -0.23742513 0.17166361 -0.37488052 0.32423547 -0.30725735 -0.11410102
0.22007345 0.4202557 0.21312395 -0.23671088 -0.20575243 -0.36626545 0.4031434 -0.57386005
-0.13042265 0.31017 -0.23125783 0.017200146 -0.1858847 -0.6949116 0.3007864 0.6270976
-0.15964994 -0.5957693 -0.6321568 0.437863 0.6911337 -0.10539926 0.61833835 0.8927305
-0.32734805 -0.45686927 0.20190352 -0.3800785 0.13693383 0.3219974 -0.3342239 0.14154728
-0.6435737 0.4889846 0.3270195 0.6245812 0.37591136 -0.2585662 -0.3001494 0.080698736
-0.18554518 0.30080768 0.7118371 -0.2918185 0.24336486 -0.1974089 0.3686548 -0.4379747
0.5064738 -0.80623746 0.29260087 0.26370704 0.23149692 -0.27550003 0.19859585 -0.2837272
-0.011090805 -0.2108263 0.04886189 0.6999649 0.7120415 0.19494149 0.5261704 0.5845826
-0.58856684 -0.6116294 0.059109446 -0.67693794 -0.029112566 0.33128414 -0.07853339 -0.021388598
-0.25275487 0.037655193 -0.30075544 -0.07123149 0.6614069 -0.5245895 -0.3577942 -0.6210593
-0.0025385246 -0.29598793 -0.24929243 -0.46962753 0.4880437 -0.2691056 0.37901574 -0.47478288
0.40615043 0.102026574 0.28841048 -0.2681615 0.19228455 0.13001779 0.087248705 0.3512888
0.25203234 0.4398586 0.107081756 -0.4085885 0.25079367 -0.1135798 -0.23981464 0.09104297
-0.4810119 0.62852407 -0.6877292 -0.45178908 -0.15258431 -0.52413493 -0.85836035 0.020070821
0.15213586 -0.49712464 -0.1650272 0.60767424 0.22006682 0.17337063 -0.27110612 0.1665927
0.01585553 -0.39500228 -0.34854695 -0.52476954 -0.59521675 -0.32214162 -0.50066465 0.39437005
-0.2481538 0.5863519 0.28204444 0.13201894 -0.6181647 0.6335503 0.21955791 0.075988844
0.5960033 -0.27113834 0.01720166 -0.5883895 0.27201873 0.05534105 0.4694779 -0.24778353
-0.22260031 -0.3897087 -0.5013629 -0.4893273 0.37744957 0.3182897 -0.5906719 0.6062537
-0.30673644 0.50580955 -0.40839657 -0.34693033 0.33240834 -0.22088636 -0.25567752 0.25106418
00000000: 01f4 bfbe 20b0 d5be eb12 ce3e 6336 19be
00000010: f444 acbe 47aa a43e 16fc 303e 26fb 093e
00000020: 28e1 b93e bce9 8ebd 9e16 26bf 30fb 803c
00000030: 7976 3e3f 9320 0cbe 876d 17bf 6be6 8d3e
00000040: 9d43 c0be f045 b03d c65c 36be 70c3 43bf
00000050: e6d6 a73e f6f5 17bd e1bd 0c3c 553a 6abe
00000060: 2b03 d9be 3a2a c4be 25df d23e 8074 183e
00000070: 0078 97be 2499 bb3d e57d ee3d a4ba b13e
00000080: 9816 c43e bfeb 35bb f223 0b3f d8dc bcbe
00000090: 8ca9 373e 2694 f93e c1f3 d33e 1b16 bdbe
000000a0: a3e6 07bf c4b8 08bf 3acf 66be 7e2a bb3e
000000b0: 0dd6 a93d ed0d bc3e 1451 823e e68b a9bd
000000c0: ab6b 913e 4805 ab3d baf2 953f d802 573f
000000d0: f8b8 c63a c38c 46bf 5591 e23d 0f80 25bf
000000e0: 4af3 953b 4b8f e83e 6b5e dfbd 96f0 fbbe
000000f0: 3175 8c3c 0602 773e 3459 ad3e be15 7abe
00000100: 8121 e73e bbe2 f73e 5a35 c23e cc77 dbbe
00000110: 1f35 91be a2a8 f5be 35dc 28be c982 823e
00000120: 7010 9b3e 9b83 973e 720f c63e 52af 2ebe
00000130: 588f 673e 83b7 f9bd 56c9 e23e e778 9f3d
00000140: 2eeb 2cbf 981e 573f cbce 15bf 6bb1 a1be
00000150: 33b9 1abf 2543 003e 245e 77be 0f7c e2bd
00000160: 2dbf bdbe cf37 4ebe 931f 73be 96c8 2f3e
00000170: 57f0 bfbe 3102 a63e d650 9dbe ccad e9bd
00000180: ef5a 613e c12b d73e 2a3d 5a3e 5664 72be
00000190: c4b0 52be 2587 bbbe d068 ce3e 7ee8 12bf
000001a0: 848d 05be 9ace 9e3e dace 6cbe 52e7 8c3c
000001b0: 8f58 3ebe bae5 31bf ad00 9a3e 7889 203f
000001c0: 467b 23be 5684 18bf 07d5 21bf 942f e03e
000001d0: 23ee 303f 91db d7bd 6c4b 1e3f fc89 643f
000001e0: 2a9a a7be c5ea e9be ccbf 4e3e a699 c2be
000001f0: 6238 0c3e d8dc a43e 651f abbe c5f1 103e
00000200: 3fc1 24bf 315c fa3e 1a6f a73e 8ee4 1f3f
00000210: 7477 c03e ca62 84be 2fad 99be 6145 a53d
00000220: 8eff 3dbe 7703 9a3e f53a 363f 3c69 95be
00000230: a334 793e 8f25 4abe 52c0 bc3e 383e e0be
00000240: 44a8 013f 9465 4ebf c8cf 953e 9c04 873e
00000250: 870d 6d3e 570e 8dbe b65c 4b3e b144 91be
00000260: 35b6 35bc d9e2 57be 6823 483d e630 333f
00000270: 5a48 363f be9e 473e 1ab3 063f 35a7 153f
00000280: 51ac 16bf bf93 1cbf bf1c 723d ce4b 2dbf
00000290: 7a7d eebc 139e a93e 1dd6 a0bd 2437 afbc
000002a0: 1669 81be 553c 1a3d 9efc 99be d1e1 91bd
000002b0: f651 293f 7f4b 06bf cd30 b7be befd 1ebf
000002c0: 605d 26bb bb8b 97be 8446 7fbe 0573 f0be
000002d0: dde0 f93e 36c8 89be 5a0e c23e be16 f3be
000002e0: f3f2 cf3e 4ff3 d03d 8aaa 933e 774c 89be
000002f0: 3ee6 443e 6223 053e 73af b23d 20dc b33e
00000300: 620a 813e 2535 e13e ae4d db3d 8332 d1be
00000310: 0768 803e 879c e8bd f891 75be bd74 ba3d
00000320: 3147 f6be f4e6 203f 050f 30bf e650 e7be
00000330: 103f 1cbe b52d 06bf 81bd 5bbf 906b a43c
00000340: 81c9 1b3e 1f87 febe e4fc 28be 8a90 1b3f
00000350: 3259 613e 1288 313e 6cce 8abe 4797 2a3e
00000360: 75e3 813c bd3d cabe bf74 b2be 4c57 06bf
00000370: 2060 18bf bfef a4be 8f2b 00bf dfea c93e
00000380: 081c 7ebe 281b 163f 2168 903e f92f 073e
00000390: 0b40 1ebf 5a30 223f cad3 603e 0aa0 9b3d
000003a0: ac93 183f a5d2 8abe 7fea 8c3c b2a0 16bf
000003b0: 0a46 8b3e 4cad 623d 685f f03e f7ba 7dbe
000003c0: 56f1 63be e687 c7be 5259 00bf 1c89 fabe
000003d0: 1241 c13e def6 a23e 4636 17bf 7133 1b3f
000003e0: 8f0c 9dbe bc7c 013f 5b19 d1be daa0 b1be
000003f0: 6d31 aa3e 0930 62be 2ae8 82be 7c8b 803e

model/mobilenetv2_0.50_64/expanded_conv_project/Conv2D f4 [8, 1, 1, 16]
-0.18924473 0.2065468 0.47838998 -0.34351698 -0.4567618 0.48098567 0.546381 0.4558043
-0.34651664 -0.02358461 -0.46515417 -0.52875364 -0.54698336 -0.59364325 0.37408918 -0.5273541
-0.030177528 0.5844794 0.08995039 -0.54846 0.49786344 0.16996872 -0.30099395 0.5349552
0.5521894 -0.5357661 -0.17106177 0.4037368 -0.16245449 0.03283129 -0.41363847 -0.35258666
0.32851762 -0.23045386 -0.4262807 -0.4959915 0.54827803 -0.34067255 0.3111393 -0.4394013
0.10342861 -0.30686048 -0.13905393 -0.10637644 0.007123352 -0.45076844 0.0045414013 -0.49506852
-0.25986826 -0.2289937 -0.2980691 0.2591486 0.14174934 0.06698601 -0.2697586 -0.3512439
-0.18995325 -0.5865787 -0.09520301 -0.40748778 0.51601285 0.70825005 0.7585782 0.30037194
0.2664978 -0.10987304 -0.2937137 -0.3518824 -0.57215613 0.49783316 0.30395326 0.7227372
-0.24828069 -0.39353448 0.32298467 0.08035473 -0.46701562 -0.2287044 -0.7157806 -0.32677367
0.7343527 -0.4882601 -0.29999098 -0.27682322 -0.026536923 0.020169197 0.14313106 -0.71109194
-0.048884187 -0.26728225 0.07386111 0.60476184 -0.681533 -0.6143417 -0.2976067 0.45464012
-0.4851078 0.44111022 0.12971334 0.42690223 0.22390996 0.46825725 0.284953 -0.4046296
0.31960583 0.11781797 -0.44083604 -0.13384584 0.24730814 0.24097872 -0.56941444 -0.22581081
-0.42975155 0.17556927 -0.71608216 -0.6683583 -0.47905627 -0.24432962 -0.5650692 0.015548945
0.47941425 -0.20086262 -0.5065989 -0.38309953 -0.6446124 -0.05609897 -0.4549604 -0.59724313
00000000: 5fc9 41be 0181 533e 88ef f43e 75e1 afbe
00000010: afdc e9be c143 f63e a0df 0b3f 2e5f e93e
00000020: a16a b1be 8334 c1bc b028 eebe 665c 07bf
00000030: 1a07 0cbf 01f9 17bf 9e88 bf3e ae00 07bf
00000040: dd36 f7bc 71a0 153f e937 b83d e067 0cbf
00000050: f5e7 fe3e 480c 2e3e e11b 9abe d3f2 083f
00000060: 495c 0d3f f827 09bf d12a 2fbe 97b6 ce3e
00000070: 785a 26be 1a7a 063d 6cc8 d3be 3d86 b4be
00000080: 7633 a83e 19fc 6bbe 7741 dabe 99f2 fdbe
00000090: f35b 0c3f a26c aebe a64d 9f3e 35f9 e0be
000000a0: 61d2 d33d d11c 9dbe 2764 0ebe e4db d9bd
000000b0: 026b e93b 1fcb e6be 09d0 943b 9f79 fdbe
000000c0: 740d 85be 537d 6abe 839c 98be 20af 843e
000000d0: bd26 113e f62f 893d cd1d 8abe 3ed6 b3be
000000e0: 1b83 42be 062a 16bf ccf9 c2bd 3da2 d0be
000000f0: 6b19 043f e04f 353f 2e32 423f 5aca 993e
00000100: 6672 883e 1e05 e1bd a461 96be ee29 b4be
00000110: d378 12bf fde3 fe3e c39f 9b3e 4e05 393f
00000120: 4b3d 7ebe 5a7d c9be 3f5e a53e 0591 a43d
00000130: ac1c efbe 7c31 6abe 663d 37bf e14e a7be
00000140: 8afe 3b3f 3afd f9be 6b98 99be c6bb 8dbe
00000150: f663 d9bc df39 a53c f390 123e 1f0a 36bf
00000160: c93a 48bd 38d9 88be 7e44 973d acd1 1a3f
00000170: f278 2ebf 7f45 1dbf e85f 98be 97c6 e83e
00000180: 0d60 f8be 33d9 e13e 93d3 043e ee92 da3e
00000190: a748 653e 6abf ef3e 5ce5 913e 9c2b cfbe
000001a0: 60a3 a33e 8c4a f13d 43b5 e1be e20e 09be
000001b0: 583e 7d3e 20c3 763e 25c5 11bf f33a 67be
000001c0: 6508 dcbe 6ec8 333e 2951 37bf 8819 2bbf
000001d0: dd46 f5be 8b31 7abe 60a8 10bf 01c1 7e3c
000001e0: c975 f53e eeae 4dbe 77b0 01bf 9f25 c4be
000001f0: 5105 25bf 09c8 65bd 92f0 e8be ede4 18bf

model/mobilenetv2_0.50_64/Conv1/Conv2D f4 [16, 3, 3, 3]
0.01948622 0.0027502342 0.016671017 -0.0008530463 0.018444283 -0.0030359807 0.021586167 -0.013750393
-0.010112621 -0.022753084 -0.013294661 -0.0036746177 0.007057681 -0.014122653 0.008878777 0.008174059
0.023402931 0.00390453 -0.0033959802 -0.008229419 0.013571757 0.014414276 0.0071644667 0.011496266
0.004024573 0.018320126 0.0068853805 0.043729343 -0.050179705 0.00019729488 -0.052072085 0.0037197967
-0.004004937 -0.017329374 -0.008516731 0.0048096427 -0.056267038 0.014173234 -0.02077665 -0.006806906
-0.009802839 0.0037037292 -0.044051744 0.036181573 0.0047443192 -0.049680386 0.0312204 0.028373105
0.0010773889 -0.00063163147 0.018367037 0.03166653 -0.029934555 0.016747054 0.020358464 0.010829374
0.013203137 -0.016357591 0.01407488 0.010455947 -0.00586648 -0.0019827276 0.020959552 0.0116854645
0.019012902 0.009173565 -0.01453517 0.017036924 -0.00539597 -0.019628413 0.018933503 0.014963732
0.0058999355 0.0031727073 0.008337041 -0.007087889 -0.0007677954 -0.007104904 -0.003540621 -0.006221685
0.013032735 -0.0020269207 0.007234934 0.00532757 -0.0153949 0.008147993 -0.010417159 -0.0131060975
-0.0079976795 0.0020734724 -0.0037438371 -0.01475673 -0.0065942314 -0.00088122056 -0.0051733144 -0.0065109245
-0.010990956 0.012388518 -0.013965913 -0.005110735 -0.013397816 -0.0032138498 -0.00016989693 -0.0150947
-0.010355295 -0.002427142 -0.0013851852 0.007911382 -0.012791876 0.011466581 0.022128511 0.01631686
-0.024829952 -0.008851313 -0.022230221 0.015823828 0.031568006 0.025203304 -0.0018995214 -0.0010836042
-0.012260415 -0.01751206 0.032854374 -0.015752189 -0.018326422 -0.005102575 0.021953363 0.009020574
0.033762436 -5.217144e-05 0.011201966 0.0035870203 0.031479765 -0.013820797 -0.0070176297 0.001941579
-0.023137687 0.021365123 -0.030748831 -0.0049433126 0.01699308 0.019218644 -0.0221949 0.030009119
-0.0126031535 -0.014689292 0.0038032844 -0.0065764235 -0.010719962 -0.0071644457 -0.016893702 0.006867131
-0.029852523 0.015807163 0.012341292 -0.019562092 -0.021644918 -0.030548632 0.010206878 -0.0052352566
0.012563959 -0.011169727 0.057592843 -0.052768245 0.04224225 0.023744036 0.04231537 -0.006342791
-0.03495959 -0.0021834583 0.028233586 -0.033870276 -0.020539189 -0.028977187 0.019112602 -0.021140682
3.191103e-05 0.010877599 -0.040494017 0.017488416 -0.05326454 0.0026896147 -0.021173753 0.009061968
-0.009548594 0.060521413 -0.05413584 0.0234117 -0.047967907 -0.0835595 0.050506677 0.006746415
-0.060071155 0.03158385 -0.020503128 -0.04691934 -0.0067962916 -0.005834303 -0.06670247 0.002971856
-0.024969626 0.0762062 0.06525424 0.058595307 -0.025420103 0.019624488 -0.06648886 0.08260853
-0.023361992 -0.041519795 0.02013829 -0.00970242 0.029356932 -0.055069543 0.044401668 0.0059352815
-0.03352597 0.0007416411 -0.041533705 0.0023555858 -0.0025294581 -0.013319342 0.0060695074 -0.018831456
-0.022696536 0.012042716 0.03532418 0.034643266 -0.039091147 -0.009312549 -0.030202193 0.03910292
0.02636799 0.008042671 -0.0060556345 -0.033838805 -0.005472899 -0.016567035 -0.03314527 0.03917971
-0.038737193 0.038715545 0.012010325 0.044337004 0.0056681796 0.0427933 -0.030756388 -0.009908582
0.019791627 -0.031920075 0.006112559 0.009130458 -0.00633167 0.06163776 0.028083645 -0.0023010296
00000000: 91a1 9f3c 463d 343b a891 883c f89e 5fba
00000010: 7718 973c 4ef7 46bb 79d5 b03c 5449 61bc
00000020: 68af 25bc ad64 babc dad1 59bc dbd1 70bb
00000030: 1f44 e73b b362 67bc 4a78 113c 7dec 053c
00000040: 81b7 bf3c 25e3 7f3b 188f 5ebb afd4 06bc
00000050: 135c 5e3c db29 6c3c e7c3 ea3b d65a 3c3c
00000060: 91e0 833b 1714 963c c29e e13b 8a1d 333d
00000070: 3c89 4dbd f1e0 4e39 8a49 55bd d5c7 733b
00000080: d93b 83bb 55f6 8dbc c289 0bbc 359a 9d3b
00000090: 4478 66bd da36 683c cb33 aabc 770c dfbb
000000a0: 169c 20bc 44ba 723b 9a6f 34bd 2133 143d
000000b0: 3c76 9b3b a97d 4bbd edc1 ff3c b76e e83c
000000c0: 2c37 8d3a 1294 25ba 7876 963c c3b4 013d
000000d0: 5039 f5bc 1e31 893c cbc6 a63c b06d 313c
000000e0: f851 583c 5b00 86bc 539a 663c 6c4f 2b3c
000000f0: 9a3b c0bb a6f0 01bb 5eb3 ab3c 6474 3f3c
00000100: f2c0 9b3c b84c 163c ec24 6ebc 0591 8b3c
00000110: add0 b0bb c4cb a0bc 6f1a 9b3c 712a 753c
00000120: 3f54 c13b 32ed 4f3b 1698 083c 8641 e8bb
00000130: e145 49ba 41d0 e8bb c309 68bb 47df cbbb
00000140: 4187 553c 16d6 04bb 0613 ed3b e592 ae3b
00000150: e43a 7cbc 297f 053c bbac 2abc f5ba 56bc
00000160: b308 03bc 18e3 073b 2a5b 75bb 36c6 71bc
00000170: 6c14 d8bb b601 67ba e884 a9bb 9859 d5bb
00000180: 6913 34bc 36f9 4a3c 49d1 64bc f477 a7bb
00000190: 8382 5bbc 749f 52bb 5c26 32b9 c34f 77bc
000001a0: 41a9 29bc b010 1fbb 1a8f b5ba be9e 013c
000001b0: 0495 51bc 54de 3b3c da46 b53c f0aa 853c
000001c0: 2f68 cbbc 1905 11bc 271c b6bc f9a0 813c
000001d0: 744d 013d 2977 ce3c 5df9 f8ba b907 8eba
000001e0: e8df 48bc 7475 8fbc 4f92 063d bc0a 81bc
000001f0: 4b21 96bc 8033 a7bb 8ad7 b33c 08cb 133c
00000200: 7b4a 0a3d a8d2 5ab8 7388 373c 3714 6b3b
00000210: edf0 003d a070 62bc 25f4 e5bb 957c fe3a
00000220: 3f8b bdbc e905 af3c f9e4 fbbc 83fb a1bb
00000230: 1235 8b3c 6b70 9d3c 14d2 b5bc afd5 f53c
00000240: 757d 4ebc 5bab 70bc 8640 793b 0a7f d7bb
00000250: c8a2 2fbc bac3 eabb a964 8abc ac05 e13b
00000260: 478d f4bc 067e 813c 2133 4a3c ae40 a0bc
00000270: af50 b1bc 2041 fabc c03a 273c 848c abbb
00000280: 10d9 4d3c 3b01 37bc 79e6 6b3d 8423 58bd
00000290: 3606 2d3d da82 c23c e252 2d3d 30d7 cfbb
000002a0: c931 0fbd 5a18 0fbb 1f4a e73c 8fbb 0abd
000002b0: cd41 a8bc 9161 edbc 0892 9c3c 392f adbc
000002c0: 35d8 0538 f537 323c 0edd 25bd de43 8f3c
000002d0: eb2b 5abd 3f44 303b 9474 adbc a678 143c
000002e0: b571 1cbc 4de5 773d 8bbd 5dbd e5c9 bf3c
000002f0: ff79 44bd 3e21 abbd 17e0 4e3d 0811 dd3b
00000300: 2c0d 76bd 115e 013d 2df6 a7bc 7e2e 40bd
00000310: 6db3 debb ae2d bfbb 4e9b 88bd 78c3 423b
00000320: 1a8d ccbc ff11 9c3d 04a4 853d a201 703d
00000330: d23d d0bc 89c3 a03c 502b 88bd a92e a93d
00000340: a661 bfbc a910 2abd 0ef9 a43c e6f6 1ebc
00000350: f37d f03c 9a90 61bd 86de 353d c07c c23b
00000360: 8752 09bd b16a 423a 3f1f 2abd 2c60 1a3b
00000370: 44c5 25bb 5f39 5abc b8e2 c63b 6d44 9abc
00000380: 16ee b9bc d04e 453c 16b0 103d 19e6 0d3d
00000390: 0a1e 20bd a993 18bc 976a f7bc 622a 203d
000003a0: af01 d83c 68c5 033c 586e c6bb 8f9a 0abd
000003b0: 0156 b3bb 97b7 87bc 56c3 07bd e77a 203d
000003c0: e4aa 1ebd 3194 1e3d f4c6 443c b89a 353d
000003d0: 23bc b93b 0748 2f3d d2f4 fbbc 9b57 22bc
000003e0: 0d22 a23c a0be 02bd dc4b c83b eb97 153c
000003f0: e679 cfbb e077 7c3d ac0f e63c dfcc 16bb

model/mobilenetv2_0.50_64/block_16_project_BN/FusedBatchNormV3 f4 [160]
0.26848382 -1.0541499 -0.12719679 -0.97602165 0.029987648 0.023183739 0.29587227 -0.15960062
0.09076239 -0.57496035 -0.08994599 -0.009288176 -0.32474074 -0.6643945 0.25377536 1.0166482
-0.8506011 0.75267893 -0.05658516 0.5165882 0.53172386 0.099225916 0.980881 -0.16806817
-1.2972192 0.122972794 -0.68447244 -0.8298938 0.049659286 0.040237244 0.4557917 0.5093602
-0.38223213 -0.49343508 -0.2978146 -0.058766354 0.6888279 0.49369794 0.020419164 0.8412714
-0.33596575 0.83601576 -0.7419993 -0.013396692 0.19957533 -0.24597082 0.15593289 -0.7912236
1.6976318 0.30027184 1.0959796 -0.7561635 -0.42528147 -0.7686522 0.48880136 0.20346075
-0.7049199 -0.22476254 2.3254704 0.8939335 1.05209 0.41826338 0.5126575 -1.0185441
0.16600418 0.016758095 -0.43666688 -1.0470233 0.27879116 1.0937139 0.05261047 -0.06572716
0.44673732 -0.005379914 0.83256435 0.6228394 0.13851802 0.32376912 -0.25508076 0.5078287
-0.6101323 -0.25409034 0.3781415 0.099233106 0.28379357 -0.75017256 1.0776081 -0.2603818
0.15427867 -0.12748066 0.37577653 0.016230486 0.39622512 -0.5757121 0.014243762 0.5693364
0.7829375 -0.9477492 0.023157053 -0.2869815 -0.5079729 0.44346341 0.8836477 -0.49011666
0.33039376 0.1891044 0.3964093 -0.4415691 0.013907498 -0.69119537 -0.2857058 -0.6617206
-0.60449004 0.83799714 -0.29410377 -0.6513594 -0.06777572 -1.2564336 -0.16264872 -0.5694642
-0.5773014 0.21752039 0.28757238 0.4545125 -0.5523535 -0.107286386 0.3938363 -0.22859502
0.08567994 -0.32929668 -0.21343061 -0.22807345 0.28397307 0.74506134 0.094768845 0.23613685
0.07934139 0.048738252 -0.5162383 -0.6335536 0.11394421 -0.1878195 -0.955638 -0.12094293
-0.7998629 0.14119644 0.08949833 0.01969521 0.95337224 -0.15121272 0.45608905 0.052135263
0.38187024 -0.7378259 -0.11727977 -0.86636055 0.041703876 -0.0240028 -0.21644104 0.33814636
00000000: b676 893e 62ee 86bf e03f 02be 8edc 79bf
00000010: a8a8 f53c d3eb bd3c 927c 973e 586e 23be
00000020: a2e1 b93d 9a30 13bf 9a35 b8bd 6f2d 18bc
00000030: 6b44 a6be c215 2abf d8ee 813e 8721 823f
00000040: fec0 59bf 91af 403f d7c5 67bd 203f 043f
00000050: 0e1f 083f f536 cb3d 041b 7b3f 101a 2cbe
00000060: 470b a6bf 29d9 fb3d 9639 2fbf ec73 54bf
00000070: 8967 4b3d cfcf 243d 885d e93e 6e65 023f
00000080: eeb3 c3be 86a3 fcbe 287b 98be fdb4 70bd
00000090: 0657 303f fac5 fc3e 1746 a73c 905d 573f
000000a0: b403 acbe 2105 563f abf3 3dbf cd7d 5bbc
000000b0: 7a5d 4c3e c6df 7bbe dfac 1f3e a18d 4abf
000000c0: 004c d93f 3bbd 993e 0f49 8c3f ee93 41bf
000000d0: 7ebe d9be 64c6 44bf 2c44 fa3e 0458 503e
000000e0: a175 34bf 2728 66be 82d4 1440 d3d8 643f
000000f0: e3aa 863f 9e26 d63e 863d 033f a75f 82bf
00000100: 00fd 293e 4648 893c cd92 dfbe dc04 86bf
00000110: b7bd 8e3e d1fe 8b3f 147e 573d f69b 86bd
00000120: c1ba e43e fd49 b0bb f022 553f 6772 1f3f
00000130: abd7 0d3e 11c5 a53e f299 82be 1001 023f
00000140: a131 1cbf 2118 82be c39b c13e ba3a cb3d
00000150: 644d 913e 4f0b 40bf 10ef 893f c350 85be
00000160: 3afb 1d3e 4a8a 02be c865 c03e ccf5 843c
00000170: 05de ca3e de61 13bf ab5e 693c 08c0 113f
00000180: 986e 483f b19f 72bf dcb3 bd3c 3def 92be
00000190: 830a 02bf a30d e33e bc36 623f 92f0 fabe
000001a0: 5f29 a93e 95a4 413e 29f6 ca3e 5815 e2be
000001b0: 46dc 633c 2ef2 30bf 0848 92be 8566 29bf
000001c0: dcbf 1abf fb86 563f c594 96be 7dbf 26bf
000001d0: ffcd 8abd d1d2 a0bf 638d 26be 68c8 11bf
000001e0: 06ca 13bf aabd 5e3e b03c 933e ddb5 e83e
000001f0: 0a67 0dbf f7b8 dbbd e9a4 c93e d014 6abe
00000200: f778 af3d 9399 a8be 8e8d 5abe 168c 69be
00000210: eb64 913e 57bc 3e3f 2b16 c23d dccd 713e
00000220: bd7d a23d c3a1 473d 3128 04bf 9230 22bf
00000230: 955b e93d c153 40be b1a4 74bf edb0 f7bd
00000240: d1c3 4cbf cd95 103e e74a b73d d957 a13c
00000250: 3410 743f 82d7 1abe 8184 e93e c98b 553d
00000260: 7f84 c33e 28e2 3cbf 6030 f0bd cec9 5dbf
00000270: afd1 2a3d 85a1 c4bc b8a2 5dbe 8521 ad3e

model/mobilenetv2_0.50_64/block_15_project_BN/FusedBatchNormV3 f4 [80]
-0.089285225 0.8515764 0.05922687 -0.32262588 0.42606807 -0.6480554 -0.51928574 -0.008086498
-0.04679424 0.3554315 -0.34695256 -0.74854386 0.36927804 -0.25101444 0.7188663 0.1728546
0.23910591 -0.24146132 0.685961 -0.2349836 0.46907374 -0.48182446 -1.0278862 -0.80272776
0.116374545 -0.8111389 -0.71347505 -0.34418613 0.3626708 -0.59638536 0.0005521951 -0.15623163
-0.4799117 -0.7024844 0.58253115 0.19918567 0.46120808 0.59926116 -0.0003775917 -0.8210339
-0.26199457 -0.211016 0.27377743 0.4584725 0.10671954 0.64442796 -0.17448206 1.0896513
-0.464656 -0.3879683 0.8913392 0.6744535 0.051849965 0.1484126 0.8420987 0.22080477
-0.56733865 -1.0213305 0.31061617 1.0862995 1.1528589 -0.20164385 0.12032282 0.4092961
-0.8555158 1.4244577 -0.30552712 -0.24710387 -0.2407555 0.48835146 -0.049096018 -0.26769438
-0.43589804 -0.22219253 -0.43764123 -0.7216747 -0.7522894 -1.4535981 -0.022164898 -0.16501394
00000000: 2cdb b6bd e900 5a3f e097 723d 382f a5be
00000010: 9825 da3e f5e6 25bf e9ef 04bf 3b7d 04bc
00000020: 51ab 3fbd 1efb b53e c4a3 b1be 92a0 3fbf
00000030: 0312 bd3e f784 80be 9f07 383f cc00 313e
00000040: 2ed8 743e a341 77be 249b 2f3f 8a9f 70be
00000050: 6f2a f03e b2b1 f6be c691 83bf 917f 4dbf
00000060: c755 ee3d cda6 4fbf 4da6 36bf 2a39 b0be
00000070: fdaf b93e b6ac 18bf 30c1 103a 2ffb 1fbe
00000080: fdb6 f5be 05d6 33bf c320 153f 54f7 4b3e
00000090: 7723 ec3e 2e69 193f 80f7 c5b9 472f 52bf
000000a0: 2724 86be 9414 58be 8e2c 8c3e e8bc ea3e
000000b0: c68f da3d 3bf9 243f 6dab 32be b279 8b3f
000000c0: 64e7 edbe c8a3 c6be ce2e 643f fca8 2c3f
000000d0: a160 543d 79f9 173e c893 573f a51a 623e
000000e0: 1b3d 11bf f5ba 82bf 1509 9f3e dd0b 8b3f
000000f0: e190 933f ba7b 4ebe d06b f63d 428f d13e
00000100: 1503 5bbf a154 b63f 0d6e 9cbe cc08 7dbe
00000110: 9c88 76be 3409 fa3e e818 49bd 3d0f 89be
00000120: 072e dfbe 7086 63be 8312 e0be acbf 38bf
00000130: 0a96 40bf 810f babf 2993 b5bc 6af9 28be

model/mobilenetv2_0.50_64/block_14_project_BN/FusedBatchNormV3 f4 [80]
0.23693353 0.6595914 0.27914643 0.31374663 0.3214195 -0.45882246 0.58499044 -0.76309544
-0.28787982 -1.563452 1.5266038 -0.4006011 0.6210083 0.56507164 0.8407309 0.7210589
0.011689015 -0.85995203 0.4228818 -0.5197104 0.7482735 -0.69488233 1.0066612 0.25859824
-0.31569692 0.74351513 0.86659575 0.27973574 -0.74518985 0.89131016 1.3527571 -0.08952455
0.7261463 0.25646842 1.0302415 1.2967119 0.4309542 -0.24002244 0.27732235 0.2701166
-0.16840756 0.24575987 -0.43858984 0.33168447 0.43071324 -0.08190164 -0.005532439 -0.4353008
0.29723948 -0.16756546 0.21654819 0.39119893 0.45011616 -0.32489622 -0.6914747 -0.33225945
-0.31937882 0.084823 -0.6854544 0.25345507 -0.10417777 -0.44108722 0.5907241 -0.12287441
-0.58595043 -0.28618422 -0.4952194 0.23868695 -0.4602046 -0.24236098 0.80566514 0.106403254
-0.22147267 -0.90064913 0.4062067 -0.84933203 -0.026331063 -1.1320934 -0.66886765 -0.8204217
00000000: b49e 723e fbda 283f 48ec 8e3e 66a3 a03e
00000010: 1991 a43e c7ea eabe efc1 153f 395a 43bf
00000020: fc64 93be 321f c8bf c167 c33f 961b cdbe
00000030: 66fa 1e3f 89a8 103f 243a 573f 5197 383f
00000040: 4883 3f3c d125 5cbf f783 d83e be0b 05bf
00000050: da8e 3f3f cfe3 31bf 46da 803f fd66 843e
00000060: 07a3 a1be 0257 3e3f 38d9 5d3f 8639 8f3e
00000070: c3c4 3ebf e72c 643f 2527 ad3f a658 b7bd
00000080: b9e4 393f d44f 833e f4de 833f a8fa a53f
00000090: 07a6 dc3e 71c8 75be 32fd 8d3e b94c 8a3e
000000a0: 0873 2cbe 7aa8 7b3e d98e e0be 8cd2 a93e
000000b0: 7286 dc3e 0cbc a7bd 7649 b5bb bfdf debe
000000c0: c62f 983e 4896 2bbe cfbe 5d3e 3a4b c83e
000000d0: a075 e63e cc58 a6be 7c04 31bf e91d aabe
000000e0: 9f85 a3be aeb7 ad3d f179 2fbf ddc4 813e
000000f0: 285b d5bd 2fd6 e1be b239 173f 94a5 fbbd
00000100: d900 16bf bd86 92be 668d fdbe 5a6a 743e
00000110: f09f ebbe 7a2d 78be 1240 4e3f f3e9 d93d
00000120: bbc9 62be f190 66bf 53fa cf3e d36d 59bf
00000130: 3eb4 d7bc 70e8 90bf e93a 2bbf 2807 52bf

model/mobilenetv2_0.50_64/block_13_project_BN/FusedBatchNormV3 f4 [80]
-0.6597744 -0.1530529 0.17168869 -0.624912 0.22652863 -0.352007 -0.17109756 -1.2878685
-0.28978917 -0.21402584 0.60893345 -0.041893814 -0.29598027 0.11466276 0.16872606 -0.20868717
0.23174836 0.68938607 0.0690894 0.257574 0.03499014 -0.2637892 -0.14437155 0.4003524
0.26789677 0.17622638 0.6327841 1.2915428 -0.29932675 1.0280123 0.7162781 0.10400309
0.7098787 0.5549449 0.34338778 -0.9915535 0.23630819 1.0293317 -0.83487284 -0.44498515
0.36989543 0.65039724 -0.4823101 -0.06788393 -0.36537778 -0.32238033 -0.6676594 0.48101893
-0.083018996 -0.42122978 0.29549775 1.1002407 0.0012760989 0.26480052 1.0574235 -0.32632887
-0.29928166 0.011036569 0.9154211 0.3295997 -0.8556487 0.3068319 -0.21817124 0.1310343
0.9319573 -0.01647566 0.028667485 -0.32241404 0.08758078 -0.0090788575 -0.35195008 -0.14465393
-1.1387326 0.029272709 -0.4405125 0.25554693 -0.16148059 -0.14557639 -0.5581181 0.12067373
00000000: fae6 28bf e6b9 1cbe 29cf 2f3e 3cfa 1fbf
00000010: 1ff7 673e 433a b4be 3334 2fbe e0d8 a4bf
00000020: 3f5f 94be 9729 5bbe 10e3 1b3f d998 2bbd
00000030: ba8a 97be 4fd4 ea3d 86c6 2c3e 17b2 55be
00000040: 714f 6d3e 9b7b 303f be7e 8d3d bde0 833e
00000050: d251 0f3d 610f 87be 23d6 13be fdfa cc3e
00000060: c429 893e b074 343e 24fe 213f 4651 a53f
00000070: 5b41 99be e895 833f 005e 373f 92ff d43d
00000080: 9cba 353f de10 0e3f 86d0 af3e 73d6 7dbf
00000090: c6fa 713e 24c1 833f 3aba 55bf 18d5 e3be
000000a0: ef62 bd3e 6f80 263f 59f1 f6be bb06 8bbd
000000b0: cc12 bbbe 090f a5be baeb 2abf 1d48 f63e
000000c0: dd05 aabd 6eab d7be 7b4b 973e b0d4 8c3f
000000d0: c642 a73a ef93 873e a759 873f 9414 a7be
000000e0: 723b 99be bad2 343c 0a59 6a3f 4bc1 a83e
000000f0: cb0b 5bbf 1219 9d3e 4868 5fbe db2d 063e
00000100: c194 6e3f f7f7 86bc 13d8 ea3c 7413 a5be
00000110: 8d5d b33d 7dbf 14bc cd32 b4be 2920 14be
00000120: fdc1 91bf 52cd ef3c db8a e1be 0cd7 823e
00000130: 2b5b 25be fa11 15be d4e0 0ebf ca23 f73d

model/mobilenetv2_0.50_64/block_12_project_BN/FusedBatchNormV3 f4 [48]
-0.9924714 1.3753166 0.10755607 -0.15291296 -0.27763748 -0.08667619 -0.3762784 -0.33607396
0.61190873 0.7590077 -0.7803233 0.4541252 0.4489235 -0.41875458 0.24353322 -0.26239341
-0.20724148 0.6230527 -0.43557596 -0.97977895 0.39607933 -0.018455587 0.1831998 -1.7268451
-0.81610835 0.37055206 0.14790721 0.6118902 0.18141782 0.047933314 1.0442145 -0.30420318
0.67813903 0.40634233 0.73826784 -0.032103732 0.22754559 -0.16952102 0.06862017 0.8705239
-0.5694433 0.40654126 1.1804143 -0.6035746 -0.47321826 0.38331476 0.23037095 -0.02635867
00000000: 9b12 7ebf 600a b03f 5b46 dc3d 3795 1cbe
00000010: 8026 8ebe 4983 b1bd 90a7 c0be e311 acbe
00000020: 0da6 1c3f 544e 423f 45c3 47bf 1983 e83e
00000030: 4dd9 e53e 0067 d6be c660 793e 6e58 86be
00000040: 1c37 54be 6280 1f3f d003 dfbe cbd2 7abf
00000050: e9ca ca3e 2c30 97bc ba98 3b3e 4309 ddbf
00000060: 7aec 50bf 00b9 bd3e fd74 173e d6a4 1c3f
00000070: 98c5 393e b955 443d d2a8 853f 85c0 9bbe
00000080: 859a 2d3f 1a0c d03e 1fff 3c3f 347f 03bd
00000090: b601 693e eb96 2dbe bb88 8c3d a8da 5e3f
000000a0: 09c7 11bf 2d26 d03e d117 973f dd83 1abf
000000b0: aa49 f2be d541 c43e 5de6 6b3e 23ee d7bc

model/mobilenetv2_0.50_64/block_11_project_BN/FusedBatchNormV3 f4 [48]
-0.36487362 -0.5625401 0.20112583 0.74083763 0.9369157 0.12756921 -0.10553029 -0.37250432
-0.7855166 0.67319614 1.1569496 0.053321797 -0.4443036 -0.36559677 -1.2437006 -0.3360103
-0.5697709 0.30390245 0.31026402 -0.030247176 0.647456 0.22405285 0.37978953 0.28406653
0.35205472 0.4608077 0.645935 0.0656875 -0.3777927 0.10658558 0.10139276 -0.035684668
-0.9680884 -0.88254917 -1.6043522 0.5593416 -1.0160524 0.10168214 0.4830204 -0.11948178
0.055236846 -0.8732286 -0.52593297 0.87081707 0.45504537 -0.07408031 0.44946873 -0.110636964
00000000: b7d0 babe a102 10bf eef3 4d3e 89a7 3d3f
00000010: b5d9 6f3f 81a1 023e 4420 d8bd e3b8 bebe
00000020: 9e17 49bf 9556 2c3f ed16 943f f567 5a3d
00000030: c37b e3be 802f bbbe 9531 9fbf 8b09 acbe
00000040: 81dc 11bf 1a99 9b3e edda 9e3e edc8 f7bc
00000050: adbf 253f 1c6e 653e c673 c23e 2b71 913e
00000060: 8440 b43e fdee eb3e ff5b 253f 2b87 863d
00000070: 0b6e c1be 8a49 da3d 02a7 cf3d 162a 12bd
00000080: a4d4 77bf beee 61bf 6a5b cdbf 0331 0f3f
00000090: 010e 82bf ba3e d03d 734e f73e ddb2 f4bd
000000a0: 0840 623d e98b 5fbf 8ba3 06bf deed 5e3f
000000b0: b5fb e83e 6bb7 97bd c420 e63e a295 e2bd

model/mobilenetv2_0.50_64/block_10_project_BN/FusedBatchNormV3 f4 [48]
0.447376 0.6487255 -0.33734435 0.02013419 -0.2915092 0.20902508 -0.7109093 0.13792947
-0.76287806 -0.2260212 -0.54179555 0.56763625 0.25507912 -1.0436243 0.64755833 0.72594815
-0.38191378 0.14730692 -0.99469423 0.3282849 0.63983047 -0.36550832 0.6764381 -0.25488508
1.0303868 -0.7888611 0.1207464 0.3300076 0.121761404 0.10609586 0.09055452 -0.14931227
-0.4019963 -0.7906072 0.24093497 0.6355611 0.8051853 -0.17565532 -0.16994937 -0.5001753
0.158291 -0.46599624 0.10082553 -0.68508136 -0.8795343 0.17488906 0.7081904 -0.5176118
00000000: 780e e53e e012 263f 66b8 acbe 75f0 a43c
00000010: b240 95be ac0a 563e 27fe 35bf 623d 0d3e
00000020: fa4b 43bf 1a72 67be 1db3 0abf 9c50 113f
00000030: bb99 823e 7b95 85bf 62c6 253f bdd7 393f
00000040: 348a c3be a0d7 163e 48a4 7ebf f514 a83e
00000050: eecb 233f e823 bbbe 0c2b 2d3f 4c80 82be
00000060: b7e3 833f cdf2 49bf e349 f73d c2f6 a83e
00000070: 0b5e f93d c948 d93d a674 b93d 51e5 18be
00000080: 76d2 cdbe 3c65 4abf a8b7 763e 22b4 223f
00000090: a020 4e3f fdde 33be 3507 2ebe 7d0b 00bf
000000a0: 0917 223e 0f97 eebe 9e7d ce3d 7e61 2fbf
000000b0: 2929 61bf 1e16 333e f74b 353f 3582 04bf

model/mobilenetv2_0.50_64/block_9_project_BN/FusedBatchNormV3 f4 [32]
0.8821269 -0.40813023 -0.64025635 -0.010037499 -0.6321889 -0.72744095 0.9182411 0.45393765
0.1293446 -0.7402998 0.31705356 -0.6210296 0.6497178 0.36655167 -0.34220746 -0.5098143
0.0052635046 0.05598179 0.37896627 -0.041918512 -0.8515075 -0.47834554 -0.84057003 -0.4417179
-1.1085775 -0.07821158 0.6210997 -0.4265292 -0.82412004 0.030462297 -0.48962972 0.18129735
00000000: 12d3 613f 72f6 d0be d7e7 23bf 5274 24bc
00000010: 22d7 21bf 9239 3abf d911 6b3f 846a e83e
00000020: e972 043e 4a84 3dbf d854 a23e ccfb 1ebf
00000030: e853 263f a9ac bb3e d135 afbe 3183 02bf
00000040: 7a79 ac3b 294d 653d de07 c23e bfb2 2bbd
00000050: 65fc 59bf b5e9 f4be 992f 57bf d928 e2be
00000060: dee5 8dbf 652d a0bd 6400 1f3f 0962 dabe
00000070: 88f9 52bf 118c f93c bfb0 fabe 03a6 393e

model/mobilenetv2_0.50_64/block_8_project_BN/FusedBatchNormV3 f4 [32]
0.28610307 -0.37109938 0.46098182 -0.15773645 -1.650794 -0.76990527 0.6582499 0.8305992
-0.2771183 -0.47363102 -0.5253946 -0.7753729 -0.6512042 0.6740387 0.46844915 -0.82837194
0.042950317 0.30750096 -0.12625648 -1.0438349 0.35932916 0.074545175 0.021832108 -0.5058395
0.058462933 -0.08926828 0.07584273 -0.3980658 -0.29359648 0.9279379 -0.06253521 0.0650294
00000000: 1a7c 923e bd00 bebe cf05 ec3e aa85 21be
00000010: 384d d3bf 8318 45bf 1183 283f 26a2 543f
00000020: 73e2 8dbe c47f f2be 4380 06bf d77e 46bf
00000030: 52b5 26bf cd8d 2c3f 91d8 ef3e 2f10 54bf
00000040: acec 2f3d c470 9d3e 6149 01be 629c 85bf
00000050: fef9 b73e 24ab 983d 40d9 b23c b37e 01bf
00000060: d476 6f3d 4ad2 b6bd 6f53 9b3d 48cf cbbe
00000070: 4752 96be 578d 6d3f 7612 80bd 222e 853d

model/mobilenetv2_0.50_64/block_7_project_BN/FusedBatchNormV3 f4 [32]
-0.21538307 -0.9091945 0.34543377 0.55852765 0.20718116 1.1988419 0.41883066 -0.22965434
-0.87836343 -0.06412047 -0.32166618 0.009651449 0.35107824 -0.09958101 0.41576236 0.3572044
0.19744636 -0.514636 0.607869 0.58310556 -0.18996277 0.16811974 -0.11401207 -0.36600518
0.5320237 -0.4344087 0.6476921 0.12276529 -0.651304 -0.24668506 -1.807416 0.62770677
00000000: 618d 5cbe f9c0 68bf b2dc b03e abfb 0e3f
00000010: 4c27 543e a773 993f f970 d63e 822a 6bbe
00000020: 6ddc 60bf 9851 83bd 6eb1 a4be 1c21 1e3c
00000030: 87c0 b33e 21f1 cbbd cede d43e 7fe3 b63e
00000040: 612f 4a3e 2fbf 03bf 4e9d 1b3f 6846 153f
00000050: 9a85 42be 9527 2c3e 297f e9bd 0865 bbbe
00000060: b532 083f d16a debe 26cf 253f 5e6c fb3d
00000070: dcbb 26bf 029b 7cbe 6859 e7bf 64b1 203f

model/mobilenetv2_0.50_64/bn_Conv1/FusedBatchNormV3 f4 [16]
2.9641006 -3.0134544 3.2826614 -3.1643736 2.7435215 -3.0674436 -2.3457096 -1.1940883
-2.408741 -0.038973134 3.1008008 1.1594375 2.9237738 2.813834 2.8599107 3.2330935
00000000: d3b3 3d40 70dc 40c0 2017 5240 1985 4ac0
00000010: db95 2f40 ff50 44c0 1b20 16c0 e3d7 98bf
00000020: d028 1ac0 4ba2 1fbd 8573 4640 7368 943f
00000030: 1c1f 3b40 db15 3440 c708 3740 01eb 4e40

model/mobilenetv2_0.50_64/expanded_conv_depthwise_BN/FusedBatchNormV3 f4 [16]
0.50660884 -0.68273884 -0.45775506 -0.45828333 0.650736 -0.71470934 0.79671365 -0.53713906
0.19060233 -0.0033309753 0.5385444 0.8456812 0.75366753 -0.43070483 -0.7337395 -0.20652431
00000000: 1eb1 013f f9c7 2ebf df5e eabe 1da4 eabe
00000010: a296 263f 31f7 36bf 6df5 4b3f f281 09bf
00000020: 422d 433e 7e4c 5abb 0cde 093f 907e 583f
00000030: 5bf0 403f 5885 dcbe 5ad6 3bbf 1c7b 53be

model/mobilenetv2_0.50_64/block_1_expand_BN/FusedBatchNormV3 f4 [48]
-0.002466791 0.0030881132 0.010077311 -0.008161542 0.0017134014 -1.3717363e-06 0.004532799 0.004039715
-0.0012035964 -0.0023887947 0.004993385 0.0007178535 -0.0014920889 0.002641668 -0.0013687538 0.007020574
0.009084852 -0.006949427 0.0005880195 -0.0004845322 0.004128976 -0.0016171754 0.00036982168 0.0035932576
-0.00057068374 0.009771981 -0.0064760777 -0.0013663522 -0.00048580993 -0.0036023152 -0.0013931162 0.0017327722
-0.0041957423 -0.00579799 0.009206805 -0.005255617 -8.4584346e-05 -0.0067985994 -0.0017121464 -0.002433582
0.0048299064 -0.0023858089 -0.0023577348 0.0081115635 0.002068351 0.005897511 -0.0048158453 0.0050154394
00000000: e3a9 21bb f161 4a3b 4e1b 253c fdb7 05bc
00000010: 3694 e03a 801c b8b5 e087 943b 965f 843b
00000020: fec1 9dba 538d 1cbb 8d9f a33b 552e 3c3a
00000030: 3292 c3ba d61f 2d3b c267 b3ba d80c e63b
00000040: a2d8 143c 05b8 e3bb 5225 1a3a d008 feb9
00000050: 5c4c 873b 67f7 d3ba a0e4 c139 dc7c 6b3b
00000060: f099 15ba a91a 203c 4735 d4bb 2c17 b3ba
00000070: 4eb4 feb9 d214 6cbb 3999 b6ba 301e e33a
00000080: 707c 89bb 11fd bdbb 24d8 163c 5037 acbb
00000090: e062 b1b8 c9c6 debb 1a6a e0ba bb7c 1fbb
000000a0: 3144 9e3b 3b5b 1cbb 3a84 1abb 5de6 043c
000000b0: 2c8d 073b e83f c13b 3dce 9dbb 8e58 a43b

model/mobilenetv2_0.50_64/block_1_depthwise_BN/FusedBatchNormV3 f4 [48]
0.40348044 0.17353438 -0.5560946 -0.12170744 -0.022831304 0.7955834 -0.3746757 0.68160886
-0.009300367 0.69082797 0.6799458 -0.26488724 0.3815999 0.40995598 0.0034376695 0.8888558
1.2577631 -0.81520534 0.38313043 -0.3181728 -0.3380378 -0.42272323 -0.53605485 -0.876001
0.20645224 -0.15972622 -0.20045729 0.17922987 -0.2596797 -0.3571858 -0.7793957 0.41338065
-0.48361555 0.26645562 -0.427929 -0.7905033 0.47630227 -0.53665495 0.60915136 0.8843364
-0.30896363 0.49559683 -0.6633131 -1.0863309 -1.0547131 -0.063652255 0.07898149 0.26885596
00000000: fd94 ce3e ffb2 313e 375c 0ebf c041 f9bd
00000010: b708 bbbc 5bab 4b3f 7ed5 bfbe eb7d 2e3f
00000020: 9160 18bc 1ada 303f ee10 2e3f 4d9f 87be
00000030: 1061 c33e c0e5 d13e 864a 613b 0e8c 633f
00000040: 62fe a03f 4cb1 50bf ac29 c43e 8ce7 a2be
00000050: 4a13 adbe 2e6f d8be e43a 09bf 9a41 60bf
00000060: 3768 533e 458f 23be ad44 4dbe 0988 373e
00000070: bdf4 84be 0fe1 b6be 7a86 47bf a1a6 d33e
00000080: 759c f7be df6c 883e 8319 dbbe 6d5e 4abf
00000090: e4dd f33e 3862 09bf 58f1 1b3f df63 623f
000000a0: 7b30 9ebe debe fd3e e3ce 29bf e40c 8bbf
000000b0: d700 87bf 1d5c 82bd 0cc1 a13d 7da7 893e

model/mobilenetv2_0.50_64/block_2_expand_BN/FusedBatchNormV3 f4 [96]
-0.00063357875 0.0025924123 0.0025314293 -0.003220874 0.0010593818 0.0012280989 -0.00049002975 -0.0017532596
0.0010840067 -0.0042013703 0.00016539323 -0.00073541305 -0.003178841 -0.0015424757 -0.00087064184 0.0044750688
-0.0008307977 -0.0045126267 -0.00016202743 -0.0028300346 -0.0062850285 0.002925891 0.0047585326 -0.002641101
-0.0075978087 -0.005539199 -0.0021559887 0.004322468 0.00018715166 0.00010000431 -0.0014232227 -0.006308202
0.0034096683 -0.0008325378 -0.0016622478 0.0044288165 -0.003877606 0.00645187 0.0017936131 0.0012554213
0.009711688 0.027510798 -0.0050292946 0.0031220098 0.005477704 0.0013902116 0.005417596 0.007841589
0.02047824 -0.006363746 0.00064859266 0.005085421 -0.00032167824 0.00023534242 -0.0020120658 0.0027627428
-0.0014697028 0.010981328 0.0037189475 0.007792596 0.0020428072 0.0037454902 -0.0006789596 0.0018438179
-0.00097252766 0.0010900421 0.0005767573 0.007168356 0.0014962394 -0.0075966427 0.003299654 0.0071708225
-0.0055693258 -0.0014102006 0.0013152901 0.0016282346 0.006182862 0.0019828547 0.0070175542 0.00041417324
0.004811435 -0.00030590314 -0.00082717877 -0.0026544782 -0.0021211214 0.0026578684 0.00014081469 0.0010427614
-0.006174852 -0.0038540354 -0.0018434923 -0.004314911 -0.0027894913 0.00041702692 -0.0014128971 0.0006464463
00000000: c016 26ba 76e5 293b 56e6 253b 4c15 53bb
00000010: f4da 8a3a 29f8 a03a 5775 00ba a1cd e5ba
00000020: 3b15 8e3a a6ab 89bb 686d 2d39 bcc8 40ba
00000030: 1a54 50bb e52c caba c93b 64ba 99a3 923b
00000040: e4c9 59ba a8de 93bb e8e5 29b9 1a78 39bb
00000050: a4f2 cdbb 4ec0 3f3b 77ed 9b3b 5216 2dbb
00000060: 0af7 f8bb 2b82 b5bb 7d4b 0dbb 7da3 8d3b
00000070: 243e 4439 68b9 d138 6e8b baba 09b5 cebb
00000080: be74 5f3b aa3e 5aba c8df d9ba 9b1f 913b
00000090: 6f1f 7ebb 356a d33b ab17 eb3a f38c a43a
000000a0: c61d 1f3c 535e e13c c8cc a4bb a29a 4c3b
000000b0: 507e b33b c337 b63a 1786 b13b 027a 003c
000000c0: fbc1 a73c f886 d0bb 5106 2a3a 9aa3 a63b
000000d0: eca6 a8b9 40c6 7639 dddc 03bb 220f 353b
000000e0: 0ba3 c0ba 07eb 333c 96b9 733b 0859 ff3b
000000f0: 9ee0 053b e676 753b 35fc 31ba 43ac f13a
00000100: 3af1 7eba bedf 8e3a 8731 173a 87e4 ea3b
00000110: 771d c43a 42ed f8bb 023f 583b 38f9 ea3b
00000120: e47e b6bb 7bd6 b8ba d065 ac3a 7d6a d53a
00000130: 9b99 ca3b c8f2 013b 83f3 e53b 6425 d939
00000140: 3ea9 9d3b a061 a0b9 07d7 58ba c1f6 2dbb
00000150: 8302 0bbb a22f 2e3b a8a7 1339 44ad 883a
00000160: 6a56 cabb fc93 7cbb 56a1 f1ba 1964 8dbb
00000170: e6cf 36bb 68a4 da39 f630 b9ba 4776 293a

model/mobilenetv2_0.50_64/block_2_depthwise_BN/FusedBatchNormV3 f4 [96]
-0.58725893 0.025862776 0.2125398 -0.03583607 0.5917268 -0.034015957 -0.08453978 -0.5147844
0.17481269 -0.77522993 -0.30547726 -0.1782011 -0.26236755 0.07966758 0.2523092 0.11983954
0.37769046 -0.37352714 -0.19464007 -0.535235 0.58416134 0.9098754 0.8575016 0.11061043
0.4692615 0.0943242 -0.687865 -0.66948026 0.02578626 -0.6091427 0.10759994 -0.04951263
0.63903135 0.35647303 -0.043019015 -0.08482942 0.3968431 0.4973357 -0.1199063 -0.22859544
0.59774834 0.733317 0.6465952 -0.14055778 0.87272733 0.14236088 -0.20760596 -0.12972908
0.32517096 0.4261773 0.48779917 0.92973584 -0.055436432 0.5012241 -0.45139915 0.65506643
-0.5262367 -0.69738233 -0.020166619 -0.74097 0.59761685 0.21930386 -0.4530332 -0.5482398
0.37747914 0.5454154 0.29347944 -0.13664575 0.23920088 0.41846424 -0.4564603 -0.17756502
0.561919 0.29311636 -0.6566689 0.5187129 0.53275245 0.001477588 -0.0009846515 -0.055880606
0.03820547 -0.67555916 -0.8421757 -0.005302135 -0.8602519 0.6563785 0.486836 0.5090069
-0.48622215 -0.7201484 0.6278771 -0.7383456 0.122477144 -1.0933852 -0.12946393 0.6951058
00000000: 9a56 16bf 2cde d33c 09a4 593e d8c8 12bd
00000010: 687b 173f 5154 0bbd 3123 adbd e9c8 03bf
00000020: 1902 333e 7875 46bf 8467 9cbe 597a 36be
00000030: 0a55 86be c228 a33d ac2e 813e 6f6e f53d
00000040: a560 c13e f33e bfbe ba4f 47be 2905 09bf
00000050: 998b 153f 98ed 683f 3a85 5b3f b987 e23d
00000060: 0b43 f03e 0c2d c13d ec17 30bf 0f63 2bbf
00000070: b53d d33c c7f0 1bbf 5b5d dc3d c1cd 4abd
00000080: 8f97 233f a283 b63e b534 30bd 0cbb adbd
00000090: 052f cb3e c9a2 fe3e 6f91 f5bd ec14 6abe
000000a0: 0906 193f aaba 3b3f 4387 253f 61ee 0fbe
000000b0: 0f6b 5f3f 0dc7 113e a896 54be b3d7 04be
000000c0: cf7c a63e e933 da3e d0c0 f93e 2b03 6e3f
000000d0: 5011 63bd 3950 003f ca1d e7be 6fb2 273f
000000e0: 73b7 06bf a687 32bf 7734 a5bc 36b0 3dbf
000000f0: 6bfd 183f 3191 603e f8f3 e7be 7259 0cbf
00000100: f244 c13e 58a0 0b3f f042 963e ddec 0bbe
00000110: 13f1 743e f240 d63e 2ab5 e9be 9bd3 35be
00000120: ecd9 0f3f 5913 963e 741b 28bf 5eca 043f
00000130: 7762 083f a0ab c13a 6c0f 81ba 10e3 64bd
00000140: 577d 1c3d 72f1 2cbf d498 57bf 88bd adbb
00000150: 7839 5cbf 6c08 283f 9142 f93e 474e 023f
00000160: 1cf2 f8be a55b 38bf 8ebc 203f 3804 3dbf
00000170: 4cd5 fa3d 0cf4 8bbf 3192 04be 74f2 313f

model/mobilenetv2_0.50_64/block_3_expand_BN/FusedBatchNormV3 f4 [96]
-0.005045484 -0.003674974 0.0032636437 -0.00056058494 0.009514932 0.0025334808 0.0020845677 -5.8896723e-05
-0.002733996 0.004519047 0.002966588 -0.0034671403 -0.00075767864 -0.0025984566 -0.0015839313 -0.0026510688
0.006715653 0.0028946942 -0.005102316 -0.0011968581 -0.0039618383 0.0031961598 0.004869361 0.0010679517
0.0043494627 -0.00042930307 0.0018258423 -0.0014193272 0.0016505558 -3.937047e-05 -0.003135333 0.0075897425
0.0039995373 -0.0053845695 -0.0030879737 -0.0019942657 -0.004411851 -0.0038612355 0.015103537 3.800809e-05
-0.000551127 0.001531753 0.0012697289 0.007041062 0.0011496063 0.003984445 -0.00022901165 0.0041324915
0.0056975875 -0.0007791071 0.0014497065 0.00015413252 -0.004024116 -0.0015211449 0.0017192261 0.010727035
0.0015086225 -0.0052582114 -0.003096874 0.00032740543 -0.0022021788 -0.00063465 0.00073376246 -0.004709797
0.0015482885 0.0030408187 -0.00189839 0.009191234 -0.0086658625 -0.0016408169 -0.0020664523 0.007329584
0.00094457215 0.0009460726 -0.00031311612 -0.001827662 0.0006549875 -0.011306989 -0.00080327725 0.0034388488
-0.007344852 0.0040303934 0.0048806425 -0.009349396 -0.002156475 0.008405195 0.010132955 8.120318e-06
0.0028060223 0.0025356843 0.0023901633 0.005300133 0.00020513972 0.0033768064 0.0024504852 0.0006192614
00000000: 9654 a5bb d5d7 70bb dbe2 553b 38f4 12ba
00000010: 84e4 1b3c c108 263b 3e9d 083b e007 77b8
00000020: d72c 33bb 8414 943b 166b 423b f638 63bb
00000030: f49e 46ba de4a 2abb ea9b cfba 8ebd 2dbb
00000040: fb0e dc3b e9b4 3d3b 5431 a7bb e5df 9cba
00000050: 4fd2 81bb aa76 513b 298f 9f3b 83fa 8b3a
00000060: f085 8e3b 1514 e1b9 1a51 ef3a b808 baba
00000070: 7657 d83a b821 25b8 297a 4dbb 60b3 f83b
00000080: 8d0e 833b 0b71 b0bb 9a5f 4abb 3ab2 02bb
00000090: 4a91 90bb c80c 7dbb d374 773c e06a 1f38
000000a0: 8279 10ba 1ac5 c83a 086d a63a b6b8 e63b
000000b0: 63ae 963a f28f 823b d922 70b9 da69 873b
000000c0: d4b2 ba3b fe3c 4cba 1404 be3a a29e 2139
000000d0: bbdc 83bb 2761 c7ba a857 e13a 72c0 2f3c
000000e0: f9bc c53a 134d acbb edf4 4abb 9da7 ab39
000000f0: 6e52 10bb a45e 26ba f759 403a a454 9abb
00000100: f1ef ca3a 7948 473b 66d3 f8ba d496 163c
00000110: 43fb 0dbc ae10 d7ba 516d 07bb 022d f03b
00000120: 2a9d 773a dc01 783a bc29 a4b9 298e efba
00000130: 78b3 2b3a f340 39bc 0693 52ba 4f5e 613b
00000140: 16ad f0bb 6411 843b cced 9f3b 362e 19bc
00000150: a653 0dbb f1b5 093c b204 263c 803c 0837
00000160: 3ee5 373b b92d 263b 49a4 1c3b bdac ad3b
00000170: c61a 5739 694d 5d3b 5298 203b ee55 223a

model/mobilenetv2_0.50_64/block_3_depthwise_BN/FusedBatchNormV3 f4 [96]
-0.55116206 0.31055313 -0.52059555 -0.2868384 1.0423492 -1.0375355 0.8470474 0.0661632
-0.7603584 -0.22473332 -0.1907242 -0.55080014 -0.9914469 -0.15106748 0.12825346 -0.833433
-0.13567856 -0.33961737 0.31077555 0.3283173 0.7978632 0.12701453 -0.04065791 0.33177623
-0.5902649 0.8795585 0.2381043 -0.3316221 -0.2010563 0.10059324 -0.16075061 -0.4696448
-0.7675649 -0.014810708 -0.7080009 -0.55950546 -0.078458235 0.43119755 0.5691516 0.667384
0.13666233 -0.045497246 -0.24438977 1.042521 0.7641958 0.016857492 0.26456797 0.78732896
0.6657388 -0.5133664 -0.615042 0.53939813 -0.49026725 0.06152597 -0.8434626 -0.1924182
-0.37267858 0.137049 1.1286926 -0.86355186 1.2209915 -0.9582874 -0.10820139 0.6625717
-0.8479815 -0.16393599 0.98782796 -0.7358039 0.4702614 -0.8447568 0.8280632 -0.4043413
-0.6173417 0.35092255 -0.08959535 -0.18072987 -0.34308308 0.07186906 0.20453826 0.12914485
-0.42265528 0.5054651 0.8930035 0.011798741 0.42367542 -0.17321251 0.8649132 1.1185167
-0.9572481 -0.0363554 -0.57783234 0.9778073 1.0485845 -0.34001997 -0.43370852 -0.7621502
00000000: f518 0dbf d200 9f3e c045 05bf 7cdc 92be
00000010: b36b 853f f7cd 84bf 19d8 583f 9280 873d
00000020: d9a6 42bf 7e20 66be 344d 43be 3d01 0dbf
00000030: 77cf 7dbf 6fb1 1abe e054 033e dd5b 55bf
00000040: 52ef 0abe 54e2 adbe f91d 9f3e 3519 a83e
00000050: c340 4c3f 1910 023e e988 26bd 93de a93e
00000060: 9a1b 17bf bf2a 613f 9dd1 733e 5fca a9be
00000070: b4e1 4dbe d403 ce3d cf9b 24be 4975 f0be
00000080: 227f 44bf 9da8 72bc 8c3f 35bf c03b 0fbf
00000090: b6ae a0bd edc5 dc3e ebb3 113f aed9 2a3f
000000a0: 36f1 0b3e 525b 3abd 5041 7abe 5471 853f
000000b0: 56a2 433f b918 8a3c 7475 873e 648e 493f
000000c0: dc6d 2a3f fb6b 03bf 6473 1dbf ff15 0a3f
000000d0: 4f04 fbbe a802 7c3d 2aed 57bf 4709 45be
000000e0: bacf bebe 9356 0c3e 0079 903f bc11 5dbf
000000f0: 7349 9c3f 5352 75bf b198 ddbd 4d9e 293f
00000100: 5115 59bf d6de 27be 4be2 7c3f a55d 3cbf
00000110: 1ac6 f03e fb41 58bf f3fb 533f d305 cfbe
00000120: 1b0a 1ebf 1fac b33e c47d b7bd 4011 39be
00000130: 96a8 afbe 1630 933d 7a72 513e 8c3e 043e
00000140: 4666 d8be 2966 013f e19b 643f 824f 413c
00000150: fceb d83e 9f5e 31be f46a 5d3f 8e2b 8f3f
00000160: 360e 75bf 66e9 14bd d2ec 13bf 9451 7a3f
00000170: 0438 863f 1917 aebe 0b0f debe 471c 43bf
