models/mobilenetv2/dynamic_range_quantization/model_fan.tflite (tflite, 872296 bytes, 106 tensors)

model/mobilenetv2_0.50_64/predictions/BiasAdd/ReadVariableOp f4 [3]
0.0013228128 -0.0023285437 -0.0001533738
00000000: 3b62 ad3a 7b9a 18bb f7d2 20b9

model/mobilenetv2_0.50_64/block_1_project/Conv2D f4 [16, 1, 1, 48]
0.34825963 -0.046776213 0.2823865 -0.14728615 0.14077319 0.13322453 0.006135521 0.14451055
-0.314503 0.036549214 0.3169298 0.23494819 0.06367382 0.33042014 -0.020699367 0.055243015
0.24650879 0.2568207 -0.037877165 -0.30998525 -0.056479536 0.32476056 -0.16159552 0.13720478
0.28497255 0.024869775 -0.24671546 0.013058025 -0.008067111 0.080541715 -0.0030976722 0.3140328
-0.17018181 0.2819589 0.0038956502 0.15780565 0.14719452 -0.2552594 -0.30968687 -0.2143959
-0.004862644 0.118879095 0.3178098 -0.07601546 0.033626553 -0.034626897 -0.21223177 -0.23180589
0.04997484 0.15822843 -0.00969337 -0.07264564 -0.09554565 -0.32489583 0.18725161 -0.22524092
0.074901514 0.19993885 0.025363887 0.24256893 0.10666787 -0.20687805 0.06550556 -0.09628899
-0.14221035 0.19202654 -0.2434011 0.19344203 -0.27063116 -0.2883613 -0.19219351 0.21900393
0.18898055 -0.17076719 -0.20194279 -0.17961456 0.05079543 -0.2903268 0.24144779 -0.23591648
0.16368313 -0.22980914 0.23698853 0.19852977 -0.020174362 -0.04196734 -0.2608742 -0.07423113
-0.24043097 0.1879547 0.106755316 -0.037238948 -0.3371673 0.22186555 -0.18665735 0.11972636
0.13336788 0.1708636 0.20975153 -0.06382884 -0.2704159 0.19567496 -0.31947947 0.087407075
0.26021495 0.30487502 0.09487585 -0.043670006 0.04913508 -0.24567679 -0.028480768 0.36067146
0.05010995 -0.20668325 0.059108824 0.1985953 -0.3104594 0.22999696 -0.25918445 -0.28731123
0.1863017 0.18493143 0.34671232 0.2848084 0.11143951 0.27998936 -0.009066348 -0.05467262
-0.16640477 0.12436256 -0.18388186 -0.23762356 0.14241415 0.31376344 -0.23385118 0.20027004
0.34743518 0.2917626 0.22445989 0.18847665 0.32508796 -0.21888596 -0.26805666 -0.23079482
-0.35239542 0.36931512 0.08242381 0.21912351 0.29917157 -0.2985825 -0.06423983 0.23553798
-0.111660145 0.015677312 0.1394183 0.3891644 0.2668998 0.20208727 -0.2112079 0.12513667
0.3278842 -0.37066466 0.19767927 -0.07511847 -0.3098517 -0.36852807 0.21193519 0.34896255
-0.2416626 -0.34190348 0.38452 0.18557665 0.11169736 -0.009867997 -0.31563336 -0.33572748
-0.26350656 -0.16635275 0.05269847 -0.38286707 -0.29879525 -0.23843604 -0.10982024 -0.073805034
0.35698032 0.28583464 0.24795274 -0.093150124 0.22061993 -0.33677542 -0.26670292 0.0045164614
0.053083204 0.22960362 0.17748852 0.12728584 -0.4047575 0.415005 0.23099886 0.2932007
0.037198048 0.22247387 0.008741464 -0.4793201 0.05067536 -0.07417945 0.41274396 0.39235365
-0.25731984 -0.22669259 0.33502078 -0.41883108 -0.13836472 -0.26686135 -0.38914713 0.041153505
0.32937056 -0.026703218 0.41581255 -0.27005935 0.10694364 0.33126545 -0.022880245 0.4276406
0.38375768 -0.014404781 -0.09243619 0.04412962 0.36434206 0.118154734 0.0859767 0.12238133
0.47930002 -0.15614557 0.14365244 -0.038595375 -0.13800667 0.13341022 -0.34590247 0.17747769
-0.23299661 -0.087123476 0.017392177 -0.26928085 -0.20448019 0.09193236 -0.123852775 0.22764602
0.19771473 -0.06265534 0.18205124 -0.010960278 -0.0757702 0.13727696 -0.32752436 0.21575928
00000000: 164f b23e 6a98 3fbd f794 903e 2ed2 16be
00000010: d926 103e 036c 083e 7b0c c93b 93fa 133e
00000020: 8a06 a1be a1b4 153d 9f44 a23e 4296 703e
00000030: 6b67 823d d42c a93e b891 a9bc 8046 623d
00000040: cd6c 7c3e 017e 833e 1625 1bbd 63b6 9ebe
00000050: 1657 67bd 0447 a63e 4c79 25be 697f 0c3e
00000060: ece7 913e b3bb cb3c faa2 7cbe 54f1 553c
00000070: ea2b 04bc 0ef3 a43d 5102 4bbb e8c8 a03e
00000080: 2444 2ebe eb5c 903e 2a4e 7f3b ce97 213e
00000090: 29ba 163e 5cb1 82be 478f 9ebe 998a 5bbe
000000a0: d056 9fbb e276 f33d f7b7 a23e fead 9bbd
000000b0: ffbb 093d efd4 0dbd 4953 59be 865e 6dbe
000000c0: 6bb2 4c3d a206 223e f1d0 1ebc 3dc7 94bd
000000d0: 70ad c3bd bf58 a6be e3be 3f3e 8ea5 66be
000000e0: f765 993d c5bc 4c3e edc7 cf3c fd63 783e
000000f0: af74 da3d d7d7 53be c727 863d 2933 c5bd
00000100: 979f 11be 9ba2 443e 233e 79be ab15 463e
00000110: 2b90 8abe 18a4 93be 60ce 44be 9142 603e
00000120: 1e84 413e 98dd 2ebe 17ca 4ebe e1ec 37be
00000130: de0e 503d b7a5 94be 173e 773e 1794 71be
00000140: 8d9c 273e 1653 6bbe 1fad 723e 634b 4b3e
00000150: b444 a5bc f2e5 2bbd 4e91 85be 7e06 98bd
00000160: 8933 76be 3277 403e 88a2 da3d de87 18bd
00000170: 31a1 acbe b930 633e 1b23 3fbe 1833 f53d
00000180: 9791 083e def6 2e3e 1bc9 563e b2b8 82bd
00000190: f473 8abe 045f 483e d092 a3be 7b02 b33d
000001a0: e53a 853e 9418 9c3e 454e c23d 52df 32bd
000001b0: de41 493d b292 7bbe 8050 e9bc eea9 b83e
000001c0: 1740 4d3d c6a4 53be 181c 723d 915c 4b3e
000001d0: 89f4 9ebe 5384 6b3e d3b3 84be 751a 93be
000001e0: dfc5 3e3e aa5e 3d3e 4784 b13e 68d2 913e
000001f0: 663a e43d c45a 8f3e 058b 14bc 66f0 5fbd
00000200: 0366 2abe ccb1 fe3d 874b 3cbe 9753 73be
00000210: 04d5 113e 9aa5 a03e af76 6fbe 9713 4d3e
00000220: 06e3 b13e e861 953e d0d8 653e 0600 413e
00000230: ee71 a63e a423 60be b93e 89be 7a55 6cbe
00000240: 2c6d b4be df16 bd3e d1cd a83d ea61 603e
00000250: 042d 993e cedf 98be 2c90 83bd de30 713e
00000260: 13ae e4bd b56d 803c acc3 0e3e 8e40 c73e
00000270: 17a7 883e f7ef 4e3e e246 58be d423 003e
00000280: 70e0 a73e c2c7 bdbe 6f6c 4a3e b6d7 99bd
00000290: e2a4 9ebe b6af bcbe 8a05 593e 38ab b23e
000002a0: 6776 77be f90d afbe cedf c43e ce07 3e3e
000002b0: 96c1 e43d 61ad 21bc b29a a1be 79e4 abbe
000002c0: 55ea 86be 6058 2abe 5ada 573d 2707 c4be
000002d0: b1fb 98be 9428 74be 6fe9 e0bd 1827 97bd
000002e0: 20c6 b63e eb58 923e 53e7 7d3e 7ec5 bebd
000002f0: 31ea 613e d46d acbe 498d 88be d3fe 933b
00000300: c66d 593d 361d 6b3e 8dbf 353e 3857 023e
00000310: 603c cfbe 897b d43e f78a 6c3e 671e 963e
00000320: fb5c 183d 31d0 633e 5b38 0f3c 7269 f5be
00000330: f790 4f3d 65eb 97bd 2d53 d33e 94e2 c83e
00000340: 6dbf 83be 1a22 68be d887 ab3e 0771 d6be
00000350: 7baf 0dbe 0da2 88be 4b3e c7be 9490 283d
00000360: 42a3 a83e b5c0 dabc 62e5 d43e 3845 8abe
00000370: 4405 db3d a09b a93e 5a6f bbbc b5f3 da3e
00000380: e37b c43e 0802 6cbc 2f4f bdbd 43c1 343d
00000390: 0b8b ba3e 1cfb f13d 8d14 b03d 10a3 fa3d
000003a0: d066 f53e a0e4 1fbe a019 133e 2f16 1ebd
000003b0: 9f51 0dbe b09c 083e 211a b1be b6bc 353e
000003c0: aa96 6ebe cb6d b2bd 0a7a 8e3c 2edf 89be
000003d0: 4163 51be 0847 bc3d 86a6 fdbd 0a1c 693e
000003e0: bb75 4a3e 7151 80bd a46b 3a3e bd92 33bc
000003f0: 682d 9bbd 5592 0c3e 46b1 a7be 00f0 5c3e

model/mobilenetv2_0.50_64/block_1_expand/Conv2D f4 [48, 1, 1, 8]
-0.5949735 -0.20378283 -0.21244228 -0.13103062 0.47648257 -0.28849745 0.46141824 0.02282465
-0.7453692 0.45496136 -0.7203505 -0.5809717 0.92841613 0.10612595 -0.051515132 0.016409334
-0.279679 0.20486268 -0.29080167 0.23362051 -0.24881142 -0.3160943 0.04212884 -0.40238008
-0.1719801 -0.56370443 -0.48911536 0.35221463 0.5910945 0.20011482 -0.5824725 0.44277266
-0.4680831 0.3619964 -0.26674947 -0.195946 -0.11365205 -0.32740903 -0.40770775 0.5426875
-0.7434823 -0.0223798 -0.5877791 -0.79300874 0.067980714 0.40244785 0.63273567 -0.2705279
0.6086173 0.2637348 0.21479195 0.520368 -0.009771902 -0.7172421 -0.37932828 0.5281877
-0.50805956 -0.34219328 0.51728606 0.34131688 -0.322176 0.40412688 -0.09614189 -0.212578
-0.2022572 0.31948736 0.08005017 -0.05156768 -0.25984886 0.048006788 -0.03423884 -0.7498225
-0.19220817 -0.42797127 -0.34955564 -0.06755628 -0.36312798 0.4207907 -0.12448253 -0.20308419
-0.39784467 -0.045172933 0.11207621 -0.31551588 -0.28115273 0.19974518 -0.31099364 0.37119532
0.24518822 0.3600841 -0.35283262 -0.39235422 0.32157806 0.42215735 -0.13445844 0.11738559
0.3427755 -0.31375152 0.27763265 0.025333017 0.35060167 -0.6448712 -0.49299476 -0.6454198
0.17923082 0.43014002 0.26261613 -0.42684755 -0.4095273 0.5404598 0.19821842 0.26847547
-0.55219334 -0.5086698 -0.54349947 -0.2251778 0.11474142 -0.45266703 -0.20119326 -0.36492908
-0.44221303 0.115185276 -0.6012464 -0.13511679 0.78257334 0.5561982 0.9127144 -0.08005855
0.16916819 -0.28395793 0.44334203 -0.33116347 -0.2192712 0.5734871 0.27666166 0.45132017
-0.32966653 -0.41313243 0.35786423 0.4738725 -0.008954548 0.45585302 0.5404685 -0.43321982
0.146275 0.07167743 0.4356312 -0.11771138 0.9423751 -0.08285673 -0.29306436 -0.20633374
-0.095290296 -0.44076195 -0.2661621 -0.39968517 0.46891916 0.060546964 0.08972047 -0.029634632
0.13201042 -0.057152387 0.46241128 0.4397793 -0.14690839 -0.43402526 0.049210075 0.35770443
0.87492645 0.7945784 -0.19035886 -0.28356013 -0.6587874 -0.6288248 0.764571 0.14544311
0.59330213 -0.21934257 -0.52221704 0.4485906 -0.47713453 0.4481099 0.20488675 -0.20768447
-0.07744814 0.3285343 0.23401143 0.09682119 -0.09365373 -0.84030557 -0.15255421 -0.2466318
-0.39013308 0.41825718 -0.31494772 0.24758962 0.38814434 0.23952751 0.56720406 -0.4260927
0.16467412 0.041061517 0.32961506 0.8645919 0.61200553 0.548283 -0.039656132 -0.24989614
0.5903045 0.36586118 0.37049395 0.19662742 0.062068224 0.16352709 0.29445958 0.6699256
0.5372052 -0.3861188 -0.15228361 -0.24922553 -0.7252081 -0.3354862 -0.29709572 -0.3032231
0.30653754 -0.7248826 0.39675748 0.5351696 -0.18519029 0.49588004 -0.42023054 -0.07303344
-0.044449687 0.08810057 -0.50418705 -0.42294446 -0.53119123 -0.51183414 0.5419409 -0.36369473
0.37339014 0.23182729 0.3370994 -0.10772639 -0.17149918 0.30351993 -0.31475332 0.4048382
-0.5518393 -0.07804922 -0.015988823 -0.21741831 -0.2386841 -0.35095462 0.2805216 0.47546086
00000000: 2f50 18bf 72ac 50be 788a 59be e42c 06be
00000010: 86f5 f33e f0b5 93be 033f ec3e c3fa ba3c
00000020: 84d0 3ebf b2f0 e83e e468 38bf 90ba 14bf
00000030: aeac 6d3f 9058 d93d 8801 53bd de6c 863c
00000040: 1632 8fbe 86c7 513e f5e3 94be 373a 6f3e
00000050: 6cc8 7ebe 1dd7 a1be 4a8f 2c3d c304 cebe
00000060: 8d1b 30be ef4e 10bf 546d fabe 7a55 b43e
00000070: f851 173f e6ea 4c3e eb1c 15bf 19b3 e23e
00000080: 97a8 efbe 9857 b93e 6393 88be 11a6 48be
00000090: 68c2 e8bd 28a2 a7be 12bf d0be 91ed 0a3f
000000a0: db54 3ebf d855 b7bc b178 16bf 9f02 4bbf
000000b0: 7939 8b3d a50d ce3e f7fa 213f a282 8abe
000000c0: 58ce 1b3f 3f08 873e 6cf2 5b3e d636 053f
000000d0: 541a 20bc 2e9d 37bf 5137 c2be 4f37 073f
000000e0: 3110 02bf f533 afbe dc6c 043f 16c1 ae3e
000000f0: 41f4 a4be b8e9 ce3e 0ae6 c4bd 0cae 59be
00000100: 831c 4fbe d993 a33e 58f1 a33d a238 53bd
00000110: e90a 85be c4a2 443d 073e 0cbd 5ef4 3fbf
00000120: 38d2 44be 0d1f dbbe f5f8 b2be f25a 8abd
00000130: e9eb b9be e171 d73e b2f0 febd 4df5 4fbe
00000140: 4cb2 cbbe 4107 39bd 3688 e53d 4c8b a1be
00000150: 40f3 8fbe 008a 4c3e 8f3a 9fbe 500d be3e
00000160: 9f12 7b3e f15c b83e 7aa6 b4be a7e2 c8be
00000170: e1a5 a43e 0225 d83e 79af 09be db67 f03d
00000180: 4580 af3e 0aa4 a0be de25 8e3e 3087 cf3c
00000190: 1082 b33e 4716 25bf cf69 fcbe 3b3a 25bf
000001a0: 4988 373e 503b dc3e 9f75 863e c38b dabe
000001b0: 90ad d1be 935b 0a3f c5f9 4a3e 9e75 893e
000001c0: 8b5c 0dbf 2f38 02bf c822 0bbf 0295 66be
000001d0: 8dfd ea3d f9c3 e7be 9b05 4ebe fcd7 babe
000001e0: bf69 e2be 42e6 eb3d 49eb 19bf 0e5c 0abe
000001f0: ba56 483f 0163 0e3f a7a7 693f bdf5 a3bd
00000200: 6d3a 2d3e ef62 91be bafd e23e 428e a9be
00000210: a188 60be 0dd0 123f 99a6 8d3e 7013 e73e
00000220: 0dca a8be 1886 d3be fb39 b73e 6b9f f23e
00000230: 19b6 12bc 9165 e93e 255c 0a3f fdce ddbe
00000240: 1dc9 153e 9ecb 923d 0d0b df3e aa12 f1bd
00000250: 7f3f 713f cab0 a9bd 880c 96be 2749 53be
00000260: 8f27 c3bd 8dab e1be 6646 88be 89a3 ccbe
00000270: 2c16 f03e 1800 783d 5ebf b73d 54c4 f2bc
00000280: bd2d 073e 9f18 6abd 2cc1 ec3e c12a e13e
00000290: 276f 16be 8f38 debe 8190 493d 0925 b73e
000002a0: 2efb 5f3f 7d69 4b3f 6fed 42be cb2e 91be
000002b0: 4ba6 28bf a9fa 20bf edba 433f 0aef 143e
000002c0: a6e2 173f 579b 60be 04b0 05bf abad e53e
000002d0: fa4a f4be a96e e53e d5cd 513e 3dab 54be
000002e0: 219d 9ebd a635 a83e b1a0 6f3e 304a c63d
000002f0: 87cd bfbd 441e 57bf 2c37 1cbe 0c8d 7cbe
00000300: 86bf c7be ce25 d63e d440 a1be 2288 7d3e
00000310: dbba c63e b346 753e 4934 113f d328 dabe
00000320: 55a0 283e 1f30 283d 4ec3 a83e e555 5d3f
00000330: 65ac 1c3f 465c 0c3f 786e 22bd c6e4 7fbe
00000340: 321e 173f 2852 bb3e 62b1 bd3e b358 493e
00000350: 403b 7e3d a573 273e 68c3 963e 3e80 2b3f
00000360: 4886 093f 5db1 c5be 3cf0 1bbe fa34 7fbe
00000370: 3da7 39bf d9c4 abbe ee1c 98be 0f40 9bbe
00000380: 7df2 9c3e e891 39bf cc23 cb3e e000 093f
00000390: 86a2 3dbe fde3 fd3e 7528 d7be 8e92 95bd
000003a0: e010 36bd 126e b43d 6712 01bf 2d8c d8be
000003b0: 26fc 07bf 9007 03bf a4bc 0a3f 3236 babe
000003c0: fe2c bf3e 2264 6d3e 4b98 ac3e a79f dcbd
000003d0: 7b9d 2fbe f766 9b3e 5927 a1be f446 cf3e
000003e0: 5745 0dbf 45d8 9fbd fefa 82bc e8a2 5ebe
000003f0: 9b69 74be 53b0 b3be 87a0 8f3e 9b6f f33e

model/mobilenetv2_0.50_64/expanded_conv_project/Conv2D f4 [8, 1, 1, 16]
0.024185682 -0.38714844 -0.21620952 -0.63716197 0.39002806 -0.48977014 -0.5120123 -0.08611889
-0.22097884 -0.8217845 -0.76154506 0.47439003 -0.7623572 -0.81247705 -0.6911953 -0.57134324
0.3202951 0.5974855 -0.39819786 -0.1389091 -0.48579848 0.5658497 0.28187484 -0.5615576
0.76371074 0.72264946 -0.034796543 -0.29241756 0.29245535 0.3447319 0.1148239 0.48167363
-0.073314786 0.2883413 -0.6626121 -0.34408334 0.26235014 0.74069494 -0.010258912 -0.61047226
-0.18972373 -0.051810246 0.635767 -0.6037497 -0.32559916 0.30294365 0.7993235 0.22022288
-0.26795587 -0.48437023 -0.4549686 0.081366204 -0.45514855 0.33781326 0.11360812 0.3080724
0.1260873 -1.1892961 0.27956972 -0.936409 0.8216168 0.36650196 -0.7723011 1.210198
0.17964312 -0.91480345 -0.80846405 -0.878503 0.16270755 -0.60012954 -0.42483822 -0.6122726
0.14319669 0.49999285 0.9123651 0.53064716 -0.23746729 -0.22431265 -0.36645788 -0.39059073
-0.47933754 0.65180486 0.083304144 0.5756348 0.017856468 -0.7851311 0.41212958 -0.74155974
0.33320403 0.32507628 -0.45388046 -0.15615393 -0.20903373 -0.45816863 0.53480846 -0.4168085
0.46735975 -0.5340944 -0.40060306 -0.1777549 0.026190555 0.07512431 -0.17957303 0.46516627
-0.4469919 -0.029928744 -0.6150404 -0.36277285 0.41587353 0.587277 -0.22739193 0.07733956
-0.27553463 -0.46601248 -0.35511035 -0.63135594 -0.7185929 0.2553629 0.5393962 -0.17451458
-0.3708086 0.36521605 -0.5469884 0.66840667 0.019321697 0.20390397 0.7113023 -0.22698373
00000000: 0d21 c63c 5238 c6be 0766 5dbe 0c1d 23bf
00000010: c2b1 c73e 27c3 fabe 3d13 03bf 1a5f b0bd
00000020: 4748 62be 7860 52bf 9ef4 42bf 40e3 f23e
00000030: d729 43bf 7ffe 4fbf 2df2 30bf 8d43 12bf
00000040: b8fd a33e cff4 183f 97e0 cbbe 303e 0ebe
00000050: 94ba f8be 87db 103f e651 903e 3dc2 0fbf
00000060: 8c82 433f 8eff 383f d286 0ebd c1b7 95be
00000070: b5bc 953e b380 b03e cb28 eb3d ed9d f63e
00000080: 1026 96bd 79a1 933e f2a0 29bf b12b b0be
00000090: c252 863e 2f9e 3d3f ff14 28bc e947 1cbf
000000a0: f046 42be fb36 54bd a0c1 223f 578f 1abf
000000b0: efb4 a6be 6e1b 9b3e 77a0 4c3f 1b82 613e
000000c0: 8331 89be 60ff f7be a5f1 e8be 53a3 a63d
000000d0: 3b09 e9be dcf5 ac3e 60ab e83d aabb 9d3e
000000e0: 071d 013e db3a 98bf c323 8f3e 80b8 6fbf
000000f0: 7b55 523f 25a6 bb3e 86b5 45bf c5e7 9a3f
00000100: 5ef4 373e 8f30 6abf 80f7 4ebf 93e5 60bf
00000110: cf9c 263e 17a2 19bf 6584 d9be e6bd 1cbf
00000120: 27a2 123e 10ff ff3e c290 693f 7ed8 073f
00000130: a02a 73be 37b2 65be 5ea0 bbbe 82fb c7be
00000140: bb6b f5be afdc 263f 5d9b aa3d cd5c 133f
00000150: ba47 923c 5afe 48bf a602 d33e dcd6 3dbf
00000160: b899 aa3e 6670 a63e 0563 e8be d1e6 1fbe
00000170: f00c 56be 1495 eabe 35e9 083f ec67 d5be
00000180: c749 ef3e 69ba 08bf d81b cdbe 6105 36be
00000190: 938d d63c c6da 993d fee1 37be 462a ee3e
000001a0: 1fdc e4be 202d f5bc 4a73 1dbf 5dbd b9be
000001b0: 60ed d43e c957 163f 6ed9 68be 3464 9e3d
000001c0: e012 8dbe 3099 eebe 06d1 b5be 8ba0 21bf
000001d0: b4f5 37bf edbe 823e df15 0a3f f3b3 32be
000001e0: a0da bdbe 99fd ba3e 6f07 0cbf b31c 2b3f
000001f0: 8948 9e3c 34cc 503e e817 363f 6c6e 68be

model/mobilenetv2_0.50_64/Conv1/Conv2D f4 [16, 3, 3, 3]
0.039594557 -0.034035053 -0.026322225 -0.081637025 0.01829716 0.06280676 -0.022648586 -0.02939274
-0.028150752 -0.04570578 0.0049194256 0.076506004 0.039892405 0.050246038 -0.08491663 -0.02778965
0.0835734 0.08979002 -0.025122615 0.0051924754 0.028136343 0.023523595 0.0558721 -0.030385617
-0.03805879 -0.058992166 0.05393101 0.06650557 0.031304315 -0.024540251 -0.039458834 -0.008677502
-0.07221274 0.012611716 -0.023888309 -0.06705524 0.031658955 0.011123579 0.0333396 -0.040873967
-0.021823717 -0.03960241 0.07289783 0.047561835 -0.0076117967 0.055422094 -0.0034191466 0.06449357
-0.015179598 -0.04323127 -0.030093955 0.00076274626 -0.04834993 0.02962962 -0.033552367 -0.050994765
0.06267606 -0.00989557 0.008264388 -0.05946417 0.053761084 0.028375039 -0.0547703 -0.023881596
-0.062906094 0.021462772 -0.026280195 0.025596494 0.015486841 0.016887471 0.0071951402 0.010225703
0.011014093 0.043057315 0.016427042 -0.038842358 -0.06498451 0.011005774 0.06307249 -0.0060719117
0.026508488 0.009545062 0.030689493 0.0018707067 -0.03219269 -0.016859662 -0.016936367 0.0034269374
-0.020621521 0.03822123 0.03590238 0.039669335 0.035936497 0.03380898 0.022802228 -0.009220419
-0.037420023 -0.01317607 -0.038796127 -0.037523065 -0.029873623 0.039929323 0.020751204 0.010034157
0.022524418 -0.0049288324 -0.02773737 -0.013229824 0.0060489853 -0.038931057 0.05526098 -0.011968656
-1.1946582e-06 -0.05520382 0.0151674235 -0.052208737 -0.060858283 0.039429292 0.060526572 -0.058753926
-0.063647225 -0.06451698 0.045724638 0.047679037 -0.06539654 0.032432757 0.044023044 -0.037554976
-0.0015388727 -0.00020032263 0.040376976 0.051242 -0.0007116155 -0.01798816 0.02453251 0.044656657
-0.0052071405 0.016180126 -0.0004337552 0.0086066155 -0.025236145 -0.014751771 -0.02168276 0.021275194
0.00083662366 -0.014018063 -0.04264399 -0.010861288 0.017056594 0.03252239 -0.030793859 -0.002738676
-0.010608027 -0.020624889 0.012594477 0.042532153 0.011302408 0.003374452 -0.020709159 -0.013128444
-0.0329407 -0.0327788 0.028409678 0.027623406 -0.015648484 -0.006352169 0.07631835 0.015122832
0.02823646 0.011676226 -0.05495165 -0.06299208 0.02562018 -0.046511617 -0.035022084 0.04042647
0.08018383 -0.032004654 0.00073281117 -0.0018350297 -0.00948476 -0.072436824 0.07472517 -0.06544889
0.06671254 0.03276362 0.05629291 -0.015557607 -0.07105746 -0.008671449 -0.028843699 0.0016647533
-0.027098492 0.019796196 -0.00507946 0.021265555 0.031560462 -0.022634003 -0.032795496 -0.016152347
-0.0076551107 -0.01914951 0.008437793 0.022223657 0.00058216875 -0.0070143887 0.004067164 -0.024544291
0.01547707 -0.010118885 0.0055738743 -0.01639827 0.029424036 -0.025863454 -0.014913296 -0.009478528
0.03384852 0.031195905 0.018381126 -0.007472382 -0.02265106 -0.036985956 0.027069323 -0.006787949
0.013433382 -0.0025143516 -0.025200602 0.013431902 0.015769208 -0.006427802 -0.03364576 -0.0022765156
-0.031448744 -0.019040309 -0.04203176 0.022220463 -0.033721186 -0.008323265 -0.039896846 0.010220909
0.0008497022 0.031996757 0.0015251533 -0.0026897495 -0.0040383865 0.012580318 0.008528695 -0.008365378
-0.005504051 0.014254314 -0.0035540704 0.0017380426 0.009650963 -0.017576277 -0.009632256 0.0064619193
00000000: e72d 223d 5768 0bbd b5a1 d7bc 5031 a7bd
00000010: ede3 953c d5a0 803d 8789 b9bc 0bc9 f0bc
00000020: 689c e6bc fc35 3bbd 2233 a13b 2eaf 9c3d
00000030: 3866 233d cace 4d3d c5e8 adbd 1fa7 e3bc
00000040: 8828 ab3d d4e3 b73d f1cd cdbc a425 aa3b
00000050: 307e e63c 8eb4 c03c 25da 643d 42eb f8bc
00000060: 89e3 1bbd c5a1 71bd c3e6 5c3d 1334 883d
00000070: f438 003d a308 c9bc 969f 21bd 152c 0ebc
00000080: 46e4 93bd 5fa1 4e3c 6ab1 c3bc 4254 89bd
00000090: d2ac 013d ac3f 363c 1b8f 083d 766b 27bd
000000a0: a7c7 b2bc 2336 22bd 754b 953d 33d0 423d
000000b0: 616c f9bb 4702 633d c313 60bb 3415 843d
000000c0: d9b3 78bc 4613 31bd 9987 f6bc 09f3 473a
000000d0: 940a 46bd d1b9 f23c 356e 09bd e3df 50bd
000000e0: 4e5c 803d 0721 22bc 5b67 073c b490 73bd
000000f0: 9534 5c3d c572 e83c d256 60bd 56a3 c3bc
00000100: e9d4 80bd b2d2 af3c 9049 d7bc bdaf d13c
00000110: 85bc 7d3c 9857 8a3c 36c5 eb3b b589 273c
00000120: 7474 343c de5c 303d 0192 863c 2a19 1fbd
00000130: 9916 85bd 9051 343c 262c 813d e3f6 c6bb
00000140: 5428 d93c e462 1c3c 8868 fb3c 8032 f53a
00000150: 7bdc 03bd 461d 8abc 23be 8abc 7896 603b
00000160: 77ee a8bc dd8d 1c3d 600e 133d 507c 223d
00000170: 2632 133d 497b 0a3d bdcb ba3c 3e11 17bc
00000180: bd45 19bd 71e0 57bc b0e8 1ebd c9b1 19bd
00000190: 87b9 f4bc ee8c 233d 6efe a93c 4e66 243c
000001a0: 2185 b83c 0b82 a1bb 7b39 e3bc e7c1 58bc
000001b0: 9136 c63b 2c76 1fbd 5659 623d 2f18 44bc
000001c0: 2558 a0b5 671d 62bd c980 783c d4d8 55bd
000001d0: 8946 79bd 9c80 213d b6ea 773d f5a7 70bd
000001e0: 7a59 82bd 7a21 84bd c249 3b3d 184b 433d
000001f0: 9fee 85bd 36d8 043d 8251 343d 3fd3 19bd
00000200: 00b4 c9ba b20d 52b9 5462 253d 22e3 513d
00000210: b58b 3aba e85b 93bc 67f8 c83c e6e9 363d
00000220: a9a0 aabb 2f8c 843c a369 e3b9 c302 0d3c
00000230: 08bc cebc 6ab1 71bc 0ba0 b1bc 5149 ae3c
00000240: dd50 5b3a 05ac 65bc 77ab 2ebd 8bf3 31bc
00000250: 45ba 8b3c 3336 053d 6743 fcbc 5c7b 33bb
00000260: 4acd 2dbc 87f5 a8bc 1159 4e3c 3236 2e3d
00000270: bc2d 393c e925 5d3b 41a6 a9bc af18 57bc
00000280: d4ec 06bd 1043 06bd 6abb e83c 7b4a e23c
00000290: 4031 80bc db25 d0bb cc4c 9c3d c1c5 773c
000002a0: 2650 e73c a44d 3f3c fb14 61bd fe01 81bd
000002b0: 69e1 d13c f782 3ebd 5173 0fbd 3a96 253d
000002c0: 6b37 a43d 5017 03bd 201a 403a 6185 f0ba
000002d0: f865 1bbc c259 94bd 8309 993d 110a 86bd
000002e0: 96a0 883d 2533 063d 6593 663d 55e5 7ebc
000002f0: 9386 91bd b112 0ebc 9f49 ecbc da33 da3a
00000300: a8fd ddbc a22b a23c 9971 a6bb 1a35 ae3c
00000310: 8b45 013d f26a b9bc 9254 06bd ed51 84bc
00000320: b9d7 fabb 6fdf 9cbc ab3e 0a3c 630e b63c
00000330: af9c 183a f5d8 e5bb d845 853b 1c11 c9bc
00000340: 8993 7d3c aec9 25bc 0ca5 b63b aa55 86bc
00000350: ad0a f13c 98df d3bc e656 74bc d44b 1bbc
00000360: bfa4 0a3d 8e8e ff3c 0494 963c e2da f4bb
00000370: b78e b9bc 967e 17bd 7cc0 dd3c 716d debb
00000380: b017 5c3c d2c7 24bb 7e71 cebc 7b11 5c3c
00000390: 6d2e 813c 50a0 d2bb 23d0 09bd 9831 15bb
000003a0: 66d0 00bd 6cfa 9bbc 7f29 2cbd b007 b63c
000003b0: 3a1f 0abd 4e5e 08bc e06a 23bd 9975 273c
000003c0: 8dbe 5e3a 080f 033d a7e7 c73a 8246 30bb
000003d0: 7154 84bb ae1d 4e3c f1bb 0b3c f00e 09bc
000003e0: 545b b4bb ed8a 693c 68eb 68bb 08cf e33a
000003f0: 131f 1e3c 20fc 8fbc 9cd0 1dbc 82be d33b

model/mobilenetv2_0.50_64/block_16_project_BN/FusedBatchNormV3 f4 [160]
0.50848806 0.12498705 0.33294585 1.1686816 -0.26137674 0.3928934 -0.30709347 -1.3739882
-0.4421305 -0.10682468 -0.46385494 0.4259687 0.25531435 -0.5116293 0.58945537 -0.4959672
0.30761832 -0.23450445 0.44917738 -1.0197699 -1.6144497 -0.097354665 -0.41033667 -0.22438936
0.3317112 -0.2200647 -0.2635811 1.4940104 -0.7785324 0.023595113 -0.48432392 0.1340731
0.8648886 0.6491556 -0.45227808 -0.65364003 -0.57655066 -0.6270795 0.0077573974 -0.3995985
1.4898123 -0.8256984 -0.62440515 -0.37160403 0.33656156 0.24010637 -0.47709587 -1.0348039
0.2105635 -0.24726069 0.8556015 -0.47416985 0.28542286 -0.112507775 0.30382693 0.31829995
-0.722093 -0.6979032 -0.45022902 -1.0354491 0.98716986 0.60899836 -0.06922724 0.3048158
-0.29195544 -0.5238723 0.9965899 -0.007829444 -1.0560781 0.63017625 -0.77177507 -0.9458149
0.14815742 -0.80967516 0.10991733 0.68140584 -0.55201495 0.22415029 -0.2428026 0.5178885
0.392106 -0.24621117 0.18061602 0.15233324 -0.08098983 0.7861017 -0.38957223 -0.7322693
-0.059365183 0.041704264 -0.3324596 -0.5976931 -0.8966438 -0.0707706 -0.23103192 0.13540462
1.458011 -0.46653172 -0.22252716 -0.3893566 -0.1511172 0.92430204 0.528455 -0.30833077
0.17573497 -0.104163595 0.8920471 -0.13913442 0.20847696 0.60143614 0.009895567 -0.66438365
-0.72986025 0.67961234 0.77679145 0.056892555 -0.13192524 -0.9103944 0.15691146 0.37248284
-0.23654991 0.4554238 0.46988475 -0.086611785 -0.077408515 0.3701054 0.77598894 -0.8507477
0.49142116 0.028774353 -0.073203 0.6242396 -0.16250674 0.9560298 1.0051932 0.6815471
-0.6031401 0.37711886 -0.46722642 -0.7747141 -0.8422204 0.71883667 0.121783815 0.05644348
0.28590026 -0.10836755 -0.006870323 0.22471201 -1.455693 -0.6136996 -0.070469886 0.43680528
-0.2936052 -0.7904304 -0.2210548 0.039447896 -0.19686913 0.23905942 -0.20433703 -0.25874582
00000000: 462c 023f 36f9 ff3d e177 aa3e 5c97 953f
00000010: 2cd3 85be 5329 c93e 5b3b 9dbe d8de afbf
00000020: ee5e e2be e6c6 dabd 657e edbe 9218 da3e
00000030: 90b8 823e 23fa 02bf 8ce6 163f 6aef fdbe
00000040: 2680 9d3e ef21 70be 94fa e53e d287 82bf
00000050: 4aa6 cebf e261 c7bd a617 d2be 53c6 65be
00000060: 0dd6 a93e a458 61be 1af4 86be bc3b bf3f
00000070: e64d 47bf 8a4a c13c 4ef9 f7be 754a 093e
00000080: 5769 5d3f 102f 263f fe90 e7be f454 27bf
00000090: d398 13bf 4888 20bf c431 fe3b 2d98 ccbe
000000a0: 2bb2 be3f f860 53bf 04d9 1fbf e242 bebe
000000b0: cc51 ac3e 72de 753e e945 f4be 7474 84bf
000000c0: f59d 573e e831 7dbe b308 5b3f 64c6 f2be
000000d0: f222 923e 7a6a e6bd 348f 9b3e 36f8 a23e
000000e0: 16db 38bf c9a9 32bf 6b84 e6be 9989 84bf
000000f0: 2ab7 7c3f 51e7 1b3f 03c7 8dbd d110 9c3e
00000100: 2f7b 95be 7f1c 06bf 8420 7f3f 1147 00bc
00000110: 912d 87bf 3b53 213f 0d93 45bf ed20 72bf
00000120: 94b6 173e df46 4fbf 561c e13d 9d70 2e3f
00000130: da50 0dbf a787 653e 3fa1 78be 5794 043f
00000140: 1ec2 c83e c81e 7cbe 68f3 383e 3ffd 1b3e
00000150: ffdd a5bd f63d 493f 0376 c7be 0076 3bbf
00000160: e828 73bd 17d2 2a3d 2538 aabe 6a02 19bf
00000170: 738a 65bf 2df0 90bd a293 6cbe 82a7 0a3e
00000180: 1ba0 ba3f 3fdd eebe 29de 63be c059 c7be
00000190: 78be 1abe 0f9f 6c3f d448 073f 88dd 9dbe
000001a0: def3 333e b953 d5bd 335d 643f 4179 0ebe
000001b0: fc7a 553e b8f7 193f 0421 223c 0c15 2abf
000001c0: 1fd8 3abf 13fb 2d3f cedb 463f 2b08 693d
000001d0: 6917 07be 9b0f 69bf 66ad 203e 12b6 be3e
000001e0: 243a 72be 4f2d e93e bc94 f03e 8561 b1bd
000001f0: 5b88 9ebd 747e bd3e 36a7 463f 9aca 59bf
00000200: 8e9b fb3e 31b8 eb3c 74eb 95bd 2bce 1f3f
00000210: 2b68 26be 5ebe 743f 2caa 803f df79 2e3f
00000220: 6467 1abf b915 c13e 4d38 efbe aa53 46bf
00000230: c29b 57bf ae05 383f cb69 f93d 4731 673d
00000240: 8561 923e ceef ddbd 7220 e1bb e81a 663e
00000250: 2654 babf 6b1b 1dbf 8452 90bd f1a4 df3e
00000260: 6c53 96be a659 4abf 315c 62be 1e94 213d
00000270: 1098 49be fecb 743e ba3d 51be 557a 84be

model/mobilenetv2_0.50_64/block_15_project_BN/FusedBatchNormV3 f4 [80]
-1.0631415 -0.367393 0.6372488 0.54022825 0.7135973 -0.5874968 -0.49214697 0.5718741
-0.44109926 -1.0183989 -0.10612353 -0.79493654 -1.2587975 0.9728052 -0.22007884 0.052398637
0.13302588 0.3562879 0.2170981 -0.09853216 1.189372 0.17449893 1.1678381 -0.4506859
0.22291993 0.003871597 0.95586246 -0.21924624 1.1123921 1.2850283 -0.48211467 0.63809776
0.50397205 1.6826335 0.60870916 -1.3473251 -0.48575234 0.59491867 -0.7342855 -0.16315378
0.53891 -0.08300262 0.20587341 0.75202835 -0.6678836 0.49449223 -0.36497247 0.28246582
-0.40092197 -0.5325037 -0.6285445 -0.7026268 2.0666533 -0.060864456 -0.08580575 -1.268806
0.03546925 0.06717788 -0.101292945 0.7177178 -1.0083759 0.3208046 -0.24106342 -0.81374615
-0.7897451 0.9790541 -0.2286598 -0.25491822 -0.8770951 -1.2129613 -0.27919358 -0.6998271
-0.26806945 0.2478254 -0.002323032 -0.4445008 -1.6190945 -1.2083784 0.019424014 0.22918984
00000000: 0515 88bf ef1a bcbe bd22 233f 664c 0a3f
00000010: 50ae 363f 3166 16bf b0fa fbbe 5766 123f
00000020: c3d7 e1be e55a 82bf 4b57 d9bd f680 4bbf
00000030: 4720 a1bf c309 793f 595c 61be f49f 563d
00000040: f037 083e 5e6b b63e f74e 5e3e 3bcb c9bd
00000050: 573d 983f d9af 323e b87b 953f 4dc0 e6be
00000060: 1f45 643e 9eba 7d3b 67b3 743f 1682 60be
00000070: dd62 8e3f cf7b a43f bcd7 f6be 605a 233f
00000080: 5004 013f 8960 d73f 5dd4 1b3f 2675 acbf
00000090: 88b4 f8be 974c 183f 22fa 3bbf c911 27be
000000a0: 01f6 093f 47fd a9bd 7bd0 523e ee84 403f
000000b0: 6bfa 2abf 162e fd3e acdd babe 5c9f 903e
000000c0: a545 cdbe 2a52 08bf 4be8 20bf 5adf 33bf
000000d0: 0c44 0440 024d 79bd edba afbd 3c68 a2bf
000000e0: 3448 113d 8e94 893d ad72 cfbd 5bbc 373f
000000f0: 7612 81bf 8040 a43e 54d9 76be ab51 50bf
00000100: bc2c 4abf 4aa3 7a3f cb25 6abe a484 82be
00000110: 4e89 60bf 5142 9bbf 76f2 8ebe de27 33bf
00000120: 6640 89be f1c5 7d3e 023e 18bb 9c95 e3be
00000130: 7d3e cfbf 25ac 9abf 1c1f 9f3c beb0 6a3e

model/mobilenetv2_0.50_64/block_14_project_BN/FusedBatchNormV3 f4 [80]
0.5347511 0.4481443 0.07260927 -0.6777291 0.17008372 -0.44192633 0.6901576 0.9551387
-0.17746934 0.525417 0.37150404 -0.52537465 0.11573866 -1.3409504 0.004982277 -0.0413502
-0.52039677 -0.6368426 1.7527304 -0.25780147 -0.080418624 0.22117342 -0.56107855 -0.68510056
0.07810398 -0.42111668 -0.6484397 -0.55669206 -0.88442457 -0.6400595 0.531157 0.4350598
0.10552756 -0.49111214 -0.19733806 -0.16362058 0.29170382 -0.14721961 0.671861 -0.7593304
-0.016987951 0.35765314 0.9175529 0.36880866 0.12456598 0.35450986 0.14890724 -0.7044037
-0.16545156 -0.049745616 -0.14038804 -0.3307934 -0.41363806 0.8243199 0.17205523 -0.18575662
-0.39084083 0.08978417 0.024318254 1.2616901 0.44599566 0.43223846 0.8055199 -0.7612118
0.20522866 -0.039042093 -0.35111305 0.09748991 0.45099136 -0.5730411 0.0724445 0.48809582
-0.24404335 0.40654498 -0.095614485 -0.15169537 -1.112455 -0.37698606 0.11139402 0.25845164
00000000: 73e5 083f 2b73 e53e 2bb4 943d a87f 2dbf
00000010: 6d2a 2e3e 2b44 e2be 2bae 303f f883 743f
00000020: 86ba 35be ba81 063f c735 be3e f47e 06bf
00000030: 6408 ed3d 43a4 abbf 5e42 a33b d45e 29bd
00000040: b938 05bf 1e08 23bf 7859 e03f 8efe 83be
00000050: 85b2 a4bd 497b 623e d8a2 0fbf c062 2fbf
00000060: fbf4 9f3d 9b9c d7be 2500 26bf 5f83 0ebf
00000070: a669 62bf f0da 23bf e8f9 073f 28c0 de3e
00000080: d51e d83d 0d73 fbbe fd12 4abe 278c 27be
00000090: 345a 953e bdc0 16be 15ff 2b3f 7a63 42bf
000000a0: 512a 8bbc 501e b73e bfe4 6a3f 7dd4 bc3e
000000b0: 731c ff3d 5182 b53e 247b 183e cd53 34bf
000000c0: 226c 29be 0fc2 4bbd e2c1 0fbe c15d a9be
000000d0: 5ec8 d3be a106 533f 3f2f 303e fc36 3ebe
000000e0: 4a1c c8be c3e0 b73d 1337 c73c 107f a13f
000000f0: 8b59 e43e 5c4e dd3e 8d36 4e3f c7de 42bf
00000100: 7627 523e 9aea 1fbd 17c5 b3be caa8 c73d
00000110: 57e8 e63e d2b2 12bf c85d 943d b2e7 f93e
00000120: 80e6 79be aa26 d03e 87d1 c3bd 0856 1bbe
00000130: ed64 8ebf 5104 c1be 8c22 e43d c653 843e

model/mobilenetv2_0.50_64/block_13_project_BN/FusedBatchNormV3 f4 [80]
-0.29023606 0.31574947 -0.3306126 -0.29627284 0.06763327 -1.2357361 -0.09524996 -0.37485108
0.38770851 0.5301155 -0.53539795 0.6095357 -0.5437851 -0.79635537 -0.19399406 0.35295138
-0.6131959 -0.33455288 -0.014802532 -0.94714755 0.713629 0.5608682 -0.9970047 -0.050612926
1.1232574 -0.2803396 -0.46283415 -0.7788298 0.18221034 -0.3856129 -0.41243535 0.48245546
1.2188045 -0.58950955 -0.032242775 -0.20121095 -0.18785276 0.26208147 0.9553955 -0.09753601
0.13627219 0.13802604 -0.3775633 -0.2914326 -0.12656774 0.5046283 -0.79497087 0.34267968
0.41626424 -0.3370332 -0.6786923 -0.067004666 0.24033679 0.9021212 -0.6562677 -0.011138641
0.17424917 0.026321387 0.019701052 -0.07644541 0.41712362 -0.012300694 0.19906263 0.21195519
0.58325857 0.5875373 -0.17320342 -0.5498361 0.763745 -0.6745735 -0.2618424 -0.6122227
0.057245597 -0.3365214 0.9930575 0.76258475 -0.7632696 0.0026948736 -0.50871134 -0.734498
00000000: d299 94be eaa9 a13e 0e46 a9be 13b1 97be
00000010: 5083 8a3d 9a2c 9ebf 6912 c3bd 7bec bfbe
00000020: bb81 c63e a6b5 073f d70f 09bf 880a 1c3f
00000030: 8035 0bbf f2dd 4bbf 61a6 46be 0bb6 b43e
00000040: 68fa 1cbf 844a abbe 5286 72bc 4378 72bf
00000050: 64b0 363f 0f95 0f3f b33b 7fbf 804f 4fbd
00000060: e6c6 8f3f ac88 8fbe 99f8 ecbe 6461 47bf
00000070: 5995 3a3e 0e6f c5be ba2a d3be 6704 f73e
00000080: c901 9c3f 19ea 16bf 0011 04bd 3e0a 4ebe
00000090: 795c 40be 8b2f 863e cd94 743f f6c0 c7bd
000000a0: f08a 0b3e b356 0d3e fa4f c1be a736 95be
000000b0: f99a 01be 522f 013f 3683 4bbf b673 af3e
000000c0: 9620 d53e 9e8f acbe c7be 2dbf be39 89bd
000000d0: d91a 763e 6af1 663f 2901 28bf d97e 36bc
000000e0: 606e 323e f39f d73c 1a64 a13c 698f 9cbd
000000f0: 3a91 d53e da88 49bc 13d7 4b3e c80a 593e
00000100: 6f50 153f d868 163f 3d5c 31be 0fc2 0cbf
00000110: cb84 433f d9b0 2cbf 3510 86be a0ba 1cbf
00000120: 5c7a 6a3d 884c acbe 0439 7e3f c138 433f
00000130: a365 43bf 7a9c 303b e83a 02bf 1008 3cbf

model/mobilenetv2_0.50_64/block_12_project_BN/FusedBatchNormV3 f4 [48]
0.12994616 -0.6437078 -0.45864698 -0.443572 -1.2017415 -0.027896877 -0.15353408 -0.8171238
0.7549248 0.4056656 -0.48782393 -0.39469114 0.20780258 0.13846305 0.63671285 0.48261103
-0.5646197 -0.13863079 -0.63754326 -0.317731 0.3866822 -0.2520648 0.078852646 0.18543139
-0.27420604 0.1423031 0.76401687 -0.2289427 -0.63726556 0.07389234 0.033617318 -0.71715677
-0.13442811 -0.3845659 0.37469497 0.03042268 -0.83710057 -0.38863897 0.048519474 -1.0424411
-0.7253892 0.20952837 0.13532957 -0.102229394 0.35647333 -0.43312302 0.8288909 -0.63062775
00000000: 9b10 053e 09ca 24bf c7d3 eabe df1b e3be
00000010: aad2 99bf fe87 e4bc 0a38 1dbe 062f 51bf
00000020: c042 413f 67b3 cf3e 0fc4 f9be f514 cabe
00000030: 33ca 543e 42c9 0d3e 9dff 223f cb18 f73e
00000040: eb8a 10bf 3bf5 0dbe 0936 23bf a3ad a2be
00000050: 36fb c53e a30e 81be 7f7d a13d bae1 3d3e
00000060: bc64 8cbe e7b7 113e 9c96 433f f56f 6abe
00000070: d623 23bf de54 973d 50b2 093d 9697 37bf
00000080: 86a7 09be d2e5 c4be 05d8 bf3e fc38 f93c
00000090: 394c 56bf b0fb c6be 5bbc 463d b66e 85bf
000000a0: 1bb3 39bf 9b8e 563e d693 0a3e a55d d1bd
000000b0: ac83 b63e 4dc2 ddbe 3232 543f d270 21bf

model/mobilenetv2_0.50_64/block_11_project_BN/FusedBatchNormV3 f4 [48]
0.91167325 0.19937316 0.035598222 0.23550184 -0.021819372 -0.2391197 -0.6833918 -0.17640333
-0.8219049 -0.49725965 0.34699926 -0.5024549 -0.041367218 -0.7344065 -1.2064143 -0.4040024
0.49854067 -1.140573 -0.60973454 -0.10902482 -0.2161501 -0.26170716 -0.5155701 0.019971704
-0.09061859 -0.38288993 0.19189776 -0.034369506 0.049692743 -0.59627336 0.42359224 1.2261039
0.16050111 0.9850123 -0.47918123 0.34122434 0.7798 0.2791136 1.0993913 0.6241098
0.9549025 -0.11965103 -0.32770175 -0.30667645 0.14184721 0.6509676 -0.7424612 -0.6039249
00000000: 6b63 693f 7a28 4c3e 71cf 113d 6527 713e
00000010: 8abe b2bc cbdb 74be c4f2 2ebf 13a3 34be
00000020: 5c68 52bf d198 febe e3a9 b13e e2a0 00bf
00000030: ac70 29bd 1002 3cbf c96b 9abf 67d9 cebe
00000040: b940 ff3e 4cfe 91bf 9017 1cbf 6848 dfbd
00000050: 7456 5dbe 7bfe 85be 67fc 03bf b39b a33c
00000060: 3d96 b9bd 260a c4be d980 443e 0ac7 0cbd
00000070: 9e8a 4b3d 5fa5 18bf 15e1 d83e f9f0 9c3f
00000080: 675a 243e c429 7c3f 3e57 f5be f5b4 ae3e
00000090: f9a0 473f fae7 8e3e dbb8 8c3f a9c5 1f3f
000000a0: 7e74 743f 990b f5bd 86c8 a7be b204 9dbe
000000b0: 6540 113e d0a5 263f f011 3ebf d29a 1abf

model/mobilenetv2_0.50_64/block_10_project_BN/FusedBatchNormV3 f4 [48]
0.56996787 0.07837371 -0.3904389 0.55512804 0.5547815 0.34495556 0.22288775 0.117837906
0.784853 -0.14313099 1.041316 0.5054562 -1.0237713 -0.77472055 0.12293016 0.61496896
0.31868544 -0.5992872 -0.43287316 -0.023409884 -0.05320357 -0.8647142 -0.4745279 0.46735638
1.0584376 0.8911909 -0.3982621 -0.17500106 -0.7956467 -0.022985458 0.3245359 -0.5531398
-0.8751946 0.69391286 0.10475739 -0.3008257 0.22124445 0.21927546 -0.3001091 0.25623387
-0.18833342 -0.042483967 -0.21740411 -0.715715 -0.025454089 -0.27802843 -0.0049363603 0.17018387
00000000: 6ae9 113f 6582 a03d 9ce7 c7be df1c 0e3f
00000010: 2906 0e3f 049e b03e b03c 643e 0055 f13d
00000020: 20ec 483f ee90 12be d849 853f 9465 013f
00000030: f00a 83bf 1654 46bf cfc2 fb3d 9b6e 1d3f
00000040: bd2a a33e e36a 19bf 8da1 ddbe 16c6 bfbc
00000050: fdeb 59bd e95d 5dbf 52f5 f2be 5649 ef3e
00000060: e27a 873f 1625 643f 03e9 cbbe 7a33 33be
00000070: 81af 4bbf 004c bcbc 9229 a63e 929a 0dbf
00000080: c10c 60bf 46a4 313f 0b8b d63d d305 9abe
00000090: e88d 623e bf89 603e e6a7 99be 1631 833e
000000a0: 7ada 40be ab03 2ebd 2f9f 5ebe 1939 37bf
000000b0: 1885 d0bc be59 8ebe 31c1 a1bb ae44 2e3e

model/mobilenetv2_0.50_64/block_9_project_BN/FusedBatchNormV3 f4 [32]
0.19433805 -0.63870496 -0.057617974 -0.19310321 -0.646583 -0.8200483 -0.37098202 -0.20924744
-0.029132219 -0.407411 -0.04213448 -0.29613325 -0.6325874 -0.66544074 0.47593486 -0.31130558
0.09128486 0.665934 -0.549865 -0.8156144 -0.8536069 0.07999573 -0.89526725 1.3167996
0.35936388 -1.3874521 0.5606675 0.028312707 -0.8151028 0.5662953 0.06791949 0.13174838
00000000: 8e00 473e 2b82 23bf d300 6cbd d9bc 45be
00000010: 7786 25bf afee 51bf 5bf1 bdbe f644 56be
00000020: b1a6 eebc 2d98 d0be 3495 2cbd c79e 97be
00000030: 3ff1 21bf 535a 2abf bcad f33e 7263 9fbe
00000040: 8ff3 ba3d a77a 2a3f f4c3 0cbf 1bcc 50bf
00000050: fb85 5abf cdd4 a33d 3c30 65bf e48c a83f
00000060: 8bfe b73e 0898 b1bf e887 0f3f 0df0 e73c
00000070: 94aa 50bf bbf8 103f 6019 8b3d 0ce9 063e

model/mobilenetv2_0.50_64/block_8_project_BN/FusedBatchNormV3 f4 [32]
0.2240177 0.47391278 0.72777987 0.11622536 -0.37046725 -0.53779787 0.5106313 1.0807333
0.7957133 -0.6194857 0.4585834 0.9930628 0.4457296 -0.06760297 -0.7190283 0.21797442
0.46352273 -0.23413947 -0.6776582 -0.0027137045 0.5935711 0.65591615 0.22348538 0.9078976
0.4253172 0.7143266 0.15357544 0.12072098 -0.8902167 0.12324701 -0.42453343 -0.0010613502
00000000: e564 653e b2a4 f23e c84f 3a3f 9007 ee3d
00000010: e2ad bdbe 1fad 09bf bcb8 023f 7855 8a3f
00000020: deb3 4b3f 9d96 1ebf 72cb ea3e 5d39 7e3f
00000030: ac36 e43e 6d73 8abd 3d12 38bf b034 5f3e
00000040: da52 ed3e 42c2 6fbe 027b 2dbf 68d8 31bb
00000050: 47f4 173f 1fea 273f 5ad9 643e fa6b 683f
00000060: 2dc3 d93e 1cde 363f e142 1d3e 903c f73d
00000070: 3ee5 63bf ee68 fc3d 725c d9be 011d 8bba

model/mobilenetv2_0.50_64/block_7_project_BN/FusedBatchNormV3 f4 [32]
-0.21181077 -0.32285944 -0.5145254 -1.1076012 -1.5016246 -0.45957226 0.5683336 0.7111364
0.24843593 -0.8375265 -1.076842 -0.45963833 -1.4190127 0.4131616 -0.13006249 -0.12845834
-0.3225888 0.5199929 -0.2524697 -0.2367589 0.37568176 -0.51063216 -0.0074479394 -0.69431263
-0.7724413 -0.36741722 -0.73266596 -0.5473877 0.47278264 0.8578673 0.18719575 0.06834462
00000000: ece4 58be d54d a5be f0b7 03bf e0c5 8dbf
00000010: 3c35 c0bf 0e4d ebbe 507e 113f 090d 363f
00000020: fd65 7e3e 2368 56bf f5d5 89bf b755 ebbe
00000030: 35a2 b5bf eb89 d33e 1a2f 05be 958a 03be
00000040: 5c2a a5be 411e 053f b543 81be ed70 72be
00000050: 5c59 c03e cab8 02bf d80d f4bb 79be 31bf
00000060: b7be 45bf 1c1e bcbe ff8f 3bbf 9a21 0cbf
00000070: 9110 f23e 319d 5b3f 3eb0 3f3e 44f8 8b3d

model/mobilenetv2_0.50_64/bn_Conv1/FusedBatchNormV3 f4 [16]
2.6630273 -0.74726236 -0.36435482 1.2864921 -1.877484 -2.3136842 2.0014122 -3.0668147
-2.5566247 3.028978 -2.4485877 -0.2146757 2.4585688 2.119765 3.0736773 2.1599112
00000000: 0a6f 2a40 964c 3fbf b78c babe c6ab a43f
00000010: 6551 f0bf 6713 14c0 2317 0040 b146 44c0
00000020: bd9f 23c0 c7da 4140 a9b5 1cc0 f2d3 5bbe
00000030: 3159 1d40 3baa 0740 21b7 4440 fc3b 0a40

model/mobilenetv2_0.50_64/expanded_conv_depthwise_BN/FusedBatchNormV3 f4 [16]
-0.64982295 1.0459297 -0.16255243 0.82693756 0.8315377 -0.74099594 -0.4568446 0.60167295
-0.33700836 0.7397469 0.7700923 -1.149383 -0.7352033 -0.22236457 0.18964362 0.7118572
00000000: cc5a 26bf 06e1 853f 2574 26be 2eb2 533f
00000010: a8df 543f e9b1 3dbf 89e7 e9be 3d07 1a3f
00000020: 5c8c acbe 0e60 3d3f c524 453f fb1e 93bf
00000030: 4936 3cbf 8ab3 63be f031 423e 463c 363f

model/mobilenetv2_0.50_64/block_1_expand_BN/FusedBatchNormV3 f4 [48]
0.011960591 -0.00010240893 -0.003311336 -0.0045714965 0.000770733 -0.0050604492 -0.0007932922 0.0014141869
-0.0010453451 0.006966681 0.0016680476 -0.008088975 0.005384938 0.010034744 -0.007016373 0.01012805
-0.0017335596 -0.0016770957 0.004675373 -0.0018209084 -0.0026339013 0.0040672095 0.0032175002 -0.0014537518
0.0029904824 0.009821141 0.004384912 -0.0018577701 0.008181833 -0.0036242614 -0.0008864212 -0.0068177762
0.0052287886 0.0005840255 -0.009987906 -0.00357118 -0.002788121 0.0008078928 -0.0024830839 -0.0006898258
-0.0053154835 0.008720904 0.010947335 0.0042554885 -0.002894186 0.002498588 -0.00072202133 0.004607259
00000000: 5bf6 433c 60c4 d6b8 0003 59bb 7ecc 95bb
00000010: 040b 4a3a 20d2 a5bb f0f4 4fba 3d5c b93a
00000020: f603 89ba c248 e43b 64a2 da3a 9f87 04bc
00000030: 2274 b03b c468 243c 9ae9 e5bb 1ff0 253c
00000040: 9c38 e3ba fed1 dbba df33 993b 8cab eeba
00000050: 889d 2cbb 3a46 853b b2dc 523b d18b beba
00000060: f8fb 433b dae8 203c 4faf 8f3b 6c80 f3ba
00000070: 180d 063c 0485 6dbb b85e 68ba a767 dfbb
00000080: 4256 ab3b 4a19 193a 50a4 23bc 750a 6abb
00000090: e9b8 36bb c5c8 533a 3cbb 22bb 6dd5 34ba
000000a0: 822d aebb 1fe2 0e3c 735c 333c a071 8b3b
000000b0: 62ac 3dbb 5abf 233b 0846 3dba 7df8 963b

model/mobilenetv2_0.50_64/block_1_depthwise_BN/FusedBatchNormV3 f4 [48]
-0.46801034 -0.6976314 -0.87218297 0.27377173 -0.065427765 0.5954475 0.32276234 0.6303986
0.7400837 0.075409904 -0.11934838 0.6858638 0.74307746 1.2165314 0.16306311 0.02867405
0.62189656 0.18666378 -0.94814914 -0.84407073 0.53738713 0.48608726 -0.2075297 -0.828458
0.16833033 -0.25072315 -0.96070725 -0.0038854405 0.123147994 0.30766976 -0.33917353 0.37928388
-0.40525332 -0.19181688 0.1445864 -1.1854936 -0.24974252 0.6097891 0.5401069 -0.68282133
-0.16497168 -0.008216112 0.66071016 0.5532681 -0.4735598 -0.4510099 -0.3360531 0.0759364
00000000: 0d9f efbe f997 32bf 6247 5fbf cf2b 8c3e
00000010: fefe 85bd 3f6f 183f 1b41 a53e cd61 213f
00000020: 2076 3d3f 8270 9a3d ec6c f4bd c594 2f3f
00000030: 533a 3e3f 4db7 9b3f 04fa 263e d7e5 ea3c
00000040: 9d34 1f3f ca24 3f3e e7b9 72bf 0515 58bf
00000050: 3492 093f 6ee0 f83e aa82 54be d315 54bf
00000060: c95e 2c3e c95e 80be e9f0 75bf e0a2 7ebb
00000070: 0435 fc3d e486 9d3e 27a8 adbe 7f31 c23e
00000080: 5d7d cfbe a56b 44be 750e 143e 41be 97bf
00000090: 81bc 7fbe 231b 1c3f 7244 0a3f 61cd 2ebf
000000a0: 56ee 28be df9c 06bc 4d24 293f faa2 0d3f
000000b0: 6e76 f2be c5ea e6be 270f acbe 8b84 9b3d

model/mobilenetv2_0.50_64/block_2_expand_BN/FusedBatchNormV3 f4 [96]
0.012161007 0.005165521 -0.0025915443 -0.0039820317 0.0066753873 -0.0042699696 0.0013320768 -0.007352381
-0.0013011671 0.001558335 0.003775761 -0.004756025 -0.00022302533 0.0043965597 0.02198407 0.0014987905
0.0065084267 0.002057371 -0.0063183885 -0.0031779944 -0.0010486161 0.00830145 -0.004051638 0.0012767394
-0.0043801973 -7.957511e-06 -0.0030856081 -0.0046201623 0.004966816 0.002736173 -0.005597759 -0.0075079994
0.001417709 -0.0035011396 0.00067189854 0.0021322146 -0.010990863 0.004386495 -0.0039679427 0.01002743
0.002651168 -0.0053592175 -0.0048245587 0.0011600081 0.0031982935 0.0012728625 0.0166491 0.006027663
-0.0071796365 0.004107318 -0.0007649978 0.0024364386 -0.00081711065 -0.0019718965 -0.0055641653 -0.012308403
0.00036822414 0.010780702 0.0049348143 0.002625049 0.007190061 0.005030997 -0.013659151 0.005076366
0.0016772875 0.006645239 0.0021756282 0.0018177559 0.0032530339 0.0009991047 0.003881809 -0.00062787987
0.00563762 0.0005960824 0.007146065 0.0032807803 -0.0012678099 -0.0030011302 0.008297215 -0.0010453844
0.008013486 0.01293507 0.011519472 -0.0035805076 -0.0061087976 0.0039847335 0.0058581824 0.022084327
0.0011759493 -0.0029735665 0.008679292 0.0018052097 0.0014148271 0.0023477303 -0.0007110196 -0.00058002176
00000000: f63e 473c 8843 a93b e6d6 29bb b47b 82bb
00000010: 35bd da3b 1aeb 8bbb 1599 ae3a 3eec f0bb
00000020: ec8b aaba 0c41 cc3a c272 773b 6ed8 9bbb
00000030: e8db 69b9 0411 903b f017 b43c 1073 c43a
00000040: a444 d53b f5d4 063b 7c0a cfbb e645 50bb
00000050: b871 89ba ce02 083c 9ac3 84bb 4458 a73a
00000060: c287 8fbb 4081 05b7 ea37 4abb bb64 97bb
00000070: acc0 a23b 5e51 333b 686d b7bb aa05 f6bb
00000080: 6cd2 b93a 6073 65bb 5922 303a a0bc 0b3b
00000090: 0513 34bc 96bc 8f3b 8405 82bb 174a 243c
000000a0: 38bf 2d3b 609c afbb 5517 9ebb 6a0b 983a
000000b0: 769a 513b 2ed6 a63a b263 883c b483 c53b
000000c0: 2843 ebbb ae96 863b 228a 48ba a8ac 1f3b
000000d0: 5e33 56ba ef3a 01bb 9a53 b6bb 2fa9 49bc
000000e0: 350e c139 8ba1 303c 39b4 a13b 0409 2c3b
000000f0: 9a9a eb3b 10db a43b a2ca 5fbc a557 a63b
00000100: 6ed8 db3a 4ec0 d93b fc94 0e3b c441 ee3a
00000110: da30 553b 64f4 823a f365 7e3b 4e98 24ba
00000120: c9bb b83b 6a42 1c3a 8a29 ea3b 5c02 573b
00000130: a42c a6ba 9cae 44bb 0bf1 073c 4805 89ba
00000140: ff4a 033c 9eed 533c 2bbc 3c3c f3a6 6abb
00000150: 4f2c c8bb 5e92 823b fff5 bf3b 31ea b43c
00000160: 5022 9a3a 2be0 42bb 9733 0e3c c99c ec3a
00000170: b871 b93a 61dc 193b b863 3aba 9a0c 18ba

model/mobilenetv2_0.50_64/block_2_depthwise_BN/FusedBatchNormV3 f4 [96]
0.8187495 0.12476649 0.7239302 -0.9083222 0.90437955 -0.47820485 0.4315554 -0.085216634
-0.50747097 0.75601715 -0.3550758 -0.038890846 -0.95494413 -0.18475963 -0.31092098 0.38368514
-0.084884755 -0.4682687 -0.31084478 0.89007914 0.61819565 -0.25626114 0.8149463 -0.024191182
0.7249027 -0.07037694 0.26442346 0.9435612 -0.15855436 0.64530766 -0.0881692 0.4552585
0.5806982 0.509128 -0.35196352 -1.076934 -0.82350516 0.34408268 0.6415789 -0.00741771
-0.92005503 0.12142457 -0.09489697 -0.729479 -0.2799473 -0.76246554 -0.76365566 0.5356145
-0.54765075 0.71489775 0.7146735 -0.73540473 0.8430747 1.0492598 0.66447604 0.003240583
-0.71819144 -0.3117964 0.7248852 0.56479746 0.756442 -0.12633212 0.5145843 -0.4949151
-0.6354315 -0.66988456 0.75982255 0.42536432 0.15014768 -0.68776935 0.738264 0.021178817
-0.97171384 -0.72379345 0.5566222 -0.042324264 0.40653107 0.6143271 -0.2369666 -0.4987888
-0.9736335 0.09509983 0.8116242 -0.2769054 -0.4679368 -0.08063354 -0.2623181 0.60211194
-0.47665876 0.72023344 0.28637967 0.26627824 0.73427534 -1.0109912 -0.46514726 -0.15890938
00000000: 9199 513f 9385 ff3d 7d53 393f ce87 68bf
00000010: 6b85 673f 44d7 f4be d4f4 dc3e 0f86 aebd
00000020: 9ee9 01bf 578a 413f 7fcc b5be 024c 1fbd
00000030: 3877 74bf a131 3dbe 0931 9fbe 6172 c43e
00000040: 0fd8 adbd eac0 efbe 0c27 9fbe 3adc 633f
00000050: 1242 1e3f a934 83be 52a0 503f 962c c6bc
00000060: 3993 393f c921 90bd 8362 873e 3a8d 713f
00000070: 135c 22be e232 253f 0e92 b4bd a417 e93e
00000080: a3a8 143f 3656 023f 9034 b4be f9d8 89bf
00000090: 3cd1 52bf 9b2b b03e 843e 243f 4310 f3bb
000000a0: ba88 6bbf 72ad f83d 5859 c2bd 23bf 3abf
000000b0: 4155 8fbe f130 43bf f07e 43bf 081e 093f
000000c0: d732 0cbf 8a03 373f d8f4 363f 7c43 3cbf
000000d0: bed3 573f 254e 863f 1a1b 2a3f f65f 543b
000000e0: 65db 37bf c7a3 9fbe 1492 393f 9196 103f
000000f0: 2fa6 413f 355d 01be ccbb 033f 8365 fdbe
00000100: a4ab 22bf 8e7d 2bbf bb83 423f 5ac9 d93e
00000110: 50c0 193e a711 30bf dffe 3c3f 337f ad3c
00000120: 3dc2 78bf 874a 39bf cb7e 0e3f 355c 2dbd
00000130: d724 d03e 8a44 1d3f 5fa7 72be 3f61 ffbe
00000140: 0c40 79bf b3c3 c23d 9bc6 4f3f 8bc6 8dbe
00000150: 6a95 efbe 3323 a5bd 8f4e 86be 0224 1a3f
00000160: 9e0c f4be 3861 383f 5ba0 923e 9f55 883e
00000170: 78f9 3b3f 2968 81bf c827 eebe 24b9 22be

model/mobilenetv2_0.50_64/block_3_expand_BN/FusedBatchNormV3 f4 [96]
-0.008504118 -0.0019650825 0.005461729 -0.0012524882 0.009175728 0.0062945285 -0.0038845318 -0.0031032716
0.0014862749 0.008799276 0.012627902 0.0003441124 9.504668e-05 0.003345229 0.009695641 0.013782507
-0.002654167 0.004795727 -0.003647353 -0.0023691573 0.002680838 -0.008648623 0.0023854943 -0.005765426
0.017389912 0.012585673 0.0010506228 0.01345802 -0.0034404122 0.0025263575 -0.0026726008 -0.006881087
0.0054884856 -0.0022123496 0.0025433635 0.0047297347 0.0058566444 0.002548425 -0.0026076282 -0.003388165
-0.0047053983 0.0024408384 0.0019331833 -0.0049854275 -0.0035412954 0.009869543 -0.0071832146 -0.0006003794
-0.0013068604 0.0040657874 -0.00019053178 -0.0038697817 0.012359775 0.008972395 -0.017483586 0.0043653613
-0.011515293 0.010412123 -0.0017063005 0.005012325 0.018003205 -0.00053332996 0.0049810484 -0.0032917687
-0.0030344876 0.0021041394 0.008461466 0.006123161 0.0085315425 0.0056107026 0.00013737712 5.2292064e-05
-0.006193578 0.0015457543 -0.00035141088 0.0020591859 0.0019710942 0.00060475536 0.0019474061 0.0011001851
0.0023693822 0.0037133407 0.009708395 -0.006881309 0.014792929 -0.0010000002 -0.0077331415 -0.0023775825
-0.006351864 0.0010795316 0.0010428969 0.00072183955 -0.0024489388 0.0021451965 -0.0053068185 0.0060534473
00000000: db54 0bbc 9dc8 00bb 4ef8 b23b 882a a4ba
00000010: cb55 163c 5542 ce3b a193 7ebb 4260 4bbb
00000020: 1ccf c23a d72a 103c 43e5 4e3c fc69 b439
00000030: cc53 c738 a13b 5b3b 77da 1e3c 06d0 613c
00000040: 88f1 2dbb 7925 9d3b 6e08 6fbb dd43 1bbb
00000050: 00b1 2f3b f4b2 0dbc f455 1c3b e6eb bcbb
00000060: 4a75 8e3c 2334 4e3c 0db5 893a 077f 5c3c
00000070: 8a78 61bb 3f91 253b cd26 2fbb be7a e1bb
00000080: c1d8 b33b 11fd 10bb 8fae 263b e4fb 9a3b
00000090: 18e9 bf3b 7a03 273b bee4 2abb fa0b 5ebb
000000a0: be2f 9abb 79f6 1f3b de62 fd3a cc5c a3bb
000000b0: 1415 68bb ddb3 213c 2c61 ebbb c862 1dba
000000c0: f54a abba 4c3a 853b 7cc9 47b9 2a9c 7dbb
000000d0: a780 4a3c f400 133c bd39 8fbc 4e0b 8f3b
000000e0: a4aa 3cbc 9c97 2a3c f2a5 dfba 6e3e a43b
000000f0: 757b 933c 2bcf 0bba 1038 a33b b7ba 57bb
00000100: 41de 46bb 9ae5 093b f6a1 0a3c cca4 c83b
00000110: e2c7 0b3c fcd9 b73b e40c 1039 2d54 5b38
00000120: 7ff3 cabb e89a ca3a 923d b8b9 68f3 063b
00000130: 792d 013b 7288 1e3a 1b40 ff3a 1634 903a
00000140: a347 1b3b 855b 733b f60f 1f3c 9b7c e1bb
00000150: 0b5e 723c 7012 83ba 4b66 fdbb 37d1 1bbb
00000160: 4c23 d0bb 127f 8d3a d0b1 883a d539 3d3a
00000170: 607e 20bb 6d96 0c3b d2e4 adbb ff5b c63b

model/mobilenetv2_0.50_64/block_3_depthwise_BN/FusedBatchNormV3 f4 [96]
-0.6282126 0.41936323 -0.5958153 0.26632354 0.530515 0.12936744 0.55858195 0.30484077
-0.25798163 -0.41822803 -0.47761774 -0.5138761 0.3938749 0.1351819 -0.5604372 0.7447354
0.1316438 -0.5185287 0.21982884 0.21108915 0.6785741 -0.38780138 0.35468346 -0.39652005
-0.80183476 0.18086606 0.7136408 0.55973846 -0.43705207 -0.33717296 0.7272998 0.68207043
-0.67562675 -0.7427782 -0.46436998 0.36925852 0.535698 0.7091833 -0.7844826 -0.40276426
0.59775025 0.17305988 -0.22068569 -0.10259317 -0.50596136 0.6520609 -0.69751203 0.016516972
-0.2856431 -0.804954 -0.28163636 0.18586297 -0.22758529 0.07272536 -0.5555852 0.85742205
-0.28070632 0.6152586 -0.12019135 0.57485837 -0.67644596 -0.44153675 0.28760576 -0.014417834
-0.66929185 -0.10783311 0.54935026 1.0476516 0.5932867 1.0962399 0.23241718 -0.23379867
-0.5919649 0.6686927 -0.5632415 0.6624509 -0.13533117 0.08376254 0.22995502 0.6085722
0.012943019 -0.67909014 -0.5632226 0.634089 -0.5932799 0.038734313 -0.6812519 0.28234076
-0.18464173 0.60518044 0.29958266 -0.6828754 0.8319084 0.20369896 0.5946796 -0.99151415
00000000: 8ad2 20bf c7b6 d63e 5a87 18bf 8f5b 883e
00000010: d5cf 073f e678 043e 3aff 0e3f 1714 9c3e
00000020: 2b16 84be fc21 d6be 508a f4be 628d 03bf
00000030: f9a9 c93e 206d 0a3e d078 0fbf fba6 3e3f
00000040: a2cd 063e 4cbe 04bf d01a 613e c127 583e
00000050: 08b7 2d3f e78d c6be 1299 b53e ad04 cbbe
00000060: 0b45 4dbf f434 393e 2ab1 363f 054b 0f3f
00000070: 4ac5 dfbe efa1 acbe 5230 3a3f 2b9c 2e3f
00000080: e0f5 2cbf b626 3ebf e7c1 edbe 740f bd3e
00000090: 8123 093f 098d 353f dad3 48bf 1e37 cebe
000000a0: 2906 193f 9c36 313e 6efb 61be 5e1c d2bd
000000b0: af86 01bf 77ed 263f 2690 32bf 9a4e 873c
000000c0: d03f 92be 7711 4ebf a432 90be dd52 3e3e
000000d0: 1e0c 69be 09f1 943d d53a 0ebf 0380 5b3f
000000e0: bdb8 8fbe 9681 1d3f e226 f6bd eb29 133f
000000f0: 902b 2dbf 1b11 e2be 1041 933e c738 6cbc
00000100: b656 2bbf 9bd7 dcbd 38a2 0c3f 7319 863f
00000110: a3e1 173f 9751 8c3f c5fe 6d3e eb68 6fbe
00000120: 038b 17bf 722f 2b3f 9830 10bf 6296 293f
00000130: 4194 0abe b28b ab3d 5479 6b3e 63cb 1b3f
00000140: f50e 543c dad8 2dbf 5b2f 10bf a853 223f
00000150: 31e1 17bf dfa7 1e3d 8666 2ebf f88e 903e
00000160: b912 3dbe 1bed 1a3f e662 993e ecd0 2ebf
00000170: f3f7 543f 7696 503e ec3c 183f dfd3 7dbf
