models/mobilenetv2/dynamic_range_quantization/model_ToyTrain.tflite (tflite, 872296 bytes, 106 tensors)

model/mobilenetv2_0.50_64/predictions/BiasAdd/ReadVariableOp f4 [3]
00000000: 2a74 fe3a 733f 7aba e5e1 113a
0.0019413282 -0.0009546198 0.0005564972

model/mobilenetv2_0.50_64/block_1_project/Conv2D f4 [16, 1, 1, 48]
00000000: 3dbf 973e 1fd3 203d 49bd a6be e581 d43e
00000010: 5b05 2dbe 3faf 8b3d d754 e53e fdda 1cbe
00000020: 31f7 cd3d ade6 0d3e 0c63 283e 3a2d 493e
00000030: 2390 2fbe 4b45 a0be 19a7 a93e 4c3e ecbe
00000040: 1c8d b83c 0365 993e abd4 c03e 7648 ce3e
00000050: 263d f13d 00e6 95bb 5c7c c1be 030e 533e
00000060: fed1 f33e cb03 5e3d 6e82 c13e c77f b8be
00000070: b775 f83d f062 723d df96 afbe ca99 563e
00000080: 42a4 c5be 9f0f d33e ed31 f93d 1326 2f3e
00000090: 3ac5 c9bd fecb 06be aa9a 08be 3484 efbe
000000a0: 9b33 3fbe b6ba 0ebe 815b 3a3e ecd1 bebd
000000b0: 9d31 b63d f0d9 c7be 2425 4f3e aa9e 593e
000000c0: 6ec5 8dbe 7711 013e 0a4c 983e 22b1 ad3e
000000d0: 7741 c8be 14ea 35bc ee04 66be 1e64 55be
000000e0: 5efd d3bd 7865 863d e39b 743e 9913 aa3e
000000f0: 05ce 2dbe aaa9 a9be d229 72be 224c adbe
00000100: 6c9a 923e 8523 dc3e 10a9 93be 27ea 4b3e
00000110: 3e9b cabd fa8a bd3e 9f6e d83c 888d 193e
00000120: 2506 2ebe 8fbe 1a3e 8e32 3d3d d0db 393d
00000130: 805a 9ebe f527 af3e 5435 14be cd19 e93a
00000140: 513c 3c3c 7a49 85be bd48 5fbd 51a8 84be
00000150: 0a15 7e3e 2c1d 4c3e 70fb bd3e bf8f df3e
00000160: 477f cabe 6e3e 9bbe ee3e e9bd b772 3b3d
00000170: 32ef 03be 437e 4a3e 1c70 06be 62f5 593e
00000180: 32fb 28be a1ce a8be dd6a 223e 18f4 1ebe
00000190: c1eb 96bd 7fc9 963e b6db ecbd a49d 0bbe
000001a0: 5164 d9be 0bae 35be d147 a6be 503c 4b3e
000001b0: 9931 0dbe 58a3 92bb 36ae debe da76 3f3e
000001c0: 9ae6 3c3e 772c 06bf f171 423e 79f1 40be
000001d0: 7dde 9c3e 017a 8bbe 1cc6 bebd 9070 7d3e
000001e0: c955 253e d7c4 d5bd acfd 603e 7c3d e33e
000001f0: 0794 cc3e 77cf 45be eee9 61be e876 e23e
00000200: 519e 7ebe 09f1 b8be d489 7c3d 8ff4 e4be
00000210: 417c 0b3e c5c6 fd3b c935 903e 6a22 05bf
00000220: bb10 a6be 7dce c8be a0e3 d7be 94e8 16be
00000230: 3edb 06be 271a f83e 549d ddbd ecca 833e
00000240: b348 273e 6b29 b7be e9d5 f2bd 255d 033e
00000250: 2813 ed3d fa2a d4be 0187 3bbe 8149 c9be
00000260: 1c8f 593e c169 49be ecd1 acbe bc92 cc3d
00000270: 77f8 5cbe b4c4 a1be fbbb 243d 24cc 9abd
00000280: 465c dabe 7aa5 673e df0c acbe b43f ce3e
00000290: 7071 8bbe 7799 1c3d 17b4 04be edac 56be
000002a0: 75be 09be 4475 cbbe 6094 883e 1916 f13d
000002b0: c1fe 81be 121c c03e 8484 0b3e 609c fb3d
000002c0: bdcb 7abe 7792 bc3e c49b cebd 4be1 b73e
000002d0: 7f89 afbe d997 c23e 3b4b d83d 67ce c93a
000002e0: 90df dfbd 775e b0be 22ef 85be e51d c9be
000002f0: e8d3 8a3d be67 d6be e95f 14bd c7ff 01be
00000300: 08b6 82be b307 87be 30c9 aa3e 8e73 8e3e
00000310: 6de9 803e aec5 a2be df46 173d d1e1 463e
00000320: ae72 7f3e 6e12 9a3e c712 803d 6486 9f3e
00000330: 6673 acbe 69e9 603e dff2 59bc fc96 393e
00000340: 6374 4a3e 319c 1e3d 5dc3 223e 5a8a b3be
00000350: 2eca 88bd 0eed a0be 6244 7b3e d2fb bbbe
00000360: 0b75 123e e1a4 133e 3d5b 3dbe aad0 0ebd
00000370: 642a 95be f56b 383e b1b6 99be 6e43 5abe
00000380: 6380 b13d 3cdf a1be 8905 bc3e 668f 1f3c
00000390: 997b 7b3e abb6 33be 5785 b73e f2aa b5be
000003a0: dafc f7bd 3a1c 8f3e a8c4 3c3e cb9f 5abe
000003b0: b5ee 8bbd e3be 31be df5f 82be 4d9d b43e
000003c0: 2a2d 81bc 0bf1 3f3c 907e 40bd f71c d4be
000003d0: 723f d4be 01c6 43be 95cb be3e 4acd 0a3d
000003e0: 6827 d23e 0517 1fbd fef2 f83e ae3f 3fbe
000003f0: 9119 e83e 170b 0c3e 40c5 80be 80ff 91be
0.2963809 0.03926384 -0.32566288 0.41505352 -0.16896574 0.06820535 0.4479129 -0.15317912
0.10056914 0.13857527 0.16444033 0.19646159 -0.17144828 -0.31302866 0.33135298 -0.4614128
0.022528224 0.29959878 0.37662253 0.40289658 0.11779241 -0.0045745373 -0.3779019 0.20610814
0.4762115 0.054202836 0.37794822 -0.36034986 0.12131827 0.059176385 -0.34294793 0.20957103
-0.3860188 0.41222855 0.12167726 0.17104368 -0.09852071 -0.13163754 -0.1334025 -0.4678055
-0.1867203 -0.13938412 0.18198968 -0.09317383 0.08896182 -0.3903346 0.20229012 0.21251932
-0.2768969 0.12604319 0.29745513 0.33924204 -0.39112446 -0.011103172 -0.22462818 -0.20838973
-0.1035106 0.065623224 0.23887591 0.33218077 -0.16973121 -0.33137256 -0.23648766 -0.33847147
0.2863344 0.4299585 -0.28839922 0.19913541 -0.09892891 0.37020093 0.026419936 0.14995396
-0.16994531 0.15111755 0.04619079 0.045375645 -0.3092842 0.34210172 -0.14473468 0.0017784178
0.01148899 -0.2603262 -0.054512728 -0.25909665 0.24812713 0.19933003 0.37105894 0.43664357
-0.3955023 -0.30321068 -0.11388956 0.045763697 -0.12884215 0.19774728 -0.13128704 0.21285012
-0.16502073 -0.32970145 0.15861078 -0.15522802 -0.07369185 0.29450604 -0.11565344 -0.13634354
-0.42459348 -0.17742173 -0.32476667 0.19847226 -0.13788451 -0.0044750385 -0.43492287 0.18697682
0.18447343 -0.524116 0.18988778 -0.18842115 0.30638495 -0.2724152 -0.0931513 0.2474997
0.16146006 -0.10437935 0.21971768 0.44382846 0.39956686 -0.19317423 -0.22061893 0.44231343
-0.2486508 -0.36121395 0.06165488 -0.44717833 0.13621618 0.0077446424 0.28166035 -0.52005637
-0.3243464 -0.39220038 -0.42165852 -0.14737159 -0.13169572 0.48457453 -0.108210236 0.25740755
0.16336326 -0.35773787 -0.118572064 0.128285 0.115759194 -0.4143904 -0.18313219 -0.39313892
0.21245998 -0.19669248 -0.33753908 0.09988925 -0.21579157 -0.31595385 0.040218335 -0.07558468
-0.42648524 0.22621718 -0.3360357 0.40282977 -0.27234983 0.038232293 -0.12959324 -0.20964403
-0.1345156 -0.39737904 0.266757 0.11771793 -0.25389674 0.37521416 0.1362477 0.122856855
-0.24491782 0.36830494 -0.10088304 0.35914072 -0.3428459 0.38006476 0.10561224 0.0015396596
-0.10931313 -0.3444707 -0.26159006 -0.3928062 0.06778699 -0.41876024 -0.03622428 -0.12695228
-0.25529504 -0.26373062 0.3335662 0.27822536 0.2517809 -0.31791443 0.036932822 0.1942208
0.2494609 0.30092186 0.062535815 0.3115722 -0.33681792 0.21964039 -0.013302534 0.18124002
0.1977096 0.038723174 0.15894838 -0.3506649 -0.06679188 -0.31430858 0.24537805 -0.3671556
0.14302461 0.14418365 -0.18491836 -0.034866966 -0.29133904 0.18009932 -0.30022195 -0.21314785
0.08667066 -0.31615627 0.36722973 0.009738779 0.24558868 -0.17550151 0.35843918 -0.35481983
-0.121087745 0.27951223 0.18434393 -0.21350019 -0.06832639 -0.17357974 -0.2546377 0.3527626
-0.015768606 0.011715184 -0.0469957 -0.41428348 -0.41454655 -0.19118501 0.37264696 0.033887185
0.4104569 -0.038840313 0.48622888 -0.18676636 0.45332006 0.13676105 -0.2515049 -0.28515244

model/mobilenetv2_0.50_64/block_1_expand/Conv2D f4 [48, 1, 1, 8]
00000000: ad20 27be 3db7 05bf 89f5 0f3e d814 71be
00000010: 1cdc e7be 4437 063f ea63 f93e e23d 45be
00000020: 730c 34be 62f8 fb3e bd1c 0f3f 1c03 7bbd
00000030: 8b3f e33e 8e39 88be f259 62be 7ec2 a8be
00000040: 8fc7 173e 9c9c 1b3f 6628 3b3e 52bd 853d
00000050: 4b36 0c3e 8531 9c3e 1c72 8ebe 5913 2cbf
00000060: df7d d63d 0588 953d a2c3 66be 3e7d eb3e
00000070: ba72 bb3e 003a 943e 51ea 783e c900 943e
00000080: bd12 42be 930b c83e c528 b43e b153 123e
00000090: 6bd4 3e3d dcae 58be 5b1c 0dbf ae1b dcbe
000000a0: 0f7c babc b1b7 da3e 2bbd a6be a1a8 1c3e
000000b0: 00b2 0abf 8c8d 513e 328d 573e d792 773e
000000c0: 9296 cfbe 5936 55be 0341 113f 9bb1 6bbe
000000d0: 3cd6 343f 8c1d dfbe f50f e03e 9e60 623e
000000e0: 8159 1abf 0ab8 cebe ff56 1e3f 3b13 ee3e
000000f0: 56b3 703e 7ea7 8cbe c2b0 37bd f6f5 2e3e
00000100: 8276 1a3d 7329 a4be 98cf e9bd 652a 4c3d
00000110: ac8c 19bf 3c02 fc3e f529 083f 0335 d13e
00000120: 74a2 483e 8d1e bdbe 0012 60be 0879 533d
00000130: a6ac dabe 146d 17bf 6928 cfbd 794c 523e
00000140: 3140 183f d630 333e d1e5 1fbe f1e3 4ebe
00000150: e509 59be cf3d ff3e 8ad3 29bf 3fe6 e9be
00000160: 4e82 a53e a8e6 5dbe 6013 ba3e 27bc efbe
00000170: 8446 ca3e 4624 95be 2173 a7be 3494 e43e
00000180: 4cfc 38bb a09a e13e 5dc1 65be cdd1 d73e
00000190: 7b77 1bbe 6424 a13e 2521 dc3e 39ef c33d
000001a0: 9a58 473d 763e 363f cd82 e73e d871 d03e
000001b0: 7e37 313f b6a1 19bf 1c77 88b9 bfe2 babe
000001c0: 2116 b1be 7ede 8cbe cb9f b23d 9642 893e
000001d0: 950c adbe d5c1 b4be f659 c6be 22be aabe
000001e0: 36c8 80be d01a 163f ce55 36bf f4b7 f43e
000001f0: 6c9d 383d bfad bbbd 8daa 2dbf 7ae4 8a3e
00000200: c54a 9a3e 6c23 093e 7a8a 02bc f3f8 06bf
00000210: 30e9 a03e 6656 af3e 150b e9be 6c75 6e3d
00000220: ec18 a6be eb2c ce3e ec72 debe c0e6 b03e
00000230: 368d a4be 7151 bdbe 9531 933d a73b bdbe
00000240: 5d94 8cbd 54e9 043f 4bdc 5ebc 2e60 be3b
00000250: 7e8f cc3e 46ea 0d3f fb21 04be 4e4f e5be
00000260: c2a2 babe eb80 9b3c 7a41 583f 73d0 783f
00000270: 6acc d03c 2b1f eebe ecec e2be 9336 e63d
00000280: 1874 033f b35f 35be fcb7 813f 0037 24bd
00000290: e417 69bf c278 2dbe 6f73 cabe 2bfc 533f
000002a0: a4ac fe3e 6e56 5bbe dd20 01bf 6a85 11bd
000002b0: 2454 963e abb9 64be 5b42 efbe 164f 34bd
000002c0: cc3c 11bf f9c0 8ebe 5f7c 6cbf 44b4 5fbf
000002d0: adbb 103e 3810 89be 1589 683f 55be 2bbf
000002e0: ac6f 0c3f 308e 5bbe d7bd 073f 8e63 bdbe
000002f0: 8f6a 063e bfdf 1e3f 4d88 18bd 4fd3 813e
00000300: 51f7 d3be cd2f 01bf 02f7 cabe 086e c33e
00000310: 804b 473e c969 043f 1286 b83e 6901 3abe
00000320: eafd 98be 1237 10bf bfa3 bb3e 77ec cb3e
00000330: c768 8d3e 5302 89be b6f5 c33e 9770 c3be
00000340: 8969 efbe a2e5 9abe fee1 ad3e 1f8c 0dbf
00000350: 1969 933e 8473 e3be 78e5 b23c 04fd 833d
00000360: 5587 e5be 4d02 5d3e ea04 4e3d ffee 1fbe
00000370: fac6 1d3f 3318 843e f82e 063e 50f2 dabe
00000380: 39ab 95be 591e bc3e 5e07 8e3e 97e0 aa3d
00000390: ad6f d2be 59f3 f9be 75ed 9cbe 76d7 a2be
000003a0: fc84 453c 7cfb 5c3e 388e 0cbf d449 fc3e
000003b0: 7704 b6be d2e7 8ebe b2a9 c3be e8e8 85be
000003c0: a273 833e 0148 c23e 5cc6 233f 1d91 043f
000003d0: 2df9 0ebf fe28 463f 5413 a7be 1cfe cb3e
000003e0: 053d 8a3d cd2c f3bc 3573 c1be dbf4 f3be
000003f0: 24e0 0dbe 4cdd b6be 68b5 b93d e18c dc3e
-0.16321059 -0.52232724 0.14058508 -0.23543108 -0.45285118 0.5242808 0.4870904 -0.19261888
-0.17582874 0.4921294 0.55903226 -0.061282262 0.44384417 -0.2660641 -0.22104624 -0.32960886
0.1482222 0.6078584 0.1827713 0.065302506 0.13692586 0.3050653 -0.27821434 -0.6721702
0.10473227 0.07301334 -0.22535565 0.4599399 0.36610967 0.289505 0.24308135 0.2890685
-0.1895246 0.3907133 0.35187355 0.14289738 0.046589296 -0.21160454 -0.5512139 -0.42989868
-0.022764234 0.4271827 -0.325662 0.15298702 -0.54177856 0.20464152 0.21049955 0.24177109
-0.40544564 -0.20821513 0.56739825 -0.2301697 0.70639396 -0.4357723 0.43762174 0.22107169
-0.6029282 -0.40374786 0.61851496 0.46499047 0.23505911 -0.27471536 -0.044846304 0.17086014
0.037710674 -0.32062873 -0.114165485 0.049845118 -0.59980273 0.49220455 0.5318902 0.40860757
0.19593221 -0.3693737 -0.21881866 0.051629096 -0.42709845 -0.59150815 -0.101151295 0.20536985
0.5947295 0.17499098 -0.15615012 -0.2020414 -0.2119518 0.49851844 -0.6633841 -0.45683476
0.32325977 -0.2167002 0.36342907 -0.46823236 0.39506924 -0.29129237 -0.32705024 0.4464432
-0.0028226553 0.44063282 -0.22437043 0.42152253 -0.15182297 0.31473076 0.42994037 0.095671125
0.04866848 0.7118906 0.4521698 0.40711856 0.692253 -0.60012376 -0.00026028685 -0.3650112
-0.34587196 -0.27513498 0.08721884 0.26808614 -0.33798662 -0.35304132 -0.3874051 -0.33348185
-0.2515275 0.5863466 -0.7122468 0.47796595 0.045072004 -0.09163999 -0.67838365 0.2712744
0.3013517 0.13392419 -0.007967586 -0.52723616 0.31427908 0.34245604 -0.45516267 0.05821745
-0.3244089 0.40268645 -0.43447053 0.34551048 -0.32138985 -0.36976197 0.071871914 -0.36959574
-0.068642356 0.5191853 -0.013602327 0.0058098054 0.39953226 0.554356 -0.12903588 -0.44787067
-0.364523 0.018982371 0.8447491 0.9719307 0.025488097 -0.46508154 -0.44321382 0.11240878
0.5134902 -0.17712288 1.0134273 -0.040091515 -0.9105208 -0.16940597 -0.39541194 0.8280665
0.4974109 -0.21419689 -0.5044077 -0.035527624 0.2936107 -0.22336452 -0.46730313 -0.044020735
-0.56733394 -0.278816 -0.92377275 -0.8738444 0.14134093 -0.26770186 0.9083417 -0.670873
0.548579 -0.21440959 0.5302405 -0.36990017 0.13126586 0.6206016 -0.03723936 0.25356528
-0.41399625 -0.50463563 -0.39641577 0.38169885 0.19462395 0.51723915 0.36039788 -0.181646
-0.2988122 -0.5633403 0.36648366 0.39828846 0.27619 -0.26759586 0.382734 -0.38171837
-0.46760204 -0.3025332 0.3396148 -0.5529193 0.2879112 -0.4442407 0.021837935 0.06444743
-0.44829813 0.21582909 0.050297655 -0.15618514 0.6163174 0.25799713 0.13103855 -0.42762995
-0.29232195 0.36741903 0.27739996 0.08343618 -0.41100827 -0.48818472 -0.30649915 -0.3180501
0.012055632 0.21580309 -0.5490451 0.49275076 -0.3555028 -0.2791124 -0.38215405 -0.26154256
0.25674158 0.3794556 0.6397455 0.51783925 -0.5584896 0.774063 -0.32631934 0.39842308
0.0674992 -0.029684449 -0.37783208 -0.47647747 -0.13855034 -0.3571571 0.090678036 0.43076232

model/mobilenetv2_0.50_64/expanded_conv_project/Conv2D f4 [8, 1, 1, 16]
00000000: df50 42bf 218d 353f 68ca b43e 0058 be3c
00000010: 4981 cfbe 976f 18bf 58bf 97be a6d6 0e3e
00000020: d0d8 e53e b81a 103e 90d9 ef3e 219d aa3e
00000030: 4e4e 2fbf 1608 103f 7627 dc3e a116 393f
00000040: f54d 07be 6126 bebe c028 3c3f 323f 84be
00000050: 4e39 c7bd 9195 503d 2c6b 9f3e cf44 b2be
00000060: b998 173f 8ec8 45be d147 fbbe ae88 10bf
00000070: 0897 c1be f92a 073f 2c2f 923e 5a81 1fbf
00000080: c12b 633f f7e8 55bf cfd9 bc3e 92c5 fc3d
00000090: 4cc5 c13e 0e25 14bf 8794 16bf 92fe 3a3e
000000a0: f097 92be 98eb 9c3e eded e0bd f466 1a3f
000000b0: 2c3c e43e e55d 46bf 7b97 1bbf 89c4 02bf
000000c0: 48a9 393e 73bf 973e 74b6 90bb 5f7e 2b3d
000000d0: 327b b73c d53d 9dbd 3705 c73e e148 ae3e
000000e0: 26b2 3f3e 2d52 363d 9320 433f 368d 0bbf
000000f0: 091b c73e 5f2a b83e 2c3f 1b3f 91bf 103d
00000100: 57f4 e4be bc42 37be 8db0 ed3e a637 c83e
00000110: 7dbd 643e 3e72 173d 5f92 e3be eb3a 243f
00000120: 6d72 183d 9447 31bf 008c 113f 9097 da3e
00000130: b3d4 c7be d916 92bd 83a3 09bf 69e4 173f
00000140: 70a7 f53e e09f 0ebf ddfe 823e 44f5 2c3f
00000150: 512c a93e c090 313f a528 103f f05b d03e
00000160: 9e97 a1be 806e cebe 4197 bcbe d1a4 17bf
00000170: 6bd8 04bf 69e5 debe ac6c 8fbe 8996 f93e
00000180: 2e56 15be 5609 133f 8ab4 063e fda0 d13e
00000190: a066 283f 8035 f73e 4a00 243f 6313 763d
000001a0: 7b34 333c efbc 7e3e e151 283f 13cc c6be
000001b0: 4c9c 9ebe 914e 8cbc 2c94 053f 3c43 88be
000001c0: 4537 80be 838e 223f b9e1 8b3d 52a9 243f
000001d0: e6b8 33bf 9732 313f 8a7e 0dbf 5684 23bc
000001e0: 1de4 e6bd cd5b 6b3d 018b 283f be6a f3be
000001f0: d691 f8be 9c3d ba3e a698 d9bd 9bb6 cebe
-0.7590465 0.7091847 0.35310674 0.023235321 -0.40528324 -0.5954527 -0.2963817 0.1394907
0.44891977 0.14072692 0.46845675 0.33323005 -0.6847886 0.5626234 0.42998856 0.72300154
-0.13213332 -0.37138656 0.7349968 -0.25829464 -0.09727727 0.050923888 0.31136453 -0.34818122
0.5921741 -0.19314787 -0.4907823 -0.56458557 -0.3781054 0.52799946 0.28551614 -0.6230675
0.8873864 -0.835586 0.36884925 0.12342371 0.37845838 -0.5786904 -0.58820385 0.18261173
-0.28631544 0.30648494 -0.10982881 0.60313344 0.44577157 -0.7748702 -0.60778016 -0.5108114
0.18130982 0.29638252 -0.0044162814 0.041868564 0.022397611 -0.07677809 0.38871166 0.34039977
0.18720302 0.044511963 0.7622158 -0.54512346 0.38887814 0.35969827 0.6064327 0.035338942
-0.44717667 -0.17896551 0.4642376 0.39104956 0.22337909 0.036974184 -0.4444761 0.641524
0.0372185 -0.69249845 0.5685425 0.42693758 -0.39029464 -0.07133264 -0.53765124 0.593329
0.47979307 -0.557127 0.2558507 0.67561746 0.33041623 0.69361496 0.5631202 0.40695143
-0.31560987 -0.4031868 -0.36834148 -0.59235865 -0.5189273 -0.435344 -0.28012598 0.48747662
-0.14583656 0.5743612 0.13154808 0.40943137 0.65781593 0.48283005 0.6406294 0.060077082
0.010937805 0.2487676 0.6574994 -0.3882757 -0.3097862 -0.017127307 0.5217922 -0.26613796
-0.25042167 0.63498706 0.068301626 0.6432086 -0.7020401 0.6921782 -0.5527121 -0.009980282
-0.11273978 0.057460595 0.65837103 -0.47542375 -0.48548764 0.3637513 -0.106248185 -0.40373692

model/mobilenetv2_0.50_64/Conv1/Conv2D f4 [16, 3, 3, 3]
00000000: fc65 8e3c fd0b a8bc bcf8 85bc 7d99 dabc
00000010: d8a3 d2bc 3598 9a39 3a9a 273c a7f4 fb3c
00000020: 29f8 a5bb 2354 a9bc b9f3 91bc 88f1 4c3c
00000030: 4d85 20bc 27cd ed3c 9670 81bc 7947 c83b
00000040: 742b 9d3c be68 8ebc c917 f13c 82fd e93c
00000050: bcf8 2bbc ed57 93bc fb7c 60bc b634 e4bc
00000060: 1386 4bbc 1bfa afbc bac0 e13c 713a b13c
00000070: 4e93 81b9 cba0 a63c e9cc b13c f253 993c
00000080: 17e8 343c f713 623b 5c0c a5bc 9c1e b5bc
00000090: 9e31 6ebc 3eb7 9a3c 3a71 96bb 5c6c 62bc
000000a0: e1f8 9cbc 5c12 1e3c 1998 88bc ac37 9fbc
000000b0: ab8e 94bc 5d22 b63c 5dc6 a4bc 096a ba3c
000000c0: 1f6c 82bb 6663 093c 8932 833b 4e9a b9bc
000000d0: c352 8bbc f7f3 8f3c a5bf d2bc 42da bdba
000000e0: 46d6 103d b4bb 083c 7e44 abb9 6078 08bc
000000f0: 06e6 1cbd ebd9 913a 4f2c b1ba 2f91 3c3d
00000100: 1764 1d3d 97c1 803c fa0f b3ba 4bb2 82bb
00000110: fb98 89b9 20be 35bd 598c d2bc 8620 7d3c
00000120: de75 83bc de72 413d 70f5 2bbd 8a89 0ebd
00000130: 40cd aa3c a9b0 313d 22ce 0a3d 7b5d 1dbd
00000140: 64ca d83c d01d b6bc 10b4 123c 44cc 543b
00000150: bc4b cbbb 82eb 7fbc ae62 933c 4eda 853c
00000160: e411 a53c 1e32 bdbc 601d f2bb 8de4 81bc
00000170: 2e46 80bc ef49 20bc c374 053c f4cf 90bb
00000180: 146a 29bc 0a84 333b 4adc 09bc fe23 b4bc
00000190: 1dbe 833c 80c7 343c 53ca 653c 4e77 c0bc
000001a0: bc57 93bb 1e82 87bc 3418 353c 5671 7dbc
000001b0: 4b9a c4bc 2850 8e3c 6570 193c 0ede 7a3b
000001c0: cc62 68bb 98d1 a0bc 1ab5 c03c 47f0 613c
000001d0: 910b b33c 777d 9d3c 075c 463c 38c8 c73c
000001e0: ff1b bcbc 2ba8 8a3c 445a 9cbc 00cf 1abc
000001f0: 7eb1 913c b989 32bc 42fa 043c dc2d 13bc
00000200: 0055 90bc 6b23 853c dd8d b63c 9ed8 a43c
00000210: f48f aebc d6ca cfbc 932b d33c f9c5 48bc
00000220: cbcd a8bc 0bd6 e63b fe43 143c 408e aa3c
00000230: 26c6 51bc 8f82 b5bc e735 e5bb cf50 1fbc
00000240: 86ce 9c3c a327 87bc 10a5 b93c 9f45 65bc
00000250: 9a30 a63b 227c 783c f644 c13b ebb5 3fbc
00000260: 60cb 11bc 8896 9a3c 80db 943b 913f 13bc
00000270: 6899 c03a 0de2 5dbc 059e 6fbc 664b bbbb
00000280: f3ac b2bc a71a 4fbb fe47 783b ede5 9ebc
00000290: 2eb1 ce3a b850 293c 60e9 4a3c d128 a4bc
000002a0: 4d35 353c 1af1 9f3c dc2c a5bc d040 6cbc
000002b0: c039 bdbb a2b4 423c bc0b c03b 3445 0b3c
000002c0: f88b 90bc 0cdc da3a 9886 85bc 9729 eaba
000002d0: bd92 0cbc 3bbe 8c3b 4904 98bc efd1 113b
000002e0: 2c5b 923a 7b54 063c f935 94bc dbea 07bc
000002f0: 5f37 85bc 2734 d1bc 208d d83a 918e c3bc
00000300: 293c cfbc e0da bd3c 2bdb 283d 0f0c 2bbd
00000310: c0f8 993c bc97 98bc 0048 09bd 9e47 2d3d
00000320: bcf3 3fbc 294e 233d bafc 0cba 6946 be3c
00000330: 8f23 1dbd 2c64 703b 03f0 df3c d1a3 923c
00000340: 3491 2cbb bba5 c2bc 2ba6 2c3d bb64 74bc
00000350: 891d f13c d285 79bc 6208 c0bc 17dd 083d
00000360: 645e 753b e635 0bbc 004a d3ba eef5 f4b9
00000370: ca4c 113a 24fe a3bc d23a 313b 5604 b0bc
00000380: 464a 833c 255a 28bc ede2 933c 9aed b33b
00000390: 5373 ce3b c666 93b9 ce86 c83b de57 8ebc
000003a0: 33a2 85bc a102 333c 3cd0 833c 7f68 20bc
000003b0: 8837 953c 415f 8d3c e2b7 87bb ef42 2b3c
000003c0: 9368 a23b 6fe4 a13c f10b 993c b3b5 18bc
000003d0: d164 053c a51b 1ebc ba56 873c f2a8 463c
000003e0: a3da 713c bcbf 133c edc8 e53b 4fc3 7fbb
000003f0: f990 cc3b 5aa1 833c 39f1 623b f660 33bb
0.017382614 -0.020513529 -0.016353957 -0.026684517 -0.025712892 0.00029486572 0.010229642 0.030756308
-0.0050649834 -0.020670002 -0.017816411 0.012508757 -0.009797406 0.029028488 -0.015800755 0.006112036
0.01918576 -0.01738393 0.029430287 0.028563265 -0.010496315 -0.017986262 -0.013701673 -0.027857166
-0.0124221025 -0.021481564 0.02755772 0.021634312 -0.00024714548 0.020340344 0.021704154 0.018716786
0.011041663 0.0034496763 -0.020147495 -0.022109322 -0.014538197 0.018886205 -0.0045911344 -0.01381978
-0.019161643 0.009647932 -0.016674088 -0.019435726 -0.018134436 0.022233183 -0.020114118 0.02275564
-0.003980174 0.008385515 0.004003827 -0.022656586 -0.017007237 0.017572386 -0.025726149 -0.0014484602
0.035360597 0.008345533 -0.00032666692 -0.008329481 -0.038305305 0.0011127567 -0.0013517233 0.046036895
0.03842553 0.01571731 -0.0013661378 -0.0039885393 -0.00026244656 -0.04437077 -0.025701689 0.015449649
-0.016047414 0.047228687 -0.041982114 -0.034799136 0.020849824 0.043381367 0.03388799 -0.038419228
0.026463695 -0.022231013 0.008954063 0.0032470385 -0.0062040966 -0.015620114 0.01799139 0.016339447
0.020150132 -0.023095187 -0.0073887557 -0.015856052 -0.015658464 -0.009783252 0.008145514 -0.004419321
-0.010340232 0.0027391934 -0.008414337 -0.021989819 0.016081864 0.011033893 0.014025289 -0.023494389
-0.0044965427 -0.016541537 0.011053134 -0.015468916 -0.023999354 0.017372206 0.009365176 0.0038279328
-0.0035459278 -0.019631192 0.023523856 0.013790197 0.021856101 0.019224865 0.012106902 0.024387464
-0.022962568 0.016925892 -0.01908601 -0.009448767 0.01778483 -0.010897093 0.008116307 -0.008983102
-0.017618656 0.01625224 0.022284443 0.020122822 -0.021308877 -0.025365274 0.025777614 -0.012254232
-0.020605942 0.007044559 0.009049414 0.020819783 -0.01280359 -0.022156982 -0.006994951 -0.009723856
0.019141447 -0.016498392 0.022661716 -0.01399365 0.0050717117 0.015166314 0.0058981134 -0.0117010875
-0.008898586 0.018870607 0.004542768 -0.008987323 0.0014694156 -0.013542664 -0.014625077 -0.0057157753
-0.021810984 -0.003160158 0.0037884708 -0.019396747 0.0015769356 0.010334186 0.0123847425 -0.020038994
0.011060071 0.019524146 -0.020162992 -0.014419749 -0.0057747066 0.0118838865 0.005860774 0.008500386
-0.017644867 0.0016697659 -0.01629953 -0.0017865178 -0.008579907 0.004295138 -0.01855673 0.0022250374
0.0011166087 0.008198853 -0.018092142 -0.00829574 -0.016261755 -0.025537563 0.0016521551 -0.023871692
-0.025297241 0.023175657 0.04122464 -0.041759547 0.018795371 -0.01862704 -0.03351593 0.042304628
-0.011715826 0.03986946 -0.00053782354 0.023226934 -0.03836399 0.00366808 0.027336126 0.01790038
-0.0026331665 -0.023760667 0.042150658 -0.014916594 0.029433029 -0.015229659 -0.023441497 0.033413973
0.0037440294 -0.008496737 -0.0016120076 -0.00046722539 0.00055427535 -0.020018645 0.0027043116 -0.021486443
0.016026627 -0.010275398 0.018052543 0.005490971 0.006300369 -0.00028114597 0.0061195856 -0.017375883
-0.016312694 0.01092592 0.016090505 -0.009790539 0.018214956 0.017257335 -0.0041417936 0.01045297
0.004956314 0.019762246 0.018682452 -0.009320664 0.008141712 -0.009650146 0.016520847 0.012125241
0.0147616 0.009017881 0.0070124776 -0.0039026325 0.006242868 0.01606815 0.0034628643 -0.0027371026

model/mobilenetv2_0.50_64/block_16_project_BN/FusedBatchNormV3 f4 [160]
00000000: b0f2 b23e b8d2 2bbe 9cd4 43bd 4504 c6bf
00000010: 0368 303e f2b9 4abf 0b7a 793f 0e06 573f
00000020: 3946 8a3f 04cd f3be bba9 fbbe 0a2c 5e3f
00000030: 200a ecbe 8d54 5dbe ec93 56bf f89b bf3f
00000040: 2a07 543f 471a 95be 2699 28bf 9b57 bebe
00000050: 707e 223e 914f 703f ce74 8d3f 3a83 183f
00000060: 56ac 8b3e b95f b8be 1f11 d83e a32d b93c
00000070: cbba 933e d947 cabd 65ba 94be fb5e b93e
00000080: d28c b0bf 0e2b 6f3e fae4 193f 0d2b c0be
00000090: 61bb dd3d 4acd 49bd ae17 f63d 5bd9 333f
000000a0: d8a4 af3e 8969 443f c3b9 153f 7a07 1f3f
000000b0: 7d46 89bf 6356 8a3f cda0 613f 9e42 d23d
000000c0: 5021 b6be f9f1 d53e 81c0 ae3f 123a f53d
000000d0: 6e4f 99bf 4e1c 373f 0888 4b3f 4274 a13d
000000e0: 0848 b1be 2e4d 5e3f 436a 863e d609 84be
000000f0: 2c9e 4dbf c06c 89be f474 003f 8f7a 0bbf
00000100: 8557 2d3d 6578 e83f 72bb 8c3e edc2 273f
00000110: b8f6 e6be 29ce 59bf 19ba d1be f763 1a3d
00000120: 0901 60bf 2981 8abe e0c8 133f 1e71 53be
00000130: a474 3a3f 6f46 b0bc 060b 663f a0aa 0b40
00000140: f6bd 0a3f a484 ccbe 67c4 303f 13fc 8dbe
00000150: 9388 96bf 3c89 b23e e4af 643f 1e5e 343f
00000160: 24ff e0be 17b1 d7be 1de6 95be 6a93 6fbf
00000170: 129b febe 4a53 363f b443 3fbf a2a9 f83e
00000180: c38b 51bf de36 a6bf a6d0 a23f c058 883f
00000190: 1829 e4be be98 b93d f11c b53e cecd 7d3e
000001a0: 7b0d d73e 74eb 99bf 60e0 93be a175 66bf
000001b0: 38e1 053f d4ee 4b3e c0ce dabf 6b6b ecbe
000001c0: 8d59 c93e 55c0 16bf 5c94 703f a03d 3c3f
000001d0: 012d d5be bdf3 24bf da27 56bf d6fd dabf
000001e0: 7d12 283f 34f4 993e 4359 6ebe 515e e8bc
000001f0: b838 813f 4772 37be 3883 99bf f594 00bf
00000200: f41d 283c c1bb c6be 83c9 1cbf 5563 4c3e
00000210: a2e2 9c3e 8f5e 1cbf a9e3 aebf 5cb2 34bf
00000220: db05 85bf 59ad 543f fd77 38be 7bec 86bd
00000230: 3dbe 0b3f 9867 7dbf 88d7 5f3f 5155 703e
00000240: 636b 873e afe3 2cbf 6104 ca3e 0659 b6be
00000250: 103a 953e eb5c 6abf c8e7 abbf dc33 0a3f
00000260: 3d04 acbf b4d1 71be 9d99 cc3d bc9a dcbe
00000270: f142 65bf 45c7 c03d a0f1 3abf 543b d73d
0.3495078 -0.16779602 -0.047810182 -1.5470053 0.17227177 -0.7918998 0.9745185 0.83993614
1.080268 -0.47617352 -0.49152932 0.8678595 -0.46101475 -0.21614285 -0.8381946 1.4969473
0.8282343 -0.2912161 -0.65858686 -0.37176213 0.15868545 0.9387141 1.1051271 0.59575236
0.2727992 -0.3601053 0.42200562 0.02260477 0.2885345 -0.09876985 -0.29048458 0.36205277
-1.3792975 0.23356268 0.60115016 -0.37532845 0.10826755 -0.049268045 0.12016235 0.70253533
0.34305453 0.76723534 0.58486575 0.62120783 -1.0724636 1.0807613 0.8813599 0.102666125
-0.3557229 0.41786173 1.3652498 0.11973967 -1.1977365 0.71527565 0.7950444 0.078835025
-0.34625268 0.86836517 0.26252946 -0.25788754 -0.80319476 -0.26840782 0.50178456 -0.54483885
0.042319793 1.8161741 0.2748676 0.6553181 -0.45110106 -0.850802 -0.40962294 0.03769299
-0.8750158 -0.27051666 0.57728386 -0.2064862 0.7283423 -0.02151796 0.8986057 2.1822891
0.5419611 -0.39944947 0.69049686 -0.2773138 -1.1760429 0.34870327 0.8933089 0.7045611
-0.43944657 -0.42127296 -0.29277125 -0.9358431 -0.49727684 0.7122084 -0.7471268 0.4856692
-0.81853884 -1.2985494 1.2719924 1.0652084 -0.44562602 0.090623364 0.35373643 0.2478554
0.42002472 -1.202498 -0.28882122 -0.9002324 0.5229678 0.19915324 -1.7094345 -0.46175703
0.39326134 -0.58887225 0.9397638 0.7353153 -0.41635898 -0.64434415 -0.8365456 -1.7108715
0.6565321 0.30069125 -0.23276238 -0.028365286 1.0095434 -0.17914687 -1.199317 -0.5022729
0.010261048 -0.3881512 -0.6124498 0.19959767 0.30641657 -0.61081785 -1.3663226 -0.70584655
-1.0392412 0.8307701 -0.18014522 -0.06588074 0.54587156 -0.98986197 0.8743825 0.23470046
0.26449117 -0.6753492 0.39456466 -0.35614794 0.2914586 -0.9154803 -1.3430109 0.5398538
-1.3438793 -0.23615152 0.09990237 -0.43086803 -0.8955527 0.09413008 -0.7302494 0.10509363

model/mobilenetv2_0.50_64/block_15_project_BN/FusedBatchNormV3 f4 [80]
00000000: ffb1 56bf 50c2 bbbd 1267 073f a630 f9be
00000010: 975d 68bf a05a ed3e 0a85 37bd aaa2 8d3e
00000020: a248 02bf 57a5 e0bc 05a7 60bf 2dfe 44bf
00000030: 1f58 283e 4261 efbe 93b7 7e3f 3f84 ac3e
00000040: 5f08 02bf 9c56 42be 37cd 9c3f ade5 9abe
00000050: b42d 323f f281 b0bf 29b6 4b3f 7e54 1d3f
00000060: 7af5 e8be 41ca 893e d0bd 283f 109c 6bbf
00000070: 64bd 493f 2b02 a9bd 8df5 2b3f c1bf 113e
00000080: 24d5 9b3f 8d8e 0abe a380 e43e 7ad6 593f
00000090: f20e 15bd 6c8c 983e 369a aa3d 072f 313f
000000a0: 539f 4cba e46e 5cbe 482f afbe 6492 c4be
000000b0: bfd9 80bd e19a bcbe 9e44 863f be05 833f
000000c0: b4e8 bebe 8ba6 85bf f9bc 0a3f 34f3 b13e
000000d0: 489b ebbd e95b b03d 158d 163b 4f83 183c
000000e0: 2c1a 823e 7b27 f6be c898 763f e9be 91bd
000000f0: a8a5 f23d f0dd 023d 28f6 15bf 39a0 03bf
00000100: 9ab7 0dbc 36ec a03c 447c 2dbf 7f00 ad3e
00000110: c6b0 fd3e f488 723e 7c88 b43f 8cb8 4cbe
00000120: 498d 093e 1d16 d9be 833a 113f 5bd3 283f
00000130: 1bf4 b93d 8af1 0a3f 8c26 93be 750a 9c3e
-0.8386535 -0.091679215 0.5289165 -0.48669928 -0.90767807 0.46358204 -0.04480461 0.27663165
-0.5089208 -0.02742259 -0.8775485 -0.7695034 0.16439866 -0.4675389 0.9949886 0.33694646
-0.50794023 -0.18978351 1.2250127 -0.30253354 0.6960099 -1.3789656 0.7957483 0.6145705
-0.45499784 0.2691212 0.6591463 -0.9203501 0.7880461 -0.08252367 0.67171556 0.14233305
1.217442 -0.13530941 0.44629392 0.8509289 -0.036391206 0.29794633 0.08330195 0.69212383
-0.00078057236 -0.21526676 -0.3421576 -0.38392937 -0.06291532 -0.36836913 1.048969 1.0236127
-0.37286913 -1.044145 0.541946 0.34755862 -0.11504227 0.086112805 0.0022972275 0.00930865
0.25410593 -0.48076996 0.96326876 -0.07116491 0.11848003 0.031949937 -0.5857873 -0.51416355
-0.008649731 0.019643884 -0.6776774 0.3378944 0.4954893 0.23685056 1.4104152 -0.19992274
0.13432802 -0.42399684 0.56729907 0.659475 0.090797625 0.5427481 -0.28740346 0.30476728

model/mobilenetv2_0.50_64/block_14_project_BN/FusedBatchNormV3 f4 [80]
00000000: 0c60 bc3e b2f2 a93e 4af7 cfbd a122 d4bd
00000010: e075 0a3f 26b9 90be f535 e7be d30d 32bf
00000020: 473a 893f 3b30 94be df13 da3e daf4 fabe
00000030: 1ba2 933d c61b 6e3f e61d af3e 30b2 efbe
00000040: 6045 893e 8d82 b2be edb4 fbbe 4974 4dbf
00000050: d924 d63e 369e 46bf 5751 493f d324 a03e
00000060: f2e8 48be 4010 80be b7c1 543f fb97 1f3f
00000070: cac2 1bbe fdc8 083e 4e6f 35be 4b24 b2bd
00000080: 1087 84bc 2b48 14bf 6072 893f e330 c83e
00000090: a802 f0bd bec8 2c3d fd68 f9be 2d02 093f
000000a0: 3cad 31bf 4af4 10bf 855f 87be f2ab 343f
000000b0: 3b43 9ebe 0063 933f b5fc 9ebf 4fa4 f13d
000000c0: a9bb 2cbf 237e 62be e24e ee3e be1e 713e
000000d0: c73a b53e 70f3 55be 9074 56bf b58a f73e
000000e0: 3a49 ac3f 269c 413d e64f 59be e55e abbf
000000f0: bc4c 0e3f b0ff 223e be1f e83e 4480 f7be
00000100: a5f0 6e3f 1743 c0be bc2d a9bd a156 98be
00000110: 9ee7 02bf f0c7 5a3f 44fe 99bd 04d9 543e
00000120: 6125 a5be 7cea 313e 9fb5 9dbe 53ab 853e
00000130: 0d27 ad3e fe51 7dbf e72a 363f 2ec9 8dbf
0.36792028 0.33192974 -0.101545885 -0.103581674 0.5408611 -0.28266257 -0.45158353 -0.69552344
1.072091 -0.28943047 0.42593285 -0.49014932 0.072086535 0.9301113 0.34202498 -0.46815634
0.2681074 -0.34865227 -0.49161473 -0.8025556 0.41824988 -0.7758516 0.7863974 0.31278095
-0.19620112 -0.25012398 0.83108085 0.6234128 -0.15211025 0.13357921 -0.1771824 -0.086983286
-0.016177684 -0.5792262 1.073803 0.39099798 -0.11719257 0.04218363 -0.48712912 0.53518945
-0.6940496 -0.56622756 -0.26440063 0.7057487 -0.30910668 1.1514587 -1.242087 0.117989175
-0.67473847 -0.2211843 0.46544558 0.23546883 0.35396406 -0.20893645 -0.8377161 0.48348013
1.3459847 0.047268055 -0.21221885 -1.3388335 0.5558584 0.1591785 0.45336717 -0.48340046
0.93335944 -0.37551185 -0.08260676 -0.29753593 -0.5113467 0.8546133 -0.075192004 0.2078591
-0.3225508 0.17374605 -0.30802628 0.26107273 0.33818856 -0.98953235 0.71159214 -1.107702

model/mobilenetv2_0.50_64/block_13_project_BN/FusedBatchNormV3 f4 [80]
00000000: 1d5f 863e 6ba4 d5be bc40 debd ed70 e53e
00000010: 9f96 703e c06c 683e 2c75 60bf 206c d2bd
00000020: 0ec2 3a3f 880f 273d a13d 033f 560f 483e
00000030: 125e 23bf c1bb 793f 9740 8ebd 5e65 e63d
00000040: 3fa9 f0be 7f4f 0c3e 1139 3b3f af3b fe3e
00000050: ec70 ae3e d10a 0a3e b19c 01bf 9ee7 c9bd
00000060: 40c1 f63c 0234 d03e d9eb 1ebe dac1 3b3f
00000070: a0e3 0e3e acb7 223e a171 f43e d842 c93d
00000080: 0f08 d5be a169 a1be 932b 8f3f 4f00 78bf
00000090: 05eb 5a3e 88b8 553d 5892 71bd b875 5d3f
000000a0: 2e18 13bf aac5 ddbd 458d a23e c86e f9be
000000b0: cbba a23e 2b15 cd3c b866 14bf 5740 33bf
000000c0: 47c6 b33e a62d 2a3d 8229 143e 8f4b 4e3f
000000d0: 7405 5a3e be0c 92be 438b 033e 9604 c2be
000000e0: f4c5 ecbe 9b0b 3dbf d25c 423f 2475 693f
000000f0: 7ef8 1abf 07f6 0e3f 3b40 c13e b200 a43e
00000100: cedb b0be 4f35 0bbf c992 803e 18d4 89be
00000110: 0081 2ebf 579d fbbd 6b80 743c 6660 823d
00000120: bf16 7ebe 8dea 45bd f75b 173f 4671 d93e
00000130: f4d7 e4be 3117 18bf cb7d 7bbd b7ee e53d
0.2624444 -0.41727003 -0.10852191 0.44812718 0.23494957 0.22697735 -0.8767879 -0.102745295
0.72952354 0.040786296 0.51265913 0.195371 -0.63815415 0.97552115 -0.06945913 0.11249803
-0.47004125 0.137022 0.7313395 0.4965491 0.34070528 0.13480689 -0.5062972 -0.098586306
0.030121446 0.4066468 -0.15519656 0.7334267 0.1395402 0.15890378 0.47742942 0.098272026
-0.4160771 -0.315259 1.1185173 -0.9687547 0.21378715 0.052177936 -0.058977455 0.8650775
-0.5745877 -0.10828717 0.31748405 -0.48717332 0.31783137 0.025034508 -0.57969236 -0.7002005
0.3511221 0.04154744 0.14468959 0.80584043 0.21291143 -0.28525347 0.12846093 -0.37894124
-0.46244776 -0.73845834 0.7592288 0.9119437 -0.6053542 0.5584416 0.37744316 0.3203178
-0.34542698 -0.5437822 0.25111988 -0.26919627 -0.6816559 -0.122858696 0.014923195 0.06366043
-0.24813364 -0.04831939 0.591247 0.42469233 -0.4469601 -0.5941039 -0.061399262 0.11227172

model/mobilenetv2_0.50_64/block_12_project_BN/FusedBatchNormV3 f4 [48]
00000000: bbf6 9ebe 4f1a 91bd acd0 453f a89c 2b3f
00000010: 8747 b9be 9b07 c1be 9d39 873e efb1 ddbd
00000020: ed00 4abe 06da 41bd ba99 d7be 9a1f d83e
00000030: 46f3 bebe 4229 b23e a1b5 b83e 2f6b d93d
00000040: 25be 203d cd28 2f3e fdd6 d53e 1866 6abe
00000050: 5b72 f03d ec49 c93d c95f b2bd c1aa 9ebd
00000060: f074 943e 0bf7 e1be 78fd bfbf be4d 6a3e
00000070: 1f68 163e 1d49 44bf d4af 2ebf 70bb 25be
00000080: b7ec 043d cc35 753e bc9d 56be 0b44 173e
00000090: 7b0d 603f 6e2a 6c3f 6599 b53e 47a4 72be
000000a0: c49a e43e 3d58 32bd 071a 48be 33e5 0d3f
000000b0: d763 0c3f 815e 04bf 1649 3b3f d956 fc3e
-0.31047615 -0.07085096 0.77271533 0.67035913 -0.36187384 -0.37701115 0.26411143 -0.10824954
-0.19726916 -0.047327064 -0.42109472 0.4221161 -0.37294978 0.34797102 0.36076072 0.10616147
0.039243836 0.17105408 0.41765586 -0.22890508 0.117405616 0.098285526 -0.08709676 -0.077474125
0.28995466 -0.4413379 -1.4999228 0.22881219 0.14688157 -0.7667406 -0.6823704 -0.16184783
0.03245231 0.23946303 -0.20958608 0.1477205 0.8752057 0.9225224 0.35468593 -0.2369548
0.44649327 -0.04354118 -0.19541179 0.55427855 0.54839844 -0.517067 0.73158395 0.4928501

model/mobilenetv2_0.50_64/block_11_project_BN/FusedBatchNormV3 f4 [48]
00000000: df10 79bd 3b98 683e 41fe 4f3e 5779 b23e
00000010: e634 9cbe c23a f1be dcc9 acbe a77e 90be
00000020: 0753 473f 079d f0be dc8a dbbd b0cb 8cbe
00000030: 0000 9e3e 0a19 cabe dcfc 17bf b912 5f3f
00000040: bac1 4f3e f990 e0be 1c09 de3d 11e8 eabc
00000050: 2400 8f3f ecf5 1f3f 5c77 95be 9643 37bf
00000060: 93e5 c53d 5081 babe b963 103e 0d7f 0fbe
00000070: 1037 8fbd 8599 f4be 63c2 58bf 18bb 3b3d
00000080: 4972 723f dd3c 3a3e 64a5 0b3f 38bf 28bd
00000090: c80c e13e df5c 11be e662 6c3f 2a37 24be
000000a0: 0cd3 953e 0a71 163f 133f 6fbd 9b4e 51be
000000b0: 7812 34bf 61ec e93e bd9b 9c3c 736e bb3e
-0.060807105 0.22714321 0.20311834 0.348582 -0.30509108 -0.4711514 -0.33747756 -0.28221628
0.77861065 -0.46994802 -0.10719845 -0.2749915 0.30859375 -0.39472228 -0.5937021 0.87137944
0.20288745 -0.43860605 0.10841581 -0.028675111 1.1171918 0.6248462 -0.29192626 -0.715875
0.096629284 -0.36426783 0.14100541 -0.1401331 -0.06992924 -0.47773376 -0.8467161 0.045832723
0.94705635 0.1818728 0.5454924 -0.041197985 0.43955064 -0.14195584 0.9233841 -0.16036668
0.29262578 0.58766234 -0.05840976 -0.20440142 -0.7034068 0.45688155 0.01911723 0.36607704

model/mobilenetv2_0.50_64/block_10_project_BN/FusedBatchNormV3 f4 [48]
00000000: 47d8 b7be 9f5c dbbf 2875 d1bd 6f8a b93e
00000010: 568e 61be 36f4 8f3d 2640 42bf a1ad 093e
00000020: 17b4 06bf f435 263e f2af ec3e 52ac ebbe
00000030: 85fa 26bf 9244 0c3f 5511 b23e 310a 333f
00000040: e427 b93d 049d 863f 290e 793f 412e 7a3f
00000050: d9c3 89be c9a2 ca3e 062f 823e c9f5 f93e
00000060: aea7 4d3f 1a75 703e 64bd 483f 17f3 753f
00000070: b260 97bf 13f6 61be b748 be3d 7eeb cabe
00000080: 3dfe 68bf f5f1 7abf 0ba8 2abf 8621 843e
00000090: 7607 77bd 89a5 2dbe 96c8 20bd ff7e 5e3f
000000a0: 6486 f63e 3891 71be 05c2 393f 5d6d 363f
000000b0: b2f1 343e 29ca 7fbb b8a7 613f 1d4f 24be
-0.35907194 -1.7137641 -0.10227424 0.3623843 -0.22026953 0.070290014 -0.7587913 0.1344514
-0.52618545 0.16231519 0.46227986 -0.46029907 -0.6522601 0.5479213 0.34778848 0.69937426
0.09040812 1.0516667 0.9728723 0.9772683 -0.26907232 0.3957732 0.254265 0.48820332
0.80333984 0.2348217 0.7841399 0.9607405 -1.1826384 -0.22066526 0.09291213 -0.3963279
-0.91012937 -0.9802545 -0.66662663 0.25806826 -0.06030985 -0.16957678 -0.039253794 0.8691253
0.48149407 -0.23590553 0.72561675 0.71260625 0.17670324 -0.003903041 0.88146544 -0.16045804

model/mobilenetv2_0.50_64/block_9_project_BN/FusedBatchNormV3 f4 [32]
00000000: 86ef 39bf bd80 443f f1c2 fa3e 5a4e 81be
00000010: 5302 323f 884b 693f bf65 1b3f 949a 94bd
00000020: f901 e53e 29a6 533d 2c21 08bf 5574 2d3f
00000030: 4a5f d23e bce5 943f e719 283f 8d80 633e
00000040: e519 ba3e 67cd 483f 179a 95bd 2077 493f
00000050: bb87 e6be 33a5 7fbf 33f6 f8bd e8ae 563f
00000060: 46d8 02bf 5414 a3be e8dc 38bf 333a 00bf
00000070: 649f 07bf d78d ebbe 0dd2 ec3e 2d3a d43d
-0.7263111 0.7675894 0.48976853 -0.2525509 0.69534796 0.91130877 0.6070213 -0.07256046
0.44728068 0.051672135 -0.53175616 0.67755634 0.41088325 1.1632609 0.65664524 0.22217007
0.3634788 0.7843842 -0.07304781 0.78697395 -0.4502543 -0.9986145 -0.12156334 0.83860636
-0.5111126 -0.31851447 -0.72212076 -0.50088805 -0.52977586 -0.46006653 0.46254006 0.10362659

model/mobilenetv2_0.50_64/block_8_project_BN/FusedBatchNormV3 f4 [32]
00000000: 7183 9d3d 9162 c33d 14c5 5e3f 9c44 b93d
00000010: 4e22 c43f d5c7 7ebf 121d 20be 4f29 563c
00000020: 8f9a 2d3f a84e b83e 6f29 803e 0dd8 723e
00000030: c7ee 8e3f bc88 a3bd fecf 1d3e 4c5d d7be
00000040: 1db5 193f a1b9 d8be dd70 263f 9ca7 16bf
00000050: b287 0a3e 505a b03e f8ae dabe 4b7c 463f
00000060: 6f03 21be 5051 b23e 9feb fd3e af9a ca3e
00000070: 242d 1b3d f392 c6be 79ed d2bd 5c5b de3e
0.07691086 0.095402844 0.8701947 0.09046289 1.5322969 -0.9952367 -0.1563609 0.013071372
0.6781396 0.3599751 0.2503161 0.2371523 1.1166619 -0.079850644 0.15411374 -0.42063367
0.6004198 -0.42329124 0.65015966 -0.588495 0.13528326 0.34443903 -0.42711616 0.77533406
-0.15723966 0.34827662 0.49593827 0.3957114 0.037884846 -0.38783988 -0.102992006 0.43429077

model/mobilenetv2_0.50_64/block_7_project_BN/FusedBatchNormV3 f4 [32]
00000000: e3c9 5f3f cbf8 843f 28fa 90be 9841 6abe
00000010: d838 eabe 66fc bb3e 5fca 89bf 5c1b 87be
00000020: 5bf8 423e 3c41 01be a08a 353e bfd0 953e
00000030: dcf3 48bf b8c7 4f3e f3f0 a1be dd8b 56bf
00000040: 5752 22bf 61d2 3a3f f119 3cbf 6b6d f73e
00000050: 8627 40bc e149 32bf 6ec6 713f 4499 9d3e
00000060: 1d01 993e faa2 0bbe 1a66 2abc eac5 eb3d
00000070: 334a 3a3f 753a a1bd 24a8 653e 15ff 0dbf
0.8741743 1.0388426 -0.28315854 -0.22876585 -0.45746493 0.36716002 -1.0764884 -0.2638806
0.19040053 -0.12622541 0.17728662 0.29260823 -0.784971 0.2029103 -0.31629142 -0.83807164
-0.6340689 0.7297726 -0.73477083 0.48325667 -0.011728173 -0.6964398 0.94443405 0.30780995
0.29883662 -0.1363639 -0.0104003195 0.115123585 0.7276947 -0.07872478 0.22427422 -0.5546735

model/mobilenetv2_0.50_64/bn_Conv1/FusedBatchNormV3 f4 [16]
00000000: a205 3dc0 d99f f6be f1c5 0440 2768 74c0
00000010: 625e 7040 2257 40c0 281c 5bc0 d216 f33f
00000020: c559 2740 7994 3f40 cba7 6f40 57fc 6440
00000030: a829 5fc0 214e 42c0 e968 e9bf 6287 58c0
-2.9534688 -0.4816883 2.0745814 -3.818857 3.7557607 -3.0053182 -3.4235935 1.8991339
2.614854 2.993437 3.7446163 3.5779016 -3.4869175 -3.0360186 -1.8235141 -3.383263

model/mobilenetv2_0.50_64/expanded_conv_depthwise_BN/FusedBatchNormV3 f4 [16]
00000000: bbb9 27bf 0774 e13e 1041 56bf 066b 29bf
00000010: dfae 253f fcdf 413f e73b 0c3f 468c 8a3e
00000020: 91ac 743d c862 19bf 493a 19bf 7482 b83e
00000030: 578f c7be 5b04 06bf 1e60 5bbe eca3 43bf
-0.6551778 0.44033834 -0.8369303 -0.6617893 0.6471996 0.757324 0.54778904 0.27060145
0.059734885 -0.59916353 -0.5985456 0.36037028 -0.38976547 -0.52350396 -0.21423385 -0.76422

model/mobilenetv2_0.50_64/block_1_expand_BN/FusedBatchNormV3 f4 [48]
00000000: d02b e2bb 7c46 58ba e668 8d3b e2be 1f3b
00000010: 2e27 843b 75a2 24bb 481f 8439 13be 62ba
00000020: 3c9d 46bb 7aff bb39 01d3 0bbc 5ce7 05ba
00000030: 7eb1 8bbb daab 9bba a0bb 9039 68e6 18bb
00000040: 23bd 1a3b 273c 64bc 8ada 04bb 7d62 163c
00000050: 76ac f5ba 4996 c8ba d0a6 22ba ec98 0e3b
00000060: 9e54 41bc 52a0 3dbb 2017 9f3b e300 e93b
00000070: 8425 bfbb f6fc 34bc 9f5e de3a 0118 8a3b
00000080: 6cbd 0fba e8b8 65b9 d51c 86bc 502a 39b9
00000090: 78d4 4ab9 81af 383b 585a f9b8 009f 29bb
000000a0: 12e9 58ba f047 13bb 782f 1c3a 8f0c f73a
000000b0: d87c 8f3b 7420 75bb 2939 f0ba 3657 b9bb
-0.0069021955 -0.0008250249 0.0043154834 0.002437525 0.004032991 -0.0025121246 0.00025200308 -0.0008649539
-0.0030306121 0.00035857764 -0.008534194 -0.00051080226 -0.004263102 -0.0011876777 0.00027605612 -0.0023330692
0.002361127 -0.013930357 -0.002027186 0.009178755 -0.0018743414 -0.0015303578 -0.00062046666 0.002175863
-0.0117999595 -0.002893467 0.0048550516 0.0071107014 -0.0058333296 -0.011046639 0.0016965455 0.0042142873
-0.0005483243 -0.00021908025 -0.01637117 -0.00017658737 -0.00019343372 0.002818078 -0.00011890073 -0.0025882125
-0.0008274476 -0.0022473298 0.0005958001 0.0018848347 0.004378896 -0.0037403377 -0.0018327582 -0.0056561483

model/mobilenetv2_0.50_64/block_1_depthwise_BN/FusedBatchNormV3 f4 [48]
00000000: 9d3e b1be ff09 193d 908e 53bf 8261 993e
00000010: 31c5 a33e cb81 62bf b54d e8bb 7ca9 87be
00000020: 8005 f53d 7a11 993b a5d9 67bf 0086 d8be
00000030: 805d b2be 5151 21be f624 543f 7434 a4be
00000040: b0f9 513f 3d4b 79be 4240 2c3e 7004 773d
00000050: 93e6 ecbe 64c1 59be ec03 643f fc0b db3e
00000060: 6283 c9be 3ea9 f33e c60a 28bf 28dd 063d
00000070: 5a47 dd3e 5587 77bc 9f65 99be 55e3 11bf
00000080: 91a4 633e b416 08bb 3832 14bf 1fdc 2f3e
00000090: af40 233f 6322 7bbe 493c bc3d 98a4 153f
000000a0: 50cc 913d fae2 57bf 61da c4be cd93 943e
000000b0: c177 983e d284 f83e 9fb8 853d 95cf 323f
-0.34618083 0.03736305 -0.8263941 0.29957205 0.31986383 -0.884793 -0.0070893415 -0.26496494
0.1196394 0.004671273 -0.90566474 -0.42289734 -0.3483696 -0.15753676 0.828689 -0.3207127
0.8202162 -0.24345107 0.16821387 0.060306966 -0.46269664 -0.21265179 0.89068484 0.4278258
-0.3935805 0.4759006 -0.6564144 0.032925755 0.432185 -0.015107949 -0.29960343 -0.56987506
0.22230746 -0.0020765485 -0.5788913 0.17173813 0.63770574 -0.24524836 0.09191186 0.58454275
0.07119048 -0.84330714 -0.3844786 0.29019013 0.29778865 0.48538834 0.06529354 0.69847995

model/mobilenetv2_0.50_64/block_2_expand_BN/FusedBatchNormV3 f4 [96]
00000000: 52a5 5bbc 688a 4abc 54f6 893c 4bea efbb
00000010: 3079 90b8 2624 913a ef98 6dbb 28a8 a139
00000020: 535c 48bb 8464 f73a 8a02 56bb 1f5c 83ba
00000030: 8ca5 deb9 42a2 e13a 008b 153c f50f 2e3b
00000040: b3a9 07ba 3df6 f4bb 9184 4f3b ca65 cb3b
00000050: 0421 3c3b e5f0 19bc 92c4 8e3b 0e22 05bc
00000060: dc72 1f3b 25f4 fd39 a32b cbba 6499 79ba
00000070: c291 a73b 01f4 8cba d224 e0bb 4843 2c3c
00000080: a22d 6b3b 628d 55bb 806a b73a d1f8 e3bb
00000090: d81a 9fbb 0996 9bb9 3847 b0bb 80b0 2239
000000a0: 1046 a039 acfb 323b 78bb 073b c4c4 09bb
000000b0: de79 37bb 62e9 3fbb 3b2a ae3a 474e 8dbb
000000c0: f1a8 36bb 69be 093c 84ad 893b 7ae4 7f3c
000000d0: 4eba 9d3b 92d0 47bb 34e4 d239 aa35 f23b
000000e0: 1c34 de3a 7d02 4dbc 2aaa efba 705e d5bb
000000f0: 0f0f d439 3b7b 8fbb 24ce 99bb 6e9d 4c3b
00000100: 3497 33bb 729d feba 2033 0f3b f1fd a5bb
00000110: be21 72ba 804d d9ba 71e7 6fbb 394d 7cbb
00000120: 1487 8fbb 8758 c53b 0fb9 12bc 0be1 03bb
00000130: 79dc b9bb 545e a539 e758 733a ab7a d5bb
00000140: b162 273c ca2b b33b a252 f03a d25d ae3b
00000150: 75f8 07bb 192e a73a 55a6 003a 4b51 d1bb
00000160: 08fe 563b 623e 963a c063 c9bb 101f 07bc
00000170: 24e4 003b 8fbb b3ba 4640 1dbb 2292 133b
-0.013406115 -0.0123621 0.016841091 -0.007321631 -6.889028e-05 0.0011073395 -0.0036254486 0.000308336
-0.0030572608 0.001887456 -0.0032655322 -0.0010021961 -0.00042466482 0.0017214494 0.009127378 0.0026559804
-0.00051751285 -0.007475643 0.003166471 0.0062072026 0.0028706202 -0.009395813 0.004356929 -0.008125795
0.0024329936 0.00048437822 -0.0015500676 -0.0009521453 0.005113811 -0.0010753871 -0.006840327 0.010514088
0.0035885354 -0.0032585491 0.0013993531 -0.0069571515 -0.004855495 -0.0002967569 -0.0053795837 0.00015515275
0.0003056978 0.0027310653 0.0020711105 -0.0021021822 -0.0027996222 -0.0029283394 0.0013287732 -0.00431231
-0.0027871693 0.008407214 0.004201593 0.015618438 0.004813469 -0.0030489308 0.00040224346 0.007391651
0.0016952786 -0.0125128 -0.0018284966 -0.006511502 0.0004044701 -0.004378704 -0.0046937633 0.0031221765
-0.0027403357 -0.0019425584 0.0021850541 -0.0050656726 -0.00092365954 -0.0016578883 -0.0036606456 -0.0038498177
-0.0043801162 0.006022516 -0.008955254 -0.002012315 -0.0056720343 0.00031541532 0.0009282962 -0.0065148673
0.010216401 0.0054678665 0.0018335173 0.005321243 -0.0020747457 0.0012754827 0.0004907598 -0.0063878647
0.0032805223 0.0011462683 -0.0061459243 -0.008247152 0.0019667232 -0.0013712513 -0.0023994609 0.0022517522

model/mobilenetv2_0.50_64/block_2_depthwise_BN/FusedBatchNormV3 f4 [96]
00000000: 0d87 9abe b1a4 1ebe 782e 643f 925f 5ebf
00000010: 38a3 a13f 569a 28be 7356 d8be 7697 3fbe
00000020: 823b 2cbd 8eca a9be d66c 013e 262c 9fbd
00000030: 03a9 813d eb39 493f 178e 563e fd9f 403e
00000040: 294a 0ebd c070 003e d8e9 c53e 2d8c 533d
00000050: 0bb2 f53e fe76 cabe c105 943f 8d3b eabe
00000060: 77d6 90bf 3d19 b13e 278a 203e edc7 2abe
00000070: 6369 693e 92f8 563d c77f 22bf a685 e1be
00000080: ee9a dc3e 3c68 09be 6dc7 51bf b7d1 bfbe
00000090: bab5 013f 263b 9c3d 0133 26bf 59b4 f0be
000000a0: 9e02 79bf 0998 46bf c3e1 b63d 91e7 873a
000000b0: ab94 ae3e 0cd2 663e c552 74bd 2aa5 063f
000000c0: 7653 14be e12d f5be 1c0d 343f d69e a23f
000000d0: c443 04be c8d0 95bc 223e 233f 4c86 4e3f
000000e0: 049c 48bf 20b8 1a3e 0454 923e 4ec1 553d
000000f0: 1fff 17bf a0e0 b3be 18f8 043e e483 59bf
00000100: 4212 25bf c0df 8a3e 131c 1c3f 6551 323f
00000110: 5234 bfbd 9b9b f0be a1ee 523f ef66 81be
00000120: fef8 b63e d9db 7abf 4684 09bf c222 be3d
00000130: a310 173e 2619 823e 33d6 4f3e 3db7 efbe
00000140: 90ea 413f 9604 17be 1dd8 c53c dee1 4a3f
00000150: 6ca6 8b3e 8c95 473f ecfa b5be 6d61 debe
00000160: fb9f 723f 2dc9 b8bd c277 903f a71c 0cbf
00000170: e45f 8abe 5a5a 313e b021 6cbe 8561 9d3e
-0.3018116 -0.15492512 0.89133406 -0.8686458 1.2627935 -0.16465124 -0.42253456 -0.18710122
-0.04204894 -0.3316235 0.12639174 -0.077720925 0.063310646 0.78604 0.2095264 0.1881103
-0.034738693 0.1254301 0.3865497 0.051647354 0.47987399 -0.3954391 1.1564256 -0.4574856
-1.131545 0.34589568 0.15677701 -0.16677828 0.22794108 0.05248315 -0.6347622 -0.44047278
0.43086952 -0.13418669 -0.81944925 -0.37464687 0.5066792 0.07628469 -0.64921576 -0.47012594
-0.9726962 -0.7757574 0.089297794 0.0010368695 0.340978 0.22541064 -0.059649248 0.5259577
-0.14484963 -0.47886565 0.70332503 1.2704723 -0.12916476 -0.018288031 0.6376668 0.8067367
-0.7836306 0.151093 0.28579724 0.052186303 -0.5937366 -0.35132313 0.12985265 -0.84966874
-0.64480984 0.27123833 0.6098034 0.6965545 -0.09336151 -0.46993718 0.8239537 -0.25273845
0.3573684 -0.9799171 -0.5371746 0.09283973 0.1475244 0.25409812 0.20296554 -0.46819487
0.7574854 -0.14747843 0.024150902 0.79250896 0.27275407 0.77962565 -0.35543 -0.43433705
0.9477536 -0.09022746 1.1286547 -0.5473122 -0.27026284 0.17319623 -0.23059726 0.30738464

model/mobilenetv2_0.50_64/block_3_expand_BN/FusedBatchNormV3 f4 [96]
00000000: d1d7 15bb 2c29 2c3b 4530 eabb a3a0 373b
00000010: c516 d83b 42f4 17bb 2645 cbba 85a8 673a
00000020: da49 f8bb 2028 253b 17c4 80bb 1418 44bb
00000030: 8bb1 7f3b c546 ec3a e5ba 9b3b 636f 8f3b
00000040: b6c1 ee3b 1df6 07bb 9e4c 71bb 2637 49bb
00000050: e311 083c 6019 0338 4e66 9d3b 7849 97b9
00000060: 1821 c0b9 3a77 52ba f506 b23a d5a8 99bb
00000070: b5bb 07bc a08a c3bb aacb a33b 85f4 cfbb
00000080: 3bd0 b8bb 49e7 f63a 8cfa 21bb 1e27 1dbb
00000090: 1163 c1bb 10b4 37bb 441d 81bc 05a9 a7bc
000000a0: 9189 aabb e572 e2b9 b079 7d39 d45f 8d3c
000000b0: 425d df3b 0efc edb9 3e2c 123b 34ae b93a
000000c0: a053 46bb ba9b e63b 1a7c 24bb 2db5 bbbb
000000d0: 0efa 77bb f4b9 0b3c 88f5 8a3a c2f3 8dbb
000000e0: 2672 693b 4866 e1ba 847e 783b 6a32 caba
000000f0: 1047 b4b8 c8b7 523a a2b8 ab3b c053 1238
00000100: 6ac9 a6ba f92b 5a3c b38a 14ba b8e4 45ba
00000110: 563e 4cbb 1746 44bb 4824 a93b 8712 1bbb
00000120: 0a81 20bb 007f 99b6 3e74 6abb facc ec39
00000130: 6349 63bb a7c8 86bb 771a 033b 4b15 36bb
00000140: 7c47 af3b 19d0 113c 7fe0 c3bb c12a 373b
00000150: b9f6 56bb 5f00 0e3c cabb 5d3b 6237 22bc
00000160: 74bb 4fbb 7f0e 84bb 96bc 80bb 9e6f 6a3a
00000170: 23be 7c3c 8103 0f3b e4e1 2eba b2ef 023b
-0.0022864232 0.0026269658 -0.0071468675 0.002801933 0.006594511 -0.002318636 -0.0015508279 0.0008837062
-0.007577163 0.0025200918 -0.0039296257 -0.0029921578 0.0039015736 0.0018026462 0.004752504 0.004377292
0.0072862757 -0.002074606 -0.003681935 -0.0030703037 0.008305046 3.1256466e-05 0.0048034554 -0.00028855703
-0.0003664575 -0.00080286304 0.0013582396 -0.004689316 -0.008284499 -0.005967453 0.004998644 -0.0063462877
-0.0056400574 0.0018837239 -0.0024715988 -0.0023979614 -0.005901702 -0.002803091 -0.015761025 -0.020466337
-0.0052043875 -0.00043191682 0.00024173292 0.017257608 0.006816537 -0.00045391958 0.0022304202 0.0014166296
-0.0030262247 0.007037607 -0.0025098384 -0.005728385 -0.0037838253 0.008528221 0.0010601738 -0.0043320367
0.0035621016 -0.001719662 0.0037917206 -0.0015426402 -8.596305e-05 0.000803825 0.005240516 3.488711e-05
-0.0012724821 0.013316148 -0.000566642 -0.00075490354 -0.0031165085 -0.0029949003 0.0051617958 -0.0023662166
-0.0024490976 -4.57454e-06 -0.0035774852 0.00045166147 -0.0034681193 -0.004113275 0.0020004788 -0.0027783688
0.005349098 0.008899712 -0.0059776898 0.0027949067 -0.0032800867 0.008667081 0.0033833855 -0.0099009
-0.0031697424 -0.0040300484 -0.003928731 0.0008943024 0.0154261915 0.0021822157 -0.00066712336 0.0019979295

model/mobilenetv2_0.50_64/block_3_depthwise_BN/FusedBatchNormV3 f4 [96]
00000000: 545c b8be 69aa fe3e e54d 043f 3e69 4c3e
00000010: 5769 423f 7437 0ebf 5e6a c23e 1e0b 19bf
00000020: 53d3 e03e d5f5 34bf 6faf 213f 91bc a6bd
00000030: 8e9d f63d ce66 543e 468f b13e 6c4b 983e
00000040: cc92 b0bf 3077 c43d af25 a2be ac4e 5e3f
00000050: abd9 f63d 5469 ebbd aa42 dd3e e38c 1abf
00000060: 1c60 863e 198e a2be 0fd3 e7be e753 2c3f
00000070: 9a6c 64bf 35fa 993e 7742 b6be d7b2 f33e
00000080: 912a 0fbf 0695 dabd da09 25bd 4c55 a73e
00000090: cbde d63d ae0a b5be 8798 f2be 1f08 34bf
000000a0: 4d98 fa3e bfae 143f a514 c13e 9929 64be
000000b0: b605 723e 00bd 303f 0f4c 203f 79ee 99bf
000000c0: a488 2abf 09b8 a03f d2f6 78be d7c8 9abe
000000d0: ddcc fe3b 46ae 183f b516 c8be cdbb 1cbf
000000e0: 07fb 1fbf 5e11 15bf f332 b63e 29b6 5c3f
000000f0: 8547 5cbf 41fe 75be f4eb e6be c531 143f
00000100: 3897 aa3e b6aa 7dbf 555e 7a3f e93e 133f
00000110: df61 a5be d916 e43e 42db 1bbf 72a7 48bf
00000120: 29a1 913e 832d 1c3f 2df7 e23d 7485 d2be
00000130: 425e 2cbe 6c81 293e 40b5 443e c3cc 683e
00000140: 615c ecbd ff32 8cbf d111 bc3d c1b5 9f3e
00000150: 30cf 023f ce00 623f fde9 093e 4065 973e
00000160: 581f f8be 1ed2 19be 2076 413f c271 d2be
00000170: 9c82 923f caa3 59bf 8c7d 323f 3d8c 483e
-0.3600794 0.49739388 0.5168136 0.19962022 0.75941986 -0.55553365 0.37971777 -0.5978259
0.43911228 -0.7068761 0.63158315 -0.08141435 0.1204177 0.20742342 0.3467962 0.29745042
-1.3794799 0.09593046 -0.31669375 0.86838794 0.120532356 -0.11494699 0.43214923 -0.60371226
0.262452 -0.31749037 -0.45278212 0.67315525 -0.8922821 0.30073705 -0.35597584 0.4759738
-0.55924326 -0.10672955 -0.0402926 0.32682264 0.10491713 -0.3535971 -0.47381994 -0.7032489
0.4894432 0.5807914 0.37711063 -0.22281493 0.23634991 0.6903839 0.62616056 -1.2025901
-0.6661475 1.2556163 -0.24312904 -0.30231354 0.0077758864 0.5964092 -0.39079824 -0.6122406
-0.6249241 -0.58229625 0.35585746 0.86215454 -0.8604663 -0.24022771 -0.45101893 0.5788844
0.33318496 -0.9908861 0.9780019 0.5751787 -0.32301232 0.4454868 -0.60881436 -0.783805
0.28443268 0.61006945 0.11082301 -0.41117442 -0.16832832 0.16553277 0.19209766 0.2273436
-0.115410574 -1.0953063 0.09183086 0.31193355 0.51097393 0.8828248 0.13468166 0.29569435
-0.48461413 -0.1502156 0.7557087 -0.41102415 1.1446109 -0.8501555 0.6972282 0.19584747
