compression/mobilenetv2/float_fallback_quantization/models_compressed/model_fan.tflite (tflite, 975464 bytes, 53 tensors)

model/mobilenetv2_0.50_64/predictions/MatMul i1 [3, 1280] scale=0.00071045756 zero_point=0
-0.053994775 0.0 -0.062520266 0.018471897 0.06394118 0.009946406 -0.03197059 -0.00071045756
-0.06749347 0.0021313727 -0.015630066 0.03552288 -0.042627454 -0.0056836605 0.056126148 0.014919609
0.07672942 0.054705232 -0.059678435 -0.050442487 -0.062520266 0.004973203 -0.051152945 -0.049021572
-0.006394118 0.065362096 -0.012788236 0.060388893 0.039785624 -0.02628693 -0.048311114 -0.009946406
0.042627454 -0.010656863 -0.028418303 -0.0035522878 0.01776144 -0.065362096 -0.014919609 0.06962484
-0.014919609 0.03552288 0.03481242 -0.051863402 0.06678301 -0.026997387 0.012788236 -0.04333791
-0.010656863 -0.068203926 -0.00071045756 0.056836605 0.0014209151 -0.07104576 -0.013498694 0.060388893
-0.02912876 0.04049608 -0.019182354 0.057547063 -0.071756214 0.009235948 -0.050442487 0.033391505
0.05257386 0.012077779 0.041916996 0.036943793 0.058967978 -0.021313727 -0.057547063 0.010656863
0.03765425 -0.024155557 0.068203926 0.022734642 -0.02912876 0.03197059 -0.051152945 -0.03481242
-0.03197059 0.012788236 -0.06749347 0.068203926 -0.05825752 0.036233336 -0.06607255 -0.06749347
0.057547063 -0.03481242 0.004973203 -0.029839218 -0.016340524 -0.033391505 -0.060388893 0.0056836605
-0.0028418303 0.007815033 0.0468902 0.010656863 0.04617974 0.004973203 0.059678435 -0.030549675
-0.024866015 -0.032681048 0.056126148 0.017050982 0.061809808 -0.024155557 -0.007815033 -0.03481242
0.0468902 -0.010656863 -0.05825752 -0.0234451 0.0014209151 0.05257386 -0.04049608 -0.06323072
-0.06109935 -0.051152945 0.013498694 -0.021313727 0.0468902 -0.012788236 0.03552288 -0.018471897
-0.04973203 0.065362096 0.051863402 0.02628693 0.014209151 -0.016340524 -0.01776144 0.01776144
0.06678301 -0.013498694 -0.06394118 0.009946406 -0.065362096 -0.06749347 0.032681048 0.022024184
0.04973203 0.01776144 0.031260133 0.06109935 0.0234451 0.018471897 -0.034101963 -0.018471897
0.05257386 -0.03552288 0.04120654 0.009946406 0.0014209151 0.019182354 0.033391505 0.006394118
0.03552288 -0.008525491 -0.031260133 0.03836471 -0.05825752 0.004973203 -0.02628693 0.0035522878
0.05825752 -0.0021313727 0.0071045756 0.034101963 0.0703353 0.032681048 0.02060327 0.006394118
0.0028418303 -0.06323072 -0.042627454 0.047600657 0.056126148 0.0234451 0.05825752 0.04617974
-0.026997387 -0.05541569 -0.06109935 0.0042627454 -0.016340524 0.021313727 0.031260133 0.05825752
-0.024866015 0.025576472 -0.06749347 0.053284317 -0.06891438 -0.06465164 0.032681048 0.050442487
-0.05541569 -0.06891438 0.044758826 -0.045469284 0.059678435 0.019892812 0.06323072 -0.02060327
-0.0028418303 -0.018471897 0.058967978 0.062520266 0.0071045756 0.03836471 0.053994775 -0.034101963
-0.060388893 -0.03765425 -0.009946406 -0.04333791 0.06678301 0.056126148 0.06749347 -0.0042627454
0.06394118 -0.015630066 -0.06109935 0.007815033 0.014919609 -0.06465164 0.024155557 -0.051863402
0.021313727 0.05825752 0.06394118 0.022734642 -0.0703353 -0.02912876 0.057547063 0.004973203
-0.011367321 -0.011367321 0.036233336 -0.056126148 0.05541569 -0.0071045756 -0.0071045756 0.05825752
-0.065362096 -0.024866015 0.031260133 0.013498694 0.034101963 -0.06962484 0.044758826 -0.022024184
00000000: b400 a81a 5a0e d3ff a103 ea32 c4f8 4f15
00000010: 6c4d acb9 a807 b8bb f75c ee55 38db bcf2
00000020: 3cf1 d8fb 19a4 eb62 eb32 31b7 5eda 12c3
00000030: f1a0 ff50 029c ed55 d739 e551 9b0d b92f
00000040: 4a11 3b34 53e2 af0f 35de 6020 d72d b8cf
00000050: d312 a160 ae33 a3a1 51cf 07d6 e9d1 ab08
00000060: fc0b 420f 4107 54d5 ddd2 4f18 57de f5cf
00000070: 42f1 aedf 024a c7a7 aab8 13e2 42ee 32e6
00000080: ba5c 4925 14e9 e719 5eed a60e a4a1 2e1f
00000090: 4619 2c56 211a d0e6 4ace 3a0e 021b 2f09
000000a0: 32f4 d436 ae07 db05 52fd 0a30 632e 1d09
000000b0: 04a7 c443 4f21 5241 dab2 aa06 e91e 2c52
000000c0: dd24 a14b 9fa5 2e47 b29f 3fc0 541c 59e3
000000d0: fce6 5358 0a36 4cd0 abcb f2c3 5e4f 5ffa
000000e0: 5aea aa0b 15a5 22b7 1e52 5a20 9dd7 5107
000000f0: f0f0 33b1 4ef6 f652 a4dd 2c13 309e 3fe1

model/mobilenetv2_0.50_64/Conv_1/Conv2D i1 [1280, 1, 1, 160]
15 32 -61 93 38 28 -13 -79
-22 23 -2 36 29 -65 -2 44
96 73 53 -23 109 -68 -19 14
93 -81 -102 -127 -99 24 -6 94
-23 54 -108 21 -59 46 50 -40
83 -46 78 12 89 38 22 -101
82 23 44 69 93 44 4 38
35 18 -96 31 49 87 52 29
91 64 -87 -79 -96 14 -98 42
-99 59 -41 37 -21 -57 92 -35
97 -96 -18 -94 -92 -75 64 -91
-91 93 -112 -28 -15 77 110 -89
-83 68 -91 -53 41 -57 87 69
-98 19 35 5 33 -66 9 -41
32 104 109 -104 -76 -15 -99 -4
36 -19 -85 33 80 64 -88 75
-100 -94 67 54 121 -115 56 -30
41 -96 -38 39 -41 10 -84 -102
-33 -100 100 96 16 -78 -22 -3
-91 -85 -51 17 -44 -5 58 20
-67 -94 -28 -56 -4 127 24 30
-49 47 -28 96 60 -8 22 27
86 -77 69 -8 -33 56 -13 -76
-27 52 -10 -30 -101 -42 -116 -112
6 -84 -16 42 69 -60 67 87
-27 76 -33 50 -57 117 -58 33
-60 38 112 62 -75 -23 26 86
-25 -100 -58 -90 -8 82 -87 -21
14 10 52 23 0 -13 34 28
-75 25 -77 -111 -52 11 -42 79
-23 -4 -27 41 125 -67 -12 -107
75 -100 48 109 -54 23 -90 109
00000000: 0f20 c35d 261c f3b1 ea17 fe24 1dbf fe2c
00000010: 6049 35e9 6dbc ed0e 5daf 9a81 9d18 fa5e
00000020: e936 9415 c52e 32d8 53d2 4e0c 5926 169b
00000030: 5217 2c45 5d2c 0426 2312 a01f 3157 341d
00000040: 5b40 a9b1 a00e 9e2a 9d3b d725 ebc7 5cdd
00000050: 61a0 eea2 a4b5 40a5 a55d 90e4 f14d 6ea7
00000060: ad44 a5cb 29c7 5745 9e13 2305 21be 09d7
00000070: 2068 6d98 b4f1 9dfc 24ed ab21 5040 a84b
00000080: 9ca2 4336 798d 38e2 29a0 da27 d70a ac9a
00000090: df9c 6460 10b2 eafd a5ab cd11 d4fb 3a14
000000a0: bda2 e4c8 fc7f 181e cf2f e460 3cf8 161b
000000b0: 56b3 45f8 df38 f3b4 e534 f6e2 9bd6 8c90
000000c0: 06ac f02a 45c4 4357 e54c df32 c775 c621
000000d0: c426 703e b5e9 1a56 e79c c6a6 f852 a9eb
000000e0: 0e0a 3417 00f3 221c b519 b391 cc0b d64f
000000f0: e9fc e529 7dbd f495 4b9c 306d ca17 a66d

model/mobilenetv2_0.50_64/block_16_project/Conv2D i1 [160, 1, 1, 480]
-12 23 51 101 -13 -14 -77 20
19 -26 43 -43 -109 -55 64 7
67 78 -78 41 -83 93 70 116
111 -22 93 100 -91 97 -68 96
-95 -54 -95 -57 -83 24 -40 -3
19 94 57 -119 -5 -66 88 104
-60 -114 -76 21 -49 23 28 18
-112 -120 -85 95 -118 44 -68 116
-98 -15 116 -50 104 25 15 3
64 -57 24 108 -55 57 105 -78
13 -16 4 98 -5 -39 -41 33
74 -87 -101 -33 -113 43 -88 13
106 -49 105 45 39 105 92 -85
-63 63 78 -32 -43 17 -77 102
73 10 -52 101 -23 33 1 -66
-92 -57 -27 27 -62 -119 70 -102
95 59 39 -105 61 43 -80 100
17 56 39 -55 24 70 -14 -31
-113 103 88 -118 -10 -113 62 -103
44 -102 -75 89 59 -39 90 28
84 -62 -8 -9 67 -44 -82 -2
-39 -90 -109 -11 -49 70 77 20
4 -102 113 9 -66 4 77 -93
-89 -90 117 7 32 58 94 62
-93 63 42 -62 102 112 -95 -10
68 -17 -75 74 -92 -105 -28 -2
-94 -7 -11 -114 88 -91 -4 -23
-36 -35 -78 -97 -28 10 0 -45
106 -7 -29 106 -24 127 -89 13
34 -1 112 -100 31 -48 -39 -108
-60 -78 26 115 -34 36 67 45
-80 7 -8 -84 91 -83 -12 25
00000000: f417 3365 f3f2 b314 13e6 2bd5 93c9 4007
00000010: 434e b229 ad5d 4674 6fea 5d64 a561 bc60
00000020: a1ca a1c7 ad18 d8fd 135e 3989 fbbe 5868
00000030: c48e b415 cf17 1c12 9088 ab5f 8a2c bc74
00000040: 9ef1 74ce 6819 0f03 40c7 186c c939 69b2
00000050: 0df0 0462 fbd9 d721 4aa9 9bdf 8f2b a80d
00000060: 6acf 692d 2769 5cab c13f 4ee0 d511 b366
00000070: 490a cc65 e921 01be a4c7 e51b c289 469a
00000080: 5f3b 2797 3d2b b064 1138 27c9 1846 f2e1
00000090: 8f67 588a f68f 3e99 2c9a b559 3bd9 5a1c
000000a0: 54c2 f8f7 43d4 aefe d9a6 93f5 cf46 4d14
000000b0: 049a 7109 be04 4da3 a7a6 7507 203a 5e3e
000000c0: a33f 2ac2 6670 a1f6 44ef b54a a497 e4fe
000000d0: a2f9 f58e 58a5 fce9 dcdd b29f e40a 00d3
000000e0: 6af9 e36a e87f a70d 22ff 709c 1fd0 d994
000000f0: c4b2 1a73 de24 432d b007 f8ac 5bad f419

model/mobilenetv2_0.50_64/block_16_depthwise_BN/FusedBatchNormV3;model/mobilenetv2_0.50_64/block_16_depthwise/depthwise i1 [1, 3, 3, 480]
-124 43 84 97 -107 39 24 -26
127 35 -99 45 98 108 -100 -8
70 36 76 70 41 101 -51 41
58 -32 -10 105 -2 -78 127 -56
-81 97 -44 -39 81 1 -93 83
-26 -27 -94 -113 114 -105 108 -104
-89 -94 -10 -3 89 70 66 105
-63 -127 -113 -30 74 25 -51 81
-47 -15 93 94 -115 -73 -6 -93
87 -68 -34 -5 -108 -120 47 -33
-105 -60 65 42 -116 23 -51 -102
36 41 -106 76 -75 78 119 -84
-69 5 97 -53 127 80 -61 58
87 -102 67 127 -108 35 4 14
-73 19 80 -79 -127 96 -38 -127
97 -59 35 -83 -9 126 59 54
105 -16 49 -34 96 -44 -122 -1
89 -90 70 65 68 -64 10 -70
-4 -18 -49 1 -42 -12 -5 85
88 92 -95 25 97 64 3 30
-84 1 -29 -127 -48 -127 -83 -20
127 79 8 106 -54 -53 36 -115
17 33 -116 -34 35 127 33 20
-61 74 -76 -57 45 -30 101 31
-103 14 120 37 12 73 93 -58
-63 14 -64 114 -17 11 -60 127
-92 -127 -90 4 -1 -127 53 81
-45 8 46 86 127 76 -26 -85
-27 -99 -88 -75 52 -5 -102 113
-123 75 39 -54 -127 35 21 -31
18 120 19 -97 -7 19 11 -65
10 -127 53 -38 84 -70 23 -77
00000000: 842b 5461 9527 18e6 7f23 9d2d 626c 9cf8
00000010: 4624 4c46 2965 cd29 3ae0 f669 feb2 7fc8
00000020: af61 d4d9 5101 a353 e6e5 a28f 7297 6c98
00000030: a7a2 f6fd 5946 4269 c181 8fe2 4a19 cd51
00000040: d1f1 5d5e 8db7 faa3 57bc defb 9488 2fdf
00000050: 97c4 412a 8c17 cd9a 2429 964c b54e 77ac
00000060: bb05 61cb 7f50 c33a 579a 437f 9423 040e
00000070: b713 50b1 8160 da81 61c5 23ad f77e 3b36
00000080: 69f0 31de 60d4 86ff 59a6 4641 44c0 0aba
00000090: fcee cf01 d6f4 fb55 585c a119 6140 031e
000000a0: ac01 e381 d081 adec 7f4f 086a cacb 248d
000000b0: 1121 8cde 237f 2114 c34a b4c7 2de2 651f
000000c0: 990e 7825 0c49 5dc6 c10e c072 ef0b c47f
000000d0: a481 a604 ff81 3551 d308 2e56 7f4c e6ab
000000e0: e59d a8b5 34fb 9a71 854b 27ca 8123 15e1
000000f0: 1278 139f f913 0bbf 0a81 35da 54ba 17b3

model/mobilenetv2_0.50_64/block_16_expand/Conv2D i1 [480, 1, 1, 80]
114 -72 -114 91 -50 59 107 7
-20 -68 -99 -17 -86 -125 73 109
-50 -41 -27 123 28 94 1 59
41 -34 46 -127 72 95 115 -70
-96 -46 -22 88 -110 -109 0 19
-33 -69 -50 -109 -13 -27 76 -112
30 36 -16 -54 9 50 -40 13
78 82 52 1 27 -102 -88 105
-57 47 68 95 -71 3 -30 115
-104 118 115 -41 -4 54 -58 88
-113 43 -18 28 61 6 -105 -55
38 -105 64 56 -83 -44 46 19
-101 42 103 39 -81 -127 -34 115
-119 -73 60 -6 -3 4 -11 11
-52 88 -69 -37 -57 50 -41 -10
-23 73 52 -115 -95 60 -48 -47
80 -87 -100 75 -104 -23 -63 -102
-18 80 83 -19 -42 17 95 21
-4 73 -88 75 101 101 39 -51
-9 -21 -123 110 69 -48 31 103
75 71 -42 38 78 95 -32 -10
-110 -91 -60 13 106 42 90 0
-10 -69 -34 -40 8 113 -1 -89
60 -97 -14 38 -68 -41 -9 -12
73 108 -95 -103 -76 21 31 -67
6 6 32 11 -104 -8 94 17
110 -68 53 20 -16 57 112 -19
-81 56 22 -82 -109 -38 28 26
117 -95 98 18 -104 78 37 127
-19 61 -110 54 -54 -110 24 86
-48 -114 -37 -93 34 -38 36 17
38 81 -20 -82 -99 113 74 18
00000000: 72b8 8e5b ce3b 6b07 ecbc 9def aa83 496d
00000010: ced7 e57b 1c5e 013b 29de 2e81 485f 73ba
00000020: a0d2 ea58 9293 0013 dfbb ce93 f3e5 4c90
00000030: 1e24 f0ca 0932 d80d 4e52 3401 1b9a a869
00000040: c72f 445f b903 e273 9876 73d7 fc36 c658
00000050: 8f2b ee1c 3d06 97c9 2697 4038 add4 2e13
00000060: 9b2a 6727 af81 de73 89b7 3cfa fd04 f50b
00000070: cc58 bbdb c732 d7f6 e949 348d a13c d0d1
00000080: 50a9 9c4b 98e9 c19a ee50 53ed d611 5f15
00000090: fc49 a84b 6565 27cd f7eb 856e 45d0 1f67
000000a0: 4b47 d626 4e5f e0f6 92a5 c40d 6a2a 5a00
000000b0: f6bb ded8 0871 ffa7 3c9f f226 bcd7 f7f4
000000c0: 496c a199 b415 1fbd 0606 200b 98f8 5e11
000000d0: 6ebc 3514 f039 70ed af38 16ae 93da 1c1a
000000e0: 75a1 6212 984e 257f ed3d 9236 ca92 1856
000000f0: d08e dba3 22da 2411 2651 ecae 9d71 4a12

model/mobilenetv2_0.50_64/block_15_project/Conv2D i1 [80, 1, 1, 480]
76 6 -75 -67 19 35 88 -72
3 -36 52 -100 -13 40 108 -111
10 -40 31 -50 39 44 119 120
9 88 30 8 17 71 23 25
120 -78 -25 -61 69 -30 -73 -66
108 119 -94 -66 33 -11 77 -125
-51 -11 42 -22 27 117 55 3
117 -112 10 36 -50 58 -7 71
-30 13 -100 -57 -48 -71 -98 -8
66 -117 -108 9 -84 83 -41 60
-103 -86 -37 48 -19 62 65 -3
111 80 32 -79 -17 -23 -95 -91
-10 79 -86 -13 -34 -92 -8 78
52 73 -89 96 -64 33 -10 -24
-7 119 55 59 -41 -10 -64 -115
21 87 82 -56 -60 95 -97 -21
119 -101 -86 -46 -9 94 68 34
44 125 121 -51 -76 -81 70 -114
15 103 60 97 14 -16 56 -14
60 121 14 107 -102 110 -1 22
76 -77 80 80 41 -87 77 -71
44 104 -78 -66 104 75 -97 -20
-103 63 88 88 64 -22 -41 -21
37 80 -38 98 38 -105 -23 -31
67 11 84 -88 109 80 -73 -26
111 -102 -70 93 -42 -30 36 -59
-24 38 52 108 -61 -58 -35 71
79 59 95 102 -34 -44 99 -13
52 -71 -105 -51 -7 108 -46 -41
98 86 104 -68 34 -75 7 19
-25 31 58 61 -65 62 86 98
47 -89 -44 -29 -12 -1 55 6
00000000: 4c06 b5bd 1323 58b8 03dc 349c f328 6c91
00000010: 0ad8 1fce 272c 7778 0958 1e08 1147 1719
00000020: 78b2 e7c3 45e2 b7be 6c77 a2be 21f5 4d83
00000030: cdf5 2aea 1b75 3703 7590 0a24 ce3a f947
00000040: e20d 9cc7 d0b9 9ef8 428b 9409 ac53 d73c
00000050: 99aa db30 ed3e 41fd 6f50 20b1 efe9 a1a5
00000060: f64f aaf3 dea4 f84e 3449 a760 c021 f6e8
00000070: f977 373b d7f6 c08d 1557 52c8 c45f 9feb
00000080: 779b aad2 f75e 4422 2c7d 79cd b4af 468e
00000090: 0f67 3c61 0ef0 38f2 3c79 0e6b 9a6e ff16
000000a0: 4cb3 5050 29a9 4db9 2c68 b2be 684b 9fec
000000b0: 993f 5858 40ea d7eb 2550 da62 2697 e9e1
000000c0: 430b 54a8 6d50 b7e6 6f9a ba5d d6e2 24c5
000000d0: e826 346c c3c6 dd47 4f3b 5f66 ded4 63f3
000000e0: 34b9 97cd f96c d2d7 6256 68bc 22b5 0713
000000f0: e71f 3a3d bf3e 5662 2fa7 d4e3 f4ff 3706

model/mobilenetv2_0.50_64/block_15_depthwise_BN/FusedBatchNormV3;model/mobilenetv2_0.50_64/block_15_depthwise/depthwise;model/mobilenetv2_0.50_64/block_16_depthwise/depthwise i1 [1, 3, 3, 480]
-107 71 77 38 122 66 -15 -102
24 127 -106 -83 -13 -79 102 108
-23 9 91 127 -10 -109 85 -20
-32 -50 45 119 -3 127 95 38
-55 -49 -80 -127 -84 127 -127 127
-33 13 127 64 -98 -73 -52 -90
42 82 34 127 -114 51 -102 -104
-33 -37 49 -13 -97 48 -112 -66
-40 127 0 117 -79 1 -27 7
-69 117 -115 76 -15 -104 -58 84
127 39 116 14 -70 -127 -86 -119
127 -44 31 108 31 52 -98 -60
35 -59 126 -48 60 -51 -75 -8
-114 -127 -55 108 -31 127 91 -127
-7 -50 5 -20 -127 127 -88 102
-127 -49 -61 -121 -68 74 -102 81
58 -71 -7 29 127 87 -71 14
28 127 -77 -76 -97 -45 16 -127
-21 117 -22 -92 62 41 -2 110
-100 -27 -101 30 97 82 123 -51
127 -20 59 72 -54 119 -12 7
-115 -86 77 -28 69 81 -127 36
93 127 15 86 96 -18 -104 -110
9 -75 127 61 -85 -73 34 112
95 -63 -7 95 14 46 -49 102
-61 19 -79 -120 -110 -50 -98 101
33 -121 -46 -43 -115 -20 75 -35
105 -127 -95 -127 66 -126 66 -99
-55 121 -80 -87 -127 46 -88 -95
-39 79 -65 -18 81 -46 -66 41
-106 -103 -2 127 -23 26 94 102
-107 -127 82 -29 23 27 -127 -32
00000000: 9547 4d26 7a42 f19a 187f 96ad f3b1 666c
00000010: e909 5b7f f693 55ec e0ce 2d77 fd7f 5f26
00000020: c9cf b081 ac7f 817f df0d 7f40 9eb7 cca6
00000030: 2a52 227f 8e33 9a98 dfdb 31f3 9f30 90be
00000040: d87f 0075 b101 e507 bb75 8d4c f198 c654
00000050: 7f27 740e ba81 aa89 7fd4 1f6c 1f34 9ec4
00000060: 23c5 7ed0 3ccd b5f8 8e81 c96c e17f 5b81
00000070: f9ce 05ec 817f a866 81cf c387 bc4a 9a51
00000080: 3ab9 f91d 7f57 b90e 1c7f b3b4 9fd3 1081
00000090: eb75 eaa4 3e29 fe6e 9ce5 9b1e 6152 7bcd
000000a0: 7fec 3b48 ca77 f407 8daa 4de4 4551 8124
000000b0: 5d7f 0f56 60ee 9892 09b5 7f3d abb7 2270
000000c0: 5fc1 f95f 0e2e cf66 c313 b188 92ce 9e65
000000d0: 2187 d2d5 8dec 4bdd 6981 a181 4282 429d
000000e0: c979 b0a9 812e a8a1 d94f bfee 51d2 be29
000000f0: 9699 fe7f e91a 5e66 9581 52e3 171b 81e0

model/mobilenetv2_0.50_64/block_15_expand/Conv2D i1 [480, 1, 1, 80]
101 -25 -91 99 65 18 -75 47
-105 96 -104 125 25 126 32 -3
45 56 51 -26 -26 -15 103 44
81 -68 19 72 127 43 -89 -75
-54 68 -84 33 -49 -78 -62 30
-65 10 -92 -76 -93 86 14 -115
-109 -4 37 -111 -35 -70 -105 -52
-50 -39 -40 -31 -74 12 -65 106
-74 -111 -108 -64 -39 -114 42 -117
66 2 36 -38 111 -108 -24 11
-122 61 28 114 31 -40 107 -10
-35 -120 -6 -116 24 16 118 -29
-32 77 90 -28 -60 -8 -100 -73
-104 -43 43 120 -127 -93 20 37
-25 -48 -3 -50 -15 -99 -107 -47
-64 69 74 47 -56 -18 112 22
-55 100 108 21 11 -112 68 83
25 -38 12 31 2 105 -42 -25
-70 -37 -86 -55 4 -7 -41 -115
-114 -121 -105 -59 84 -55 102 5
-2 59 27 -97 -103 -60 31 -20
-5 -87 -94 -50 54 -59 11 -38
100 47 -81 -74 30 -89 -107 82
102 45 1 72 -37 -82 59 -120
-22 14 -68 7 -39 21 93 63
-113 -90 -33 -42 -114 99 -96 -56
67 -2 -116 127 40 22 84 -115
-15 -62 -43 -23 -32 5 5 31
-109 -82 -30 76 65 3 -117 78
-82 80 -106 -29 40 31 46 63
87 -54 -112 -90 -105 -60 110 56
-54 -89 100 84 39 -117 57 31
00000000: 65e7 a563 4112 b52f 9760 987d 197e 20fd
00000010: 2d38 33e6 e6f1 672c 51bc 1348 7f2b a7b5
00000020: ca44 ac21 cfb2 c21e bf0a a4b4 a356 0e8d
00000030: 93fc 2591 ddba 97cc ced9 d8e1 b60c bf6a
00000040: b691 94c0 d98e 2a8b 4202 24da 6f94 e80b
00000050: 863d 1c72 1fd8 6bf6 dd88 fa8c 1810 76e3
00000060: e04d 5ae4 c4f8 9cb7 98d5 2b78 81a3 1425
00000070: e7d0 fdce f19d 95d1 c045 4a2f c8ee 7016
00000080: c964 6c15 0b90 4453 19da 0c1f 0269 d6e7
00000090: badb aac9 04f9 d78d 8e87 97c5 54c9 6605
000000a0: fe3b 1b9f 99c4 1fec fba9 a2ce 36c5 0bda
000000b0: 642f afb6 1ea7 9552 662d 0148 dbae 3b88
000000c0: ea0e bc07 d915 5d3f 8fa6 dfd6 8e63 a0c8
000000d0: 43fe 8c7f 2816 548d f1c2 d5e9 e005 051f
000000e0: 93ae e24c 4103 8b4e ae50 96e3 281f 2e3f
000000f0: 57ca 90a6 97c4 6e38 caa7 6454 278b 391f

model/mobilenetv2_0.50_64/block_14_project/Conv2D i1 [80, 1, 1, 480]
14 -53 -69 49 -63 -20 -14 -80
-58 -67 -21 48 19 35 -76 9
88 51 -87 16 99 -57 72 30
51 -66 -68 34 -7 76 -110 110
-63 -97 -107 1 21 -22 -112 5
114 66 -10 49 -53 56 -2 54
-2 10 -60 -72 -38 109 81 -102
120 -57 98 -63 -107 32 37 -17
112 -79 -33 -96 -25 106 108 94
-75 102 103 -6 24 46 90 76
-87 -79 -95 29 76 -50 -78 -77
76 -102 98 64 -61 -85 68 64
-101 -14 -47 -1 -40 -85 119 -14
95 48 -88 -49 21 43 42 -28
59 -4 59 -10 -28 99 -37 19
-44 62 -85 3 81 -71 -70 49
-76 -1 -45 -72 -15 -47 -18 -33
-57 -99 42 -42 104 56 -49 -73
-86 57 38 -18 -55 -27 -28 110
-72 68 0 63 110 30 69 -63
6 96 -96 -18 16 77 69 -86
58 -48 -15 -115 99 -93 59 19
104 -77 54 -104 31 11 54 61
-111 82 77 -49 -99 -9 -75 19
51 6 -100 -106 -52 -20 11 -79
-42 44 -36 -114 -27 84 12 16
-75 113 -48 49 -97 -98 -36 -103
-27 -55 61 29 21 -88 17 -118
15 86 100 -77 -91 2 -28 -51
-50 110 45 -35 112 -1 -70 -65
38 -81 -22 108 -71 86 -51 62
-45 26 -78 -75 -29 -49 -9 98
00000000: 0ecb bb31 c1ec f2b0 c6bd eb30 1323 b409
00000010: 5833 a910 63c7 481e 33be bc22 f94c 926e
00000020: c19f 9501 15ea 9005 7242 f631 cb38 fe36
00000030: fe0a c4b8 da6d 519a 78c7 62c1 9520 25ef
00000040: 70b1 dfa0 e76a 6c5e b566 67fa 182e 5a4c
00000050: a9b1 a11d 4cce b2b3 4c9a 6240 c3ab 4440
00000060: 9bf2 d1ff d8ab 77f2 5f30 a8cf 152b 2ae4
00000070: 3bfc 3bf6 e463 db13 d43e ab03 51b9 ba31
00000080: b4ff d3b8 f1d1 eedf c79d 2ad6 6838 cfb7
00000090: aa39 26ee c9e5 e46e b844 003f 6e1e 45c1
000000a0: 0660 a0ee 104d 45aa 3ad0 f18d 63a3 3b13
000000b0: 68b3 3698 1f0b 363d 9152 4dcf 9df7 b513
000000c0: 3306 9c96 ccec 0bb1 d62c dc8e e554 0c10
000000d0: b571 d031 9f9e dc99 e5c9 3d1d 15a8 118a
000000e0: 0f56 64b3 a502 e4cd ce6e 2ddd 70ff babf
000000f0: 26af ea6c b956 cd3e d31a b2b5 e3cf f762

model/mobilenetv2_0.50_64/block_14_depthwise_BN/FusedBatchNormV3;model/mobilenetv2_0.50_64/block_14_depthwise/depthwise;model/mobilenetv2_0.50_64/block_16_depthwise/depthwise i1 [1, 3, 3, 480]
13 -70 -71 -127 -109 38 118 -23
-113 -92 -79 -118 -127 67 -20 -127
2 20 87 57 -54 94 -107 -119
-119 3 5 -101 -63 113 32 -39
118 -47 -23 -12 -127 80 -74 -127
-93 85 127 -108 -10 45 -57 -90
5 -104 -26 126 32 28 -15 2
-85 32 32 91 43 107 -105 -61
-127 -4 -88 -102 34 127 98 -77
-18 127 -40 40 99 24 -36 -16
-2 46 51 -116 -6 85 -5 -54
-93 -110 -66 -73 -127 -115 89 -75
62 6 -79 -123 127 -50 -127 -119
-77 -14 76 31 -81 96 84 -78
-77 127 -73 83 107 -119 45 41
-98 -127 118 -117 127 -101 110 -80
-99 -80 -95 -38 -108 127 -105 -89
-115 -112 -61 64 -127 96 96 -59
80 -127 7 46 63 19 -1 26
127 125 -27 -115 -127 127 78 32
89 26 -26 -117 76 -37 -121 -127
-104 -115 -66 7 12 9 -51 -26
104 -94 -20 -105 -74 -61 19 -39
16 17 13 -76 25 118 52 78
109 62 10 127 -25 -92 -104 46
-127 -40 126 121 74 -34 127 127
60 4 -127 127 71 -55 -14 -1
45 53 0 -19 100 109 -20 -89
-40 -125 91 114 -79 70 -45 -33
105 10 -69 127 1 -124 -98 -71
116 -127 95 -47 -22 -123 38 -48
-88 45 -16 -33 7 -70 -43 -7
00000000: 0dba b981 9326 76e9 8fa4 b18a 8143 ec81
00000010: 0214 5739 ca5e 9589 8903 059b c171 20d9
00000020: 76d1 e9f4 8150 b681 a355 7f94 f62d c7a6
00000030: 0598 e67e 201c f102 ab20 205b 2b6b 97c3
00000040: 81fc a89a 227f 62b3 ee7f d828 6318 dcf0
00000050: fe2e 338c fa55 fbca a392 beb7 818d 59b5
00000060: 3e06 b185 7fce 8189 b3f2 4c1f af60 54b2
00000070: b37f b753 6b89 2d29 9e81 768b 7f9b 6eb0
00000080: 9db0 a1da 947f 97a7 8d90 c340 8160 60c5
00000090: 5081 072e 3f13 ff1a 7f7d e58d 817f 4e20
000000a0: 591a e68b 4cdb 8781 988d be07 0c09 cde6
000000b0: 68a2 ec97 b6c3 13d9 1011 0db4 1976 344e
000000c0: 6d3e 0a7f e7a4 982e 81d8 7e79 4ade 7f7f
000000d0: 3c04 817f 47c9 f2ff 2d35 00ed 646d eca7
000000e0: d883 5b72 b146 d3df 690a bb7f 0184 9eb9
000000f0: 7481 5fd1 ea85 26d0 a82d f0df 07ba d5f9

model/mobilenetv2_0.50_64/block_14_expand/Conv2D i1 [480, 1, 1, 80]
121 -101 -4 9 -44 -112 107 94
53 -97 -85 80 47 -41 -108 -29
-23 6 42 19 -114 -66 23 18
16 -88 -78 -62 30 -102 -114 -51
54 -27 70 -55 -79 56 118 -7
-116 29 70 28 52 -94 -13 -71
-23 68 50 -68 119 90 99 116
-57 -110 62 74 -41 -76 -63 -120
111 -126 57 -51 53 -7 48 73
-19 -127 119 100 -38 112 4 -23
5 83 -83 -11 36 14 17 76
91 -2 55 66 -102 -82 -66 5
-87 -4 -95 -46 -21 -65 -112 16
-47 45 -114 98 52 72 -105 -7
17 -39 -91 -33 -119 66 -23 100
-103 -108 -95 -42 -106 95 77 -95
-63 5 -99 -81 6 23 -73 30
65 105 -123 85 111 81 63 -31
-117 4 -78 72 -72 -37 114 104
-30 45 92 24 -16 -29 23 -127
-65 17 -97 -83 28 121 -27 -45
-124 -81 59 -22 3 -71 -1 10
96 7 -45 -52 117 -83 -127 -83
-100 -109 46 27 64 -101 21 33
-73 117 -38 -18 96 53 -108 -7
-13 -27 -100 57 -77 -13 59 83
26 50 -97 -82 112 3 56 55
55 123 -26 41 -23 -97 -80 91
-22 -68 -46 121 106 49 1 -117
-65 24 -119 101 -95 -71 -44 -50
-62 -15 -54 96 -12 9 -69 -46
107 -64 -18 -47 93 -81 -103 23
00000000: 799b fc09 d490 6b5e 359f ab50 2fd7 94e3
00000010: e906 2a13 8ebe 1712 10a8 b2c2 1e9a 8ecd
00000020: 36e5 46c9 b138 76f9 8c1d 461c 34a2 f3b9
00000030: e944 32bc 775a 6374 c792 3e4a d7b4 c188
00000040: 6f82 39cd 35f9 3049 ed81 7764 da70 04e9
00000050: 0553 adf5 240e 114c 5bfe 3742 9aae be05
00000060: a9fc a1d2 ebbf 9010 d12d 8e62 3448 97f9
00000070: 11d9 a5df 8942 e964 9994 a1d6 965f 4da1
00000080: c105 9daf 0617 b71e 4169 8555 6f51 3fe1
00000090: 8b04 b248 b8db 7268 e22d 5c18 f0e3 1781
000000a0: bf11 9fad 1c79 e5d3 84af 3bea 03b9 ff0a
000000b0: 6007 d3cc 75ad 81ad 9c93 2e1b 409b 1521
000000c0: b775 daee 6035 94f9 f3e5 9c39 b3f3 3b53
000000d0: 1a32 9fae 7003 3837 377b e629 e99f b05b
000000e0: eabc d279 6a31 018b bf18 8965 a1b9 d4ce
000000f0: c2f1 ca60 f409 bbd2 6bc0 eed1 5daf 9917

model/mobilenetv2_0.50_64/block_13_project/Conv2D i1 [80, 1, 1, 288]
-110 110 -60 100 -52 -89 -88 -56
47 109 63 -31 81 -114 -107 45
-52 -85 -123 55 -71 109 18 25
97 106 -82 -81 22 -37 11 -89
-39 -48 -72 -109 62 -86 -1 67
-36 -70 -89 -15 67 94 125 -120
51 -9 -21 29 -31 -38 74 -47
-25 20 8 54 74 -3 99 -42
24 -44 40 29 80 87 -47 43
-31 66 82 127 118 104 66 -39
-12 115 -19 -120 83 -91 100 68
41 31 110 62 63 11 114 -59
-75 -106 -53 -91 39 49 109 -15
-92 94 94 10 2 115 -30 24
-105 117 -39 4 -119 37 -95 48
113 63 -109 51 91 -96 -96 41
-27 7 -114 13 0 95 87 -58
26 94 -6 -77 -76 30 110 68
-99 -99 24 42 -100 87 -48 67
109 -75 -12 -51 83 22 -29 -75
91 -73 102 -84 -50 -48 -119 49
-76 33 12 -11 -88 75 -77 -61
32 -80 85 88 50 -112 69 -59
44 -93 58 72 -105 -36 -59 -6
-37 -72 -116 -121 -42 -45 38 -116
46 -69 -32 43 -99 65 -52 117
57 3 89 102 87 -94 -50 39
47 -20 -1 14 40 -7 -79 77
120 -100 -119 36 61 74 -25 -55
89 101 -83 -95 123 96 -51 19
-23 17 93 32 86 58 -11 122
-125 79 -117 91 -45 41 -16 -40
00000000: 926e c464 cca7 a8c8 2f6d 3fe1 518e 952d
00000010: ccab 8537 b96d 1219 616a aeaf 16db 0ba7
00000020: d9d0 b893 3eaa ff43 dcba a7f1 435e 7d88
00000030: 33f7 eb1d e1da 4ad1 e714 0836 4afd 63d6
00000040: 18d4 281d 5057 d12b e142 527f 7668 42d9
00000050: f473 ed88 53a5 6444 291f 6e3e 3f0b 72c5
00000060: b596 cba5 2731 6df1 a45e 5e0a 0273 e218
00000070: 9775 d904 8925 a130 713f 9333 5ba0 a029
00000080: e507 8e0d 005f 57c6 1a5e fab3 b41e 6e44
00000090: 9d9d 182a 9c57 d043 6db5 f4cd 5316 e3b5
000000a0: 5bb7 66ac ced0 8931 b421 0cf5 a84b b3c3
000000b0: 20b0 5558 3290 45c5 2ca3 3a48 97dc c5fa
000000c0: dbb8 8c87 d6d3 268c 2ebb e02b 9d41 cc75
000000d0: 3903 5966 57a2 ce27 2fec ff0e 28f9 b14d
000000e0: 789c 8924 3d4a e7c9 5965 ada1 7b60 cd13
000000f0: e911 5d20 563a f57a 834f 8b5b d329 f0d8

model/mobilenetv2_0.50_64/block_13_depthwise_BN/FusedBatchNormV3;model/mobilenetv2_0.50_64/block_13_depthwise/depthwise i1 [1, 3, 3, 288]
-13 38 59 -81 -95 -96 6 10
-16 -127 27 56 -123 72 89 -123
-123 127 117 -104 109 61 17 35
39 117 -11 68 82 -99 -12 81
0 -58 -70 -72 121 101 -52 46
-127 -16 127 -127 73 90 -96 -115
-104 -119 0 -1 -39 -31 -93 -19
13 -3 2 6 -127 127 -52 -83
-49 -11 -122 46 -70 63 -101 -127
6 -56 -63 52 -63 49 26 -91
-85 127 90 65 -15 106 102 -21
26 85 -85 87 12 -8 35 -36
-24 -16 67 84 127 -106 -18 3
-79 -12 92 59 -94 0 34 -104
-99 -66 -84 -80 -127 99 -27 -59
-16 42 22 -72 -87 -127 83 -67
127 53 97 93 48 -29 91 -100
-97 72 -127 -127 127 116 50 127
-84 127 -49 63 34 -3 -20 60
-41 51 127 127 -106 67 -106 9
91 127 -127 -77 -49 -50 51 -127
-68 127 -83 -104 6 -12 32 8
-42 19 -127 -120 -127 -43 127 121
54 91 57 -39 -127 10 15 -105
-62 96 48 98 63 87 120 88
37 -102 46 83 -105 -52 127 -75
18 -22 2 10 -41 -127 127 -121
127 96 -83 -79 127 23 -73 21
63 80 124 -123 -90 -21 -11 113
29 -57 -127 -80 68 127 -66 -122
-48 -42 -35 26 -1 -31 -115 -86
73 99 72 -127 56 101 -76 -70
00000000: f326 3baf a1a0 060a f081 1b38 8548 5985
00000010: 857f 7598 6d3d 1123 2775 f544 529d f451
00000020: 00c6 bab8 7965 cc2e 81f0 7f81 495a a08d
00000030: 9889 00ff d9e1 a3ed 0dfd 0206 817f ccad
00000040: cff5 862e ba3f 9b81 06c8 c134 c131 1aa5
00000050: ab7f 5a41 f16a 66eb 1a55 ab57 0cf8 23dc
00000060: e8f0 4354 7f96 ee03 b1f4 5c3b a200 2298
00000070: 9dbe acb0 8163 e5c5 f02a 16b8 a981 53bd
00000080: 7f35 615d 30e3 5b9c 9f48 8181 7f74 327f
00000090: ac7f cf3f 22fd ec3c d733 7f7f 9643 9609
000000a0: 5b7f 81b3 cfce 3381 bc7f ad98 06f4 2008
000000b0: d613 8188 81d5 7f79 365b 39d9 810a 0f97
000000c0: c260 3062 3f57 7858 259a 2e53 97cc 7fb5
000000d0: 12ea 020a d781 7f87 7f60 adb1 7f17 b715
000000e0: 3f50 7c85 a6eb f571 1dc7 81b0 447f be86
000000f0: d0d6 dd1a ffe1 8daa 4963 4881 3865 b4ba

model/mobilenetv2_0.50_64/block_13_expand/Conv2D i1 [288, 1, 1, 48]
101 -57 2 -75 73 -8 90 57
-85 82 -45 -52 -75 -123 83 -99
-114 -97 86 3 102 28 -8 -11
0 32 -94 -76 16 -66 -70 -32
107 118 104 75 9 123 -118 -51
-62 92 -32 12 29 127 117 121
92 64 68 125 50 3 -7 -94
-3 -86 3 -45 37 80 55 67
-44 -28 73 -90 -32 97 -44 57
19 77 -60 -113 68 80 -89 -47
-43 -12 -15 87 9 117 46 -31
-36 74 -31 90 2 -127 -72 -122
72 57 61 -35 -62 -19 -26 88
59 -1 4 21 7 29 127 -69
-32 17 71 30 -18 -43 47 -23
107 123 97 14 78 34 15 4
-34 -72 -63 -71 -66 -15 56 47
8 -61 -73 -80 62 72 35 25
-42 -70 -36 33 93 127 80 -37
49 67 16 7 -112 -37 38 21
81 -102 93 19 -60 71 110 78
72 -17 73 -69 -54 -92 -58 19
56 60 12 -99 14 29 86 -27
-8 77 -5 64 -74 -47 84 -30
122 -44 72 -11 -70 81 -120 -22
-121 105 -56 -55 -64 -97 -14 -46
-30 86 -1 36 49 89 96 -92
15 -127 -101 -20 84 63 56 79
-62 102 44 -55 -75 94 -88 -104
69 27 -72 121 52 -89 79 -119
-32 -102 -127 21 13 -12 -52 -34
-78 96 90 -23 -49 66 90 97
00000000: 65c7 02b5 49f8 5a39 ab52 d3cc b585 539d
00000010: 8e9f 5603 661c f8f5 0020 a2b4 10be bae0
00000020: 6b76 684b 097b 8acd c25c e00c 1d7f 7579
00000030: 5c40 447d 3203 f9a2 fdaa 03d3 2550 3743
00000040: d4e4 49a6 e061 d439 134d c48f 4450 a7d1
00000050: d5f4 f157 0975 2ee1 dc4a e15a 0281 b886
00000060: 4839 3ddd c2ed e658 3bff 0415 071d 7fbb
00000070: e011 471e eed5 2fe9 6b7b 610e 4e22 0f04
00000080: deb8 c1b9 bef1 382f 08c3 b7b0 3e48 2319
00000090: d6ba dc21 5d7f 50db 3143 1007 90db 2615
000000a0: 519a 5d13 c447 6e4e 48ef 49bb caa4 c613
000000b0: 383c 0c9d 0e1d 56e5 f84d fb40 b6d1 54e2
000000c0: 7ad4 48f5 ba51 88ea 8769 c8c9 c09f f2d2
000000d0: e256 ff24 3159 60a4 0f81 9bec 543f 384f
000000e0: c266 2cc9 b55e a898 451b b879 34a7 4f89
000000f0: e09a 8115 0df4 ccde b260 5ae9 cf42 5a61

model/mobilenetv2_0.50_64/block_12_project/Conv2D i1 [48, 1, 1, 288]
19 75 -20 -127 45 -34 98 119
16 -121 54 30 54 -38 -45 -54
102 -73 -13 -49 101 -108 76 -39
-36 -120 -63 -13 -18 -63 -37 101
-35 -61 -16 -85 -7 89 99 13
111 -50 116 69 50 67 -53 121
101 -77 -32 -15 50 -87 -67 -20
64 -34 -3 67 54 -109 107 -93
71 -8 -87 113 127 -91 17 -119
69 27 26 80 104 89 -116 -38
106 -52 47 42 15 93 -121 1
-45 91 -45 -41 4 -111 -55 -102
-40 -74 -63 -114 -70 -69 -83 -80
-106 -70 -69 79 118 81 21 36
-26 -89 -84 100 24 -82 11 60
23 55 78 -114 67 -101 -39 76
-62 52 2 -89 -85 77 -29 113
-28 -53 56 107 31 102 8 -91
58 39 80 -3 -94 -34 -40 103
-91 95 87 -24 35 73 -17 27
-81 15 59 -27 -22 -43 71 120
-14 48 -18 56 -46 -60 -67 109
-84 100 35 83 59 35 99 -108
-62 -57 119 -91 110 45 -6 1
-29 58 10 -120 109 78 111 -92
-64 -56 9 -28 -94 114 122 -62
87 100 -43 18 89 -82 -68 -97
63 -82 74 -110 -33 -101 -72 93
11 -52 -31 -110 -34 -29 -68 119
24 -95 38 5 -21 99 4 -13
-80 53 -25 -100 -56 -119 29 -90
-51 14 -24 -13 -118 -13 -93 -83
00000000: 134b ec81 2dde 6277 1087 361e 36da d3ca
00000010: 66b7 f3cf 6594 4cd9 dc88 c1f3 eec1 db65
00000020: ddc3 f0ab f959 630d 6fce 7445 3243 cb79
00000030: 65b3 e0f1 32a9 bdec 40de fd43 3693 6ba3
00000040: 47f8 a971 7fa5 1189 451b 1a50 6859 8cda
00000050: 6acc 2f2a 0f5d 8701 d35b d3d7 0491 c99a
00000060: d8b6 c18e babb adb0 96ba bb4f 7651 1524
00000070: e6a7 ac64 18ae 0b3c 1737 4e8e 439b d94c
00000080: c234 02a7 ab4d e371 e4cb 386b 1f66 08a5
00000090: 3a27 50fd a2de d867 a55f 57e8 2349 ef1b
000000a0: af0f 3be5 ead5 4778 f230 ee38 d2c4 bd6d
000000b0: ac64 2353 3b23 6394 c2c7 77a5 6e2d fa01
000000c0: e33a 0a88 6d4e 6fa4 c0c8 09e4 a272 7ac2
000000d0: 5764 d512 59ae bc9f 3fae 4a92 df9b b85d
000000e0: 0bcc e192 dee3 bc77 18a1 2605 eb63 04f3
000000f0: b035 e79c c889 1da6 cd0e e8f3 8af3 a3ad

model/mobilenetv2_0.50_64/block_12_depthwise_BN/FusedBatchNormV3;model/mobilenetv2_0.50_64/block_12_depthwise/depthwise;model/mobilenetv2_0.50_64/block_13_depthwise/depthwise i1 [1, 3, 3, 288]
14 -61 53 127 59 -85 79 64
-15 -127 -18 -28 65 73 -99 -93
-26 -68 -72 67 -58 -80 -38 51
-20 -31 -76 -61 34 -19 47 64
41 -36 -84 -125 -2 -121 -119 93
27 74 -127 -113 39 22 -13 126
-5 -122 38 33 -80 -51 -127 7
37 -127 -70 63 -111 -104 -83 101
44 127 80 83 -127 -127 26 -127
66 -120 -84 127 31 -120 -95 91
-23 -47 -72 18 87 -127 81 9
81 -75 -37 4 -46 115 85 26
124 81 93 50 -60 120 67 -101
-5 -80 90 127 -5 71 -99 -18
85 80 108 96 -93 -127 -127 3
-15 -97 49 -71 89 -90 -120 49
15 17 3 -30 -69 22 116 -62
33 63 -20 -66 25 -118 110 80
-4 -63 -57 91 -14 127 -25 127
-127 -83 -30 -10 -103 127 20 -114
58 12 100 16 -79 -40 -113 -34
-127 -61 91 75 7 -41 -123 32
-69 -108 -102 -111 82 -120 -83 -46
-15 -127 41 7 -91 13 9 -65
-89 -21 116 -121 51 -26 7 127
66 71 55 -25 -90 -53 -119 90
-24 -80 127 -66 3 -77 -127 33
25 -59 72 -99 -127 106 -109 96
-7 55 -114 -34 30 -127 -64 98
127 -19 106 76 -6 92 -85 38
-35 -127 127 98 -97 6 -103 -82
127 -96 102 99 -127 -64 112 -54
00000000: 0ec3 357f 3bab 4f40 f181 eee4 4149 9da3
00000010: e6bc b843 c6b0 da33 ece1 b4c3 22ed 2f40
00000020: 29dc ac83 fe87 895d 1b4a 818f 2716 f37e
00000030: fb86 2621 b0cd 8107 2581 ba3f 9198 ad65
00000040: 2c7f 5053 8181 1a81 4288 ac7f 1f88 a15b
00000050: e9d1 b812 5781 5109 51b5 db04 d273 551a
00000060: 7c51 5d32 c478 439b fbb0 5a7f fb47 9dee
00000070: 5550 6c60 a381 8103 f19f 31b9 59a6 8831
00000080: 0f11 03e2 bb16 74c2 213f ecbe 198a 6e50
00000090: fcc1 c75b f27f e77f 81ad e2f6 997f 148e
000000a0: 3a0c 6410 b1d8 8fde 81c3 5b4b 07d7 8520
000000b0: bb94 9a91 5288 add2 f181 2907 a50d 09bf
000000c0: a7eb 7487 33e6 077f 4247 37e7 a6cb 895a
000000d0: e8b0 7fbe 03b3 8121 19c5 489d 816a 9360
000000e0: f937 8ede 1e81 c062 7fed 6a4c fa5c ab26
000000f0: dd81 7f62 9f06 99ae 7fa0 6663 81c0 70ca

model/mobilenetv2_0.50_64/block_12_expand/Conv2D i1 [288, 1, 1, 48]
-99 82 35 57 85 78 -76 -37
-113 70 -14 99 48 -110 -104 -28
-8 74 65 -37 10 96 -65 73
-6 27 -27 -63 -18 -53 25 30
102 -105 -43 -82 -64 -34 54 -85
127 -88 -17 -90 -4 -13 30 24
22 -17 -61 109 -115 -31 -8 -88
43 -103 113 -7 -61 -1 -55 -116
-127 54 -33 -102 -105 -15 41 64
43 30 0 115 82 69 -106 45
-81 -13 69 -116 -105 -14 -114 -120
-93 -55 -109 31 -81 -80 -84 13
-53 -114 -56 41 -43 111 19 62
-19 97 92 -41 75 -60 -77 -104
-14 -70 -99 125 -127 -56 48 -51
9 -7 -72 79 32 -76 -70 115
29 -45 118 -72 58 -37 -110 -19
41 55 -121 -14 72 115 -64 101
94 -101 -116 -11 111 -109 85 -26
30 -31 -14 -100 82 -69 -90 -3
27 14 63 127 -112 104 49 22
-31 -28 -19 -8 49 -53 -38 19
-14 -57 -67 -25 -28 85 40 10
18 27 -106 -86 -27 -24 -115 106
-13 -71 73 126 -127 123 125 -58
101 41 53 52 -74 23 0 35
-21 72 -96 -52 10 67 68 -10
39 32 27 93 57 72 -56 -28
-86 -85 24 -30 76 -89 12 -101
74 -49 -75 83 -65 -60 -63 18
69 8 54 13 -18 62 -29 -46
110 43 -72 -69 4 -48 33 -53
00000000: 9d52 2339 554e b4db 8f46 f263 3092 98e4
00000010: f84a 41db 0a60 bf49 fa1b e5c1 eecb 191e
00000020: 6697 d5ae c0de 36ab 7fa8 efa6 fcf3 1e18
00000030: 16ef c36d 8de1 f8a8 2b99 71f9 c3ff c98c
00000040: 8136 df9a 97f1 2940 2b1e 0073 5245 962d
00000050: aff3 458c 97f2 8e88 a3c9 931f afb0 ac0d
00000060: cb8e c829 d56f 133e ed61 5cd7 4bc4 b398
00000070: f2ba 9d7d 81c8 30cd 09f9 b84f 20b4 ba73
00000080: 1dd3 76b8 3adb 92ed 2937 87f2 4873 c065
00000090: 5e9b 8cf5 6f93 55e6 1ee1 f29c 52bb a6fd
000000a0: 1b0e 3f7f 9068 3116 e1e4 edf8 31cb da13
000000b0: f2c7 bde7 e455 280a 121b 96aa e5e8 8d6a
000000c0: f3b9 497e 817b 7dc6 6529 3534 b617 0023
000000d0: eb48 a0cc 0a43 44f6 2720 1b5d 3948 c8e4
000000e0: aaab 18e2 4ca7 0c9b 4acf b553 bfc4 c112
000000f0: 4508 360d ee3e e3d2 6e2b b8bb 04d0 21cb

model/mobilenetv2_0.50_64/block_11_project/Conv2D i1 [48, 1, 1, 288]
82 -93 -29 -65 40 79 43 17
-121 -30 -68 41 -34 90 -103 111
82 27 30 -119 -95 -88 75 49
-72 100 85 -8 -12 27 51 -108
55 97 -81 -2 -100 48 -39 5
104 45 69 -84 95 -23 49 -110
29 -31 37 1 -20 109 -105 -103
-71 83 -90 -68 -94 57 -42 -58
114 -64 16 23 -91 -71 100 -26
69 39 -27 -48 -52 -34 -23 81
-65 24 -22 64 60 5 24 18
45 16 22 -37 30 -9 -85 -25
-111 37 -84 114 1 -59 59 25
-28 1 -71 -50 37 -57 -59 -66
3 33 27 -5 -110 -18 51 -64
90 -50 -97 112 -103 19 80 -25
-44 40 45 -18 74 62 -74 51
75 13 66 14 -42 24 -90 -92
-13 -109 -91 -19 91 -44 80 -124
36 -98 -85 -87 91 -117 10 -106
-96 -98 22 28 31 -85 -7 -62
21 -111 19 85 85 -101 -118 88
-88 -77 82 62 -71 -103 -83 -72
13 -98 46 39 -7 25 76 37
-105 -73 -87 70 80 79 96 -58
77 66 -102 53 -106 -102 -62 24
88 -127 -20 -25 62 -41 -68 112
-106 101 3 -32 94 -31 15 -114
45 71 -42 121 -59 -95 23 -20
38 -53 59 95 -81 84 13 -54
-55 -4 -32 -19 -108 -23 65 -109
-62 -53 42 -11 40 -83 15 -22
00000000: 52a3 e3bf 284f 2b11 87e2 bc29 de5a 996f
00000010: 521b 1e89 a1a8 4b31 b864 55f8 f41b 3394
00000020: 3761 affe 9c30 d905 682d 45ac 5fe9 3192
00000030: 1de1 2501 ec6d 9799 b953 a6bc a239 d6c6
00000040: 72c0 1017 a5b9 64e6 4527 e5d0 ccde e951
00000050: bf18 ea40 3c05 1812 2d10 16db 1ef7 abe7
00000060: 9125 ac72 01c5 3b19 e401 b9ce 25c7 c5be
00000070: 0321 1bfb 92ee 33c0 5ace 9f70 9913 50e7
00000080: d428 2dee 4a3e b633 4b0d 420e d618 a6a4
00000090: f393 a5ed 5bd4 5084 249e aba9 5b8b 0a96
000000a0: a09e 161c 1fab f9c2 1591 1355 559b 8a58
000000b0: a8b3 523e b999 adb8 0d9e 2e27 f919 4c25
000000c0: 97b7 a946 504f 60c6 4d42 9a35 969a c218
000000d0: 5881 ece7 3ed7 bc70 9665 03e0 5ee1 0f8e
000000e0: 2d47 d679 c5a1 17ec 26cb 3b5f af54 0dca
000000f0: c9fc e0ed 94e9 4193 c2cb 2af5 28ad 0fea

model/mobilenetv2_0.50_64/block_11_depthwise_BN/FusedBatchNormV3;model/mobilenetv2_0.50_64/block_11_depthwise/depthwise;model/mobilenetv2_0.50_64/block_13_depthwise/depthwise i1 [1, 3, 3, 288]
-51 -98 58 -28 -74 73 80 -72
-9 10 -55 -127 -62 67 -2 85
-103 48 48 127 67 -95 87 -104
-127 -37 30 80 119 -127 127 96
-13 -73 114 -109 59 -127 -74 -97
-111 -127 -84 25 61 -6 -60 -28
123 -21 -120 12 -60 -9 24 84
26 106 47 3 96 43 35 -7
94 80 -8 -105 47 6 109 4
43 -82 -46 -109 -13 -113 -83 14
-125 -88 127 -31 -83 61 93 17
127 84 -105 -12 125 93 -19 2
-87 23 123 34 -67 43 1 -127
47 -25 35 79 -97 -63 51 58
101 57 -95 73 95 -66 127 -127
36 11 116 17 21 -124 -109 -67
61 6 1 84 -127 46 40 -127
81 -24 -101 60 -127 35 -127 -102
33 -15 -120 123 102 -39 84 104
-127 127 -75 -27 37 -102 -78 -108
-16 99 -97 52 56 -127 58 58
13 -96 20 -81 67 121 -22 -58
-91 -127 -22 127 39 -51 -6 -97
-102 71 8 2 -49 -49 -42 -58
56 -118 -113 -19 -56 -1 62 127
-114 -20 -6 -10 -74 -32 114 -53
25 68 -77 -53 -62 35 77 35
-26 49 -127 99 83 18 -127 72
-127 127 50 127 -120 -58 35 -4
12 -92 -95 -127 -19 79 -80 7
-6 -3 67 32 -93 127 -47 80
102 30 -127 -124 -109 -23 5 13
00000000: cd9e 3ae4 b649 50b8 f70a c981 c243 fe55
00000010: 9930 307f 43a1 5798 81db 1e50 7781 7f60
00000020: f3b7 7293 3b81 b69f 9181 ac19 3dfa c4e4
00000030: 7beb 880c c4f7 1854 1a6a 2f03 602b 23f9
00000040: 5e50 f897 2f06 6d04 2bae d293 f38f ad0e
00000050: 83a8 7fe1 ad3d 5d11 7f54 97f4 7d5d ed02
00000060: a917 7b22 bd2b 0181 2fe7 234f 9fc1 333a
00000070: 6539 a149 5fbe 7f81 240b 7411 1584 93bd
00000080: 3d06 0154 812e 2881 51e8 9b3c 8123 819a
00000090: 21f1 887b 66d9 5468 817f b5e5 259a b294
000000a0: f063 9f34 3881 3a3a 0da0 14af 4379 eac6
000000b0: a581 ea7f 27cd fa9f 9a47 0802 cfcf d6c6
000000c0: 388a 8fed c8ff 3e7f 8eec faf6 b6e0 72cb
000000d0: 1944 b3cb c223 4d23 e631 8163 5312 8148
000000e0: 817f 327f 88c6 23fc 0ca4 a181 ed4f b007
000000f0: fafd 4320 a37f d150 661e 8184 93e9 050d

model/mobilenetv2_0.50_64/block_11_expand/Conv2D i1 [288, 1, 1, 48]
-34 -11 84 -110 61 78 50 64
38 16 -29 112 -85 88 63 99
60 -49 -89 -70 -111 35 -71 98
-125 -55 41 92 -103 9 -110 103
-33 122 110 -39 -100 -54 -27 21
32 -66 96 82 -30 -96 127 -125
70 -41 10 5 -40 -120 -116 42
23 19 71 46 -24 -73 1 34
-104 56 -116 30 -31 -31 -49 -50
-57 -89 -17 35 -65 27 -103 -19
-3 -16 -127 106 -40 -32 47 -17
-29 10 -64 40 -97 -126 -27 -116
-106 -70 -39 -94 -40 6 107 -29
-104 118 -74 -98 6 87 116 -78
-21 64 -45 -48 85 -120 23 -127
52 22 -102 -2 85 -21 -73 -100
-81 18 -31 33 54 15 -64 -64
-52 -115 113 -2 -82 -106 -59 -38
60 -7 -83 -9 -54 -73 79 -63
-27 118 105 -48 66 41 -79 41
61 -127 -66 -63 -94 16 116 65
-104 20 22 -96 -18 72 124 57
-54 -86 -26 -21 50 -123 107 36
120 -3 -93 62 99 19 -64 32
80 -89 -93 11 -59 59 60 127
-7 43 -17 8 117 23 70 -97
-12 -58 122 -59 -60 -53 60 6
-8 16 -59 -3 -34 118 -12 -72
87 -14 -81 111 29 1 -76 2
77 -23 -76 -32 100 84 -120 93
-125 73 -45 49 -101 -7 -121 -102
127 103 84 -5 26 -61 121 16
00000000: def5 5492 3d4e 3240 2610 e370 ab58 3f63
00000010: 3ccf a7ba 9123 b962 83c9 295c 9909 9267
00000020: df7a 6ed9 9cca e515 20be 6052 e2a0 7f83
00000030: 46d7 0a05 d888 8c2a 1713 472e e8b7 0122
00000040: 9838 8c1e e1e1 cfce c7a7 ef23 bf1b 99ed
00000050: fdf0 816a d8e0 2fef e30a c028 9f82 e58c
00000060: 96ba d9a2 d806 6be3 9876 b69e 0657 74b2
00000070: eb40 d3d0 5588 1781 3416 9afe 55eb b79c
00000080: af12 e121 360f c0c0 cc8d 71fe ae96 c5da
00000090: 3cf9 adf7 cab7 4fc1 e576 69d0 4229 b129
000000a0: 3d81 bec1 a210 7441 9814 16a0 ee48 7c39
000000b0: caaa e6eb 3285 6b24 78fd a33e 6313 c020
000000c0: 50a7 a30b c53b 3c7f f92b ef08 7517 469f
000000d0: f4c6 7ac5 c4cb 3c06 f810 c5fd de76 f4b8
000000e0: 57f2 af6f 1d01 b402 4de9 b4e0 6454 885d
000000f0: 8349 d331 9bf9 879a 7f67 54fb 1ac3 7910

model/mobilenetv2_0.50_64/block_10_project/Conv2D i1 [48, 1, 1, 192]
1 -8 -119 15 19 82 -89 -41
-114 -25 -33 46 28 -91 15 62
-64 -66 33 64 60 8 117 25
87 44 -82 17 -107 -34 -13 -41
-3 -102 40 97 59 -61 -21 -116
-92 46 -3 19 -33 38 114 53
65 102 -30 69 -16 -41 25 28
-115 -19 -11 1 -14 -54 -109 -72
15 109 1 -56 -8 50 -86 53
-89 -20 -80 -54 18 -89 -55 47
27 -60 97 13 16 10 44 -77
103 -50 -85 15 8 21 36 19
-49 3 -23 58 17 56 -101 13
0 -14 31 -82 -1 -47 -28 41
38 -47 -90 -7 -94 18 -11 105
-76 2 94 33 -9 -86 106 -107
-64 77 -74 -54 55 -113 -60 23
-13 -10 117 -29 -8 -45 -108 -12
-127 -92 -71 71 -76 7 40 -53
-7 -114 -87 46 113 99 -40 -75
62 -60 75 -98 -100 86 96 10
83 118 -59 1 -25 8 60 -9
53 -80 -44 43 102 56 -111 32
98 100 -16 -89 14 54 13 86
37 -19 45 15 -84 -41 -29 97
-18 -75 -64 21 -81 -28 105 -118
-114 119 -115 -76 -17 -5 49 91
-38 -53 38 -29 7 87 101 34
-109 54 86 15 -70 119 125 -74
0 48 87 -59 90 -40 64 89
-92 -94 -34 -59 81 -26 53 90
-73 -114 83 -5 48 -35 -89 86
00000000: 01f8 890f 1352 a7d7 8ee7 df2e 1ca5 0f3e
00000010: c0be 2140 3c08 7519 572c ae11 95de f3d7
00000020: fd9a 2861 3bc3 eb8c a42e fd13 df26 7235
00000030: 4166 e245 f0d7 191c 8ded f501 f2ca 93b8
00000040: 0f6d 01c8 f832 aa35 a7ec b0ca 12a7 c92f
00000050: 1bc4 610d 100a 2cb3 67ce ab0f 0815 2413
00000060: cf03 e93a 1138 9b0d 00f2 1fae ffd1 e429
00000070: 26d1 a6f9 a212 f569 b402 5e21 f7aa 6a95
00000080: c04d b6ca 378f c417 f3f6 75e3 f8d3 94f4
00000090: 81a4 b947 b407 28cb f98e a92e 7163 d8b5
000000a0: 3ec4 4b9e 9c56 600a 5376 c501 e708 3cf7
000000b0: 35b0 d42b 6638 9120 6264 f0a7 0e36 0d56
000000c0: 25ed 2d0f acd7 e361 eeb5 c015 afe4 698a
000000d0: 8e77 8db4 effb 315b dacb 26e3 0757 6522
000000e0: 9336 560f ba77 7db6 0030 57c5 5ad8 4059
000000f0: a4a2 dec5 51e6 355a b78e 53fb 30dd a756

model/mobilenetv2_0.50_64/block_10_depthwise_BN/FusedBatchNormV3;model/mobilenetv2_0.50_64/block_10_depthwise/depthwise i1 [1, 3, 3, 192]
96 -8 -40 93 96 3 100 -38
-108 52 -6 96 -127 96 82 -14
-72 97 73 -87 107 -105 127 127
-127 47 84 39 76 127 58 91
-10 -67 -59 36 -115 127 -13 1
70 -127 -39 94 -48 -14 -127 -26
-71 116 26 125 -57 127 81 2
-18 -127 -65 -118 33 14 46 127
120 -91 -127 86 -37 2 127 -44
-127 -11 98 26 56 86 -127 7
-57 127 2 106 -93 127 40 96
22 127 -113 102 -73 -8 53 15
104 -67 -8 111 -116 0 109 72
-59 127 -60 31 -96 83 111 -69
-127 -26 43 112 60 100 55 -60
4 -111 -18 3 -127 -2 95 -127
-127 96 15 127 -127 -122 20 -93
22 -127 -55 83 3 127 -55 127
-12 -1 47 5 18 55 7 16
83 -33 -117 80 -19 56 -127 127
-90 -127 -127 2 80 99 -65 -81
77 92 74 84 -44 89 -11 -104
127 -127 -55 32 -127 86 -36 -95
127 -38 54 -32 -51 -29 34 -69
1 -62 98 -53 105 100 42 -102
29 -26 -58 -5 -19 92 -57 10
-41 90 -92 -36 -24 -5 36 34
25 -127 117 -79 127 3 119 -2
38 65 -127 -114 117 -40 118 -120
-5 70 -15 127 -46 74 17 34
105 97 -127 -109 -127 -124 -100 26
21 48 -5 8 -37 96 63 -69
00000000: 60f8 d85d 6003 64da 9434 fa60 8160 52f2
00000010: b861 49a9 6b97 7f7f 812f 5427 4c7f 3a5b
00000020: f6bd c524 8d7f f301 4681 d95e d0f2 81e6
00000030: b974 1a7d c77f 5102 ee81 bf8a 210e 2e7f
00000040: 78a5 8156 db02 7fd4 81f5 621a 3856 8107
00000050: c77f 026a a37f 2860 167f 8f66 b7f8 350f
00000060: 68bd f86f 8c00 6d48 c57f c41f a053 6fbb
00000070: 81e6 2b70 3c64 37c4 0491 ee03 81fe 5f81
00000080: 8160 0f7f 8186 14a3 1681 c953 037f c97f
00000090: f4ff 2f05 1237 0710 53df 8b50 ed38 817f
000000a0: a681 8102 5063 bfaf 4d5c 4a54 d459 f598
000000b0: 7f81 c920 8156 dca1 7fda 36e0 cde3 22bb
000000c0: 01c2 62cb 6964 2a9a 1de6 c6fb ed5c c70a
000000d0: d75a a4dc e8fb 2422 1981 75b1 7f03 77fe
000000e0: 2641 818e 75d8 7688 fb46 f17f d24a 1122
000000f0: 6961 8193 8184 9c1a 1530 fb08 db60 3fbb

model/mobilenetv2_0.50_64/block_10_expand/Conv2D i1 [192, 1, 1, 32]
-91 56 6 127 115 102 -103 -67
-5 45 -86 -126 60 -40 103 -127
-84 116 -66 35 -117 80 10 -91
85 -18 11 -110 -5 83 6 54
73 -69 50 86 -7 -84 -27 89
-3 51 13 74 -79 73 25 -14
127 -103 51 -21 78 33 -31 50
63 62 55 20 -27 95 -114 -54
-63 102 11 -127 -32 -59 -18 -51
38 -75 10 -2 88 -27 -39 72
-45 -54 -7 73 99 -124 107 42
77 47 -29 46 -79 39 51 -31
-105 -34 -51 12 36 -111 -127 32
-78 -43 -31 -37 127 -27 -23 -60
57 0 56 65 -84 127 -124 106
72 -116 89 65 36 77 53 67
73 18 51 -7 126 -115 124 81
-34 3 -111 48 27 -103 -88 123
127 47 -51 69 28 62 88 -121
-40 -95 -20 87 74 -105 120 -113
-11 96 -14 112 -34 -99 -35 8
-3 -67 109 21 123 45 96 -86
-35 -20 85 -119 47 82 -100 -68
-23 -41 -34 79 -20 -30 -127 86
42 -97 -34 -117 -126 86 126 36
123 52 84 45 -35 -45 116 91
124 39 46 113 72 16 99 0
38 127 -46 -46 45 111 12 -107
9 -3 83 100 43 27 127 -6
13 -1 42 45 40 41 -99 37
65 -118 -10 -105 -102 -66 43 90
1 -116 -63 20 16 -79 -111 49
00000000: a538 067f 7366 99bd fb2d aa82 3cd8 6781
00000010: ac74 be23 8b50 0aa5 55ee 0b92 fb53 0636
00000020: 49bb 3256 f9ac e559 fd33 0d4a b149 19f2
00000030: 7f99 33eb 4e21 e132 3f3e 3714 e55f 8eca
00000040: c166 0b81 e0c5 eecd 26b5 0afe 58e5 d948
00000050: d3ca f949 6384 6b2a 4d2f e32e b127 33e1
00000060: 97de cd0c 2491 8120 b2d5 e1db 7fe5 e9c4
00000070: 3900 3841 ac7f 846a 488c 5941 244d 3543
00000080: 4912 33f9 7e8d 7c51 de03 9130 1b99 a87b
00000090: 7f2f cd45 1c3e 5887 d8a1 ec57 4a97 788f
000000a0: f560 f270 de9d dd08 fdbd 6d15 7b2d 60aa
000000b0: ddec 5589 2f52 9cbc e9d7 de4f ece2 8156
000000c0: 2a9f de8b 8256 7e24 7b34 542d ddd3 745b
000000d0: 7c27 2e71 4810 6300 267f d2d2 2d6f 0c95
000000e0: 09fd 5364 2b1b 7ffa 0dff 2a2d 2829 9d25
000000f0: 418a f697 9abe 2b5a 018c c114 10b1 9131

model/mobilenetv2_0.50_64/block_9_project/Conv2D i1 [32, 1, 1, 192]
93 49 -112 -73 -74 -119 -25 89
68 -69 40 -6 -29 -91 18 111
91 26 62 -66 -95 75 -51 66
-33 18 -45 105 -112 79 -114 97
-103 -21 51 2 99 67 100 55
-122 -108 1 -107 14 16 -75 -50
-81 48 -127 -57 -24 52 56 32
-110 -53 -40 -95 -14 95 104 59
62 -100 82 -105 -117 3 -96 -106
-57 -48 37 94 -74 99 -23 -109
91 -59 100 118 106 -75 103 5
86 -63 -84 85 14 49 -24 95
-9 -57 -29 -54 -64 -89 -89 -87
95 3 101 -41 96 67 -38 30
97 -70 62 -50 -66 37 61 -60
-45 -3 0 112 88 88 61 80
-67 -110 39 -105 112 -40 69 79
-80 80 -94 49 116 5 99 72
-75 80 68 -43 -121 -28 -20 115
7 -84 -8 7 -34 -120 -18 13
73 -32 -9 -19 38 81 -22 114
26 -114 -20 -3 -100 -100 -39 -75
52 -100 67 -28 -124 -68 -107 48
-97 97 20 78 -103 82 101 -82
35 62 0 -1 -36 3 -50 36
-116 -57 28 -117 -4 22 22 53
-96 9 5 107 -59 -107 -38 -54
103 103 -19 61 39 31 81 -119
73 114 15 -24 2 -56 -72 89
27 -117 -34 39 -20 -91 -123 -119
125 37 9 91 -50 -6 43 -28
-32 105 100 -57 84 -90 36 30
00000000: 5d31 90b7 b689 e759 44bb 28fa e3a5 126f
00000010: 5b1a 3ebe a14b cd42 df12 d369 904f 8e61
00000020: 99eb 3302 6343 6437 8694 0195 0e10 b5ce
00000030: af30 81c7 e834 3820 92cb d8a1 f25f 683b
00000040: 3e9c 5297 8b03 a096 c7d0 255e b663 e993
00000050: 5bc5 6476 6ab5 6705 56c1 ac55 0e31 e85f
00000060: f7c7 e3ca c0a7 a7a9 5f03 65d7 6043 da1e
00000070: 61ba 3ece be25 3dc4 d3fd 0070 5858 3d50
00000080: bd92 2797 70d8 454f b050 a231 7405 6348
00000090: b550 44d5 87e4 ec73 07ac f807 de88 ee0d
000000a0: 49e0 f7ed 2651 ea72 1a8e ecfd 9c9c d9b5
000000b0: 349c 43e4 84bc 9530 9f61 144e 9952 65ae
000000c0: 233e 00ff dc03 ce24 8cc7 1c8b fc16 1635
000000d0: a009 056b c595 daca 6767 ed3d 271f 5189
000000e0: 4972 0fe8 02c8 b859 1b8b de27 eca5 8589
000000f0: 7d25 095b cefa 2be4 e069 64c7 54a6 241e

model/mobilenetv2_0.50_64/block_9_depthwise_BN/FusedBatchNormV3;model/mobilenetv2_0.50_64/block_9_depthwise/depthwise;model/mobilenetv2_0.50_64/block_10_depthwise/depthwise i1 [1, 3, 3, 192]
-35 -48 -32 -78 43 127 -66 -127
127 -9 -127 28 127 39 -93 88
120 1 56 -30 -127 34 101 76
86 78 81 127 -77 122 127 -41
87 -14 58 -65 -77 -40 51 17
69 -103 -127 123 -81 127 -90 51
43 -22 75 36 -116 -33 -112 112
-112 4 91 69 109 -125 -29 -127
-70 103 127 58 -91 6 10 127
66 81 -107 88 -78 45 85 -9
-6 82 74 -24 51 -127 -127 8
-100 -37 -109 -3 -79 125 -25 -17
-79 -6 -57 -62 85 -17 -45 66
-76 86 27 -14 114 124 -127 85
79 10 -4 -57 57 39 -15 -92
59 -13 -109 -90 110 12 30 -42
34 -115 94 27 -87 -110 84 53
66 -55 -69 -127 -101 -127 30 3
-103 44 38 12 -6 -114 -126 50
-4 114 -127 56 -12 73 -27 -127
127 102 -40 -5 38 42 2 -127
88 -105 -16 -101 121 44 -126 -127
0 -49 127 85 102 -93 -127 -66
63 -19 59 -53 -61 -127 90 -102
-10 55 117 -46 -40 -83 12 36
-34 15 55 -73 9 83 -113 -5
86 -127 -26 -59 30 127 -6 -85
15 123 -127 7 64 37 31 52
-101 107 -41 127 -93 -12 93 -5
127 -36 47 127 86 -13 -127 -17
127 99 -53 105 -83 91 42 -127
-127 76 95 -52 -38 -127 -80 -88
00000000: ddd0 e0b2 2b7f be81 7ff7 811c 7f27 a358
00000010: 7801 38e2 8122 654c 564e 517f b37a 7fd7
00000020: 57f2 3abf b3d8 3311 4599 817b af7f a633
00000030: 2bea 4b24 8cdf 9070 9004 5b45 6d83 e381
00000040: ba67 7f3a a506 0a7f 4251 9558 b22d 55f7
00000050: fa52 4ae8 3381 8108 9cdb 93fd b17d e7ef
00000060: b1fa c7c2 55ef d342 b456 1bf2 727c 8155
00000070: 4f0a fcc7 3927 f1a4 3bf3 93a6 6e0c 1ed6
00000080: 228d 5e1b a992 5435 42c9 bb81 9b81 1e03
00000090: 992c 260c fa8e 8232 fc72 8138 f449 e581
000000a0: 7f66 d8fb 262a 0281 5897 f09b 792c 8281
000000b0: 00cf 7f55 66a3 81be 3fed 3bcb c381 5a9a
000000c0: f637 75d2 d8ad 0c24 de0f 37b7 0953 8ffb
000000d0: 5681 e6c5 1e7f faab 0f7b 8107 4025 1f34
000000e0: 9b6b d77f a3f4 5dfb 7fdc 2f7f 56f3 81ef
000000f0: 7f63 cb69 ad5b 2a81 814c 5fcc da81 b0a8

model/mobilenetv2_0.50_64/block_9_expand/Conv2D i1 [192, 1, 1, 32]
-23 121 73 -59 -127 -58 -19 17
-53 -10 85 60 -94 3 -75 -28
-54 -125 54 -102 43 28 38 -12
-22 56 -120 30 -110 78 -46 0
121 113 55 120 127 -32 -93 -23
-66 -38 103 -35 92 -39 -111 -111
-92 77 70 10 -111 -43 -101 -58
-94 19 -7 -48 -67 -20 -29 1
54 91 -89 -107 15 45 -127 109
-59 2 -59 20 -15 -29 -118 -90
-109 62 -93 -41 78 -94 -63 99
-29 14 -41 -66 81 57 -69 12
74 -68 -11 -105 42 112 16 103
76 39 -39 111 -26 11 111 55
97 -53 -6 102 74 -16 108 3
6 2 -127 2 109 -76 28 -60
-93 -93 -48 103 99 79 -73 93
91 -87 96 -109 -20 9 40 95
-93 86 33 -62 5 94 -112 127
27 16 89 98 116 -88 -107 22
-95 -96 26 -102 80 86 2 -110
-86 -66 92 -123 103 127 -89 110
6 -117 44 -26 -46 -110 73 121
104 41 42 -42 80 3 112 -108
-72 -79 -126 59 0 -121 -77 -25
-29 -59 -55 97 127 117 -17 78
-72 -11 53 89 -18 11 123 34
-5 -66 98 31 -79 -95 -109 -88
125 119 -3 119 27 13 -40 -82
4 22 33 -113 -123 -13 -117 7
-79 -9 47 55 -32 -20 89 76
-98 -127 -124 93 -119 -122 -36 53
00000000: e979 49c5 81c6 ed11 cbf6 553c a203 b5e4
00000010: ca83 369a 2b1c 26f4 ea38 881e 924e d200
00000020: 7971 3778 7fe0 a3e9 beda 67dd 5cd9 9191
00000030: a44d 460a 91d5 9bc6 a213 f9d0 bdec e301
00000040: 365b a795 0f2d 816d c502 c514 f1e3 8aa6
00000050: 933e a3d7 4ea2 c163 e30e d7be 5139 bb0c
00000060: 4abc f597 2a70 1067 4c27 d96f e60b 6f37
00000070: 61cb fa66 4af0 6c03 0602 8102 6db4 1cc4
00000080: a3a3 d067 634f b75d 5ba9 6093 ec09 285f
00000090: a356 21c2 055e 907f 1b10 5962 74a8 9516
000000a0: a1a0 1a9a 5056 0292 aabe 5c85 677f a76e
000000b0: 068b 2ce6 d292 4979 6829 2ad6 5003 7094
000000c0: b8b1 823b 0087 b3e7 e3c5 c961 7f75 ef4e
000000d0: b8f5 3559 ee0b 7b22 fbbe 621f b1a1 93a8
000000e0: 7d77 fd77 1b0d d8ae 0416 218f 85f3 8b07
000000f0: b1f7 2f37 e0ec 594c 9e81 845d 8986 dc35

model/mobilenetv2_0.50_64/block_8_project/Conv2D i1 [32, 1, 1, 192]
46 11 -86 -112 119 -119 91 33
-18 74 108 80 112 1 62 43
45 -18 42 58 34 -95 -2 55
104 -77 -43 88 -90 72 -82 -70
16 -78 -33 -50 107 18 -110 -60
-88 -36 45 -12 -40 -77 -56 -93
-1 -126 32 -59 62 -29 -102 -99
86 95 104 21 -112 123 -31 14
16 64 -88 30 -82 90 104 70
29 -106 -33 46 121 102 -73 90
112 -76 34 -79 -95 -88 52 -26
-20 -10 127 73 -122 -86 7 92
51 -53 -121 123 -90 106 82 -72
98 -68 80 -106 -42 104 21 14
105 -72 57 106 -69 -107 -98 -30
67 21 -54 -105 -88 -16 20 4
-23 65 11 -78 3 -62 40 -51
62 19 -32 45 -73 -66 -51 -91
-22 -17 -12 -60 44 61 -117 98
-64 26 -43 -21 -45 -35 -32 101
-122 -33 -41 81 -61 -45 90 108
77 83 -100 -101 -116 -110 117 -114
-64 -117 118 -117 28 47 99 50
111 112 21 -21 106 57 -29 126
78 -92 -115 50 -127 105 -43 -56
-88 -84 -53 -96 -49 -9 29 19
6 -105 -103 -58 93 46 102 -15
93 8 -60 -61 77 49 93 -70
24 -3 -7 -70 -118 67 56 120
-53 29 -82 -58 13 -97 -58 -105
-72 69 -102 76 35 63 115 113
126 -27 -101 109 85 -57 -119 -61
00000000: 2e0b aa90 7789 5b21 ee4a 6c50 7001 3e2b
00000010: 2dee 2a3a 22a1 fe37 68b3 d558 a648 aeba
00000020: 10b2 dfce 6b12 92c4 a8dc 2df4 d8b3 c8a3
00000030: ff82 20c5 3ee3 9a9d 565f 6815 907b e10e
00000040: 1040 a81e ae5a 6846 1d96 df2e 7966 b75a
00000050: 70b4 22b1 a1a8 34e6 ecf6 7f49 86aa 075c
00000060: 33cb 877b a66a 52b8 62bc 5096 d668 150e
00000070: 69b8 396a bb95 9ee2 4315 ca97 a8f0 1404
00000080: e941 0bb2 03c2 28cd 3e13 e02d b7be cda5
00000090: eaef f4c4 2c3d 8b62 c01a d5eb d3dd e065
000000a0: 86df d751 c3d3 5a6c 4d53 9c9b 8c92 758e
000000b0: c08b 768b 1c2f 6332 6f70 15eb 6a39 e37e
000000c0: 4ea4 8d32 8169 d5c8 a8ac cba0 cff7 1d13
000000d0: 0697 99c6 5d2e 66f1 5d08 c4c3 4d31 5dba
000000e0: 18fd f9ba 8a43 3878 cb1d aec6 0d9f c697
000000f0: b845 9a4c 233f 7371 7ee5 9b6d 55c7 89c3
