compression/mobilenetv2/float_fallback_quantization/models_compressed/model_slider.tflite (tflite, 975464 bytes, 53 tensors)

model/mobilenetv2_0.50_64/predictions/MatMul i1 [3, 1280] scale=0.00071805523 zero_point=0
00000000: 420a d0fc 4932 66c7 c6fc c35c 5918 ce57
00000010: d469 b563 164d ce44 bac6 179b b501 01b2
00000020: eef4 5117 d7ba 4429 613a 3e31 fd68 1715
00000030: 14d8 64a9 dbae 4a43 c4c6 abc4 bfa5 f84b
00000040: c207 9b4f e7eb 30f7 cfb1 34cf 5bc2 d6e6
00000050: cf0c e43c d76a d6c5 dcfe 48ee 0f3e b104
00000060: b55a 331b d5a1 05d1 4521 f9a6 62aa 00f0
00000070: 97fe b1e5 17a9 1756 3f44 24dc eea6 06d2
00000080: 6cf1 dd55 a31c d542 28f5 c9ec c3ba 2acd
00000090: bdbf be34 61d4 f2ee 10b3 0b28 c74c 4ee6
000000a0: 1e25 183e cdbc addb 561a 5735 1da4 e5f4
000000b0: 46be af13 feb4 15e8 01f0 2537 17c8 2a38
000000c0: 32a9 3397 48ec 054e c1dc 2e0e f0e0 46b5
000000d0: 5b5e eee4 e3f9 d3d8 abd0 2e40 e9b0 ad65
000000e0: 0b20 0832 3b03 d252 2b0b 06eb 0b4e 673e
000000f0: e6cb 5051 28f2 351e d6b4 eb61 5c00 bb16
0.047391646 0.0071805525 -0.03446665 -0.002872221 0.05241803 0.03590276 0.073241636 -0.04092915
-0.041647203 -0.002872221 -0.04380137 0.06606108 0.063906915 0.017233325 -0.03590276 0.062470805
-0.03159443 0.0753958 -0.05385414 0.071087465 0.015797215 0.055290252 -0.03590276 0.048827756
-0.050263867 -0.041647203 0.01651527 -0.07252358 -0.05385414 0.00071805523 0.00071805523 -0.05600831
-0.012924994 -0.008616663 0.058162473 0.01651527 -0.029440265 -0.050263867 0.048827756 0.029440265
0.06965136 0.041647203 0.044519424 0.035184707 -0.0021541656 0.07467774 0.01651527 0.01507916
0.014361105 -0.02872221 0.07180552 -0.062470805 -0.026568044 -0.05888053 0.053136088 0.0481097
-0.043083314 -0.041647203 -0.061034694 -0.043083314 -0.04667359 -0.06534303 -0.005744442 0.05385414
-0.044519424 0.0050263866 -0.07252358 0.056726363 -0.01795138 -0.01507916 0.03446665 -0.006462497
-0.035184707 -0.056726363 0.03733887 -0.035184707 0.06534303 -0.044519424 -0.03015832 -0.018669436
-0.035184707 0.008616663 -0.020105546 0.043083314 -0.029440265 0.07611386 -0.03015832 -0.04236526
-0.025849989 -0.0014361105 0.051699977 -0.012924994 0.010770828 0.044519424 -0.056726363 0.002872221
-0.05385414 0.06462497 0.036620818 0.019387491 -0.030876376 -0.06821525 0.0035902762 -0.033748597
0.04954581 0.023695823 -0.0050263866 -0.06462497 0.070369415 -0.06175275 0.0 -0.011488884
-0.0753958 -0.0014361105 -0.056726363 -0.019387491 0.01651527 -0.062470805 0.01651527 0.06175275
0.04523748 0.048827756 0.025849989 -0.025849989 -0.012924994 -0.06462497 0.0043083313 -0.03303054
0.077549964 -0.010770828 -0.025131933 0.061034694 -0.06677914 0.020105546 -0.030876376 0.047391646
0.02872221 -0.007898607 -0.03949304 -0.014361105 -0.04380137 -0.050263867 0.03015832 -0.036620818
-0.0481097 -0.04667359 -0.047391646 0.03733887 0.06965136 -0.03159443 -0.010052773 -0.012924994
0.011488884 -0.055290252 0.007898607 0.02872221 -0.04092915 0.0545722 0.05600831 -0.018669436
0.021541657 0.026568044 0.017233325 0.044519424 -0.036620818 -0.048827756 -0.059598584 -0.026568044
0.06175275 0.018669436 0.062470805 0.03805693 0.020823602 -0.06606108 -0.019387491 -0.008616663
0.050263867 -0.047391646 -0.058162473 0.01364305 -0.0014361105 -0.0545722 0.01507916 -0.017233325
0.00071805523 -0.011488884 0.026568044 0.03949304 0.01651527 -0.040211093 0.03015832 0.040211093
0.03590276 -0.062470805 0.036620818 -0.0753958 0.051699977 -0.014361105 0.0035902762 0.05600831
-0.04523748 -0.025849989 0.03303054 0.010052773 -0.011488884 -0.022977768 0.050263867 -0.05385414
0.06534303 0.067497194 -0.012924994 -0.020105546 -0.020823602 -0.0050263866 -0.032312486 -0.02872221
-0.061034694 -0.03446665 0.03303054 0.045955535 -0.01651527 -0.05744442 -0.059598584 0.07252358
0.007898607 0.022977768 0.005744442 0.03590276 0.04236526 0.0021541656 -0.03303054 0.05888053
0.030876376 0.007898607 0.0043083313 -0.01507916 0.007898607 0.05600831 0.073959686 0.044519424
-0.018669436 -0.03805693 0.05744442 0.058162473 0.02872221 -0.010052773 0.03805693 0.021541657
-0.03015832 -0.0545722 -0.01507916 0.06965136 0.06606108 0.0 -0.04954581 0.015797215

model/mobilenetv2_0.50_64/Conv_1/Conv2D i1 [1280, 1, 1, 160]
00000000: 0cca 6a9f df29 76bd 3caa ce0d 3be8 8ed0
00000010: 76be c1dd a853 6a18 b909 7b4d ecdd b26c
00000020: affa 4e69 694a 0bc0 5ca5 315e d06a 0199
00000030: 6157 fdef 4d29 6b41 40cf cd98 c72b ca66
00000040: 3051 3f30 1f24 4036 47d1 4242 1872 cd39
00000050: 9e05 ec16 46b4 1206 e19b 8542 e015 7598
00000060: 8112 d3ef ed51 3252 029c 111a 4c3f 18c3
00000070: 4427 5621 f784 d898 e4ce a9e6 cec7 dc43
00000080: 4850 2dc5 3b02 e853 c55e 54bf 3dfa 3df1
00000090: 618c 111d e177 aba1 0c3d fc0e 08e0 ab4a
000000a0: 4dd1 f53f 2b57 3657 1cd0 4eb6 2324 fccf
000000b0: 364b 172e 6312 cfd4 fa01 56cd 13f9 c10f
000000c0: eca0 1dcf 62bd 3046 8130 becc bfd8 1a50
000000d0: 6c0a 1a3e 666b e70f a8dd baff 3fee 06b2
000000e0: f9f0 59cb 7601 d908 8b21 b201 76f2 1a98
000000f0: ef94 3cd9 c1d7 4e34 ba44 1d24 deae d8bf
12 -54 106 -97 -33 41 118 -67
60 -86 -50 13 59 -24 -114 -48
118 -66 -63 -35 -88 83 106 24
-71 9 123 77 -20 -35 -78 108
-81 -6 78 105 105 74 11 -64
92 -91 49 94 -48 106 1 -103
97 87 -3 -17 77 41 107 65
64 -49 -51 -104 -57 43 -54 102
48 81 63 48 31 36 64 54
71 -47 66 66 24 114 -51 57
-98 5 -20 22 70 -76 18 6
-31 -101 -123 66 -32 21 117 -104
-127 18 -45 -17 -19 81 50 82
2 -100 17 26 76 63 24 -61
68 39 86 33 -9 -124 -40 -104
-28 -50 -87 -26 -50 -57 -36 67
72 80 45 -59 59 2 -24 83
-59 94 84 -65 61 -6 61 -15
97 -116 17 29 -31 119 -85 -95
12 61 -4 14 8 -32 -85 74
77 -47 -11 63 43 87 54 87
28 -48 78 -74 35 36 -4 -49
54 75 23 46 99 18 -49 -44
-6 1 86 -51 19 -7 -63 15
-20 -96 29 -49 98 -67 48 70
-127 48 -66 -52 -65 -40 26 80
108 10 26 62 102 107 -25 15
-88 -35 -70 -1 63 -18 6 -78
-7 -16 89 -53 118 1 -39 8
-117 33 -78 1 118 -14 26 -104
-17 -108 60 -39 -63 -41 78 52
-70 68 29 36 -34 -82 -40 -65

model/mobilenetv2_0.50_64/block_16_project/Conv2D i1 [160, 1, 1, 480]
00000000: 6c3c cb0c 0366 69fb 35ca 574e 96b4 92d6
00000010: 6701 0c3e de8a e773 3439 7e06 ff33 f39b
00000020: e571 eef6 d1ec 7fa9 0cac bbda 4e2c fb42
00000030: e00a 6fcb 8b2d 4cef 5071 584d ba88 7eef
00000040: ee30 51eb e2c2 2b33 ab26 3905 8d6a 46d9
00000050: 1575 36b2 1293 0c9d 2b86 d671 a0da 0e3f
00000060: 1e48 cad1 3d44 383c b4db 06b2 9719 1d45
00000070: 6f98 d841 8f0e c626 0193 2eb1 ef5a 8ca1
00000080: 9668 059f a24b 5b34 e91b c53e c7a8 e82d
00000090: 8736 b936 3aa4 1649 495f 0c88 0860 eeb3
000000a0: 96b5 c8a8 b246 540a 4bea fa76 f44a 890b
000000b0: 4832 1cd4 c995 cdea daaf cd3a 2d08 140e
000000c0: c337 906e 7346 323a 39f7 0ec5 7611 e865
000000d0: aed2 ea4b 18ea 2dfd 056e 2070 f6b0 ab43
000000e0: e53e 666b 604f 16e5 e35f 5d6e 1299 3b6d
000000f0: 5e0d 1e5d 415c 8fa7 fd39 b9e7 5edc bf16
108 60 -53 12 3 102 105 -5
53 -54 87 78 -106 -76 -110 -42
103 1 12 62 -34 -118 -25 115
52 57 126 6 -1 51 -13 -101
-27 113 -18 -10 -47 -20 127 -87
12 -84 -69 -38 78 44 -5 66
-32 10 111 -53 -117 45 76 -17
80 113 88 77 -70 -120 126 -17
-18 48 81 -21 -30 -62 43 51
-85 38 57 5 -115 106 70 -39
21 117 54 -78 18 -109 12 -99
43 -122 -42 113 -96 -38 14 63
30 72 -54 -47 61 68 56 60
-76 -37 6 -78 -105 25 29 69
111 -104 -40 65 -113 14 -58 38
1 -109 46 -79 -17 90 -116 -95
-106 104 5 -97 -94 75 91 52
-23 27 -59 62 -57 -88 -24 45
-121 54 -71 54 58 -92 22 73
73 95 12 -120 8 96 -18 -77
-106 -75 -56 -88 -78 70 84 10
75 -22 -6 118 -12 74 -119 11
72 50 28 -44 -55 -107 -51 -22
-38 -81 -51 58 45 8 20 14
-61 55 -112 110 115 70 50 58
57 -9 14 -59 118 17 -24 101
-82 -46 -22 75 24 -22 45 -3
5 110 32 112 -10 -80 -85 67
-27 62 102 107 96 79 22 -27
-29 95 93 110 18 -103 59 109
94 13 30 93 65 92 -113 -89
-3 57 -71 -25 94 -36 -65 22

model/mobilenetv2_0.50_64/block_16_depthwise_BN/FusedBatchNormV3;model/mobilenetv2_0.50_64/block_16_depthwise/depthwise i1 [1, 3, 3, 480]
00000000: 745a 2981 c4e9 0562 9718 fcdb 342a e42d
00000010: edbb 2bd7 ab4e 2e57 4782 7fc5 7fc0 44eb
00000020: f700 7856 991c ff84 1a81 d99b e45d 512b
00000030: 9012 0fbf 243c 5ae1 7f23 cc74 2c92 8d17
00000040: 597f 4c79 96c0 7f0f 9b77 1f07 fb24 bcbd
00000050: c8ba 14a8 cda6 4f66 bf25 845f f983 29e8
00000060: 3fde c57f 935c a04c d524 19c7 0786 f3e9
00000070: ad7b 522a 271f 8165 14d3 81a9 8844 8fde
00000080: 1c7f 0989 3928 9981 01d6 545e 427f 7234
00000090: 5ddb 81be 94c5 9081 be81 4fda a15f 9a03
000000a0: b9d1 a015 a981 b417 d269 d57a 435f 7fc0
000000b0: 8728 7f85 137f cc01 6f41 01d0 d202 9632
000000c0: bad8 0744 cfd9 d439 6734 5f81 2da0 089a
000000d0: 8441 1a7e 35e7 4e0c 8167 815a b5cc 2851
000000e0: 1ca0 5dc6 a894 ef44 9adb e823 8c6d ffc6
000000f0: b648 81a6 1e90 32ef d015 81d6 d408 afb4
116 90 41 -127 -60 -23 5 98
-105 24 -4 -37 52 42 -28 45
-19 -69 43 -41 -85 78 46 87
71 -126 127 -59 127 -64 68 -21
-9 0 120 86 -103 28 -1 -124
26 -127 -39 -101 -28 93 81 43
-112 18 15 -65 36 60 90 -31
127 35 -52 116 44 -110 -115 23
89 127 76 121 -106 -64 127 15
-101 119 31 7 -5 36 -68 -67
-56 -70 20 -88 -51 -90 79 102
-65 37 -124 95 -7 -125 41 -24
63 -34 -59 127 -109 92 -96 76
-43 36 25 -57 7 -122 -13 -23
-83 123 82 42 39 31 -127 101
20 -45 -127 -87 -120 68 -113 -34
28 127 9 -119 57 40 -103 -127
1 -42 84 94 66 127 114 52
93 -37 -127 -66 -108 -59 -112 -127
-66 -127 79 -38 -95 95 -102 3
-71 -47 -96 21 -87 -127 -76 23
-46 105 -43 122 67 95 127 -64
-121 40 127 -123 19 127 -52 1
111 65 1 -48 -46 2 -106 50
-70 -40 7 68 -49 -39 -44 57
103 52 95 -127 45 -96 8 -102
-124 65 26 126 53 -25 78 12
-127 103 -127 90 -75 -52 40 81
28 -96 93 -58 -88 -108 -17 68
-102 -37 -24 35 -116 109 -1 -58
-74 72 -127 -90 30 -112 50 -17
-48 21 -127 -42 -44 8 -81 -76

model/mobilenetv2_0.50_64/block_16_expand/Conv2D i1 [480, 1, 1, 80]
00000000: 58c5 55a9 c3a8 6b41 7f24 bc66 ab09 bc20
00000010: d609 d4c5 612c e2ed f3c2 0302 7543 2987
00000020: 8a83 aab9 ab1c 9cac 8fc0 78d6 0ad1 6f4d
00000030: 14e2 13dd 394d e92b af5a 8749 a465 e74f
00000040: 92c5 1062 3bb4 23e4 dc95 57b7 4952 ba0c
00000050: bc05 feb0 3636 0f29 6144 fb87 5265 87c5
00000060: be78 ca5e 6d44 96bd bc8f 7037 d868 f013
00000070: 58db 9d8a 154a 1f86 a61b 4fa1 aac3 5a1d
00000080: 49e8 15b5 d30b 737f 184c 0c2f cc4d 1029
00000090: 95e0 2f63 935d 8d43 8c2e 7b50 1bc4 73c0
000000a0: edd9 a55e 4a03 a48e 8714 f6d1 5d00 324b
000000b0: b5e7 5d14 352c a4b6 dd6c 4bca 26c6 6419
000000c0: 0f8c 295e 4f58 abae 9244 3bab 8ded 0a98
000000d0: fdda f8bb 8fc2 0ddd bc6a ae3a 4466 7543
000000e0: f9d5 8953 ca69 2281 b3ba 7c57 0c48 0328
000000f0: af1f b66b 5082 18fd 789a 0e51 c22e c705
88 -59 85 -87 -61 -88 107 65
127 36 -68 102 -85 9 -68 32
-42 9 -44 -59 97 44 -30 -19
-13 -62 3 2 117 67 41 -121
-118 -125 -86 -71 -85 28 -100 -84
-113 -64 120 -42 10 -47 111 77
20 -30 19 -35 57 77 -23 43
-81 90 -121 73 -92 101 -25 79
-110 -59 16 98 59 -76 35 -28
-36 -107 87 -73 73 82 -70 12
-68 5 -2 -80 54 54 15 41
97 68 -5 -121 82 101 -121 -59
-66 120 -54 94 109 68 -106 -67
-68 -113 112 55 -40 104 -16 19
88 -37 -99 -118 21 74 31 -122
-90 27 79 -95 -86 -61 90 29
73 -24 21 -75 -45 11 115 127
24 76 12 47 -52 77 16 41
-107 -32 47 99 -109 93 -115 67
-116 46 123 80 27 -60 115 -64
-19 -39 -91 94 74 3 -92 -114
-121 20 -10 -47 93 0 50 75
-75 -25 93 20 53 44 -92 -74
-35 108 75 -54 38 -58 100 25
15 -116 41 94 79 88 -85 -82
-110 68 59 -85 -115 -19 10 -104
-3 -38 -8 -69 -113 -62 13 -35
-68 106 -82 58 68 102 117 67
-7 -43 -119 83 -54 105 34 -127
-77 -70 124 87 12 72 3 40
-81 31 -74 107 80 -126 24 -3
120 -102 14 81 -62 46 -57 5

model/mobilenetv2_0.50_64/block_15_project/Conv2D i1 [80, 1, 1, 480]
00000000: 44dc 22eb f1b3 f923 bb76 5c3c b63e 6225
00000010: 4a3e f920 27d6 68c7 3623 ce47 ebd3 4854
00000020: 1501 8ff7 0177 700f 3f3e 1e1c 7663 69dc
00000030: c008 06ff d6c8 908b deb7 c2c9 2f3d 1268
00000040: f4d3 2059 dfe9 d190 2474 aa29 1aaa e8b6
00000050: 513e 0967 cad6 5587 08fd f8fe 2d4b 5198
00000060: 473a a605 1728 326a eb0f 2fb1 d9ce 5dab
00000070: 8444 b1d1 a829 8f18 37a4 4824 6506 76b7
00000080: 722e 3cd1 32a9 0043 e703 c107 e7dd d50c
00000090: ff57 9be2 7792 2dec 59d7 97ad 3ebb ef13
000000a0: b195 6c48 52bc 359d 0a17 b637 a234 8c91
000000b0: 3ab3 67a4 25a7 e832 d546 429b 8687 83ea
000000c0: f7fb 0bed 63b0 5965 e5bf a954 f03f ed0c
000000d0: a81f a194 9de8 fa94 3c4e af54 fb20 36d6
000000e0: 2f81 52b4 1df3 5201 1345 34e0 611c 4724
000000f0: e13f 2036 1b75 65d4 a4e5 9a05 a36c 4ea7
68 -36 34 -21 -15 -77 -7 35
-69 118 92 60 -74 62 98 37
74 62 -7 32 39 -42 104 -57
54 35 -50 71 -21 -45 72 84
21 1 -113 -9 1 119 112 15
63 62 30 28 118 99 105 -36
-64 8 6 -1 -42 -56 -112 -117
-34 -73 -62 -55 47 61 18 104
-12 -45 32 89 -33 -23 -47 -112
36 116 -86 41 26 -86 -24 -74
81 62 9 103 -54 -42 85 -121
8 -3 -8 -2 45 75 81 -104
71 58 -90 5 23 40 50 106
-21 15 47 -79 -39 -50 93 -85
-124 68 -79 -47 -88 41 -113 24
55 -92 72 36 101 6 118 -73
114 46 60 -47 50 -87 0 67
-25 3 -63 7 -25 -35 -43 12
-1 87 -101 -30 119 -110 45 -20
89 -41 -105 -83 62 -69 -17 19
-79 -107 108 72 82 -68 53 -99
10 23 -74 55 -94 52 -116 -111
58 -77 103 -92 37 -89 -24 50
-43 70 66 -101 -122 -121 -125 -22
-9 -5 11 -19 99 -80 89 101
-27 -65 -87 84 -16 63 -19 12
-88 31 -95 -108 -99 -24 -6 -108
60 78 -81 84 -5 32 54 -42
47 -127 82 -76 29 -13 82 1
19 69 52 -32 97 28 71 36
-31 63 32 54 27 117 101 -44
-92 -27 -102 5 -93 108 78 -89

model/mobilenetv2_0.50_64/block_15_depthwise_BN/FusedBatchNormV3;model/mobilenetv2_0.50_64/block_15_depthwise/depthwise;model/mobilenetv2_0.50_64/block_16_depthwise/depthwise i1 [1, 3, 3, 480]
00000000: ff4c b556 cc08 12c5 31ac a081 de84 67e8
00000010: 7d3e ea3f 4b29 0f81 33e3 7f39 537f 5139
00000020: ef45 437f 6001 527f d78f d12b 01f9 fe6d
00000030: eaa1 47f7 96bd 4b56 5ac5 4381 ba3e 59f1
00000040: b7ff 099c 82b8 13e5 3737 8ba5 3c7f aae2
00000050: 7ffe 141c 814b cc9e ce36 d37f 64cd 7f7a
00000060: 016a e803 fa7c 9daf 5710 ffcd deaa 44b1
00000070: ba71 dc70 9dd0 7f1c 40b8 8150 81e1 7fd5
00000080: db6f 7f81 e12a 94dc 8164 9fba 62b0 d87f
00000090: 76b9 eca4 7479 7fe0 3a86 f9b9 4081 610c
000000a0: c57f b681 bd52 afc8 f546 b9a0 7f81 1053
000000b0: 21f9 aac7 26bc adda 7fd5 0e03 62ac 7d5f
000000c0: e0f6 e303 d1cf 7f77 b7ac c7b2 7ff6 aa25
000000d0: 81b5 2af8 a90b 7fd5 5658 81c9 f8e5 15ce
000000e0: 351f 9c1b 2b1c 7ffa 3507 45b3 a681 462d
000000f0: c2ef 7f5b e934 417f 837f 0581 64b3 c506
-1 76 -75 86 -52 8 18 -59
49 -84 -96 -127 -34 -124 103 -24
125 62 -22 63 75 41 15 -127
51 -29 127 57 83 127 81 57
-17 69 67 127 96 1 82 127
-41 -113 -47 43 1 -7 -2 109
-22 -95 71 -9 -106 -67 75 86
90 -59 67 -127 -70 62 89 -15
-73 -1 9 -100 -126 -72 19 -27
55 55 -117 -91 60 127 -86 -30
127 -2 20 28 -127 75 -52 -98
-50 54 -45 127 100 -51 127 122
1 106 -24 3 -6 124 -99 -81
87 16 -1 -51 -34 -86 68 -79
-70 113 -36 112 -99 -48 127 28
64 -72 -127 80 -127 -31 127 -43
-37 111 127 -127 -31 42 -108 -36
-127 100 -97 -70 98 -80 -40 127
118 -71 -20 -92 116 121 127 -32
58 -122 -7 -71 64 -127 97 12
-59 127 -74 -127 -67 82 -81 -56
-11 70 -71 -96 127 -127 16 83
33 -7 -86 -57 38 -68 -83 -38
127 -43 14 3 98 -84 125 95
-32 -10 -29 3 -47 -49 127 119
-73 -84 -57 -78 127 -10 -86 37
-127 -75 42 -8 -87 11 127 -43
86 88 -127 -55 -8 -27 21 -50
53 31 -100 27 43 28 127 -6
53 7 69 -77 -90 -127 70 45
-62 -17 127 91 -23 52 65 127
-125 127 5 -127 100 -77 -59 6

model/mobilenetv2_0.50_64/block_15_expand/Conv2D i1 [480, 1, 1, 80]
00000000: 5af6 2258 c22a 5589 432e 0ff5 5ec4 c09a
00000010: 72ad 5364 c578 818b 740d e59f 92ca c099
00000020: 21fe efb2 091a ffd1 5e3f dbe3 64b5 be66
00000030: 7e3d 8af7 aa18 09fe 6fe6 a0b4 6032 052a
00000040: db8d b8f5 e796 4645 b6d8 28bf 23f9 64eb
00000050: 8188 84e1 ad4d 36f7 abe6 e8f0 96b7 4aee
00000060: 3041 2e87 a822 be36 f0f0 39e2 d512 31d7
00000070: 52b6 7d47 d3ac 461f a5dd 26cd 8e99 e04b
00000080: 5aec cd1f 708c c717 efcf 5574 8694 70b1
00000090: eb0f 6b23 6760 73e1 8898 505f 90fc 52af
000000a0: 94fa 730a ef54 498a 04ff 9ceb ffae 056d
000000b0: d094 9a0e 1465 e174 8c8e 0def 32d6 c5a2
000000c0: 8113 f6e5 62ea d646 2f01 39d4 e562 f797
000000d0: af08 e22b c59f e65e afea 24a1 f76d 994b
000000e0: d513 cbf8 d681 1728 bef8 9d23 502d 5abf
000000f0: 33c5 d7a6 6a6f 1435 b956 06bc 58c8 0393
90 -10 34 88 -62 42 85 -119
67 46 15 -11 94 -60 -64 -102
114 -83 83 100 -59 120 -127 -117
116 13 -27 -97 -110 -54 -64 -103
33 -2 -17 -78 9 26 -1 -47
94 63 -37 -29 100 -75 -66 102
126 61 -118 -9 -86 24 9 -2
111 -26 -96 -76 96 50 5 42
-37 -115 -72 -11 -25 -106 70 69
-74 -40 40 -65 35 -7 100 -21
-127 -120 -124 -31 -83 77 54 -9
-85 -26 -24 -16 -106 -73 74 -18
48 65 46 -121 -88 34 -66 54
-16 -16 57 -30 -43 18 49 -41
82 -74 125 71 -45 -84 70 31
-91 -35 38 -51 -114 -103 -32 75
90 -20 -51 31 112 -116 -57 23
-17 -49 85 116 -122 -108 112 -79
-21 15 107 35 103 96 115 -31
-120 -104 80 95 -112 -4 82 -81
-108 -6 115 10 -17 84 73 -118
4 -1 -100 -21 -1 -82 5 109
-48 -108 -102 14 20 101 -31 116
-116 -114 13 -17 50 -42 -59 -94
-127 19 -10 -27 98 -22 -42 70
47 1 57 -44 -27 98 -9 -105
-81 8 -30 43 -59 -97 -26 94
-81 -22 36 -95 -9 109 -103 75
-43 19 -53 -8 -42 -127 23 40
-66 -8 -99 35 80 45 90 -65
51 -59 -41 -90 106 111 20 53
-71 86 6 -68 88 -56 3 -109

model/mobilenetv2_0.50_64/block_14_project/Conv2D i1 [80, 1, 1, 480]
00000000: b2a8 3121 23f3 2445 6963 f42b c0aa 002f
00000010: 1231 bfd7 3479 b2a3 c517 0fdb 7416 52dd
00000020: e5de 0b61 0e61 13cf 8e72 b92a 64e5 52ee
00000030: 1d98 12fa 430a fadb e3c9 a5e4 ce97 e090
00000040: deae bc21 af2b fb5c 3f42 8a6f 16f3 adc1
00000050: 6b5f e2c4 1d2f f2b2 c338 c54c 0347 3efe
00000060: 3110 32b6 666d a632 b6f6 598e 4ed6 259e
00000070: 1a06 c8ee 25eb 6294 5863 1710 fdaa 6695
00000080: 88ba 3d12 5244 ece7 b461 0712 2cf3 0bab
00000090: 6b3a d3a0 ea51 c40b 364e 969e ad6e e555
000000a0: a3ac e7fc 4def d56b 15d6 18a3 c9dd 4f89
000000b0: 20f2 c09f eb9f e16d 5ad0 f3e4 8be2 cff1
000000c0: 51f2 14f8 6ae0 31aa b574 e11c 9925 2cca
000000d0: af5a 0f2b 5db5 cfc8 c915 9b5e 0ab6 d225
000000e0: 28a8 216f 2e06 e914 5a4e dece 05a9 3ccb
000000f0: e94b 954e fd03 5c65 cd1e 734c ccb8 a76e
-78 -88 49 33 35 -13 36 69
105 99 -12 43 -64 -86 0 47
18 49 -65 -41 52 121 -78 -93
-59 23 15 -37 116 22 82 -35
-27 -34 11 97 14 97 19 -49
-114 114 -71 42 100 -27 82 -18
29 -104 18 -6 67 10 -6 -37
-29 -55 -91 -28 -50 -105 -32 -112
-34 -82 -68 33 -81 43 -5 92
63 66 -118 111 22 -13 -83 -63
107 95 -30 -60 29 47 -14 -78
-61 56 -59 76 3 71 62 -2
49 16 50 -74 102 109 -90 50
-74 -10 89 -114 78 -42 37 -98
26 6 -56 -18 37 -21 98 -108
88 99 23 16 -3 -86 102 -107
-120 -70 61 18 82 68 -20 -25
-76 97 7 18 44 -13 11 -85
107 58 -45 -96 -22 81 -60 11
54 78 -106 -98 -83 110 -27 85
-93 -84 -25 -4 77 -17 -43 107
21 -42 24 -93 -55 -35 79 -119
32 -14 -64 -97 -21 -97 -31 109
90 -48 -13 -28 -117 -30 -49 -15
81 -14 20 -8 106 -32 49 -86
-75 116 -31 28 -103 37 44 -54
-81 90 15 43 93 -75 -49 -56
-55 21 -101 94 10 -74 -46 37
40 -88 33 111 46 6 -23 20
90 78 -34 -50 5 -87 60 -53
-23 75 -107 78 -3 3 92 101
-51 30 115 76 -52 -72 -89 110

model/mobilenetv2_0.50_64/block_14_depthwise_BN/FusedBatchNormV3;model/mobilenetv2_0.50_64/block_14_depthwise/depthwise;model/mobilenetv2_0.50_64/block_16_depthwise/depthwise i1 [1, 3, 3, 480]
00000000: 3415 0091 241c a8fd 5558 74b0 b0db d781
00000010: 55c2 8139 96fa 6bf2 897f 38ff 7ffc fc06
00000020: 0c7f 8194 bd40 4345 eee5 86d5 d4aa 1b95
00000030: a409 87b6 9338 3f31 7988 7f85 7ff3 9081
00000040: 4aca 8181 0a18 6cf0 f199 9e74 af1a 3d81
00000050: ec2d e78a eb63 f5c5 4d4e 7754 81b6 abb1
00000060: a651 7781 b8e1 1d43 7f1a b572 2731 9ebc
00000070: a6be 9d2f 1693 7f6a 8f99 3d53 d2fc d7c5
00000080: c267 4a3f 1dbb cb8d 07a2 a990 5db6 ec1d
00000090: 74da 4f05 bdbb 8d22 817e 98a2 6881 247f
000000a0: e69c bd81 6689 33e8 dd33 81ca 243f 0806
000000b0: 3ecb 7f06 9a7f 7f3d 228d 7f7f 389a 538d
000000c0: 6410 5e4b ed93 7fe4 a995 ea62 eda7 f396
000000d0: b352 5d1c 73a8 b23c 43b6 7fe5 5f5c 55d3
000000e0: 6c7f 9414 86d6 1f19 f781 34d5 8148 2bd3
000000f0: f957 45b2 dfcd 2524 8e3d f7b7 0259 c3d7
52 21 0 -111 36 28 -88 -3
85 88 116 -80 -80 -37 -41 -127
85 -62 -127 57 -106 -6 107 -14
-119 127 56 -1 127 -4 -4 6
12 127 -127 -108 -67 64 67 69
-18 -27 -122 -43 -44 -86 27 -107
-92 9 -121 -74 -109 56 63 49
121 -120 127 -123 127 -13 -112 -127
74 -54 -127 -127 10 24 108 -16
-15 -103 -98 116 -81 26 61 -127
-20 45 -25 -118 -21 99 -11 -59
77 78 119 84 -127 -74 -85 -79
-90 81 119 -127 -72 -31 29 67
127 26 -75 114 39 49 -98 -68
-90 -66 -99 47 22 -109 127 106
-113 -103 61 83 -46 -4 -41 -59
-62 103 74 63 29 -69 -53 -115
7 -94 -87 -112 93 -74 -20 29
116 -38 79 5 -67 -69 -115 34
-127 126 -104 -94 104 -127 36 127
-26 -100 -67 -127 102 -119 51 -24
-35 51 -127 -54 36 63 8 6
62 -53 127 6 -102 127 127 61
34 -115 127 127 56 -102 83 -115
100 16 94 75 -19 -109 127 -28
-87 -107 -22 98 -19 -89 -13 -106
-77 82 93 28 115 -88 -78 60
67 -74 127 -27 95 92 85 -45
108 127 -108 20 -122 -42 31 25
-9 -127 52 -43 -127 72 43 -45
-7 87 69 -78 -33 -51 37 36
-114 61 -9 -73 2 89 -61 -41

model/mobilenetv2_0.50_64/block_14_expand/Conv2D i1 [480, 1, 1, 80]
00000000: 1da2 2d59 8198 fdde 17ce 6462 36d5 36f3
00000010: 8e2d 42ad d137 1c3e ee72 b2c3 9d2f 71aa
00000020: e1ad 69d2 7011 3c53 0fe9 3714 3e5c f287
00000030: bbd2 d71b c910 c54d 12d6 6c37 9a4e 2cbe
00000040: ef57 393b 60d5 bd3a a4ac 940b f455 0f7d
00000050: 8b68 9af0 562b a964 c4e3 1cb6 0c36 86a7
00000060: 989f a3b0 063c 8143 736d 8e0d bd3b d5cf
00000070: 851a b910 fd3c c3f4 adbf e2be 2366 c385
00000080: 3e48 728b d5fb 7f47 8213 fb88 0390 eb5b
00000090: 9946 6637 51b2 3bde 93cd be0a 62dc ba19
000000a0: 0169 62a8 a4e5 81b8 fafc f5e3 c694 5c94
000000b0: 05b8 2d4c 3f20 ad39 5229 93ea 9c25 7707
000000c0: 5b99 f5b4 5817 3517 5671 a9b0 37e7 865f
000000d0: 9d13 c0bf 6456 58e7 9a52 2348 c7b8 684b
000000e0: 04ff f9e0 2fe1 7b06 d23e 01ba 0515 f5a5
000000f0: a45c a562 d8ba b8ea cea5 32e1 1cee fec4
29 -94 45 89 -127 -104 -3 -34
23 -50 100 98 54 -43 54 -13
-114 45 66 -83 -47 55 28 62
-18 114 -78 -61 -99 47 113 -86
-31 -83 105 -46 112 17 60 83
15 -23 55 20 62 92 -14 -121
-69 -46 -41 27 -55 16 -59 77
18 -42 108 55 -102 78 44 -66
-17 87 57 59 96 -43 -67 58
-92 -84 -108 11 -12 85 15 125
-117 104 -102 -16 86 43 -87 100
-60 -29 28 -74 12 54 -122 -89
-104 -97 -93 -80 6 60 -127 67
115 109 -114 13 -67 59 -43 -49
-123 26 -71 16 -3 60 -61 -12
-83 -65 -30 -66 35 102 -61 -123
62 72 114 -117 -43 -5 127 71
-126 19 -5 -120 3 -112 -21 91
-103 70 102 55 81 -78 59 -34
-109 -51 -66 10 98 -36 -70 25
1 105 98 -88 -92 -27 -127 -72
-6 -4 -11 -29 -58 -108 92 -108
5 -72 45 76 63 32 -83 57
82 41 -109 -22 -100 37 119 7
91 -103 -11 -76 88 23 53 23
86 113 -87 -80 55 -25 -122 95
-99 19 -64 -65 100 86 88 -25
-102 82 35 72 -57 -72 104 75
4 -1 -7 -32 47 -31 123 6
-46 62 1 -70 5 21 -11 -91
-92 92 -91 98 -40 -70 -72 -22
-50 -91 50 -31 28 -18 -2 -60

model/mobilenetv2_0.50_64/block_13_project/Conv2D i1 [80, 1, 1, 288]
00000000: 2264 d996 4666 34ac a7ac bbc9 58fc 7ce3
00000010: cf54 a518 42d4 0db4 079b e352 137c 8ce0
00000020: ff9a 0f48 dd2b 112b 925f c29b 0a1a f363
00000030: d598 ec58 cb5d ba9a 9570 dc71 bdb7 9782
00000040: e3af 5a2e ee1a fe90 ed97 f433 dfa5 a583
00000050: d363 a24b 7fa6 c890 3418 98b8 9f91 6d9c
00000060: 148b 01e9 24d3 17c7 0120 f266 daa4 85cb
00000070: 2044 d944 d0f9 afa8 689d 973b e117 0214
00000080: 6696 75ce 33b8 726f d9f0 e8a3 28ec 8255
00000090: 8b8e a01c 6e53 ff29 7636 6131 d78b 51af
000000a0: dc11 02ab 33e7 0041 8d33 8885 72bc 19d7
000000b0: 6fc2 7ac2 9006 8a9a aef2 96fe 0796 1b50
000000c0: 618a 884d 6f70 c532 b72c 9e47 b5a2 cb19
000000d0: 20d0 e44f 6b0b 6f38 cdd2 d459 6c0c dd27
000000e0: f462 713d 1d3b bc55 edd0 e59f fdb7 2f3f
000000f0: 4fde 6d62 efb2 dbb1 3bf1 a834 6741 4dae
34 100 -39 -106 70 102 52 -84
-89 -84 -69 -55 88 -4 124 -29
-49 84 -91 24 66 -44 13 -76
7 -101 -29 82 19 124 -116 -32
-1 -102 15 72 -35 43 17 43
-110 95 -62 -101 10 26 -13 99
-43 -104 -20 88 -53 93 -70 -102
-107 112 -36 113 -67 -73 -105 -126
-29 -81 90 46 -18 26 -2 -112
-19 -105 -12 51 -33 -91 -91 -125
-45 99 -94 75 127 -90 -56 -112
52 24 -104 -72 -97 -111 109 -100
20 -117 1 -23 36 -45 23 -57
1 32 -14 102 -38 -92 -123 -53
32 68 -39 68 -48 -7 -81 -88
104 -99 -105 59 -31 23 2 20
102 -106 117 -50 51 -72 114 111
-39 -16 -24 -93 40 -20 -126 85
-117 -114 -96 28 110 83 -1 41
118 54 97 49 -41 -117 81 -81
-36 17 2 -85 51 -25 0 65
-115 51 -120 -123 114 -68 25 -41
111 -62 122 -62 -112 6 -118 -102
-82 -14 -106 -2 7 -106 27 80
97 -118 -120 77 111 112 -59 50
-73 44 -98 71 -75 -94 -53 25
32 -48 -28 79 107 11 111 56
-51 -46 -44 89 108 12 -35 39
-12 98 113 61 29 59 -68 85
-19 -48 -27 -97 -3 -73 47 63
79 -34 109 98 -17 -78 -37 -79
59 -15 -88 52 103 65 77 -82

model/mobilenetv2_0.50_64/block_13_depthwise_BN/FusedBatchNormV3;model/mobilenetv2_0.50_64/block_13_depthwise/depthwise i1 [1, 3, 3, 288]
00000000: 00ec cecc 38c5 4c8c 7f15 345e 9e14 e7f8
00000010: abed f597 17c0 ebfa a30e cef1 8126 8223
00000020: 3b56 7fd8 e704 791f c0df 8de3 e3dd 7fa3
00000030: b524 5a46 a6af 223d 819b 66cb 3964 4877
00000040: 3ab7 3281 a7cd 0f88 4db3 a981 cbc7 3f5f
00000050: d27f 08cb 8146 aa4e dceb 50cc 68ad 7f50
00000060: fccf e11e 8164 2992 09e2 817f 82f7 7f8a
00000070: 7f81 aac1 5236 9df0 5ace 171b 4ef4 f9c9
00000080: 5608 3ffa f7aa 81fa 2e63 5bd1 7f73 81d3
00000090: c97f 15c0 d023 4f4a 3569 0c5d a423 7ec6
000000a0: c1e3 527f ae81 2e67 3715 3200 b2f1 63b7
000000b0: 27d2 d43a b281 2525 929e 027f c357 54f0
000000c0: 0ea3 7f06 2397 8181 815a 81bb 6116 5d9c
000000d0: 342a e1d2 04ba f49c 56a3 9f2a 29b6 7dad
000000e0: 0d7f 816f 0607 8d0f f71e 0b20 9e69 9a31
000000f0: aaf0 a181 ae7f 239b cc8f 3481 942b be7e
0 -20 -50 -52 56 -59 76 -116
127 21 52 94 -98 20 -25 -8
-85 -19 -11 -105 23 -64 -21 -6
-93 14 -50 -15 -127 38 -126 35
59 86 127 -40 -25 4 121 31
-64 -33 -115 -29 -29 -35 127 -93
-75 36 90 70 -90 -81 34 61
-127 -101 102 -53 57 100 72 119
58 -73 50 -127 -89 -51 15 -120
77 -77 -87 -127 -53 -57 63 95
-46 127 8 -53 -127 70 -86 78
-36 -21 80 -52 104 -83 127 80
-4 -49 -31 30 -127 100 41 -110
9 -30 -127 127 -126 -9 127 -118
127 -127 -86 -63 82 54 -99 -16
90 -50 23 27 78 -12 -7 -55
86 8 63 -6 -9 -86 -127 -6
46 99 91 -47 127 115 -127 -45
-55 127 21 -64 -48 35 79 74
53 105 12 93 -92 35 126 -58
-63 -29 82 127 -82 -127 46 103
55 21 50 0 -78 -15 99 -73
39 -46 -44 58 -78 -127 37 37
-110 -98 2 127 -61 87 84 -16
14 -93 127 6 35 -105 -127 -127
-127 90 -127 -69 97 22 93 -100
52 42 -31 -46 4 -70 -12 -100
86 -93 -97 42 41 -74 125 -83
13 127 -127 111 6 7 -115 15
-9 30 11 32 -98 105 -102 49
-86 -16 -95 -127 -82 127 35 -101
-52 -113 52 -127 -108 43 -66 126

model/mobilenetv2_0.50_64/block_13_expand/Conv2D i1 [288, 1, 1, 48]
00000000: b366 135c 8b06 7674 c584 6d3d 479d 0c9c
00000010: a125 8d8a c84f a3d5 48d4 7ded 6804 7a4d
00000020: d04f 5e0d 7c35 7f73 ad65 62b5 f0fd 5e95
00000030: 34c3 a481 67cb 6995 f19d 8d0b 23f3 5142
00000040: b707 b599 de9c eb35 9ce1 95e0 60d3 cc64
00000050: 5f5d da40 c509 6f14 6446 e62a f031 ede2
00000060: 295d c427 05a1 ea67 99e2 90fd 6c47 8697
00000070: 6933 ca8a ba5f e4df c513 e9e2 6fd2 7dda
00000080: 7b3c 88f4 40ed b97f 920f 68c5 be57 4e36
00000090: 278c e886 fa81 61c6 fdd7 542b f93f d438
000000a0: b6e7 9a0a b4fa f39c b1b3 e4ef 1774 cd5d
000000b0: 60bc 0330 07c7 2d32 fdea 0d16 4e84 91a8
000000c0: a18d 0590 b7f0 6170 25d8 b472 9cb2 a212
000000d0: b88a 0c52 5e19 5210 3821 694b 15e1 777f
000000e0: 2bde d41d e603 6991 f3f8 a134 8b38 4591
000000f0: 088c 8f1f 6fb7 af65 eb11 0e8f 6270 c625
-77 102 19 92 -117 6 118 116
-59 -124 109 61 71 -99 12 -100
-95 37 -115 -118 -56 79 -93 -43
72 -44 125 -19 104 4 122 77
-48 79 94 13 124 53 127 115
-83 101 98 -75 -16 -3 94 -107
52 -61 -92 -127 103 -53 105 -107
-15 -99 -115 11 35 -13 81 66
-73 7 -75 -103 -34 -100 -21 53
-100 -31 -107 -32 96 -45 -52 100
95 93 -38 64 -59 9 111 20
100 70 -26 42 -16 49 -19 -30
41 93 -60 39 5 -95 -22 103
-103 -30 -112 -3 108 71 -122 -105
105 51 -54 -118 -70 95 -28 -33
-59 19 -23 -30 111 -46 125 -38
123 60 -120 -12 64 -19 -71 127
-110 15 104 -59 -66 87 78 54
39 -116 -24 -122 -6 -127 97 -58
-3 -41 84 43 -7 63 -44 56
-74 -25 -102 10 -76 -6 -13 -100
-79 -77 -28 -17 23 116 -51 93
96 -68 3 48 7 -57 45 50
-3 -22 13 22 78 -124 -111 -88
-95 -115 5 -112 -73 -16 97 112
37 -40 -76 114 -100 -78 -94 18
-72 -118 12 82 94 25 82 16
56 33 105 75 21 -31 119 127
43 -34 -44 29 -26 3 105 -111
-13 -8 -95 52 -117 56 69 -111
8 -116 -113 31 111 -73 -81 101
-21 17 14 -113 98 112 -58 37

model/mobilenetv2_0.50_64/block_12_project/Conv2D i1 [48, 1, 1, 288]
00000000: a1c8 574e 26fc 3a9b 4041 16d7 aa6d a144
00000010: 6268 46a3 36e0 8124 f81b 94ee 55cc 0b42
00000020: 0607 7714 ca2e 7843 f500 b94a a82e 0a94
00000030: 9aa2 2d5d 7cf9 a092 189f 2c12 6d21 4ae8
00000040: f40b a699 979d 7204 0369 4e6c e207 39d5
00000050: 2516 d4ab 92d4 25b1 30b0 4c23 a6a8 1b98
00000060: d7ee c942 b8df f320 bbc3 1a8f c3af 3a73
00000070: 105c d08b cd19 1d34 40d2 0f31 6ebf 59ac
00000080: 349d e759 c0c5 550d 92a9 620c 1c92 22bf
00000090: 4a8e f161 ca2c 980f a309 cc22 3612 99f0
000000a0: 73c7 962a b313 ee04 69d5 ef9b 0bac eb6f
000000b0: 0d4c 6051 9d31 5355 e48f bb6d 219b 9601
000000c0: bcf8 13e3 58c5 ebb8 d74c 5544 b5e6 9fe4
000000d0: b863 9ebf c2ae f5b8 6e25 a088 068b ed22
000000e0: c1a2 965f f972 2faf 7233 914d 0d75 976a
000000f0: ee3f 4a16 f152 97a5 a4e5 6feb e34f 56e6
-95 -56 87 78 38 -4 58 -101
64 65 22 -41 -86 109 -95 68
98 104 70 -93 54 -32 -127 36
-8 27 -108 -18 85 -52 11 66
6 7 119 20 -54 46 120 67
-11 0 -71 74 -88 46 10 -108
-102 -94 45 93 124 -7 -96 -110
24 -97 44 18 109 33 74 -24
-12 11 -90 -103 -105 -99 114 4
3 105 78 108 -30 7 57 -43
37 22 -44 -85 -110 -44 37 -79
48 -80 76 35 -90 -88 27 -104
-41 -18 -55 66 -72 -33 -13 32
-69 -61 26 -113 -61 -81 58 115
16 92 -48 -117 -51 25 29 52
64 -46 15 49 110 -65 89 -84
52 -99 -25 89 -64 -59 85 13
-110 -87 98 12 28 -110 34 -65
74 -114 -15 97 -54 44 -104 15
-93 9 -52 34 54 18 -103 -16
115 -57 -106 42 -77 19 -18 4
105 -43 -17 -101 11 -84 -21 111
13 76 96 81 -99 49 83 85
-28 -113 -69 109 33 -101 -106 1
-68 -8 19 -29 88 -59 -21 -72
-41 76 85 68 -75 -26 -97 -28
-72 99 -98 -65 -62 -82 -11 -72
110 37 -96 -120 6 -117 -19 34
-63 -94 -106 95 -7 114 47 -81
114 51 -111 77 13 117 -105 106
-18 63 74 22 -15 82 -105 -91
-92 -27 111 -21 -29 79 86 -26

model/mobilenetv2_0.50_64/block_12_depthwise_BN/FusedBatchNormV3;model/mobilenetv2_0.50_64/block_12_depthwise/depthwise;model/mobilenetv2_0.50_64/block_13_depthwise/depthwise i1 [1, 3, 3, 288]
00000000: 19f0 2838 8147 6338 843a 6481 8181 8b1c
00000010: 12c2 c1ef 0786 7981 b97f d456 8258 7f2a
00000020: 03aa 6ca0 b57f c07f 063a 81a5 39ac 010f
00000030: 6e55 5d90 afb5 2e1a 7f97 9243 db7f 9837
00000040: e981 b4e7 2403 f51f 5c7f 0d34 dad2 ce1f
00000050: f50e b7f5 777f 607f 54ba cbc9 d673 bc45
00000060: 71b2 dd7f 6f27 c351 81ff a23a 8fb1 4840
00000070: 29f5 ef1f fa58 cc81 dd81 10e0 682f 7f88
00000080: 3281 6e43 4c4f 6c23 7fc1 e4e2 813a 4f23
00000090: 7557 6153 14a2 1327 2f34 6a2d 9f07 3181
000000a0: 108f a299 a10b a619 d47f a581 be03 a3bd
000000b0: ea81 28f7 6005 d78a d7ec 4af1 86c7 f725
000000c0: f237 6ecf 025c f4a3 ef44 7fef dcaa 4707
000000d0: 8119 81ee 8e4a aa50 7fc0 b412 6459 a07f
000000e0: fe21 a337 90f8 67cf 1381 92a0 3284 5db9
000000f0: 40a8 70f9 5013 81ca 627f c5c4 7a68 1e55
25 -16 40 56 -127 71 99 56
-124 58 100 -127 -127 -127 -117 28
18 -62 -63 -17 7 -122 121 -127
-71 127 -44 86 -126 88 127 42
3 -86 108 -96 -75 127 -64 127
6 58 -127 -91 57 -84 1 15
110 85 93 -112 -81 -75 46 26
127 -105 -110 67 -37 127 -104 55
-23 -127 -76 -25 36 3 -11 31
92 127 13 52 -38 -46 -50 31
-11 14 -73 -11 119 127 96 127
84 -70 -53 -55 -42 115 -68 69
113 -78 -35 127 111 39 -61 81
-127 -1 -94 58 -113 -79 72 64
41 -11 -17 31 -6 88 -52 -127
-35 -127 16 -32 104 47 127 -120
50 -127 110 67 76 79 108 35
127 -63 -28 -30 -127 58 79 35
117 87 97 83 20 -94 19 39
47 52 106 45 -97 7 49 -127
16 -113 -94 -103 -95 11 -90 25
-44 127 -91 -127 -66 3 -93 -67
-22 -127 40 -9 96 5 -41 -118
-41 -20 74 -15 -122 -57 -9 37
-14 55 110 -49 2 92 -12 -93
-17 68 127 -17 -36 -86 71 7
-127 25 -127 -18 -114 74 -86 80
127 -64 -76 18 100 89 -96 127
-2 33 -93 55 -112 -8 103 -49
19 -127 -110 -96 50 -124 93 -71
64 -88 112 -7 80 19 -127 -54
98 127 -59 -60 122 104 30 85

model/mobilenetv2_0.50_64/block_12_expand/Conv2D i1 [288, 1, 1, 48]
00000000: f760 d0cd a94a c1de b275 931b 082f 0b6b
00000010: 6d5e 3d2c 7b32 6929 1064 df0c 9022 9228
00000020: afd8 5ca2 c1c2 1181 b55e a038 9240 ceeb
00000030: 92b0 93ef 137e 4820 7bfa 42d8 570c 3753
00000040: 7f59 3272 7eac 58c4 2624 f910 e55b 7df4
00000050: 5ba6 a28b 0982 f8b6 5999 cf55 300b 9835
00000060: b0f7 2b31 eae7 2fb7 8977 241d 09fb 851b
00000070: 86f9 b5b4 b481 2685 77b3 026b 0c16 1779
00000080: 44ea 9408 f985 263d f524 f15d 8c2f 6bbd
00000090: 2593 76a0 736e 4be9 ade6 6544 d87f d647
000000a0: 8285 b456 4626 453c dc24 680e 7106 52a0
000000b0: e1d1 6867 4310 63bd 0ec8 180a 1d15 25ce
000000c0: c198 563f 20a3 73f4 95b5 2854 1c9f 3a28
000000d0: 2f2e 6765 67b4 35b9 b9c1 c578 98f5 238c
000000e0: 5a6f fd0c 9174 503f 5477 3487 eb61 81ee
000000f0: d078 ee20 4c69 89a3 5a4e f071 988d 8113
-9 96 -48 -51 -87 74 -63 -34
-78 117 -109 27 8 47 11 107
109 94 61 44 123 50 105 41
16 100 -33 12 -112 34 -110 40
-81 -40 92 -94 -63 -62 17 -127
-75 94 -96 56 -110 64 -50 -21
-110 -80 -109 -17 19 126 72 32
123 -6 66 -40 87 12 55 83
127 89 50 114 126 -84 88 -60
38 36 -7 16 -27 91 125 -12
91 -90 -94 -117 9 -126 -8 -74
89 -103 -49 85 48 11 -104 53
-80 -9 43 49 -22 -25 47 -73
-119 119 36 29 9 -5 -123 27
-122 -7 -75 -76 -76 -127 38 -123
119 -77 2 107 12 22 23 121
68 -22 -108 8 -7 -123 38 61
-11 36 -15 93 -116 47 107 -67
37 -109 118 -96 115 110 75 -23
-83 -26 101 68 -40 127 -42 71
-126 -123 -76 86 70 38 69 60
-36 36 104 14 113 6 82 -96
-31 -47 104 103 67 16 99 -67
14 -56 24 10 29 21 37 -50
-63 -104 86 63 32 -93 115 -12
-107 -75 40 84 28 -97 58 40
47 46 103 101 103 -76 53 -71
-71 -63 -59 120 -104 -11 35 -116
90 111 -3 12 -111 116 80 63
84 119 52 -121 -21 97 -127 -18
-48 120 -18 32 76 105 -119 -93
90 78 -16 113 -104 -115 -127 19

model/mobilenetv2_0.50_64/block_11_project/Conv2D i1 [48, 1, 1, 288]
00000000: 99db 1e2c 313e 9628 8eb5 1dbb 03c6 50fc
00000010: e3ea 1c77 ef27 6524 7bcd 2ecc 6350 1b2b
00000020: 9d8e 63df c6f0 6d18 20e4 36af 510f 47c2
00000030: 27d0 4640 059f b1c0 29c8 b3c4 4929 b295
00000040: 47f3 4ebd 4c10 926f f1cb 45d2 9475 eb3e
00000050: f8f3 da0c 622d c8ad 159e 070d 6c48 3262
00000060: 57ee 8e36 659d 97ce 4b1b 02dc e45b acb9
00000070: 0c59 c034 4cf5 e4c1 a910 a9cc 9f90 9ffd
00000080: c30a d9b9 b929 362e 7557 2d2f 37f2 cf0f
00000090: 9f4b d9b3 6d33 71d2 2b12 ccc8 e90e f723
000000a0: bbfc f214 fc12 3d0d fabe 46d0 6905 90dd
000000b0: 4118 46c1 47fc b62f 2cc8 ed52 b94f 0b50
000000c0: 9f10 2bd7 458e 028c abb8 5468 155c f7c9
000000d0: a58e 181f e024 d0c4 3fc8 2122 406c a89c
000000e0: caac 053d 18c4 f130 42f7 011c a0ee f74c
000000f0: 2b9b 62a1 e197 fa9e 81a4 2c14 ccd9 99b1
-103 -37 30 44 49 62 -106 40
-114 -75 29 -69 3 -58 80 -4
-29 -22 28 119 -17 39 101 36
123 -51 46 -52 99 80 27 43
-99 -114 99 -33 -58 -16 109 24
32 -28 54 -81 81 15 71 -62
39 -48 70 64 5 -97 -79 -64
41 -56 -77 -60 73 41 -78 -107
71 -13 78 -67 76 16 -110 111
-15 -53 69 -46 -108 117 -21 62
-8 -13 -38 12 98 45 -56 -83
21 -98 7 13 108 72 50 98
87 -18 -114 54 101 -99 -105 -50
75 27 2 -36 -28 91 -84 -71
12 89 -64 52 76 -11 -28 -63
-87 16 -87 -52 -97 -112 -97 -3
-61 10 -39 -71 -71 41 54 46
117 87 45 47 55 -14 -49 15
-97 75 -39 -77 109 51 113 -46
43 18 -52 -56 -23 14 -9 35
-69 -4 -14 20 -4 18 61 13
-6 -66 70 -48 105 5 -112 -35
65 24 70 -63 71 -4 -74 47
44 -56 -19 82 -71 79 11 80
-97 16 43 -41 69 -114 2 -116
-85 -72 84 104 21 92 -9 -55
-91 -114 24 31 -32 36 -48 -60
63 -56 33 34 64 108 -88 -100
-54 -84 5 61 24 -60 -15 48
66 -9 1 28 -96 -18 -9 76
43 -101 98 -95 -31 -105 -6 -98
-127 -92 44 20 -52 -39 -103 -79

model/mobilenetv2_0.50_64/block_11_depthwise_BN/FusedBatchNormV3;model/mobilenetv2_0.50_64/block_11_depthwise/depthwise;model/mobilenetv2_0.50_64/block_13_depthwise/depthwise i1 [1, 3, 3, 288]
00000000: 8184 56fa 937f d5c0 1ac2 19d1 8dc5 b546
00000010: 67e3 934f 3265 9f48 0483 54fb 2762 4856
00000020: f3e2 0cb7 23bf e4aa 1193 2e85 67ba ea71
00000030: 33fd 6cea 4016 343b d59e e65e 127d 7f07
00000040: 7ff0 02a8 1fa3 1a09 7fea 72ca caa9 b248
00000050: 7e40 5a93 2a7f 8637 f777 c796 3c51 907f
00000060: da4c 1a55 5c12 d54e f533 2602 b2c9 8662
00000070: 72e8 5b81 a1cd 567f 7f7f 4716 1568 a024
00000080: d8a8 e14f 068c 3e6e f57b 6e7b 7785 b63b
00000090: 3ef5 fd51 8162 a7ef 028c 586f b07f e16d
000000a0: f831 cb9b 13a8 7f5d b153 667f 187f 4f32
000000b0: 04d9 64ff 5ad3 9e69 bcd2 a846 e303 71dc
000000c0: 8113 7f4e f937 8117 3f2d b17f f9a2 81ab
000000d0: c126 8181 d956 5486 f481 3ac9 af40 4212
000000e0: 4c52 fa2a 8e43 0eb6 1b81 bf01 dd07 2705
000000f0: 11c8 cf4f bf7b 41f7 f797 8acd 594c a4a1
-127 -124 86 -6 -109 127 -43 -64
26 -62 25 -47 -115 -59 -75 70
103 -29 -109 79 50 101 -97 72
4 -125 84 -5 39 98 72 86
-13 -30 12 -73 35 -65 -28 -86
17 -109 46 -123 103 -70 -22 113
51 -3 108 -22 64 22 52 59
-43 -98 -26 94 18 125 127 7
127 -16 2 -88 31 -93 26 9
127 -22 114 -54 -54 -87 -78 72
126 64 90 -109 42 127 -122 55
-9 119 -57 -106 60 81 -112 127
-38 76 26 85 92 18 -43 78
-11 51 38 2 -78 -55 -122 98
114 -24 91 -127 -95 -51 86 127
127 127 71 22 21 104 -96 36
-40 -88 -31 79 6 -116 62 110
-11 123 110 123 119 -123 -74 59
62 -11 -3 81 -127 98 -89 -17
2 -116 88 111 -80 127 -31 109
-8 49 -53 -101 19 -88 127 93
-79 83 102 127 24 127 79 50
4 -39 100 -1 90 -45 -98 105
-68 -46 -88 70 -29 3 113 -36
-127 19 127 78 -7 55 -127 23
63 45 -79 127 -7 -94 -127 -85
-63 38 -127 -127 -39 86 84 -122
-12 -127 58 -55 -81 64 66 18
76 82 -6 42 -114 67 14 -74
27 -127 -65 1 -35 7 39 5
17 -56 -49 79 -65 123 65 -9
-9 -105 -118 -51 89 76 -92 -95

model/mobilenetv2_0.50_64/block_11_expand/Conv2D i1 [288, 1, 1, 48]
00000000: 7375 598a 13c6 fe7f bbd7 a8e4 f38a b458
00000010: 69df 5134 61d0 3955 e8a2 1252 350a 6810
00000020: eae0 8edd df58 63ca 66f3 5dc6 e110 e6f5
00000030: 63a1 eae1 55de 106a f1de c956 8de4 e79d
00000040: cc62 56df 8fd2 88f6 1a8e 11a9 458c f981
00000050: 002a f559 e799 3e5b 9aa1 aa8c 5ab0 c1ab
00000060: 28d1 b36e e70d 25a1 f14a d3ed 43ee 6481
00000070: a5ea 60f5 0623 2f8f cc66 a225 c10a c32e
00000080: 68b5 e0ff 8724 b0ce 99a1 680c 8d5b c4ba
00000090: 3e44 ce3d 283f 1aee 0df8 9c34 0415 d648
000000a0: dd68 c801 b581 dcd5 11e3 d8ae fe93 2cf2
000000b0: 1ee2 f41d 1e93 4697 21d6 d1e3 c35b c6ac
000000c0: 96c6 5009 f2ba 9c31 62a3 ab6b 0c49 0149
000000d0: 3436 397f 3956 51a0 dc5f 12f6 9c6f e308
000000e0: 10a9 e881 aba6 04fe 7790 56f9 18a4 ce1a
000000f0: ef32 79ed 7cc1 005d 5d5e a81c be0d 7f35
115 117 89 -118 19 -58 -2 127
-69 -41 -88 -28 -13 -118 -76 88
105 -33 81 52 97 -48 57 85
-24 -94 18 82 53 10 104 16
-22 -32 -114 -35 -33 88 99 -54
102 -13 93 -58 -31 16 -26 -11
99 -95 -22 -31 85 -34 16 106
-15 -34 -55 86 -115 -28 -25 -99
-52 98 86 -33 -113 -46 -120 -10
26 -114 17 -87 69 -116 -7 -127
0 42 -11 89 -25 -103 62 91
-102 -95 -86 -116 90 -80 -63 -85
40 -47 -77 110 -25 13 37 -95
-15 74 -45 -19 67 -18 100 -127
-91 -22 96 -11 6 35 47 -113
-52 102 -94 37 -63 10 -61 46
104 -75 -32 -1 -121 36 -80 -50
-103 -95 104 12 -115 91 -60 -70
62 68 -50 61 40 63 26 -18
13 -8 -100 52 4 21 -42 72
-35 104 -56 1 -75 -127 -36 -43
17 -29 -40 -82 -2 -109 44 -14
30 -30 -12 29 30 -109 70 -105
33 -42 -47 -29 -61 91 -58 -84
-106 -58 80 9 -14 -70 -100 49
98 -93 -85 107 12 73 1 73
52 54 57 127 57 86 81 -96
-36 95 18 -10 -100 111 -29 8
16 -87 -24 -127 -85 -90 4 -2
119 -112 86 -7 24 -92 -50 26
-17 50 121 -19 124 -63 0 93
93 94 -88 28 -66 13 127 53

model/mobilenetv2_0.50_64/block_10_project/Conv2D i1 [48, 1, 1, 192]
00000000: 03bf 9313 2626 60f9 c24e 2ae1 0a6a 7538
00000010: 5b0d de49 3ae1 bd0c e8b8 8827 6fce 7184
00000020: d60f 209a 9bc5 35d7 95b8 0b72 7189 4eed
00000030: 4dc9 8bba 905b d90f b80a e98e 62e5 5254
00000040: 709f fff3 4e37 061e cc29 bc4c db71 7a94
00000050: 8899 8392 ea42 fa2d f39c e89e 82fb 21cf
00000060: d5dc a923 977f add4 ab53 c256 5c0f 99cb
00000070: 71de 3fcd 1f9d 5a74 4906 f7e7 b491 c96e
00000080: 0106 542a 73a1 bca8 7271 83c0 3e79 9654
00000090: cadd 5a18 b4ee 880b 03f0 c6c9 c217 ee9f
000000a0: dfe6 c4fa 1791 da0c 8d61 d8a6 5add ed53
000000b0: 760c 2a25 7760 ee4b c71d 63e2 ad8a e9a4
000000c0: 81ab b120 e728 58a5 77c2 581e 4b93 9052
000000d0: d62c d8e7 41c6 75cf 9cb2 2bf3 73c3 5072
000000e0: 6c49 1372 52b2 75c0 ab94 8b5d 960c b06b
000000f0: 5acd d1cd 92d7 32cf 3210 c0c7 4108 ded6
3 -65 -109 19 38 38 96 -7
-62 78 42 -31 10 106 117 56
91 13 -34 73 58 -31 -67 12
-24 -72 -120 39 111 -50 113 -124
-42 15 32 -102 -101 -59 53 -41
-107 -72 11 114 113 -119 78 -19
77 -55 -117 -70 -112 91 -39 15
-72 10 -23 -114 98 -27 82 84
112 -97 -1 -13 78 55 6 30
-52 41 -68 76 -37 113 122 -108
-120 -103 -125 -110 -22 66 -6 45
-13 -100 -24 -98 -126 -5 33 -49
-43 -36 -87 35 -105 127 -83 -44
-85 83 -62 86 92 15 -103 -53
113 -34 63 -51 31 -99 90 116
73 6 -9 -25 -76 -111 -55 110
1 6 84 42 115 -95 -68 -88
114 113 -125 -64 62 121 -106 84
-54 -35 90 24 -76 -18 -120 11
3 -16 -58 -55 -62 23 -18 -97
-33 -26 -60 -6 23 -111 -38 12
-115 97 -40 -90 90 -35 -19 83
118 12 42 37 119 96 -18 75
-57 29 99 -30 -83 -118 -23 -92
-127 -85 -79 32 -25 40 88 -91
119 -62 88 30 75 -109 -112 82
-42 44 -40 -25 65 -58 117 -49
-100 -78 43 -13 115 -61 80 114
108 73 19 114 82 -78 117 -64
-85 -108 -117 93 -106 12 -80 107
90 -51 -47 -51 -110 -41 50 -49
50 16 -64 -57 65 8 -34 -42

model/mobilenetv2_0.50_64/block_10_depthwise_BN/FusedBatchNormV3;model/mobilenetv2_0.50_64/block_10_depthwise/depthwise i1 [1, 3, 3, 192]
00000000: cfe7 8138 7fff 02b2 27ba c040 9f60 5576
00000010: 59eb 4a0b e47a a234 fb02 e4d4 73a9 4933
00000020: 7c71 a7e8 817f 42e9 96de 84a9 8d54 a955
00000030: ad10 9e2b e120 6c19 babe c35e da2c a974
00000040: 6ffc b75f b614 0281 c309 59ed ee79 e546
00000050: cdf8 1017 17e4 9ca7 7c44 5ebe a44e 87ad
00000060: c346 81d9 7fd9 4235 5fe5 c0fe 0ec0 ac81
00000070: 7f81 ec16 c6ab 81f3 f87f 0457 289f ce5c
00000080: 1865 f370 08b3 58e7 8d1b 3ef5 5be8 eb22
00000090: c99b 204f 7f0d cc65 28e0 aedb a17f d435
000000a0: 3993 678d 7315 26a0 d8f7 813c b01f 3e41
000000b0: bc15 ab11 10d0 1939 494b ceeb 7a7f 397f
000000c0: 4f17 8d03 dca1 1891 28ff f19b d6ae 7f91
000000d0: f7b6 2f64 2c81 f330 4dba d20b 1342 2c70
000000e0: 4c06 1b4c cc26 fa7f fc12 1d7b 817f 016d
000000f0: c2be 8181 7fde 4f81 701a 8125 23ca 2781
-49 -25 -127 56 127 -1 2 -78
39 -70 -64 64 -97 96 85 118
89 -21 74 11 -28 122 -94 52
-5 2 -28 -44 115 -87 73 51
124 113 -89 -24 -127 127 66 -23
-106 -34 -124 -87 -115 84 -87 85
-83 16 -98 43 -31 32 108 25
-70 -66 -61 94 -38 44 -87 116
111 -4 -73 95 -74 20 2 -127
-61 9 89 -19 -18 121 -27 70
-51 -8 16 23 23 -28 -100 -89
124 68 94 -66 -92 78 -121 -83
-61 70 -127 -39 127 -39 66 53
95 -27 -64 -2 14 -64 -84 -127
127 -127 -20 22 -58 -85 -127 -13
-8 127 4 87 40 -97 -50 92
24 101 -13 112 8 -77 88 -25
-115 27 62 -11 91 -24 -21 34
-55 -101 32 79 127 13 -52 101
40 -32 -82 -37 -95 127 -44 53
57 -109 103 -115 115 21 38 -96
-40 -9 -127 60 -80 31 62 65
-68 21 -85 17 16 -48 25 57
73 75 -50 -21 122 127 57 127
79 23 -115 3 -36 -95 24 -111
40 -1 -15 -101 -42 -82 127 -111
-9 -74 47 100 44 -127 -13 48
77 -70 -46 11 19 66 44 112
76 6 27 76 -52 38 -6 127
-4 18 29 123 -127 127 1 109
-62 -66 -127 -127 127 -34 79 -127
112 26 -127 37 35 -54 39 -127

model/mobilenetv2_0.50_64/block_10_expand/Conv2D i1 [192, 1, 1, 32]
00000000: 8a14 08d6 f445 d50b 479e 3a33 139e 6e58
00000010: 38de 12ea 54b8 bcfd 76ca e1db 6f7f b40b
00000020: 0ba2 7235 2a32 aea7 be27 fd67 c14d 9a51
00000030: 4081 d4c1 5bd1 1df6 a4f3 f4c6 ef30 e9ee
00000040: 4f5f c46e b93a 1afc fa7b a981 c4bb e45b
00000050: 5111 3627 b66e d294 5b5b 3bb2 970d c790
00000060: e82e c0b0 5d97 4935 4f88 9cd9 2fe2 5786
00000070: 3b25 03b4 6c81 ce08 509c 8db6 d94d a599
00000080: 47f8 2ee3 12cd 2d55 bc1c 5e67 2672 0edb
00000090: ce73 9cfa 1e73 9f54 5860 b762 bb19 7f42
000000a0: 32de 02ac 4b92 3192 c161 81a9 970a 99ff
000000b0: dd86 a7d4 a74d 93f9 13c1 57b3 c96f 0618
000000c0: d692 6c8c f9f3 0a75 c7ad a241 3f26 5102
000000d0: 3da9 97f3 58b5 fd81 ab74 aab5 0dff 1110
000000e0: 8dad f437 62a3 f181 9d89 712a 6c74 1e67
000000f0: bcab 09a0 1b87 5da9 047b 9917 d2e2 a5d7
-118 20 8 -42 -12 69 -43 11
71 -98 58 51 19 -98 110 88
56 -34 18 -22 84 -72 -68 -3
118 -54 -31 -37 111 127 -76 11
11 -94 114 53 42 50 -82 -89
-66 39 -3 103 -63 77 -102 81
64 -127 -44 -63 91 -47 29 -10
-92 -13 -12 -58 -17 48 -23 -18
79 95 -60 110 -71 58 26 -4
-6 123 -87 -127 -60 -69 -28 91
81 17 54 39 -74 110 -46 -108
91 91 59 -78 -105 13 -57 -112
-24 46 -64 -80 93 -105 73 53
79 -120 -100 -39 47 -30 87 -122
59 37 3 -76 108 -127 -50 8
80 -100 -115 -74 -39 77 -91 -103
71 -8 46 -29 18 -51 45 85
-68 28 94 103 38 114 14 -37
-50 115 -100 -6 30 115 -97 84
88 96 -73 98 -69 25 127 66
50 -34 2 -84 75 -110 49 -110
-63 97 -127 -87 -105 10 -103 -1
-35 -122 -89 -44 -89 77 -109 -7
19 -63 87 -77 -55 111 6 24
-42 -110 108 -116 -7 -13 10 117
-57 -83 -94 65 63 38 81 2
61 -87 -105 -13 88 -75 -3 -127
-85 116 -86 -75 13 -1 17 16
-115 -83 -12 55 98 -93 -15 -127
-99 -119 113 42 108 116 30 103
-68 -85 9 -96 27 -121 93 -87
4 123 -103 23 -46 -30 -91 -41

model/mobilenetv2_0.50_64/block_9_project/Conv2D i1 [32, 1, 1, 192]
00000000: 4235 75ce 386b 3449 2db2 3e6a 8cee 5eb8
00000010: 09e8 5d75 f6fd e000 0f98 7d5e 5bac 8563
00000020: cf4e 09b1 8d4a b697 8d68 63f7 f7e5 39e1
00000030: b0fa 17ba 4939 eb95 1611 2317 cb65 599b
00000040: d439 5639 fb24 37e4 8b01 6af6 aad1 f912
00000050: 4670 48fb 8793 5abf 9dd4 c015 c94c 9850
00000060: 0ac2 8d42 8ad6 b5c5 7be1 2f98 d051 09f6
00000070: 42f5 b9a6 7110 6d51 0fa1 8d57 05db c5f9
00000080: 1087 68b0 9298 26da 3445 653e af5b 5831
00000090: 161f 70f4 d851 014c 6832 6ba0 5d50 c347
000000a0: 6cad f357 6132 76b0 dbba 94e4 0581 5a68
000000b0: 2293 ad4a fa27 3ada ccd0 297f 50d0 371c
000000c0: 5276 e939 0233 cf0b d8bb 18af 86f7 efc7
000000d0: 0e36 243c 2b20 4468 9326 e563 d96e a5c8
000000e0: 065e d3e6 3841 4668 c1ec 98a7 44db cff2
000000f0: 5e93 a88d e1f6 340c ffdc f84c ceb1 ff19
66 53 117 -50 56 107 52 73
45 -78 62 106 -116 -18 94 -72
9 -24 93 117 -10 -3 -32 0
15 -104 125 94 91 -84 -123 99
-49 78 9 -79 -115 74 -74 -105
-115 104 99 -9 -9 -27 57 -31
-80 -6 23 -70 73 57 -21 -107
22 17 35 23 -53 101 89 -101
-44 57 86 57 -5 36 55 -28
-117 1 106 -10 -86 -47 -7 18
70 112 72 -5 -121 -109 90 -65
-99 -44 -64 21 -55 76 -104 80
10 -62 -115 66 -118 -42 -75 -59
123 -31 47 -104 -48 81 9 -10
66 -11 -71 -90 113 16 109 81
15 -95 -115 87 5 -37 -59 -7
16 -121 104 -80 -110 -104 38 -38
52 69 101 62 -81 91 88 49
22 31 112 -12 -40 81 1 76
104 50 107 -96 93 80 -61 71
108 -83 -13 87 97 50 118 -80
-37 -70 -108 -28 5 -127 90 104
34 -109 -83 74 -6 39 58 -38
-52 -48 41 127 80 -48 55 28
82 118 -23 57 2 51 -49 11
-40 -69 24 -81 -122 -9 -17 -57
14 54 36 60 43 32 68 104
-109 38 -27 99 -39 110 -91 -56
6 94 -45 -26 56 65 70 104
-63 -20 -104 -89 68 -37 -49 -14
94 -109 -88 -115 -31 -10 52 12
-1 -36 -8 76 -50 -79 -1 25

model/mobilenetv2_0.50_64/block_9_depthwise_BN/FusedBatchNormV3;model/mobilenetv2_0.50_64/block_9_depthwise/depthwise;model/mobilenetv2_0.50_64/block_10_depthwise/depthwise i1 [1, 3, 3, 192]
00000000: 5618 df56 7fd9 9d50 9fcd 7ad5 f4af f2d6
00000010: a3bd a316 84f4 7f8a ff1b 1d01 f490 81a9
00000020: fa4e 5bc3 f82e 3226 c197 1947 a47f ae6e
00000030: 093d 0fdc 8fff 52e4 a3a9 e509 0eaa b16b
00000040: 1bae 6a7f 7f70 a892 ea7f e3e0 aa7f a4d2
00000050: 3e0a 9751 cb01 48ab eff7 d3db ceed 54c9
00000060: 3b12 5f53 fc4a 5860 bb68 f57f 2fcf 198d
00000070: b641 815c 8242 788a d8bc f3d1 f5a0 9cad
00000080: f2ce 8193 e8b2 1783 7ffa 2052 38ad 2323
00000090: 55e9 56e2 12f3 7fe0 81ba 96b0 3f5a ec0f
000000a0: e07f 9c0a 2379 d713 ea86 7e7a ba4c 9629
000000b0: f628 f33f f77f 5747 819e 2fbc 7f74 7f92
000000c0: 7f7f 81fa 1129 5e7f ff85 e8af 9e14 817f
000000d0: 5c88 46d2 81ed 4b65 adf2 dbf6 a92e 4a41
000000e0: 7f72 3d6b a9a2 754d 6a1f e84c 5891 fe7f
000000f0: 3d11 0116 95dd ec91 3dfa b3c5 cc8a 83e6
86 24 -33 86 127 -39 -99 80
-97 -51 122 -43 -12 -81 -14 -42
-93 -67 -93 22 -124 -12 127 -118
-1 27 29 1 -12 -112 -127 -87
-6 78 91 -61 -8 46 50 38
-63 -105 25 71 -92 127 -82 110
9 61 15 -36 -113 -1 82 -28
-93 -87 -27 9 14 -86 -79 107
27 -82 106 127 127 112 -88 -110
-22 127 -29 -32 -86 127 -92 -46
62 10 -105 81 -53 1 72 -85
-17 -9 -45 -37 -50 -19 84 -55
59 18 95 83 -4 74 88 96
-69 104 -11 127 47 -49 25 -115
-74 65 -127 92 -126 66 120 -118
-40 -68 -13 -47 -11 -96 -100 -83
-14 -50 -127 -109 -24 -78 23 -125
127 -6 32 82 56 -83 35 35
85 -23 86 -30 18 -13 127 -32
-127 -70 -106 -80 63 90 -20 15
-32 127 -100 10 35 121 -41 19
-22 -122 126 122 -70 76 -106 41
-10 40 -13 63 -9 127 87 71
-127 -98 47 -68 127 116 127 -110
127 127 -127 -6 17 41 94 127
-1 -123 -24 -81 -98 20 -127 127
92 -120 70 -46 -127 -19 75 101
-83 -14 -37 -10 -87 46 74 65
127 114 61 107 -87 -94 117 77
106 31 -24 76 88 -111 -2 127
61 17 1 22 -107 -35 -20 -111
61 -6 -77 -59 -52 -118 -125 -26

model/mobilenetv2_0.50_64/block_9_expand/Conv2D i1 [192, 1, 1, 32]
00000000: c544 76e9 fb6c b723 db83 cac9 32fe 4e81
00000010: abde d5c8 d1d9 61fb 762c 0c37 484f 4117
00000020: a764 c119 ff28 696f e17d 7bb9 4ed6 7464
00000030: 946e bf7a d8dd 97df 0408 d98f d684 3a81
00000040: 160d 1f20 7f86 797e e4ce 3cd7 c16c e274
00000050: a598 43dd d016 6eee 8830 10f5 20b5 ca2e
00000060: 8465 0057 8a11 0df2 2fb6 7408 95d2 b13f
00000070: 8192 14b3 6734 bd5d e2e8 d6ed 4fd3 ae84
00000080: 7a9f ae87 84c7 ace8 12b2 7fcc 7b52 4aad
00000090: 40bd 3125 0c36 a078 d61b 73f8 9335 2286
000000a0: 264b 6719 00c1 9c82 4d09 81ed 0e34 d045
000000b0: c3aa 6b5d 5b7a 6927 a10d 9da5 88ba 1210
000000c0: 9b74 d0cd 1f52 24c4 ac79 598b 6927 c0be
000000d0: df27 6ab9 988e 7d26 c165 be2a 5b55 81d4
000000e0: bc2f 3d07 2d46 c3f4 a310 5127 7db1 fc58
000000f0: 1e4a 9f7f d42b f9ed 3a71 7f6d 0a52 09aa
-59 68 118 -23 -5 108 -73 35
-37 -125 -54 -55 50 -2 78 -127
-85 -34 -43 -56 -47 -39 97 -5
118 44 12 55 72 79 65 23
-89 100 -63 25 -1 40 105 111
-31 125 123 -71 78 -42 116 100
-108 110 -65 122 -40 -35 -105 -33
4 8 -39 -113 -42 -124 58 -127
22 13 31 32 127 -122 121 126
-28 -50 60 -41 -63 108 -30 116
-91 -104 67 -35 -48 22 110 -18
-120 48 16 -11 32 -75 -54 46
-124 101 0 87 -118 17 13 -14
47 -74 116 8 -107 -46 -79 63
-127 -110 20 -77 103 52 -67 93
-30 -24 -42 -19 79 -45 -82 -124
122 -97 -82 -121 -124 -57 -84 -24
18 -78 127 -52 123 82 74 -83
64 -67 49 37 12 54 -96 120
-42 27 115 -8 -109 53 34 -122
38 75 103 25 0 -63 -100 -126
77 9 -127 -19 14 52 -48 69
-61 -86 107 93 91 122 105 39
-95 13 -99 -91 -120 -70 18 16
-101 116 -48 -51 31 82 36 -60
-84 121 89 -117 105 39 -64 -66
-33 39 106 -71 -104 -114 125 38
-63 101 -66 42 91 85 -127 -44
-68 47 61 7 45 70 -61 -12
-93 16 81 39 125 -79 -4 88
30 74 -97 127 -44 43 -7 -19
58 113 127 109 10 82 9 -86

model/mobilenetv2_0.50_64/block_8_project/Conv2D i1 [32, 1, 1, 192]
00000000: 9381 786f 66f0 0dba 29f1 6e57 20d3 0df8
00000010: 764a e577 6a87 a441 cbac 2004 e538 f01e
00000020: dac5 220a f139 32df 8e89 8e68 5a30 ac5a
00000030: 04d0 57dd 0024 a2ee 3aa0 5387 b2da f046
00000040: a1e5 dac0 d086 af2e 2021 0de8 06a1 2af6
00000050: f8b3 e2a3 b93f b6e7 56b4 6898 2fbd dd04
00000060: 1fe1 48c4 b650 bc0c 6704 0a9a ac00 8632
00000070: 3ab8 a830 4b27 a4cb 833c eb64 2a55 c6df
00000080: d98e 102d c95c 5a18 94bb 6c4e d578 7300
00000090: cdd9 3ebe e220 b469 8ba9 7464 6c5d 3cad
000000a0: 3453 5dea b45a 9925 6943 d70a def7 22db
000000b0: 4c30 ef90 9b66 132b f0b9 f09d 581e 51be
000000c0: 5dcb b186 1368 d0c2 9af7 abdf 3450 72ab
000000d0: d6a6 05f7 12d2 cafa 0e47 11a8 b2f0 6044
000000e0: 1946 02b9 2d28 ca0f 1fcc ed0e 60fd a774
000000f0: f3a5 63ed a768 0948 a8a8 4c24 3f9e d239
-109 -127 120 111 102 -16 13 -70
41 -15 110 87 32 -45 13 -8
118 74 -27 119 106 -121 -92 65
-53 -84 32 4 -27 56 -16 30
-38 -59 34 10 -15 57 50 -33
-114 -119 -114 104 90 48 -84 90
4 -48 87 -35 0 36 -94 -18
58 -96 83 -121 -78 -38 -16 70
-95 -27 -38 -64 -48 -122 -81 46
32 33 13 -24 6 -95 42 -10
-8 -77 -30 -93 -71 63 -74 -25
86 -76 104 -104 47 -67 -35 4
31 -31 72 -60 -74 80 -68 12
103 4 10 -102 -84 0 -122 50
58 -72 -88 48 75 39 -92 -53
-125 60 -21 100 42 85 -58 -33
-39 -114 16 45 -55 92 90 24
-108 -69 108 78 -43 120 115 0
-51 -39 62 -66 -30 32 -76 105
-117 -87 116 100 108 93 60 -83
52 83 93 -22 -76 90 -103 37
105 67 -41 10 -34 -9 34 -37
76 48 -17 -112 -101 102 19 43
-16 -71 -16 -99 88 30 81 -66
93 -53 -79 -122 19 104 -48 -62
-102 -9 -85 -33 52 80 114 -85
-42 -90 5 -9 18 -46 -54 -6
14 71 17 -88 -78 -16 96 68
25 70 2 -71 45 40 -54 15
31 -52 -19 14 96 -3 -89 116
-13 -91 99 -19 -89 104 9 72
-88 -88 76 36 63 -98 -46 57
