compression/mobilenetv2/float_fallback_quantization/models_compressed/model_pump.tflite (tflite, 975464 bytes, 53 tensors)

model/mobilenetv2_0.50_64/predictions/MatMul i1 [3, 1280] scale=0.0008858645 zero_point=0
000000 46 03 d0 0f 1a 11 d1 c3 41 b7 ed 01 17 cf 44 f2
       0.062010515 0.0026575935 -0.042521495 0.013287967 0.023032477 0.0150596965 -0.041635633 -0.054037735 0.05758119 -0.064668104 -0.016831426 0.0008858645 0.020374883 -0.04340736 0.060238786 -0.012402102
000010 ec 11 c2 21 f0 b9 12 23 48 db 2b df cf ed 09 d7
       -0.01771729 0.0150596965 -0.054923598 0.029233528 -0.014173832 -0.06289638 0.015945561 0.031005258 0.063782245 -0.032776985 0.038092174 -0.029233528 -0.04340736 -0.016831426 0.007972781 -0.036320444
000020 33 ee 0a 3c 1c fb 12 3b 1b c9 b7 c9 00 f7 bf 11
       0.045179088 -0.015945561 0.008858645 0.05315187 0.024804205 -0.0044293227 0.015945561 0.052266005 0.023918342 -0.048722547 -0.064668104 -0.048722547 0.0 -0.007972781 -0.05758119 0.0150596965
000030 ba 21 f1 ca 12 ba 12 2d ed 05 dc 30 17 f7 4b ff
       -0.062010515 0.029233528 -0.013287967 -0.047836684 0.015945561 -0.062010515 0.015945561 0.039863903 -0.016831426 0.0044293227 -0.031891122 0.042521495 0.020374883 -0.007972781 0.06643984 -0.0008858645
000040 3c c9 35 de c3 3e 25 e4 19 1d b7 3e b6 b5 2b d4
       0.05315187 -0.048722547 0.046950817 -0.030119393 -0.054037735 0.054923598 0.032776985 -0.024804205 0.022146612 0.02569007 -0.064668104 0.054923598 -0.06555397 -0.06643984 0.038092174 -0.038978036
000050 02 46 c7 f9 ee b4 cf d1 e6 0a 3a 02 de d0 db 1c
       0.001771729 0.062010515 -0.050494276 -0.006201051 -0.015945561 -0.067325704 -0.04340736 -0.041635633 -0.023032477 0.008858645 0.05138014 0.001771729 -0.030119393 -0.042521495 -0.032776985 0.024804205
000060 be b9 4f 13 2e cd 0a 3b 2e e8 bb ef 31 f5 d7 1d
       -0.058467057 -0.06289638 0.069983296 0.016831426 0.040749766 -0.045179088 0.008858645 0.052266005 0.040749766 -0.021260748 -0.06112465 -0.0150596965 0.04340736 -0.009744509 -0.036320444 0.02569007
000070 d6 cd bb 2d 01 f5 f8 13 00 05 b4 41 df ec fc 43
       -0.037206307 -0.045179088 -0.06112465 0.039863903 0.0008858645 -0.009744509 -0.007086916 0.016831426 0.0 0.0044293227 -0.067325704 0.05758119 -0.029233528 -0.01771729 -0.003543458 0.05935292
000080 4b e2 be d9 bd d7 c7 3e 37 c5 2c fb de 3f 43 3e
       0.06643984 -0.026575934 -0.058467057 -0.034548715 -0.05935292 -0.036320444 -0.050494276 0.054923598 0.048722547 -0.052266005 0.038978036 -0.0044293227 -0.030119393 0.055809464 0.05935292 0.054923598
000090 01 19 4e f4 b7 06 03 3f 03 33 17 34 e1 4a ce e6
       0.0008858645 0.022146612 0.06909743 -0.010630374 -0.064668104 0.005315187 0.0026575935 0.055809464 0.0026575935 0.045179088 0.020374883 0.046064954 -0.027461799 0.06555397 -0.044293225 -0.023032477
0000a0 ba 26 bc 37 11 3f 0a 10 c6 26 1b 33 fe e2 f4 08
       -0.062010515 0.033662852 -0.060238786 0.048722547 0.0150596965 0.055809464 0.008858645 0.014173832 -0.05138014 0.033662852 0.023918342 0.045179088 -0.001771729 -0.026575934 -0.010630374 0.007086916
0000b0 1c 2c d7 d4 3f 23 e9 4c cc 20 48 d5 f4 3d f0 45
       0.024804205 0.038978036 -0.036320444 -0.038978036 0.055809464 0.031005258 -0.020374883 0.067325704 -0.046064954 0.028347664 0.063782245 -0.038092174 -0.010630374 0.054037735 -0.014173832 0.06112465
0000c0 c7 d9 ba 42 d9 b4 29 d3 0f c8 16 2c 3a 00 50 c1
       -0.050494276 -0.034548715 -0.062010515 0.058467057 -0.034548715 -0.067325704 0.036320444 -0.039863903 0.013287967 -0.04960841 0.019489018 0.038978036 0.05138014 0.0 0.07086916 -0.055809464
0000d0 1b 29 27 3f d4 28 34 16 c4 41 ec 4c 0e dd cc e4
       0.023918342 0.036320444 0.034548715 0.055809464 -0.038978036 0.03543458 0.046064954 0.019489018 -0.05315187 0.05758119 -0.01771729 0.067325704 0.012402102 -0.031005258 -0.046064954 -0.024804205
0000e0 14 c1 cf c5 da 00 44 31 ea 2d df 2c 01 bd 1f 47
       0.01771729 -0.055809464 -0.04340736 -0.052266005 -0.033662852 0.0 0.060238786 0.04340736 -0.019489018 0.039863903 -0.029233528 0.038978036 0.0008858645 -0.05935292 0.027461799 0.06289638
0000f0 26 ed f4 06 07 fd 40 d2 11 ba e2 ed e6 43 d7 f5
       0.033662852 -0.016831426 -0.010630374 0.005315187 0.006201051 -0.0026575935 0.056695327 -0.040749766 0.0150596965 -0.062010515 -0.026575934 -0.016831426 -0.023032477 0.05935292 -0.036320444 -0.009744509

model/mobilenetv2_0.50_64/Conv_1/Conv2D i1 [1280, 1, 1, 160]
000000 41 33 39 0f a2 01 07 d4 b9 ff cf d2 bc 14 bb c0
       65 51 57 15 -94 1 7 -44 -71 -1 -49 -46 -68 20 -69 -64
000010 ba d6 f5 b1 65 d3 d1 12 01 81 36 71 89 5b c4 a1
       -70 -42 -11 -79 101 -45 -47 18 1 -127 54 113 -119 91 -60 -95
000020 4e 6f 38 13 dd de 4f 57 ca b4 d4 8b 25 4b 38 0a
       78 111 56 19 -35 -34 79 87 -54 -76 -44 -117 37 75 56 10
000030 d2 51 65 3d cc a0 29 49 6a ec ce 2a c7 cb 46 b3
       -46 81 101 61 -52 -96 41 73 106 -20 -50 42 -57 -53 70 -77
000040 91 ae 3f df a0 2b 32 61 ac bd 0d 06 08 d7 bc 08
       -111 -82 63 -33 -96 43 50 97 -84 -67 13 6 8 -41 -68 8
000050 b3 bf 65 51 0c 06 b0 36 ba 10 96 1a d3 2e 72 3c
       -77 -65 101 81 12 6 -80 54 -70 16 -106 26 -45 46 114 60
000060 54 56 2f 17 ca c3 ad a1 1f 1f 9f c3 13 1c 4a 77
       84 86 47 23 -54 -61 -83 -95 31 31 -97 -61 19 28 74 119
000070 c5 20 05 95 8d 57 72 06 38 b5 01 1e 61 d6 c3 47
       -59 32 5 -107 -115 87 114 6 56 -75 1 30 97 -42 -61 71
000080 13 d0 dc 99 ff 33 ef ab 13 56 0c cc a8 fc 03 a2
       19 -48 -36 -103 -1 51 -17 -85 19 86 12 -52 -88 -4 3 -94
000090 6a ba fc 09 a3 04 03 ac 39 3b 49 99 f7 3a 90 d8
       106 -70 -4 9 -93 4 3 -84 57 59 73 -103 -9 58 -112 -40
0000a0 a2 11 bf 78 30 03 ce 3a 04 58 3b d5 26 af 2a d2
       -94 17 -65 120 48 3 -50 58 4 88 59 -43 38 -81 42 -46
0000b0 fa b0 0b 2f e5 69 98 59 e0 24 1f 2b dc 32 e7 e3
       -6 -80 11 47 -27 105 -104 89 -32 36 31 43 -36 50 -25 -29
0000c0 ea 36 57 b7 9b 2b 2b e1 d7 b7 67 e3 23 d1 52 bd
       -22 54 87 -73 -101 43 43 -31 -41 -73 103 -29 35 -47 82 -67
0000d0 c4 ee 3c 1c 95 09 51 aa 05 ce 94 eb 94 b2 ee 59
       -60 -18 60 28 -107 9 81 -86 5 -50 -108 -21 -108 -78 -18 89
0000e0 c1 e6 56 a7 5f bd 60 52 84 14 dd e3 1d 05 2c fe
       -63 -26 86 -89 95 -67 96 82 -124 20 -35 -29 29 5 44 -2
0000f0 10 14 a7 32 a3 5d f5 bf 0b b7 2b 09 dd d3 20 dc
       16 20 -89 50 -93 93 -11 -65 11 -73 43 9 -35 -45 32 -36

model/mobilenetv2_0.50_64/block_16_project/Conv2D i1 [160, 1, 1, 480]
000000 cb ec 3e dc 3d d6 ae a3 b8 a2 c0 45 cb 1b b0 a5
       -53 -20 62 -36 61 -42 -82 -93 -72 -94 -64 69 -53 27 -80 -91
000010 33 2e ac 3c 4e ba 92 fb 53 3c dd 07 db d4 5c a0
       51 46 -84 60 78 -70 -110 -5 83 60 -35 7 -37 -44 92 -96
000020 cf fc 97 4a b3 77 d4 5e 91 9f 1a 4b 5a 2a bc 9b
       -49 -4 -105 74 -77 119 -44 94 -111 -97 26 75 90 42 -68 -101
000030 5b 3a 2b 34 45 26 fc c7 67 c2 f4 2b 2d 50 5b cb
       91 58 43 52 69 38 -4 -57 103 -62 -12 43 45 80 91 -53
000040 13 12 93 3d 09 91 11 8f 8c 76 90 f3 b9 c3 36 0d
       19 18 -109 61 9 -111 17 -113 -116 118 -112 -13 -71 -61 54 13
000050 52 8a 16 01 e7 6f f7 f3 a1 12 3c ca e4 29 6c d4
       82 -118 22 1 -25 111 -9 -13 -95 18 60 -54 -28 41 108 -44
000060 9c 5a be ea 6f 52 ec 61 c7 ea ff 51 c5 58 c4 db
       -100 90 -66 -22 111 82 -20 97 -57 -22 -1 81 -59 88 -60 -37
000070 a5 c4 42 b0 ec 0b a6 be c5 d0 e9 53 3d a9 0a 97
       -91 -60 66 -80 -20 11 -90 -66 -59 -48 -23 83 61 -87 10 -105
000080 72 50 91 c2 4e d9 32 95 fc d4 13 d2 1f f5 b7 38
       114 80 -111 -62 78 -39 50 -107 -4 -44 19 -46 31 -11 -73 56
000090 d3 1a 51 1a 52 f3 39 f7 a2 98 b1 f3 63 4b 0a 13
       -45 26 81 26 82 -13 57 -9 -94 -104 -79 -13 99 75 10 19
0000a0 eb 9a df 6c 94 2f 0d cf 60 4b d3 eb 04 ab 24 38
       -21 -102 -33 108 -108 47 13 -49 96 75 -45 -21 4 -85 36 56
0000b0 ee 10 61 16 59 bd 1c 5b 77 4b cf c7 e4 ad 43 d4
       -18 16 97 22 89 -67 28 91 119 75 -49 -57 -28 -83 67 -44
0000c0 cd 0d 68 5f a2 c5 94 e6 3c 91 fa 60 d5 f8 2e ae
       -51 13 104 95 -94 -59 -108 -26 60 -111 -6 96 -43 -8 46 -82
0000d0 c0 3e d9 d9 be 14 a3 f7 a5 e6 b9 52 b7 b4 b4 66
       -64 62 -39 -39 -66 20 -93 -9 -91 -26 -71 82 -73 -76 -76 102
0000e0 19 e2 c7 21 c4 e2 a3 8c 63 29 13 5b 56 45 f4 d1
       25 -30 -57 33 -60 -30 -93 -116 99 41 19 91 86 69 -12 -47
0000f0 ea bc 4c e8 7c e4 12 30 65 b1 c4 69 28 b7 b8 c5
       -22 -68 76 -24 124 -28 18 48 101 -79 -60 105 40 -73 -72 -59

model/mobilenetv2_0.50_64/block_16_depthwise_BN/FusedBatchNormV3;model/mobilenetv2_0.50_64/block_16_depthwise/depthwise i1 [1, 3, 3, 480]
000000 ff cc 52 bf a2 54 81 2d 0a 1c 11 3a a8 a1 7f b2
       -1 -52 82 -65 -94 84 -127 45 10 28 17 58 -88 -95 127 -78
000010 7a 0f 8a 7f e4 11 47 c0 38 6a bd 81 7f 7f 3a 40
       122 15 -118 127 -28 17 71 -64 56 106 -67 -127 127 127 58 64
000020 bb 7f 8d f0 95 f9 0c 09 26 89 1d 8a ca ff 49 12
       -69 127 -115 -16 -107 -7 12 9 38 -119 29 -118 -54 -1 73 18
000030 ba 24 40 8a dd f6 90 9a d2 21 7f ef 05 3d 7f 78
       -70 36 64 -118 -35 -10 -112 -102 -46 33 127 -17 5 61 127 120
000040 b2 81 63 17 d7 1a ac 43 b6 04 f8 47 cb 02 56 a6
       -78 -127 99 23 -41 26 -84 67 -74 4 -8 71 -53 2 86 -90
000050 55 3e 08 8c 49 da aa c0 dd 59 8e e6 a5 03 7f 28
       85 62 8 -116 73 -38 -86 -64 -35 89 -114 -26 -91 3 127 40
000060 d6 0c 04 81 eb 81 9f b8 1e 5b 4c 1b 8f 48 74 09
       -42 12 4 -127 -21 -127 -97 -72 30 91 76 27 -113 72 116 9
000070 d9 7f 48 26 eb 90 c1 63 ec 81 e4 ff 7a 7e 02 81
       -39 127 72 38 -21 -112 -63 99 -20 -127 -28 -1 122 126 2 -127
000080 6f c1 35 7f 0e 66 59 f0 74 ef 9f bc 7f 09 5d da
       111 -63 53 127 14 102 89 -16 116 -17 -97 -68 127 9 93 -38
000090 93 10 28 a7 c9 5a 81 6c 23 5b 76 9e f8 96 a6 81
       -109 16 40 -89 -55 90 -127 108 35 91 118 -98 -8 -106 -90 -127
0000a0 b5 4b 81 07 79 a5 11 c7 7f 1d 60 8a 0c f9 f8 39
       -75 75 -127 7 121 -91 17 -57 127 29 96 -118 12 -7 -8 57
0000b0 34 74 42 17 99 6f 08 a9 81 3b 39 2c 9b d7 35 dc
       52 116 66 23 -103 111 8 -87 -127 59 57 44 -101 -41 53 -36
0000c0 d5 29 4e e1 48 81 ce 9a 1d c3 81 95 7f 08 b2 fe
       -43 41 78 -31 72 -127 -50 -102 29 -61 -127 -107 127 8 -78 -2
0000d0 99 09 7f 8c 81 fc 81 7f 04 81 5e 5b a3 7f 2b 24
       -103 9 127 -116 -127 -4 -127 127 4 -127 94 91 -93 127 43 36
0000e0 10 1b 33 97 be 81 7f 7f 7f ee 8e fe 82 7f 81 53
       16 27 51 -105 -66 -127 127 127 127 -18 -114 -2 -126 127 -127 83
0000f0 20 3b 30 46 3d c0 81 7f 7e 07 81 95 d5 fe 2e 02
       32 59 48 70 61 -64 -127 127 126 7 -127 -107 -43 -2 46 2

model/mobilenetv2_0.50_64/block_16_expand/Conv2D i1 [480, 1, 1, 80]
000000 eb ba f2 47 14 51 3e 87 4d 3c b0 02 bf 55 5f 73
       -21 -70 -14 71 20 81 62 -121 77 60 -80 2 -65 85 95 115
000010 43 a7 ff de 56 37 d5 0c ec 22 ba ae 74 51 5e 98
       67 -89 -1 -34 86 55 -43 12 -20 34 -70 -82 116 81 94 -104
000020 e9 3b ac eb 95 4e ed 7a aa 31 43 05 c8 8a 13 7f
       -23 59 -84 -21 -107 78 -19 122 -86 49 67 5 -56 -118 19 127
000030 1f e9 17 f7 f9 26 6d 1f c5 1d d7 df 8b 9e aa 23
       31 -23 23 -9 -7 38 109 31 -59 29 -41 -33 -117 -98 -86 35
000040 c4 0c 0b bc f5 0f 15 bf 2a ea cb f2 cc 10 93 51
       -60 12 11 -68 -11 15 21 -65 42 -22 -53 -14 -52 16 -109 81
000050 cf 9f a4 9a 5c 42 a3 b8 fa f9 a0 45 64 b1 2b c8
       -49 -97 -92 -102 92 66 -93 -72 -6 -7 -96 69 100 -79 43 -56
000060 3e 4d 2a 59 2e 5e 47 81 4c bb 49 f3 98 d1 bc df
       62 77 42 89 46 94 71 -127 76 -69 73 -13 -104 -47 -68 -33
000070 f8 fa 2e 10 db 31 2e e3 1f dd be 78 6e 53 13 f5
       -8 -6 46 16 -37 49 46 -29 31 -35 -66 120 110 83 19 -11
000080 ca 60 e0 e4 a9 c6 35 01 e4 a6 e6 dc 0e ff 64 63
       -54 96 -32 -28 -87 -58 53 1 -28 -90 -26 -36 14 -1 100 99
000090 1b b9 fa 42 05 df 3f 63 31 a8 40 e2 1c 8c ae 45
       27 -71 -6 66 5 -33 63 99 49 -88 64 -30 28 -116 -82 69
0000a0 d3 49 e1 ca ff 6e ff 56 b5 be 09 2c ac 4d ee e2
       -45 73 -31 -54 -1 110 -1 86 -75 -66 9 44 -84 77 -18 -30
0000b0 2d b9 4e 0e 46 a8 9f 72 59 28 9c b7 91 c1 6b 6d
       45 -71 78 14 70 -88 -97 114 89 40 -100 -73 -111 -63 107 109
0000c0 92 6b 6c 2a d4 78 9b 9b 17 b5 dc 54 12 dd e2 11
       -110 107 108 42 -44 120 -101 -101 23 -75 -36 84 18 -35 -30 17
0000d0 b8 28 c6 e5 7f 6a 79 ee 2c ef c3 42 8c 11 70 cc
       -72 40 -58 -27 127 106 121 -18 44 -17 -61 66 -116 17 112 -52
0000e0 aa ed d9 a7 39 a0 e5 22 fe 5a f4 ed dd 56 66 93
       -86 -19 -39 -89 57 -96 -27 34 -2 90 -12 -19 -35 86 102 -109
0000f0 4a c0 14 f4 d9 57 12 d2 69 67 4e 8a 2d ca 29 ba
       74 -64 20 -12 -39 87 18 -46 105 103 78 -118 45 -54 41 -70

model/mobilenetv2_0.50_64/block_15_project/Conv2D i1 [80, 1, 1, 480]
000000 37 d2 5c ae 95 2c 8e ae 43 6f 3d b1 6e e4 e5 24
       55 -46 92 -82 -107 44 -114 -82 67 111 61 -79 110 -28 -27 36
000010 b5 a1 42 c3 5b e5 9d e0 a3 1b 45 6c ff ad 66 20
       -75 -95 66 -61 91 -27 -99 -32 -93 27 69 108 -1 -83 102 32
000020 1d b2 0e a4 de 6c 5e b0 68 3f 97 6b 66 45 20 ab
       29 -78 14 -92 -34 108 94 -80 104 63 -105 107 102 69 32 -85
000030 00 49 0b cc 38 5d 86 ef ae 69 e7 ca 18 ad c3 51
       0 73 11 -52 56 93 -122 -17 -82 105 -25 -54 24 -83 -61 81
000040 b1 08 b5 45 c3 6d af cd 15 c8 05 bc f0 d7 fa 52
       -79 8 -75 69 -61 109 -81 -51 21 -56 5 -68 -16 -41 -6 82
000050 06 c3 ff c3 0d b4 7d d4 d0 fb df 07 3a 18 39 f4
       6 -61 -1 -61 13 -76 125 -44 -48 -5 -33 7 58 24 57 -12
000060 0b dd af 77 5c cc af f2 38 16 a6 47 dd 3c 96 22
       11 -35 -81 119 92 -52 -81 -14 56 22 -90 71 -35 60 -106 34
000070 03 31 5f b0 4f c5 f5 0d f1 a3 fd fe c0 75 15 35
       3 49 95 -80 79 -59 -11 13 -15 -93 -3 -2 -64 117 21 53
000080 74 f6 74 9f 1d fb 25 d7 88 5b 02 73 73 b8 46 3c
       116 -10 116 -97 29 -5 37 -41 -120 91 2 115 115 -72 70 60
000090 d7 8b 6f 08 9b 08 4e 51 bb 5e 6c ce 95 88 01 39
       -41 -117 111 8 -101 8 78 81 -69 94 108 -50 -107 -120 1 57
0000a0 ed f4 23 f1 97 c1 63 6e 20 34 31 89 54 01 4f 8e
       -19 -12 35 -15 -105 -63 99 110 32 52 49 -119 84 1 79 -114
0000b0 4a 48 0e 95 b4 26 2f cf e4 01 99 33 74 6b 92 9b
       74 72 14 -107 -76 38 47 -49 -28 1 -103 51 116 107 -110 -101
0000c0 68 e5 81 c9 1c 64 f6 09 2d fc ec 76 77 ef 9f 63
       104 -27 -127 -55 28 100 -10 9 45 -4 -20 118 119 -17 -97 99
0000d0 57 16 a5 01 11 0a 6f 8f f4 46 63 8f 85 94 f1 23
       87 22 -91 1 17 10 111 -113 -12 70 99 -113 -123 -108 -15 35
0000e0 fe d3 14 b8 9b 5c a7 c0 3c 54 92 30 bb 02 97 9f
       -2 -45 20 -72 -101 92 -89 -64 60 84 -110 48 -69 2 -105 -97
0000f0 bc 19 fb 6d f8 ce 57 76 9a 2e db 30 10 3c 90 4e
       -68 25 -5 109 -8 -50 87 118 -102 46 -37 48 16 60 -112 78

model/mobilenetv2_0.50_64/block_15_depthwise_BN/FusedBatchNormV3;model/mobilenetv2_0.50_64/block_15_depthwise/depthwise;model/mobilenetv2_0.50_64/block_16_depthwise/depthwise i1 [1, 3, 3, 480]
000000 69 41 81 b5 a6 81 cb aa df f2 3f 70 10 81 5f e0
       105 65 -127 -75 -90 -127 -53 -86 -33 -14 63 112 16 -127 95 -32
000010 0e 49 0b 20 e6 f1 d4 7f b1 37 3f f1 02 fc 51 bc
       14 73 11 32 -26 -15 -44 127 -79 55 63 -15 2 -4 81 -68
000020 8e f9 f9 7a c5 3b 3f f4 5f 6c ad 61 7f c1 81 0e
       -114 -7 -7 122 -59 59 63 -12 95 108 -83 97 127 -63 -127 14
000030 db 41 7f 5a e3 7e bb b8 7f dd c8 86 ad c1 09 a8
       -37 65 127 90 -29 126 -69 -72 127 -35 -56 -122 -83 -63 9 -88
000040 46 7f e9 f1 73 ad 1a 1b 7b 7f e1 f2 b9 6e e3 ec
       70 127 -23 -15 115 -83 26 27 123 127 -31 -14 -71 110 -29 -20
000050 09 51 fb ca d3 cf fb fc 17 7f 9c 32 8a 92 e8 8b
       9 81 -5 -54 -45 -49 -5 -4 23 127 -100 50 -118 -110 -24 -117
000060 89 1f 17 70 87 81 c0 09 05 bc 51 a1 c4 0d 9d 81
       -119 31 23 112 -121 -127 -64 9 5 -68 81 -95 -60 13 -99 -127
000070 2d 78 c0 81 4a 12 52 c5 4a 07 72 9c 29 65 2e b0
       45 120 -64 -127 74 18 82 -59 74 7 114 -100 41 101 46 -80
000080 37 0a 0d ae d1 f6 1f 74 7e 7b 48 c3 9d ad c4 99
       55 10 13 -82 -47 -10 31 116 126 123 72 -61 -99 -83 -60 -103
000090 8d 59 48 75 02 d9 0b 11 b8 37 1b 54 13 45 81 fa
       -115 89 72 117 2 -39 11 17 -72 55 27 84 19 69 -127 -6
0000a0 81 76 03 26 3d fb 61 05 e8 81 e5 9b 8a 81 26 c2
       -127 118 3 38 61 -5 97 5 -24 -127 -27 -101 -118 -127 38 -62
0000b0 66 71 5e f6 5c 98 b5 02 e0 01 c5 2b 6b 08 90 11
       102 113 94 -10 92 -104 -75 2 -32 1 -59 43 107 8 -112 17
0000c0 1a 4d 93 b1 03 ac 81 8f bb fd b4 2b 38 c5 03 b3
       26 77 -109 -79 3 -84 -127 -113 -69 -3 -76 43 56 -59 3 -77
0000d0 6d 09 ae 8d 73 1b 03 86 58 d8 e0 6a 3f 88 75 e4
       109 9 -82 -115 115 27 3 -122 88 -40 -32 106 63 -120 117 -28
0000e0 b5 23 ae 41 54 21 21 7f 7f c0 02 67 81 ae 4d ab
       -75 35 -82 65 84 33 33 127 127 -64 2 103 -127 -82 77 -85
0000f0 59 95 13 5f 6d 0c e9 8e 2e 3b 89 26 62 33 48 89
       89 -107 19 95 109 12 -23 -114 46 59 -119 38 98 51 72 -119

model/mobilenetv2_0.50_64/block_15_expand/Conv2D i1 [480, 1, 1, 80]
000000 f3 44 3c 3d 06 0d 68 5a c7 a0 00 35 98 d4 46 f5
       -13 68 60 61 6 13 104 90 -57 -96 0 53 -104 -44 70 -11
000010 d8 e5 ef 9e 57 ce 9f cf 56 12 a5 71 8a 62 00 c3
       -40 -27 -17 -98 87 -50 -97 -49 86 18 -91 113 -118 98 0 -61
000020 8c 57 9d 45 f2 83 79 5f 8a 31 8c b7 e9 1b fd 5b
       -116 87 -99 69 -14 -125 121 95 -118 49 -116 -73 -23 27 -3 91
000030 b8 e1 d3 13 09 bc d6 2a 14 67 47 9b 12 47 e1 46
       -72 -31 -45 19 9 -68 -42 42 20 103 71 -101 18 71 -31 70
000040 de 7f 5d b0 ea 83 8e 10 ae b1 2c d6 34 3d d3 bb
       -34 127 93 -80 -22 -125 -114 16 -82 -79 44 -42 52 61 -45 -69
000050 08 ee 7d 39 0c bf 96 cb 92 3b a9 ac ad 43 db e7
       8 -18 125 57 12 -65 -106 -53 -110 59 -87 -84 -83 67 -37 -25
000060 c7 26 01 98 38 cb 7b 43 4e 20 65 bb ba 70 b1 66
       -57 38 1 -104 56 -53 123 67 78 32 101 -69 -70 112 -79 102
000070 c6 05 86 c5 4c 52 5f bd 4f 12 5f f0 e2 4a 56 43
       -58 5 -122 -59 76 82 95 -67 79 18 95 -16 -30 74 86 67
000080 f4 a3 07 41 17 75 17 de 7f fd f2 fb 64 9f a5 f0
       -12 -93 7 65 23 117 23 -34 127 -3 -14 -5 100 -97 -91 -16
000090 c0 a0 76 cc 8d f1 5a 4a 25 77 52 36 e5 72 2d bc
       -64 -96 118 -52 -115 -15 90 74 37 119 82 54 -27 114 45 -68
0000a0 df c1 de 74 53 4c 8e 59 78 ed 65 c6 ae aa b0 09
       -33 -63 -34 116 83 76 -114 89 120 -19 101 -58 -82 -86 -80 9
0000b0 63 e9 6b 13 34 62 b0 a5 e6 96 8e 00 70 0f 65 e0
       99 -23 107 19 52 98 -80 -91 -26 -106 -114 0 112 15 101 -32
0000c0 f4 c7 40 b8 9d ed ee e7 38 8f f2 af c3 57 e7 1c
       -12 -57 64 -72 -99 -19 -18 -25 56 -113 -14 -81 -61 87 -25 28
0000d0 0c b0 7f 5b 1a 05 a8 1c 06 53 14 cf 19 c9 08 48
       12 -80 127 91 26 5 -88 28 6 83 20 -49 25 -55 8 72
0000e0 6a 8b fe df 0a e2 e4 e6 ac d9 43 09 02 5a 56 fb
       106 -117 -2 -33 10 -30 -28 -26 -84 -39 67 9 2 90 86 -5
0000f0 6f a7 18 a2 e6 bc ba b9 6a aa 81 d3 6a 94 a8 90
       111 -89 24 -94 -26 -68 -70 -71 106 -86 -127 -45 106 -108 -88 -112

model/mobilenetv2_0.50_64/block_14_project/Conv2D i1 [80, 1, 1, 480]
000000 96 e8 b8 91 96 93 66 8b 46 af 40 e0 f7 0f c4 48
       -106 -24 -72 -111 -106 -109 102 -117 70 -81 64 -32 -9 15 -60 72
000010 92 ed ca c8 6d 5d f4 0b 47 9e 46 c3 09 13 1c 64
       -110 -19 -54 -56 109 93 -12 11 71 -98 70 -61 9 19 28 100
000020 60 4a 3d 05 66 72 e7 1c 1b 32 ae 24 9d 0e 43 9a
       96 74 61 5 102 114 -25 28 27 50 -82 36 -99 14 67 -102
000030 ce 60 74 0c 47 e7 d0 d1 66 69 a8 07 61 5c 11 b6
       -50 96 116 12 71 -25 -48 -47 102 105 -88 7 97 92 17 -74
000040 8b 0c 0d 99 db f7 d1 bc 41 36 ad 70 e8 d5 3c 24
       -117 12 13 -103 -37 -9 -47 -68 65 54 -83 112 -24 -43 60 36
000050 98 1c 55 37 95 a8 0e 19 97 6e 2a 38 24 45 1a 58
       -104 28 85 55 -107 -88 14 25 -105 110 42 56 36 69 26 88
000060 ae 52 e9 92 b6 38 f0 4c bf ac 2c 62 a1 fb c1 c0
       -82 82 -23 -110 -74 56 -16 76 -65 -84 44 98 -95 -5 -63 -64
000070 a7 8b e9 dd 6e 99 b1 aa e1 bc 4f bc 5a e0 94 67
       -89 -117 -23 -35 110 -103 -79 -86 -31 -68 79 -68 90 -32 -108 103
000080 1e 65 b0 3f e5 7d f3 62 bb 00 31 05 c6 ac 41 2e
       30 101 -80 63 -27 125 -13 98 -69 0 49 5 -58 -84 65 46
000090 f1 d8 e5 ed cc b8 ae 53 a5 c7 a7 df 5d 74 3a f9
       -15 -40 -27 -19 -52 -72 -82 83 -91 -57 -89 -33 93 116 58 -7
0000a0 af 9d 9f 41 aa e5 41 92 ef 39 a5 1a cc 1e 17 35
       -81 -99 -97 65 -86 -27 65 -110 -17 57 -91 26 -52 30 23 53
0000b0 e0 e7 a3 9c fe 59 e8 ac ba 6e f5 c6 fa cc e3 3f
       -32 -25 -93 -100 -2 89 -24 -84 -70 110 -11 -58 -6 -52 -29 63
0000c0 4c c8 c1 5f 60 aa 42 1b 65 31 38 c6 c2 7b ba 94
       76 -56 -63 95 96 -86 66 27 101 49 56 -58 -62 123 -70 -108
0000d0 de 87 a1 ff 1c 94 18 31 43 c5 e1 64 e8 0f 71 ef
       -34 -121 -95 -1 28 -108 24 49 67 -59 -31 100 -24 15 113 -17
0000e0 0a 2f 93 6d 71 15 ca 7c 0a 26 cc 48 d7 31 23 2c
       10 47 -109 109 113 21 -54 124 10 38 -52 72 -41 49 35 44
0000f0 7f e6 47 eb ed e3 45 a7 d1 8d 51 b0 77 69 24 0b
       127 -26 71 -21 -19 -29 69 -89 -47 -115 81 -80 119 105 36 11

model/mobilenetv2_0.50_64/block_14_depthwise_BN/FusedBatchNormV3;model/mobilenetv2_0.50_64/block_14_depthwise/depthwise;model/mobilenetv2_0.50_64/block_16_depthwise/depthwise i1 [1, 3, 3, 480]
000000 76 85 7f e5 5d 39 eb 7f 51 69 d4 b2 1e 44 44 81
       118 -123 127 -27 93 57 -21 127 81 105 -44 -78 30 68 68 -127
000010 1b 1b e2 1d f1 46 7f 31 6f ba ad 8e 8c 7f 5d d6
       27 27 -30 29 -15 70 127 49 111 -70 -83 -114 -116 127 93 -42
000020 ee 11 18 6b 8e c0 cd 26 87 0b e0 d8 81 b7 ba e3
       -18 17 24 107 -114 -64 -51 38 -121 11 -32 -40 -127 -73 -70 -29
000030 41 13 a2 da a5 b5 9e a5 06 59 a7 cb 5c e1 62 97
       65 19 -94 -38 -91 -75 -98 -91 6 89 -89 -53 92 -31 98 -105
000040 c3 16 a7 aa 4e 76 a2 e2 ae fd c2 ef c8 d1 a1 6d
       -61 22 -89 -86 78 118 -94 -30 -82 -3 -62 -17 -56 -47 -95 109
000050 21 51 51 a9 f7 81 90 f8 15 d4 a1 6b cf 76 39 94
       33 81 81 -87 -9 -127 -112 -8 21 -44 -95 107 -49 118 57 -108
000060 67 01 60 7f 6e 91 f3 cd 4c 63 30 1f 42 b1 b1 7f
       103 1 96 127 110 -111 -13 -51 76 99 48 31 66 -79 -79 127
000070 7f c4 e1 57 8b 9e a8 d7 e4 f4 0d 90 81 51 3d d0
       127 -60 -31 87 -117 -98 -88 -41 -28 -12 13 -112 -127 81 61 -48
000080 15 ad 4b c3 5f dc 21 7f c4 0f 99 56 ab a9 29 d8
       21 -83 75 -61 95 -36 33 127 -60 15 -103 86 -85 -87 41 -40
000090 c6 bb fc 2d ec a3 99 c4 2d fc f3 f1 6d 81 c1 fe
       -58 -69 -4 45 -20 -93 -103 -60 45 -4 -13 -15 109 -127 -63 -2
0000a0 9d d6 d4 22 0f 81 03 7f 15 1e 75 bf e7 cc 70 10
       -99 -42 -44 34 15 -127 3 127 21 30 117 -65 -25 -52 112 16
0000b0 ca 7f f6 7f 59 35 32 72 e5 c1 ca 67 fa 7f d9 b5
       -54 127 -10 127 89 53 50 114 -27 -63 -54 103 -6 127 -39 -75
0000c0 7f 15 89 f1 d4 3e 74 83 d6 9b 34 7f 7f b3 60 f3
       127 21 -119 -15 -44 62 116 -125 -42 -101 52 127 127 -77 96 -13
0000d0 cd 7c 92 98 5f e9 b6 c9 08 33 7f 9a b7 81 ae 63
       -51 124 -110 -104 95 -23 -74 -55 8 51 127 -102 -73 -127 -82 99
0000e0 77 1d f8 81 47 bd b9 3b fd 87 ca b0 3f 42 2f 2c
       119 29 -8 -127 71 -67 -71 59 -3 -121 -54 -80 63 66 47 44
0000f0 c9 64 ee 67 0a 6c 54 d7 eb 07 e2 76 d2 f2 b9 1a
       -55 100 -18 103 10 108 84 -41 -21 7 -30 118 -46 -14 -71 26

model/mobilenetv2_0.50_64/block_14_expand/Conv2D i1 [480, 1, 1, 80]
000000 c6 77 1f 3d d7 38 ec b8 f6 67 2d 51 2d 44 b1 4d
       -58 119 31 61 -41 56 -20 -72 -10 103 45 81 45 68 -79 77
000010 03 81 6b be cb 2f 7c 55 cf 3d bf 64 dd 31 b3 76
       3 -127 107 -66 -53 47 124 85 -49 61 -65 100 -35 49 -77 118
000020 1c dc 16 f1 d8 cc 29 12 b5 2d 52 d5 dd ce fb a3
       28 -36 22 -15 -40 -52 41 18 -75 45 82 -43 -35 -50 -5 -93
000030 e5 7c 76 25 b0 d6 2b c1 4e 21 b1 0b c3 66 c5 93
       -27 124 118 37 -80 -42 43 -63 78 33 -79 11 -61 102 -59 -109
000040 3c fc 0b b4 e7 44 dd 4a aa 55 f0 b6 4f 92 33 1d
       60 -4 11 -76 -25 68 -35 74 -86 85 -16 -74 79 -110 51 29
000050 c8 00 18 30 d1 05 e3 32 fd 29 f2 23 b3 d1 a4 34
       -56 0 24 48 -47 5 -29 50 -3 41 -14 35 -77 -47 -92 52
000060 9b 5c 4e 9b 05 65 ee b0 b5 db 01 aa 72 b1 03 1f
       -101 92 78 -101 5 101 -18 -80 -75 -37 1 -86 114 -79 3 31
000070 04 f9 f3 ce db fe 22 a1 43 f1 b8 c0 a5 a8 83 d8
       4 -7 -13 -50 -37 -2 34 -95 67 -15 -72 -64 -91 -88 -125 -40
000080 fb 9f 7f 6a 70 03 39 41 9e 55 e9 dd 21 09 ee ee
       -5 -97 127 106 112 3 57 65 -98 85 -23 -35 33 9 -18 -18
000090 df 54 eb 11 9a 90 8f 8d 1b 1f d9 ef 45 35 98 45
       -33 84 -21 17 -102 -112 -113 -115 27 31 -39 -17 69 53 -104 69
0000a0 a8 29 fe ad 05 88 4e 60 45 51 0e 99 89 f4 03 15
       -88 41 -2 -83 5 -120 78 96 69 81 14 -103 -119 -12 3 21
0000b0 9f 69 d3 d6 1c a8 af 4d 23 ab c3 a2 20 ea 5a 21
       -97 105 -45 -42 28 -88 -81 77 35 -85 -61 -94 32 -22 90 33
0000c0 0e b3 20 77 cc 05 3f a9 dc cf 8b c6 13 65 e4 4c
       14 -77 32 119 -52 5 63 -87 -36 -49 -117 -58 19 101 -28 76
0000d0 8a 67 53 a7 3a e2 ab 10 35 df 43 89 d6 00 c9 84
       -118 103 83 -89 58 -30 -85 16 53 -33 67 -119 -42 0 -55 -124
0000e0 40 81 f3 2b e8 e0 45 1d 4c 83 e5 a6 cc e8 63 2d
       64 -127 -13 43 -24 -32 69 29 76 -125 -27 -90 -52 -24 99 45
0000f0 ae 4b 42 ef 2f c6 8b f6 0f 2d c7 60 a0 1e 04 00
       -82 75 66 -17 47 -58 -117 -10 15 45 -57 96 -96 30 4 0

model/mobilenetv2_0.50_64/block_13_project/Conv2D i1 [80, 1, 1, 288]
000000 ea ef 34 ae 0e 66 1f 03 9f 3d e9 34 33 5b 12 09
       -22 -17 52 -82 14 102 31 3 -97 61 -23 52 51 91 18 9
000010 1b 8c b3 29 a5 c6 51 58 81 11 70 f4 cf e9 e2 e8
       27 -116 -77 41 -91 -58 81 88 -127 17 112 -12 -49 -23 -30 -24
000020 18 59 3e 63 89 4a 49 93 6f 6e 51 df 17 6d 2d 61
       24 89 62 99 -119 74 73 -109 111 110 81 -33 23 109 45 97
000030 69 e5 8a c7 fc c6 0e da e5 67 c5 f5 d0 ad dc 09
       105 -27 -118 -57 -4 -58 14 -38 -27 103 -59 -11 -48 -83 -36 9
000040 8b a3 b1 a2 b6 3b aa 75 16 cd 40 6a 33 d5 0e 26
       -117 -93 -79 -94 -74 59 -86 117 22 -51 64 106 51 -43 14 38
000050 67 c8 ff 4a 75 4d 39 4f 95 6a 6a f7 0d c3 26 37
       103 -56 -1 74 117 77 57 79 -107 106 106 -9 13 -61 38 55
000060 40 ac 8b 1a c9 41 46 a0 92 14 fe 18 95 7b 5c 62
       64 -84 -117 26 -55 65 70 -96 -110 20 -2 24 -107 123 92 98
000070 eb f8 ea a5 47 28 ca 7a f0 28 35 b7 5d df 62 b3
       -21 -8 -22 -91 71 40 -54 122 -16 40 53 -73 93 -33 98 -77
000080 ba 3d 10 b2 99 20 c2 ea 36 c3 44 c4 f3 0a 70 08
       -70 61 16 -78 -103 32 -62 -22 54 -61 68 -60 -13 10 112 8
000090 eb d7 c5 54 17 a5 05 2c 4e 76 40 c3 a1 17 67 b0
       -21 -41 -59 84 23 -91 5 44 78 118 64 -61 -95 23 103 -80
0000a0 0d 9c 5c f8 75 bb 1a 96 65 47 fd 44 1d 62 31 d2
       13 -100 92 -8 117 -69 26 -106 101 71 -3 68 29 98 49 -46
0000b0 8a 55 5f ad 04 a8 95 21 bc 35 2e fe 37 d1 5b ac
       -118 85 95 -83 4 -88 -107 33 -68 53 46 -2 55 -47 91 -84
0000c0 0b 8a 7a f0 1a 15 46 cf 65 fb 0f 5b d3 9d 8d 54
       11 -118 122 -16 26 21 70 -49 101 -5 15 91 -45 -99 -115 84
0000d0 60 f1 00 f2 5e 7c 0b 8e ef 26 5a 18 28 42 0a 2d
       96 -15 0 -14 94 124 11 -114 -17 38 90 24 40 66 10 45
0000e0 8a e4 b6 8f b6 fa 73 59 2e d7 76 fb c6 c8 f5 44
       -118 -28 -74 -113 -74 -6 115 89 46 -41 118 -5 -58 -56 -11 68
0000f0 c4 c3 a5 43 3e 1b 54 c9 b1 f1 35 b9 fd a5 d8 fc
       -60 -61 -91 67 62 27 84 -55 -79 -15 53 -71 -3 -91 -40 -4

model/mobilenetv2_0.50_64/block_13_depthwise_BN/FusedBatchNormV3;model/mobilenetv2_0.50_64/block_13_depthwise/depthwise i1 [1, 3, 3, 288]
000000 87 95 57 7a e5 c0 48 37 c7 54 43 4b 6e e6 28 7f
       -121 -107 87 122 -27 -64 72 55 -57 84 67 75 110 -26 40 127
000010 7f ac 85 3a f0 87 c1 6b f5 b4 9b d4 8c 41 74 bd
       127 -84 -123 58 -16 -121 -63 107 -11 -76 -101 -44 -116 65 116 -67
000020 51 22 be b7 db c1 91 9e 85 7a 46 30 2c 2a 2c d2
       81 34 -66 -73 -37 -63 -111 -98 -123 122 70 48 44 42 44 -46
000030 b6 81 79 60 7c 37 1d 6e 7f cd a9 f8 55 81 a6 5c
       -74 -127 121 96 124 55 29 110 127 -51 -87 -8 85 -127 -90 92
000040 52 d4 89 d0 72 57 7f 81 97 5f 81 0c 17 f8 19 85
       82 -44 -119 -48 114 87 127 -127 -105 95 -127 12 23 -8 25 -123
000050 c6 e3 ba 3d c2 fd fc 05 d3 54 63 b7 7f 27 81 8a
       -58 -29 -70 61 -62 -3 -4 5 -45 84 99 -73 127 39 -127 -118
000060 29 9f 7c 46 ab 82 98 25 a8 50 4c e7 55 c3 da e5
       41 -97 124 70 -85 -126 -104 37 -88 80 76 -25 85 -61 -38 -27
000070 d9 a7 63 8c 5f 09 0d 1d cb ac 8b 4f 9f 03 fd 29
       -39 -89 99 -116 95 9 13 29 -53 -84 -117 79 -97 3 -3 41
000080 4d 6a 1d 48 c7 30 81 81 11 46 16 9f af 9b 20 1f
       77 106 29 72 -57 48 -127 -127 17 70 22 -97 -81 -101 32 31
000090 c2 9a 81 52 29 ff 7f 7f e5 c3 6c 47 49 3c 84 41
       -62 -102 -127 82 41 -1 127 127 -27 -61 108 71 73 60 -124 65
0000a0 3d 81 c7 7f 83 da 81 58 c8 44 1d 86 ec 4e 81 b3
       61 -127 -57 127 -125 -38 -127 88 -56 68 29 -122 -20 78 -127 -77
0000b0 18 4c da 0c 88 25 d2 7f 57 81 0a d3 54 c1 a7 b5
       24 76 -38 12 -120 37 -46 127 87 -127 10 -45 84 -63 -89 -75
0000c0 50 5e dc 94 0c dd 9d eb ff ff 81 4d 02 ad 7f 85
       80 94 -36 -108 12 -35 -99 -21 -1 -1 -127 77 2 -83 127 -123
0000d0 ce f3 4e 19 68 53 b3 81 0d 91 3e 58 de d5 6f 52
       -50 -13 78 25 104 83 -77 -127 13 -111 62 88 -34 -43 111 82
0000e0 4e b5 84 c2 1d ef 93 eb c7 2f 11 33 8e a9 3f 26
       78 -75 -124 -62 29 -17 -109 -21 -57 47 17 51 -114 -87 63 38
0000f0 5e ec c1 76 f0 cc 81 6e ac 58 2d 5f 54 f1 b3 44
       94 -20 -63 118 -16 -52 -127 110 -84 88 45 95 84 -15 -77 68

model/mobilenetv2_0.50_64/block_13_expand/Conv2D i1 [288, 1, 1, 48]
000000 7f ce 55 ba 6c 1f 90 97 2b b2 50 0d 05 8a 12 bd
       127 -50 85 -70 108 31 -112 -105 43 -78 80 13 5 -118 18 -67
000010 9c b6 20 65 0f e0 fc fd c3 54 bb bc 4c f7 38 1c
       -100 -74 32 101 15 -32 -4 -3 -61 84 -69 -68 76 -9 56 28
000020 1c 3a ad 61 c1 12 e9 20 ad ef 64 2e 00 42 05 7c
       28 58 -83 97 -63 18 -23 32 -83 -17 100 46 0 66 5 124
000030 f2 5e 5b 4c b9 9b 06 b6 d5 91 87 0a 31 42 e9 a1
       -14 94 91 76 -71 -101 6 -74 -43 -111 -121 10 49 66 -23 -95
000040 74 cf 95 02 ae cb 8c 43 3a 92 d0 33 43 b8 c6 5b
       116 -49 -107 2 -82 -53 -116 67 58 -110 -48 51 67 -72 -58 91
000050 c9 57 d2 f1 7a 01 b5 8c 81 1a b1 75 fb b1 a1 84
       -55 87 -46 -15 122 1 -75 -116 -127 26 -79 117 -5 -79 -95 -124
000060 3c d5 29 7c 5b 1a 71 02 bd bc 29 8e ac c3 c9 a1
       60 -43 41 124 91 26 113 2 -67 -68 41 -114 -84 -61 -55 -95
000070 84 58 8d 40 19 4b 16 a1 f4 7f 56 d1 7b 16 41 65
       -124 88 -115 64 25 75 22 -95 -12 127 86 -47 123 22 65 101
000080 85 d7 11 fe c9 e1 7e bb 67 a8 33 fa 69 6d 06 41
       -123 -41 17 -2 -55 -31 126 -69 103 -88 51 -6 105 109 6 65
000090 70 7f 68 10 1e e8 e9 13 e6 11 cd a7 6e 89 f4 4d
       112 127 104 16 30 -24 -23 19 -26 17 -51 -89 110 -119 -12 77
0000a0 c8 bf 29 9d ec 5a 45 c3 8e 94 c2 63 c2 1c 20 4c
       -56 -65 41 -99 -20 90 69 -61 -114 -108 -62 99 -62 28 32 76
0000b0 ad ab 4c 6c e5 c2 f4 5c 97 00 52 00 b5 f0 75 03
       -83 -85 76 108 -27 -62 -12 92 -105 0 82 0 -75 -16 117 3
0000c0 5a 56 a6 72 64 f1 98 a0 6a 8a 24 97 c7 be 21 77
       90 86 -90 114 100 -15 -104 -96 106 -118 36 -105 -57 -66 33 119
0000d0 da c9 27 7f 2e 62 53 d0 43 20 fb f3 56 3c a2 ac
       -38 -55 39 127 46 98 83 -48 67 32 -5 -13 86 60 -94 -84
0000e0 d9 ca f9 1c a4 09 2e 39 52 a1 23 3b 0c b8 f7 8c
       -39 -54 -7 28 -92 9 46 57 82 -95 35 59 12 -72 -9 -116
0000f0 b6 71 37 26 8c 06 18 c3 7a 14 63 1a cf 41 e3 22
       -74 113 55 38 -116 6 24 -61 122 20 99 26 -49 65 -29 34

model/mobilenetv2_0.50_64/block_12_project/Conv2D i1 [48, 1, 1, 288]
000000 ab 01 17 2e 9d c8 63 61 f2 6a 8b 51 3d 15 cc 25
       -85 1 23 46 -99 -56 99 97 -14 106 -117 81 61 21 -52 37
000010 55 59 ed 6d 29 37 42 32 ca f0 74 1f 63 60 bb be
       85 89 -19 109 41 55 66 50 -54 -16 116 31 99 96 -69 -66
000020 ca e6 3b 8b 85 c9 ce dc 91 bd ae 29 50 df aa 95
       -54 -26 59 -117 -123 -55 -50 -36 -111 -67 -82 41 80 -33 -86 -107
000030 0a 3b 4f 8e dc 4a c0 31 13 f1 76 cf 48 48 93 b8
       10 59 79 -114 -36 74 -64 49 19 -15 118 -49 72 72 -109 -72
000040 0f a9 2b 94 9f f7 6d a4 0d f8 fc 51 71 cf 45 0f
       15 -87 43 -108 -97 -9 109 -92 13 -8 -4 81 113 -49 69 15
000050 2d be 4b 1d f1 3a 3f 4e fa 5b aa 0f bc 61 ef 5f
       45 -66 75 29 -15 58 63 78 -6 91 -86 15 -68 97 -17 95
000060 0d 5e c0 f6 be 30 35 ad 13 07 4e 0c 40 20 4d cf
       13 94 -64 -10 -66 48 53 -83 19 7 78 12 64 32 77 -49
000070 2e c7 2a 2d b0 38 3f 6e 94 37 f9 a4 af 5b 23 e7
       46 -57 42 45 -80 56 63 110 -108 55 -7 -92 -81 91 35 -25
000080 e2 cb 37 2d 1e 9e 33 c7 ee 37 7a c7 73 23 32 77
       -30 -53 55 45 30 -98 51 -57 -18 55 122 -57 115 35 50 119
000090 37 90 f2 9a 6f 53 a4 2f bf f7 24 b3 08 f4 63 2b
       55 -112 -14 -102 111 83 -92 47 -65 -9 36 -77 8 -12 99 43
0000a0 6b df 58 fc 52 3c bf c3 6e eb 77 4f 04 bb 06 b4
       107 -33 88 -4 82 60 -65 -61 110 -21 119 79 4 -69 6 -76
0000b0 12 5c 53 29 ac af 9f 53 c3 a5 4a f4 b0 c5 5c cb
       18 92 83 41 -84 -81 -97 83 -61 -91 74 -12 -80 -59 92 -53
0000c0 c6 52 0e 96 05 1a c8 30 77 5d 99 40 46 f9 cd be
       -58 82 14 -106 5 26 -56 48 119 93 -103 64 70 -7 -51 -66
0000d0 37 e1 95 2f de 93 bd 29 7a e7 e9 1e 05 21 9d ad
       55 -31 -107 47 -34 -109 -67 41 122 -25 -23 30 5 33 -99 -83
0000e0 f5 fc 49 11 0e e8 b1 ff 48 e7 33 4c fa 54 54 1c
       -11 -4 73 17 14 -24 -79 -1 72 -25 51 76 -6 84 84 28
0000f0 ca f8 3d 3b 0d cf 5a 6f e6 24 b2 7f 91 71 a7 21
       -54 -8 61 59 13 -49 90 111 -26 36 -78 127 -111 113 -89 33

model/mobilenetv2_0.50_64/block_12_depthwise_BN/FusedBatchNormV3;model/mobilenetv2_0.50_64/block_12_depthwise/depthwise;model/mobilenetv2_0.50_64/block_13_depthwise/depthwise i1 [1, 3, 3, 288]
000000 f5 1e 95 b5 a8 4b f5 04 9e 53 de 99 7f 5d 2c c2
       -11 30 -107 -75 -88 75 -11 4 -98 83 -34 -103 127 93 44 -62
000010 85 71 26 b6 ef 0e 97 81 17 61 81 b5 f3 08 9d 1e
       -123 113 38 -74 -17 14 -105 -127 23 97 -127 -75 -13 8 -99 30
000020 63 1d 2b 42 81 11 81 07 5e e9 12 b3 7f 7b 16 ee
       99 29 43 66 -127 17 -127 7 94 -23 18 -77 127 123 22 -18
000030 7f 96 4e 65 8a 0b 3c ec 20 d0 3b c3 cd 61 e7 df
       127 -106 78 101 -118 11 60 -20 32 -48 59 -61 -51 97 -25 -33
000040 e2 9a 1f 53 96 e5 28 05 aa 45 39 7f 81 0d 7f be
       -30 -102 31 83 -106 -27 40 5 -86 69 57 127 -127 13 127 -66
000050 25 81 cd 41 1d 41 15 af e8 56 89 e9 81 ad fa 62
       37 -127 -51 65 29 65 21 -81 -24 86 -119 -23 -127 -83 -6 98
000060 22 69 81 d0 4e d2 7f 81 43 b2 e7 26 b4 2e ab 7f
       34 105 -127 -48 78 -46 127 -127 67 -78 -25 38 -76 46 -85 127
000070 4d 7c 12 42 5d 25 81 ed 81 fa 76 81 e0 32 25 de
       77 124 18 66 93 37 -127 -19 -127 -6 118 -127 -32 50 37 -34
000080 9c 42 e9 40 8f 60 16 26 c7 11 dc c7 7f d1 7f 83
       -100 66 -23 64 -113 96 22 38 -57 17 -36 -57 127 -47 127 -125
000090 ef f7 2b 7f c9 7f 18 12 e3 50 63 c0 b8 12 70 7f
       -17 -9 43 127 -55 127 24 18 -29 80 99 -64 -72 18 112 127
0000a0 6c 5f ae d8 3f 08 72 ad 74 50 c3 09 81 4b e6 92
       108 95 -82 -40 63 8 114 -83 116 80 -61 9 -127 75 -26 -110
0000b0 6e aa c7 f3 ab b7 b2 81 c6 7f 5f e5 9f 7f 0a 8d
       110 -86 -57 -13 -85 -73 -78 -127 -58 127 95 -27 -97 127 10 -115
0000c0 66 81 7f 8f 0f 96 f9 9c 20 23 61 ab c9 53 c9 b7
       102 -127 127 -113 15 -106 -7 -100 32 35 97 -85 -55 83 -55 -73
0000d0 7f e5 1f f9 7f 81 66 5a 7f 90 73 0d 8c ec 93 1c
       127 -27 31 -7 127 -127 102 90 127 -112 115 13 -116 -20 -109 28
0000e0 8c 59 7c ae 2c 81 11 ce dd 7f fe 13 38 d4 6e e4
       -116 89 124 -82 44 -127 17 -50 -35 127 -2 19 56 -44 110 -28
0000f0 b0 d0 8e 49 9d 3a a6 81 21 e3 a6 3f fa e9 bb 92
       -80 -48 -114 73 -99 58 -90 -127 33 -29 -90 63 -6 -23 -69 -110

model/mobilenetv2_0.50_64/block_12_expand/Conv2D i1 [288, 1, 1, 48]
000000 ef 67 8a 23 06 6b 20 69 55 22 5e 7d 46 46 7f be
       -17 103 -118 35 6 107 32 105 85 34 94 125 70 70 127 -66
000010 06 76 ca 02 7f 15 6d d7 39 2f 39 a9 fd e6 12 40
       6 118 -54 2 127 21 109 -41 57 47 57 -87 -3 -26 18 64
000020 0e 03 17 dd da b8 3c 2b 3c 18 b2 cf 29 00 e8 ae
       14 3 23 -35 -38 -72 60 43 60 24 -78 -49 41 0 -24 -82
000030 8f d5 bc 2b 1b 9a c9 9e 81 f7 72 a3 72 af 85 c6
       -113 -43 -68 43 27 -102 -55 -98 -127 -9 114 -93 114 -81 -123 -58
000040 84 95 18 54 16 e4 ff 32 25 c1 ea c4 a1 e3 ee 58
       -124 -107 24 84 22 -28 -1 50 37 -63 -22 -60 -95 -29 -18 88
000050 6a 85 9b 3f af e7 a4 9b 10 d4 a3 71 c8 49 6b 5d
       106 -123 -101 63 -81 -25 -92 -101 16 -44 -93 113 -56 73 107 93
000060 14 a0 62 76 46 eb e6 ad eb cd e8 7d 77 12 b8 11
       20 -96 98 118 70 -21 -26 -83 -21 -51 -24 125 119 18 -72 17
000070 63 ae d5 c9 0e 49 e5 f2 73 e8 0b f9 69 e7 84 ad
       99 -82 -43 -55 14 73 -27 -14 115 -24 11 -7 105 -25 -124 -83
000080 7f 6f 56 5a 47 29 c0 1b 4d 90 89 cc a2 c2 b3 ad
       127 111 86 90 71 41 -64 27 77 -112 -119 -52 -94 -62 -77 -83
000090 8d e2 67 b4 64 23 a2 31 f6 d9 df 3d 12 8b 54 db
       -115 -30 103 -76 100 35 -94 49 -10 -39 -33 61 18 -117 84 -37
0000a0 6f a5 f7 64 16 1d 77 f1 7f 8a b1 ab 84 9b 34 68
       111 -91 -9 100 22 29 119 -15 127 -118 -79 -85 -124 -101 52 104
0000b0 45 f2 b7 2c 12 14 cd ec c6 17 64 6f 04 e5 41 13
       69 -14 -73 44 18 20 -51 -20 -58 23 100 111 4 -27 65 19
0000c0 69 9f 55 54 1c 61 a7 62 bd 64 38 f1 af 86 8b 0a
       105 -97 85 84 28 97 -89 98 -67 100 56 -15 -81 -122 -117 10
0000d0 a4 3d 14 39 97 66 6b 3d c0 58 23 8e 36 d9 61 91
       -92 61 20 57 -105 102 107 61 -64 88 35 -114 54 -39 97 -111
0000e0 46 24 ac d6 d9 f6 49 81 03 a1 72 46 f7 6c a3 b3
       70 36 -84 -42 -39 -10 73 -127 3 -95 114 70 -9 108 -93 -77
0000f0 38 66 ff 26 46 f3 f3 81 a3 99 00 77 ab ba 69 de
       56 102 -1 38 70 -13 -13 -127 -93 -103 0 119 -85 -70 105 -34

model/mobilenetv2_0.50_64/block_11_project/Conv2D i1 [48, 1, 1, 288]
000000 a4 ea 6d 58 ae 45 e2 5f be ee 26 4b 74 16 d9 87
       -92 -22 109 88 -82 69 -30 95 -66 -18 38 75 116 22 -39 -121
000010 61 5f bc c0 b2 b2 eb 73 66 8c c4 62 28 78 17 05
       97 95 -68 -64 -78 -78 -21 115 102 -116 -60 98 40 120 23 5
000020 5b fd c3 0f 00 9f 18 fa 3c c2 bd 9f b4 2e f1 ae
       91 -3 -61 15 0 -97 24 -6 60 -62 -67 -97 -76 46 -15 -82
000030 85 06 ba d1 44 14 17 79 95 56 92 76 44 3e dd 0b
       -123 6 -70 -47 68 20 23 121 -107 86 -110 118 68 62 -35 11
000040 b0 ce 5b ea e2 38 3b 85 c2 51 ea 9c ba 0b 9a 60
       -80 -50 91 -22 -30 56 59 -123 -62 81 -22 -100 -70 11 -102 96
000050 3d a3 17 26 6e 06 8f e9 c8 cc 73 ad 41 c6 a3 c7
       61 -93 23 38 110 6 -113 -23 -56 -52 115 -83 65 -58 -93 -57
000060 47 64 ac 09 fb 60 6f c4 cd 2f 9d 12 55 c4 6f 52
       71 100 -84 9 -5 96 111 -60 -51 47 -99 18 85 -60 111 82
000070 48 49 97 2e 3d 3b 8a f1 e6 24 56 52 68 13 92 fe
       72 73 -105 46 61 59 -118 -15 -26 36 86 82 104 19 -110 -2
000080 8d ac c1 33 44 dd 58 49 0b cb a8 a0 27 e0 7f 5a
       -115 -84 -63 51 68 -35 88 73 11 -53 -88 -96 39 -32 127 90
000090 6d 4c c5 59 29 44 d3 10 b4 b9 aa d1 70 0b a4 19
       109 76 -59 89 41 68 -45 16 -76 -71 -86 -47 112 11 -92 25
0000a0 76 54 1b 9b 46 8f e2 53 4c 4c 5f 69 b3 0a f9 14
       118 84 27 -101 70 -113 -30 83 76 76 95 105 -77 10 -7 20
0000b0 a2 66 40 cf cc d9 4a 30 9f 92 c9 e1 b8 e7 26 e0
       -94 102 64 -49 -52 -39 74 48 -97 -110 -55 -31 -72 -25 38 -32
0000c0 f1 43 e6 2f b4 25 a4 41 96 89 01 fc 97 ec f4 5e
       -15 67 -26 47 -76 37 -92 65 -106 -119 1 -4 -105 -20 -12 94
0000d0 7e a5 12 b4 c8 d2 c6 71 3f 16 fc f3 bf 5b af 0b
       126 -91 18 -76 -56 -46 -58 113 63 22 -4 -13 -65 91 -81 11
0000e0 d0 90 8c 60 cb 78 ad f7 a8 d0 a2 49 67 34 64 6e
       -48 -112 -116 96 -53 120 -83 -9 -88 -48 -94 73 103 52 100 110
0000f0 6e 26 6b 6d 10 01 3b bd 46 b1 cc 79 d4 73 11 14
       110 38 107 109 16 1 59 -67 70 -79 -52 121 -44 115 17 20

model/mobilenetv2_0.50_64/block_11_depthwise_BN/FusedBatchNormV3;model/mobilenetv2_0.50_64/block_11_depthwise/depthwise;model/mobilenetv2_0.50_64/block_13_depthwise/depthwise i1 [1, 3, 3, 288]
000000 f9 7e fa ae d5 b9 60 dc 89 2b 44 f8 71 83 0b 15
       -7 126 -6 -82 -43 -71 96 -36 -119 43 68 -8 113 -125 11 21
000010 4c 32 15 17 8b 65 a3 61 81 ad 43 64 81 38 68 e9
       76 50 21 23 -117 101 -93 97 -127 -83 67 100 -127 56 104 -23
000020 ab 51 6f ba 81 34 7f 35 2e d1 71 7b 44 fd f9 d3
       -85 81 111 -70 -127 52 127 53 46 -47 113 123 68 -3 -7 -45
000030 92 19 24 97 d9 a3 32 39 62 ab 7c b5 c9 db bd bf
       -110 25 36 -105 -39 -93 50 57 98 -85 124 -75 -55 -37 -67 -65
000040 6b 2e 8f bc a0 b6 01 16 3c 53 1a b8 c8 95 81 2f
       107 46 -113 -68 -96 -74 1 22 60 83 26 -72 -56 -107 -127 47
000050 8f 43 a4 da 9c bf 2c 7f 3b 8e b4 5a df 11 b0 e6
       -113 67 -92 -38 -100 -65 44 127 59 -114 -76 90 -33 17 -80 -26
000060 37 9f 7f 9b 63 2b b0 7f b6 d8 81 13 c1 81 b0 f5
       55 -97 127 -101 99 43 -80 127 -74 -40 -127 19 -63 -127 -80 -11
000070 bd d8 16 76 48 04 ac d7 36 54 f3 1e b6 81 ed 81
       -67 -40 22 118 72 4 -84 -41 54 84 -13 30 -74 -127 -19 -127
000080 51 9c e9 c5 75 91 f4 a6 dc ef 24 a8 81 f7 58 51
       81 -100 -23 -59 117 -111 -12 -90 -36 -17 36 -88 -127 -9 88 81
000090 50 31 0f 9a b5 9b dc 9d 42 07 6b c2 05 41 66 e7
       80 49 15 -102 -75 -101 -36 -99 66 7 107 -62 5 65 102 -25
0000a0 7e 2c 7f 88 ef 99 02 a8 cf f4 23 b9 1a 81 4a 47
       126 44 127 -120 -17 -103 2 -88 -49 -12 35 -71 26 -127 74 71
0000b0 81 ce f9 3d 98 da e4 ce 81 1a 48 a4 42 c4 c1 bd
       -127 -50 -7 61 -104 -38 -28 -50 -127 26 72 -92 66 -60 -63 -67
0000c0 51 48 81 9d 52 d9 b2 5d ff 94 f4 37 de f4 a0 bd
       81 72 -127 -99 82 -39 -78 93 -1 -108 -12 55 -34 -12 -96 -67
0000d0 61 34 7f 05 7e a3 d5 3a 81 f5 14 ab cb 45 e1 9a
       97 52 127 5 126 -93 -43 58 -127 -11 20 -85 -53 69 -31 -102
0000e0 25 df 82 62 66 81 19 fc 50 3a 8e 05 ea b1 b4 c6
       37 -33 -126 98 102 -127 25 -4 80 58 -114 5 -22 -79 -76 -58
0000f0 d6 44 42 90 f9 cd 9d 5e f7 eb 7d 5a a2 2b 2c 67
       -42 68 66 -112 -7 -51 -99 94 -9 -21 125 90 -94 43 44 103

model/mobilenetv2_0.50_64/block_11_expand/Conv2D i1 [288, 1, 1, 48]
000000 7d 39 fe 5e 3e 7b 4b ad fe da 6f 6f f2 00 f3 2e
       125 57 -2 94 62 123 75 -83 -2 -38 111 111 -14 0 -13 46
000010 fa 81 88 af 3c e0 38 e2 9a 6a db f0 cb d2 f5 08
       -6 -127 -120 -81 60 -32 56 -30 -102 106 -37 -16 -53 -46 -11 8
000020 57 fe b6 2e fc be d2 e4 35 86 c6 f1 72 9d 14 c2
       87 -2 -74 46 -4 -66 -46 -28 53 -122 -58 -15 114 -99 20 -62
000030 3b ad 96 ae 13 a6 60 ae 45 ef dc 17 b4 a9 41 39
       59 -83 -106 -82 19 -90 96 -82 69 -17 -36 23 -76 -87 65 57
000040 52 b1 f4 b7 63 de eb c2 65 5b 59 3a 86 b9 ab 8b
       82 -79 -12 -73 99 -34 -21 -62 101 91 89 58 -122 -71 -85 -117
000050 f4 36 f8 a9 71 c8 7f a7 92 a8 c1 10 c6 5b 0d 34
       -12 54 -8 -87 113 -56 127 -89 -110 -88 -63 16 -58 91 13 52
000060 2a f9 a7 b8 49 23 66 f8 7e 85 4f 37 d8 52 93 c7
       42 -7 -89 -72 73 35 102 -8 126 -123 79 55 -40 82 -109 -57
000070 ef 97 7f 25 1e 0e e0 03 05 74 14 3d 88 fa 52 90
       -17 -105 127 37 30 14 -32 3 5 116 20 61 -120 -6 82 -112
000080 b6 e9 94 33 2c e9 ef d9 bd ca 4e 45 38 24 60 ed
       -74 -23 -108 51 44 -23 -17 -39 -67 -54 78 69 56 36 96 -19
000090 09 d0 7f f0 15 f6 be d5 e0 83 eb 76 81 39 32 64
       9 -48 127 -16 21 -10 -66 -43 -32 -125 -21 118 -127 57 50 100
0000a0 17 4e 52 87 7c 67 85 99 38 2d 10 47 14 3f 2c 03
       23 78 82 -121 124 103 -123 -103 56 45 16 71 20 63 44 3
0000b0 8e b8 2a 98 8f cf 2c 64 94 bb 04 a1 db b6 d5 c0
       -114 -72 42 -104 -113 -49 44 100 -108 -69 4 -95 -37 -74 -43 -64
0000c0 bd 7d 75 42 81 45 fc 96 89 34 61 66 97 12 9f 9b
       -67 125 117 66 -127 69 -4 -106 -119 52 97 102 -105 18 -97 -101
0000d0 d7 7a cd ab 40 e9 6f 88 ff 68 ef 21 38 1b 0b 78
       -41 122 -51 -85 64 -23 111 -120 -1 104 -17 33 56 27 11 120
0000e0 97 6b 1a 15 81 3a 96 06 01 5a cd c1 d7 a0 ff 16
       -105 107 26 21 -127 58 -106 6 1 90 -51 -63 -41 -96 -1 22
0000f0 04 36 ee 93 03 1b 1f ac ae c4 55 7f 74 55 24 b3
       4 54 -18 -109 3 27 31 -84 -82 -60 85 127 116 85 36 -77

model/mobilenetv2_0.50_64/block_10_project/Conv2D i1 [48, 1, 1, 192]
000000 dd 8b 26 c5 fd 2c 31 56 25 17 23 fa 51 cb fe d0
       -35 -117 38 -59 -3 44 49 86 37 23 35 -6 81 -53 -2 -48
000010 ed aa b3 e3 34 2f 38 f8 68 9d 54 8f f9 b5 24 1e
       -19 -86 -77 -29 52 47 56 -8 104 -99 84 -113 -7 -75 36 30
000020 5a 26 64 e8 2f d7 44 00 4d 41 2a 2c 59 ae f4 51
       90 38 100 -24 47 -41 68 0 77 65 42 44 89 -82 -12 81
000030 a6 14 71 92 85 7d 3e cd 87 46 ff 4c 31 bb dc 67
       -90 20 113 -110 -123 125 62 -51 -121 70 -1 76 49 -69 -36 103
000040 85 a8 11 6d ae c7 a1 88 e5 20 0c dc e4 8f ce 63
       -123 -88 17 109 -82 -57 -95 -120 -27 32 12 -36 -28 -113 -50 99
000050 bd ae a4 bf 36 ee e3 f4 90 50 9c 27 d0 6c e2 76
       -67 -82 -92 -65 54 -18 -29 -12 -112 80 -100 39 -48 108 -30 118
000060 da e9 69 7f 23 ca d6 69 36 ce c0 b8 65 90 66 72
       -38 -23 105 127 35 -54 -42 105 54 -50 -64 -72 101 -112 102 114
000070 f7 7c c0 23 ca cc fb 3d 9e 60 17 b8 92 36 32 d9
       -9 124 -64 35 -54 -52 -5 61 -98 96 23 -72 -110 54 50 -39
000080 cf 2f 92 fb f9 d4 8d f3 9f 8c 3d be 2f f3 a0 32
       -49 47 -110 -5 -7 -44 -115 -13 -97 -116 61 -66 47 -13 -96 50
000090 e6 d0 98 16 ff fc 8e 41 2c fd b3 f4 2d e3 19 d6
       -26 -48 -104 22 -1 -4 -114 65 44 -3 -77 -12 45 -29 25 -42
0000a0 ef c3 cd 78 f4 1c 50 70 76 1d 9e 99 9f b5 cb d6
       -17 -61 -51 120 -12 28 80 112 118 29 -98 -103 -97 -75 -53 -42
0000b0 54 fa 47 3c 98 22 12 02 24 aa 24 f7 a2 3b a5 9f
       84 -6 71 60 -104 34 18 2 36 -86 36 -9 -94 59 -91 -97
0000c0 fc 9d b9 3a f9 5e ad df 57 d6 be 88 ff dc e5 a0
       -4 -99 -71 58 -7 94 -83 -33 87 -42 -66 -120 -1 -36 -27 -96
0000d0 fd 9d 45 5f a8 2e 8c 58 6d 71 55 33 a8 8e d9 b4
       -3 -99 69 95 -88 46 -116 88 109 113 85 51 -88 -114 -39 -76
0000e0 a0 01 a9 48 46 ed 17 b0 30 3a be e2 59 d5 d1 6e
       -96 1 -87 72 70 -19 23 -80 48 58 -66 -30 89 -43 -47 110
0000f0 c4 ee 08 b1 13 b2 23 06 cd 8c 74 e9 61 63 9d d4
       -60 -18 8 -79 19 -78 35 6 -51 -116 116 -23 97 99 -99 -44

model/mobilenetv2_0.50_64/block_10_depthwise_BN/FusedBatchNormV3;model/mobilenetv2_0.50_64/block_10_depthwise/depthwise i1 [1, 3, 3, 192]
000000 89 81 da 7f 81 7f e4 ae 45 92 9d fb 71 44 4f 81
       -119 -127 -38 127 -127 127 -28 -82 69 -110 -99 -5 113 68 79 -127
000010 92 81 10 f5 c0 d8 02 47 3b 47 b7 ee 50 57 81 26
       -110 -127 16 -11 -64 -40 2 71 59 71 -73 -18 80 87 -127 38
000020 23 97 0e b7 93 5e c9 57 a7 45 27 83 25 2e 7f 2d
       35 -105 14 -73 -109 94 -55 87 -89 69 39 -125 37 46 127 45
000030 81 dc 7f eb 1a 53 91 56 8c b1 a9 0e 38 f7 bf 5e
       -127 -36 127 -21 26 83 -111 86 -116 -79 -87 14 56 -9 -65 94
000040 fe 00 f4 59 43 90 49 35 6f ab 86 e2 b8 fa 22 68
       -2 0 -12 89 67 -112 73 53 111 -85 -122 -30 -72 -6 34 104
000050 28 b5 61 c7 81 4d 35 81 0a ad 32 7f 24 da 60 40
       40 -75 97 -57 -127 77 53 -127 10 -83 50 127 36 -38 96 64
000060 af 9f 56 c5 1f c5 7f 9b 79 a6 be 5b c6 8e c3 49
       -81 -97 86 -59 31 -59 127 -101 121 -90 -66 91 -58 -114 -61 73
000070 d7 ba b8 00 d7 46 b2 09 bb 81 6f 69 db 5b dc 81
       -41 -70 -72 0 -41 70 -78 9 -69 -127 111 105 -37 91 -36 -127
000080 2b 93 3c 81 8d 22 00 5a 81 dd 9e 7f fc 39 ff e2
       43 -109 60 -127 -115 34 0 90 -127 -35 -98 127 -4 57 -1 -30
000090 75 bc 26 a7 70 81 2c ea bc 66 96 8b 81 81 81 31
       117 -68 38 -89 112 -127 44 -22 -68 102 -106 -117 -127 -127 -127 49
0000a0 f7 de 1f 17 b5 91 dd 5c 0b c8 d6 e7 f5 57 f6 be
       -9 -34 31 23 -75 -111 -35 92 11 -56 -42 -25 -11 87 -10 -66
0000b0 58 4e 55 7f 33 a6 5e 3f 3e bd f9 55 cd 63 5c c4
       88 78 85 127 51 -90 94 63 62 -67 -7 85 -51 99 92 -60
0000c0 89 63 4b e7 10 45 39 ba 67 45 cc ee 59 25 53 85
       -119 99 75 -25 16 69 57 -70 103 69 -52 -18 89 37 83 -123
0000d0 f3 1a 81 26 0e 3d b5 1b 2f 5a 1b 81 b8 81 51 54
       -13 26 -127 38 14 61 -75 27 47 90 27 -127 -72 -127 81 84
0000e0 4f f1 7f 7f 97 4a 3a 3e 2e 45 85 02 c9 d8 f9 48
       79 -15 127 127 -105 74 58 62 46 69 -123 2 -55 -40 -7 72
0000f0 3c 0d a8 51 3f ec 7f d1 a1 be 25 9a 50 81 95 a5
       60 13 -88 81 63 -20 127 -47 -95 -66 37 -102 80 -127 -107 -91

model/mobilenetv2_0.50_64/block_10_expand/Conv2D i1 [192, 1, 1, 32]
000000 13 b0 9e d4 81 c5 c8 ae 83 d5 60 18 7b b3 0e c4
       19 -80 -98 -44 -127 -59 -56 -82 -125 -43 96 24 123 -77 14 -60
000010 b1 b4 99 51 3e 8a 62 fa 71 f3 fc 37 a8 8e 7b 5d
       -79 -76 -103 81 62 -118 98 -6 113 -13 -4 55 -88 -114 123 93
000020 f0 2c 70 75 92 84 5b af 0c 63 9c 4f da 71 25 1d
       -16 44 112 117 -110 -124 91 -81 12 99 -100 79 -38 113 37 29
000030 c9 0a 37 b6 6b be c0 c5 19 7f 8a bb 2d 61 a9 1e
       -55 10 55 -74 107 -66 -64 -59 25 127 -118 -69 45 97 -87 30
000040 bd 1c e3 2b 67 11 fb a3 65 ae 44 de d9 72 40 4e
       -67 28 -29 43 103 17 -5 -93 101 -82 68 -34 -39 114 64 78
000050 41 63 d3 42 97 48 32 b2 04 7f 30 4c d4 b4 00 17
       65 99 -45 66 -105 72 50 -78 4 127 48 76 -44 -76 0 23
000060 19 90 ba 1e 51 e2 c8 45 78 9e d1 12 7d 74 68 31
       25 -112 -70 30 81 -30 -56 69 120 -98 -47 18 125 116 104 49
000070 19 2c e3 85 57 78 3f 7f 98 ba f9 32 05 46 56 66
       25 44 -29 -123 87 120 63 127 -104 -70 -7 50 5 70 86 102
000080 7f bf 5f 04 99 53 5b 84 84 1f 9a d5 40 ed dc 5f
       127 -65 95 4 -103 83 91 -124 -124 31 -102 -43 64 -19 -36 95
000090 c9 8c a2 9b 20 66 57 90 4f 59 89 ed 55 9f da b1
       -55 -116 -94 -101 32 102 87 -112 79 89 -119 -19 85 -97 -38 -79
0000a0 81 7d 9b 06 71 09 2a b9 44 7a db 7e e7 88 35 65
       -127 125 -101 6 113 9 42 -71 68 122 -37 126 -25 -120 53 101
0000b0 4e 4c 9d 33 33 ab d6 68 5f bc fe e4 33 33 79 be
       78 76 -99 51 51 -85 -42 104 95 -68 -2 -28 51 51 121 -66
0000c0 22 40 86 38 23 16 9f 2f 9c 81 2a ae 6e e7 35 85
       34 64 -122 56 35 22 -97 47 -100 -127 42 -82 110 -25 53 -123
0000d0 6e ee a0 91 d9 a5 13 f1 43 82 26 6c 3b 75 11 01
       110 -18 -96 -111 -39 -91 19 -15 67 -126 38 108 59 117 17 1
0000e0 fe 76 e8 e9 a6 05 7f 00 cf f2 10 0d 09 23 01 29
       -2 118 -24 -23 -90 5 127 0 -49 -14 16 13 9 35 1 41
0000f0 62 c0 cb e1 0b a2 21 4e c2 09 4e ae 90 1b 16 09
       98 -64 -53 -31 11 -94 33 78 -62 9 78 -82 -112 27 22 9

model/mobilenetv2_0.50_64/block_9_project/Conv2D i1 [32, 1, 1, 192]
000000 ab d5 70 f0 a1 2c 84 20 9c db 82 11 8b 48 fa 0d
       -85 -43 112 -16 -95 44 -124 32 -100 -37 -126 17 -117 72 -6 13
000010 ab 9a d5 fe 94 30 0e cc 32 2c c6 22 d0 ce a9 eb
       -85 -102 -43 -2 -108 48 14 -52 50 44 -58 34 -48 -50 -87 -21
000020 ea c3 31 97 9d 2a 65 89 e0 60 32 ef 1d c1 91 79
       -22 -61 49 -105 -99 42 101 -119 -32 96 50 -17 29 -63 -111 121
000030 97 94 60 ab 7f cd f7 64 47 36 f0 75 a5 ec ea 9d
       -105 -108 96 -85 127 -51 -9 100 71 54 -16 117 -91 -20 -22 -99
000040 1f b9 94 6d 72 ab 2f a2 4e fc 7b e7 59 e2 90 be
       31 -71 -108 109 114 -85 47 -94 78 -4 123 -25 89 -30 -112 -66
000050 8c b3 49 1c 85 1d da 34 00 ec 91 63 ba 57 54 79
       -116 -77 73 28 -123 29 -38 52 0 -20 -111 99 -70 87 84 121
000060 62 17 6c b6 ed f5 9b 20 61 20 e5 12 2d 02 3c 39
       98 23 108 -74 -19 -11 -101 32 97 32 -27 18 45 2 60 57
000070 c1 7b 42 da 91 c3 f6 84 1f 13 bf 96 ac f5 16 41
       -63 123 66 -38 -111 -61 -10 -124 31 19 -65 -106 -84 -11 22 65
000080 5e b6 98 e9 f8 87 2b 49 8a ee 07 47 68 0e a4 21
       94 -74 -104 -23 -8 -121 43 73 -118 -18 7 71 104 14 -92 33
000090 d5 6c 84 a6 47 e1 06 ef 27 c2 cf 63 4a 4e c8 84
       -43 108 -124 -90 71 -31 6 -17 39 -62 -49 99 74 78 -56 -124
0000a0 d0 95 e2 67 29 38 96 8c 4e 6c aa a5 b3 0c f0 20
       -48 -107 -30 103 41 56 -106 -116 78 108 -86 -91 -77 12 -16 32
0000b0 17 46 a4 e0 11 30 22 ae 60 09 62 30 17 a0 4e c0
       23 70 -92 -32 17 48 34 -82 96 9 98 48 23 -96 78 -64
0000c0 a5 ef 7c 07 5c 93 9f f9 13 a3 f2 2a c2 66 e6 3e
       -91 -17 124 7 92 -109 -97 -7 19 -93 -14 42 -62 102 -26 62
0000d0 25 92 94 87 ba 61 0c 0f 5e 92 5c c4 1e be 31 02
       37 -110 -108 -121 -70 97 12 15 94 -110 92 -60 30 -66 49 2
0000e0 1c 54 5d c2 e1 c9 77 71 58 5a e7 2f b6 ca c2 d7
       28 84 93 -62 -31 -55 119 113 88 90 -25 47 -74 -54 -62 -41
0000f0 6c 47 0b 27 17 0e 5a 9f cd 84 f7 36 28 66 7e d8
       108 71 11 39 23 14 90 -97 -51 -124 -9 54 40 102 126 -40
