compression/mobilenetv2/float_fallback_quantization/models_compressed/model_ToyTrain.tflite (tflite, 975464 bytes, 53 tensors)

model/mobilenetv2_0.50_64/predictions/MatMul i1 [3, 1280] scale=0.0008863321 zero_point=0
00000000: ed2a 1219 fcb7 da2a f1bd e504 4c23 51ca
00000010: 1cb6 3bee 1552 18af 17cf 1423 bd81 cfe1
00000020: e8bb e5d2 ab01 dc0e de22 91a9 171e d4a7
00000030: dada acc5 4915 f1d6 2902 aabf 33a0 dae3
00000040: aadc 33cd b446 ebe7 9e23 3029 b9e7 e79f
00000050: 1840 d2c7 cb40 b7af 17d6 c339 48dc b537
00000060: e942 0f24 37c7 bdd3 ab9f a51b 4643 0c4e
00000070: 3b0e f138 eed9 31c4 c018 1dff a6d8 e551
00000080: 320e 2d3d 4354 fd30 a3c6 f816 c62c b296
00000090: 2cf4 0f3f e3fc b0bc 503e b5d1 ec43 e9e1
000000a0: 47d9 f6cd 4d42 304a 07dc e3c0 e05c 0601
000000b0: 4ec6 32e8 e8c7 4928 09d8 a024 c4e1 1931
000000c0: 33dd 0d27 3cd0 38ba ddb1 e933 4919 e236
000000d0: c9d6 a802 9d09 b6f0 cab6 0d39 00dd 1ca6
000000e0: d551 b225 c8c1 2716 3ec3 bbf3 ecbc 3337
000000f0: 0ef2 2d21 cfd6 4f0a e3d4 d8e7 17c5 f840
-0.01684031 0.03722595 0.015953979 0.022158302 -0.0035453285 -0.06470224 -0.03368062 0.03722595
-0.013294982 -0.059384253 -0.023930967 0.0035453285 0.06736124 0.031021625 0.0717929 -0.047861934
0.0248173 -0.06558858 0.052293595 -0.015953979 0.018612975 0.07267924 0.02127197 -0.0717929
0.02038564 -0.043430272 0.017726643 0.031021625 -0.059384253 -0.112564184 -0.043430272 -0.027476296
-0.02127197 -0.061156917 -0.023930967 -0.04077128 -0.07533823 0.0008863321 -0.031907957 0.01240865
-0.030135293 0.030135293 -0.09838287 -0.077110894 0.02038564 0.026589964 -0.038998615 -0.07888356
-0.03368062 -0.03368062 -0.0744519 -0.052293595 0.06470224 0.018612975 -0.013294982 -0.03722595
0.03633962 0.0017726643 -0.076224566 -0.05761159 0.045202937 -0.08508788 -0.03368062 -0.025703631
-0.076224566 -0.031907957 0.045202937 -0.045202937 -0.06736124 0.06204325 -0.018612975 -0.022158302
-0.086860545 0.031021625 0.04254394 0.03633962 -0.06292958 -0.022158302 -0.022158302 -0.08597422
0.02127197 0.056725256 -0.04077128 -0.05052093 -0.0469756 0.056725256 -0.06470224 -0.0717929
0.02038564 -0.03722595 -0.05406626 0.05052093 0.063815914 -0.031907957 -0.06647491 0.048748266
-0.02038564 0.05849792 0.013294982 0.031907957 0.048748266 -0.05052093 -0.059384253 -0.039884947
-0.07533823 -0.08597422 -0.08065622 0.023930967 0.06204325 0.059384253 0.010635985 0.06913391
0.052293595 0.01240865 -0.013294982 0.0496346 -0.015953979 -0.034566954 0.043430272 -0.053179927
-0.056725256 0.02127197 0.025703631 -0.0008863321 -0.079769894 -0.035453286 -0.023930967 0.0717929
0.044316605 0.01240865 0.039884947 0.05406626 0.059384253 0.0744519 -0.0026589963 0.04254394
-0.08242889 -0.051407263 -0.007090657 0.019499307 -0.051407263 0.038998615 -0.06913391 -0.0939512
0.038998615 -0.010635985 0.013294982 0.055838924 -0.025703631 -0.0035453285 -0.07090657 -0.060270585
0.07090657 0.05495259 -0.06647491 -0.04165761 -0.017726643 0.059384253 -0.02038564 -0.027476296
0.06292958 -0.034566954 -0.0088633215 -0.045202937 0.06824757 0.05849792 0.04254394 0.06558858
0.006204325 -0.031907957 -0.025703631 -0.056725256 -0.028362628 0.08154256 0.0053179925 0.0008863321
0.06913391 -0.051407263 0.044316605 -0.02127197 -0.02127197 -0.05052093 0.06470224 0.035453286
0.007976989 -0.035453286 -0.08508788 0.031907957 -0.053179927 -0.027476296 0.022158302 0.043430272
0.045202937 -0.031021625 0.011522317 0.034566954 0.053179927 -0.04254394 0.0496346 -0.06204325
-0.031021625 -0.070020236 -0.02038564 0.045202937 0.06470224 0.022158302 -0.026589964 0.047861934
-0.048748266 -0.03722595 -0.07799723 0.0017726643 -0.08774688 0.007976989 -0.06558858 -0.014181314
-0.047861934 -0.06558858 0.011522317 0.05052093 0.0 -0.031021625 0.0248173 -0.079769894
-0.038112283 0.0717929 -0.06913391 0.03279429 -0.0496346 -0.055838924 0.034566954 0.019499307
0.05495259 -0.05406626 -0.061156917 -0.011522317 -0.017726643 -0.060270585 0.045202937 0.048748266
0.01240865 -0.01240865 0.039884947 0.02924896 -0.043430272 -0.03722595 0.070020236 0.0088633215
-0.025703631 -0.038998615 -0.035453286 -0.022158302 0.02038564 -0.052293595 -0.007090657 0.056725256

model/mobilenetv2_0.50_64/Conv_1/Conv2D i1 [1280, 1, 1, 160]
00000000: 5a40 edb4 4948 f41f 9fb3 0e64 f3f5 c59c
00000010: fae1 a875 3cc9 b38b 3f41 a045 48ee d7fd
00000020: b9c3 b737 0d9b 6ef4 df6f 1906 4621 e528
00000030: 7637 f2ec cf6f ea42 811b e834 7173 06bc
00000040: 520a 54ec c744 b262 ac7e 4763 ae9d 6aef
00000050: 2c1f 9625 0af9 117a e0dd 53a0 1852 76de
00000060: 5082 4bc1 0300 6c0a 6059 e051 ffb8 3f42
00000070: 4223 e623 8e20 c4ed d06c 6f24 6dc7 b2f7
00000080: bc09 a94e 472e 3dba 6172 bd14 2a8d bab0
00000090: 0ec0 60ca b887 6771 7468 c84d 711c b69c
000000a0: b4b4 b326 ed48 c860 aaeb fc58 0058 ce70
000000b0: 3531 5d64 b1d0 1e28 10c3 3f34 4ff5 1ba9
000000c0: d050 359c 4900 ae2c b339 6217 4bf6 47ec
000000d0: ee07 3bd2 3d3d 09c0 ba39 7f2b 5417 dd44
000000e0: c723 6508 3939 9fa9 ecda b99f e67c 50bf
000000f0: 3cb1 78bc ebec 7a65 ce14 f0e2 1201 38a2
90 64 -19 -76 73 72 -12 31
-97 -77 14 100 -13 -11 -59 -100
-6 -31 -88 117 60 -55 -77 -117
63 65 -96 69 72 -18 -41 -3
-71 -61 -73 55 13 -101 110 -12
-33 111 25 6 70 33 -27 40
118 55 -14 -20 -49 111 -22 66
-127 27 -24 52 113 115 6 -68
82 10 84 -20 -57 68 -78 98
-84 126 71 99 -82 -99 106 -17
44 31 -106 37 10 -7 17 122
-32 -35 83 -96 24 82 118 -34
80 -126 75 -63 3 0 108 10
96 89 -32 81 -1 -72 63 66
66 35 -26 35 -114 32 -60 -19
-48 108 111 36 109 -57 -78 -9
-68 9 -87 78 71 46 61 -70
97 114 -67 20 42 -115 -70 -80
14 -64 96 -54 -72 -121 103 113
116 104 -56 77 113 28 -74 -100
-76 -76 -77 38 -19 72 -56 96
-86 -21 -4 88 0 88 -50 112
53 49 93 100 -79 -48 30 40
16 -61 63 52 79 -11 27 -87
-48 80 53 -100 73 0 -82 44
-77 57 98 23 75 -10 71 -20
-18 7 59 -46 61 61 9 -64
-70 57 127 43 84 23 -35 68
-57 35 101 8 57 57 -97 -87
-20 -38 -71 -97 -26 124 80 -65
60 -79 120 -68 -21 -20 122 101
-50 20 -16 -30 18 1 56 -94

model/mobilenetv2_0.50_64/block_16_project/Conv2D i1 [160, 1, 1, 480]
00000000: 81c5 0ce8 92fe acb1 a799 27e0 131d 07ce
00000010: 4cf8 c95b 3eea 98c4 e450 6e32 0ca4 6da9
00000020: 6554 a0bc 025b 6687 30b0 48c4 def7 0730
00000030: ae3f 3939 ea1e 4c33 b7b1 0fdc cb98 1d5d
00000040: c0a9 a923 98d9 eb14 6b68 f123 0451 ebf9
00000050: 98b9 6668 3eec 9451 54bc 3359 9dce 5a5c
00000060: 4961 ff5f e497 cdd8 ff8e b35e 4efd c225
00000070: 3092 29c4 e34a 9c5c 44cc 248c 25c1 c971
00000080: 54f5 e830 33de a24e e93c a6d0 d1c4 d334
00000090: e0b5 95d9 e22e 1125 35a0 2cc0 c404 98cf
000000a0: 3425 3a93 cc5c dc07 5d65 c03a 46e9 c38c
000000b0: 88c6 a3e5 5a9c 6296 684c 890e 8b6e d841
000000c0: 2bd2 5142 f1d1 ba93 0d31 3654 9eea 612c
000000d0: 19bc e2bb 9aa5 1f3e e147 04ef 6b46 e728
000000e0: 0cec 8cd0 0e9d 30f5 65e1 63ff b255 5733
000000f0: 2d0a 4be0 98db 0c3b b0f8 bc98 8d05 e74a
-127 -59 12 -24 -110 -2 -84 -79
-89 -103 39 -32 19 29 7 -50
76 -8 -55 91 62 -22 -104 -60
-28 80 110 50 12 -92 109 -87
101 84 -96 -68 2 91 102 -121
48 -80 72 -60 -34 -9 7 48
-82 63 57 57 -22 30 76 51
-73 -79 15 -36 -53 -104 29 93
-64 -87 -87 35 -104 -39 -21 20
107 104 -15 35 4 81 -21 -7
-104 -71 102 104 62 -20 -108 81
84 -68 51 89 -99 -50 90 92
73 97 -1 95 -28 -105 -51 -40
-1 -114 -77 94 78 -3 -62 37
48 -110 41 -60 -29 74 -100 92
68 -52 36 -116 37 -63 -55 113
84 -11 -24 48 51 -34 -94 78
-23 60 -90 -48 -47 -60 -45 52
-32 -75 -107 -39 -30 46 17 37
53 -96 44 -64 -60 4 -104 -49
52 37 58 -109 -52 92 -36 7
93 101 -64 58 70 -23 -61 -116
-120 -58 -93 -27 90 -100 98 -106
104 76 -119 14 -117 110 -40 65
43 -46 81 66 -15 -47 -70 -109
13 49 54 84 -98 -22 97 44
25 -68 -30 -69 -102 -91 31 62
-31 71 4 -17 107 70 -25 40
12 -20 -116 -48 14 -99 48 -11
101 -31 99 -1 -78 85 87 51
45 10 75 -32 -104 -37 12 59
-80 -8 -68 -104 -115 5 -25 74

model/mobilenetv2_0.50_64/block_16_depthwise_BN/FusedBatchNormV3;model/mobilenetv2_0.50_64/block_16_depthwise/depthwise i1 [1, 3, 3, 480]
00000000: 7fb6 8f89 2c5a 61e7 b1b4 8121 fbd5 f317
00000010: 7f3f dc4a f298 81af af7b 2ed7 4baf e9f9
00000020: 4ac9 367f 9d2d ca20 7736 204a aeb2 0365
00000030: d51a 795a 4528 50e4 4cc9 967f e9d0 9f18
00000040: 81e1 c1a2 a070 68b1 ecde 8162 b6af a144
00000050: d4f1 1d4e 516a afb4 9e54 7f0a 9707 4908
00000060: 0924 a99e c174 7fca a681 7f7f 2e0d fb69
00000070: 3127 f186 ee01 a06f 6523 b20e 7f7f 81b8
00000080: 6bb9 fa25 b42e ca39 2d7f 2f3c f481 5d7f
00000090: 47d5 5283 7f47 8235 6805 053c 9581 9242
000000a0: b49d fadc e781 8644 f765 c234 6aa4 5390
000000b0: 3007 e281 112f 81cf f181 d981 2430 7599
000000c0: 64ce 7f8f 2a57 c351 d320 347f cd24 0bf0
000000d0: 5971 9a28 b246 70be 7f6f 8d81 816c 72ec
000000e0: 5194 3675 a943 4d64 399d e59f f190 4c1f
000000f0: 3036 20e2 459f 22fc e0fd 768c 3981 c488
127 -74 -113 -119 44 90 97 -25
-79 -76 -127 33 -5 -43 -13 23
127 63 -36 74 -14 -104 -127 -81
-81 123 46 -41 75 -81 -23 -7
74 -55 54 127 -99 45 -54 32
119 54 32 74 -82 -78 3 101
-43 26 121 90 69 40 80 -28
76 -55 -106 127 -23 -48 -97 24
-127 -31 -63 -94 -96 112 104 -79
-20 -34 -127 98 -74 -81 -95 68
-44 -15 29 78 81 106 -81 -76
-98 84 127 10 -105 7 73 8
9 36 -87 -98 -63 116 127 -54
-90 -127 127 127 46 13 -5 105
49 39 -15 -122 -18 1 -96 111
101 35 -78 14 127 127 -127 -72
107 -71 -6 37 -76 46 -54 57
45 127 47 60 -12 -127 93 127
71 -43 82 -125 127 71 -126 53
104 5 5 60 -107 -127 -110 66
-76 -99 -6 -36 -25 -127 -122 68
-9 101 -62 52 106 -92 83 -112
48 7 -30 -127 17 47 -127 -49
-15 -127 -39 -127 36 48 117 -103
100 -50 127 -113 42 87 -61 81
-45 32 52 127 -51 36 11 -16
89 113 -102 40 -78 70 112 -66
127 111 -115 -127 -127 108 114 -20
81 -108 54 117 -87 67 77 100
57 -99 -27 -97 -15 -112 76 31
48 54 32 -30 69 -97 34 -4
-32 -3 118 -116 57 -127 -60 -120

model/mobilenetv2_0.50_64/block_16_expand/Conv2D i1 [480, 1, 1, 80]
00000000: e093 cae7 c2f5 e0b9 22ab 18c7 038e bb0b
00000010: 55bc 2609 15e4 c127 4dd5 93e8 17d9 c2f3
00000020: a1ac dd8e 7569 398d 8efb e173 e9ba abb7
00000030: 38e4 e69e a6ed 45b9 0078 ddaf 3c70 0656
00000040: bb5b 37a7 0ec2 d8d6 0181 93df e5b1 e8aa
00000050: d5cd dc8a b7e3 993a 77fc d04a bcd1 6fc6
00000060: 4b27 6c4b 265b c4c6 30d7 b8f2 0e0d fa09
00000070: 00e9 59a2 f27f d5ce 0c33 d693 4367 5478
00000080: 271b 43ac fcca 6849 a8c8 f8d3 397a eacd
00000090: 65f3 f809 c721 9114 9fc4 cd74 0613 f89b
000000a0: a8d8 6b75 f1ce d04e 6b85 25b8 0b21 f6b9
000000b0: ef65 6c22 52ec f022 2124 db13 e281 9525
000000c0: dc0a 7a9f 9a67 f417 1ea0 d424 b09a f175
000000d0: 45d9 e337 04ef 08d0 9951 b29d d610 1add
000000e0: a210 5e03 b330 c3ff 99c4 fe29 c46a 2464
000000f0: 719b c331 18af 8585 340c e29c 3c8f 2d2a
-32 -109 -54 -25 -62 -11 -32 -71
34 -85 24 -57 3 -114 -69 11
85 -68 38 9 21 -28 -63 39
77 -43 -109 -24 23 -39 -62 -13
-95 -84 -35 -114 117 105 57 -115
-114 -5 -31 115 -23 -70 -85 -73
56 -28 -26 -98 -90 -19 69 -71
0 120 -35 -81 60 112 6 86
-69 91 55 -89 14 -62 -40 -42
1 -127 -109 -33 -27 -79 -24 -86
-43 -51 -36 -118 -73 -29 -103 58
119 -4 -48 74 -68 -47 111 -58
75 39 108 75 38 91 -60 -58
48 -41 -72 -14 14 13 -6 9
0 -23 89 -94 -14 127 -43 -50
12 51 -42 -109 67 103 84 120
39 27 67 -84 -4 -54 104 73
-88 -56 -8 -45 57 122 -22 -51
101 -13 -8 9 -57 33 -111 20
-97 -60 -51 116 6 19 -8 -101
-88 -40 107 117 -15 -50 -48 78
107 -123 37 -72 11 33 -10 -71
-17 101 108 34 82 -20 -16 34
33 36 -37 19 -30 -127 -107 37
-36 10 122 -97 -102 103 -12 23
30 -96 -44 36 -80 -102 -15 117
69 -39 -29 55 4 -17 8 -48
-103 81 -78 -99 -42 16 26 -35
-94 16 94 3 -77 48 -61 -1
-103 -60 -2 41 -60 106 36 100
113 -101 -61 49 24 -81 -123 -123
52 12 -30 -100 60 -113 45 42

model/mobilenetv2_0.50_64/block_15_project/Conv2D i1 [80, 1, 1, 480]
00000000: b77f f8ff b373 5357 680a 58c7 0671 bda3
00000010: f1c7 e917 21ed 0b3e e9ba 21d3 1c86 d628
00000020: 423f c222 ca1e 2aca 55c2 d950 7010 6fae
00000030: 4eab dd9a 4615 eebc 3328 cd0e e301 d5c9
00000040: 1579 cb46 4fdc b0ce d872 b004 bbd1 9be3
00000050: dbce 67cb f05f f4c4 a0b9 11bc 09ba edec
00000060: 61c0 2e92 f098 f9f2 8bfd 3650 29b6 a9d6
00000070: 4d39 74e9 1204 9929 bc30 e63e fbbd 6264
00000080: d3e1 d599 369b 0cf5 5904 90db e3cd cfb0
00000090: 4102 1459 08d7 f053 3d4d fbe2 fdea c59d
000000a0: 6afa 0e4b e5fe 5c75 411d 2da6 f874 8651
000000b0: 5919 bc19 0bf1 8b57 b509 6747 e661 c71d
000000c0: dcc7 bc34 ac63 43c6 3854 97ef ac60 1513
000000d0: 3598 b990 e875 e5fa 6dd8 a214 51b4 0510
000000e0: 51fa b500 7071 9642 446a 09fb 7a27 ede3
000000f0: 39af f0f4 939a e422 d49f 4bb2 2972 b657
-73 127 -8 -1 -77 115 83 87
104 10 88 -57 6 113 -67 -93
-15 -57 -23 23 33 -19 11 62
-23 -70 33 -45 28 -122 -42 40
66 63 -62 34 -54 30 42 -54
85 -62 -39 80 112 16 111 -82
78 -85 -35 -102 70 21 -18 -68
51 40 -51 14 -29 1 -43 -55
21 121 -53 70 79 -36 -80 -50
-40 114 -80 4 -69 -47 -101 -29
-37 -50 103 -53 -16 95 -12 -60
-96 -71 17 -68 9 -70 -19 -20
97 -64 46 -110 -16 -104 -7 -14
-117 -3 54 80 41 -74 -87 -42
77 57 116 -23 18 4 -103 41
-68 48 -26 62 -5 -67 98 100
-45 -31 -43 -103 54 -101 12 -11
89 4 -112 -37 -29 -51 -49 -80
65 2 20 89 8 -41 -16 83
61 77 -5 -30 -3 -22 -59 -99
106 -6 14 75 -27 -2 92 117
65 29 45 -90 -8 116 -122 81
89 25 -68 25 11 -15 -117 87
-75 9 103 71 -26 97 -57 29
-36 -57 -68 52 -84 99 67 -58
56 84 -105 -17 -84 96 21 19
53 -104 -71 -112 -24 117 -27 -6
109 -40 -94 20 81 -76 5 16
81 -6 -75 0 112 113 -106 66
68 106 9 -5 122 39 -19 -29
57 -81 -16 -12 -109 -102 -28 34
-44 -97 75 -78 41 114 -74 87

model/mobilenetv2_0.50_64/block_15_depthwise_BN/FusedBatchNormV3;model/mobilenetv2_0.50_64/block_15_depthwise/depthwise;model/mobilenetv2_0.50_64/block_16_depthwise/depthwise i1 [1, 3, 3, 480]
00000000: b39d 7597 f232 51b5 cd06 ee2a d09f 08cb
00000010: 1c00 cd2f 75f4 247f 081b 3bf4 dfb6 e098
00000020: 14aa 14f8 8276 955b 097f 2181 5f81 2530
00000030: 41cd 81b4 72a9 e5ff 7f36 7f73 1c42 49cd
00000040: 7f4c a561 852c 7ff9 2ee7 10f9 8cc9 bc81
00000050: c54f 3881 c435 5440 3bd9 4c7e 3b07 05fd
00000060: 2575 04e6 663a 5ebb 9fd3 db99 47db fde6
00000070: 0c4a 6b43 54cf 0e7f 0947 9a51 e922 064e
00000080: a600 6995 6634 28b1 98dc 14ba d673 6872
00000090: dc97 e07f a4b3 d908 7f2d 810d 69ba 7f81
000000a0: b6ee 3426 2e65 62c4 81ef 0b7b a60b 2231
000000b0: 31d4 a6d3 bab3 d30d 9581 4181 deb0 6c7f
000000c0: 189b 5407 4ec0 aac0 2d5d e759 12d2 acd2
000000d0: 7ced f86b 29e4 3e81 858c 7ffb 0558 9e6f
000000e0: c70c 7bb4 25fb 797f c222 73c3 e942 5cf6
000000f0: 35a7 f267 0946 b492 2bfb 3787 8181 3bc1
-77 -99 117 -105 -14 50 81 -75
-51 6 -18 42 -48 -97 8 -53
28 0 -51 47 117 -12 36 127
8 27 59 -12 -33 -74 -32 -104
20 -86 20 -8 -126 118 -107 91
9 127 33 -127 95 -127 37 48
65 -51 -127 -76 114 -87 -27 -1
127 54 127 115 28 66 73 -51
127 76 -91 97 -123 44 127 -7
46 -25 16 -7 -116 -55 -68 -127
-59 79 56 -127 -60 53 84 64
59 -39 76 126 59 7 5 -3
37 117 4 -26 102 58 94 -69
-97 -45 -37 -103 71 -37 -3 -26
12 74 107 67 84 -49 14 127
9 71 -102 81 -23 34 6 78
-90 0 105 -107 102 52 40 -79
-104 -36 20 -70 -42 115 104 114
-36 -105 -32 127 -92 -77 -39 8
127 45 -127 13 105 -70 127 -127
-74 -18 52 38 46 101 98 -60
-127 -17 11 123 -90 11 34 49
49 -44 -90 -45 -70 -77 -45 13
-107 -127 65 -127 -34 -80 108 127
24 -101 84 7 78 -64 -86 -64
45 93 -25 89 18 -46 -84 -46
124 -19 -8 107 41 -28 62 -127
-123 -116 127 -5 5 88 -98 111
-57 12 123 -76 37 -5 121 127
-62 34 115 -61 -23 66 92 -10
53 -89 -14 103 9 70 -76 -110
43 -5 55 -121 -127 -127 59 -63

model/mobilenetv2_0.50_64/block_15_expand/Conv2D i1 [480, 1, 1, 80]
00000000: 28c4 d4ec 6ed5 f02f 922d b2f8 89e3 a0b0
00000010: 4266 94af ce33 07c8 6883 6699 e17c 0fdb
00000020: 3374 ad7f c055 9d63 b0ca b67c f061 e54b
00000030: 256f 4ecb 2c78 b0ca 940c fb66 c481 75b5
00000040: 16ce d67a b440 4822 40d3 a755 a39f c639
00000050: 9d81 150c a03e 7265 5d30 d471 2167 4e47
00000060: 6555 8555 f5d1 404b fc4f 5995 b00f c4e6
00000070: 45c8 59da 541b a60e f88a 2de4 4ac1 625c
00000080: 48e5 bcfa 6190 5e86 4256 b436 1cce eb33
00000090: 42a0 0c45 d8dc 1d3e bafc 6ca6 bf45 fa1d
000000a0: c76c c361 4e1e c967 1833 98fe ac53 244a
000000b0: fc53 5068 58de e6e8 2420 e481 96bc dd24
000000c0: 4465 57f9 6f3b a945 6d73 1ff2 d3db e140
000000d0: 3845 5965 1e0e 04f8 9caf 2767 4f25 4e38
000000e0: 2a67 e4f2 fb5e 1b84 e89a 5e57 0be0 03ca
000000f0: 38ca eae3 3f57 ad5f 4099 9d27 6487 d5f1
40 -60 -44 -20 110 -43 -16 47
-110 45 -78 -8 -119 -29 -96 -80
66 102 -108 -81 -50 51 7 -56
104 -125 102 -103 -31 124 15 -37
51 116 -83 127 -64 85 -99 99
-80 -54 -74 124 -16 97 -27 75
37 111 78 -53 44 120 -80 -54
-108 12 -5 102 -60 -127 117 -75
22 -50 -42 122 -76 64 72 34
64 -45 -89 85 -93 -97 -58 57
-99 -127 21 12 -96 62 114 101
93 48 -44 113 33 103 78 71
101 85 -123 85 -11 -47 64 75
-4 79 89 -107 -80 15 -60 -26
69 -56 89 -38 84 27 -90 14
-8 -118 45 -28 74 -63 98 92
72 -27 -68 -6 97 -112 94 -122
66 86 -76 54 28 -50 -21 51
66 -96 12 69 -40 -36 29 62
-70 -4 108 -90 -65 69 -6 29
-57 108 -61 97 78 30 -55 103
24 51 -104 -2 -84 83 36 74
-4 83 80 104 88 -34 -26 -24
36 32 -28 -127 -106 -68 -35 36
68 101 87 -7 111 59 -87 69
109 115 31 -14 -45 -37 -31 64
56 69 89 101 30 14 4 -8
-100 -81 39 103 79 37 78 56
42 103 -28 -14 -5 94 27 -124
-24 -102 94 87 11 -32 3 -54
56 -54 -22 -29 63 87 -83 95
64 -103 -99 39 100 -121 -43 -15

model/mobilenetv2_0.50_64/block_14_project/Conv2D i1 [80, 1, 1, 480]
00000000: bf25 71e9 5d34 2de3 4327 46fd 9659 e446
00000010: 374e 34b0 2eca e8b8 3fca 4896 68ee c040
00000020: 3c39 c505 9ae0 f36e f5f2 c0eb 48ee b641
00000030: 4b9c 99fc 3ad9 ade4 53d7 3c11 4442 0072
00000040: 225a 4bc3 f834 141d bd72 505c 19db b154
00000050: 53a7 2597 cb28 dcef a7b1 2335 acf4 bfea
00000060: a8dc edcd 1fd8 ee18 cebd 6e4d 9b6a e6cb
00000070: 1bca e52a b110 1df0 d3cf a734 c5fd 1eed
00000080: b092 56da 549a 2456 5e3a 3416 55a9 3d6d
00000090: 414d 9764 f56c 67d7 a29e 4aaa f417 c792
000000a0: 5acb 1e30 15d6 fe6a 3c7f 3f30 164f 5b92
000000b0: e1d8 b3ca 4be1 67fb 238f 0555 a375 6d7b
000000c0: df01 48b0 d299 2090 a99d 501a 248b 3333
000000d0: 95a8 9994 06d3 c2e2 55a7 cf97 1d8b 0f1d
000000e0: cb49 a2ce 9a6c 955c 131f af4d 2043 d4c6
000000f0: ec1e 1c29 8433 4e0f d1e3 c3f2 5f8f 30ae
-65 37 113 -23 93 52 45 -29
67 39 70 -3 -106 89 -28 70
55 78 52 -80 46 -54 -24 -72
63 -54 72 -106 104 -18 -64 64
60 57 -59 5 -102 -32 -13 110
-11 -14 -64 -21 72 -18 -74 65
75 -100 -103 -4 58 -39 -83 -28
83 -41 60 17 68 66 0 114
34 90 75 -61 -8 52 20 29
-67 114 80 92 25 -37 -79 84
83 -89 37 -105 -53 40 -36 -17
-89 -79 35 53 -84 -12 -65 -22
-88 -36 -19 -51 31 -40 -18 24
-50 -67 110 77 -101 106 -26 -53
27 -54 -27 42 -79 16 29 -16
-45 -49 -89 52 -59 -3 30 -19
-80 -110 86 -38 84 -102 36 86
94 58 52 22 85 -87 61 109
65 77 -105 100 -11 108 103 -41
-94 -98 74 -86 -12 23 -57 -110
90 -53 30 48 21 -42 -2 106
60 127 63 48 22 79 91 -110
-31 -40 -77 -54 75 -31 103 -5
35 -113 5 85 -93 117 109 123
-33 1 72 -80 -46 -103 32 -112
-87 -99 80 26 36 -117 51 51
-107 -88 -103 -108 6 -45 -62 -30
85 -89 -49 -105 29 -117 15 29
-53 73 -94 -50 -102 108 -107 92
19 31 -81 77 32 67 -44 -58
-20 30 28 41 -124 51 78 15
-47 -29 -61 -14 95 -113 48 -82

model/mobilenetv2_0.50_64/block_14_depthwise_BN/FusedBatchNormV3;model/mobilenetv2_0.50_64/block_14_depthwise/depthwise;model/mobilenetv2_0.50_64/block_16_depthwise/depthwise i1 [1, 3, 3, 480]
00000000: 7f7f fc5c 578c d390 817b ebd3 d0b9 e596
00000010: 857f f946 25b8 a1d4 655d 322b 1a0f 7f9f
00000020: 233a 7381 243e c81e d64d 62df 504b 81b9
00000030: 530b 47ac df07 ae3a 6d1e 198b 4cce 3920
00000040: a37c 3ed3 f25b 7f05 d996 6a8f 7f7c 7dd6
00000050: 08b9 0c35 2b0e ad3d e41f f75b ce7f 1f60
00000060: b498 3a8d 26db 8c10 b314 6aab 7f32 c5f6
00000070: de7f 0fdd 3739 2311 6061 6d0e 16c0 2ed6
00000080: ecc4 457f 2635 8151 862f dab5 a5a1 cfa8
00000090: cc92 b4a5 c304 0f6e 172b 7c2b fded e3a5
000000a0: 453c 4c1c 8127 e246 cfcb 99e4 ffcd d0ca
000000b0: 740c 904e 90d9 8ba7 7406 3a3a 4554 467c
000000c0: d8ba ec39 7c57 0d48 5558 8149 8121 79a1
000000d0: 2b7f 062f 90a5 d158 74de 449b aef1 92de
000000e0: 9538 a2b2 098f fffa 4e81 564c a2c5 51dc
000000f0: 9b88 1c0e b45e 7d28 d907 ef67 f39b 334c
127 127 -4 92 87 -116 -45 -112
-127 123 -21 -45 -48 -71 -27 -106
-123 127 -7 70 37 -72 -95 -44
101 93 50 43 26 15 127 -97
35 58 115 -127 36 62 -56 30
-42 77 98 -33 80 75 -127 -71
83 11 71 -84 -33 7 -82 58
109 30 25 -117 76 -50 57 32
-93 124 62 -45 -14 91 127 5
-39 -106 106 -113 127 124 125 -42
8 -71 12 53 43 14 -83 61
-28 31 -9 91 -50 127 31 96
-76 -104 58 -115 38 -37 -116 16
-77 20 106 -85 127 50 -59 -10
-34 127 15 -35 55 57 35 17
96 97 109 14 22 -64 46 -42
-20 -60 69 127 38 53 -127 81
-122 47 -38 -75 -91 -95 -49 -88
-52 -110 -76 -91 -61 4 15 110
23 43 124 43 -3 -19 -29 -91
69 60 76 28 -127 39 -30 70
-49 -53 -103 -28 -1 -51 -48 -54
116 12 -112 78 -112 -39 -117 -89
116 6 58 58 69 84 70 124
-40 -70 -20 57 124 87 13 72
85 88 -127 73 -127 33 121 -95
43 127 6 47 -112 -91 -47 88
116 -34 68 -101 -82 -15 -110 -34
-107 56 -94 -78 9 -113 -1 -6
78 -127 86 76 -94 -59 81 -36
-101 -120 28 14 -76 94 125 40
-39 7 -17 103 -13 -101 51 76

model/mobilenetv2_0.50_64/block_14_expand/Conv2D i1 [480, 1, 1, 80]
00000000: 0bab 9ee7 4c86 2ac6 0f8e 11cd 94e7 e3fa
00000010: 39c6 50fe 7edd c8a4 29f8 a3e4 3a1a 9724
00000020: 42c6 c17f 440f b03c 5635 6447 3864 4f67
00000030: f174 6b5a 9351 5c1e dc4f a73a 21ca 7a85
00000040: 9dde ae6b f510 f462 4a1c 042c 2a90 9a19
00000050: a558 0dd9 1b5f 0bf1 674f 4fdd 35e0 c6d6
00000060: a212 56e5 7ca8 f0c3 1f43 0c87 17f6 971e
00000070: 1c01 5f3f 3755 6e37 64c4 d1d1 efb6 4a7a
00000080: f144 68fe 0914 a666 1d8f fee0 5734 4e22
00000090: 503b 2e27 cda4 dca3 c976 8b81 2b9b c3d7
000000a0: dc63 0713 5aca ac8c 3bd9 d9e9 c1b1 fe05
000000b0: bc52 3e81 f239 8c71 67b7 5c89 aa05 ffb2
000000c0: eb16 6258 bbf1 fd64 61ef 5ba1 2e5b 04b9
000000d0: 4a24 4f1e e4d7 be6c be77 75b3 c350 cfd0
000000e0: 59cf ff1e 30f3 0026 1f26 bfe1 d2ad dc07
000000f0: be08 fb52 4e09 d1cc 86e3 7651 1f5e f46d
11 -85 -98 -25 76 -122 42 -58
15 -114 17 -51 -108 -25 -29 -6
57 -58 80 -2 126 -35 -56 -92
41 -8 -93 -28 58 26 -105 36
66 -58 -63 127 68 15 -80 60
86 53 100 71 56 100 79 103
-15 116 107 90 -109 81 92 30
-36 79 -89 58 33 -54 122 -123
-99 -34 -82 107 -11 16 -12 98
74 28 4 44 42 -112 -102 25
-91 88 13 -39 27 95 11 -15
103 79 79 -35 53 -32 -58 -42
-94 18 86 -27 124 -88 -16 -61
31 67 12 -121 23 -10 -105 30
28 1 95 63 55 85 110 55
100 -60 -47 -47 -17 -74 74 122
-15 68 104 -2 9 20 -90 102
29 -113 -2 -32 87 52 78 34
80 59 46 39 -51 -92 -36 -93
-55 118 -117 -127 43 -101 -61 -41
-36 99 7 19 90 -54 -84 -116
59 -39 -39 -23 -63 -79 -2 5
-68 82 62 -127 -14 57 -116 113
103 -73 92 -119 -86 5 -1 -78
-21 22 98 88 -69 -15 -3 100
97 -17 91 -95 46 91 4 -71
74 36 79 30 -28 -41 -66 108
-66 119 117 -77 -61 80 -49 -48
89 -49 -1 30 48 -13 0 38
31 38 -65 -31 -46 -83 -36 7
-66 8 -5 82 78 9 -47 -52
-122 -29 118 81 31 94 -12 109

model/mobilenetv2_0.50_64/block_13_project/Conv2D i1 [80, 1, 1, 288]
00000000: 3e28 aee8 6d41 375c 43ed 7442 954e fdb4
00000010: d927 c634 f1ed e8c5 f1f1 e467 f2eb fee3
00000020: 74ac c4f8 afd8 ebc0 1891 9bd2 6432 4cae
00000030: 00db 0ca5 6f3b 2bf7 dfa4 fc14 9967 ae3d
00000040: 05b0 41cc 0333 c8e4 ed8f 0791 c359 f847
00000050: 942f a907 a2c8 b38e 2f45 fb07 e096 fc6e
00000060: f548 2efe 53e5 971c 0caf 81ca dbb1 c1be
00000070: 2bd5 5ae6 b88a 27c2 650c 0b9d 5d99 3650
00000080: 5291 1577 bbc1 fd22 b260 c9f1 22b1 77ba
00000090: 8734 dcee b3f0 d01f b2d0 e510 3f6b b954
000000a0: 3851 4b52 0ebd dc32 9d6a 47cd 1af3 64ba
000000b0: 50a5 a346 a42a 3ea0 cd6c 010d e339 07be
000000c0: 2713 abfd 91db 232e 4b4c 4576 fe3e 9a53
000000d0: 8c20 f2af 37c7 699e c6cf 6903 25b7 0f4c
000000e0: 74f4 36f1 5e13 b03b bee3 5062 9693 028c
000000f0: 332e e0a4 b13a 3ca2 9615 144a 1386 78e3
62 40 -82 -24 109 65 55 92
67 -19 116 66 -107 78 -3 -76
-39 39 -58 52 -15 -19 -24 -59
-15 -15 -28 103 -14 -21 -2 -29
116 -84 -60 -8 -81 -40 -21 -64
24 -111 -101 -46 100 50 76 -82
0 -37 12 -91 111 59 43 -9
-33 -92 -4 20 -103 103 -82 61
5 -80 65 -52 3 51 -56 -28
-19 -113 7 -111 -61 89 -8 71
-108 47 -87 7 -94 -56 -77 -114
47 69 -5 7 -32 -106 -4 110
-11 72 46 -2 83 -27 -105 28
12 -81 -127 -54 -37 -79 -63 -66
43 -43 90 -26 -72 -118 39 -62
101 12 11 -99 93 -103 54 80
82 -111 21 119 -69 -63 -3 34
-78 96 -55 -15 34 -79 119 -70
-121 52 -36 -18 -77 -16 -48 31
-78 -48 -27 16 63 107 -71 84
56 81 75 82 14 -67 -36 50
-99 106 71 -51 26 -13 100 -70
80 -91 -93 70 -92 42 62 -96
-51 108 1 13 -29 57 7 -66
39 19 -85 -3 -111 -37 35 46
75 76 69 118 -2 62 -102 83
-116 32 -14 -81 55 -57 105 -98
-58 -49 105 3 37 -73 15 76
116 -12 54 -15 94 19 -80 59
-66 -29 80 98 -106 -109 2 -116
51 46 -32 -92 -79 58 60 -94
-106 21 20 74 19 -122 120 -29

model/mobilenetv2_0.50_64/block_13_depthwise_BN/FusedBatchNormV3;model/mobilenetv2_0.50_64/block_13_depthwise/depthwise i1 [1, 3, 3, 288]
00000000: ed09 7f96 9d43 2cf3 8181 19c9 4e81 f8fe
00000010: 8160 64bf 0328 d9de 9489 78c1 d8b1 077f
00000020: 0b4b 8100 4cf1 94dc 8192 3398 8181 e548
00000030: a631 be5c 5abb 5981 42cc 1349 8129 096c
00000040: cb7e a83d 1c11 faf7 d441 6327 30d8 2c81
00000050: 100f 60f0 27af 4bcc d953 71e1 4323 3a94
00000060: c253 8a25 789e 64cd 81b2 0eff 7981 7faf
00000070: fa1d 7fc5 43a9 d781 818d 3481 3cb0 7f6e
00000080: e669 e57e 77b7 aaa1 f6e4 e556 51bb eca0
00000090: 2179 86f9 817f 55e9 d97c 794f 63a3 9d17
000000a0: 81e1 4eb8 7f04 95fd b601 ff4d 6e79 812f
000000b0: a9ff c9e5 571d 9262 7768 7f5d 2631 81d0
000000c0: 8104 81dd be4d 0c8c 4f7f 8969 b9ef 5c7e
000000d0: e3b5 aa0c c37f c046 cbb5 0536 a296 6ea2
000000e0: 1ff7 3320 4bd1 667f c67b 3c90 047f 631d
000000f0: 7ca0 08c2 1f9d e0ef da81 357f ce39 3608
-19 9 127 -106 -99 67 44 -13
-127 -127 25 -55 78 -127 -8 -2
-127 96 100 -65 3 40 -39 -34
-108 -119 120 -63 -40 -79 7 127
11 75 -127 0 76 -15 -108 -36
-127 -110 51 -104 -127 -127 -27 72
-90 49 -66 92 90 -69 89 -127
66 -52 19 73 -127 41 9 108
-53 126 -88 61 28 17 -6 -9
-44 65 99 39 48 -40 44 -127
16 15 96 -16 39 -81 75 -52
-39 83 113 -31 67 35 58 -108
-62 83 -118 37 120 -98 100 -51
-127 -78 14 -1 121 -127 127 -81
-6 29 127 -59 67 -87 -41 -127
-127 -115 52 -127 60 -80 127 110
-26 105 -27 126 119 -73 -86 -95
-10 -28 -27 86 81 -69 -20 -96
33 121 -122 -7 -127 127 85 -23
-39 124 121 79 99 -93 -99 23
-127 -31 78 -72 127 4 -107 -3
-74 1 -1 77 110 121 -127 47
-87 -1 -55 -27 87 29 -110 98
119 104 127 93 38 49 -127 -48
-127 4 -127 -35 -66 77 12 -116
79 127 -119 105 -71 -17 92 126
-29 -75 -86 12 -61 127 -64 70
-53 -75 5 54 -94 -106 110 -94
31 -9 51 32 75 -47 102 127
-58 123 60 -112 4 127 99 29
124 -96 8 -62 31 -99 -32 -17
-38 -127 53 127 -50 57 54 8

model/mobilenetv2_0.50_64/block_13_expand/Conv2D i1 [288, 1, 1, 48]
00000000: 37ab 5ae8 81ce 94b3 0996 238b 64bb bcb6
00000010: 8c05 9047 292b dfc4 738f f9ee 002c 72f8
00000020: ed79 5eee 3a15 c0a0 9c54 1513 e899 1eeb
00000030: dc3d ba25 4886 a684 790c 8e0b 01c7 f4af
00000040: 03f5 f599 7ee6 0af3 3b52 45ce 31ed 58b3
00000050: 7d56 e20f 429c ad81 1ab0 3fb8 b99b a5ae
00000060: cb32 0cf6 c0a0 01a4 912e d5dd 4a52 d672
00000070: 780f 3f0f 0708 33f1 e3dd 6197 4a61 d601
00000080: 09aa e47f 1f53 665a 7b9e c01a 3fda 7087
00000090: cc45 d30b c845 cb91 bfc8 81af f254 ba2a
000000a0: 0856 3690 49a2 e016 904c 085f 98b9 995d
000000b0: 4d3d 784f bc89 d569 b8c1 4c43 543f af2e
000000c0: fe37 cd5c d604 04b2 7677 fdb4 04f3 1bc1
000000d0: 04ad 8a7a 7f61 f600 b8b9 bbc4 e796 d2b7
000000e0: 03a3 a7ee b7be 2099 ed3c 6507 ea67 4688
000000f0: e3da 7037 20f5 7b15 f771 b553 8e5e ee00
55 -85 90 -24 -127 -50 -108 -77
9 -106 35 -117 100 -69 -68 -74
-116 5 -112 71 41 43 -33 -60
115 -113 -7 -18 0 44 114 -8
-19 121 94 -18 58 21 -64 -96
-100 84 21 19 -24 -103 30 -21
-36 61 -70 37 72 -122 -90 -124
121 12 -114 11 1 -57 -12 -81
3 -11 -11 -103 126 -26 10 -13
59 82 69 -50 49 -19 88 -77
125 86 -30 15 66 -100 -83 -127
26 -80 63 -72 -71 -101 -91 -82
-53 50 12 -10 -64 -96 1 -92
-111 46 -43 -35 74 82 -42 114
120 15 63 15 7 8 51 -15
-29 -35 97 -105 74 97 -42 1
9 -86 -28 127 31 83 102 90
123 -98 -64 26 63 -38 112 -121
-52 69 -45 11 -56 69 -53 -111
-65 -56 -127 -81 -14 84 -70 42
8 86 54 -112 73 -94 -32 22
-112 76 8 95 -104 -71 -103 93
77 61 120 79 -68 -119 -43 105
-72 -63 76 67 84 63 -81 46
-2 55 -51 92 -42 4 4 -78
118 119 -3 -76 4 -13 27 -63
4 -83 -118 122 127 97 -10 0
-72 -71 -69 -60 -25 -106 -46 -73
3 -93 -89 -18 -73 -66 32 -103
-19 60 101 7 -22 103 70 -120
-29 -38 112 55 32 -11 123 21
-9 113 -75 83 -114 94 -18 0

model/mobilenetv2_0.50_64/block_12_project/Conv2D i1 [48, 1, 1, 288]
00000000: d3c4 371e b3ac 3f6a 568c 2a30 f5b3 3edf
00000010: 0e3a eeee 0bd5 d8ad 4d99 58ca ef3c 7792
00000020: 4a07 5ce0 bf56 4c02 1d45 4fc1 018d c14e
00000030: 4204 5831 e839 5643 452a c7fb 8ea4 1e55
00000040: d89e df27 abd8 5031 32c6 d1df 5dfb 5aab
00000050: d839 98a8 98af 92d9 482e 606d b611 6c76
00000060: 5003 af5a fa86 d72e 3131 f008 f395 102e
00000070: 7423 89ee d6f4 a7d8 812f a96e fa0c 9697
00000080: cd73 0862 4736 550c 5937 4b94 6c34 aa9e
00000090: 0a68 db41 5acb 4728 1420 c7c8 26ca e9d0
000000a0: bd63 9766 fe15 9af6 286c f115 1646 f59f
000000b0: d0e9 0e36 1908 a458 194b fc44 ec0a 7012
000000c0: 1b44 8ef1 4e2b ab5a c0c3 39de 2e68 0725
000000d0: dd8d 3b14 fb8c 9df1 3df0 5a5c 7807 e5dd
000000e0: 407c 16d2 ecfe c4be fcdf f4d8 f5fb 482b
000000f0: 9064 5e73 75d7 efba 0b29 eee3 ecbf e2d1
-45 -60 55 30 -77 -84 63 106
86 -116 42 48 -11 -77 62 -33
14 58 -18 -18 11 -43 -40 -83
77 -103 88 -54 -17 60 119 -110
74 7 92 -32 -65 86 76 2
29 69 79 -63 1 -115 -63 78
66 4 88 49 -24 57 86 67
69 42 -57 -5 -114 -92 30 85
-40 -98 -33 39 -85 -40 80 49
50 -58 -47 -33 93 -5 90 -85
-40 57 -104 -88 -104 -81 -110 -39
72 46 96 109 -74 17 108 118
80 3 -81 90 -6 -122 -41 46
49 49 -16 8 -13 -107 16 46
116 35 -119 -18 -42 -12 -89 -40
-127 47 -87 110 -6 12 -106 -105
-51 115 8 98 71 54 85 12
89 55 75 -108 108 52 -86 -98
10 104 -37 65 90 -53 71 40
20 32 -57 -56 38 -54 -23 -48
-67 99 -105 102 -2 21 -102 -10
40 108 -15 21 22 70 -11 -97
-48 -23 14 54 25 8 -92 88
25 75 -4 68 -20 10 112 18
27 68 -114 -15 78 43 -85 90
-64 -61 57 -34 46 104 7 37
-35 -115 59 20 -5 -116 -99 -15
61 -16 90 92 120 7 -27 -35
64 124 22 -46 -20 -2 -60 -66
-4 -33 -12 -40 -11 -5 72 43
-112 100 94 115 117 -41 -17 -70
11 41 -18 -29 -20 -65 -30 -47

model/mobilenetv2_0.50_64/block_12_depthwise_BN/FusedBatchNormV3;model/mobilenetv2_0.50_64/block_12_depthwise/depthwise;model/mobilenetv2_0.50_64/block_13_depthwise/depthwise i1 [1, 3, 3, 288]
00000000: 720d a07f c590 e681 e6af 5bf3 a805 7ee8
00000010: 0b6b 1c7f 76dc abf2 87ad 1d78 8659 8e7f
00000020: 69b2 8107 0b70 d884 7fff 1b7e 0f6d 1086
00000030: 0b82 41d1 5bef 78f1 48e0 b2dd 6bd1 5768
00000040: e1b4 5fc0 40f5 c726 4a3e 9144 bdde 0c92
00000050: 0416 81b3 da6d 5370 7f7b 99e3 0f81 b1d0
00000060: b95e a5f6 05fd 39c8 097f 6c7f 0454 eeda
00000070: fc6e 5a24 343c 5bb6 8c76 ed00 327f 13c5
00000080: 0d34 b1b4 18eb 2f7c cb0c 6145 1aa2 5b8f
00000090: 7fcb 8104 06fa d6e9 1f10 4d15 4950 e49a
000000a0: 4aa7 e76b 7348 1bdb 7f0c fe81 6f2f acae
000000b0: 810a 9aac 8139 6e81 852e 816b 1681 deeb
000000c0: aa9c 8181 f8dc 1802 b996 4181 c865 2a36
000000d0: 7849 4364 243a 7f7a 5cd7 cf35 bbd3 1f41
000000e0: 6a1e 7f99 8100 b20e 147f 9381 48b3 b7ad
000000f0: eaaa 270c 81ff 1d90 02fa fef2 9c34 5c95
114 13 -96 127 -59 -112 -26 -127
-26 -81 91 -13 -88 5 126 -24
11 107 28 127 118 -36 -85 -14
-121 -83 29 120 -122 89 -114 127
105 -78 -127 7 11 112 -40 -124
127 -1 27 126 15 109 16 -122
11 -126 65 -47 91 -17 120 -15
72 -32 -78 -35 107 -47 87 104
-31 -76 95 -64 64 -11 -57 38
74 62 -111 68 -67 -34 12 -110
4 22 -127 -77 -38 109 83 112
127 123 -103 -29 15 -127 -79 -48
-71 94 -91 -10 5 -3 57 -56
9 127 108 127 4 84 -18 -38
-4 110 90 36 52 60 91 -74
-116 118 -19 0 50 127 19 -59
13 52 -79 -76 24 -21 47 124
-53 12 97 69 26 -94 91 -113
127 -53 -127 4 6 -6 -42 -23
31 16 77 21 73 80 -28 -102
74 -89 -25 107 115 72 27 -37
127 12 -2 -127 111 47 -84 -82
-127 10 -102 -84 -127 57 110 -127
-123 46 -127 107 22 -127 -34 -21
-86 -100 -127 -127 -8 -36 24 2
-71 -106 65 -127 -56 101 42 54
120 73 67 100 36 58 127 122
92 -41 -49 53 -69 -45 31 65
106 30 127 -103 -127 0 -78 14
20 127 -109 -127 72 -77 -73 -83
-22 -86 39 12 -127 -1 29 -112
2 -6 -2 -14 -100 52 92 -107

model/mobilenetv2_0.50_64/block_12_expand/Conv2D i1 [288, 1, 1, 48]
00000000: aff5 bef6 2d8b 382e 0462 15d8 a101 788b
00000010: 67cf dcc1 658d 4cb3 d6e6 c0a6 04c8 766d
00000020: 3903 50c7 c586 7f13 bfe0 9e56 228f b7ca
00000030: 53fc 814a d9b6 46a2 4f35 47dd fd4f 9b3d
00000040: 15d1 e4e7 1cfe 7e38 1cb3 7287 52fd bee9
00000050: a43e c82e 934f 4d31 9c3c ab84 192e dc7a
00000060: a8da fb54 b6ff a142 0fc6 ad70 d08a d3d8
00000070: 2a2c 0f1d 7064 95a7 e61f 4ded 0cc6 2610
00000080: e8fe 3a81 b6a1 f2d0 34ba 8ea7 b770 f605
00000090: 060a 16a0 7be7 0725 9a88 1367 63a5 e006
000000a0: 5377 0faf c12f c9b7 5398 d9ef a81b 4d7f
000000b0: 0503 a8f3 3c6c e88e 2756 0e9c 89f2 e63c
000000c0: d449 8b58 f698 e3aa d98b 92a4 a2f8 1e91
000000d0: 544c 62d2 94e0 adcd aa26 fdb8 77f6 4aa7
000000e0: dbd0 6e7f 8744 5c77 e96c d70b 8e87 4166
000000f0: dc48 8139 6bc9 26c4 98df aaa5 096a 1df5
-81 -11 -66 -10 45 -117 56 46
4 98 21 -40 -95 1 120 -117
103 -49 -36 -63 101 -115 76 -77
-42 -26 -64 -90 4 -56 118 109
57 3 80 -57 -59 -122 127 19
-65 -32 -98 86 34 -113 -73 -54
83 -4 -127 74 -39 -74 70 -94
79 53 71 -35 -3 79 -101 61
21 -47 -28 -25 28 -2 126 56
28 -77 114 -121 82 -3 -66 -23
-92 62 -56 46 -109 79 77 49
-100 60 -85 -124 25 46 -36 122
-88 -38 -5 84 -74 -1 -95 66
15 -58 -83 112 -48 -118 -45 -40
42 44 15 29 112 100 -107 -89
-26 31 77 -19 12 -58 38 16
-24 -2 58 -127 -74 -95 -14 -48
52 -70 -114 -89 -73 112 -10 5
6 10 22 -96 123 -25 7 37
-102 -120 19 103 99 -91 -32 6
83 119 15 -81 -63 47 -55 -73
83 -104 -39 -17 -88 27 77 127
5 3 -88 -13 60 108 -24 -114
39 86 14 -100 -119 -14 -26 60
-44 73 -117 88 -10 -104 -29 -86
-39 -117 -110 -92 -94 -8 30 -111
84 76 98 -46 -108 -32 -83 -51
-86 38 -3 -72 119 -10 74 -89
-37 -48 110 127 -121 68 92 119
-23 108 -41 11 -114 -121 65 102
-36 72 -127 57 107 -55 38 -60
-104 -33 -86 -91 9 106 29 -11

model/mobilenetv2_0.50_64/block_11_project/Conv2D i1 [48, 1, 1, 288]
00000000: 8f22 0360 a61d eadf ea11 1915 48d9 ffc6
00000010: f7f4 96c2 e08f 61ea ab3f 3755 6f02 982b
00000020: 676e 2688 3f1a 4de8 5353 ea40 08e4 9610
00000030: cfae 6df1 0039 141e 0cd3 51c2 1249 20e1
00000040: 95c7 0dd9 f004 6006 5e07 2eea b6af f527
00000050: 9c76 b6c8 5aec 9070 a7ae 23d7 a723 2666
00000060: d27e e1d8 e3cd e944 0fc4 c1ea 4bd7 3bdb
00000070: d985 91d6 3aec c3dd 4000 d51d ec46 21e0
00000080: 3e36 af62 9f7f fa00 ceba 2b66 93bd 0eb0
00000090: a2c9 9611 62d5 b02e 7003 cc3b a43b a82e
000000a0: 3d9d c524 c5aa 6426 5e47 52c6 2ad6 4646
000000b0: bc0f 3dd6 798e 048e 2515 6703 da63 2acf
000000c0: 28f1 8768 73e4 2e35 613a 8cd7 23fc a5f1
000000d0: 5ba5 a313 9aa8 dba7 e254 de74 369e 78c4
000000e0: 68fa 14ca ce8c be62 fdb6 5b52 2e59 cb42
000000f0: d756 ddce dfcc 2c97 3c55 a6ad 5bfa 3c5e
-113 34 3 96 -90 29 -22 -33
-22 17 25 21 72 -39 -1 -58
-9 -12 -106 -62 -32 -113 97 -22
-85 63 55 85 111 2 -104 43
103 110 38 -120 63 26 77 -24
83 83 -22 64 8 -28 -106 16
-49 -82 109 -15 0 57 20 30
12 -45 81 -62 18 73 32 -31
-107 -57 13 -39 -16 4 96 6
94 7 46 -22 -74 -81 -11 39
-100 118 -74 -56 90 -20 -112 112
-89 -82 35 -41 -89 35 38 102
-46 126 -31 -40 -29 -51 -23 68
15 -60 -63 -22 75 -41 59 -37
-39 -123 -111 -42 58 -20 -61 -35
64 0 -43 29 -20 70 33 -32
62 54 -81 98 -97 127 -6 0
-50 -70 43 102 -109 -67 14 -80
-94 -55 -106 17 98 -43 -80 46
112 3 -52 59 -92 59 -88 46
61 -99 -59 36 -59 -86 100 38
94 71 82 -58 42 -42 70 70
-68 15 61 -42 121 -114 4 -114
37 21 103 3 -38 99 42 -49
40 -15 -121 104 115 -28 46 53
97 58 -116 -41 35 -4 -91 -15
91 -91 -93 19 -102 -88 -37 -89
-30 84 -34 116 54 -98 120 -60
104 -6 20 -54 -50 -116 -66 98
-3 -74 91 82 46 89 -53 66
-41 86 -35 -50 -33 -52 44 -105
60 85 -90 -83 91 -6 60 94

model/mobilenetv2_0.50_64/block_11_depthwise_BN/FusedBatchNormV3;model/mobilenetv2_0.50_64/block_11_depthwise/depthwise;model/mobilenetv2_0.50_64/block_13_depthwise/depthwise i1 [1, 3, 3, 288]
00000000: 8c5c 45f8 5f45 7c94 4281 765c e98b 4501
00000010: 81e9 2e41 5557 419d a275 dbef 116c 7ff5
00000020: 6328 8105 e6b0 4a8e a34c 8181 9715 5766
00000030: 391d 110b 3b81 fe7f 63e8 6324 f97f acc3
00000040: 7016 3add a981 71f6 e455 7f43 477f 0c6b
00000050: ac61 3258 ee01 be44 293c 948a 2952 9209
00000060: 9154 cd81 48ac c9fc b1a0 759b 59c5 1fc9
00000070: 65a0 9bc1 bf94 daca 716e 81ed 957f d727
00000080: a3e4 c506 c98f e8a6 4943 0fd8 3ad2 110c
00000090: 2b7f ca81 0507 629c 918e 899e 0c81 1925
000000a0: 4668 541e 0f77 7898 8fa3 3217 f989 1b66
000000b0: 66a9 a055 c932 3bde ab63 d7e1 7f67 2340
000000c0: 817f 7b01 4c71 82a4 bb7f 410a a808 2d32
000000d0: b097 2c59 5b20 7fe9 3c8b 3686 8b78 28b5
000000e0: bce7 3716 909a e00e 0b66 7f47 e472 ca1c
000000f0: 7f9c a225 a98b 35eb 601f 695e 2c55 617f
-116 92 69 -8 95 69 124 -108
66 -127 118 92 -23 -117 69 1
-127 -23 46 65 85 87 65 -99
-94 117 -37 -17 17 108 127 -11
99 40 -127 5 -26 -80 74 -114
-93 76 -127 -127 -105 21 87 102
57 29 17 11 59 -127 -2 127
99 -24 99 36 -7 127 -84 -61
112 22 58 -35 -87 -127 113 -10
-28 85 127 67 71 127 12 107
-84 97 50 88 -18 1 -66 68
41 60 -108 -118 41 82 -110 9
-111 84 -51 -127 72 -84 -55 -4
-79 -96 117 -101 89 -59 31 -55
101 -96 -101 -63 -65 -108 -38 -54
113 110 -127 -19 -107 127 -41 39
-93 -28 -59 6 -55 -113 -24 -90
73 67 15 -40 58 -46 17 12
43 127 -54 -127 5 7 98 -100
-111 -114 -119 -98 12 -127 25 37
70 104 84 30 15 119 120 -104
-113 -93 50 23 -7 -119 27 102
102 -87 -96 85 -55 50 59 -34
-85 99 -41 -31 127 103 35 64
-127 127 123 1 76 113 -126 -92
-69 127 65 10 -88 8 45 50
-80 -105 44 89 91 32 127 -23
60 -117 54 -122 -117 120 40 -75
-68 -25 55 22 -112 -102 -32 14
11 102 127 71 -28 114 -54 28
127 -100 -94 37 -87 -117 53 -21
96 31 105 94 44 85 97 127

model/mobilenetv2_0.50_64/block_11_expand/Conv2D i1 [288, 1, 1, 48]
00000000: 1249 1d10 d891 fbfd 3dc2 65eb 4c42 4190
00000010: b34d 2079 868b e4f4 bf81 70f0 11a0 9359
00000020: f6c5 0e82 05ab 3374 94de 05cd 25f3 a9dd
00000030: e220 1814 9fae 8447 eb96 dad6 b53c 0141
00000040: 3a68 38ad 0a24 e121 b475 7070 e681 3aec
00000050: 7407 2b65 cac2 c0bc 0a50 4396 905c 74c8
00000060: 67ca cec9 6581 7b18 3527 fc21 2ea8 7d79
00000070: a7d4 4422 c04a 3a5e 05fd c493 cb5a ec41
00000080: 7685 4311 6913 1428 1f56 53af 43f3 ee4e
00000090: 9a7f cadc d34b d370 3e45 81a8 f187 0774
000000a0: 4203 150d 16ed 71ce 6a77 e505 6da9 1e08
000000b0: 51e0 2254 37a2 be2b 471c af23 ac28 493c
000000c0: 5162 29a7 595a 7001 2baa b452 3f6e 32a1
000000d0: 17ab b842 3ffa 984d 62e7 7f60 f35f 169a
000000e0: 25fa ee51 e7b8 1918 d43e 58f4 f8af 5eb8
000000f0: d003 1973 26cb a945 5bf1 d08a 8c28 c4d9
18 73 29 16 -40 -111 -5 -3
61 -62 101 -21 76 66 65 -112
-77 77 32 121 -122 -117 -28 -12
-65 -127 112 -16 17 -96 -109 89
-10 -59 14 -126 5 -85 51 116
-108 -34 5 -51 37 -13 -87 -35
-30 32 24 20 -97 -82 -124 71
-21 -106 -38 -42 -75 60 1 65
58 104 56 -83 10 36 -31 33
-76 117 112 112 -26 -127 58 -20
116 7 43 101 -54 -62 -64 -68
10 80 67 -106 -112 92 116 -56
103 -54 -50 -55 101 -127 123 24
53 39 -4 33 46 -88 125 121
-89 -44 68 34 -64 74 58 94
5 -3 -60 -109 -53 90 -20 65
118 -123 67 17 105 19 20 40
31 86 83 -81 67 -13 -18 78
-102 127 -54 -36 -45 75 -45 112
62 69 -127 -88 -15 -121 7 116
66 3 21 13 22 -19 113 -50
106 119 -27 5 109 -87 30 8
81 -32 34 84 55 -94 -66 43
71 28 -81 35 -84 40 73 60
81 98 41 -89 89 90 112 1
43 -86 -76 82 63 110 50 -95
23 -85 -72 66 63 -6 -104 77
98 -25 127 96 -13 95 22 -102
37 -6 -18 81 -25 -72 25 24
-44 62 88 -12 -8 -81 94 -72
-48 3 25 115 38 -53 -87 69
91 -15 -48 -118 -116 40 -60 -39

model/mobilenetv2_0.50_64/block_10_project/Conv2D i1 [48, 1, 1, 192]
00000000: 9eaf c433 ccb5 1e0d e6e7 9a7a 921a e320
00000010: bc01 be0d e64c de91 68ea e23d 56bb d5aa
00000020: 41dd 21de 2c74 c34d 0dbc 75d4 da04 4660
00000030: bdbd 282a 9e1b b966 571d 4e5b f907 0138
00000040: b46c 6979 6840 dfb3 4b51 ba65 dd5b 1e6c
00000050: dc18 e388 7f10 c866 ff35 ff3b 573d 38f5
00000060: 41ba 9537 9d79 493e 478d 3dd2 c2ef c533
00000070: 74df 42a6 b8a6 0a74 e2e6 c334 9637 1ea9
00000080: aad4 9804 25f3 b8bb e239 91dc 5b1f 7e08
00000090: 59b0 4ec4 04fc 8e9a 3178 aca5 5e36 3275
000000a0: 4fc3 49e2 a3a1 6c13 71b1 c021 c0ff e3c9
000000b0: b6d7 c2d4 52cb 7927 76e7 e114 c9e3 65ed
000000c0: 3fc1 b847 2bf6 5c45 4db8 5664 3e17 9e7c
000000d0: 20ac 0214 e0ac fa34 3ba9 ea2b a33d f3ca
000000e0: cbf7 701c 7b11 7225 0939 30b2 413a 7f2c
000000f0: 43bb 7647 6e14 0a6e a766 6b05 b25a 7229
-98 -81 -60 51 -52 -75 30 13
-26 -25 -102 122 -110 26 -29 32
-68 1 -66 13 -26 76 -34 -111
104 -22 -30 61 86 -69 -43 -86
65 -35 33 -34 44 116 -61 77
13 -68 117 -44 -38 4 70 96
-67 -67 40 42 -98 27 -71 102
87 29 78 91 -7 7 1 56
-76 108 105 121 104 64 -33 -77
75 81 -70 101 -35 91 30 108
-36 24 -29 -120 127 16 -56 102
-1 53 -1 59 87 61 56 -11
65 -70 -107 55 -99 121 73 62
71 -115 61 -46 -62 -17 -59 51
116 -33 66 -90 -72 -90 10 116
-30 -26 -61 52 -106 55 30 -87
-86 -44 -104 4 37 -13 -72 -69
-30 57 -111 -36 91 31 126 8
89 -80 78 -60 4 -4 -114 -102
49 120 -84 -91 94 54 50 117
79 -61 73 -30 -93 -95 108 19
113 -79 -64 33 -64 -1 -29 -55
-74 -41 -62 -44 82 -53 121 39
118 -25 -31 20 -55 -29 101 -19
63 -63 -72 71 43 -10 92 69
77 -72 86 100 62 23 -98 124
32 -84 2 20 -32 -84 -6 52
59 -87 -22 43 -93 61 -13 -54
-53 -9 112 28 123 17 114 37
9 57 48 -78 65 58 127 44
67 -69 118 71 110 20 10 110
-89 102 107 5 -78 90 114 41

model/mobilenetv2_0.50_64/block_10_depthwise_BN/FusedBatchNormV3;model/mobilenetv2_0.50_64/block_10_depthwise/depthwise i1 [1, 3, 3, 192]
00000000: dd46 24ac d47a d0c2 810f 86e7 bd65 d259
00000010: 1c22 552e eb68 8133 7f39 2a81 2887 86ac
00000020: e73f 8e81 44a6 ae1c 77f4 0d81 c1dc ccec
00000030: 81dc e879 7f7b 6c2a 7f1b 3f14 6cd6 9e69
00000040: c329 81c8 bb5a 7761 a754 6f52 1fd6 24f5
00000050: 6660 7f96 9376 7f7f 812d 1e8b fb8f 6f00
00000060: 5435 d849 5779 9cb5 71c0 0522 bc39 0d04
00000070: da40 3b7f 6b0d ec57 9823 59e7 c5ab c76b
00000080: 019e 9bc7 ca81 17fd 6e7f 6d34 8e64 369e
00000090: 34db 957f fd32 8181 29a7 bd16 7fa0 3749
000000a0: 7fd7 1081 28c2 7b7f 08ce 8957 abf8 d1b6
000000b0: 9b7f 4bdc c901 997d 4347 94f0 16c6 3b51
000000c0: 81a7 7fde 2540 7fb4 c961 81af 087f 66a9
000000d0: ec8b d673 817f bb07 e8ae e0ff 81b9 a27f
000000e0: b420 4ef3 81e4 2bc9 81ab f3b8 bc41 536d
000000f0: 2a0b 4003 b3ca 7f54 e14c 9d1d 6fcb 9c52
-35 70 36 -84 -44 122 -48 -62
-127 15 -122 -25 -67 101 -46 89
28 34 85 46 -21 104 -127 51
127 57 42 -127 40 -121 -122 -84
-25 63 -114 -127 68 -90 -82 28
119 -12 13 -127 -63 -36 -52 -20
-127 -36 -24 121 127 123 108 42
127 27 63 20 108 -42 -98 105
-61 41 -127 -56 -69 90 119 97
-89 84 111 82 31 -42 36 -11
102 96 127 -106 -109 118 127 127
-127 45 30 -117 -5 -113 111 0
84 53 -40 73 87 121 -100 -75
113 -64 5 34 -68 57 13 4
-38 64 59 127 107 13 -20 87
-104 35 89 -25 -59 -85 -57 107
1 -98 -101 -57 -54 -127 23 -3
110 127 109 52 -114 100 54 -98
52 -37 -107 127 -3 50 -127 -127
41 -89 -67 22 127 -96 55 73
127 -41 16 -127 40 -62 123 127
8 -50 -119 87 -85 -8 -47 -74
-101 127 75 -36 -55 1 -103 125
67 71 -108 -16 22 -58 59 81
-127 -89 127 -34 37 64 127 -76
-55 97 -127 -81 8 127 102 -87
-20 -117 -42 115 -127 127 -69 7
-24 -82 -32 -1 -127 -71 -94 127
-76 32 78 -13 -127 -28 43 -55
-127 -85 -13 -72 -68 65 83 109
42 11 64 3 -77 -54 127 84
-31 76 -99 29 111 -53 -100 82

model/mobilenetv2_0.50_64/block_10_expand/Conv2D i1 [192, 1, 1, 32]
00000000: a717 9a79 2f65 08fa 887d 502c 28fc 8766
00000010: 81d3 19d6 c699 66cd 9857 ded6 007e b923
00000020: ff2f 2a81 1100 5bc2 49e6 0e0f d98e fdc9
00000030: 10c8 c378 b577 c6e9 20d4 0fb6 1551 23ea
00000040: f704 e201 4e20 5c58 6b77 74d4 7e81 9a4f
00000050: d87d 643f 18f3 e3a5 544c 44b8 48b8 8f2e
00000060: b7f9 b411 7f68 7589 2a4d b481 c412 419b
00000070: 5926 85fd 6bbe e006 5541 f57a fc89 efde
00000080: b4ba 98c8 abb3 e4cf 3f7a 1b7f 998e 9cae
00000090: b698 50c6 7d3e 25bd 145e 7166 5d41 cdfe
000000a0: ca30 45d8 a9ea 90ac d079 9f12 bb60 dc56
000000b0: a2ca 8a2a 14b5 b381 e862 ed08 63ad c21d
000000c0: 3681 ab8e 111b 5ef0 414d 192b 48d7 9aff
000000d0: 93af e2df b77b 8bd3 f2cf 028e bcd2 150b
000000e0: e50e 23f0 1f21 12dd 447f d57b 0673 56cc
000000f0: bef4 4b16 9ba1 c1aa ad57 d361 8692 44c7
-89 23 -102 121 47 101 8 -6
-120 125 80 44 40 -4 -121 102
-127 -45 25 -42 -58 -103 102 -51
-104 87 -34 -42 0 126 -71 35
-1 47 42 -127 17 0 91 -62
73 -26 14 15 -39 -114 -3 -55
16 -56 -61 120 -75 119 -58 -23
32 -44 15 -74 21 81 35 -22
-9 4 -30 1 78 32 92 88
107 119 116 -44 126 -127 -102 79
-40 125 100 63 24 -13 -29 -91
84 76 68 -72 72 -72 -113 46
-73 -7 -76 17 127 104 117 -119
42 77 -76 -127 -60 18 65 -101
89 38 -123 -3 107 -66 -32 6
85 65 -11 122 -4 -119 -17 -34
-76 -70 -104 -56 -85 -77 -28 -49
63 122 27 127 -103 -114 -100 -82
-74 -104 80 -58 125 62 37 -67
20 94 113 102 93 65 -51 -2
-54 48 69 -40 -87 -22 -112 -84
-48 121 -97 18 -69 96 -36 86
-94 -54 -118 42 20 -75 -77 -127
-24 98 -19 8 99 -83 -62 29
54 -127 -85 -114 17 27 94 -16
65 77 25 43 72 -41 -102 -1
-109 -81 -30 -33 -73 123 -117 -45
-14 -49 2 -114 -68 -46 21 11
-27 14 35 -16 31 33 18 -35
68 127 -43 123 6 115 86 -52
-66 -12 75 22 -101 -95 -63 -86
-83 87 -45 97 -122 -110 68 -57

model/mobilenetv2_0.50_64/block_9_project/Conv2D i1 [32, 1, 1, 192]
00000000: 7a13 eb13 2494 62c8 e856 3815 4e54 71e6
00000010: 1d90 d001 665a a0e6 4f62 d289 f582 7155
00000020: f3b1 c430 784c 4238 966f 06b0 4f48 e050
00000030: 5d4c f675 7f17 7ef0 21eb cc2f 97c2 d3b4
00000040: f8f2 36da 601e 327e af97 e0b7 0535 c767
00000050: 144e 6674 cd8d 45ff 8355 78b7 83f7 608a
00000060: ceb7 ae1d 7847 d0e5 5c7f ddb9 9239 6c10
00000070: 77da 484a c477 7868 11a7 c5c1 ba7a ebdc
00000080: e05d 84de ca20 37c1 0ad6 ff2d 3892 c9e5
00000090: 7d3e 8e7b 66b6 7e11 3185 de08 e747 3141
000000a0: 50ad 20aa 2317 2284 a2fd e3f2 d124 531c
000000b0: 9494 30d5 60f1 2862 0456 cce3 aadc d438
000000c0: fcd0 39b8 6b76 9542 6e88 8e31 f8f9 e9a4
000000d0: 98db 18ee 4050 2aa9 fc38 2009 b7f5 9a4a
000000e0: 147e 9215 a5b6 1b51 cc4c 3ee9 c6d3 e302
000000f0: c1bf 85a1 f848 9c30 4d3c 2af4 de4f 155f
122 19 -21 19 36 -108 98 -56
-24 86 56 21 78 84 113 -26
29 -112 -48 1 102 90 -96 -26
79 98 -46 -119 -11 -126 113 85
-13 -79 -60 48 120 76 66 56
-106 111 6 -80 79 72 -32 80
93 76 -10 117 127 23 126 -16
33 -21 -52 47 -105 -62 -45 -76
-8 -14 54 -38 96 30 50 126
-81 -105 -32 -73 5 53 -57 103
20 78 102 116 -51 -115 69 -1
-125 85 120 -73 -125 -9 96 -118
-50 -73 -82 29 120 71 -48 -27
92 127 -35 -71 -110 57 108 16
119 -38 72 74 -60 119 120 104
17 -89 -59 -63 -70 122 -21 -36
-32 93 -124 -34 -54 32 55 -63
10 -42 -1 45 56 -110 -55 -27
125 62 -114 123 102 -74 126 17
49 -123 -34 8 -25 71 49 65
80 -83 32 -86 35 23 34 -124
-94 -3 -29 -14 -47 36 83 28
-108 -108 48 -43 96 -15 40 98
4 86 -52 -29 -86 -36 -44 56
-4 -48 57 -72 107 118 -107 66
110 -120 -114 49 -8 -7 -23 -92
-104 -37 24 -18 64 80 42 -87
-4 56 32 9 -73 -11 -102 74
20 126 -110 21 -91 -74 27 81
-52 76 62 -23 -58 -45 -29 2
-63 -65 -123 -95 -8 72 -100 48
77 60 42 -12 -34 79 21 95

model/mobilenetv2_0.50_64/block_9_depthwise_BN/FusedBatchNormV3;model/mobilenetv2_0.50_64/block_9_depthwise/depthwise;model/mobilenetv2_0.50_64/block_10_depthwise/depthwise i1 [1, 3, 3, 192]
00000000: f94c 864e 3e8d 5848 2322 7466 05e9 0195
00000010: 55ea 232d 480a 7e9c 7f81 c275 4921 7428
00000020: 8ed2 ac5b 3e7f 6e02 5c61 e99c 6e7f 76fe
00000030: 4988 0c04 6c62 513c 102a f2f8 268a 9819
00000040: 8917 cf09 4b91 2d30 f4fa 6158 6075 e329
00000050: ce7f b8f9 22ed 4971 3097 6d3f cd2d e5aa
00000060: a320 276e 5f72 2c89 2191 f27f 81b5 696f
00000070: 043d 2ea0 03ff c9ec b362 626c 3a1b fd76
00000080: 837f a261 7f8c 46dc 54dc b4b2 3a57 f40d
00000090: 2c01 7c7f 7f76 7f96 8106 7fa9 86c7 dc36
000000a0: 85b7 e8c5 b01f ca56 0466 e489 1256 1e0e
000000b0: 31ae 3891 ef28 898d a40a 7f6a b167 c58c
000000c0: 36b4 f2fb 886d b020 6466 f8d0 7f81 b121
000000d0: 4dab 6574 f581 94a2 d0ce 12d5 4a3a d9ec
000000e0: b3ae 39a3 2a5d 701c 96c6 c3ca d569 5d1c
000000f0: ea6d 0540 6ba4 d534 f898 08ed 5996 1848
-7 76 -122 78 62 -115 88 72
35 34 116 102 5 -23 1 -107
85 -22 35 45 72 10 126 -100
127 -127 -62 117 73 33 116 40
-114 -46 -84 91 62 127 110 2
92 97 -23 -100 110 127 118 -2
73 -120 12 4 108 98 81 60
16 42 -14 -8 38 -118 -104 25
-119 23 -49 9 75 -111 45 48
-12 -6 97 88 96 117 -29 41
-50 127 -72 -7 34 -19 73 113
48 -105 109 63 -51 45 -27 -86
-93 32 39 110 95 114 44 -119
33 -111 -14 127 -127 -75 105 111
4 61 46 -96 3 -1 -55 -20
-77 98 98 108 58 27 -3 118
-125 127 -94 97 127 -116 70 -36
84 -36 -76 -78 58 87 -12 13
44 1 124 127 127 118 127 -106
-127 6 127 -87 -122 -57 -36 54
-123 -73 -24 -59 -80 31 -54 86
4 102 -28 -119 18 86 30 14
49 -82 56 -111 -17 40 -119 -115
-92 10 127 106 -79 103 -59 -116
54 -76 -14 -5 -120 109 -80 32
100 102 -8 -48 127 -127 -79 33
77 -85 101 116 -11 -127 -108 -94
-48 -50 18 -43 74 58 -39 -20
-77 -82 57 -93 42 93 112 28
-106 -58 -61 -54 -43 105 93 28
-22 109 5 64 107 -92 -43 52
-8 -104 8 -19 89 -106 24 72

model/mobilenetv2_0.50_64/block_9_expand/Conv2D i1 [192, 1, 1, 32]
00000000: 8173 75b9 c2f5 6299 d613 7bb9 29ff f4ea
00000010: 8d5e bbd1 b773 e08e 4e23 ce89 cddd e395
00000020: 0147 6193 5b3b 2889 f3e7 ad48 a01b c4d0
00000030: e3c6 4ffd 81a5 e09d 70ac 9470 b51e b432
00000040: d27b e147 cb2c 53ec 9b02 2f9f 1e16 a7d1
00000050: cea1 95c6 ff56 dd3a adc7 1530 897e 437f
00000060: edb7 2f5e 0843 e99a 1fda 66fb 9d18 629d
00000070: dcac 5893 53e3 16ef 3151 efe9 3ea9 3081
00000080: d531 6be8 6ac2 69c3 f6ec f835 b094 1e83
00000090: 654b 5bd3 0e81 71a5 e477 0e48 1652 0159
000000a0: ef7f f4d6 285d 6fe2 decd 6d24 c3f7 019a
000000b0: 018e cdec 555a f13f 968e c7e1 ad2c 2da0
000000c0: 706e 8323 614f ec28 8194 ca5d ce53 96b9
000000d0: b2b4 d30f 695b c1ca 1354 ea3a f664 7137
000000e0: 7b4d 140f 70bf 1a32 609d a427 fda7 36d5
000000f0: a229 8390 0691 0bd5 74f7 1ce4 3d81 8281
-127 115 117 -71 -62 -11 98 -103
-42 19 123 -71 41 -1 -12 -22
-115 94 -69 -47 -73 115 -32 -114
78 35 -50 -119 -51 -35 -29 -107
1 71 97 -109 91 59 40 -119
-13 -25 -83 72 -96 27 -60 -48
-29 -58 79 -3 -127 -91 -32 -99
112 -84 -108 112 -75 30 -76 50
-46 123 -31 71 -53 44 83 -20
-101 2 47 -97 30 22 -89 -47
-50 -95 -107 -58 -1 86 -35 58
-83 -57 21 48 -119 126 67 127
-19 -73 47 94 8 67 -23 -102
31 -38 102 -5 -99 24 98 -99
-36 -84 88 -109 83 -29 22 -17
49 81 -17 -23 62 -87 48 -127
-43 49 107 -24 106 -62 105 -61
-10 -20 -8 53 -80 -108 30 -125
101 75 91 -45 14 -127 113 -91
-28 119 14 72 22 82 1 89
-17 127 -12 -42 40 93 111 -30
-34 -51 109 36 -61 -9 1 -102
1 -114 -51 -20 85 90 -15 63
-106 -114 -57 -31 -83 44 45 -96
112 110 -125 35 97 79 -20 40
-127 -108 -54 93 -50 83 -106 -71
-78 -76 -45 15 105 91 -63 -54
19 84 -22 58 -10 100 113 55
123 77 20 15 112 -65 26 50
96 -99 -92 39 -3 -89 54 -43
-94 41 -125 -112 6 -111 11 -43
116 -9 28 -28 61 -127 -126 -127

model/mobilenetv2_0.50_64/block_8_project/Conv2D i1 [32, 1, 1, 192]
00000000: 8669 21e5 fbca 7cf5 389f 22df 550f 038e
00000010: b732 5dc6 87ac fb99 c999 23fc 7f6f 085c
00000020: cf8d fb6b f7a7 993b 92ab 3e6d 4615 31d4
00000030: c35f 7ead a962 2aa2 6f3a 3efa 4c4b d814
00000040: 9995 8243 1e96 17a4 e1af ac19 6e37 1fa4
00000050: 4164 e501 3b31 b23f c651 91d4 38eb fc7d
00000060: 6041 b0e5 b2ff b518 d19f e6a7 05f5 5324
00000070: 07e1 52c5 dc4c b9ff 2e08 1a62 8a5e fc5c
00000080: 2e0a 74ab a558 c71c 2173 d227 ba0f 8234
00000090: 9d45 60a9 cd24 e405 27ee e59e 1b67 6cf6
000000a0: 5817 e434 b73b bd8d e7ee 27fa d9f7 2ac1
000000b0: 2ac3 cbcf f63c 0d4b a90d 3dc1 76e2 9be5
000000c0: ed99 e698 3ff3 c65d 6e0b b9fb 39df bd88
000000d0: 3ae0 87e2 d684 9f08 1be5 be34 ce90 cf46
000000e0: 9644 99f9 6e10 7b9b 9c92 6179 9903 024b
000000f0: 7c79 1479 3269 8746 de3f 170a 0d8f 2c47
-122 105 33 -27 -5 -54 124 -11
56 -97 34 -33 85 15 3 -114
-73 50 93 -58 -121 -84 -5 -103
-55 -103 35 -4 127 111 8 92
-49 -115 -5 107 -9 -89 -103 59
-110 -85 62 109 70 21 49 -44
-61 95 126 -83 -87 98 42 -94
111 58 62 -6 76 75 -40 20
-103 -107 -126 67 30 -106 23 -92
-31 -81 -84 25 110 55 31 -92
65 100 -27 1 59 49 -78 63
-58 81 -111 -44 56 -21 -4 125
96 65 -80 -27 -78 -1 -75 24
-47 -97 -26 -89 5 -11 83 36
7 -31 82 -59 -36 76 -71 -1
46 8 26 98 -118 94 -4 92
46 10 116 -85 -91 88 -57 28
33 115 -46 39 -70 15 -126 52
-99 69 96 -87 -51 36 -28 5
39 -18 -27 -98 27 103 108 -10
88 23 -28 52 -73 59 -67 -115
-25 -18 39 -6 -39 -9 42 -63
42 -61 -53 -49 -10 60 13 75
-87 13 61 -63 118 -30 -101 -27
-19 -103 -26 -104 63 -13 -58 93
110 11 -71 -5 57 -33 -67 -120
58 -32 -121 -30 -42 -124 -97 8
27 -27 -66 52 -50 -112 -49 70
-106 68 -103 -7 110 16 123 -101
-100 -110 97 121 -103 3 2 75
124 121 20 121 50 105 -121 70
-34 63 23 10 13 -113 44 71
