compression/mobilenetv2/dynamic_range_quantization/models_compressed/model_valve.tflite (tflite, 872296 bytes, 106 tensors)

model/mobilenetv2_0.50_64/predictions/BiasAdd/ReadVariableOp f4 [3]
0.0017058196 -0.00078441907 -0.0008697612
00000000: cf95 df3a 79a1 4dba b000 64ba

model/mobilenetv2_0.50_64/block_1_project/Conv2D f4 [16, 1, 1, 48]
-0.115609325 0.18744978 0.25963336 -0.06290524 0.17717609 -0.13515434 -0.043060627 -0.26310667
-0.030237492 0.35910222 0.3588764 0.03256494 0.23298898 -0.1986379 0.029352108 -0.020418497
0.16956508 0.32583815 -0.05051397 0.050037336 0.16698575 0.16788515 0.24939814 -0.2033786
-0.4081283 0.14896297 -0.18377559 -0.15734851 0.14687698 0.29361275 0.41431776 0.011699338
0.31498566 0.39244545 0.024995143 -0.046999846 0.007571906 -0.08833701 -0.16086948 -0.27507496
-0.31593406 0.39820957 -0.32055706 -0.29329804 0.3933329 -0.10346816 -0.26779208 -0.20872316
0.17201227 0.13915129 0.16941778 0.0025151228 0.041190684 0.34690964 -0.08941005 -0.35324588
-0.029500866 0.2612249 0.09377746 0.2503158 -0.027122602 0.082896344 -0.0990336 -0.0031167811
0.14452481 0.2836635 0.22216767 0.25871548 0.2994264 -0.2091234 0.29180697 -0.15196481
0.30170086 0.06649258 0.26210395 0.30647838 -0.21807618 -0.2520642 0.23273912 -0.32021326
0.22137676 -0.314815 -0.016010853 0.07557158 0.24330959 0.13088506 0.22554275 0.25821918
-0.323185 -0.23677771 -0.12815823 0.29318088 -0.12607828 0.109706506 0.01351269 -0.31378546
-0.25678465 0.14741445 0.29731154 0.2018208 0.16428088 -0.3816544 -0.19758233 0.05149372
-0.057640485 0.1593687 0.23826793 0.056382984 -0.13800953 0.074333265 -0.07992576 0.18969741
-0.3017721 0.28455496 0.16036206 -0.029739639 -0.083149865 -0.28919652 0.08988178 -0.25695542
0.32394335 -0.055714693 0.3546775 0.26074794 -0.012252807 -0.30328983 -0.28421777 0.23375401
0.23412637 -0.022388155 -0.14905785 0.36874902 -0.33372477 -0.046225514 -0.06295791 0.09730197
-0.20669726 0.12207004 0.23785011 0.039529767 0.21425226 -0.036271933 -0.11671997 -0.025171213
0.2706353 0.44785884 -0.3954365 0.3412908 0.16943523 0.13568847 -0.14554448 0.3891112
-0.18440318 0.29002035 0.3381287 -0.38709426 -0.30740064 0.1557776 0.2293068 0.41260293
-0.37866816 0.058211558 0.19915923 -0.12191055 0.040852103 -0.39023024 0.10980608 -0.19543633
-0.18293397 0.19620489 -0.3780806 -0.20772615 0.019747267 -0.412298 0.38085833 0.02175678
0.19888686 -0.20094869 -0.24039923 0.051220637 -0.32912746 -0.30463806 0.04017881 0.1485106
0.26128817 -0.13397902 -0.07937598 0.35299978 0.2877304 0.1453567 0.15269849 0.20427571
0.2205918 0.273344 -0.21302223 -0.10923639 0.26173976 -0.27530223 -0.22294785 0.31958443
-0.31339404 0.25300038 -0.119008765 -0.20101614 0.0912999 0.07870648 -0.009087394 0.23236522
-0.14570138 -0.22142363 -0.28922665 -0.35087535 0.10985671 0.17029573 0.31002784 0.22463772
0.17034386 -0.1535511 0.083919644 0.36459884 0.26923758 0.14329152 -0.25025478 -0.2705816
0.20920792 0.21112382 0.11353219 0.21639961 0.22924046 0.23885022 -0.10420195 -0.2133576
-0.29163712 -0.2440407 -0.26051137 -0.08463034 -0.27726337 0.30973887 0.10445752 -0.019288184
-0.4153449 0.021841373 0.21849546 0.3806528 -0.26038516 0.088184394 -0.03284932 -0.27800083
0.18256305 -0.18016213 0.1150364 0.22603045 0.12081465 0.08050971 -0.38195333 -0.087933645
00000000: 95c4 ecbd d6f2 3f3e aaee 843e 76d4 80bd
00000010: a66d 353e e665 0abe 5760 30bd ebb5 86be
00000020: 9eb4 f7bc 3fdc b73e a6be b73e d162 053d
00000030: aa94 6e3e bc67 4bbe d573 f03c b144 a7bc
00000040: 78a2 2d3e 42d4 a63e bde7 4ebd f3f3 4c3d
00000050: 50fe 2a3e 16ea 2b3e 3a62 7f3e 7b42 50be
00000060: 31f6 d0be c089 183e ab2f 3cbe f81f 21be
00000070: eb66 163e 6954 963e 7521 d43e 95ae 3f3c
00000080: cd45 a13e 9cee c83e 9dc2 cc3c e982 40bd
00000090: c01d f83b 09ea b4bd f8ba 24be a0d6 8cbe
000000a0: 1cc2 a1be 20e2 cb3e 0e20 a4be 292b 96be
000000b0: ee62 c93e 1de7 d3bd 0b1c 89be 86bb 55be
000000c0: fc23 303e ad7d 0e3e db7b 2d3e c2d4 243b
000000d0: 90b7 283d 249e b13e 9e1c b7bd a5dc b4be
000000e0: cdab f1bc 45bf 853e 660e c03d 6429 803e
000000f0: 3830 debc 8fc5 a93d 21d2 cabd e942 4cbb
00000100: 50fe 133e 583c 913e ec7f 633e 5b76 843e
00000110: 6b4e 993e 7224 56be b967 953e aa9c 1bbe
00000120: 8978 9a3e 432d 883d 7d32 863e bcea 9c3e
00000130: 5d4f 5fbe 8f0e 81be 2a53 6e3e fef2 a3be
00000140: 97b0 623e 6f2f a1be 3129 83bc 46c5 9a3d
00000150: 2626 793e bc06 063e aef4 663e 4e35 843e
00000160: 8178 a5be db75 72be e93b 03be ce1b 963e
00000170: aa1a 01be cead e03d 5464 5d3c 7da8 a0be
00000180: 4779 83be d0f3 163e 3839 983e 1daa 4e3e
00000190: 3f39 283e 3568 c3be 0653 4abe 14eb 523d
000001a0: 6e18 6cbd 8c31 233e 82fc 733e d8f1 663d
000001b0: 5f52 0dbe 0a3c 983d 1eb0 a3bd 0a40 423e
000001c0: df81 9abe 30b1 913e f435 243e 8ba0 f3bc
000001d0: 7a4a aabd 9111 94be f013 b83d a98f 83be
000001e0: e7db a53e 1735 64bd 4a98 b53e c180 853e
000001f0: ffbf 48bc ce48 9bbe fe84 91be 365d 6f3e
00000200: d3be 6f3e 5d67 b7bc 9fa2 18be accc bc3e
00000210: f9dd aabe f756 3dbd 14f0 80bd 4146 c73d
00000220: 72a8 53be dbff f93d fb8e 733e f7e9 213d
00000230: f264 5b3e e191 14bd e10a efbd dc33 cebc
00000240: b690 8a3e c14d e53e a776 cabe abbd ae3e
00000250: 6e80 2d3e ebf1 0a3e 9d09 15be 9539 c73e
00000260: 30d4 3cbe 8c7d 943e 341f ad3e 3831 c6be
00000270: 9e63 9dbe 2a84 1f3e 67cf 6a3e b140 d33e
00000280: cbe0 c1be 3e6f 6e3d 66f0 4b3e 3dac f9bd
00000290: 8954 273d 42cc c7be 03e2 e03d 7620 48be
000002a0: 0b53 3bbe efe9 483e c893 c1be 2ab6 54be
000002b0: 05c5 a13c b918 d3be ddff c23e 463b b23c
000002c0: ffa8 4b3e 7ec5 4dbe 372b 76be bbcc 513d
000002d0: 6583 a8be 85f9 9bbe 8992 243d 2a13 183e
000002e0: 90c7 853e cc31 09be e08f a2bd 63bc b43e
000002f0: 6651 933e 63d8 143e fe5c 1c3e a72d 513e
00000300: d1e2 613e bff3 8b3e 8022 5abe 54b7 dfbd
00000310: c102 863e 6af4 8cbe 714c 64be 92a0 a33e
00000320: 2f75 a0be 4489 813e deba f3bd 2dd7 4dbe
00000330: 71fb ba3d dd30 a13d 4be3 14bc 26f1 6d3e
00000340: be32 15be e0bc 62be 8415 94be efa5 b3be
00000350: 8efc e03d 0162 2e3e f8bb 9e3e 6e07 663e
00000360: 9f6e 2e3e 803c 1dbe 10de ab3d b3ac ba3e
00000370: 82d9 893e 03bb 123e 6521 80be ac89 8abe
00000380: 9a3a 563e d830 583e 9183 e83d dc97 5d3e
00000390: 03be 6a3e 2795 743e d567 d5bd 6a7a 5abe
000003a0: 7651 95be cee5 79be bf61 85be ac52 adbd
000003b0: 77f5 8dbe 1896 9e3e d3ed d53d 4102 9ebc
000003c0: 16a8 d4be aeec b23c 46bd 5f3e ece4 c23e
000003d0: 3451 85be 059a b43d 028d 06bd 2056 8ebe
000003e0: cff1 3a3e 6c7c 38be 3498 eb3d 8774 673e
000003f0: ac6d f73d 46e2 a43d 638f c3be 8e16 b4bd

model/mobilenetv2_0.50_64/block_1_expand/Conv2D f4 [48, 1, 1, 8]
0.31338686 0.22036567 -0.34723783 -0.48933986 -0.5658741 0.37149867 0.21154945 -0.19921309
-0.5194038 -0.69189674 0.22091813 0.6567643 0.1483419 -0.18200845 -0.28291914 0.536789
-0.51804924 -0.26469424 -0.34404457 -0.5213321 0.020678159 0.47371563 -0.27998796 0.4856483
-0.4234038 0.1874615 0.13496263 -0.2543226 0.4092851 -0.3350921 -0.35968643 -0.03264915
0.48012254 0.12848815 0.2661731 -0.042627964 0.25145656 -0.33504343 -0.5703358 0.5291953
0.20832154 -0.51918584 -0.3858507 -0.053330053 -0.07382267 0.50852585 0.38816074 -0.34497514
0.092360735 0.63065934 0.31244287 -0.14120843 0.09198311 0.5283454 -0.91811043 0.47818908
-0.113471374 0.3125542 -0.13788165 -0.122831896 -0.06640375 0.7369414 0.22189355 -0.14775214
0.62765086 -0.5756665 0.17160276 0.05584991 -0.29218572 0.29847825 0.6698491 0.12202703
0.37622496 0.12289606 -0.36426517 -0.21758625 -0.4170577 0.049700566 0.38227716 0.18717714
-0.3539602 0.43735033 0.4554857 0.4721256 0.2680684 -0.43122438 -0.109940246 -0.6001193
-0.15326886 0.8139095 0.77591485 -0.30226094 -0.61442494 0.33728635 -0.25560254 -0.19896553
0.43890512 0.8862906 0.02237244 -1.263633 -0.001579169 0.082336046 -0.44410044 -0.5090966
-0.016404307 -0.37516442 -0.4134892 -0.29177952 -0.33401272 0.016235089 0.2560692 -0.4695501
-1.1970949 -1.2060833 1.2700806 -0.22114602 -0.96620595 0.51595074 0.89151585 -0.9524585
0.1059836 0.43552494 -0.36717454 0.059660878 0.49577692 -0.07732617 0.5422667 0.24549264
0.43516207 0.3835179 -1.1400253 0.025145486 1.0095758 0.2473776 -0.3064386 0.89904314
-0.032630425 0.26181236 0.26194918 -0.155732 0.110477515 -0.3136923 0.28669214 0.29312083
0.0058439197 0.52947825 -0.4302354 -0.43884304 -0.45529068 0.37837195 0.062380165 0.23420894
0.13748293 -0.118522145 -0.4646288 -0.37628755 -0.5182056 0.066772774 -0.029864887 -0.35691467
0.41158593 0.35634416 -0.05611287 0.38341367 0.2955215 -0.032887373 0.40454423 0.3660329
0.22245428 0.014971392 -0.016881194 0.25544402 0.05601845 -0.150269 0.5942313 0.5306538
-0.8054705 0.0327601 0.26188874 -0.5947536 -0.82034695 0.9618324 -0.12477905 -0.48292306
0.36685 0.35240072 0.40823925 -0.4386675 -0.4184005 -0.21981679 0.118436635 0.023866655
0.33512548 0.05394422 0.21668959 -0.05932937 0.372576 0.5602353 -0.1526162 -0.35680515
0.19138825 0.045687683 0.45802087 0.0024486545 0.23348337 -0.4657721 -0.42938942 -0.41730073
0.035397757 -0.30278385 0.39258987 0.5164656 0.3627501 0.46775806 0.6964223 -0.56273043
-0.4200743 -0.46698153 0.7103383 -0.083747275 0.082763106 0.11836294 -0.3471043 -0.177082
0.10954459 0.20168383 -0.27378303 -0.16937526 0.55557585 -0.098891616 0.22410156 0.6365599
0.15006131 0.4402449 -0.3356216 -0.01706918 -0.33458945 -0.038326267 0.57229054 -0.13515058
0.71134967 -0.44723645 -0.57048553 -0.33298063 0.2911943 0.11382673 0.30195302 -0.45164785
0.46851352 -0.3882894 -0.5089286 -0.6024625 0.60698724 0.043702595 0.059508 0.58663434
00000000: 3e74 a03e 8aa7 613e 28c9 b1be c18a fabe
00000010: 20dd 10bf 1335 be3e 6ba0 583e 84fe 4bbe
00000020: a6f7 04bf 2520 31bf 5d38 623e b521 283f
00000030: f0e6 173e 6c60 3abe c7da 90be 016b 093f
00000040: e09e 04bf 0186 87be 9c26 b0be 0576 05bf
00000050: 3e65 a93c db8a f23e 955a 8fbe e5a6 f83e
00000060: 62c8 d8be e8f5 3f3e a533 0a3e 9236 82be
00000070: d18d d13e 3191 abbe d228 b8be 1dbb 05bd
00000080: 9fd2 f53e 6692 033e d747 883e a99a 2ebd
00000090: eabe 803e d08a abbe 8701 12bf 5879 073f
000000a0: 3e52 553e 5de9 04bf 398e c5be 9d70 5abd
000000b0: 5730 97bd c02e 023f 01bd c63e 95a0 b0be
000000c0: a027 bd3d e472 213f 83f8 9f3e f198 10be
000000d0: a461 bc3d a541 073f 4909 6bbf 33d5 f43e
000000e0: ae63 e8bd 1b07 a03e d930 0dbe 4a8f fbbd
000000f0: b0fe 87bd 31a8 3c3f 1038 633e 564c 17be
00000100: baad 203f e15e 13bf a2b8 2f3e e0c2 643d
00000110: 5e99 95be 24d2 983e 3b7b 2b3f 4fe9 f93d
00000120: 8fa0 c03e eeb0 fb3d f780 babe eece 5ebe
00000130: 9688 d5be d292 4b3d d5b9 c33e 5dab 3f3e
00000140: 453a b5be 62ec df3e 6c35 e93e 72ba f13e
00000150: 4340 893e 71c9 dcbe 5a28 e1bd 6ba1 19bf
00000160: 83f2 1cbe 5f5c 503f 5ba2 463f f2c1 9abe
00000170: f44a 1dbf ccb0 ac3e 56de 82be 9fbd 4bbe
00000180: 2cb8 e03e f1e3 623f 6846 b73c babe a1bf
00000190: 1efc ceba cd9f a83d 2261 e3be 2854 02bf
000001a0: 5362 86bc 8d15 c0be dbb4 d3be 2064 95be
000001b0: b703 abbe 73ff 843c 811b 833e df68 f0be
000001c0: 683a 99bf f060 9abf 0092 a23f 1a74 62be
000001d0: 4659 77bf 5915 043f 623a 643f 52d4 73bf
000001e0: ee0d d93d 20fd de3e 4dfe bbbe f75e 743d
000001f0: 79d6 fd3e 2f5d 9ebd fed1 0a3f 6c62 7b3e
00000200: 90cd de3e 755c c43e 59ec 91bf e8fd cd3c
00000210: c839 813f 8e50 7d3e 85e5 9cbe b127 663f
00000220: 7ba7 05bd 450c 863e 341e 863e 3678 1fbe
00000230: 0942 e23d 479c a0be 50c9 923e ef13 963e
00000240: 5a7e bf3b e38b 073f d047 dcbe 09b0 e0be
00000250: dc1b e9be f8b9 c13e 5882 7f3d 78d4 6f3e
00000260: 53c8 0c3e bdbb f2bd d3e3 edbe c3a8 c0be
00000270: 1fa9 04bf 2ac0 883d 35a7 f4bc 85bd b6be
00000280: 64bb d23e be72 b63e 9cd6 65bd cc4e c43e
00000290: 984e 973e e9b4 06bd 6c20 cf3e aa68 bb3e
000002a0: 0ecb 633e 924a 753c 6e4a 8abc 8fc9 823e
000002b0: 9a73 653d 1ee0 19be 8b1f 183f edd8 073f
000002c0: 5133 4ebf 742f 063d 4816 863e c641 18bf
000002d0: 4202 52bf a63a 763f 298c ffbd b141 f7be
000002e0: c3d3 bb3e de6d b43e bc04 d13e 0799 e0be
000002f0: 9738 d6be a717 61be e88e f23d 0184 c33c
00000300: 9195 ab3e 9df4 5c3d e0e3 5d3e 5a03 73bd
00000310: 48c2 be3e 956b 0f3f 6c47 1cbe 2aaf b6be
00000320: 48fb 433e 0223 3b3d b681 ea3e 9b79 203b
00000330: 4416 6f3e ae79 eebe eed8 dbbe 71a8 d5be
00000340: 3dfd 103d 7c06 9bbe 8a01 c93e 1737 043f
00000350: 62ba b93e fc7d ef3e bb48 323f 1a0f 10bf
00000360: fb13 d7be 3418 efbe bbd8 353f b183 abbd
00000370: b47f a93d 4568 f23d a8b7 b1be fc54 35be
00000380: ea58 e03d 3586 4e3e 4a2d 8cbe b570 2dbe
00000390: 383a 0e3f b087 cabd e17a 653e 97f5 223f
000003a0: aca9 193e c867 e13e 98d6 abbe aad4 8bbc
000003b0: 4f4f abbe 01fc 1cbd a281 123f ea64 0abe
000003c0: 031b 363f 2dfc e4be 570b 12bf 707c aabe
000003d0: 6b17 953e fd1d e93d 9699 9a3e 633e e7be
000003e0: 01e1 ef3e decd c6be 2549 02bf fb3a 1abf
000003f0: 8463 1b3f 7e01 333d a9be 733d ab2d 163f

model/mobilenetv2_0.50_64/expanded_conv_project/Conv2D f4 [8, 1, 1, 16]
0.93192184 0.60747546 0.2310937 0.27337217 -0.6188354 0.8080132 0.90069985 0.3836197
-0.7199416 -0.81019354 -0.62998295 -0.35783318 0.55509335 -0.53405106 0.6432698 -0.16937593
-0.6689658 -0.028648159 0.14044936 -0.11694535 0.5803835 -0.5913955 0.64264715 0.38597506
-0.64337116 0.5114579 -0.71628714 -0.7286563 0.25470123 0.6716776 0.3864759 -0.14524682
0.33499977 0.4563333 -0.85120887 -0.6336483 -0.026475426 0.33398503 0.26139298 -0.24142174
-0.8336127 -0.7644983 0.7381183 -0.64298457 -0.21986003 0.49512407 0.17718203 -0.62918997
-0.23217946 0.20167452 0.23891555 0.410968 0.5576475 1.159709 0.9092937 -0.16301386
-0.24048501 0.5285576 0.04347781 -0.2966631 0.46285477 -1.1376452 -0.69009835 1.198296
-0.8151789 0.37980512 -0.94737065 -0.9459741 0.21505122 0.4669892 0.07532165 0.0198346
0.62189513 0.6937847 0.7555425 0.69053555 -0.8966118 0.77736855 -0.02610575 -0.8671244
-0.4019813 0.32530975 -0.50247127 0.23307286 0.2554763 -0.7306435 0.94990987 0.68907994
0.14245431 0.90465367 -0.8914416 0.6379526 -0.26975167 -0.4713347 0.16543841 -0.6004898
-0.31486663 -0.6935766 0.17110305 -0.23561677 -0.22892481 -0.5876469 -0.009588096 0.4311038
-0.3474169 0.7616814 -0.8157433 -0.7969768 0.3337513 0.4141468 0.2828722 -0.35468978
0.92843306 -0.14267065 0.620485 -0.21284744 -0.26607987 -0.93793195 -0.36321157 0.2891218
0.20854089 0.12876709 0.17032173 -1.086717 0.91819155 0.7446678 0.18593314 -0.2140347
00000000: 6e92 6e3f 8383 1b3f d4a3 6c3e 70f7 8b3e
00000010: ff6b 1ebf f4d9 4e3f 4494 663f cd69 c43e
00000020: 184e 38bf d868 4fbf 9046 21bf e935 b7be
00000030: 991a 0e3f 92b7 08bf 54ad 243f e270 2dbe
00000040: 5841 2bbf 8baf eabc f5d1 0f3e 0b81 efbd
00000050: 0394 143f b265 17bf 8684 243f 869e c53e
00000060: f9b3 24bf e8ee 023f 985e 37bf 3889 3abf
00000070: 3368 823e 10f3 2b3f 2be0 c53e 95bb 14be
00000080: 1785 ab3e 85a4 e93e d3e8 59bf c636 22bf
00000090: fee2 d8bc 1600 ab3e 4dd5 853e 4337 77be
000000a0: a467 55bf 29b6 43bf 52f5 3c3f a39a 24bf
000000b0: fd22 61be e780 fd3e 356f 353e 9812 21bf
000000c0: 74c0 6dbe c483 4e3e 47a6 743e 666a d23e
000000d0: fdc1 0e3f 5871 943f 79c7 683f 1bed 26be
000000e0: b441 76be 8d4f 073f ca15 323d 3ae4 97be
000000f0: 4dfb ec3e 5c9e 91bf 49aa 30bf c361 993f
00000100: 90af 50bf d175 c23e e286 72bf 5c2b 72bf
00000110: 6336 5c3e 3519 ef3e 3d42 9a3d 2c7c a23c
00000120: 8534 1f3f e09b 313f 3c6b 413f f0c6 303f
00000130: 5a88 65bf a001 473f badb d5bc ddfb 5dbf
00000140: 7ed0 cdbe 008f a63e f5a1 00bf a7aa 6e3e
00000150: cacd 823e 740b 3bbf 4b2d 733f 8b67 303f
00000160: 8bdf 113e 6297 673f 8435 64bf dd50 233f
00000170: e41c 8abe c852 f1be b068 293e b3b9 19bf
00000180: 3336 a1be 3c8e 31bf a335 2f3e 8645 71be
00000190: 446b 6abe 0770 16bf 6417 1dbc a3b9 dc3e
000001a0: a1e0 b1be 8dfd 423f 8ed4 50bf ac06 4cbf
000001b0: 73e1 aa3e 0d0b d43e a0d4 903e e699 b5be
000001c0: caad 6d3f 4118 12be 1bd8 1e3f aef4 59be
000001d0: 9f3b 88be 4f1c 70bf def6 b9be c607 943e
000001e0: be8b 553e 85db 033e d268 2e3e 8b19 8bbf
000001f0: 9a0e 6b3f 8da2 3e3f 4265 3e3e ea2b 5bbe

model/mobilenetv2_0.50_64/Conv1/Conv2D f4 [16, 3, 3, 3]
-0.035503313 -0.015685333 -0.0062340093 0.02483212 0.047338758 0.02443466 -0.0015448447 0.034931242
-0.05272743 0.018667068 0.011828001 -0.037922636 -0.029667338 -0.03422348 0.020713503 -0.024618348
0.015381411 0.027674228 0.0016780252 -0.01618683 -0.005401297 -0.036751393 -0.022509763 0.04801313
-0.0076599936 -0.0039647613 -0.04809348 0.05342836 -0.039231524 0.010281275 -0.019845916 0.03765172
0.030508542 -0.035444707 -0.041119892 0.04295632 0.010855745 -0.029750954 0.037118 0.014155521
0.007053334 0.053612858 -0.057759862 0.004813862 0.008196656 -0.017125083 -0.027539795 0.053596754
-0.013507754 0.008473901 -0.05139314 -0.024233231 -0.013576062 -0.017057043 -0.0008203059 -0.0022464688
0.012633116 0.020719482 0.008582876 -0.017302888 0.019677607 -0.015894555 -0.009176252 0.012858341
0.002945911 -0.014939483 0.020095643 -0.0033905858 0.015485534 0.0091541 -0.01415191 0.010225708
3.052595e-05 0.0071664006 0.011306018 -0.0055701025 0.021819152 0.017388385 0.009276705 0.0069196653
-0.010750108 0.048519716 -0.032880757 0.04157488 -0.056781854 -0.0061410735 -0.031957205 0.0005018239
0.06740786 -0.029448038 -0.014909909 -0.015306139 0.013185306 0.014601581 -0.044438053 -0.06344038
-0.06248241 0.034918915 0.013376766 0.05908964 0.012349934 -0.04145199 -0.042485602 -0.016652856
0.06072026 -0.06870701 0.0031359978 0.06827663 0.015472183 0.04888978 -0.006301465 -0.038125124
0.04178879 0.020604031 0.042656224 -0.039490048 0.03735573 -0.008059806 0.0014038875 -0.0055471533
0.022917455 -0.022287799 0.029550526 -0.0022323034 -0.035092812 -0.022511797 0.031423748 -0.036596533
0.0058074486 -0.008532928 -0.021965276 0.026510712 0.01908237 0.048057072 -0.03036232 0.00466248
-0.024763947 0.02434129 -0.0008509545 -0.019058427 0.0066151405 0.0010781091 0.023889326 0.013883901
0.0051401393 -0.0144091975 -0.0145043805 -0.023004362 -0.02479819 -0.0012225037 0.025692917 -0.018011628
0.013738176 -0.013872781 0.02572046 -0.0069758506 -0.02411467 -0.024325222 0.0062055117 -0.020987062
0.002758027 -0.02173743 0.005091196 0.008814648 -0.02094028 -0.0070439056 -0.011775031 0.005572336
-0.018575028 -0.020546434 0.017820923 -0.0009003777 -0.016086379 -0.011867173 -0.02380914 -0.0001464478
-0.018283786 0.005480765 0.02072403 0.011400982 -0.023401808 0.022619596 0.022413187 -0.014290037
-0.021278547 -0.00088705186 0.023356795 -0.027469052 -0.019923091 0.019134823 0.061422728 0.018425496
-0.0149815185 0.011059567 -0.009391178 0.0213697 0.020583909 0.047771048 0.024351347 -0.052267306
0.009698667 0.03882971 -0.07148299 -0.014510579 -0.015518116 0.026280161 0.007994012 -0.065140545
-0.052157197 -0.004086735 0.029506491 0.025026947 -0.026900709 -0.0031232198 -0.056721773 0.016281288
-0.019004429 0.0024831633 -0.02169784 0.021161525 -0.02267103 0.011708226 0.006189171 -0.0026734523
-0.01957686 -0.008347517 0.020754686 0.008084149 0.018251128 -0.020202914 -0.013317759 -0.0035652926
-0.0072450917 -0.009286489 0.0047144573 -0.01966956 -0.004522081 -0.006586619 -0.0018868163 -0.00879821
-0.0139320865 -0.02191584 0.0142610585 -0.010089765 -0.024158446 0.021380862 0.007233682 0.036425598
0.022262992 -0.03843249 -0.027089689 -0.0009656289 0.009187433 0.013705961 0.021734389 -0.036560155
00000000: ec6b 11bd 877e 80bc a946 ccbb bb6c cb3c
00000010: 49e6 413d 322b c83c 637c caba 1014 0f3d
00000020: b8f8 57bd aeeb 983c 3bca 413c c454 1bbd
00000030: eb08 f3bc eb2d 0cbd 5daf a93c 6bac c9bc
00000040: 5002 7c3c 10b5 e23c 2ff1 db3a 3e9a 84bc
00000050: 5dfd b0bb a188 16bd 6566 b8bc 6aa9 443d
00000060: af00 fbbb d4ea 81bb abfd 44bd b2d7 5a3d
00000070: 3cb1 20bd cb72 283c e793 a2bc b138 1a3d
00000080: 0ded f93c 782e 11bd 556d 28bd f7f2 2f3d
00000090: 4bdc 313c 46b8 f3bc 0b09 183d 8fec 673c
000000a0: a71f e73b 2899 5b3d 9b95 6cbd 9abd 9d3b
000000b0: 444b 063c e749 8cbc 239b e1bc 4588 5b3d
000000c0: a04f 5dbc 1ed6 0a3c 9d81 52bd c584 c6bc
000000d0: 226e 5ebc 36bb 8bbc cc09 57ba 7e39 13bb
000000e0: 21fb 4e3c e7bb a93c 319f 0c3c c9be 8dbc
000000f0: ef32 a13c 4c35 82bc fe57 16bc cbab 523c
00000100: 2f10 413b bcc4 74bc 9e9f a43c 9734 5ebb
00000110: 0ab7 7d3c 14fb 153c 6add 67bc ba89 273c
00000120: fd08 0038 20d4 ea3b e03c 393c 6885 b6bb
00000130: 14be b23c 1672 8e3c 52fd 173c 5cbe e23b
00000140: 3921 30bc 9cbc 463d f9ad 06bd 6c4a 2a3d
00000150: 1794 68bd 0f3b c9bb 8fe5 02bd d58c 033a
00000160: 220d 8a3d 033d f1bc b148 74bc 9ac6 7abc
00000170: 2f07 583c 783b 6f3c ad04 36bd 08ed 81bd
00000180: 8eed 7fbd 2307 0f3d 392a 5b3c fa07 723d
00000190: 6157 4a3c 90c9 29bd 6205 2ebd 926b 88bc
000001a0: cfb5 783d 43b6 8cbd 5085 4d3b 9ed4 8b3d
000001b0: 0a7f 7d3c a640 483d 857c cebb 1729 1cbd
000001c0: b92a 2b3d c9c9 a83c 4bb8 2e3d 51c0 21bd
000001d0: 5202 193d 470d 04bc a602 b83a e5c4 b5bb
000001e0: 63bd bb3c e794 b6bc f213 f23c d64b 12bb
000001f0: 7bbd 0fbd a96a b8bc 30b6 003d 3fe6 15bd
00000200: 694c be3b b2cd 0bbc 86f0 b3bc fe2c d93c
00000210: a152 9c3c 7ed7 443d 66ba f8bc b8c7 983b
00000220: c3dd cabc 6367 c73c 9712 5fba 6b20 9cbc
00000230: d2c3 d83b 574f 8d3a 8cb3 c33c 4d79 633c
00000240: 9d6e a83b 8e14 6cbc c8a3 6dbc a573 bcbc
00000250: 9325 cbbc 6b3c a0ba f479 d23c 1f8d 93bc
00000260: 1616 613c a94a 63bc b7b3 d23c ad95 e4bb
00000270: 218c c5bc b045 c7bc 9b57 cb3b 0fed abbc
00000280: 04c0 343b b212 b2bc 0cd4 a63b 506b 103c
00000290: f38a abbc 90d0 e6bb 0fec 40bc 2498 b63b
000002a0: a82a 98bc ff50 a8bc 2ffd 913c 5307 6cba
000002b0: 95c7 83bc 886e 42bc 630b c3bc c88f 19b9
000002c0: e1c7 95bc fd97 b33b 71c5 a93c 2fcb 3a3c
000002d0: 26b5 bfbc bb4c b93c dc9b b73c c220 6abc
000002e0: 5950 aebc 0b89 68ba c056 bf3c c706 e1bc
000002f0: c035 a3bc a2c0 9c3c 6696 7b3d 11f1 963c
00000300: 0b75 75bc 3033 353c 75dd 19bc 820f af3c
00000310: 969f a83c 93ab 433d 7a7c c73c 3e16 56bd
00000320: 28e7 1e3c e70b 1f3d ad65 92bd c8bd 6dbc
00000330: b23f 7ebc 7e49 d73c 51f9 023c 6868 85bd
00000340: c9a2 55bd 05ea 85bb 99b7 f13c 5005 cd3c
00000350: e05e dcbc efae 4cbb 1755 68bd 5660 853c
00000360: 2daf 9bbc 91bc 223b abbf b1bc ef5a ad3c
00000370: 99b8 b9bc dcd3 3f3c 88ce ca3b 1635 2fbb
00000380: a75f a0bc 06c4 08bc bb05 aa3c 6173 043c
00000390: 6483 953c 9580 a5bc bb32 5abc afa7 69bb
000003a0: 3c68 edbb 5c26 18bc bc7b 9a3b 0f22 a1bc
000003b0: f72d 94bb 91d4 d7bb 0d4f f7ba 5e26 10bc
000003c0: 6843 64bc d988 b3bc 37a7 693c 8b4f 25bc
000003d0: efe7 c5bc eb26 af3c 8608 ed3b 0233 153d
000003e0: e160 b63c 636b 1dbd 32eb ddbc 4222 7dba
000003f0: e386 163c f88e 603c 510c b23c 1ac0 15bd

model/mobilenetv2_0.50_64/block_16_project_BN/FusedBatchNormV3 f4 [160]
-0.2569005 0.3453715 -0.3302676 -0.16688837 0.52118343 0.011331163 0.8342585 -0.12289221
0.72610205 0.29456532 0.53146446 0.041144088 -0.7221779 -0.9478852 0.6702974 -0.547894
-0.3954906 0.56211144 -0.12852448 -0.051291525 -0.48382854 -0.51518416 0.040680755 0.3543956
-0.28263673 0.5218143 -0.45825824 0.4067735 0.13535994 0.12595731 0.15489487 0.3043414
-0.13920242 0.105144925 0.80771166 -0.25511432 -0.39190018 0.2450632 0.64408374 -0.09139986
0.37327075 0.5890475 0.2411266 0.0008994424 -0.19738492 -0.40972632 -0.6020579 0.13214847
-0.30978903 -0.23848902 -1.0358572 -0.18178801 0.8528148 -2.1940227 -0.11736872 -0.47740212
-0.6810881 0.71497625 0.25212094 -0.42904094 0.39803734 0.101556145 0.386343 0.2675973
-0.33789605 0.18698722 0.35075212 0.13425735 -0.11090012 0.5104772 -0.6451863 -0.79777604
-0.54045236 0.4020481 -0.8760866 0.5428466 0.26153213 -0.889854 -1.1230159 -0.7154825
-0.5177526 0.18215156 -0.4722658 1.0813217 0.14626577 -0.4721128 -0.4887119 0.9511519
-0.7974952 -0.15794496 0.013730221 0.32155702 -0.10313116 0.7504867 -0.7950394 -0.63798416
-0.19597887 0.0354364 -0.8440027 -0.125403 -0.37482315 -0.47852126 -0.16034473 -1.4923043
0.55638146 0.25081503 0.098295234 -0.8864658 0.33278784 -0.44362056 0.62258965 0.17701146
0.68554956 -0.8101519 -0.4432291 1.2208459 -0.06889096 -1.0499322 -0.25480908 -0.43143854
0.40264776 -0.8311967 -1.06874 -0.03806481 0.90825737 1.1951063 -0.02565413 0.6404499
1.1497002 0.546467 -0.16114202 -0.04517004 -0.39247257 -0.17981428 -0.33386803 -0.078564994
-0.82319874 0.54473317 0.1573174 0.11392141 0.037635367 -1.1018251 -0.35799614 0.51805955
0.7201868 -1.3604991 0.5072953 0.21529914 -1.2890456 0.38124284 -0.12563497 0.119684674
-0.24122831 0.44019645 -0.89999 0.7023112 -0.4102451 0.5744513 0.47923893 0.6301939
00000000: 7688 83be 89d4 b03e d618 a9be c9e4 2abe
00000010: 476c 053f 58a6 393c f791 553f e9ae fbbd
00000020: d3e1 393f 44d1 963e 0e0e 083f b486 283d
00000030: a7e0 38bf 9ba8 72bf 9c98 2b3f c842 0cbf
00000040: be7d cabe 89e6 0f3f ec9b 03be 1017 52bd
00000050: 60b8 f7be 1ce3 03bf dda0 263d 5773 b53e
00000060: c3b5 90be 9f95 053f d3a0 eabe 9e44 d03e
00000070: cc9b 0a3e f4fa 003e c39c 1e3e a3d2 9b3e
00000080: 148b 0ebe 3956 d73d 31c6 4e3f 589e 82be
00000090: 24a7 c8be d9f1 7a3e ace2 243f da2f bbbd
000000a0: 581d bf3e d1cb 163f e4e9 763e 8fc8 6b3a
000000b0: 461f 4abe a6c7 d1be 7720 1abf ee51 073e
000000c0: ab9c 9ebe 7736 74be f896 84bf a326 3abe
000000d0: 1252 5a3f de6a 0cc0 035f f0bd 0d6e f4be
000000e0: ca5b 2ebf af08 373f ff15 813e 41ab dbbe
000000f0: 8dcb cb3e abfc cf3d c0ce c53e 8302 893e
00000100: b600 adbe 9479 3f3e c895 b33e c27a 093e
00000110: 9a1f e3bd a2ae 023f ee2a 25bf 0d3b 4cbf
00000120: 165b 0abf 40d9 cd3e 3647 60bf fff7 0a3f
00000130: 8ae7 853e 79cd 63bf fcbe 8fbf dc29 37bf
00000140: 6f8b 04bf f085 3a3e d3cc f1be c068 8a3f
00000150: b2c6 153e c5b8 f1be 7238 fabe b17e 733f
00000160: a528 4cbf 53bc 21be b9f4 603c 1fa3 a43e
00000170: 6e36 d3bd e51f 403f b487 4bbf ee52 23bf
00000180: afae 48be c225 113d 9010 58bf a569 00be
00000190: d2e8 bfbe bd00 f5be 6931 24be d403 bfbf
000001a0: 046f 0e3f d46a 803e 034f c93d 6cef 62bf
000001b0: 2b63 aa3e 3c22 e3be 0962 1f3f 7e42 353e
000001c0: 2d80 2f3f 1d66 4fbf edee e2be ae44 9c3f
000001d0: b416 8dbd 2e64 86bf 5676 82be 83e5 dcbe
000001e0: d927 ce3e 4fc9 54bf 79cc 88bf d9e9 1bbd
000001f0: 8e83 683f 3ef9 983f 9c28 d2bc 86f4 233f
00000200: 6029 933f 43e5 0b3f 6a02 25be 3804 39bd
00000210: 2af2 c8be 3c21 38be c0f0 aabe afe6 a0bd
00000220: 27bd 52bf a273 0b3f d017 213e a14f e93d
00000230: 8b27 1a3d 9b08 8dbf 454b b7be 8d9f 043f
00000240: 2a5e 383f d624 aebf 1bde 013f 6177 5c3e
00000250: 72ff a4bf 4332 c33e 74a6 00be 3d1d f53d
00000260: 8e04 77be 6e61 e13e bf65 66bf abca 333f
00000270: a50b d2be 3e0f 133f ce5e f53e 6354 213f

model/mobilenetv2_0.50_64/block_15_project_BN/FusedBatchNormV3 f4 [80]
0.048189037 -0.13510884 -0.92897683 -0.22746913 -0.032001533 -0.17525809 0.9734265 0.91813695
-0.6699957 -0.9147488 -0.5446001 0.2788046 -0.44867867 -0.12045671 -0.28185493 0.48454854
0.098614335 -0.51799583 -0.923768 -0.14517953 0.08274623 -1.554488 -0.018563384 0.30978844
0.110292196 0.25404787 -0.25455117 0.08489362 -0.11321851 -1.109985 -0.2595955 -0.4157098
0.64080465 -0.9750852 0.3699789 0.0067566317 0.7932299 1.4108332 -0.28806347 -0.16377296
-0.5336634 -0.22858232 0.11425083 0.32426238 0.30323958 0.21616577 -0.90658456 0.05604256
0.024913656 0.6445728 -0.12953831 0.7231585 0.17527606 0.10444352 -0.17979428 1.6594412
-0.7258779 -0.24280508 0.3244521 -0.80465055 -0.012442375 0.28391376 -0.07500782 0.25318524
1.701097 -0.10325844 -0.9312469 1.02915 -0.20916969 0.48591092 0.32191184 -0.7402485
0.3920819 -0.09051425 0.06571231 0.21487989 -0.5923903 -0.51227754 -0.69898075 -0.24762979
00000000: de61 453d f959 0abe 6dd1 6dbf abed 68be
00000010: 0a14 03bd db76 33be 7b32 793f 060b 6b3f
00000020: d784 2bbf fa2c 6abf ea6a 0bbf 7abf 8e3e
00000030: 36b9 e5be 02b2 f6bd 4a4f 90be bf16 f83e
00000040: 50f6 c93d 609b 04bf 0f7c 6cbf f1a9 14be
00000050: db76 a93d 76f9 c6bf 3d12 98bc 979c 9e3e
00000060: e0e0 e13d 9012 823e 8854 82be b5dc ad3d
00000070: 1bdf e7bd fd13 8ebf b4e9 84be ead7 d4be
00000080: c60b 243f 2f9f 79bf e06d bd3e bc66 dd3b
00000090: 1d11 4b3f 2f96 b43f 0e7d 93be 19b4 27be
000000a0: 2a9e 08bf 7c11 6abe 57fc e93d b805 a63e
000000b0: 3842 9b3e 8f5a 5d3e ed15 68bf e28c 653d
000000c0: b917 cc3c b902 253f b1a5 04be ea20 393f
000000d0: 917b 333e 7ce6 d53d fe1b 38be 9268 d43f
000000e0: 22d3 39bf e5a1 78be 961e a63e 94fd 4dbf
000000f0: 1adb 4bbc 255d 913e b39d 99bd 7fa1 813e
00000100: 8cbd d93f 2979 d3bd 3266 6ebf 30bb 833f
00000110: 9430 56be 51c9 f83e a1d1 a43e ed80 3dbf
00000120: f5be c83e 895f b9bd 2d94 863d 7909 5c3e
00000130: e4a6 17bf 9f24 03bf 67f0 32bf aa92 7dbe

model/mobilenetv2_0.50_64/block_14_project_BN/FusedBatchNormV3 f4 [80]
0.16148753 -0.094457075 0.6793254 -1.1593058 -0.3837314 -0.54675007 0.5115653 -0.34787154
0.106902085 -0.6900638 0.1829984 0.5623633 -0.85803837 0.3997313 0.54573876 -0.10731786
-1.2141196 0.44860834 -0.04208847 -0.6415727 -0.07234474 -0.755914 -0.4032047 0.1946469
0.17027272 0.32226393 -0.50204134 0.019894801 0.6297992 -0.6509115 -0.8546454 0.2489092
0.2054238 0.6698694 -0.28619617 -0.41271007 0.67555594 -0.41607544 -0.47803745 0.11491153
0.03295168 -0.46399686 1.311614 0.30708686 0.014303515 -0.18480374 -0.14560722 0.2840864
0.14627707 0.19642182 0.21527028 0.8923595 -0.11839637 -0.63454324 0.24928127 -0.18593417
-0.0075714453 0.38245767 0.5733307 0.23830327 0.6952421 -0.25695437 -0.42892426 0.7390127
-0.15236247 0.31330737 0.23694542 -0.19894756 -0.13295594 -0.13024223 -0.4587652 -0.5618052
-1.2042263 0.09694308 0.74652565 0.33193615 -0.4084586 0.5458787 -0.35819015 0.22488488
00000000: fd5c 253e b672 c1bd 45e8 2d3f 2264 94bf
00000010: 7178 c4be d0f7 0bbf f2f5 023f 381c b2be
00000020: 7bef da3d 05a8 30bf ef63 3b3e 0bf7 0f3f
00000030: 67a8 5bbf 95a9 cc3e 89b5 0b3f 77c9 dbbd
00000040: 4568 9bbf feaf e53e f664 2cbd 1c3e 24bf
00000050: 7b29 94bd 9483 41bf d970 cebe 8451 473e
00000060: f95b 2e3e c7ff a43e c885 00bf 6cfa a23c
00000070: 853a 213f 23a2 26bf 0aca 5abf 0ee2 7e3e
00000080: 9e5a 523e 907c 2b3f 4e88 92be bc4e d3be
00000090: 3cf1 2c3f d707 d5be 53c1 f4be bc56 eb3d
000000a0: 57f8 063d ff90 edbe f8e2 a73f 7d3a 9d3e
000000b0: 4a59 6a3c 313d 3dbe 0f1a 15be c673 913e
000000c0: a8c9 153e cd22 493e d06f 5c3e ac71 643f
000000d0: cc79 f2bd 6d71 22bf 9743 7f3e 8765 3ebe
000000e0: e319 f8bb 7ed1 c33e cdc5 123f c605 743e
000000f0: 63fb 313f 868f 83be f69b dbbe f02f 3d3f
00000100: e804 1cbe d369 a03e d2a1 723e e9b8 4bbe
00000110: 9a25 08be 385e 05be 46e3 eabe 77d2 0fbf
00000120: 1624 9abf 188a c63d 4e1c 3f3f 89f3 a93e
00000130: 7c21 d1be b5be 0b3f b364 b7be 3948 663e

model/mobilenetv2_0.50_64/block_13_project_BN/FusedBatchNormV3 f4 [80]
-0.43389463 0.46762273 0.4125783 -0.73499656 0.4612321 -0.5476554 -0.38857067 0.15642492
-0.36813203 -0.53247553 0.261682 -0.084143244 -0.40091982 -0.031097636 0.74069333 -1.2772777
0.20914209 -0.7314304 0.21179047 -0.6981115 0.18476817 -0.10088391 0.54521614 0.29938173
-0.24241056 0.060176004 0.30097556 0.0718297 0.15785918 -0.51367104 0.43648046 -1.0958736
-0.5615317 1.1029937 0.44520256 0.19480407 0.3501446 -0.46056443 0.24178535 0.4868344
0.5513724 -0.1369359 0.2087658 -0.013691517 0.7694203 -0.36395848 -0.22407424 -0.008302265
-0.09450885 -0.28961787 -0.699423 0.03310073 -0.36015576 0.26701877 -0.9968786 0.00089648855
-0.64212024 0.6354251 0.09309449 0.0040484783 -0.042436015 0.76480645 -0.2011512 -0.13236172
0.11778419 -0.33291456 0.31568852 0.27787307 0.35611212 0.27544853 -0.39588052 0.043882754
0.028256495 0.8017015 -0.16597103 0.8628869 0.1116524 0.35494238 0.030362086 0.68358356
00000000: 7027 debe 3f6c ef3e 773d d33e bc28 3cbf
00000010: 9d26 ec3e 2533 0cbf bcf2 c6be db2d 203e
00000020: cd7b bcbe 5150 08bf 2ffb 853e 4b53 acbd
00000030: 5d45 cdbe 78c0 febc 149e 3d3f d67d a3bf
00000040: 5829 563e 063f 3bbf 9adf 583e 6fb7 32bf
00000050: de33 3d3e 399c cebd 4993 0b3f 9048 993e
00000060: 793a 78be 1d7b 763d 7819 9a3e 731b 933d
00000070: d6a5 213e f27f 03bf 5e7a df3e 9645 8cbf
00000080: 8bc0 0fbf e62e 8d3f 97f1 e33e b87a 473e
00000090: 2746 b33e 1acf ebbe 9496 773e 5c42 f93e
000000a0: be26 0d3f ed38 0cbe b4c6 553e 6252 60bc
000000b0: bbf8 443f c458 babe b873 65be 3906 08bc
000000c0: db8d c1bd cb48 94be 630d 33bf a294 073d
000000d0: 5666 b8be afb6 883e 7033 7fbf 5402 6b3a
000000e0: fe61 24bf 38ab 223f 53a8 be3d 19a9 843b
000000f0: 63d1 2dbd 5bca 433f 95fa 4dbe d589 07be
00000100: d638 f13d c773 aabe eda1 a13e 6145 8e3e
00000110: 5454 b63e 9707 8d3e dab0 cabe 67be 333d
00000120: 2a7a e73c 4f3c 4d3f 4ff4 29be 28e6 5c3f
00000130: 03aa e43d 02bb b53e e9b9 f83c 55ff 2e3f

model/mobilenetv2_0.50_64/block_12_project_BN/FusedBatchNormV3 f4 [48]
0.649311 -0.076862276 -0.037989147 0.609602 -0.92621994 -0.1711463 -0.07706832 -0.31150377
0.16984256 -0.24579175 0.35354087 0.43972078 0.27884892 0.19595546 0.0065199668 -0.416461
0.96012896 0.72805196 -0.43504086 -0.24691269 0.16880488 0.9253 0.1421373 -0.4294457
-0.4840893 -0.41136906 0.8391907 0.036632374 0.76819015 -0.7707562 -0.1228447 -0.0659154
-0.18044959 0.25226837 -0.44407302 -0.78029746 -0.5889503 0.17755969 -0.13293189 -0.20699938
0.30675843 0.26034915 -0.43747887 0.44488457 0.46657118 0.20749602 0.25546286 -0.5094153
00000000: 3f39 263f f869 9dbd 829a 1bbd e00e 1c3f
00000010: c01c 6dbf fa40 2fbe ffd5 9dbd 6c7d 9fbe
00000020: 35eb 2d3e d5b0 7bbe 4f03 b53e 1523 e13e
00000030: 49c5 8e3e 8ca8 483e 72a5 d53b 603a d5be
00000040: 03cb 753f 9d61 3a3f adbd debe aed6 7cbe
00000050: 30db 2c3e 76e0 6c3f 718c 113e 4fe0 dbbe
00000060: 8dda f7be f79e d2be 34d5 563f d40b 163d
00000070: 1ca8 443f 4750 45bf 0196 fbbd a7fe 86bd
00000080: c7c7 38be 5229 813e 8a5d e3be 93c1 47bf
00000090: 72c5 16bf 35d2 353e 4c1f 08be a5f7 53be
000000a0: 710f 9d3e 7c4c 853e 3bfd dfbe e9c7 e33e
000000b0: 6be2 ee3e d679 543e 07cc 823e 0b69 02bf

model/mobilenetv2_0.50_64/block_11_project_BN/FusedBatchNormV3 f4 [48]
0.47044802 0.20577502 -0.2621049 -0.66445804 -0.41392976 -0.12764513 -0.008137472 0.28804013
-0.0047903256 0.48382193 -0.016660206 -0.37198263 0.7176441 0.7418083 0.58907783 0.05203676
-0.44865543 0.57002133 -0.30667853 0.00086295506 -0.34348097 -0.70253766 -0.4394289 -0.14026451
0.0011983784 0.8078735 -0.2041028 -0.81313515 0.18344168 -0.16208914 0.48200455 -0.06430922
0.20944251 -0.250249 0.60925126 -0.11213002 0.5245926 -0.79808325 -0.10198308 0.5523744
0.6547743 -1.0305371 -1.0471567 0.11451507 -0.23796012 -0.89204484 0.57640386 -0.4968884
00000000: 90de f03e b0b6 523e 9d32 86be ec19 2abf
00000010: 9aee d3be 68b5 02be 0853 05bc ff79 933e
00000020: 2af8 9cbb 82b7 f73e fc7a 88bc 8274 bebe
00000030: 86b7 373f 26e7 3d3f cecd 163f 7f24 553d
00000040: 2ab6 e5be ebec 113f f804 9dbe ef37 623a
00000050: bddc afbe 82d9 33bf d3fc e0be 80a1 0fbe
00000060: e812 9d3a ccd0 4e3f 5300 51be a029 50bf
00000070: 23d8 3b3e b2fa 25be 4dc9 f63e 8db4 83bd
00000080: 1978 563e a320 80be e4f7 1b3f 6da4 e5bd
00000090: b34b 063f 2f4f 4cbf 81dc d0bd 6968 0d3f
000000a0: 4a9f 273f a4e8 83bf 3b09 86bf e186 ea3d
000000b0: d1ab 73be 0d5d 64bf 348f 133f 2868 febe

model/mobilenetv2_0.50_64/block_10_project_BN/FusedBatchNormV3 f4 [48]
0.06427662 -0.13964742 -0.03791251 -0.34237555 0.002900328 -0.22755015 1.1190116 0.4342852
0.19159125 -0.037902277 0.40919086 0.04329514 -0.12649117 0.15099555 -0.6558672 0.89985156
0.025792543 -1.2039008 -0.36225525 0.09721394 0.9842199 -0.3086432 0.07655717 -0.11193169
-0.47617853 -0.62338954 0.16262941 -0.22195072 0.038334496 0.32075512 0.52564096 0.3219275
-1.4507741 0.9250627 -0.32578138 -0.066505976 0.9301499 0.33155447 0.43934286 0.12421503
0.34306556 0.14324479 -1.0154245 0.4257996 0.42284667 -0.64999306 0.15453851 0.3588638
00000000: 76a3 833d bcff 0ebe 264a 1bbd d94b afbe
00000010: 6e13 3e3b e802 69be c63b 8f3f a15a de3e
00000020: 7f30 443e 6b3f 1bbd 7781 d13e 3f56 313d
00000030: e786 01be 949e 1a3e eae6 27bf ac5c 663f
00000040: e24a d33c 6c19 9abf 8579 b9be 1a18 c73d
00000050: d6f5 7b3f 7b06 9ebe 01ca 9c3d 713c e5bd
00000060: accd f3be 7596 1fbf 5388 263e 0d47 63be
00000070: a204 1d3d 043a a43e 6890 063f aed3 a43e
00000080: f7b2 b9bf e9d0 6c3f d1cc a6be 4934 88bd
00000090: 4e1e 6e3f 82c1 a93e 8cf1 e03e 7364 fe3d
000000a0: 4aa6 af3e c3ae 123e 6ef9 81bf 6802 da3e
000000b0: 5c7f d83e f265 26bf 583f 1e3e ffbc b73e

model/mobilenetv2_0.50_64/block_9_project_BN/FusedBatchNormV3 f4 [32]
0.45486307 -0.1461812 -0.26095486 -0.30119738 0.20496085 -0.6116404 1.0556226 0.42431647
-0.5249485 0.5783397 1.257434 -0.37470546 0.344807 0.105562314 0.32264826 0.17845115
0.69828284 -0.16580334 -0.28923813 0.75407964 -0.42191797 -0.4938139 0.16933864 0.13528037
0.20544556 -0.04604311 0.041934818 -0.29410464 -0.60614353 0.54541796 -0.09527879 -0.3018498
00000000: d0e3 e83e 86b0 15be e09b 85be 8b36 9abe
00000010: 42e1 513e 7794 1cbf a41e 873f 0240 d93e
00000020: 0663 06bf 120e 143f 99f3 a03f 65d9 bfbe
00000030: 8b8a b03e 0e31 d83d 2732 a53e e6bb 363e
00000040: aac2 323f 5ac8 29be 0517 94be 5d0b 413f
00000050: a205 d8be 2dd5 fcbe 1c67 2d3e f086 0a3e
00000060: 5260 523e b397 3cbd d8c3 2b3d e294 96be
00000070: 392c 1bbf 83a0 0b3f 8721 c3bd 0f8c 9abe

model/mobilenetv2_0.50_64/block_8_project_BN/FusedBatchNormV3 f4 [32]
-0.3810669 0.63021076 1.1861244 0.7248417 0.28010008 0.12232923 0.4543109 -0.7653304
0.86148745 0.80866814 -0.51201576 0.17300381 0.57349724 0.78019017 -0.34948453 0.25155854
-0.2654882 0.8690856 0.07348469 0.01576813 0.08371393 0.26924604 0.6930376 -0.007892761
-0.8806592 -1.246399 -0.13411579 0.18687421 1.382867 -0.37089893 0.40198177 -0.49298167
00000000: 331b c3be 7e55 213f edd2 973f 3a8f 393f
00000010: 4769 8f3e bf87 fa3d 709b e83e b1ec 43bf
00000020: 718a 5c3f e004 4f3f 7713 03bf e927 313e
00000030: b7d0 123f 8bba 473f a3ef b2be 48cc 803e
00000040: 12ee 87be 657c 5e3f 247f 963d 2a2c 813c
00000050: 3572 ab3d 9eda 893e ea6a 313f a450 01bc
00000060: e272 61bf 018a 9fbf a655 09be f45b 3f3e
00000070: c901 b13f 77e6 bdbe 8ed0 cd3e 1868 fcbe

model/mobilenetv2_0.50_64/block_7_project_BN/FusedBatchNormV3 f4 [32]
0.9201356 -0.05615898 0.6868861 0.09925075 -0.24699101 0.96726257 -0.29609212 0.6894809
0.82064325 0.4982691 0.4127241 0.39191926 -0.54744464 0.65999967 -0.5386775 -0.1522206
-0.8034325 0.081973955 -0.49484283 -0.85928136 0.73623383 -0.4960432 -0.64587617 0.11766443
-0.8622574 0.1463652 -0.7847098 0.35565802 0.4514709 1.240779 0.39678773 0.7846082
00000000: 028e 6b3f f506 66bd c4d7 2f3f fa43 cb3d
00000010: 36eb 7cbe 859e 773f 6399 97be d281 303f
00000020: ad15 523f 211d ff3e 9350 d33e a4a9 c83e
00000030: 5525 0cbf bdf5 283f c5e6 09bf b8df 1bbe
00000040: c1ad 4dbf f6e1 a73d 0a5c fdbe ddf9 5bbf
00000050: d279 3c3f 60f9 fdbe 2458 25bf 0cfa f03d
00000060: e7bc 5cbf c2e0 153e bee2 48bf cf18 b63e
00000070: 3227 e73e d9d1 9e3f c327 cb3e 15dc 483f

model/mobilenetv2_0.50_64/bn_Conv1/FusedBatchNormV3 f4 [16]
-2.7630992 -0.28061277 3.0154912 -2.4152687 3.0610023 -2.6209052 -3.0704603 -0.13518283
-3.16085 2.7319818 -2.710635 -3.1930332 3.1368632 -2.5388885 -3.10587 -3.237412
00000000: 9ed6 30c0 7aac 8fbe cffd 4040 c393 1ac0
00000010: 76e7 4340 e9bc 27c0 6c82 44c0 5e6d 0abe
00000020: 5e4b 4ac0 cad8 2e40 0b7b 2dc0 a85a 4cc0
00000030: 5ec2 4840 267d 22c0 93c6 46c0 c231 4fc0

model/mobilenetv2_0.50_64/expanded_conv_depthwise_BN/FusedBatchNormV3 f4 [16]
0.7749574 -0.31158936 0.70653504 0.51616746 -0.5873882 0.7826407 -0.72955245 1.0042025
0.40307838 0.47250262 -0.27487853 0.20716207 0.31454548 0.21361783 0.65903735 0.65511084
00000000: 9c63 463f a488 9fbe 7bdf 343f 8d23 043f
00000010: 135f 16bf 245b 483f f3c3 3abf b589 803f
00000020: 4a60 ce3e ddeb f13e e1bc 8cbe 4b22 543e
00000030: 1b0c a13e a2be 5a3e acb6 283f 58b5 273f

model/mobilenetv2_0.50_64/block_1_expand_BN/FusedBatchNormV3 f4 [48]
-0.0008807061 -0.013693532 -0.0034774796 -0.0041845334 -0.00048805354 -0.0016726179 0.005406467 0.0043828394
0.0078013353 0.0022001774 -0.00019682455 0.015522855 -0.0009478822 -0.005638047 0.0061515216 0.0045338445
-0.0031308183 0.006117686 -0.00051585445 -0.0003118706 -0.009634408 -0.001790004 0.0057906187 -0.0019141402
-0.0062194364 -0.008552032 -0.0032893529 -0.009279776 -0.0037096944 0.0026576447 -0.0069789775 -0.0073422776
-0.015464741 -0.0019161423 -0.0078005907 -0.012655248 0.004497975 0.009411959 0.00019504578 0.0041598408
-0.001911536 -0.0027742605 0.0058786673 0.016731761 0.019490343 -0.009664769 -0.00022286328 0.0053716097
00000000: 30df 66ba d65a 60bc 6de6 63bb 691e 89bb
00000010: 70e1 ffb9 be3b dbba bb28 b13b ec9d 8f3b
00000020: 58a2 ff3b da30 103b b062 4eb9 9353 7e3c
00000030: 4c7b 78ba 5ebf b8bb b492 c93b a590 943b
00000040: 6a2e 4dbb df76 c83b 683a 07ba 9082 a3b9
00000050: a3d9 1dbc 919e eaba 3bbf bd3b e3e3 faba
00000060: 6acc cbbb d21d 0cbc 2f92 57bb 340a 18bc
00000070: 581e 73bb e12b 2e3b e8af e4bb 7d97 f0bb
00000080: d35f 7dbc 1127 fbba 199c ffbb f557 4fbc
00000090: c063 933b 9e34 1a3c 3485 4c39 464f 883b
000000a0: 818c faba 5ed0 35bb d6a1 c03b 0c11 893c
000000b0: 36aa 9f3c fb58 1ebc 68b0 69b9 5404 b03b

model/mobilenetv2_0.50_64/block_1_depthwise_BN/FusedBatchNormV3 f4 [48]
-1.053596 -0.6895353 -0.6838994 -0.45344535 -0.056769006 -0.6416432 0.48665377 0.84283906
0.2927317 -0.41423517 0.5379055 0.79316896 0.5601446 0.08824334 -0.6564391 0.13024928
-0.4360579 -0.1770591 0.5256392 -1.1039418 -0.073847145 0.6625323 -0.21828584 -0.82767916
0.46547505 0.20635676 -0.5829246 -0.31706405 0.21565165 -0.024922296 0.053952843 -0.17200129
-0.32256737 -0.43899396 -0.55058134 -0.17358512 -0.1472811 0.9180104 -0.37083676 0.72567964
0.60816664 0.15440272 0.33614594 0.82559663 0.85461646 -0.016643502 0.72278076 0.81177586
00000000: 3cdc 86bf 6385 30bf 0814 2fbf fd29 e8be
00000010: 9e86 68bd bb42 24bf af2a f93e 4dc4 573f
00000020: eee0 953e a216 d4be 2db4 093f 1f0d 4b3f
00000030: a365 0f3f edb8 b43d 650c 28bf 1160 053e
00000040: fb42 dfbe fb4e 35be 4a90 063f f74d 8dbf
00000050: 2c3d 97bd b89b 293f 5386 5fbe c8e2 53bf
00000060: bf52 ee3e 304f 533e 8c3a 15bf 3856 a2be
00000070: c9d3 5c3e d829 ccbc a8fd 5c3d 1b21 30be
00000080: 8d27 a5be d1c3 e0be e6f2 0cbf 4cc0 31be
00000090: dbd0 16be bb02 6b3f 51de bdbe 24c6 393f
000000a0: cfb0 1b3f bf1b 1e3e 521b ac3e 4d5a 533f
000000b0: 25c8 5a3f f457 88bc 2908 393f 8bd0 4f3f

model/mobilenetv2_0.50_64/block_2_expand_BN/FusedBatchNormV3 f4 [96]
0.010044557 -0.011842653 -0.0026369786 -0.005770898 -0.0017052717 0.004753272 -0.0019884445 -0.0053324434
-0.008590039 -0.0043978123 0.015660753 -0.0047407984 0.012443566 -0.006280442 0.007825798 -0.00056987227
0.002070959 -0.0025226553 0.010662451 -0.0058038672 -0.006410389 -8.629235e-05 -0.007076301 0.0037603402
-0.0035724319 -0.0063611288 0.013565418 -0.014479516 -0.0062509794 0.014256836 -0.003411911 0.0011510346
-0.0008164955 0.0018806297 0.0007625206 0.0020559584 -0.0039243326 -0.0065212166 -0.011769818 0.001417925
-0.0015608113 -0.0048888004 -0.0015396177 0.0037368622 0.006925344 -0.0011723657 0.0033899806 -0.0014594011
0.007327201 -0.010313305 -0.0032606134 -0.0058060535 -0.005365006 0.0005659188 -0.0073978985 -0.0057123117
0.0029206849 -0.0071031097 -0.007477188 0.0055768737 0.0020311698 0.0042257127 0.0027714372 -0.0029092235
-0.0006674662 -0.007184847 0.00074273534 0.003218023 -0.008903439 0.0042753797 0.011136254 -0.007299187
-0.009070751 0.0007868632 0.0016929494 -0.011377387 -0.009950334 -0.0026175473 0.003852459 -0.0016496195
-0.0016317327 -0.0017822587 -0.011258731 -0.0048641446 0.0028586825 0.002714659 0.00034295698 -0.0005819223
0.009559644 -0.0049500912 0.006749102 -0.0033751149 -0.0043589245 -0.0018760198 0.0036915115 -0.0067012683
00000000: ed91 243c b007 42bc 29d1 2cbb cd19 bdbb
00000010: 6c83 dfba 56c1 9b3b 9050 02bb c7bb aebb
00000020: 3cbd 0cbc 861b 90bb fb4a 803c b358 9bbb
00000030: 19e0 4b3c 2acc cdbb c737 003c 7b63 15ba
00000040: edb8 073b 2253 25bb 90b1 2e3c 5e2e bebb
00000050: 3e0e d2bb daf7 b4b8 51e0 e7bb 0a70 763b
00000060: 761f 6abb 0471 d0bb 7d41 5e3c 7e3b 6dbc
00000070: 04d5 ccbb 8195 693c 5e9a 5fbb 50de 963a
00000080: 160a 56ba 767f f63a e4e3 473a 42bd 063b
00000090: b097 80bb eeaf d5bb 32d6 40bc abd9 b93a
000000a0: 2394 ccba 3b32 a0bb ffcc c9ba 25e6 743b
000000b0: ffed e23b 11aa 99ba 702a 5e3b 6049 bfba
000000c0: 0419 f03b 23f9 28bc 04b0 55bb b540 bebb
000000d0: efcc afbb 2b5a 143a 126a f2bb 582e bbbb
000000e0: f668 3f3b 34c1 e8bb 3303 f5bb 35be b63b
000000f0: 601d 053b d977 8a3b 00a1 353b aca8 3ebb
00000100: e6f8 2eba dd6e ebbb 20b4 423a 78e5 523b
00000110: bbdf 11bc 7c18 8c3b d674 363c 052e efbb
00000120: 7d9d 14bc 7f45 4e3a f5e5 dd3a 3868 3abc
00000130: ba06 23bc 288b 2bbb 8979 7c3b 0c38 d8ba
00000140: dddf d5ba ae9a e9ba 8a76 38bc 6763 9fbb
00000150: bc58 3b3b 6ce8 313b e8ce b339 258c 18ba
00000160: 0ea0 1c3c 6034 a2bb 9227 dd3b 0831 5dbb
00000170: 4fd5 8ebb c7e4 f5ba 49ed 713b 5096 dbbb

model/mobilenetv2_0.50_64/block_2_depthwise_BN/FusedBatchNormV3 f4 [96]
-0.73124903 -0.78614277 0.554103 -0.08071949 0.83920914 0.7502588 0.31517345 0.8006503
-0.9928615 0.271973 1.1318071 0.21441151 0.26409817 0.022437513 0.77764136 1.0040354
-0.88334715 -0.21638748 0.67432326 -0.74381995 0.43442747 0.022936104 0.1311274 0.20187023
-0.19136342 0.15684794 -0.83640134 -0.8639817 -0.404422 0.9306302 0.14176305 -0.5743717
0.5745228 0.4884401 0.12982185 -0.018393049 -0.60369885 -0.61216456 -0.1552695 0.1582444
0.4102939 -0.2393855 -0.056721143 0.5138123 -0.75256014 0.36970392 -0.111997664 -0.19284444
-0.034955658 0.41685256 -0.0988199 -0.6070861 -0.089017645 -0.0022168136 0.9377731 0.13252918
-0.24268211 0.5055472 -0.33744466 -0.019363869 0.9715294 0.1116141 -0.47645134 0.041392736
-0.022190869 0.44288257 0.323917 0.1753744 -0.16865627 -0.5330454 -0.7157513 -0.7417359
-0.31239435 0.8659863 -0.5035611 0.581931 -0.5844666 -0.5006766 -0.42271665 -0.8271104
-0.33015242 -0.110021695 0.0003564616 -0.26243317 -0.17484386 0.95759517 -0.14444247 0.15044129
-0.4858272 -0.23459089 0.85284245 0.8321242 -0.3056801 0.32485464 -0.73713714 -0.3859958
00000000: 2333 3bbf a740 49bf b2d9 0d3f 4350 a5bd
00000010: 69d6 563f f610 403f 6a5e a13e 6bf7 4c3f
00000020: 2c2c 7ebf 0c40 8b3e 0edf 903f b18e 5b3e
00000030: e037 873e e0ce b73c 8113 473f 3b84 803f
00000040: 0a23 62bf ae94 5dbe 73a0 2c3f fc6a 3ebf
00000050: 476d de3e 7fe4 bb3c 4346 063e 12b7 4e3e
00000060: c6f4 43be bf9c 203e 661e 56bf e82d 5dbf
00000070: 6610 cfbe c83d 6e3f 552a 113e 060a 13bf
00000080: ed13 133f d214 fa3e 05f0 043e 05ad 96bc
00000090: 028c 1abf d1b6 1cbf f8fe 1ebe d20a 223e
000000a0: 0b12 d23e 7921 75be 6e54 68bd 3489 033f
000000b0: c8a7 40bf d549 bd3e 085f e5bd 0379 45be
000000c0: aa2d 0fbd b36d d53e 1662 cabd ff69 1bbf
000000d0: e24e b6bd f647 11bb e611 703f bbb5 073e
000000e0: a981 78be 8b6b 013f 8cc5 acbe faa0 9ebc
000000f0: 27b6 783f ef95 e43d 6ef1 f3be 6e8b 293d
00000100: a0c9 b5bc 81c1 e23e 73d8 a53e 5995 333e
00000110: 3bb4 2cbe aa75 08bf 7a3b 37bf 67e2 3dbf
00000120: 27f2 9fbe 47b1 5d3f 61e9 00bf 6ef9 143f
00000130: 9a9f 15bf 572c 00bf 516e d8be 82bd 53bf
00000140: bd09 a9be 0e53 e1bd 77e3 ba39 a45d 86be
00000150: 450a 33be f524 753f bae8 13be 480d 1a3e
00000160: 58be f8be 9838 70be e253 5a3f 1706 553f
00000170: 1a82 9cbe 5953 a63e 05b5 3cbf 3ea1 c5be

model/mobilenetv2_0.50_64/block_3_expand_BN/FusedBatchNormV3 f4 [96]
-0.004682901 0.014929994 3.50716e-05 0.0067231674 -0.008647843 0.0015075405 -0.0037386578 0.0036767665
-0.006083072 0.00041933445 0.0026429053 -0.0015038672 -0.005716626 -0.0026698061 -0.0073932186 0.005897729
-0.005696167 -0.005627642 -0.006362775 -0.013743933 -0.0055231075 0.0056476374 -0.0024423178 -0.0010698875
0.006715799 -0.0007867251 -0.00040463108 -0.013181831 -0.00035931135 -0.0022329807 -0.002657963 0.0067398716
-0.00096224085 -0.003421771 -0.0059171366 -0.0046438817 -0.009417104 0.0046424093 0.0017758845 -0.002608297
-0.0006926176 -0.003310396 -0.00331157 -0.0060653137 0.0029706599 -0.010410135 9.618094e-05 0.0027698954
0.008143174 0.002258774 -0.0011693502 0.0090931915 -0.0023756342 -0.0020040434 0.011524488 0.013153059
0.0024432985 0.0035830725 -0.033927754 0.0038070728 0.007473521 -0.0030861425 0.010388033 -0.0018063913
0.00024264248 0.0023011058 0.002487932 0.008458524 -0.0058885524 -0.0037810674 -0.0022137628 0.0019778428
0.01215424 -0.012283451 0.0008895269 -0.0067482213 -0.0028493162 0.0006442417 -0.0015547377 -0.025480589
-0.0050991355 0.0046932166 0.003183743 -0.0045748907 -0.008814415 0.0018919755 0.011341496 0.0053722393
-0.0015494665 0.0022670492 0.01227086 0.00788334 0.0026572417 0.004670756 -0.0007386771 0.0032821
00000000: 0573 99bb ef9c 743c d819 1338 044e dc3b
00000010: afaf 0dbc aa98 c53a 4504 75bb e8f5 703b
00000020: 8254 c7bb 1eda db39 9834 2d3b 691d c5ba
00000030: 8952 bbbb eaf7 2ebb d042 f2bb bd41 c13b
00000040: e9a6 babb 1568 b8bb d37e d0bb 3c2e 61bc
00000050: 2ffb b4bb d10f b93b 4b0f 20bb 783b 8cba
00000060: 3510 dc3b 3a3c 4eba aa24 d4b9 9bf8 57bc
00000070: f461 bcb9 3357 12bb 3831 2ebb 24da dc3b
00000080: e43e 7cba cb3f 60bb 8ae4 c1bb b42b 98bb
00000090: 324a 1abc 5a1f 983b ccc4 e83a f6ef 2abb
000000a0: c890 35ba 3bf3 58bb ed06 59bb 8abf c6bb
000000b0: 67af 423b 458f 2abc c0b4 c938 2287 353b
000000c0: f36a 053c f007 143b e244 99ba 9cfb 143c
000000d0: 87b0 1bbb 4556 03bb 35d1 3c3c ee7f 573c
000000e0: bf1f 203b fbd1 6a3b d4f7 0abd 1580 793b
000000f0: 70e4 f43b e140 4abb 9232 2a3c 6fc4 ecba
00000100: d86d 7e39 26ce 163b 930c 233b 9f95 0a3c
00000110: c2f4 c0bb c9cb 77bb c714 11bb b29e 013b
00000120: 9422 473c 8740 49bc 242f 693a 2f20 ddbb
00000130: 98bb 3abb 54e2 283a 57c8 cbba abbc d0bc
00000140: a616 a7bb 8ec9 993b 58a6 503b f7e8 95bb
00000150: 566a 10bc 2afc f73a afd1 393c 9c09 b03b
00000160: 7817 cbba c692 143b b80b 493c 2029 013c
00000170: 1e25 2e3b 240d 993b c8a3 41ba 8018 573b

model/mobilenetv2_0.50_64/block_3_depthwise_BN/FusedBatchNormV3 f4 [96]
0.42941076 0.5134186 0.121910416 1.0148588 -0.8063846 -1.0090446 -0.4793817 0.24407141
0.16006492 0.29382038 -0.7968898 -0.9515033 0.7742005 -0.18443228 0.3617174 0.4644193
0.3213123 -0.3422806 0.25773677 -0.76880646 0.16923545 -0.4728099 -1.0122782 -0.16695963
0.8783139 -0.5143853 -0.30712166 -0.63681555 0.69106144 -0.0047184564 0.88951546 0.5189273
0.68570584 -0.028362583 0.34881598 -0.43300453 -0.24699491 -0.5908096 -0.66695875 0.026068304
-0.7534373 0.7503824 -1.1859579 -0.07314029 -0.7134692 -0.8029181 0.7280729 -0.27809992
0.9473957 -0.61678463 -0.437468 -0.24471015 -0.24022545 0.10888578 0.47331083 1.26419
0.7302591 -0.19028203 -0.46098557 -0.28228077 -0.7470949 0.53613263 1.1645423 -0.79601526
-0.013022619 0.6948226 -0.037749864 -0.6414288 0.6630136 0.030180104 0.4987724 -0.310902
0.8636446 -0.5342433 0.13983573 0.549822 -0.45942205 0.5406761 -0.18729346 -0.8226375
0.09983435 0.7006845 -0.9798247 -0.8630952 0.2060427 0.4861966 0.8729134 0.9494524
-0.08747242 -0.37117308 1.0983462 -0.8672531 -0.37437424 -0.7867951 0.23916146 0.9651625
00000000: badb db3e 676f 033f 2bac f93d e5e6 813f
00000010: 396f 4ebf 6028 81bf 8571 f5be dbed 793e
00000020: 0fe8 233e a06f 963e f800 4cbf b895 73bf
00000030: 0132 463f d1db 3cbe 0633 b93e 5ec8 ed3e
00000040: 0c83 a43e 673f afbe 13f6 833e 80d0 44bf
00000050: 0f4c 2d3e 2414 f2be 5592 81bf 77f7 2abe
00000060: 2ed9 603f c1ae 03bf 0d3f 9dbe 5806 23bf
00000070: 67e9 303f 489d 9abb 49b7 633f 6bd8 043f
00000080: 6b8a 2f3f a658 e8bc 0298 b23e c5b2 ddbe
00000090: 3cec 7cbe 4c3f 17bf cfbd 2abf 328d d53c
000000a0: 44e1 40bf 1019 403f 78cd 97bf 94ca 95bd
000000b0: eba5 36bf 0a8c 4dbf fc62 3a3f 1d63 8ebe
000000c0: 8688 723f 99e5 1dbf cefb dfbe 4c95 7abe
000000d0: a9fd 75be 82ff de3d cc55 f23e fad0 a13f
000000e0: 43f2 3a3f 4bd9 42be 4d06 ecbe 1b87 90be
000000f0: 9d41 3fbf fd3f 093f b90f 953f a8c7 4bbf
00000100: d35c 55bc e5df 313f 9a9f 1abd ae34 24bf
00000110: 42bb 293f 443c f73c 195f ff3e 8c2e 9fbe
00000120: d017 5d3f 2bc4 08bf 1931 0f3e 22c1 0c3f
00000130: 5e39 ebbe c069 0a3f dbc9 3fbe 5f98 52bf
00000140: f475 cc3d 0f60 333f cbd5 7abf cff3 5cbf
00000150: dcfc 523e c3ee f83e 4177 5f3f 500f 733f
00000160: bd24 b3bd 660a bebe 9c96 8c3f 4d04 5ebf
00000170: fbad bfbe 676b 49bf bee6 743e e414 773f
