compression/mobilenetv2/dynamic_range_quantization/models_compressed/model_gearbox.tflite (tflite, 872296 bytes, 106 tensors)

model/mobilenetv2_0.50_64/predictions/BiasAdd/ReadVariableOp f4 [3]
000000 8b fa 65 ba de 8d 7f 3a 33 1e e1 b9
       -0.00087729905 0.0009748618 -0.00042937844

model/mobilenetv2_0.50_64/block_1_project/Conv2D f4 [16, 1, 1, 48]
000000 a7 39 2d 3e 2f a6 f6 be b6 89 8e 3e 28 a0 b4 3e
       0.16916524 -0.48173663 0.2783944 0.3527844
000010 41 6e 82 3e b0 d6 90 3d 87 12 03 bd c7 99 96 3e
       0.25474742 0.070721984 -0.03200009 0.29414198
000020 c2 9b b8 bc 34 47 f1 3e 13 13 27 3e 94 4f d2 3e
       -0.022535209 0.47124636 0.1631587 0.41076338
000030 d5 19 90 3e d2 db 3d be 59 9c 7f 3d b5 9e 1e be
       0.28144708 -0.18540886 0.062404964 -0.1549023
000040 2e c9 bb be 8c 96 a5 3d fb fb 4c 3a e8 c0 1e 3e
       -0.36676925 0.08085355 0.00078195304 0.15503275
000050 99 ee ef 3d 8b aa 24 3d 63 0e 83 be d8 04 5c be
       0.11715431 0.040201705 -0.25596914 -0.21486223
000060 a9 1a bc 3e 9c 3d 05 bf 3c bc 11 3e f7 00 2f be
       0.3673909 -0.52047133 0.14231962 -0.17090212
000070 e9 6a e1 3e eb 16 46 3e 21 a0 e3 be 7c d1 a0 3e
       0.44026878 0.1934468 -0.44458106 0.31409824
000080 da e8 b7 be 05 39 ab 3e db 71 82 be c2 a7 e4 3e
       -0.3591984 0.3344194 -0.2547749 0.4465924
000090 0f e2 3e 3d 62 fa 0e 3e ac 72 c2 3e 49 2e c6 be
       0.046602305 0.13962701 0.37978113 -0.38707188
0000a0 db 31 cd be 8e eb 16 3d bf 90 85 bd 39 08 48 3d
       -0.400771 0.036845736 -0.06521749 0.048835967
0000b0 ea c1 c5 be bf 1e 02 3f 0b e6 36 be 7e fc f1 be
       -0.38624507 0.50828165 -0.17861192 -0.4726295
0000c0 c2 93 d8 bc 25 4a c5 3b 94 18 b8 be 7c 50 1a 3e
       -0.026437644 0.0060208016 -0.35956252 0.15069765
0000d0 a6 f1 e5 3d 81 05 e0 3d 09 d4 11 be fe 72 6f 3e
       0.112277314 0.1093855 -0.14241041 0.2338371
0000e0 10 0d b4 3d 15 c3 6a 3e 3e a5 35 be 45 3f 07 3e
       0.08791554 0.2292598 -0.17738816 0.13207729
0000f0 19 5b 03 3e f9 a0 2f be f6 98 c9 3e 90 48 92 be
       0.1282772 -0.1715125 0.39374512 -0.28570986
000100 b3 2c c3 be 9e cc a6 be f1 3b 31 3e cc 28 ab be
       -0.3812004 -0.32577986 0.17308022 -0.33429563
000110 cc 9d 83 be 37 16 5f be f6 20 31 3d 92 b6 af be
       -0.25706327 -0.21785818 0.043244325 -0.34318978
000120 39 bb 3a 3d 31 7b 94 3e 32 cb 9e 3d e8 f5 87 3e
       0.045588706 0.29000238 0.077536 0.265548
000130 2a f8 24 be 83 3c 9a 3e 51 3b 64 be b9 c8 00 be
       -0.16110292 0.30124292 -0.22288252 -0.1257657
000140 72 59 d1 3c 0f a7 79 be d4 99 80 be 73 7c 3c 3e
       0.025555346 -0.24380134 -0.25117362 0.18406849
000150 c5 02 3f be 2b a3 09 be b3 03 42 be e5 6f b2 3e
       -0.186534 -0.1344115 -0.18946724 0.34850994
000160 cb a3 b3 be 9b 06 84 bd 4e 7e 58 3e 40 3b a1 3e
       -0.35085902 -0.064465724 0.21141931 0.31490517
000170 51 d2 c6 bd 47 f3 c4 3e f0 e5 8d be 77 0b af be
       -0.097080834 0.38466856 -0.2771449 -0.34188434
000180 22 c9 7c 3e 0f 22 9f 3e f6 a9 d0 be 4d b1 cc 3e
       0.24686101 0.31080672 -0.4075467 0.3997902
000190 c2 f1 a8 bd db f6 ab be 41 2a 83 3e 1e 2c bd be
       -0.08249237 -0.33586773 0.25618175 -0.3694772
0001a0 3e 83 15 be 02 70 01 3e 2b 8a 6a be 22 06 4d bc
       -0.14600846 0.12640384 -0.2290427 -0.012513669
0001b0 de 63 6a bd d3 25 d5 be 22 ae af 3e e1 94 8c 3c
       -0.057224147 -0.4163042 0.3431254 0.017160835
0001c0 83 7f 6a be 9a b8 dd bd f1 f6 9a 3e 76 b9 0d 3e
       -0.22900204 -0.108262256 0.30266526 0.13840279
0001d0 87 cc b3 be 35 72 04 be ac db af 3e 16 3d 3d be
       -0.3511698 -0.12934192 0.34347284 -0.18480334
0001e0 49 62 62 3e 7f 49 c4 bd da 06 4c be a9 62 ac 3e
       0.22107805 -0.09584331 -0.19924489 0.33669022
0001f0 74 52 81 3e 06 80 5b be 95 6b 8c 3d 6d 54 b6 3c
       0.2525822 -0.21435556 0.06856457 0.022257054
000200 94 66 12 be 1f 94 d0 3e 6b 2c 67 3e 4c 40 23 be
       -0.14296943 0.40738007 0.22575538 -0.15942496
000210 3d ad 52 be dc 3f d5 3e 7c 39 0b be 80 7c 14 bd
       -0.20573898 0.41650283 -0.13596147 -0.036251545
000220 e8 0d 39 3e c3 36 66 3d 88 b4 97 be 73 04 3c 3c
       0.18071711 0.05620457 -0.29629922 0.01147567
000230 0a c4 ca be 0d 3f c5 3e 7b 43 0d 3e 8d cc c8 be
       -0.3960269 0.38524666 0.13795273 -0.3921856
000240 b5 99 b6 3e ca e2 e3 be 71 f9 07 3d 1f 85 b7 bd
       0.35664144 -0.44508964 0.03319687 -0.08960938
000250 38 47 15 be 24 97 73 3b 7c 9d 34 bd 07 41 52 bd
       -0.14577949 0.0037168944 -0.0440955 -0.051331546
000260 52 36 f4 3e 5e 17 aa 3e 0d fc 19 3d bc db 8f 3e
       0.47697693 0.33220953 0.03759389 0.28097332
000270 41 93 d2 bd 0f b5 33 bd bc cc ac be ff 9a 95 3e
       -0.10281993 -0.043873843 -0.3374995 0.29219815
000280 69 8a 9f be f6 22 ce 3d 8f 51 9a 3d 7b 8b dd be
       -0.31160286 0.10065262 0.07535087 -0.43270478
000290 f5 4b dd be 4e 51 2c bd dc f8 d6 bd bc 43 94 3c
       -0.43222013 -0.042069726 -0.10496685 0.018098705
0002a0 bf c4 70 3e db c9 59 3e bc ea d9 be 18 63 08 3d
       0.23512553 0.21268408 -0.425619 0.03329763
0002b0 0f 10 b5 3e 95 25 11 3e ef b1 25 3e e9 66 d5 3d
       0.35363814 0.14174493 0.16181158 0.10420019
0002c0 06 14 ee 3e 9a e6 37 be 15 1e 72 be 9e 68 f3 be
       0.46499652 -0.17959061 -0.23644288 -0.47540754
0002d0 33 a0 fb be 39 d3 b4 be 04 6e eb be 0b 96 49 be
       -0.4914566 -0.353174 -0.45982373 -0.19686143
0002e0 a2 ee 20 3d 19 8e 93 be 75 3b 55 3e 8a 57 bb 3e
       0.039290078 -0.2881935 0.20823462 0.36590225
0002f0 64 d3 91 3d 7a 68 8e bd 5e 8f d3 3e 15 a8 3a 3e
       0.07120398 -0.06953521 0.41320318 0.1822818
000300 95 77 5e 3e b5 c4 b8 be c8 ad 3a bd a7 e4 a8 3d
       0.21725304 -0.36087576 -0.045575887 0.08246737
000310 f5 d0 a0 3d 29 e5 73 be 14 ca 96 3e cc f6 98 3e
       0.078523554 -0.23817886 0.29451048 0.2987579
000320 42 79 2d 3e 66 fd dd 3d 06 49 41 bd 7a 71 8e 3e
       0.16940787 0.108393475 -0.04718878 0.2782095
000330 c8 59 bb 3d 3b 80 f4 3c 95 32 81 bd 32 77 59 be
       0.09147984 0.029846301 -0.06308476 -0.21236876
000340 7d e5 26 be bc 8e bd bc 5a 14 44 3e 64 f1 12 be
       -0.1629848 -0.02313935 0.19148389 -0.14349896
000350 32 6d 97 be 3f 6b 13 be da df 3b 3c f2 cc f2 3d
       -0.29575497 -0.1439638 0.011466945 0.118554965
000360 fe 02 0c be aa 5a 2a be cc 68 6a be fa 64 87 be
       -0.13673016 -0.16636148 -0.2289154 -0.26444227
000370 3c c6 ac 3e a3 7b ef bd 21 0f ac 3e 3c ba 3b be
       0.3374499 -0.11693504 0.33605292 -0.18332762
000380 4f d0 23 3e a9 93 48 be 53 c7 45 be 9e 69 1d 3e
       0.15997432 -0.19587578 -0.19314317 0.15372321
000390 56 eb b4 3e 80 ef e5 3d 02 6d a9 3e b0 ca 7a 3e
       0.35335797 0.112273216 0.3309098 0.24491382
0003a0 ba 5f a0 3e 5d f1 08 3e 1a 70 99 3d 71 49 9f 3e
       0.31323034 0.13373323 0.07492085 0.3111072
0003b0 94 df ab 3e 38 3b 81 be 13 00 18 be d9 0a f7 3d
       0.33569014 -0.25240493 -0.14843778 0.12062616
0003c0 f7 5e bb be f5 55 44 be 0e dd 62 be 3b 5f 62 3e
       -0.3659589 -0.19173415 -0.22154638 0.2210664
0003d0 da 02 9d 3e f2 47 09 3d fc 5f 9b 3e 4e 8e f8 3c
       0.30666238 0.033515878 0.30346668 0.030341294
0003e0 1e 20 86 be 4e 38 1e be 05 69 85 3e 67 39 aa be
       -0.26196378 -0.15451166 0.26056686 -0.3324692
0003f0 38 1d 93 be c5 07 a4 3e 38 1f 63 3e 37 18 6e be
       -0.2873323 0.32037178 0.22179878 -0.23251425

model/mobilenetv2_0.50_64/block_1_expand/Conv2D f4 [48, 1, 1, 8]
000000 e2 63 c4 3d a6 fd eb 3e 80 41 cb be 8b e2 52 be
       0.09589364 0.46091956 -0.3969841 -0.20594232
000010 18 86 ea 3e bc 15 92 3e 8d 58 0c bf d0 fd 08 be
       0.4580543 0.28532207 -0.5482262 -0.13378072
000020 e0 ed 50 3d 2a e7 ab 3e 54 8d 16 3f 0b 85 80 3d
       0.051008105 0.33574802 0.588094 0.06275376
000030 bf f6 b3 3e ee cc fc be e1 c3 fe be 25 b1 48 3e
       0.3514919 -0.493751 -0.4975882 0.19598825
000040 4f e2 51 bd 1c 2e 50 bd e4 e6 1a 3f db f3 a1 3e
       -0.051241215 -0.050825223 0.6050856 0.3163136
000050 b3 c9 fb 3d ef 31 50 3f 6a 48 a2 3d 7b 9d 67 3e
       0.122943304 0.8132619 0.07923968 0.22618668
000060 7d f3 d4 3e a5 45 0e 3e 98 20 27 3e 9b d2 fe be
       0.41592017 0.13893755 0.16321027 -0.49770054
000070 4c 84 eb 3d 9f 71 e7 be 8b 89 4b 3e b9 7c 15 bf
       0.11499843 -0.45203874 0.19876687 -0.58393437
000080 66 4c f1 3d ab 4b 6c 3e c5 29 00 bf 29 b5 11 3f
       0.1178215 0.2307574 -0.50063735 0.56917053
000090 44 7c 13 3e 5f c1 1d be ed 3a da bd 7a f6 b6 be
       0.14402872 -0.15405796 -0.106557705 -0.35734922
0000a0 b9 54 71 be ae 63 23 be 1f 8d e1 be f5 c2 dc 3e
       -0.23567475 -0.15955994 -0.4405298 0.4311749
0000b0 3f 83 35 bd ad aa 75 be ca 97 fd 3e b1 4b 7e bd
       -0.04431462 -0.23990889 0.49529868 -0.062083904
0000c0 93 32 8a be db 9a a4 3e fa 1d c1 be 88 c5 a5 3e
       -0.2699171 0.32149395 -0.37718183 0.32377267
0000d0 8d 7a 92 bd 4d 2c b1 3d 0d ac 11 bf 09 77 08 3e
       -0.07152281 0.08651028 -0.56903154 0.13326658
0000e0 41 86 22 bf 78 0c af 3c 1e f0 91 bd 39 52 1e bf
       -0.63486105 0.02136825 -0.07125877 -0.6184421
0000f0 91 08 b9 3d 99 68 17 be 82 c5 a7 3e eb 37 05 3f
       0.09034837 -0.14785995 0.32767874 0.5203845
000100 d9 5a 84 3d bd 0c 03 3f df 83 24 3e 88 53 11 bf
       0.0646264 0.5119131 0.1606593 -0.56768084
000110 a5 f9 10 3f a5 13 13 3d 18 88 7f be 85 62 8f be
       0.5663093 0.035907406 -0.2495426 -0.28004852
000120 b9 03 de 3e 45 61 c9 3d 8e 09 a8 be 2d fa 13 be
       0.43362215 0.09833006 -0.3281979 -0.14450903
000130 1e 4e 85 3e 62 2d 33 3e fc dd f5 be 5e c8 4d 3e
       0.2603616 0.17497781 -0.48020923 0.20095965
000140 d2 59 7b be ca aa 89 be 7c 92 f1 3e e7 db 81 be
       -0.24545982 -0.26888114 0.4718207 -0.25363085
000150 3b ca 6d be 1d 62 dd 3d 30 3e a8 3e 5d 71 bd be
       -0.23221676 0.10809729 0.32859945 -0.37000552
000160 8a 76 e7 bd b9 ee 58 3e 94 7d 83 3c da 2b b8 3e
       -0.113019064 0.21184815 0.016051091 0.35970956
000170 db 78 c5 3e 4b dc a0 be 0d bb b1 be ce c5 be 3e
       0.38568768 -0.3141807 -0.3471302 0.37260288
000180 f0 6c 04 3f 6b 29 8f be b5 29 3a 3e 98 f7 fa be
       0.51728725 -0.27961287 0.18179972 -0.49017024
000190 67 64 88 3d aa a0 1e bf 55 52 3f bf 50 13 51 bf
       0.06659775 -0.61963904 -0.74735004 -0.81670094
0001a0 7d 85 b1 be 79 fe 95 3e f7 1a eb 3d 8f 25 eb be
       -0.34672156 0.2929571 0.114797525 -0.45927092
0001b0 0a 4d 2f 3e 36 51 b7 be e8 87 94 be 4e a2 e3 3e
       0.17119232 -0.35804147 -0.29009938 0.44459766
0001c0 0d 35 83 be d6 8d 96 3e 7f a4 a4 be 8d ed 41 be
       -0.25626412 0.29405087 -0.3215675 -0.18938275
0001d0 16 89 00 bf 06 5e d2 be cc 25 5a be 99 8f b6 be
       -0.50209177 -0.4108736 -0.21303481 -0.3565643
0001e0 e6 ac 41 3e 65 b5 37 bd 55 d2 90 be c0 b8 f6 3e
       0.18913612 -0.044850726 -0.2828547 0.48187828
0001f0 c5 a1 96 3f 6a 0b 28 bf f0 7e 1d 3f 60 c5 cf 3d
       1.1768118 -0.65642416 0.61521816 0.10145068
000200 80 41 1b 3e f5 ac a7 be 27 db bf 3e 4d 17 e5 be
       0.15161705 -0.32749143 0.37471887 -0.4474434
000210 3c 43 e2 3e 7f e5 bf be 93 bc 64 ba 5d 1a 97 3e
       0.4419192 -0.3747978 -0.00087256095 0.295123
000220 37 8b 4b be eb 8f e1 be 1b 1d 3a be 1a 59 d5 be
       -0.19877325 -0.44055113 -0.18175165 -0.41669542
000230 40 75 b4 3e 03 5e 1b bf 43 9d 26 3f 76 5d 2a 3f
       0.35245705 -0.60690325 0.6508371 0.6654886
000240 cc 92 08 bf c8 04 9a 3e 65 38 b3 be d9 65 03 be
       -0.53348994 0.30081773 -0.35003963 -0.1283182
000250 84 fb d2 3e bf b8 71 bc 55 ac 11 3f b1 20 1f 3f
       0.41207516 -0.01475352 0.5690358 0.6215926
000260 36 73 66 3e 84 a8 a5 bd ec c7 8f 3e 64 6d 77 be
       0.22504887 -0.080887824 0.28082216 -0.24162823
000270 25 1b eb be 4a 1d 21 bf 2f 39 8c 3e 3e 5c fc 3e
       -0.45919147 -0.62935317 0.27387378 0.49289125
000280 6d bb 92 be e5 02 82 3d 77 0a 6c be 4f 2c d8 bd
       -0.2865862 0.06348208 -0.23050867 -0.10555326
000290 50 d8 1e bf 81 bb a9 bc 00 01 4c 3e 53 a1 4f 3f
       -0.62048817 -0.020719292 0.19922256 0.81105536
0002a0 e8 71 6b 3e 4f 6b de 3e ad 10 7e bd f7 8f 92 3e
       0.2299267 0.43441245 -0.062027622 0.2862546
0002b0 61 6e c7 be f2 94 d7 be 83 2f fd be 78 2f c5 be
       -0.389514 -0.42105824 -0.4945031 -0.38512778
0002c0 94 9f a0 bc f9 8e 7a 3e b8 ef b4 3e e2 80 d5 3e
       -0.019607343 0.24468602 0.3533914 0.41699892
0002d0 19 47 bb 3e 73 7c d2 3e 4f cc 15 bf 20 9f 22 bf
       0.3657768 0.41110572 -0.58514875 -0.63524055
0002e0 c2 b4 84 3d 61 e7 ef 3e 26 39 f7 be ed 53 91 be
       0.06479789 0.46856216 -0.48285788 -0.28384343
0002f0 d1 d0 57 be de 25 ac be 4d fc 5d 3e 5d 37 1c 3d
       -0.21075751 -0.3362264 0.21678276 0.038138736
000300 8c 8f 13 3f f1 d9 cc 3e 47 6a fa be 0a b6 92 3e
       0.5764091 0.40010026 -0.48909208 0.2865451
000310 2e 5e 3a 3f 7c cf ed be f1 1f ca 3e b5 ef 39 bf
       0.72799957 -0.4644736 0.39477494 -0.7263139
000320 41 05 be be bc 03 a6 be 67 01 08 bf 88 f0 14 bf
       -0.37113383 -0.32424724 -0.5312714 -0.5817952
000330 57 3c b2 3e 7f 01 d1 be e8 4b a0 be cf 9e d9 be
       0.3481166 -0.40821454 -0.31307912 -0.42503974
000340 fc e3 fc 3c ca 6a e7 3e af 5e 92 be 59 8a 0b 3f
       0.03087043 0.4519866 -0.28587863 0.54507977
000350 28 d2 a7 3e 50 f6 e6 be 8d 14 d3 3e 3e df da 3d
       0.32777524 -0.45109797 0.41226617 0.10687111
000360 aa 1b 94 3e 1c df a1 3e db 2d c9 bc 41 44 bb be
       0.28927356 0.3161553 -0.024557998 -0.3657551
000370 71 e9 db bd 35 dc 4e be 15 bc 04 3e 1b db 30 3f
       -0.10737885 -0.2020119 0.12962373 0.6908433
000380 c8 21 47 3d 37 a2 54 3e 44 a7 ba bd 22 d6 10 bf
       0.0486162 0.20765005 -0.09113935 -0.5657674
000390 f8 7e cd be 8e 52 35 bf b4 f4 34 bf 60 9e 0d 3e
       -0.40135932 -0.70829093 -0.7068589 0.13829947
0003a0 91 06 cf 3e fd 35 0b bf 1f 95 15 bf 72 1a ff bd
       0.40434697 -0.54379255 -0.58430666 -0.12456216
0003b0 da 82 36 3e 94 3a 8d be 65 f4 4a 3e a5 a8 26 3f
       0.17823353 -0.27583754 0.19819792 0.6510108
0003c0 6c 39 b3 be 4d c5 5d 3f 67 94 51 bd cb ba ae 3c
       -0.35004747 0.8662918 -0.051166918 0.021329304
0003d0 35 03 a9 be 61 d9 40 3f 9b 83 59 bf 75 7c 58 3e
       -0.3301026 0.75331694 -0.8496644 0.21141227
0003e0 c7 09 8b 3e 10 f3 db bc 3f aa de 3e 1c 6e 03 bd
       0.27155897 -0.0268493 0.43489262 -0.03208743
0003f0 28 54 23 3f ba 83 02 be c3 86 48 3d da b2 33 bf
       0.6380029 -0.12745562 0.048956644 -0.7019478

model/mobilenetv2_0.50_64/expanded_conv_project/Conv2D f4 [8, 1, 1, 16]
000000 0f 5d 9c be 32 a2 d0 3e df 7c ea 3e 73 c2 29 bf
       -0.30539748 0.40748745 0.45798394 -0.6631233
000010 61 6d 5f bf 70 5c 74 3d bc fc d0 3e 7a c2 4b 3f
       -0.87276274 0.059658468 0.4081782 0.7959362
000020 9a 1b 3e 3f e3 c3 46 3f 7c 35 3d 3f b8 c3 89 be
       0.74260867 0.7764265 0.73909736 -0.26907134
000030 de 19 10 3e 49 ee 04 bf 80 0f 32 bf 78 54 12 bf
       0.14072368 -0.51926094 -0.695549 -0.5716014
000040 6b cb c9 3e 6f 26 87 bc 9e f9 24 bf e6 20 2a bf
       0.39413008 -0.016497819 -0.64443386 -0.6645645
000050 2a 53 f5 be 5b 26 61 3e d6 e8 40 bf 2c 6f 8e 3d
       -0.47915012 0.21987288 -0.7535528 0.06954798
000060 5b 7d 0e bf 7e 3f 45 bf 92 69 12 bc 30 11 25 3f
       -0.5566003 -0.77050006 -0.008936303 0.6447935
000070 48 8d b4 3e a0 fb b6 3e cd 20 fc be 27 74 83 3e
       0.3526404 0.3573885 -0.49243775 0.25674555
000080 d7 26 5f 3e 57 6b d5 3e b6 03 42 3f 44 8e 50 bf
       0.2179216 0.41683456 0.7578691 -0.8146708
000090 04 f6 55 bf 68 1d 5d be fb cf 1f 3f 00 69 f0 be
       -0.83578515 -0.21593249 0.6242673 -0.4695511
0000a0 13 a8 74 3e 66 47 fb 3e 32 2a 29 bf 4d 96 02 be
       0.2389224 0.4907791 -0.6608001 -0.12752648
0000b0 3c 51 26 3f 85 21 67 3f fe 2f b7 bd bf 98 0e 3e
       0.64967704 0.9028552 -0.08944701 0.13925456
0000c0 51 e0 f0 3e c1 39 66 3e 87 4c f4 be 4f 1c 29 bd
       0.4704614 0.22482969 -0.47714636 -0.041286763
0000d0 15 4a de 3e 6e 92 e8 3b 86 96 bb bd 86 bf dd 3e
       0.43415895 0.007097534 -0.091595694 0.43310183
0000e0 51 c7 d0 bd 56 fd b6 3e 95 f8 32 3e c0 76 e8 3e
       -0.101942666 0.35740155 0.17477639 0.454031
0000f0 b6 55 81 bc d0 e7 d1 3e 8a 04 8a be ad 9a c5 3e
       -0.01578794 0.4099717 -0.26956588 0.3859457
000100 23 a9 04 bf de 0a 8f 3d 10 82 0d 3f 10 c2 8c 3e
       -0.5182058 0.069844946 0.55276585 0.27491808
000110 35 48 f9 3e d6 bd f6 be ed 9d 2f be f4 c4 6a bd
       0.48687902 -0.48191708 -0.17150088 -0.057316735
000120 6b 49 9a 3e 1f ec b4 be 55 cd f9 bc 91 85 67 be
       0.30134138 -0.35336396 -0.030493418 -0.22609545
000130 b8 61 f8 3e 61 c0 c5 3e 7c 26 48 be f4 81 04 3f
       0.48512053 0.38623336 -0.1954593 0.5176079
000140 5b 98 7b bf e6 0d d2 3e dc 56 1c 3f 51 22 1a 3f
       -0.9827935 0.4102623 0.61070037 0.6020861
000150 ad 78 4a be f5 01 a4 be 98 ff 34 3f 2a c6 22 bf
       -0.19772597 -0.32032743 0.70702505 -0.63583624
000160 e9 70 52 3f dc 50 73 bf 77 f1 d4 3e b4 ef b0 3e
       0.8220354 -0.95045257 0.41590473 0.3455788
000170 aa 50 a1 bf b3 f4 41 be 98 2b 2a bf a4 e3 8a 3e
       -1.2602742 -0.18941002 -0.6647277 0.271268
000180 2b 8a bc 3e 75 c6 95 bc d3 4e f0 bd 55 34 18 bf
       0.36824164 -0.018283108 -0.117337845 -0.5945485
000190 49 4f b7 be 66 68 c3 3d ca 0c 48 be f5 5e 6e 3e
       -0.35802677 0.09541397 -0.19536129 0.2327841
0001a0 1d 06 9e be 80 48 0d 3f 77 ca 04 bf 25 fa 08 3f
       -0.3086404 0.5518875 -0.51871437 0.5350669
0001b0 38 20 17 bf 79 cf 01 3f 15 65 04 3f dd b0 eb be
       -0.59033537 0.50707203 0.5171674 -0.46033373
0001c0 c8 e6 57 bd 46 9a 80 be 9a 6a a1 be c4 5d 39 3f
       -0.052710325 -0.251177 -0.31526643 0.724087
0001d0 28 0d 17 3f 0c 43 bf 3c 28 de 1c 3c 7b f5 c2 be
       0.5900445 0.0233474 0.009574451 -0.38077912
0001e0 ef 9a 23 3f b5 5b f2 be a1 1c d3 3e 15 ca 52 3e
       0.63908285 -0.47335592 0.4123278 0.205849
0001f0 47 c6 34 3f b6 7e 9f 3e 5a 00 90 3e da 55 10 bf
       0.7061505 0.3115136 0.28125268 -0.56381

model/mobilenetv2_0.50_64/Conv1/Conv2D f4 [16, 3, 3, 3]
000000 60 e6 a3 bc cf 09 2a 3c 10 61 35 bc 4a 15 9b 3c
       -0.020007312 0.010378315 -0.011070505 0.01893105
000010 72 f1 e9 3b 93 4a bc bc 4d 98 12 bc 9b 18 0f bc
       0.007139378 -0.022984779 -0.008947444 -0.008733894
000020 1d 1e 9c b9 59 99 32 bc 1a fc a0 3c 83 cf 5a 3a
       -0.00029777075 -0.010900819 0.019651461 0.00083469617
000030 2a df 89 3b e3 73 85 bc e5 25 53 bc 55 a6 ff 3b
       0.0042075114 -0.01629061 -0.012887453 0.0078018107
000040 8d 9a 23 3c 6c e0 c8 3b 2e e1 95 bc 42 63 23 bc
       0.009985578 0.006130269 -0.01829585 -0.009972395
000050 72 1a 78 bb 5a 97 45 bc 38 34 c3 bc cb 11 8a bc
       -0.003785756 -0.012060011 -0.02382861 -0.016854187
000060 04 c1 7f 3c f3 88 6e bb 35 5d 81 bc ba 4c d1 3b
       0.015609983 -0.0036397546 -0.015791515 0.0063873203
000070 8e 1d 7b 3c a2 ad 3e bc 61 22 99 3c bb 26 0a 3c
       0.015326871 -0.011638077 0.018693151 0.008432086
000080 6d 2f 68 3c 69 dc 0c bc 9e b9 c9 3b 27 d5 85 3c
       0.014171463 -0.008597472 0.0061561605 0.01633699
000090 64 0a 8f 3c c6 5c 51 3c bf 80 8a bc 4a bd 89 3c
       0.01746101 0.012778467 -0.016907094 0.016813893
0000a0 15 3f f9 3b 59 71 20 bc f9 8f 32 3c 38 01 b9 bb
       0.007606397 -0.009792649 0.010898584 -0.0056458972
0000b0 91 79 5c bb 95 73 20 3b b3 7c 4f 3c e8 21 40 3c
       -0.0033641795 0.0024482955 0.012664008 0.011726834
0000c0 d2 3f 14 bc 23 6e 20 3c 30 95 1e bb ee 77 88 bc
       -0.009048419 0.009791884 -0.002419781 -0.01665875
0000d0 12 18 3e 3c a9 a7 5e 3c b0 5c 4f bc 9e 8a 8c 3b
       0.0116024185 0.013589778 -0.012656376 0.0042889854
0000e0 78 3c 25 3a 25 9b c6 3a c1 98 d4 bc dd 8a a1 bb
       0.0006303261 0.0015152438 -0.025951745 -0.004929884
0000f0 a2 be de 3c d2 ec 5d 3c a2 c2 99 3c be 07 92 3c
       0.02719051 0.013545232 0.018769566 0.017825957
000100 60 d1 b8 3c 36 7b 85 bb 51 4d 1f 3c 1f ea 6f 3c
       0.022560775 -0.004073526 0.0097230235 0.014643221
000110 b0 73 6e bb 17 a9 03 3c 4f f7 2e bc 4f d8 bb 3b
       -0.0036384873 0.00803592 -0.01067908 0.005732573
000120 89 08 7e 3c a4 f0 cd 3c da fb aa bc 16 77 73 ba
       0.015504965 0.02513916 -0.020872045 -0.00092874595
000130 d7 d8 de bc b3 0b 4b 3c 5f 35 84 3c 40 c7 5a 3c
       -0.027203007 0.012392926 0.01613873 0.013353169
000140 71 1b 2d 3c b6 99 02 3c 97 35 61 3c fb 15 7e bc
       0.010565625 0.007971218 0.013745687 -0.01550817
000150 d0 9e 8c bc ca 76 25 3c e9 13 81 bc af 54 be 3b
       -0.017165571 0.010099122 -0.015756564 0.005808435
000160 ff ec c3 bb 66 33 be bc a8 21 81 bc da f3 d9 ba
       -0.00597918 -0.023217868 -0.015763119 -0.001662846
000170 3b b7 38 bc 13 34 db bb 37 95 f8 bb 7d 9b ea bb
       -0.011274154 -0.0066895573 -0.007586147 -0.007159649
000180 8e a5 b1 3b 9d aa 12 bc 4c a4 55 bc ca 9a 5a bc
       0.005421347 -0.00895181 -0.01303966 -0.013342569
000190 98 bb b0 bc 3d db 94 3c f2 83 13 bc 60 59 8c bb
       -0.021573827 0.018170947 -0.009003626 -0.0042831153
0001a0 40 07 c5 ba ff ad ed 3b e9 20 c8 3c 20 6e c5 bc
       -0.0015032068 0.007253408 0.024429755 -0.024100363
0001b0 6d 86 a3 bb 62 14 ef 3c 85 22 0f 3d 3e 91 2d 3d
       -0.00499039 0.029184524 0.03494503 0.042374842
0001c0 61 05 bb 3b 33 cd 91 3c 94 5d 49 bd bf a0 b5 bc
       0.0057074283 0.017798042 -0.04916151 -0.022171376
0001d0 4a 03 09 3c 1e f5 3b bd 1a 09 0b bd 70 09 22 3d
       0.008362601 -0.04588806 -0.033944227 0.03955978
0001e0 12 04 ed bc 67 fc f7 bc 5c ad 0b bd 2c ff eb 3c
       -0.028932605 -0.030271722 -0.034100875 0.028808199
0001f0 41 10 36 bd e0 9d 4f bd ab e5 9d 3c 76 46 2c 3b
       -0.044449095 -0.05068767 0.019274553 0.0026287115
000200 95 be 51 bd c6 15 a9 bb 39 9d 8f 3c 66 f7 a7 3c
       -0.051207144 -0.0051600663 0.017531024 0.020503711
000210 7f 9f 23 3d 95 ea 26 bd 39 0b 0f 3d c5 96 03 bd
       0.03994703 -0.04075106 0.034922812 -0.032126207
000220 c1 9b 2b bd 3c 40 58 3a c6 a5 55 3d bc 41 3b 3d
       -0.041896585 0.0008249318 0.052160047 0.045716986
000230 c6 83 89 bd 96 a4 b4 bc b1 71 40 bd ce bb 36 bd
       -0.06714587 -0.022051137 -0.046983425 -0.0446127
000240 fd af 29 bb 2b 8d 8b b9 91 40 af bd 72 1a 86 3d
       -0.002589225 -0.00026617324 -0.08557237 0.06548013
000250 8f 43 a1 bd 4d 7a d0 bc 09 b6 ab 3d 3b a1 9c bd
       -0.07874214 -0.025448943 0.0838433 -0.0764794
000260 91 67 95 3d e4 59 9e 3b ac 57 0c 3d 1d 17 e6 3c
       0.07295144 0.004832493 0.034263298 0.028087193
000270 46 44 58 bd 79 17 85 3d c2 91 22 3d e3 66 f8 3c
       -0.052799486 0.06498618 0.039689787 0.030322498
000280 e3 5c 30 3b 46 32 99 3c f8 ce c4 3c 42 bd bd 3b
       0.0026910834 0.01870073 0.024024472 0.0057903836
000290 a7 17 e6 bc 3f aa 0d 3d 29 14 1b 3c ff 65 fb bc
       -0.02808745 0.034586187 0.009465256 -0.030688284
0002a0 94 f6 d3 bc e4 94 0e bd c8 c1 bc bc 76 2e d3 3c
       -0.025874414 -0.034809962 -0.02304162 0.02577899
0002b0 b3 34 5e 3c dc 23 f7 bc d3 34 d0 bc 5c ea db 3c
       0.013562369 -0.030168466 -0.025415814 0.02684515
0002c0 26 06 8b bc bd ca 00 bd ec e1 c2 bb 6a 2b b0 bc
       -0.016970705 -0.031443346 -0.005947342 -0.021505076
0002d0 41 c6 d4 3c 07 02 73 bc 51 5a 41 bc 02 ad 03 bc
       0.025973441 -0.014832026 -0.011801318 -0.008036854
0002e0 64 ba be 3c 9e 3a 1d 3b b0 9b e2 3c ab 11 57 3b
       0.023282237 0.0023991237 0.027662128 0.0032816927
0002f0 bf fc c1 bc 32 4e 96 3b 25 17 07 bc 9a 37 aa bc
       -0.023680089 0.0045869583 -0.008245264 -0.020778466
000300 88 26 6e 3c a2 36 94 bc fb 10 6e bc f2 c9 b8 bc
       0.014535554 -0.018092457 -0.014530416 -0.022557233
000310 0e fd 37 bb 5b 9a b3 3c 4f 59 d3 bc e8 00 ac bc
       -0.0028074416 0.021924188 -0.025799422 -0.020996526
000320 c0 0d 3a 3b 5a 34 a4 bc 91 c4 39 3b c3 51 39 bc
       0.0028389543 -0.020044494 0.0028345922 -0.011310997
000330 f9 52 9f bc cb 07 25 bc 0a 30 a0 bc 6e b6 01 bc
       -0.019448744 -0.010072659 -0.019554157 -0.00791703
000340 e9 cd b1 3c d0 97 b5 3c cc 74 d6 3b c1 48 92 3b
       0.02170463 0.022167116 0.006544685 0.0044642393
000350 d9 b9 c7 3c 78 0d 80 bc 0f 52 9f bb 1a 44 c4 bb
       0.024380611 -0.015631422 -0.004862077 -0.0059895637
000360 76 b9 8a 3d 54 a2 96 bb af 93 9b bd 27 67 6a bd
       0.06773655 -0.0045969877 -0.07596528 -0.05722728
000370 a1 ea d9 bc d4 6d 1e 3d 55 88 92 3d 70 88 24 bd
       -0.026601138 0.03867896 0.071549095 -0.04016918
000380 fb 39 96 bd cb 4a a5 3c cb ea 9e 3d 4b 26 d1 bc
       -0.07335278 0.020177266 0.07759627 -0.025530955
000390 4d 07 30 bd a3 f1 00 ba 4c b7 84 3d 51 74 00 bc
       -0.042975713 -0.0004918819 0.064802736 -0.007840232
0003a0 97 2c 78 3c db 25 51 3d ce 95 9f bd 80 11 f0 3c
       0.01514735 0.051061492 -0.07792245 0.02930522
0003b0 ed b1 b4 3d 15 52 dd 3c d5 38 0f 3d cb 6a 78 39
       0.08822999 0.027016679 0.03496631 0.00023690907
0003c0 19 b9 a9 bd 24 61 63 bc a2 38 89 bd 9c de 00 3c
       -0.08287258 -0.013878141 -0.06700255 0.007865574
0003d0 ca 20 5e 3c 7d 5f b9 bb 0b ad 5d 3c 5a b7 cb 3c
       0.013557622 -0.005657135 0.013530026 0.024867702
0003e0 ef c6 3d 3c 60 87 63 3c 7a ce e9 3a f1 e0 97 bc
       0.011583074 0.013887256 0.0017838024 -0.018539878
0003f0 51 a0 ac 3c 38 9e 96 3c 5a 2c 0f bc a9 40 8b 3b
       0.021072539 0.018385991 -0.008738602 0.0042496515

model/mobilenetv2_0.50_64/block_16_project_BN/FusedBatchNormV3 f4 [160]
000000 b7 b2 91 bf 0b 1f d7 3e 72 6c 52 bf 0f f3 e7 3d
       -1.1382664 0.4201587 -0.82196724 0.113256566
000010 7d d9 89 3e 1f 55 2f 3f 30 f2 6d bf 97 38 ed be
       0.26923743 0.6848926 -0.92947674 -0.46332237
000020 d3 e0 2a bf 15 f8 34 3f 0d c1 0b be 48 74 89 3e
       -0.66749305 0.70691043 -0.13647862 0.26846528
000030 23 0c 91 bd da 2e e7 3e 1f 19 45 be 96 5b db be
       -0.07082393 0.45152932 -0.19247864 -0.42843312
000040 ff 77 f4 bd b3 a9 0e bf e8 4d 0a 3e a1 be 78 bf
       -0.1193695 -0.5572769 0.13506281 -0.97165877
000050 b3 1b 37 bf 43 d6 e1 3c 47 d0 62 3e 5c 00 65 be
       -0.7152664 0.027567988 0.22149764 -0.22363418
000060 56 5d da 3e ec b2 ae bd be fa 82 bf 83 20 ea 3e
       0.42649335 -0.085302204 -1.023277 0.4572793
000070 fa ff 21 3f 4c c5 8d 3e a2 bb ad bd 4d 64 2c 3e
       0.63281214 0.27689588 -0.08483054 0.16835137
000080 ad cd 31 3e a4 cc 40 bf 54 9f 43 be e9 f3 6b 3f
       0.17363615 -0.75312257 -0.19103748 0.9216905
000090 2b b7 7c 3e ac b8 08 bd e9 04 4d bf 02 12 fb 3e
       0.24679248 -0.03337924 -0.8008562 0.49037176
0000a0 98 49 56 be 8b 92 c1 3e d4 f0 bf be 87 30 59 bf
       -0.20926511 0.37807116 -0.37488425 -0.8483967
0000b0 c3 95 94 bc ba 95 90 bf 56 c5 f2 3d 4c 9b 96 3b
       -0.018137818 -1.1295693 0.11854045 0.0045961495
0000c0 b9 68 84 be d2 3d 22 3e 2b ba 96 3e e6 20 a5 be
       -0.25861147 0.15843895 0.2943891 -0.32251662
0000d0 d5 00 c5 bd 98 ed a0 bf 59 ad 90 3e e4 28 f3 be
       -0.09619299 -1.2572508 0.28257254 -0.47492135
0000e0 60 a5 c7 3e ca 43 0a 3f 83 7d 64 be d4 f7 83 3e
       0.3899336 0.5400969 -0.22313504 0.25775015
0000f0 cf b4 8d be a8 e5 8c 3e c7 13 02 3f fa bd 5d 3e
       -0.27677009 0.27518964 0.5081143 0.21654502
000100 64 ce 29 bd 0b 86 ef bd 5f 10 ae be 46 33 05 3e
       -0.041456595 -0.116954885 -0.33996865 0.1300784
000110 ed ab bc be 68 75 ce 3e 6c 97 31 be 5a b3 a2 be
       -0.3684992 0.4032395 -0.17342919 -0.3177746
000120 b4 9e df bd 3f 1e 0b 3f 1c e3 31 3e 1d ac a5 3e
       -0.10918942 0.54343027 0.17371792 0.32357875
000130 35 8b c0 3e de 98 b8 3e 52 ec 26 bd 4c 14 ee be
       0.37606207 0.36054128 -0.040752716 -0.4649986
000140 a8 28 07 3e 7c 29 86 bf ce 6e 3e be ff 04 fb be
       0.13199103 -1.048141 -0.18596956 -0.4902725
000150 87 5d 45 3f 74 44 47 3d 1e 65 34 bf 2c d9 e9 bd
       0.77095836 0.048649266 -0.7046679 -0.114183754
000160 a6 65 fb be d5 93 9f be 0d e2 20 3f ef ae 0f be
       -0.4910099 -0.31167474 0.62844926 -0.14031576
000170 19 ef f4 3e 4a bb ae be 45 71 dd 3c 0c 0d c4 be
       0.47838667 -0.34127265 0.02703155 -0.38291204
000180 30 0a 22 bf 1c 28 6f bf a2 7f 5c 3d 24 4c 2f be
       -0.63296795 -0.9342058 0.053832658 -0.17118889
000190 a9 c9 0e bf 80 6a 23 3d 1f 72 0c bf 15 cf 2e 3e
       -0.5577646 0.03989649 -0.54861635 0.17071183
0001a0 ff ba 9b 3f c0 59 ac be d8 fe 32 bf b2 19 8a 3f
       1.2166442 -0.33662224 -0.6992011 1.0789092
0001b0 7a 15 84 3d b4 11 95 3d 3e 02 d7 bd f0 d7 24 3e
       0.06449409 0.07278767 -0.104984745 0.16097999
0001c0 e6 ba fd 3e aa 14 d1 bd ba 60 83 3e aa 13 07 bf
       0.49556655 -0.102090195 0.25659734 -0.5276438
0001d0 ed 20 c9 be 9e 9e 14 bf d5 f3 70 3f 21 c7 d9 be
       -0.39282933 -0.5805453 0.9412206 -0.42534736
0001e0 76 65 08 3f fd e2 de be 13 31 15 3f da 64 43 bf
       0.5327982 -0.43532553 0.58278006 -0.7632576
0001f0 cb 70 ab 3f ee 23 6e 3f 5f b7 56 be 41 ba 44 3e
       1.3393797 0.93023574 -0.20968388 0.19211675
000200 e2 1c 40 bf 49 fe 80 bf d4 c5 67 3e 90 74 af bf
       -0.7504407 -1.0077602 0.22634059 -1.3707447
000210 bd 1e 9e 3d 95 25 a9 be e4 3f 79 be df 6f a0 be
       0.077207066 -0.33036485 -0.24340779 -0.3133535
000220 77 53 52 3f af 70 28 3e 27 e3 e7 be 71 75 ba 3d
       0.8215861 0.16449235 -0.4529049 0.091044314
000230 b1 3f 17 3f 35 78 2f bf 00 43 b4 3e 08 78 2b bf
       0.5908156 -0.68542796 0.35207367 -0.6698003
000240 26 3d 2f bf e2 1b 0b bf db 17 64 bf f4 66 ba be
       -0.6845268 -0.5433942 -0.890989 -0.36406672
000250 d2 f9 aa 3f 70 a7 87 3e 40 33 18 be ec 08 ce bd
       1.3357489 0.26494932 -0.148633 -0.100602955
000260 37 6c 08 be bb 90 bc bd 21 16 e9 be 90 69 23 bf
       -0.1332253 -0.09207293 -0.45524696 -0.6383295
000270 68 cb 91 3d 69 e1 69 bf 0e 89 37 bf 3b a0 0a 3d
       0.07118875 -0.91359574 -0.71693504 0.033844214

model/mobilenetv2_0.50_64/block_15_project_BN/FusedBatchNormV3 f4 [80]
000000 f0 9d da be 19 12 72 bf 85 74 a5 bd 37 6d b1 3f
       -0.42698622 -0.94558865 -0.08078865 1.3861455
000010 07 07 5b be 7c 99 5d 3e 68 2a 8d 3f db 4e 9f 3e
       -0.213894 0.21640581 1.1028566 0.3111485
000020 f6 c4 d7 be f3 18 06 bf 89 34 32 bf 16 c4 e3 be
       -0.42142457 -0.5238182 -0.6961141 -0.4448554
000030 bb 87 ca be f7 0f 2b 3f fb bc 86 3c bc a5 39 bf
       -0.3955668 0.66821235 0.016447535 -0.72518516
000040 15 8e 0b bf b1 dd b0 bd 06 03 2b be 49 c0 75 3e
       -0.54513675 -0.08636034 -0.16700372 0.23999132
000050 06 3f 8d 3c f6 26 44 3f fb 1b ed be 3e 56 0a bf
       0.017241966 0.7662195 -0.4631041 -0.54037845
000060 00 c4 5a 3e 3e eb a4 be 8a de c9 be 3d 00 75 3f
       0.2136383 -0.32210726 -0.39427596 0.9570349
000070 e7 2e 82 3e fe b7 12 bf 20 be 40 3c fa d1 9c bd
       0.2542641 -0.57312 0.011764079 -0.07657237
000080 fc 83 f7 3e 59 55 ce be e0 7e 02 bf bf 63 22 bf
       0.48342884 -0.4029949 -0.50974846 -0.6343345
000090 d0 ab 89 bd 12 27 5a 3f f0 c0 24 3e ec e6 33 3e
       -0.06722224 0.85215867 0.16089225 0.17568558
0000a0 a2 ff 20 bf 90 9a 2a 3c d0 c9 d1 3e e9 82 d4 3e
       -0.62890065 0.010412827 0.40974283 0.41506127
0000b0 15 1f a8 be 34 40 ed bd 08 f4 b2 3d 69 9e 88 3c
       -0.32836214 -0.115845114 0.087379515 0.016677098
0000c0 c0 98 a1 3e af 18 3e bf 26 d3 8f 3e 20 50 2e 3e
       0.31561852 -0.74256414 0.2809078 0.17022753
0000d0 9c bd df 3f 0c f9 a0 bd 47 d2 33 3f 90 5c d7 3e
       1.7479739 -0.07860002 0.7024273 0.42062807
0000e0 d9 4e 7a bf d6 fa 48 be 01 01 0b bf f6 99 df 3e
       -0.9777656 -0.19626936 -0.54298407 0.4367215
0000f0 4e 93 fc 3e b8 ea 6e be 98 10 05 3e 0a cc 9e be
       0.49331135 -0.23331726 0.12994611 -0.31015044
000100 4b c4 a9 bf 56 93 dc be 43 18 1d 3e 4f c8 c9 be
       -1.3263029 -0.43081158 0.15341286 -0.39410636
000110 dc 44 a6 bd d1 d0 41 3f 87 10 8b be 86 c4 c3 3e
       -0.08118603 0.75709254 -0.27161047 0.38235873
000120 b1 c4 30 bf b8 e0 d0 be ac c5 55 bd 19 49 51 be
       -0.6905013 -0.40796447 -0.052190468 -0.20438041
000130 5b 5e ae 3e 55 2f 2f be eb 5d 4a bf 4b 74 39 3f
       0.34056363 -0.171079 -0.7904956 0.72443074

model/mobilenetv2_0.50_64/block_14_project_BN/FusedBatchNormV3 f4 [80]
000000 45 6e fe 3e 4b da fb be 17 af 3c 3d f0 98 bf 3e
       0.49693504 -0.49189982 0.046065416 0.3742137
000010 69 e0 ba bd 60 e8 d6 ba b3 4b d1 3d fd e5 c1 3f
       -0.09124834 -0.0016396157 0.102195166 1.5148312
000020 0e 8e 2c bf 5e 0d 97 3e 3d c5 a4 bc ea 87 46 be
       -0.6740426 0.29502386 -0.020113582 -0.19387785
000030 19 6c 04 bf 38 24 62 3c fe 50 aa 3f 5f 5c 09 3d
       -0.51727444 0.013802581 1.3305967 0.033535358
000040 99 32 94 bf e4 c0 db be 3d 26 99 be 83 9f 8b bf
       -1.1577941 -0.429206 -0.29911986 -1.0908054
000050 17 ab c0 be 1d 80 ad 3b 96 f0 10 3c 26 7a 35 3e
       -0.3763053 0.0052948133 0.008846423 0.17722377
000060 f5 4f 5a bd 1d de 17 be 66 cf 85 3e 29 a0 56 bf
       -0.05329891 -0.14830823 0.26134795 -0.83838135
000070 8e c7 0d be 29 b0 35 bf 4e d8 35 bf 5b 80 b3 be
       -0.13845655 -0.70971924 -0.7103318 -0.35058865
000080 c5 8c 16 3e 62 38 ae be 9f 3d a6 be 85 72 17 3f
       0.14702137 -0.34027392 -0.32468888 0.5915912
000090 3a 69 19 3f 84 c8 f0 3e 91 ee 6c 3f 49 0a 8f be
       0.5992619 0.4702798 0.92551523 -0.27937534
0000a0 9b e8 ea 3e e5 85 e4 3e 7a 61 d3 3e 2b a3 1e 3e
       0.4588059 0.44633403 0.41285306 0.15491931
0000b0 f6 3b 70 3f cf 85 2a be d9 bf 43 bf ff 7a 1f bd
       0.93841493 -0.16652606 -0.7646461 -0.038935658
0000c0 ab e3 ec be 29 3c c0 3e 33 e9 b5 be d8 bc 2e 3f
       -0.46267447 0.375459 -0.3552948 0.682569
0000d0 14 ec 11 bf 75 18 09 bf df 60 2e 3f 88 5d 1d 3e
       -0.5700085 -0.53552943 0.68116564 0.1536771
0000e0 e2 9c 82 bf 79 da 90 be 8f d0 73 bf 95 f2 4e bf
       -1.0204127 -0.2829168 -0.9524011 -0.808389
0000f0 02 14 21 be c4 d3 15 3e 71 e5 fb be 90 b9 11 3f
       -0.15730289 0.14631563 -0.49198487 0.5692377
000100 28 b3 3b 3e f2 9e 6a bf 9b 8d 09 be 5a 8d 91 bf
       0.18330061 -0.9164878 -0.13432924 -1.1371262
000110 6b 73 4c bd 92 f5 44 3f 16 3f 17 3f 9d e1 d9 3e
       -0.04991476 0.7693721 0.59080637 0.42554942
000120 cd 6f 57 be 10 35 de 3f f0 3e 8b 3e d1 23 40 3e
       -0.21038742 1.7359943 0.27196455 0.18763663
000130 ef 65 4f 3e 32 a1 c9 be 20 be cf bf da ff 14 bf
       0.20253728 -0.39380795 -1.6229897 -0.582029

model/mobilenetv2_0.50_64/block_13_project_BN/FusedBatchNormV3 f4 [80]
000000 16 42 e4 be 00 43 a6 be 83 b1 65 bf 79 c0 1f bf
       -0.4458167 -0.32472992 -0.89723986 -0.62403065
000010 ae 6b c0 3c 80 98 4f 3e 7a 7c 12 bf 98 19 0f bd
       0.023488846 0.20273018 -0.57221186 -0.034936517
000020 7e 5a 7a be 10 e4 60 bf 97 84 88 3e 43 b6 5f be
       -0.24448583 -0.87847996 0.26663658 -0.21846871
000030 1a c9 42 be 02 4a 27 bf 00 48 76 be b4 d6 d6 3e
       -0.19022027 -0.653473 -0.24050903 0.4196068
000040 1e 8c c7 be 02 49 26 3f 5c 35 b0 be 0a 55 94 bd
       -0.38974088 0.6495515 -0.3441571 -0.072427824
000050 5d ff 8d 3f bc 50 9d bf 8b 85 e6 be 2c 14 24 3e
       1.1093556 -1.2290263 -0.4502376 0.1602332
000060 f0 97 30 3e d0 78 4b be 71 f8 2a 3f 1d b0 08 be
       0.1724546 -0.19870305 0.6678534 -0.13348432
000070 a5 9b 06 bf cf 7a 93 be ba 34 17 bf 70 6e 38 3f
       -0.52581245 -0.28804633 -0.5906483 0.72043514
000080 44 44 cb 3e 22 f1 b1 3e ad ce 00 3f 25 62 82 3d
       0.3970052 0.34754282 0.5031536 0.06366376
000090 ab d9 19 3e 37 5e 5e bf 2e 62 a1 3f 11 77 b8 be
       0.1502444 -0.8686251 1.2608087 -0.3602834
0000a0 26 2a 8f bf ae 8b 14 3f 44 a6 9b 3f 2f 39 96 bf
       -1.1184738 0.58025634 1.2160115 -1.1736201
0000b0 bf a6 8b bd 3e 06 ca bc e0 23 cf be 0c fb 0e 3f
       -0.06818914 -0.02466118 -0.40457058 0.5585182
0000c0 76 8a 32 3e d2 43 1f 3d aa cb ec 3e 97 fe 05 bf
       0.17435631 0.038883038 0.46249133 -0.523416
0000d0 b2 9d f3 3e a0 c6 0c 3f 6f 0a d6 bc 5a df ae 3f
       0.4758125 0.5499058 -0.026128022 1.3661911
0000e0 0a 27 24 3f bd ae 0f bf 8f 22 f0 3e 5e 89 44 be
       0.6412207 -0.56126004 0.46901366 -0.19193026
0000f0 7a 61 ed 3e cc 6f 4f bf 53 18 1e be a6 7b a0 3d
       0.4636343 -0.81029963 -0.15438966 0.07836084
000100 91 7a b4 be df 18 3f bf b8 5f 1b 3f 2a b9 ad bd
       -0.3524976 -0.74647325 0.6069293 -0.08482583
000110 7c a8 a7 3e b1 30 b3 3f 06 9e b8 be 3b 8f 1f 3f
       0.3274573 1.3999234 -0.36058062 0.6232793
000120 b5 e8 db be 23 32 51 bf 22 39 74 be b0 45 ad 3e
       -0.4295098 -0.8171713 -0.2384992 0.3384223
000130 69 ef f9 3e f6 6f fa 3d 9d a3 56 3e 33 7e 53 be
       0.48815468 0.12228386 0.20960851 -0.2065361

model/mobilenetv2_0.50_64/block_12_project_BN/FusedBatchNormV3 f4 [48]
000000 09 33 e0 3e 8f a9 ad bd 66 7b a8 3d f0 53 a8 3d
       0.43788937 -0.08479606 0.082266614 0.08219135
000010 01 f8 f2 be b8 78 d3 be 21 55 3e be 54 83 10 3f
       -0.47454837 -0.4130304 -0.18587162 0.5645039
000020 f7 ec 56 3f 99 90 3d be 92 4f f5 3e 19 a7 21 bf
       0.8395533 -0.18512191 0.4791227 -0.63145596
000030 67 d1 41 be 1f d2 bc be b7 18 04 3e 2b 22 8b 3f
       -0.18927537 -0.3687906 0.12900053 1.0869802
000040 e6 65 2c be 98 b2 00 bf 0e 19 14 bf 12 47 8c be
       -0.16835746 -0.5027251 -0.5785073 -0.27397972
000050 02 a7 88 bf 15 67 a3 3e e1 32 a5 3f e2 9d 6a bc
       -1.0675967 0.31914583 1.2906152 -0.014319869
000060 c0 49 64 3d 6c 59 d3 bd 63 66 94 3f 71 7f 38 bf
       0.055734396 -0.1031979 1.1593746 -0.7206946
000070 66 b0 d3 3e be ce b3 be 70 08 82 3f 5a 50 89 3e
       0.4134552 -0.3511867 1.0158825 0.26819116
000080 67 6c 25 3e e5 80 9d be 6e c5 10 3f af e2 c7 3d
       0.16154633 -0.307624 0.56551254 0.09760033
000090 14 53 25 3e 1a aa 01 be cc eb ba be 90 f0 ab 3f
       0.16144973 -0.12662545 -0.36508024 1.3432789
0000a0 39 b6 23 3f 71 be 7e 3e 4c b2 d6 3e 86 d5 c9 bc
       0.63949925 0.24877335 0.41932905 -0.024637949
0000b0 21 18 d2 be 80 e8 b0 be 71 06 71 be 58 82 cb bd
       -0.41034034 -0.34552383 -0.23537613 -0.099369705

model/mobilenetv2_0.50_64/block_11_project_BN/FusedBatchNormV3 f4 [48]
000000 35 12 6b bf a8 7a 3a bf b3 83 85 bf 0f cd 10 bf
       -0.91824657 -0.7284341 -1.0430816 -0.56562895
000010 d6 19 c0 be 82 ab db be fc d9 06 3f 7c 8c 5c 3e
       -0.3751971 -0.42904288 0.5267637 0.21537966
000020 68 e4 e5 3e 2a 91 cc 3e 51 27 a0 bf 99 ea 23 3e
       0.44900823 0.399545 -1.2511998 0.1600746
000030 77 ad 03 3f 4b 9b 6a 3f 7c 7a 54 bf f1 4b ec 3e
       0.5143656 0.9164321 -0.82999396 0.4615169
000040 40 bd 3d bf 2f 37 cd 3e cd d8 ef 3e fb f2 10 be
       -0.741169 0.40081164 0.46845093 -0.1415519
000050 9c 90 2d bf 0c 82 02 3e 50 97 92 bf e5 45 7b 3e
       -0.6779878 0.12744921 -1.1452427 0.24538381
000060 9c 03 cf 3e 6d f3 0e bd 7a f0 67 bf f0 d2 c3 be
       0.4043244 -0.034900118 -0.90601313 -0.3824687
000070 e9 02 97 be f5 17 23 be 23 1d a5 bf 28 23 05 3f
       -0.29494408 -0.15927108 -1.2899517 0.5200677
000080 04 bf 41 3e 74 ce ed bd 61 8b 95 be 01 19 88 be
       0.18920523 -0.116116434 -0.292079 -0.26581576
000090 89 30 4e bf a2 14 32 bf 92 15 04 3f 26 d9 07 bf
       -0.8054281 -0.69562733 0.51595414 -0.5306572
0000a0 b0 fa 01 bf 81 ef 0f be 4a f3 b0 be cb 16 80 3f
       -0.50773144 -0.14056207 -0.34560615 1.0006956
0000b0 38 08 84 3f 8f 5e c5 bd f8 d3 0c 3d 20 02 06 be
       1.0315008 -0.09637176 0.034381837 -0.13086748

model/mobilenetv2_0.50_64/block_10_project_BN/FusedBatchNormV3 f4 [48]
000000 51 3c 9d be f6 68 3c bf 87 ae a4 bc d2 e8 42 3d
       -0.3071008 -0.7359766 -0.020102752 0.047585316
000010 e9 9d a4 3e b6 20 3e bf ef b6 c0 bf 60 74 b7 be
       0.32151726 -0.7426866 -1.5055827 -0.35830975
000020 49 c2 96 3d 12 05 c3 bf 54 f2 1d 3f c2 73 92 bd
       0.07361276 -1.5235922 0.6169789 -0.07150985
000030 cf 45 78 bf 29 4d 60 3f 2f 2f 1c 3f f7 7d ee 3e
       -0.9698152 0.8761774 0.61009496 0.4658048
000040 0b 15 1a bf 2b 2a 18 bf c6 11 0b bd 8b 31 48 bf
       -0.6018836 -0.59439343 -0.033952497 -0.78200597
000050 47 e6 94 be 8a b6 69 3f cd 07 1f 3d 27 79 ab 3d
       -0.29081938 0.9129416 0.0388258 0.08372717
000060 b0 15 76 3d 90 f8 7d 3d d4 fb 3a be 27 cc 89 bd
       0.060079277 0.062004626 -0.18260127 -0.06728392
000070 6d 7d 5c bf e4 7b d2 3e b7 50 88 be 34 cb 1a bf
       -0.86128885 0.41110146 -0.2662408 -0.60466313
000080 86 87 a6 3f 23 85 9b bf 7c 79 5d 3e d7 55 7f bf
       1.3010108 -1.2150005 0.21628374 -0.99740356
000090 93 85 ee bd 87 f3 c7 be ed 06 b3 3e a6 e7 9f 3e
       -0.11646571 -0.39052984 0.3496622 0.3123142
0000a0 3b 1c d8 be 7e 0a 12 3f 0f 1b 6e 3f 1a 32 8e 3f
       -0.42209038 0.5704726 0.9301004 1.110904
0000b0 5d 2d 88 3d 77 d2 a0 3e eb 7c bc 3f 99 cf 82 3e
       0.06649277 0.31410572 1.4725622 0.2554901

model/mobilenetv2_0.50_64/block_9_project_BN/FusedBatchNormV3 f4 [32]
000000 a1 64 29 bf aa c7 b9 be a6 db 17 3d 0a d0 d7 3e
       -0.6616917 -0.36285144 0.037074707 0.4215091
000010 ad 3f 62 3e 05 3f 08 3e 75 b2 a4 3f c5 bf d6 3e
       0.22094603 0.1330529 1.2866961 0.41943184
000020 d3 0f 87 bf f0 6a 04 bf 71 24 1e 3e f2 23 dc be
       -1.0551704 -0.51725674 0.15443589 -0.42996174
000030 63 8b a3 be 7a cd 3e 3f 11 f2 8b be 1b 9c 06 3f
       -0.3194228 0.7453228 -0.2733312 0.5258195
000040 bb 94 a9 bd 9e 0a 95 3f 53 8d a2 3e 0a 5e 93 bd
       -0.08280321 1.1643865 0.31748447 -0.07195671
000050 f2 31 09 3f a4 95 63 be c8 c2 ec be 3b 3a 6d 3f
       0.53591835 -0.22225052 -0.46242356 0.9266698
000060 60 ec f0 3e 7e 45 0a bf 7b 70 de 3f 60 59 27 be
       0.4705534 -0.54012287 1.7378076 -0.16342688
000070 95 84 27 bf fe 30 8b 3e 79 4d ca be af b1 8d bd
       -0.6543668 0.27185816 -0.39512232 -0.06918656

model/mobilenetv2_0.50_64/block_8_project_BN/FusedBatchNormV3 f4 [32]
000000 04 f1 bf bb 78 9a 50 bf 2f 7a 96 3e ce f7 3a 3f
       -0.0058575887 -0.814857 0.29390094 0.7303437
000010 02 32 40 bf 9e 81 62 bf 72 f5 c6 be 33 a2 22 bf
       -0.75076306 -0.8847903 -0.38859135 -0.63528746
000020 c6 bc 75 be 44 87 3f 3e 52 79 81 3c bc 80 30 3f
       -0.23997793 0.18703943 0.01580492 0.68946433
000030 f7 61 4e 3f 4c 80 8a bf 64 eb 9f be 76 72 7d be
       0.8061823 -1.0820403 -0.31234276 -0.24750695
000040 74 43 69 3f 7b 2d 66 3f c2 aa ef 3e ad b6 44 3f
       0.9111855 0.8991315 0.46809965 0.7684124
000050 50 2f de be 56 bb 17 3f 68 67 ec be df 5c 71 3b
       -0.43395472 0.59270227 -0.46172643 0.0036829037
000060 a3 a7 8a bf 89 54 17 3e ed d4 2b bf 6f 11 21 3d
       -1.0832409 0.14778341 -0.67121774 0.039323267
000070 f0 25 6d 3e 93 b3 5b 3e 2b a7 46 bf 99 12 07 bf
       0.23159003 0.21455221 -0.7759883 -0.5276275

model/mobilenetv2_0.50_64/block_7_project_BN/FusedBatchNormV3 f4 [32]
000000 c2 55 56 bd 64 7a a4 bf bc 13 f4 bd 73 fb bd be
       -0.05232788 -1.2849851 -0.119178265 -0.37105903
000010 26 9f 52 bf 73 2d 13 bf f8 05 3b 3f 5b 13 6c 3f
       -0.8227409 -0.57491225 0.7305598 0.92217034
000020 64 24 8f bd 97 fb 1f bf 0c f7 e8 3d 61 83 98 3e
       -0.06989363 -0.6249327 0.113752455 0.29787734
000030 12 5e 8f 3f b0 64 6f 3f 2e 41 e5 3e d4 3a ca 3e
       1.1200583 0.9351301 0.4477629 0.39498007
000040 44 af 89 be d6 c5 15 3e 8d 9c c5 be 0c 3d 32 bf
       -0.2689153 0.1462625 -0.38596 -0.696244
000050 63 48 dd 3e 52 ac 4f bf 35 16 c5 bd 41 32 35 bf
       0.4321929 -0.81122315 -0.09623376 -0.70779806
000060 8a c2 04 bf 9a b3 27 3d 1d 5c 15 bf 82 9c fa bd
       -0.51859343 0.040942766 -0.5834368 -0.12236883
000070 bc 95 26 3e b8 93 a5 be 2a 30 cd be 1b a2 88 be
       0.16268057 -0.32339263 -0.4007581 -0.26686177

model/mobilenetv2_0.50_64/bn_Conv1/FusedBatchNormV3 f4 [16]
000000 9a 91 1e c0 fa c8 32 40 95 43 2f 40 6d aa 35 c0
       -2.4776368 2.7935166 2.7384999 -2.838527
000010 59 3f 0c c0 13 1a 59 bf 87 f6 19 c0 a6 03 2d c0
       -2.1913664 -0.8480541 -2.4056718 -2.7033477
000020 b2 dc dc bd b0 ba 2d 40 41 d3 6e 3f ef 34 80 bf
       -0.10784282 2.7145195 0.932911 -1.0016154
000030 1c 29 28 40 01 27 27 40 f6 8d 0f 40 34 da 06 c0
       2.627509 2.6117556 2.2430396 -2.107068

model/mobilenetv2_0.50_64/expanded_conv_depthwise_BN/FusedBatchNormV3 f4 [16]
000000 6c 9e 2d bf c7 3f 62 3d cd a5 70 be 35 10 33 bf
       -0.6781986 0.055236604 -0.23500748 -0.69946605
000010 8d 76 f9 3e fe d3 44 be db d3 53 bf 2e 49 38 bf
       0.4872326 -0.19221494 -0.8274514 -0.71986663
000020 df 7a bb be 09 ee 22 3f d9 a1 99 3e 6a 75 83 3e
       -0.3661718 0.6364446 0.30006292 0.25675517
000030 2d ff 19 be 3f 16 26 3f c1 91 1b 3e ee 72 21 bf
       -0.15038748 0.64877695 0.1519232 -0.63065994

model/mobilenetv2_0.50_64/block_1_expand_BN/FusedBatchNormV3 f4 [48]
000000 c0 7c 8d 3b ae 4e 5e 3b 9c f4 d1 3b 46 fa cc 3b
       0.00431785 0.0033921408 0.0064073335 0.006255421
000010 4b 2e 59 3b 72 5c 50 bb 40 2f 3d 3b 46 90 c5 3b
       0.0033139165 -0.0031793383 0.0028867275 0.0060291616
000020 04 a7 b3 ba eb 18 81 bb e7 9e e8 ba 8e a3 67 3b
       -0.0013706391 -0.003939738 -0.0017747552 0.003534529
000030 66 5e a0 bb 80 66 b6 37 ee 3a 00 bc 00 c0 32 ba
       -0.0048940657 2.1743821e-05 -0.00782655 -0.00068187714
000040 5b 04 cc 3b 90 89 2f 3c 0c d9 fb 3b b5 69 38 3b
       0.006226105 0.01071395 0.007685786 0.0028139178
000050 19 c2 3b 3b 8b f5 af bb e2 2a eb bb 00 c4 0e b8
       0.0028649627 -0.005369847 -0.007176743 -3.4037977e-05
000060 a8 82 a5 bb c6 dc d2 3b 90 b3 70 b9 88 31 e5 3b
       -0.005050976 0.0064350097 -0.00022955076 0.00699443
000070 fc b8 35 ba 5a 06 db 3b d9 bd 84 bb 3a ec 28 3b
       -0.0006932167 0.006684107 -0.004050952 0.0025775568
000080 dc 9d f7 39 bb 08 1d bc 30 8d 15 bb cb 7b a3 3b
       0.00047229126 -0.009584601 -0.002281975 0.0049891225
000090 98 d6 27 b9 ea 49 bf bb 99 dd b0 3b c0 69 b8 3a
       -0.00016006303 -0.0058376687 0.0053975102 0.0014069602
0000a0 8e d6 8f 3b b3 aa 35 3a ca a5 ea 3b b2 5a 96 3a
       0.0043895906 0.0006930038 0.007160877 0.0011471121
0000b0 d9 e8 02 bc 92 03 23 3c ea 6e b5 3b fa aa 16 3b
       -0.0079900855 0.009949582 0.0055369036 0.0022990094

model/mobilenetv2_0.50_64/block_1_depthwise_BN/FusedBatchNormV3 f4 [48]
000000 a2 3e 62 3f 63 99 31 be 91 9f 4b bf 40 04 42 be
       0.8837682 -0.17343669 -0.79540354 -0.18946934
000010 b6 1d 23 bf ac 4f 44 3f a1 d2 94 be 5f 75 1f 3d
       -0.6371721 0.7668407 -0.29066947 0.038930293
000020 3b 9c 8b bd f0 c0 bd 3e b5 02 e7 be 18 a9 0c 3f
       -0.06816908 0.37061262 -0.45119253 0.54945517
000030 43 09 16 be ab 5d 19 3f 07 d4 74 bf 79 49 9a be
       -0.1465197 0.5990855 -0.9563603 -0.3013418
000040 aa ed 19 3f ab e6 e3 be ef e9 3d bf 07 4b 53 3f
       0.6012827 -0.44511923 -0.7418508 0.8253636
000050 26 69 8b be f2 65 27 3f c6 ce 1e 3f 27 29 95 3f
       -0.2722866 0.6538993 0.6203426 1.1653184
000060 b6 a7 25 bf cc fb 9d 3e 21 c0 2d bf fe 1e 58 3f
       -0.6470903 0.30856168 -0.6787129 0.8442229
000070 4e d5 ba be a7 89 af be f6 2b 27 bf 2e ca 03 bf
       -0.36490864 -0.34284708 -0.65301454 -0.51480377
000080 c5 c4 66 be db bb 82 3e 62 61 1b bf f5 d6 32 bf
       -0.22535999 0.25533947 -0.6069547 -0.6985925
000090 8b 68 49 3f 33 43 8d 3f 8f db 7b 3f 54 c0 3b 3f
       0.78675145 1.1036133 0.98381895 0.73340344
0000a0 db 86 5c be b0 19 d3 be 48 95 b8 bd 20 0c 33 3e
       -0.21535818 -0.41230536 -0.09012848 0.17485094
0000b0 d5 b7 ae 3d ce 2c fc 3d 61 2f 2f bf db 22 bc be
       0.08531157 0.12313233 -0.6843167 -0.36745343

model/mobilenetv2_0.50_64/block_2_expand_BN/FusedBatchNormV3 f4 [96]
000000 83 80 89 ba d2 60 34 3c 80 96 b1 3a a4 3f 8d 3b
       -0.001049057 0.011009412 0.0013548881 0.004310565
000010 7c 20 41 3b 7a c4 ab bb ec c5 c4 bb 33 4c f5 ba
       0.0029468825 -0.0052419277 -0.0060050394 -0.0018714726
000020 58 eb a8 3a f6 9b e5 3a 6d a7 d8 3a 1b 72 a4 ba
       0.0012887521 0.0017517793 0.0016529389 -0.0012546213
000030 66 6b 61 bb de 2f 1b bb 1b 44 30 ba d2 06 90 bb
       -0.003439629 -0.0023679654 -0.00067240157 -0.0043953443
000040 61 37 9a 3a e0 92 01 38 c0 6c 9d bb ee 5e 42 3b
       0.0011765772 3.0892785e-05 -0.004804224 0.0029658633
000050 4f 94 99 3b 87 e4 8a bb 54 cb 19 3a f4 aa 37 3b
       0.004686869 -0.0042386684 0.0005866785 0.002802548
000060 0b 44 b5 bb a8 dd 28 3c b8 ff 1b bb 4e f1 01 bb
       -0.005531793 0.010306753 -0.0023803543 -0.0019827667
000070 e5 a4 90 bb c4 c4 a7 3a 3c 7a 0d bb 18 66 ec ba
       -0.004414188 0.001279973 -0.002158775 -0.0018035797
000080 0b be e7 3b b7 51 d3 3a 9a 6c f9 bb f0 d5 c1 3a
       0.0070722154 0.0016122375 -0.0076118233 0.001478849
000090 00 31 3f b6 dc 4a fd ba 28 6c 29 b9 99 2b bc bb
       -2.848974e-06 -0.0019324678 -0.00016157387 -0.005742502
0000a0 20 f6 56 3b 81 09 dc 3b a4 0f 1c 3c 71 40 ae 3b
       0.003280051 0.006715 0.009525213 0.0053177406
0000b0 30 45 b8 3b 1d 1a 6c 3c f5 dc 11 bb af e5 90 3a
       0.005623482 0.014410523 -0.0022256945 0.0011054779
0000c0 f5 f8 b4 3b 60 8a cd b9 ab 21 ae 3c 95 a7 ca 3a
       0.005522842 -0.00039203744 0.021256289 0.001546132
0000d0 5a dd 32 ba 43 2c 41 3b 00 e6 75 3a 96 a8 a1 ba
       -0.0006823145 0.0029475845 0.0009380281 -0.0012333568
0000e0 1f 54 05 3c 3e b8 cb 3b b0 50 86 bb 18 36 d6 3a
       0.008137732 0.0062170317 -0.004098974 0.0016343025
0000f0 ee 9a c3 b8 a4 6f 35 3b 4a 11 9d 3b 25 82 a7 b9
       -9.3271825e-05 0.0027684951 0.004793321 -0.00031949687
000100 9e 9b 82 bb b9 7d 43 bc 64 48 2c bb c5 4e 4b 3a
       -0.003985836 -0.01193183 -0.0026288265 0.0007755573
000110 bb c0 fa 3a 11 03 2f bb f1 d5 a6 ba ae f0 4b 3b
       0.0019130924 -0.0026704709 -0.0012728554 0.0031118798
000120 2a b6 e6 3a 59 31 a6 bb ff 36 bf ba 2c e6 80 3a
       0.0017601897 -0.0050718007 -0.0014588534 0.0009834222
000130 70 54 b5 38 30 82 0c bb 00 10 a8 b5 2d 8a 6e 3b
       8.64648e-05 -0.0021439902 -1.2521632e-06 0.0036398277
000140 54 1e f0 3b 71 2f 58 3b 40 65 d1 3b 61 d6 2c b9
       0.007327834 0.0032987262 0.006390244 -0.0001648306
000150 8f dc 33 3b 03 c9 b2 bb ee 15 01 bb 1f 28 30 3b
       0.0027444696 -0.0054560914 -0.001969691 0.0026879383
000160 64 08 f6 bb da 70 93 3b dc d9 ca 39 67 7d ae ba
       -0.0075083245 0.004499537 0.0003869076 -0.0013312519
000170 44 5f 6a bc d2 27 a9 ba ea 63 03 bc 70 57 1d bb
       -0.01430494 -0.0012905544 -0.008019427 -0.0024008416
