compression/autoencoder/integer_quanitzation/models_compressed/model_ToyCar.tflite (tflite, 278080 bytes, 10 tensors)

model/dense_9/MatMul i1 [640, 128] scale=0.020505914 zero_point=0
0	0x07	0.1435414
1	0xf1	-0.30758873
2	0x10	0.32809463
3	0xdf	-0.67669517
4	0xec	-0.41011828
5	0xea	-0.45113012
6	0xed	-0.38961238
7	0xf5	-0.22556506
8	0x01	0.020505914
9	0xe2	-0.61517745
10	0x1a	0.5331538
11	0xfe	-0.04101183
12	0xd1	-0.96377796
13	0x19	0.51264787
14	0xec	-0.41011828
15	0xe8	-0.49214196
16	0xfc	-0.08202366
17	0x15	0.43062422
18	0x1b	0.5536597
19	0xeb	-0.43062422
20	0xf8	-0.16404732
21	0xe9	-0.47163603
22	0x09	0.18455324
23	0xde	-0.6972011
24	0x0b	0.22556506
25	0xe1	-0.63568336
26	0x08	0.16404732
27	0xd6	-0.86124843
28	0x01	0.020505914
29	0xe6	-0.5331538
30	0x12	0.36910647
31	0x41	1.3328844
32	0x10	0.32809463
33	0xea	-0.45113012
34	0x08	0.16404732
35	0x1f	0.63568336
36	0xd1	-0.96377796
37	0x0c	0.24607098
38	0x04	0.08202366
39	0xc6	-1.1893431
40	0x0d	0.2665769
41	0xe2	-0.61517745
42	0xd0	-0.9842839
43	0xf0	-0.32809463
44	0x0f	0.30758873
45	0xf9	-0.1435414
46	0xf4	-0.24607098
47	0xf4	-0.24607098
48	0xe1	-0.63568336
49	0xeb	-0.43062422
50	0xc1	-1.2918726
51	0xe7	-0.51264787
52	0xfc	-0.08202366
53	0xe0	-0.65618926
54	0xdc	-0.73821294
55	0x11	0.34860054
56	0xe1	-0.63568336
57	0xd5	-0.88175434
58	0xe6	-0.5331538
59	0xfe	-0.04101183
60	0x06	0.12303549
61	0x1e	0.61517745
62	0xf8	-0.16404732
63	0xd4	-0.90226024
64	0xed	-0.38961238
65	0xf2	-0.2870828
66	0xd7	-0.84074247
67	0xec	-0.41011828
68	0x0b	0.22556506
69	0x16	0.45113012
70	0xf5	-0.22556506
71	0x08	0.16404732
72	0xe0	-0.65618926
73	0xd5	-0.88175434
74	0x0f	0.30758873
75	0xd6	-0.86124843
76	0x08	0.16404732
77	0xdd	-0.717707
78	0xef	-0.34860054
79	0xe2	-0.61517745
80	0xee	-0.36910647
81	0xba	-1.435414
82	0x02	0.04101183
83	0xff	-0.020505914
84	0xe6	-0.5331538
85	0xf0	-0.32809463
86	0xe9	-0.47163603
87	0xe3	-0.59467155
88	0xd3	-0.92276615
89	0xe7	-0.51264787
90	0xee	-0.36910647
91	0xe3	-0.59467155
92	0x04	0.08202366
93	0x10	0.32809463
94	0x06	0.12303549
95	0xa5	-1.8660382
96	0xe5	-0.5536597
97	0x15	0.43062422
98	0xdd	-0.717707
99	0xd6	-0.86124843
100	0xf6	-0.20505914
101	0xe6	-0.5331538
102	0xe6	-0.5331538
103	0x04	0.08202366
104	0xef	-0.34860054
105	0x9a	-2.0916033
106	0xf4	-0.24607098
107	0xf0	-0.32809463
108	0xf9	-0.1435414
109	0xfc	-0.08202366
110	0x1d	0.59467155
111	0xbd	-1.3738962
112	0xf5	-0.22556506
113	0xfe	-0.04101183
114	0x13	0.38961238
115	0xed	-0.38961238
116	0xfa	-0.12303549
117	0x0f	0.30758873
118	0x14	0.41011828
119	0xc1	-1.2918726
120	0xfb	-0.10252957
121	0xfd	-0.061517745
122	0x00	0.0
123	0xe7	-0.51264787
124	0x13	0.38961238
125	0xe5	-0.5536597
126	0x00	0.0
127	0xda	-0.77922475
128	0x09	0.18455324
129	0xf2	-0.2870828
130	0xfb	-0.10252957
131	0xda	-0.77922475
132	0xfd	-0.061517745
133	0x02	0.04101183
134	0x09	0.18455324
135	0xf7	-0.18455324
136	0x12	0.36910647
137	0x1d	0.59467155
138	0x10	0.32809463
139	0x1e	0.61517745
140	0xd9	-0.79973066
141	0x0a	0.20505914
142	0x45	1.414908
143	0xff	-0.020505914
144	0x04	0.08202366
145	0x17	0.47163603
146	0x0e	0.2870828
147	0xf2	-0.2870828
148	0x04	0.08202366
149	0x3a	1.1893431
150	0x27	0.79973066
151	0xe0	-0.65618926
152	0x16	0.45113012
153	0x0d	0.2665769
154	0xfc	-0.08202366
155	0xfc	-0.08202366
156	0xf3	-0.2665769
157	0xd1	-0.96377796
158	0x0a	0.20505914
159	0xee	-0.36910647
160	0x19	0.51264787
161	0xf0	-0.32809463
162	0x01	0.020505914
163	0xfd	-0.061517745
164	0xe4	-0.5741656
165	0xb6	-1.5174377
166	0x04	0.08202366
167	0xe8	-0.49214196
168	0xf1	-0.30758873
169	0xf2	-0.2870828
170	0xf5	-0.22556506
171	0xfe	-0.04101183
172	0x01	0.020505914
173	0x2b	0.88175434
174	0xe1	-0.63568336
175	0x06	0.12303549
176	0xe6	-0.5331538
177	0xf4	-0.24607098
178	0xf5	-0.22556506
179	0xfc	-0.08202366
180	0xfe	-0.04101183
181	0xde	-0.6972011
182	0x00	0.0
183	0x05	0.10252957
184	0xea	-0.45113012
185	0xea	-0.45113012
186	0xd7	-0.84074247
187	0xe8	-0.49214196
188	0x33	1.0458016
189	0x11	0.34860054
190	0xe9	-0.47163603
191	0xc5	-1.209849
192	0xf5	-0.22556506
193	0xd9	-0.79973066
194	0xe2	-0.61517745
195	0xf8	-0.16404732
196	0xee	-0.36910647
197	0xdf	-0.67669517
198	0xfd	-0.061517745
199	0x02	0.04101183
200	0xf3	-0.2665769
201	0x0b	0.22556506
202	0x13	0.38961238
203	0xe8	-0.49214196
204	0x09	0.18455324
205	0xe6	-0.5331538
206	0xed	-0.38961238
207	0x1c	0.5741656
208	0xdf	-0.67669517
209	0xcf	-1.0047898
210	0xea	-0.45113012
211	0xf8	-0.16404732
212	0xfe	-0.04101183
213	0xf8	-0.16404732
214	0xff	-0.020505914
215	0xec	-0.41011828
216	0x00	0.0
217	0xfc	-0.08202366
218	0xed	-0.38961238
219	0xcc	-1.0663075
220	0xff	-0.020505914
221	0x05	0.10252957
222	0xfc	-0.08202366
223	0xec	-0.41011828
224	0xf8	-0.16404732
225	0x1c	0.5741656
226	0xd4	-0.90226024
227	0x04	0.08202366
228	0xff	-0.020505914
229	0xf0	-0.32809463
230	0xfa	-0.12303549
231	0xfb	-0.10252957
232	0xd0	-0.9842839
233	0xdb	-0.75871885
234	0xe0	-0.65618926
235	0xff	-0.020505914
236	0xe1	-0.63568336
237	0x12	0.36910647
238	0x0c	0.24607098
239	0x00	0.0
240	0xf6	-0.20505914
241	0xfd	-0.061517745
242	0xf2	-0.2870828
243	0x15	0.43062422
244	0x03	0.061517745
245	0x07	0.1435414
246	0x1b	0.5536597
247	0xfc	-0.08202366
248	0x06	0.12303549
249	0xf5	-0.22556506
250	0xfd	-0.061517745
251	0xe5	-0.5536597
252	0x28	0.82023656
253	0x0a	0.20505914
254	0xd9	-0.79973066
255	0xf9	-0.1435414

model/batch_normalization_8/batchnorm/mul_1 i1 [128, 128] scale=0.008278597 zero_point=0
0	0xf0	-0.13245755
1	0xd5	-0.35597968
2	0xfb	-0.041392986
3	0xf9	-0.05795018
4	0x08	0.06622878
5	0x08	0.06622878
6	0xe1	-0.2566365
7	0xf5	-0.09106457
8	0x0f	0.12417896
9	0xff	-0.008278597
10	0x13	0.15729335
11	0xe3	-0.24007931
12	0xe3	-0.24007931
13	0xf8	-0.06622878
14	0x14	0.16557194
15	0x01	0.008278597
16	0xfe	-0.016557194
17	0xea	-0.18212914
18	0xfe	-0.016557194
19	0xf7	-0.07450737
20	0x08	0.06622878
21	0x02	0.016557194
22	0x01	0.008278597
23	0x03	0.024835791
24	0xfe	-0.016557194
25	0x0f	0.12417896
26	0x04	0.03311439
27	0x0e	0.11590036
28	0xfe	-0.016557194
29	0xfa	-0.049671583
30	0x0f	0.12417896
31	0x04	0.03311439
32	0x10	0.13245755
33	0x02	0.016557194
34	0xfe	-0.016557194
35	0x07	0.05795018
36	0xf5	-0.09106457
37	0xf4	-0.099343166
38	0x01	0.008278597
39	0x13	0.15729335
40	0xeb	-0.17385054
41	0x13	0.15729335
42	0x0d	0.10762176
43	0x0a	0.08278597
44	0x09	0.07450737
45	0x04	0.03311439
46	0x05	0.041392986
47	0x03	0.024835791
48	0xff	-0.008278597
49	0x08	0.06622878
50	0x08	0.06622878
51	0x0b	0.09106457
52	0xf1	-0.12417896
53	0x0b	0.09106457
54	0xfc	-0.03311439
55	0xe1	-0.2566365
56	0xf9	-0.05795018
57	0x05	0.041392986
58	0x0d	0.10762176
59	0xe0	-0.2649151
60	0x11	0.14073615
61	0xf2	-0.11590036
62	0x0a	0.08278597
63	0x03	0.024835791
64	0xf4	-0.099343166
65	0x06	0.049671583
66	0x05	0.041392986
67	0x1f	0.2566365
68	0xee	-0.14901474
69	0xf4	-0.099343166
70	0x16	0.18212914
71	0xf0	-0.13245755
72	0xf0	-0.13245755
73	0xf7	-0.07450737
74	0x17	0.19040774
75	0xe0	-0.2649151
76	0x1a	0.21524352
77	0xf1	-0.12417896
78	0xe5	-0.22352213
79	0xf8	-0.06622878
80	0x12	0.14901474
81	0x03	0.024835791
82	0xf3	-0.10762176
83	0x0f	0.12417896
84	0x16	0.18212914
85	0x08	0.06622878
86	0x0c	0.099343166
87	0x03	0.024835791
88	0x15	0.17385054
89	0xf7	-0.07450737
90	0xf8	-0.06622878
91	0xfe	-0.016557194
92	0x02	0.016557194
93	0x14	0.16557194
94	0xfc	-0.03311439
95	0x0b	0.09106457
96	0xe1	-0.2566365
97	0xeb	-0.17385054
98	0xf3	-0.10762176
99	0x0b	0.09106457
100	0x14	0.16557194
101	0xf2	-0.11590036
102	0xf8	-0.06622878
103	0xfd	-0.024835791
104	0xf6	-0.08278597
105	0xfe	-0.016557194
106	0x03	0.024835791
107	0xe5	-0.22352213
108	0xf9	-0.05795018
109	0xfe	-0.016557194
110	0xfc	-0.03311439
111	0x1b	0.22352213
112	0x41	0.5381088
113	0x09	0.07450737
114	0x17	0.19040774
115	0xf9	-0.05795018
116	0xee	-0.14901474
117	0xcd	-0.42220846
118	0xfa	-0.049671583
119	0x06	0.049671583
120	0xe3	-0.24007931
121	0x12	0.14901474
122	0x16	0.18212914
123	0xf5	-0.09106457
124	0xf4	-0.099343166
125	0xee	-0.14901474
126	0x13	0.15729335
127	0xf7	-0.07450737
128	0xfc	-0.03311439
129	0x01	0.008278597
130	0xff	-0.008278597
131	0xff	-0.008278597
132	0xfc	-0.03311439
133	0x0c	0.099343166
134	0xf7	-0.07450737
135	0xfc	-0.03311439
136	0x03	0.024835791
137	0x11	0.14073615
138	0x00	0.0
139	0xf3	-0.10762176
140	0x06	0.049671583
141	0x00	0.0
142	0x0d	0.10762176
143	0x08	0.06622878
144	0xec	-0.16557194
145	0x06	0.049671583
146	0x0f	0.12417896
147	0x01	0.008278597
148	0xf0	-0.13245755
149	0xff	-0.008278597
150	0x03	0.024835791
151	0x0d	0.10762176
152	0xfc	-0.03311439
153	0xec	-0.16557194
154	0xf9	-0.05795018
155	0xf7	-0.07450737
156	0xf8	-0.06622878
157	0xf9	-0.05795018
158	0xf4	-0.099343166
159	0x03	0.024835791
160	0x06	0.049671583
161	0x01	0.008278597
162	0x10	0.13245755
163	0xf2	-0.11590036
164	0x0d	0.10762176
165	0xf9	-0.05795018
166	0xff	-0.008278597
167	0x06	0.049671583
168	0x0b	0.09106457
169	0xf4	-0.099343166
170	0x0a	0.08278597
171	0xd8	-0.3311439
172	0xf2	-0.11590036
173	0xee	-0.14901474
174	0xf3	-0.10762176
175	0xfe	-0.016557194
176	0x05	0.041392986
177	0xfb	-0.041392986
178	0xf4	-0.099343166
179	0x0f	0.12417896
180	0xf1	-0.12417896
181	0x07	0.05795018
182	0xf7	-0.07450737
183	0xf1	-0.12417896
184	0x01	0.008278597
185	0x05	0.041392986
186	0x06	0.049671583
187	0xf8	-0.06622878
188	0x09	0.07450737
189	0xfe	-0.016557194
190	0x06	0.049671583
191	0xf9	-0.05795018
192	0xf9	-0.05795018
193	0x06	0.049671583
194	0xf8	-0.06622878
195	0xed	-0.15729335
196	0x0c	0.099343166
197	0xdf	-0.27319372
198	0x03	0.024835791
199	0xf7	-0.07450737
200	0xfd	-0.024835791
201	0xe2	-0.24835792
202	0x00	0.0
203	0x07	0.05795018
204	0x06	0.049671583
205	0x0e	0.11590036
206	0xfc	-0.03311439
207	0xf7	-0.07450737
208	0xfc	-0.03311439
209	0xfb	-0.041392986
210	0xf0	-0.13245755
211	0x03	0.024835791
212	0x08	0.06622878
213	0x04	0.03311439
214	0x0b	0.09106457
215	0x11	0.14073615
216	0x08	0.06622878
217	0x08	0.06622878
218	0x05	0.041392986
219	0x24	0.29802948
220	0xf7	-0.07450737
221	0xf6	-0.08278597
222	0x00	0.0
223	0xea	-0.18212914
224	0xf7	-0.07450737
225	0xf3	-0.10762176
226	0xf7	-0.07450737
227	0x01	0.008278597
228	0x01	0.008278597
229	0xff	-0.008278597
230	0xfb	-0.041392986
231	0x04	0.03311439
232	0x0a	0.08278597
233	0x03	0.024835791
234	0xf3	-0.10762176
235	0x01	0.008278597
236	0x07	0.05795018
237	0xfc	-0.03311439
238	0xfc	-0.03311439
239	0xf8	-0.06622878
240	0xf2	-0.11590036
241	0x0e	0.11590036
242	0xfd	-0.024835791
243	0xf8	-0.06622878
244	0x06	0.049671583
245	0xfc	-0.03311439
246	0x0a	0.08278597
247	0x01	0.008278597
248	0x09	0.07450737
249	0x0b	0.09106457
250	0xfc	-0.03311439
251	0x0a	0.08278597
252	0xe7	-0.20696492
253	0xfc	-0.03311439
254	0xff	-0.008278597
255	0x02	0.016557194

model/batch_normalization_7/batchnorm/mul_1 i1 [128, 128] scale=0.015662963 zero_point=0
0	0x00	0.0
1	0x08	0.1253037
2	0x06	0.09397778
3	0x05	0.07831481
4	0xfd	-0.04698889
5	0x06	0.09397778
6	0xfa	-0.09397778
7	0x07	0.10964074
8	0x07	0.10964074
9	0x00	0.0
10	0xf8	-0.1253037
11	0x00	0.0
12	0x04	0.06265185
13	0x01	0.015662963
14	0xf4	-0.18795556
15	0xf7	-0.14096667
16	0xf8	-0.1253037
17	0xf4	-0.18795556
18	0xfc	-0.06265185
19	0x01	0.015662963
20	0xf6	-0.15662962
21	0x03	0.04698889
22	0x0b	0.17229259
23	0x07	0.10964074
24	0xf1	-0.23494443
25	0x03	0.04698889
26	0x06	0.09397778
27	0xff	-0.015662963
28	0x02	0.031325925
29	0xfd	-0.04698889
30	0xf1	-0.23494443
31	0xfa	-0.09397778
32	0x0a	0.15662962
33	0xf5	-0.17229259
34	0x0b	0.17229259
35	0xef	-0.26627037
36	0xfc	-0.06265185
37	0x02	0.031325925
38	0x02	0.031325925
39	0xff	-0.015662963
40	0x00	0.0
41	0xff	-0.015662963
42	0xfb	-0.07831481
43	0x0e	0.21928148
44	0xed	-0.29759628
45	0xf5	-0.17229259
46	0xe9	-0.36024815
47	0x05	0.07831481
48	0xfe	-0.031325925
49	0x10	0.2506074
50	0x0a	0.15662962
51	0x03	0.04698889
52	0x00	0.0
53	0xf4	-0.18795556
54	0x0d	0.20361851
55	0x00	0.0
56	0xfd	-0.04698889
57	0x04	0.06265185
58	0x03	0.04698889
59	0xfc	-0.06265185
60	0xfa	-0.09397778
61	0x12	0.28193334
62	0x05	0.07831481
63	0xff	-0.015662963
64	0xfe	-0.031325925
65	0xfc	-0.06265185
66	0xfa	-0.09397778
67	0x0c	0.18795556
68	0xfe	-0.031325925
69	0x00	0.0
70	0xfe	-0.031325925
71	0xfd	-0.04698889
72	0x02	0.031325925
73	0xf0	-0.2506074
74	0xec	-0.31325924
75	0xf6	-0.15662962
76	0xf4	-0.18795556
77	0x05	0.07831481
78	0x09	0.14096667
79	0xfb	-0.07831481
80	0x0a	0.15662962
81	0xfe	-0.031325925
82	0x0c	0.18795556
83	0x15	0.3289222
84	0xf8	-0.1253037
85	0xfb	-0.07831481
86	0xf7	-0.14096667
87	0x02	0.031325925
88	0x02	0.031325925
89	0x02	0.031325925
90	0x0b	0.17229259
91	0xfb	-0.07831481
92	0x04	0.06265185
93	0x0f	0.23494443
94	0xf6	-0.15662962
95	0x10	0.2506074
96	0x01	0.015662963
97	0xff	-0.015662963
98	0x03	0.04698889
99	0xf6	-0.15662962
100	0x14	0.31325924
101	0xf3	-0.20361851
102	0x04	0.06265185
103	0x05	0.07831481
104	0x02	0.031325925
105	0x07	0.10964074
106	0x05	0.07831481
107	0xf6	-0.15662962
108	0xfb	-0.07831481
109	0x09	0.14096667
110	0xf7	-0.14096667
111	0xfb	-0.07831481
112	0xff	-0.015662963
113	0xfc	-0.06265185
114	0xf6	-0.15662962
115	0xf6	-0.15662962
116	0xf0	-0.2506074
117	0xf7	-0.14096667
118	0x01	0.015662963
119	0xf4	-0.18795556
120	0x0a	0.15662962
121	0xfa	-0.09397778
122	0x0d	0.20361851
123	0x05	0.07831481
124	0xf0	-0.2506074
125	0xfc	-0.06265185
126	0x05	0.07831481
127	0x12	0.28193334
128	0x0a	0.15662962
129	0xff	-0.015662963
130	0x0f	0.23494443
131	0x05	0.07831481
132	0x03	0.04698889
133	0xff	-0.015662963
134	0xff	-0.015662963
135	0xf4	-0.18795556
136	0x08	0.1253037
137	0xfa	-0.09397778
138	0xfa	-0.09397778
139	0xef	-0.26627037
140	0x0d	0.20361851
141	0x03	0.04698889
142	0xf4	-0.18795556
143	0x0c	0.18795556
144	0x0d	0.20361851
145	0xfe	-0.031325925
146	0xfe	-0.031325925
147	0x03	0.04698889
148	0xf0	-0.2506074
149	0x02	0.031325925
150	0x07	0.10964074
151	0x01	0.015662963
152	0x05	0.07831481
153	0xff	-0.015662963
154	0x03	0.04698889
155	0xf9	-0.10964074
156	0x09	0.14096667
157	0x01	0.015662963
158	0x00	0.0
159	0x00	0.0
160	0xff	-0.015662963
161	0x09	0.14096667
162	0xe4	-0.43856296
163	0x00	0.0
164	0xee	-0.28193334
165	0xf7	-0.14096667
166	0x09	0.14096667
167	0x10	0.2506074
168	0xf2	-0.21928148
169	0xfd	-0.04698889
170	0x07	0.10964074
171	0xf8	-0.1253037
172	0xf9	-0.10964074
173	0x05	0.07831481
174	0x06	0.09397778
175	0x01	0.015662963
176	0xfd	-0.04698889
177	0x00	0.0
178	0x05	0.07831481
179	0x00	0.0
180	0x02	0.031325925
181	0xf9	-0.10964074
182	0xfe	-0.031325925
183	0xfd	-0.04698889
184	0xfb	-0.07831481
185	0xf7	-0.14096667
186	0x01	0.015662963
187	0xfc	-0.06265185
188	0xff	-0.015662963
189	0x02	0.031325925
190	0xfb	-0.07831481
191	0xf9	-0.10964074
192	0x02	0.031325925
193	0x0a	0.15662962
194	0x07	0.10964074
195	0x01	0.015662963
196	0x08	0.1253037
197	0x04	0.06265185
198	0x0a	0.15662962
199	0xf7	-0.14096667
200	0x02	0.031325925
201	0x07	0.10964074
202	0xf8	-0.1253037
203	0xfa	-0.09397778
204	0xfe	-0.031325925
205	0x09	0.14096667
206	0x10	0.2506074
207	0xff	-0.015662963
208	0x04	0.06265185
209	0xf9	-0.10964074
210	0x01	0.015662963
211	0x01	0.015662963
212	0x0c	0.18795556
213	0xfb	-0.07831481
214	0xfb	-0.07831481
215	0x02	0.031325925
216	0xfe	-0.031325925
217	0xff	-0.015662963
218	0x02	0.031325925
219	0x02	0.031325925
220	0xfb	-0.07831481
221	0x00	0.0
222	0x01	0.015662963
223	0xfc	-0.06265185
224	0x0e	0.21928148
225	0x02	0.031325925
226	0xf4	-0.18795556
227	0xfb	-0.07831481
228	0xf5	-0.17229259
229	0x04	0.06265185
230	0x00	0.0
231	0x04	0.06265185
232	0xff	-0.015662963
233	0x05	0.07831481
234	0xf9	-0.10964074
235	0x0a	0.15662962
236	0x02	0.031325925
237	0x05	0.07831481
238	0xfb	-0.07831481
239	0xf8	-0.1253037
240	0x03	0.04698889
241	0x05	0.07831481
242	0x0b	0.17229259
243	0xf9	-0.10964074
244	0xfc	-0.06265185
245	0x00	0.0
246	0xfd	-0.04698889
247	0xfb	-0.07831481
248	0xf4	-0.18795556
249	0x00	0.0
250	0xf6	-0.15662962
251	0xfe	-0.031325925
252	0xf5	-0.17229259
253	0x0d	0.20361851
254	0x07	0.10964074
255	0xff	-0.015662963

model/batch_normalization_6/batchnorm/mul_1 i1 [128, 128] scale=0.026225217 zero_point=0
0	0x01	0.026225217
1	0x03	0.07867565
2	0xeb	-0.5507296
3	0xfb	-0.13112608
4	0xfd	-0.07867565
5	0x07	0.18357652
6	0xfc	-0.10490087
7	0x01	0.026225217
8	0x02	0.052450433
9	0xfd	-0.07867565
10	0x01	0.026225217
11	0x04	0.10490087
12	0x02	0.052450433
13	0x07	0.18357652
14	0x03	0.07867565
15	0xfd	-0.07867565
16	0xfd	-0.07867565
17	0xf7	-0.23602694
18	0xfc	-0.10490087
19	0xf3	-0.3409278
20	0xfe	-0.052450433
21	0x04	0.10490087
22	0xfc	-0.10490087
23	0x04	0.10490087
24	0xfc	-0.10490087
25	0x04	0.10490087
26	0x03	0.07867565
27	0x04	0.10490087
28	0xff	-0.026225217
29	0x03	0.07867565
30	0x01	0.026225217
31	0x01	0.026225217
32	0xfd	-0.07867565
33	0xfd	-0.07867565
34	0xf6	-0.26225215
35	0x09	0.23602694
36	0x05	0.13112608
37	0xfd	-0.07867565
38	0x00	0.0
39	0xfb	-0.13112608
40	0xff	-0.026225217
41	0xff	-0.026225217
42	0x03	0.07867565
43	0xff	-0.026225217
44	0xf9	-0.18357652
45	0x02	0.052450433
46	0xfc	-0.10490087
47	0x01	0.026225217
48	0xfd	-0.07867565
49	0x02	0.052450433
50	0x03	0.07867565
51	0x01	0.026225217
52	0xfb	-0.13112608
53	0xfc	-0.10490087
54	0xfa	-0.1573513
55	0xfc	-0.10490087
56	0x01	0.026225217
57	0x00	0.0
58	0xfd	-0.07867565
59	0x06	0.1573513
60	0xfc	-0.10490087
61	0x01	0.026225217
62	0xf6	-0.26225215
63	0x05	0.13112608
64	0x05	0.13112608
65	0x06	0.1573513
66	0xfe	-0.052450433
67	0x01	0.026225217
68	0xff	-0.026225217
69	0x00	0.0
70	0xfe	-0.052450433
71	0x01	0.026225217
72	0xfa	-0.1573513
73	0xfe	-0.052450433
74	0xfa	-0.1573513
75	0x04	0.10490087
76	0xfb	-0.13112608
77	0x01	0.026225217
78	0x04	0.10490087
79	0x01	0.026225217
80	0xfb	-0.13112608
81	0x01	0.026225217
82	0xf9	-0.18357652
83	0xfb	-0.13112608
84	0xf8	-0.20980173
85	0x00	0.0
86	0xfe	-0.052450433
87	0xfd	-0.07867565
88	0xfb	-0.13112608
89	0xfe	-0.052450433
90	0x00	0.0
91	0xff	-0.026225217
92	0x03	0.07867565
93	0x02	0.052450433
94	0xf7	-0.23602694
95	0xfe	-0.052450433
96	0xfe	-0.052450433
97	0xfb	-0.13112608
98	0x01	0.026225217
99	0x05	0.13112608
100	0x02	0.052450433
101	0x00	0.0
102	0xfc	-0.10490087
103	0xff	-0.026225217
104	0xfe	-0.052450433
105	0xf6	-0.26225215
106	0x05	0.13112608
107	0x01	0.026225217
108	0x01	0.026225217
109	0x03	0.07867565
110	0xff	-0.026225217
111	0x00	0.0
112	0x07	0.18357652
113	0xfe	-0.052450433
114	0x01	0.026225217
115	0xfd	-0.07867565
116	0x08	0.20980173
117	0xf7	-0.23602694
118	0x02	0.052450433
119	0x00	0.0
120	0xfa	-0.1573513
121	0x02	0.052450433
122	0x05	0.13112608
123	0x01	0.026225217
124	0xfe	-0.052450433
125	0x04	0.10490087
126	0xff	-0.026225217
127	0xfd	-0.07867565
128	0x04	0.10490087
129	0x01	0.026225217
130	0xff	-0.026225217
131	0xff	-0.026225217
132	0x00	0.0
133	0x05	0.13112608
134	0x03	0.07867565
135	0x01	0.026225217
136	0x0d	0.3409278
137	0xff	-0.026225217
138	0xff	-0.026225217
139	0x00	0.0
140	0xfe	-0.052450433
141	0x01	0.026225217
142	0x04	0.10490087
143	0x04	0.10490087
144	0xfe	-0.052450433
145	0x00	0.0
146	0x03	0.07867565
147	0x02	0.052450433
148	0x05	0.13112608
149	0x00	0.0
150	0x00	0.0
151	0x00	0.0
152	0x00	0.0
153	0x03	0.07867565
154	0xff	-0.026225217
155	0xff	-0.026225217
156	0xfe	-0.052450433
157	0x02	0.052450433
158	0xfe	-0.052450433
159	0x01	0.026225217
160	0x00	0.0
161	0xff	-0.026225217
162	0x01	0.026225217
163	0x01	0.026225217
164	0xff	-0.026225217
165	0x01	0.026225217
166	0x01	0.026225217
167	0x01	0.026225217
168	0x01	0.026225217
169	0x00	0.0
170	0x03	0.07867565
171	0xff	-0.026225217
172	0x01	0.026225217
173	0xfd	-0.07867565
174	0x00	0.0
175	0xff	-0.026225217
176	0xff	-0.026225217
177	0xf2	-0.36715305
178	0x04	0.10490087
179	0xff	-0.026225217
180	0x02	0.052450433
181	0x00	0.0
182	0x00	0.0
183	0x01	0.026225217
184	0x00	0.0
185	0x01	0.026225217
186	0xff	-0.026225217
187	0x01	0.026225217
188	0x01	0.026225217
189	0x01	0.026225217
190	0x01	0.026225217
191	0x02	0.052450433
192	0xff	-0.026225217
193	0x00	0.0
194	0x02	0.052450433
195	0x00	0.0
196	0x01	0.026225217
197	0xfe	-0.052450433
198	0xfd	-0.07867565
199	0xf2	-0.36715305
200	0xff	-0.026225217
201	0x01	0.026225217
202	0x02	0.052450433
203	0x00	0.0
204	0xfd	-0.07867565
205	0x01	0.026225217
206	0xfd	-0.07867565
207	0x01	0.026225217
208	0x00	0.0
209	0xff	-0.026225217
210	0x00	0.0
211	0xff	-0.026225217
212	0xfc	-0.10490087
213	0xff	-0.026225217
214	0xfd	-0.07867565
215	0xff	-0.026225217
216	0x00	0.0
217	0xfe	-0.052450433
218	0x02	0.052450433
219	0xfe	-0.052450433
220	0x01	0.026225217
221	0x02	0.052450433
222	0xff	-0.026225217
223	0x04	0.10490087
224	0x00	0.0
225	0xff	-0.026225217
226	0xff	-0.026225217
227	0xff	-0.026225217
228	0xfe	-0.052450433
229	0x02	0.052450433
230	0xf9	-0.18357652
231	0x00	0.0
232	0xfe	-0.052450433
233	0x00	0.0
234	0xfd	-0.07867565
235	0xfe	-0.052450433
236	0xff	-0.026225217
237	0x00	0.0
238	0xff	-0.026225217
239	0x01	0.026225217
240	0x01	0.026225217
241	0x01	0.026225217
242	0x01	0.026225217
243	0xff	-0.026225217
244	0xff	-0.026225217
245	0xfb	-0.13112608
246	0xfe	-0.052450433
247	0x01	0.026225217
248	0x01	0.026225217
249	0x01	0.026225217
250	0xf8	-0.20980173
251	0x01	0.026225217
252	0xff	-0.026225217
253	0xff	-0.026225217
254	0x01	0.026225217
255	0x00	0.0

model/batch_normalization_5/batchnorm/mul_1 i1 [128, 8] scale=0.040130902 zero_point=0
0	0xf4	-0.48157084
1	0x0d	0.52170175
2	0xec	-0.802618
3	0x12	0.72235626
4	0x03	0.12039271
5	0xeb	-0.84274894
6	0xfc	-0.16052361
7	0xdd	-1.4045815
8	0xd0	-1.9262834
9	0x06	0.24078542
10	0x03	0.12039271
11	0x0d	0.52170175
12	0x0f	0.6019635
13	0x0f	0.6019635
14	0x09	0.36117813
15	0x02	0.080261804
16	0x0a	0.401309
17	0x0c	0.48157084
18	0xf6	-0.401309
19	0x0a	0.401309
20	0xf2	-0.5618326
21	0xff	-0.040130902
22	0x44	2.7289014
23	0x22	1.3644507
24	0x12	0.72235626
25	0xe5	-1.0835344
26	0x05	0.2006545
27	0xff	-0.040130902
28	0xf1	-0.6019635
29	0xfb	-0.2006545
30	0x09	0.36117813
31	0x16	0.88287985
32	0xf8	-0.32104722
33	0x1a	1.0434035
34	0xf6	-0.401309
35	0x0f	0.6019635
36	0x33	2.046676
37	0x1a	1.0434035
38	0x11	0.68222535
39	0xdf	-1.3243197
40	0xe4	-1.1236652
41	0xe3	-1.1637962
42	0xf1	-0.6019635
43	0xf7	-0.36117813
44	0x2e	1.8460215
45	0x00	0.0
46	0x03	0.12039271
47	0x20	1.2841889
48	0xf8	-0.32104722
49	0x08	0.32104722
50	0x04	0.16052361
51	0x0c	0.48157084
52	0xfa	-0.24078542
53	0xfd	-0.12039271
54	0xdc	-1.4447125
55	0xf9	-0.2809163
56	0x19	1.0032725
57	0xf5	-0.44143993
58	0xfd	-0.12039271
59	0xf3	-0.52170175
60	0xfb	-0.2006545
61	0xf8	-0.32104722
62	0xf2	-0.5618326
63	0x0b	0.44143993
64	0x02	0.080261804
65	0x06	0.24078542
66	0xff	-0.040130902
67	0x3d	2.447985
68	0xe5	-1.0835344
69	0xcc	-2.086807
70	0xff	-0.040130902
71	0xf1	-0.6019635
72	0x19	1.0032725
73	0xfb	-0.2006545
74	0x05	0.2006545
75	0x03	0.12039271
76	0xff	-0.040130902
77	0x13	0.7624871
78	0x09	0.36117813
79	0x02	0.080261804
80	0x1f	1.244058
81	0xff	-0.040130902
82	0x1b	1.0835344
83	0xe6	-1.0434035
84	0xfe	-0.080261804
85	0xed	-0.7624871
86	0x06	0.24078542
87	0x04	0.16052361
88	0x15	0.84274894
89	0x1d	1.1637962
90	0x10	0.64209443
91	0xec	-0.802618
92	0x0b	0.44143993
93	0xe7	-1.0032725
94	0x1b	1.0835344
95	0xde	-1.3644507
96	0xff	-0.040130902
97	0xfb	-0.2006545
98	0x03	0.12039271
99	0xf1	-0.6019635
100	0x1d	1.1637962
101	0x0c	0.48157084
102	0xe9	-0.92301077
103	0xf8	-0.32104722
104	0x0e	0.5618326
105	0x0b	0.44143993
106	0xec	-0.802618
107	0x0f	0.6019635
108	0xf4	-0.48157084
109	0xf5	-0.44143993
110	0x24	1.4447125
111	0x3d	2.447985
112	0x22	1.3644507
113	0x13	0.7624871
114	0xf1	-0.6019635
115	0xdd	-1.4045815
116	0xe7	-1.0032725
117	0xec	-0.802618
118	0xf9	-0.2809163
119	0xd7	-1.645367
120	0x10	0.64209443
121	0xf5	-0.44143993
122	0x0f	0.6019635
123	0xfb	-0.2006545
124	0xe2	-1.203927
125	0xec	-0.802618
126	0xf8	-0.32104722
127	0x0b	0.44143993
128	0x14	0.802618
129	0x09	0.36117813
130	0x00	0.0
131	0x1c	1.1236652
132	0xfd	-0.12039271
133	0x01	0.040130902
134	0x01	0.040130902
135	0xf7	-0.36117813
136	0xfa	-0.24078542
137	0xee	-0.72235626
138	0x04	0.16052361
139	0xed	-0.7624871
140	0x12	0.72235626
141	0xdf	-1.3243197
142	0x0a	0.401309
143	0x17	0.92301077
144	0xe9	-0.92301077
145	0x0a	0.401309
146	0x04	0.16052361
147	0xf6	-0.401309
148	0xfb	-0.2006545
149	0xf4	-0.48157084
150	0x00	0.0
151	0x00	0.0
152	0x01	0.040130902
153	0xfc	-0.16052361
154	0x17	0.92301077
155	0xf2	-0.5618326
156	0xf6	-0.401309
157	0xe8	-0.9631417
158	0x09	0.36117813
159	0x0f	0.6019635
160	0x37	2.2071996
161	0x14	0.802618
162	0xef	-0.68222535
163	0x00	0.0
164	0x12	0.72235626
165	0xfb	-0.2006545
166	0x04	0.16052361
167	0xda	-1.5249742
168	0xfa	-0.24078542
169	0x06	0.24078542
170	0xec	-0.802618
171	0x02	0.080261804
172	0xf6	-0.401309
173	0xee	-0.72235626
174	0xfc	-0.16052361
175	0x1c	1.1236652
176	0x13	0.7624871
177	0xf7	-0.36117813
178	0x1a	1.0434035
179	0x05	0.2006545
180	0x0c	0.48157084
181	0xe8	-0.9631417
182	0x0e	0.5618326
183	0xfe	-0.080261804
184	0x12	0.72235626
185	0x0c	0.48157084
186	0x19	1.0032725
187	0x03	0.12039271
188	0xf6	-0.401309
189	0x2e	1.8460215
190	0x06	0.24078542
191	0x0e	0.5618326
192	0xfa	-0.24078542
193	0xe3	-1.1637962
194	0xe7	-1.0032725
195	0x05	0.2006545
196	0xfa	-0.24078542
197	0x06	0.24078542
198	0xf4	-0.48157084
199	0xeb	-0.84274894
200	0xfd	-0.12039271
201	0xeb	-0.84274894
202	0xfc	-0.16052361
203	0x0d	0.52170175
204	0x1e	1.203927
205	0x04	0.16052361
206	0xf8	-0.32104722
207	0x0f	0.6019635
208	0xff	-0.040130902
209	0x02	0.080261804
210	0xfe	-0.080261804
211	0x07	0.2809163
212	0x12	0.72235626
213	0x11	0.68222535
214	0xe9	-0.92301077
215	0xd6	-1.6854979
216	0xde	-1.3644507
217	0xe4	-1.1236652
218	0xea	-0.88287985
219	0x04	0.16052361
220	0x1f	1.244058
221	0xea	-0.88287985
222	0xfa	-0.24078542
223	0x01	0.040130902
224	0x03	0.12039271
225	0x1b	1.0835344
226	0x02	0.080261804
227	0x1c	1.1236652
228	0x06	0.24078542
229	0x17	0.92301077
230	0xf3	-0.52170175
231	0xf5	-0.44143993
232	0xfa	-0.24078542
233	0xe4	-1.1236652
234	0xf0	-0.64209443
235	0x0d	0.52170175
236	0xf9	-0.2809163
237	0xec	-0.802618
238	0xf7	-0.36117813
239	0x1b	1.0835344
240	0xfd	-0.12039271
241	0x24	1.4447125
242	0x08	0.32104722
243	0xfc	-0.16052361
244	0x06	0.24078542
245	0x05	0.2006545
246	0xf4	-0.48157084
247	0xf6	-0.401309
248	0xe5	-1.0835344
249	0xfc	-0.16052361
250	0xed	-0.7624871
251	0x1c	1.1236652
252	0xda	-1.5249742
253	0x05	0.2006545
254	0x01	0.040130902
255	0x05	0.2006545

model/batch_normalization_4/batchnorm/mul_1 i1 [8, 128] scale=0.002350521 zero_point=0
0	0x00	0.0
1	0xfb	-0.011752605
2	0x07	0.016453648
3	0x03	0.007051563
4	0xea	-0.051711462
5	0x08	0.018804168
6	0x01	0.002350521
7	0xfc	-0.009402084
8	0x07	0.016453648
9	0xf8	-0.018804168
10	0x1d	0.06816511
11	0x01	0.002350521
12	0x02	0.004701042
13	0x07	0.016453648
14	0x0d	0.030556774
15	0xdd	-0.08226824
16	0x0c	0.028206252
17	0xff	-0.002350521
18	0xeb	-0.049360942
19	0xf8	-0.018804168
20	0xf3	-0.030556774
21	0x11	0.039958857
22	0x12	0.042309377
23	0x02	0.004701042
24	0xea	-0.051711462
25	0x08	0.018804168
26	0xff	-0.002350521
27	0xf8	-0.018804168
28	0x0b	0.025855731
29	0xff	-0.002350521
30	0x08	0.018804168
31	0x00	0.0
32	0x03	0.007051563
33	0xff	-0.002350521
34	0x0b	0.025855731
35	0xec	-0.04701042
36	0x1d	0.06816511
37	0xd9	-0.09167032
38	0xfc	-0.009402084
39	0x09	0.021154689
40	0x07	0.016453648
41	0xf2	-0.032907296
42	0xfe	-0.004701042
43	0x12	0.042309377
44	0x01	0.002350521
45	0x08	0.018804168
46	0x04	0.009402084
47	0xfe	-0.004701042
48	0xff	-0.002350521
49	0xfd	-0.007051563
50	0xf1	-0.035257816
51	0x06	0.014103126
52	0x0d	0.030556774
53	0xf7	-0.021154689
54	0xfe	-0.004701042
55	0xf6	-0.02350521
56	0x07	0.016453648
57	0x05	0.011752605
58	0xfb	-0.011752605
59	0xd4	-0.103422925
60	0x06	0.014103126
61	0xf8	-0.018804168
62	0xf2	-0.032907296
63	0xfc	-0.009402084
64	0x0a	0.02350521
65	0x21	0.0775672
66	0xfb	-0.011752605
67	0x01	0.002350521
68	0x39	0.1339797
69	0xfa	-0.014103126
70	0x01	0.002350521
71	0xf0	-0.037608337
72	0xf1	-0.035257816
73	0xed	-0.0446599
74	0x00	0.0
75	0xfa	-0.014103126
76	0xfd	-0.007051563
77	0x0f	0.035257816
78	0xd0	-0.112825006
79	0x0c	0.028206252
80	0xe5	-0.06346407
81	0xe6	-0.061113548
82	0xf0	-0.037608337
83	0x0f	0.035257816
84	0x00	0.0
85	0xf7	-0.021154689
86	0x03	0.007051563
87	0xfa	-0.014103126
88	0x08	0.018804168
89	0xf4	-0.028206252
90	0x08	0.018804168
91	0xef	-0.039958857
92	0x0a	0.02350521
93	0xf7	-0.021154689
94	0x02	0.004701042
95	0xf5	-0.025855731
96	0x19	0.058763027
97	0x01	0.002350521
98	0xf8	-0.018804168
99	0x04	0.009402084
100	0xf2	-0.032907296
101	0xff	-0.002350521
102	0xfb	-0.011752605
103	0xf6	-0.02350521
104	0x02	0.004701042
105	0x05	0.011752605
106	0x09	0.021154689
107	0x04	0.009402084
108	0xfb	-0.011752605
109	0xfe	-0.004701042
110	0xff	-0.002350521
111	0xfc	-0.009402084
112	0xfb	-0.011752605
113	0x0b	0.025855731
114	0xea	-0.051711462
115	0x10	0.037608337
116	0xdc	-0.084618755
117	0xfe	-0.004701042
118	0xe9	-0.054061983
119	0xf3	-0.030556774
120	0xfd	-0.007051563
121	0xfa	-0.014103126
122	0x03	0.007051563
123	0x15	0.049360942
124	0xf2	-0.032907296
125	0xfb	-0.011752605
126	0x0b	0.025855731
127	0x0e	0.032907296
128	0xfa	-0.014103126
129	0x05	0.011752605
130	0x0c	0.028206252
131	0xf6	-0.02350521
132	0x06	0.014103126
133	0x00	0.0
134	0xe7	-0.058763027
135	0x02	0.004701042
136	0xff	-0.002350521
137	0xfc	-0.009402084
138	0xf8	-0.018804168
139	0xee	-0.042309377
140	0x00	0.0
141	0x01	0.002350521
142	0x08	0.018804168
143	0xfe	-0.004701042
144	0xfd	-0.007051563
145	0xf2	-0.032907296
146	0xfe	-0.004701042
147	0x21	0.0775672
148	0xfe	-0.004701042
149	0x0e	0.032907296
150	0x07	0.016453648
151	0x05	0.011752605
152	0x01	0.002350521
153	0xfd	-0.007051563
154	0xf8	-0.018804168
155	0x01	0.002350521
156	0x08	0.018804168
157	0xff	-0.002350521
158	0xfd	-0.007051563
159	0xf9	-0.016453648
160	0x00	0.0
161	0xe8	-0.056412503
162	0xfd	-0.007051563
163	0x08	0.018804168
164	0x09	0.021154689
165	0x0a	0.02350521
166	0x20	0.07521667
167	0xff	-0.002350521
168	0xfd	-0.007051563
169	0xfb	-0.011752605
170	0x01	0.002350521
171	0xf9	-0.016453648
172	0xf9	-0.016453648
173	0x04	0.009402084
174	0x00	0.0
175	0xdd	-0.08226824
176	0xe6	-0.061113548
177	0xf7	-0.021154689
178	0xe3	-0.06816511
179	0xed	-0.0446599
180	0x09	0.021154689
181	0x0b	0.025855731
182	0xfa	-0.014103126
183	0xdc	-0.084618755
184	0x0a	0.02350521
185	0xf0	-0.037608337
186	0x05	0.011752605
187	0x07	0.016453648
188	0x00	0.0
189	0xfa	-0.014103126
190	0xf9	-0.016453648
191	0x03	0.007051563
192	0x03	0.007051563
193	0x09	0.021154689
194	0xf3	-0.030556774
195	0x0f	0.035257816
196	0xfb	-0.011752605
197	0xfc	-0.009402084
198	0x07	0.016453648
199	0xe5	-0.06346407
200	0xe5	-0.06346407
201	0x08	0.018804168
202	0xf4	-0.028206252
203	0x0b	0.025855731
204	0x05	0.011752605
205	0x05	0.011752605
206	0x02	0.004701042
207	0xff	-0.002350521
208	0xff	-0.002350521
209	0x09	0.021154689
210	0xfe	-0.004701042
211	0x22	0.079917714
212	0xea	-0.051711462
213	0x07	0.016453648
214	0x06	0.014103126
215	0x02	0.004701042
216	0x09	0.021154689
217	0xfd	-0.007051563
218	0xf8	-0.018804168
219	0xf9	-0.016453648
220	0xfc	-0.009402084
221	0xf9	-0.016453648
222	0xe5	-0.06346407
223	0xff	-0.002350521
224	0x0b	0.025855731
225	0xf7	-0.021154689
226	0xf8	-0.018804168
227	0x1d	0.06816511
228	0xf6	-0.02350521
229	0x01	0.002350521
230	0xe8	-0.056412503
231	0xf1	-0.035257816
232	0x00	0.0
233	0x05	0.011752605
234	0x04	0.009402084
235	0x03	0.007051563
236	0xee	-0.042309377
237	0xfd	-0.007051563
238	0xf9	-0.016453648
239	0x28	0.09402084
240	0xfa	-0.014103126
241	0x0e	0.032907296
242	0x02	0.004701042
243	0xf0	-0.037608337
244	0x07	0.016453648
245	0xff	-0.002350521
246	0xfd	-0.007051563
247	0x05	0.011752605
248	0xfe	-0.004701042
249	0xfe	-0.004701042
250	0x03	0.007051563
251	0xfb	-0.011752605
252	0x03	0.007051563
253	0xff	-0.002350521
254	0xf2	-0.032907296
255	0xf7	-0.021154689

model/batch_normalization_3/batchnorm/mul_1 i1 [128, 128] scale=0.055628445 zero_point=0
0	0xfe	-0.11125689
1	0xff	-0.055628445
2	0x0c	0.6675413
3	0xff	-0.055628445
4	0x03	0.16688533
5	0xfc	-0.22251378
6	0x09	0.500656
7	0xfd	-0.16688533
8	0x01	0.055628445
9	0xfd	-0.16688533
10	0x05	0.2781422
11	0x06	0.33377066
12	0x02	0.11125689
13	0xfd	-0.16688533
14	0xfc	-0.22251378
15	0xff	-0.055628445
16	0xfa	-0.33377066
17	0x03	0.16688533
18	0xfa	-0.33377066
19	0x01	0.055628445
20	0x03	0.16688533
21	0x05	0.2781422
22	0x01	0.055628445
23	0xfb	-0.2781422
24	0x01	0.055628445
25	0x03	0.16688533
26	0xfc	-0.22251378
27	0x02	0.11125689
28	0xf9	-0.3893991
29	0xfe	-0.11125689
30	0x01	0.055628445
31	0xfa	-0.33377066
32	0xfd	-0.16688533
33	0x00	0.0
34	0xfa	-0.33377066
35	0xff	-0.055628445
36	0x01	0.055628445
37	0x01	0.055628445
38	0xff	-0.055628445
39	0xfb	-0.2781422
40	0x08	0.44502756
41	0xfd	-0.16688533
42	0x04	0.22251378
43	0xfd	-0.16688533
44	0xff	-0.055628445
45	0xfa	-0.33377066
46	0xfd	-0.16688533
47	0xff	-0.055628445
48	0x01	0.055628445
49	0xff	-0.055628445
50	0xff	-0.055628445
51	0x00	0.0
52	0xfe	-0.11125689
53	0x00	0.0
54	0xfd	-0.16688533
55	0x00	0.0
56	0xfb	-0.2781422
57	0xf7	-0.500656
58	0x01	0.055628445
59	0xff	-0.055628445
60	0x00	0.0
61	0x01	0.055628445
62	0x05	0.2781422
63	0xfe	-0.11125689
64	0xff	-0.055628445
65	0xf9	-0.3893991
66	0xfe	-0.11125689
67	0xfe	-0.11125689
68	0xfe	-0.11125689
69	0xff	-0.055628445
70	0xff	-0.055628445
71	0x03	0.16688533
72	0x00	0.0
73	0x00	0.0
74	0xfd	-0.16688533
75	0x01	0.055628445
76	0x03	0.16688533
77	0xfe	-0.11125689
78	0xfd	-0.16688533
79	0xff	-0.055628445
80	0x00	0.0
81	0xfd	-0.16688533
82	0x06	0.33377066
83	0x02	0.11125689
84	0xfb	-0.2781422
85	0x03	0.16688533
86	0x01	0.055628445
87	0xf7	-0.500656
88	0xfd	-0.16688533
89	0xff	-0.055628445
90	0x01	0.055628445
91	0xff	-0.055628445
92	0xfb	-0.2781422
93	0x07	0.3893991
94	0xfb	-0.2781422
95	0x04	0.22251378
96	0x00	0.0
97	0x01	0.055628445
98	0x04	0.22251378
99	0xff	-0.055628445
100	0x01	0.055628445
101	0x01	0.055628445
102	0x02	0.11125689
103	0x00	0.0
104	0xf9	-0.3893991
105	0x00	0.0
106	0xfe	-0.11125689
107	0x00	0.0
108	0x01	0.055628445
109	0xff	-0.055628445
110	0xff	-0.055628445
111	0x00	0.0
112	0x01	0.055628445
113	0x04	0.22251378
114	0x05	0.2781422
115	0xfe	-0.11125689
116	0x00	0.0
117	0x02	0.11125689
118	0x00	0.0
119	0xfd	-0.16688533
120	0x01	0.055628445
121	0x02	0.11125689
122	0x02	0.11125689
123	0xfe	-0.11125689
124	0xfc	-0.22251378
125	0x02	0.11125689
126	0xfb	-0.2781422
127	0xff	-0.055628445
128	0x03	0.16688533
129	0xfe	-0.11125689
130	0x04	0.22251378
131	0xfb	-0.2781422
132	0x03	0.16688533
133	0xfe	-0.11125689
134	0xfd	-0.16688533
135	0x02	0.11125689
136	0x03	0.16688533
137	0xfb	-0.2781422
138	0x03	0.16688533
139	0x03	0.16688533
140	0x04	0.22251378
141	0xfb	-0.2781422
142	0x01	0.055628445
143	0x04	0.22251378
144	0xfe	-0.11125689
145	0x03	0.16688533
146	0x01	0.055628445
147	0x02	0.11125689
148	0x03	0.16688533
149	0xfd	-0.16688533
150	0xfb	-0.2781422
151	0xff	-0.055628445
152	0x04	0.22251378
153	0xfd	-0.16688533
154	0xfd	-0.16688533
155	0x05	0.2781422
156	0xfe	-0.11125689
157	0xfd	-0.16688533
158	0xff	-0.055628445
159	0xff	-0.055628445
160	0xff	-0.055628445
161	0x00	0.0
162	0xff	-0.055628445
163	0x01	0.055628445
164	0x04	0.22251378
165	0x04	0.22251378
166	0xfd	-0.16688533
167	0xff	-0.055628445
168	0xf8	-0.44502756
169	0xfc	-0.22251378
170	0x00	0.0
171	0xfe	-0.11125689
172	0xfd	-0.16688533
173	0xff	-0.055628445
174	0xfd	-0.16688533
175	0x03	0.16688533
176	0x03	0.16688533
177	0x03	0.16688533
178	0xff	-0.055628445
179	0x02	0.11125689
180	0x03	0.16688533
181	0x01	0.055628445
182	0x02	0.11125689
183	0xff	-0.055628445
184	0x01	0.055628445
185	0x0c	0.6675413
186	0x02	0.11125689
187	0x01	0.055628445
188	0x05	0.2781422
189	0xfd	-0.16688533
190	0xfc	-0.22251378
191	0xff	-0.055628445
192	0xff	-0.055628445
193	0x02	0.11125689
194	0x05	0.2781422
195	0x01	0.055628445
196	0xfe	-0.11125689
197	0xff	-0.055628445
198	0x00	0.0
199	0x02	0.11125689
200	0x00	0.0
201	0xfb	-0.2781422
202	0xfc	-0.22251378
203	0x05	0.2781422
204	0xfe	-0.11125689
205	0x00	0.0
206	0xfe	-0.11125689
207	0x02	0.11125689
208	0x03	0.16688533
209	0xfe	-0.11125689
210	0x01	0.055628445
211	0x02	0.11125689
212	0xff	-0.055628445
213	0xf8	-0.44502756
214	0xfc	-0.22251378
215	0xff	-0.055628445
216	0xfa	-0.33377066
217	0x06	0.33377066
218	0x04	0.22251378
219	0x04	0.22251378
220	0xfe	-0.11125689
221	0x07	0.3893991
222	0xfe	-0.11125689
223	0xfd	-0.16688533
224	0x04	0.22251378
225	0xfa	-0.33377066
226	0x03	0.16688533
227	0xf8	-0.44502756
228	0xff	-0.055628445
229	0xef	-0.94568354
230	0x05	0.2781422
231	0x05	0.2781422
232	0xff	-0.055628445
233	0x02	0.11125689
234	0x01	0.055628445
235	0x06	0.33377066
236	0xfe	-0.11125689
237	0xff	-0.055628445
238	0xff	-0.055628445
239	0x00	0.0
240	0xfd	-0.16688533
241	0x03	0.16688533
242	0xf8	-0.44502756
243	0x03	0.16688533
244	0xfd	-0.16688533
245	0xfc	-0.22251378
246	0xfe	-0.11125689
247	0x00	0.0
248	0x06	0.33377066
249	0x02	0.11125689
250	0x09	0.500656
251	0xfc	-0.22251378
252	0x03	0.16688533
253	0xfc	-0.22251378
254	0xff	-0.055628445
255	0x01	0.055628445

model/batch_normalization_2/batchnorm/mul_1 i1 [128, 128] scale=0.027266502 zero_point=0
0	0xfe	-0.054533005
1	0x01	0.027266502
2	0x00	0.0
3	0xfe	-0.054533005
4	0x03	0.08179951
5	0x00	0.0
6	0xff	-0.027266502
7	0x01	0.027266502
8	0xff	-0.027266502
9	0x02	0.054533005
10	0x00	0.0
11	0xff	-0.027266502
12	0xfe	-0.054533005
13	0x02	0.054533005
14	0x00	0.0
15	0x04	0.10906601
16	0x02	0.054533005
17	0xff	-0.027266502
18	0xfe	-0.054533005
19	0x01	0.027266502
20	0x01	0.027266502
21	0x02	0.054533005
22	0x02	0.054533005
23	0x01	0.027266502
24	0x00	0.0
25	0x01	0.027266502
26	0x01	0.027266502
27	0x00	0.0
28	0x00	0.0
29	0x04	0.10906601
30	0xfe	-0.054533005
31	0xff	-0.027266502
32	0xfc	-0.10906601
33	0xfe	-0.054533005
34	0x02	0.054533005
35	0x01	0.027266502
36	0x01	0.027266502
37	0x01	0.027266502
38	0x01	0.027266502
39	0xff	-0.027266502
40	0xfe	-0.054533005
41	0x02	0.054533005
42	0x01	0.027266502
43	0x01	0.027266502
44	0xfe	-0.054533005
45	0xfe	-0.054533005
46	0xfe	-0.054533005
47	0x00	0.0
48	0xff	-0.027266502
49	0xfd	-0.08179951
50	0xfd	-0.08179951
51	0xff	-0.027266502
52	0xfd	-0.08179951
53	0xfc	-0.10906601
54	0xfe	-0.054533005
55	0x00	0.0
56	0x00	0.0
57	0xe4	-0.76346207
58	0xff	-0.027266502
59	0x01	0.027266502
60	0x00	0.0
61	0xf7	-0.24539852
62	0x03	0.08179951
63	0x01	0.027266502
64	0xfe	-0.054533005
65	0x01	0.027266502
66	0x01	0.027266502
67	0xff	-0.027266502
68	0x04	0.10906601
69	0x02	0.054533005
70	0x01	0.027266502
71	0xfc	-0.10906601
72	0xff	-0.027266502
73	0xfc	-0.10906601
74	0xff	-0.027266502
75	0x00	0.0
76	0x00	0.0
77	0x00	0.0
78	0x02	0.054533005
79	0xfd	-0.08179951
80	0x01	0.027266502
81	0x02	0.054533005
82	0x01	0.027266502
83	0xff	-0.027266502
84	0xff	-0.027266502
85	0x03	0.08179951
86	0xff	-0.027266502
87	0xfe	-0.054533005
88	0x02	0.054533005
89	0x02	0.054533005
90	0x00	0.0
91	0x01	0.027266502
92	0xfe	-0.054533005
93	0xfe	-0.054533005
94	0xff	-0.027266502
95	0xff	-0.027266502
96	0x00	0.0
97	0x00	0.0
98	0x00	0.0
99	0x02	0.054533005
100	0x02	0.054533005
101	0x00	0.0
102	0x00	0.0
103	0x00	0.0
104	0x00	0.0
105	0x03	0.08179951
106	0xff	-0.027266502
107	0x01	0.027266502
108	0xfe	-0.054533005
109	0x00	0.0
110	0x02	0.054533005
111	0x00	0.0
112	0xff	-0.027266502
113	0xfd	-0.08179951
114	0x02	0.054533005
115	0x00	0.0
116	0x01	0.027266502
117	0x00	0.0
118	0x00	0.0
119	0x01	0.027266502
120	0x00	0.0
121	0x01	0.027266502
122	0xfe	-0.054533005
123	0x01	0.027266502
124	0xfe	-0.054533005
125	0x01	0.027266502
126	0xff	-0.027266502
127	0xff	-0.027266502
128	0x06	0.16359901
129	0xfd	-0.08179951
130	0x01	0.027266502
131	0xff	-0.027266502
132	0xfa	-0.16359901
133	0xfb	-0.13633251
134	0x04	0.10906601
135	0xfd	-0.08179951
136	0xfe	-0.054533005
137	0xfa	-0.16359901
138	0x08	0.21813202
139	0x04	0.10906601
140	0x05	0.13633251
141	0x00	0.0
142	0xff	-0.027266502
143	0xfb	-0.13633251
144	0x03	0.08179951
145	0x05	0.13633251
146	0x02	0.054533005
147	0xff	-0.027266502
148	0x02	0.054533005
149	0x03	0.08179951
150	0x07	0.19086552
151	0xd7	-1.1179266
152	0x02	0.054533005
153	0xfa	-0.16359901
154	0x04	0.10906601
155	0x02	0.054533005
156	0x08	0.21813202
157	0x03	0.08179951
158	0x00	0.0
159	0xf3	-0.35446453
160	0xfd	-0.08179951
161	0xff	-0.027266502
162	0x02	0.054533005
163	0x05	0.13633251
164	0x06	0.16359901
165	0xff	-0.027266502
166	0xf8	-0.21813202
167	0x04	0.10906601
168	0x00	0.0
169	0xfa	-0.16359901
170	0xfb	-0.13633251
171	0xf9	-0.19086552
172	0x01	0.027266502
173	0xff	-0.027266502
174	0x02	0.054533005
175	0x04	0.10906601
176	0xf9	-0.19086552
177	0xf9	-0.19086552
178	0x02	0.054533005
179	0xfd	-0.08179951
180	0xf7	-0.24539852
181	0xfb	-0.13633251
182	0x04	0.10906601
183	0x0b	0.29993153
184	0xfa	-0.16359901
185	0x01	0.027266502
186	0xf1	-0.40899754
187	0xff	-0.027266502
188	0xfc	-0.10906601
189	0x02	0.054533005
190	0xfb	-0.13633251
191	0x00	0.0
192	0xfb	-0.13633251
193	0xfb	-0.13633251
194	0xfd	-0.08179951
195	0xfb	-0.13633251
196	0x00	0.0
197	0x00	0.0
198	0xf9	-0.19086552
199	0x05	0.13633251
200	0xf9	-0.19086552
201	0xf8	-0.21813202
202	0x01	0.027266502
203	0xe4	-0.76346207
204	0xfe	-0.054533005
205	0x04	0.10906601
206	0xf6	-0.27266502
207	0x06	0.16359901
208	0x05	0.13633251
209	0x08	0.21813202
210	0x03	0.08179951
211	0xfb	-0.13633251
212	0xff	-0.027266502
213	0x05	0.13633251
214	0xfc	-0.10906601
215	0xfd	-0.08179951
216	0xfe	-0.054533005
217	0xfe	-0.054533005
218	0x00	0.0
219	0xf9	-0.19086552
220	0xfe	-0.054533005
221	0x02	0.054533005
222	0xf8	-0.21813202
223	0x04	0.10906601
224	0xff	-0.027266502
225	0xf9	-0.19086552
226	0x00	0.0
227	0x01	0.027266502
228	0x04	0.10906601
229	0x00	0.0
230	0xff	-0.027266502
231	0xff	-0.027266502
232	0xff	-0.027266502
233	0x0a	0.27266502
234	0x0b	0.29993153
235	0x00	0.0
236	0xff	-0.027266502
237	0x02	0.054533005
238	0x07	0.19086552
239	0x00	0.0
240	0x01	0.027266502
241	0x07	0.19086552
242	0x08	0.21813202
243	0x00	0.0
244	0xf9	-0.19086552
245	0xfe	-0.054533005
246	0x06	0.16359901
247	0x05	0.13633251
248	0x05	0.13633251
249	0xf8	-0.21813202
250	0x06	0.16359901
251	0xfe	-0.054533005
252	0x01	0.027266502
253	0xff	-0.027266502
254	0x09	0.24539852
255	0xfb	-0.13633251

model/batch_normalization_1/batchnorm/mul_1 i1 [128, 128] scale=0.013582319 zero_point=0
0	0x03	0.040746957
1	0xe9	-0.31239334
2	0x06	0.081493914
3	0x03	0.040746957
4	0xf0	-0.2173171
5	0x04	0.054329276
6	0xfa	-0.081493914
7	0x06	0.081493914
8	0x00	0.0
9	0xfd	-0.040746957
10	0xfc	-0.054329276
11	0xf5	-0.14940551
12	0xf7	-0.12224087
13	0xf8	-0.10865855
14	0xf8	-0.10865855
15	0xfa	-0.081493914
16	0x1b	0.3667226
17	0xe9	-0.31239334
18	0x01	0.013582319
19	0x08	0.10865855
20	0x08	0.10865855
21	0xf6	-0.13582319
22	0xfd	-0.040746957
23	0xf2	-0.19015247
24	0x02	0.027164638
25	0x00	0.0
26	0xfb	-0.067911595
27	0x05	0.067911595
28	0x01	0.013582319
29	0x09	0.12224087
30	0x13	0.25806406
31	0x02	0.027164638
32	0x03	0.040746957
33	0x04	0.054329276
34	0x02	0.027164638
35	0x10	0.2173171
36	0xf0	-0.2173171
37	0x03	0.040746957
38	0xf5	-0.14940551
39	0x00	0.0
40	0xff	-0.013582319
41	0xfa	-0.081493914
42	0x01	0.013582319
43	0xfa	-0.081493914
44	0x01	0.013582319
45	0xec	-0.27164638
46	0xf4	-0.16298783
47	0x00	0.0
48	0x0e	0.19015247
49	0xfe	-0.027164638
50	0xfe	-0.027164638
51	0x07	0.09507623
52	0xff	-0.013582319
53	0xfd	-0.040746957
54	0x03	0.040746957
55	0x04	0.054329276
56	0xfc	-0.054329276
57	0x14	0.27164638
58	0xf9	-0.09507623
59	0x01	0.013582319
60	0xfc	-0.054329276
61	0x2a	0.5704574
62	0xf8	-0.10865855
63	0x03	0.040746957
64	0x06	0.081493914
65	0x01	0.013582319
66	0xf8	-0.10865855
67	0x02	0.027164638
68	0xf2	-0.19015247
69	0xfd	-0.040746957
70	0xfc	-0.054329276
71	0x06	0.081493914
72	0x01	0.013582319
73	0xf9	-0.09507623
74	0x05	0.067911595
75	0x01	0.013582319
76	0x08	0.10865855
77	0x00	0.0
78	0xf6	-0.13582319
79	0x02	0.027164638
80	0x0b	0.14940551
81	0x0b	0.14940551
82	0x05	0.067911595
83	0xff	-0.013582319
84	0x05	0.067911595
85	0x0b	0.14940551
86	0x04	0.054329276
87	0x06	0.081493914
88	0xf9	-0.09507623
89	0x01	0.013582319
90	0xff	-0.013582319
91	0x0e	0.19015247
92	0x18	0.32597566
93	0x14	0.27164638
94	0x0a	0.13582319
95	0x02	0.027164638
96	0xf5	-0.14940551
97	0x0a	0.13582319
98	0x05	0.067911595
99	0x04	0.054329276
100	0x01	0.013582319
101	0x0b	0.14940551
102	0x03	0.040746957
103	0x03	0.040746957
104	0xfd	-0.040746957
105	0xfc	-0.054329276
106	0xf5	-0.14940551
107	0xf4	-0.16298783
108	0x09	0.12224087
109	0x01	0.013582319
110	0x20	0.4346342
111	0xf9	-0.09507623
112	0x0a	0.13582319
113	0xf3	-0.17657015
114	0xfd	-0.040746957
115	0xf9	-0.09507623
116	0x0c	0.16298783
117	0x07	0.09507623
118	0x02	0.027164638
119	0xf9	-0.09507623
120	0xf4	-0.16298783
121	0xe8	-0.32597566
122	0xf6	-0.13582319
123	0x01	0.013582319
124	0xfc	-0.054329276
125	0xfe	-0.027164638
126	0xfb	-0.067911595
127	0x18	0.32597566
128	0x01	0.013582319
129	0xfc	-0.054329276
130	0x05	0.067911595
131	0xff	-0.013582319
132	0xfa	-0.081493914
133	0x12	0.24448174
134	0x04	0.054329276
135	0x00	0.0
136	0xfb	-0.067911595
137	0x08	0.10865855
138	0x0b	0.14940551
139	0xfe	-0.027164638
140	0xf9	-0.09507623
141	0xfc	-0.054329276
142	0xfd	-0.040746957
143	0x03	0.040746957
144	0x0c	0.16298783
145	0x0d	0.17657015
146	0x03	0.040746957
147	0x03	0.040746957
148	0x00	0.0
149	0x02	0.027164638
150	0xf8	-0.10865855
151	0xfd	-0.040746957
152	0x10	0.2173171
153	0x07	0.09507623
154	0xfe	-0.027164638
155	0x08	0.10865855
156	0x13	0.25806406
157	0x02	0.027164638
158	0x0a	0.13582319
159	0xf7	-0.12224087
160	0xfe	-0.027164638
161	0x00	0.0
162	0xff	-0.013582319
163	0x07	0.09507623
164	0x08	0.10865855
165	0xfc	-0.054329276
166	0xfd	-0.040746957
167	0xfc	-0.054329276
168	0x03	0.040746957
169	0xff	-0.013582319
170	0xfc	-0.054329276
171	0x02	0.027164638
172	0x0f	0.20373479
173	0xfe	-0.027164638
174	0x01	0.013582319
175	0x03	0.040746957
176	0x01	0.013582319
177	0x05	0.067911595
178	0x01	0.013582319
179	0xfd	-0.040746957
180	0xfe	-0.027164638
181	0xff	-0.013582319
182	0xff	-0.013582319
183	0xff	-0.013582319
184	0xff	-0.013582319
185	0xfd	-0.040746957
186	0x06	0.081493914
187	0x00	0.0
188	0x07	0.09507623
189	0x01	0.013582319
190	0x0e	0.19015247
191	0x02	0.027164638
192	0x08	0.10865855
193	0xfe	-0.027164638
194	0x05	0.067911595
195	0xfa	-0.081493914
196	0x01	0.013582319
197	0x01	0.013582319
198	0xfc	-0.054329276
199	0xff	-0.013582319
200	0xfd	-0.040746957
201	0x00	0.0
202	0xfd	-0.040746957
203	0xfb	-0.067911595
204	0x00	0.0
205	0x00	0.0
206	0x07	0.09507623
207	0x01	0.013582319
208	0x08	0.10865855
209	0x06	0.081493914
210	0x05	0.067911595
211	0x01	0.013582319
212	0x03	0.040746957
213	0xfd	-0.040746957
214	0x00	0.0
215	0xfc	-0.054329276
216	0xfb	-0.067911595
217	0x08	0.10865855
218	0x01	0.013582319
219	0xff	-0.013582319
220	0xfb	-0.067911595
221	0xf8	-0.10865855
222	0xfc	-0.054329276
223	0x06	0.081493914
224	0xff	-0.013582319
225	0xf9	-0.09507623
226	0x00	0.0
227	0xfb	-0.067911595
228	0x01	0.013582319
229	0x03	0.040746957
230	0x09	0.12224087
231	0xfc	-0.054329276
232	0x03	0.040746957
233	0xf9	-0.09507623
234	0xf9	-0.09507623
235	0xfb	-0.067911595
236	0xff	-0.013582319
237	0xfd	-0.040746957
238	0x02	0.027164638
239	0x04	0.054329276
240	0xfe	-0.027164638
241	0x01	0.013582319
242	0x03	0.040746957
243	0x03	0.040746957
244	0x02	0.027164638
245	0x05	0.067911595
246	0x0e	0.19015247
247	0x01	0.013582319
248	0xff	-0.013582319
249	0xfb	-0.067911595
250	0xfe	-0.027164638
251	0x01	0.013582319
252	0x09	0.12224087
253	0x02	0.027164638
254	0xfa	-0.081493914
255	0x06	0.081493914
