models/autoencoder/float_fallback_quantization/model_gearbox.tflite (tflite, 278056 bytes, 10 tensors)

model/dense_9/MatMul i1 [640, 128] scale=0.021901457 zero_point=0
0	0xeb	-0.4599306
1	0xe3	-0.63514227
2	0x03	0.06570437
3	0x28	0.8760583
4	0xfa	-0.13140874
5	0xf0	-0.3504233
6	0xf4	-0.26281747
7	0x03	0.06570437
8	0xe7	-0.54753643
9	0x20	0.7008466
10	0xfe	-0.043802913
11	0x29	0.8979597
12	0xda	-0.83225536
13	0xff	-0.021901457
14	0x13	0.41612768
15	0xe9	-0.5037335
16	0xee	-0.39422622
17	0x14	0.43802914
18	0xef	-0.37232476
19	0xf8	-0.17521165
20	0xda	-0.83225536
21	0xf5	-0.24091603
22	0xd5	-0.9417626
23	0xfe	-0.043802913
24	0x2e	1.007467
25	0xf9	-0.1533102
26	0xfa	-0.13140874
27	0xe7	-0.54753643
28	0xff	-0.021901457
29	0x02	0.043802913
30	0xf8	-0.17521165
31	0xea	-0.48183206
32	0x07	0.1533102
33	0xed	-0.41612768
34	0x05	0.109507285
35	0x0d	0.28471893
36	0x0c	0.26281747
37	0xf1	-0.32852185
38	0xf7	-0.19711311
39	0xef	-0.37232476
40	0xdd	-0.76655096
41	0xf9	-0.1533102
42	0xf6	-0.21901457
43	0xee	-0.39422622
44	0x12	0.39422622
45	0xf7	-0.19711311
46	0xee	-0.39422622
47	0x06	0.13140874
48	0x0d	0.28471893
49	0x12	0.39422622
50	0xfe	-0.043802913
51	0xde	-0.7446495
52	0x08	0.17521165
53	0xf0	-0.3504233
54	0x15	0.4599306
55	0xe4	-0.6132408
56	0xfa	-0.13140874
57	0x02	0.043802913
58	0x09	0.19711311
59	0x0a	0.21901457
60	0x12	0.39422622
61	0xff	-0.021901457
62	0x00	0.0
63	0x0b	0.24091603
64	0xff	-0.021901457
65	0xed	-0.41612768
66	0xf7	-0.19711311
67	0xdc	-0.78845245
68	0x23	0.76655096
69	0xfe	-0.043802913
70	0xee	-0.39422622
71	0xf6	-0.21901457
72	0xee	-0.39422622
73	0xef	-0.37232476
74	0xf0	-0.3504233
75	0xf2	-0.3066204
76	0x14	0.43802914
77	0xf7	-0.19711311
78	0xf0	-0.3504233
79	0xf3	-0.28471893
80	0xe9	-0.5037335
81	0xd5	-0.9417626
82	0xfd	-0.06570437
83	0xf4	-0.26281747
84	0x06	0.13140874
85	0x05	0.109507285
86	0xf6	-0.21901457
87	0xe9	-0.5037335
88	0xe8	-0.52563494
89	0x1b	0.59133935
90	0xe9	-0.5037335
91	0x13	0.41612768
92	0xec	-0.43802914
93	0x03	0.06570437
94	0xee	-0.39422622
95	0xf5	-0.24091603
96	0x01	0.021901457
97	0x04	0.08760583
98	0xf6	-0.21901457
99	0xf7	-0.19711311
100	0xf3	-0.28471893
101	0xff	-0.021901457
102	0xe9	-0.5037335
103	0x0b	0.24091603
104	0x05	0.109507285
105	0xf8	-0.17521165
106	0x05	0.109507285
107	0xf9	-0.1533102
108	0x21	0.72274804
109	0xfc	-0.08760583
110	0x02	0.043802913
111	0xff	-0.021901457
112	0xf2	-0.3066204
113	0xf8	-0.17521165
114	0xe0	-0.7008466
115	0xea	-0.48183206
116	0x10	0.3504233
117	0x08	0.17521165
118	0x11	0.37232476
119	0xf8	-0.17521165
120	0xe0	-0.7008466
121	0x0d	0.28471893
122	0xd4	-0.9636641
123	0x16	0.48183206
124	0x19	0.54753643
125	0xf0	-0.3504233
126	0x11	0.37232476
127	0xfb	-0.109507285
128	0xf4	-0.26281747
129	0xee	-0.39422622
130	0x09	0.19711311
131	0x2a	0.9198612
132	0xf3	-0.28471893
133	0xd9	-0.8541568
134	0xf4	-0.26281747
135	0xf8	-0.17521165
136	0xe7	-0.54753643
137	0x16	0.48183206
138	0xef	-0.37232476
139	0x23	0.76655096
140	0xe5	-0.59133935
141	0x09	0.19711311
142	0x10	0.3504233
143	0xeb	-0.4599306
144	0xeb	-0.4599306
145	0x00	0.0
146	0xea	-0.48183206
147	0xfd	-0.06570437
148	0xef	-0.37232476
149	0xf7	-0.19711311
150	0xe5	-0.59133935
151	0xfd	-0.06570437
152	0x17	0.5037335
153	0x05	0.109507285
154	0xff	-0.021901457
155	0xe9	-0.5037335
156	0xf8	-0.17521165
157	0x01	0.021901457
158	0x07	0.1533102
159	0xfa	-0.13140874
160	0x03	0.06570437
161	0xf0	-0.3504233
162	0x01	0.021901457
163	0x18	0.52563494
164	0xf3	-0.28471893
165	0xe6	-0.56943786
166	0xf6	-0.21901457
167	0xf1	-0.32852185
168	0xd1	-1.0293685
169	0xf7	-0.19711311
170	0x03	0.06570437
171	0xf2	-0.3066204
172	0x05	0.109507285
173	0x02	0.043802913
174	0xf5	-0.24091603
175	0x05	0.109507285
176	0x0b	0.24091603
177	0x43	1.4673976
178	0xf2	-0.3066204
179	0x09	0.19711311
180	0x13	0.41612768
181	0xe9	-0.5037335
182	0x10	0.3504233
183	0xe2	-0.6570437
184	0x05	0.109507285
185	0xfb	-0.109507285
186	0x08	0.17521165
187	0x30	1.0512699
188	0x20	0.7008466
189	0x09	0.19711311
190	0xf7	-0.19711311
191	0x02	0.043802913
192	0xfa	-0.13140874
193	0x01	0.021901457
194	0xf4	-0.26281747
195	0x02	0.043802913
196	0x3c	1.3140874
197	0x08	0.17521165
198	0xeb	-0.4599306
199	0x02	0.043802913
200	0xec	-0.43802914
201	0xe7	-0.54753643
202	0xf3	-0.28471893
203	0xf6	-0.21901457
204	0x08	0.17521165
205	0xfa	-0.13140874
206	0xf8	-0.17521165
207	0xe8	-0.52563494
208	0xf9	-0.1533102
209	0xeb	-0.4599306
210	0x06	0.13140874
211	0xf7	-0.19711311
212	0x0a	0.21901457
213	0x1b	0.59133935
214	0x0b	0.24091603
215	0xf4	-0.26281747
216	0xfb	-0.109507285
217	0x17	0.5037335
218	0xed	-0.41612768
219	0x07	0.1533102
220	0xf3	-0.28471893
221	0x03	0.06570437
222	0x05	0.109507285
223	0x05	0.109507285
224	0xf4	-0.26281747
225	0x0a	0.21901457
226	0x06	0.13140874
227	0xf8	-0.17521165
228	0x06	0.13140874
229	0x02	0.043802913
230	0xe3	-0.63514227
231	0xe6	-0.56943786
232	0x09	0.19711311
233	0xe8	-0.52563494
234	0x07	0.1533102
235	0x07	0.1533102
236	0x0f	0.32852185
237	0x07	0.1533102
238	0x04	0.08760583
239	0xfb	-0.109507285
240	0xfd	-0.06570437
241	0xfe	-0.043802913
242	0xf7	-0.19711311
243	0xd5	-0.9417626
244	0xed	-0.41612768
245	0x00	0.0
246	0x1f	0.6789452
247	0xff	-0.021901457
248	0xdb	-0.8103539
249	0x16	0.48183206
250	0xdc	-0.78845245
251	0x02	0.043802913
252	0x03	0.06570437
253	0xf5	-0.24091603
254	0x04	0.08760583
255	0xfd	-0.06570437

model/batch_normalization_8/batchnorm/mul_1 i1 [128, 128] scale=0.011236358 zero_point=0
0	0x0b	0.12359995
1	0x14	0.22472717
2	0x0b	0.12359995
3	0x13	0.21349081
4	0x0c	0.1348363
5	0xff	-0.011236358
6	0xef	-0.19101809
7	0xf3	-0.14607266
8	0x03	0.033709075
9	0xf1	-0.16854538
10	0xec	-0.22472717
11	0x00	0.0
12	0x09	0.10112722
13	0xf8	-0.08989087
14	0xf5	-0.12359995
15	0xed	-0.21349081
16	0x08	0.08989087
17	0x11	0.19101809
18	0xf1	-0.16854538
19	0x02	0.022472717
20	0x26	0.42698163
21	0xf6	-0.112363584
22	0x14	0.22472717
23	0x0b	0.12359995
24	0xf5	-0.12359995
25	0x07	0.07865451
26	0x02	0.022472717
27	0xf6	-0.112363584
28	0x0d	0.14607266
29	0xfb	-0.056181792
30	0xf8	-0.08989087
31	0x17	0.25843623
32	0xf9	-0.07865451
33	0xeb	-0.23596352
34	0x0a	0.112363584
35	0xed	-0.21349081
36	0xf5	-0.12359995
37	0x18	0.2696726
38	0xeb	-0.23596352
39	0xfa	-0.06741815
40	0xe9	-0.25843623
41	0xe7	-0.28090897
42	0xe6	-0.2921453
43	0x0e	0.15730903
44	0x0e	0.15730903
45	0x01	0.011236358
46	0xf1	-0.16854538
47	0x05	0.056181792
48	0xf7	-0.10112722
49	0xed	-0.21349081
50	0xf1	-0.16854538
51	0x17	0.25843623
52	0x1e	0.33709076
53	0xf6	-0.112363584
54	0x0f	0.16854538
55	0xf8	-0.08989087
56	0xf0	-0.17978173
57	0xfd	-0.033709075
58	0xeb	-0.23596352
59	0xf5	-0.12359995
60	0x0b	0.12359995
61	0xef	-0.19101809
62	0xf6	-0.112363584
63	0x12	0.20225444
64	0xea	-0.2471999
65	0xf8	-0.08989087
66	0xe7	-0.28090897
67	0x0c	0.1348363
68	0x11	0.19101809
69	0x0d	0.14607266
70	0xdc	-0.4045089
71	0xf2	-0.15730903
72	0xf1	-0.16854538
73	0xf6	-0.112363584
74	0xf1	-0.16854538
75	0x02	0.022472717
76	0xfb	-0.056181792
77	0x00	0.0
78	0x09	0.10112722
79	0xee	-0.20225444
80	0x07	0.07865451
81	0xea	-0.2471999
82	0xe7	-0.28090897
83	0x0d	0.14607266
84	0x12	0.20225444
85	0xe8	-0.2696726
86	0x10	0.17978173
87	0xfc	-0.044945434
88	0xf1	-0.16854538
89	0xf0	-0.17978173
90	0x17	0.25843623
91	0x0c	0.1348363
92	0xfe	-0.022472717
93	0x07	0.07865451
94	0x04	0.044945434
95	0x06	0.06741815
96	0xf6	-0.112363584
97	0xf9	-0.07865451
98	0xf6	-0.112363584
99	0xfa	-0.06741815
100	0x0e	0.15730903
101	0x02	0.022472717
102	0xf7	-0.10112722
103	0xf1	-0.16854538
104	0x0a	0.112363584
105	0xf9	-0.07865451
106	0xf5	-0.12359995
107	0xea	-0.2471999
108	0xfc	-0.044945434
109	0xed	-0.21349081
110	0xfd	-0.033709075
111	0xf7	-0.10112722
112	0x0b	0.12359995
113	0x16	0.2471999
114	0xf9	-0.07865451
115	0x03	0.033709075
116	0x0b	0.12359995
117	0xec	-0.22472717
118	0x07	0.07865451
119	0xf8	-0.08989087
120	0xec	-0.22472717
121	0xeb	-0.23596352
122	0xf3	-0.14607266
123	0xe3	-0.3258544
124	0x07	0.07865451
125	0x05	0.056181792
126	0x04	0.044945434
127	0xf3	-0.14607266
128	0xf4	-0.1348363
129	0x00	0.0
130	0x21	0.37079984
131	0x00	0.0
132	0x18	0.2696726
133	0x0a	0.112363584
134	0xf6	-0.112363584
135	0xfd	-0.033709075
136	0xea	-0.2471999
137	0xf7	-0.10112722
138	0x11	0.19101809
139	0xf3	-0.14607266
140	0xfc	-0.044945434
141	0xef	-0.19101809
142	0x4b	0.8427269
143	0x3c	0.6741815
144	0xf9	-0.07865451
145	0xfd	-0.033709075
146	0xec	-0.22472717
147	0x0a	0.112363584
148	0xea	-0.2471999
149	0xf2	-0.15730903
150	0x00	0.0
151	0xeb	-0.23596352
152	0xf0	-0.17978173
153	0x12	0.20225444
154	0xeb	-0.23596352
155	0x13	0.21349081
156	0xdb	-0.41574526
157	0xfd	-0.033709075
158	0xe7	-0.28090897
159	0x1a	0.2921453
160	0xf9	-0.07865451
161	0xd9	-0.43821797
162	0x14	0.22472717
163	0xfb	-0.056181792
164	0xfd	-0.033709075
165	0x00	0.0
166	0x22	0.38203618
167	0xf8	-0.08989087
168	0xf5	-0.12359995
169	0xf2	-0.15730903
170	0xf7	-0.10112722
171	0xf3	-0.14607266
172	0xf8	-0.08989087
173	0x01	0.011236358
174	0x17	0.25843623
175	0xef	-0.19101809
176	0xfa	-0.06741815
177	0xe7	-0.28090897
178	0x0b	0.12359995
179	0x10	0.17978173
180	0x19	0.28090897
181	0xf5	-0.12359995
182	0xf3	-0.14607266
183	0xf8	-0.08989087
184	0xfc	-0.044945434
185	0x0b	0.12359995
186	0xf5	-0.12359995
187	0x04	0.044945434
188	0xe5	-0.30338168
189	0x04	0.044945434
190	0xf6	-0.112363584
191	0x0a	0.112363584
192	0xf1	-0.16854538
193	0x0b	0.12359995
194	0xf4	-0.1348363
195	0x09	0.10112722
196	0xf6	-0.112363584
197	0x0f	0.16854538
198	0x24	0.4045089
199	0xe9	-0.25843623
200	0xee	-0.20225444
201	0x08	0.08989087
202	0xf2	-0.15730903
203	0xf4	-0.1348363
204	0xf6	-0.112363584
205	0x04	0.044945434
206	0xf6	-0.112363584
207	0xf1	-0.16854538
208	0xf5	-0.12359995
209	0xed	-0.21349081
210	0xea	-0.2471999
211	0x09	0.10112722
212	0xf2	-0.15730903
213	0x14	0.22472717
214	0xf1	-0.16854538
215	0x08	0.08989087
216	0x07	0.07865451
217	0xe7	-0.28090897
218	0x20	0.35956347
219	0xeb	-0.23596352
220	0xf7	-0.10112722
221	0xf2	-0.15730903
222	0x09	0.10112722
223	0x10	0.17978173
224	0xea	-0.2471999
225	0xff	-0.011236358
226	0xf5	-0.12359995
227	0xf4	-0.1348363
228	0x1e	0.33709076
229	0xed	-0.21349081
230	0xfb	-0.056181792
231	0x01	0.011236358
232	0xf3	-0.14607266
233	0x0b	0.12359995
234	0x18	0.2696726
235	0x0a	0.112363584
236	0xf5	-0.12359995
237	0x0e	0.15730903
238	0xe5	-0.30338168
239	0xfd	-0.033709075
240	0x08	0.08989087
241	0x04	0.044945434
242	0x04	0.044945434
243	0xf1	-0.16854538
244	0x00	0.0
245	0x16	0.2471999
246	0xf6	-0.112363584
247	0xe5	-0.30338168
248	0x0c	0.1348363
249	0xfc	-0.044945434
250	0xfa	-0.06741815
251	0xfc	-0.044945434
252	0xe1	-0.3483271
253	0x2f	0.52810884
254	0x02	0.022472717
255	0x01	0.011236358

model/batch_normalization_7/batchnorm/mul_1 i1 [128, 128] scale=0.008001679 zero_point=0
0	0x0e	0.1120235
1	0x06	0.048010074
2	0x09	0.07201511
3	0x06	0.048010074
4	0x0c	0.09602015
5	0x0a	0.080016784
6	0x03	0.024005037
7	0x20	0.25605372
8	0x08	0.06401343
9	0x0f	0.12002518
10	0xd9	-0.31206545
11	0x0f	0.12002518
12	0x12	0.14403021
13	0x0d	0.104021825
14	0xfe	-0.016003357
15	0x04	0.032006714
16	0x11	0.13602854
17	0x1e	0.24005036
18	0xec	-0.16003357
19	0x0e	0.1120235
20	0xf8	-0.06401343
21	0x0a	0.080016784
22	0x00	0.0
23	0x0b	0.08801846
24	0xee	-0.14403021
25	0xf2	-0.1120235
26	0x04	0.032006714
27	0x0a	0.080016784
28	0xe7	-0.20004196
29	0x07	0.05601175
30	0x0f	0.12002518
31	0xf7	-0.07201511
32	0x06	0.048010074
33	0xe6	-0.20804365
34	0x0b	0.08801846
35	0x14	0.16003357
36	0x0a	0.080016784
37	0x0f	0.12002518
38	0xff	-0.008001679
39	0xed	-0.1520319
40	0x0d	0.104021825
41	0x1d	0.23204868
42	0x20	0.25605372
43	0xf6	-0.080016784
44	0x01	0.008001679
45	0xf2	-0.1120235
46	0xf0	-0.12802686
47	0x17	0.18403861
48	0xf0	-0.12802686
49	0x18	0.1920403
50	0x0f	0.12002518
51	0x09	0.07201511
52	0x14	0.16003357
53	0xd9	-0.31206545
54	0xdd	-0.28005874
55	0x05	0.040008392
56	0x31	0.39208224
57	0xfe	-0.016003357
58	0xed	-0.1520319
59	0xe9	-0.18403861
60	0xfb	-0.040008392
61	0xf4	-0.09602015
62	0x07	0.05601175
63	0xf3	-0.104021825
64	0xf8	-0.06401343
65	0xcd	-0.4080856
66	0x10	0.12802686
67	0xf7	-0.07201511
68	0xfe	-0.016003357
69	0xfb	-0.040008392
70	0x14	0.16003357
71	0xfa	-0.048010074
72	0x07	0.05601175
73	0xfd	-0.024005037
74	0xf1	-0.12002518
75	0xf0	-0.12802686
76	0xfb	-0.040008392
77	0x0e	0.1120235
78	0xff	-0.008001679
79	0xe7	-0.20004196
80	0xf5	-0.08801846
81	0xf2	-0.1120235
82	0x0e	0.1120235
83	0xf4	-0.09602015
84	0xf7	-0.07201511
85	0x07	0.05601175
86	0xf7	-0.07201511
87	0x0b	0.08801846
88	0xfd	-0.024005037
89	0xfb	-0.040008392
90	0xff	-0.008001679
91	0xfb	-0.040008392
92	0x0f	0.12002518
93	0x0b	0.08801846
94	0x1e	0.24005036
95	0xff	-0.008001679
96	0x09	0.07201511
97	0xfc	-0.032006714
98	0x18	0.1920403
99	0xfc	-0.032006714
100	0xee	-0.14403021
101	0x19	0.20004196
102	0x03	0.024005037
103	0x02	0.016003357
104	0x0b	0.08801846
105	0xf5	-0.08801846
106	0xfe	-0.016003357
107	0x0e	0.1120235
108	0xe9	-0.18403861
109	0x01	0.008001679
110	0x15	0.16803525
111	0x0d	0.104021825
112	0xf5	-0.08801846
113	0x25	0.2960621
114	0x03	0.024005037
115	0xfc	-0.032006714
116	0x0d	0.104021825
117	0x0b	0.08801846
118	0xfb	-0.040008392
119	0xf1	-0.12002518
120	0xe7	-0.20004196
121	0x00	0.0
122	0x19	0.20004196
123	0xe5	-0.21604532
124	0x13	0.1520319
125	0xfd	-0.024005037
126	0x06	0.048010074
127	0xe0	-0.25605372
128	0x0a	0.080016784
129	0x02	0.016003357
130	0x18	0.1920403
131	0x17	0.18403861
132	0x19	0.20004196
133	0x0c	0.09602015
134	0xf7	-0.07201511
135	0x12	0.14403021
136	0x04	0.032006714
137	0xf8	-0.06401343
138	0x10	0.12802686
139	0x03	0.024005037
140	0xfe	-0.016003357
141	0x07	0.05601175
142	0x05	0.040008392
143	0x0b	0.08801846
144	0x08	0.06401343
145	0xef	-0.13602854
146	0x06	0.048010074
147	0x02	0.016003357
148	0x1d	0.23204868
149	0x18	0.1920403
150	0xe9	-0.18403861
151	0xfa	-0.048010074
152	0xf2	-0.1120235
153	0x04	0.032006714
154	0x15	0.16803525
155	0x18	0.1920403
156	0xfe	-0.016003357
157	0xff	-0.008001679
158	0xcf	-0.39208224
159	0xf3	-0.104021825
160	0x16	0.17603692
161	0xc7	-0.4560957
162	0xf9	-0.05601175
163	0x0b	0.08801846
164	0xff	-0.008001679
165	0xf5	-0.08801846
166	0x0f	0.12002518
167	0xea	-0.17603692
168	0x16	0.17603692
169	0x01	0.008001679
170	0x06	0.048010074
171	0xea	-0.17603692
172	0xf5	-0.08801846
173	0x26	0.3040638
174	0xfa	-0.048010074
175	0xf5	-0.08801846
176	0xe2	-0.24005036
177	0xf6	-0.080016784
178	0xf5	-0.08801846
179	0xfb	-0.040008392
180	0xee	-0.14403021
181	0xf4	-0.09602015
182	0xf8	-0.06401343
183	0xfd	-0.024005037
184	0x0d	0.104021825
185	0xf6	-0.080016784
186	0x03	0.024005037
187	0x08	0.06401343
188	0xeb	-0.16803525
189	0xea	-0.17603692
190	0xf3	-0.104021825
191	0x02	0.016003357
192	0xef	-0.13602854
193	0x10	0.12802686
194	0x02	0.016003357
195	0x08	0.06401343
196	0x04	0.032006714
197	0x13	0.1520319
198	0x16	0.17603692
199	0x20	0.25605372
200	0xda	-0.3040638
201	0x12	0.14403021
202	0x10	0.12802686
203	0xfc	-0.032006714
204	0xf5	-0.08801846
205	0xe4	-0.224047
206	0x0b	0.08801846
207	0xf8	-0.06401343
208	0x07	0.05601175
209	0x17	0.18403861
210	0x0a	0.080016784
211	0xfb	-0.040008392
212	0xd9	-0.31206545
213	0x0f	0.12002518
214	0xfa	-0.048010074
215	0xf7	-0.07201511
216	0xf1	-0.12002518
217	0x00	0.0
218	0x01	0.008001679
219	0x03	0.024005037
220	0x02	0.016003357
221	0xf7	-0.07201511
222	0x13	0.1520319
223	0xf1	-0.12002518
224	0x05	0.040008392
225	0x02	0.016003357
226	0xfc	-0.032006714
227	0xf8	-0.06401343
228	0xf7	-0.07201511
229	0x13	0.1520319
230	0x20	0.25605372
231	0xfb	-0.040008392
232	0x05	0.040008392
233	0xff	-0.008001679
234	0xe2	-0.24005036
235	0xfc	-0.032006714
236	0x03	0.024005037
237	0xfb	-0.040008392
238	0x1a	0.20804365
239	0xeb	-0.16803525
240	0x1b	0.21604532
241	0xec	-0.16003357
242	0xe4	-0.224047
243	0xe4	-0.224047
244	0x1b	0.21604532
245	0xd5	-0.3440722
246	0x1f	0.24805203
247	0x17	0.18403861
248	0x0b	0.08801846
249	0x13	0.1520319
250	0xea	-0.17603692
251	0x01	0.008001679
252	0xfb	-0.040008392
253	0xe7	-0.20004196
254	0x17	0.18403861
255	0x1a	0.20804365

model/batch_normalization_6/batchnorm/mul_1 i1 [128, 128] scale=0.007718881 zero_point=0
0	0x13	0.14665875
1	0x25	0.2855986
2	0xf9	-0.05403217
3	0x02	0.015437762
4	0xed	-0.14665875
5	0xfc	-0.030875525
6	0xdb	-0.2855986
7	0xf8	-0.06175105
8	0x0f	0.115783215
9	0x0c	0.09262657
10	0x25	0.2855986
11	0xf4	-0.09262657
12	0xf3	-0.100345455
13	0x1f	0.23928532
14	0xe0	-0.2470042
15	0xff	-0.007718881
16	0x03	0.023156643
17	0x2f	0.36278743
18	0x04	0.030875525
19	0xfb	-0.038594406
20	0xfc	-0.030875525
21	0xe9	-0.17753427
22	0xf5	-0.084907696
23	0xe6	-0.20069091
24	0x03	0.023156643
25	0xfe	-0.015437762
26	0x0a	0.07718881
27	0x0c	0.09262657
28	0x2a	0.324193
29	0xf9	-0.05403217
30	0xde	-0.26244196
31	0x15	0.1620965
32	0x18	0.18525314
33	0x02	0.015437762
34	0x27	0.30103636
35	0x03	0.023156643
36	0xfe	-0.015437762
37	0xf8	-0.06175105
38	0x22	0.26244196
39	0x16	0.16981539
40	0x08	0.06175105
41	0x0b	0.084907696
42	0xf7	-0.06946993
43	0xf9	-0.05403217
44	0xf4	-0.09262657
45	0xf6	-0.07718881
46	0xe3	-0.22384755
47	0x1d	0.22384755
48	0xfe	-0.015437762
49	0xea	-0.16981539
50	0x26	0.2933175
51	0x13	0.14665875
52	0xdf	-0.25472307
53	0xf3	-0.100345455
54	0x05	0.038594406
55	0xf8	-0.06175105
56	0xec	-0.15437762
57	0xfc	-0.030875525
58	0x04	0.030875525
59	0xe1	-0.23928532
60	0xe9	-0.17753427
61	0x0e	0.10806434
62	0xe1	-0.23928532
63	0xf5	-0.084907696
64	0xe6	-0.20069091
65	0xfc	-0.030875525
66	0x08	0.06175105
67	0xf2	-0.10806434
68	0x0c	0.09262657
69	0x11	0.13122098
70	0x21	0.25472307
71	0x01	0.007718881
72	0x12	0.13893986
73	0xf0	-0.1235021
74	0xf0	-0.1235021
75	0x0f	0.115783215
76	0x0f	0.115783215
77	0xee	-0.13893986
78	0xf2	-0.10806434
79	0xfc	-0.030875525
80	0x1c	0.21612868
81	0xef	-0.13122098
82	0x22	0.26244196
83	0x12	0.13893986
84	0x0a	0.07718881
85	0x08	0.06175105
86	0xed	-0.14665875
87	0xe8	-0.18525314
88	0xf8	-0.06175105
89	0x1d	0.22384755
90	0x01	0.007718881
91	0xf0	-0.1235021
92	0x02	0.015437762
93	0x20	0.2470042
94	0x0a	0.07718881
95	0xee	-0.13893986
96	0x04	0.030875525
97	0xeb	-0.1620965
98	0x01	0.007718881
99	0xfd	-0.023156643
100	0x10	0.1235021
101	0x13	0.14665875
102	0xef	-0.13122098
103	0x10	0.1235021
104	0x0a	0.07718881
105	0x21	0.25472307
106	0x17	0.17753427
107	0x1c	0.21612868
108	0x07	0.05403217
109	0xf3	-0.100345455
110	0xe4	-0.21612868
111	0x02	0.015437762
112	0x07	0.05403217
113	0xe0	-0.2470042
114	0xf1	-0.115783215
115	0xec	-0.15437762
116	0xe6	-0.20069091
117	0xf8	-0.06175105
118	0xf2	-0.10806434
119	0x16	0.16981539
120	0xe8	-0.18525314
121	0x08	0.06175105
122	0x06	0.046313286
123	0x1e	0.23156643
124	0xff	-0.007718881
125	0x19	0.19297203
126	0xe6	-0.20069091
127	0xff	-0.007718881
128	0xe9	-0.17753427
129	0xee	-0.13893986
130	0xf7	-0.06946993
131	0x07	0.05403217
132	0xea	-0.16981539
133	0x0e	0.10806434
134	0x17	0.17753427
135	0x08	0.06175105
136	0x17	0.17753427
137	0xf3	-0.100345455
138	0xf7	-0.06946993
139	0xcf	-0.37822518
140	0xee	-0.13893986
141	0xec	-0.15437762
142	0x0f	0.115783215
143	0x0e	0.10806434
144	0xfc	-0.030875525
145	0x31	0.37822518
146	0xe1	-0.23928532
147	0xea	-0.16981539
148	0xdf	-0.25472307
149	0x19	0.19297203
150	0xfa	-0.046313286
151	0xf7	-0.06946993
152	0x00	0.0
153	0x08	0.06175105
154	0xd7	-0.31647414
155	0x07	0.05403217
156	0x09	0.06946993
157	0x09	0.06946993
158	0xe4	-0.21612868
159	0xfa	-0.046313286
160	0xf8	-0.06175105
161	0xea	-0.16981539
162	0x0b	0.084907696
163	0xf7	-0.06946993
164	0xfc	-0.030875525
165	0xeb	-0.1620965
166	0x0d	0.100345455
167	0x1b	0.20840979
168	0x03	0.023156643
169	0x0c	0.09262657
170	0x9f	-0.7487315
171	0x01	0.007718881
172	0x14	0.15437762
173	0xf8	-0.06175105
174	0xdc	-0.27787971
175	0x04	0.030875525
176	0xf9	-0.05403217
177	0x10	0.1235021
178	0x04	0.030875525
179	0x1a	0.20069091
180	0x04	0.030875525
181	0x23	0.27016085
182	0xe3	-0.22384755
183	0x0a	0.07718881
184	0x08	0.06175105
185	0x0c	0.09262657
186	0xfc	-0.030875525
187	0x10	0.1235021
188	0xf9	-0.05403217
189	0x11	0.13122098
190	0x20	0.2470042
191	0x0f	0.115783215
192	0xf6	-0.07718881
193	0xfc	-0.030875525
194	0xf5	-0.084907696
195	0xcd	-0.39366293
196	0x02	0.015437762
197	0xfa	-0.046313286
198	0x01	0.007718881
199	0x0e	0.10806434
200	0x0e	0.10806434
201	0xfc	-0.030875525
202	0xf4	-0.09262657
203	0x15	0.1620965
204	0xeb	-0.1620965
205	0x0e	0.10806434
206	0x09	0.06946993
207	0xd3	-0.34734964
208	0x07	0.05403217
209	0xfb	-0.038594406
210	0xdb	-0.2855986
211	0xfa	-0.046313286
212	0x01	0.007718881
213	0x14	0.15437762
214	0x12	0.13893986
215	0x11	0.13122098
216	0x1e	0.23156643
217	0x11	0.13122098
218	0xe8	-0.18525314
219	0x17	0.17753427
220	0x10	0.1235021
221	0x1a	0.20069091
222	0xf5	-0.084907696
223	0xe4	-0.21612868
224	0x29	0.31647414
225	0x0d	0.100345455
226	0xee	-0.13893986
227	0xd1	-0.36278743
228	0xe6	-0.20069091
229	0xee	-0.13893986
230	0x06	0.046313286
231	0x2a	0.324193
232	0x09	0.06946993
233	0x04	0.030875525
234	0x06	0.046313286
235	0x12	0.13893986
236	0xf7	-0.06946993
237	0x1c	0.21612868
238	0xf0	-0.1235021
239	0x02	0.015437762
240	0x03	0.023156643
241	0xeb	-0.1620965
242	0xe0	-0.2470042
243	0x0e	0.10806434
244	0xe5	-0.20840979
245	0x23	0.27016085
246	0xf4	-0.09262657
247	0xe9	-0.17753427
248	0x17	0.17753427
249	0xff	-0.007718881
250	0xf7	-0.06946993
251	0xe5	-0.20840979
252	0xf7	-0.06946993
253	0x22	0.26244196
254	0xd0	-0.3705063
255	0x04	0.030875525

model/batch_normalization_5/batchnorm/mul_1 i1 [128, 8] scale=0.015557711 zero_point=0
0	0x2a	0.65342385
1	0xd5	-0.66898155
2	0x1b	0.4200582
3	0x3f	0.9801358
4	0xc7	-0.8867895
5	0xc1	-0.9801358
6	0xf2	-0.21780795
7	0x06	0.09334627
8	0x2e	0.71565473
9	0xec	-0.31115422
10	0xc8	-0.8712318
11	0x15	0.32671192
12	0xf4	-0.18669254
13	0x14	0.31115422
14	0xff	-0.015557711
15	0xfd	-0.046673134
16	0xe3	-0.45117363
17	0xfd	-0.046673134
18	0x1e	0.46673134
19	0xf6	-0.15557711
20	0x13	0.2955965
21	0x11	0.2644811
22	0x6d	1.6957905
23	0x22	0.5289622
24	0x66	1.5868865
25	0x0b	0.17113481
26	0xf3	-0.20225024
27	0x02	0.031115422
28	0xfc	-0.062230844
29	0xde	-0.5289622
30	0x22	0.5289622
31	0x10	0.24892338
32	0xb2	-1.2135015
33	0xf4	-0.18669254
34	0xbe	-1.026809
35	0x01	0.015557711
36	0x13	0.2955965
37	0x11	0.2644811
38	0xec	-0.31115422
39	0xdf	-0.5134045
40	0xff	-0.015557711
41	0xc7	-0.8867895
42	0xfa	-0.09334627
43	0x0d	0.20225024
44	0x21	0.5134045
45	0x06	0.09334627
46	0xb6	-1.1512706
47	0xf8	-0.12446169
48	0xfc	-0.062230844
49	0xcd	-0.79344326
50	0xe1	-0.48228905
51	0xbc	-1.0579244
52	0xfe	-0.031115422
53	0xf9	-0.108903974
54	0x04	0.062230844
55	0xeb	-0.32671192
56	0xd4	-0.68453926
57	0x54	1.3068477
58	0xe4	-0.4356159
59	0x28	0.62230843
60	0x15	0.32671192
61	0x24	0.5600776
62	0x10	0.24892338
63	0xce	-0.77788556
64	0xad	-1.29129
65	0x25	0.5756353
66	0xb9	-1.1045974
67	0x17	0.35782737
68	0x06	0.09334627
69	0x35	0.8245587
70	0x18	0.37338507
71	0xcf	-0.76232785
72	0x0e	0.21780795
73	0x05	0.077788554
74	0x0d	0.20225024
75	0xea	-0.34226963
76	0xfa	-0.09334627
77	0xda	-0.591193
78	0xc1	-0.9801358
79	0xf8	-0.12446169
80	0xfb	-0.077788554
81	0x04	0.062230844
82	0x30	0.74677014
83	0x0d	0.20225024
84	0x08	0.12446169
85	0x15	0.32671192
86	0xe9	-0.35782737
87	0x06	0.09334627
88	0xcf	-0.76232785
89	0xda	-0.591193
90	0x15	0.32671192
91	0xf1	-0.23336567
92	0xf0	-0.24892338
93	0x43	1.0423666
94	0x3a	0.90234727
95	0xfb	-0.077788554
96	0x06	0.09334627
97	0xd9	-0.6067507
98	0xdc	-0.5600776
99	0x5c	1.4313095
100	0x2e	0.71565473
101	0x06	0.09334627
102	0xef	-0.2644811
103	0xea	-0.34226963
104	0x03	0.046673134
105	0x0e	0.21780795
106	0xf9	-0.108903974
107	0x1e	0.46673134
108	0x4b	1.1668283
109	0xe0	-0.49784675
110	0xea	-0.34226963
111	0x43	1.0423666
112	0xfd	-0.046673134
113	0x06	0.09334627
114	0xd6	-0.65342385
115	0xf1	-0.23336567
116	0xfb	-0.077788554
117	0x1b	0.4200582
118	0x7f	1.9758292
119	0x0d	0.20225024
120	0xeb	-0.32671192
121	0x40	0.9956935
122	0xce	-0.77788556
123	0x23	0.5445199
124	0xea	-0.34226963
125	0xdf	-0.5134045
126	0x04	0.062230844
127	0xed	-0.2955965
128	0x11	0.2644811
129	0xd1	-0.73121244
130	0x08	0.12446169
131	0xf6	-0.15557711
132	0xd8	-0.62230843
133	0x05	0.077788554
134	0x06	0.09334627
135	0xf0	-0.24892338
136	0xd9	-0.6067507
137	0xf5	-0.17113481
138	0xf9	-0.108903974
139	0x5c	1.4313095
140	0x0f	0.23336567
141	0x22	0.5289622
142	0xf5	-0.17113481
143	0xc7	-0.8867895
144	0xff	-0.015557711
145	0xff	-0.015557711
146	0xf1	-0.23336567
147	0xb5	-1.1668283
148	0xef	-0.2644811
149	0xe2	-0.46673134
150	0xe3	-0.45117363
151	0xf4	-0.18669254
152	0xf4	-0.18669254
153	0xef	-0.2644811
154	0x0d	0.20225024
155	0xf5	-0.17113481
156	0xff	-0.015557711
157	0xe3	-0.45117363
158	0xb3	-1.1979438
159	0x03	0.046673134
160	0x2d	0.700097
161	0xbd	-1.0423666
162	0x10	0.24892338
163	0x1d	0.45117363
164	0xcc	-0.80900097
165	0xd7	-0.63786614
166	0x49	1.1357129
167	0xfe	-0.031115422
168	0x05	0.077788554
169	0xfe	-0.031115422
170	0xcc	-0.80900097
171	0x3a	0.90234727
172	0xf5	-0.17113481
173	0x09	0.1400194
174	0x30	0.74677014
175	0x1a	0.40450048
176	0x4a	1.1512706
177	0x2e	0.71565473
178	0x0e	0.21780795
179	0xf1	-0.23336567
180	0xf8	-0.12446169
181	0xe4	-0.4356159
182	0xeb	-0.32671192
183	0x15	0.32671192
184	0xe8	-0.37338507
185	0x2b	0.66898155
186	0xc1	-0.9801358
187	0xe5	-0.4200582
188	0xe7	-0.38894278
189	0x22	0.5289622
190	0x08	0.12446169
191	0xfd	-0.046673134
192	0xee	-0.2800388
193	0x21	0.5134045
194	0x03	0.046673134
195	0x14	0.31115422
196	0xf9	-0.108903974
197	0xd9	-0.6067507
198	0xb2	-1.2135015
199	0xfa	-0.09334627
200	0x0f	0.23336567
201	0x03	0.046673134
202	0xfc	-0.062230844
203	0x27	0.6067507
204	0xfb	-0.077788554
205	0x1a	0.40450048
206	0xa1	-1.4779825
207	0x0d	0.20225024
208	0x2c	0.68453926
209	0x08	0.12446169
210	0x04	0.062230844
211	0xe4	-0.4356159
212	0x27	0.6067507
213	0x18	0.37338507
214	0xee	-0.2800388
215	0xf5	-0.17113481
216	0xff	-0.015557711
217	0x28	0.62230843
218	0x29	0.63786614
219	0x12	0.2800388
220	0xde	-0.5289622
221	0xfc	-0.062230844
222	0xf8	-0.12446169
223	0xcb	-0.8245587
224	0xfa	-0.09334627
225	0xcc	-0.80900097
226	0xd9	-0.6067507
227	0xee	-0.2800388
228	0xfc	-0.062230844
229	0x11	0.2644811
230	0x1c	0.4356159
231	0x20	0.49784675
232	0x06	0.09334627
233	0x24	0.5600776
234	0x35	0.8245587
235	0xe2	-0.46673134
236	0xe3	-0.45117363
237	0xfe	-0.031115422
238	0xf4	-0.18669254
239	0x1d	0.45117363
240	0x2d	0.700097
241	0xf3	-0.20225024
242	0x15	0.32671192
243	0x4f	1.2290592
244	0x08	0.12446169
245	0x0e	0.21780795
246	0x1f	0.48228905
247	0x19	0.38894278
248	0x2b	0.66898155
249	0xf1	-0.23336567
250	0xf4	-0.18669254
251	0xc4	-0.9334627
252	0xf6	-0.15557711
253	0xcb	-0.8245587
254	0xed	-0.2955965
255	0x19	0.38894278

model/batch_normalization_4/batchnorm/mul_1 i1 [8, 128] scale=0.0016374488 zero_point=0
0	0x16	0.036023874
1	0xc9	-0.09005968
2	0x04	0.006549795
3	0x12	0.029474078
4	0xed	-0.031111527
5	0xdd	-0.057310708
6	0x7f	0.207956
7	0x32	0.08187244
8	0xc5	-0.09660948
9	0xfa	-0.009824693
10	0x00	0.0
11	0xe7	-0.04093622
12	0x00	0.0
13	0x1c	0.045848567
14	0xf3	-0.021286834
15	0xf3	-0.021286834
16	0xfa	-0.009824693
17	0xe4	-0.045848567
18	0xed	-0.031111527
19	0xf6	-0.016374487
20	0xd9	-0.063860506
21	0xd4	-0.07204775
22	0xd2	-0.07532264
23	0x0d	0.021286834
24	0xf4	-0.019649386
25	0x05	0.008187244
26	0x2d	0.0736852
27	0x1c	0.045848567
28	0x14	0.032748975
29	0x19	0.04093622
30	0xf3	-0.021286834
31	0xd3	-0.0736852
32	0xdf	-0.05403581
33	0x49	0.11953376
34	0x20	0.05239836
35	0x14	0.032748975
36	0xef	-0.02783663
37	0xf8	-0.01309959
38	0x17	0.03766132
39	0x03	0.0049123466
40	0x04	0.006549795
41	0xbd	-0.10970907
42	0x02	0.0032748976
43	0xe3	-0.047486015
44	0x08	0.01309959
45	0xcd	-0.083509885
46	0x0a	0.016374487
47	0xfc	-0.006549795
48	0x10	0.02619918
49	0xd2	-0.07532264
50	0xb8	-0.11789631
51	0xf7	-0.014737039
52	0xfc	-0.006549795
53	0xe1	-0.050760914
54	0x04	0.006549795
55	0x27	0.063860506
56	0xf0	-0.02619918
57	0x01	0.0016374488
58	0xf6	-0.016374487
59	0x2b	0.0704103
60	0x07	0.011462142
61	0x1a	0.042573668
62	0xc3	-0.099884376
63	0xfe	-0.0032748976
64	0x04	0.006549795
65	0xdb	-0.060585607
66	0xfc	-0.006549795
67	0x23	0.057310708
68	0x48	0.11789631
69	0xde	-0.05567326
70	0x05	0.008187244
71	0x06	0.009824693
72	0x04	0.006549795
73	0x0c	0.019649386
74	0xc9	-0.09005968
75	0x3c	0.098246925
76	0xfe	-0.0032748976
77	0xee	-0.029474078
78	0x10	0.02619918
79	0x11	0.02783663
80	0xd9	-0.063860506
81	0xe9	-0.03766132
82	0xe3	-0.047486015
83	0xfd	-0.0049123466
84	0x16	0.036023874
85	0x33	0.083509885
86	0x0b	0.018011937
87	0xfe	-0.0032748976
88	0xca	-0.08842223
89	0x08	0.01309959
90	0x11	0.02783663
91	0x04	0.006549795
92	0x14	0.032748975
93	0x09	0.014737039
94	0xfc	-0.006549795
95	0xff	-0.0016374488
96	0xd0	-0.078597546
97	0x2e	0.07532264
98	0xf0	-0.02619918
99	0xf2	-0.022924284
100	0xf8	-0.01309959
101	0xd5	-0.0704103
102	0xe2	-0.049123462
103	0x06	0.009824693
104	0xd3	-0.0736852
105	0xde	-0.05567326
106	0xd0	-0.078597546
107	0x21	0.05403581
108	0xe3	-0.047486015
109	0x2f	0.076960094
110	0xf7	-0.014737039
111	0x12	0.029474078
112	0xf0	-0.02619918
113	0x32	0.08187244
114	0x08	0.01309959
115	0xd5	-0.0704103
116	0xcf	-0.08023499
117	0x13	0.031111527
118	0xf4	-0.019649386
119	0x08	0.01309959
120	0xdd	-0.057310708
121	0xe5	-0.044211116
122	0xc9	-0.09005968
123	0xfb	-0.008187244
124	0x06	0.009824693
125	0x19	0.04093622
126	0xdd	-0.057310708
127	0x17	0.03766132
128	0x06	0.009824693
129	0xe1	-0.050760914
130	0xf3	-0.021286834
131	0xc3	-0.099884376
132	0x0d	0.021286834
133	0xd2	-0.07532264
134	0x18	0.039298773
135	0x1a	0.042573668
136	0xc4	-0.098246925
137	0x32	0.08187244
138	0x2e	0.07532264
139	0xe8	-0.039298773
140	0x08	0.01309959
141	0x2f	0.076960094
142	0x49	0.11953376
143	0x4e	0.12772101
144	0x04	0.006549795
145	0x56	0.1408206
146	0x19	0.04093622
147	0x0c	0.019649386
148	0x9f	-0.15883254
149	0xda	-0.062223054
150	0xd4	-0.07204775
151	0x0c	0.019649386
152	0x25	0.060585607
153	0x01	0.0016374488
154	0xd8	-0.06549795
155	0xdd	-0.057310708
156	0x00	0.0
157	0xf8	-0.01309959
158	0xf5	-0.018011937
159	0xf1	-0.024561731
160	0x4d	0.12608355
161	0x24	0.058948155
162	0xab	-0.13918315
163	0x06	0.009824693
164	0x0f	0.024561731
165	0x04	0.006549795
166	0xce	-0.08187244
167	0x10	0.02619918
168	0xf3	-0.021286834
169	0xf1	-0.024561731
170	0x7a	0.19976875
171	0x2c	0.07204775
172	0xa0	-0.15719509
173	0xec	-0.032748975
174	0x1f	0.050760914
175	0xf9	-0.011462142
176	0x24	0.058948155
177	0xb1	-0.12935846
178	0xcb	-0.08678479
179	0xf6	-0.016374487
180	0xfa	-0.009824693
181	0x9a	-0.16701977
182	0xeb	-0.034386426
183	0x01	0.0016374488
184	0x57	0.14245805
185	0xe8	-0.039298773
186	0x66	0.16701977
187	0xf2	-0.022924284
188	0x4e	0.12772101
189	0xf4	-0.019649386
190	0xf0	-0.02619918
191	0xfe	-0.0032748976
192	0x00	0.0
193	0xbe	-0.10807162
194	0x44	0.11134652
195	0xe1	-0.050760914
196	0x13	0.031111527
197	0xfc	-0.006549795
198	0xe1	-0.050760914
199	0xc4	-0.098246925
200	0xe8	-0.039298773
201	0x12	0.029474078
202	0xc2	-0.10152183
203	0xf0	-0.02619918
204	0xbb	-0.112983964
205	0x0b	0.018011937
206	0xfb	-0.008187244
207	0x24	0.058948155
208	0x34	0.085147336
209	0xe3	-0.047486015
210	0xc8	-0.091697134
211	0x03	0.0049123466
212	0xde	-0.05567326
213	0x00	0.0
214	0x1c	0.045848567
215	0xa7	-0.14573294
216	0xc8	-0.091697134
217	0x0b	0.018011937
218	0xc4	-0.098246925
219	0xc2	-0.10152183
220	0x23	0.057310708
221	0x39	0.09333458
222	0x3a	0.09497203
223	0x8c	-0.18994406
224	0xec	-0.032748975
225	0x16	0.036023874
226	0xd0	-0.078597546
227	0xd4	-0.07204775
228	0x0a	0.016374487
229	0xcc	-0.085147336
230	0xe6	-0.042573668
231	0x07	0.011462142
232	0xd3	-0.0736852
233	0xb1	-0.12935846
234	0xda	-0.062223054
235	0xdc	-0.058948155
236	0xff	-0.0016374488
237	0x09	0.014737039
238	0x20	0.05239836
239	0xc5	-0.09660948
240	0xf2	-0.022924284
241	0x33	0.083509885
242	0x1a	0.042573668
243	0x16	0.036023874
244	0x0f	0.024561731
245	0xc5	-0.09660948
246	0x2d	0.0736852
247	0x05	0.008187244
248	0x35	0.08678479
249	0xf8	-0.01309959
250	0xdb	-0.060585607
251	0x46	0.114621416
252	0x1a	0.042573668
253	0x27	0.063860506
254	0x15	0.034386426
255	0x2b	0.0704103

model/batch_normalization_3/batchnorm/mul_1 i1 [128, 128] scale=0.05480172 zero_point=0
0	0x01	0.05480172
1	0x01	0.05480172
2	0xff	-0.05480172
3	0xfe	-0.10960344
4	0x02	0.10960344
5	0x01	0.05480172
6	0x01	0.05480172
7	0x02	0.10960344
8	0x00	0.0
9	0xfe	-0.10960344
10	0x03	0.16440517
11	0x02	0.10960344
12	0xfe	-0.10960344
13	0x02	0.10960344
14	0x01	0.05480172
15	0x00	0.0
16	0x00	0.0
17	0xfe	-0.10960344
18	0xfd	-0.16440517
19	0xff	-0.05480172
20	0x02	0.10960344
21	0x04	0.21920688
22	0x01	0.05480172
23	0x02	0.10960344
24	0x0c	0.65762067
25	0xff	-0.05480172
26	0xff	-0.05480172
27	0x00	0.0
28	0xff	-0.05480172
29	0xfe	-0.10960344
30	0x00	0.0
31	0x01	0.05480172
32	0xfe	-0.10960344
33	0xfd	-0.16440517
34	0x02	0.10960344
35	0xff	-0.05480172
36	0xfd	-0.16440517
37	0xff	-0.05480172
38	0x01	0.05480172
39	0xfe	-0.10960344
40	0x01	0.05480172
41	0x00	0.0
42	0xfe	-0.10960344
43	0x00	0.0
44	0x02	0.10960344
45	0x03	0.16440517
46	0xfe	-0.10960344
47	0x01	0.05480172
48	0x00	0.0
49	0xfe	-0.10960344
50	0x00	0.0
51	0xfe	-0.10960344
52	0x01	0.05480172
53	0x01	0.05480172
54	0x00	0.0
55	0xff	-0.05480172
56	0x03	0.16440517
57	0xfe	-0.10960344
58	0xfe	-0.10960344
59	0x02	0.10960344
60	0x00	0.0
61	0xff	-0.05480172
62	0xff	-0.05480172
63	0xfe	-0.10960344
64	0xff	-0.05480172
65	0xf7	-0.4932155
66	0xfe	-0.10960344
67	0x01	0.05480172
68	0xff	-0.05480172
69	0x05	0.2740086
70	0xff	-0.05480172
71	0xff	-0.05480172
72	0xfd	-0.16440517
73	0x03	0.16440517
74	0x06	0.32881033
75	0x00	0.0
76	0x00	0.0
77	0x03	0.16440517
78	0x00	0.0
79	0xf7	-0.4932155
80	0xff	-0.05480172
81	0x04	0.21920688
82	0x02	0.10960344
83	0xfe	-0.10960344
84	0x01	0.05480172
85	0x00	0.0
86	0x02	0.10960344
87	0xff	-0.05480172
88	0x00	0.0
89	0x01	0.05480172
90	0xff	-0.05480172
91	0x01	0.05480172
92	0x02	0.10960344
93	0x00	0.0
94	0x01	0.05480172
95	0x00	0.0
96	0x04	0.21920688
97	0xfd	-0.16440517
98	0xff	-0.05480172
99	0x01	0.05480172
100	0xff	-0.05480172
101	0xfa	-0.32881033
102	0xfe	-0.10960344
103	0xff	-0.05480172
104	0x01	0.05480172
105	0xfe	-0.10960344
106	0x04	0.21920688
107	0x01	0.05480172
108	0xff	-0.05480172
109	0x00	0.0
110	0xf9	-0.38361204
111	0x00	0.0
112	0xfe	-0.10960344
113	0xfe	-0.10960344
114	0xfe	-0.10960344
115	0x01	0.05480172
116	0x01	0.05480172
117	0xfc	-0.21920688
118	0xfd	-0.16440517
119	0xfa	-0.32881033
120	0xfe	-0.10960344
121	0x03	0.16440517
122	0x01	0.05480172
123	0x01	0.05480172
124	0x01	0.05480172
125	0x03	0.16440517
126	0xfe	-0.10960344
127	0x01	0.05480172
128	0xff	-0.05480172
129	0x03	0.16440517
130	0x09	0.4932155
131	0x00	0.0
132	0xf9	-0.38361204
133	0xfe	-0.10960344
134	0x05	0.2740086
135	0xfb	-0.2740086
136	0x00	0.0
137	0xfd	-0.16440517
138	0x00	0.0
139	0xff	-0.05480172
140	0xf7	-0.4932155
141	0x02	0.10960344
142	0xfd	-0.16440517
143	0xfb	-0.2740086
144	0xfe	-0.10960344
145	0x04	0.21920688
146	0x00	0.0
147	0xf7	-0.4932155
148	0x04	0.21920688
149	0xf5	-0.6028189
150	0x01	0.05480172
151	0x09	0.4932155
152	0x04	0.21920688
153	0x01	0.05480172
154	0x03	0.16440517
155	0x02	0.10960344
156	0x02	0.10960344
157	0xfd	-0.16440517
158	0x00	0.0
159	0x07	0.38361204
160	0xfe	-0.10960344
161	0x00	0.0
162	0x04	0.21920688
163	0x01	0.05480172
164	0xfe	-0.10960344
165	0xfd	-0.16440517
166	0x00	0.0
167	0xfb	-0.2740086
168	0x02	0.10960344
169	0x05	0.2740086
170	0x02	0.10960344
171	0x04	0.21920688
172	0x01	0.05480172
173	0x00	0.0
174	0xfc	-0.21920688
175	0xf8	-0.43841377
176	0x01	0.05480172
177	0xf1	-0.82202584
178	0xfd	-0.16440517
179	0x02	0.10960344
180	0xfe	-0.10960344
181	0x02	0.10960344
182	0x06	0.32881033
183	0xfd	-0.16440517
184	0x06	0.32881033
185	0x01	0.05480172
186	0x03	0.16440517
187	0xff	-0.05480172
188	0x01	0.05480172
189	0x00	0.0
190	0xf4	-0.65762067
191	0x01	0.05480172
192	0x01	0.05480172
193	0x08	0.43841377
194	0x03	0.16440517
195	0xfb	-0.2740086
196	0xfd	-0.16440517
197	0x00	0.0
198	0x06	0.32881033
199	0xfd	-0.16440517
200	0x03	0.16440517
201	0xfd	-0.16440517
202	0xfe	-0.10960344
203	0x03	0.16440517
204	0xfa	-0.32881033
205	0x03	0.16440517
206	0xff	-0.05480172
207	0xff	-0.05480172
208	0x00	0.0
209	0xfb	-0.2740086
210	0x03	0.16440517
211	0x05	0.2740086
212	0xfe	-0.10960344
213	0xfd	-0.16440517
214	0x08	0.43841377
215	0x06	0.32881033
216	0x00	0.0
217	0xed	-1.0412327
218	0xfb	-0.2740086
219	0xf7	-0.4932155
220	0xf7	-0.4932155
221	0x02	0.10960344
222	0x01	0.05480172
223	0x00	0.0
224	0x03	0.16440517
225	0x04	0.21920688
226	0xfb	-0.2740086
227	0x07	0.38361204
228	0x00	0.0
229	0x00	0.0
230	0x05	0.2740086
231	0xf9	-0.38361204
232	0xfe	-0.10960344
233	0x05	0.2740086
234	0x03	0.16440517
235	0x01	0.05480172
236	0x05	0.2740086
237	0xfc	-0.21920688
238	0xf8	-0.43841377
239	0x02	0.10960344
240	0xfc	-0.21920688
241	0x02	0.10960344
242	0x00	0.0
243	0xff	-0.05480172
244	0x01	0.05480172
245	0xf7	-0.4932155
246	0xfc	-0.21920688
247	0x01	0.05480172
248	0xfd	-0.16440517
249	0x02	0.10960344
250	0x00	0.0
251	0xf8	-0.43841377
252	0xfa	-0.32881033
253	0x08	0.43841377
254	0x01	0.05480172
255	0xfe	-0.10960344

model/batch_normalization_2/batchnorm/mul_1 i1 [128, 128] scale=0.036961913 zero_point=0
0	0x02	0.073923826
1	0x02	0.073923826
2	0xfe	-0.073923826
3	0x04	0.14784765
4	0x0e	0.5174668
5	0x00	0.0
6	0x09	0.33265722
7	0xfe	-0.073923826
8	0x02	0.073923826
9	0x02	0.073923826
10	0x04	0.14784765
11	0x00	0.0
12	0xfc	-0.14784765
13	0x01	0.036961913
14	0xfd	-0.11088574
15	0xff	-0.036961913
16	0x02	0.073923826
17	0xfb	-0.18480957
18	0x04	0.14784765
19	0xfd	-0.11088574
20	0x04	0.14784765
21	0x00	0.0
22	0x01	0.036961913
23	0xf5	-0.40658104
24	0x01	0.036961913
25	0x03	0.11088574
26	0x00	0.0
27	0xff	-0.036961913
28	0xfe	-0.073923826
29	0x04	0.14784765
30	0x02	0.073923826
31	0xfa	-0.22177148
32	0x00	0.0
33	0x01	0.036961913
34	0x03	0.11088574
35	0xfc	-0.14784765
36	0x09	0.33265722
37	0x02	0.073923826
38	0x01	0.036961913
39	0xff	-0.036961913
40	0x06	0.22177148
41	0x04	0.14784765
42	0x01	0.036961913
43	0x03	0.11088574
44	0x03	0.11088574
45	0x04	0.14784765
46	0x0d	0.48050487
47	0x01	0.036961913
48	0x01	0.036961913
49	0xff	-0.036961913
50	0xfb	-0.18480957
51	0xff	-0.036961913
52	0xff	-0.036961913
53	0xfc	-0.14784765
54	0xff	-0.036961913
55	0xfd	-0.11088574
56	0x05	0.18480957
57	0x07	0.2587334
58	0xfa	-0.22177148
59	0xfe	-0.073923826
60	0xfe	-0.073923826
61	0xf7	-0.33265722
62	0x02	0.073923826
63	0xfc	-0.14784765
64	0xfe	-0.073923826
65	0xff	-0.036961913
66	0x02	0.073923826
67	0xfe	-0.073923826
68	0x07	0.2587334
69	0xfe	-0.073923826
70	0xff	-0.036961913
71	0xff	-0.036961913
72	0x03	0.11088574
73	0x01	0.036961913
74	0x02	0.073923826
75	0x02	0.073923826
76	0x01	0.036961913
77	0x00	0.0
78	0x01	0.036961913
79	0x01	0.036961913
80	0x02	0.073923826
81	0xfc	-0.14784765
82	0xff	-0.036961913
83	0x02	0.073923826
84	0x04	0.14784765
85	0xff	-0.036961913
86	0x08	0.2956953
87	0xfb	-0.18480957
88	0x03	0.11088574
89	0xfe	-0.073923826
90	0x04	0.14784765
91	0x01	0.036961913
92	0xfe	-0.073923826
93	0xfe	-0.073923826
94	0x03	0.11088574
95	0x01	0.036961913
96	0xfe	-0.073923826
97	0x02	0.073923826
98	0xff	-0.036961913
99	0x01	0.036961913
100	0x03	0.11088574
101	0xff	-0.036961913
102	0x07	0.2587334
103	0x01	0.036961913
104	0xff	-0.036961913
105	0xff	-0.036961913
106	0xff	-0.036961913
107	0xfc	-0.14784765
108	0x02	0.073923826
109	0x00	0.0
110	0x05	0.18480957
111	0xff	-0.036961913
112	0x01	0.036961913
113	0x06	0.22177148
114	0xfe	-0.073923826
115	0xfc	-0.14784765
116	0xff	-0.036961913
117	0x03	0.11088574
118	0xff	-0.036961913
119	0xfd	-0.11088574
120	0x01	0.036961913
121	0xfb	-0.18480957
122	0x01	0.036961913
123	0x01	0.036961913
124	0xff	-0.036961913
125	0x01	0.036961913
126	0xfa	-0.22177148
127	0x00	0.0
128	0x00	0.0
129	0x02	0.073923826
130	0x01	0.036961913
131	0x03	0.11088574
132	0xfd	-0.11088574
133	0xff	-0.036961913
134	0x00	0.0
135	0x00	0.0
136	0x00	0.0
137	0xff	-0.036961913
138	0x00	0.0
139	0xff	-0.036961913
140	0xfc	-0.14784765
141	0x01	0.036961913
142	0x00	0.0
143	0x00	0.0
144	0x01	0.036961913
145	0x05	0.18480957
146	0xfe	-0.073923826
147	0x00	0.0
148	0x02	0.073923826
149	0x03	0.11088574
150	0x03	0.11088574
151	0xfd	-0.11088574
152	0x03	0.11088574
153	0x03	0.11088574
154	0xff	-0.036961913
155	0x02	0.073923826
156	0xff	-0.036961913
157	0x01	0.036961913
158	0xfe	-0.073923826
159	0x00	0.0
160	0x02	0.073923826
161	0x00	0.0
162	0x03	0.11088574
163	0x00	0.0
164	0xfc	-0.14784765
165	0x00	0.0
166	0xff	-0.036961913
167	0x01	0.036961913
168	0x02	0.073923826
169	0xff	-0.036961913
170	0xff	-0.036961913
171	0x00	0.0
172	0xfe	-0.073923826
173	0xff	-0.036961913
174	0x00	0.0
175	0x00	0.0
176	0x02	0.073923826
177	0xff	-0.036961913
178	0x00	0.0
179	0xff	-0.036961913
180	0xff	-0.036961913
181	0x00	0.0
182	0xfd	-0.11088574
183	0x03	0.11088574
184	0x01	0.036961913
185	0xfd	-0.11088574
186	0x04	0.14784765
187	0x03	0.11088574
188	0x01	0.036961913
189	0xfd	-0.11088574
190	0x02	0.073923826
191	0xfc	-0.14784765
192	0x00	0.0
193	0x04	0.14784765
194	0xfe	-0.073923826
195	0x00	0.0
196	0xfe	-0.073923826
197	0x03	0.11088574
198	0x00	0.0
199	0x02	0.073923826
200	0x01	0.036961913
201	0x00	0.0
202	0xfd	-0.11088574
203	0xfe	-0.073923826
204	0xff	-0.036961913
205	0xff	-0.036961913
206	0x04	0.14784765
207	0xfe	-0.073923826
208	0x02	0.073923826
209	0xfd	-0.11088574
210	0x00	0.0
211	0xff	-0.036961913
212	0x00	0.0
213	0x01	0.036961913
214	0x00	0.0
215	0xff	-0.036961913
216	0x03	0.11088574
217	0x00	0.0
218	0xfd	-0.11088574
219	0xff	-0.036961913
220	0xff	-0.036961913
221	0xfe	-0.073923826
222	0xff	-0.036961913
223	0xfe	-0.073923826
224	0xff	-0.036961913
225	0x02	0.073923826
226	0xfe	-0.073923826
227	0x01	0.036961913
228	0xff	-0.036961913
229	0xff	-0.036961913
230	0x00	0.0
231	0x03	0.11088574
232	0x04	0.14784765
233	0xff	-0.036961913
234	0x02	0.073923826
235	0x02	0.073923826
236	0x00	0.0
237	0xff	-0.036961913
238	0x01	0.036961913
239	0x00	0.0
240	0xff	-0.036961913
241	0xfd	-0.11088574
242	0xff	-0.036961913
243	0x02	0.073923826
244	0xfd	-0.11088574
245	0x02	0.073923826
246	0x01	0.036961913
247	0xfc	-0.14784765
248	0x03	0.11088574
249	0x05	0.18480957
250	0xfe	-0.073923826
251	0xfe	-0.073923826
252	0x03	0.11088574
253	0xfe	-0.073923826
254	0xff	-0.036961913
255	0x00	0.0

model/batch_normalization_1/batchnorm/mul_1 i1 [128, 128] scale=0.010993168 zero_point=0
0	0xfd	-0.032979503
1	0xf4	-0.13191801
2	0xf5	-0.120924845
3	0xef	-0.18688385
4	0x01	0.010993168
5	0x0d	0.14291118
6	0xfe	-0.021986336
7	0xff	-0.010993168
8	0x0c	0.13191801
9	0x05	0.05496584
10	0x02	0.021986336
11	0x00	0.0
12	0xff	-0.010993168
13	0xf7	-0.09893851
14	0xfd	-0.032979503
15	0x02	0.021986336
16	0x0b	0.120924845
17	0x09	0.09893851
18	0xf7	-0.09893851
19	0x01	0.010993168
20	0x04	0.04397267
21	0xf7	-0.09893851
22	0xf3	-0.14291118
23	0xfe	-0.021986336
24	0xf9	-0.076952174
25	0x05	0.05496584
26	0xfd	-0.032979503
27	0x05	0.05496584
28	0x03	0.032979503
29	0xf3	-0.14291118
30	0xf7	-0.09893851
31	0x03	0.032979503
32	0xf9	-0.076952174
33	0x05	0.05496584
34	0xf2	-0.15390435
35	0x02	0.021986336
36	0xfa	-0.06595901
37	0xfa	-0.06595901
38	0x01	0.010993168
39	0xf8	-0.08794534
40	0xf7	-0.09893851
41	0x09	0.09893851
42	0xf7	-0.09893851
43	0xff	-0.010993168
44	0xfd	-0.032979503
45	0xff	-0.010993168
46	0xfc	-0.04397267
47	0xfc	-0.04397267
48	0xf9	-0.076952174
49	0x05	0.05496584
50	0x05	0.05496584
51	0x0e	0.15390435
52	0x05	0.05496584
53	0x0b	0.120924845
54	0xfd	-0.032979503
55	0xfd	-0.032979503
56	0x00	0.0
57	0x00	0.0
58	0x02	0.021986336
59	0x00	0.0
60	0x05	0.05496584
61	0x0a	0.10993168
62	0xfd	-0.032979503
63	0x03	0.032979503
64	0x08	0.08794534
65	0x0f	0.16489752
66	0xfc	-0.04397267
67	0xed	-0.20887019
68	0xfa	-0.06595901
69	0xfb	-0.05496584
70	0x06	0.06595901
71	0x04	0.04397267
72	0x01	0.010993168
73	0xf6	-0.10993168
74	0xfd	-0.032979503
75	0xf0	-0.17589068
76	0x00	0.0
77	0xfb	-0.05496584
78	0xf4	-0.13191801
79	0x04	0.04397267
80	0xfc	-0.04397267
81	0x05	0.05496584
82	0xfb	-0.05496584
83	0xf9	-0.076952174
84	0xed	-0.20887019
85	0xf9	-0.076952174
86	0x05	0.05496584
87	0x01	0.010993168
88	0xff	-0.010993168
89	0xfc	-0.04397267
90	0x01	0.010993168
91	0xef	-0.18688385
92	0xff	-0.010993168
93	0x06	0.06595901
94	0x03	0.032979503
95	0x07	0.076952174
96	0x01	0.010993168
97	0xff	-0.010993168
98	0xf9	-0.076952174
99	0xfa	-0.06595901
100	0xfe	-0.021986336
101	0x08	0.08794534
102	0x09	0.09893851
103	0x06	0.06595901
104	0xff	-0.010993168
105	0x03	0.032979503
106	0x02	0.021986336
107	0xfc	-0.04397267
108	0x08	0.08794534
109	0xf8	-0.08794534
110	0xfe	-0.021986336
111	0x00	0.0
112	0xfe	-0.021986336
113	0x0b	0.120924845
114	0xf9	-0.076952174
115	0x10	0.17589068
116	0xfb	-0.05496584
117	0x02	0.021986336
118	0xfb	-0.05496584
119	0x04	0.04397267
120	0xfb	-0.05496584
121	0x00	0.0
122	0x08	0.08794534
123	0xf0	-0.17589068
124	0x08	0.08794534
125	0xff	-0.010993168
126	0x04	0.04397267
127	0x04	0.04397267
128	0x03	0.032979503
129	0xfe	-0.021986336
130	0x03	0.032979503
131	0x05	0.05496584
132	0x02	0.021986336
133	0xff	-0.010993168
134	0x04	0.04397267
135	0x02	0.021986336
136	0xfc	-0.04397267
137	0xff	-0.010993168
138	0xfe	-0.021986336
139	0xfe	-0.021986336
140	0x13	0.20887019
141	0xff	-0.010993168
142	0xdf	-0.36277455
143	0xfd	-0.032979503
144	0xff	-0.010993168
145	0x03	0.032979503
146	0x03	0.032979503
147	0xfe	-0.021986336
148	0x07	0.076952174
149	0xef	-0.18688385
150	0xfb	-0.05496584
151	0x00	0.0
152	0xff	-0.010993168
153	0x04	0.04397267
154	0x08	0.08794534
155	0xfe	-0.021986336
156	0xfe	-0.021986336
157	0xf5	-0.120924845
158	0x07	0.076952174
159	0xfb	-0.05496584
160	0xfd	-0.032979503
161	0x01	0.010993168
162	0xfa	-0.06595901
163	0x00	0.0
164	0x02	0.021986336
165	0x02	0.021986336
166	0xfb	-0.05496584
167	0xfd	-0.032979503
168	0xff	-0.010993168
169	0x05	0.05496584
170	0x04	0.04397267
171	0x02	0.021986336
172	0x0b	0.120924845
173	0x03	0.032979503
174	0xfa	-0.06595901
175	0xfb	-0.05496584
176	0xf7	-0.09893851
177	0x01	0.010993168
178	0x03	0.032979503
179	0x06	0.06595901
180	0xfc	-0.04397267
181	0x03	0.032979503
182	0xff	-0.010993168
183	0x03	0.032979503
184	0xfe	-0.021986336
185	0x04	0.04397267
186	0x01	0.010993168
187	0xf5	-0.120924845
188	0x02	0.021986336
189	0xfe	-0.021986336
190	0xfe	-0.021986336
191	0x01	0.010993168
192	0xff	-0.010993168
193	0x0f	0.16489752
194	0x01	0.010993168
195	0xfe	-0.021986336
196	0xff	-0.010993168
197	0x04	0.04397267
198	0xff	-0.010993168
199	0xfb	-0.05496584
200	0x00	0.0
201	0x12	0.19787702
202	0xff	-0.010993168
203	0xfc	-0.04397267
204	0x07	0.076952174
205	0x03	0.032979503
206	0x04	0.04397267
207	0x04	0.04397267
208	0xfe	-0.021986336
209	0x05	0.05496584
210	0x06	0.06595901
211	0xff	-0.010993168
212	0x01	0.010993168
213	0x02	0.021986336
214	0x01	0.010993168
215	0x03	0.032979503
216	0x01	0.010993168
217	0xff	-0.010993168
218	0xfe	-0.021986336
219	0xfe	-0.021986336
220	0xff	-0.010993168
221	0xff	-0.010993168
222	0xff	-0.010993168
223	0x03	0.032979503
224	0x02	0.021986336
225	0xff	-0.010993168
226	0xfa	-0.06595901
227	0x05	0.05496584
228	0xff	-0.010993168
229	0x02	0.021986336
230	0x06	0.06595901
231	0x03	0.032979503
232	0x0a	0.10993168
233	0x06	0.06595901
234	0xfa	-0.06595901
235	0x00	0.0
236	0xfc	-0.04397267
237	0xfe	-0.021986336
238	0xf8	-0.08794534
239	0x03	0.032979503
240	0x00	0.0
241	0x00	0.0
242	0x01	0.010993168
243	0xfa	-0.06595901
244	0x08	0.08794534
245	0x00	0.0
246	0x0e	0.15390435
247	0xfd	-0.032979503
248	0xfb	-0.05496584
249	0x02	0.021986336
250	0xf7	-0.09893851
251	0xf9	-0.076952174
252	0x02	0.021986336
253	0x01	0.010993168
254	0x02	0.021986336
255	0x06	0.06595901
