models/autoencoder/float_fallback_quantization/model_pump.tflite (tflite, 278056 bytes, 10 tensors)

model/dense_9/MatMul i1 [640, 128] scale=0.019126156 zero_point=0
0.3060185 0.8032986 0.32514465 -0.19126156 -0.45902777 -0.21038772 -0.05737847 -0.72679394
0.038252313 -0.21038772 -0.21038772 -0.32514465 -0.53553236 0.019126156 0.019126156 0.22951388
-0.5737847 -0.7841724 0.05737847 1.0328125 -0.53553236 -0.11475694 -0.21038772 -0.28689235
-0.26776618 -0.8224247 0.15300925 -0.3060185 0.55465853 -0.45902777 -0.05737847 0.7459201
-0.36339697 0.34427083 0.26776618 0.09563078 -0.38252312 0.076504625 0.13388309 -0.76504624
0.8798032 -0.28689235 -0.15300925 -0.22951388 -0.53553236 -0.038252313 -0.4399016 0.5929108
0.076504625 0.22951388 0.076504625 -0.49728006 0.32514465 0.076504625 -0.13388309 -0.45902777
-0.21038772 -0.4016493 -0.5929108 -0.076504625 -0.6502893 -0.11475694 -0.38252312 -0.34427083
0.038252313 -0.53553236 -0.24864003 0.15300925 -0.17213541 -0.4016493 -0.38252312 -0.49728006
-0.8032986 0.13388309 0.7459201 0.13388309 -0.6502893 0.13388309 0.45902777 -1.5300925
0.076504625 0.28689235 0.34427083 0.26776618 -0.13388309 -0.86067706 0.4016493 -0.45902777
-0.70766777 0.17213541 -0.11475694 -0.24864003 0.4016493 0.19126156 -0.8224247 0.34427083
-0.4399016 -0.32514465 -1.1858217 0.26776618 -0.13388309 -0.6311632 -0.7459201 0.32514465
-0.26776618 0.36339697 0.49728006 0.15300925 -0.8032986 -1.587471 -0.24864003 -0.6311632
-0.36339697 -0.4781539 -0.15300925 0.38252312 0.13388309 0.05737847 -0.26776618 -0.86067706
0.42077544 0.5737847 -0.45902777 0.0 -0.038252313 0.038252313 0.76504624 -0.42077544
0.4016493 0.612037 0.6502893 0.26776618 -0.6311632 0.13388309 0.34427083 -0.93718165
-0.13388309 -0.55465853 -0.09563078 -0.22951388 -0.6311632 0.076504625 -0.019126156 -0.26776618
-0.28689235 -0.24864003 -0.13388309 1.0901909 -0.55465853 0.15300925 -0.19126156 0.019126156
-0.076504625 -0.5929108 -0.21038772 -0.3060185 -0.22951388 0.038252313 0.038252313 0.5929108
-0.05737847 -0.076504625 0.019126156 0.09563078 -0.21038772 -0.09563078 0.38252312 -0.51640624
0.5737847 -0.076504625 0.15300925 0.038252313 -0.55465853 -0.3060185 -0.86067706 0.24864003
0.11475694 -0.4781539 0.24864003 -0.68854165 0.4399016 0.8032986 -0.32514465 -0.11475694
-0.6694155 0.11475694 -0.6311632 -0.53553236 -0.72679394 -0.13388309 0.24864003 -0.38252312
-0.51640624 0.28689235 0.076504625 0.05737847 -0.3060185 -0.17213541 0.22951388 0.019126156
-0.26776618 0.0 0.70766777 -0.019126156 -0.22951388 0.32514465 0.4016493 -1.1475694
-0.22951388 0.4016493 0.4016493 0.6502893 -0.36339697 -0.72679394 0.17213541 -0.32514465
-0.4016493 -0.019126156 -0.22951388 -0.26776618 -0.05737847 0.45902777 -0.6694155 0.5929108
-0.5737847 -0.36339697 -0.09563078 0.17213541 -0.28689235 -0.4016493 -0.32514465 0.09563078
-0.17213541 -0.15300925 0.6502893 -0.019126156 -0.70766777 -1.2623264 -0.9563078 -0.4016493
-0.11475694 -0.612037 -0.15300925 0.076504625 0.4781539 0.11475694 -0.26776618 -0.49728006
0.5737847 -0.038252313 -0.34427083 0.09563078 0.17213541 -0.076504625 0.9563078 -0.28689235
00000000: 102a 11f6 e8f5 fdda 02f5 f5ef e401 010c
00000010: e2d7 0336 e4fa f5f1 f2d5 08f0 1de8 fd27
00000020: ed12 0e05 ec04 07d8 2ef1 f8f4 e4fe e91f
00000030: 040c 04e6 1104 f9e8 f5eb e1fc defa ecee
00000040: 02e4 f308 f7eb ece6 d607 2707 de07 18b0
00000050: 040f 120e f9d3 15e8 db09 faf3 150a d512
00000060: e9ef c20e f9df d911 f213 1a08 d6ad f3df
00000070: ede7 f814 0703 f2d3 161e e800 fe02 28ea
00000080: 1520 220e df07 12cf f9e3 fbf4 df04 fff2
00000090: f1f3 f939 e308 f601 fce1 f5f0 f402 021f
000000a0: fdfc 0105 f5fb 14e5 1efc 0802 e3f0 d30d
000000b0: 06e7 0ddc 172a effa dd06 dfe4 daf9 0dec
000000c0: e50f 0403 f0f7 0c01 f200 25ff f411 15c4
000000d0: f415 1522 edda 09ef ebff f4f2 fd18 dd1f
000000e0: e2ed fb09 f1eb ef05 f7f8 22ff dbbe ceeb
000000f0: fae0 f804 1906 f2e6 1efe ee05 09fc 32f1

model/batch_normalization_8/batchnorm/mul_1 i1 [128, 128] scale=0.0075048124 zero_point=0
-0.17261069 0.037524063 0.022514436 0.045028873 0.31520212 -0.120077 -0.16510588 -0.090057746
-0.08255294 0.03001925 -0.0075048124 -0.13508663 -0.022514436 0.09756256 0.10506737 0.08255294
-0.090057746 -0.03001925 -0.090057746 -0.08255294 -0.09756256 -0.37524062 0.2551636 -0.18762031
0.06754331 0.19512512 -0.022514436 -0.112572186 0.33021176 0.120077 -0.0600385 -0.015009625
0.17261069 -0.06754331 -0.3527262 -0.1275818 0.090057746 -0.090057746 0.06754331 -0.09756256
0.21013474 -0.022514436 0.15760106 -0.0075048124 -0.090057746 0.13508663 0.03001925 0.015009625
0.40525988 0.18011549 -0.21763957 0.14259143 -0.32270694 0.18762031 0.03001925 0.08255294
-0.0075048124 -0.14259143 -0.045028873 -0.17261069 0.07504813 -0.045028873 -0.052533686 0.0600385
0.07504813 -0.08255294 0.08255294 0.090057746 -0.07504813 -0.03001925 -0.18762031 0.06754331
-0.14259143 0.20262994 -0.22514437 -0.112572186 0.0 -0.17261069 0.14259143 -0.0600385
0.18011549 -0.17261069 -0.2551636 0.120077 -0.07504813 0.23264919 0.10506737 -0.27767807
0.13508663 -0.33021176 -0.0600385 -0.0075048124 -0.015009625 -0.2476588 -0.18762031 0.06754331
0.09756256 0.045028873 0.0600385 0.07504813 -0.15009625 0.09756256 -0.037524063 -0.090057746
0.0600385 0.03001925 -0.052533686 0.052533686 0.0 -0.037524063 -0.19512512 0.240154
-0.045028873 -0.06754331 -0.21763957 0.0075048124 -0.0075048124 0.112572186 0.0600385 -0.09756256
-0.120077 -0.06754331 -0.015009625 -0.06754331 -0.07504813 0.045028873 0.08255294 0.0600385
-0.14259143 -0.21763957 0.09756256 -0.045028873 -0.18011549 -0.17261069 -0.33771655 0.0075048124
0.18762031 0.0600385 -0.14259143 -0.08255294 -0.14259143 -0.1275818 0.240154 -0.14259143
-0.14259143 0.1275818 -0.07504813 -0.09756256 0.17261069 -0.1275818 0.15009625 0.037524063
0.052533686 -0.15009625 -0.120077 -0.18762031 0.18762031 0.15009625 0.16510588 0.17261069
-0.28518286 -0.21013474 0.090057746 0.18011549 0.17261069 -0.120077 0.0 -0.112572186
0.36023098 0.1275818 -0.022514436 -0.08255294 -0.022514436 -0.2476588 0.15009625 -0.07504813
-0.08255294 0.03001925 0.19512512 0.06754331 0.045028873 -0.14259143 0.037524063 -0.120077
0.10506737 0.052533686 0.07504813 -0.0075048124 -0.2476588 0.15009625 -0.08255294 -0.20262994
-0.022514436 -0.0075048124 0.21763957 0.2551636 0.23264919 0.2551636 -0.17261069 -0.09756256
0.32270694 0.045028873 0.0600385 0.18762031 0.037524063 -0.0600385 -0.14259143 -0.022514436
0.120077 -0.20262994 0.08255294 -0.14259143 -0.15760106 -0.26266843 -0.18762031 0.14259143
-0.10506737 -0.052533686 -0.045028873 -0.03001925 -0.37524062 0.0075048124 -0.10506737 -0.045028873
-0.03001925 -0.015009625 -0.16510588 0.112572186 -0.20262994 0.2476588 0.03001925 0.022514436
0.052533686 -0.16510588 -0.3001925 -0.112572186 0.015009625 0.32270694 -0.10506737 -0.33771655
-0.16510588 0.03001925 -0.037524063 -0.17261069 0.07504813 -0.17261069 -0.10506737 -0.015009625
0.13508663 0.0 -0.18011549 -0.13508663 0.18762031 -0.22514437 -0.18011549 -0.045028873
00000000: e905 0306 2af0 eaf4 f504 ffee fd0d 0e0b
00000010: f4fc f4f5 f3ce 22e7 091a fdf1 2c10 f8fe
00000020: 17f7 d1ef 0cf4 09f3 1cfd 15ff f412 0402
00000030: 3618 e313 d519 040b ffed fae9 0afa f908
00000040: 0af5 0b0c f6fc e709 ed1b e2f1 00e9 13f8
00000050: 18e9 de10 f61f 0edb 12d4 f8ff fedf e709
00000060: 0d06 080a ec0d fbf4 0804 f907 00fb e620
00000070: faf7 e301 ff0f 08f3 f0f7 fef7 f606 0b08
00000080: ede3 0dfa e8e9 d301 1908 edf5 edef 20ed
00000090: ed11 f6f3 17ef 1405 07ec f0e7 1914 1617
000000a0: dae4 0c18 17f0 00f1 3011 fdf5 fddf 14f6
000000b0: f504 1a09 06ed 05f0 0e07 0aff df14 f5e5
000000c0: fdff 1d22 1f22 e9f3 2b06 0819 05f8 edfd
000000d0: 10e5 0bed ebdd e713 f2f9 fafc ce01 f2fa
000000e0: fcfe ea0f e521 0403 07ea d8f1 022b f2d3
000000f0: ea04 fbe9 0ae9 f2fe 1200 e8ee 19e2 e8fa

model/batch_normalization_7/batchnorm/mul_1 i1 [128, 128] scale=0.013075262 zero_point=0
0.19612893 0.14382789 -0.26150525 0.16997841 -0.091526836 0.091526836 -0.11767736 -0.091526836
-0.2092042 -0.026150525 -0.06537631 0.05230105 -0.091526836 -0.091526836 0.013075262 -0.06537631
-0.026150525 -0.039225787 0.19612893 0.35303208 0.26150525 -0.026150525 0.19612893 -0.05230105
0.026150525 0.15690315 0.2745805 -0.13075262 0.14382789 -0.3138063 -0.026150525 -0.18305367
0.13075262 0.078451574 -0.11767736 -0.24842998 0.19612893 0.35303208 0.15690315 0.091526836
-0.3138063 0.05230105 0.026150525 -0.2745805 0.078451574 -0.19612893 0.13075262 -0.28765577
-0.039225787 -0.078451574 0.026150525 -0.13075262 -0.2092042 0.19612893 -0.18305367 0.13075262
0.091526836 -0.22227946 -0.1046021 -0.5360857 0.11767736 -0.026150525 -0.039225787 -0.039225787
0.35303208 -0.26150525 0.06537631 -0.16997841 -0.19612893 -0.06537631 -0.3138063 -0.013075262
0.013075262 0.039225787 0.14382789 0.11767736 0.1046021 -0.33995682 -0.22227946 0.026150525
-0.05230105 -0.1046021 0.2092042 0.078451574 -0.15690315 0.013075262 0.28765577 0.3138063
0.1046021 0.091526836 0.47070944 0.4837847 -0.1046021 0.13075262 -0.11767736 0.05230105
0.06537631 0.0 0.078451574 -0.24842998 0.026150525 -0.23535472 0.078451574 -0.078451574
0.14382789 0.30073103 0.2092042 -0.11767736 0.14382789 0.026150525 -0.15690315 0.078451574
0.2745805 0.06537631 -0.039225787 0.091526836 -0.1046021 0.026150525 0.0 0.026150525
-0.13075262 0.11767736 0.13075262 0.14382789 -0.026150525 -0.026150525 0.15690315 0.026150525
-0.16997841 0.19612893 0.0 0.11767736 -0.039225787 -0.06537631 -0.06537631 0.2092042
0.06537631 0.19612893 -0.19612893 -0.013075262 -0.06537631 -0.14382789 0.091526836 0.2092042
0.06537631 -0.039225787 0.22227946 -0.05230105 0.06537631 0.11767736 -0.26150525 -0.2745805
0.05230105 0.078451574 0.2745805 0.039225787 0.026150525 0.30073103 -0.23535472 0.078451574
0.078451574 -0.16997841 -0.06537631 0.19612893 0.13075262 -0.11767736 -0.30073103 0.1046021
0.11767736 0.091526836 0.15690315 -0.039225787 0.0 0.15690315 -0.1046021 0.11767736
0.06537631 -0.078451574 0.1046021 0.06537631 -0.18305367 -0.026150525 -0.1046021 0.039225787
0.36610734 0.24842998 -0.19612893 -0.23535472 0.06537631 -0.091526836 0.11767736 -0.2092042
0.36610734 0.13075262 -0.091526836 -0.13075262 -0.026150525 -0.039225787 0.19612893 0.23535472
-0.13075262 0.16997841 0.2092042 0.026150525 0.2092042 -0.039225787 0.1046021 0.1046021
-0.039225787 -0.091526836 -0.13075262 -0.19612893 -0.1046021 0.2092042 0.026150525 0.039225787
0.039225787 0.013075262 -0.091526836 -0.11767736 -0.11767736 0.091526836 0.078451574 0.18305367
0.16997841 -0.14382789 -0.091526836 -0.28765577 0.013075262 0.26150525 0.11767736 -0.013075262
-0.06537631 -0.11767736 -0.091526836 -0.15690315 -0.026150525 0.026150525 0.0 -0.026150525
-0.13075262 0.078451574 -0.091526836 -0.05230105 -0.013075262 -0.2092042 0.30073103 0.15690315
0.18305367 -0.22227946 -0.078451574 0.11767736 0.19612893 0.013075262 -0.039225787 -0.28765577
00000000: 0f0b ec0d f907 f7f9 f0fe fb04 f9f9 01fb
00000010: fefd 0f1b 14fe 0ffc 020c 15f6 0be8 fef2
00000020: 0a06 f7ed 0f1b 0c07 e804 02eb 06f1 0aea
00000030: fdfa 02f6 f00f f20a 07ef f8d7 09fe fdfd
00000040: 1bec 05f3 f1fb e8ff 0103 0b09 08e6 ef02
00000050: fcf8 1006 f401 1618 0807 2425 f80a f704
00000060: 0500 06ed 02ee 06fa 0b17 10f7 0b02 f406
00000070: 1505 fd07 f802 0002 f609 0a0b fefe 0c02
00000080: f30f 0009 fdfb fb10 050f f1ff fbf5 0710
00000090: 05fd 11fc 0509 eceb 0406 1503 0217 ee06
000000a0: 06f3 fb0f 0af7 e908 0907 0cfd 000c f809
000000b0: 05fa 0805 f2fe f803 1c13 f1ee 05f9 09f0
000000c0: 1c0a f9f6 fefd 0f12 f60d 1002 10fd 0808
000000d0: fdf9 f6f1 f810 0203 0301 f9f7 f707 060e
000000e0: 0df5 f9ea 0114 09ff fbf7 f9f4 fe02 00fe
000000f0: f606 f9fc fff0 170c 0eef fa09 0f01 fdea

model/batch_normalization_6/batchnorm/mul_1 i1 [128, 128] scale=0.008764698 zero_point=0
-0.017529396 -0.12270577 0.18405867 -0.008764698 0.22788215 0.061352886 -0.008764698 -0.08764698
0.13147047 -0.14023517 -0.18405867 -0.14023517 -0.15776457 0.09641168 0.13147047 0.18405867
0.008764698 -0.017529396 -0.11394107 0.035058793 -0.12270577 -0.026294094 -0.061352886 0.14023517
0.16652927 -0.070117585 -0.052588187 -0.04382349 -0.078882284 -0.13147047 0.15776457 -0.11394107
0.21035275 0.070117585 -0.008764698 -0.052588187 0.0 0.026294094 -0.12270577 -0.035058793
0.09641168 -0.09641168 0.09641168 0.105176374 0.04382349 0.0 -0.20158806 -0.052588187
-0.017529396 -0.035058793 0.052588187 0.017529396 -0.008764698 -0.052588187 0.0 -0.04382349
0.11394107 -0.34182322 0.23664685 -0.078882284 -0.08764698 -0.04382349 0.026294094 -0.035058793
0.017529396 -0.04382349 0.24541155 0.052588187 0.12270577 -0.04382349 0.26294094 0.13147047
0.23664685 0.28923503 0.0 0.09641168 -0.052588187 -0.16652927 -0.070117585 0.09641168
0.035058793 0.04382349 -0.28923503 0.008764698 0.21911745 0.13147047 -0.08764698 -0.070117585
-0.18405867 0.052588187 0.12270577 0.16652927 0.061352886 0.0 0.08764698 -0.09641168
0.04382349 0.12270577 0.12270577 0.0 -0.19282337 -0.18405867 0.19282337 0.026294094
-0.078882284 -0.105176374 0.32429382 -0.008764698 -0.16652927 0.0 0.04382349 -0.078882284
-0.070117585 -0.09641168 -0.23664685 -0.25417626 0.026294094 -0.16652927 -0.070117585 -0.078882284
0.017529396 -0.105176374 -0.04382349 0.29799974 -0.14023517 -0.11394107 -0.20158806 -0.070117585
0.16652927 -0.026294094 0.11394107 0.061352886 -0.13147047 0.035058793 0.15776457 0.24541155
0.04382349 -0.34182322 -0.052588187 -0.11394107 0.070117585 -0.035058793 -0.070117585 0.15776457
0.078882284 0.070117585 -0.105176374 -0.14023517 0.08764698 -0.14023517 0.105176374 -0.16652927
0.026294094 -0.36811733 -0.008764698 -0.04382349 0.18405867 -0.14899987 0.0 -0.017529396
0.078882284 0.35058793 0.035058793 0.035058793 -0.25417626 -0.14023517 -0.052588187 0.14899987
-0.008764698 -0.18405867 0.4382349 -0.12270577 -0.17529397 0.0 0.078882284 0.16652927
-0.14899987 0.026294094 0.15776457 -0.29799974 -0.070117585 0.017529396 -0.105176374 -0.070117585
-0.08764698 -0.16652927 0.31552914 0.008764698 0.070117585 0.19282337 0.026294094 0.052588187
0.052588187 -0.04382349 0.061352886 -0.27170566 -0.17529397 -0.105176374 0.061352886 0.21035275
-0.070117585 0.33305854 -0.070117585 0.0 -0.035058793 -0.017529396 0.09641168 0.061352886
-0.20158806 -0.052588187 -0.19282337 0.070117585 -0.21911745 0.078882284 -0.13147047 0.09641168
0.026294094 0.29799974 0.11394107 -0.017529396 0.061352886 -0.14899987 -0.026294094 0.026294094
0.13147047 0.26294094 -0.27170566 0.26294094 -0.026294094 -0.11394107 0.017529396 -0.08764698
0.08764698 -0.09641168 0.017529396 0.105176374 -0.061352886 -0.15776457 0.105176374 -0.22788215
0.11394107 0.24541155 0.0 -0.078882284 0.08764698 -0.026294094 0.08764698 -0.25417626
0.14899987 -0.061352886 -0.12270577 0.052588187 -0.061352886 -0.18405867 0.18405867 0.09641168
00000000: fef2 15ff 1a07 fff6 0ff0 ebf0 ee0b 0f15
00000010: 01fe f304 f2fd f910 13f8 fafb f7f1 12f3
00000020: 1808 fffa 0003 f2fc 0bf5 0b0c 0500 e9fa
00000030: fefc 0602 fffa 00fb 0dd9 1bf7 f6fb 03fc
00000040: 02fb 1c06 0efb 1e0f 1b21 000b faed f80b
00000050: 0405 df01 190f f6f8 eb06 0e13 0700 0af5
00000060: 050e 0e00 eaeb 1603 f7f4 25ff ed00 05f7
00000070: f8f5 e5e3 03ed f8f7 02f4 fb22 f0f3 e9f8
00000080: 13fd 0d07 f104 121c 05d9 faf3 08fc f812
00000090: 0908 f4f0 0af0 0ced 03d6 fffb 15ef 00fe
000000a0: 0928 0404 e3f0 fa11 ffeb 32f2 ec00 0913
000000b0: ef03 12de f802 f4f8 f6ed 2401 0816 0306
000000c0: 06fb 07e1 ecf4 0718 f826 f800 fcfe 0b07
000000d0: e9fa ea08 e709 f10b 0322 0dfe 07ef fd03
000000e0: 0f1e e11e fdf3 02f6 0af5 020c f9ee 0ce6
000000f0: 0d1c 00f7 0afd 0ae3 11f9 f206 f9eb 150b

model/batch_normalization_5/batchnorm/mul_1 i1 [128, 8] scale=0.01468554 zero_point=0
-0.3965096 -0.0734277 -1.0573589 0.32308188 0.13216986 0.30839634 -0.30839634 1.3363842
-0.08811324 -0.8811324 -0.9398746 0.7195915 0.19091202 0.734277 -0.27902526 0.11748432
0.734277 -0.9692457 -0.1468554 -0.13216986 -0.13216986 0.4405662 0.9545601 -0.9398746
1.0426733 0.1468554 0.2202831 0.4699373 0.38182405 0.2202831 0.11748432 -1.0133023
0.2202831 -0.04405662 1.7182082 0.45525175 0.33776742 -0.30839634 -0.6902204 -0.05874216
-0.80770475 -1.248271 0.6167927 0.02937108 0.4699373 0.1468554 0.6167927 0.33776742
0.82239026 -0.734277 0.0734277 0.5874216 -0.38182405 -0.17622648 -0.01468554 1.1748432
0.99861676 0.5580505 0.38182405 -0.80770475 -0.24965419 -1.116101 0.17622648 -0.80770475
0.7636481 -0.7489626 0.48462284 0.82239026 -0.30839634 -0.0734277 -1.0720445 0.26433972
-1.4538685 -0.4405662 1.5126107 0.3671385 0.0734277 0.3671385 -0.27902526 0.7195915
0.7049059 -0.20559756 -0.8664469 0.9251891 0.0 0.60210717 -0.26433972 0.6167927
-0.4405662 -0.04405662 0.7636481 0.63147825 -0.5580505 0.45525175 0.42588067 -0.45525175
0.30839634 1.2188998 0.1468554 0.08811324 -0.85176134 0.1468554 0.7489626 -0.20559756
0.33776742 0.2202831 0.3671385 0.543365 -1.468554 0.13216986 -0.30839634 -0.52867943
0.7636481 0.32308188 0.26433972 -0.16154094 0.0734277 0.7195915 -0.66084933 1.3804408
-0.20559756 -0.30839634 -0.19091202 0.5580505 0.8370758 -0.17622648 -0.13216986 0.02937108
0.0 0.42588067 0.05874216 0.26433972 -0.99861676 1.5419817 0.11748432 0.2202831
1.0133023 0.7636481 0.32308188 0.0 0.80770475 0.24965419 -0.48462284 -0.27902526
0.30839634 -1.3070132 0.2937108 -0.01468554 0.08811324 0.08811324 1.0426733 -0.17622648
0.7049059 -0.13216986 -0.30839634 -0.17622648 0.16154094 1.5860384 0.9398746 -0.3671385
0.23496865 0.3671385 -0.9398746 -0.66084933 0.0734277 0.2937108 0.85176134 -0.4405662
0.3965096 0.734277 -0.30839634 0.02937108 -0.5580505 -1.116101 -0.41119513 -1.1307867
0.5874216 -0.27902526 -0.20559756 0.38182405 0.7049059 0.734277 0.9105035 -0.1468554
0.04405662 -1.0720445 -0.80770475 -0.4405662 -0.66084933 -0.5139939 -0.4405662 0.9105035
0.13216986 -0.27902526 -0.02937108 0.67553484 0.3671385 -0.52867943 -0.01468554 0.8811324
-0.67553484 0.02937108 0.85176134 0.7636481 0.4699373 0.27902526 0.05874216 0.895818
-0.60210717 0.3671385 -0.9839312 0.60210717 -0.19091202 -0.9839312 0.0 -0.7049059
-1.2042143 -0.5874216 0.33776742 -0.11748432 0.05874216 -1.1307867 0.48462284 -0.48462284
0.3671385 0.35245296 0.17622648 0.5874216 0.16154094 -0.10279878 -0.6902204 1.7769504
-0.0734277 0.10279878 1.6888372 -0.32308188 0.38182405 -0.6902204 1.2629565 -0.05874216
-0.41119513 0.9839312 -0.45525175 -0.45525175 -0.6167927 -0.23496865 -0.30839634 0.64616376
0.5727361 -0.1468554 0.13216986 -0.5580505 -1.116101 -0.17622648 -0.5139939 0.3671385
00000000: e5fb b816 0915 eb5b fac4 c031 0d32 ed08
00000010: 32be f6f7 f71e 41c0 470a 0f20 1a0f 08bb
00000020: 0ffd 751f 17eb d1fc c9ab 2a02 200a 2a17
00000030: 38ce 0528 e6f4 ff50 4426 1ac9 efb4 0cc9
00000040: 34cd 2138 ebfb b712 9de2 6719 0519 ed31
00000050: 30f2 c53f 0029 ee2a e2fd 342b da1f 1de1
00000060: 1553 0a06 c60a 33f2 170f 1925 9c09 ebdc
00000070: 3416 12f5 0531 d35e f2eb f326 39f4 f702
00000080: 001d 0412 bc69 080f 4534 1600 3711 dfed
00000090: 15a7 14ff 0606 47f4 30f7 ebf4 0b6c 40e7
000000a0: 1019 c0d3 0514 3ae2 1b32 eb02 dab4 e4b3
000000b0: 28ed f21a 3032 3ef6 03b7 c9e2 d3dd e23e
000000c0: 09ed fe2e 19dc ff3c d202 3a34 2013 043d
000000d0: d719 bd29 f3bd 00d0 aed8 17f8 04b3 21df
000000e0: 1918 0c28 0bf9 d179 fb07 73ea 1ad1 56fc
000000f0: e443 e1e1 d6f0 eb2c 27f6 09da b4f4 dd19

model/batch_normalization_4/batchnorm/mul_1 i1 [8, 128] scale=0.0013955613 zero_point=0
-0.004186684 -0.07117362 -0.03209791 0.02093342 0.01116449 -0.016746735 -0.0683825 -0.004186684
0.039075717 -0.0013955613 0.0 -0.008373368 -0.016746735 -0.029306786 0.01116449 -0.047449082
-0.17723627 -0.030702349 -0.009768929 -0.0069778063 0.061404698 -0.040471278 -0.06280026 -0.004186684
0.04465796 -0.06280026 -0.005582245 -0.008373368 -0.0069778063 -0.05721801 -0.04186684 -0.073964745
-0.03349347 -0.027911225 -0.013955613 0.080942556 -0.02093342 0.025120102 -0.029306786 0.030702349
-0.0013955613 -0.025120102 0.0013955613 0.060009133 0.012560051 -0.013955613 0.0027911225 -0.040471278
0.04186684 -0.02232898 -0.10606266 -0.026515665 0.15072061 0.05721801 -0.09071148 0.015351174
-0.005582245 -0.03349347 -0.023724541 0.03209791 -0.037680153 0.05442689 -0.15909399 0.09210704
-0.058613572 -0.04465796 0.025120102 -0.016746735 0.026515665 0.05163577 0.04605352 0.004186684
0.027911225 -0.05721801 0.039075717 0.04186684 -0.0432624 0.08373368 0.05303133 0.079546995
0.05721801 0.09071148 0.02093342 -0.06419582 -0.040471278 0.0013955613 -0.019537859 -0.008373368
-0.016746735 0.030702349 -0.018142296 0.013955613 -0.094898164 0.02093342 0.06419582 -0.050240204
-0.029306786 -0.036284592 -0.06698694 0.018142296 0.018142296 -0.019537859 -0.029306786 0.015351174
-0.05582245 0.0069778063 -0.023724541 -0.02232898 0.019537859 -0.02232898 0.013955613 0.019537859
0.04465796 0.012560051 0.0683825 0.06559138 -0.0432624 -0.018142296 0.04605352 0.05442689
0.073964745 -0.06559138 -0.037680153 0.019537859 0.012560051 -0.0069778063 0.03209791 -0.13118276
0.019537859 0.0935026 -0.01116449 -0.02232898 0.0683825 0.026515665 0.05163577 0.036284592
-0.018142296 -0.026515665 0.0069778063 0.008373368 -0.048844643 -0.009768929 -0.075360306 -0.016746735
-0.013955613 -0.0027911225 0.04186684 -0.050240204 0.0 -0.01116449 0.016746735 -0.029306786
0.08233812 0.02093342 -0.009768929 0.019537859 -0.04186684 0.0027911225 0.05442689 0.0027911225
0.06419582 -0.0013955613 -0.040471278 -0.039075717 -0.03209791 -0.047449082 0.019537859 -0.0013955613
-0.08931592 -0.0069778063 -0.009768929 -0.025120102 0.039075717 -0.023724541 -0.016746735 0.02232898
0.029306786 0.0013955613 0.023724541 -0.023724541 0.039075717 0.02232898 -0.008373368 0.036284592
-0.0069778063 0.06977806 -0.012560051 0.0027911225 0.036284592 -0.0432624 -0.009768929 0.04186684
-0.03349347 -0.080942556 -0.012560051 -0.029306786 -0.06698694 0.06419582 -0.029306786 -0.05721801
0.0027911225 0.07117362 0.03488903 -0.03209791 -0.012560051 -0.09908485 0.12560052 -0.029306786
0.040471278 0.026515665 0.0027911225 -0.015351174 -0.04186684 0.016746735 0.050240204 -0.023724541
-0.018142296 -0.079546995 0.04605352 0.047449082 -0.027911225 -0.02093342 0.04186684 0.018142296
-0.0069778063 -0.03209791 -0.10885378 0.08512924 -0.08931592 0.0069778063 -0.050240204 0.0069778063
0.029306786 -0.013955613 -0.05442689 -0.019537859 -0.08931592 0.0027911225 -0.036284592 -0.03488903
0.047449082 -0.009768929 0.047449082 -0.0069778063 -0.0027911225 0.040471278 0.079546995 0.0
0.026515665 -0.039075717 0.08373368 -0.04465796 0.0027911225 0.018142296 -0.075360306 0.027911225
00000000: fdcd e90f 08f4 cffd 1cff 00fa f4eb 08de
00000010: 81ea f9fb 2ce3 d3fd 20d3 fcfa fbd7 e2cb
00000020: e8ec f63a f112 eb16 ffee 012b 09f6 02e3
00000030: 1ef0 b4ed 6c29 bf0b fce8 ef17 e527 8e42
00000040: d6e0 12f4 1325 2103 14d7 1c1e e13c 2639
00000050: 2941 0fd2 e301 f2fa f416 f30a bc0f 2edc
00000060: ebe6 d00d 0df2 eb0b d805 eff0 0ef0 0a0e
00000070: 2009 312f e1f3 2127 35d1 e50e 09fb 17a2
00000080: 0e43 f8f0 3113 251a f3ed 0506 ddf9 caf4
00000090: f6fe 1edc 00f8 0ceb 3b0f f90e e202 2702
000000a0: 2eff e3e4 e9de 0eff c0fb f9ee 1cef f410
000000b0: 1501 11ef 1c10 fa1a fb32 f702 1ae1 f91e
000000c0: e8c6 f7eb d02e ebd7 0233 19e9 f7b9 5aeb
000000d0: 1d13 02f5 e20c 24ef f3c7 2122 ecf1 1e0d
000000e0: fbe9 b23d c005 dc05 15f6 d9f2 c002 e6e7
000000f0: 22f9 22fb fe1d 3900 13e4 3ce0 020d ca14

model/batch_normalization_3/batchnorm/mul_1 i1 [128, 128] scale=0.07234881 zero_point=0
0.07234881 0.07234881 0.07234881 -0.07234881 0.14469762 0.14469762 -0.07234881 -0.14469762
-0.14469762 0.0 0.07234881 0.07234881 0.21704644 -0.07234881 0.0 0.07234881
-0.07234881 -0.07234881 0.0 0.0 -0.07234881 0.07234881 -0.28939524 0.0
0.0 -0.07234881 -0.14469762 0.07234881 -0.07234881 -0.21704644 0.14469762 0.14469762
-0.14469762 0.07234881 -0.07234881 0.28939524 -0.14469762 -0.14469762 0.0 -0.14469762
-0.07234881 0.07234881 -0.28939524 -0.28939524 -0.07234881 0.0 -0.14469762 0.07234881
-0.07234881 0.0 -0.14469762 0.0 0.14469762 -0.07234881 -0.07234881 0.07234881
0.0 -0.14469762 -0.14469762 0.07234881 -0.14469762 0.0 0.14469762 -0.07234881
-0.07234881 0.14469762 0.07234881 -0.07234881 -0.07234881 0.0 0.0 -0.14469762
0.07234881 0.21704644 -0.07234881 -0.21704644 0.07234881 -0.07234881 -0.14469762 0.07234881
0.0 0.07234881 0.21704644 0.14469762 0.14469762 -0.14469762 0.07234881 0.14469762
-0.14469762 -0.07234881 0.14469762 0.07234881 0.14469762 -0.07234881 0.07234881 -0.07234881
0.0 -0.07234881 0.07234881 0.07234881 -0.14469762 -0.14469762 -0.07234881 0.0
-0.14469762 -0.14469762 0.0 -0.14469762 -0.07234881 -0.07234881 0.21704644 -0.21704644
-0.14469762 0.0 0.14469762 -0.07234881 0.0 0.0 0.07234881 -0.14469762
0.0 0.0 0.0 -0.14469762 0.07234881 0.07234881 -0.14469762 0.0
-0.21704644 0.14469762 -0.07234881 -0.07234881 -0.07234881 0.07234881 -0.07234881 0.07234881
-0.14469762 0.0 0.0 0.07234881 0.07234881 -0.07234881 0.0 0.14469762
-0.07234881 0.0 0.07234881 0.14469762 -0.21704644 0.0 -0.07234881 0.07234881
-0.28939524 0.0 -0.14469762 0.14469762 0.21704644 0.14469762 -0.07234881 0.0
0.0 0.07234881 0.0 -0.14469762 -0.14469762 0.07234881 0.0 0.0
0.07234881 -0.07234881 0.28939524 -0.21704644 -0.14469762 0.07234881 -0.07234881 0.0
0.07234881 -0.14469762 0.07234881 -0.14469762 0.07234881 0.14469762 0.14469762 0.0
-0.21704644 0.28939524 0.21704644 0.0 -0.28939524 -0.07234881 0.14469762 0.14469762
-0.07234881 0.21704644 -0.50644165 0.14469762 0.14469762 0.0 -0.07234881 0.28939524
-0.36174405 -0.14469762 0.0 0.28939524 -0.07234881 0.07234881 0.0 0.28939524
0.14469762 -0.36174405 0.07234881 0.14469762 -0.07234881 -0.21704644 -0.28939524 0.14469762
0.14469762 0.14469762 0.0 0.07234881 0.07234881 0.14469762 -0.21704644 0.14469762
-0.07234881 -0.07234881 0.14469762 -0.14469762 0.28939524 0.07234881 -0.21704644 0.28939524
0.0 0.07234881 -0.07234881 0.0 -0.21704644 -0.21704644 0.07234881 -0.14469762
-0.7234881 0.0 0.28939524 -0.28939524 -0.28939524 0.07234881 -0.14469762 -0.07234881
-0.07234881 0.0 0.07234881 0.07234881 -0.21704644 0.07234881 0.07234881 0.14469762
00000000: 0101 01ff 0202 fffe fe00 0101 03ff 0001
00000010: ffff 0000 ff01 fc00 00ff fe01 fffd 0202
00000020: fe01 ff04 fefe 00fe ff01 fcfc ff00 fe01
00000030: ff00 fe00 02ff ff01 00fe fe01 fe00 02ff
00000040: ff02 01ff ff00 00fe 0103 fffd 01ff fe01
00000050: 0001 0302 02fe 0102 feff 0201 02ff 01ff
00000060: 00ff 0101 fefe ff00 fefe 00fe ffff 03fd
00000070: fe00 02ff 0000 01fe 0000 00fe 0101 fe00
00000080: fd02 ffff ff01 ff01 fe00 0001 01ff 0002
00000090: ff00 0102 fd00 ff01 fc00 fe02 0302 ff00
000000a0: 0001 00fe fe01 0000 01ff 04fd fe01 ff00
000000b0: 01fe 01fe 0102 0200 fd04 0300 fcff 0202
000000c0: ff03 f902 0200 ff04 fbfe 0004 ff01 0004
000000d0: 02fb 0102 fffd fc02 0202 0001 0102 fd02
000000e0: ffff 02fe 0401 fd04 0001 ff00 fdfd 01fe
000000f0: f600 04fc fc01 feff ff00 0101 fd01 0102

model/batch_normalization_2/batchnorm/mul_1 i1 [128, 128] scale=0.012969357 zero_point=0
0.19454035 0.012969357 -0.051877428 -0.051877428 0.051877428 -0.116724215 0.025938714 -0.025938714
-0.103754856 -0.15563229 0.22047907 -0.14266293 -0.051877428 -0.051877428 0.18157099 0.012969357
0.064846784 0.064846784 0.20750971 0.0 -0.14266293 -0.064846784 0.0 -0.051877428
-0.090785496 0.12969357 0.12969357 0.14266293 -0.064846784 0.103754856 0.025938714 -0.103754856
-0.025938714 -0.064846784 -0.25938714 0.051877428 -0.5836211 0.22047907 -0.03890807 -0.051877428
-0.025938714 0.090785496 -0.14266293 0.103754856 0.012969357 -0.03890807 -0.025938714 0.18157099
0.07781614 -0.03890807 -0.16860165 0.116724215 0.0 0.18157099 0.090785496 -0.12969357
-0.19454035 0.03890807 0.14266293 0.0 -0.2723565 -0.03890807 -0.064846784 -0.5058049
0.0 0.07781614 -0.051877428 -0.090785496 -0.090785496 -0.025938714 -0.090785496 0.090785496
0.012969357 0.0 0.051877428 0.064846784 0.116724215 0.012969357 -0.116724215 -0.103754856
0.051877428 -0.25938714 0.16860165 -0.03890807 0.051877428 -0.090785496 0.103754856 -0.20750971
0.23344843 0.07781614 -0.012969357 0.12969357 0.03890807 0.20750971 0.051877428 -0.012969357
-0.12969357 -0.14266293 -0.103754856 -0.07781614 0.07781614 0.15563229 -0.12969357 0.14266293
0.22047907 0.25938714 0.090785496 -0.12969357 -0.23344843 0.03890807 -0.064846784 0.064846784
0.07781614 -0.03890807 -0.20750971 0.064846784 -0.025938714 0.0 -0.16860165 -0.012969357
-0.16860165 0.19454035 -0.064846784 0.25938714 0.090785496 -0.32423392 -0.16860165 0.03890807
-0.16860165 -0.012969357 -0.025938714 0.051877428 0.25938714 -0.116724215 0.051877428 0.0
-0.20750971 0.103754856 -0.03890807 0.012969357 -0.090785496 0.090785496 0.116724215 0.064846784
0.03890807 0.19454035 0.064846784 0.090785496 0.064846784 -0.012969357 -0.03890807 -0.24641778
-0.03890807 0.03890807 0.012969357 0.0 0.0 0.116724215 0.116724215 -0.07781614
0.025938714 -0.064846784 0.012969357 0.14266293 0.064846784 -0.025938714 -0.051877428 -0.03890807
-0.051877428 -0.103754856 -0.25938714 0.16860165 -0.025938714 0.19454035 0.23344843 -0.15563229
0.051877428 -0.012969357 0.090785496 -0.07781614 0.116724215 0.3372033 -0.012969357 -0.14266293
-0.22047907 0.0 -0.090785496 -0.07781614 -0.19454035 0.0 0.0 0.103754856
0.15563229 -0.32423392 -0.012969357 0.03890807 -0.064846784 0.0 -0.090785496 -0.28532586
0.025938714 -0.025938714 0.16860165 -0.19454035 0.14266293 -0.025938714 0.025938714 0.03890807
-0.116724215 0.22047907 0.025938714 -0.20750971 0.07781614 0.07781614 -0.051877428 0.03890807
0.12969357 -0.22047907 -0.012969357 -0.090785496 0.14266293 0.064846784 -0.12969357 -0.03890807
-0.03890807 -0.15563229 -0.19454035 0.012969357 -0.12969357 -0.025938714 -0.051877428 0.090785496
0.103754856 0.2982952 0.025938714 0.0 0.24641778 -0.064846784 -0.12969357 0.025938714
-0.090785496 0.14266293 -0.064846784 -0.12969357 0.24641778 0.03890807 0.24641778 0.14266293
-0.25938714 -0.14266293 0.103754856 -0.103754856 -0.20750971 0.116724215 -0.051877428 -0.051877428
00000000: 0f01 fcfc 04f7 02fe f8f4 11f5 fcfc 0e01
00000010: 0505 1000 f5fb 00fc f90a 0a0b fb08 02f8
00000020: fefb ec04 d311 fdfc fe07 f508 01fd fe0e
00000030: 06fd f309 000e 07f6 f103 0b00 ebfd fbd9
00000040: 0006 fcf9 f9fe f907 0100 0405 0901 f7f8
00000050: 04ec 0dfd 04f9 08f0 1206 ff0a 0310 04ff
00000060: f6f5 f8fa 060c f60b 1114 07f6 ee03 fb05
00000070: 06fd f005 fe00 f3ff f30f fb14 07e7 f303
00000080: f3ff fe04 14f7 0400 f008 fd01 f907 0905
00000090: 030f 0507 05ff fded fd03 0100 0009 09fa
000000a0: 02fb 010b 05fe fcfd fcf8 ec0d fe0f 12f4
000000b0: 04ff 07fa 091a fff5 ef00 f9fa f100 0008
000000c0: 0ce7 ff03 fb00 f9ea 02fe 0df1 0bfe 0203
000000d0: f711 02f0 0606 fc03 0aef fff9 0b05 f6fd
000000e0: fdf4 f101 f6fe fc07 0817 0200 13fb f602
000000f0: f90b fbf6 1303 130b ecf5 08f8 f009 fcfc

model/batch_normalization_1/batchnorm/mul_1 i1 [128, 128] scale=0.00810849 zero_point=0
-0.07297641 -0.13784434 0.01621698 0.024325471 -0.056759432 -0.097301885 -0.17838678 -0.14595282
-0.04054245 0.21082075 0.097301885 0.00810849 0.105410375 -0.056759432 0.056759432 -0.12162735
0.06486792 -0.024325471 0.06486792 0.19460377 0.03243396 -0.048650943 -0.048650943 -0.30001414
-0.07297641 0.105410375 -0.048650943 0.25947168 0.15406132 -0.105410375 -0.113518864 0.024325471
0.0 0.01621698 -0.07297641 -0.048650943 0.04054245 -0.00810849 -0.17838678 0.024325471
0.00810849 0.097301885 0.22703773 0.22703773 0.024325471 0.097301885 0.0810849 -0.105410375
0.0810849 0.024325471 0.024325471 -0.01621698 0.01621698 0.01621698 0.21082075 -0.113518864
-0.15406132 -0.06486792 -0.056759432 -0.113518864 0.0 -0.06486792 0.06486792 -0.01621698
0.113518864 0.12162735 0.0810849 0.06486792 -0.097301885 -0.04054245 -0.056759432 -0.048650943
-0.04054245 0.00810849 -0.056759432 0.06486792 -0.113518864 -0.113518864 0.0 0.0
-0.04054245 -0.01621698 0.0 0.13784434 -0.03243396 -0.03243396 -0.17838678 -0.04054245
0.1621698 0.0 -0.03243396 0.06486792 -0.14595282 -0.00810849 -0.0810849 -0.048650943
0.06486792 -0.03243396 0.105410375 -0.00810849 -0.1702783 -0.14595282 -0.04054245 0.0
0.097301885 0.097301885 0.0810849 -0.01621698 -0.04054245 0.21892923 0.1702783 0.048650943
-0.06486792 -0.22703773 0.08919339 0.15406132 -0.06486792 -0.024325471 -0.06486792 -0.00810849
0.07297641 0.01621698 -0.19460377 -0.056759432 0.0 0.00810849 -0.00810849 -0.06486792
-0.04054245 0.06486792 0.048650943 0.04054245 0.0 0.024325471 0.07297641 -0.14595282
-0.048650943 0.04054245 -0.1621698 0.04054245 0.097301885 0.0810849 -0.07297641 -0.056759432
0.0 -0.00810849 -0.19460377 -0.01621698 -0.00810849 0.113518864 -0.06486792 -0.03243396
0.00810849 0.08919339 -0.14595282 0.024325471 -0.07297641 0.15406132 -0.1702783 -0.12162735
-0.01621698 0.0 0.01621698 -0.0810849 -0.07297641 -0.04054245 0.04054245 0.15406132
-0.0810849 0.024325471 -0.03243396 0.097301885 -0.024325471 0.048650943 -0.0810849 0.113518864
0.06486792 0.056759432 -0.1702783 -0.048650943 -0.01621698 -0.14595282 -0.03243396 0.00810849
0.105410375 -0.18649527 -0.13784434 -0.097301885 0.105410375 -0.26758018 0.097301885 0.00810849
-0.07297641 0.0810849 -0.105410375 -0.1702783 0.03243396 -0.12162735 -0.07297641 0.01621698
-0.00810849 -0.097301885 0.056759432 -0.12162735 0.048650943 -0.024325471 -0.097301885 -0.01621698
0.024325471 0.0 -0.12162735 0.056759432 0.06486792 -0.03243396 -0.1621698 0.00810849
-0.04054245 -0.00810849 0.0 -0.0810849 -0.12973584 0.29190564 -0.06486792 -0.13784434
0.0810849 -0.3162311 0.08919339 -0.097301885 0.00810849 -0.01621698 0.12973584 -0.01621698
0.024325471 0.06486792 -0.04054245 -0.12162735 -0.0810849 0.00810849 -0.113518864 -0.0810849
-0.01621698 0.056759432 -0.056759432 -0.00810849 0.07297641 0.01621698 0.048650943 -0.024325471
-0.105410375 -0.13784434 0.00810849 0.024325471 0.00810849 0.024325471 0.00810849 -0.22703773
00000000: f7ef 0203 f9f4 eaee fb1a 0c01 0df9 07f1
00000010: 08fd 0818 04fa fadb f70d fa20 13f3 f203
00000020: 0002 f7fa 05ff ea03 010c 1c1c 030c 0af3
00000030: 0a03 03fe 0202 1af2 edf8 f9f2 00f8 08fe
00000040: 0e0f 0a08 f4fb f9fa fb01 f908 f2f2 0000
00000050: fbfe 0011 fcfc eafb 1400 fc08 eeff f6fa
00000060: 08fc 0dff ebee fb00 0c0c 0afe fb1b 1506
00000070: f8e4 0b13 f8fd f8ff 0902 e8f9 0001 fff8
00000080: fb08 0605 0003 09ee fa05 ec05 0c0a f7f9
00000090: 00ff e8fe ff0e f8fc 010b ee03 f713 ebf1
000000a0: fe00 02f6 f7fb 0513 f603 fc0c fd06 f60e
000000b0: 0807 ebfa feee fc01 0de9 eff4 0ddf 0c01
000000c0: f70a f3eb 04f1 f702 fff4 07f1 06fd f4fe
000000d0: 0300 f107 08fc ec01 fbff 00f6 f024 f8ef
000000e0: 0ad9 0bf4 01fe 10fe 0308 fbf1 f601 f2f6
000000f0: fe07 f9ff 0902 06fd f3ef 0103 0103 01e4

model/batch_normalization/batchnorm/mul_1 i1 [128, 640] scale=0.00018853639 zero_point=0
0.0022624368 0.00018853639 0.00037707278 -0.0015082911 -0.0032051187 -0.0015082911 0.0011312184 0.0020739003
-0.0005656092 -0.00037707278 -0.00075414556 0.0011312184 0.0018853638 -0.00037707278 0.00075414556 0.0013197548
-0.0011312184 -0.0028280457 -0.0015082911 -0.0035821914 -0.0028280457 0.0 -0.0005656092 0.00075414556
0.0026395095 0.0026395095 0.0009426819 -0.00018853639 -0.0011312184 0.00037707278 0.0030165822 0.0
0.0 -0.0013197548 -0.0015082911 -0.0018853638 -0.00075414556 0.00018853639 0.00018853639 -0.0013197548
-0.0011312184 -0.0018853638 0.0 0.0 0.0016968275 0.0016968275 0.0013197548 -0.00018853639
-0.0018853638 -0.0016968275 -0.0026395095 0.00037707278 -0.0011312184 0.0016968275 0.0005656092 0.00018853639
0.0015082911 0.0016968275 -0.00037707278 0.00075414556 0.0015082911 0.0009426819 0.0016968275 0.0
-0.0009426819 0.0009426819 -0.00037707278 -0.00075414556 0.0009426819 0.0013197548 -0.0005656092 0.0015082911
0.0009426819 0.0005656092 0.0013197548 -0.0028280457 -0.0028280457 -0.002450973 -0.0011312184 -0.0005656092
0.0 -0.00018853639 -0.00037707278 0.00018853639 0.0 0.0 0.0005656092 0.0005656092
0.0016968275 0.0011312184 0.0009426819 0.00075414556 0.00018853639 -0.0005656092 -0.00018853639 -0.00018853639
0.0 0.0013197548 0.00018853639 0.0 -0.0009426819 -0.00037707278 -0.00018853639 -0.00018853639
-0.00018853639 -0.0020739003 0.0009426819 -0.0013197548 -0.00018853639 -0.00075414556 0.0005656092 -0.00037707278
0.0015082911 0.0032051187 0.00075414556 0.0015082911 0.0005656092 0.0 0.00037707278 -0.002450973
0.00018853639 0.0028280457 0.0045248736 0.004901946 0.0041478006 0.0045248736 0.00678731 0.0047134096
0.0018853638 0.00018853639 0.0005656092 -0.0016968275 -0.0028280457 -0.0015082911 0.0013197548 0.0018853638
-0.0005656092 0.0 -0.0011312184 0.0013197548 0.0018853638 -0.0005656092 0.0005656092 0.0016968275
-0.0011312184 -0.0028280457 -0.0009426819 -0.003393655 -0.0028280457 -0.0005656092 0.0 0.0
0.0028280457 0.0032051187 0.00018853639 -0.00037707278 -0.0011312184 0.0011312184 0.0026395095 0.0
0.00018853639 -0.0013197548 -0.0018853638 -0.0016968275 -0.00037707278 -0.00037707278 -0.00018853639 -0.0015082911
-0.0011312184 -0.0018853638 -0.00018853639 0.0 0.0016968275 0.0015082911 0.0013197548 0.00018853639
-0.0016968275 -0.0018853638 -0.0026395095 0.00018853639 -0.0013197548 0.0018853638 0.0005656092 0.00075414556
0.0011312184 0.0016968275 0.0 0.00037707278 0.0009426819 0.0011312184 0.0013197548 -0.00018853639
-0.00037707278 0.0011312184 -0.00075414556 -0.0005656092 0.0013197548 0.0013197548 -0.0005656092 0.0013197548
0.0005656092 0.0009426819 0.0009426819 -0.0028280457 -0.002450973 -0.0018853638 -0.0005656092 -0.00075414556
0.0 -0.00075414556 0.0 0.00018853639 0.0005656092 -0.0005656092 0.00018853639 0.0005656092
0.0016968275 0.0005656092 0.0013197548 0.00037707278 0.0 0.0 -0.0005656092 -0.0005656092
0.0 0.0016968275 -0.00018853639 -0.00018853639 -0.0011312184 -0.0009426819 -0.0005656092 -0.00018853639
-0.00037707278 -0.0018853638 0.00037707278 -0.0005656092 -0.00018853639 0.0 0.0005656092 0.0
0.0016968275 0.0028280457 0.0011312184 0.0013197548 -0.00018853639 -0.0005656092 0.0009426819 -0.0030165822
0.0005656092 0.0020739003 0.003959264 0.0050904825 0.0041478006 0.0045248736 0.006221701 0.004336337
00000000: 0c01 02f8 eff8 060b fdfe fc06 0afe 0407
00000010: faf1 f8ed f100 fd04 0e0e 05ff fa02 1000
00000020: 00f9 f8f6 fc01 01f9 faf6 0000 0909 07ff
00000030: f6f7 f202 fa09 0301 0809 fe04 0805 0900
00000040: fb05 fefc 0507 fd08 0503 07f1 f1f3 fafd
00000050: 00ff fe01 0000 0303 0906 0504 01fd ffff
00000060: 0007 0100 fbfe ffff fff5 05f9 fffc 03fe
00000070: 0811 0408 0300 02f3 010f 181a 1618 2419
00000080: 0a01 03f7 f1f8 070a fd00 fa07 0afd 0309
00000090: faf1 fbee f1fd 0000 0f11 01fe fa06 0e00
000000a0: 01f9 f6f7 fefe fff8 faf6 ff00 0908 0701
000000b0: f7f6 f201 f90a 0304 0609 0002 0506 07ff
000000c0: fe06 fcfd 0707 fd07 0305 05f1 f3f6 fdfc
000000d0: 00fc 0001 03fd 0103 0903 0702 0000 fdfd
000000e0: 0009 ffff fafb fdff fef6 02fd ff00 0300
000000f0: 090f 0607 fffd 05f0 030b 151b 1618 2117
